experiments/pedestrians/models/models_28_Feb_2024_18_54_13_eth_vel_ar3/model_registrar-6.pt (torch, 527902 bytes, 43 tensors)

weight_ih_l0 f4 [128, 6]
0	0xbd875bad	-0.06609283
1	0x3d6a70ff	0.057236668
2	0xbe0ba1bf	-0.1363592
3	0x3d642e1f	0.055708047
4	0xbc25c395	-0.010117431
5	0x3e1555ef	0.14583562
6	0xbe272e38	-0.16326225
7	0xbe43c05e	-0.19116351
8	0xbe41eb6b	-0.18937461
9	0x3e870a53	0.26375064
10	0xbcaad3cb	-0.020852944
11	0x3cd74a22	0.026280466
12	0xbe231c83	-0.15928845
13	0xbda9e103	-0.08294871
14	0x3db478f0	0.088121295
15	0xbdf00675	-0.117199816
16	0xbdd43edd	-0.10363553
17	0x3e146de1	0.1449504
18	0xbd63b63c	-0.055593714
19	0x3cc01e52	0.023451958
20	0x3e60f221	0.21967365
21	0xbddcfc43	-0.107903026
22	0x3bd99c97	0.0066409814
23	0x3e1ba5b9	0.15199937
24	0xbdd06dff	-0.1017723
25	0x3ce610ee	0.028084245
26	0x3d042108	0.032258064
27	0x3efec77e	0.49761575
28	0x3e0250b4	0.12726098
29	0xbde147d4	-0.11000028
30	0x3e0bcb13	0.13651685
31	0x3e017886	0.12643632
32	0x3d91164b	0.0708433
33	0xbe8dbff3	-0.27685508
34	0x3e11fdc3	0.14256959
35	0x3c74675e	0.014917223
36	0xbe256996	-0.16153559
37	0xbb126e29	-0.0022343493
38	0xbe8531cd	-0.26014557
39	0xbe285f53	-0.16442613
40	0x3d65ab47	0.056071546
41	0xbd87ea5e	-0.06636499
42	0xbe1e7e19	-0.1547779
43	0x3e52e586	0.20595369
44	0x3ce18193	0.027527606
45	0xbcd73c57	-0.02627389
46	0x3c8e7f79	0.017394768
47	0x3c2be593	0.0104917465
48	0x3e5284bf	0.20558451
49	0x3d997387	0.07492738
50	0x3dd76336	0.1051697
51	0x3e8ca180	0.27466965
52	0x3d9f89b0	0.07789934
53	0xbd033b3b	-0.03203891
54	0x3d184568	0.037175566
55	0xbdc96d73	-0.09835329
56	0xbef77f66	-0.48339385
57	0x3d9a6364	0.075384885
58	0x3d9efffd	0.0776367
59	0xbc56f64d	-0.013120246
60	0x3d6dc2c5	0.058047075
61	0x3e0d1e5e	0.13781115
62	0xbea4c2ae	-0.3217978
63	0xbea9bd2e	-0.33152145
64	0xbb2adb17	-0.002607053
65	0xbc235f82	-0.009971501
66	0xbbd2d520	-0.006434098
67	0xbcb87b4e	-0.022519734
68	0xbef80606	-0.48442096
69	0x3db4fef3	0.0883769
70	0x3d35db75	0.044398744
71	0x3da3418f	0.07971489
72	0xbda57fe3	-0.08081033
73	0xbe3c6040	-0.18396091
74	0x3def4364	0.116827756
75	0x3e2334d8	0.15938127
76	0x3d0b5be2	0.034023173
77	0xbbe0d5be	-0.0068614176
78	0xbc87912e	-0.01654872
79	0x3d9b0121	0.07568575
80	0x3df0ef8a	0.117644385
81	0x3dc3e230	0.09564626
82	0xbc0b2fbf	-0.00849527
83	0xbc0b9dd6	-0.008521518
84	0xbdf78222	-0.12085368
85	0xbdedc4e2	-0.11609818
86	0xbde67df4	-0.112544924
87	0x3f085ce0	0.53266716
88	0xbb232ef6	-0.0024899817
89	0x3bcadc16	0.006190787
90	0xbe16a70e	-0.14712164
91	0x3e25e46c	0.16200417
92	0xbe09a5eb	-0.13442199
93	0x3e9e3756	0.30901593
94	0xbdcc83ae	-0.099860534
95	0xbcb037b1	-0.02151093
96	0x3e2b10f6	0.16705689
97	0x3d91bffa	0.07116695
98	0x3eac0d1c	0.33603752
99	0x3e1cd88e	0.15316984
100	0x3c71a6d6	0.014749249
101	0xbde6a9bf	-0.11262845
102	0x3d2d1d36	0.042264186
103	0xbdfabeea	-0.12243445
104	0xbcc1c6ce	-0.023654368
105	0xbd40743d	-0.046985853
106	0x3d8a806e	0.06762777
107	0x3d5b7031	0.05357379
108	0x3dbbd070	0.09170616
109	0x3d089b94	0.033351496
110	0xbaf439e5	-0.0018632977
111	0xbf17f6c8	-0.59360933
112	0xbbbc549b	-0.0057473904
113	0x3b2fe127	0.0026837082
114	0xbd51764e	-0.051138215
115	0x3ca82ef4	0.020530201
116	0xbe6c9bc8	-0.23106301
117	0xbcf3023d	-0.029664153
118	0x3c6219cf	0.013800099
119	0x3dec841e	0.11548637
120	0xbd21fd7f	-0.039548393
121	0x3d4f3a74	0.050592855
122	0x3e6d858a	0.23195472
123	0x3e5c27f4	0.21499616
124	0x3a4d304d	0.0007827327
125	0xbdac467b	-0.084118806
126	0x3d60dac5	0.054896135
127	0x3d50b9fb	0.050958615
128	0xbdcb226e	-0.09918676
129	0x3dc93a26	0.09825544
130	0xbb293f28	-0.0025824998
131	0x3aa1c091	0.0012340714
132	0x3a6b5ab3	0.0008978054
133	0xbd85cc63	-0.06533124
134	0xbd49e03d	-0.049286116
135	0xbcef1ee8	-0.029189542
136	0x3dacb2da	0.08432551
137	0x3cff9c46	0.031202447
138	0xbc8c9009	-0.017158525
139	0x3bd3d0e0	0.006464109
140	0xbe047b8f	-0.12937759
141	0xbe79bcc6	-0.24388418
142	0x3d0a2f79	0.03373668
143	0x3dcd94db	0.100381576
144	0x3d7c99c1	0.06167007
145	0x3cb76405	0.02238656
146	0x3de95040	0.113922596
147	0xbdbd6406	-0.092475936
148	0xbd4fac7b	-0.0507016
149	0xbda08c1e	-0.07839225
150	0xbdabfa0d	-0.08397303
151	0xbd2f8892	-0.042854853
152	0xbe7056e0	-0.2347064
153	0x3e1a37eb	0.15060394
154	0xbd2ad4ec	-0.041706964
155	0x3ca4f1ff	0.020134924
156	0xbd77e167	-0.060517695
157	0x3d47920d	0.04872327
158	0xbe6eacfa	-0.23308173
159	0xbd90cc52	-0.07070221
160	0x3d81b072	0.063324824
161	0x3e0740fd	0.13208385
162	0xbe034fd5	-0.12823422
163	0x3e241bd8	0.16026247
164	0x3e34fdcf	0.17674945
165	0x3e2a7b33	0.1664856
166	0x3c0a0183	0.008423212
167	0x3d2c4231	0.042055313
168	0x3e1bb6e6	0.15206489
169	0x3dd1a729	0.102369614
170	0xbe9c57fd	-0.3053588
171	0xbdf08020	-0.11743188
172	0x3d831f74	0.064024836
173	0xba8a1e7b	-0.0010537648
174	0xbdbfe99f	-0.093707316
175	0xbe1ad517	-0.1512035
176	0xbe4767b1	-0.19473149
177	0x3d623298	0.05522403
178	0x3e4e75e5	0.2016216
179	0xbcf33be3	-0.029691642
180	0xbcc358e7	-0.023846103
181	0x3d8a1b60	0.067435026
182	0x3ebdbfc8	0.3706038
183	0xbe75a14d	-0.23987313
184	0xbd68c8e2	-0.0568322
185	0xbd53efbb	-0.051742297
186	0xbdc90ee2	-0.09817292
187	0x3d756be8	0.05991736
188	0x3ec8dffb	0.39233384
189	0x3dbf2e1e	0.09334968
190	0xbdc9cc11	-0.09853376
191	0xbdf63f90	-0.12023842
192	0x3d31e460	0.043430686
193	0x3e317e94	0.17333442
194	0xbd2872e4	-0.041125193
195	0xbdca4d56	-0.09878032
196	0xbda00e70	-0.07815254
197	0xbd91d9aa	-0.07121594
198	0x3e0b8dd1	0.13628317
199	0x3b78674e	0.0037903371
200	0x3d921164	0.07132223
201	0x3c931e38	0.017958745
202	0xbd0a57ba	-0.03377507
203	0x3cba37c5	0.022731671
204	0xbdebb8e9	-0.11509878
205	0x3d2a60ab	0.041596096
206	0xbb1cd7ec	-0.002393241
207	0x3c415242	0.011799397
208	0x3b30820f	0.002693299
209	0xbc95ee60	-0.018302143
210	0xbdde9575	-0.108683504
211	0xbdad5f30	-0.08465421
212	0x3ca6b69b	0.020350745
213	0xbc449436	-0.011998227
214	0x3d1830ed	0.037156034
215	0x3c0cc6b6	0.008592298
216	0x3d6dc7cc	0.05805187
217	0xbd875663	-0.06608274
218	0xbb07a48e	-0.0020697447
219	0x3c832ddc	0.016013078
220	0xbe3ca3af	-0.18421815
221	0xbdaa37f9	-0.08311457
222	0x3d8dea94	0.06929508
223	0xbd8e89dd	-0.06959889
224	0xbadabee4	-0.001668897
225	0xbe77eef6	-0.2421225
226	0xbb9221b2	-0.004459583
227	0xbdd8808c	-0.10571393
228	0x3d8c6977	0.06856053
229	0x3b1b3604	0.002368332
230	0xbc1436a4	-0.00904623
231	0x3dd2ca3f	0.10292482
232	0xbddb4896	-0.10707204
233	0x3c430f55	0.011905511
234	0xbd7d8cbc	-0.061901793
235	0xbdda7921	-0.10667635
236	0x3c289f8e	0.010291947
237	0x3ba5f2b1	0.0050643315
238	0xbbde1ebc	-0.006778566
239	0xbd9288cc	-0.07154998
240	0x3e0f1cd7	0.13975845
241	0xbd7842e9	-0.060610685
242	0xbab16bbc	-0.0013536136
243	0x3c4fac32	0.012675332
244	0x3d9d2aff	0.076742165
245	0x3e037811	0.1283877
246	0xbdc3188a	-0.09526165
247	0xbd8a98be	-0.067674145
248	0x3cd9f1f5	0.026604632
249	0x3d92ef9f	0.0717461
250	0x3c903ed7	0.01760809
251	0xbdc1750f	-0.09446155
252	0x3e1a9338	0.15095222
253	0xbe24881e	-0.1606755
254	0x3e150fb7	0.14556776
255	0xbddca135	-0.10772935

weight_hh_l0 f4 [128, 32]
0	0xbdf4a527	-0.11945563
1	0xbdbe0001	-0.092773445
2	0xbd5852dc	-0.052813396
3	0x3e228545	0.15871151
4	0xbd4de8be	-0.05027079
5	0xbd3e0ce1	-0.046399
6	0xbde95ab5	-0.11394254
7	0xbc576afd	-0.013148067
8	0x3df65b7c	0.12029168
9	0x3e18f36f	0.14936613
10	0x3ce68c0e	0.028142955
11	0x3e415105	0.18878563
12	0xbdcaf8b5	-0.09910718
13	0x3de4c749	0.11170823
14	0x3df5b3a9	0.11997158
15	0x3e349697	0.1763557
16	0x3dcc52db	0.09976741
17	0xbe24d901	-0.16098405
18	0x3de02c18	0.1094591
19	0xbe338a00	-0.17533112
20	0xbdc10c30	-0.09426153
21	0xbda284b2	-0.07935466
22	0xbda48be7	-0.08034497
23	0xbe36b798	-0.17843473
24	0x3e0e5801	0.13900758
25	0xbd4051d3	-0.046953034
26	0x3dcf29c9	0.10115392
27	0x3c180a55	0.009279807
28	0x3cb7541f	0.02237898
29	0x3d9970c3	0.07492211
30	0xbd12aee9	-0.03581134
31	0xbe303b33	-0.17210083
32	0x3dc22980	0.09480572
33	0xbe0a41a1	-0.13501598
34	0x3bdd8112	0.006759771
35	0xbb091967	-0.0020919682
36	0xbcc2c54c	-0.02377572
37	0x3e91c7c9	0.28472736
38	0xbd886b07	-0.06661039
39	0xbd271b24	-0.040797368
40	0x3ea1da69	0.31611946
41	0xbc120444	-0.00891215
42	0xbe84e239	-0.25953844
43	0x3d33e9b7	0.04392406
44	0xbe37769e	-0.17916343
45	0x3e28283a	0.16421595
46	0x3e972131	0.2951751
47	0xbcebfaee	-0.028806176
48	0x3db9efe5	0.090789594
49	0x3dee5813	0.116378926
50	0xbde0123f	-0.1094098
51	0xbb11ce00	-0.002224803
52	0x3e81a207	0.2531893
53	0xbc4137a1	-0.011793048
54	0xbe0b7557	-0.1361898
55	0xbbe16267	-0.0068781856
56	0x3c88a45a	0.016679931
57	0xbda22d78	-0.07918829
58	0xbda2d483	-0.0795069
59	0xbec3b790	-0.38225985
60	0x3d125ac7	0.035731103
61	0x3da001e6	0.07812862
62	0x3b46119f	0.0030222905
63	0xbdabd389	-0.083899565
64	0x3d521cdd	0.051297057
65	0xbdd1b01e	-0.1023867
66	0xbe08ddb4	-0.13365823
67	0x3e407b1e	0.18796965
68	0x3cba67a4	0.022754498
69	0x3d599f58	0.053130478
70	0xbe0cb13d	-0.13739486
71	0xbe1d781e	-0.15377852
72	0xbd18ec7b	-0.0373349
73	0x3e8aea54	0.27131903
74	0xbe6055a6	-0.21907672
75	0x3dffe51c	0.12494871
76	0xbe0fbc9f	-0.14036797
77	0xbe1be97b	-0.15225784
78	0x3d9424ac	0.07233557
79	0xbcbbc58d	-0.022921348
80	0xbdec0613	-0.11524596
81	0xbd38b51f	-0.045094606
82	0x3e2ab029	0.16668762
83	0xbe64b332	-0.22333983
84	0xbc41d751	-0.011831121
85	0x3e42f967	0.19040452
86	0x3d03b824	0.032158032
87	0x3e46dec4	0.19420916
88	0x3e3e96e8	0.18612254
89	0x3e85f2a8	0.26161695
90	0x3e2eca7b	0.17069428
91	0x3df7edd5	0.1210591
92	0xbb974cbf	-0.004617303
93	0x3ca29c08	0.019849792
94	0xbd954c91	-0.072899945
95	0x3e396cb1	0.18107869
96	0xbd9cad08	-0.076501906
97	0x3d55e4ef	0.05222028
98	0xbb41e425	-0.0029585448
99	0x3dfb9b05	0.12285427
100	0xbe1dc58c	-0.1540739
101	0xbe135fd6	-0.14392027
102	0x3b9fd3c1	0.004877538
103	0x3e1976cf	0.14986728
104	0xbde4bbe0	-0.11168647
105	0x3dd29ecb	0.102841936
106	0x3c3034e0	0.010754794
107	0xbe4bf69e	-0.19918296
108	0xbe65d287	-0.22443591
109	0xbde49c5a	-0.11162634
110	0xbe580aae	-0.21097824
111	0xbdd17fe6	-0.10229473
112	0xbda98fcc	-0.0827938
113	0x3e575a1e	0.2103047
114	0xbd9406ae	-0.072278365
115	0xbdcf127d	-0.10110948
116	0xbd8be3b5	-0.06830541
117	0x3d85ef26	0.065397546
118	0x3dbbb4aa	0.09165318
119	0xbdf0c0a7	-0.117554955
120	0xbdb7dcef	-0.089776866
121	0x3e331c48	0.17491257
122	0xbe0de2d2	-0.13856056
123	0x3ce1df76	0.027572375
124	0xbe42bb8b	-0.19016854
125	0x3cfbc89c	0.030735306
126	0x3df3273f	0.1187272
127	0x3dbca496	0.0921108
128	0xbea16cca	-0.31528312
129	0xbe1f692b	-0.15567462
130	0x3d99fb0a	0.07518585
131	0xbe143286	-0.14472398
132	0x3e42e3e1	0.19032241
133	0xbe12a65e	-0.14321277
134	0xbd04a3bc	-0.03238271
135	0x3e0e901e	0.13922164
136	0xbe0d9454	-0.13826114
137	0x3c43f96c	0.011961322
138	0xbe896bda	-0.26840097
139	0x3df70005	0.120605506
140	0xbdd964de	-0.10614942
141	0x3dfcae59	0.12337942
142	0x3c89f26e	0.016839232
143	0xbe5a368f	-0.21309875
144	0x3be6055d	0.0070196823
145	0xbdabadb1	-0.083827384
146	0xbdc3d7af	-0.09562623
147	0x3ceea5fa	0.029131878
148	0x3d0852ea	0.033282198
149	0x3e3aab95	0.18229516
150	0xba4130ef	-0.00073696574
151	0xbd97cab9	-0.07411713
152	0x3e0969e4	0.134193
153	0x3c2e57e1	0.010641069
154	0xbdc64645	-0.096813716
155	0xbe47f30d	-0.1952631
156	0x3aa53e76	0.0012607116
157	0xbe37dc3b	-0.17955105
158	0x3e4fcef6	0.20293793
159	0xbe617eb2	-0.22020987
160	0x3e26a263	0.16272883
161	0xbdc1dc36	-0.0946583
162	0x3dd337d6	0.10313384
163	0xbe1197b9	-0.14218034
164	0xbd8a878f	-0.06764137
165	0xbd8d8565	-0.069102086
166	0x3d34686e	0.044044904
167	0xbdca453c	-0.09876487
168	0xbdabfe14	-0.08398071
169	0xbc093087	-0.008373386
170	0x3e7ba740	0.2457552
171	0xbea2bad5	-0.31783167
172	0xbe2c82f2	-0.16846827
173	0x3d623ed2	0.05523569
174	0xbdf94ceb	-0.12172874
175	0x3dd51097	0.10403555
176	0xbe0e728f	-0.13910888
177	0x3e452cca	0.19255367
178	0xbe0f3bf3	-0.13987713
179	0x3dbee41e	0.09320854
180	0xbcff61c3	-0.031174546
181	0xbd3621e5	-0.044465918
182	0xbce1f249	-0.02758135
183	0xbdc13985	-0.09434799
184	0xbdd9360b	-0.10606011
185	0xbc55e1bd	-0.0130543085
186	0x3decdc08	0.11565405
187	0x3db1a115	0.08673302
188	0xbda97be9	-0.08275587
189	0x3d5c4730	0.053778827
190	0x3d8dea16	0.06929414
191	0x3e8d3bef	0.27584788
192	0x3e4d3fb2	0.20043829
193	0x3e39b3df	0.18135022
194	0xbe717b32	-0.23582152
195	0x3e650308	0.22364438
196	0xbc9fd008	-0.019508377
197	0x3d473851	0.048637692
198	0xbc920ba1	-0.01782781
199	0xbdbf1571	-0.093302615
200	0xbcd8ee13	-0.02648071
201	0xbc3ffc02	-0.011717798
202	0xbd9835d9	-0.074321456
203	0xbe9a23e2	-0.301055
204	0xbba9d928	-0.0051833577
205	0x3de2d47b	0.11075684
206	0x3c83e848	0.016101971
207	0x3e4043b1	0.18775822
208	0xbc6d1773	-0.014470923
209	0xbe123c97	-0.14280926
210	0xbe06688a	-0.13125816
211	0xbdf5dcd3	-0.120050095
212	0x3d87f4ad	0.06638465
213	0x3e722831	0.23648144
214	0x3e11caa6	0.1423746
215	0x3d1b7144	0.037949815
216	0xbd085d16	-0.0332919
217	0xbd57f305	-0.052721996
218	0x3e52aa07	0.20572673
219	0xbeae46be	-0.34038347
220	0xbe3c22f6	-0.18372712
221	0x3e31fd41	0.17381765
222	0xbdbf870a	-0.093519285
223	0x3d513776	0.051078282
224	0x3e357308	0.17719662
225	0xbd9b5419	-0.075844
226	0xbd83996a	-0.06425746
227	0x3d1da996	0.038491808
228	0xbd73ff47	-0.059569623
229	0x3dab6e45	0.083706416
230	0x3c8ee7a8	0.017444447
231	0xbd07c877	-0.033150163
232	0xbd425e1c	-0.04745303
233	0xbd2cbf86	-0.04217484
234	0xbdae141d	-0.0849993
235	0xbe33f0b2	-0.17572287
236	0x3de3a7ba	0.11115976
237	0x3bf6fc4e	0.0075374013
238	0x3d01e453	0.031711888
239	0x3deb7acb	0.1149803
240	0x3d38fce7	0.04516306
241	0xbd89e157	-0.06732433
242	0xbdfa5c58	-0.122246444
243	0xbbe3e45b	-0.0069547123
244	0xbe3260f5	-0.17419799
245	0x3b567523	0.0032723628
246	0xbd9d3b32	-0.07677306
247	0xbe04be74	-0.12963277
248	0x3dea5d64	0.11443594
249	0x3e6106dc	0.21975273
250	0x3d2a806e	0.041626386
251	0x3e150435	0.14552386
252	0x3d91e081	0.07122899
253	0x3e017945	0.12643917
254	0x3db5c523	0.088754915
255	0x3e1c1d68	0.15245593

bias_ih_l0 f4 [128]
0	0x3c63a6b3	0.013894725
1	0xbda07b1b	-0.078359805
2	0x3d3f48ab	0.04670016
3	0xbe03b4f8	-0.12862003
4	0xbcb7f271	-0.022454472
5	0x3e85f293	0.26161632
6	0xbdd261f9	-0.10272593
7	0xbe464937	-0.19363867
8	0x3dcc4141	0.09973384
9	0x3da647c0	0.08119154
10	0x3e8a2e85	0.26988617
11	0x3eab6e3c	0.3348254
12	0x3da23173	0.07919588
13	0xbe199f2d	-0.15002127
14	0x3dbed208	0.09317404
15	0xbd18bae1	-0.037287597
16	0x3d9d74bb	0.0768828
17	0x3e2441c4	0.16040713
18	0x3db97bc0	0.090568066
19	0x3e171d05	0.14757164
20	0x3da4d77d	0.08048914
21	0xbcd82e46	-0.026389252
22	0xbda9817f	-0.082766525
23	0xbd4ab059	-0.049484584
24	0x3e336d06	0.17522058
25	0x3e87bf95	0.26513353
26	0xbbea9e5e	-0.007159992
27	0x3e73d1f7	0.23810564
28	0x3de2c364	0.11072424
29	0xbd9fffd2	-0.07812466
30	0xbda058f4	-0.078294665
31	0x3e2c0e64	0.16802365
32	0x3e4a393f	0.197484
33	0xbe7ff8cc	-0.24997252
34	0xbe2d24f0	-0.16908622
35	0x3dc44944	0.09584287
36	0xbe39e903	-0.18155293
37	0x3cd8b6ed	0.026454413
38	0xbe7281c4	-0.23682314
39	0xbd2a5488	-0.04158452
40	0xbdcbdf50	-0.09954703
41	0x3d39afb0	0.045333564
42	0xbbb831c7	-0.0056211683
43	0x3e146f5e	0.14495608
44	0xbd5150e3	-0.05110253
45	0x3d86d599	0.06583709
46	0xbd314f10	-0.04328829
47	0xbdc5462e	-0.09632526
48	0x3ddde492	0.10834612
49	0x3d85f54c	0.06540927
50	0xbda30e51	-0.07961715
51	0x3d7b62c2	0.06137348
52	0xbe622aa7	-0.22086583
53	0x3cf771b4	0.030205585
54	0x3d50156a	0.050801672
55	0x3cfdd94b	0.030987402
56	0x3d602872	0.05472607
57	0x3e9192a7	0.284322
58	0x3dbb0ec7	0.09133678
59	0x3e6554d8	0.22395647
60	0x3d96dada	0.073659614
61	0xbdd60cd5	-0.10451666
62	0xbe4e6358	-0.20155084
63	0x3c45bd8e	0.012069119
64	0xbd4ba217	-0.049715128
65	0x3e150cc1	0.14555646
66	0xbe418ded	-0.18901797
67	0x3e511cb4	0.20421106
68	0xbe062ebc	-0.13103765
69	0x3dbfeddc	0.0937154
70	0x3d13f7c5	0.036124963
71	0x3e0b265d	0.13588853
72	0x3dd87b76	0.10570423
73	0x3e5d6a7c	0.21622652
74	0xbe6066fb	-0.21914284
75	0x3e068719	0.13137473
76	0xbe96ef8e	-0.2947964
77	0xbdc15b14	-0.094412
78	0xbde9fcbd	-0.11425159
79	0x3d4e346d	0.050342966
80	0xbe4285a4	-0.18996292
81	0x3db52391	0.088446744
82	0xbcce225f	-0.025162874
83	0xbdfac707	-0.12244993
84	0x3d2295f6	0.039693795
85	0x3e6c1123	0.23053412
86	0x3c87827c	0.016541712
87	0x3c845c2c	0.016157232
88	0x3e83d7ab	0.2575048
89	0x3cd93f8b	0.026519557
90	0x3e4949c4	0.19657046
91	0xbe9f3f73	-0.31103095
92	0xbe56a49b	-0.2096123
93	0xbd979a5c	-0.074024886
94	0x3d7d7e09	0.061887775
95	0x3c613c93	0.013747352
96	0x3d8b7a4b	0.06810435
97	0xbdd86da7	-0.105677895
98	0x3dd70a46	0.105000064
99	0xbe491132	-0.19635466
100	0x3de9be5a	0.1141326
101	0x3e0b9245	0.13630016
102	0xbd992fb8	-0.07479805
103	0xbe5ebe3b	-0.21752255
104	0xbc394f96	-0.011310479
105	0x3e1404c7	0.14454947
106	0x3d59f8c4	0.053215757
107	0x3e616a67	0.22013246
108	0xbd0011e7	-0.031267073
109	0xbe00c521	-0.12575199
110	0x3e58381b	0.21115153
111	0xbd424270	-0.04742664
112	0x3e28235a	0.16419736
113	0x3cad5ae4	0.021161504
114	0x3e36d772	0.17855623
115	0xbbba9989	-0.0056945723
116	0x3e3c1d84	0.18370634
117	0xbd8bc9cf	-0.06825601
118	0xbe4eeb12	-0.2020686
119	0xbd96323c	-0.073338
120	0xbdc89e58	-0.09795827
121	0x3ec27899	0.37982634
122	0x3db0c372	0.08631028
123	0x3e1a915b	0.15094511
124	0x3e28ab42	0.1647158
125	0x3d09b423	0.033619057
126	0xbca9216b	-0.020645818
127	0x3e0395a6	0.12850055

bias_hh_l0 f4 [128]
0	0xbcf8ff61	-0.030395212
1	0xbd85a2f9	-0.06525225
2	0xbdb25c4f	-0.08709013
3	0x3d069ba4	0.032863274
4	0x3df87754	0.12132135
5	0x3c9121a5	0.017716238
6	0xbe5147dd	-0.2043757
7	0xbc83ad55	-0.016073862
8	0x3e3d4eff	0.18487166
9	0x3e7bfe2c	0.24608678
10	0x3c5c1340	0.013432324
11	0x3e57098a	0.20999733
12	0xbe22eaa1	-0.15909816
13	0x3e13b59e	0.1442475
14	0x3e08f27f	0.13373755
15	0x3dfc2d4c	0.12313327
16	0xbc2537ce	-0.010084106
17	0x3e1ca379	0.15296735
18	0xbba7da11	-0.005122431
19	0x3dd38c05	0.10329441
20	0x3e69a473	0.22816639
21	0x3e1e081f	0.15432785
22	0xbd5e2bd2	-0.05424101
23	0x3c72b39b	0.014813329
24	0x3d9d73ff	0.0768814
25	0x3e8000a9	0.25000504
26	0x3d87f9fa	0.06639476
27	0x3e160a47	0.14652358
28	0x3cee5f33	0.029098129
29	0xbdb3223c	-0.08746764
30	0xbc0fc884	-0.008775834
31	0x3e5f73a4	0.21821457
32	0x3ddeaaf1	0.10872448
33	0xbe654181	-0.22388269
34	0x3d8c7fb4	0.06860295
35	0xbde1e5a0	-0.110301256
36	0x3e01db1e	0.12681243
37	0x3e41d747	0.18929778
38	0xbdc45d22	-0.09588076
39	0xbe3ee238	-0.18640983
40	0xbcda690b	-0.026661417
41	0xbc326638	-0.010888629
42	0x3c5a206b	0.013313393
43	0x3dab8e20	0.083767176
44	0xbd5cb65a	-0.05388484
45	0xbde8a6e2	-0.11359955
46	0x3d80573c	0.06266639
47	0xbd3d4a19	-0.046213243
48	0xbcb7ece6	-0.02245183
49	0xbb24cabb	-0.002514525
50	0xbd51fa69	-0.0512642
51	0xbdf5949d	-0.11991236
52	0xbd9d9c8b	-0.07695874
53	0xbe07c5da	-0.13259068
54	0xbe30660f	-0.17226432
55	0x3b449a21	0.0029999095
56	0xbe186daf	-0.14885591
57	0xbcc71e30	-0.024306387
58	0xbe2617c6	-0.16220006
59	0x3e272e8f	0.16326354
60	0x3d3a1dc1	0.04543853
61	0x3e04814b	0.12939946
62	0xbd8e4466	-0.0694664
63	0x3ea07ddd	0.31346026
64	0xbeaa7b9a	-0.33297426
65	0xbdfc590d	-0.123216726
66	0xbc9b260e	-0.018939044
67	0x3e18255b	0.14858
68	0x3e00a344	0.12562281
69	0x3e010fbd	0.1260366
70	0xbe199e38	-0.15001762
71	0x3e3b2a77	0.18277918
72	0x3e7ce380	0.2469616
73	0x3dfb1a2d	0.12260852
74	0xbdbb00ba	-0.09130998
75	0x3e183c87	0.1486684
76	0xbde9a42b	-0.11408266
77	0xbce51ca8	-0.027967766
78	0xbe44905c	-0.19195694
79	0x3e4951c4	0.19660097
80	0xbdc6b36a	-0.09702189
81	0x3ea9638f	0.3308377
82	0xbdcc37d2	-0.099715844
83	0xbe7f01ee	-0.2490308
84	0xbdf0312e	-0.1172813
85	0x3e2e29b9	0.17008103
86	0xbe688087	-0.2270528
87	0x3e8749dc	0.26423538
88	0x3c9bb664	0.019007869
89	0x3e0754fd	0.13216014
90	0x3e4c5391	0.19953753
91	0xbe48e487	-0.19618426
92	0xbe4ae9cd	-0.1981575
93	0xbeb49113	-0.35266933
94	0x3d18f057	0.03733858
95	0x3df1235b	0.11774322
96	0xbd403f09	-0.046935115
97	0x3ceaaea2	0.028647725
98	0xbd514e60	-0.051100135
99	0x3cfd9c86	0.030958425
100	0x3e59da52	0.21274689
101	0x3d229193	0.03968961
102	0x3dfd8113	0.123781346
103	0x3dbe9bd8	0.093070686
104	0xbd85c244	-0.06531194
105	0x3e2ae7e0	0.16690016
106	0x3e96c68b	0.2944835
107	0x3e981397	0.29702446
108	0xbc9c833d	-0.019105548
109	0x3d8a18dc	0.06743023
110	0x3e06266b	0.13100593
111	0xbd220c88	-0.039562732
112	0x3e3b1318	0.18269002
113	0xbdeccf7f	-0.11563014
114	0x3e913ad3	0.28365192
115	0xbe0448ee	-0.12918445
116	0x3e1646d2	0.14675453
117	0x3dfb92af	0.12283837
118	0xbd4dffcd	-0.05029278
119	0x3d72b1a8	0.059251457
120	0x3db80e23	0.08987071
121	0x3eb600cb	0.3554748
122	0x3e0d8ad4	0.1382249
123	0x3e20eb97	0.1571487
124	0x3d10e605	0.035375614
125	0x3ce6020a	0.028077144
126	0x3bd0ce3e	0.0063722422
127	0x3ea891ef	0.32923838

weight_ih_l0 f4 [128, 2]
0	0x3e35ef48	0.1776706
1	0x3e087a84	0.13327986
2	0x3ba98923	0.0051738187
3	0x3d5687b7	0.05237552
4	0x3ce90779	0.028445946
5	0xbd8e87b2	-0.069594756
6	0xbd4fe8cd	-0.050759126
7	0xbd92b78d	-0.07163916
8	0xbd62574f	-0.055259045
9	0xbe044193	-0.1291564
10	0x3ca0f7b4	0.019649364
11	0x3dd7585d	0.10514901
12	0xbccda328	-0.025102213
13	0x3b27e76c	0.0025620116
14	0xbdb46f6c	-0.088103145
15	0xbbb9c8ab	-0.0056696734
16	0x3e16261e	0.14662978
17	0xbe310f4f	-0.17290996
18	0xbc473432	-0.01215844
19	0xbd2764c6	-0.04086759
20	0xbc988e52	-0.018622551
21	0x3e1e8e28	0.15483916
22	0x3d6eae6b	0.058271807
23	0x39b73187	0.0003494138
24	0xbda34fe8	-0.07974225
25	0xbdaec24a	-0.085331514
26	0x3d9cd758	0.07658261
27	0xbd9521f7	-0.07281869
28	0xbd1c5b09	-0.038172755
29	0x3d3d2b9f	0.04618418
30	0xbd14c822	-0.036323674
31	0x3d96fcaa	0.073724106
32	0xbdd21ab4	-0.102589995
33	0x3dee9f23	0.11651447
34	0x3dac4370	0.084113
35	0x3ddd3be3	0.10802438
36	0xbcf99844	-0.030468114
37	0x3c9f6e3c	0.019461744
38	0x3d000987	0.031259086
39	0x3d904bc3	0.070457004
40	0x3e2854e1	0.16438629
41	0xbd6c7b85	-0.057734985
42	0xbca183cc	-0.019716166
43	0x3da079c8	0.07835728
44	0xbcf457c7	-0.029827012
45	0x3dcaf251	0.099094994
46	0xbdd418d1	-0.10356296
47	0x3e0c74e5	0.13716467
48	0x3c8e6e5e	0.017386612
49	0xbc928e78	-0.0178902
50	0xbd5807d9	-0.05274186
51	0x3d82b4e2	0.06382157
52	0x3dc7adca	0.097499445
53	0x3e0ab13d	0.13544174
54	0xbdd45125	-0.103670396
55	0x3e2e6b2b	0.17033069
56	0xbe1d42a5	-0.15357454
57	0x3d871882	0.06596471
58	0xbcf348bd	-0.02969777
59	0xbc97ac06	-0.018514644
60	0x3d556384	0.05209686
61	0x3d239bef	0.03994363
62	0xbc407bcb	-0.011748265
63	0xbda33b1e	-0.0797026
64	0x3c195839	0.009359413
65	0x3e30e163	0.17273478
66	0x3d5852c0	0.05281329
67	0x3d0cd8b0	0.034386337
68	0x3ce5130e	0.027963188
69	0xbc2cae5c	-0.010539617
70	0x384c1448	4.865628e-05
71	0x3cac4a02	0.021031383
72	0x3c020c65	0.007937525
73	0xbd2603f1	-0.040531103
74	0xbac9e703	-0.001540393
75	0x3b0a643d	0.0021116876
76	0xbd645e17	-0.055753794
77	0xbcc8b6ba	-0.024501193
78	0x3ba7d189	0.005121414
79	0x3a298d7c	0.0006467921
80	0x3c6d5b33	0.014487076
81	0xbe217646	-0.15767774
82	0x3c3e58c6	0.011617845
83	0xbd80992e	-0.06279217
84	0x3ce5fb5c	0.028073959
85	0xbd51c5ac	-0.051213905
86	0x3c2f569f	0.010701804
87	0xbda7366a	-0.081646755
88	0xbbe8302c	-0.0070858207
89	0x3d2a822f	0.04162806
90	0x3bd45fe1	0.006481156
91	0xbc236407	-0.009972579
92	0xbb9ebb90	-0.0048441365
93	0xbb98615d	-0.0046502785
94	0xbaeb993d	-0.0017974746
95	0x3ba41fee	0.005008689
96	0x3cfbbcf6	0.030729752
97	0x3be4be46	0.00698069
98	0xbc4d6952	-0.012537317
99	0xbbc60897	-0.0060435045
100	0xbce808ae	-0.028324451
101	0xbd73c228	-0.059511334
102	0x3aadda8c	0.0013263985
103	0xbc4701ec	-0.012146454
104	0x3c826d45	0.015921244
105	0xbd639c5a	-0.05556903
106	0xbd26afcc	-0.040694997
107	0x3c62ae8d	0.013835561
108	0xbb87c654	-0.0041435156
109	0xbc0d5af8	-0.008627646
110	0x3b8b38e7	0.0042487266
111	0xbc15f7bc	-0.009153303
112	0x39f596ec	0.00046842487
113	0xbc20d8fa	-0.009817356
114	0xbca20925	-0.019779751
115	0xbb1d056d	-0.0023959533
116	0xba29dcda	-0.0006479748
117	0xbb808b97	-0.0039228904
118	0xbc6a002d	-0.0142822685
119	0x3d3870a7	0.04502931
120	0x3c3b5d78	0.011435859
121	0xbc6d48ba	-0.014482671
122	0xbbadca6e	-0.0053036725
123	0xbbdbbf0f	-0.0067061256
124	0x3db22938	0.08699268
125	0xbaa79388	-0.0012785057
126	0xbc41d827	-0.01183132
127	0xbc9304d9	-0.017946647
128	0x3d630a18	0.055429548
129	0x3da11b5a	0.07866545
130	0xbd267404	-0.040637985
131	0xbdbb604b	-0.09149226
132	0x3cb1675e	0.021655735
133	0xbd117604	-0.03551294
134	0xbd0be8d6	-0.034157597
135	0xbd2af854	-0.04174073
136	0xbca31df9	-0.019911753
137	0xbc484bc5	-0.012225096
138	0x3d309cf5	0.043118436
139	0xbdca9bf5	-0.09893028
140	0xbc751dc9	-0.014960715
141	0x3ba9ec27	0.0051856223
142	0x3c646201	0.013939382
143	0x3cbb06a1	0.02283031
144	0x3d069186	0.032853626
145	0xbd77c223	-0.060487878
146	0xbae42eb4	-0.0017408938
147	0x3d88f7da	0.06687899
148	0x3b31bc94	0.0027120458
149	0x3e64a75f	0.22329472
150	0xbe228528	-0.15871108
151	0x3db54658	0.08851308
152	0xbdf44297	-0.119267635
153	0xbdc374ec	-0.095437855
154	0x3cb4fb80	0.02209258
155	0xbc092142	-0.008369746
156	0x3d0864a6	0.03329911
157	0x3d0a7cf1	0.03381056
158	0xbd8f5576	-0.06998722
159	0x3e2060c8	0.15661919
160	0x3c2c8758	0.010530315
161	0xbc270c84	-0.010195855
162	0xbc8d85c8	-0.017275706
163	0xbb9d7438	-0.004805114
164	0xbd5dc557	-0.054143276
165	0x3b687adb	0.0035473618
166	0x3d6abbac	0.057307884
167	0xbcc185b5	-0.023623327
168	0xbc87f427	-0.016595913
169	0x3c168430	0.009186789
170	0xbdfe7dc7	-0.12426334
171	0x3c53483b	0.012895639
172	0xbd90b74b	-0.0706621
173	0x3cdad556	0.026713055
174	0xbc4d617c	-0.012535449
175	0xbc0da884	-0.008646134
176	0xbaece8cc	-0.001807475
177	0xbbb57471	-0.0055375625
178	0x3caf5d1c	0.021406703
179	0xbcb53efa	-0.022124756
180	0xbdb405f2	-0.087901965
181	0x3d45cbb7	0.04828998
182	0x3c94eb2b	0.018178543
183	0xbd113438	-0.03545019
184	0xbc5ca19d	-0.013466266
185	0xbc16ad83	-0.009196642
186	0x3dd47ae9	0.10375006
187	0x3de9e98b	0.11421498
188	0x3d1c6cb7	0.038189616
189	0x3ce39f61	0.027785959
190	0xbc366f2d	-0.011134905
191	0xbd6d6b65	-0.057963748
192	0xbd3d7ed4	-0.04626353
193	0xbdf8ef52	-0.12155022
194	0x3ddf5a5c	0.109059066
195	0x3e0a37b2	0.13497809
196	0xbc9fd02f	-0.01950845
197	0xbe8712a1	-0.263814
198	0x3ddbaf41	0.107267864
199	0x3e158257	0.14600502
200	0xbb0b6d42	-0.002127484
201	0xbe0c2a08	-0.13687909
202	0xbddd08d0	-0.107926965
203	0xbd3b7f8e	-0.045775943
204	0xbde4aaea	-0.11165412
205	0xbdcb7e86	-0.09936242
206	0xbd925ca5	-0.07146577
207	0xbe2f83c6	-0.17140111
208	0xbd45b874	-0.04827161
209	0x3dae5ffc	0.08514401
210	0xbc542e95	-0.012950559
211	0xbe830c0f	-0.25595137
212	0x3d02cb5f	0.03193223
213	0x3e70cb21	0.23514988
214	0x3e3d10b1	0.18463399
215	0xbe15459a	-0.14577332
216	0xbcfe8290	-0.031068116
217	0x3d4bbb83	0.049739372
218	0x3da353a8	0.079749405
219	0x3e2dad2e	0.16960594
220	0x3d73248f	0.059361037
221	0x3e191b67	0.1495186
222	0xbd9755b7	-0.07389396
223	0x3e6e1169	0.23248829
224	0xbcaffeb4	-0.021483757
225	0x3dd4d213	0.10391631
226	0xbde681fb	-0.112552606
227	0xbe3c3b38	-0.18381965
228	0xbe8b084b	-0.27154765
229	0xbda259d3	-0.07927289
230	0x3e2c856e	0.16847774
231	0x3e1a5d89	0.15074743
232	0x3e21cb85	0.15800293
233	0x3d22a0d3	0.039704155
234	0xbd0564b3	-0.032566737
235	0xbb715ada	-0.0036827833
236	0x3e3b1224	0.18268639
237	0x3bdc8e61	0.00673084
238	0xbdf73ceb	-0.12072166
239	0x3d91b5b8	0.07114738
240	0x3dc95cd5	0.098321594
241	0x3e0aca45	0.13553722
242	0xbe4bebd4	-0.1991418
243	0xbda70b4e	-0.08156453
244	0x3cb52d41	0.022116305
245	0xbddd5bd7	-0.10808533
246	0x3ddcac3d	0.10775039
247	0x3db555e8	0.08854276
248	0xbe11312b	-0.14178912
249	0xbb7e98ba	-0.0038848356
250	0xbc8154bc	-0.015787475
251	0xbe84d7e1	-0.25945953
252	0x3df2a6d6	0.11848228
253	0x3d1cf6e3	0.038321387
254	0xbcf35a5d	-0.029706175
255	0xbe165396	-0.14680323

weight_hh_l0 f4 [128, 32]
0	0x3c67372c	0.014112275
1	0x3d6eeb0f	0.058329638
2	0xbde02b5b	-0.109457694
3	0x3e3eb791	0.18624713
4	0x3da7edb9	0.08199639
5	0x3ddf1045	0.10891775
6	0xbd7b33f5	-0.061328847
7	0xbe207fc3	-0.15673737
8	0xbdf82ae8	-0.12117559
9	0x3dacecd6	0.0844361
10	0x3d1fdac1	0.03902698
11	0x3dee37d2	0.11631741
12	0x3e11fa33	0.142556
13	0x3da1b2fd	0.078954674
14	0xbe74cb5f	-0.23905705
15	0xbe4aea4a	-0.19815937
16	0x3deb63a3	0.114936136
17	0xbda4f83f	-0.08055162
18	0x3b6b4fd2	0.003590573
19	0x3dc701e1	0.09717155
20	0x3dec80a6	0.11547975
21	0xbdb85bff	-0.09001922
22	0xbdbc9da2	-0.092097536
23	0xbb7f701d	-0.0038976737
24	0xbe290dc7	-0.16509162
25	0x3e2eeac8	0.1708175
26	0xbe620319	-0.22071494
27	0x3e366258	0.17810953
28	0x3e10735d	0.14106508
29	0xbbf8e570	-0.0075957105
30	0xbe1bd9f5	-0.15219863
31	0x3e1867ac	0.14883298
32	0xbd9fa45b	-0.0779502
33	0xbd4f4966	-0.050607108
34	0xbe02d0c5	-0.12774952
35	0x3c3565f6	0.011071673
36	0xbdfa9dfc	-0.122371644
37	0x3e30f5c3	0.1728125
38	0xbe71f851	-0.23629881
39	0xbdc33a76	-0.09532635
40	0xba8c36f3	-0.0010697528
41	0x3e04cee5	0.12969549
42	0xbeb0a243	-0.34498796
43	0xbddbbee0	-0.10729766
44	0x3c1050bd	0.008808312
45	0xbcc734ea	-0.024317224
46	0x3e202607	0.15639506
47	0xbd94587d	-0.0724344
48	0x3e0729df	0.13199566
49	0xbb6bc71f	-0.003597684
50	0x3dc1b775	0.0945882
51	0x3de44008	0.111450255
52	0x3daacbea	0.08339675
53	0xbe046576	-0.1292933
54	0x3dfa8eeb	0.12234291
55	0x3e5eb145	0.2174731
56	0x3dd163a9	0.10224087
57	0x3b51b356	0.0031997762
58	0x3d4fdb86	0.050746463
59	0xbde22a26	-0.110431954
60	0xbca4e2ed	-0.020127738
61	0x3e19c039	0.15014733
62	0xbdc01fab	-0.0938104
63	0xbd8e001b	-0.06933614
64	0xbd1a260d	-0.037633944
65	0x3ca2ed59	0.019888567
66	0x3c0ba456	0.008523067
67	0xbda136f8	-0.078718126
68	0xbe2cf577	-0.16890512
69	0xbdaea8d1	-0.08528293
70	0xbdebf903	-0.115221046
71	0xbd954f9a	-0.072905734
72	0xbde828f2	-0.11335935
73	0xbd8ae48e	-0.067818746
74	0xbe187015	-0.14886506
75	0xbd1c2a93	-0.03812654
76	0x3dc059c8	0.093921244
77	0x3ddc9937	0.10771411
78	0x3e0f0b1f	0.13969086
79	0x3db65d4d	0.089045145
80	0x3d9ee44a	0.077583864
81	0x3d94d4d1	0.07267154
82	0xbd8715e2	-0.06595971
83	0xbe5ed25d	-0.21759935
84	0xbe02a5a9	-0.12758507
85	0x3aea4527	0.0017873392
86	0xbe4c74b5	-0.19966395
87	0x3e893f3f	0.26806065
88	0xbdad41b2	-0.08459796
89	0xbd873cbb	-0.0660338
90	0xbe025af5	-0.1273001
91	0xbde86100	-0.11346626
92	0xbe11e9fe	-0.14249417
93	0x3e4acfcc	0.1980583
94	0x3d07c65e	0.033148162
95	0xbe16d42d	-0.14729376
96	0x3d2bad79	0.041913483
97	0x3d778bc1	0.060436014
98	0x3bc35335	0.005960847
99	0xbde1f3be	-0.11032818
100	0xbe8900f3	-0.26758537
101	0x3e0b2a52	0.13590363
102	0xbccd77fa	-0.025081623
103	0x3d0bcbd0	0.034129918
104	0x3e68c0ab	0.22729747
105	0x3e7c948a	0.24666038
106	0xbda49ad3	-0.08037343
107	0xbd008c0c	-0.03138356
108	0xbdeae236	-0.114689276
109	0xbe45ed83	-0.19328885
110	0x3d4bd888	0.049767047
111	0xbe02c9ba	-0.12772265
112	0xbe17d51e	-0.14827392
113	0xbdb8f917	-0.09031885
114	0xbdf8a778	-0.12141317
115	0xbe4d7bc5	-0.20066746
116	0xbdcd882e	-0.1003574
117	0x3da9ec59	0.08297033
118	0x3d63c4ff	0.055607792
119	0xbe4a2cec	-0.19743699
120	0xbdc109c1	-0.094256885
121	0x3e54ee3a	0.20794001
122	0x3cb28306	0.021790992
123	0x3bba9f99	0.005695295
124	0xbdbf78bd	-0.09349201
125	0xbd23ae60	-0.03996122
126	0x3dd10567	0.102061085
127	0xbe8af3e4	-0.271392
128	0x3d482dc2	0.048871763
129	0x3e04e7ad	0.12979002
130	0xbbcf0fec	-0.0063190367
131	0x3e0fa865	0.14029081
132	0x3e3389ed	0.17533083
133	0x3e1399a5	0.1441408
134	0x3e00346a	0.12519994
135	0xbe4552c8	-0.1926986
136	0xbcbb3d68	-0.02285643
137	0x3e5a0b19	0.21293296
138	0xbe42f712	-0.19039562
139	0x3d7470be	0.05967783
140	0x3c1624ed	0.009164077
141	0x3e153ef2	0.14574793
142	0x3dc2c2dc	0.09509823
143	0x3c2177de	0.009855239
144	0xbe29ec65	-0.16594084
145	0x3d53048f	0.05151802
146	0xbd27cb98	-0.040965647
147	0xbdbba107	-0.09161573
148	0x3db106de	0.08643888
149	0x3e0b1b65	0.13584669
150	0x3e01c478	0.12672603
151	0xbe152391	-0.14564349
152	0xbde47398	-0.1115486
153	0x3d80c640	0.06287813
154	0xbe32cb37	-0.17460333
155	0xbcd55726	-0.026042532
156	0xbd0ffd07	-0.035153415
157	0x3e717276	0.2357882
158	0x3e0b62e3	0.13611941
159	0x3d72faf6	0.059321366
160	0x3d28dcf2	0.041226335
161	0xbe359d30	-0.17735744
162	0xbe34bf49	-0.17651094
163	0xbd1eecf7	-0.038800206
164	0xbe31cfea	-0.17364469
165	0x3e529490	0.20564485
166	0xbe2d7055	-0.16937383
167	0x3e3053df	0.17219494
168	0x3dfd5d5c	0.123713225
169	0xbe162f55	-0.14666493
170	0xbe0bf19c	-0.13666385
171	0x3df590d2	0.11990513
172	0xbd7bbf96	-0.061462007
173	0xbd92a29d	-0.07159922
174	0x3c35caea	0.011095742
175	0xbe2b21d1	-0.16712119
176	0xbd468dcf	-0.048475083
177	0x3e141f3a	0.14465037
178	0xbe1eeb78	-0.15519512
179	0x3e499863	0.19687037
180	0xbe4efbe5	-0.20213278
181	0xbd899e91	-0.06719697
182	0xbe4aa7f3	-0.1979063
183	0x3d2a1123	0.04152025
184	0x3e80385d	0.25043002
185	0x3e1263cb	0.1429588
186	0x3e1e5a7d	0.15464206
187	0xbd754832	-0.059883304
188	0x3deaaf81	0.11459256
189	0xbdd5a063	-0.10430982
190	0x3e10c009	0.14135756
191	0xbdc3714f	-0.09543096
192	0x3d922ef6	0.07137863
193	0xbcd15467	-0.025552941
194	0x3c25d8ff	0.010122537
195	0x3ca31684	0.019908197
196	0xbd0df383	-0.03465606
197	0xbdb5bb8a	-0.08873661
198	0xbe9f9228	-0.31166196
199	0x3d94900e	0.07254039
200	0xbe1d72af	-0.1537578
201	0x3da2bad4	0.07945791
202	0xbd1f9c23	-0.038967263
203	0x3d414a7a	0.047190167
204	0xbd876ebe	-0.06612919
205	0x3e3c64f0	0.1839788
206	0xbe6db296	-0.23212656
207	0xbe9ed0ab	-0.31018576
208	0xbda2bf9d	-0.079467036
209	0x3d5f1f32	0.05447311
210	0xbc1e76ce	-0.00967188
211	0x3d50aacb	0.05094413
212	0x3bfb197d	0.0076629505
213	0x3d15dd99	0.036588285
214	0xbe06a682	-0.13149455
215	0x3e34ab38	0.1764344
216	0xbc17438c	-0.009232413
217	0x3e274c7a	0.16337767
218	0xbe943396	-0.28945607
219	0xbcea9a76	-0.028638106
220	0x3d5a4da9	0.05329672
221	0x3dab07f7	0.083511285
222	0x3cf0a08a	0.029373426
223	0xbe05e620	-0.13076067
224	0x3e16ffc1	0.14746
225	0x3e07ca60	0.13260794
226	0xbe0a2438	-0.13490379
227	0xbcdb3659	-0.026759313
228	0x3d6b9c16	0.057521902
229	0xbe2d9cdb	-0.16954367
230	0xbaa5cf69	-0.0012650314
231	0xbadbdb97	-0.0016773817
232	0xbd198048	-0.037475854
233	0xbd8a2b58	-0.067465484
234	0xbde60ff3	-0.11233511
235	0x3e7f9a8e	0.24961302
236	0x3e272ca5	0.16325624
237	0xbdadd423	-0.084877275
238	0x3ded4007	0.11584478
239	0xbb24b565	-0.0025132534
240	0x3ddbdc7f	0.10735416
241	0xbdba8f44	-0.09109357
242	0xbe85fc95	-0.26169267
243	0x3dee341b	0.11631032
244	0xbd59bf51	-0.05316097
245	0xbd0e963d	-0.034811247
246	0xbdeb8d3d	-0.115015484
247	0xbe362ef4	-0.17791349
248	0xbd0327a4	-0.032020226
249	0xbd3cb0c3	-0.04606701
250	0x3d821632	0.0635189
251	0x3dcbbd95	0.09948269
252	0x3db0ac0b	0.086265646
253	0x3e1473fd	0.14497371
254	0x3d666aa2	0.056254037
255	0x3c71eb25	0.0147655355

bias_ih_l0 f4 [128]
0	0xbe0690c9	-0.13141169
1	0xbe7c1a8d	-0.24619503
2	0xbbc46ef6	-0.005994673
3	0xbe15f5f8	-0.14644611
4	0xbe2e55ca	-0.17024913
5	0xbe5834db	-0.21113913
6	0xbdb82991	-0.08992303
7	0xbe500d69	-0.20317616
8	0xbd43039f	-0.047610875
9	0xbdfb7ab7	-0.122792654
10	0xbe638c65	-0.22221525
11	0xbe81a418	-0.25320506
12	0xbe3707a4	-0.17874008
13	0x3c9be4a4	0.019029923
14	0xbe75a50c	-0.23988742
15	0xbe2ed30e	-0.17072698
16	0x3d13882c	0.036018535
17	0xbdd255c9	-0.102702685
18	0x3d90df5f	0.07073855
19	0xbea92316	-0.3303458
20	0x3d154cd8	0.036450237
21	0xbda8c4e6	-0.082406804
22	0xbec8f858	-0.3925197
23	0xbe5578a8	-0.20846808
24	0xbe4b544b	-0.19856374
25	0xbd6b1414	-0.057392195
26	0x3b0f1474	0.002183226
27	0xbd6a63ed	-0.057224203
28	0xbdb41331	-0.08792723
29	0x3d164ac5	0.0366924
30	0xbe71def9	-0.23620214
31	0xbe1afe4a	-0.15136066
32	0xbe8410d7	-0.25794098
33	0xbec08a1b	-0.37605366
34	0xbea2cd64	-0.31797326
35	0xbe6f3aa5	-0.23362215
36	0xbe5e62cc	-0.21717376
37	0xbdd7bfa7	-0.10534602
38	0xbea10887	-0.31451818
39	0x3b512185	0.0031910848
40	0xbe37f5e9	-0.17964901
41	0xbd41b6ed	-0.047293592
42	0xbe17d6b7	-0.14828001
43	0xbdccc406	-0.09998326
44	0xbeb30fbb	-0.3497294
45	0xba6feece	-0.0009152711
46	0xbd41c4b0	-0.047306716
47	0xbe8ca8f0	-0.2747264
48	0xbe9b32b3	-0.30312118
49	0x3d5c61d1	0.053804222
50	0x3d054618	0.03253755
51	0xbc52a30e	-0.012856258
52	0xbd5f6a96	-0.054545008
53	0xbe5b885b	-0.21438734
54	0xbe99ed52	-0.30063874
55	0xbe1f849c	-0.1557793
56	0xbe280e31	-0.16411664
57	0xbdb32313	-0.08746924
58	0xbd2fa819	-0.04288492
59	0xbe0e8919	-0.13919486
60	0xbeb932b5	-0.361715
61	0xbe288175	-0.16455634
62	0xbeae706e	-0.34070152
63	0xbe5ba344	-0.21449
64	0xbe92d2f8	-0.2867658
65	0x3d98dbd7	0.07463806
66	0x3d8b144a	0.06790979
67	0xbe927973	-0.28608283
68	0xbd8bbd3f	-0.06823205
69	0x3e4cde72	0.20006731
70	0x3d96c416	0.07361619
71	0x3da364a9	0.07978184
72	0x3d24c879	0.040230248
73	0xbd6cff1f	-0.05786049
74	0xbca488a8	-0.020084694
75	0x3d6836d4	0.056692913
76	0xbd80e002	-0.06292726
77	0xbdf8e528	-0.12153083
78	0x3ec9ec1e	0.39437956
79	0xbdb01b78	-0.08598989
80	0xbe7111bb	-0.2354192
81	0xbd8f5e89	-0.07000453
82	0x3e2d3ed7	0.16918503
83	0x3c8eeb2b	0.017446121
84	0xbd80c102	-0.06286813
85	0xbe5fa68a	-0.21840873
86	0xbddcc777	-0.107802324
87	0x3e4370a3	0.19085936
88	0xbe05053b	-0.12990277
89	0x3c8c1cb7	0.017103536
90	0x3dcd1e24	0.100155145
91	0x3e27984b	0.16366689
92	0x3d8b1fa0	0.06793141
93	0xbde3d7d6	-0.11125152
94	0xbdff5b85	-0.12468628
95	0x3d133031	0.03593463
96	0x3e2359f0	0.15952277
97	0x3e8d6038	0.27612472
98	0x3d981c19	0.07427234
99	0x3e5e2275	0.21692832
100	0x3e852b80	0.2600975
101	0x3e0e0ffe	0.13873288
102	0x3e826c50	0.2547326
103	0x3d4b945a	0.049702026
104	0xbd1a7ad1	-0.037714783
105	0x3e765457	0.2405561
106	0x3dbda953	0.09260812
107	0xbd326842	-0.04355646
108	0xbd9c2e81	-0.076260574
109	0x3e80f2be	0.25185198
110	0x3e3a778b	0.18209665
111	0xbc763365	-0.015026902
112	0x3dc02fab	0.09384092
113	0xbe928642	-0.28618056
114	0x3e90cd31	0.2828155
115	0xbc91c330	-0.017793268
116	0x3b39ec71	0.002836969
117	0x3d7c3200	0.06157112
118	0xbd8fe955	-0.070269264
119	0xbe1efdcb	-0.15526502
120	0x3e0609b8	0.13089645
121	0x3d2d68fa	0.04233644
122	0x3ec5d016	0.3863532
123	0xbdde1f7d	-0.1084585
124	0xbde5a797	-0.11213606
125	0x3d2e08b8	0.042488784
126	0x3eab68ef	0.33478495
127	0x3d02b04c	0.03190641

bias_hh_l0 f4 [128]
0	0x3dc7f103	0.09762766
1	0x3c59cb8a	0.013293156
2	0xbd9b40ce	-0.0758072
3	0xbea17922	-0.3153773
4	0xbd9c167e	-0.076214775
5	0xbdfcd7d0	-0.123458505
6	0xbeac4f30	-0.33654165
7	0xbdcaf09a	-0.09909172
8	0x3cfe7f35	0.031066516
9	0xbd4f82c3	-0.050661813
10	0xbc8c8fad	-0.017158354
11	0xbd3611a4	-0.044450417
12	0xbe3679b0	-0.17819858
13	0x3ce7f5cb	0.028315445
14	0xbc2dba08	-0.010603435
15	0xbdf50bfc	-0.119651765
16	0xbc763960	-0.015028328
17	0xbe3a307a	-0.18182555
18	0xbc9fc61e	-0.01950365
19	0xbec02846	-0.37530726
20	0x3d2a0b86	0.041514896
21	0x3cdd682e	0.027027216
22	0xbdc8fbc0	-0.098136425
23	0xbe905b0b	-0.2819446
24	0xbe9c7279	-0.30556086
25	0xbe0fec6f	-0.14055036
26	0xbd0985d3	-0.03357489
27	0xbe1d14af	-0.15339921
28	0xbd7e4cd7	-0.062085
29	0x3d7973a7	0.06090131
30	0xbec10877	-0.3770177
31	0xbdfaa75a	-0.12238951
32	0xbec8c7c1	-0.392149
33	0xbe1ec2e2	-0.1550403
34	0xbe46b49d	-0.19404836
35	0xbe0450e4	-0.12921482
36	0xbe53b95a	-0.20676175
37	0xbe8b5f4e	-0.2722115
38	0xbee0105b	-0.43762478
39	0xbe92d4b6	-0.2867791
40	0xbee1f114	-0.4412924
41	0xbe6769ab	-0.22598903
42	0xbe6b1f51	-0.22961165
43	0xbe52ad04	-0.20573813
44	0xbe521c18	-0.2051853
45	0x3c4782d8	0.012177192
46	0xbe50a3e3	-0.20375018
47	0xbeb28287	-0.3486521
48	0xbe714f6f	-0.23565458
49	0xbe533e6e	-0.20629284
50	0xbde65461	-0.11246563
51	0xbe4cd725	-0.20003946
52	0xbd7e84fa	-0.062138535
53	0xbe9520d5	-0.2912661
54	0xbe1f8a88	-0.15580189
55	0xbe9b5130	-0.3033538
56	0xbe0f08b0	-0.13968158
57	0xbd2e58b9	-0.04256508
58	0xbe0754a0	-0.13215876
59	0xbeb75f87	-0.3581507
60	0xbe272f3d	-0.16326614
61	0xbeb6b249	-0.35682896
62	0xbeeba461	-0.4602385
63	0xbd19c112	-0.03753764
64	0xbddc1ceb	-0.10747703
65	0x3dbd9ab3	0.09258022
66	0xbdf76770	-0.12080276
67	0xbe817cb9	-0.25290468
68	0x3bac7f08	0.0052641667
69	0xba9c9493	-0.0011946134
70	0xbe05b79b	-0.13058321
71	0x3da2057d	0.07911203
72	0xbe61caa5	-0.22049959
73	0x3e28c0ff	0.16479872
74	0xbdc2e50b	-0.09516343
75	0x3e27f553	0.16402178
76	0xbdd07a6c	-0.101796
77	0xbd4743ef	-0.04864877
78	0x3ebe32b2	0.37148052
79	0x3caa3f88	0.020782247
80	0xbe160909	-0.14651884
81	0x3dcf32f4	0.101171404
82	0xbde98235	-0.11401788
83	0x3dec8866	0.115494534
84	0xbc824588	-0.015902296
85	0xbe34f62a	-0.17672029
86	0x3cc2d2ed	0.023782218
87	0x3e0191a1	0.1265321
88	0xbd86a75b	-0.06574889
89	0x3e756446	0.23964033
90	0xbdd5151d	-0.10404418
91	0x3e381e78	0.17980373
92	0xbda57696	-0.08079259
93	0xbe19817f	-0.14990805
94	0x3dcd7ff6	0.10034172
95	0xbe1313e7	-0.14363061
96	0x3ed90a53	0.4239069
97	0x3e8112db	0.25209698
98	0xbcd7a1b2	-0.02632222
99	0xbd4a4bf6	-0.04938885
100	0x3db201d7	0.08691757
101	0x3e1b9341	0.15192892
102	0x3e382309	0.17982115
103	0x3dfcc742	0.12342693
104	0x3baf9710	0.005358584
105	0x3e81ae1e	0.25328153
106	0x3d1afc91	0.037838522
107	0xbcbaa888	-0.02278544
108	0xbd8c0a76	-0.06837933
109	0x3de3591c	0.11100981
110	0x3e7dc9c3	0.24783997
111	0x3db24972	0.08705415
112	0x3e77bd7e	0.2419338
113	0xbe694314	-0.22779495
114	0x3d794a92	0.06086213
115	0xbd0521f1	-0.032503072
116	0xbc6aca97	-0.014330528
117	0xbe03a552	-0.12856033
118	0x3d4f3bdb	0.050594192
119	0x3e06ab9f	0.13151406
120	0x3bbf13f9	0.0058312383
121	0x3e2c3497	0.16816936
122	0x3e32e1b8	0.17468917
123	0x3d9d92f9	0.076940484
124	0x3e274d3e	0.1633806
125	0x3de09fed	0.109680034
126	0x3e84eb0d	0.2596058
127	0x3dc5dec1	0.096616276

weight_ih_l0_reverse f4 [128, 2]
0	0x3c40df12	0.011771934
1	0xbdc1ff2f	-0.094725005
2	0x3cbc57ff	0.022991179
3	0x3d687c75	0.056759316
4	0x3da7b807	0.08189397
5	0x3bb02d7d	0.0053765164
6	0x3e0dd190	0.13849473
7	0x3d295bd2	0.041347332
8	0x3b9853e4	0.0046486724
9	0xbdb14229	-0.08655197
10	0xbe66acdb	-0.22526877
11	0xbe03a04d	-0.12854119
12	0x3e83f07f	0.2576942
13	0xbce497ea	-0.02790447
14	0x39d2da75	0.00040217084
15	0xbe6477ac	-0.22311276
16	0x3e093898	0.13400495
17	0xbed20897	-0.4102218
18	0xbd401b4e	-0.04690104
19	0x3da5a062	0.08087231
20	0xbdc81b9c	-0.09770891
21	0x3dbd86b0	0.09254205
22	0x3e4a1a48	0.19736588
23	0xbe265e8e	-0.16247007
24	0xbe28bed0	-0.16479039
25	0xbd8f4b57	-0.06996792
26	0xbe7ec9b5	-0.24881633
27	0xbe8956ae	-0.26823944
28	0x3e3b4e44	0.18291575
29	0x3e0a7404	0.13520819
30	0x3d3098b4	0.04311438
31	0x3d44a4fa	0.048008896
32	0xbe267dba	-0.16258898
33	0xbd6268d1	-0.055275742
34	0xbd9a3087	-0.07528787
35	0xbe6e497b	-0.23270218
36	0xbc37e014	-0.011222858
37	0x3d545d3b	0.051846724
38	0xbc01fc14	-0.007933635
39	0x3dcc5c33	0.09978523
40	0xbe304c4b	-0.17216603
41	0x3c2ea5d8	0.010659657
42	0xbecf717b	-0.40516266
43	0x3993a236	0.00028158881
44	0xbe1f2ac0	-0.15543652
45	0x3e11c179	0.1423396
46	0x3e6d4c4f	0.2317364
47	0x3ce9cade	0.028539117
48	0xbe0eedf9	-0.13957967
49	0x3d80f313	0.06296363
50	0xbdbfd8f1	-0.0936755
51	0xbccd09e3	-0.025029128
52	0x3d7ea5d8	0.06216988
53	0x3e7b45b2	0.24538305
54	0xbdcf209e	-0.10113643
55	0x3da2b455	0.07944552
56	0x3d30f272	0.043199964
57	0xbdb7f80b	-0.08982857
58	0xbe06fb90	-0.13181901
59	0x3bb36fa6	0.005475956
60	0x3e0130b0	0.12616229
61	0xbdb60979	-0.088885255
62	0xbe3dd1b9	-0.18537034
63	0x3c96472c	0.018344484
64	0xbd0706a0	-0.032965302
65	0x3e307401	0.17231752
66	0x3cfce1fe	0.03086948
67	0xbdc1f6ad	-0.09470878
68	0x3c385b56	0.011252245
69	0x3c7a82ce	0.015289975
70	0xbb597d94	-0.0033186423
71	0xbc73fc88	-0.014891751
72	0xbd101c1d	-0.03518306
73	0x3dbd3004	0.09237674
74	0x3ddaeccc	0.10689697
75	0x3dd4b909	0.10386855
76	0xbdd68d62	-0.104761854
77	0x3c228abf	0.009920775
78	0xbbe0f447	-0.0068650576
79	0x3d0ed322	0.03486932
80	0xbab9d509	-0.0014177869
81	0x3dac806d	0.08422933
82	0x3bf90d83	0.0076004877
83	0xbc63825a	-0.013886059
84	0x3e244e79	0.1604556
85	0xbdf67f65	-0.12036017
86	0xbd02519e	-0.031816117
87	0x3be68f6f	0.0070361416
88	0x3a9da220	0.0012026466
89	0x3ce7e617	0.028307958
90	0x3dc54dac	0.09633955
91	0x3db5bdd4	0.088740975
92	0xbcb41963	-0.021984762
93	0xbcdc0ca0	-0.026861489
94	0x3aedd876	0.0018146175
95	0xbcb66674	-0.02226565
96	0x3d3ea3ff	0.046543118
97	0x3d0539f4	0.03252597
98	0x3a9f72e7	0.0012164981
99	0x3d1a95d2	0.037740536
100	0xb994dc0b	-0.00028392705
101	0xbbb08111	-0.0053864797
102	0xbd2537df	-0.040336486
103	0xbde97017	-0.113983326
104	0x3da5f68c	0.08103666
105	0xbd54faf7	-0.05199715
106	0x3e031736	0.12801823
107	0xbb3a0fec	-0.0028390838
108	0x3e1b413b	0.15161602
109	0xbe1bd627	-0.15218411
110	0xbe385988	-0.18002903
111	0xbcab59aa	-0.020916779
112	0x3d21d9c6	0.039514326
113	0xbd483aa9	-0.048884068
114	0x3df19b7b	0.11797234
115	0x3d6bb092	0.057541437
116	0x3db4c115	0.0882589
117	0xbd5c2165	-0.053742785
118	0x3d2056ac	0.039145157
119	0xbd65dcde	-0.05611884
120	0xbd0d1b6e	-0.034449987
121	0x3d98e171	0.074648745
122	0x3d487051	0.04893524
123	0x3c9586b0	0.0182527
124	0xbd4f1f25	-0.05056681
125	0x3d80f7a5	0.062972344
126	0x3cd53fc8	0.02603139
127	0x3c1a109f	0.009403377
128	0xbcbd63e7	-0.023118926
129	0xbd8f2a0c	-0.06990442
130	0x3e2ccea7	0.16875707
131	0x3e8ec212	0.2788244
132	0x3d402b90	0.046916544
133	0xbc7f276a	-0.015573362
134	0xbdcff0d9	-0.1015336
135	0xbd9109e6	-0.07081966
136	0x3dbddec8	0.09271008
137	0x3e2d2eb6	0.1691235
138	0x3d1c9d77	0.038236108
139	0x3c1f9727	0.009740627
140	0xbc8414ed	-0.01612326
141	0x3b47aa65	0.0030466553
142	0xbe40a54c	-0.18813056
143	0x3db75835	0.08952371
144	0xbe11a1c4	-0.14221865
145	0xbf392ab6	-0.72330797
146	0xbeb1b754	-0.3471018
147	0x3f2e40d7	0.6806769
148	0x3b9e1bcf	0.0048250924
149	0xbc289db0	-0.010291502
150	0x3e9940af	0.29932162
151	0xbd7741f2	-0.060365625
152	0xbc8d98ed	-0.017284835
153	0x3c12fa91	0.0089708725
154	0x3e960de9	0.29307488
155	0x3e44b736	0.19210514
156	0xbe308f0b	-0.17242067
157	0xbd90eb56	-0.07076137
158	0xbc597d40	-0.013274491
159	0x3c14c260	0.009079546
160	0xbd5608e0	-0.052254558
161	0xbc8c8687	-0.017153991
162	0xbdaf13e3	-0.08548715
163	0x3ee488a7	0.44635507
164	0x3c3eb6a1	0.011640222
165	0xbe9238d2	-0.28558975
166	0xbe9ecc5d	-0.31015292
167	0xbd54a8fc	-0.05191897
168	0xbe094170	-0.13403869
169	0x3be2979a	0.006915045
170	0x3eb3510b	0.35022768
171	0xbdc23b78	-0.09483999
172	0xbdd1ec07	-0.10250097
173	0x3d952ad6	0.07283561
174	0x3dd9a531	0.10627211
175	0x3cc9c64b	0.024630686
176	0xbcb381d9	-0.021912502
177	0x3e9c275d	0.30498782
178	0x3f16b2d1	0.588666
179	0x3e901a7c	0.28145206
180	0xbba1f299	-0.00494225
181	0xbb1f041c	-0.0024263924
182	0x3c6cab2e	0.014445109
183	0xbddccaa6	-0.107808396
184	0xbdc16159	-0.09442396
185	0x3e15ca8c	0.14628047
186	0x3c9599d7	0.018261833
187	0xbc1f4ea4	-0.009723339
188	0x3d83936c	0.06424603
189	0xbd9e317a	-0.07724281
190	0x3ee3b62a	0.44474918
191	0xbd480a77	-0.048838105
192	0x3e24eec3	0.16106705
193	0x3e13a46d	0.14418192
194	0x3cabcc1b	0.020971349
195	0xbde33cf5	-0.11095611
196	0xbe066366	-0.13123855
197	0xbcdc24f8	-0.026873097
198	0xbe5cff79	-0.2158183
199	0xbdb3988d	-0.08769331
200	0xbe24afa3	-0.16082625
201	0x3e324d63	0.17412333
202	0x3d90e041	0.07074023
203	0x3d3934cc	0.045216367
204	0xbdd0f0f8	-0.10202211
205	0x3c61bed7	0.01377841
206	0x3d82ab42	0.06380321
207	0xbe898394	-0.268582
208	0xbdb83f65	-0.089964665
209	0xbe3715fe	-0.17879483
210	0xbdf66df1	-0.120326884
211	0xbd669a4e	-0.0562995
212	0x3de3148d	0.11087904
213	0xbdce4d90	-0.100733876
214	0x3eed5755	0.46355692
215	0xbd2298ea	-0.03969661
216	0x3db4828a	0.08813961
217	0xbe255d34	-0.16148835
218	0xbd7745de	-0.060369365
219	0x3bedfa0b	0.0072624735
220	0x3ed0e7f2	0.4080196
221	0x3c750083	0.014953735
222	0xbe4ba02a	-0.19885316
223	0xbe36862d	-0.17824621
224	0x3e4eee0a	0.20207992
225	0x3da5ed4b	0.08101901
226	0xbd1a91ce	-0.037736706
227	0xbf097839	-0.5369907
228	0xba8f1ab8	-0.0010917997
229	0x3db306f2	0.08741559
230	0xbee40955	-0.4453837
231	0x3d8b95e8	0.06815702
232	0xbd83c0fe	-0.06433295
233	0xbe85ca9d	-0.26131144
234	0xbe3ad3a3	-0.18244796
235	0x3e8daeba	0.27672368
236	0xbde02414	-0.10944381
237	0xbdc89f46	-0.09796004
238	0xbe56ed48	-0.20988953
239	0xbc7624d9	-0.015023434
240	0x3e317089	0.17328085
241	0x3ea4befd	0.32176962
242	0x3f11601c	0.56787276
243	0xbcb30264	-0.021851726
244	0xbe044c58	-0.12919748
245	0x3d052850	0.032509148
246	0x3c1b336f	0.009472712
247	0x3ed65bd4	0.41866934
248	0x3e4d9e59	0.20079936
249	0xbe47ff6a	-0.19531026
250	0x3e0821a5	0.13294084
251	0xbe24562d	-0.16048498
252	0xbda69dbf	-0.081355564
253	0x3d674882	0.056465633
254	0xbf00419c	-0.5010011
255	0x3b662ab2	0.0035120663
