experiments/pedestrians/models/models_28_Feb_2024_18_54_13_eth_vel_ar3/model_registrar-5.pt (torch, 527902 bytes, 43 tensors)

weight_ih_l0 f4 [128, 6]
-0.06594204 0.056641538 -0.11274586 0.008953201 -0.014936036 0.17314146 -0.16337833 -0.18483366
-0.18645073 0.23114966 -0.040798172 0.028307648 -0.15744355 -0.08640764 0.075741895 -0.097154304
-0.13605423 0.13197824 -0.05189273 0.024400175 0.20254992 -0.092257336 0.013655935 0.17276114
-0.10142105 0.026687434 0.019367531 0.47243053 0.11531754 -0.12812312 0.13933997 0.13052031
0.054189958 -0.2589725 0.1567481 0.02340692 -0.15533073 -0.012823425 -0.25878868 -0.13512953
0.057801846 -0.06475034 -0.14367178 0.20154642 0.01929425 -0.028785264 0.010737244 1.1028431e-05
0.20551378 0.07502088 0.08592618 0.26957977 0.06983866 -0.045339465 0.031829692 -0.10668859
-0.42508876 0.07515611 0.068178535 -0.002763994 0.056004018 0.13712184 -0.30181688 -0.30810818
0.0010941036 -0.0021230301 -0.01177969 -0.021247098 -0.44900712 0.08679487 0.054436997 0.098052844
-0.08541327 -0.18085372 0.10611106 0.1510289 0.04895762 -0.01091134 -0.02384221 0.08334975
0.10908641 0.10448786 -0.027480284 0.00091977604 -0.12210454 -0.11469832 -0.11860094 0.5064439
0.0016475229 0.00867745 -0.15020192 0.16356161 -0.090395465 0.28375962 -0.12679541 -0.03506375
0.16527404 0.07297348 0.32547987 0.14353761 0.026481874 -0.14248644 0.046731014 -0.12548459
-0.012572846 -0.04665139 0.05333486 0.071285486 0.09503645 0.030311376 0.014030697 -0.52986914
0.08282877 0.0013293169 -0.037265442 0.01920806 -0.20000537 -0.027694803 0.01936023 0.12124391
-0.039417814 0.049324956 0.21884461 0.22293897 0.01709793 -0.092685565 0.05588666 0.049170785
-0.08150922 0.116288476 -0.0037152416 -0.007017305 -0.005042544 -0.077988476 -0.047635283 -0.037962742
0.0644588 0.05072677 -0.01708681 0.0036717819 -0.11768589 -0.21947312 0.04281374 0.11246875
0.05414614 0.017496277 0.10920279 -0.07957854 -0.0952041 -0.05216517 -0.08375844 -0.041958336
-0.20395194 0.14040889 0.00988382 0.0751804 -0.06750918 0.054365937 -0.23416282 -0.06299018
0.0659628 0.13971202 -0.13439117 0.16780725 0.17402905 0.14602171 0.0060696313 0.07331656
0.15188213 0.103151284 -0.27491325 -0.08788013 0.05492908 -0.018555507 -0.09211675 -0.13580152
-0.20448755 0.044864044 0.22395682 -0.0060002496 -0.026656525 0.054095734 0.3692463 -0.20541637
-0.06553252 -0.06496249 -0.102992035 0.062793404 0.37224868 0.082749456 -0.12536094 -0.1177911
0.04271066 0.17228225 -0.0033884628 -0.09114819 -0.052648794 -0.11190509 0.13857952 0.016004719
0.05523222 0.021224672 -0.038065765 0.025479965 -0.114927106 0.040597834 0.0011445016 0.0023766514
-0.038806792 -0.014824631 -0.10072138 -0.08119836 0.032931905 -0.012214213 0.028389521 0.001002998
0.061999176 -0.06974426 8.2212464e-05 0.010484667 -0.19520187 -0.076841526 0.0738503 -0.05164654
-0.024393314 -0.24202208 -0.008165459 -0.124376625 0.070543215 0.00016473327 -0.017931914 0.08963216
-0.12934308 0.022473915 -0.06199589 -0.10491858 0.021558039 0.0052047246 -0.07244363 -0.048062623
0.13148245 -0.056756936 0.0056279497 0.0032290642 0.07094808 0.1481584 -0.10085475 -0.072408825
0.050627783 0.07626059 0.026435599 -0.11014073 0.15581489 -0.15485913 0.113827005 -0.094632156
00000000: 9f0c 87bd f500 683d 4de7 e6bd 72b0 123c
00000010: 47b6 74bc ff4b 313e a64c 27be 0945 3dbe
00000020: f1ec 3ebe 7fb2 6c3e fc1b 27bd 71e5 e73c
00000030: e238 21be 7df6 b0bd 911e 9b3d d6f8 c6bd
00000040: cd51 0bbe 4e25 073e 798d 54bd e0e2 c73c
00000050: 3f69 4f3e 6af1 bcbd 25bd 5f3c 4ce8 303e
00000060: d7b5 cfbd 9b9f da3c a8a8 9e3c 6ae2 f13e
00000070: 9a2b ec3d b532 03be 23af 0e3e 1ea7 053e
00000080: 4af6 5d3d 0b98 84be 9382 203e debf bf3c
00000090: 050f 1fbe 5819 52bc f37f 84be 655f 0abe
000000a0: a1c1 6c3d d49b 84bd b21e 13be 2f62 4e3e
000000b0: fa0e 9e3c 13cf ebbc 44eb 2f3c c006 3937
000000c0: 3472 523e 8ca4 993d 11fa af3d 5c06 8a3e
000000d0: 9207 8f3d e0b5 39bd da5f 023d 8c7f dabd
000000e0: 3ca5 d9be 72eb 993d 30a1 8b3d 2024 35bb
000000f0: 7864 653d ab69 0c3e be87 9abe 5bc0 9dbe
00000100: 0668 8f3a 8922 0bbb 9aff 40bc 650e aebc
00000110: 43e4 e5be 82c1 b13d 54f9 5e3d eecf c83d
00000120: 27ed aebd b831 39be c150 d93d 52a7 1a3e
00000130: c987 483d 7ac5 32bc bd50 c3bc 46b3 aa3d
00000140: b268 df3d bbfd d53d 551e e1bc 201d 713a
00000150: f211 fabd f4e6 eabd 0de5 f2bd 4fa6 013f
00000160: b2f1 d73a dd2b 0e3c 88ce 19be b27c 273e
00000170: 4221 b9bd f148 913e a8d6 01be 029f 0fbd
00000180: 993d 293e 1f73 953d 4ca5 a63e 86fb 123e
00000190: 84f0 d83c f7e7 11be 0569 3f3d 087f 00be
000001a0: 57fe 4dbc 8715 3fbd a775 5a3d 20fe 913d
000001b0: 78a2 c23d 904f f83c 02e1 653c 81a5 07bf
000001c0: 21a2 a93d 793c ae3a a6a3 18bd 395a 9d3c
000001d0: 35ce 4cbe 36e0 e2bc 5899 9e3c ba4e f83d
000001e0: 9374 21bd f708 4a3d cd18 603e 1d4a 643e
000001f0: f510 8c3c eed1 bdbd 69e9 643d 4e67 493d
00000200: 4eee a6bd a728 ee3d 697b 73bb 6cf1 e5bb
00000210: ed3b a5bb 6cb8 9fbd 371d 43bd d27e 1bbd
00000220: fa02 843d e0c6 4f3d a3f9 8bbc 47a2 703b
00000230: 4d05 f1bd 90bd 60be 765d 2f3d 0456 e63d
00000240: 58c8 5d3d 5a54 8f3c b6a5 df3d 13fa a2bd
00000250: 5efa c2bd 25ab 55bd 8c89 abbd 81dc 2bbd
00000260: c7d8 50be 59c7 0f3e bfef 213c 2ef8 993d
00000270: 4142 8abd d1ae 5e3d 61c8 6fbe ff00 81bd
00000280: 8117 873d ab10 0f3e d79d 09be aad5 2b3e
00000290: ac34 323e b786 153e c2e3 c63b fe26 963d
000002a0: fd86 1b3e fb40 d33d 6ec1 8cbe 7ffa b3bd
000002b0: 51fd 603d b801 98bc b5a7 bcbd 8e0f 0bbe
000002c0: 2f65 51be 5cc3 373d f054 653e be9d c4bb
000002d0: c95e dabc 7d93 5d3d da0d bd3e ab58 52be
000002e0: ea35 86bd 0e0b 85bd 7ded d2bd d499 803d
000002f0: 6197 be3e 8c78 a93d 9e5e 00be 763c f1bd
00000300: 5ff1 2e3d c26a 303e f910 5ebb e7ab babd
00000310: 43a6 57bd 7f2e e5bd cae7 0d3e 541c 833c
00000320: 2e3b 623d 5ddf ad3c d9ea 1bbd 5cbb d03c
00000330: e75e ebbd ea49 263d 1a03 963a 98c1 1b3b
00000340: dff3 1ebd 02e3 72bc 0347 cebd 534b a6bd
00000350: 9be3 063d 1f1e 48bc 2491 e83c 0777 833a
00000360: d9f2 7d3d 14d6 8ebd 7b69 ac38 e1c7 2b3c
00000370: 00e3 47be 175f 9dbd d33e 973d 538b 53bd
00000380: 7dd4 c7bc a3d4 77be 6bc8 05bc 2cb9 febd
00000390: f678 903d 40bc 2c39 f3e5 92bc 1191 b73d
000003a0: 8372 04be 371b b83c 67ef 7dbd 8ddf d6bd
000003b0: 7c9a b03c 658c aa3b 535d 94bd 50dd 44bd
000003c0: 56a3 063e f679 68bd aa6a b83b b59e 533b
000003d0: 3a4d 913d d6b6 173e ef8c cebd 144b 94bd
000003e0: 145f 4f3d 832e 9c3d 788f d83c 7791 e1bd
000003f0: f08d 1f3e 6493 1ebe 221e e93d 81ce c1bd

weight_hh_l0 f4 [128, 32]
-0.10474865 -0.084405474 -0.05413254 0.1368617 -0.02952448 -0.061052483 -0.10972495 -0.014912656
0.09966083 0.13754514 0.03528978 0.17268014 -0.09215562 0.121636555 0.10454459 0.17961217
0.084195055 -0.16206402 0.11900285 -0.16118617 -0.124822766 -0.07942902 -0.071971454 -0.18451829
0.13414611 -0.04676069 0.098117255 0.055675477 0.02705933 0.08139637 -0.01900077 -0.16778338
0.09822695 -0.14073549 0.021513212 -0.014856257 0.0049375584 0.2503463 -0.05521656 -0.045254137
0.28083378 -0.027886694 -0.22854032 -0.0064131776 -0.16933547 0.16439928 0.25537243 -0.023336895
0.089470975 0.11292106 -0.111279376 0.0048965826 0.19857341 -0.026875315 -0.13162343 -0.024853501
-0.001221081 -0.06341341 -0.093940474 -0.3613142 0.025169846 0.084453456 0.0017971942 -0.08052118
0.0691513 -0.10201211 -0.118183546 0.17713639 0.018323436 0.05693133 -0.14728338 -0.15919384
-0.036663465 0.24645036 -0.19657306 0.11143212 -0.12126857 -0.15037987 0.09228826 -0.05264827
-0.07987187 -0.05283376 0.1575499 -0.20643556 0.0120130135 0.17005019 0.039373726 0.18361968
0.1786218 0.22753255 0.15538745 0.13130313 0.026576964 0.038335443 -0.09145526 0.16729784
-0.049129337 0.06538734 -0.0046043685 0.1106645 -0.15665662 -0.13602707 -0.012391644 0.15080225
-0.117674194 0.069228776 0.0048732134 -0.20718977 -0.21523795 -0.112590715 -0.19614771 -0.10293412
-0.08314865 0.20180278 -0.08323069 -0.09490644 -0.07595685 0.06988938 0.100590885 -0.107409574
-0.09014983 0.14500037 -0.14197615 0.038367976 -0.16533273 0.037622493 0.11806973 0.09584964
-0.27008817 -0.13341115 0.08991238 -0.16112639 0.18667652 -0.14880557 -0.035059422 0.12973443
-0.15512823 -0.039290536 -0.21223146 0.055013075 -0.074136995 0.12578313 0.02886752 -0.21173951
-0.0065311757 -0.10756044 -0.104826145 0.055053107 0.028063903 0.1770491 0.021121373 -0.086848736
0.11242243 -0.021642022 -0.11074641 -0.1719568 0.050585408 -0.14759703 0.19316602 -0.19874372
0.17666392 -0.09683706 0.1060222 -0.15222749 -0.07906557 -0.06879973 0.039505657 -0.103718676
-0.08160787 -0.027662339 0.23113959 -0.29358548 -0.15975374 0.060440846 -0.091283284 0.07546358
-0.124100745 0.18417986 -0.14310303 0.106341496 0.00042955927 -0.05581946 -0.018584192 -0.09763196
-0.10978803 -0.03566546 0.11011634 0.09215327 -0.058846936 0.06327578 0.06650923 0.25439665
0.2025493 0.15886745 -0.22181407 0.21278544 -0.015580958 0.015408195 -0.0074135656 -0.09674687
-0.036569342 -0.0048221205 -0.07359504 -0.25313824 -0.0034655642 0.118464544 0.029207341 0.14946832
-0.0118049 -0.13711149 -0.09012216 -0.119038135 0.06520863 0.21333288 0.15251559 0.023592763
-0.07001292 -0.035568897 0.19345261 -0.25905025 -0.17451964 0.17797318 -0.121696435 0.051737722
0.1814522 -0.08438945 -0.04902502 0.032528397 -0.06463637 0.07879824 0.035593625 -0.044493597
-0.041894756 -0.04953491 -0.06665408 -0.16523544 0.12184773 0.012931674 0.03949001 0.097537
0.04763654 -0.07978727 -0.11878954 -0.001343956 -0.16343611 -0.010177531 -0.06728869 -0.15051661
0.09991971 0.22725122 0.022676399 0.14791912 0.06895089 0.1290998 0.07427316 0.15943365
00000000: 7686 d6bd c7dc acbd 15ba 5dbd 7925 0c3e
00000010: 53dd f1bc 2b12 7abd 79b7 e0bd 3654 74bc
00000020: fa1a cc3d a2d8 0c3e 048c 103d 10d3 303e
00000030: 16bc bcbd 961c f93d 791b d63d 41ec 373e
00000040: 756e ac3d 1cf4 25be c4b7 f33d fd0d 25be
00000050: 14a3 ffbd afab a2bd c565 93bd 5df2 3cbe
00000060: 995d 093e 2388 3fbd b3f1 c83d f80b 643d
00000070: 87ab dd3c 24b3 a63d 81a7 9bbc 68cf 2bbe
00000080: 362b c93d f71c 10be 7a3c b03c a867 73bc
00000090: 3ecb a13b 642d 803e c22a 62bd 675c 39bd
000000a0: 72c9 8f3e a372 e4bc 7906 6abe a225 d2bb
000000b0: 4766 2dbe 4958 283e 2dc0 823e 042d bfbc
000000c0: 8f3c b73d 2843 e73d 71e6 e3bd 8373 a03b
000000d0: d456 4b3e 9f29 dcbc 4bc8 06be 9299 cbbc
000000e0: ae0c a0ba e4de 81bd dd63 c0bd 2dfe b8be
000000f0: fe30 ce3c eff5 ac3d d58f eb3a 4ae8 a4bd
00000100: 329f 8d3d baeb d0bd 370a f2bd 3e63 353e
00000110: 081b 963c d430 693d 74d1 16be b603 23be
00000120: 6e2c 16bd 7c5d 7c3e 734a 49be 8636 e43d
00000130: a85b f8bd 2efd 19be a101 bd3d b6a5 57bd
00000140: dd93 a3bd 3668 58bd c354 213e d863 53be
00000150: 3bd2 443c a321 2e3e 5846 213d cc06 3c3e
00000160: a2e8 363e 4bfe 683e e31d 1f3e 5474 063e
00000170: efb7 d93c a005 1d3d e54c bbbd 2050 2b3e
00000180: d83b 49bd cce9 853d 3ee0 96bb 12a4 e23d
00000190: 986a 20be ae4a 0bbe 5206 4bbc e86b 1a3e
000001a0: 2bff f0bd d1c7 8d3d 7aaf 9f3b 8e29 54be
000001b0: 5667 5cbe f695 e6bd f2da 48be 20cf d2bd
000001c0: d749 aabd 63a5 4e3e da74 aabd 4f5e c2bd
000001d0: 448f 9bbd 2a22 8f3d 9802 ce3d 8df9 dbbd
000001e0: 79a0 b8bd fa7a 143e 3262 11be bd27 1d3d
000001f0: fc4c 29be 0b1a 1a3d 8bce f13d d14c c43d
00000200: ff48 8abe ef9c 08be fb23 b83d 51fe 24be
00000210: 2128 3f3e 7d60 18be 789a 0fbd 1ad9 043e
00000220: efd9 1ebe 1def 20bd 3453 59be 6455 613d
00000230: 23d5 97bd 4bcd 003e 947b ec3c 3ed2 58be
00000240: 7903 d6bb a648 dcbd 17af d6bd 5e7f 613d
00000250: 45e6 e53c 5c4c 353e bb06 ad3c c0dd b1bd
00000260: bb3d e63d 9c4a b1bc 04cf e2bd 7215 30be
00000270: a532 4f3d ad23 17be 50cd 453e 7983 4bbe
00000280: 63e7 343e 8252 c6bd 2b22 d93d 86e1 1bbe
00000290: 21ed a1bd dfe6 8cbd afd0 213d 756a d4bd
000002a0: 0722 a7bd 219c e2bc dbaf 6c3e d650 96be
000002b0: 7c96 23be d290 773d bbf2 babd a68c 9a3d
000002c0: 8828 febd a599 3c3e 9a89 12be 92c9 d93d
000002d0: 7836 e139 f2a2 64bd e03d 98bc 44f3 c7bd
000002e0: 8cd8 e0bd f215 12bd ad84 e13d dbba bc3d
000002f0: 7c09 71bd bb96 813d fe35 883d 4740 823e
00000300: 1569 4f3e 26ae 223e 3a23 63be 6de4 593e
00000310: 4647 7fbc a772 7c3c 7fed f2bb 3923 c6bd
00000320: bcc9 15bd e102 9ebb ffb8 96bd 569b 81be
00000330: 851e 63bb 8a9d f23d 3c44 ef3c 390e 193e
00000340: 5769 41bc f466 0cbe f891 b8bd 44ca f3bd
00000350: 1a8c 853d ef73 5a3e 0c2d 1c3e 9c45 c13c
00000360: ef62 8fbd b1b0 11bd 7118 463e 3ca2 84be
00000370: 47b5 32be 9a3e 363e fb3b f9bd efea 533d
00000380: 9bce 393e 60d4 acbd 76ce 48bd 7f3c 053d
00000390: 1360 84bd f960 a13d 9fca 113d eb3e 36bd
000003a0: d699 2bbd 1ee5 4abd ef81 88bd 7b33 29be
000003b0: 4d8b f93d 5fdf 533c 47c0 213d 7bc1 c73d
000003c0: 881e 433d 8267 a3bd ee47 f3bd ae27 b0ba
000003d0: cc5b 27be a9bf 26bc a7ce 89bd 0721 1abe
000003e0: b4a2 cc3d 8bb4 683e dbc3 b93c 1c78 173e
000003f0: 2036 8d3d bd32 043e 871c 983d 9342 233e

bias_ih_l0 f4 [128]
-0.0022751025 -0.09315487 0.030289778 -0.13717954 -0.05463932 0.24038032 -0.08583378 -0.20474696
0.080942445 0.08380676 0.27338985 0.30034143 0.07037299 -0.18106426 0.07662348 -0.043842025
0.070711456 0.14754036 0.06331937 0.14567854 0.060952686 -0.026111417 -0.09351438 -0.05578735
0.16212232 0.24853826 -0.019910786 0.23467693 0.1071222 -0.07392739 -0.103105575 0.14716005
0.20286861 -0.22298391 -0.1585668 0.103401005 -0.17576306 0.016832579 -0.20933834 -0.031345643
-0.108467035 0.05575425 0.02185935 0.1419197 -0.051148362 0.083740726 -0.019474642 -0.06679468
0.14490308 0.07208015 -0.056182012 0.06975824 -0.19965519 0.03602937 0.071396396 0.05284431
0.064251564 0.30626616 0.09859299 0.25744393 0.08820456 -0.1049464 -0.1704179 0.048793383
-0.03612357 0.15325256 -0.17516473 0.20595616 -0.12224956 0.07891773 0.038867816 0.122432046
0.08285398 0.21557279 -0.20671333 0.121032156 -0.29231787 -0.10044679 -0.095920675 0.03029064
-0.17607659 0.07254811 -0.010215389 -0.1381882 0.030042123 0.2353041 0.005806616 -0.0013992514
0.24147068 0.002675732 0.18997508 -0.28200343 -0.1896259 -0.055383943 0.052300334 -0.0038277798
0.06916136 -0.11321776 0.09167045 -0.16653016 0.07839337 0.11321316 -0.050231684 -0.2175198
-0.028947888 0.11561322 0.04033136 0.19276014 -0.029559059 -0.1452242 0.18701018 -0.019900246
0.14609054 0.024519345 0.15421648 -0.004781226 0.16409877 -0.06469712 -0.1675724 -0.055907376
-0.1028736 0.32341433 0.08446097 0.12711878 0.15858912 0.030044492 -0.024834028 0.117616996
00000000: e319 15bb fbc7 bebd 4522 f83c cb78 0cbe
00000010: 7bcd 5fbd 4226 763e 9fc9 afbd 30a9 51be
00000020: 27c5 a53d e1a2 ab3d c1f9 8b3e 5ac6 993e
00000030: b71f 903d e968 39be c5ec 9c3d b293 33bd
00000040: 2bd1 903d d214 173e 96ad 813d c12c 153e
00000050: 86a9 793d 9ce7 d5bc 7884 bfbd 4781 64bd
00000060: 6503 263e d080 7e3e f21b a3bc 264f 703e
00000070: e262 db3d 3e67 97bd 0429 d3bd 20b1 163e
00000080: cabc 4f3e e555 64be 565f 22be e8c3 d33d
00000090: 3bfb 33be 7ae4 893c ca5c 56be 4a64 00bd
000000a0: f723 debd 925e 643d 6112 b33c 6653 113e
000000b0: f280 51bd 4280 ab3d 4989 9fbc a6cb 88bd
000000c0: 7961 143e c29e 933d 1c1f 66bd 68dd 8e3d
000000d0: 6972 4cbe 8893 133d 4638 923d 4673 583d
000000e0: 5396 833d ebce 9c3e 1feb c93d b1cf 833e
000000f0: 98a4 b43d 23ee d6bd 0882 2ebe 92db 473d
00000100: 4ff6 13bd 3dee 1c3e 625e 33be 2ce6 523e
00000110: fa5d fabd 9e9f a13d dc33 1f3d a7bd fa3d
00000120: 59af a93d 1dbf 5c3e a9ac 53be b5df f73d
00000130: b0aa 95be 0cb7 cdbd 0f72 c4bd 1424 f83c
00000140: 6c4d 34be 1a94 943d 725e 27bc 3581 0dbe
00000150: e61a f63c 8ff3 703e 6d45 be3b 1667 b7ba
00000160: 1744 773e 555b 2f3b d488 423e c162 90be
00000170: 4b2d 42be 46da 62bd e038 563d 7ddb 7abb
00000180: 79a4 8d3d b7de e7bd b8bd bb3d e286 2abe
00000190: b48c a03d 4ddc e73d bdbf 4dbd 83bd 5ebe
000001a0: 1f24 edbc a0c6 ec3d 7f32 253d ea62 453e
000001b0: d725 f2bc a7b5 14be 997f 3f3e d705 a3bc
000001c0: c298 153e cbdc c83c edea 1d3e d5ab 9cbb
000001d0: 8209 283e ec7f 84bd 1998 2bbe 22ff 64bd
000001e0: 65af d2bd 9096 a53e dff9 ac3d 6d2b 023e
000001f0: 3065 223e de1f f63c bb70 cbbc 2ee1 f03d

bias_hh_l0 f4 [128]
-0.046565067 -0.08004731 -0.10350053 0.024303826 0.08913648 -0.0035197858 -0.18748364 -0.027182221
0.16608022 0.24870193 0.016935976 0.17551309 -0.16792105 0.113204546 0.11718695 0.11657877
-0.016255403 0.14010058 -0.032371182 0.101401284 0.20863011 0.15460572 -0.06498885 0.008510563
0.06378335 0.23340976 0.053643897 0.14309487 0.025496084 -0.08327037 -0.033586677 0.19735098
0.11410918 -0.19689408 0.07912231 -0.10274312 0.1326023 0.17967598 -0.068396 -0.17617115
-0.035581376 -0.00046791052 0.040793877 0.08073081 -0.053930674 -0.09569592 0.08648003 -0.016682599
0.014104973 0.004156357 -0.027829135 -0.1115276 -0.05574803 -0.12676692 -0.15166976 0.024856826
-0.13933037 -0.00236216 -0.1549438 0.19675109 0.059983477 0.12896979 -0.03833346 0.3501845
-0.3193827 -0.11552057 -0.0050857156 0.1503251 0.13441089 0.111238934 -0.14727463 0.16932276
0.22411133 0.12195467 -0.07888048 0.13832591 -0.11160399 -0.03400256 -0.1736259 0.17654869
-0.083135605 0.314939 -0.084768355 -0.26476952 -0.12693301 0.17485102 -0.23778789 0.24667887
0.0029736664 0.108316205 0.19294216 -0.16715635 -0.17817111 -0.33402833 0.027751181 0.100168064
-0.0458782 0.021107873 -0.064429685 0.060782928 0.17700763 0.016602578 0.14834777 0.09307346
-0.08294936 0.13796386 0.2815994 0.26965213 -0.017397512 0.047958087 0.10686467 -0.012036324
0.1645832 -0.11227224 0.25931215 -0.12827098 0.12714694 0.12639727 -0.0157967 0.07668202
0.08495538 0.2990628 0.13637549 0.13332236 0.029248979 0.024502583 0.0021840055 0.31835493
00000000: 03bb 3ebd d8ef a3bd 16f8 d3bd d118 c73c
00000010: 308d b63d 35ac 66bb b6fb 3fbe 40ad debc
00000020: ef10 2a3e b8ab 7e3e 51bd 8a3c b4b9 333e
00000030: 7ff3 2bbe c9d7 e73d b6ff ef3d dac0 ee3d
00000040: 0d2a 85bc 8776 0f3e a597 04bd 7aab cf3d
00000050: 22a3 553e f650 1e3e e018 85bd e36f 0b3c
00000060: d8a0 823d f802 6f3e b4b9 5b3d 7687 123e
00000070: 2add d03c a889 aabd 2f92 09bd 6016 4a3e
00000080: 13b2 e93d 9a9e 49be e10a a23d fc6a d2bd
00000090: e6c8 073e fbfc 373e 3413 8cbd 3666 34be
000000a0: c7bd 11bd e351 f5b9 7b17 273d 3256 a53d
000000b0: 69e6 5cbd 39fc c3bd 711c b13d f2a9 88bc
000000c0: 8b18 673c 0d32 883b edf9 e3bc 9568 e4bd
000000d0: 0c58 64bd 30cf 01be 514f 1bbe 8ba0 cb3c
000000e0: 9fac 0ebe 78ce 1abb 96a9 1ebe 1e79 493e
000000f0: 3cb1 753d a810 043e 8c03 1dbd 624b b33e
00000100: 2186 a3be 0c96 ecbd 13a6 a6bb d3ee 193e
00000110: 02a3 093e 3dd1 e33d 29cf 16be f262 2d3e
00000120: 717d 653e 5fc3 f93d 178c a1bd 4fa5 0d3e
00000130: a290 e4bd 4546 0bbd fdca 31be 2ec9 343e
00000140: 0043 aabd af3f a13e 089b adbd df8f 87be
00000150: bafa 01be 250c 333e ab7e 73be 6399 7c3e
00000160: d8e1 423b e3d4 dd3d a192 453e 092b 2bbe
00000170: 7d72 36be c305 abbe 7256 e33c ea24 cd3d
00000180: c8ea 3bbd 6bea ac3c b6f3 83bd 85f7 783d
00000190: 7d41 353e 2102 883c 7ae8 173e 4c9d be3d
000001a0: 5be1 a9bd 6646 0d3e cc2d 903e d80f 8a3e
000001b0: 3a85 8ebc b36f 443d dddb da3d 0034 45bc
000001c0: 8088 283e fdee e5bd 90c4 843e 7859 03be
000001d0: cf32 023e 496e 013e 1568 81bc 770b 9d3d
000001e0: 16fd ad3d c21e 993e 04a6 0b3e a885 083e
000001f0: 8e9b ef3c a4b9 c83c 8821 0f3b 6bff a23e

weight_ih_l0 f4 [128, 2]
0.18576364 0.11898105 -0.0021485824 0.118215404 0.02676911 -0.07968481 -0.08479776 -0.055482496
-0.055562586 -0.12033307 0.021617321 0.10266696 -0.032292448 0.023374213 -0.07766134 -0.018666416
0.12090617 -0.20539887 -0.0003347178 -0.030080995 -0.05041442 0.13640665 0.067952126 0.014769969
-0.071571335 -0.09678548 0.06830894 -0.08181298 -0.073742636 0.026293656 -0.026867256 0.07319067
-0.09873859 0.11637894 0.09480766 0.104374774 -0.02892022 0.024661668 0.0052449056 0.07906562
0.15434739 -0.07605523 -0.025320584 0.074071385 -0.030334301 0.09167444 -0.09726627 0.1437505
0.06692402 0.018587537 -0.0397376 0.07657339 0.15290935 0.10108713 -0.11840297 0.1594384
-0.13518132 0.095617965 -0.032897763 -0.0043045823 0.051637508 0.048345447 -0.014011443 -0.05652635
0.020655101 0.14761512 0.048832305 0.04314339 0.03081516 -0.010058066 0.031158406 0.02479756
-0.0008392203 -0.06430999 -0.011882105 0.00058175274 -0.06342646 -0.01461124 0.0009398531 0.008548082
0.0030731475 -0.108922906 0.0056828237 -0.05960912 0.015899634 -0.022006819 0.0057193 -0.07741745
-0.0012744784 0.039283365 0.00796171 -0.0014034527 0.010715644 0.001572637 -0.011724591 -0.0063548954
0.005829583 0.015265336 -0.0146087175 -0.017957103 -0.049472675 -0.020634491 0.0026447342 0.00042881005
0.004077331 -0.05041239 -0.036588162 0.012520466 0.012130197 -0.0076163127 0.0061740465 0.0015072688
-0.014452228 -0.0055793766 -0.02131919 -0.011559983 -0.0103717465 -0.0115636345 -0.042316094 0.04035568
-0.017234532 -0.011677857 -0.0030044976 0.01011952 0.10378659 0.00011043109 -0.0070516667 -0.0011286566
0.053853173 0.0572104 -0.033668466 -0.11344399 0.024106648 -0.035755876 -0.021013469 -0.08535036
-0.019873213 -0.0047195144 0.04865137 -0.100666344 -0.022084657 -0.00045518036 0.026156444 0.020467725
0.026698504 -0.049208548 0.005931856 0.087891616 0.023369474 0.2269326 -0.16416189 0.07823955
-0.1077608 -0.100279994 0.035961684 0.026754908 -0.011654985 0.037346136 -0.066394955 0.15353037
-0.00067613967 0.028450893 -0.013618865 -0.0038476712 -0.0657387 -0.010574977 0.040628728 -0.02627935
-0.013876243 -0.0045058336 -0.115667164 0.008354504 -0.048450526 0.035494585 -0.0083532 -0.0043171216
0.009199116 -0.008912732 0.023498176 -0.01186625 -0.104870245 0.05306527 0.016973568 -0.025260648
-0.0254376 -0.004902841 0.12837197 0.1078474 0.048731424 0.025867935 -0.0055709514 -0.05440871
-0.043464743 -0.13838825 0.11498197 0.1290122 -0.021705413 -0.27135375 0.1053443 0.12597352
-0.02786085 -0.117360905 -0.10992106 -0.047048923 -0.10366468 -0.11049117 -0.09009006 -0.16187015
-0.036897548 0.07854666 -0.0130716385 -0.2657429 0.029506776 0.23515539 0.19284338 -0.12285445
-0.02830077 0.007674469 0.098257124 0.14369406 0.06800984 0.14545235 -0.05761399 0.23631702
-0.026163204 0.08631841 -0.10709879 -0.17852968 -0.26838982 -0.08804905 0.1525922 0.1614202
0.10875163 0.066310175 -0.03512494 0.0013142687 0.1898133 0.0056597027 -0.14200641 0.062319543
0.07651273 0.15808637 -0.19060448 -0.071403936 0.061968017 -0.083873734 0.10601322 0.070406064
-0.12882957 0.02430486 0.019832341 -0.24451186 0.07870004 0.048211873 -0.022974612 -0.12944157
00000000: d338 3e3e 56ac f33d 3bcf 0cbb eb1a f23d
00000010: e44a db3c ca31 a3bd 73aa adbd 9d41 63bd
00000020: 9895 63bd 2f71 f6bd cf16 b13c 0e43 d23d
00000030: 1645 04bd 477b bf3c e90c 9fbd 50ea 98bc
00000040: a79d f73d 1554 52be 107d afb9 6b6c f6bc
00000050: 5a7f 4ebd 2fae 0b3e 7c2a 8b3d bdfd 713c
00000060: fe93 92bd 7737 c6bd 8fe5 8b3d 908d a7bd
00000070: 6106 97bd cb65 d73c b818 dcbc fde4 953d
00000080: 7537 cabd 1558 ee3d 852a c23d 71c2 d53d
00000090: 19ea ecbc 4407 ca3c 75dd ab3b 28ed a13d
000000a0: 3e0d 1e3e d8c2 9bbd 1d6d cfbc bdb2 973d
000000b0: a47f f8bc cfbf bb3d 8a33 c7bd 5533 133e
000000c0: 760f 893d e444 983c e5c3 22bd 82d2 9c3d
000000d0: 4594 1c3e c506 cf3d 427d f2bd d243 233e
000000e0: f96c 0abe 5ad3 c33d cebf 06bd 740d 8dbb
000000f0: da81 533d e005 463d 4090 65bc 2d88 67bd
00000100: e334 a93c 6b28 173e 6204 483d 20b7 303d
00000110: 1370 fc3c 96ca 24bc ea3f ff3c 4124 cb3c
00000120: 1fff 5bba f5b4 83bd 29ad 42bc c480 183a
00000130: bbe5 81bd fb63 6fbc 7960 763a 410d 0c3c
00000140: dc66 493b f912 dfbd fb36 ba3b b128 74bd
00000150: f33f 823c a547 b4bc f768 bb3b 0a8d 9ebd
00000160: 660c a7ba 98e7 203d d571 023c 0ff4 b7ba
00000170: ab90 2f3c f120 ce3a 8018 40bc ba3c d0bb
00000180: 1606 bf3b 761b 7a3c 6759 6fbc c61a 93bc
00000190: dca3 4abd aa09 a9bc 4753 2d3b e9d1 e039
000001a0: 229b 853b 397d 4ebd 78dd 15bd a422 4d3c
000001b0: bcbd 463c 4392 f9bb a84f ca3b 8c8f c53a
000001c0: 0ac9 6cbc 34d3 b6bb 95a5 aebc 1566 3dbc
000001d0: 42ee 29bc 6675 3dbc a453 2dbd ff4b 253d
000001e0: 6f2f 8dbc 7b54 3fbc 1be7 44bb 58cc 253c
000001f0: 108e d43d 3d97 e738 ab11 e7bb 6eef 93ba
00000200: 2595 5c3d 7455 6a3d f2e7 09bd 5355 e8bd
00000210: 4e7b c53c c174 12bd 7024 acbc 2bcc aebd
00000220: 26cd a2bc 28a6 9abb a946 473d 282a cebd
00000230: e2ea b4bc 46a5 eeb9 0a46 d63c eeab a73c
00000240: d2b6 da3c e78e 49bd 0460 c23b 8500 b43d
00000250: 5771 bf3c 0561 683e 0e1a 28be 0f3c a03d
00000260: b2b1 dcbd 995f cdbd 8f4c 133d 1c2d db3c
00000270: 8df4 3ebc 43f8 183d 14fa 87bd 1137 1d3e
00000280: f73e 31ba d911 e93c a921 5fbc 3629 7cbb
00000290: 03a2 86bd ab42 2dbc 4f6a 263d cb47 d7bc
000002a0: 2e59 63bc aca5 93bb e8e2 ecbd 54e1 083c
000002b0: 0f74 46bd c562 113d dcdb 08bc a476 8dbb
000002c0: e4b7 163c b506 12bc 3f7f c03c a96a 42bc
000002d0: 36c6 d6bd f85a 593d 270c 8b3c 6bef cebc
000002e0: 8462 d0bc 03a8 a0bb f173 033e 19df dc3d
000002f0: 9a9a 473d fee8 d33c 878c b6bb abdb 5ebd
00000300: 1608 32bd a6b5 0dbe ab7b eb3d c61b 043e
00000310: 8dcf b1bc e1ee 8abe c1be d73d 34ff 003e
00000320: 703c e4bc ea5a f0bd 4b1e e1bd 5fb6 40bd
00000330: 264e d4bd 3249 e2bd 2381 b8bd 4ac1 25be
00000340: e221 17bd 12dd a03d 6d2a 56bc 740f 88be
00000350: 32b8 f13c 93cc 703e bc78 453e 1d9b fbbd
00000360: 04d7 e7bc 1d7a fb3b 083b c93d 8924 133e
00000370: be48 8b3d 76f1 143e a6fc 6bbd 17fd 713e
00000380: 3754 d6bc b5c7 b03d 9c56 dbbd 7cd0 36be
00000390: 646a 89be 0f53 b4bd 2141 1c3e 564b 253e
000003a0: 2db9 de3d a1cd 873d 2bdf 0fbd 8a43 ac3a
000003b0: 6b5e 423e 0775 b93b 216a 11be c742 7f3d
000003c0: b5b2 9c3d 65e1 213e d22d 43be 3a3c 92bd
000003d0: 2dd2 7d3d fec5 abbd 761d d93d 0e31 903d
000003e0: e6eb 03be fc1a c73c 6f77 a23c 5161 7abe
000003f0: 7d2d a13d d079 453d 4135 bcbc 558c 04be

weight_hh_l0 f4 [128, 32]
0.017559785 0.043687146 -0.10984843 0.2016309 0.07494787 0.10951491 -0.05481298 -0.16373406
-0.12923011 0.08976832 0.039913036 0.12172019 0.1356202 0.07599275 -0.22164042 -0.18580128
0.10864009 -0.084080875 -0.0020245994 0.096947014 0.10938121 -0.092361644 -0.09045772 -0.009590412
-0.16555537 0.16110753 -0.21557136 0.18280764 0.14398122 -0.0097390115 -0.14301252 0.14225706
-0.05958769 -0.08684351 -0.10508494 -0.00060531916 -0.12286509 0.17224449 -0.22128648 -0.12585782
-0.027448526 0.15587224 -0.32905528 -0.07270736 0.01852753 -0.038214434 0.18172067 -0.04510004
0.10760066 -0.029517483 0.054808673 0.13170972 0.09524836 -0.11963893 0.108451195 0.19326891
0.06701399 -0.011807171 0.06693466 -0.07868128 -0.0025167705 0.15554982 -0.090708375 -0.0923556
-0.026774406 0.037652593 0.02537725 -0.074106686 -0.13937062 -0.10004296 -0.11825851 -0.10701523
-0.12856686 -0.0774561 -0.16135578 -0.030839978 0.08679893 0.12149515 0.12581517 0.015476525
0.07460578 0.06596081 -0.09349713 -0.2270671 -0.11876794 -0.020737058 -0.17090689 0.23665568
-0.08281146 -0.07738189 -0.15880872 -0.103062026 -0.13988459 0.20073254 0.03452885 -0.13461886
0.043280575 0.075313434 0.001323545 -0.0638073 -0.2510548 0.16182879 -0.010167769 0.03138679
0.21986507 0.2516217 -0.10447377 -0.01611086 -0.06513382 -0.19839135 0.048464973 -0.14701816
-0.15748876 -0.08303489 -0.10395487 -0.2157167 -0.08927507 0.09589589 0.04013316 -0.17418724
-0.10107911 0.19945806 0.02773438 -0.017697154 -0.0655227 -0.03590248 0.09498132 -0.26851436
0.061675455 0.12539235 0.0055169384 0.14044443 0.1721852 0.14854187 0.12927401 -0.20421714
-0.021941632 0.22579576 -0.1925598 0.058771964 0.007875221 0.1428186 0.099228926 0.014493702
-0.174155 0.05048866 -0.03917342 -0.087408215 0.08193654 0.13848166 0.12345242 -0.15192626
-0.14481494 0.057899456 -0.1696824 -0.016921874 -0.023964422 0.23348555 0.14847651 0.055894565
0.04234677 -0.17774907 -0.16948082 -0.060308497 -0.1678218 0.19894731 -0.17677252 0.16950096
0.1165016 -0.1531711 -0.12396826 0.10072287 -0.056317613 -0.067491114 0.019933943 -0.1412216
-0.052364666 0.14980568 -0.154122 0.19875929 -0.22396716 -0.06888879 -0.19629437 0.05736311
0.2400559 0.14507909 0.14772132 -0.058934804 0.11830192 -0.10243584 0.15116735 -0.09181706
0.065075375 -0.011417942 0.006218603 0.01601754 -0.024826897 -0.10351137 -0.29731914 0.066706255
-0.18005563 0.09885083 -0.04134501 0.07363857 -0.06554444 0.16652957 -0.21948531 -0.27711624
-0.09171361 0.06841291 -0.015833871 0.025591234 0.037432935 0.026108652 -0.09445296 0.1716135
-0.01627514 0.17518973 -0.26341006 -0.02452459 0.060993627 0.083296314 0.030613253 -0.13778546
0.1193815 0.12817313 -0.14353614 0.03525197 0.079926044 -0.17695439 -0.012674826 -0.0018665928
-0.033410974 -0.10354127 -0.08468637 0.21535824 0.18410301 -0.077770405 0.12547164 -0.00067157083
0.13136366 -0.09920976 -0.25069296 0.08589977 -0.0614754 -0.036017254 -0.097000256 -0.16886337
-0.06469573 -0.021866495 0.053390373 0.047310803 0.06301059 0.13823701 0.092678346 0.053263515
00000000: 8ad9 8f3c 4bf1 323d 37f8 e0bd 5578 4e3e
00000010: 457e 993d 5a49 e03d 9383 60bd e7a9 27be
00000020: e654 04be 74d8 b73d da7b 233d 6f48 f93d
00000030: 06e0 0a3e 16a2 9b3d b5f5 62be b142 3ebe
00000040: b27e de3d 9832 acbd 24af 04bb 288c c63d
00000050: 4103 e03d 1a28 bdbd e641 b9bd 1a21 1dbc
00000060: 5987 29be 5ff9 243e bdbe 5cbe ed31 3b3e
00000070: d06f 133e 6090 1fbc e071 12be d6ab 113e
00000080: 3912 74bd 03db b1bd c636 d7bd 48ae 1eba
00000090: b1a0 fbbd dc60 303e ec98 62be dfe0 00be
000000a0: bbdb e0bc f99c 1f3e ef79 a8be 99e7 94bd
000000b0: 0cc7 973c bd86 1cbd fc14 3a3e d2ba 38bd
000000c0: bc5d dc3d a6ce f1bc 0f7f 603d eade 063e
000000d0: 9211 c33d 4105 f5bd a91b de3d 49e8 453e
000000e0: a13e 893d dd72 41bc 0a15 893d a723 a1bd
000000f0: 67f0 24bb 7448 1f3e 50c5 b9bd ef24 bdbd
00000100: 0056 dbbc 9b39 1a3d f3e3 cf3c 3fc5 97bd
00000110: 2cb7 0ebe 53e3 ccbd 8531 f2bd cd2a dbbd
00000120: 08a7 03be 4ea1 9ebd 733a 25be 1fa4 fcbc
00000130: a3c3 b13d 73d2 f83d b1d5 003e 4091 7d3c
00000140: eaca 983d 7616 873d 6c7b bfbd 4784 68be
00000150: 9b3c f3bd c3e0 a9bc 3702 2fbe de55 723e
00000160: 0e99 a9bd 657a 9ebd c19e 22be 2f12 d3bd
00000170: e83d 0fbe d58c 4d3e 206e 0d3d 87d9 09be
00000180: f946 313d ee3d 9a3d cd7a ad3a 67ad 82bd
00000190: 418a 80be 72b6 253e b796 26bc 6f8f 003d
000001a0: 4f24 613e 8fd4 803e 58f6 d5bd ecfa 83bc
000001b0: e164 85bd 1a27 4bbe 3583 463d ee8b 16be
000001c0: bc44 21be 320e aabd 4ae6 d4bd d7e4 5cbe
000001d0: d9d5 b6bd 1065 c43d ab62 243d 245e 32be
000001e0: 9002 cfbd bc3e 4c3e 3633 e33c 9ff9 90bc
000001f0: c430 86bd 7b0e 13bd 9185 c23d b77a 89be
00000200: 679f 7c3d da66 003e 6fc7 b43b aad0 0f3e
00000210: 5151 303e 5c1b 183e 6860 043e 4c1e 51be
00000220: f0be b3bc 0137 673e 652e 45be dfba 703d
00000230: 1207 013c 0a3f 123e 8938 cb3d fe76 6d3c
00000240: b055 32be 32cd 4e3d 4f74 20bd 1403 b3bd
00000250: 58ce a73d 23ce 0d3e 9fd4 fc3d 8f92 1bbe
00000260: 5e4a 14be fb27 6d3d 39c1 2dbe be9f 8abc
00000270: 0951 c4bc d616 6f3e 3a0a 183e b3f1 643d
00000280: cf73 2d3d da03 36be 618c 2dbe 0b06 77bd
00000290: 7ad9 2bbe d8b8 4b3e db03 35be a991 2d3e
000002a0: 6498 ee3d e3d8 1cbe 12e3 fdbd cb47 ce3d
000002b0: 4cad 66bd c838 8abd 824c a33c 659c 10be
000002c0: 557c 56bd a966 193e 28d2 1dbe 8e87 4b3e
000002d0: a657 65be 9115 8dbd 6401 49be 95f5 6a3d
000002e0: 37d1 753e 9d8f 143e 4244 173e 9f65 71bd
000002f0: 4748 f23d e2c9 d1bd 9dcb 1a3e 950a bcbd
00000300: 3d46 853d 5212 3bbc 6cc5 cb3b 3737 833c
00000310: c761 cbbc c5fd d3bd 373a 98be 4a9d 883d
00000320: 8160 38be 4e72 ca3d 6359 29bd d2cf 963d
00000330: 2a3c 86bd ba86 2a3e c2c0 60be 2ee2 8dbe
00000340: 58d4 bbbd 111c 8c3d 09b6 81bc b5a4 d13c
00000350: 4753 193d d0e1 d53c 8e70 c1bd 73bb 2f3e
00000360: 7153 85bc f064 333e afdd 86be cbe7 c8bc
00000370: 74d4 793d 4297 aa3d a5c8 fa3c a217 0dbe
00000380: 4a7e f43d d13f 033e 23fb 12be 5f64 103d
00000390: 44b0 a33d 8833 35be 13aa 4fbc 76a8 f4ba
000003a0: f2d9 08bd 720d d4bd 0c70 adbd df86 5c3e
000003b0: 8085 3c3e 1746 9fbd a37b 003e 5b0c 30ba
000003c0: 3284 063e 7d2e cbbd d45a 80be 38ec af3d
000003d0: a1cd 7bbd d486 13bd 12a8 c6bd 85ea 2cbe
000003e0: 327f 84bd 5d21 b3bc ddaf 5a3d f9c8 413d
000003f0: b20b 813d 018e 0d3e 25ce bd3d d82a 5a3d

bias_ih_l0 f4 [128]
-0.11330468 -0.2302535 -0.006435309 -0.14239693 -0.12689792 -0.20090276 -0.08531784 -0.17730258
-0.050034273 -0.11418945 -0.23044002 -0.24796428 -0.17769694 -0.003587142 -0.25081015 -0.1651318
0.03923164 -0.06921559 0.070451565 -0.3253413 0.04906497 -0.079113446 -0.35938263 -0.20239119
-0.17683038 -0.070146374 0.0070494255 -0.056572612 -0.07954472 0.002233448 -0.23321459 -0.1490099
-0.20770937 -0.36684883 -0.32846877 -0.24583185 -0.2388006 -0.11134517 -0.29520497 -0.006273645
-0.1194497 -0.01454159 -0.08815282 -0.09815415 -0.3077815 -0.025605923 -0.06176514 -0.28176507
-0.30986395 0.04472802 0.04235304 0.011630774 -0.040268797 -0.17857483 -0.2922517 -0.16905816
-0.15411507 -0.09110481 -0.05075839 -0.090082735 -0.35289478 -0.16684748 -0.33192846 -0.22038938
-0.2613106 0.08241769 0.05832492 -0.28425255 -0.01773693 0.18486904 0.06691737 0.0801992
0.056317635 -0.04611212 -0.032487128 0.06444795 -0.069162 -0.1179154 0.37241343 -0.09098966
-0.22463325 -0.074654914 0.15279475 0.0054860776 -0.058467977 -0.23204175 -0.09278201 0.18123372
-0.15265247 0.015571783 0.108027235 0.13266909 0.057215773 -0.08827453 -0.13171028 0.023309546
0.14973576 0.2534865 0.06636532 0.20901217 0.22210625 0.08713274 0.24287127 0.016632002
-0.053714518 0.23292416 0.08782111 -0.054903828 -0.07762893 0.24593623 0.17781502 -0.019308886
0.092059754 -0.30786526 0.25635353 -0.021278903 -0.052890494 0.06030058 -0.06279257 -0.17110272
0.12482394 0.032832306 0.38146544 -0.11350776 -0.08870133 0.025067078 0.29928726 0.023523863
00000000: 490c e8bd 93c7 6bbe 49df d2bb 80d0 11be
00000010: 87f1 01be 74b9 4dbe 1fbb aebd cf8e 35be
00000020: bdf0 4cbd 29dc e9bd 78f8 6bbe 59ea 7dbe
00000030: 30f6 35be 4216 6bbb 306a 80be 5018 29be
00000040: 5bb1 203d e7c0 8dbd e948 903d 2393 a6be
00000050: 5af8 483d 3b06 a2bd 0001 b8be a33f 4fbe
00000060: 0613 35be e7a8 8fbd defe e63b afb8 67bd
00000070: 58e8 a2bd 0a5f 123b cecf 6ebe 0d96 18be
00000080: c4b1 54be 9cd3 bbbe 0f2d a8be 58bb 7bbe
00000090: 2588 74be f008 e4bd 1b25 97be 2693 cdbb
000000a0: 0ba2 f4bd d93f 6ebc 7789 b4bd 0b05 c9bd
000000b0: 8995 9dbe 83c3 d1bc 72fd 7cbd 8343 90be
000000c0: 7da6 9ebe ba34 373d 627a 2d3d 008f 3e3c
000000d0: e5f0 24bd 52dc 36be 04a2 95be 951d 2dbe
000000e0: 57d0 1dbe 2995 babd 08e8 4fbd 4c7d b8bd
000000f0: a0ae b4be 11da 2abe 87f2 a9be c1ad 61be
00000100: 81ca 85be 9bca a83d 1ce6 6e3d 8d89 91be
00000110: 0a4d 91bc 4f4e 3d3e f90b 893d 7a3f a43d
00000120: 52ad 663d 10e0 3cbd 3911 05bd 49fd 833d
00000130: cfa4 8dbd a17d f1bd f9ac be3e c958 babd
00000140: 4206 66be ade4 98bd 3a76 1c3e 8ec4 b33b
00000150: 1e7c 6fbd 5a9c 6dbe 7f04 bebd 5595 393e
00000160: ee50 1cbe cb20 7f3c 623d dd3d 68da 073e
00000170: 165b 6a3d 47c9 b4bd 0fdf 06be a9f3 be3c
00000180: 5554 193e fcc8 813e 8aea 873d 4907 563e
00000190: d26f 633e a672 b23d 3fb3 783e d63f 883c
000001a0: c103 5cbd ac83 6e3e 8edb b33d d6e2 60bd
000001b0: ebfb 9ebd b5d6 7b3e 2415 363e ab2d 9ebc
000001c0: d389 bc3d 84a0 9dbe c540 833e 1851 aebc
000001d0: b4a3 58bd befd 763d 6499 80bd 8d35 2fbe
000001e0: b2a3 ff3d 2b7b 063d 704f c33e c276 e8bd
000001f0: 0ba9 b5bd 7959 cd3c 2e3c 993e 1eb5 c03c

bias_hh_l0 f4 [128]
0.11573469 0.029234713 -0.076247826 -0.31132805 -0.032863505 -0.11322216 -0.3319364 -0.073218115
0.028643131 -0.04205855 -0.02538322 -0.039209623 -0.17715544 0.005698394 -0.021526255 -0.11405662
-0.011815224 -0.14833847 -0.019790597 -0.37030277 0.05412963 0.030320669 -0.064999 -0.27586773
-0.2838277 -0.1533045 -0.028708732 -0.15274753 -0.05370244 0.026442332 -0.37403017 -0.12003886
-0.34191743 -0.14583527 -0.20454404 -0.1414245 -0.2283886 -0.27821073 -0.41831154 -0.29624423
-0.3810931 -0.1932371 -0.1694844 -0.20390907 -0.16323724 -0.012513473 -0.21820882 -0.35569078
-0.2423973 -0.21536897 -0.102650166 -0.17555252 -0.04786233 -0.25545353 -0.1474154 -0.3166322
-0.12968001 -0.046200722 -0.14003219 -0.30903834 -0.15444577 -0.35912 -0.45146543 -0.043437075
-0.08202199 0.10035985 -0.13038763 -0.2510744 0.05575931 -0.016392987 -0.137282 0.07952939
-0.20441218 0.17654717 -0.10756582 0.17177677 -0.108030744 -0.045033358 0.3495144 0.015782466
-0.13573287 0.09652102 -0.13040833 0.10353455 -0.011502106 -0.19035335 0.03880251 0.116906516
-0.08849873 0.23810865 -0.096172094 0.14880592 -0.09150825 -0.12693122 0.09331763 -0.15625572
0.41411987 0.22945873 -0.03422923 -0.05730506 0.048925996 0.10032864 0.16795987 0.09035693
-0.0106411455 0.24564965 0.033051513 -0.034132794 -0.06974769 0.10509395 0.24355835 0.0827722
0.24015255 -0.24947983 0.034400288 -0.035988703 -0.07005802 -0.12983103 0.05807087 0.1156764
-0.00024115531 0.15866534 0.16980098 0.071891226 0.18681534 0.09225827 0.22410804 0.088233724
00000000: 4f06 ed3d a37d ef3c d227 9cbd 6466 9fbe
00000010: e29b 06bd 05e1 e7bd 91f3 a9be 61f3 95bd
00000020: 00a5 ea3c 9645 2cbd 78f0 cfbc 459a 20bd
00000030: 3c68 35be 98b9 ba3b d457 b0bc 8496 e9bd
00000040: a494 41bc 0ae6 17be e41f a2bc 5398 bdbe
00000050: 08b7 5d3d 0d63 f83c 321e 85bd 893e 8dbe
00000060: dd51 91be dbfb 1cbe 932e ebbc d969 1cbe
00000070: 17f7 5bbd 979d d83c e280 bfbe efd6 f5bd
00000080: cd0f afbe d755 15be fe73 51be 96d1 10be
00000090: b3de 69be a371 8ebe ee2c d6be 53ad 97be
000000a0: a31e c3be f2df 45be 528d 2dbe 8acd 50be
000000b0: aa27 27be 4f05 4dbc 2272 5fbe 1a1d b6be
000000c0: ff36 78be af89 5cbe 403a d2bd 0ac4 33be
000000d0: 4a0b 44bd ceca 82be 10f4 16be 9e1d a2be
000000e0: d6ca 04be f83c 3dbd 9964 0fbe 463a 9ebe
000000f0: 0827 1ebe 94de b7be 7a26 e7be 13eb 31bd
00000100: 25fb a7bd 7789 cd3d 5684 05be d38c 80be
00000110: e063 643d 964a 86bc a793 0cbe 4ee0 a23d
00000120: 6d51 51be c8c8 343e 784b dcbd 40e6 2f3e
00000130: 393f ddbd e674 38bd 8df3 b23e 3b4a 813c
00000140: 8ffd 0abe d0ac c53d c389 05be ec09 d43d
00000150: 5473 3cbc fdeb 42be 61ef 1e3d af6c ef3d
00000160: d23e b5bd c1d2 733e e0f5 c4bd 9460 183e
00000170: ad68 bbbd 42fa 01be 501d bf3d 8001 20be
00000180: 8507 d43e 3bf7 6a3e f333 0cbd b6b8 6abd
00000190: a066 483d 1a79 cd3d acfd 2b3e 0e0d b93d
000001a0: 3358 2ebc 958b 7b3e 0661 073d d4ce 0bbd
000001b0: e0d7 8ebd 7f3b d73d 5c67 793e 7984 a93d
000001c0: 8dea 753e a477 7fbe 51e7 0c3d e468 13bd
000001d0: 947a 8fbd 6df2 04be b8db 6d3d c0e7 ec3d
000001e0: a3de 7cb9 2b79 223e 4fe0 2d3e b53b 933d
000001f0: 854c 3f3e e7f1 bc3d 947c 653e e2b3 b43d

weight_ih_l0_reverse f4 [128, 2]
0.024063267 -0.09483284 0.032591637 0.050192486 0.071637236 0.016670315 0.14757745 0.057312492
-0.0055016023 -0.06419117 -0.17392705 -0.16867283 0.25923607 -0.03170379 0.014835597 -0.2097732
0.12704547 -0.41240814 -0.061973035 0.09898897 -0.109055825 0.090456575 0.22700322 -0.13752663
-0.17066719 -0.058164254 -0.26627395 -0.24132772 0.1910381 0.1355504 0.042917386 0.049238957
-0.13660756 -0.049439285 -0.09927046 -0.23558839 0.009395498 0.037806846 -0.0151718445 0.115141
-0.17478497 0.015239605 -0.39898652 -0.0009872669 -0.13016109 0.13480753 0.2254601 0.016242344
-0.12526551 0.0732015 -0.08689774 -0.0065684007 0.0635126 0.24547864 -0.09068089 0.08466778
0.046752423 -0.07724479 -0.12744053 0.0036686275 0.11784229 -0.08001693 -0.18260087 0.012680972
-0.036611915 0.13095944 0.035662033 -0.108790055 0.01253523 0.018881185 -0.047047324 0.012100237
-0.030015845 0.083810635 0.08456626 0.10899504 -0.120860375 0.009505586 0.0029180853 0.033426933
-0.0015129541 0.04944428 0.009873497 -0.028650526 0.16240664 -0.10845953 -0.027426299 0.0025209198
0.01921603 0.032545708 0.0786997 0.08587057 -0.022756295 -0.02067695 0.004162825 -0.025517685
0.06750548 0.029017437 0.00017164604 0.020649707 -0.0012859444 -0.0026216747 -0.031552397 -0.10315355
0.09080184 -0.04005802 0.11094074 -0.01620121 0.16741382 -0.124614045 -0.18199913 -0.009979673
0.03611518 -0.049350243 0.11571414 0.049721163 0.08296724 -0.056004815 0.04218196 -0.050953045
-0.031529795 0.069485895 0.050627485 0.01966781 -0.022131024 0.065016866 0.015839765 0.022833599
-0.04061772 -0.046494868 0.1671731 0.25415617 0.03494216 -0.011174506 -0.10809496 -0.07565062
0.076325655 0.1590644 0.031781577 0.015503961 -0.019440657 0.0015773951 -0.18625176 0.072351374
-0.12662534 -0.65309197 -0.29749268 0.6064713 0.005287746 0.0042645 0.27140543 -0.05653117
-0.014267899 0.003885286 0.2986613 0.17668687 -0.17592706 -0.07901179 -0.010795095 0.021219423
-0.032704715 -0.016752966 -0.082045116 0.42821825 0.0028811104 -0.22921266 -0.29606134 -0.058797732
-0.14698215 -0.0074040876 0.34591496 -0.07773144 -0.08731263 0.074500404 0.10917525 0.024097957
-0.028416052 0.30501848 0.5664055 0.2618026 -0.013417085 -0.00299006 0.0039337454 -0.12288263
-0.10190042 0.14239882 0.003915678 -0.0013890732 0.07230133 -0.07530063 0.3795487 -0.030583866
0.1648863 0.12153386 0.013452152 -0.10522204 -0.12738374 0.005910442 -0.2014975 -0.07912539
-0.12885116 0.1801264 0.0407207 0.067383446 -0.084794536 0.014530976 0.059399616 -0.2619111
-0.0824779 -0.1687923 -0.1306098 -0.061737563 0.117488444 -0.09683446 0.48847884 -0.049584296
0.08219664 -0.16661769 -0.057417445 -0.0040117805 0.4275528 0.0075699696 -0.19989169 -0.16928752
0.22746076 0.052652318 -0.048512373 -0.5604856 0.034243815 0.070258565 -0.4350287 0.07731595
-0.09288578 -0.24461654 -0.21347187 0.24954927 -0.12746157 -0.09646379 -0.18496376 -0.019097336
0.13651565 0.3344628 0.59141195 -0.04301309 -0.124245174 0.039101847 0.01602183 0.36477715
0.2596505 -0.15253834 0.14195237 -0.16940449 -0.048615504 0.05339111 -0.4604289 -0.03466356
00000000: 5420 c53c b837 c2bd cf7e 053d a396 4d3d
00000010: 8bb6 923d 2f90 883c 8b1e 173e 81c0 6a3d
00000020: c946 b4bb a976 83bd ef19 32be 92b8 2cbe
00000030: 97ba 843e d5db 01bd 0111 733c c9ce 56be
00000040: 3518 023e 2927 d3be 70d7 7dbd bbba ca3d
00000050: a958 dfbd 4c41 b93d 8873 683e c8d3 0cbe
00000060: 61c3 2ebe a43d 6ebd 0f55 88be 9d1e 77be
00000070: 7e9f 433e b9cd 0a3e 24ca 2f3d caae 493d
00000080: dae2 0bbe d980 4abd 504e cbbd 153e 71be
00000090: 93ef 193c 5adb 1a3d 5493 78bc 0bcf eb3d
000000a0: d5fa 32be 89af 793c f647 ccbe 2e67 81ba
000000b0: f348 05be fc0a 0a3e 03df 663e aa0e 853c
000000c0: 9a45 00be abea 953d 71f7 b1bd bd3b d7bb
000000d0: e512 823d c15e 7b3e e7b6 b9bd 4d66 ad3d
000000e0: 787f 3f3d 8432 9ebd c57f 02be 5b6d 703b
000000f0: 4c57 f13d ebdf a3bd b9fb 3abe dac3 4f3c
00000100: 60f6 15bd 3b1a 063e 5a12 123d 52cd debd
00000110: 9160 4d3c b7ac 9a3c b2b4 40bd 1340 463c
00000120: cae3 f5bc e9a4 ab3d 1331 ad3d cb38 df3d
00000130: a585 f7bd 51bd 1b3c 593d 3f3b aeea 083d
00000140: 514e c6ba 1686 4a3d 73c4 213c 82b4 eabc
00000150: ed4d 263e 0820 debd 1ead e0bc 0436 253b
00000160: f06a 9d3c a64e 053d 4f2d a13d e9dc af3d
00000170: 696b babc b562 a9bc 4f68 883b 770a d1bc
00000180: 5040 8a3d fab5 ed3c e2fb 3339 9329 a93c
00000190: 228d a8ba 67d0 2bbb 163d 01bd 2b42 d3bd
000001a0: 51f6 b93d e113 24bd e634 e33d 66b8 84bc
000001b0: 876e 2b3e a635 ffbd fb5d 3abe c881 23bc
000001c0: 83ed 133d 7b23 4abd 89fb ec3d 6ba8 4b3d
000001d0: baea a93d 4e65 65bd fec6 2c3d 24b4 50bd
000001e0: 6325 01bd 9f4e 8e3d c45e 4f3d 631e a13c
000001f0: 1f4c b5bc 9027 853d 65c2 813c 870d bb3c
00000200: c45e 26bd 6771 3ebd 6d2f 2b3e c220 823e
00000210: 831f 0f3d 4615 37bc e460 ddbd b6ee 9abd
00000220: a050 9c3d c7e1 223e 662d 023d 5304 7e3c
00000230: 0342 9fbc 99c0 ce3a c8b8 3ebe f52c 943d
00000240: 13aa 01be 0931 27bf f650 98be b441 1b3f
00000250: d444 ad3b 38bd 8b3b a7f5 8a3e 3a8d 67bd
00000260: e8c3 69bc 48a0 7e3b 22ea 983e 67ed 343e
00000270: 3926 34be efd0 a1bd e9dd 30bc 5bd4 ad3c
00000280: 61f5 05bd 843d 89bc 4507 a8bd 6c3f db3e
00000290: 03d1 3c3b b9b6 6abe 5a95 97be e4d5 70bd
000002a0: 7d82 16be fd9d f2bb c41b b13e a931 9fbd
000002b0: f7d0 b2bd ab93 983d 4697 df3d 1469 c53c
000002c0: c8c8 e8bc 622b 9c3e f3ff 103f fe0a 863e
000002d0: 55d3 5bbc e2f4 43bb a6e6 803b e3a9 fbbd
000002e0: 2bb1 d0bd ffd0 113e 164f 803b 9011 b6ba
000002f0: b812 943d 3737 9abd 3554 c23e 048b fabc
00000300: f4d7 283e bfe6 f83d 6a66 5c3c a77e d7bd
00000310: e270 02be 62ac c13b 5c55 4ebe 7e0c a2bd
00000320: 8ff1 03be 0e73 383e c0ca 263d 5500 8a3d
00000330: c2a8 adbd 5513 6e3c 034d 733d 3619 86be
00000340: 2cea a8bd e4d7 2cbe 93be 05be 87e0 7cbd
00000350: c89d f03d 2551 c6bd e619 fa3e e718 4bbd
00000360: b656 a83d d49d 2abe 8e2e 6bbd 4175 83bb
00000370: 33e8 da3e 820d f83b 68b0 4cbe b559 2dbe
00000380: 79eb 683e f5a9 573d e9b4 46bd fc7b 0fbf
00000390: 3e43 0c3d b9e3 8f3d 15bc debe d357 9e3d
000003a0: e63a bebd c27c 7abe 5f98 5abe d889 7f3e
000003b0: 4985 02be cf8e c5bd 2467 3dbe 0472 9cbc
000003c0: c2ca 0b3e b53e ab3e c666 173f 7e2e 30bd
000003d0: 4174 febd 4229 203d 3640 833c 12c4 ba3e
000003e0: e9f0 843e 0333 1cbe f65b 113e 5f78 2dbe
000003f0: 0d21 47bd a3b0 5a3d 56bd ebbe 61fb 0dbd

weight_hh_l0_reverse f4 [128, 32]
0.001057405 0.052536912 -0.06225719 0.039180636 0.121145755 0.17259781 -0.031533837 0.006170221
-0.13948207 -0.010489911 0.0029244625 -0.10047921 -0.016238863 0.16544992 -0.020548988 0.087937474
-0.022236018 0.19147733 0.089359246 -0.10142657 -0.08614071 0.16258688 -0.015709778 0.01867778
-0.13595615 0.13536002 -0.13243201 -0.10698507 -0.010351241 0.12171709 -0.16689613 0.18192239
0.085223086 0.108570926 -0.021986827 0.13104545 -0.014119983 -0.027178345 0.25147203 0.10734969
-0.14979886 0.04368683 -0.113504104 -0.3270791 0.08482249 0.04359824 0.35327855 0.16494855
-0.014593966 0.1386211 0.3910726 -0.22256902 -0.20609576 0.17988546 -0.17361894 -0.06620236
-0.18853737 -0.18552668 0.060232244 0.0028002413 0.22319283 -0.20510407 -0.099704675 0.33343422
0.058847528 -0.042367924 0.07899487 -0.16499878 0.19566771 0.20111023 0.109453164 -0.088378
-0.12610814 0.025061373 -0.07931814 -0.04154241 0.21016808 0.11016649 0.16224329 0.09179026
-0.16659771 0.09867089 0.07632115 -0.13056809 -0.14207299 -0.0131313875 -0.055285446 -0.16237001
-0.19152261 0.09810723 0.042708337 0.11835304 0.11461086 0.18806235 -0.26089117 -0.05287933
-0.08388187 -0.050189625 -0.16076006 -0.11548431 -0.04606495 0.032871645 0.061530538 0.1919375
-0.15447186 -0.06766071 -0.073238075 -0.0029515293 0.06892946 0.0465192 0.27953368 0.18308192
0.024736596 0.18549424 0.022278588 -0.11085139 -0.18360467 0.16363607 -0.3939458 0.15964185
-0.14994004 0.036045734 0.014632026 0.046134483 0.17346896 -0.11429984 -0.086541645 0.12277828
0.19265328 -0.03962349 -0.14608417 -0.03965508 -0.23798133 0.1283555 0.11157159 0.10314427
0.10864792 -0.13546398 -0.15151815 -0.1865243 -0.0445963 0.16032682 0.17840587 -0.14507525
-0.04840595 0.24419567 0.23182003 -0.17347926 -0.086136125 0.055710614 -0.057868317 0.08597169
-0.18796197 0.09386538 -0.105555125 0.30438256 0.16290407 0.11853873 -0.30855677 -0.019738438
-0.053234518 -0.086845614 0.037554644 -0.07399523 0.107572116 0.32792735 -0.25734568 -0.10172057
-0.08576658 -0.23833889 -0.022880618 -0.1555207 -0.18267947 0.12719132 0.00816804 0.0930211
0.02221203 -0.1500444 -0.06632387 -0.23421554 0.040853176 0.08435528 -0.27186182 0.16733138
0.09134789 -0.112887554 -0.21216111 -0.13209859 -0.13539743 0.12897587 0.085570894 0.1761977
0.18846487 0.29511863 0.04928208 -0.18145126 -0.101514764 -0.21544468 0.25301054 -0.011372629
-0.25358933 0.021851422 0.028532688 0.3139787 0.027614413 0.084160045 0.012804716 0.052804526
0.06288615 0.22188574 -0.013903854 0.05391843 0.02246979 0.23562802 0.40347797 -0.09725362
-0.18440408 0.30173504 0.04927823 0.07377017 -0.17409973 -0.13975559 -0.122845456 0.1619879
0.11975101 -0.11219868 0.20597288 -0.13845962 0.12941113 0.04429435 -0.18971537 -0.26356256
-0.10992616 -0.28412783 -0.07155255 -0.029212914 -0.104128286 0.25178415 0.14878264 -0.06708061
0.073449545 -0.013715551 -0.043264292 -0.2997667 -0.2293405 0.16748582 -0.23549807 0.077836506
-0.028165635 0.0575412 0.1649054 0.15040211 -0.0591414 -0.08753546 -0.105755694 0.17442733
00000000: a098 8a3a f230 573d 6501 7fbd e07b 203d
00000010: 441b f83d 7bbd 303e a029 01bd 912f ca3b
00000020: 63d4 0ebe e0dd 2bbc 57a8 3f3b 0bc8 cdbd
00000030: 5d07 85bc b46b 293e 5a56 a8bc 9018 b43d
00000040: 4f28 b6bc a212 443e fb01 b73d bcb8 cfbd
00000050: 8a6a b0bd 2d7d 263e cbb1 80bc 2502 993c
00000060: 1738 0bbe d19b 0a3e 429c 07be fd1a dbbd
00000070: 4098 29bc cf46 f93d d2e6 2abe dd49 3a3e
00000080: 7189 ae3d 6f5a de3d b81d b4bc c730 063e
00000090: 8057 67bc 1fa5 debc f1c0 803e 27da db3d
000000a0: df64 19be f6f0 323d d774 e8bd e976 a7be
000000b0: 6ab7 ad3d 1194 323d ede0 b43e 46e8 283e
000000c0: 881b 6fbc b1f2 0d3e ab3a c83e 22e9 63be
000000d0: c40a 53be e533 383e 2ac9 31be 1a95 87bd
000000e0: f10f 41be b5fa 3dbe 16b6 763d 4184 373b
000000f0: a98c 643e cd06 52be f731 ccbd e4b7 aa3e
00000100: 1b0a 713d fd89 2dbd 10c8 a13d 71f5 28be
00000110: 1e5d 483e d7ef 4d3e fb28 e03d 86ff b4bd
00000120: 7e22 01be 824d cd3c 8d71 a2bd 6028 2abd
00000130: 4d36 573e f89e e13d 1b23 263e 88fc bb3d
00000140: 9798 2abe f713 ca3d 434e 9c3d a4b3 05be
00000150: 957b 11be 0825 57bc fe72 62bd 5344 26be
00000160: 811e 44be 72ec c83d f0ee 2e3d 1463 f23d
00000170: 19b9 ea3d 6b93 403e 8793 85be ff97 58bd
00000180: 42ca abbd a393 4dbd 499e 24be 0a83 ecbd
00000190: 9aae 3cbd 6ba4 063d 7207 7c3d 448b 443e
000001a0: df2d 1ebe b391 8abd d8fd 95bd 726e 41bb
000001b0: e42a 8d3d eb8a 3e3d 0a1f 8f3e d479 3b3e
000001c0: 67a4 ca3c 34f2 3d3e 9681 b63c 0e06 e3bd
000001d0: dd02 3cbe 3790 273e 44b3 c9be 2779 233e
000001e0: e289 19be b1a4 133d 2abb 6f3c 83f7 3c3d
000001f0: d9a1 313e 0916 eabd bf3c b1bd 2e73 fb3d
00000200: e746 453e 3e4c 22bd 1797 15be 5d6d 22bd
00000210: 61b1 73be a06f 033e a57f e43d 4e3d d33d
00000220: cd82 de3d 12b7 0abe 9327 1bbe 3a00 3fbe
00000230: 9caa 36bd b72c 243e 07b0 363e 9b8e 14be
00000240: 5145 46bd 6e0e 7a3e 3b62 6d3e 8ca4 31be
00000250: 2368 b0bd d030 643d 5407 6dbd ed11 b03d
00000260: 1a79 40be 7e3c c03d 492d d8bd 08d8 9b3e
00000270: 53d0 263e 6fc4 f23d 27fb 9dbe 81b2 a1bc
00000280: 700c 5abd 1ddc b1bd e6d2 193d d08a 97bd
00000290: c54e dc3d 18e6 a73e d0c2 83be e052 d0bd
000002a0: 64a6 afbd 1c0f 74be 2270 bbbc d240 1fbe
000002b0: 5410 3bbe 713e 023e 3ed3 053c d981 be3d
000002c0: 01f6 b53c 3da5 19be cfd4 87bd 33d6 6fbe
000002d0: a955 273d 76c2 ac3d 7931 8bbe eb58 2b3e
000002e0: 9a14 bb3d 9731 e7bd c340 59be da44 07be
000002f0: a0a5 0abe 4012 043e cb3f af3d 2b6d 343e
00000300: effc 403e ca19 973e 02dc 493d 5cce 39be
00000310: f9e6 cfbd 889d 5cbe 998a 813e 4354 3abc
00000320: 76d6 81be c101 b33c 62bd e93c d1c1 a03e
00000330: 9f37 e23c 1a5c ac3d dfca 513c 8f49 583d
00000340: 74ca 803d 0436 633e fecc 63bc 92d9 5c3d
00000350: 9112 b83c 7948 713e aa94 ce3e e82c c7bd
00000360: 6cd4 3cbe 047d 9a3e f8d7 493d d114 973d
00000370: 3347 32be 171c 0fbe 6696 fbbd 28e0 253e
00000380: 0440 f53d 6cc8 e5bd 8eea 523e 5cc8 0dbe
00000390: 5a84 043e fe6d 353d bf44 42be acf1 86be
000003a0: f720 e1bd 3479 91be 258a 92bd ec4f efbc
000003b0: 3641 d5bd dae9 803e 7a5a 183e 8f61 89bd
000003c0: b76c 963d 31b7 60bc e635 31bd 057b 99be
000003d0: 3cd8 6abe 6781 2b3e 6826 71be bf68 9f3d
000003e0: 9ebb e6bc 52b0 6b3d f6dc 283e 0303 1a3e
000003f0: 413e 72bd cb45 b3bd 7196 d8bd 149d 323e
