experiments/pedestrians/models/models_28_Feb_2024_18_54_13_eth_vel_ar3/model_registrar-3.pt (torch, 527902 bytes, 43 tensors)

weight_ih_l0 f4 [128, 6]
-0.06033244 0.05188126 -0.114895694 -0.0092105325 -0.080780625 0.1720534 -0.15617603 -0.17079172
-0.19175722 0.1656939 -0.051069576 0.045051146 -0.15761824 -0.08970355 0.07754932 -0.07221613
-0.14889671 0.12887731 -0.046282507 0.03035417 0.15996455 -0.07291156 0.010745312 0.18002371
-0.10118519 0.029912157 0.018857855 0.34743798 0.08305295 -0.17912328 0.13706496 0.129632
0.046787668 -0.15342058 0.1567943 0.031984586 -0.1537144 -0.02357571 -0.21523322 -0.088194884
0.05547179 -0.05825403 -0.066002294 0.21282053 -0.004925546 -0.033947665 0.011000799 0.014562311
0.20029679 0.07623004 0.057959016 0.23999579 0.10580707 -0.02163559 0.023902254 -0.119523786
-0.3146687 0.07736499 0.029435722 -0.10717992 0.049591765 0.13180207 -0.2249958 -0.23968717
-0.024953067 0.0022590118 -0.021150379 -0.01924098 -0.33536977 0.081478566 0.0693597 0.13960707
-0.08901225 -0.17697647 0.07749979 0.18249963 0.03208625 -0.03593788 -0.036188364 0.09299754
0.123508364 0.090573266 -0.031766754 -0.012996684 -0.1253714 -0.106969625 -0.083316505 0.35807568
0.09956839 0.0047878125 -0.15046048 0.153625 -0.04982205 0.19617613 -0.17869231 -0.006670241
0.15415592 0.07176635 0.28789026 0.115798146 0.056089774 -0.157715 0.042835083 -0.12912342
-0.010027861 -0.060686726 0.06608454 0.06151585 0.101909555 0.01938136 0.0100547355 -0.34272063
0.094135724 0.039823726 -0.024510799 0.014511866 -0.14155558 -0.021170571 0.0075913244 0.13933577
-0.040020097 0.05685391 0.20051788 0.17207798 0.020082379 -0.11738881 0.057048645 0.05263985
-0.044934303 0.15555425 -0.03132084 -0.014500384 0.003231022 -0.119366035 -0.050991964 -0.0343004
0.08094021 0.03539329 -0.009579742 -0.0074159685 -0.10006784 -0.16343403 0.068807535 0.10849071
0.05295382 0.016945722 0.05097013 -0.085841335 -0.13631772 -0.020459956 -0.085954234 -0.039534837
-0.15352644 0.11325717 0.07240122 0.112816475 -0.0862011 0.06901373 -0.1715387 -0.032222793
0.087851815 0.14402014 -0.14159228 0.15995774 0.16849692 0.113610104 0.002212938 0.113031656
0.15297861 0.10506755 -0.20860359 -0.0799935 0.041769486 -0.0013038506 -0.093256585 -0.12972772
-0.22924909 0.001787604 0.25830784 0.004014878 -0.020785429 0.04544257 0.30279344 -0.16574095
-0.064526655 -0.10437405 -0.11212354 0.05924269 0.29072097 0.056288082 -0.15715845 -0.15516715
0.0434627 0.17096706 -0.020464865 -0.07116733 -0.013417846 -0.1264114 0.13603568 0.032178827
0.05289842 0.020102305 -0.029037995 -0.071714945 -0.1193216 0.030039683 -0.0020640611 0.014274052
-0.048767023 0.012593855 -0.07418922 -0.066917375 0.013711843 -0.015733657 0.011241762 0.006143312
0.070640884 -0.08023175 -0.0035870788 0.01098452 -0.18052825 -0.0901116 0.07197406 -0.040384978
0.0016158114 -0.19774768 -0.027897853 -0.1735114 0.06843628 0.0019450377 -0.017395647 0.029197056
-0.13265352 0.04689805 -0.011204135 -0.09049118 0.023579786 -0.006137659 -0.14452365 0.033288684
0.11678062 -0.068996824 -0.012411402 0.05430295 0.098918416 0.16110362 -0.10735571 -0.076844126
0.05785527 0.07153918 0.072521016 -0.12423305 0.15931113 -0.15016602 0.010709165 -0.055453695
00000000: 261f 77bd 7281 543d 6f4e ebbd c6e7 16bc
00000010: 5070 a5bd c42e 303e 9cec 1fbe 06e4 2ebe
00000020: 015c 44be a9ab 293e 552e 51bd 8d87 383d
00000030: ad66 21be 7fb6 b7bd 2ed2 9e3d 0de6 93bd
00000040: 6178 18be 6af8 033e ba92 3dbd 4fa9 f83c
00000050: bfcd 233e a852 95bd 1b0d 303c 2358 383e
00000060: 2e3a cfbd 570a f53c ca7b 9a3c 64e3 b13e
00000070: aa17 aa3d 186c 37be c25a 0c3e 40be 043e
00000080: 6da4 3f3d 491a 1dbe af8e 203e 4502 033d
00000090: 4f67 1dbe d921 c1bc 1966 5cbe 859f b4bd
000000a0: 6336 633d c79b 6ebd 362c 87bd a0ed 593e
000000b0: 7966 a1bb b50c 0bbd b23c 343c c296 6e3c
000000c0: 9a1a 4d3e 7f1e 9c3d 6f66 6d3d 75c1 753e
000000d0: 61b1 d83d 1f3d b1bc a9ce c33c e3c8 f4bd
000000e0: 411c a1be 8971 9e3d 2f23 f13c 2581 dbbd
000000f0: bc20 4b3d 1ff7 063e 4d65 66be 8e70 75be
00000100: 606a ccbc ee0b 143b 8f43 adbc 429f 9dbc
00000110: 96b5 abbe 3cde a63d 750c 8e3d 28f5 0e3e
00000120: 0e4c b6bd 5239 35be 36b8 9e3d 2fe1 3a3e
00000130: df6c 033d 9933 13bd 403a 14bd 7f75 be3d
00000140: f4f1 fc3d 7a7e b93d db1d 02bd 0bf0 54bc
00000150: 5c61 00be e412 dbbd d8a1 aabd b255 b73e
00000160: 83ea cb3d 15e3 9c3b 5012 1abe df4f 1d3e
00000170: 3512 4cbd 65e2 483e 1efb 36be 0992 dabb
00000180: 0ddb 1d3e 3cfa 923d 5a66 933e 9427 ed3d
00000190: 64be 653d 0a80 21be d773 2f3d ee38 04be
000001a0: e64b 24bc a592 78bd 5557 873d 0bf8 7b3d
000001b0: f5b5 d03d a8c5 9e3c 9ebc 243c 1479 afbe
000001c0: 3bca c03d 341e 233d dfca c8bc 2dc3 6d3c
000001d0: f2f3 10be e86d adbc a5c0 f83b 09ae 0e3e
000001e0: 1dec 23bd a5df 683d 8f54 4d3e 3635 303e
000001f0: cd83 a43c 8b69 f0bd d7ab 693d e29c 573d
00000200: 080d 38bd 9d49 1f3e 484a 00bd 0593 6dbc
00000210: 8ebf 533b 2e76 f4bd f3dc 50bd 947e 0cbd
00000220: fbc3 a53d 8ef8 103d 5af4 1cbc a701 f3bb
00000230: 5ef0 ccbd 405b 27be f7ea 8c3d 6130 de3d
00000240: 1be6 583d c1d1 8a3c 0ec6 503d 95cd afbd
00000250: df96 0bbe a39b a7bc c608 b0bd 48ef 21bd
00000260: 0936 1dbe 60f3 e73d 1747 943d 530c e73d
00000270: 348a b0bd 1257 8d3d d7a7 2fbe 0cfc 03bd
00000280: a7eb b33d 047a 133e 91fd 10be f6cb 233e
00000290: 758a 2c3e 6aac e83d f006 113b 247d e73d
000002a0: 6da6 1c3e a82d d73d 2e9c 55be a2d3 a3bd
000002b0: 7b16 2b3d f7e5 aaba 4ffd bebd 58d7 04be
000002c0: 46c0 6abe 094e ea3a ed40 843e 3d8f 833b
000002d0: 3446 aabc fd21 3a3d be07 9b3e ffb7 29be
000002e0: 8d26 84bd 10c2 d5bd 07a1 e5bd 77a8 723d
000002f0: 61d9 943e 558e 663d 25ee 20be 23e4 1ebe
00000300: f205 323d fd11 2f3e efa5 a7bc 2dc0 91bd
00000310: 86d6 5bbc fd71 01be f04c 0b3e f2cd 033d
00000320: 03ac 583d 97ad a43c 17e1 edbc 49df 92bd
00000330: e25e f4bd c815 f63c 3345 07bb b7dd 693c
00000340: eebf 47bd 7556 4e3c 85f0 97bd fa0b 89bd
00000350: a3a7 603c dfe3 80bc 5e2f 383c d64d c93b
00000360: 2bac 903d 8b50 a4bd 3215 6bbb 6bf8 333c
00000370: 66dc 38be 6e8c b8bd 2367 933d b86a 25bd
00000380: a2c9 d33a 5e7e 4abe 0a8a e4bc f9ac 31be
00000390: 5228 8c3d a3f0 fe3a 5181 8ebc aa2e ef3c
000003a0: 53d6 07be 2b18 403d 8c91 37bc 7153 b9bd
000003b0: 652a c13c 6a1e c9bb 02fe 13be b759 083d
000003c0: ad2a ef3d 354e 8dbd 3159 4bbc c56c 5e3d
000003d0: bd95 ca3d 59f8 243e 4fdd dbbd 7460 9dbd
000003e0: a6f9 6c3d 2283 923d e685 943d e66d febd
000003f0: 7522 233e 1fc5 19be 7e75 2f3c 6a23 63bd

weight_hh_l0 f4 [128, 32]
-0.07589495 -0.06327385 -0.046301417 0.108743675 -0.02434386 -0.07098824 -0.10560466 -0.019200908
0.08175931 0.10982499 0.04615441 0.146697 -0.070305906 0.1288174 0.10820422 0.1798659
0.06592252 -0.1686598 0.1240228 -0.13580419 -0.13719836 -0.09449491 -0.05848674 -0.19319902
0.12550908 -0.08089227 0.08904351 0.11839772 0.055606104 0.09792509 -0.011443682 -0.14718778
0.10015 -0.15213543 0.03661656 -0.049609885 0.07575394 0.16442052 -0.033865295 -0.04859478
0.1967139 -0.057041544 -0.16880046 -0.082448944 -0.15193684 0.15757562 0.16972895 -0.033495996
0.09922304 0.10891276 -0.102012254 0.018715205 0.070236996 -0.06556667 -0.123157755 -0.059208255
-0.019214906 -0.02917844 -0.118601546 -0.23297806 0.008377206 0.09342972 0.029449543 -0.109252624
0.09437696 -0.11014326 -0.09441385 0.15017559 0.028542012 0.04896148 -0.15161388 -0.1659135
-0.046401575 0.1874682 -0.15963298 0.09525029 -0.09586428 -0.13011225 0.1249024 -0.117292054
0.0013044565 -0.06203198 0.15265676 -0.17904651 0.052270953 0.12958843 0.0515781 0.15123573
0.14297934 0.14832617 0.122987494 0.1610923 0.08088332 0.06153533 -0.11948524 0.11966333
-0.017263051 0.074232064 -0.012500002 0.09382705 -0.15478322 -0.12837677 -0.03924829 0.14985637
-0.13205904 0.02503154 -0.025061201 -0.20715027 -0.20051815 -0.11326747 -0.17667268 -0.113095045
-0.067857884 0.1924735 -0.09704872 -0.086252436 -0.09291746 0.07164906 0.11701312 -0.090964906
-0.083495595 0.095338486 -0.14437394 0.09434315 -0.12340368 0.0486763 0.13349116 0.079440795
-0.20684482 -0.09157872 0.122134395 -0.18592381 0.17545968 -0.15859868 -0.023582196 0.116915576
-0.18302926 -0.12210917 -0.063920885 -0.07246018 -0.033091854 0.1360311 0.054549217 -0.19423245
-0.050934475 -0.12848216 -0.11922058 0.081350125 0.016615752 0.15972793 0.044944618 -0.13011551
0.06169457 -0.0780596 -0.13926657 -0.1405938 0.1178368 -0.10357084 0.16801964 -0.13086812
0.19389191 -0.10479952 0.09154926 -0.17229784 -0.09967261 -0.065980665 0.020664807 -0.10997384
-0.07060398 -0.034779463 0.16889526 -0.21654841 -0.15097314 0.07309152 -0.029658634 -0.0014442708
-0.056185726 0.17209518 -0.14084314 0.12500623 0.0669207 -0.07086203 -0.0037768243 -0.084507845
-0.09303046 -0.099448144 0.11352101 0.13748087 -0.0007207495 0.07210823 0.09715614 0.13627988
0.18759407 0.10307836 -0.192856 0.19733031 0.011500221 -0.05039215 0.01941418 -0.10488054
-0.06483068 0.025447134 -0.05993081 -0.1680351 0.004824532 0.13073198 0.02229021 0.060269754
0.010621916 -0.1320757 -0.0075286203 -0.11660615 0.06983155 0.17160138 0.16753629 -0.018159723
-0.13420385 0.017801438 0.15539326 -0.05092041 -0.16861884 0.18718335 -0.17027424 0.01338297
0.20217815 -0.08648612 -0.026369834 0.012299168 -0.06860502 0.059225045 0.05546568 -0.053688183
-0.039485317 -0.06978915 -0.024128048 -0.14621931 0.14543708 0.017472075 0.056418754 0.054485094
0.07308843 -0.09358426 -0.1103834 0.01070043 -0.15818347 -0.034537118 -0.054593377 -0.19029629
0.073048785 0.19837594 -0.010822249 0.16450085 0.09288954 0.13490012 0.04278588 0.14865457
00000000: d06e 9bbd b895 81bd 8ea6 3dbd 01b5 de3d
00000010: c66c c7bc 4862 91bd 4247 d8bd 394b 9dbc
00000020: 6d71 a73d edeb e03d 680c 3d3d bd37 163e
00000030: 8bfc 8fbd b5e8 033e 2d9a dd3d c42e 383e
00000040: 6302 873d 28b5 2cbe aaff fd3d 4110 0bbe
00000050: ba7d 0cbe 8c86 c1bd cb8f 6fbd f7d5 45be
00000060: 7485 003e d9aa a5bd 725c b63d 817a f23d
00000070: 3ac3 633d f38c c83d 487e 3bbc 65b8 16be
00000080: 711b cd3d 64c9 1bbe 3ffb 153d bc33 4bbd
00000090: e224 9b3d da5d 283e 56b6 0abd 520b 47bd
000000a0: 5e6f 493e 65a4 69bd 07da 2cbe feda a8bd
000000b0: 5595 1bbe 815b 213e 6dcd 2d3e 1933 09bd
000000c0: 7335 cb3d a70d df3d cdeb d0bd a150 993c
000000d0: 6ad8 8f3d d147 86bd 223a fcbd 5b84 72bd
000000e0: 9468 9dbc a007 efbc 5ee5 f2bd cd91 6ebe
000000f0: 8c40 093c 1558 bf3d 2b40 f13c d7bf dfbd
00000100: b548 c13d ca92 e1bd 0c5c c1bd a1c7 193e
00000110: f0d0 e93c d58b 483d ab40 1bbe 3be5 29be
00000120: 940f 3ebd aaf7 3f3e d476 23be 9612 c33d
00000130: 7e54 c4bd 253c 05be d4cc ff3d d136 f0bd
00000140: 4cfa aa3a 3f15 7ebd 0e52 1c3e f857 37be
00000150: 111a 563d d4b2 043e 8f43 533d 8add 1a3e
00000160: 2d69 123e d1e2 173e dee0 fb3d 61f5 243e
00000170: 27a6 a53d 780c 7c3d adb4 f4bd 0c12 f53d
00000180: 3e6b 8dbc fb06 983d cfcc 4cbc 6528 c03d
00000190: 7e7f 1ebe 3375 03be d1c2 20bd f373 193e
000001a0: 7c3a 07be f20e cd3c 264d cdbc 331f 54be
000001b0: a154 4dbe c6f8 e7bd afe9 34be 609e e7bd
000001c0: 13f9 8abd c617 453e 7bc1 c6bd 1ea5 b0bd
000001d0: 824b bebd bebc 923d 93a4 ef3d cf4b babd
000001e0: bdff aabd d340 c33d c3d6 13be fb36 c13d
000001f0: 12bb fcbd cd60 473d e8b1 083e dbb1 a23d
00000200: 21cf 53be a08d bbbd 9921 fa3d d062 3ebe
00000210: b4ab 333e b167 22be 732f c1bc 6f71 ef3d
00000220: 066c 3bbe 5f14 fabd f4e8 82bd 0166 94bd
00000230: 538b 07bd bd4b 0b3e 006f 5f3d dfe4 46be
00000240: aba0 50bd d490 03be eb29 f4bd e59a a63d
00000250: c21d 883c b88f 233e d917 383d 003d 05be
00000260: 72b3 7c3d b6dd 9fbd e59b 0ebe d2f7 0fbe
00000270: 6c54 f13d f31c d4bd 570d 2c3e 4b02 06be
00000280: 9a8b 463e 21a1 d6bd 2e7e bb3d d86e 30be
00000290: 2721 ccbd df20 87bd 3e49 a93c f739 e1bd
000002a0: d298 90bd e974 0ebd e1f2 2c3e debe 5dbe
000002b0: b498 1abe 02b1 953d aaf6 f2bc b04d bdba
000002c0: 0123 66bd b839 303e 2f39 10be a201 003e
000002d0: b80d 893d 1d20 91bd 9984 77bb 7312 adbd
000002e0: c186 bebd 78ab cbbd b47d e83d c9c7 0c3e
000002f0: aef0 3cba 7bad 933d ccf9 c63d f48c 0b3e
00000300: a918 403e bf1a d33d 0b7c 45be f510 4a3e
00000310: 6c6b 3c3c 0068 4ebd 7d0a 9f3c 9ccb d6bd
00000320: f3c5 84bd 8276 d03c 027a 75bd 6511 2cbe
00000330: 1c17 9e3b 9bde 053e f599 b63c 6bdd 763d
00000340: 8b07 2e3c da3e 07be a5b2 f6bb 35cf eebd
00000350: d803 8f3d 46b8 2f3e a28e 2b3e b3c3 94bc
00000360: bc6c 09be 52d4 913c 691f 1f3e eb91 50bd
00000370: 6baa 2cbe feac 3f3e 5f5c 2ebe 3f44 5b3c
00000380: ca07 4f3e a31f b1bd 8d05 d8bc 7382 493c
00000390: ca80 8cbd f695 723d fb2f 633d 24e8 5bbd
000003a0: 5bbb 21bd 9ded 8ebd 2fa8 c5bc 84ba 15be
000003b0: 75ed 143e 9921 8f3c 5a17 673d c32b 5f3d
000003c0: 63af 953d 1ba9 bfbd b110 e2bd db50 2f3c
000003d0: d9fa 21be cb76 0dbd 4e9d 5fbd 08dd 42be
000003e0: 9a9a 953d 1023 4b3e cd4f 31bc e972 283e
000003f0: df3c be3d 4223 0a3e 3f40 2f3d e738 183e

bias_ih_l0 f4 [128]
-0.043009613 -0.108435445 0.005273596 -0.15304177 -0.11779879 0.2077639 -0.07665905 -0.19288957
0.04795063 0.05070194 0.18945889 0.20629528 0.057314575 -0.19623917 0.06487259 -0.08608537
0.02844312 0.11779113 -0.013712351 0.12817168 0.026078613 -0.05799237 -0.09776151 -0.07877706
0.119183786 0.12488351 -0.018158007 0.15732853 0.06273211 -0.075130016 -0.15225971 0.028896099
0.19497149 -0.17438757 -0.13485707 0.111717984 -0.15505968 -0.037124045 -0.18023801 -0.010616768
-0.12171017 0.054354254 -0.04706 0.08464744 -0.0376121 0.13000995 0.0025830595 -0.057926722
0.16222198 0.056693386 -0.06593262 0.07415095 -0.16591208 0.03661091 0.06955508 0.07454882
0.060566258 0.20094515 0.12178142 0.2351119 0.07385571 -0.099707715 -0.18440469 -0.047996137
0.012654737 0.13829924 -0.12555757 0.19340596 -0.110197976 0.08059792 0.069429934 0.09006678
0.05365644 0.20757134 -0.1931364 0.11990119 -0.24858186 -0.14525458 -0.09165133 0.004743262
-0.15323766 0.030611657 0.0261874 -0.13072714 0.040158436 0.23535979 -0.0022044997 -0.022219691
0.21530958 0.0026409675 0.17927909 -0.27128774 -0.17985678 -0.029418731 0.038732078 -0.031148426
0.06526739 -0.127631 0.06335068 -0.090805635 0.016432455 0.08036485 -0.0331921 -0.17843817
-0.055936527 0.047948662 -0.052969273 0.118711345 0.0036423828 -0.15831153 0.13613044 0.03763867
0.101786956 0.009680874 0.10906136 0.0006045925 0.14565164 -0.05645603 -0.12362422 -0.020700837
-0.10934146 0.1540455 0.08386813 0.056804296 0.12227599 0.051562704 -0.09519026 0.019475756
00000000: d92a 30bd 6713 debd 21ce ac3b fbb6 1cbe
00000010: 7e40 f1bd 0fc0 543e 6cff 9cbd d884 45be
00000020: e167 443d d6ac 4f3d 8301 423e 123f 533e
00000030: b0c2 6a3d ecf2 48be ecdb 843d 874d b0bd
00000040: 8c01 e93c 7a3c f13d c5a9 60bc 703f 033e
00000050: d1a2 d53c 6889 6dbd 3037 c8bd de55 a1bd
00000060: a116 f43d edc2 ff3d 1ac0 94bc bb1a 213e
00000070: b179 803d c4dd 99bd f8e9 1bbe 83b7 ec3c
00000080: 9ba6 473e a892 32be f917 0abe 66cc e43d
00000090: f7c7 1ebe 620f 18bd 5090 38be f4f1 2dbc
000000a0: 2e43 f9bd 91a2 5e3d fdc1 40bd a35b ad3d
000000b0: 250f 1abd 5421 053e 8c48 293b 9244 6dbd
000000c0: 851d 263e 5337 683d ae07 87bd 74dc 973d
000000d0: dbe4 29be 52f5 153d e572 8e3d 0dad 983d
000000e0: 5314 783d 91c4 4d3e 8a68 f93d 2dc1 703e
000000f0: aa41 973d 8f33 ccbd 95d4 3cbe 9997 44bd
00000100: d055 4f3c 519e 0d3e 2a92 00be 360c 463e
00000110: 7aaf e1bd 8610 a53d 4831 8e3d ef74 b83d
00000120: dbc6 5b3d 958d 543e 8cc5 45be c18e f53d
00000130: 3e8c 7ebe 9ebd 14be b1b3 bbbd 5e6d 9b3b
00000140: 55ea 1cbe 4cc5 fa3c f586 d63c 56dd 05be
00000150: 2c7d 243d 2802 713e 5e79 10bb 1206 b6bc
00000160: 1d7a 5c3e 1514 2d3b f094 373e 3ae6 8abe
00000170: 602c 38be 8dff f0bc 87a5 1e3d fc2a ffbc
00000180: e9aa 853d b3b1 02be 00be 813d 4ef8 b9bd
00000190: 5b9d 863c 5496 a43d 70f4 07bd 7fb8 36be
000001a0: b31d 65bd d165 443d 4ff6 58bd ef1e f33d
000001b0: 0bb5 6e3b 6b1c 22be c765 0b3e 022b 1a3d
000001c0: ae75 d03d 879c 1e3c 905b df3d 847d 1e3a
000001d0: b425 153e 703e 67bd b22e fdbd cd94 a9bc
000001e0: 6aee dfbd 1bbe 1d3e 0ec3 ab3d 9fab 683d
000001f0: d66b fa3d 6a33 533d 1cf3 c2bd 9f8b 9f3c

bias_hh_l0 f4 [128]
-0.08729959 -0.09532788 -0.1285167 0.008441555 0.025977075 -0.03613647 -0.17830878 -0.015324925
0.13308837 0.21559712 -0.06699484 0.081467256 -0.18097933 0.098029695 0.105436064 0.074335314
-0.058523726 0.11035137 -0.10940295 0.08389433 0.17375614 0.12272471 -0.069235995 -0.014479169
0.020844877 0.109754995 0.055396687 0.065746516 -0.01889397 -0.08447299 -0.08274073 0.07908706
0.106212154 -0.14829771 0.102832034 -0.09442615 0.15330568 0.1257194 -0.039295662 -0.15544237
-0.048824493 -0.0018678891 -0.028125448 0.023458693 -0.040394407 -0.04942671 0.10853778 -0.007814586
0.031423807 -0.011230411 -0.0375797 -0.107134886 -0.022004768 -0.12618546 -0.15351121 0.046561323
-0.14301588 -0.10768329 -0.13175552 0.17441905 0.04563463 0.1342087 -0.052320115 0.25339487
-0.27060416 -0.13047385 0.044521417 0.1377749 0.14646256 0.11291914 -0.11671253 0.13695736
0.19491413 0.11395327 -0.065303564 0.13719468 -0.0678682 -0.078810446 -0.16935617 0.15100144
-0.06029642 0.27300248 -0.04836551 -0.2573086 -0.11681662 0.17490669 -0.24579918 0.22585838
-0.023187347 0.10828147 0.18224616 -0.15644106 -0.16840199 -0.30806312 0.014182962 0.072847374
-0.0497722 0.0066946484 -0.092749454 0.13650742 0.115046635 -0.016245699 0.16538724 0.13215528
-0.10993806 0.07029922 0.18829885 0.1956032 0.015803916 0.034870643 0.05598478 0.04550257
0.120279625 -0.12711075 0.21415742 -0.12288501 0.10869983 0.13463837 0.028151713 0.111888506
0.07848753 0.12969394 0.13578288 0.06300783 -0.0070643146 0.04602082 -0.06817216 0.2202139
00000000: 21ca b2bd 433b c3bd e299 03be 734e 0a3c
00000010: e0cd d43c d603 14bd 9496 36be 6515 7bbc
00000020: 5148 083e 7ec5 5c3e 9734 89bd 4ed8 a63d
00000030: a552 39be cbc3 c83d ddee d73d 1d3d 983d
00000040: 93b6 6fbd e6ff e13d a70e e0bd cad0 ab3d
00000050: 21ed 313e 1857 fb3d 9acb 8dbd 093a 6dbc
00000060: e0c2 aa3c 3ac7 e03d a3e7 623d 1ca6 863d
00000070: 87c7 9abc 2d00 adbd f973 a9bd 66f8 a13d
00000080: c285 d93d 5bdb 17be 9a99 d23d 7f62 c1bd
00000090: 2afc 1c3e 96bc 003e 7df4 20bd 492c 1fbe
000000a0: 31fc 47bd f5d3 f4ba 5767 e6bc 722c c03c
000000b0: 9b74 25bd a973 4abd 0e49 de3d c008 00bc
000000c0: 40b6 003d c2ff 37bc 2ced 19bd 8969 dbbd
000000d0: 5843 b4bc c336 01be 0b32 1dbe 16b7 3e3d
000000e0: c172 12be 0f89 dcbd ebea 06be e89a 323e
000000f0: 61eb 3a3d 016e 093e 9e4d 56bd f9bc 813e
00000100: a18c 8abe f09a 05be 175c 363d dd14 0d3e
00000110: 48fa 153e 2642 e73d fb06 efbd 8d3e 0c3e
00000120: 9297 473e 5560 e93d e0bd 85bd c37c 0c3e
00000130: 7cfe 8abd 5f67 a1bd b46b 2dbe 1fa0 1a3e
00000140: 61f9 76bd fbc6 8b3e ea1a 46bd f4bd 83be
00000150: 8d3d efbd bd1a 333e c8b2 7bbe 6b47 673e
00000160: 64f3 bdbc adc2 dd3d bd9e 3a3e 1632 20be
00000170: 9271 2cbe 73ba 9dbe a75f 683c 0131 953d
00000180: efdd 4bbd c85e db3b 6df3 bdbd 9ac8 0b3e
00000190: 929d eb3d b315 85bc 465b 293e b753 073e
000001a0: 3527 e1bd 0af9 8f3d 6ad1 403e 354c 483e
000001b0: 3777 813c 85d4 0e3d 4c50 653d e760 3a3d
000001c0: 2a55 f63d 5229 02be 154c 5b3e 23ab fbbd
000001d0: 049e de3d a4de 093e 6c9e e63c cd25 e53d
000001e0: 12be a03d 7dce 043e ab0a 0b3e 400a 813d
000001f0: c47b e7bb 5480 3c3d d89d 8bbd c17f 613e

weight_ih_l0 f4 [128, 2]
0.11685115 0.16870841 -0.013626855 0.13712496 0.046961535 -0.07263915 -0.0901033 -0.02945483
-0.05136539 -0.11949072 0.022212693 0.09953932 -0.034229033 0.0071738786 -0.040022098 -0.052704006
0.059879433 -0.21117106 -0.033883616 -0.012049116 -0.051958155 0.089635536 0.09327262 -0.02332327
-0.030720666 -0.08654344 0.10174266 -0.05420166 -0.08436364 -0.025236927 -0.053513296 0.04111384
-0.1254342 0.109652504 0.06474336 0.15969472 0.015731603 0.021972362 0.020908127 0.055269312
0.12648225 -0.13141082 -0.031795476 0.057254437 -0.051390704 0.053066373 -0.0636698 0.163257
0.05960228 -0.025504388 -0.06107543 0.07245042 0.16336855 0.09780802 -0.11142597 0.16877158
-0.14308448 0.08486018 -0.015779324 -0.0032865938 0.19859582 0.026110398 -0.013867794 0.0022447358
0.008825667 0.07619674 0.0056718574 -0.026113428 0.002485129 0.011260589 0.012013718 -0.017068656
0.035232008 -0.09860615 -0.004964155 0.0072376295 -0.09569485 -0.02124376 0.008351443 0.0041556214
-0.007829316 -0.05775423 0.037174366 -0.024922695 -0.008334486 -0.024754385 -0.022273019 -0.03173314
-0.015307226 0.008286879 0.01271908 -0.0036996615 0.03504585 -0.017562797 0.016911253 -0.036260538
0.016736673 0.002422062 -0.015245871 -0.07092744 -0.040092826 -0.029235335 0.00056311494 -0.027670946
-0.025723776 -0.05650746 -0.008975342 0.0067642843 0.016948476 -0.011412145 -0.014339219 -0.06323345
-0.029780833 -0.012640056 -0.019516591 -0.0062151295 -0.01510255 -0.024054084 -0.0019588703 -0.01220096
0.009931041 -0.026236976 -0.0055582025 0.0021078184 0.12619828 -0.022854827 -0.00220735 -0.046309087
0.013209368 0.045676988 -0.038664363 -0.09530383 -0.011662833 -0.03153733 -0.021207204 -0.12151689
-0.025709717 0.030679677 0.063033104 -0.108927965 -0.026925731 -0.018542672 0.053638984 -0.03985327
0.013014223 -0.03510695 0.038226955 0.07916645 0.024943165 0.16844057 -0.13461778 0.07086824
-0.07806665 -0.11578387 0.11149027 0.03189725 -0.095255956 -0.015977394 -0.041377213 0.11428428
-0.030807562 0.022550609 -0.017788623 -0.011157469 -0.054034356 -0.0030678397 0.024452334 0.037416812
-0.031802792 -0.018250234 -0.07558738 0.030166345 -0.015417894 -0.014528211 -0.0051253503 -0.01852536
0.05916041 0.03392606 0.038676996 0.028694564 -0.11936858 0.040188823 0.0172953 0.022766722
-0.0105947 0.03209631 0.12876846 0.13608618 0.06959868 0.039166536 -0.03454562 -0.019025
-0.1652753 -0.07950482 0.15265287 0.060115505 -0.029586384 -0.24722232 0.104277626 0.06948992
-0.096428014 -0.0778578 -0.10246248 -0.058986615 -0.12301174 -0.100177966 -0.10691268 -0.15449674
-0.03887239 0.097734965 -0.068510324 -0.20944455 0.07670303 0.1702544 0.14933929 -0.094816186
-0.00942589 -0.044680428 0.10644205 0.16251825 0.06584652 0.17752588 -0.01332096 0.20396447
-0.08742918 0.057698112 -0.14120014 -0.13410339 -0.23623836 -0.070757195 0.15043928 0.16223331
0.13743317 -0.015761977 -0.03237308 -0.034987558 0.1547707 0.08708789 -0.1874048 0.03101509
0.16802303 0.093052186 -0.23769706 -0.024691788 0.12852986 -0.041590415 0.1289602 0.09245918
-0.15167071 0.027969666 0.04166578 -0.22573681 0.1147194 -0.03599491 -0.023510506 -0.12011681
00000000: a84f ef3d e6c1 2c3e 2c43 5fbc 7c6a 0c3e
00000010: bd5a 403d d6c3 94bd 1488 b8bd 414b f1bc
00000020: 8464 52bd 8db7 f4bd 65f7 b53c 45db cb3d
00000030: be33 0cbd db12 eb3b 36ee 23bd 28e0 57bd
00000040: 2344 753d 3a3d 58be 8cc9 0abd a869 45bc
00000050: 13d2 54bd d692 b73d b705 bf3d 7110 bfbc
00000060: e8a9 fbbc b03d b1bd 755e d03d 8f02 5ebd
00000070: d8c6 acbd acbd cebc c230 5bbd fc66 283d
00000080: d371 00be 7e91 e03d 2b98 843d 0387 233e
00000090: 90df 803c 62ff b33c 8547 ab3c 1362 623d
000000a0: 9084 013e 8f90 06be f93b 02bd a183 6a3d
000000b0: 0f7f 52bd 205c 593d 5065 82bd d82c 273e
000000c0: 8521 743d 94ee d0bc 3b2a 7abd e360 943d
000000d0: 164a 273e 924f c83d 4d33 e4bd 75d2 2c3e
000000e0: bd84 12be 2dcb ad3d a443 81bc e563 57bb
000000f0: b45c 4b3e 79e5 d53c be35 63bc 6b1c 133b
00000100: 8899 103c 090d 9c3d fdda b93b d4eb d5bc
00000110: 8cdd 223b 557e 383c 2fd5 443c 91d3 8bbc
00000120: 704f 103d 05f2 c9bd 5aaa a2bb a329 ed3b
00000130: a9fb c3bd 6507 aebc 7ed4 083c e12b 883b
00000140: 8846 00bc b38f 6cbd 2644 183d ae2a ccbc
00000150: 5e8d 08bc b5c9 cabc e875 b6bc 9cfa 01bd
00000160: 29cb 7abc b1c5 073c b063 503c 0576 72bb
00000170: 3d8c 0f3d dbdf 8fbc 7889 8a3c ee85 14bd
00000180: 591b 893c 75bb 1e3b d1c9 79bc 6842 91bd
00000190: 6038 24bd f17e efbc 019e 133a 2eae e2bc
000001a0: abba d2bc 5e74 67bd 500d 13bc eea6 dd3b
000001b0: 88d7 8a3c 01fa 3abc 0bef 6abc 8a80 81bd
000001c0: eff6 f3bc 3d18 4fbc 42e1 9fbc 49a8 cbbb
000001d0: b070 77bc 120d c5bc 6460 00bb 89e6 47bc
000001e0: ceb5 223c edee d6bc 9521 b6bb 5323 0a3b
000001f0: 1f3a 013e 0c3a bbbc 30a9 10bb 99ae 3dbd
00000200: 1b6c 583c cb17 3b3d 865e 1ebd a82e c3bd
00000210: 7815 3fbc 4a2d 01bd bbba adbc d9dd f8bd
00000220: 2f9d d2bc f253 fb3c 8017 813d a015 dfbd
00000230: 5a93 dcbc cde6 97bc 8db4 5b3d 2f3d 23bd
00000240: 9c39 553c 4ecc 0fbd de93 1c3d 0522 a23d
00000250: 9c55 cc3c af7b 2c3e 3ed9 09be 5e23 913d
00000260: 68e1 9fbd 1820 edbd 0355 e43d b1a6 023d
00000270: 8e15 c3bd 06e3 82bc 277b 29bd e00d ea3d
00000280: 2460 fcbc 0ebc b83c 72b9 91bc d1cd 36bc
00000290: 2153 5dbd cf0d 49bb 4350 c83c 5f42 193d
000002a0: a543 02bd 8481 95bc 8ecd 9abd 691f f73c
000002b0: 569b 7cbc bc07 6ebc 8ef2 a7bb 7fc2 97bc
000002c0: 3052 723d 0df6 0a3d c56b 1e3d dd10 eb3c
000002d0: 8477 f4bd 099d 243d dfae 8d3c 4781 ba3c
000002e0: 6595 2dbc 6c77 033d e1db 033e 2d5a 0b3e
000002f0: c189 8e3d 176d 203d b57f 0dbd 51da 9bbc
00000300: ee3d 29be 6cd3 a2bd 0951 1c3e ad3b 763d
00000310: 255f f2bc d927 7dbe 828f d53d bb50 8e3d
00000320: 0d7c c5bd e973 9fbd d9d7 d1bd f39b 71bd
00000330: 94ed fbbd 1b2a cdbd 09f5 dabd 6534 1ebe
00000340: a838 1fbd 4529 c83d 244f 8cbd a278 56be
00000350: 7a16 9d3d 2b57 2e3e 66ec 183e fd2e c2bd
00000360: 0c6f 1abc d302 37bd 4afe d93d 2f6b 263e
00000370: 8ada 863d 58c9 353e 2840 5abc 10dc 503e
00000380: 120e b3bd db54 6c3d c596 10be 6652 09be
00000390: 78e8 71be 26e9 90bd c10c 1a3e 7d20 263e
000003a0: 48bb 0c3e 431f 81bc a299 04bd 1d4f 0fbd
000003b0: 367c 1e3e 235b b23d 0be7 3fbe 5c13 fe3c
000003c0: 3b0e 2c3e 2592 be3d dc66 73be 6f46 cabc
000003d0: 559d 033e b65a 2abd 250e 043e 3d5b bd3d
000003e0: 914f 1bbe a420 e53c bda9 2a3d 8d27 67be
000003f0: 01f2 ea3d 666f 13bd 1b99 c0bc cdff f5bd

weight_hh_l0 f4 [128, 32]
0.003104573 -0.014852024 -0.104272455 0.14298084 -0.010408951 0.037079137 -0.027657999 -0.19028914
-0.10057342 0.08640725 0.15612687 0.08251062 0.17971428 0.115115836 -0.1302346 -0.029944675
0.14525193 -0.1191405 0.0141447885 0.16333552 0.028117497 -0.10597485 -0.036014367 -0.07129845
-0.17795461 0.16781223 -0.14700815 0.23363553 0.18243614 -0.095008425 -0.044003155 0.12307396
-0.035500437 -0.11268274 -0.047889315 -0.00945088 -0.10358212 0.17719527 -0.21195424 -0.09423007
-0.0052873315 0.17983355 -0.24934526 -0.07261363 0.049835984 0.02313576 0.12411996 0.007931219
0.0769612 -0.0055712843 0.06064142 0.15984774 0.13631298 -0.10235964 0.0830783 0.1952385
0.05951721 -0.04652909 0.042309783 -0.13212378 -0.023195507 0.18131085 -0.12798442 -0.10743911
-0.008306193 0.061372265 0.054158814 -0.038833905 -0.16947167 -0.1224168 -0.12218172 -0.09232881
-0.12282442 -0.09199102 -0.15681612 -0.03346958 0.077742144 0.1542649 0.0061200573 -0.06464874
0.06994785 0.053586807 -0.12009263 -0.26321495 -0.10114775 -0.052521393 -0.11637573 0.19346473
-0.084653966 -0.098779604 -0.15903908 -0.09688124 -0.14171185 0.20652694 0.035403363 -0.14423688
0.027709829 0.12918873 -0.015541966 0.04996345 -0.14949097 0.15719129 -0.01504001 0.07248169
0.24719347 0.15841363 -0.08669278 -0.055232905 -0.038055558 -0.16995817 0.0046843225 -0.20299669
-0.09904778 -0.039784 -0.012767664 -0.2606832 -0.086325265 0.09829961 0.044647668 -0.09567772
-0.026282959 0.22021623 -0.025336564 -0.09284036 -0.07259869 -0.017534021 0.047429897 -0.1893999
0.07087424 0.10524671 0.0035340805 0.13589936 0.14867763 0.16231182 0.15121236 -0.16345353
0.005059454 0.23721786 -0.20181422 0.018229267 0.014235801 0.12252211 0.11575959 0.035802383
-0.18690185 0.061674338 0.005194675 -0.06276896 0.053723123 0.16303888 0.1071485 -0.1308639
-0.15280047 0.040446606 -0.14774789 0.030682098 -0.00052252755 0.22593407 0.13175443 0.03880984
0.043383844 -0.18766029 -0.1637369 -0.10023996 -0.11984286 0.19331819 -0.165699 0.15216887
0.13905935 -0.1542154 -0.09822648 0.076983 -0.020379078 -0.02949354 0.028669722 -0.115726754
-0.04371263 0.14460143 -0.12415832 0.20587336 -0.23848742 -0.068469 -0.18017904 0.06602293
0.24460205 0.15428738 0.14064947 -0.056002308 0.12848808 -0.10110086 0.1646945 -0.08832231
0.077806585 0.037919898 0.030114096 0.035957206 0.04108701 -0.10046398 -0.21354568 0.023722263
-0.15230851 0.012001917 -0.06057337 0.07273829 0.034978975 0.13433883 -0.2019844 -0.26406345
-0.058189396 0.056715973 0.059064414 -0.052305397 0.12363667 0.08688719 -0.03979194 0.18180238
-0.043015536 0.13939153 -0.17994876 -0.0103325285 0.09387138 0.009550295 -0.08108983 -0.053140514
0.14769219 0.10075429 -0.0707752 0.07050402 0.06541872 -0.16141225 0.021069778 -0.009483022
-0.01154006 -0.09807857 -0.10468472 0.1921561 0.17387149 -0.07862331 0.11040867 0.010982749
0.10045956 -0.073920295 -0.19848885 0.1072545 -0.07693575 -0.010617931 -0.1162222 -0.20890644
-0.03277603 -0.059427764 0.06972332 0.11034483 0.050641187 0.13181688 0.053785704 0.03650558
00000000: 1876 4b3b e755 73bc cc8c d5bd 9269 123e
00000010: 4e8a 2abc 4be0 173d 0793 e2bc 28db 42be
00000020: 70f9 cdbd 49f6 b03d b9df 1f3e 54fb a83d
00000030: 0507 383e dac1 eb3d 385c 05be 894e f5bc
00000040: ecbc 143e efff f3bd 8bbf 673c 6d41 273e
00000050: aa56 e63c 5809 d9bd cd83 13bd ec04 92bd
00000060: bc39 36be f8d6 2b3e 4e89 16be 273e 6f3e
00000070: 8ad0 3a3e c793 c2bd a73c 34bd 330e fc3d
00000080: e868 11bd 35c6 e6bd 9627 44bd ddd7 1abc
00000090: dd22 d4bd ad72 353e 880a 59be b2fb c0bd
000000a0: 5a41 adbb 4926 383e 5d54 7fbe 74b6 94bd
000000b0: d120 4c3d 3587 bd3c 9b32 fe3d f2f1 013c
000000c0: d59d 9d3d 528f b6bb 2363 783d 20af 233e
000000d0: a195 0b3e eea1 d1bd f524 aa3d 9aec 473e
000000e0: 51c8 733d 4995 3ebd 064d 2d3d 754b 07be
000000f0: 8104 bebc 8da9 393e 590e 03be 0909 dcbd
00000100: b316 08bc 7c61 7b3d a2d5 5d3d 4d10 1fbd
00000110: fb89 2dbe a9b5 fabd 693a fabd e316 bdbd
00000120: 5f8b fbbd ca65 bcbd 6894 20be 6617 09bd
00000130: 4637 9f3d 9ef7 1d3e c38a c83b 8f66 84bd
00000140: d240 8f3d d77d 5b3d 20f3 f5bd 1cc4 86be
00000150: 8d26 cfbd ac20 57bd 6656 eebd 9e1b 463e
00000160: 0f5f adbd f64c cabd 24db 22be ac69 c6bd
00000170: e91c 11be cc7b 533e 1e03 113d d5b2 13be
00000180: b9ff e23c 0d4a 043e bba3 7ebc 79a6 4c3d
00000190: 2914 19be c1f6 203e 606a 76bc 4871 943d
000001a0: 4920 7d3e 2f37 223e fc8b b1bd e63b 62bd
000001b0: 25e0 1bbd 8409 2ebe f27e 993b 5dde 4fbe
000001c0: 90d9 cabd 8cf4 22bd 772f 51bc 4578 85be
000001d0: 4dcb b0bd 4e51 c93d 79e0 363d aef2 c3bd
000001e0: 5c4f d7bc 5d80 613e a08e cfbc 1623 bebd
000001f0: 9fae 94bd 82a3 8fbc da45 423d 0cf2 41be
00000200: 8326 913d 968b d73d 089c 673b 3429 0b3e
00000210: f33e 183e 1235 263e 6ad7 1a3e 5d60 27be
00000220: c7c9 a53b 3de9 723e 63a8 4ebe 8b55 953c
00000230: 473d 693c dfec fa3d 5d13 ed3d 85a5 123d
00000240: 3363 3fbe 3b9e 7c3d 1838 aa3b 038d 80bd
00000250: c70c 5c3d aaf3 263e ac70 db3d 3001 06be
00000260: ba77 1cbe 57ab 253d 394b 17be 0659 fb3c
00000270: 3bfa 08ba 435b 673e a2ea 063e 11f7 1e3d
00000280: 42b3 313d 052a 40be a5aa 27be 9c4a cdbd
00000290: 2c70 f5bd 34f5 453e 00ad 29be 28d2 1b3e
000002a0: 9365 0e3e a4ea 1dbe f72a c9bd 43a9 9d3d
000002b0: 06f2 a6bc 709c f1bc c4dc ea3c 2602 edbd
000002c0: 040c 33bd 6612 143e b846 febd 77d0 523e
000002d0: 0c36 74be 7a39 8cbd db80 38be 0837 873d
000002e0: f678 7a3e 83fd 1d3e 6a06 103e ad62 65bd
000002f0: 6192 033e f80d cfbd ada5 283e 54e2 b4bd
00000300: 0f59 9f3d e551 1b3d d6b1 f63c dd47 133d
00000310: da4a 283d 0fc0 cdbd b8ab 5abe 3155 c23c
00000320: c3f6 1bbe b0a3 443c c81b 78bd d0f7 943d
00000330: 1d46 0f3d 1e90 093e 00d5 4ebe 5333 87be
00000340: 0158 6ebd 024f 683d 87ed 713d 2f3e 56bd
00000350: 3935 fd3d e9f1 b13d e0fc 22bd 672a 3a3e
00000360: 0f31 30bd a7bc 0e3e 7d44 38be c449 29bc
00000370: a33f c03d d778 1c3c 6d12 a6bd dea9 59bd
00000380: 9f3c 173e 4458 ce3d 97f2 90bd 6964 903d
00000390: 40fa 853d 4149 25be 879a ac3c ad5e 1bbc
000003a0: 8512 3dbc 6bdd c8bd f164 d6bd 92c4 443e
000003b0: 5e0b 323e 4205 a1bd f11d e23d fdf0 333c
000003c0: bebd cd3d 8663 97bd a940 4bbe 3fa8 db3d
000003d0: 7e90 9dbd d5f6 2dbc e805 eebd 92eb 55be
000003e0: 2940 06bd 876a 73bd 1acb 8e3d 78fc e13d
000003f0: 226d 4f3d 01fb 063e 664e 5c3d e086 153d

bias_ih_l0 f4 [128]
-0.10268893 -0.24225222 -0.054556098 -0.13375957 -0.093875326 -0.13871624 -0.05670855 -0.2010893
-0.081899226 -0.11210783 -0.27811646 -0.22833802 -0.1701877 -0.022604644 -0.25979087 -0.20492068
0.04392534 -0.025383659 0.049656555 -0.29901174 0.06686443 -0.09209982 -0.34277186 -0.19148625
-0.13448967 -0.120408855 -0.024078593 -0.09731437 -0.07006263 -0.11413712 -0.054698076 -0.16280432
-0.030506285 -0.2854115 -0.2481791 -0.27034792 -0.2829626 -0.08549141 -0.23974986 -0.009947306
0.0075719496 0.00019511633 -0.09160419 0.024512848 -0.31897423 -0.033525635 -0.102192186 -0.24963185
-0.27044687 0.0538875 0.07943923 0.0113831395 -0.037895583 -0.1509396 -0.27012122 -0.15448767
-0.16957101 -0.052862726 -0.06443854 -0.008317125 -0.3134013 -0.11386545 -0.24008839 -0.18920057
-0.21285933 0.100737154 0.07700864 -0.2780649 0.020006794 0.17414215 0.07036167 0.09848449
0.08692596 -0.013947791 -0.058394656 0.102762625 -0.06530224 -0.124577984 0.33122638 -0.09642975
-0.24827749 -0.07727466 0.1123467 -0.05095748 -0.034067433 -0.25449765 -0.04145345 0.19668882
-0.18005702 0.0014902216 0.14338446 0.085165925 0.023355018 -0.09520005 -0.086353004 0.009228552
0.078063115 0.12786879 0.029918449 0.15030962 0.09851762 -0.023039278 0.16881439 0.0078265155
-0.12458257 0.19292645 0.030092599 -0.13404773 -0.10503338 0.1876947 0.112305984 -0.080890566
0.065389805 -0.3123419 0.15977687 -0.04193752 -0.07749495 0.032582294 -0.06340572 -0.19464011
0.10396344 -0.016457051 0.26018706 -0.13831122 -0.09698492 -0.03189998 0.21723226 -0.036359306
00000000: 934e d2bd f710 78be 3776 5fbd 45f8 08be
00000010: b541 c0bd a10b 0ebe 3947 68bd 5aea 4dbe
00000020: c8ba a7bd ca98 e5bd 4865 8ebe 71d1 69be
00000030: af45 2ebe 602d b9bc 4f03 85be bad6 51be
00000040: 0feb 333d 64f1 cfbc ac64 4b3d 1118 99be
00000050: 38f0 883d d59e bcbd cb7f afbe f914 44be
00000060: a9b7 09be eb98 f6bd 7840 c5bc c24c c7bd
00000070: ff7c 8fbd b9c0 e9bd 170b 60bd 2db6 26be
00000080: 51e8 f9bc 7521 92be a922 7ebe 0b6b 8abe
00000090: 79e0 90be 1f16 afbd fd80 75be 06fa 22bc
000000a0: 1e1e f83b 2498 4c39 fa9a bbbd 2bcf c83c
000000b0: 9750 a3be 2d52 09bd 234a d1bd 7e9f 7fbe
000000c0: 0378 8abe 24b9 5c3d 09b1 a23d 5980 3a3c
000000d0: 6638 1bbd e98f 1abe 544d 8abe 0432 1ebe
000000e0: 06a4 2dbe 9686 58bd 5af8 83bd 8d44 08bc
000000f0: 2376 a0be 4a32 e9bd bbd9 75be cbbd 41be
00000100: ccf7 59be 484f ce3d b5b6 9d3d 865e 8ebe
00000110: 4ae5 a33c 5252 323e c719 903d 3cb2 c93d
00000120: 3d06 b23d 4785 64bc 3c2f 6fbd 3675 d23d
00000130: 2ebd 85bd be22 ffbd 8196 a93e f67c c5bd
00000140: 743c 7ebe 2d42 9ebd 0716 e63d cab8 50bd
00000150: 4b8a 0bbd 844d 82be 18cb 29bd cb68 493e
00000160: de60 38be 8a53 c33a 60d3 123e 796b ae3d
00000170: 0653 bf3c 3ef8 c2bd d8d9 b0bd 5a33 173c
00000180: 8edf 9f3d 09f0 023e 8917 f53c c4ea 193e
00000190: 9bc3 c93d debc bcbc aedd 2c3e c93a 003c
000001a0: 2525 ffbd 838e 453e c184 f63c cf43 09be
000001b0: be1b d7bd 0a33 403e ae00 e63d f4a9 a5bd
000001c0: 17eb 853d 47eb 9fbe 8c9c 233e adc6 2bbd
000001d0: acb5 9ebd 0375 053d dcda 81bd bd4f 47be
000001e0: c9ea d43d f0d0 86bc 3d37 853e 75a1 0dbe
000001f0: 08a0 c6bd 8ea9 02bd 2272 5e3e 7fed 14bd

bias_hh_l0 f4 [128]
0.1263505 0.017236078 -0.124368526 -0.30269027 0.00015915639 -0.05103576 -0.3033274 -0.097004786
-0.0032218967 -0.03997689 -0.07305968 -0.019583523 -0.16964619 -0.013319104 -0.030506937 -0.15384555
-0.007121557 -0.10450651 -0.040585704 -0.3439732 0.07192911 0.01733432 -0.04838818 -0.26496303
-0.2414874 -0.20356715 -0.05983675 -0.19348927 -0.044220243 -0.089928225 -0.19551319 -0.13383326
-0.16471402 -0.06439765 -0.1242544 -0.16594023 -0.2725504 -0.2523572 -0.3628564 -0.29991803
-0.2540718 -0.17850035 -0.17293565 -0.0812419 -0.17442954 -0.020433228 -0.25863576 -0.32355753
-0.20298055 -0.2062093 -0.065563925 -0.1758003 -0.045489095 -0.22781834 -0.12528455 -0.30206156
-0.14513595 -0.007958553 -0.15371238 -0.2272726 -0.11495252 -0.3061381 -0.3596254 -0.012248411
-0.03357079 0.11867931 -0.11170381 -0.24488641 0.09350299 -0.027120057 -0.13383758 0.097814664
-0.173804 0.20871131 -0.1334735 0.21009156 -0.104170986 -0.05169595 0.30832735 0.010342385
-0.15937708 0.09390127 -0.17085636 0.047091033 0.012898481 -0.21280916 0.09013104 0.13236178
-0.11590331 0.22402701 -0.060814895 0.10130277 -0.12536894 -0.13385674 0.13867474 -0.17033665
0.342447 0.10384097 -0.07067611 -0.116007596 -0.07466275 -0.009843418 0.09390297 0.081551455
-0.08150921 0.20565195 -0.024677051 -0.11327675 -0.09715212 0.046852462 0.17804965 0.021190576
0.21348259 -0.2539564 -0.06217639 -0.05664738 -0.09466243 -0.15754934 0.05745763 0.092138894
-0.021101533 0.1093759 0.04852226 0.047087662 0.17853181 0.035291284 0.14205356 0.028350666
00000000: 0762 013e ad32 8d3c edb4 febd 38fa 9abe
00000010: 38e3 2639 e00a 51bd bb4d 9bbe 72aa c6bd
00000020: 7526 53bb cfbe 23bd 50a0 95bd a06d a0bc
00000030: bbb7 2dbe 5f38 5abc afe9 f9bc b089 1dbe
00000040: f35b e9bb 8207 d6bd 323d 26bd 411d b0be
00000050: 924f 933d b400 8e3c af32 46bd 3ca9 87be
00000060: 7948 77be e873 50be 6117 75bd 0d22 46be
00000070: 4920 35bd 4a2c b8bd 9c34 48be 960b 09be
00000080: cbaa 28be eae2 83bd 1779 febd 3cec 29be
00000090: ba8b 8bbe f734 81be 50c8 b9be db8e 99be
000000a0: b315 82be ccc8 36be 0b16 31be 2762 a6bd
000000b0: a89d 32be 9663 a7bc e86b 84be 55a9 a5be
000000c0: 22da 4fbe 8828 53be 6146 86bd fe04 34be
000000d0: c652 3abd 3649 69be 984a 00be d0a7 9abe
000000e0: 859e 14be 9764 02bc c766 1dbe 26ba 68be
000000f0: 3a6c ebbd 22be 9cbe d220 b8be 8fad 48bc
00000100: 8681 09bd 230e f33d f8c4 e4bd 81c3 7abe
00000110: 7f7e bf3d e22a debc b80c 09be 0e53 c83d
00000120: adf9 31be 6bb8 553e 47ad 08be 3e22 573e
00000130: 9957 d5bd 22bf 53bd 15dd 9d3e 1b73 293c
00000140: bf33 23be 4f4f c03d f8f4 2ebe 87e2 403d
00000150: 2754 533c a5ea 59be 9f96 b83d d989 073e
00000160: b75e edbd 5667 653e 0a19 79bd d477 cf3d
00000170: b760 00be be11 09be c000 0e3e bb6c 2ebe
00000180: 3755 af3e 93aa d43d a3be 90bd 6495 edbd
00000190: c9e8 98bd 4a46 21bc 3350 c03d 7304 a73d
000001a0: 4dee a6bd 6d96 523e 8727 cabc a4fd e7bd
000001b0: b1f7 c6bd 5ee8 3f3d a652 363e dc97 ad3c
000001c0: 2e9b 5a3e 9306 82be acac 7ebd 1507 68bd
000001d0: 60de c1bd 9d54 21be b158 6b3d 51b3 bc3d
000001e0: 1fdd acbc 7900 e03d 47bf 463d fede 403d
000001f0: 0bd1 363e 988d 103d 7d76 113e a83f e83c

weight_ih_l0_reverse f4 [128, 2]
0.039282855 -0.091388136 0.012831198 0.022481598 0.0333897 0.0045660688 0.19239964 -0.0023287723
-0.014406228 -0.04764146 -0.1327576 -0.17608789 0.2783516 -0.019885473 0.029311704 -0.16889606
0.12142803 -0.3802081 -0.055538867 0.12856062 -0.12241798 0.088763334 0.2124197 -0.12281318
-0.12911136 -0.094465055 -0.24030398 -0.19808568 0.16947304 0.12235762 0.028400602 0.037149757
-0.11219049 -0.0227288 -0.081611 -0.24158348 -0.004760146 0.03374512 -0.037711613 0.1285247
-0.19663395 0.048077744 -0.30649328 0.011066853 -0.11324787 0.13700616 0.24140072 -0.013576153
-0.073421866 0.08527506 -0.0487397 0.06723757 0.08277412 0.24183436 -0.07390363 0.09299751
0.04346986 -0.040670566 -0.085271694 0.041270502 0.04785898 -0.055764835 -0.1666891 0.04451261
-0.050206177 0.10293134 0.04731449 -0.104801476 -0.0065495167 -0.02908017 -0.037311338 -0.016648216
-0.00266382 0.05696331 0.07980866 0.090096615 -0.08889068 0.0064584627 0.031345475 0.032054957
0.0050385823 0.018110886 0.037099876 -0.056710836 0.15427181 -0.11451673 -0.0086333165 0.005607566
0.019953603 0.018404262 0.058103867 0.038953092 -0.040532067 -0.030779036 -0.009350661 0.01084929
0.049204987 0.009497776 -0.0040101768 0.03171651 -0.00015742707 -0.027585916 -0.04850441 -0.06883925
0.05887053 -0.021648835 0.075812936 -0.017612107 0.15740903 -0.10061344 -0.16492988 0.00875877
0.023794746 -0.07529368 0.07694366 -0.020862008 0.11635967 -0.008655694 0.058541536 -0.10269856
-0.04409423 0.08069392 0.046356026 -0.024375662 -0.0075581265 0.038905703 0.042951915 -0.008721694
-0.06526163 0.00765493 0.12465205 0.22023499 -0.013541814 -0.010993712 -0.0838283 -0.085426696
0.07783992 0.101904325 0.020409117 -0.0014142316 -0.010817116 0.026220378 -0.14133677 0.065665126
-0.12169297 -0.45274785 -0.13730761 0.3329493 -0.010696693 -0.0013645943 0.1854819 0.0029936435
-0.002542473 0.016514042 0.26770535 0.18843722 -0.16586193 -0.060943156 0.00045712088 -0.027681164
0.0030329598 -0.006396747 -0.030154085 0.35624942 0.0020183355 -0.13277268 -0.2725218 -0.017115664
-0.14437596 0.00062191446 0.3010794 -0.04401279 -0.064946465 0.037438657 0.12769537 0.011713051
-0.05444122 0.26669353 0.4187849 0.18428968 -0.07474107 -0.011797639 0.0041934685 -0.084583275
-0.13230093 0.092031494 0.040268034 -0.03804925 0.06703831 -0.10359034 0.2709369 -0.0136078745
0.17176534 0.052574452 0.030272698 -0.084561825 -0.122886404 -0.06827028 -0.18643269 -0.08040232
-0.14932759 0.14730838 -0.07530738 0.028986983 -0.041906383 0.015060998 0.05416081 -0.22819136
-0.01363348 -0.16106132 -0.12193062 -0.09669348 0.083291546 -0.13850172 0.4181998 -0.06886909
0.093694665 -0.21040799 -0.07132635 -0.017372953 0.39236414 0.0052554007 -0.1345073 -0.19982423
0.22235183 0.07223531 -0.052038196 -0.55191666 -0.00782748 0.10857934 -0.40541363 0.05034508
-0.12261808 -0.22586983 -0.20832154 0.18188602 -0.103423744 -0.14403109 -0.14829266 -0.027193345
0.07491772 0.2512145 0.5425088 -0.0957424 -0.12194419 0.06707311 0.06521284 0.27079493
0.31591842 -0.07646935 0.14449912 -0.1819212 -0.05499838 -0.033762366 -0.35524604 -0.039951533
00000000: 0fe7 203d b429 bbbd f239 523c 542b b83c
00000010: a3c3 083d f69e 953b 6904 453e 519e 18bb
00000020: 1a08 6cbc b123 43bd 9cf1 07be 6250 34be
00000030: 1a84 8e3e dce6 a2bc 191f f03c 17f3 2cbe
00000040: 42af f83d a3aa c2be b97c 63bd 65a5 033e
00000050: 47b6 fabd 8dc9 b53d 8d84 593e 7a85 fbbd
00000060: c535 04be e576 c1bd 3f12 76be f9d6 4abe
00000070: 578a 2d3e a296 fa3d 61a8 e83c 582a 183d
00000080: 21c4 e5bd c031 babc ab23 a7bd a961 77be
00000090: 00fb 9bbb 5338 0a3d 7e77 1abd fb9b 033e
000000a0: 695a 49be 2bed 443d b0ec 9cbe bf51 353c
000000b0: 80ee e7bd 584b 0c3e c031 773e 836e 5ebc
000000c0: 345e 96bd b1a4 ae3d 48a3 47bd dab3 893d
000000d0: 7a85 a93d 6da3 773e c95a 97bd 7b75 be3d
000000e0: 740d 323d 2e96 26bd eda2 aebd 420b 293d
000000f0: c707 443d ab69 64bd 8cb0 2abe db52 363d
00000100: fea4 4dbd abcd d23d d7cc 413d 28a2 d6bd
00000110: 549d d6bb 8939 eebc c6d3 18bd d761 88bc
00000120: 7c93 2ebb 5c52 693d b972 a33d 9384 b83d
00000130: 510c b6bd 83a1 d33b 1d64 003d 0f4c 033d
00000140: b11a a53b 485d 943c 0af6 173d 9f49 68bd
00000150: 6ef9 1d3e bf87 eabd c172 0dbc acbf b73b
00000160: bd75 a33c 89c4 963c 52fe 6d3d 478d 1f3d
00000170: f404 26bd 5124 fcbc 8433 19bc 38c1 313c
00000180: 2b8b 493d 8f9c 1b3c cd67 83bb 2ce9 013d
00000190: 0213 25b9 dcfb e1bc 8fac 46bd 98fb 8cbd
000001a0: 3a22 713d e658 b1bc d043 9b3d 4447 90bc
000001b0: d52f 213e 6b0e cebd 61e3 28be f280 0f3c
000001c0: 33ed c23c 9333 9abd a394 9d3d cde6 aabc
000001d0: fb4d ee3d 9dd0 0dbc 40c9 6f3d 9f53 d2bd
000001e0: 279c 34bd db42 a53d d1df 3d3d 78af c7bc
000001f0: 29aa f7bb 965b 1f3d 59ee 2f3d 70e5 0ebc
00000200: e4a7 85bd 35d6 fa3b 9349 ff3d 4885 613e
00000210: 7cde 5dbc f81e 34bc 2cae abbd 31f4 aebd
00000220: 896a 9f3d 37b3 d03d 0531 a73c bd5d b9ba
00000230: 463a 31bc 1ecc d63c 96ba 10be 707b 863d
00000240: 2a3a f9bd 91ce e7be 5e9a 0cbe 5578 aa3e
00000250: 2f41 2fbc 30dc b2ba f8ee 3d3e 0131 443b
00000260: 9e9f 26bb 7548 873c ad10 893e b0f5 403e
00000270: b6d7 29be 889f 79bd baa9 ef39 9cc3 e2bc
00000280: 9fc4 463b ce9b d1bb b305 f7bc 5366 b63e
00000290: 0d46 043b 90f5 07be fa87 8bbe 2636 8cbc
000002a0: 4bd7 13be f907 233a 1427 9a3e c146 34bd
000002b0: a702 85bd 4759 193d 93c2 023e 19e8 3f3c
000002c0: c2fd 5ebd 0e8c 883e f96a d63e 6fb6 3c3e
000002d0: d911 99bd e24a 41bc 5d69 893b ff39 adbd
000002e0: e579 07be 027b bc3d 18f0 243d 88d9 1bbd
000002f0: 624b 893d 2c27 d4bd 3eb8 8a3e 90f3 5ebc
00000300: 41e3 2f3e 4f58 573d 73fe f73c c02e adbd
00000310: deab fbbd 4ad1 8bbd 36e8 3ebe f9a9 a4bd
00000320: 55e9 18be 02d8 163e c13a 9abd 1c76 ed3c
00000330: 07a6 2bbd 67c2 763c bad7 5d3d ffaa 69be
00000340: f65e 5fbc 42ed 24be c3b6 f9bd 3b07 c6bd
00000350: c294 aa3d 65d3 0dbe 491e d63e 3d0b 8dbd
00000360: fde2 bf3d 3175 57be 8d13 92bd b951 8ebc
00000370: f4e3 c83e 7f35 ac3b 48bc 09be b99e 4cbe
00000380: 33b0 633e 1bf0 933d 0126 55bd 694a 0dbf
00000390: d53e 00bc d85e de3d 6092 cfbe a536 4e3d
000003a0: 301f fbbd 6c4a 67be 3e52 55be 5440 3a3e
000003b0: d4cf d3bd e37c 13be 08da 17be 94c4 debc
000003c0: 766e 993d 309f 803e dbe1 0a3f 9714 c4bd
000003d0: e0bd f9bd a05d 893d 4f8e 853d a2a5 8a3e
000003e0: 0fc0 a13e f69b 9cbd 94f7 133e 8d49 3abe
000003f0: fb45 61bd 684a 0abd cfe2 b5be 38a4 23bd

weight_hh_l0_reverse f4 [128, 32]
-0.00016190259 0.03614108 -0.05543609 0.039410286 0.12273516 0.17124148 -0.02545486 0.036943875
-0.12389768 0.025556391 0.005985186 -0.093075715 -0.012337874 0.1590163 -0.024199614 0.0919453
-0.032040462 0.18185763 0.101933785 -0.09633647 -0.08354208 0.15737383 -0.0021395956 0.017027196
-0.13547619 0.12953757 -0.12869017 -0.11444792 -0.010697137 0.12293193 -0.16515054 0.15920848
0.085535645 0.10574838 -0.015811995 0.12835209 -0.016230777 -0.014118119 0.25652426 0.12084072
-0.15736945 0.08954627 -0.097501524 -0.3279291 0.09207792 0.009549113 0.35372645 0.10316943
0.009216551 0.15042722 0.31515208 -0.18643874 -0.1662577 0.14996895 -0.06975216 -0.07462214
-0.16790415 -0.15069032 0.05628491 -0.027121449 0.22384202 -0.20510896 -0.11867028 0.30318907
0.020053862 -0.037956383 -0.068564974 -0.17655705 0.14440572 0.25266972 0.09164701 -0.10261699
-0.062298805 -0.018651435 -0.047112305 -0.02245713 0.17305583 0.09000887 0.15245904 0.04908648
-0.16879982 0.06790612 0.042765968 -0.10334125 -0.11141138 -0.055238087 -0.013623484 -0.13931511
-0.16024482 0.14957073 0.036382418 0.072636485 0.09949796 0.21709327 -0.16283265 -0.033835664
-0.08039224 -0.0637247 -0.15183012 -0.120057225 -0.009176574 0.03970776 0.06196285 0.1869993
-0.16402134 -0.11238344 -0.07715759 0.029000232 0.08128384 0.06726696 0.24327637 0.1630152
-0.0023894806 0.17873633 0.052038804 -0.11884079 -0.18904676 0.16891587 -0.27766433 0.15385911
-0.15583198 0.037614975 0.021154435 0.035459965 0.14212231 -0.118798204 -0.072856635 0.14380842
0.16628939 -0.07038745 -0.14395763 -0.037725918 -0.1845954 0.13371435 0.08321968 0.09604524
0.14957935 -0.14146577 -0.16700423 -0.16832632 -0.07036339 0.15849507 0.1517906 -0.14592786
-0.067982584 0.13013025 0.22115073 -0.21321839 -0.11062159 0.08740321 -0.11300364 0.1236019
-0.15644456 0.08918756 -0.10833125 0.23498806 0.12028067 0.13004372 -0.2760244 0.021695286
-0.031749822 -0.105503485 0.04959258 -0.06872286 0.10463911 0.28144947 -0.20137945 -0.08546847
-0.05524189 -0.16704457 -0.026528187 -0.19785415 -0.14686279 0.0994031 0.041422617 0.12237685
0.051180523 -0.1633774 -0.03881563 -0.21315695 0.043198112 0.08382299 -0.26720095 0.13577385
0.11941465 -0.11688353 -0.18657525 -0.0820644 -0.12486924 0.110437155 0.065389976 0.07067309
0.18268754 0.22493252 0.03488137 -0.18217507 -0.10263496 -0.17140456 0.22628061 0.032832
-0.2377483 -0.10322339 0.017647551 0.23495057 0.023965923 0.097719535 0.05223561 0.07415261
-0.02134048 0.22640751 0.06076675 0.037369236 0.024604905 0.24401183 0.19451094 -0.08861322
-0.17453976 0.27235115 0.05280732 0.03936789 -0.0941926 -0.13564636 -0.1169174 0.23349977
0.07712466 -0.112878196 0.14979829 -0.20785908 0.09796659 0.089362286 -0.23183498 -0.17866619
-0.08345934 -0.14718959 0.038064774 -0.06770962 -0.11251821 0.1292009 0.15518552 -0.13871822
0.1689905 0.036603153 -0.076320894 -0.18838969 -0.119983956 0.0065386584 -0.076792404 0.10464378
0.09095196 0.08646997 0.1217808 0.037015527 -0.02073363 -0.029845227 -0.08449207 0.12436243
00000000: 65c4 29b9 ab08 143d f410 63bd ae6c 213d
00000010: 925c fb3d ed59 2f3e b686 d0bc 7652 173d
00000020: 11be fdbd a35b d13c 611f c43b 7b9e bebd
00000030: cb24 4abc 2bd5 223e 453e c6bc d14d bc3d
00000040: dc3c 03bd e338 3a3e a9c2 d03d 0e4c c5bd
00000050: 1c18 abbd 9b26 213e 7538 0cbb 9e7c 8b3c
00000060: 45ba 0abe 7fa5 043e 5bc7 03be ac63 eabd
00000070: 0b43 2fbc bcc3 fb3d 391d 29be 8c07 233e
00000080: 502d af3d 9b92 d83d 2888 81bc bb6e 033e
00000090: 68f6 84bc af4f 67bc 2657 833e 577b f73d
000000a0: 7525 21be 0964 b73d e1ae c7bd 53e6 a7be
000000b0: 5993 bc3d e273 1c3c a21b b53e 7e4a d33d
000000c0: 0401 173c 9809 1a3e 9d5b a13e cce9 3ebe
000000d0: 753f 2abe 7691 193e 38da 8ebd 7ed3 98bd
000000e0: 11ef 2bbe 904e 1abe 018b 663d cd2d debc
000000f0: d836 653e 1508 52be 6709 f3bd 993b 9b3e
00000100: ff47 a43c 2778 1bbd cb6b 8cbd 5fcb 34be
00000110: 18df 133e ed5d 813e 6db1 bb3d db28 d2bd
00000120: 082d 7fbd e5ca 98bc d5f8 40bd 04f8 b7bc
00000130: 8c35 313e 9256 b83d 391e 1c3e e80e 493d
00000140: dcd9 2cbe 5d12 8b3d 5e2b 2f3d 94a4 d3bd
00000150: a62b e4bd 5541 62bd 0935 5fbc 9fa8 0ebe
00000160: 3817 24be 1229 193e bb05 153d 70c2 943d
00000170: 96c5 cb3d b34d 5e3e 9abd 26be 4497 0abd
00000180: b0a4 a4bd 1882 82bd 5b79 1bbe 90e0 f5bd
00000190: 5759 16bc 9ba4 223d c2cc 7d3d bf7c 3f3e
000001a0: 36f5 27be 4a29 e6bd cc04 9ebd e591 ed3c
000001b0: 2478 a63d 43c3 893d 711d 793e 75ed 263e
000001c0: d598 1cbb a806 373e a426 553d cd62 f3bd
000001d0: 7995 41be 48f8 2c3e 052a 8ebe 3e8d 1d3e
000001e0: 6b92 1fbe 2912 1a3d 114c ad3c 783e 113d
000001f0: 8388 113e 794c f3bd dc35 95bd 8442 133e
00000200: c447 2a3e 4c27 90bd a169 13be 7e86 1abd
00000210: 9406 3dbe 6aec 083e 146f aa3d 5eb3 c43d
00000220: 542b 193e 67dc 10be 2803 2bbe bc5d 2cbe
00000230: ae1a 90bd 884c 223e ff6e 1b3e 1d6e 15be
00000240: 743a 8bbd dd40 053e 5675 623e ec55 5abe
00000250: 928d e2bd 7400 b33d 746e e7bd fe22 fd3d
00000260: 0133 20be f8a7 b63d c6dc ddbd b6a0 703e
00000270: b655 f63d 2e2a 053e 1253 8dbe 50ba b13c
00000280: 1a0c 02bd 3612 d8bd 9721 4b3d 92be 8cbd
00000290: 084d d63d 251a 903e 6a36 4ebe 180a afbd
000002a0: 5245 62bd bb0d 2bbe a451 d9bc 479a 4abe
000002b0: 3363 16be da93 cb3d c3aa 293d b7a0 fa3d
000002c0: aba2 513d 684c 27be 23fd 1ebd d145 5abe
000002d0: 81f0 303d 63ab ab3d 90ce 88be 4d08 0b3e
000002e0: ab8f f43d a260 efbd 950d 3fbe 6111 a8bd
000002f0: 72bb ffbd e02c e23d 2eeb 853d 0ebd 903d
00000300: 7112 3b3e b654 663e c4df 0e3d 1a8c 3abe
00000310: 4732 d2bd ad84 2fbe 1bb6 673e d97a 063d
00000320: 4a74 73be c966 d3bd 9991 903c e296 703e
00000330: 2f54 c43c 2e21 c83d 02f5 553d 53dd 973d
00000340: 3bd2 aebc 5fd7 673e 8ee6 783d 7c10 193d
00000350: 3a90 c93c 3dde 793e e02d 473e d97a b5bd
00000360: 8dba 32be 9c71 8b3e 7d4c 583d 3a40 213d
00000370: 0de8 c0bd e1e6 0abe 6472 efbd 901a 6f3e
00000380: 89f3 9d3d af2c e7bd b964 193e 03d9 54be
00000390: b5a2 c83d 9303 b73d 2666 6dbe 45f4 36be
000003a0: bbec aabd deb8 16be cfe9 1b3d 57ab 8abd
000003b0: f36f e6bd 3e4d 043e f4e8 1e3e 260c 0ebe
000003c0: d80b 2d3e 30ed 153d 214e 9cbd 3ae9 40be
000003d0: 26ba f5bd 3e42 d63b 5645 9dbd 7a4f d63d
000003e0: 0545 ba3d 2b17 b13d 3668 f93d 989d 173d
000003f0: 93d9 a9bc fa7d f4bc 2e0a adbd bbb1 fe3d
