experiments/pedestrians/models/models_14_Feb_2024_17_26_50_eth_vel_ar3/model_registrar-26.pt (torch, 527902 bytes, 43 tensors)

weight_ih_l0 f4 [128, 6]
0.066908695 0.06988524 -0.16066396 -0.0033080901 -0.01926982 0.105570845 -0.19034396 -0.33363318
-0.09468514 0.2243107 0.05011339 -0.049361836 -0.0042659277 -0.03540211 -0.25074893 -0.11763866
-0.18002185 0.1007205 0.12985928 0.20325747 0.064485185 0.012830392 0.10451268 0.04518527
-0.101398274 0.059578512 -0.12581044 -0.3827388 0.41384828 -0.8236063 0.16013502 0.09503139
0.14250289 0.09465836 0.2934259 -0.25258666 -0.39238006 0.08241702 0.116264045 -0.12222513
0.05257569 -0.20933063 -0.2703342 0.014892322 0.2904783 0.022707881 0.043855086 0.013606579
0.23811162 0.19191833 0.33012497 -0.2035004 0.28483903 -0.14497417 -0.09666885 -0.22584397
-0.029861448 0.28781348 0.10377494 -0.07049232 0.103972465 -0.16270655 -0.31628397 0.15460287
-0.09972178 0.044003975 -0.041794594 0.12868053 -0.39470756 -0.11313118 -0.3279315 -0.064816326
0.026950002 -0.10931676 -0.16544826 0.09634772 0.18595687 -0.07569335 -0.10674162 0.037968777
0.30338943 0.22179593 0.29820716 0.2154653 0.008124302 -0.051932704 -0.5724345 0.08314642
-0.31975365 -0.060032956 -0.21959642 0.11711767 0.26956323 0.14429346 0.046494193 0.2191846
0.22117169 -0.01549072 -0.3131712 0.3118288 -0.30950594 -0.023475073 0.104625314 -0.21155745
-0.101946816 0.09547113 -0.015620144 0.06900222 0.12813862 -0.12628986 -0.1811941 0.36034375
-0.031580456 0.44448978 0.062424734 0.02673302 -0.30235472 0.09017898 -0.010093756 0.29147017
-0.28852612 0.18877055 0.29214743 -0.178844 0.28053653 0.009547933 0.030255197 0.19757868
0.054533653 -0.069325134 0.04145451 0.07611323 -0.10962333 -0.3021123 0.030077836 0.018287769
0.310535 0.011180883 -0.057398554 0.020497233 0.098013096 -0.087600365 0.020138988 0.049297962
0.07837707 -0.06753284 -0.18314601 -0.026656628 -0.16270787 -0.1620366 -0.25604218 -0.10528774
-0.00498407 0.16881636 0.08651176 0.11556895 -0.066707514 0.19161843 -0.4478311 -0.3485467
-0.2892906 -0.07462133 -0.17459945 0.05772676 0.5753788 0.49728385 0.36757547 0.53837943
0.13499424 0.042941686 -0.23475552 0.06656667 0.0824319 0.21476084 -0.32103202 0.01915714
-0.028275315 -0.19335416 0.18025696 -0.017857319 -0.11496798 -0.051898353 0.23042971 0.036486138
-0.09476206 -0.18706186 -0.114230655 0.09677032 0.07690309 -0.0047709523 -0.23188153 -0.0930343
0.13145052 0.14550929 -0.14865671 -0.10870454 -0.16482034 -0.20282327 0.02709411 -0.079382144
0.019722467 0.10546259 0.051756147 -0.07665693 -0.09451295 -0.021962471 -0.0687418 -0.001373695
-0.22541746 0.067623995 0.08157151 0.088163786 0.06092597 -0.14105506 -0.06299166 -0.009494897
0.06940708 -0.2357434 0.14736156 -0.07213557 -0.1458291 -0.029625304 0.104685456 0.0029161533
0.0990005 -0.19688547 -0.28273642 0.01469629 -0.1193802 0.040235877 0.1539563 -0.08447708
-0.08926846 -0.06105428 -0.12555198 -0.20177044 0.22673872 0.009590504 -0.051474158 -0.0068697957
0.24163099 0.014243241 -0.04057495 -0.13793582 -0.020061255 0.013601813 -0.21871543 -0.034271613
0.26250172 0.085890904 0.1836834 0.06394977 0.107379004 -0.2688861 -0.10173009 0.14105012
00000000: 6d07 893d fe1f 8f3d 1885 24be 8bcc 58bb
00000010: bedb 9dbc 8735 d83d 87e9 42be f8d1 aabe
00000020: 48ea c1bd b4b1 653e b343 4d3d a32f 4abd
00000030: 32c9 8bbb ce01 11bd 2a62 80be 8aec f0bd
00000040: a657 38be 8d46 ce3d d5f9 043e ba22 503e
00000050: cf10 843d 9136 523c be0a d63d 3114 393d
00000060: e6a9 cfbd 9908 743d 74d4 00be 57f6 c3be
00000070: ece3 d33e ddd7 52bf 6ffa 233e d19f c23d
00000080: 47ec 113e 3edc c13d eb3b 963e 0a53 81be
00000090: 0ae6 c8be 41ca a83d d81b ee3d 2b51 fabd
000000a0: 9b59 573d c55a 56be 3f69 8abe edfe 733c
000000b0: 92b9 943e e105 ba3c 64a1 333d 21ee 5e3c
000000c0: 88d3 733e 3d86 443e 2406 a93e 6962 50be
000000d0: 6cd6 913e 1c74 14be 51fa c5bd a443 67be
000000e0: ff9f f4bc 4a5c 933e f587 d43d 475e 90bd
000000f0: 84ef d43d 8c9c 26be f9ef a1be 3750 1e3e
00000100: ef3a ccbd 833d 343d cf30 2bbd d4c4 033e
00000110: 1c17 cabe 52b1 e7bd a3e6 a7be 6cbe 84bd
00000120: 40c6 dc3c 77e1 dfbd 456b 29be f451 c53d
00000130: 7a6b 3e3e 1d05 9bbd 5a9b dabd 2685 1b3d
00000140: dc55 9b3e 791e 633e 9cae 983e f0a2 5c3e
00000150: cb1b 053c 63b7 54bd 118b 12bf ac48 aa3d
00000160: c0b6 a3be 1ee5 75bd e2dd 60be 64db ef3d
00000170: 3104 8a3e aac1 133e b270 3e3d ee71 603e
00000180: d57a 623e cacc 7dbc fa57 a0be 06a8 9f3e
00000190: 9077 9ebe cc4e c0bc cc45 d63d 84a2 58be
000001a0: 7ec9 d0bd 5e86 c33d a2eb 7fbc 0951 8d3d
000001b0: c536 033e 2152 01be f28a 39be fa7e b83e
000001c0: 825a 01bd 2a94 e33e 14b1 7f3d 35ff da3c
000001d0: 3dce 9abe c2af b83d 4860 25bc 943b 953e
000001e0: b2b9 93be 114d 413e 5994 953e e222 37be
000001f0: 7ca2 8f3e ef6e 1c3c bfd9 f73c 1152 4a3e
00000200: ae5e 5f3d 56fa 8dbd 34cc 293d 41e1 9b3d
00000210: 3282 e0bd 77ae 9abe cb65 f63c 3bd0 953c
00000220: 72fe 9e3e 0630 373c bf1a 6bbd d0e9 a73c
00000230: 17bb c83d d267 b3bd 85fa a43c a9ec 493d
00000240: 2884 a03d a84e 8abd a18a 3bbe 005f dabc
00000250: e49c 26be ecec 25be f617 83be 19a1 d7bd
00000260: 6951 a3bb 32de 2c3e 142d b13d 6aaf ec3d
00000270: f39d 88bd 9f37 443e 1e4a e5be b774 b2be
00000280: e61d 94be 11d3 98bd 33ca 32be e572 6c3d
00000290: 064c 133f fd9b fe3e da32 bc3e 3cd3 093f
000002a0: ee3b 0a3e 9fe3 2f3d c063 70be 1b54 883d
000002b0: 0ed2 a83d 44ea 5b3e 4f5e a4be 6fef 9c3c
000002c0: a2a1 e7bc a2fe 45be 4895 383e 8349 92bc
000002d0: 5574 ebbd 5e93 54bd c4f5 6b3e 7d72 153d
000002e0: 9c12 c2bd 258d 3fbe c3f1 e9bd 842f c63d
000002f0: 5e7f 9d3d a655 9cbb 5a72 6dbe c488 bebd
00000300: f79a 063e 6300 153e 7739 18be 7ca0 debd
00000310: aac6 28be e7b0 4fbe 78f4 dd3c 1b93 a2bd
00000320: 0391 a13c c5fc d73d 41fe 533d 4ffe 9cbd
00000330: 0190 c1bd a4ea b3bc 80c8 8cbd 8e0d b4ba
00000340: d6d3 66be 737e 8a3d f70e a73d 378f b43d
00000350: 838d 793d bd70 10be c501 81bd 7c90 1bbc
00000360: 4d25 8e3d b866 71be f3e5 163e d0bb 93bd
00000370: 3954 15be c4b0 f2bc 5465 d63d ef1c 3f3b
00000380: c6c0 ca3d 589c 49be d4c2 90be b5c8 703c
00000390: 9b7d f4bd 60ce 243d b8a6 1d3e 5202 adbd
000003a0: 62d2 b6bd 0d14 7abd b390 00be e99c 4ebe
000003b0: 322e 683e 7d21 1d3c 91d6 52bd 061c e1bb
000003c0: 1d6e 773e 7c5c 693c eb31 26bd 0c3f 0dbe
000003d0: 8057 a4bc 24da 5e3c f0f6 5fbe 6460 0cbd
000003e0: a066 863e 92e7 af3d 8017 3c3e 19f8 823d
000003f0: 86e9 db3d 70ab 89be de57 d0bd 716f 103e

weight_hh_l0 f4 [128, 32]
-0.024173878 -0.21947885 -0.008800758 0.09048426 -0.11749192 -0.0035338155 -0.053776197 -0.15960751
0.053449955 0.25083488 -0.11695148 0.13455567 -0.10508797 0.21725866 0.16972451 0.09769768
0.19184147 -0.13469972 -0.11389635 0.008360285 -0.19222815 -0.14004603 -0.08789207 -0.26049837
0.291922 0.090513505 -0.005184531 0.4039634 0.21755417 0.012578786 0.17077687 -0.11463268
0.1272427 -0.24090329 0.088041365 -0.09392353 0.046578966 0.23195519 0.0075691156 -0.20351335
0.12820637 0.09716553 -0.3383433 -0.097854264 -0.24489005 0.21273139 0.14436428 -0.089567415
0.19242907 0.092148095 -0.23744296 0.08524217 -0.060208924 -0.10917482 -0.16798905 -0.120637394
0.11837366 0.12503834 -0.13370174 0.06610299 0.04553428 0.046237346 0.22738512 -0.11053746
0.12177478 -0.18457295 -0.10493488 0.11075235 0.08620129 0.18835822 -0.19480655 -0.2170697
-0.008023297 0.26491097 -0.33259815 0.075210415 -0.06997207 -0.08816534 0.14506264 -0.10148592
0.11149533 -0.12263489 0.07226739 -0.12058263 0.118556775 0.069192044 0.030051852 0.17672437
0.27304465 0.14447355 0.16050008 0.20357993 0.16673373 0.11651363 -0.012509514 0.01773659
0.008819901 -0.026744561 0.010028037 0.098017424 -0.122106165 0.0327376 -0.059206955 0.05221224
-0.031283453 0.15110427 -0.28695247 -0.17438343 -0.12960805 -0.10365407 -0.12048946 -0.15381317
0.023771312 0.05764646 -0.1888807 -0.050177574 -0.08008429 0.023821434 0.058873005 -0.044959802
0.08363992 0.09690751 -0.09724576 0.17602412 -0.0016631011 0.09671349 0.25668204 -0.053601213
0.040758666 -0.038193356 0.36684573 0.031985328 0.14950746 -0.17336713 0.2639571 0.033473544
-0.091109455 -0.22109826 0.052066505 -0.118647665 -0.18525298 -0.064032175 0.0262463 -0.2502455
-0.14853239 -0.14181855 -0.012506296 0.0482174 -0.18604949 0.40266734 0.27453932 -0.31255493
-0.04744005 -0.19737077 -0.14506085 -0.2722396 0.050137885 -0.24827269 0.025028652 0.040103596
0.085608944 -0.17328165 0.11080729 -0.13930683 -0.097892486 -0.06340683 0.12970321 -0.23855686
-0.08443658 0.06683406 0.097371966 -0.13171957 -0.18947893 0.07378887 -0.009749445 -0.052091055
0.06722313 0.19733034 -0.252876 0.1629581 -0.051845513 -0.06766471 -0.033519465 -0.16840534
0.07750483 0.0022528924 0.1325257 0.21576318 0.088651925 0.0050698565 0.2332817 0.16408989
0.14115335 -0.034062486 -0.17928629 0.14801116 -0.030499361 -0.054137528 0.19799621 -0.29978672
-0.13862745 0.16579568 -0.12901022 -0.13412693 0.003322411 0.28356084 0.08398254 0.0069562434
0.13674806 -0.06631782 -0.12549023 -0.063061446 -0.06695383 0.21594042 0.12095471 -0.101580665
-0.031394616 0.2097485 0.10059174 0.19631466 -0.075594924 0.038980912 -0.017026149 0.12705499
0.13847117 -0.19610876 0.0070430925 0.10227378 -0.18340476 0.070741706 0.20736189 -0.13238977
-0.017756462 0.007998455 -0.017462842 -0.11079808 0.05508894 -0.0022382904 0.072189435 0.07236182
0.18213038 0.033097234 -0.23644473 0.025435053 -0.35172686 0.05998723 -0.09632699 -0.2612123
0.1609229 0.34132347 -0.09543515 0.2552257 0.17283076 0.040186465 0.11593742 0.2399152
00000000: 4c08 c6bc 10bf 60be 0e31 10bc d04f b93d
00000010: 9b9f f0bd 9697 67bb 6e44 5cbd 2770 23be
00000020: 57ee 5a3d 6e6d 803e 4284 efbd f6c8 093e
00000030: 5d38 d7bd 0e79 5e3e 43cc 2d3e b915 c83d
00000040: 1772 443e b9ee 09be 7d42 e9bd 94f9 083c
00000050: 75d7 44be 3a68 0fbe c200 b4bd 0b60 85be
00000060: cd76 953e 255f b93d 00e3 a9bb 4ad4 ce3e
00000070: 85c6 5e3e 4117 4e3c 22e0 2e3e 8ac4 eabd
00000080: e94b 023e 5aaf 76be 084f b43d fb5a c0bd
00000090: 96c9 3e3d a985 6d3e 5806 f83b ce65 50be
000000a0: 8848 033e b9fe c63d 553b adbe d167 c8bd
000000b0: 75c4 7abe 42d6 593e 3bd4 133e 1f6f b7bd
000000c0: 200c 453e 24b8 bc3d 3f24 73be 7293 ae3d
000000d0: a29d 76bd 0c97 dfbd 5205 2cbe bd10 f7bd
000000e0: e46d f23d 0d0a 003e 1ce9 08be 0161 873d
000000f0: 2782 3a3d 5f63 3d3d a5d7 683e 7761 e2bd
00000100: 0e65 f93d b100 3dbe 19e8 d6bd 21d2 e23d
00000110: 4d8a b03d fae0 403e 5e7b 47be 8547 5ebe
00000120: 2674 03bc 69a2 873e 4e4a aabe eb07 9a3d
00000130: 844d 8fbd 0890 b4bd 4d8b 143e dad7 cfbd
00000140: aa57 e43d 0028 fbbd ed00 943d 07f4 f6bd
00000150: e5cd f23d 8fb4 8d3d 4d2f f63c 3cf7 343e
00000160: 82cc 8b3e e0f0 133e 225a 243e 4277 503e
00000170: 3fbc 2a3e b39e ee3d b4f4 4cbc 534c 913c
00000180: 5981 103c 6917 dbbc a34c 243c 5cbd c83d
00000190: cc12 fabd dd17 063d fe82 72bd 80dc 553d
000001a0: 1423 00bd 14bb 1a3e 6feb 92be 9291 32be
000001b0: f9b7 04be 9648 d4bd 2ec3 f6bd 3381 1dbe
000001c0: 0ebc c23c b21e 6c3d f169 41be 0087 4dbd
000001d0: 3b03 a4bd 2b25 c33c d224 713d c527 38bd
000001e0: 684b ab3d 7277 c63d c928 c7bd ab3f 343e
000001f0: 6afc d9ba b911 c63d d46b 833e f28c 5bbd
00000200: 8ff2 263d a370 1cbd 34d3 bb3e 0c03 033d
00000210: 7c18 193e 2787 31be 6325 873e 8e1b 093d
00000220: 9897 babd 9567 62be b043 553d 8cfd f2bd
00000230: f5b2 3dbe 4d23 83bd 7b02 d73c 2e20 80be
00000240: e018 18be e238 11be 35e7 4cbc 9c7f 453d
00000250: c283 3ebe 6a2a ce3e 6b90 8c3e 3307 a0be
00000260: 7f50 42bd 901b 4abe d58a 14be fd62 8bbe
00000270: 625d 4d3d 323b 7ebe e308 cd3c ab43 243d
00000280: be53 af3d bf70 31be efee e23d 73a6 0ebe
00000290: db7b c8bd 71db 81bd ebd0 043e 4048 74be
000002a0: 16ed acbd 4ce0 883d f46a c73d 7fe1 06be
000002b0: c406 42be 9e1e 973d 23bc 1fbc 6e5d 55bd
000002c0: 48ac 893d f710 4a3e f778 81be 7dde 263e
000002d0: f65b 54bd cc93 8abd b54b 09bd 7372 2cbe
000002e0: daba 9e3d 43a5 133b d1b4 073e 06f1 5c3e
000002f0: 248f b53d 0a21 a63b 66e1 6e3e 2e07 283e
00000300: 818a 103e 1b85 0bbd d396 37be 3d90 173e
00000310: ccd9 f9bc 50bf 5dbd 85bf 4a3e a57d 99be
00000320: 5bf4 0dbe 58c6 293e 411b 04be 9258 09be
00000330: cfbc 593b e32e 913e 0aff ab3d 33f1 e33b
00000340: af07 0c3e a3d1 87bd 8380 00be 5c26 81bd
00000350: 171f 89bd 7c1f 5d3e 1ab7 f73d 8609 d0bd
00000360: a497 00bd 50c8 563e 0b03 ce3d b606 493e
00000370: 83d1 9abd 73aa 1f3d 6c7a 8bbc b41a 023e
00000380: 63cb 0d3e bcd0 48be bec9 e63b ea74 d13d
00000390: 75ce 3bbe 07e1 903d ad56 543e 2f91 07be
000003a0: 0076 91bc f40b 033c 3c0e 8fbc 1bea e2bd
000003b0: f1a4 613d 48b0 12bb 0ed8 933d 6f32 943d
000003c0: 6380 3a3e f790 073d 911e 72be 2c5d d03c
000003d0: 8b15 b4be 2bb5 753d 1647 c5bd 9ebd 85be
000003e0: f9c8 243e f3c1 ae3e 8173 c3bd f1ac 823e
000003f0: 8cfa 303e 909a 243d 9970 ed3d 55ac 753e

bias_ih_l0 f4 [128]
-0.01194663 0.06975329 0.026901657 -0.02452675 -0.09925134 0.19671212 0.04249561 -0.1220441
0.013719523 0.044657215 0.28634536 0.15509562 0.21879931 -0.042774912 0.09990859 -0.07537108
-0.012256659 0.17051247 -0.026961572 0.1500184 0.10684949 -0.020867573 0.07133202 -0.033486445
0.14800563 0.10479204 -0.060465425 0.017843662 -0.006382512 -0.014439935 -0.037233204 0.06531999
0.021217749 -0.24648315 -0.23026977 0.05477343 -0.11772304 -0.13110551 -0.23064831 -0.09193896
-0.17172061 -0.02854516 -0.19780046 0.018089918 -0.1285442 0.16336691 -0.030139348 -0.09788275
0.08499895 -0.038864296 -0.12274877 0.10065373 -0.28421572 -0.0398814 0.012263114 -0.02526854
-0.05116952 0.15471779 0.06449184 0.09055135 -0.015653595 -0.25691614 -0.22808163 -0.25549057
0.13922243 0.12925896 -0.059739105 0.034698203 -0.11312745 0.0060413205 0.098641224 -0.036387246
-0.050068382 0.069028705 -0.07309491 0.054054834 -0.09696643 -0.030282434 -0.046596438 -0.10596958
-0.084215835 -0.12099089 0.15142055 -0.03870991 0.05928242 0.06679976 0.10891675 -0.12009039
0.119326495 -0.1157038 0.07200184 -0.12626311 -0.107992284 0.13451785 0.023441294 -0.07468502
0.19961242 0.049398694 0.07369511 0.045475796 0.070632614 0.15427841 0.07577967 -0.08136896
-0.09046778 0.1126589 0.0634779 0.09351642 0.19317204 -0.04862177 0.13995521 0.101230375
0.11442622 0.11179328 0.06356306 0.033145003 0.22353701 0.009776891 0.05582314 0.022623366
-0.047460888 0.1402643 0.09887068 -0.04356268 0.13356577 0.2072112 0.034291763 0.04742861
00000000: ccbb 43bc d0da 8e3d dd60 dc3c 53ec c8bc
00000010: 4944 cbbd e76e 493e e00f 2e3d 42f2 f9bd
00000020: dac7 603c 7cea 363d dc9b 923e 63d1 1e3e
00000030: ed0c 603e bf34 2fbd e09c cc3d 275c 9abd
00000040: 27d0 48bc d29a 2e3e 84de dcbc 6c9e 193e
00000050: e8d3 da3d 79f2 aabc 8616 923d 1529 09bd
00000060: ca8e 173e 369d d63d 98aa 77bd df2c 923c
00000070: 6424 d1bb 7a95 6cbc d881 18bd 7dc6 853d
00000080: d8d0 ad3c 1466 7cbe d7cb 6bbe 1b5a 603d
00000090: c718 f1bd 8640 06be 122f 6cbe 7e4a bcbd
000000a0: 87d7 2fbe 8ad7 e9bc 348c 4abe 4f31 943c
000000b0: 17a1 03be a849 273e cbe6 f6bc c076 c8bd
000000c0: ee13 ae3d 2b30 1fbd b563 fbbd 8b23 ce3d
000000d0: b984 91be ae5a 23bd 3aeb 483c f8ff cebc
000000e0: 2197 51bd 576e 1e3e 4c14 843d fc72 b93d
000000f0: f83b 80bc 838a 83be 3b8e 69be a9cf 82be
00000100: 5390 0e3e 765c 043e feb0 74bd b41f 0e3d
00000110: 5daf e7bd 45f6 c53b 6904 ca3d cb0a 15bd
00000120: 8114 4dbd ec5e 8d3d c9b2 95bd 9a68 5d3d
00000130: 5696 c6bd de12 f8bc e8db 3ebd 9406 d9bd
00000140: 5a79 acbd 12ca f7bd fd0d 1b3e 488e 1ebd
00000150: 1fd2 723d 50ce 883d bf0f df3d f3f1 f5bd
00000160: 7361 f43d 1df6 ecbd b375 933d 1e4b 01be
00000170: 0f2b ddbd 0cbf 093e f507 c03c 76f4 98bd
00000180: 3367 4c3e 4956 4a3d 76ed 963d d444 3a3d
00000190: d5a7 903d 29fb 1d3e 5f32 9b3d c5a4 a6bd
000001a0: 2c47 b9bd b6b9 e63d b400 823d 8985 bf3d
000001b0: e4ce 453e 9f27 47bd 6b50 0f3e df51 cf3d
000001c0: 4b58 ea3d e0f3 e43d 592d 823d 0ec3 073d
000001d0: e3e6 643e 412f 203c cea6 643d a354 b93c
000001e0: 5966 42bd 72a1 0f3e b67c ca3d c86e 32bd
000001f0: 77c5 083e 2c2f 543e 8575 0c3d 8144 423d

bias_hh_l0 f4 [128]
-0.05623671 0.08286087 -0.106889114 0.13695633 0.044524316 -0.04718799 -0.05915428 0.055520374
0.09885733 0.20955339 0.02989121 0.030268192 -0.019494288 0.25149417 0.1404721 0.0850495
-0.09922368 0.1630726 -0.12265251 0.10574107 0.25452688 0.15984882 0.099857785 0.030811464
0.04966657 0.08966335 0.013089273 -0.073738255 -0.08800847 -0.023782885 0.03228592 0.11551082
-0.0675413 -0.22039312 0.0074199014 -0.15137078 0.19064239 0.03173774 -0.08970633 -0.2367643
-0.098834574 -0.08476744 -0.17886586 -0.04309908 -0.13132647 -0.016069535 0.07581527 -0.047770187
-0.04579905 -0.10678801 -0.09439595 -0.08063191 -0.14030823 -0.20267722 -0.21080281 -0.05325612
-0.25475168 -0.15391079 -0.18904465 0.029858548 -0.04387455 -0.022999875 -0.09599731 0.04590015
-0.14403656 -0.13951421 0.11034012 -0.020932762 0.14353287 0.038362436 -0.08750128 0.010503401
0.091189496 -0.024589527 0.05473803 0.07134854 0.08374697 0.03616184 -0.12430152 0.040288724
0.0087255025 0.1213996 0.076867804 -0.16529168 -0.09769269 0.006346894 -0.1346779 0.12798746
-0.11917059 -0.010063126 0.07496885 -0.011416728 -0.09653739 -0.14412665 -0.0011078215 0.029310802
0.08457315 0.18372379 -0.08240494 0.2727877 0.1692465 0.05766758 0.27435914 0.22922409
-0.14446878 0.13500951 0.3047453 0.17040877 0.20533356 0.14456037 0.059809405 0.10909428
0.13291894 -0.024998385 0.168659 -0.09034448 0.18658519 0.20087166 0.20759903 0.15521273
0.14036763 0.11591321 0.15078497 -0.037359137 0.0042253276 0.20166907 0.061309963 0.24816766
00000000: 7758 66bd f6b2 a93d aee8 dabd 483e 0c3e
00000010: 215f 363d 3248 41bd c24b 72bd 5569 633d
00000020: b675 ca3d 2a95 563e 69de f43c 00f5 f73c
00000030: 7cb2 9fbc d8c3 803e ebd7 0f3e 6f2e ae3d
00000040: c935 cbbd 81fc 263e 3d31 fbbd c68e d83d
00000050: 5951 823e 69af 233e 3d82 cc3d 5368 fc3c
00000060: 2c6f 4b3d 6ba1 b73d 6474 563c 1504 97bd
00000070: c93d b4bd 53d4 c2bc 3e3e 043d f090 ec3d
00000080: 1853 8abd bcae 61be a522 f33b f100 1bbe
00000090: c237 433e 6fff 013d f4b7 b7bd 5772 72be
000000a0: c869 cabd 8d9a adbd 9d28 37be a988 30bd
000000b0: 727a 06be 42a4 83bc 0945 9b3d acaa 43bd
000000c0: c997 3bbd acb3 dabd aa52 c1bd 5822 a5bd
000000d0: f6ac 0fbe 9e8a 4fbe b1dc 57be 1723 5abd
000000e0: d06e 82be ca9a 1dbe ec94 41be ea99 f43c
000000f0: cdb5 33bd 3c6a bcbc 3d9a c4bd cc01 3c3d
00000100: 527e 13be d0dc 0ebe 00fa e13d 2f7b abbc
00000110: 48fa 123e ee21 1d3d df33 b3bd 7516 2c3c
00000120: 8fc1 ba3d fa6f c9bc fc34 603d 2f1f 923d
00000130: 8883 ab3d 701e 143d cc91 febd ca05 253d
00000140: 69f5 0e3c 5aa0 f83d de6c 9d3d 3942 29be
00000150: 1b13 c8bd 9bf9 cf3b 01e9 09be 250f 033e
00000160: b60f f4bd cfdf 24bc 4589 993d 3a0d 3bbc
00000170: 65b5 c5bd f095 13be 5234 91ba 351d f03c
00000180: b034 ad3d 1722 3c3e ecc3 a8bd d4aa 8b3e
00000190: f44e 2d3e d734 6c3d cd78 8c3e b8b9 6a3e
000001a0: a0ef 13be ef3f 0a3e 9307 9c3e a37f 2e3e
000001b0: f642 523e a207 143e b5fa 743d d26c df3d
000001c0: e71b 083e 6ac9 ccbc f2b4 2c3e 8706 b9bd
000001d0: 3010 3f3e 4db1 4d3e d794 543e 16f0 1e3e
000001e0: 88bc 0f3e e863 ed3d 6067 1a3e e505 19bd
000001f0: 9e74 8a3b 5682 4e3e 2820 7b3d aa1f 7e3e

weight_ih_l0 f4 [128, 2]
0.11095889 0.08585874 -0.054438993 0.081363425 0.156251 0.007228769 -0.11182073 0.017291263
-0.018550508 -0.2773263 0.04074954 0.18251367 -0.15061858 0.09141513 -0.22435276 -0.046496663
0.085840285 -0.18462096 -0.087578565 0.00991261 -0.037306573 0.06761219 0.10962087 -0.030191107
-0.0751272 -0.17461158 0.0017432604 -0.027850557 -0.1681125 0.08075172 -0.076327756 0.060659632
-0.12893324 0.15858567 0.056496695 0.2540193 0.112910494 0.23388769 0.08577114 0.15512148
0.22087839 -0.009619694 0.08003143 0.4273346 0.104983166 0.2669084 -0.39318407 0.11433471
-0.056314778 0.0077749174 0.008798376 -0.061212894 -0.010779239 0.2226949 -0.29097593 -0.0805463
-0.12740664 0.007669419 0.119423315 0.34583518 0.2902446 -0.09326613 -0.09015551 -0.2509189
0.00824346 -0.15612172 -0.09310558 -0.19986022 0.0719528 0.005331453 0.12848203 0.21419115
0.30049807 -0.06380931 -0.19898237 0.13784441 -0.49191886 0.05710696 0.19678968 0.14441945
-0.1040986 -0.12171998 0.051008213 -0.2717015 -0.060443636 -0.099690236 -0.14757393 0.14021312
-0.26690847 -0.06038021 0.30442923 0.38453364 -0.14681867 -0.16982251 0.09653371 -0.004688114
0.13305032 -0.011008748 -0.05510471 -0.20321147 0.17053652 0.5267562 -0.28254074 0.08342719
-0.2908195 -0.1767847 0.14719471 0.18950374 0.0700025 0.3154983 -0.15721837 -0.4497364
-0.26812848 -0.17602266 0.12949349 0.063789845 0.1129624 -0.06531082 -0.10928747 0.231213
0.047105335 -0.26627383 -0.0831105 0.49152914 0.27787462 -0.057630043 -0.046901777 0.23865213
-0.030235099 0.20682451 -0.1979409 -0.29394752 -0.17963685 -0.24927057 -0.09884241 -0.29502752
-0.25948405 0.17347552 0.15279892 -0.3516112 -0.048942916 -0.12419381 0.25710025 -0.12017511
0.4777793 0.17161742 -0.020819511 0.54967004 0.246949 0.39995366 -0.4342161 0.2323283
-0.2587622 -0.04826191 0.22767192 0.2043559 -0.26940238 -0.39023203 -0.2821664 0.17728113
0.03684562 0.14553566 -0.38437146 0.29455113 0.040851306 0.43795213 0.21673411 -0.07606924
-0.23718783 -0.039487485 -0.38331747 0.20869783 -0.090217575 -0.37457886 0.061627723 -0.030017966
0.23552376 0.20894289 -0.13424927 0.23411566 -0.4640715 0.21170247 0.2581222 0.15624277
0.3400921 0.22389035 0.20005253 0.0769023 0.21877661 0.1636967 -0.15960479 -0.29852954
-0.09699258 -0.13753924 0.09591714 0.035414577 0.11167159 -0.09953548 0.20529924 0.085106306
0.035873476 -0.21665442 -0.1880896 0.18393128 -0.30116603 -0.17544433 -0.082405224 -0.07157256
-0.084650435 0.08545189 -0.18948841 -0.34915105 0.10606383 -0.007596909 0.12739998 -0.034481324
0.22978212 0.14137764 0.17634533 0.24434493 -0.06433726 0.13967684 -0.026487505 -0.005869382
-0.035507433 0.0943276 -0.08017812 -0.126992 -0.016199082 -0.068393245 0.19012566 0.27526718
0.061209753 -0.07321765 -0.0583279 0.40882972 0.14949338 0.17551997 -0.1639233 -0.26693228
0.16931954 0.04513912 0.08086841 -0.14414175 0.009640686 -0.10161836 0.038497634 0.12579155
-0.065846756 -0.004793113 -0.028726304 0.21203075 0.1630533 -0.022617089 0.07462367 -0.20872091
00000000: 6a3e e33d b5d6 af3d 6cfb 5ebd dea1 a63d
00000010: 4300 203e 4fdf ec3b 4402 e5bd 68a6 8d3c
00000020: 3cf7 97bc b6fd 8dbe fde8 263d dde4 3a3e
00000030: c23b 1abe db37 bb3d bbbc 65be 4973 3ebd
00000040: 08cd af3d 470d 3dbe 645c b3bd 8068 223c
00000050: c7ce 18bd 4378 8a3d e880 e03d 5753 f7bc
00000060: 4adc 99bd 61cd 32be 1d7e e43a da26 e4bc
00000070: af25 2cbe 2861 a53d ba51 9cbd 3c76 783d
00000080: 1307 04be 4864 223e 1469 673d d10e 823e
00000090: 9e3d e73d 4180 6f3e c8a8 af3d 2ad8 1e3e
000000a0: f22d 623e ec9b 1dbc 85e7 a33d 9acb da3e
000000b0: 6a01 d73d 38a8 883e 6c4f c9be 5128 ea3d
000000c0: 53aa 66bd bcc4 fe3b 1027 103c 5fba 7abd
000000d0: 689b 30bc 220a 643e ccfa 94be 75f5 a4bd
000000e0: e376 02be c04f fb3b 3694 f43d 4f11 b13e
000000f0: f19a 943e 5002 bfbd 74a3 b8bd 7178 80be
00000100: 940f 073c 5fde 1fbe 23ae bebd 28a8 4cbe
00000110: fd5b 933d 78b3 ae3b cb90 033e ed54 5b3e
00000120: e2da 993e 75ae 82bd 09c2 4bbe 1627 0d3e
00000130: cadc fbbe fde8 693d 3c83 493e b1e2 133e
00000140: a631 d5bd 5348 f9bd fded 503d 761c 8bbe
00000150: bf93 77bd 652a ccbd 9f1d 17be 0794 0f3e
00000160: 3aa8 88be 3d51 77bd 26de 9b3e 98e1 c43e
00000170: a257 16be f4e5 2dbe 77b3 c53d c09e 99bb
00000180: 583e 083e 095e 34bc 7ab5 61bd ab16 50be
00000190: 20a1 2e3e 7fd9 063f 2ea9 90be e0db aa3d
000001a0: 4be6 94be 0c07 35be 36ba 163e 450d 423e
000001b0: 795d 8f3d fe88 a13e dafd 20be d943 e6be
000001c0: 2348 89be 493f 34be f199 043e 40a4 823d
000001d0: d558 e73d aec1 85bd 1cd2 dfbd 1ac3 6c3e
000001e0: 86f1 403d 0b55 88be d635 aabd b5a9 fb3e
000001f0: 9545 8e3e 7b0d 6cbd 141c 40bd 3961 743e
00000200: 99af f7bc cec9 533e 05b1 4abe 4a80 96be
00000210: b9f2 37be c940 7fbe e46d cabd d90d 97be
00000220: 18db 84be 91a3 313e 5277 1c3e 6206 b4be
00000230: 5e78 48bd 5359 febd a5a2 833e 5e1e f6bd
00000240: 7d9f f43e 7abc 2f3e ae8d aabc 2db7 0c3f
00000250: 33e0 7c3e bac6 cc3e 9351 debe 78e7 6d3e
00000260: 7b7c 84be 48ae 45bd d422 693e ac42 513e
00000270: 1cef 89be 7ecc c7be 1d78 90be 2f89 353e
00000280: 6feb 163d 4d07 153e 56cc c4be 68cf 963e
00000290: b353 273d 433b e03e 8cef 5d3e 31ca 9bbd
000002a0: 5ee1 72be a1bd 21bd 3042 c4be e2b4 553e
000002b0: fec3 b8bd cdc8 bfbe 5a6d 7c3d 3de8 f5bc
000002c0: 242d 713e 20f5 553e a478 09be 04bc 6f3e
000002d0: c89a edbe 88c8 583e 9828 843e 1bfe 1f3e
000002e0: 8d20 ae3e 8343 653e 92da 4c3e f47e 9d3d
000002f0: fa06 603e 1ca0 273e 706f 23be ddd8 98be
00000300: 0ca4 c6bd 16d7 0cbe 3570 c43d e00e 113d
00000310: 13b4 e43d 42d9 cbbd f739 523e 374c ae3d
00000320: 11f0 123d a8da 5dbe 8f9a 40be 7b58 3c3e
00000330: 6f32 9abe aea7 33be 12c4 a8bd a294 92bd
00000340: 355d adbd 6701 af3d 4009 42be edc3 b2be
00000350: fe37 d93d 7eef f8bb 2475 023e 4a3c 0dbd
00000360: 014c 6b3e 4dc5 103e df93 343e 8f35 7a3e
00000370: 41c3 83bd 7207 0f3e 53fc d8bc f253 c0bb
00000380: 3e70 11bd d42e c13d 6d34 a4bd 310a 02be
00000390: f0b3 84bc c211 8cbd 4db0 423e d2ef 8c3e
000003a0: 14b7 7a3d 23f3 95bd 3ce9 6ebd 2152 d13e
000003b0: cb14 193e 82bb 333e 82db 27be 59ab 88be
000003c0: 1a62 2d3e cce3 383d 569e a53d e599 13be
000003d0: f8f3 1d3c 491d d0bd b2af 1d3d 80cf 003e
000003e0: aada 86bd 8c0f 9dbb 6d53 ebbc 971e 593e
000003f0: 72f7 263e 7947 b9bc 4bd4 983d efba 55be

weight_hh_l0 f4 [128, 32]
-0.06457669 0.0653749 -0.13747473 0.051575262 0.048700888 -0.024362812 -0.098280914 -0.070421755
-0.13872123 -0.038534287 0.13154368 0.18125923 0.10893566 0.16371498 -0.053197723 -0.09257758
0.10464446 -0.01376554 0.26025778 -0.07075198 0.08777552 -0.1623557 -0.28581938 0.09014175
-0.22976407 0.24912061 -0.17348564 0.15350865 0.10608415 -0.16574849 -0.090816006 -0.03392616
0.018695585 -0.11549687 -0.3049896 -0.14772381 0.14331147 0.003451444 -0.2136235 -0.052017745
0.16515954 0.17600201 0.34620264 -0.0011369145 -0.06947126 0.44091174 -0.009054143 -0.109669656
0.081864655 0.15739515 0.37677327 0.08486599 0.16160415 -0.22651926 -0.0645152 0.1623059
0.07171517 -0.033176575 -0.15473333 -0.022707736 0.052337818 0.056493033 0.106524475 -0.43448555
-0.1068415 0.20877378 0.14149748 -0.049998477 -0.25320706 -0.12185675 -0.10812443 0.056070276
-0.027453268 -0.23562652 -0.1621147 0.00079595926 0.07704984 0.3835784 0.2299574 -0.03855178
0.06413056 0.035412963 -0.002754957 -0.25260007 0.05393261 -0.15417579 -0.1457477 0.20546278
-0.26247308 0.007175868 -0.22709787 0.15281056 -0.23104449 0.008652031 0.19233337 -0.48700774
0.14957932 -0.06504951 0.040748425 -0.058976293 0.058371175 0.08501606 0.20524867 0.1448121
0.41884127 0.17679027 0.03198849 0.0014062742 0.064663775 -0.053919677 -0.069765456 -0.08887626
-0.102929465 -0.22374341 -0.03139116 -0.08613565 -0.07976281 0.12717766 0.036281947 -0.034127116
0.012473976 0.20925532 -0.076184295 0.18012919 0.011221379 -0.09937688 0.21850018 -0.12041385
-0.25806996 0.11792308 0.14938782 0.1818621 -0.09235842 0.3740859 0.28518346 0.08718796
0.20825665 -0.006453816 -0.23364913 -0.06026888 -0.033699084 0.13430835 0.28437114 -0.04863846
-0.33747953 -0.5048006 -0.1862491 0.111271165 0.09432699 0.0036693744 0.3853372 -0.018674139
-0.2144177 0.07905718 -0.3910898 0.14121042 -0.13664228 0.12122624 0.11449253 0.05580099
-0.067374885 -0.077531934 -0.29426327 -0.22871813 0.099715486 0.12819512 -0.14388157 0.2619213
0.3285905 -0.27931938 -0.051044922 0.2685163 0.0909417 0.039173856 0.18295968 -0.14397353
-0.22429462 -0.057490036 -0.012876843 0.109818116 -0.10035393 -0.22048521 -0.16728061 0.22161879
0.10964026 0.2549357 0.021639124 0.22804755 -0.041182622 -0.289812 0.39848673 -0.115234196
0.28675354 -0.23217227 -0.31144318 -0.19106996 0.2724954 -0.21275583 0.016364375 0.1834641
0.24959546 0.19520621 0.38194764 0.0021523451 -0.15098855 0.28470108 -0.3870866 -0.15339637
0.017134195 0.2032989 0.3478941 -0.006030974 0.045710195 0.27458626 -0.3786978 0.024144117
0.15298903 0.07320618 -0.21770637 -0.017578486 0.3844985 -0.1391665 0.041451324 -0.059966262
0.1782092 0.1579612 0.40440512 0.037937604 0.20722805 -0.38771787 0.20333466 -0.017543748
-0.48625186 -0.14482985 -0.28820232 0.3211061 0.7258611 -0.106575586 0.102550514 0.18218435
0.09782349 0.19104932 -0.16337197 -0.022095094 0.071148425 0.04962407 -0.05985267 -0.13247772
0.006436079 -0.03292562 0.36501116 0.10417114 -0.16601136 0.06432234 0.0015981036 0.08337445
00000000: c940 84bd 47e3 853d 2dc6 0cbe 9540 533d
00000010: 957a 473d 8594 c7bc 8147 c9bd 4839 90bd
00000020: f00c 0ebe 21d6 1dbd 63b3 063e 059c 393e
00000030: a919 df3d e6a4 273e dbe5 59bd 5099 bdbd
00000040: d64f d63d dc88 61bc 8240 853e 6ae6 90bd
00000050: a7c3 b33d 9340 26be eb56 92be 3d9c b83d
00000060: 4647 6bbe 7919 7f3e 38a6 31be 5f31 1d3e
00000070: a642 d93d f9b9 29be befd b9bd 28f6 0abd
00000080: 7c27 993c 9f89 ecbd 9927 9cbe e944 17be
00000090: 3ec0 123e 9f31 623b 1ec0 5abe 8f10 55bd
000000a0: 951f 293e df39 343e 7941 b13e 8504 95ba
000000b0: f346 8ebd 2fbf e13e d457 14bc 7c9a e0bd
000000c0: a8a8 a73d 322c 213e 6de8 c03e 38ce ad3d
000000d0: 8f7b 253e aaf4 67be 8c20 84bd 8533 263e
000000e0: 67df 923d 29e4 07bd 6a72 1ebe 9305 babc
000000f0: 2e60 563d 3d65 673d 8129 da3d e474 debe
00000100: b7cf dabd cbc8 553e b7e4 103e 34cb 4cbd
00000110: 5ba4 81be 0890 f9bd 5770 ddbd f2a9 653d
00000120: ade5 e0bc 1448 71be 6501 26be eca7 503a
00000130: 4ecc 9d3d 6364 c43e f479 6b3e 79e8 1dbd
00000140: e256 833d 2f0d 113d 828c 34bb cc54 81be
00000150: 71e8 5c3d 42e0 1dbe e33e 15be d664 523e
00000160: df62 86be 8b23 eb3b 588c 68be 5f7a 1c3e
00000170: ed96 6cbe 40c1 0d3c 0af3 443e 1459 f9be
00000180: 522b 193e ad38 85bd d2e7 263d 2091 71bd
00000190: 9d16 6f3d e61c ae3d b52c 523e a049 143e
000001a0: 5d72 d63e 8208 353e 5d06 033d bb52 b83a
000001b0: 716e 843d e1da 5cbd 31e1 8ebd c204 b6bd
000001c0: afcc d2bd fe1c 65be 0494 00bd e367 b0bd
000001d0: af5a a3bd dc3a 023e 619c 143d e0c8 0bbd
000001e0: a65f 4c3c 0747 563e 8306 9cbd c973 383e
000001f0: e0d9 373c 1b86 cbbd 83be 5f3e 899b f6bd
00000200: bf21 84be a881 f13d 1ff9 183e 0f3a 3a3e
00000210: 6926 bdbd 3088 bf3e 9103 923e 9a8f b23d
00000220: 3b41 553e 887a d3bb b841 6fbe 80dc 76bd
00000230: 0d08 0abd 2188 093e 1899 913e 1f39 47bd
00000240: 1eca acbe 9d3a 01bf 16b8 3ebe 23e2 e33d
00000250: 822e c13d e379 703b eb4a c53e 82fa 98bc
00000260: 5090 5bbe bbe8 a13d ec3c c8be 7799 103e
00000270: f4eb 0bbe 7745 f83d 0f7b ea3d 948f 643d
00000280: d8fb 89bd 10c9 9ebd ada9 96be 1635 6abe
00000290: a237 cc3d 9545 033e b155 13be 8c1a 863e
000002a0: 043d a83e f302 8fbe 7b14 51bd f87a 893e
000002b0: a43f ba3d c474 203d c859 3b3e cc6d 13be
000002c0: 7dad 65be ac7a 6bbd 65f9 52bc 52e8 e03d
000002d0: 5c86 cdbd e0c6 61be 9c4b 2bbe 09f0 623e
000002e0: 138b e03d ef86 823e 8844 b13c 4c85 693e
000002f0: 1caf 28bd 3d62 94be 7406 cc3e e8ff ebbd
00000300: 5cd1 923e 91be 6dbe 7b75 9fbe d8a7 43be
00000310: 8484 8b3e aadc 59be 950e 863c 03de 3b3e
00000320: f495 7f3e 23e4 473e a48e c33e 5c0e 0d3b
00000330: be9c 1abe 57c4 913e 3730 c6be f013 1dbe
00000340: 035d 8c3c 962d 503e 2d1f b23e 7a9f c5bb
00000350: 9d3a 3b3d 9296 8c3e aee4 c1be e2c9 c53c
00000360: 28a9 1c3e 1fed 953d 6bee 5ebe c200 90bc
00000370: fddc c43e aa81 0ebe ddc8 293d 2f9f 75bd
00000380: 797c 363e 95c0 213e 300e cf3e 7664 1b3d
00000390: 9733 543e f582 c6be f636 503e e8b7 8fbc
000003a0: 01f6 f8be 474e 14be 418f 93be 0568 a43e
000003b0: 08d2 393f 4d44 dabd 0106 d23d 898e 3a3e
000003c0: af57 c83d 6fa2 433e fb4a 27be c500 b5bc
000003d0: 44b6 913d 9c42 4b3d 1328 75bd 3da8 07be
000003e0: bee5 d23b 04dd 06bd bee2 ba3e ae57 d53d
000003f0: e2fe 29be 6ebb 833d 7577 d13a 39c0 aa3d

bias_ih_l0 f4 [128]
-0.017240895 -0.060052283 0.09783653 0.085032724 0.030810602 0.15606064 0.17036137 -0.07788387
0.04458149 0.14468831 -0.061063986 -0.097047575 0.04017715 0.18952923 -0.15424284 0.025787665
0.015393007 0.19584312 0.2750761 -0.05732789 0.19486009 -0.06853631 -0.10602595 -0.07902864
-0.0024026867 -0.031353563 0.12868904 0.03822663 0.12621802 0.057850458 0.22756581 0.070823625
0.17374747 -0.12835032 -0.12377398 -0.13286138 0.035933573 0.11320603 0.07211176 0.24607916
0.20648049 0.31723273 0.10106143 0.23470595 -0.086358085 0.1647221 -0.013655605 -0.057672326
-0.059205342 0.2878878 0.28551793 0.15445586 0.12760535 0.108380914 -0.10289355 0.03918312
-0.021165883 0.098550595 0.1547873 0.20839633 -0.15832378 0.09359506 0.017266175 0.0057669254
-0.19754118 0.2454397 0.14137936 -0.13814802 0.093008175 -0.06136317 0.12395759 0.19383214
0.09398826 -0.1775405 0.21106382 0.0551461 0.13833067 0.34755105 0.12361206 -0.22077224
-0.35226947 -0.07421443 0.3198815 -0.06746397 0.20645837 -0.24904555 -0.10860661 0.25604677
-0.29760998 0.02990809 0.16301632 0.087300695 -0.34534618 -0.0400652 -0.099838175 -0.54068464
-0.002667067 0.16849838 0.21496218 0.11144756 0.16458021 0.23845966 0.22427107 0.09249327
0.058912992 0.31469944 0.06439191 -0.11618669 -0.0653675 0.2305962 0.085095614 0.037033096
0.12158327 -0.04176139 0.23617893 0.1073969 -0.035756484 0.106300764 0.024750547 -0.102950715
0.22707018 0.043004982 0.3318249 -0.04630083 -0.08259213 0.012275742 0.17277981 -0.0054163127
00000000: c73c 8dbc 62f9 75bd 855e c83d a325 ae3d
00000010: 8466 fc3c 5cce 1f3e 3673 2e3e 9481 9fbd
00000020: 159b 363d 2c29 143e 3b1e 7abd e1c0 c6bd
00000030: cc90 243d f313 423e d6f1 1dbe a740 d33c
00000040: f332 7c3c 198b 483e c6d6 8c3e a6d0 6abd
00000050: 6789 473e c45c 8cbd 2224 d9bd c5d9 a1bd
00000060: 6576 1dbb 986c 00bd 0fc7 033e 8793 1c3d
00000070: 4c3f 013e 9af4 6c3d 0307 693e fa0b 913d
00000080: dbea 313e 446e 03be 367d fdbd d00c 08be
00000090: 152f 133d 90d8 e73d 55af 933d 2dfc 7b3e
000000a0: 9f6f 533e 546c a23e 4cf9 ce3d c256 703e
000000b0: 82dc b0bd e9ac 283e c2bb 5fbc d139 6cbd
000000c0: 4d81 72bd 0866 933e 682f 923e ad29 1e3e
000000d0: faaa 023e d0f6 dd3d dbb9 d2bd 7b7e 203d
000000e0: 1364 adbc e5d4 c93d 9080 1e3e d965 553e
000000f0: a11f 22be c4ae bf3d cb71 8d3c 7af8 bc3b
00000100: 3c48 4abe 8b54 7b3e c0c5 103e ad76 0dbe
00000110: 127b be3d f357 7bbd 7add fd3d ef7b 463e
00000120: eb7c c03d 2dcd 35be 1d21 583e e1e0 613d
00000130: 8ea6 0d3e 36f2 b13e 5228 fd3d 1e12 62be
00000140: aa5c b4be bcfd 97bd 82c7 a33e 8d2a 8abd
00000150: d369 533e cc05 7fbe 246d debd 9018 833e
00000160: 5660 98be d001 f53c c0ed 263e b5ca b23d
00000170: 37d1 b0be 681b 24bd f577 ccbd 4f6a 0abf
00000180: f6c9 2ebb d78a 2c3e 0c1f 5c3e 9e3e e43d
00000190: b787 283e c52e 743e 51a7 653e 1d6d bd3d
000001a0: c04e 713d 4920 a13e e8df 833d 4af3 edbd
000001b0: 65df 85bd 6921 6c3e 9c46 ae3d 04b0 173d
000001c0: a600 f93d fe0d 2bbd e4d8 713e e8f2 db3d
000001d0: 6475 12bd 37b4 d93d a9c1 ca3c d3d7 d2bd
000001e0: 1685 683e fe25 303d f4e4 a93e f0a5 3dbd
000001f0: 1026 a9bd 3220 493c 31ed 303e 537b b1bb

bias_hh_l0 f4 [128]
0.21179822 0.19943619 0.028024169 -0.083898194 0.12484488 0.24374133 -0.0762574 0.026200851
0.1232586 0.21681932 0.14399303 0.11170662 0.04071864 0.19881468 0.075041115 0.07686256
-0.03565387 0.11672031 0.18483372 -0.10228954 0.19992463 0.040897924 0.18835865 -0.15250504
-0.10940025 -0.114512116 0.09293085 -0.057948407 0.1520604 0.082059234 0.086750865 0.09979468
0.039539773 0.09266365 0.00015076072 -0.028453616 0.04634576 -0.053659834 -0.050995156 -0.043891482
-0.05516333 0.13853838 0.019729871 0.12895109 0.058186434 0.17781463 -0.17009966 -0.1315977
0.008260809 0.02779175 0.14051545 -0.032727778 0.1200121 0.03150231 0.041943353 -0.108391024
0.0032691502 0.14345512 0.06551335 -0.010559997 0.040124964 -0.09867748 -0.10227046 0.1827193
-0.01825285 0.26338243 -0.0473332 -0.10497005 0.16650422 -0.2626253 -0.08024192 0.19316237
-0.16674143 0.04511897 0.13598503 0.16247444 0.09946181 0.42043287 0.10071295 -0.11399986
-0.26336947 0.09696148 0.036678515 0.03058449 0.25342476 -0.20735712 0.022977911 0.19171998
-0.23345634 0.25244445 -0.041182857 0.10343743 -0.49406996 -0.07872201 0.12518905 -0.72024894
0.26171622 0.14447045 0.114367954 -0.15486933 -0.00860022 0.25165576 0.14935973 0.16621807
0.101986624 0.3274248 0.009622249 -0.0954153 -0.057486475 0.08975379 0.15083851 0.13911384
0.26967603 0.016624048 0.014225844 0.09268692 -0.05292397 -0.083830774 0.14561395 0.18382819
0.10200519 0.16883741 0.12016103 0.13909836 0.1929239 0.07946703 0.09760104 0.05929366
00000000: a2e1 583e 0039 4c3e f192 e53c d1d2 abbd
00000010: acae ff3d 5497 793e d72c 9cbd 2ba3 d63c
00000020: 016f fc3d e205 5e3e e972 133e 71c6 e43d
00000030: 97c8 263d 1396 4b3e 28af 993d 1e6a 9d3d
00000040: cb09 12bd 0f0b ef3d 0d45 3d3e 2e7d d1bd
00000050: 0bb9 4c3e 9584 273d 17e1 403e 482a 1cbe
00000060: 3d0d e0bd 5485 eabd 8852 be3d 4f5b 6dbd
00000070: b9b5 1b3e ac0e a83d 70aa b13d 2761 cc3d
00000080: 75f4 213d 71c6 bd3d 8615 1e39 8f17 e9bc
00000090: 0dd5 3d3d 6aca 5bbd 4ce0 50bd 8ec7 33bd
000000a0: f2f2 61bd 01dd 0d3e 8aa0 a13c c10b 043e
000000b0: e654 6e3d 0a15 363e 9b2e 2ebe 8cc1 06be
000000c0: 5858 073c 86ab e33c 48e3 0f3e 900d 06bd
000000d0: e7c8 f53d 9108 013d cbcc 2b3d 1dfc ddbd
000000e0: 3d3f 563b e6e5 123e dd2b 863d d603 2dbc
000000f0: 135a 243d 6b17 cabd 2d73 d1bd c51a 3b3e
00000100: 0087 95bc 10da 863e 75e0 41bd 8afa d6bd
00000110: 1580 2a3e d376 86be e055 a4bd 5bcc 453e
00000120: 44be 2abe abce 383d a93f 0b3e b35f 263e
00000130: a2b2 cb3d fa42 d73e 9742 ce3d c278 e9bd
00000140: 5dd8 86be be93 c63d 363c 163d 538c fa3c
00000150: e4c0 813e 6d55 54be 2c3c bc3c 3e52 443e
00000160: 2e0f 6fbe 6640 813e 5baf 28bd 01d7 d33d
00000170: bdf6 fcbe 0139 a1bd 8f31 003e 3c62 38bf
00000180: abff 853e 10f0 133e bf39 ea3d 1196 1ebe
00000190: f0e7 0cbc 06d9 803e c2f1 183e 1235 2a3e
000001a0: 5dde d03d 39a4 a73e a3a6 1d3c 1969 c3bd
000001b0: f076 6bbd d6d0 b73d 6975 1a3e dc73 0e3e
000001c0: fa12 8a3e 282f 883c 8413 693c a4d2 bd3d
000001d0: cec6 58bd 78af abbd d31b 153e 753d 3c3e
000001e0: 19e8 d03d b7e3 2c3e fc16 f63d cd6f 0e3e
000001f0: d88d 453e 9cbf a23d 0ee3 c73d e9dd 723d

weight_ih_l0_reverse f4 [128, 2]
0.1316354 0.094628334 0.036691353 -0.024229767 -0.14925909 -0.26146156 0.23944767 0.2242428
-0.105067715 -0.089362115 -0.05665425 -0.17629114 -0.17757986 -0.45791796 0.23502658 -0.4005897
0.24624869 -0.8499251 -0.26308674 0.3486526 -0.36411798 0.27285293 0.32352224 -0.14056873
-0.3965307 -0.09175598 -0.48424837 -0.118417785 0.56653017 -0.43807995 0.39582703 0.1615479
-0.07722064 -0.13050243 0.21864848 0.4902828 0.026613394 -0.2793517 0.11679047 0.15485528
-0.031283975 0.16654187 0.4374473 0.39441383 -0.19462231 0.15259309 -0.08186824 -0.042059947
-0.8233247 -0.11798332 -0.62726057 -0.38135046 -0.45229042 -0.2042101 -0.08901244 0.19017409
0.24398747 -0.17886762 -0.18150683 0.10221331 -0.14622466 0.12028449 -0.3804989 -0.47941947
0.11519286 0.33005702 0.0782096 -0.09761146 -0.2418022 -0.2135135 -0.0005947789 0.084635034
-0.12735538 -0.04942814 0.270181 -0.04861213 -0.3625915 -0.38445505 0.26229087 -0.14939015
0.2846216 -0.3326554 -0.12581679 0.12890711 0.033918075 0.054103754 0.25303188 -0.109917104
-0.16979468 -0.046327394 -0.19637278 -0.09926812 0.2710388 -0.30666718 0.31478235 0.10612059
-0.006990874 -0.12601289 -0.016773868 0.42759225 -0.06121141 -0.18618374 -0.04314799 0.11975305
0.0706168 0.13988994 0.19909823 0.11411287 -0.068481155 -0.0949982 -0.37409484 -0.14895122
-0.37506938 -0.14169759 -0.21046284 -0.3857824 -0.15074694 -0.1835009 0.035761576 -0.08312305
0.06647065 0.014987842 -0.08354068 0.09129201 -0.0799636 0.12243954 0.1324955 -0.4794055
-0.29495656 -0.2733963 0.09640627 0.3912838 0.1597469 0.13968349 -0.31398103 -0.19181687
0.19823478 0.33317775 0.25882047 -0.08373421 -0.29951018 -0.43713808 -0.38719177 0.25186303
-0.07014432 -0.62553275 -0.17695725 0.45981115 0.2920321 -0.16417241 0.41175768 -0.08291553
0.3295258 0.10786116 0.42723778 -0.0669443 0.18162395 -0.43797502 0.2716403 0.07216866
-0.02982291 0.29964584 0.23009995 0.6650887 0.14704604 -0.3589866 -0.37317762 0.17720877
-0.3199047 -0.07616776 -0.29423952 -0.1600344 -0.3574337 0.1917215 0.22222793 0.25420293
-0.50251114 0.20530671 0.32466796 0.31596094 -0.36953074 -0.19503756 -0.17382464 -0.30952495
-0.3881363 0.2530258 0.3510253 0.03719933 0.2700713 -0.36466506 0.10234416 -0.34586513
0.14062941 0.016374014 0.03873439 -0.13491738 0.023395935 -0.18289956 -0.21675318 -0.09951518
-0.22858198 0.10647587 -0.16536552 -0.0062940586 -0.35681736 -0.34131193 0.34251454 -0.41857123
-0.09849155 -0.72731024 -0.064182825 -0.06894519 -0.22031829 0.09161209 0.39752826 -0.18622343
-0.25047657 -0.27059644 -0.3299531 0.11608696 0.80178505 -0.5416202 0.246374 -0.042309698
0.16477028 -0.026382301 0.048918758 0.17208838 -0.047038075 -0.09626137 0.0148799885 0.24900442
0.09561229 -0.0646459 0.27119997 0.610992 -0.003369114 -0.033473488 -0.24161519 0.038726006
-0.39884365 -0.013594613 -0.1891031 -0.4293413 -0.60803264 -0.08993651 0.06299761 0.20815401
0.5569814 -0.2780254 -0.18496916 -0.14639954 -0.044347107 0.12281604 -0.12544486 -0.19823544
00000000: 6ecb 063e 80cc c13d ac49 163d 817d c6bc
00000010: 60d7 18be 4ade 85be c531 753e e89f 653e
00000020: be2d d7bd 7c03 b7bd 490e 68bd aa85 34be
00000030: 7fd7 35be 3974 eabe cfaa 703e 181a cdbe
00000040: 9e28 7c3e b194 59bf 4eb3 86be 9882 b23e
00000050: ac6d babe 61b3 8b3e b5a4 a53e 40f1 0fbe
00000060: 1206 cbbe 8fea bbbd 67ef f7be 0685 f2bd
00000070: 1f08 113f 044c e0be d7a9 ca3e d06c 253e
00000080: db25 9ebd 6ea2 05be 63e5 5f3e 5906 fb3e
00000090: 5504 da3c 3007 8fbe d82f ef3d 6292 1e3e
000000a0: a023 00bd f489 2a3e 18f9 df3e 9cf0 c93e
000000b0: 124b 47be 5d41 1c3e 89aa a7bd 0d47 2cbd
000000c0: 68c5 52bf 3da1 f1bd 2694 20bf 5e40 c3be
000000d0: 9c92 e7be 741c 51be 274c b6bd ffbc 423e
000000e0: dad7 793e 1329 37be eddc 39be 3655 d13d
000000f0: ebbb 15be b757 f63d c0d0 c2be 7876 f5be
00000100: 3cea eb3d 3cfd a83e 5b2c a03d 84e8 c7bd
00000110: ff9a 77be 48a3 5abe f0ea 1bba 2255 ad3d
00000120: 7369 02be 2975 4abd 2a55 8a3e 831d 47bd
00000130: 98a5 b9be 4bd7 c4be fd4a 863e bbf9 18be
00000140: ecb9 913e cf51 aabe 1ed6 00be 3a00 043e
00000150: aeed 0a3d e69b 5d3d 658d 813e 381c e1bd
00000160: a8de 2dbe cbc1 3dbd f215 49be 164d cbbd
00000170: 99c5 8a3e 7b03 9dbe 272b a13e c055 d93d
00000180: b413 e5bb 8609 01be 5a69 89bc 5fed da3e
00000190: d1b8 7abd f3a6 3ebe f2bb 30bd 1641 f53d
000001a0: 8a9f 903d 4f3f 0f3e 68e0 4b3e 02b4 e93d
000001b0: d93f 8cbd 6b8e c2bd 5c89 bfbe ab86 18be
000001c0: 1809 c0be 2c19 11be 9283 57be 4585 c5be
000001d0: 685d 1abe a9e7 3bbe bb7a 123d 6b3c aabd
000001e0: c421 883d 918f 753c 6017 abbd 4ef7 ba3d
000001f0: f5c3 a3bd 95c1 fa3d e6ac 073e a374 f5be
00000200: 8c04 97be 9afa 8bbe a770 c53d 5a56 c83e
00000210: b194 233e 3009 0f3e 1fc2 a0be a46b 44be
00000220: 0ffe 4a3e 4696 aa3e 1e84 843e d77c abbd
00000230: 6659 99be 90d0 dfbe 003e c6be 31f4 803e
00000240: d3a7 8fbd ea22 20bf 4834 35be 5e6c eb3e
00000250: 3b85 953e d01c 28be e7d1 d23e 9ecf a9bd
00000260: 9bb7 a83e 50e6 dc3d e9be da3e 181a 89bd
00000270: a1fb 393e 433e e0be 7014 8b3e 2acd 933d
00000280: 2d4f f4bc 2e6b 993e 529f 6b3e 4143 2a3f
00000290: 3d93 163e 17cd b7be 2311 bfbe 3776 353e
000002a0: 8dca a3be d8fd 9bbd 90a6 96be 0fe0 23be
000002b0: 8d01 b7be a452 443e b88f 633e e326 823e
000002c0: 92a4 00bf ec3b 523e e13a a63e a2c5 a13e
000002d0: 2233 bdbe edb7 47be 16ff 31be 0e7a 9ebe
000002e0: cdb9 c6be 998c 813e 97b9 b33e 535e 183d
000002f0: c946 8a3e 61b5 babe d199 d13d 3c15 b1be
00000300: 2801 103e cc22 863c f4a7 1e3d c827 0abe
00000310: d5a8 bf3c 064a 3bbe 8cf4 5dbe 9dce cbbd
00000320: 6511 6abe 0510 da3d 9455 29be 643e cebb
00000330: c4b0 b6be 70c0 aebe 115e af3e f84e d6be
00000340: f0b5 c9bd 0131 3abf 4972 83bd 2333 8dbd
00000350: 1e9b 61be 1f9f bb3d d388 cb3e 5bb1 3ebe
00000360: 773e 80be 9e8b 8abe 9def a8be 00bf ed3d
00000370: c941 4d3f 9fa7 0abf 7749 7c3e ef4c 2dbd
00000380: 8ab9 283e b21f d8bc 095f 483d f037 303e
00000390: ffaa 40bd ae24 c5bd 32cb 733c 04fb 7e3e
000003a0: 60d0 c33d 1265 84bd b9da 8a3e f969 1c3f
000003b0: 5acc 5cbb 7f1b 09bd f969 77be 299f 1e3d
000003c0: 3c35 ccbe f1bb 5ebc 3ea4 41be 9fd2 dbbe
000003d0: 07a8 1bbf a230 b8bd e404 813d 5326 553e
000003e0: 5596 0e3f 5859 8ebe 8e68 3dbe c3e9 15be
000003f0: 50a5 35bd fa86 fb3d 9e74 00be 3bfe 4abe

weight_hh_l0_reverse f4 [128, 32]
-0.19772919 0.21142714 0.002333918 -0.051066402 0.18347025 0.16258451 -0.28730363 0.06358217
-0.16634172 0.19516626 0.06664464 -0.022247674 0.08139032 0.25195026 -0.14229366 0.20625506
0.1667458 0.27739742 -0.0806136 -0.006408438 -0.33139876 0.020495996 0.08982272 0.14920959
-0.14428537 0.2110786 -0.34527585 -0.24241903 0.07830819 0.18440191 -0.22237848 -0.0126802055
-0.11401894 0.15997049 0.046731707 0.18073595 -0.039653245 -0.15264322 -0.10848565 -0.022630123
-0.19845545 0.14672932 -0.15421143 -0.18151338 0.04222427 -0.13949515 -0.10201141 -0.082604036
0.012415484 -0.08964897 -0.079890214 0.12356132 -0.12432536 0.07493443 0.0776759 -0.10187183
-0.023135778 -0.04501972 -0.0016164922 -0.08927063 0.08948794 -0.05301394 0.032905366 0.05626354
0.19939452 -0.2778593 -0.10576484 -0.03621189 0.25163087 0.23991245 0.09113943 -0.14906037
-0.053275015 -0.015526536 0.47352737 0.14281046 0.16235383 0.25538957 0.095474556 0.21782881
-0.46973243 -0.22276598 -0.025286889 -0.07900028 0.05182428 -0.1700371 0.09281351 -0.050572656
-0.2031401 0.42405856 -0.064022444 0.03981328 0.017191604 0.056876734 -0.024614414 -0.19666445
-0.13625632 0.0027092115 -0.032129258 -0.1159221 0.25416484 0.02987506 -0.2679691 0.19417681
-0.34055483 0.0061580217 0.049862515 0.23599218 0.23491393 0.07629936 0.003467928 0.30118713
0.17625572 0.26551297 -0.1695688 0.010241017 -0.3034026 0.10856463 -0.2541316 0.42206258
-0.30130723 0.40335342 -0.21928045 -0.092165515 0.14257428 0.004947731 -0.049879786 -0.11822848
0.33079398 -0.16096164 0.029817898 0.12378896 -0.1288188 -0.08864622 -0.2285 0.066297084
-0.061295565 -0.23266244 -0.04165325 -0.05541368 -0.20645039 0.34701043 -0.23524216 -0.23523445
-0.13112985 -0.286789 -0.020792024 0.07967307 -0.012809759 0.20583315 -0.27824858 0.28931543
-0.31751034 0.2602973 -0.31020105 0.24735011 0.08191139 0.10527421 -0.03169423 -0.3707317
-0.051339272 -0.15798412 -0.06399868 -0.0031931791 0.08602588 0.21133713 -0.1037945 -0.22003983
-0.0872736 -0.09235345 -0.0046979394 -0.08711281 -0.16633853 0.22430964 0.0064552757 0.040889848
-0.01779728 -0.12012392 -0.15855859 -0.022246195 0.038772702 0.09239501 -0.30662704 0.03246707
0.028897561 -0.11620487 -0.21516415 -0.08759816 -0.24638213 0.07887194 0.15675406 0.022633621
0.75357234 -0.3820029 -0.08459872 0.24642053 -0.34138417 -0.338615 0.36083815 -0.12128737
0.038512174 -0.56928045 0.09665588 0.07219289 -0.46017817 0.04920699 -0.11900315 -0.07501038
-0.4395565 -0.44535917 0.10189812 0.22981805 0.3027671 0.48684365 0.2108625 -0.2179049
0.054519158 -0.1660299 0.27511123 0.32910204 -0.10194011 -0.5740422 0.18624623 0.20280296
0.105811425 -0.22014797 0.06164621 -0.12774318 0.00837331 0.18263954 -0.15641446 -0.2642327
-0.030929789 -0.10535319 0.3367318 0.043731794 0.01217706 0.18632822 0.065401495 -0.07914222
0.02363449 -0.09679049 -0.20801885 -0.21829744 -0.09345646 -0.018206472 -0.05394605 0.0817441
0.13728678 0.11211956 0.09316116 0.014981256 -0.120350465 0.059372302 0.01751882 0.15719394
00000000: 8579 4abe 5b80 583e a5f4 183b 012b 51bd
00000010: a0df 3b3e 8e7c 263e 7619 93be 5e37 823d
00000020: 7c55 2abe aad9 473e fc7c 883d c140 b6bc
00000030: f8af a63d a0ff 803e 6eb5 11be 8734 533e
00000040: 69bf 2a3e 0907 8e3e be18 a5bd e0fd d1bb
00000050: 19ad a9be 38e7 a73c f9f4 b73d 66ca 183e
00000060: 8bbf 13be fd24 583e ffc7 b0be b23c 78be
00000070: 0b60 a03d dbd3 3c3e 2fb7 63be a3c0 4fbc
00000080: c382 e9bd 4ecf 233e bf69 3f3d d812 393e
00000090: 716b 22bd 814e 1cbe b92d debd cf62 b9bc
000000a0: e837 4bbe 3640 163e 9ae9 1dbe a5de 39be
000000b0: 5bf3 2c3d d1d7 0ebe 5ceb d0bd 4e2c a9bd
000000c0: 506a 4b3c e199 b7bd 7b9d a3bd b80d fd3d
000000d0: 4b9e febd 3977 993d 8b14 9f3d 2ea2 d0bd
000000e0: 3e87 bdbc 9966 38bd 7ae0 d3ba 85d3 b6bd
000000f0: 7445 b73d 2525 59bd c7c7 063d 9974 663d
00000100: 142e 4c3e 9343 8ebe 3d9b d8bd eb52 14bd
00000110: c3d5 803e 9cab 753e 4fa7 ba3d 48a3 18be
00000120: e736 5abd 0363 7ebc 2e72 f23e e83c 123e
00000130: 1540 263e 6cc2 823e 2a88 c33d 840e 5f3e
00000140: c580 f0be c41c 64be 7326 cfbc e6ca a1bd
00000150: b245 543d 351e 2ebe 0215 be3d 4625 4fbd
00000160: f503 50be 341e d93e 331e 83bd 4013 233d
00000170: 68d5 8c3c 94f7 683d 2ba4 c9bc 6862 49be
00000180: c786 0bbe 078d 313b f899 03bd 9168 edbd
00000190: e521 823e 8bbc f43c 3f33 89be 49d6 463e
000001a0: 345d aebe 3bc9 c93b a33c 4c3d efa7 713e
000001b0: 478d 703e d742 9c3d 2d46 633b 3335 9a3e
000001c0: 617c 343e 51f1 873e 72a3 2dbe f0c9 273c
000001d0: 9657 9bbe 2257 de3d 891d 82be 9618 d83e
000001e0: f144 9abe 5784 ce3e 0e8b 60be 46c1 bcbd
000001f0: fefe 113e 9320 a23b bf4e 4cbd c621 f2bd
00000200: d45d a93e 21d3 24be aa44 f43c 1185 fd3d
00000210: 13e9 03be 268c b5bd e7fb 69be c4c6 873d
00000220: 0f11 7bbd 103f 6ebe 999c 2abd 74f9 62bd
00000230: bb67 53be 5aab b13e 52e3 70be 4de1 70be
00000240: e746 06be 02d6 92be 0954 aabc a22b a33d
00000250: 06e0 51bc edc5 523e 9976 8ebe 2721 943e
00000260: b790 a2be b045 853e acd2 9ebe 5949 7d3e
00000270: 29c1 a73d 019a d73d cfd1 01bd 8cd0 bdbe
00000280: 2149 52bd 97c6 21be bd11 83bd a844 51bb
00000290: 562e b03d c368 583e 3692 d4bd 1f52 61be
000002a0: 80bc b2bd ce23 bdbd 2cf1 99bb 3368 b2bd
000002b0: a654 2abe 6db1 653e c786 d33b 1d7c 273d
000002c0: 9acb 91bc 8803 f6bd 2f5d 22be a73d b6bc
000002d0: 20d0 1e3d 9839 bd3d 38fe 9cbe 31fc 043d
000002e0: 94ba ec3c d2fc edbd fe53 5cbe aa66 b3bd
000002f0: 994b 7cbe 9d87 a13d 2384 203e 256a b93c
00000300: 1eea 403f e295 c3be 1842 adbd aa55 7c3e
00000310: e8c9 aebe f25e adbe c7bf b83e 8365 f8bd
00000320: f1be 1d3d 5dbc 11bf 85f3 c53d ded9 933d
00000330: 799c ebbe 458d 493d ecb7 f3bd 0b9f 99bd
00000340: 8d0d e1be 1e06 e4be f6af d03d 6c55 6b3e
00000350: 4a04 9b3e 9243 f93e 57ec 573e 7622 5fbe
00000360: 7b4f 5f3d be03 2abe 61db 8c3e 1080 a83e
00000370: fac5 d0bd 6ef4 12bf 55b7 3e3e 94ab 4f3e
00000380: a9b3 d83d 786e 61be bc80 7c3d 1ccf 02be
00000390: 3530 093c dc05 3b3e 1d2b 20be 8249 87be
000003a0: 7860 fdbc 6ac3 d7bd 1c68 ac3e 1c20 333d
000003b0: 4b82 473c d3cc 3e3e 38f1 853d 5115 a2bd
000003c0: 1e9d c13c 183a c6bd e502 55be 5d89 5fbe
000003d0: 1a66 bfbd bd25 95bc 89f6 5cbd 7369 a73d
000003e0: e894 0c3e f19e e53d 47cb be3d f173 753c
000003f0: 4e7a f6bd 5f30 733d a183 8f3c 73f7 203e
