experiments/pedestrians/models/models_14_Feb_2024_17_26_50_eth_vel_ar3/model_registrar-69.pt (torch, 527902 bytes, 43 tensors)

weight_ih_l0 f4 [128, 6]
00000000: 81ca b23d f991 d23d 66bc 95be dffe ddbd
00000010: 77ff bcbd ddd3 71bd db54 55be 8283 d3be
00000020: 16b8 76bd e373 583e 68cd 053e 0ccf 3fbe
00000030: 2529 6f3d 892a 943c dd45 aebe e6a9 82be
00000040: 28a4 94be 0144 89bd ecec 2f3e feca 3d3e
00000050: afcc f33d 9bbc 3c3d f7a4 e93d 133e 02bd
00000060: 9577 89bd 050f 993d 58bf 71be 4d62 c2be
00000070: d131 853f ebe2 dfbf b6a2 603e ea36 043e
00000080: 69a6 8f3e e94e b4bd 290a e53e f6a9 b9be
00000090: 62b5 c9be 1fea e83d b7d7 713e 4c6a 8ebe
000000a0: fbf5 ab3d 874f 85be 4d60 c0be ef97 2cbd
000000b0: 3a18 093f 8cf1 f1bd f14a 133e 9206 04be
000000c0: 5f15 8c3e 0169 653e 241c 183f 8aac ddbe
000000d0: 8af8 e03e 1e3c 49be 9a60 a3bd 0ebe 74be
000000e0: e376 a83d ffb9 b43e c150 d83d 3e3f 24be
000000f0: 9fd9 003e 92fb 92be 069c d8be 0c2b e73e
00000100: 8286 f1bc 7315 fa3d 4e10 d33c 5d66 293e
00000110: 4bc8 09bf 21f5 23be 6e25 abbf 99a6 31bf
00000120: cf34 103c 6271 bcbc e748 86be 21f6 883e
00000130: 7c35 033e b23b 1fbd f7fc 07be 1bbf 4f3d
00000140: bd70 ef3e 8bf9 a93e 9503 fc3e 4985 b53e
00000150: 912c 763d 6d29 fbbc 818c 52bf a7df a63c
00000160: 2e02 18bf 831b a3bd 27e3 b0be d8bc 2c3e
00000170: 95d3 193f 14b8 4b3d 9aa9 1bbe bf5c 0a3f
00000180: e769 843e eae9 4fbd 7862 0dbf 729e c23e
00000190: cfe7 21bf 3be3 c53d 1699 0a3e 739a 53be
000001a0: fc7d 55be 7bf0 6e3e b3b6 413d a34f b43d
000001b0: 2a7d 3b3e 308c 88be b997 86be 84f5 123f
000001c0: b8ef 32bc 9350 5e3f 7a87 6a3d 89ee 183d
000001d0: f535 debe 5f0e a93d 58b0 e3bd 9a99 ca3e
000001e0: 975a ccbe 24b9 c63e 695b 153f f722 f2be
000001f0: 0cbf a03e 44ea c8bc 1ecb 943d 0c15 983e
00000200: 06bc f33c 29ee b7be 6de4 153d b1e1 823d
00000210: a3f4 60be b9c5 e2be d6b5 103e e8d6 113e
00000220: 1deb 923e b351 8d3d 5d3b 9bbd 5a25 e13d
00000230: 619f 2e3e 451a 4fbe ccfd 453d 4242 b8bd
00000240: fa0d 393e 98a1 10bd 08f2 abbe 0ad9 58be
00000250: 1c6e 5ebe dcaa 74be 0162 d7be 6beb 37be
00000260: 8c92 923d 3077 4d3e 84fb 4e3e 25ad 2a3d
00000270: 608f 973c 0d64 a33e dc9d 35bf 77af 37bf
00000280: 92f4 b5be d6f0 5f3c d50e 53be d215 933d
00000290: fd4b 2b3f 0d9f 103f 9c6a 7b3f 649f 8b3f
000002a0: d0e7 643e 522f b8bd 6511 a8be 65b7 8f3e
000002b0: 520a 113e debe 3a3e c3f6 acbe af5b 8b3d
000002c0: b9fd 173e 874f dbbe 526e 753e 1977 06be
000002d0: a110 4dbe 1e0b 27be fd9d ab3e 3413 b63d
000002e0: d968 4cbd ab62 b3be 5643 afbd 4d10 ab3d
000002f0: d82a 3f3c 498a 133e 2146 5ebe f2b7 36bd
00000300: 9113 e73d 888e ea3d 00f6 47be da40 01be
00000310: 6553 24be e415 23be 09f4 a5bc 0bb4 3fbe
00000320: 3fba a93d 9da4 de3d d9f6 c83d 36de 23be
00000330: f1e7 fdbd 7aac 61bd f8ca efbc c79a 41bd
00000340: 7417 46be 1815 b83d 4f91 f73d 3cdd 853d
00000350: 79ba 053e 3fdb 27be 6682 a8bc 8027 813c
00000360: 6b0d 083d b293 bcbd 4097 563e 474c 42be
00000370: 0314 c03e 6b81 8bbc 247a 6f3e d55e 90bd
00000380: 45aa 1c3e 559e 60be f56f 92be a46b c23c
00000390: e8d4 77bd 11b9 33bd 58bb 3f3e ae28 07be
000003a0: 88da 37be f7a6 be3d 29c5 03be 4e21 49be
000003b0: b73d 8a3e 135d a3bd 1b70 adbc 1068 3abe
000003c0: a51a b23e f31c 6c3b 307e 8e3c dd2a 3fbe
000003d0: 4782 95bd e9c5 abbd c1bf 2fbe 93b1 c8bb
000003e0: 52e1 af3e ec73 fa3d 20cc 4b3e ff41 1f3d
000003f0: 23e1 063e bb22 9abe 6729 26be 116e 993e
0.08730031 0.10281748 -0.292453 -0.108396284 -0.092284136 -0.05903994 -0.20833151 -0.4131127
-0.06023415 0.21137957 0.13066638 -0.18731326 0.058388848 0.018086689 -0.34037676 -0.25520247
-0.2903149 -0.06702424 0.17180222 0.18534467 0.11904275 0.046078306 0.11408418 -0.03179748
-0.067122616 0.07473568 -0.23608148 -0.37965623 1.0405828 -1.7491125 0.2193707 0.12911573
0.28056648 -0.088041134 0.44734314 -0.36262482 -0.39396197 0.1137278 0.23617445 -0.27815473
0.083965264 -0.26037237 -0.37573472 -0.042137083 0.5355259 -0.118136495 0.14384057 -0.12893131
0.27360055 0.22403337 0.5941794 -0.432957 0.4393962 -0.19651839 -0.0797741 -0.23900625
0.08225801 0.35298154 0.105622776 -0.1603975 0.12583016 -0.28707558 -0.42306536 0.4515003
-0.029483084 0.12211122 0.02576461 0.16542955 -0.5382125 -0.16011478 -1.3370798 -0.6939483
0.008801653 -0.023003284 -0.26227495 0.2675028 0.12813371 -0.03887529 -0.13280092 0.05071936
0.467657 0.331982 0.49221483 0.3545325 0.060101096 -0.030659402 -0.8224564 0.020370318
-0.59378326 -0.07964232 -0.34548303 0.16868913 0.60088474 0.049736097 -0.15201417 0.5404777
0.25862047 -0.050760187 -0.55228376 0.3801151 -0.63244337 0.096624814 0.1353496 -0.20664386
-0.2084884 0.23333924 0.047293376 0.08804252 0.18309465 -0.26669455 -0.2628763 0.5740588
-0.010921411 0.86841697 0.057258107 0.03733686 -0.4340054 0.08254694 -0.11117619 0.39570314
-0.39912865 0.38813126 0.58342606 -0.472923 0.31395757 -0.024525769 0.07265304 0.29703557
0.029752742 -0.3592389 0.036594797 0.063907035 -0.21968322 -0.44291475 0.14131865 0.14242136
0.28695002 0.069003485 -0.07579682 0.10993452 0.17052986 -0.20224865 0.048337743 -0.08997013
0.18071738 -0.035310358 -0.33583093 -0.21176544 -0.21721691 -0.23893303 -0.4206696 -0.17960899
0.07156858 0.20064998 0.20213133 0.04166903 0.018500984 0.3191227 -0.70944 -0.71752113
-0.35538155 0.01366826 -0.20611127 0.07181896 0.66912824 0.5649269 0.9820955 1.0908017
0.22354054 -0.08993401 -0.3282577 0.28069606 0.14164093 0.18236873 -0.33782014 0.06804597
0.14842881 -0.42834112 0.23967865 -0.1313137 -0.20025875 -0.16312835 0.33518973 0.088903815
-0.049904678 -0.35036215 -0.08557765 0.083527185 0.01166793 0.1440822 -0.2170644 -0.044609018
0.11283029 0.11452967 -0.19527435 -0.12622395 -0.16047437 -0.1592632 -0.020257967 -0.18721025
0.08287477 0.10871241 0.098127075 -0.16002735 -0.12397755 -0.055096127 -0.029271588 -0.047266748
-0.19344884 0.08988398 0.12088262 0.06536338 0.13059415 -0.1639223 -0.020569991 0.015765905
0.03321592 -0.09207858 0.20956135 -0.1897441 0.37515268 -0.017029485 0.23386437 -0.07049338
0.15299328 -0.21935399 -0.2860104 0.023732968 -0.060505778 -0.043877665 0.1872381 -0.13199112
-0.17954457 0.0930919 -0.1286818 -0.19641611 0.2700021 -0.07976737 -0.02117162 -0.18203759
0.34785953 0.0036027997 0.017394155 -0.18668695 -0.07300239 -0.08387358 -0.17162992 -0.006124684
0.34351593 0.122291416 0.19902086 0.0388813 0.1317182 -0.30104622 -0.16226731 0.29966787

weight_hh_l0 f4 [128, 32]
00000000: 8faa 1f3d 8cb2 67be b17c c13c 0816 ce3d
00000010: 5025 dcbd de69 4cbc b724 b3bd 1416 28be
00000020: 2cc6 b93c 7f41 813e b129 1bbe b86e 9b3d
00000030: 72d3 0dbe 1ed5 663e 57c9 303e ce02 b23d
00000040: 455b 6c3e 0c75 26be f5be 68bd 26b5 1b3c
00000050: d4fb 50be 3f5f 03be 2ffd a6bd 8416 89be
00000060: e1b1 8e3e dcbd 833d 47ce b1bd 2561 b73e
00000070: e772 3a3e 3fdd 923c bf6b 3a3e acfc e5bd
00000080: 5a9d c73d 98fd 89be fa17 ae3d 9323 d3bd
00000090: f840 86bc 49d5 4f3e 7898 56bd dda4 5abe
000000a0: 1e20 843d 9246 ff3d 3dbf c1be 56bc cbbd
000000b0: 9f81 8cbe c7e5 433e 1d79 ba3d 1ecd 0bbe
000000c0: 1875 8a3e a980 e93d a0d0 6abe f965 0a3d
000000d0: 1447 6ebd 8ef2 22be 6ac2 4bbe ff49 24be
000000e0: 6366 173e d216 fa3d 492c 17be bbee 91ba
000000f0: 1a38 323c e061 803d e9d3 753e 9986 b6bd
00000100: 46ed e23d 87f7 ffbd af89 ebbd 782a 013e
00000110: 5bdd b93d 6b16 023e 55d7 14be 99b8 33be
00000120: 1abe 8bbd b9a2 573e 7d1e 92be 4275 223d
00000130: b29e 55bd 219c 14be 7e81 d13d 58a1 ccbd
00000140: 4443 0b3e e759 17be 5b63 1b3e 0a6b 05be
00000150: b2f0 2e3d fbbf 803d b440 ed3d b0d9 143e
00000160: 81fa 8c3e 5197 fc3d 5ea1 233e 50f5 db3d
00000170: 1163 f73d 1623 c63d 5256 a1bd 85f7 353d
00000180: d855 01be ab84 39bd 6fda 2dbd 9aaa 7f3d
00000190: 7120 edbd 9b88 f23c f028 b6bd 0043 f03c
000001a0: 1040 73bd 9d31 3f3e 5ece b8be d06d c5bd
000001b0: bd06 1bbd c254 97bd b519 fbbd bf3c 2dbe
000001c0: b29d 963d b514 3cbb aaf0 83be 4e7e 45bd
000001d0: 67d4 84bd e63e 2fbc 42f4 883c bb21 cbbc
000001e0: d4b4 0f3e cf6e fa3d 7d3c adbd 47bf 5b3e
000001f0: bbdf ae3d 7065 ef3d e46a 8d3e 0ce5 d4bd
00000200: 783c cdbc 7bbe 95bd 5072 383e b17d 3bbd
00000210: 582f 373d 6a99 163e a920 23be a099 653e
00000220: 71b0 9c3e db7f e0bd 2eee 84be 2d8a 8fbe
00000230: 8820 843e f532 193e 57b8 d13d 861c 5dbd
00000240: 356b 62be 8096 f6be 3df8 cf3d 93c2 7e3d
00000250: 0540 003e e18a c03e fb1a bb3d b682 9e3d
00000260: 33a0 a53d 30de 8bbe ae82 dcbc 5bf6 c7be
00000270: fc00 caba a857 b63d ae06 303e d135 82be
00000280: 9409 ca3d 811d 70be ea36 b53d a406 06be
00000290: d2ec 0dbd ccc1 cfbd d495 6c3e baf7 86be
000002a0: d5ad a6bd 6d73 f93b f2fb 613e 2d88 84bd
000002b0: 19b5 5cbe 9976 9c3d 04ad 743b 7cd4 c5bc
000002c0: ad35 85bd 2919 6e3e 948a 3cbe ba03 753e
000002d0: d36c babd a914 c9bc 93f0 b43d cc82 5cbe
000002e0: 8033 de3d 99da ad3d 518d 253e af03 323e
000002f0: bac1 813d fd10 8fbd fa14 543e 55bb 563e
00000300: 809d 0b3e d899 8cbd ae46 4cbe 6b84 0b3e
00000310: 60c1 68bd 22ca abbd 1cee 8c3e 3edb a8be
00000320: a209 18be b31c 0c3e 057d 87bd 37db edbd
00000330: e7dd 293c 86f4 9f3e 4556 933d 1e8f ac3b
00000340: 78f4 3c3d 9734 8dbd 0714 f4bc d38f 41bd
00000350: 1b0f dcbd 2444 8b3e 4aa9 393e 6732 04be
00000360: b592 e8bc f176 783e b568 cb3d c75b 2c3e
00000370: a6ff 11be dba5 93bc 81ae 8ebc 2620 083e
00000380: cc27 0d3e 058f 91be b522 463d ca72 0d3e
00000390: 126c 89be 1f9e 19bd f3db 973e da2e 30be
000003a0: 451a 80bd d9f7 d5bc 29c1 083e 11f5 10bb
000003b0: 8b8a 90bd b9bb c3bc 4b50 0c3c af35 5e3d
000003c0: cf3c b03d 082f 253e 540a 0fbe dcde 8a3c
000003d0: 343a e5be 8b30 dc3d 5f11 8fbd db87 c0be
000003e0: 4611 523e cf7a e53e e736 56be b266 853e
000003f0: cf4e d23d 4fc9 35bd c51f c13d 4b8a ae3e
0.038981017 -0.22626704 0.023619028 0.10062796 -0.10749304 -0.012476413 -0.08747237 -0.16414672
0.022677504 0.25245282 -0.15152623 0.07589477 -0.13850191 0.22542235 0.17264305 0.08691941
0.23081692 -0.16255587 -0.056822736 0.009503638 -0.20408565 -0.12829302 -0.0815376 -0.2677499
0.27870086 0.06432697 -0.086819224 0.35816303 0.18207894 0.017927764 0.18205164 -0.11229834
0.09746809 -0.2695129 0.08500667 -0.103095196 -0.016388401 0.20296206 -0.0523915 -0.21351953
0.06451438 0.12464632 -0.37841216 -0.099480316 -0.27442643 0.19130622 0.09105132 -0.13652465
0.2704246 0.11401493 -0.22931147 0.033788655 -0.058173254 -0.1591284 -0.19898382 -0.16043852
0.14785151 0.12211384 -0.14762987 -0.0011133769 0.0108776335 0.06268668 0.24006619 -0.08912391
0.110804126 -0.12498384 -0.115008704 0.12613857 0.09075423 0.12703864 -0.14535268 -0.17550887
-0.06823368 0.21058168 -0.28538886 0.039662607 -0.052153297 -0.14512683 0.10229777 -0.099917114
0.13599879 -0.14780389 0.1517462 -0.13029113 0.042710014 0.06286617 0.11584607 0.14536166
0.2753487 0.12333549 0.15979525 0.10740149 0.12079442 0.09674661 -0.078777924 0.044425506
-0.12630403 -0.045292538 -0.042444643 0.062418558 -0.11578453 0.029606154 -0.08894527 0.029328823
-0.059387267 0.1867127 -0.36094946 -0.09640086 -0.037848223 -0.07389213 -0.122607626 -0.16917704
0.07354297 -0.0028698866 -0.2576955 -0.048216157 -0.06485825 -0.0106961485 0.016718034 -0.024796357
0.14033824 0.12228166 -0.08458803 0.21459685 0.08538767 0.116892695 0.27620614 -0.1039525
-0.025053248 -0.07311722 0.18012357 -0.045774166 0.044722885 0.1470696 -0.15930428 0.22421885
0.30603364 -0.109618865 -0.25962967 -0.28035107 0.2580607 0.14960845 0.10240238 -0.05398228
-0.22111209 -0.48161697 0.101547696 0.06219728 0.12524422 0.37605956 0.091360055 0.07739775
0.08087196 -0.27317953 -0.026917782 -0.39055142 -0.001541167 0.08903438 0.17190048 -0.25431684
0.09865108 -0.23448755 0.08848365 -0.1308847 -0.034649678 -0.10144386 0.2310403 -0.26360875
-0.081386246 0.007612637 0.22068766 -0.06471286 -0.21553458 0.07639808 0.003733457 -0.024149172
-0.065043785 0.23251785 -0.18412238 0.23927203 -0.09102788 -0.024545984 0.088349484 -0.2153427
0.108496666 0.0848896 0.16167189 0.17384218 0.063357785 -0.06985662 0.20711127 0.20969899
0.136343 -0.06865281 -0.19948837 0.13624732 -0.05682504 -0.08388163 0.27525413 -0.3297977
-0.14847425 0.13682823 -0.066156425 -0.116140775 0.010367847 0.31241244 0.07194189 0.0052660843
0.04613158 -0.06894796 -0.029794706 -0.047256302 -0.10745069 0.27200425 0.18130985 -0.12909852
-0.028390268 0.24264123 0.09932081 0.16831885 -0.14257678 -0.018023422 -0.017417194 0.13293514
0.13784713 -0.28429428 0.048372943 0.1381332 -0.26840264 -0.03750431 0.29659995 -0.17205372
-0.062550105 -0.02611916 0.13354935 -0.0022118727 -0.07057675 -0.023893224 0.008564065 0.054250415
0.08605348 0.16131222 -0.13968784 0.01695197 -0.44770968 0.10751446 -0.06985735 -0.3760365
0.20514402 0.44820258 -0.20919381 0.26054913 0.10268938 -0.044381436 0.09429888 0.34089884

bias_ih_l0 f4 [128]
00000000: ddf0 da3c fc73 6d3d ab15 b53c 8d5f 8fbd
00000010: 245e 10be 5851 263e ad86 973d 5401 2bbe
00000020: e4e9 d1bc c38b 533d e7ed 7b3e 4ec3 db3d
00000030: 1199 3c3e deb2 b5bd 02aa b23d 889c b8bd
00000040: aee5 dabc d774 1b3e caef c0bc ebf2 053e
00000050: 78c5 0b3e 2936 6cbc 6703 e43d 4b69 6ebd
00000060: 2dfe e53d 79dd d23d d094 1cbd 51fa 573c
00000070: 4c42 b1bc 8797 54bb fec9 a2bd 2d55 0a3e
00000080: bac3 983d ad7a 83be d70e 6fbe aa26 063d
00000090: feeb 90bc fce6 26be feac 7fbe c48d 14be
000000a0: b8c7 57be 6a7c a1bd 1035 62be 7dcf 213c
000000b0: 9ad7 25be 020e 2c3e 162b 2cbd 3a62 fbbd
000000c0: eee5 233d 273f 59bd ae86 38be 9300 a93d
000000d0: 30ac 99be 5b74 9abd 27aa 18b8 6fad c1bc
000000e0: 8555 c2bd 1adb 163e ec0d 723d 7ab5 c63d
000000f0: b684 12bd 0614 8bbe b0b2 85be 10ee 86be
00000100: 8aba 0b3e 6b88 043e f8a0 86bd 9edc 083d
00000110: 0fcd ccbd 7b67 88bb 1dee cd3d 10bf 2cbd
00000120: 1d8b 77bd 710c 8e3d bd00 96bd 21cc f73c
00000130: cd7e c0bd 59b1 d1bc b86d f3bc adbe c5bd
00000140: e014 96bd e417 fcbd 2840 cf3d 1439 33bc
00000150: dcd7 843d d3b7 743d 2c07 d73d 2abb 00be
00000160: dc29 ec3d 6f38 bcbd d17a 8b3d 34c5 afbd
00000170: 2df3 8dbd e27c 013e 4e2e ac3c 0308 5fbd
00000180: fe93 743e cc92 2e3d ea78 8a3d f943 90ba
00000190: bc61 513e 156f f83d 9bee d83d 4fe4 11be
000001a0: f9f8 00be 0eff f53d eef2 6c3c 338b fd3d
000001b0: 2c3e 1a3e 31d3 9ebd 3ee5 013e ba7d a83d
000001c0: fd6f d03d 102d c13d 1375 8d3d d515 6b3c
000001d0: 0be3 853e 3886 ef3b 2a7f bb3d 7463 143b
000001e0: 2bf3 97bd b2a9 0d3e 77f1 d73d a069 fbbb
000001f0: d6fe ed3d 6635 583e 012b 82bb b8b8 e13d
0.02672618 0.05797194 0.022105059 -0.07000647 -0.14098412 0.16241968 0.07398734 -0.16699725
-0.025624223 0.05164696 0.24602471 0.10730611 0.18417765 -0.08872007 0.08723833 -0.09014231
-0.026720848 0.1518129 -0.02355184 0.13080947 0.13649547 -0.01441721 0.111334614 -0.058205884
0.11230121 0.10296149 -0.038227856 0.013182239 -0.021638058 -0.003243895 -0.07948683 0.13509054
0.07459207 -0.25679532 -0.23345505 0.032751717 -0.017690655 -0.16299051 -0.24968335 -0.14507204
-0.2107228 -0.07885058 -0.22090554 0.009876129 -0.16195527 0.16802219 -0.042033277 -0.122745946
0.0400142 -0.053038742 -0.18020126 0.08252063 -0.3001418 -0.07541724 -3.639809e-05 -0.02364227
-0.09488968 0.14732018 0.05909531 0.09702583 -0.035771094 -0.27163714 -0.2611289 -0.26353502
0.13645378 0.12942664 -0.06573671 0.033413522 -0.10000049 -0.0041627265 0.10055182 -0.0421744
-0.060435403 0.06935967 -0.073243596 0.030248703 -0.09399185 -0.025597261 -0.029715404 -0.09655509
-0.073282 -0.12309244 0.10119659 -0.010938901 0.064864844 0.05974562 0.10499415 -0.12571397
0.115314215 -0.09190451 0.06810535 -0.085825354 -0.06931148 0.12645295 0.021018174 -0.054451
0.2388458 0.042620465 0.06761344 -0.0011006586 0.20447439 0.12130562 0.105923854 -0.14247249
-0.12594976 0.120115384 0.014462216 0.12380066 0.15062779 -0.07755125 0.12685105 0.082271054
0.1017761 0.09432423 0.06907096 0.014348467 0.26149783 0.0073097013 0.09155114 0.0022642286
-0.074194275 0.13834265 0.10544103 -0.0076725036 0.11620872 0.2111412 -0.0039724116 0.110215604

bias_hh_l0 f4 [128]
00000000: 5be2 8fbc 2b92 913d 51bb e4bd 1958 bb3d
00000010: 46f1 363b 57df a6bd d59c e2bc 2c22 2d3c
00000020: 62c4 733d 6ebd 5d3e dce0 2abc 2388 8fbc
00000030: 32a8 5dbd 4d7b 523e 5bde 023e 0aee 8f3d
00000040: 4ad5 e8bd 85d6 133e b935 f4bd c037 b13d
00000050: 1f7f 913e 5d4a 2a3e 9337 0f3e c39f c73b
00000060: ffc1 643c afe1 b33d eeb2 103d 0090 a0bd
00000070: 127c d3bd 4a39 4ebc b34f 23bc 6aba 3d3e
00000080: c61c 68bc 203e 6cbe 36c3 8a3b d28d 31be
00000090: 63d3 943e 62d5 1ab9 acb3 debd 996d 94be
000000a0: 2025 0dbe 7d50 0abe 79d1 4ebe 622d 52bd
000000b0: f7b0 28be 7901 3bbc 4ae9 823d ffc0 94bd
000000c0: e9ec b9bd 22bb f7bd 317e 1bbe 4f45 cabd
000000d0: 4cfc 1fbe 24ee 73be db74 64be 7679 53bd
000000e0: 3fd1 98be 062e 25be a51b 47be aad1 143d
000000f0: 5a0e 83bd 5082 1abd 4124 04be bf0e 1b3d
00000100: 1b54 16be dbb0 0ebe 9fb1 d53d 6201 b6bc
00000110: 866b 203e 66ac e63c 2f4a afbd 0b8c 9a3b
00000120: 3686 a53d efb9 c6bc 0099 5f3d 8fbb 423d
00000130: 109b b13d 3b4f 273d 37ff dbbd d795 4b3d
00000140: e80c a13c 7d52 f43d 9343 da3c 25d2 0cbe
00000150: 49a4 bcbd 8078 39ba 47ed 0dbe 169a fa3d
00000160: 4947 fcbd 1b0d 613c 5c8e 913d 21bd ed3c
00000170: 1afb 6cbd 1cd8 1bbe ab66 67bb 53ef 4a3d
00000180: 7c8e fd3d 1731 353e 7538 b5bd f9a3 673e
00000190: 822e 9b3e af4b ca3c e2e7 9b3e d327 2c3e
000001a0: d544 38be 97e2 113e f8ee 823e 6182 4d3e
000001b0: 3db2 263e bfcf ec3d 354e 3f3d ad98 b83d
000001c0: 794f f63d 18f2 2dbd b858 323e 3285 dfbd
000001d0: 5cef 653e 772a 4b3e c12a 793e f016 0a3e
000001e0: e6b8 e83d 5874 e93d af21 213e f088 c0ba
000001f0: fc27 57bc 9088 523e 9cca bc3c 7035 9f3e
-0.01756399 0.071079575 -0.1116854 0.09147663 0.0027914806 -0.081480674 -0.027662674 0.010567229
0.059513457 0.21654293 -0.010429587 -0.01752097 -0.05411548 0.20554848 0.12780134 0.07027824
-0.11368807 0.14437301 -0.11924309 0.086532116 0.28417298 0.1662993 0.13986044 0.006092043
0.013962268 0.0878328 0.03532689 -0.07839966 -0.10326399 -0.012586901 -0.009967732 0.18528143
-0.014167016 -0.23070574 0.0042346967 -0.17339256 0.29067525 -0.00014766076 -0.108741134 -0.28989866
-0.13783693 -0.13507266 -0.20197095 -0.05131281 -0.16473757 -0.011413925 0.063921526 -0.072633736
-0.0907839 -0.120962396 -0.15184857 -0.09876501 -0.15623587 -0.23821312 -0.22310202 -0.051629506
-0.29847142 -0.16130838 -0.1944414 0.036332764 -0.06399222 -0.037721932 -0.12904455 0.03785586
-0.14680521 -0.13934653 0.10434269 -0.022217456 0.15666017 0.028158378 -0.08559071 0.0047164015
0.08082239 -0.024258582 0.05458927 0.04754215 0.08672154 0.040847044 -0.10742038 0.049703445
0.019659474 0.11929796 0.02664355 -0.13752039 -0.092110224 -0.0007075146 -0.13860045 0.12236421
-0.12318284 0.013736035 0.07107231 0.029020848 -0.057856657 -0.15219158 -0.0035308998 0.049544644
0.12380692 0.17694508 -0.08848659 0.22621144 0.3030892 0.024694292 0.3045035 0.16812067
-0.17995007 0.14246593 0.25572944 0.20069267 0.1627893 0.11563062 0.046705443 0.090134956
0.12026877 -0.042467207 0.17416656 -0.10914077 0.2245459 0.19840418 0.24332716 0.13485312
0.113633916 0.11399144 0.15735506 -0.0014689248 -0.013132092 0.20559907 0.02304583 0.31095457

weight_ih_l0 f4 [128, 2]
00000000: 4aae 023e 7e14 a63d 010e d43d fa40 a93d
00000010: 3835 203e 5ba3 5d3d 6116 3cbe f1de 693b
00000020: c69f b0bd a19e a0be a91d 0c3e f889 e53d
00000030: 8a6b e3bd 9137 2f3e 77de a9be c11e c53c
00000040: 9087 303e cb9c 0fbe f5d7 6abe f78f 753d
00000050: 9c78 8fbc 02e6 87bd 74c8 263e 04e4 59bd
00000060: b455 f53d 84bc a1be 0d01 09be 2329 09bc
00000070: aa2a 83be 9e86 bf3d 8fed 8f3c 8c6a 3f3d
00000080: 454c 36be c947 2f3e 2429 9ebd 81ec 9a3e
00000090: 1f99 b33c c280 493e 5e82 543e a9e5 ad3d
000000a0: d172 ad3e 0444 4dbc 5fdd 753e 312a e63e
000000b0: 35f4 913e a218 4f3e 5277 fabe b72c 5a3e
000000c0: 6379 1dbd 8fa4 b43d f462 043e c9ad 8cbe
000000d0: 1237 acbd f52a 8e3e c41d 51be bf24 2dbe
000000e0: 5f65 6c3c 0280 94bd e7b1 733d 195f 933e
000000f0: 1615 b63e 4b3d 013d bab5 e73d e604 c5be
00000100: 0efa 733d a968 44be 50c9 83bd d5ac 8fbe
00000110: ca2a bfbd 6067 c03d f835 ac3d 468f c93e
00000120: 1334 523e 9b1e 4c3e 0b19 e0be e983 603e
00000130: ea10 09bf e21e f5bb 2dcd b83e d456 f63d
00000140: 7a80 35bd 6f8b b9bd 684c f4bd aa86 a7be
00000150: d4b8 f7bd 9272 0dbe a4e9 7cbe 51fe 273e
00000160: 2335 04bf 8ee8 a1bd 0871 e43e 2b36 e23e
00000170: 5646 87be 817e 93be 98ed 543e 7fd6 303d
00000180: 34a2 e03d 6bdc 29bc d996 dc3c fce2 97be
00000190: 6a7b c73d 25fa 113f f23a 09bf 7d4c 1c3e
000001a0: 789b e6be 3f8f 0bbe d3d0 643e 7c2f aa3d
000001b0: 0549 b93d 4941 913e cb79 663c 4e63 08bf
000001c0: cca1 8dbe 8971 35be b5cd 993e 8ff6 df3d
000001d0: 67ba 803e b660 85be 1995 12be e43e a43e
000001e0: 29e3 3a3d 2096 cabe 923c 72be 5e60 043f
000001f0: 543a 883e 75ed 53bd 4c60 163d 08af a53e
00000200: a3f7 15bd f7c8 673e 4f51 8dbe cdfb b4be
00000210: c576 9ebe 1421 8dbe 19b6 abbd 5562 aebe
00000220: 4a6f 90be 642d 533e 6095 3c3e b922 cfbe
00000230: 3f0c 0bbd d303 88bd 2947 a13e 3470 c8bd
00000240: 44a1 193f b594 303e 9e84 9fba 5487 3e3f
00000250: 17b8 a43e 4a52 e43e 704c 17bf c02d 6d3e
00000260: fda8 c3be f3ec 0ebc e1b3 803e c568 633e
00000270: b8d9 a6be 3c34 f7be 58d4 afbe 4dc1 603e
00000280: 4875 573c a0bd 313e 6ae9 f3be d9e5 b83e
00000290: f3b5 2e3d 1114 013f 02bc b13e a464 15be
000002a0: abf2 8dbe 2642 bebb 8170 dfbe d69e 973e
000002b0: ec04 9cbd 7d2f fdbe 5902 1d3e c6a7 33bd
000002c0: dc36 633e ae1a 843e 920e 20be 9f6e 9f3e
000002d0: 6bfe 1cbf e928 963e abde 8c3e e286 353e
000002e0: e4eb f03e 59ed 683e 763e ea3d 827a 143d
000002f0: e7fc a53e e6c6 373e 7727 9abd a124 f7be
00000300: 3022 afbd 3ebf 2dbe 88f5 303e 1d54 2e3c
00000310: 8cb9 043e 87a4 01bc 0b95 673e 2faa 053e
00000320: 7944 9ebc 5b15 4dbe 11a4 69be 999d 553e
00000330: 1feb afbe adaa 2ebe b3eb 47bd e5b6 a6bd
00000340: a987 babc 84d8 a73d f995 82be d6da b7be
00000350: 87f8 153e 0ad5 c5bd f11e dc3d dc32 48bc
00000360: 72f2 c63e e9ef 053e 821a 2e3e b125 473e
00000370: efc7 40be 8d3e 1c3e eed4 113e fcf9 03bd
00000380: ecbd b0bd 89e2 013e 6a01 d0bd e5fa 29be
00000390: 5060 1dbd 2465 bbbd 9cae 693e 84d5 993e
000003a0: 3a30 a73d 0a45 b2bd a1aa 253d 176f f63e
000003b0: 6bb1 2b3e 2dd0 a73d 9e67 13be 38e8 87be
000003c0: da30 463e b8c8 bf3d 9d2b 343e a808 9ebe
000003d0: 434c bd3c fa1c 5dbe 30a8 373d 9e97 143c
000003e0: b524 de3c 0dba 1fbe ccc6 15be f54d 863e
000003f0: cdfe 623e 94b1 a1bd ef2a 513e f0d8 84be
0.12761799 0.08109377 0.103542335 0.082643464 0.15645301 0.054110866 -0.18367912 0.0035685862
-0.08624224 -0.31371024 0.1368319 0.11207956 -0.11104496 0.1711104 -0.3317754 0.024062516
0.17239213 -0.14024656 -0.22933944 0.05995175 -0.017513566 -0.066356674 0.16287404 -0.05319597
0.11979237 -0.31589139 -0.13379307 -0.008371624 -0.25618488 0.09351848 0.017569331 0.04673247
-0.17802532 0.17117228 -0.07722691 0.30258563 0.0219236 0.19678023 0.20752856 0.0849107
0.3387666 -0.012528423 0.24010228 0.44954064 0.28506628 0.2022424 -0.4891916 0.2130612
-0.03844584 0.088204496 0.12928373 -0.27476338 -0.08408941 0.2776715 -0.20421511 -0.16908549
0.014428466 -0.07250978 0.059495833 0.2878349 0.35562962 0.031552594 0.113139585 -0.384803
0.059564643 -0.1918055 -0.06434882 -0.28061548 -0.09334333 0.09394717 0.08408731 0.3936712
0.20527677 0.1993355 -0.43769106 0.2192532 -0.53541434 -0.007480488 0.36094037 0.1202828
-0.044311978 -0.09059798 -0.11928636 -0.32719928 -0.120958 -0.13813236 -0.24698502 0.16405608
-0.5164358 -0.079056844 0.44617486 0.44181952 -0.2642085 -0.28807452 0.2079376 0.04317331
0.10968438 -0.010367493 0.026927399 -0.29665363 0.09740336 0.57022315 -0.5360557 0.15263553
-0.45040488 -0.13628863 0.22345285 0.08309838 0.090471305 0.2837012 0.014067124 -0.53276527
-0.27662504 -0.17719091 0.30039755 0.10935699 0.25142214 -0.26050347 -0.14314689 0.32079232
0.045626793 -0.3956766 -0.23655918 0.51709545 0.26607 -0.05174013 0.03671293 0.323601
-0.036613118 0.22635256 -0.27601096 -0.3534836 -0.3094999 -0.275643 -0.08384342 -0.34059396
-0.28209907 0.20622784 0.18416357 -0.4045618 -0.033947226 -0.066413544 0.31499603 -0.09787026
0.60011697 0.17244227 -0.001217026 0.74425244 0.321717 0.44594032 -0.5910101 0.23161983
-0.38214865 -0.008723485 0.25137237 0.22207935 -0.3258798 -0.4828204 -0.34341693 0.21948738
0.013150521 0.17357492 -0.47639018 0.3611286 0.04265399 0.50421244 0.3471375 -0.14589173
-0.27724203 -0.0058062254 -0.4364052 0.2961337 -0.07618126 -0.49450293 0.15332927 -0.043861173
0.22188896 0.25801605 -0.15630558 0.31139085 -0.6132571 0.29328087 0.27513632 0.17727235
0.4705497 0.22746791 0.11437695 0.036249645 0.32419512 0.17946967 -0.075270586 -0.48270133
-0.085514426 -0.16967484 0.17281163 0.010640171 0.12961406 -0.0079127615 0.22615449 0.13053201
-0.01931976 -0.20027678 -0.22816493 0.208609 -0.3435907 -0.17057295 -0.048808765 -0.08140353
-0.022769766 0.08195594 -0.25505045 -0.35909146 0.14645587 -0.096597746 0.10748089 -0.012219157
0.38856846 0.130798 0.170023 0.19447972 -0.18826269 0.15258236 0.14241382 -0.032220826
-0.08629975 0.12684073 -0.1015652 -0.16599615 -0.03842193 -0.091501504 0.22820514 0.30045712
0.08163495 -0.087045744 0.040445928 0.4813163 0.16766898 0.08194003 -0.14394996 -0.26544356
0.19354573 0.09364456 0.17594762 -0.3086598 0.023107653 -0.21593085 0.04483813 0.0090693515
0.027117113 -0.15598316 -0.14626616 0.26231351 0.22167511 -0.078951985 0.20426534 -0.2594676

weight_hh_l0 f4 [128, 32]
00000000: 19a9 6fbd 364f 873d 2592 08be b529 7a3d
00000010: bbad 2d3d 36ed cabd a459 8abe 5f21 b5bc
00000020: d028 57be cde3 90bd b667 723d be3f 423e
00000030: a5bc 353e 503f 1f3e 2036 b1bd fa8c 95bd
00000040: 865a cc3d 946c b93c 33c5 873e 8e64 0abe
00000050: edf4 ec3d 2061 2dbe 4214 9dbe 5ff2 153e
00000060: 47f1 6fbe 24a1 703e 18aa 2ebe 4b6c 313e
00000070: aeaf ef3d 621c 32be 8cf1 1ebe c324 5abc
00000080: d9d3 6d3c 5231 fabd 85b2 c6be 5b9d 15be
00000090: 80b5 de3d f878 2e3c 76fd d1be 3437 7ebd
000000a0: cdd8 723e 0c2d 513e cf56 e33e 9e3c 503c
000000b0: f026 adbd 8576 dd3e 3a10 62bd 5521 42be
000000c0: 8ec6 9a3d 80fd 2c3e cd0f b03e b2a3 dd3d
000000d0: a30d 2e3e 542a 8ebe 2909 0abe 5b1d 073e
000000e0: 8a15 b63d d90c e9bc e8ff 18be 70a7 a0ba
000000f0: 9c75 9d3d 774c b03c af4c e13d f221 e0be
00000100: a5f3 d7bd 10cb 823e 95b0 063e 2890 94bd
00000110: b77e 8abe b226 04be f433 23be d8dd c83d
00000120: cf72 213d 229e 84be b460 08be c29a 423d
00000130: 3f86 0d3e 18c0 ff3e 4f37 853e 719f 093c
00000140: e246 7b3d d53b 1a3d fd00 873d bb0e 86be
00000150: 501b d73d f1f1 f3bd 5b68 cabd 8f14 683e
00000160: d8a7 95be 9500 f53c 26d1 a4be 3410 8a3e
00000170: 55dd 96be 4475 00be 0ea7 973e 8ee4 05bf
00000180: a87b 0d3e 8780 c9bd c957 453e 1f6a a8bd
00000190: 31cb 033e 4383 873d c2ae 533e 6bc9 213e
000001a0: 2be9 b23e 30d9 eb3d 7a77 243d 7833 3b3d
000001b0: 0ef9 aa3d 237d 87bd d766 a9bd 381c d3bd
000001c0: 846f 1fbe 5f6c a1be be26 6ebd 78f6 cfbd
000001d0: d326 98bd ec15 2f3e 23ed 023e 892f 4cbc
000001e0: 9f5c bd3c f3d5 9c3e caf8 c5bd 52c2 da3e
000001f0: 4be4 7dbd 4e20 11be 1151 1c3d 5981 afbd
00000200: a5c0 6ebe acc3 583d 145a 113e 3bf4 843e
00000210: 0c57 f6bd 65c4 013f d243 be3e 4daf 533d
00000220: 06ea bf3e 717f 053d b44e 60be 53e6 a0bd
00000230: 92fc e4bd 0f79 c03d feed 833e f5fa a8bd
00000240: dc09 b8be 1178 41bf e44c a7be 5e22 6a3e
00000250: 1f36 453d 9a9e 9f3d 3746 223f 3f1a a9bd
00000260: 04b7 1fbe 99f5 113e 936d d5be d510 5b3e
00000270: af88 07be a87a 273e 44b2 0c3c 3d51 0d3e
00000280: 337e b7bd 31b3 a5bd 789a a5be e599 6bbe
00000290: 5249 193e 83c2 1b3e 1eff 4fbe 9de1 803e
000002a0: 3f5e ce3e 188e bbbe 3664 ddbd 1955 a23e
000002b0: 948e b63d 5f2f 163d a7e4 443e 12b9 24be
000002c0: 2eb5 69be 7b61 49be 9df3 b1bc 3580 e33d
000002d0: cce0 9bbd 64e4 8cbe 06a1 07be 4bee 6f3e
000002e0: 6434 e73d c47a 873e 49bc afbd 4629 bf3e
000002f0: 9752 63bc 11da c3be 4981 f33e a334 c8bd
00000300: 4ec9 8a3e 2a16 84be 5caa f7be 2229 99be
00000310: 2d89 223e 30b3 77be 0759 c93c d917 cf3d
00000320: 3a07 a53e 521d a53e 61c6 df3e bb4e c23c
00000330: 4a3f e6bd d40c 993e d34f efbe 73d7 53be
00000340: 30b4 543b 12ca 873e 5b74 873e d5b2 75bc
00000350: aa9d 003d 9833 823e d390 e3be 5511 ab3a
00000360: a0a9 4d3e 5b97 493d e395 4bbe 2841 6bbc
00000370: ee4c cf3e 38c2 32be a801 83bd e6f3 94bd
00000380: e58a 863e 9acd df3d d22d f93e 630a 8e3d
00000390: e839 483e b5b5 b6be c033 7a3e d437 aabd
000003a0: 31a2 52bf 5ef5 e8bd 8edf a5be 6184 953e
000003b0: 629a 383f 1217 2abe 4de8 523d 8da9 c33e
000003c0: ba5e 1b3e 1e49 e13e 825b f8bd f42b 62bc
000003d0: 48af 74bb d1c3 293e 0242 adbd c84f 25be
000003e0: f62d 1d3d c0ad 57bd 2845 163f 159a ff3d
000003f0: 7fb8 29be 81de a53d f289 88bd ed57 0b3e
-0.058510873 0.06606905 -0.13337 0.06107493 0.04240201 -0.09908526 -0.27021515 -0.02211064
-0.21011662 -0.070746996 0.059180938 0.18969628 0.17747743 0.15551496 -0.08652902 -0.0730228
0.099782035 0.022634782 0.2651764 -0.13514921 0.115701534 -0.16931581 -0.30679518 0.14643238
-0.23431884 0.2349897 -0.17057073 0.17326467 0.1170343 -0.1739364 -0.1552183 -0.013314429
0.01451584 -0.12216438 -0.38808075 -0.14610808 0.10874462 0.010648958 -0.41013688 -0.062064365
0.23715515 0.2042734 0.44402167 0.012709765 -0.08454692 0.43254486 -0.055191256 -0.18958028
0.075574026 0.16893578 0.34387055 0.10822238 0.1699739 -0.2776667 -0.13480057 0.13194792
0.08890827 -0.028448509 -0.1494137 -0.0012256932 0.07688448 0.021520836 0.11000954 -0.43775898
-0.105445184 0.2554555 0.13153298 -0.07254058 -0.270498 -0.12905386 -0.15937787 0.09807938
0.03941613 -0.25901896 -0.1331814 0.04751087 0.13820742 0.49951243 0.2601876 0.00839983
0.061346896 0.037654717 0.065919854 -0.26183113 0.10503256 -0.11911381 -0.098831855 0.22664092
-0.29229617 0.029907504 -0.32190818 0.26965487 -0.29465738 -0.12544733 0.2961964 -0.5230187
0.13816702 -0.09838968 0.19271769 -0.08223366 0.1287048 0.06616833 0.20672134 0.15799491
0.34943518 0.115160346 0.040153004 0.04570338 0.08348285 -0.06615665 -0.08271568 -0.10308117
-0.15569884 -0.31527993 -0.058142416 -0.10154432 -0.0742928 0.17098206 0.12785773 -0.012462505
0.023115454 0.3063198 -0.096665934 0.4272638 -0.061985295 -0.1417248 0.03816325 -0.08569593
-0.23315676 0.052920982 0.14194518 0.25967583 -0.120283216 0.506903 0.37161118 0.05168085
0.37483233 0.03259224 -0.21905023 -0.07856431 -0.111809865 0.0939809 0.2576751 -0.08250991
-0.35945022 -0.7557383 -0.3267585 0.22864673 0.048147317 0.07793923 0.6338839 -0.08256959
-0.15597159 0.14253844 -0.4168516 0.2139314 -0.13235734 0.16355383 0.008587424 0.13800521
-0.089596175 -0.08090819 -0.32344413 -0.23007925 0.14969376 0.15210919 -0.20312163 0.2517213
0.4030628 -0.36631846 -0.10810129 0.3170555 0.08913913 0.03666627 0.19227849 -0.16086224
-0.22823021 -0.19666092 -0.02172261 0.11108438 -0.07611236 -0.27517998 -0.1324502 0.23430745
0.112892896 0.2646085 -0.085808344 0.37336177 -0.013874671 -0.3825231 0.47559574 -0.09775665
0.27106708 -0.2579816 -0.4837216 -0.29914194 0.15872641 -0.24189448 0.024578584 0.101119705
0.32232076 0.32248932 0.4370604 0.023719182 -0.1124254 0.298926 -0.4674059 -0.20687656
0.0032456033 0.26521355 0.2645596 -0.01499625 0.03140036 0.25429988 -0.4444643 0.001305143
0.20084238 0.04921661 -0.19881396 -0.014358796 0.4048838 -0.17456901 -0.063968 -0.072730824
0.26277843 0.10927887 0.4866777 0.06935575 0.1955334 -0.35685506 0.24433804 -0.083114296
-0.82278734 -0.11374925 -0.3239712 0.2920256 0.7211057 -0.16610363 0.05149107 0.38215294
0.15172854 0.44001096 -0.12126829 -0.013804425 -0.003733592 0.16578604 -0.084598556 -0.16143715
0.03837391 -0.052655935 0.58699274 0.12480561 -0.16574286 0.0809908 -0.06666936 0.1360776

bias_ih_l0 f4 [128]
00000000: 604c e1bc 3f61 83bd d2ff dc3d 9beb d93d
00000010: da9b fbbb 32a2 143e 3b7a 123e 2a1c 04be
00000020: 89e2 2e3d 3fde 0b3e a94b 7abd 5765 e9bd
00000030: ec8c 233d 29db 1e3e 6703 3dbe 728e d13c
00000040: 7586 9a3c 4f48 133e 8b83 8d3e f152 aabc
00000050: a288 533e 9a2e 31bd 13a4 a8bd db28 cbbd
00000060: c3f9 abbb db2a 64bd fd89 d03d 267c 943b
00000070: a688 053e d2cd a43d 244b 7a3e 85e3 9f3d
00000080: 4e17 2f3e c042 07be e817 e4bd 8a4c d6bd
00000090: 01c1 2c3c e5e8 db3d 6077 b93d 032b 633e
000000a0: d118 4c3e d25b b03e 452d a13d ea74 6a3e
000000b0: 54b2 c7bd de4d 183e ef8f e7bc 2132 afbd
000000c0: 7aeb 1dbd 82ce 863e 83e3 9e3e 270a 1d3e
000000d0: 04b8 253e 1504 1c3e 943d 03be 3670 333d
000000e0: 673d bdbc f9af b93d 613a 1f3e 94ff 4b3e
000000f0: af50 30be 2a7e d43d 2138 9f3c b8e6 7aba
00000100: 6e2c 47be a54e 7f3e fc7f 4c3e a52c 13be
00000110: 913d 3a3e 3025 283d 7a1b 9f3e 3b7b 2e3e
00000120: a5f8 cd3d 3f1b d0bd 05cf 053f c860 763d
00000130: 7256 0f3e 860d bf3e 76b1 023e 8d3a ccbe
00000140: 520a f2be f5d0 70be 5b02 973e 7db9 debd
00000150: 0032 213e c98a b0be c555 7b3d 55cf 653e
00000160: ffb7 98be bc18 823d 2e08 213e 9686 e13d
00000170: b11d 00bf 21c4 8e3d 2344 1bbe 499d 31bf
00000180: 8768 c3bb 23a5 303e 4000 743e 1627 1d3e
00000190: 7cea 253e de54 823e 0f48 8f3e e369 e93d
000001a0: a1bb 983d 85a1 ae3e be97 c83d e9a2 c1bd
000001b0: cb01 3cbd 3ee5 6b3e e2ca 593d 5bcb c33d
000001c0: 75c3 063e 963e 5dbd 75c3 863e 18c1 2f3e
000001d0: d43f 96ba 40c8 283e dbaa 4c3d dd61 9cbd
000001e0: e59e 733e ea62 fe3c 1457 ae3e 8f0f 6fbd
000001f0: 0422 c6bd 2437 893d 508e 393e dbf8 333c
-0.027502239 -0.064150326 0.10790981 0.10640641 -0.007678491 0.14514998 0.1430444 -0.12901369
0.04269651 0.13658999 -0.06110731 -0.11396282 0.039929315 0.1551329 -0.18458329 0.025580619
0.018862942 0.14383052 0.27639422 -0.020791503 0.2065759 -0.043257333 -0.0823442 -0.09919902
-0.00524828 -0.055704933 0.10182569 0.004531401 0.13040408 0.080470696 0.24442726 0.07807068
0.17098734 -0.13209057 -0.11137372 -0.104638174 0.010544063 0.107377805 0.09055972 0.22184376
0.19931342 0.34445053 0.078699626 0.22896162 -0.0975081 0.14873454 -0.028266875 -0.08554483
-0.038554646 0.26329428 0.31032953 0.15335904 0.16183478 0.15235932 -0.12816459 0.043808185
-0.023100568 0.09066767 0.15549614 0.19921714 -0.17218278 0.103756264 0.019435944 -0.0009571123
-0.19450542 0.24932344 0.19970697 -0.143725 0.18187548 0.04105109 0.3107565 0.17039196
0.10057191 -0.10161447 0.5226901 0.06015089 0.1399782 0.37315005 0.12763008 -0.3988842
-0.472735 -0.23517211 0.29493985 -0.10875223 0.1574173 -0.34480885 0.061361093 0.22442372
-0.29827878 0.06352374 0.15725777 0.11011998 -0.50045305 0.06971002 -0.15162711 -0.69380623
-0.0059633884 0.17250495 0.2382822 0.15346941 0.1620273 0.25455374 0.27984664 0.113971494
0.074576624 0.34107605 0.097945675 -0.09454901 -0.045900147 0.23036668 0.053172 0.09560271
0.13160498 -0.054014765 0.26320997 0.17163503 -0.0011463114 0.1648264 0.049967628 -0.076358534
0.23791082 0.031053025 0.3405081 -0.058364447 -0.09674457 0.0669997 0.18120694 0.010984625

bias_hh_l0 f4 [128]
00000000: ae5f 4e3e 9a06 483e 530c 1c3d da0c 80bd
00000010: 2adb b03d 2b6b 6e3e fc1e d4bd 4738 ccbc
00000020: 9a92 f83d efba 553e 7c67 133e f921 c23d
00000030: b2c4 253d 4a5d 283e 1818 373d 74fd 9c3d
00000040: 4ed3 03bd c685 843d 6b9e 3e3e a9a9 86bd
00000050: 46b8 583e c787 873d dd20 593e 21d2 30be
00000060: 12e1 e5bd 2332 0ebe 4a4e 873d a8af bbbd
00000070: 12ff 1f3e 2362 d63d e732 d43d b538 db3d
00000080: 06a7 163d fa1c b63d 37a2 4d3c a574 71b9
00000090: 6aac ab3c aaa9 73bd d34f 05bd 1786 8bbd
000000a0: 234e 7fbd 2abc 293e 5e7c 2cbb d153 fc3d
000000b0: 32a9 403d 04b6 253e e224 3dbe 2b4c 23be
000000c0: f7d7 ec3c 799c 513b 8f4b 293e 8b8b 0abd
000000d0: 7df1 1d3e e395 9a3d 8193 883c 5783 d4bd
000000e0: d7e9 ae3a 58d3 0a3e 969f 873d fdb3 a1bc
000000f0: b12c d73c 0548 b5bd 9801 cdbd 4a38 343e
00000100: f150 79bc 31d7 883e 5921 343c 9966 e2bd
00000110: febf 823e 330e 24be 653a da3d a4cb 2d3e
00000120: a300 24be 52e6 f73d 662d e53e d57f 2b3e
00000130: 3612 cf3d 495e e43e fb7c d63d af8f 95be
00000140: 0586 c4be 2e10 83bd 074d 403c 765e 2fbc
00000150: eb49 513e 7932 9bbe 9d93 453e 7cf0 233e
00000160: 62be 6fbe 9776 923e 6b45 40bd 7049 013e
00000170: 4b30 26bf fa62 fe3c ce52 963d 3895 5fbf
00000180: b24f 843e 5c0a 183e 07fe 0c3e 881c e7bd
00000190: c3ba 36bc 6b16 893e 6cda 513e 4533 403e
000001a0: 9af2 f03d 7725 b53e 55d9 303d bb18 97bd
000001b0: d0b9 1bbd 4058 b73d 8289 f33d 5f6d 4a3e
000001c0: 7e34 8f3e 8839 8f3b f7fd 283d e1b0 203e
000001d0: ed06 96bc 5d4c cfbc 30ee 2e3e 8b78 573e
000001e0: 6a1b e73d bea6 203e 77ef 033e 8115 023e
000001f0: d00f 373e 8c69 093e 5725 d93d d805 9b3d
0.20153686 0.19533768 0.03809769 -0.06252451 0.08635552 0.23283069 -0.10357472 -0.024929179
0.12137337 0.20872091 0.14394945 0.09479136 0.040470786 0.16441837 0.044700712 0.0766553
-0.032183938 0.06470828 0.18615119 -0.06575329 0.21164045 0.06617694 0.21203943 -0.17267658
-0.112245694 -0.13886313 0.06606729 -0.09164363 0.15624645 0.10467937 0.10361271 0.107041754
0.03678038 0.088922456 0.012550882 -0.00023027004 0.020956237 -0.059487976 -0.03254683 -0.06812685
-0.062330376 0.16575685 -0.0026319246 0.12320674 0.047036357 0.16182715 -0.18471101 -0.15947025
0.028911574 0.0031984134 0.1653273 -0.033824485 0.15424152 0.0754812 0.016671898 -0.103766136
0.0013344836 0.13557184 0.066222355 -0.019739145 0.026266428 -0.08851627 -0.100100696 0.17599598
-0.015217052 0.26726678 0.010994279 -0.11054725 0.25537103 -0.16021042 0.10655669 0.16972214
-0.16015868 0.12104477 0.447612 0.16747983 0.10110895 0.44603184 0.10473057 -0.29211184
-0.383835 -0.063995704 0.011737115 -0.010703674 0.20438354 -0.30311945 0.19294591 0.16009706
-0.23412469 0.28606102 -0.046941202 0.1262567 -0.6491744 0.031053055 0.073400125 -0.87337065
0.25842053 0.14847702 0.13768779 -0.11284739 -0.011152926 0.26774916 0.20493478 0.18769558
0.117650226 0.35380146 0.043176014 -0.07377764 -0.038019 0.08952379 0.11891462 0.19768284
0.27969736 0.004370872 0.041257825 0.15692474 -0.01831385 -0.025304968 0.17083049 0.21042077
0.11284526 0.15688607 0.12884317 0.12703516 0.17877126 0.13419169 0.10602825 0.07569474

weight_ih_l0_reverse f4 [128, 2]
00000000: a244 8c3e aaba 283e eac4 193d 9595 853c
00000010: 0063 00be fbf6 28be 0216 c23e ff18 a03e
00000020: be5a 4ebe e59e 863c 4ed8 f0bb 3163 37be
00000030: 3dda b4be bc99 ecbe a4d4 af3e 18ea c9be
00000040: 325a 583e 92aa 42bf fb52 d0be b31b cc3e
00000050: 6916 e7be b667 ad3e 7316 c33e dc46 1dbd
00000060: 06df d1be f1d5 b8bd 7e81 d9be d46a 39bd
00000070: 0383 3f3f e552 09bf cce8 c03e bb21 d33d
00000080: 56a6 e7bd db8e 0bbe a865 3b3e 2dc4 e73e
00000090: 2220 9c3c 8483 51be e09b 223d 6ccc 2c3e
000000a0: 9602 d13a d654 523e 3efa fc3e 73e0 9d3e
000000b0: da95 f3bd 70c0 123e 1de5 dabd 453c c4bd
000000c0: a782 7bbf 5b6f a9bd aec8 38bf 6e72 acbe
000000d0: 35b1 1cbf 5d3c 54be ae85 abbd 0b2d 273e
000000e0: f277 c73e fcde 8fbe 3dd5 06be 4b5f 163e
000000f0: 20fc 86be f404 153e a34d febe 71a4 ebbe
00000100: 7718 813e 6261 e13e 7093 8a3d 1180 65bb
00000110: fb18 42be bca0 9bbe 5499 8b3e dd54 b43e
00000120: 04ee 71be 9f1c 333d de95 bb3e 480e f0bd
00000130: 259e ecbe 3869 ddbe 8919 c53e d669 47be
00000140: 2e1e 923e bd30 86be e750 79be 5718 3a3e
00000150: f868 4fbc f9b0 a13d 0daf 7b3e 3fc7 4abd
00000160: 8e9f 25be 4763 85bd c27f 6ebe c52c 76bc
00000170: 21c8 003f f8e5 edbe 1056 e03e c6e6 1b3e
00000180: 247a 06be 00b2 8bbd 4848 e3bd cd95 cb3e
00000190: f199 00be 38dc e1bd 0ce2 53be ef48 003e
000001a0: 05e4 ac3c 49b5 413e f147 8e3e 0af4 c83d
000001b0: 1c63 afbd 0808 b2bc 5348 03bf 6a54 5dbe
000001c0: 789b febe 7ea9 b3bd 0875 53be e4e5 a2be
000001d0: 2705 79be 8558 36be f4d9 813d 7bb5 89bd
000001e0: d725 e13d 9df0 25bd 9d00 c5bd b31c 3a3e
000001f0: e18c 8cbe 8ed7 413e 0efa 2d3e 0e36 f6be
00000200: d39d a7be 83a9 88be e714 2e3e f963 cc3e
00000210: e0ef 803e 3f4a fe3d 76ce adbe 7561 93be
00000220: dcb7 803e 1369 da3e 0908 823e 5d8a a9bd
00000230: e585 92be e9d1 cbbe e193 d0be 0511 593e
00000240: 2cc3 20bd abf4 41bf bf31 2dbe 4100 f93e
00000250: 64d4 e03e c596 6ebe 4600 f33e b898 a7bd
00000260: 8e2a b33e 0fec 853d 222f e53e bab0 06be
00000270: db9c e33d 4e88 c2be ae4e 763e 05be 5c3d
00000280: f9bc a5bd ef44 0b3f d9e2 913e c507 473f
00000290: 2c8d 0a3e 6b1d d4be cb10 14bf 049f 813e
000002a0: 970c a5be 53ed 40bd c2fb cabe e0e6 d9bd
000002b0: fd6c 99be d906 3b3e 84ff 373e e459 8f3e
000002c0: 6223 f9be 4540 883e 5ce7 f93e bfcc cd3e
000002d0: ee18 c5be 82d1 06be a558 14be 4edb 9abe
000002e0: 9348 d6be 1aa7 7e3e b093 ad3e cd82 513d
000002f0: aabe 5f3e aa94 9ebe e6b1 1d3e 27b9 9cbe
00000300: 6713 9c3e bb67 733e 410b 473d a2d9 41bd
00000310: 64a4 d9bc dc18 57be 153f 78be cdf1 84bc
00000320: 957f aabe c549 133e 1513 48bc 0d6d dc3b
00000330: c46b f4be 042d adbe e148 fd3e bf80 f5be
00000340: ec9d 33be 8ac2 25bf ef8f 81be 901e 2a3d
00000350: 33b4 82be b866 173e 14ff fe3e 1a87 23be
00000360: 6095 83be 2a97 6bbe 9744 7dbe 2094 333e
00000370: 2f10 8a3f 88ef 20bf 7356 c33e df8e 813d
00000380: 4156 a33d 9007 133c e64e aa3b e95f 123e
00000390: 0803 bbbd 7cba 91ba 6ff0 d0bd 3d47 9c3e
000003a0: 0d47 7a3e b33a 28bd b773 8d3e c594 d03e
000003b0: efbe 8c3d 0048 c9bc cc2f bfbe ee37 a6bd
000003c0: e6bd ecbe 1109 193d 4075 39be c958 b8be
000003d0: c366 5bbf 1385 46be 7a60 d93d 1f00 293e
000003e0: 8cbd 4d3f af45 cfbe ac28 6abe 77df d7bd
000003f0: 33d2 47be baec 533e 8f48 4abe f380 2cbe
0.27396113 0.16477457 0.037541308 0.016306678 -0.12537766 -0.16500466 0.37907416 0.3126907
-0.20151803 0.016433189 -0.0073500043 -0.17908932 -0.35322753 -0.4621104 0.3434192 -0.39436412
0.21128157 -0.7604152 -0.4068831 0.39864883 -0.45134285 0.33868188 0.38103065 -0.038397655
-0.40990466 -0.09025181 -0.42481607 -0.045267895 0.74809283 -0.5364211 0.3767761 0.10309168
-0.11311023 -0.13628714 0.18300498 0.45266858 0.01905829 -0.20460325 0.039699435 0.16874856
0.0015946205 0.20540175 0.4940967 0.30835304 -0.11893816 0.14331222 -0.10688231 -0.09581808
-0.98246235 -0.082731925 -0.7218121 -0.33681053 -0.61207896 -0.20726152 -0.08375107 0.16325776
0.389587 -0.2809981 -0.13167281 0.14684789 -0.2636423 0.1455267 -0.49668607 -0.46023896
0.25213978 0.4401961 0.06766403 -0.003501896 -0.18954842 -0.30396068 0.27265418 0.35220996
-0.23625952 0.043728467 0.36637777 -0.11721474 -0.46214405 -0.43244338 0.38496044 -0.19473967
0.2853865 -0.2620906 -0.24347268 0.18173347 -0.012659304 0.07895083 0.24578495 -0.049506422
-0.16174147 -0.06513076 -0.23290923 -0.015025322 0.5030537 -0.46464515 0.4381566 0.15224752
-0.1313253 -0.0682106 -0.11097771 0.39762726 -0.12558724 -0.110283315 -0.20691699 0.12527822
0.021104822 0.18916811 0.27789262 0.09812172 -0.085638255 -0.021732345 -0.51282233 -0.21614233
-0.49727988 -0.087725624 -0.20650113 -0.31816018 -0.24318372 -0.17807205 0.063403994 -0.06724068
0.109935455 -0.04051267 -0.096192576 0.1817501 -0.27451232 0.18929884 0.1698992 -0.48088115
-0.32737598 -0.26691827 0.17000161 0.39920023 0.2518301 0.12416505 -0.3394658 -0.2878529
0.25140274 0.4265829 0.25396755 -0.08278344 -0.28617778 -0.39808586 -0.40737823 0.21197899
-0.03924863 -0.7576396 -0.16913508 0.48633006 0.4391204 -0.23299702 0.47461146 -0.08183426
0.34993404 0.06539165 0.44762522 -0.13153353 0.11113902 -0.37994617 0.24053451 0.053892154
-0.08092684 0.5440206 0.28493384 0.7774623 0.13530415 -0.41428694 -0.57838124 0.25316632
-0.32236168 -0.04710133 -0.396452 -0.10639739 -0.29965964 0.18264331 0.17968565 0.2799827
-0.48659807 0.26611534 0.48809326 0.4019527 -0.38495582 -0.13165858 -0.1448694 -0.3024544
-0.41852245 0.24868432 0.3390174 0.051150132 0.21850076 -0.30972797 0.15399894 -0.3061001
0.30483553 0.23770039 0.048594717 -0.04732669 -0.026567645 -0.21005577 -0.24242814 -0.01622858
-0.33300462 0.1438361 -0.012211581 0.006726867 -0.4773847 -0.33823407 0.49469665 -0.47949788
-0.17540711 -0.6474997 -0.25305125 0.041533053 -0.25528106 0.14785278 0.49803984 -0.15969506
-0.25699902 -0.23006883 -0.24733196 0.17536974 1.0786189 -0.62865496 0.38151893 0.063260786
0.07975436 0.008973971 0.0051973937 0.142944 -0.091314375 -0.0011118199 -0.10202109 0.305231
0.24441166 -0.041071605 0.27627346 0.40738502 0.06872355 -0.024570465 -0.37341154 -0.081161365
-0.4623863 0.037362162 -0.18111134 -0.36005238 -0.85703677 -0.19386701 0.106141046 0.16503952
0.8036735 -0.40482852 -0.22867078 -0.105406694 -0.19513778 0.20695773 -0.19754241 -0.16846065

weight_hh_l0_reverse f4 [128, 32]
00000000: 3f7c cebe 7d46 ac3e 5162 c7bd 7aa4 c43c
00000010: 61b5 c73d 0b3d 8a3e 7f5b 4fbe 5a14 36bd
00000020: cdb3 a6bd c4f5 a83e a446 043e 938f bfbd
00000030: 5842 273e 172d 3f3e d7c3 80bc 302f c23e
00000040: c6e5 073e cf54 9b3e 4513 afbc 6421 ce3c
00000050: 4e05 9bbe 2fd1 c73c 6818 473e 80bf f13d
00000060: ab4b 0cbe 9067 dc3d d5b4 9abe 598d c4be
00000070: 2e2b f53d 18f4 ff3d cbe2 a9be df61 cc3d
00000080: 4786 23be fd34 473e bd7f 073d 2a71 533e
00000090: b4ce f1bd 7536 19be 6483 8fbd 1152 41bc
000000a0: 155b 2dbe bf2b 413e 46a1 17be e292 42be
000000b0: 2228 683d d5ea 3bbe af63 9cbd 3d32 72bd
000000c0: 02ae eabd c7de 16be 0f58 bbbc 29e1 403d
000000d0: 0864 adbd fc88 9b3d 8d48 063e 914f 9abd
000000e0: 7750 a53b 905b a9bd b24a a43c 5252 05be
000000f0: d286 893d c4f9 33bd bf07 963b f9ae 6b3d
00000100: 419f 323e eccf 6fbe df72 f8bd 9b8d b6bb
00000110: 546e 643e 1ff8 863e 0a9b 033e bd11 40be
00000120: e728 55bd 34b1 213d d923 0a3f be8c 253e
00000130: 737c 533e 1884 6f3e b540 063e 389c 953e
00000140: aa37 19bf 6cbd 37be 07d9 ecba ba75 0abe
00000150: 8e01 8f3d 7606 71be 9b7c 153e b7d1 89bd
00000160: 5b2a 67be d15e 033f 5e63 03bd 30a7 bfbb
00000170: b0cb a9bc 92f0 163d a7a0 92bd 7418 57be
00000180: 4a8c 283c 8e87 fbb9 2349 4e3e 6cb3 86be
00000190: 02e1 b33e 837b 9cbd c5bb 05bf b808 ad3e
000001a0: 67f8 e9be 44b1 c4bd 8660 463d 2527 b33e
000001b0: 98f0 8c3e 0e28 b83d 6699 2abe ca9e 843e
000001c0: 5766 603e 2c4c 9d3e bf45 8fbe 2d6f 26bd
000001d0: 9a89 e2be 0ec5 893d f7cf c4be 6966 123f
000001e0: 25b1 aabe 687e f13e a182 97be 8973 53bd
000001f0: e7ea 093e 161f 423e dd0d 48bb 6486 67be
00000200: f1a9 c13e cf70 f6bd 3284 5abc 09dc 103e
00000210: f4ac 1fbe 8394 5abd fa02 94be fdc8 823d
00000220: 9d3b 22be f303 2dbe 5752 703d fc1d a8bd
00000230: 1a4a 11be b48c ac3e b80a 82be 786f 0ebe
00000240: 8f73 78bd 5af6 8bbe 4347 15be d4f0 c93d
00000250: ed33 76bb 85b2 3d3e 07a3 5cbe 4649 3c3e
00000260: 5f29 b1be ac25 aa3e ca1b 87be f4f4 633e
00000270: 2e9c f13d 131a b03d 9303 91bd 114c d5be
00000280: 6869 94bd e4c5 00be 49a5 c1bd 1668 473c
00000290: d77a 3c3d d4d0 753e 442f 64bd 1777 85be
000002a0: a991 8cbd 5085 80bd 82e7 5bbc 98b8 c5bd
000002b0: 1ffa 16be 894a 2c3e 9c37 113d 4e23 a33d
000002c0: cfd7 943c 7d88 aebd edcb 01be 86f7 723d
000002d0: 71d2 863d 73ba d83d 7739 b0be 9ced bb3c
000002e0: 8a70 b53c 4cb5 1ebe 7e50 2bbe 9dcc 0cbe
000002f0: fc1f 78be 7677 d43d 107b 033e f1b7 473d
00000300: 83d4 6a3f cfd4 adbe 4041 d7bd 1abe 483e
00000310: da57 97be c5c4 9dbe 1fd8 e93e c071 e7bd
00000320: 6c45 d7bc c2bb 0bbf bac2 3b3e 20b6 cb3d
00000330: abc9 c3be 9b21 b03d a970 c2bd 4a08 dabc
00000340: a71f c6be a2a1 dabe 8a89 943d ab02 283e
00000350: c086 ba3e cc64 ed3e 927e 473e 4449 8bbe
00000360: 0e04 843c 4f05 2e3e 85b1 ae3e b5d0 923e
00000370: 72c6 babd b6f7 12bf 9513 313e 05f5 4e3e
00000380: 1a51 a93d 59cb 59be 97c9 053b 310c 85bd
00000390: 39c1 01bd 4eca 5c3e df6a 50be 04a7 aebe
000003a0: 74a4 4fbd 6294 b3bd 1a6e 8d3e 9560 343d
000003b0: 8208 4cbb f7f5 293e c231 083e 9f80 eebc
000003c0: 518b c03d 0985 9abd 8911 68be 6c75 f0bd
000003d0: da6f ccbd fe46 8d3c c977 91bd 8e16 b43d
000003e0: a1cd 1d3e 5972 723d 1967 a83d b35d 4cbc
000003f0: 2f2b 03be bf36 7a3d 1235 9d3c f307 153e
-0.40329167 0.33647528 -0.09735549 0.02400421 0.09751392 0.26999697 -0.20249747 -0.044453003
-0.08139763 0.33000004 0.12917572 -0.093535565 0.16333902 0.18669544 -0.015718384 0.37926626
0.13271245 0.3033814 -0.021371493 0.025162406 -0.30277485 0.024391739 0.19442904 0.11804104
-0.1370074 0.107619405 -0.3021609 -0.3838909 0.119711265 0.12497729 -0.33180842 0.09979605
-0.15969191 0.19453807 0.033080805 0.20648637 -0.118070036 -0.1496218 -0.07007483 -0.011799351
-0.16929276 0.18864344 -0.14807615 -0.19001344 0.0566789 -0.183513 -0.07636201 -0.059129942
-0.114589706 -0.1473342 -0.022869138 0.04708973 -0.08466345 0.07594487 0.13113613 -0.07534707
0.0050449925 -0.08269417 0.020055149 -0.13019684 0.06715168 -0.043939367 0.00457856 0.057539914
0.17443563 -0.2341916 -0.12131285 -0.00557108 0.22307712 0.26361176 0.12852111 -0.18756767
-0.05204096 0.039475635 0.5396095 0.1616697 0.20652942 0.23390234 0.13110621 0.29220748
-0.5985056 -0.17943352 -0.001807005 -0.13521472 0.069827184 -0.23537621 0.14598314 -0.06729453
-0.22574751 0.51316553 -0.032077186 -0.0058487877 -0.020727009 0.03685052 -0.07159548 -0.21005422
0.010287354 -0.00047975447 0.20145087 -0.26308763 0.35132605 -0.076407455 -0.5223964 0.33795714
-0.45697328 -0.09604123 0.048431896 0.34990802 0.27527308 0.08992015 -0.1666008 0.25902396
0.2191404 0.30722177 -0.279829 -0.04063337 -0.44245607 0.06727038 -0.38439915 0.57187515
-0.33338276 0.47166753 -0.2959185 -0.051623855 0.13468514 0.18957171 -0.0030525841 -0.2260986
0.37824968 -0.12033235 -0.013337182 0.14146437 -0.1559332 -0.053364288 -0.2890852 0.06385992
-0.15843053 -0.16896038 0.058672275 -0.08208844 -0.14188424 0.33701098 -0.25398803 -0.1390971
-0.06065708 -0.2733639 -0.14577965 0.098603874 -0.0037567571 0.18525131 -0.21546565 0.18387327
-0.34601876 0.33231866 -0.2638839 0.22261411 0.11797367 0.08598723 -0.0708076 -0.41659597
-0.07246667 -0.1257549 -0.09455354 0.012170812 0.046015587 0.24005443 -0.05570914 -0.2606742
-0.0686372 -0.06275427 -0.013421895 -0.09654349 -0.14743851 0.16825308 0.035453424 0.07965718
0.018169312 -0.08522127 -0.12675448 0.059318088 0.06583107 0.10582437 -0.34418842 0.02294045
0.02214839 -0.15498847 -0.16729924 -0.13749929 -0.24230951 0.10374348 0.12839913 0.048759405
0.9173052 -0.33951423 -0.10510492 0.19603768 -0.29559213 -0.30814186 0.456727 -0.11300993
-0.02627822 -0.5458337 0.18336001 0.09946847 -0.38239798 0.0860016 -0.094941445 -0.02661528
-0.38696024 -0.4270144 0.07252796 0.16407268 0.3643093 0.46365964 0.19481876 -0.27204335
0.016115215 0.16994213 0.34119812 0.28674856 -0.09119882 -0.57409227 0.17292626 0.20210655
0.08267422 -0.21268977 0.0020414346 -0.06496466 -0.031678412 0.21561548 -0.20353268 -0.34111798
-0.050693944 -0.08768536 0.27623063 0.04403742 -0.0031133 0.16597734 0.13300231 -0.029114066
0.094015725 -0.07544906 -0.22662939 -0.117411464 -0.099822715 0.017245766 -0.07102925 0.087933645
0.15410472 0.05919108 0.08222789 -0.0124735115 -0.12809442 0.061087366 0.019190345 0.14553814
