experiments/pedestrians/models/models_14_Feb_2024_17_26_50_eth_vel_ar3/model_registrar-72.pt (torch, 527902 bytes, 43 tensors)

weight_ih_l0 f4 [128, 6]
0.08649493 0.10160003 -0.297657 -0.10339742 -0.11040546 -0.054011073 -0.21313529 -0.41729718
-0.05639852 0.211511 0.13368723 -0.19848453 0.05252871 0.017626237 -0.34010845 -0.25405735
-0.29413745 -0.06595582 0.16559528 0.18607625 0.12527111 0.04509581 0.10641057 -0.037184164
-0.062072318 0.07769396 -0.24120207 -0.37344953 1.0552562 -1.779048 0.22324026 0.13116825
0.28976604 -0.095513724 0.45140108 -0.35819843 -0.39733016 0.112210944 0.23955289 -0.28257772
0.07669808 -0.25390983 -0.37789288 -0.041105658 0.5425574 -0.12674081 0.13205682 -0.14930904
0.27313387 0.22462139 0.6042086 -0.44254363 0.43107414 -0.2051542 -0.082536235 -0.24043322
0.08425535 0.35780627 0.08926242 -0.17544505 0.12657002 -0.28782967 -0.42736146 0.4650914
-0.026117178 0.1353579 0.020663405 0.15616818 -0.5285986 -0.15543164 -1.3792094 -0.72316474
0.0050973557 -0.01567015 -0.25893664 0.27855143 0.12196183 -0.032809146 -0.13352336 0.055665776
0.46895763 0.3329061 0.48705676 0.3406976 0.059408177 -0.021219276 -0.8320196 0.00683321
-0.5890366 -0.08235759 -0.35309726 0.16523935 0.61825293 0.05094113 -0.15329422 0.5537758
0.25750133 -0.051322788 -0.55611026 0.38648108 -0.633208 0.09162868 0.1307328 -0.20294139
-0.209794 0.2324335 0.060166012 0.104415044 0.17896049 -0.2677603 -0.2553499 0.5752914
-0.00078256027 0.8837426 0.053775154 0.0414712 -0.43863785 0.076067515 -0.113148786 0.39506635
-0.40459004 0.39531976 0.6002507 -0.49165007 0.30136 -0.02870557 0.075625226 0.30193985
0.032390647 -0.3685422 0.023303196 0.06878708 -0.22347073 -0.4481984 0.1438349 0.15064898
0.28025565 0.07768405 -0.081219286 0.112329006 0.1720277 -0.2087495 0.060772587 -0.08945708
0.18053444 -0.033416037 -0.33796656 -0.21771081 -0.21812622 -0.22605509 -0.42176983 -0.17508094
0.071388885 0.19687968 0.1964104 0.041268583 0.031142158 0.33190957 -0.7319756 -0.73758936
-0.35956264 0.03700229 -0.20220947 0.07814174 0.66252697 0.5628722 1.0058339 1.1209778
0.23125812 -0.09449122 -0.33412266 0.29250407 0.14026119 0.1745237 -0.34471747 0.066062346
0.1556116 -0.4372317 0.24110617 -0.14752543 -0.19696614 -0.168115 0.3243464 0.088963136
-0.04833343 -0.3476866 -0.08906362 0.089209415 0.020346526 0.14199275 -0.22118184 -0.027456528
0.11220251 0.11411635 -0.19741853 -0.12008114 -0.16401292 -0.15385349 -0.024273003 -0.19629933
0.08124043 0.111034885 0.09774939 -0.17568156 -0.13157994 -0.05625271 -0.023748798 -0.044164874
-0.19467638 0.094262235 0.11410444 0.06559684 0.13873687 -0.16618517 -0.027907027 0.016741775
0.03379289 -0.089566916 0.20696425 -0.1872487 0.38412485 -0.018271368 0.24360082 -0.07601968
0.15584087 -0.21706457 -0.27858365 0.03134274 -0.06465537 -0.04825295 0.19158104 -0.1321855
-0.18743229 0.10440492 -0.12718867 -0.19146101 0.26548582 -0.0865433 -0.029834908 -0.20336252
0.34739083 0.0054058274 0.021166809 -0.19041887 -0.06819708 -0.091126345 -0.17526482 -0.00739373
0.3479542 0.13000007 0.18986475 0.036983773 0.1334288 -0.29988298 -0.16596149 0.30686045
00000000: 4124 b13d ad13 d03d 8066 98be 07c2 d3bd
00000010: 421c e2bd b73a 5dbd 2340 5abe faa7 d5be
00000020: 2202 67bd 5796 583e 4ee5 083e 873f 4bbe
00000030: 5828 573d e664 903c b222 aebe ce13 82be
00000040: 2f99 96be d813 87bd cf91 293e c68a 3e3e
00000050: 1247 003e 62b6 383d c9ed d93d 6c4e 18bd
00000060: 8b3f 7ebd 031e 9f3d adfd 76be c734 bfbe
00000070: a312 873f d8b7 e3bf 1899 643e f850 063e
00000080: 375c 943e b39c c3bd 0b1e e73e c965 b7be
00000090: dc6e cbbe dace e53d 5a4d 753e 07ae 90be
000000a0: e213 9d3d 7800 82be 2d7b c1be 685e 28bd
000000b0: 0be5 0a3f 58c8 01be e739 073e 78e4 18be
000000c0: 34d8 8b3e 2603 663e 6aad 1a3f 1495 e2be
000000d0: c0b5 dc3e f113 52be c208 a9bd 2034 76be
000000e0: 128e ac3d 6232 b73e 37cf b63d dea7 33be
000000f0: 929b 013e 695e 93be 1fcf dabe 7620 ee3e
00000100: b1f3 d5bc 439b 0a3e 4d46 a93c 8dea 1f3e
00000110: 3d52 07bf 7929 1fbe ef89 b0bf 5321 39bf
00000120: b807 a73b b05e 80bc 5893 84be 4b9e 8e3e
00000130: 20c7 f93d e262 06bd 59ba 08be cc01 643d
00000140: 371b f03e ab72 aa3e 815f f93e ea6f ae3e
00000150: fd55 733d 0cd4 adbc 3dff 54bf 1fe9 df3b
00000160: 1acb 16bf 19ab a8bd 2ac9 b4be 8134 293e
00000170: d345 1e3f a5a7 503d 29f9 1cbe 40c4 0d3f
00000180: 37d7 833e d837 52bd 3e5d 0ebf d9e0 c53e
00000190: eb19 22bf d1a7 bb3d d2de 053e decf 4fbe
000001a0: 3dd4 56be 0c03 6e3e a370 763d 8ed7 d53d
000001b0: 6b41 373e e117 89be 39bd 82be 4c46 133f
000001c0: bb24 4dba f43c 623f 5643 5c3d b4dd 293d
000001d0: 2495 e0be 49c9 9b3d 8dba e7bd 2346 ca3e
000001e0: 6d26 cfbe 5a67 ca3e 08aa 193f 8fb9 fbbe
000001f0: dc4b 9a3e f227 ebbc 66e1 9a3d dc97 9a3e
00000200: 0eac 043d 90b1 bcbe 58e6 be3c 3ee0 8c3d
00000210: 83d5 64be 437a e5be 7549 133e ba43 1a3e
00000220: ab7d 8f3e d118 9f3d 4c56 a6bd c00c e63d
00000230: 0828 303e 6ec2 55be adec 783d 4635 b7bd
00000240: 05de 383e 41df 08bd f409 adbe 95ef 5ebe
00000250: 7b5c 5fbe fc7a 67be 37f2 d7be 6b48 33be
00000260: 5634 923d d49a 493e cf1f 493e 3f09 293d
00000270: d71d ff3c 0df0 a93e c162 3bbf a8d2 3cbf
00000280: 9818 b8be b78f 173d 0010 4fbe c708 a03d
00000290: 5e9b 293f 6418 103f 2abf 803f 337c 8f3f
000002a0: eece 6c3e 9d84 c1bd 2012 abbe 18c3 953e
000002b0: a1a0 0f3e 57b6 323e cf7e b0be b24b 873d
000002c0: a658 1f3e d5dc dfbe 89e4 763e e810 17be
000002d0: 7eb1 49be 5726 2cbe bb10 a63e 4e32 b63d
000002e0: 46f9 45bd fa03 b2be fd66 b6bd 6db3 b63d
000002f0: c2ad a63c 8c66 113e 7e7d 62be 83ec e0bc
00000300: 6eca e53d d5b5 e93d 1528 4abe 1aed f5bd
00000310: 01f3 27be c58b 1dbe 2dd8 c6bc b102 49be
00000320: 6261 a63d 4266 e33d d530 c83d dee5 33be
00000330: e4bc 06be 3e69 66bd d78c c2bc 3ae6 34bd
00000340: 3f59 47be 8f0c c13d 97af e93d a357 863d
00000350: 0a11 0e3e 722c 2abe 479d e4bc 0c26 893c
00000360: 6a6a 0a3d dc6e b7bd 70ee 533e 20be 3fbe
00000370: 03ac c43e d6ad 95bc 7e72 793e 35b0 9bbd
00000380: c094 1f3e 2d46 5ebe 84a2 8ebe 3f61 003d
00000390: 096a 84bd e3a4 45bd d22d 443e a35b 07be
000003a0: 40ee 3fbe 3fd2 d53d bf3d 02be 5b0e 44be
000003b0: c2ed 873e 9d3d b1bd 5668 f4bc 443e 50be
000003c0: 36dd b13e 5e23 b13b 0466 ad3c 2afd 42be
000003d0: e9aa 8bbd 73a0 babd 9f78 33be 1a47 f2bb
000003e0: 0e27 b23e bd1e 053e e86b 423e 4c7c 173d
000003f0: 8fa1 083e 438a 99be cff1 29be d01c 9d3e

weight_hh_l0 f4 [128, 32]
0.033172097 -0.23156832 0.0172084 0.095337525 -0.08901674 -0.009661574 -0.09741324 -0.1567876
0.02540006 0.25689092 -0.14971331 0.083371624 -0.14163089 0.22909072 0.16570008 0.09157554
0.22008719 -0.16442366 -0.04443899 0.010550603 -0.20064726 -0.13181838 -0.08439137 -0.262356
0.28545687 0.062878095 -0.08978964 0.3506626 0.17574477 0.024073578 0.18680671 -0.11583266
0.09776238 -0.27198824 0.08344253 -0.107031494 -0.016285773 0.20091745 -0.05887379 -0.21007639
0.060973454 0.12699617 -0.38456666 -0.09980472 -0.27194998 0.18952163 0.07777091 -0.14026923
0.27934676 0.11303332 -0.22157322 0.025528694 -0.056715675 -0.16506882 -0.20209704 -0.16336653
0.1511637 0.115123 -0.14883529 -0.0072681047 0.0009361261 0.067869805 0.24190757 -0.090673015
0.09991059 -0.13016891 -0.11837896 0.12248964 0.09526627 0.12662117 -0.15097028 -0.17491464
-0.06679626 0.21084763 -0.28415358 0.026738333 -0.04760305 -0.14288439 0.09571524 -0.10128094
0.14365017 -0.1510754 0.15846676 -0.12973058 0.04139267 0.05837212 0.11536997 0.1495694
0.27705646 0.12524603 0.1609427 0.10552085 0.11324861 0.10266098 -0.075573444 0.043023627
-0.13801089 -0.05439994 -0.042169444 0.059030015 -0.113027625 0.023447484 -0.093308255 0.023014056
-0.06532773 0.18969642 -0.36168927 -0.10111699 -0.033846837 -0.068316616 -0.12677866 -0.17604867
0.076236345 -0.0019786977 -0.25046417 -0.051142655 -0.070060015 -0.0101911845 0.012521892 -0.02579157
0.14169313 0.12551658 -0.090855084 0.21162671 0.07643526 0.11418912 0.28146455 -0.10263762
-0.030984795 -0.07576491 0.16541111 -0.052250806 0.047799766 0.16270801 -0.18133885 0.2360894
0.32355064 -0.105910376 -0.271906 -0.2713976 0.28197354 0.15961997 0.10202757 -0.048882626
-0.24811088 -0.4982243 0.13394645 0.057510428 0.14250274 0.37269783 0.08929504 0.094931595
0.097877786 -0.28442386 -0.016290516 -0.43195716 -0.014823397 0.10484472 0.17806578 -0.26690173
0.10196239 -0.23680404 0.08129198 -0.1344487 -0.02859806 -0.10186475 0.23658836 -0.26392135
-0.08090992 0.0054308646 0.22993161 -0.04510943 -0.21730055 0.077629134 0.0016100425 -0.024145057
-0.08275734 0.23688136 -0.17491801 0.24038406 -0.08623954 -0.0308727 0.10125763 -0.21796247
0.11899777 0.08663782 0.174664 0.1594785 0.0575821 -0.07294654 0.20444576 0.21520606
0.13470328 -0.07029477 -0.20191924 0.13335109 -0.05231745 -0.084931694 0.27803636 -0.33380818
-0.15299094 0.1316179 -0.0694912 -0.108071916 0.020484988 0.31567284 0.07797125 -0.00085905107
0.030988792 -0.07796606 -0.009288026 -0.04326677 -0.110448144 0.27672642 0.19019997 -0.12817653
-0.03177417 0.2408717 0.09732812 0.16225938 -0.1495655 -0.022520475 -0.01649459 0.12649979
0.14038679 -0.28396368 0.05063814 0.14451885 -0.27012464 -0.039072845 0.2951339 -0.1672128
-0.060792718 -0.031844247 0.14162019 -0.0006905369 -0.07522879 -0.031512227 0.005293136 0.056314256
0.07347809 0.1665264 -0.12942925 0.015995974 -0.44629708 0.10837099 -0.064897366 -0.38108718
0.21025752 0.44912577 -0.21273063 0.24588725 0.09400168 -0.043466642 0.087039985 0.34388334
00000000: 77df 073d 3f20 6dbe a1f8 8c3c 5240 c33d
00000010: 694e b6bd 944b 1ebc 9880 c7bd ee8c 20be
00000020: c913 d03c 3587 833e 724e 19be bebe aa3d
00000030: b007 11be c296 6a3e 48ad 293e f58b bb3d
00000040: 895e 613e ad5e 28be a905 36bd 70dc 2c3c
00000050: 7a76 4dbe 66fb 06be 62d5 acbd 8753 86be
00000060: 6727 923e 3bc6 803d a1e3 b7bd 0c8a b33e
00000070: 70f6 333e f435 c53c 424a 3f3e ac39 edbd
00000080: a537 c83d 0b42 8bbe ebe3 aa3d 5433 dbbd
00000090: be69 85bc 4ebd 4d3e a525 71bd 441e 57be
000000a0: 4dbf 793d 490b 023e ece5 c4be 6b66 ccbd
000000b0: 073d 8bbe f511 423e 5b46 9f3d bda2 0fbe
000000c0: 8a06 8f3e 037e e73d 17e4 62be 8d21 d13c
000000d0: b24e 68bd cd07 29be 87f2 4ebe 8e49 27be
000000e0: a8ca 1a3e 9cc5 eb3d 4768 18be 4829 eebb
000000f0: 5c66 753a 53ff 8a3d 9eb6 773e c6b2 b9bd
00000100: ec9d cc3d 004b 05be ab70 f2bd d9db fa3d
00000110: f61a c33d fba8 013e f497 1abe d31c 33be
00000120: 7acc 88bd 71e8 573e 947c 91be 590a db3c
00000130: 6afb 42bd 4950 12be 5a06 c43d 626c cfbd
00000140: 0819 133e 82b3 1abe 1c45 223e 18d8 04be
00000150: 5c8b 293d 9b17 6f3d 1747 ec3d b928 193e
00000160: 58da 8d3e 7f40 003e 2ace 243e 511b d83d
00000170: e3ee e73d eb3f d23d 40c6 9abd 8b39 303d
00000180: ba52 0dbe 79d2 5ebd deb9 2cbd 75c9 713d
00000190: 077b e7bd f014 c03c 6618 bfbd f987 bc3c
000001a0: 8bca 85bd c73f 423e 562f b9be 6d16 cfbd
000001b0: fba2 0abd 95e9 8bbd 44d2 01be 1a46 34be
000001c0: cd21 9c3d 0aad 01bb d73c 80be f67a 51bd
000001d0: a07b 8fbd edf8 26bc 9f28 4d3c d848 d3bc
000001e0: 0118 113e 6b87 003e 3b12 babd acb4 583e
000001f0: 178a 9c3d fcdb e93d 1f1c 903e ac33 d2bd
00000200: d3d3 fdbc a22a 9bbd 8861 293e f104 56bd
00000210: b0c9 433d ee9c 263e e4b0 39be 6bc1 713e
00000220: 6ea8 a53e 8ae7 d8bd 4337 8bbe a0f4 8abe
00000230: d65e 903e 6b73 233e d5f3 d03d 2639 48bd
00000240: c710 7ebe 4117 ffbe 4229 093e 0e90 6b3d
00000250: 3dec 113e 40d2 be3e 51e0 b63d 7f6b c23d
00000260: 2674 c83d 01a0 91be b073 85bc 7d29 ddbe
00000270: d5dd 72bc d4b8 d63d e056 363e 58a7 88be
00000280: a8d1 d03d c27c 72be 697c a63d ecac 09be
00000290: 7b46 eabc 779e d0bd 3844 723e b320 87be
000002a0: 1ab4 a5bd 65f5 b13b 3173 6b3e aac4 38bd
000002b0: 0984 5ebe 06fc 9e3d 1008 d33a dbcb c5bc
000002c0: ae7c a9bd 0791 723e b51d 33be 3d27 763e
000002d0: 5b9e b0bd bfe8 fcbc 2960 cf3d 8e31 5fbe
000002e0: 1ab5 f33d 2b6f b13d 1fdb 323e 554e 233e
000002f0: 35db 6b3d ff64 95bd 3b5a 513e fa5e 5c3e
00000300: a8ef 093e b4f6 8fbd ebc3 4ebe 308d 083e
00000310: d34a 56bd abf0 adbd c85a 8e3e e8e8 aabe
00000320: a8a9 1cbe d8c6 063e 6751 8ebd cf54 ddbd
00000330: 22d0 a73c df9f a13e 64af 9f3d f131 61ba
00000340: 35dc fd3c abac 9fbd ce2c 18bc 7f38 31bd
00000350: a332 e2bd 16af 8d3e c8c3 423e b540 03be
00000360: a225 02bd 12a7 763e f753 c73d 5327 263e
00000370: b327 19be dc7c b8bc aa1f 87bc 2989 013e
00000380: 8ec1 0f3e b063 91be f069 4f3d c0fc 133e
00000390: c74d 8abe d90a 20bd ca1b 973e d539 2bbe
000003a0: c901 79bd 1d6f 02bd e204 113e 2605 35ba
000003b0: 8d11 9abd f712 01bd 0b72 ad3b c7a9 663d
000003c0: ae7b 963d e685 2a3e 1a89 04be fd09 833c
000003d0: 0d81 e4be 9cf1 dd3d e9e8 84bd dc1d c3be
000003e0: bf4d 573e d0f3 e53e 0fd6 59be dec9 7b3e
000003f0: f483 c03d 140a 32bd 0542 b23d 7a11 b03e

bias_ih_l0 f4 [128]
0.024344202 0.05938412 0.018036619 -0.06706537 -0.14329645 0.16202766 0.078035586 -0.17019077
-0.025957992 0.054594472 0.24899544 0.10718755 0.18255904 -0.0885129 0.08435855 -0.08940703
-0.023911877 0.15524675 -0.022180038 0.1289456 0.13483891 -0.01520247 0.12106276 -0.06187536
0.112494834 0.1026016 -0.03230219 0.017015953 -0.022837685 -0.0026157193 -0.079925515 0.13856736
0.07536322 -0.25822142 -0.23576334 0.035379376 -0.018723313 -0.16451617 -0.25208256 -0.1517749
-0.21509133 -0.08234462 -0.21941462 0.009401978 -0.16577479 0.16957432 -0.043599196 -0.12493889
0.037146438 -0.052121077 -0.18691646 0.081168905 -0.301297 -0.083781995 0.0014544372 -0.026216326
-0.09707808 0.14477538 0.060760096 0.10072196 -0.037917525 -0.27685437 -0.26318845 -0.27113718
0.13710736 0.13051364 -0.06652047 0.035601143 -0.1008351 -0.003912458 0.09631353 -0.038893413
-0.06031641 0.0678442 -0.07538365 0.026316615 -0.09185041 -0.02317263 -0.029933196 -0.097065724
-0.0734286 -0.12359171 0.096896954 -0.011517635 0.06600317 0.060247257 0.10085288 -0.124934554
0.116271935 -0.09265879 0.07070906 -0.08194051 -0.06404946 0.13235173 0.015783282 -0.056598183
0.23637654 0.044696145 0.06362052 0.002534343 0.20967026 0.11964873 0.10973428 -0.14645553
-0.12681945 0.12390807 0.016812675 0.13590728 0.1485746 -0.0776068 0.122973464 0.08193701
0.10344609 0.09593288 0.06810327 0.012321467 0.25990108 0.006579502 0.10141915 -0.0005845624
-0.07436128 0.1375588 0.109455585 0.00036204324 0.11427165 0.21066613 -0.005136456 0.11294749
00000000: 7e6d c73c c33c 733d 88c1 933c 9259 89bd
00000010: 4ebc 12be 94ea 253e 1fd1 9f3d 7d46 2ebe
00000020: dba5 d4bc 749e 5f3d a9f8 7e3e 2585 db3d
00000030: c2f0 3a3e 4046 b5bd 2dc4 ac3d 081b b7bd
00000040: d7e2 c3bc 01f9 1e3e e9b2 b5bc 510a 043e
00000050: 3613 0a3e c813 79bc c1ef f73d 0471 7dbd
00000060: b163 e63d ca20 d23d 4d4f 04bd 0a65 8b3c
00000070: 1916 bbbc 7d6c 2bbb fdaf a3bd 9ae4 0d3e
00000080: 0858 9a3d 9935 84be f26b 71be f7e9 103d
00000090: a261 99bc ed76 28be f710 81be e16a 1bbe
000000a0: e740 5cbe 4ca4 a8bd 3aae 60be c10a 1a3c
000000b0: dec0 29be e4a4 2d3e 1295 32bd f6df ffbd
000000c0: dd26 183d e97c 55bd 0767 3fbe e23b a63d
000000d0: 9a43 9abe e595 abbd d0a2 be3a 9fc3 d6bc
000000e0: dfd0 c6bd ff3f 143e 94df 783d 5147 ce3d
000000f0: 684f 1bbd dbbf 8dbe a3c0 86be 7ed2 8abe
00000100: df65 0c3e 5ea5 053e e23b 88bd 81d2 113d
00000110: a282 cebd 1434 80bb 0740 c53d b34e 1fbd
00000120: 570e 77bd e6f1 8a3d be62 9abd f195 d73c
00000130: 111c bcbd 87d4 bdbc 7636 f5bc 65ca c6bd
00000140: bc61 96bd a71d fdbd e971 c63d 76b4 3cbc
00000150: ac2c 873d d4c5 763d f48b ce3d b0dd ffbd
00000160: fb1f ee3d e4c3 bdbd e9cf 903d 6dd0 a7bd
00000170: 5d2c 83bd 3687 073e f14b 813c 7fd3 67bd
00000180: b10c 723e 4e13 373d 7a4b 823d 3817 263b
00000190: cdb3 563e 650a f53d 5ebc e03d 70f8 15be
000001a0: f5dc 01be 84c3 fd3d bcba 893c 472b 0b3e
000001b0: f123 183e 50f0 9ebd 83d9 fb3d 97ce a73d
000001c0: 8bdb d33d 7578 c43d ba79 8b3d fadf 493c
000001d0: c111 853e dd98 d73b d8b4 cf3d 523d 19ba
000001e0: ba4a 98bd 37dc 0c3e 402a e03d 9fd0 bd39
000001f0: 4107 ea3d ddb8 573e b74f a8bb 0351 e73d

bias_hh_l0 f4 [128]
-0.019945966 0.072491795 -0.1157539 0.094417706 0.00047909014 -0.08187273 -0.023614412 0.0073738755
0.059179686 0.2194905 -0.007458885 -0.017639503 -0.055734076 0.20575565 0.12492157 0.071013525
-0.11087902 0.14780687 -0.117871284 0.08466821 0.28251633 0.16551396 0.14958864 0.0024225756
0.014155813 0.087472916 0.041252557 -0.074565955 -0.104463585 -0.011958728 -0.0104064 0.18875824
-0.013395927 -0.23213182 0.00192631 -0.17076495 0.28964257 -0.001673317 -0.11114039 -0.29660156
-0.14220546 -0.13856696 -0.20048001 -0.051786948 -0.16855709 -0.009861863 0.062355585 -0.07482675
-0.093651526 -0.120044634 -0.15856376 -0.10011673 -0.15739122 -0.24657792 -0.2216112 -0.054203525
-0.3006599 -0.16385318 -0.19277649 0.040028892 -0.066138625 -0.04293896 -0.13110405 0.030253591
-0.14615162 -0.13825953 0.103558935 -0.020029834 0.15582556 0.02840866 -0.089829 0.007997423
0.080941506 -0.025774132 0.052449122 0.043610048 0.088863 0.043271665 -0.10763818 0.04919284
0.019512825 0.11879869 0.022343853 -0.13809921 -0.0909719 -0.00020588678 -0.14274158 0.1231437
-0.12222512 0.012981771 0.07367602 0.03290561 -0.052594684 -0.1462928 -0.0087658055 0.047397465
0.12133781 0.1790208 -0.09247952 0.22984648 0.3082849 0.023037508 0.30831388 0.16413763
-0.18081976 0.14625858 0.2580799 0.21279927 0.16073611 0.115575075 0.042827822 0.08980091
0.12193876 -0.040858597 0.1731988 -0.11116776 0.22294901 0.19767407 0.25319517 0.1320042
0.11346691 0.11320762 0.16136989 0.006565621 -0.015069121 0.205124 0.021881778 0.3136863
00000000: b965 a3bc 9476 943d 6110 edbd 125e c13d
00000010: 642e fb39 e4ac a7bd 0373 c1bc 8da0 f13b
00000020: 6666 723d 1ec2 603e aa69 f4bb b880 90bc
00000030: 6a49 64bd 9cb1 523e e1d6 ff3d 8a6f 913d
00000040: 8a14 e3bd af5a 173e 8066 f1bd 8766 ad3d
00000050: fba5 903e 7e7c 293e c42d 193e 13c4 1e3b
00000060: c8ed 673c 0025 b33d 71f8 283d 09b6 98bd
00000070: 01f1 d5bd 8aee 43bc 9b7f 2abc d749 413e
00000080: 977a 5bbc f7b3 6dbe 3d7c fc3a 02dd 2ebe
00000090: 084c 943e 3453 dbba 939d e3bd 29dc 97be
000000a0: 4f9e 11be 7fe4 0dbe a24a 4dbe 8d1e 54bd
000000b0: 3b9a 2cbe a793 21bc 9268 7f3d c43e 99bd
000000c0: 5fcc bfbd f6d9 f5bd 8a5e 22be 000a cdbd
000000d0: 2a2b 21be ec7e 7cbe 0cee 62be 8404 5ebd
000000e0: 18f0 99be 21c9 27be 3367 45be 56f5 233d
000000f0: b073 87bd c3e0 2fbd 2440 06be 61d6 f73c
00000100: c5a8 15be e893 0dbe b516 d43d 9b15 a4bc
00000110: bc90 1f3e 47b9 e83c 44f8 b7bd a007 033c
00000120: a9c4 a53d 4624 d3bc e4d4 563d 73a0 323d
00000130: cefd b53d a13d 313d 6871 dcbd 6e7e 493d
00000140: 5cd9 9f3c ba4c f33d 750a b73c e169 0dbe
00000150: 7a4f babd 50e3 57b9 d92a 12be c432 fc3d
00000160: 2a51 fabd 7eb1 543c 74e3 963d 08c8 063d
00000170: 866d 57bd c8cd 15be 749e 0fbc d823 423d
00000180: f57f f83d 3b51 373e e765 bdbd e05c 6b3e
00000190: 85d7 9d3e 28b9 bc3c 51db 9d3e b213 283e
000001a0: d128 39be cfc4 153e 0c23 843e 0de8 593e
000001b0: 0298 243e a0b2 ec3d 3a6c 2f3d 8ae9 b73d
000001c0: 07bb f93d 585b 27bd 075b 313e ecab e3bd
000001d0: bf4c 643e 126b 4a3e cca2 813e 1c2c 073e
000001e0: 5761 e83d 66d9 e73d 263e 253e 6c24 d73b
000001f0: 79e4 76bc 070c 523e 6a41 b33c 7e9b a03e

weight_ih_l0 f4 [128, 2]
0.12968056 0.08143398 0.10954998 0.0835514 0.15989192 0.060922682 -0.18501839 -0.0038751208
-0.083425015 -0.3170136 0.13914838 0.10726745 -0.11010076 0.17990775 -0.33590782 0.02830633
0.17776854 -0.13601328 -0.23309168 0.06388397 -0.010358244 -0.07320091 0.16575645 -0.05338448
0.12570259 -0.3240366 -0.13773118 -0.008831728 -0.2546395 0.09588475 0.022022568 0.0469643
-0.17787986 0.1725945 -0.08309363 0.30152652 0.023092698 0.1899406 0.21808802 0.08207301
0.34267813 -0.010786182 0.2419347 0.4504994 0.28821215 0.19037151 -0.4927606 0.21636549
-0.039142527 0.09210266 0.13555206 -0.28589666 -0.085336514 0.27364397 -0.20201865 -0.17151938
0.021499706 -0.07413543 0.05447296 0.2831377 0.36104533 0.037936248 0.12210582 -0.39131668
0.06096561 -0.1923817 -0.06263169 -0.28244266 -0.09787635 0.102302745 0.0875252 0.4007693
0.20900394 0.20659335 -0.44345745 0.21608691 -0.5350267 -0.006435924 0.36386767 0.121724896
-0.042716153 -0.08782585 -0.120028555 -0.3314274 -0.11491322 -0.14225759 -0.24761397 0.16258343
-0.52489585 -0.08511781 0.45056823 0.44760856 -0.26396307 -0.29109517 0.21227406 0.04514368
0.108659655 -0.008896665 0.03132051 -0.30446413 0.09911578 0.5706127 -0.5363689 0.15178613
-0.45618603 -0.13253592 0.22582822 0.079167224 0.09147065 0.26799402 0.018583916 -0.5359616
-0.2790594 -0.17622249 0.3085602 0.1067278 0.25428757 -0.26614857 -0.14611515 0.32182124
0.04914962 -0.40126115 -0.24207114 0.5163033 0.26768667 -0.045373924 0.046188317 0.3225846
-0.035095833 0.22604582 -0.27736977 -0.35497308 -0.3151708 -0.27584836 -0.083321944 -0.3436281
-0.28157124 0.20269766 0.18621379 -0.40702188 -0.03304644 -0.06584859 0.31474036 -0.09552655
0.60168296 0.16979836 0.0015810841 0.74806654 0.33089158 0.44518515 -0.59954107 0.22899455
-0.38780427 -0.008115485 0.25139776 0.22300833 -0.32779717 -0.48661003 -0.34179887 0.22163326
0.0139953215 0.17289402 -0.47782013 0.36478218 0.043840356 0.5045824 0.35063466 -0.14866883
-0.2762255 -0.0030680008 -0.43916684 0.29753357 -0.073541395 -0.49692628 0.15637332 -0.041440785
0.22257642 0.26020858 -0.15875512 0.31013492 -0.61925596 0.2940914 0.2771499 0.17678761
0.47122416 0.23031878 0.11073712 0.034916196 0.32958943 0.1796638 -0.07535662 -0.48414806
-0.08483655 -0.17069612 0.17649758 0.010376509 0.13102522 -0.0018168847 0.22551589 0.13468836
-0.019646749 -0.20034193 -0.22865087 0.20565961 -0.34689847 -0.16850294 -0.049328525 -0.07838455
-0.020234313 0.08284929 -0.25551447 -0.35785854 0.15145113 -0.10156661 0.106482536 -0.009620211
0.39447728 0.12715863 0.16929948 0.19272423 -0.18818644 0.15698467 0.14784622 -0.032572035
-0.08762046 0.12904003 -0.10393859 -0.17130612 -0.03805781 -0.094307184 0.23340937 0.30210376
0.082515374 -0.08561627 0.042601775 0.48346448 0.16773595 0.06930367 -0.14546081 -0.26645353
0.19354235 0.09661708 0.17952439 -0.3165201 0.022447126 -0.22428855 0.046225883 0.0036801505
0.03276436 -0.15925676 -0.1518224 0.26209167 0.22841787 -0.07792408 0.21400082 -0.26436245
00000000: fbca 043e dcc6 a63d bd5b e03d ff1c ab3d
00000010: b5ba 233e 108a 793d 7675 3dbe bdf5 7dbb
00000020: bcda aabd 9b4f a2be ea7c 0e3e 09af db3d
00000030: 827c e1bd bd39 383e 1cfc abbe ade2 e73c
00000040: f508 363e 1147 0bbe 96af 6ebe 99d5 823d
00000050: a0b5 29bc 5cea 95bd 0fbc 293e afa9 5abd
00000060: 2eb8 003e 20e8 a5be 6709 0dbe f4b2 10bc
00000070: 1c60 82be 395f c43d ac68 b43c a35d 403d
00000080: 2326 36be 9dbc 303e fe2c aabd af61 9a3e
00000090: e62c bd3c ca7f 423e 7752 5f3e e515 a83d
000000a0: 8273 af3e 87b8 30bc bbbd 773e dba7 e63e
000000b0: 8b90 933e c0f0 423e 1e4b fcbe ea8e 5d3e
000000c0: ea53 20bd 52a0 bc3d 29ce 0a3e 0c61 92be
000000d0: e9c4 aebd 101b 8c3e fadd 4ebe c7a2 2fbe
000000e0: 2720 b03c 51d4 97bd 0a1f 5f3d 6df7 903e
000000f0: efda b83e 0a63 1b3d 9e12 fa3d a95a c8be
00000100: 13b7 793d b5ff 44be 0b45 80bd 539c 90be
00000110: 6573 c8bd 1a84 d13d 6940 b33d a231 cd3e
00000120: 2105 563e 358d 533e db0c e3be e345 5d3e
00000130: 83f7 08bf 72e4 d2bb dd4c ba3e e74a f93d
00000140: 22f7 2ebd 0ade b3bd 88d1 f5bd dab0 a9be
00000150: 9f57 ebbd f9ab 11be 848e 7dbe 457c 263e
00000160: 935f 06bf 3f52 aebd e1b0 e63e f32c e53e
00000170: 2b26 87be 6d0a 95be 5f5e 593e 94e8 383d
00000180: f488 de3d 51c3 11bc ef49 003d b9e2 9bbe
00000190: 37fd ca3d ad13 123f 794f 09bf d36d 1b3e
000001a0: 3791 e9be 7fb7 07be 833f 673e 6d22 a23d
000001b0: f754 bb3d 8336 893e 4c3d 983c c834 09bf
000001c0: e0e0 8ebe ab73 34be 9afb 9d3e 1b94 da3d
000001d0: fb31 823e a044 88be 369f 15be c1c5 a43e
000001e0: 1d51 493d 1a72 cdbe 7fe1 77be 742c 043f
000001f0: 3a0e 893e 02da 39bd f62f 3d3d cf29 a53e
00000200: a6c0 0fbd 8e78 673e 6903 8ebe 08bf b5be
00000210: 115e a1be ff3b 8dbe b2a4 aabd 06f0 afbe
00000220: 1b2a 90be fa8f 4f3e d4ae 3e3e 2c65 d0be
00000230: b45b 07bd a0db 86bd a625 a13e 6da3 c3bd
00000240: e507 1a3f 9fdf 2d3e 613c cf3a 4a81 3f3f
00000250: 9f6a a93e 4fef e33e 867b 19bf 8c7d 6a3e
00000260: 488e c6be d0f6 04bc 35b7 803e 4c5c 643e
00000270: 08d5 a7be f324 f9be 4300 afbe d4f3 623e
00000280: a24c 653c 210b 313e d7a4 f4be bbc4 ba3e
00000290: f291 333d 502c 013f 6386 b33e a43c 18be
000002a0: 6e6d 8dbe 8310 49bb 7ada e0be 5256 983e
000002b0: df9c 96bd 1f6d febe 5420 203e d0bd 29bd
000002c0: 13eb 633e 0f3a 853e b490 22be 01ca 9e3e
000002d0: 8f87 1ebf 2693 963e 97e6 8d3e d007 353e
000002e0: 4b44 f13e b0d8 6b3e 25ca e23d 4904 0f3d
000002f0: f2bf a83e caf9 373e 9254 9abd 41e2 f7be
00000300: c9be adbd f7ca 2ebe c8bb 343e 3c02 2a3c
00000310: 7a2b 063e 8924 eeba a3ed 663e bfeb 093e
00000320: 38f2 a0bc 6f26 4dbe 7423 6abe 6f98 523e
00000330: ad9c b1be 098c 2cbe b50c 4abd 1488 a0bd
00000340: 6ec2 a5bc e3ac a93d cbd2 82be 3c39 b7be
00000350: 0116 1b3e 2802 d0bd 8413 da3d 179e 1dbc
00000360: edf8 c93e df35 023e d85c 2d3e 8059 453e
00000370: f2b3 40be 97c0 203e 0065 173e 416a 05bd
00000380: 5b72 b3bd 1223 043e c1dd d4bd df6a 2fbe
00000390: 82e2 1bbd 2024 c1bd de02 6f3e 58ad 9a3e
000003a0: d2fd a83d 9557 afbd 337f 2e3d a888 f73e
000003b0: f9c2 2b3e 15ef 8d3d aef3 14be 996c 88be
000003c0: f72f 463e 2ddf c53d 3ed5 373e ec0e a2be
000003d0: 09e3 b73c e6ab 65be 5a57 3d3d ae2e 713b
000003e0: ec33 063d 3414 23be 5577 1bbe e130 863e
000003f0: 60e6 693e a996 9fbd 0823 5b3e 845a 87be

weight_hh_l0 f4 [128, 32]
-0.057461847 0.064649805 -0.13570291 0.061748873 0.039861776 -0.10158629 -0.27793592 -0.021720188
-0.2114289 -0.0713056 0.05659631 0.18732725 0.177537 0.15376635 -0.0893227 -0.07126029
0.10040242 0.025286712 0.26357755 -0.13504101 0.11527517 -0.1697479 -0.30937496 0.14905342
-0.23330973 0.23161818 -0.16947588 0.17268737 0.1187699 -0.17454486 -0.15788394 -0.011918407
0.0146783795 -0.12245511 -0.3942178 -0.1455316 0.10682365 0.011266296 -0.4174721 -0.06282332
0.24234459 0.20614687 0.44680542 0.011444725 -0.08634969 0.43152845 -0.057356585 -0.19211626
0.07675549 0.17043902 0.34293523 0.109969795 0.16950478 -0.27901706 -0.14260656 0.13050906
0.08965502 -0.02911128 -0.14942016 -0.002659339 0.07846176 0.020332897 0.111553326 -0.4381049
-0.10400819 0.25729373 0.12840828 -0.07376427 -0.27308562 -0.12832938 -0.16229768 0.099720925
0.044570316 -0.25774577 -0.13139586 0.04745579 0.13921003 0.50467986 0.26086906 0.010066667
0.06230277 0.039659508 0.06871721 -0.26038948 0.10712635 -0.11769333 -0.10157592 0.22708426
-0.29252738 0.029969081 -0.3269992 0.27078155 -0.2976823 -0.12945895 0.2994292 -0.5243804
0.13825136 -0.101638414 0.19915353 -0.082335144 0.13038212 0.06699851 0.20949854 0.15772909
0.34117138 0.1139315 0.04073877 0.04592117 0.08314949 -0.068775296 -0.08448436 -0.10545312
-0.15918644 -0.32104138 -0.061595313 -0.10107965 -0.07548819 0.17264278 0.13274604 -0.012223573
0.024637848 0.30766255 -0.09651761 0.4293021 -0.068601675 -0.1371601 0.026316652 -0.08122616
-0.23169775 0.050926406 0.1373709 0.2620095 -0.12202777 0.5099454 0.37325168 0.049751304
0.38096228 0.036225226 -0.21631472 -0.08096932 -0.11486947 0.09188928 0.2543619 -0.08631265
-0.35869995 -0.75876784 -0.33119905 0.23290631 0.045706067 0.07971886 0.64277834 -0.08601441
-0.15381642 0.14467967 -0.41627622 0.21341006 -0.13139828 0.16661161 -0.00046641965 0.14015457
-0.09007684 -0.081866376 -0.32499546 -0.22931303 0.1489159 0.15458015 -0.20220095 0.2501805
0.40656453 -0.3687743 -0.11057415 0.3157843 0.08686158 0.034999974 0.19197321 -0.16276537
-0.22694924 -0.20355673 -0.023044923 0.113216616 -0.0767748 -0.27683792 -0.12968232 0.2326781
0.11425696 0.2638296 -0.089855194 0.37335995 -0.012141793 -0.38108265 0.47894266 -0.09617132
0.26687217 -0.25880212 -0.4877256 -0.29988787 0.15664811 -0.23654595 0.020319542 0.09516527
0.32071942 0.3235444 0.43536776 0.026087109 -0.115373135 0.29897633 -0.46845135 -0.20977947
-0.0030409996 0.26256466 0.25719443 -0.016946891 0.035019316 0.2545476 -0.44490612 0.004748472
0.20095801 0.04679094 -0.19913407 -0.013687607 0.40477684 -0.172715 -0.08162445 -0.073207244
0.26673737 0.106460944 0.49121645 0.07152603 0.1938036 -0.3545544 0.24503852 -0.08526887
-0.8333362 -0.11479575 -0.3259111 0.29073343 0.7202261 -0.16868757 0.049410637 0.3893162
0.15334813 0.4456429 -0.121003844 -0.0127350865 -0.00713433 0.17059483 -0.08840296 -0.16126584
0.04027788 -0.054467924 0.5940178 0.12329706 -0.16457683 0.08388309 -0.07190549 0.13890071
00000000: 1d5d 6bbd 1e67 843d b4f5 0abe 63ec 7c3d
00000010: 1a46 233d 790c d0bd 9e4d 8ebe 89ee b1bc
00000020: d180 58be ac08 92bd 88d1 673d b7d2 3f3e
00000030: 42cc 353e ed74 1d3e d2ee b6bd eaf0 91bd
00000040: c99f cd3d 1426 cf3c a3f3 863e 3148 0abe
00000050: 6315 ec3d 65d2 2dbe 6566 9ebe 76a1 183e
00000060: bfe8 6ebe 512d 6d3e 168b 2dbe f5d4 303e
00000070: a23d f33d e3bb 32be 54ac 21be 6c45 43bc
00000080: 967d 703c bfc9 fabd ead6 c9be 3c06 15be
00000090: 5cc6 da3d 4596 383c e7be d5be 83a9 80bd
000000a0: 2e29 783e 2a18 533e aec3 e43e a882 3b3c
000000b0: 1bd8 b0bd 4cf1 dc3e bdee 6abd 20ba 44be
000000c0: fb31 9d3d 9187 2e3e 3595 af3e d837 e13d
000000d0: a992 2d3e 53db 8ebe 7407 12be 2ba4 053e
000000e0: 0d9d b73d c77a eebc 9901 19be 4e48 2ebb
000000f0: 8fb0 a03d 2d91 a63c 1276 e43d 494f e0be
00000100: 3f02 d5bd 01bc 833e 767d 033e b911 97bd
00000110: e1d1 8bbe c768 03be 5d31 26be 7c3a cc3d
00000120: 5d8f 363d 41f7 83be a38c 06be 0161 423d
00000130: 138d 0e3e b332 013f a190 853e a9ee 243c
00000140: 3031 7f3d 0272 223d 9cbb 8c3d c551 85be
00000150: 0f65 db3d 3309 f1bd 0907 d0bd c788 683e
00000160: 26c6 95be b881 f53c 706c a7be e1a3 8a3e
00000170: d069 98be e390 04be c94e 993e cb3d 06bf
00000180: c491 0d3e cd27 d0bd e7ee 4b3e 549f a8bd
00000190: e482 053e 8436 893d c986 563e bc83 213e
000001a0: 04ae ae3e eb54 e93d b2dd 263d d617 3c3d
000001b0: 484a aa3d 10da 8cbd 2306 adbd cef7 d7bd
000001c0: c501 23be 895f a4be 5e4b 7cbd d902 cfbd
000001d0: 8d99 9abd 45c9 303e 94ee 073e 6245 48bc
000001e0: 50d5 c93c f285 9d3e 06ab c5bd 7ccd db3e
000001f0: 097f 8cbd b273 0cbe 0596 d73c e759 a6bd
00000200: 2d42 6dbe 3598 503d f5aa 0c3e 1c26 863e
00000210: b2e9 f9bd c88b 023f d81a bf3e 06c8 4b3d
00000220: 7d0d c33e e760 143d 9b81 5dbe 3ed3 a5bd
00000230: af40 ebbd 7230 bc3d b93b 823e b0c4 b0bd
00000240: 85a7 b7be 9c3e 42bf ec92 a9be fe7e 6e3e
00000250: 4936 3b3d a443 a33d 1f8d 243f 5328 b0bd
00000260: 0d82 1dbe e826 143e 2822 d5be 2b88 5a3e
00000270: 458d 06be 3c9c 2a3e c989 f4b9 ae84 0f3e
00000280: 357a b8bd 8fa9 a7bd ce65 a6be 09d1 6abe
00000290: 697d 183e 424a 1e3e c40d 4fbe a917 803e
000002a0: 3a29 d03e fccf bcbe b374 e2bd 7bae a13e
000002b0: 7ce4 b13d 225c 0f3d a094 443e f7ab 26be
000002c0: 6265 68be 2d71 50be b5c8 bcbc 1dde e73d
000002d0: 1b3c 9dbd b3bd 8dbe 71cb 04be 2b43 6e3e
000002e0: 8eff e93d ac14 873e 0006 b8bd 0929 bf3e
000002f0: 5fee 46bc 441d c3be f937 f53e 78f5 c4bd
00000300: 78a3 883e b681 84be 2bb7 f9be e78a 99be
00000310: 5d68 203e 1a39 72be 2b75 a63c 02e6 c23d
00000320: 5635 a43e 9da7 a53e 86e8 de3e a2b4 d53c
00000330: c048 ecbd 6d13 993e dbd8 efbe 6ed0 56be
00000340: 824b 47bb e06e 863e fdae 833e 35d4 8abc
00000350: 6a70 0f3d 1054 823e bcca e3be 1299 9b3b
00000360: f0c7 4d3e dba7 3f3d cde9 4bbe fc41 60bc
00000370: e93e cf3e 33dc 30be b82a a7bd aeed 95bd
00000380: cd91 883e 3208 da3d b980 fb3e 3d7c 923d
00000390: 7374 463e 2888 b5be 61eb 7a3e 72a1 aebd
000003a0: 8555 55bf 091a ebbd d2dd a6be 03db 943e
000003b0: bd60 383f 6fbc 2cbe cf62 4a3d 7454 c73e
000003c0: 4b07 1d3e 4e2b e43e ddd0 f7bd d3a6 50bc
000003d0: 19c7 e9bb 69b0 2e3e 9c0c b5bd df22 25be
000003e0: 6bfa 243d c219 5fbd 8d11 183f 2b83 fc3d
000003f0: d486 28be e6ca ab3d 2f43 93bd fd3b 0e3e

bias_ih_l0 f4 [128]
-0.029299855 -0.06489616 0.10740735 0.106912695 -0.008990002 0.14425407 0.14059602 -0.1322506
0.041700743 0.13527234 -0.060362756 -0.11539777 0.040495742 0.15216847 -0.18672498 0.025418704
0.018399728 0.1402689 0.27615216 -0.019168524 0.2066925 -0.04068213 -0.083136775 -0.09994918
-0.005450424 -0.05699754 0.09940552 0.004136245 0.13128288 0.07918307 0.2445703 0.07901878
0.16991375 -0.13257031 -0.11121674 -0.10432567 0.009505722 0.10488991 0.08878021 0.22026598
0.19872293 0.34601516 0.07714447 0.2282891 -0.098266594 0.14658394 -0.029884927 -0.08661031
-0.038029853 0.26084045 0.3104838 0.15162711 0.16264395 0.15378267 -0.1303071 0.04527551
-0.02313418 0.09024686 0.1543635 0.19899525 -0.17271945 0.10269375 0.017632663 -0.0026725025
-0.19270584 0.24919698 0.20004831 -0.1440546 0.18424635 0.05326785 0.3224826 0.1659066
0.102949716 -0.09900856 0.5321044 0.06085429 0.13785452 0.37482667 0.12403149 -0.40482077
-0.47669584 -0.24483079 0.29065996 -0.111220576 0.15100233 -0.34700033 0.07053221 0.21909426
-0.2979058 0.06291656 0.15493661 0.110052116 -0.5047149 0.075907946 -0.15154067 -0.6959509
-0.007875368 0.17241989 0.23812667 0.15553047 0.16205372 0.25460404 0.2806486 0.11338378
0.07436677 0.34238237 0.10085702 -0.09396458 -0.044352073 0.22903576 0.050474737 0.09782174
0.13109308 -0.056778297 0.26388618 0.17402135 0.00038705292 0.1694589 0.04983037 -0.07494088
0.23884754 0.029646339 0.33918124 -0.058192946 -0.09731806 0.066801794 0.18195988 0.011752398
00000000: 4006 f0bc 47e8 84bd 62f8 db3d 0bf5 da3d
00000010: cd4a 13bc 57b7 133e 67f8 0f3e b46c 07be
00000020: 66ce 2a3d d584 0a3e f03e 77bd ab55 ecbd
00000030: ddde 253d 0dd2 1b3e d534 3fbe e33a d03c
00000040: 07bb 963c a7a2 0f3e d163 8d3e 4f07 9dbc
00000050: 33a7 533e 4ea2 26bd 9d43 aabd 28b2 ccbd
00000060: 7899 b2bb 4176 69bd 1f95 cb3d 5789 873b
00000070: 056f 063e bc2a a23d a370 7a3e 99d4 a13d
00000080: dffd 2d3e 83c0 07be 9ac5 e3bd b2a8 d5bd
00000090: e3bd 1b3c 85d0 d63d 66d2 b53d 688d 613e
000000a0: 067e 4b3e e628 b13e ebfd 9d3d 9ec4 693e
000000b0: ff3f c9bd 1a1a 163e 3cd1 f4bc bf60 b1bd
000000c0: 31c5 1bbd e18c 853e bcf7 9e3e 2344 1b3e
000000d0: 238c 263e 3479 1d3e 396f 05be d072 393d
000000e0: e483 bdbc 59d3 b83d 7711 1e3e 69c5 4b3e
000000f0: 5edd 30be 1a51 d23d 6072 903c 2725 2fbb
00000100: ae54 45be 7e2d 7f3e 77d9 4c3e 0d83 13be
00000110: 13ab 3c3e 642f 5a3d 701c a53e 6be3 293e
00000120: 4dd7 d23d 00c5 cabd fe37 083f 5942 793d
00000130: bc29 0d3e 48e9 bf3e 3904 fe3d ab44 cfbe
00000140: 7a11 f4be ecb4 7abe 62d1 943e 9dc7 e3bd
00000150: 5ba0 1a3e 07aa b1be 3173 903d 3f5a 603e
00000160: 1c87 98be 66da 803d b4a7 1e3e 0163 e13d
00000170: ff34 01bf a075 9b3d 7a2d 1bbe d729 32bf
00000180: b007 01bc d78e 303e 7ad7 733e 6143 1f3e
00000190: 69f1 253e 765b 823e 2cb1 8f3e c135 e83d
000001a0: 9b4d 983d be4c af3e 208e ce3d 8070 c0bd
000001b0: 85aa 35bd 5a88 6a3e 99be 4e3d c456 c83d
000001c0: 443d 063e 5c90 68bd 171c 873e a732 323e
000001d0: 5ded ca39 a286 2d3e ee1a 4c3d 9b7a 99bd
000001e0: 7394 743e e1dc f23c 2aa9 ad3e ba5b 6ebd
000001f0: b14e c7bd 61cf 883d b153 3a3e 218d 403c

bias_hh_l0 f4 [128]
0.19973932 0.19459204 0.0375953 -0.06201824 0.08504402 0.23193477 -0.106023125 -0.02816617
0.12037766 0.20740326 0.14469396 0.0933564 0.041037217 0.16145393 0.042559057 0.07649333
-0.03264716 0.06114661 0.18590927 -0.06413036 0.21175705 0.06875218 0.21124683 -0.17342655
-0.112447806 -0.14015588 0.063647114 -0.09203879 0.15712525 0.10339174 0.1037557 0.107989855
0.035706706 0.08844285 0.012707915 8.2190694e-05 0.019917894 -0.061976023 -0.034326315 -0.06970468
-0.06292087 0.1673217 -0.0041870233 0.12253424 0.04627786 0.15967654 -0.18632899 -0.16053547
0.029436396 0.00074444636 0.16548182 -0.035556495 0.15505071 0.07690457 0.014529521 -0.1022989
0.0013008435 0.13515098 0.06508978 -0.01996098 0.025729734 -0.089578785 -0.10190398 0.17428061
-0.013417377 0.2671399 0.011335604 -0.110876784 0.25774226 -0.14799376 0.11828263 0.16523676
-0.15778092 0.12365069 0.4570258 0.16818321 0.09898524 0.44770846 0.101132154 -0.2980484
-0.38779584 -0.07365439 0.0074571176 -0.013172032 0.19796857 -0.30531093 0.20211713 0.1547676
-0.23375204 0.28545365 -0.04926237 0.12618886 -0.6534363 0.03725102 0.07348668 -0.87551534
0.2565084 0.14839196 0.13753225 -0.1107863 -0.011126537 0.26779947 0.20573713 0.18710795
0.11744037 0.35510778 0.046087183 -0.07319321 -0.036470927 0.0881928 0.116217315 0.19990179
0.27918577 0.0016073518 0.04193396 0.15931106 -0.016780488 -0.02067249 0.17069334 0.21183848
0.1137822 0.15547949 0.12751615 0.12720656 0.17819783 0.1339938 0.10678117 0.07646251
00000000: 7788 4c3e 2343 473e 87fd 193d d706 7ebd
00000010: 8f2b ae3d 4f80 6d3e a722 d9bd bdbc e6bc
00000020: 9088 f63d 8561 543e a72a 143e a431 bf3d
00000030: a416 283d 2e54 253e 6852 2e3d 89a8 9c3d
00000040: 07b9 05bd de74 7a3d 005f 3e3e c756 83bd
00000050: d7d6 583e f1cd 8c3d 1751 583e bb96 31be
00000060: 094b e6bd 0685 0fbe 6b59 823d d57e bcbd
00000070: 71e5 203e 0cbf d33d de7d d43d c929 dd3d
00000080: 3241 123d 8621 b53d dc34 503c cb5d ac38
00000090: da2a a33c 92da 7dbd c099 0cbd 54c1 8ebd
000000a0: a8dc 80bd 6156 2b3e 4c33 89bb 3bf3 fa3d
000000b0: da8d 3d3d 3f82 233e 07cd 3ebe 6963 24be
000000c0: 9924 f13c f326 433a 1174 293e b0a3 11bd
000000d0: 9dc5 1e3e 2580 9d3d 3a0d 6e3c 1682 d1bd
000000e0: 1181 aa3a 0565 0a3e ca4d 853d 3685 a3bc
000000f0: 2ac7 d23c 1575 b7bd 09b3 d0bd 9e76 323e
00000100: 8fd4 5bbc 90c6 883e f8b8 393c 5e13 e3bd
00000110: cbf6 833e ad8b 17be 2a3e f23d d333 293e
00000120: 5291 21be 933c fd3d 49ff e93e 3838 2c3e
00000130: c6b8 ca3d 0b3a e53e 601e cf3d cd99 98be
00000140: 2d8d c6be 1dd8 96bd d65a f43b 82cf 57bc
00000150: 46b8 4a3e b751 9cbe cbf7 4e3e 667b 1e3e
00000160: b25c 6fbe fb26 923e 57c7 49bd a737 013e
00000170: 9a47 27bf 8794 183d 2f80 963d c621 60bf
00000180: 1255 833e 10f4 173e 41d5 0c3e ede3 e2bd
00000190: 144c 36bc 031d 893e c1ac 523e 3a99 3f3e
000001a0: 9484 f03d b0d0 b53e eac5 3c3d 52e6 95bd
000001b0: 8a62 15bd 6d9e b43d 5803 ee3d 0eb3 4c3e
000001c0: 70f1 8e3e c7ad d23a f2c2 2b3d 7022 233e
000001d0: 3c77 89bc 5b59 a9bc 3cca 2e3e 30ec 583e
000001e0: a406 e93d 0436 1f3e 9893 023e 7042 023e
000001f0: 7e79 363e ac35 093e 16b0 da3d 6098 9c3d

weight_ih_l0_reverse f4 [128, 2]
0.28220242 0.1729158 0.033461723 0.021527775 -0.12332237 -0.16312844 0.3818203 0.32033005
-0.2005679 0.020804947 -0.002228778 -0.17934203 -0.37091094 -0.45966285 0.34416762 -0.3948913
0.21335807 -0.7538562 -0.42536768 0.40332994 -0.45528576 0.34090698 0.39160773 -0.030215612
-0.40965602 -0.08746392 -0.42350444 -0.053730406 0.74861926 -0.5370255 0.3738403 0.10830328
-0.11175524 -0.14291911 0.18422575 0.44604027 0.019663977 -0.20474122 0.037490092 0.16318025
0.0011785192 0.19903842 0.49328217 0.30332163 -0.11667166 0.14656755 -0.107387945 -0.09460334
-0.9881632 -0.08536423 -0.7243978 -0.33558995 -0.6213483 -0.20710415 -0.08368538 0.16549852
0.4010854 -0.29372072 -0.13106474 0.15438168 -0.26630193 0.14542167 -0.52213466 -0.4515947
0.26150566 0.44849184 0.06324946 0.0016213745 -0.18499793 -0.3103438 0.2821745 0.3725779
-0.23291707 0.05059047 0.3734501 -0.12133589 -0.46845686 -0.43282932 0.38670784 -0.19821647
0.29163358 -0.2471732 -0.25715744 0.18550248 -0.018389134 0.07673116 0.2584398 -0.04470031
-0.16440178 -0.06457335 -0.23596853 -0.021628715 0.51248765 -0.46878016 0.4374854 0.16128552
-0.13435139 -0.07496857 -0.10770114 0.39181858 -0.12843235 -0.11236734 -0.21368255 0.118792064
0.015789183 0.1833449 0.28031817 0.10506249 -0.09017583 -0.014287455 -0.5167515 -0.2153464
-0.505201 -0.087102056 -0.20372531 -0.3160547 -0.24790092 -0.17608945 0.06316362 -0.066224195
0.1179017 -0.052350663 -0.096650116 0.19278982 -0.28056967 0.19031793 0.1534398 -0.47542894
-0.33307138 -0.26395038 0.17882065 0.39809462 0.24970472 0.12626025 -0.33416504 -0.28593186
0.26099512 0.42667633 0.25770733 -0.08402761 -0.28474957 -0.3960618 -0.40944007 0.21014643
-0.03195269 -0.75105083 -0.16512556 0.48780164 0.44527042 -0.23845668 0.48130798 -0.08553067
0.35159364 0.06490325 0.44118455 -0.12747505 0.11608139 -0.3776269 0.2441294 0.056091435
-0.0757957 0.5515534 0.29670292 0.7791169 0.13170877 -0.42350975 -0.59165376 0.25756148
-0.3186147 -0.045945156 -0.40576628 -0.11000324 -0.29472753 0.1801854 0.17728853 0.2768437
-0.47937816 0.2662299 0.4969397 0.39997798 -0.38290146 -0.12378574 -0.14827977 -0.30148205
-0.41974208 0.24701601 0.33903235 0.05007613 0.2097928 -0.3095727 0.15897803 -0.30077204
0.31809762 0.24653883 0.041665085 -0.03882574 -0.022880018 -0.21279764 -0.24176358 -0.0045233294
-0.3267105 0.15019748 -0.0035485146 0.0064589195 -0.49005982 -0.33563355 0.4993278 -0.48359153
-0.17874907 -0.64007777 -0.27090207 0.04801976 -0.25754297 0.14848794 0.5111128 -0.15204355
-0.25913665 -0.22518477 -0.2493102 0.1678958 1.0835336 -0.627987 0.38518947 0.07526492
0.07929298 0.002934672 0.007348026 0.13506392 -0.09457439 0.00018142599 -0.108485475 0.30217922
0.2528819 -0.046864703 0.27314728 0.40693906 0.06703426 -0.018874837 -0.3769814 -0.08226622
-0.46549436 0.04073787 -0.17810799 -0.354462 -0.86639917 -0.19400574 0.10469932 0.1649751
0.8205948 -0.41709146 -0.22958513 -0.09547521 -0.20557344 0.21128166 -0.21055442 -0.16466333
00000000: d67c 903e d710 313e 290f 093d 045b b03c
00000010: 7090 fcbd 240b 27be f37d c33e 4d02 a43e
00000020: ac61 4dbe 236f aa3c b110 12bb 70a5 37be
00000030: 0ae8 bdbe ee58 ebbe bd36 b03e 312f cabe
00000040: 8a7a 5a3e b8fc 40bf cbc9 d9be 4381 ce3e
00000050: 371b e9be 5c8b ae3e cf80 c83e bb86 f7bc
00000060: 6fbe d1be 4920 b3bd 93d5 d8be 6a14 5cbd
00000070: 83a5 3f3f 817a 09bf ff67 bf3e 1cce dd3d
00000080: eedf e4bd 6359 12be ada5 3c3e 645f e43e
00000090: 5916 a13c afa7 51be 368f 193d b918 273e
000000a0: 8b78 9a3a bad0 4b3e 7b8f fc3e f94c 9b3e
000000b0: 8df1 eebd ce15 163e 36ee dbbd 65bf c1bd
000000c0: 43f8 7cbf 71d3 aebd 2272 39bf 72d2 abbe
000000d0: af10 1fbf 1c13 54be 3e63 abbd 7278 293e
000000e0: 115b cd3e 9062 96be d635 06be 3b16 1e3e
000000f0: ba58 88be 6be9 143e 9eaa 05bf 6c37 e7be
00000100: 12e4 853e b9a0 e53e ef88 813d 4d84 d43a
00000110: 1970 3dbe 62e5 9ebe 2d79 903e 88c2 be3e
00000120: d081 6ebe f437 4f3d da34 bf3e f37e f8bd
00000130: 94d9 efbe ce9b ddbe 92fe c53e 42f9 4abe
00000140: ff50 953e f91a 7dbe 24aa 83be 5df4 3d3e
00000150: cfa4 96bc 3a25 9d3d 3952 843e ac17 37bd
00000160: f158 28be 083f 84bd bca1 71be b42e b1bc
00000170: 6432 033f f403 f0be 16fe df3e 0828 253e
00000180: 6993 09be 1f89 99bd 6a92 dcbd 729c c83e
00000190: c583 03be d920 e6bd 99cf 5abe 4149 f33d
000001a0: 5158 813c c4be 3b3e dd85 8f3e 012b d73d
000001b0: 1bae b8bd ee15 6abc d449 04bf c483 5cbe
000001c0: da54 01bf 9062 b2bd 5e9d 50be ecd1 a1be
000001d0: bdd9 7dbe cb50 34be ee5b 813d 8da0 87bd
000001e0: 7276 f13d a66d 56bd 7ff0 c5bd b26a 453e
000001f0: d4a6 8fbe b4e2 423e 531f 1d3e 6c6b f3be
00000200: 5588 aabe 8124 87be c31c 373e 0fd3 cb3e
00000210: 98b2 7f3e 5e4a 013e ae17 abbe a965 92be
00000220: 27a1 853e 5275 da3e 37f2 833e ab16 acbd
00000230: b2ca 91be 9dc8 cabe 21a2 d1be a030 573e
00000240: d3e0 02bd de44 40bf ad16 29be 23c1 f93e
00000250: 7cfa e33e fd2d 74be 006e f63e b42a afbd
00000260: 1504 b43e ffeb 843d f1e2 e13e d288 02be
00000270: 14bc ed3d 5058 c1be 0ffd 793e 22c0 653d
00000280: c73a 9bbd 9b32 0d3f 72e9 973e 3574 473f
00000290: aade 063e 45d6 d8be 9f76 17bf 19df 833e
000002a0: 7721 a3be fd30 3cbd 99c0 cfbe 6149 e1bd
000002b0: 87e6 96be 8682 383e 208b 353e 75be 8d3e
000002c0: 0e71 f5be 494f 883e e16e fe3e eac9 cc3e
000002d0: a90b c4be 6183 fdbd a7d6 17be db5b 9abe
000002e0: 6fe8 d6be c4f1 7c3e a695 ad3e a11c 4d3d
000002f0: ecd3 563e 5080 9ebe 23cb 223e cbfe 99be
00000300: b1dd a23e ad74 7c3e 02a9 2a3d bd07 1fbd
00000310: e06e bbbc a0e7 59be df90 77be 7038 94bb
00000320: 9946 a7be 5ecd 193e 328e 68bb 58a5 d33b
00000330: 1fe9 fabe 29d8 abbe e5a7 ff3e 4f99 f7be
00000340: ff09 37be 23dc 23bf adb3 8abe 5eb0 443d
00000350: acdc 83be 390d 183e 4ad8 023f 4eb1 1bbe
00000360: 8fad 84be d696 66be 2c4b 7fbe e0ec 2b3e
00000370: 3bb1 8a3f c2c3 20bf 8e37 c53e 7f24 9a3d
00000380: 5c64 a23d a053 403b b6c7 f03b 324e 0a3e
00000390: 38b0 c1bd 2b3d 3e39 a22d debd 3cb7 9a3e
000003a0: bd79 813e 34f5 3fbd f6d9 8b3e 515a d03e
000003b0: 4249 893d 679f 9abc b503 c1be 317b a8bd
000003c0: 4755 eebe c1dc 263d f161 36be 0b7c b5be
000003d0: 56cc 5dbf 71a9 46be 996c d63d 3cef 283e
000003e0: 8012 523f 038d d5be 5d18 6bbe 8288 c3bd
000003f0: d881 52be 385a 583e 949b 57be 819d 28be

weight_hh_l0_reverse f4 [128, 32]
-0.41516367 0.3391501 -0.099935114 0.027263034 0.09514576 0.27288955 -0.20234244 -0.04877372
-0.07918717 0.33335206 0.12998258 -0.094709404 0.16439912 0.1840322 -0.008401067 0.38375345
0.13043132 0.3032452 -0.020966116 0.02691803 -0.30180308 0.024149265 0.19848435 0.11813178
-0.1370248 0.10505477 -0.3016822 -0.38717628 0.11848852 0.12197195 -0.33402202 0.101345494
-0.162379 0.19537574 0.033493258 0.20695955 -0.118997835 -0.15011671 -0.06924365 -0.010559719
-0.167993 0.18976943 -0.14823027 -0.19107752 0.05648715 -0.18382034 -0.07772476 -0.05918632
-0.11707085 -0.14716685 -0.022400253 0.049045525 -0.08463686 0.077312075 0.13181351 -0.074084975
0.005544504 -0.08449169 0.020773709 -0.13067876 0.066883124 -0.044291027 0.0038364697 0.055662073
0.17109469 -0.23234384 -0.122560225 -0.0046368954 0.22116093 0.26561198 0.13312525 -0.18950316
-0.04885023 0.042332076 0.5428631 0.16216117 0.20883065 0.23410885 0.13556439 0.294863
-0.6079745 -0.17834768 0.0014056024 -0.1385034 0.07138387 -0.23888984 0.15008737 -0.06869591
-0.22728018 0.51486725 -0.030266047 -0.007760684 -0.023626344 0.03339845 -0.07415757 -0.20935902
0.018521303 0.00016561491 0.21017216 -0.27849233 0.36094478 -0.079518326 -0.53043354 0.35150716
-0.46156088 -0.09992883 0.049487364 0.35380888 0.27807918 0.09361845 -0.1797834 0.25268054
0.22174661 0.3098425 -0.2833334 -0.04347124 -0.44459477 0.06622304 -0.39330885 0.58102584
-0.3365775 0.47540873 -0.298967 -0.0511237 0.13758908 0.20420532 -0.0007383622 -0.23208167
0.37879348 -0.11751557 -0.01549487 0.14151119 -0.15752648 -0.04951183 -0.2873843 0.060552057
-0.16215597 -0.16499452 0.06633192 -0.08232069 -0.13708411 0.3370645 -0.25091618 -0.13489012
-0.06567198 -0.27561876 -0.1466877 0.09395532 -0.0005883004 0.18308593 -0.21427675 0.18155801
-0.3515034 0.33782628 -0.26520494 0.21974187 0.118115254 0.0858206 -0.07392489 -0.41674584
-0.07614092 -0.12584169 -0.09499449 0.012206467 0.044981696 0.24168918 -0.054239895 -0.26443043
-0.065433234 -0.062647015 -0.012576446 -0.095145114 -0.14736843 0.16758588 0.04039306 0.08161834
0.015073481 -0.08301797 -0.12580046 0.059574608 0.06604721 0.10197121 -0.34574294 0.023030156
0.021859193 -0.1569177 -0.16545436 -0.13847636 -0.24529038 0.10341569 0.12881817 0.049618416
0.9235502 -0.3362716 -0.106948875 0.19599722 -0.29513568 -0.30564794 0.46636632 -0.112804554
-0.029614963 -0.5435276 0.18722685 0.09799966 -0.37825167 0.082366236 -0.09312384 -0.024555856
-0.385382 -0.42567635 0.06870613 0.16424829 0.37010556 0.46307236 0.19617058 -0.27671748
0.013402729 0.18176283 0.347102 0.2841639 -0.08358858 -0.57657415 0.16802101 0.20263821
0.08142692 -0.2119927 0.0005997178 -0.06240741 -0.03225994 0.21679093 -0.20326039 -0.34513575
-0.049766358 -0.08697692 0.27556443 0.043412875 -0.003381549 0.16424294 0.13761543 -0.027004886
0.09821091 -0.072064124 -0.2276158 -0.113241166 -0.09877565 0.019939702 -0.07176831 0.0886477
0.15223415 0.059797823 0.080705985 -0.013822083 -0.12783504 0.061495595 0.018799175 0.14686187
00000000: 5590 d4be 15a5 ad3e c8aa ccbd ba56 df3c
00000010: c8db c23d 2eb8 8b3e db32 4fbe f4c6 47bd
00000020: e22c a2bd 1fad aa3e 271a 053e 01f7 c1bd
00000030: 3e58 283e f072 3c3e a1a4 09bc 557b c43e
00000040: ca8f 053e f442 9b3e 22c1 abbc 3383 dc3c
00000050: ef85 9abe aed4 c53c 7b3f 4b3e 13ef f13d
00000060: 3b50 0cbe f526 d73d 1776 9abe f83b c6be
00000070: 1caa f23d 6ecc f93d ef04 abbe 3a8e cf3d
00000080: ae46 26be 9410 483e 3a30 093d 34ed 533e
00000090: 23b5 f3bd 32b8 19be 9dcf 8dbd ac02 2dbc
000000a0: 5b06 2cbe eb52 423e adc9 17be d3a9 43be
000000b0: 125f 673d 663b 3cbe 292e 9fbd 5b6d 72bd
000000c0: d8c2 efbd e8b2 16be bc80 b7bc f6e3 483d
000000d0: 1756 adbd cb55 9e3d 1ffa 063e ddb9 97bd
000000e0: acae b53b fb09 adbd a02d aa3c a7d0 05be
000000f0: 05fa 883d 826a 35bd 486d 7b3b eafd 633d
00000100: 7233 2f3e 8beb 6dbe db00 fbbd 19f1 97bb
00000110: 0378 623e 4bfe 873e fc51 083e 1e0d 42be
00000120: 2e17 48bd 6664 2d3d 13f9 0a3f 940d 263e
00000130: b4d7 553e 3bba 6f3e 64d1 0a3e 48f8 963e
00000140: 38a4 1bbf c6a0 36be 313c b83a d6d3 0dbe
00000150: b531 923d 8a9f 74be 81b0 193e 71b0 8cbd
00000160: 23bc 68be 57ce 033f 80f0 f7bc 564d febb
00000170: 098c c1bc d0cc 083d eddf 97bd 3662 56be
00000180: fdb9 973c eaa8 2d39 5f37 573e 8c96 8ebe
00000190: c1cd b83e 81da a2bd 7eca 07bf bff8 b33e
000001a0: b551 ecbe 7da7 ccbd 43b3 4a3d 7026 b53e
000001b0: 6560 8e3e 08bb bf3d 2419 38be 585f 813e
000001c0: 8b11 633e ada3 9e3e 1311 91be e60e 32bd
000001d0: eda1 e3be f29f 873d c75f c9be 1cbe 143f
000001e0: e353 acbe c668 f33e 3412 99be 1667 51bd
000001f0: 27e4 0c3e 331b 513e a68e 41ba d1a6 6dbe
00000200: 38f1 c13e 01ac f0bd 32de 7dbc 4fe8 103e
00000210: 9f4e 21be ebcc 4abd 0924 93be 6f05 783d
00000220: 370c 26be 53f4 28be 08d9 873d c097 a8bd
00000230: c75f 0cbe b893 ac3e 1678 80be a320 0abe
00000240: 087f 86bd e71d 8dbe 4d35 16be a66b c03d
00000250: 2c38 1aba e17a 3b3e 5d6b 5bbe 58ea 393e
00000260: 41f8 b3be 91f7 ac3e f1c8 87be 0304 613e
00000270: 69e6 f13d b6c2 af3d ef65 97bd b65f d5be
00000280: c5ef 9bbd a5dc 00be 798c c2bd a2fd 473c
00000290: ba3e 383d 5e7d 773e a72a 5ebd 6d63 87be
000002a0: dc01 86bd 144d 80bd 700d 4ebc 71db c2bd
000002b0: c0e7 16be a29b 2b3e 3173 253d 8427 a73d
000002c0: c3f6 763c 5305 aabd d6d1 00be 8104 743d
000002d0: c243 873d 48d6 d03d 3805 b1be bda9 bc3c
000002e0: 0d12 b33c 09af 20be de6c 29be bfcc 0dbe
000002f0: 672d 7bbe 9bcb d33d e9e8 033e ae3c 4b3d
00000300: c96d 6c3f cb2b acbe 0308 dbbd 7fb3 483e
00000310: 061c 97be e37d 9cbe 91c7 ee3e 1306 e7bd
00000320: 149b f2bc a024 0bbf 65b8 3f3e 0cb4 c83d
00000330: 34aa c1be a1af a83d b6b7 bebd 5d29 c9bc
00000340: ca50 c5be 40f2 d9be cdb5 8c3d b430 283e
00000350: 7a7e bd3e d217 ed3e f1e0 483e eaad 8dbe
00000360: 1f97 5b3c 0920 3a3e 5ab7 b13e ee7d 913e
00000370: 7d30 abbd 5d9a 13bf b30d 2c3e 6480 4f3e
00000380: 28c3 a63d 9d14 59be 6136 1d3a ea9e 7fbd
00000390: 0023 04bd 71fe 5d3e 7e23 50be a2b5 b0be
000003a0: cfd7 4bbd f520 b2bd c816 8d3e b3d1 313d
000003b0: fa9c 5dbb 4d2f 283e 0feb 0c3e 5a39 ddbc
000003c0: cd22 c93d 5b96 93bd 1e14 69be fcea e7bd
000003d0: e34a cabd 9658 a33c 44fb 92bd ed8c b53d
000003e0: 45e3 1b3e 90ee 743d 2e49 a53d 0576 62bc
000003f0: 30e7 02be cee2 7b3d ba00 9a3c f562 163e
