experiments/pedestrians/models/models_14_Feb_2024_17_26_50_eth_vel_ar3/model_registrar-66.pt (torch, 527902 bytes, 43 tensors)

weight_ih_l0 f4 [128, 6]
0.09094453 0.10124809 -0.278549 -0.10085118 -0.08355788 -0.06322941 -0.20821421 -0.4057534
-0.060191087 0.21019757 0.11892083 -0.17929108 0.061970625 0.022835558 -0.3336055 -0.2513776
-0.29220122 -0.059899352 0.17115746 0.18646349 0.11883735 0.04454805 0.107298814 -0.02943425
-0.070441276 0.06185865 -0.2284337 -0.37973902 1.0145653 -1.7116929 0.21150348 0.13279542
0.27196538 -0.07795815 0.42724428 -0.34852496 -0.3883754 0.10910679 0.22740838 -0.26740962
0.082768165 -0.26426762 -0.37421784 -0.040230345 0.5243219 -0.11834745 0.14162785 -0.114380725
0.27409872 0.22241393 0.58147764 -0.42124575 0.4359114 -0.20027088 -0.08240665 -0.23878102
0.07270374 0.34398967 0.11603137 -0.14963207 0.12559652 -0.28830633 -0.4217194 0.44203383
-0.03630387 0.11183178 0.024632372 0.17024957 -0.5287411 -0.1679894 -1.2887675 -0.6608955
0.0040695164 -0.023106197 -0.2553204 0.2525591 0.12050029 -0.029682744 -0.1332566 0.043795764
0.46077248 0.3293074 0.49602273 0.37383893 0.055722475 -0.042757515 -0.80704665 0.037868124
-0.5963377 -0.07530255 -0.341729 0.16699249 0.5884422 0.05081506 -0.13499147 0.5057347
0.2670793 -0.06191754 -0.5585595 0.38961974 -0.6184253 0.095595874 0.12927723 -0.20476955
-0.20180264 0.2250893 0.038841568 0.079551324 0.18238282 -0.2744974 -0.2639335 0.5873755
-0.030732142 0.87151456 0.054455537 0.021211145 -0.4246373 0.09500475 -0.115643136 0.4056454
-0.3984112 0.387921 0.57022536 -0.45984262 0.30080223 -0.022000745 0.071712196 0.28840953
0.034368075 -0.33807075 0.037473112 0.058937684 -0.2133807 -0.44166228 0.1336923 0.13971895
0.28987822 0.062885486 -0.07353612 0.10711861 0.1637098 -0.19402012 0.038098965 -0.090228185
0.17624779 -0.035645347 -0.32875997 -0.2016501 -0.22258991 -0.24388638 -0.41511217 -0.16507664
0.0712215 0.19214535 0.19066258 0.040980894 0.011388497 0.3086493 -0.6903825 -0.6949274
-0.34858036 -0.0028428074 -0.21341811 0.060921118 0.67176956 0.56532276 0.94395053 1.0503225
0.2203877 -0.08978361 -0.33182448 0.27917752 0.12390336 0.1941021 -0.3428926 0.06143768
0.14429235 -0.41801715 0.23613423 -0.1296164 -0.1874367 -0.15370777 0.33424747 0.08924982
-0.06639518 -0.348284 -0.0881032 0.085376695 0.017510042 0.12947458 -0.22522807 -0.05538004
0.11835051 0.112801045 -0.1962731 -0.12281813 -0.1720116 -0.16946043 -0.01647615 -0.17608564
0.07827469 0.10191684 0.096177265 -0.15669882 -0.11588764 -0.048365444 -0.030271659 -0.04786476
-0.21051034 0.081975855 0.12017487 0.06605726 0.13014565 -0.16127299 -0.027662676 0.02462939
0.033094145 -0.10288606 0.20989397 -0.18340059 0.35242042 -0.024586903 0.2167867 -0.06297791
0.1502385 -0.21408162 -0.28058895 0.013624774 -0.05496388 -0.04549353 0.1799219 -0.12324826
-0.1778553 0.08053421 -0.12777503 -0.20175095 0.26460007 -0.07866935 -0.013533415 -0.17715609
0.3463434 0.000939917 0.014294792 -0.17977452 -0.078149505 -0.08767045 -0.1760858 -0.008373359
0.33270913 0.113663346 0.20984335 0.050467502 0.13151161 -0.30340743 -0.16064946 0.29710233
00000000: 2041 ba3d 295b cf3d f99d 8ebe 108b cebd
00000010: 6520 abbd 6c7e 81bd 1b36 55be e9be cfbe
00000020: ee8a 76bd 083e 573e c48c f33d 1598 37be
00000030: e9d4 7d3d a311 bb3c 57ce aabe 91b4 80be
00000040: 669b 95be 0659 75bd e743 2f3e 49f0 3e3e
00000050: ff60 f33d 0478 363d 7bbf db3d 1920 f1bc
00000060: 8443 90bd 7f5f 7d3d 86ea 69be 276d c2be
00000070: 47dd 813f c118 dbbf 5e94 583e 86fb 073e
00000080: 0c3f 8b3e 86a8 9fbd c3bf da3e dd71 b2be
00000090: 24d9 c6be 6173 df3d bedd 683e eae9 88be
000000a0: 5b82 a93d 164e 87be 7b99 bfbe 93c8 24bd
000000b0: f639 063f 2660 f2bd e406 113e 7140 eabd
000000c0: ab56 8c3e 7ac0 633e b8db 143f 86ad d7be
000000d0: c72f df3e cf13 4dbe d1c4 a8bd 0383 74be
000000e0: b3e5 943d 6a1f b03e dba1 ed3d 2639 19be
000000f0: 609c 003e e39c 93be 9beb d7be 4252 e23e
00000100: 5eb3 14bd 0f08 e53d d4c9 c93c e755 2e3e
00000110: 945b 07bf 6a05 2cbe 55f6 a4bf 7330 29bf
00000120: 9459 853b 3549 bdbc 5bb9 82be 6d4f 813e
00000130: dbc8 f63d 3a29 f3bc 6b74 08be 3063 333d
00000140: 5fea eb3e fb9a a83e b1f6 fd3e d167 bf3e
00000150: 403d 643d 8122 2fbd 9c9a 4ebf 9b1b 1b3d
00000160: 96a9 18bf 3938 9abd 1af7 aebe 1400 2b3e
00000170: 26a4 163f 7423 503d 343b 0abe d477 013f
00000180: 9ebe 883e 3f9d 7dbd c1fd 0ebf 3d7c c73e
00000190: 1f51 1ebf c5c7 c33d 4061 043e 1caf 51be
000001a0: 5aa5 4ebe cf7d 663e 5618 1f3d ceeb a23d
000001b0: 90c2 3a3e ec8a 8cbe 4b22 87be 3e5e 163f
000001c0: f9c1 fbbc 941b 5f3f c50c 5f3d ffc2 ad3c
000001d0: 0f6a d9be da91 c23d 4fd6 ecbd c1b0 cf3e
000001e0: 8efc cbbe 959d c63e 4afa 113f 7e70 ebbe
000001f0: c002 9a3e e83a b4bc d8dd 923d 6aaa 933e
00000200: 8ac5 0c3d 9c17 adbe 687d 193d a468 713d
00000210: 7880 5abe 8f21 e2be a2e6 083e 7c12 0f3e
00000220: eb6a 943e 1bca 803d 1b9a 96bd 0061 db3d
00000230: 8ba3 273e 36ad 46be a90d 1c3d 8ec9 b8bd
00000240: 4d7a 343e db00 12bd 3a53 a8be 5d7d 4ebe
00000250: 9cee 63be 5abd 79be 9589 d4be da09 29be
00000260: 94dc 913d c0c1 443e 0d3d 433e 95db 273d
00000270: d296 3a3c 4807 9e3e e8bc 30bf c3e6 31bf
00000280: 2079 b2be 654e 3abb 478a 5abe 6c88 793d
00000290: 17f9 2b3f feb8 103f bea6 713f f870 863f
000002a0: 50ad 613e 78e0 b7bd e6e4 a9be 5bf0 8e3e
000002b0: 0bc1 fd3d b3c2 463e 9e8f afbe 14a6 7b3d
000002c0: 60c1 133e 5806 d6be 2ccd 713e 29ba 04be
000002d0: 68ef 3fbe 9265 1dbe 7c22 ab3e 9cc8 b63d
000002e0: 32fa 87bd 4852 b2be 736f b4bd fad9 ae3d
000002f0: 3871 8f3c fc94 043e 30a2 66be 2ed6 62bd
00000300: c161 f23d 3c04 e73d d1fb 48be 1288 fbbd
00000310: cf23 30be 0987 2dbe fef8 86bc cb4f 34be
00000320: 7b4e a03d c7b9 d03d 96f8 c43d a875 20be
00000330: 8056 edbd d81a 46bd 45fc f7bc d70d 44bd
00000340: 0690 57be f5e2 a73d 3e1e f63d 0749 873d
00000350: e744 053e bf24 25be d69c e2bc 93c3 c93c
00000360: ba8d 073d edb5 d2bd 72ee 563e 5dcd 3bbe
00000370: 7370 b43e 796a c9bc 55fd 5d3e 90fa 80bd
00000380: 1fd8 193e 3638 5bbe 5ba9 8fbe 723a 5f3c
00000390: ce21 61bd 6c57 3abd 723d 383e 9569 fcbd
000003a0: b31f 36be 1fef a43d 75d7 02be cd97 4ebe
000003b0: a979 873e 651d a1bd 42bb 5dbc 6868 35be
000003c0: ec53 b13e c364 763a b434 6a3c d016 38be
000003d0: d90c a0bd 918c b3bd d64f 34be 6a30 09bc
000003e0: da58 aa3e 54c8 e83d 2de1 563e 03b7 4e3d
000003f0: fbaa 063e 3858 9bbe 4b81 24be cc1d 983e

weight_hh_l0 f4 [128, 32]
0.028665287 -0.21991634 0.01888302 0.106450684 -0.116633594 -0.0060428274 -0.09273847 -0.15356961
0.036872596 0.249425 -0.14621869 0.07783174 -0.13629185 0.21483496 0.1685783 0.09807276
0.22435834 -0.15674226 -0.05675012 0.0012930089 -0.19291429 -0.13415043 -0.081138134 -0.26370418
0.2848322 0.0690852 -0.07134624 0.3584637 0.1820835 0.029081224 0.17451766 -0.111381
0.09615973 -0.2680073 0.083217904 -0.09928941 -0.015772985 0.20317249 -0.044795144 -0.21196434
0.071240485 0.12114794 -0.3687859 -0.09616843 -0.2798936 0.18868396 0.09164436 -0.12790264
0.26018828 0.1204779 -0.2301319 0.033585787 -0.058044363 -0.15772012 -0.19528241 -0.16119726
0.15051454 0.12782839 -0.14592882 0.003908224 0.01334089 0.05952726 0.23628867 -0.08174169
0.11068564 -0.12749028 -0.11253388 0.12848392 0.09313072 0.12804392 -0.14243424 -0.17212312
-0.060277544 0.2120777 -0.27960986 0.03761073 -0.060225844 -0.14525273 0.10269507 -0.09165341
0.13060334 -0.13967685 0.14912963 -0.13516557 0.046018682 0.06605645 0.11003537 0.1447084
0.2737871 0.12838562 0.15906218 0.112465724 0.11636801 0.09817181 -0.07707847 0.050137233
-0.1189515 -0.049064446 -0.041586574 0.0616627 -0.09966688 0.027190072 -0.08201953 0.026680417
-0.060092777 0.18960656 -0.34975287 -0.10613377 -0.05041061 -0.07230439 -0.12453561 -0.16907214
0.068846755 0.0050746626 -0.24595003 -0.04947845 -0.06805275 -0.011707714 0.014410836 -0.026791595
0.13959187 0.12964033 -0.083023846 0.21090436 0.07225685 0.11174892 0.28006276 -0.09445416
-0.024493871 -0.06995674 0.18651184 -0.041501097 0.04780854 0.13423136 -0.14019184 0.21621388
0.29219455 -0.11260919 -0.23736772 -0.27330512 0.22659947 0.13575256 0.095783554 -0.055361137
-0.20329033 -0.45868722 0.08037622 0.06278832 0.11692482 0.371314 0.09608371 0.060145777
0.0780024 -0.26264465 -0.026742516 -0.35965258 0.0075237034 0.07708059 0.16545425 -0.23843089
0.10271658 -0.22677253 0.08849594 -0.12857665 -0.046345998 -0.09593961 0.2258602 -0.2604741
-0.07628252 0.009336239 0.21840942 -0.06996961 -0.21754023 0.07332248 -0.0016478642 -0.019229546
-0.058176734 0.2323836 -0.1859021 0.2274206 -0.08733778 -0.030458702 0.08349634 -0.21128854
0.10813663 0.078615904 0.16737792 0.18438424 0.059417225 -0.06435243 0.20531003 0.20901103
0.13729104 -0.062044933 -0.20021914 0.14156313 -0.06516911 -0.074504316 0.2667604 -0.32588327
-0.13901018 0.1401835 -0.06571251 -0.11885492 0.0058217086 0.30862877 0.07227223 0.013983443
0.049488038 -0.064806424 -0.035684478 -0.056183178 -0.09600399 0.26274315 0.17714454 -0.12268573
-0.02515801 0.24017283 0.11242962 0.17236647 -0.14103052 -0.009026099 -0.020031229 0.13502264
0.13871874 -0.27984154 0.048481293 0.1394675 -0.26304537 -0.033064317 0.29862562 -0.16982085
-0.057677835 -0.029450176 0.13318376 -0.008500793 -0.06883831 -0.024061684 0.0077671437 0.059851598
0.08427883 0.1586645 -0.14375502 0.016078351 -0.44369444 0.10932516 -0.06668005 -0.36986142
0.19951016 0.44184685 -0.20122705 0.2725858 0.10410314 -0.04203233 0.09273566 0.3387797
00000000: 77d3 ea3c c031 61be 90b0 9a3c d102 da3d
00000010: 98dd eebd e902 c6bb abed bdbd 5a41 1dbe
00000020: b807 173d 4469 7f3e 5aba 15be 3f66 9f3d
00000030: 1790 0bbe b2fd 5b3e ca9f 2c3e 5fda c83d
00000040: 31be 653e 0b81 20be d072 68bd 2e7a a93a
00000050: 538b 45be bb5e 09be c02b a6bd 3c04 87be
00000060: 87d5 913e 8b7c 8d3d fa1d 92bd 8e88 b73e
00000070: 1974 3a3e bf3b ee3c c2b4 323e b91b e4bd
00000080: 64ef c43d 4138 89be 266e aa3d 3f58 cbbd
00000090: 5936 81bc 730c 503e 1d7b 37bd 2e0d 59be
000000a0: 88e6 913d 691c f83d 81d1 bcbe f4f3 c4bd
000000b0: 374e 8fbe 5e36 413e 0ab0 bb3d e9f8 02be
000000c0: 6637 853e 1ebd f63d b2a7 6bbe 4091 093d
000000d0: edbf 6dbd 6281 21be 1df8 47be e510 25be
000000e0: 7c20 1a3e 72e5 023e 5d6e 15be 8f10 803b
000000f0: c093 5a3c dbd2 733d a8f5 713e 3068 a7bd
00000100: 27af e23d d08c 02be 2a78 e6bd 4a91 033e
00000110: 52bb be3d f21d 033e 48da 11be 0b41 30be
00000120: 96e5 76bd e62a 593e 0629 8fbe b50d 1a3d
00000130: 60af 76bd 22bd 14be cb51 d23d c8b4 bbbd
00000140: e2bc 053e 7307 0fbe 70b5 183e d868 0abe
00000150: 167e 3c3d 9b48 873d 395a e13d 702e 143e
00000160: d32d 8c3e 8577 033e 32e1 223e 6e54 e63d
00000170: 5a52 ee3d 4d0e c93d 51db 9dbd b35c 4d3d
00000180: d89c f3bd cdf7 48bd af56 2abd 0792 7c3d
00000190: 261e ccbd b7bd de3c dbf9 a7bd e490 da3c
000001a0: d823 76bd 3928 423e cf12 b3be a95c d9bd
000001b0: 5b7b 4ebd 5314 94bd 870c ffbd 3f21 2dbe
000001c0: 87ff 8c3d 5b49 a63b 53da 7bbe eaa9 4abd
000001d0: 3d5f 8bbd b6d1 3fbc 6d1b 6c3c 0c7a dbbc
000001e0: 2cf1 0e3e 6fc0 043e 6808 aabd 50f7 573e
000001f0: 66fb 933d 9edc e43d 6364 8f3e 2f71 c1bd
00000200: 5fa7 c8bc 7b45 8fbd f6fc 3e3e 0efd 29bd
00000210: e3d2 433d f273 093e 738e 0fbe 2c67 5d3e
00000220: 869a 953e a69f e6bd 8610 73be a6ee 8bbe
00000230: b109 683e b802 0b3e 2b2a c43d 5cc2 62bd
00000240: 572b 50be 0dd9 eabe 4a9c a43d 2a97 803d
00000250: 4876 ef3d de1c be3e 89c7 c43d 6b5b 763d
00000260: b9bf 9f3d 5c79 86be 1f13 dbbc 6224 b8be
00000270: 6689 f63b 6edc 9d3d d76c 293e 3a27 74be
00000280: 125d d23d 0f37 68be 5c3d b53d 99a9 03be
00000290: 4dd5 3dbd fc7b c4bd e547 673e dc5c 85be
000002a0: 033a 9cbd 06f7 183c b8a6 5f3e 3a4c 8fbd
000002b0: dec2 5ebe 192a 963d 26fd d7ba 4887 9dbc
000002c0: ba4a 6ebd f7f5 6d3e 1f5d 3ebe f2e0 683e
000002d0: 26de b2bd 8784 f9bc 2100 ab3d 065c 58be
000002e0: bd76 dd3d 6001 a13d 1e65 2b3e 39cf 3c3e
000002f0: 7a5f 733d 35cb 83bd cb3c 523e fd06 563e
00000300: 0696 0c3e d422 7ebd 3f06 4dbe edf5 103e
00000310: 6277 85bd b895 98bd d294 883e 2cda a6be
00000320: af58 0ebe 438c 0f3e 4894 86bd 356a f3bd
00000330: 08c4 be3b 9704 9e3e 7703 943d d01a 653c
00000340: f8b3 4a3d 3bb9 84bd e329 12bd 5520 66bd
00000350: bd9d c4bd 4586 863e 6165 353e a842 fbbd
00000360: 2c18 cebc deef 753e 8041 e63d d680 303e
00000370: 4e6a 10be 34e2 13bc 8818 a4bc 6043 0a3e
00000380: 490c 0e3e 6447 8fbe 5294 463d 91d0 0e3e
00000390: e2ad 86be 736e 07bd 75e5 983e 84e5 2dbe
000003a0: 983f 6cbd 7f41 f1bc 5361 083e e946 0bbc
000003b0: 1afb 8cbd 021d c5bc 8683 fe3b f326 753d
000003c0: 619a ac3d f278 223e 8434 13be bfb6 833c
000003d0: eb2b e3be dfe5 df3d 8d8f 88bd 7a5e bdbe
000003e0: 644c 4c3e c039 e23e 770e 4ebe 5e90 8b3e
000003f0: 0734 d53d 182a 2cbd 32ec bd3d 8874 ad3e

bias_ih_l0 f4 [128]
0.01693774 0.053549957 0.021665776 -0.0674567 -0.14415896 0.1653528 0.07139462 -0.16587433
-0.020242069 0.047738157 0.25003663 0.108561285 0.18224488 -0.08968022 0.08412309 -0.08859977
-0.02337791 0.14451478 -0.024844753 0.13132061 0.13053827 -0.019153882 0.095890105 -0.06602318
0.115510724 0.100253806 -0.04285841 0.012485994 -0.022102311 -0.0043972074 -0.08438214 0.12099176
0.066148356 -0.2589515 -0.23057921 0.032967888 -0.017377438 -0.16523096 -0.2503438 -0.14277796
-0.20771013 -0.078898154 -0.22002175 0.007765459 -0.1636324 0.16793048 -0.044473786 -0.12013478
0.04985475 -0.055933896 -0.16577588 0.082867585 -0.3035738 -0.07446135 -0.00553424 -0.035122633
-0.09165271 0.14382324 0.058491256 0.09506136 -0.034729887 -0.27044058 -0.2632841 -0.2674013
0.13897803 0.12778041 -0.06849507 0.034155555 -0.10116297 -0.0018842178 0.100270204 -0.040061887
-0.06288378 0.069674425 -0.07401295 0.02901884 -0.09344161 -0.022428231 -0.0276522 -0.09895891
-0.071245424 -0.1227744 0.098267704 -0.010984637 0.06783039 0.059652057 0.10182922 -0.124063134
0.116550244 -0.09328407 0.0681347 -0.08813775 -0.06925251 0.12924334 0.020323098 -0.057735506
0.22905171 0.03777847 0.0662228 0.0014308599 0.19543643 0.12362896 0.10489101 -0.14111404
-0.12064502 0.11545112 0.0190912 0.11298981 0.1487456 -0.07763044 0.12463827 0.08377147
0.1034481 0.08796999 0.07024515 0.01513411 0.2551271 0.0033423172 0.07554316 -0.006401379
-0.07132924 0.13546574 0.102586135 -0.015151785 0.116111115 0.21010487 -0.00843249 0.09820152
00000000: 04c1 8a3c 3357 5b3d 6d7c b13c bd26 8abd
00000010: 689e 13be 3f52 293e 5837 923d f6da 29be
00000020: b2d2 a5bc 1689 433d cd04 803e 6155 de3d
00000030: 679e 3a3e 43aa b7bd ba48 ac3d cc73 b5bd
00000040: 0883 bfbc affb 133e 3987 cbbc e978 063e
00000050: d3ab 053e 9ae8 9cbc 0862 c43d 2937 87bd
00000060: e390 ec3d de51 cd3d 4d8c 2fbd 0e92 4c3c
00000070: e80f b5bc 7316 90bb 8bd0 acbd 87ca f73d
00000080: ca78 873d 4a95 84be f51c 6cbe 5609 073d
00000090: 215b 8ebc 4e32 29be 102d 80be 6334 12be
000000a0: f7b1 54be 5b95 a1bd 624d 61be 6475 fe3b
000000b0: 408f 27be f8f5 2b3e 252a 36bd 3909 f6bd
000000c0: 7f34 4c3d f11a 65bd 27c1 29be 7bb6 a93d
000000d0: 066e 9bbe 317f 98bd 9258 b5bb c0dc 0fbd
000000e0: 6bb4 bbbd 6646 133e 8794 6f3d 88af c23d
000000f0: ed40 0ebd 3077 8abe 2ccd 86be d3e8 88be
00000100: 4250 0e3e ded8 023e 2547 8cbd b2e6 0b3d
00000110: 882e cfbd dcf7 f6ba 775a cd3d ef17 24bd
00000120: 36c9 80bd 77b1 8e3d 1a94 97bd ebb8 ed3c
00000130: 515e bfbd 69bb b7bc de86 e2bc f8aa cabd
00000140: 1fe9 91bd 2571 fbbd 9440 c93d e8f8 33bc
00000150: a9ea 8a3d b755 743d d78b d03d d014 febd
00000160: e5b1 ee3d b80b bfbd 358a 8b3d 9181 b4bd
00000170: 43d4 8dbd 5e58 043e a07c a63c 117c 6cbd
00000180: 888c 6a3e 99bd 1a3d d29f 873d b18b bb3a
00000190: 7d20 483e 2e31 fd3d 19d1 d63d 3380 10be
000001a0: bc14 f7bd a371 ec3d 2665 9c3c 3467 e73d
000001b0: c450 183e b5fc 9ebd 5942 ff3d 6090 ab3d
000001c0: 99dc d33d 9c29 b43d b0dc 8f3d 0ff5 773c
000001d0: 05a0 823e c70a 5b3b 5fb6 9a3d a9c2 d1bb
000001e0: 1115 92bd 88b7 0a3e ae18 d23d 313f 78bc
000001f0: aacb ed3d bb25 573e 6d28 0abc e11d c93d

bias_hh_l0 f4 [128]
-0.027352434 0.06665764 -0.11212475 0.094026394 -0.00038340897 -0.07854749 -0.030255396 0.011690103
0.06489562 0.21263409 -0.006417733 -0.016265772 -0.056048382 0.20458837 0.124686174 0.07182078
-0.11034508 0.1370749 -0.12053606 0.087043256 0.27821586 0.16156268 0.12441593 -0.0017252229
0.017171782 0.08512512 0.030696334 -0.07909586 -0.10372821 -0.013740215 -0.014863014 0.17118266
-0.022610739 -0.23286194 0.0071104667 -0.17317635 0.29098824 -0.0023880824 -0.10940172 -0.28760445
-0.13482426 -0.13512002 -0.20108716 -0.053423483 -0.1664147 -0.011505586 0.06148096 -0.070022576
-0.08094333 -0.123857476 -0.13742319 -0.09841805 -0.1596677 -0.23725714 -0.22859986 -0.06310987
-0.29523456 -0.16480532 -0.1950454 0.03436836 -0.06295097 -0.036525015 -0.13119979 0.033989646
-0.14428096 -0.14099276 0.10158433 -0.021475405 0.15549776 0.030436879 -0.08587233 0.0068288813
0.078374036 -0.023943802 0.05381979 0.046312332 0.08727178 0.044016086 -0.10535724 0.047299534
0.021696024 0.119615994 0.023714751 -0.1375663 -0.089144684 -0.00080107804 -0.14176531 0.12401492
-0.121946864 0.012356527 0.071101665 0.026708499 -0.05779769 -0.14940119 -0.004225991 0.04626013
0.11401287 0.17210297 -0.089877225 0.22874284 0.29405132 0.027017733 0.3034708 0.16947912
-0.1746454 0.13780156 0.26035857 0.18988185 0.1609071 0.11555145 0.04449256 0.09163537
0.12194078 -0.04882154 0.17534065 -0.108355224 0.21817537 0.19443679 0.22731915 0.12618755
0.11649894 0.111114524 0.15450008 -0.00894822 -0.013229694 0.20456272 0.018585745 0.29894045
00000000: 3612 e0bc cd83 883d a9a1 e5bd e990 c03d
00000010: 4804 c9b9 82dd a0bd 2ada f7bc d987 3f3c
00000020: ffe7 843d c0bc 593e d94b d2bb cc3f 85bc
00000030: fd92 65bd 9d7f 513e 775b ff3d c616 933d
00000040: 9afc e1bd 5d5d 0c3e 9cdb f6bd bc43 b23d
00000050: 4f72 8e3e b070 253e c7cd fe3d e020 e2ba
00000060: d6ab 8c3c 1456 ae3d e176 fb3c 03fd a1bd
00000070: 756f d4bd a41e 61bc 0084 73bc 824a 2f3e
00000080: 283a b9bc 5c73 6ebe ebfe e83b 2455 31be
00000090: 69fc 943e 6081 1cbb 020e e0bd e440 93be
000000a0: 5f0f 0abe e75c 0abe cbe9 4dbe 95d2 5abd
000000b0: 9d68 2abe ed81 3cbc 76d3 7b3d ff67 8fbd
000000c0: 9ec5 a5bd fda8 fdbd aab8 0cbe 678f c9bd
000000d0: ee7f 23be 89f3 72be 1516 6abe bf3f 81bd
000000e0: fc28 97be bac2 28be fbb9 47be d6c5 0c3d
000000f0: 70ec 80bd 419b 15bd 3d59 06be ba38 0b3d
00000100: 63be 13be 6860 10be 720b d03d 30ed afbc
00000110: ce3a 1f3e c356 f93c d5dd afbd cfc4 df3b
00000120: 9182 a03d cb25 c4bc 2472 5c3d 00b2 3d3d
00000130: 8cbb b23d 364a 343d 89c5 d7bd 28bd 413d
00000140: dcbb b13c 3bf9 f43d 7045 c23c 2ede 0cbe
00000150: 7d91 b6bd 70ff 51ba ed2a 11be 89fb fd3d
00000160: 47bf f9bd 0873 4a3c c09d 913d c8cb da3c
00000170: 45bd 6cbd a0fc 18be 2f7a 8abb 437b 3d3d
00000180: 947f e93d c33b 303e 8d11 b8bd 903b 6a3e
00000190: e58d 963e 4b54 dd3c 8660 9b3e ef8b 2d3e
000001a0: 3ed6 32be da1b 0d3e b84d 853e 6370 423e
000001b0: d5c4 243e 3da6 ec3d d53d 363d 53ab bb3d
000001c0: 16bc f93d 18f9 47bd 808c 333e 58e9 ddbd
000001d0: 5d69 5f3e 701a 473e 5ac6 683e 4f37 013e
000001e0: ff96 ee3d 0390 e33d 4535 1e3e 8e9b 12bc
000001f0: 5cc1 58bc e478 513e 2241 983c b90e 993e

weight_ih_l0 f4 [128, 2]
0.12611075 0.08245894 0.09947943 0.08171252 0.15786713 0.05099391 -0.18254997 0.008472486
-0.087532215 -0.31290668 0.13482082 0.11655955 -0.11171428 0.16670042 -0.32882017 0.018298894
0.17534237 -0.14069554 -0.2230296 0.059727937 -0.023387408 -0.06399305 0.16359238 -0.057313845
0.11496056 -0.30986252 -0.12880036 -0.010305087 -0.25695387 0.091112584 0.010046048 0.049262885
-0.17764764 0.17133357 -0.06801396 0.30096292 0.020821294 0.20341183 0.19751553 0.0886626
0.33748984 -0.013694114 0.23773836 0.44997033 0.28457 0.20879427 -0.4862459 0.21095444
-0.038555376 0.08629691 0.1301302 -0.27075124 -0.0787555 0.27461106 -0.20584162 -0.16742745
0.010161418 -0.069174916 0.062299844 0.29190278 0.3510708 0.02994575 0.10433116 -0.3815137
0.05673344 -0.18910822 -0.062656224 -0.27812186 -0.0812257 0.084609106 0.08245072 0.38548443
0.20738328 0.18662736 -0.43369126 0.22261764 -0.5383875 -0.0035198012 0.3548535 0.117341645
-0.04389712 -0.0899708 -0.11249166 -0.32464337 -0.1162221 -0.13840167 -0.23428847 0.15690255
-0.5019872 -0.07673134 0.44093424 0.43542 -0.25846323 -0.28788602 0.20026644 0.042685617
0.110295795 -0.011359796 0.023421705 -0.2905189 0.09805862 0.5704846 -0.5263692 0.15059087
-0.43913242 -0.13933966 0.22446774 0.08646183 0.094115496 0.2913884 0.008166959 -0.5303371
-0.27391806 -0.17651094 0.30221277 0.10546727 0.2488641 -0.2586806 -0.13701247 0.31790292
0.046544034 -0.38913497 -0.23312108 0.5187849 0.26423922 -0.051264014 0.038142987 0.3169349
-0.034335475 0.22461091 -0.27205223 -0.35299587 -0.30277202 -0.27202982 -0.08217866 -0.33652943
-0.285448 0.20583065 0.18136442 -0.4017494 -0.035893407 -0.0675738 0.31315297 -0.09969385
0.5964154 0.17183313 -0.002369938 0.73624647 0.3212822 0.44294405 -0.58264726 0.23934571
-0.3771693 -0.010783747 0.2509147 0.21997894 -0.3281055 -0.4797192 -0.3462915 0.21787237
0.014063911 0.1722861 -0.47414932 0.35812333 0.03971806 0.4990054 0.34339395 -0.14549415
-0.27474144 -0.0057208454 -0.4377069 0.29481167 -0.07515509 -0.4926388 0.14635627 -0.042392068
0.21938287 0.25546366 -0.15836923 0.3073549 -0.6084841 0.28933963 0.2708729 0.17357513
0.46591252 0.2277246 0.11460618 0.036442213 0.32032412 0.17661487 -0.08216244 -0.47350913
-0.08567159 -0.16738138 0.16988395 0.013216625 0.13037501 -0.012805106 0.22263867 0.13057674
-0.018707959 -0.20160215 -0.22725035 0.21141112 -0.34528238 -0.16803259 -0.05066784 -0.08391638
-0.021291245 0.08392136 -0.25202465 -0.35576472 0.13979252 -0.09300482 0.11073452 -0.01610172
0.38313782 0.13231777 0.17032999 0.19622466 -0.18791908 0.1499641 0.13291198 -0.028744185
-0.08544163 0.12640859 -0.09728157 -0.16556363 -0.03758713 -0.08638258 0.22344218 0.30109203
0.08217525 -0.08704291 0.037151154 0.48036224 0.17292744 0.09349896 -0.14488864 -0.2642752
0.19157381 0.092979506 0.17767832 -0.30439 0.0261634 -0.21448845 0.048413064 0.01404289
0.023274768 -0.14863382 -0.14427154 0.26364675 0.2176588 -0.07340604 0.19905315 -0.25790507
00000000: 2d23 013e 3ce0 a83d dfbb cb3d e558 a73d
00000010: eca7 213e fdde 503d 61ee 3abe 2fd0 0a3c
00000020: 1744 b3bd 4e35 a0be 780e 0a3e c6b6 ee3d
00000030: 75ca e4bd 84b3 2a3e 1e5b a8be 90e7 953c
00000040: f38c 333e 7e12 10be df61 64be 48a5 743d
00000050: f396 bfbc ca0e 83bd c384 273e ecc1 6abd
00000060: 7170 eb3d 4da6 9ebe 3ee4 03be abd6 28bc
00000070: 758f 83be 3c99 ba3d 2e98 243c e1c7 493d
00000080: 43e9 35be 1172 2f3e e74a 8bbd d017 9a3e
00000090: 6b91 aa3c 314b 503e 8341 4a3e bd94 b53d
000000a0: 78cb ac3e 475d 60bc af71 733e 8362 e63e
000000b0: 29b3 913e 2ace 553e 39f5 f8be 7104 583e
000000c0: 3eec 1dbd 6fbc b03d da40 053e e89f 8abe
000000d0: 904a a1bd d299 8c3e 25c8 52be 1a72 2bbe
000000e0: 137c 263c 94ab 8dbd 1f2e 7f3d 4874 953e
000000f0: 8dbf b33e ca50 f53c 93ab d53d c455 c3be
00000100: 5361 683d 96a5 41be e851 80bd fd65 8ebe
00000110: a959 a6bd 8a47 ad3d ecdb a83d 375e c53e
00000120: 485c 543e 3e1b 3f3e c80c debe e1f5 633e
00000130: c3d3 09bf 77ac 66bb 5caf b53e d150 f03d
00000140: 77cd 33bd 9c42 b8bd 0762 e6bd a837 a6be
00000150: da05 eebd 2bb9 0dbe 51e9 6fbe 10ab 203e
00000160: 3c82 00bf 5225 9dbd 22c2 e13e 5fef de3e
00000170: 4b55 84be cc65 93be a512 4d3e 1dd7 2e3d
00000180: c3e2 e13d 701e 3abc e0de bf3c e5be 94be
00000190: f5d2 c83d 470b 123f 22c0 06bf 7e34 1a3e
000001a0: f7d5 e0be 0eaf 0ebe dfda 653e e612 b13d
000001b0: a0bf c03d dc30 953e b5ce 053c 2cc4 07bf
000001c0: fd3e 8cbe 49bf 34be a2bb 9a3e 39ff d73d
000001d0: 3bd6 7e3e c971 84be ff4c 0cbe 2cc4 a23e
000001e0: f5a4 3e3d b33c c7be 4bb7 6ebe 16cf 043f
000001f0: 5d4a 873e 37fa 51bd d23b 1c3d 4b45 a23e
00000200: 5ba3 0cbd 6700 663e 6e4a 8bbe e0bb b4be
00000210: ef04 9bbe 7e47 8bbe 494d a8bd 964d acbe
00000220: 3e26 92be 45c5 523e 98b7 393e 19b2 cdbe
00000230: f704 13bd 2264 8abd 9655 a03e 4a2c ccbd
00000240: aeae 183f 06f5 2f3e f650 1bbb a67a 3c3f
00000250: 1a7f a43e 90c9 e23e 5f28 15bf 0b17 753e
00000260: 561c c1be 50ae 30bc e477 803e 2942 613e
00000270: 72fd a7be c19d f5be 1f4d b1be ef19 5f3e
00000280: 516c 663c c46b 303e b3c3 f2be f15b b73e
00000290: 68af 223d a37d ff3e 55d1 af3e 6bfc 14be
000002a0: e9aa 8cbe ee75 bbbb 1e1b e0be 8ef1 963e
000002b0: e9ea 99bd 273b fcbe 6bde 153e 4ea3 2dbd
000002c0: e7a5 603e 22cc 823e 8b2b 22be 9f5d 9d3e
000002d0: 9dc5 1bbf 5324 943e daaf 8a3e aebd 313e
000002e0: 168c ee3e a330 693e a5b6 ea3d 6e44 153d
000002f0: 8601 a43e 87da 343e c844 a8bd ca6f f2be
00000300: 9674 afbd 0666 2bbe 0ff6 2d3e 8b8a 583c
00000310: 0781 053e 82cc 51bc 64fb 633e e9b5 053e
00000320: 6f41 99bc cb70 4ebe 51b4 68be 287c 583e
00000330: dac8 b0be bc10 2cbe 1589 4fbd 5adc abbd
00000340: fa6a aebc f6de ab3d 6009 81be cb26 b6be
00000350: c525 0f3e 5079 bebd c8c8 e23d c1e7 83bc
00000360: a42a c43e 4f7e 073e fc6a 2e3e 1eef 483e
00000370: dc6d 40be 3090 193e 141a 083e ed78 ebbc
00000380: 05fc aebd 4171 013e 8f3b c7bd 8389 29be
00000390: f6f4 19bd 5ae9 b0bd 07ce 643e bc28 9a3e
000003a0: 7f4b a83d 8e43 b2bd cf2b 183d 0af2 f53e
000003b0: e413 313e 627c bf3d b05d 14be 144f 87be
000003c0: ed2b 443e 0a6c be3d 4ef1 353e 02d9 9bbe
000003d0: a054 d63c dca2 5bbe c74c 463d 2614 663c
000003e0: baaa be3c 7733 18be ebbb 13be b5fc 863e
000003f0: f3e1 5e3e e855 96bd 97d4 4b3e 220c 84be

weight_hh_l0 f4 [128, 32]
-0.05831302 0.06577371 -0.13168158 0.06216472 0.041812714 -0.09481993 -0.26085848 -0.024836423
-0.20945726 -0.06735636 0.059251714 0.1899327 0.17511176 0.15538052 -0.08413737 -0.07407471
0.09928172 0.021160431 0.2628037 -0.13349424 0.11474918 -0.16860247 -0.3046426 0.14283474
-0.23361138 0.23501387 -0.17024907 0.1718861 0.116844475 -0.17246383 -0.15280409 -0.014428119
0.015999757 -0.122968845 -0.38412473 -0.14477624 0.108785994 0.009920912 -0.4042718 -0.06306472
0.2339917 0.20422538 0.44020045 0.012334422 -0.08435094 0.43200943 -0.05457184 -0.18839698
0.07672165 0.16989362 0.3437115 0.10815537 0.16892141 -0.27573016 -0.12637858 0.13198085
0.08980634 -0.029327342 -0.14887592 -0.0022274056 0.07680811 0.022936225 0.108140066 -0.43638316
-0.1047499 0.25196928 0.13243075 -0.06893922 -0.27055648 -0.12986349 -0.15856947 0.09320709
0.03432311 -0.25626364 -0.13752066 0.04472294 0.13466461 0.49061263 0.2567254 0.006039703
0.06266426 0.040133256 0.060971837 -0.26126686 0.10128692 -0.12005444 -0.10045948 0.22409861
-0.28928474 0.027297286 -0.3103108 0.26407248 -0.28910705 -0.118839525 0.2902587 -0.5206859
0.14022857 -0.09709526 0.17897347 -0.08084659 0.12586907 0.067134574 0.20722593 0.15644324
0.3638165 0.11974905 0.03921142 0.043731634 0.08220046 -0.065304115 -0.0811222 -0.09976267
-0.14972162 -0.31036997 -0.055669658 -0.099207364 -0.07548076 0.16991208 0.12356062 -0.014059346
0.023520311 0.3033537 -0.09654836 0.42083552 -0.05361167 -0.1439258 0.054869775 -0.088862956
-0.23415884 0.05471305 0.14382276 0.25835812 -0.12064088 0.5038693 0.37068948 0.0533915
0.37015763 0.03041434 -0.21992321 -0.07842546 -0.10970717 0.09549375 0.25980613 -0.08044556
-0.3594243 -0.75087196 -0.3226955 0.22562915 0.04939949 0.075952716 0.6253952 -0.07962755
-0.157936 0.1392163 -0.4173121 0.21225321 -0.13260901 0.16236676 0.0136565305 0.1355814
-0.090309456 -0.08135069 -0.3212017 -0.22895478 0.14737427 0.15266792 -0.1998008 0.25289872
0.40195453 -0.36240366 -0.10674499 0.3155377 0.08786357 0.037505675 0.19197518 -0.16196963
-0.2309287 -0.19716169 -0.022866178 0.11169877 -0.077017106 -0.27409452 -0.13270655 0.23508489
0.112290144 0.26441264 -0.08550654 0.3700769 -0.014551443 -0.37549183 0.4674228 -0.09888626
0.2743602 -0.256432 -0.47786754 -0.29728395 0.15832628 -0.24468537 0.024231361 0.10735792
0.3221073 0.31849372 0.43774614 0.01899215 -0.11415194 0.29874694 -0.4662661 -0.20494653
0.008787844 0.26866317 0.26990795 -0.014162559 0.030253086 0.2556362 -0.44632408 -0.0005524402
0.19886878 0.049539167 -0.20160188 -0.016633157 0.40530872 -0.17584306 -0.05502567 -0.07206672
0.26027516 0.11092538 0.48090857 0.06913215 0.19487296 -0.35745338 0.24519552 -0.08288359
-0.8127461 -0.11085776 -0.3222937 0.29162112 0.72074765 -0.16495389 0.052088436 0.37490466
0.15082051 0.43601763 -0.12358355 -0.012255193 -0.0018561678 0.1620618 -0.07747945 -0.16253583
0.037765507 -0.05235886 0.5826345 0.124332055 -0.1662085 0.07973104 -0.06509344 0.1342721
00000000: a2d9 6ebd 5eb4 863d 89d7 06be 6fa0 7e3d
00000010: cf43 2b3d f430 c2bd 3e8f 85be c175 cbbc
00000020: f77b 56be 22f2 89bd edb1 723d b87d 423e
00000030: 7f50 333e 121c 1f3e 3750 acbd 7bb4 97bd
00000040: 3754 cb3d a458 ad3c 358e 863e b7b2 08be
00000050: 9e01 eb3d 20a6 2cbe 1dfa 9bbe 4543 123e
00000060: d237 6fbe 7aa7 703e c655 2ebe e902 303e
00000070: 284c ef3d 5c9a 30be ad78 1cbe eb63 6cbc
00000080: ec11 833c 17d7 fbbd ffab c4be 3940 14be
00000090: 31cb de3d 528b 223c b7fc cebe 1328 81bd
000000a0: 859b 6f3e 7520 513e f461 e13e 5116 4a3c
000000b0: 30c0 acbd 5730 dd3e b986 5fbd 23eb 40be
000000c0: 3e20 9d3d 98f8 2d3e f4fa af3e 9080 dd3d
000000d0: bcf9 2c3e 812c 8dbe 6369 01be fd25 073e
000000e0: 63ec b73d e53f f0bc ee72 18be aaf9 11bb
000000f0: 924d 9d3d c0e4 bb3c 8a78 dd3d 9d6d dfbe
00000100: 1e87 d6bd 1e02 813e ed9b 073e 0130 8dbd
00000110: 6186 8abe effa 04be 0960 22be 5ce3 be3d
00000120: 6496 0c3d fd34 83be 37d2 0cbe 672f 373d
00000130: 85e5 093e 9431 fb3e 8371 833e b3e8 c53b
00000140: 1f56 803d c562 243d 9bbd 793d c5c4 85be
00000150: 846f cf3d 1adf f5bd b3bd cdbd 1b7a 653e
00000160: 211d 94be 8f9e df3c 0fe1 9ebe 8234 873e
00000170: d705 94be 2362 f3bd ca9c 943e ac4b 05bf
00000180: 1498 0f3e e1d9 c6bd d244 373e e692 a5bd
00000190: d2e3 003e da7d 893d 0933 543e a832 203e
000001a0: 2846 ba3e fd3e f53d 279c 203d f11f 333d
000001b0: b758 a83d 2abe 85bd 6523 a6bd 5f50 ccbd
000001c0: a050 19be d0e8 9ebe de05 64bd 3b2d cbbd
000001d0: a895 9abd 6ffd 2d3e 5a0d fd3d 2c59 66bc
000001e0: abad c03c 2d51 9b3e 26bb c5bd c177 d73e
000001f0: e997 5bbd 4961 13be 21bf 603d c8fd b5bd
00000200: 56c7 6fbe cb1a 603d 4646 133e 8447 843e
00000210: 9112 f7bd 94fd 003f 03cb bd3e 0cb1 5a3d
00000220: 4d85 bd3e 7e27 f93c 8d33 61be 879d a0bd
00000230: 27ae e0bd 3a92 c33d 4f05 853e a4c0 a4bd
00000240: 7606 b8be 2539 40bf 5838 a5be 540b 673e
00000250: 1f57 4a3d 198d 9b3d e619 203f c513 a3bd
00000260: fab9 21be b88e 0e3e eea9 d5be e858 593e
00000270: a8ca 07be 7943 263e a4bf 5f3c dad5 0a3e
00000280: 2af4 b8bd 319b a6bd 8d74 a4be 1f73 6abe
00000290: 48e9 163e fb54 1c3e 9598 4cbe f17b 813e
000002a0: fccc cd3e f98c b9be 1e9d dabd 288e a13e
000002b0: d1f1 b33d 8d9f 193d 2495 443e 5edb 25be
000002c0: 9378 6cbe c1e4 49be da51 bbbc 53c2 e43d
000002d0: 25bb 9dbd 1e56 8cbe 3ae4 07be 18ba 703e
000002e0: 60f8 e53d 1861 873e 0e1e afbd b87a bd3e
000002f0: 2d69 6ebc 7740 c0be 0b52 ef3e e184 cabd
00000300: f178 8c3e 0e4b 83be 0eab f4be 9a35 98be
00000310: 4920 223e cd8e 7abe d980 c63c 78de db3d
00000320: 3feb a43e 9c11 a33e 4320 e03e 6d95 9b3c
00000330: 7ec8 e9bd 5cf5 983e 6eba eebe 81dd 51be
00000340: e4fa 0f3c 388e 893e 6031 8a3e 140a 68bc
00000350: 52d5 f73c bfe2 823e 9784 e4be a2d1 10ba
00000360: 42a4 4b3e 95e9 4a3d b970 4ebe 4242 88bc
00000370: a084 cf3e 3410 34be 9962 61bd b797 93bd
00000380: c942 853e d82c e33d a639 f63e 2895 8d3d
00000390: c78c 473e 2104 b7be 8914 7b3e dfbe a9bd
000003a0: 2110 50bf 6509 e3bd ae03 a5be 5d4f 953e
000003b0: eb82 383f ace9 28be af5a 553d 81f3 bf3e
000003c0: b170 1a3e b43d df3e 5f19 fdbd 01ca 48bc
000003d0: a84a f3ba 87f3 253e 8cad 9ebd cb6f 26be
000003e0: 01b0 1a3d 3e76 56bd 8927 153f cea1 fe3d
000003f0: 9032 2abe 074a a33d b64f 85bd a07e 093e

bias_ih_l0 f4 [128]
-0.027497092 -0.06470607 0.106527686 0.10358033 -0.0063370615 0.14578748 0.14437084 -0.1268517
0.042318035 0.13554676 -0.062627956 -0.11449029 0.03964514 0.15667364 -0.18341483 0.025533179
0.01828537 0.14532436 0.27476326 -0.022770008 0.2049548 -0.044832163 -0.08279327 -0.09944302
-0.006121897 -0.055376932 0.10283673 0.0058460925 0.13012396 0.08043964 0.24180788 0.07713772
0.17033315 -0.13317636 -0.11333506 -0.107218266 0.011758384 0.10719076 0.09033355 0.2226227
0.19919282 0.3422776 0.07801046 0.22855738 -0.0984256 0.14926285 -0.02891689 -0.084762506
-0.040305573 0.26337725 0.30891073 0.15253377 0.15853164 0.14973326 -0.12737985 0.043339733
-0.024453092 0.09013861 0.15498911 0.1990435 -0.17236997 0.10288146 0.017855123 -0.00065820134
-0.19708937 0.24778236 0.19919889 -0.14422414 0.1773352 0.029635739 0.30170697 0.1725578
0.09903664 -0.11103986 0.5094513 0.059464727 0.1428567 0.37170863 0.1279614 -0.3911073
-0.46902552 -0.22521976 0.30036584 -0.10651327 0.16217269 -0.3405073 0.049286712 0.2304405
-0.2968253 0.06207143 0.15224549 0.106146604 -0.49482158 0.06433039 -0.152424 -0.68838847
-0.0062801046 0.17146374 0.23655085 0.14938186 0.16237575 0.25403988 0.2796663 0.11335879
0.07385586 0.33909437 0.09470651 -0.09678478 -0.047757227 0.23051351 0.054622583 0.093505815
0.1310485 -0.05337733 0.26077902 0.16801028 -0.0042353286 0.1617452 0.048599385 -0.07756845
0.23646514 0.031035004 0.33996946 -0.05734433 -0.096434034 0.066759266 0.17809387 0.009196644
00000000: 9541 e1bc 9e84 84bd 302b da3d ed21 d43d
00000010: 20a7 cfbb 5049 153e f3d5 133e 69e5 01be
00000020: ad55 2d3d c5cc 0a3e 1643 80bd e379 eabd
00000030: f162 223d 0e6f 203e 19d1 3bbe f52a d13c
00000040: 33cb 953c e9cf 143e c5ad 8c3e 2b88 babc
00000050: acdf 513e eea1 37bd 858f a9bd c8a8 cbbd
00000060: 329a c8bb ecd2 62bd 109c d23d 9490 bf3b
00000070: 373f 053e 8abd a43d 7c9c 773e 62fa 9d3d
00000080: d06b 2e3e 625f 08be 361c e8bd 4095 dbbd
00000090: 3da6 403c d486 db3d cc00 b93d 34f7 633e
000000a0: 34f9 4b3e 023f af3e f3c3 9f3d f20a 6a3e
000000b0: 5c93 c9bd 5cd8 183e 1de3 ecbc f797 adbd
000000c0: 7517 25bd 62d9 863e 8c29 9e3e d031 1c3e
000000d0: 1e56 223e ad53 193e dd6f 02be 0185 313d
000000e0: da51 c8bc 979a b83d 77b5 1e3e 0fd2 4b3e
000000f0: c181 30be 84b3 d23d e844 923c 258b 2cba
00000100: ccd1 49be a9ba 7d3e cbfa 4b3e 7eaf 13be
00000110: 5c97 353e a6c6 f23c 5679 9a3e feb2 303e
00000120: b9d3 ca3d de68 e3bd 676b 023f 4991 733d
00000130: 0749 123e 9850 be3e 5008 033e 373f c8be
00000140: 1d24 f0be 02a0 66be 8dc9 993e a123 dabd
00000150: 9910 263e f956 aebe dde0 493d 98f8 6b3e
00000160: 7cf9 97be 9d3e 7e3d 3ee6 1b3e 6463 d93d
00000170: 4159 fdbe a7bf 833d 0915 1cbe 3a3a 30bf
00000180: 56c9 cdbb 3194 2f3e 633a 723e 8ff7 183e
00000190: d445 263e 8411 823e 6c30 8f3e a728 e83d
000001a0: be41 973d c79d ad3e 7df5 c13d 1937 c6bd
000001b0: 159d 43bd bc0b 6c3e eebb 5f3d fa7f bf3d
000001c0: 9431 063e 30a2 5abd d484 853e e30a 2c3e
000001d0: 83c8 8abb 89a0 253e 2610 473d 35dc 9ebd
000001e0: eb23 723e 1f3d fe3c 7a10 ae3e e3e1 6abd
000001f0: 357f c5bd 15b9 883d 3d5e 363e 85ad 163c

bias_hh_l0 f4 [128]
0.20154196 0.19478206 0.03671561 -0.0653506 0.08769692 0.23346819 -0.10224832 -0.022767212
0.12099485 0.20767769 0.14242877 0.09426389 0.040186603 0.1659591 0.04586916 0.07660788
-0.03276152 0.06620211 0.18452045 -0.0677317 0.21001935 0.06460211 0.21159044 -0.17292047
-0.11311934 -0.13853505 0.06707833 -0.090328924 0.15596633 0.104648314 0.10099335 0.10610879
0.0361262 0.08783674 0.010589564 -0.0028103832 0.022170562 -0.059675064 -0.032773037 -0.0673479
-0.06245086 0.16358355 -0.003321077 0.12280255 0.04611885 0.16235545 -0.18536115 -0.15868779
0.027160648 0.0032814723 0.16390832 -0.034649737 0.15093838 0.072855175 0.01745675 -0.10423456
-1.8038949e-05 0.13504282 0.06571546 -0.019912777 0.026079113 -0.089391075 -0.10168143 0.17629477
-0.017801015 0.26572564 0.010486124 -0.11104645 0.2508308 -0.17162576 0.09750711 0.17188798
-0.16169402 0.111619376 0.43437305 0.16679344 0.10398762 0.44459042 0.10506195 -0.28433493
-0.38012555 -0.054043356 0.017163109 -0.008464639 0.20913893 -0.2988179 0.18087149 0.16611384
-0.23267123 0.28460854 -0.051953383 0.12228337 -0.6435428 0.025673512 0.07260305 -0.8679529
0.25810382 0.1474358 0.13595644 -0.11693475 -0.010804526 0.2672353 0.20475434 0.18708299
0.11692947 0.35181978 0.039936904 -0.07601341 -0.039876085 0.089670576 0.12036521 0.19558594
0.27914092 0.005008315 0.03882673 0.15329999 -0.021402866 -0.028386146 0.1694622 0.20921083
0.11139952 0.15686794 0.1283046 0.12805517 0.17908171 0.13395125 0.10291515 0.07390677
00000000: 0461 4e3e f374 473e 1c63 163d 89d6 85bd
00000010: 719a b33d 4912 6f3e 9167 d1bd 4e82 babc
00000020: 26cc f73d 76a9 543e d9d8 113e 6d0d c13d
00000030: b59a 243d 2ff1 293e 4de1 3b3d 98e4 9c3d
00000040: f230 06bd f994 873d eef2 3c3e ebb6 8abd
00000050: 500f 573e 1c4e 843d 2aab 583e 1012 31be
00000060: 1dab e7bd 22dc 0dbe 5d60 893d 5ffe b8bd
00000070: a3b5 1f3e db51 d63d 9ad5 ce3d 914f d93d
00000080: 11f9 133d c0e3 b33d da7f 2d3c 682e 38bb
00000090: 0a9f b53c d76d 74bd 053d 06bd b2ed 89bd
000000a0: 79cc 7fbd 7282 273e 6da6 59bb e77f fb3d
000000b0: 1fe7 3c3d 8240 263e 50cf 3dbe 0d7f 22be
000000c0: 0280 de3c f80d 573b 95d7 273e e2ec 0dbd
000000d0: 978f 1a3e 1835 953d 7501 8f3c ee78 d5bd
000000e0: 5952 97b7 aa48 0a3e d495 863d 1f20 a3bc
000000f0: dda3 d53c ab12 b7bd 5b3e d0bd 9e86 343e
00000100: 6fd3 91bc 310d 883e fecd 2b3c 526c e3bd
00000110: e56c 803e aabe 2fbe cfb1 c73d 6703 303e
00000120: 1e93 25be b398 e43d 2566 de3e e6cb 2a3e
00000130: 76f7 d43d 5ba1 e33e b82a d73d 5994 91be
00000140: d19f c2be 915c 5dbd a699 8c3c 45af 0abc
00000150: 8428 563e a9fe 98be 6036 393e bf19 2a3e
00000160: 5e41 6ebe 36b8 913e 12cd 54bd b46f fa3d
00000170: 39bf 24bf 4251 d23c e8b0 943d 2932 5ebf
00000180: 2f26 843e 69f9 163e 2a38 0b3e 7c7b efbd
00000190: 7705 31bc 11d3 883e 1fab 513e af92 3f3e
000001a0: b878 ef3d b921 b43e e194 233d ebac 9bbd
000001b0: 1b55 23bd 35a5 b73d 0982 f63d ae47 483e
000001c0: 8feb 8e3e cb1c a43b c708 1f3d acfa 1c3e
000001d0: 1055 afbc 108a e8bc 8087 2d3e 5d3b 563e
000001e0: 6e25 e43d fda1 203e 4862 033e e520 033e
000001f0: 3261 373e 842a 093e 2ec5 d23d 6f5c 973d

weight_ih_l0_reverse f4 [128, 2]
0.26626846 0.16199024 0.032709748 0.01315734 -0.12423912 -0.16621299 0.37368998 0.30932724
-0.19440186 0.016920354 -0.005260848 -0.17552541 -0.34577245 -0.45624352 0.34039605 -0.3913401
0.21998128 -0.77132595 -0.4023623 0.39371818 -0.449903 0.33847675 0.38109565 -0.0419264
-0.41358218 -0.09191273 -0.43154898 -0.045523234 0.7447761 -0.5373197 0.3781172 0.103228815
-0.103755504 -0.1382338 0.18468784 0.45637888 0.025791842 -0.2079217 0.04242477 0.1650972
-0.007049147 0.20854622 0.49754292 0.31120163 -0.12265974 0.14209835 -0.106019504 -0.08825611
-0.978225 -0.08360812 -0.7165621 -0.33694354 -0.60396284 -0.2012973 -0.08878691 0.1590842
0.37700662 -0.27348512 -0.13708544 0.14951934 -0.2619966 0.14619708 -0.49622118 -0.46675932
0.24916536 0.43348294 0.06581207 -0.00789388 -0.19139248 -0.29581952 0.2527304 0.3374698
-0.2273998 0.043933865 0.36925647 -0.115189835 -0.46244967 -0.42764017 0.38051355 -0.18805428
0.28831986 -0.27190846 -0.2368077 0.17878821 -0.0074274787 0.080495335 0.24590978 -0.04534088
-0.16369724 -0.06656146 -0.23022884 -0.015639562 0.4896378 -0.4526301 0.43598402 0.15654439
-0.11294089 -0.07761092 -0.099922605 0.39915428 -0.11642112 -0.11437541 -0.19593032 0.12162537
0.018439831 0.19159523 0.27688032 0.1046296 -0.08487272 -0.023524769 -0.507182 -0.20764314
-0.49467468 -0.09414206 -0.20151834 -0.31779855 -0.23976272 -0.17522599 0.058628727 -0.07229678
0.10319943 -0.0299845 -0.10111156 0.18026493 -0.26600105 0.18823722 0.16411349 -0.47869182
-0.32489806 -0.26726213 0.17067145 0.39844865 0.24408783 0.12417675 -0.33683679 -0.28984517
0.25832558 0.423035 0.25749612 -0.082178056 -0.2903322 -0.40067822 -0.40499866 0.21545856
-0.044998053 -0.75796425 -0.16455178 0.48517212 0.43015742 -0.23569223 0.47406095 -0.08299707
0.3515825 0.06461716 0.44649282 -0.12760675 0.1151679 -0.38479847 0.24337117 0.04837176
-0.06766533 0.5334294 0.28706747 0.7718845 0.13049701 -0.41845545 -0.55906767 0.2530209
-0.3180612 -0.05286119 -0.3907028 -0.110042356 -0.30372056 0.18667889 0.18154655 0.2780909
-0.49198404 0.26222718 0.48781198 0.39456573 -0.38559532 -0.1338151 -0.14768319 -0.3017099
-0.41660634 0.24227469 0.3416795 0.050204456 0.21891838 -0.31252742 0.14042598 -0.3142966
0.3003138 0.2250292 0.04387076 -0.053420663 -0.024781859 -0.21007751 -0.24198891 -0.020748017
-0.32610184 0.14471203 -0.014263336 0.008359181 -0.47653303 -0.33215868 0.4890448 -0.47327
-0.16429174 -0.65579134 -0.24354136 0.037451115 -0.25471723 0.15026192 0.4956282 -0.158637
-0.25790948 -0.23077138 -0.25612387 0.17755422 1.0680386 -0.62721187 0.37650168 0.057303675
0.08961362 0.005072543 0.007520256 0.14402658 -0.08307743 -0.0046705715 -0.09558686 0.29648092
0.22799662 -0.033805538 0.28187177 0.40948978 0.06401186 -0.020451386 -0.3692484 -0.0734206
-0.46138772 0.03486718 -0.17878461 -0.36309904 -0.8479814 -0.1882451 0.10142922 0.16494
0.7834554 -0.39888364 -0.22918312 -0.106071435 -0.1892579 0.20853165 -0.197494 -0.17180723
00000000: 5754 883e c5e0 253e a8fa 053d e291 573c
00000010: 1471 febd bd33 2abe 4b54 bf3e 2460 9e3e
00000020: 4811 47be 8e9c 8a3c 3163 acbb efbc 33be
00000030: 1609 b1be c098 e9be 6448 ae3e bb5d c8be
00000040: c642 613e 9e75 45bf 6e02 cebe 6e95 c93e
00000050: b059 e6be d34c ad3e f81e c33e 04bb 2bbd
00000060: 0bc1 d3be be3c bcbd fdf3 dcbe 9276 3abd
00000070: a6a9 3e3f c98d 09bf 9498 c13e a169 d33d
00000080: c47d d4bd 298d 0dbe cf1e 3d3e 7eaa e93e
00000090: 6a49 d33c 6de9 54be 98c5 2d3d 3e0f 293e
000000a0: 88fc e6bb 248d 553e f2bd fe3e d255 9f3e
000000b0: 0835 fbbd 3b82 113e c120 d9bd 9fbf b4bd
000000c0: f46c 7abf bc3a abbd 9d70 37bf dd83 acbe
000000d0: 4f9d 1abf e120 4ebe e9d5 b5bd f8e6 223e
000000e0: 0307 c13e 3e06 8cbe 2060 0cbe 991b 193e
000000f0: 6b24 86be b0b4 153e b410 febe 14fb eebe
00000100: 3425 7f3e 7af1 dd3e 7bc8 863d 5555 01bc
00000110: 64fc 43be a875 97be e165 813e d7c8 ac3e
00000120: 7edb 68be fff3 333d 2f0f bd3e a6e8 ebbd
00000130: 34c6 ecbe a7f3 dabe acd2 c23e 4d91 40be
00000140: a99e 933e 9637 8bbe b87d 72be 4214 373e
00000150: 3562 f3bb bdda a43d c6cf 7b3e 5cb7 39bd
00000160: 40a0 27be 6051 88bd 1cc1 6bbe 8a1e 80bc
00000170: ceb1 fa3e 22bf e7be 4c39 df3e 2c4d 203e
00000180: 8e4d e7bd 79f2 9ebd 39a4 ccbd f35d cc3e
00000190: 326e eebd a83d eabd f5a1 48be b916 f93d
000001a0: 210f 973c 8a31 443e 42c3 8d3e 0b48 d63d
000001b0: c0d1 adbd 04b7 c0bc aed6 01bf 67a0 54be
000001c0: 0046 fdbe 8dcd c0bd d35a 4ebe 7eb6 a2be
000001d0: 5c84 75be 716e 33be ad24 703d 5610 94bd
000001e0: 395a d33d 0ea2 f5bc 9413 cfbd 5f97 383e
000001f0: 4a31 88be 42c1 403e 5e0d 283e 1817 f5be
00000200: 0a59 a6be 95d6 88be 7fc4 2e3e 7601 cc3e
00000210: 29f2 793e 6150 fe3d df75 acbe 9666 94be
00000220: 4043 843e 0b98 d83e 88d6 833e f84c a8bd
00000230: 6ca6 94be b225 cdbe fc5b cfbe 2ba1 5c3e
00000240: e14f 38bd f209 42bf 4380 28be 7b68 f83e
00000250: 983d dc3e 4e59 71be 1eb8 f23e 5efa a9bd
00000260: 9f02 b43e 0056 843d b59a e43e 58ab 02be
00000270: 26dd eb3d 4e04 c5be 4b36 793e 7721 463d
00000280: 1f94 8abd d48e 083f 82fa 923e 399a 453f
00000290: 02a1 053e cb3f d6be 0f1f 0fbf f58b 813e
000002a0: ebd8 a2be fa84 58bd 330a c8be e35d e1bd
000002b0: 4381 9bbe c028 3f3e 57e7 393e ee61 8e3e
000002c0: 55e5 fbbe a442 863e 7ec2 f93e 8504 ca3e
000002d0: c06c c5be d306 09be 433a 17be b879 9abe
000002e0: 6d4d d5be db16 783e 9ef0 ae3e 30a3 4d3d
000002f0: 242c 603e 9803 a0be d4cb 0f3e 7ceb a0be
00000300: bbc2 993e 0e6e 663e d3b1 333d a0cf 5abd
00000310: 5303 cbbc 8f1e 57be f1cb 77be bff7 a9bc
00000320: d2f6 a6be 642f 143e c4b0 69bc f2f4 083c
00000330: 23fc f3be b410 aabe 1464 fa3e 7250 f2be
00000340: 183c 28be f1e1 27bf e862 79be 5766 193d
00000350: 4c6a 82be 43de 193e fbc2 fd3e bd71 22be
00000360: b60c 84be 554f 6cbe ab22 83be c6d0 353e
00000370: 7db5 883f f590 20bf d4c4 c03e 42b7 6a3d
00000380: 5887 b73d 9337 a63b 7b6c f63b b47b 133e
00000390: 8024 aabd 980b 99bb 0bc3 c3bd 59cc 973e
000003a0: f277 693e ad77 0abd 7f51 903e a5a8 d13e
000003b0: a618 833d aa89 a7bc 200e bdbe 8a5d 96bd
000003c0: 033b ecbe e3d0 0e3d 5013 37be 1ee8 b9be
000003d0: 4f15 59bf 53c3 40be 1fba cf3d 08e6 283e
000003e0: 8890 483f 7a3a ccbe fbae 6abe fb3b d9bd
000003f0: d3cc 41be 5289 553e de3b 4abe 3cee 2fbe

weight_hh_l0_reverse f4 [128, 32]
-0.3949211 0.33368167 -0.093921036 0.019174421 0.10090529 0.2668724 -0.20449862 -0.03964701
-0.08912395 0.3265519 0.1271115 -0.09112015 0.16213046 0.19070214 -0.021795882 0.3734502
0.13339272 0.30215818 -0.022956671 0.023231227 -0.3042215 0.024470968 0.1868201 0.12000115
-0.13676488 0.11256763 -0.3035175 -0.3805444 0.11832798 0.12906632 -0.32905027 0.09032191
-0.15693614 0.19342177 0.032721043 0.20643643 -0.11679448 -0.14973664 -0.06900482 -0.012570253
-0.17131925 0.18802658 -0.14841554 -0.19049586 0.0562335 -0.18293013 -0.07664176 -0.059410628
-0.10777111 -0.1460173 -0.025679871 0.050400123 -0.08445674 0.07972502 0.13002548 -0.077522464
0.0036176147 -0.08077 0.021875037 -0.12941276 0.068943396 -0.04496141 0.0047408906 0.058177613
0.17380005 -0.23449218 -0.12152114 -0.005623242 0.22400653 0.26402813 0.12751533 -0.18868382
-0.056403354 0.03852401 0.5393021 0.1620965 0.20678729 0.23533861 0.13282442 0.29243636
-0.5947636 -0.18158755 -0.0045627262 -0.13483492 0.069425024 -0.23309523 0.14270091 -0.06715673
-0.22601986 0.51532686 -0.033322908 -0.005778508 -0.020841911 0.037666854 -0.0704028 -0.21037093
0.007523714 -0.00074806396 0.20086516 -0.25518507 0.35088402 -0.07607983 -0.52063733 0.33292478
-0.45704147 -0.09244349 0.0488296 0.35681838 0.2744828 0.08864529 -0.15719251 0.26315013
0.2159528 0.3025612 -0.27836844 -0.04478119 -0.44308004 0.06257381 -0.379681 0.5722291
-0.33456814 0.47215435 -0.29807618 -0.05158706 0.1265361 0.183929 -0.0051304456 -0.22900958
0.3723332 -0.120185845 -0.011429411 0.1416408 -0.15375042 -0.05423988 -0.2898123 0.06508954
-0.15922086 -0.16996446 0.05764164 -0.076702915 -0.14238916 0.33546937 -0.2525279 -0.1373808
-0.063620225 -0.27404895 -0.14314131 0.0920137 -0.00636184 0.17977056 -0.21629554 0.19065522
-0.3455107 0.33146197 -0.26788256 0.22236213 0.11460599 0.089029565 -0.06998508 -0.41751668
-0.0774776 -0.124958724 -0.095635384 0.012888097 0.045788225 0.24226266 -0.056587037 -0.26423332
-0.07542515 -0.061284676 -0.011693698 -0.09532643 -0.1458694 0.17024049 0.040763024 0.0816702
0.016940258 -0.08806129 -0.1311598 0.056776244 0.065299705 0.10352639 -0.34156093 0.021323882
0.020294322 -0.15037577 -0.16731338 -0.13818666 -0.24428728 0.10098684 0.12769765 0.048241623
0.9079132 -0.3405696 -0.10461283 0.19767389 -0.29725438 -0.30940497 0.4521959 -0.114174046
-0.026254496 -0.54565585 0.1810021 0.100522675 -0.38482442 0.086190835 -0.09888871 -0.025899103
-0.38854936 -0.4279884 0.06996863 0.16663928 0.36013034 0.46362343 0.19992697 -0.27224505
0.020258928 0.16092391 0.3457178 0.28831282 -0.09483957 -0.57685715 0.1740056 0.20213667
0.08262764 -0.21160178 0.0027521483 -0.06610577 -0.03042385 0.21566154 -0.20294495 -0.33592057
-0.0550036 -0.08690682 0.27927193 0.044196796 -0.0006484784 0.16567029 0.13031025 -0.029334009
0.09128824 -0.07614191 -0.22694592 -0.12806387 -0.09991394 0.012965696 -0.06909866 0.08744694
0.1488427 0.06462143 0.08212602 -0.012935089 -0.12747663 0.06141869 0.01785509 0.14469397
00000000: 1933 cabe 53d8 aa3e ac59 c0bd ad13 9d3c
00000010: 6fa7 ce3d 80a3 883e 1668 51be e764 22bd
00000020: 9e86 b6bd d031 a73e 8429 023e 349d babd
00000030: 8705 263e 6c47 433e 478d b2bc dd34 bf3e
00000040: 1a98 083e 7ab4 9a3e a10f bcbc 6a4f be3c
00000050: ecc2 9bbe 5777 c83c c54d 3f3e 2ac3 f53d
00000060: 180c 0cbe dc89 e63d a566 9bbe b7d6 c2be
00000070: f155 f23d f629 043e 4779 a8be b2fa b83d
00000080: deb3 20be 5b10 463e 8006 063d 1264 533e
00000090: f231 efbd 9054 19be 6652 8dbd 76f3 4dbc
000000a0: 506e 2fbe 0a8a 403e 3efa 17be 5911 43be
000000b0: 1955 663d 0952 3bbe 5bf6 9cbd 8f58 73bd
000000c0: 1ab7 dcbd 8f85 15be 985e d2bc 5c70 4e3d
000000d0: a8f7 acbd df46 a33d 6625 053e 19c4 9ebd
000000e0: 8115 6d3b be6a a5bd 4733 b33c c784 04be
000000f0: 3232 8d3d 7529 38bd 7959 9b3b a64b 6e3d
00000100: a4f8 313e b81e 70be 13e0 f8bd 2c43 b8bb
00000110: f861 653e b22e 873e 6193 023e 5536 41be
00000120: 3407 67bd 5acb 1d3d b40f 0a3f a0fc 253e
00000130: 0cc0 533e 9bfc 703e 2003 083e 38ba 953e
00000140: 6d42 18bf 16f2 39be ec82 95bb 2a12 0abe
00000150: b52e 8e3d 84b0 6ebe 3020 123e 7889 89bd
00000160: c071 67be 76ec 033f 9a7d 08bd a359 bdbb
00000170: a8bc aabc 8f48 1a3d 582f 90bd 7a6b 57be
00000180: 7d89 f63b b919 44ba 99af 4d3e 9ea7 82be
00000190: 12a7 b33e becf 9bbd 7d48 05bf 1e75 aa3e
000001a0: 5701 eabe 0353 bdbd 8c01 483d e6b0 b63e
000001b0: 0289 8c3e a98b b53d 13f7 20be 9dbb 863e
000001c0: bb22 5d3e 4de9 9a3e 4f86 8ebe 7b6c 37bd
000001d0: 63db e2be b326 803d 8c65 c2be 9b7d 123f
000001e0: 844c abbe 37be f13e 719d 98be f44c 53bd
000001f0: ae92 013e e257 3c3e 4c1d a8bb 7d81 6abe
00000200: 75a2 be3e ff23 f6bd 6d42 3bbc 490a 113e
00000210: c070 1dbe a32a 5ebd 4762 94be aa4d 853d
00000220: cb0a 23be 2a0b 2ebe a419 6c3d 6b16 9dbd
00000230: 77ce 11be a4c2 ab3e 564b 81be 8dad 0cbe
00000240: 524b 82bd 2550 8cbe a393 12be ae71 bc3d
00000250: fb76 d0bb c615 383e 947c 5dbe 1f3b 433e
00000260: c7e6 b0be 62b5 a93e e727 89be e6b2 633e
00000270: 8cb6 ea3d 2255 b63d 5654 8fbd bfc4 d5be
00000280: 93ac 9ebd 5cea ffbd 7cdc c3bd 9928 533c
00000290: 6f8c 3b3d b413 783e cfc7 67bd 9749 87be
000002a0: 8078 9abd a405 7bbd ed96 3fbc 813a c3bd
000002b0: ca5e 15be 8653 2e3e 21f7 263d b542 a73d
000002c0: 4cc6 8a3c 7a59 b4bd c14e 06be 358e 683d
000002d0: dabb 853d a505 d43d 13e1 aebe 6caf ae3c
000002e0: 4740 a63c 1bfc 19be 3354 2bbe ce80 0dbe
000002f0: 7226 7abe 30d2 ce3d 2cc3 023e 0299 453d
00000300: 006d 683f 235f aebe 403f d6bd 066b 4a3e
00000310: ba31 98be 546a 9ebe 3986 e73e 15d4 e9bd
00000320: ab13 d7bc 1ab0 0bbf 9d58 393e d5de cd3d
00000330: b507 c5be d284 b03d 2a86 cabd 5b2a d4bc
00000340: f1ef c6be 4c21 dbbe b74b 8f3d 7da3 2a3e
00000350: 0163 b83e 0d60 ed3e a8b9 4c3e b463 8bbe
00000360: 0df6 a53c 3dc9 243e ec01 b13e bd9d 933e
00000370: 403b c2bd e9ac 13bf 862e 323e eafc 4e3e
00000380: ae38 a93d 23ae 58be 635d 343b 7662 87bd
00000390: 703b f9bc 61d6 5c3e cdd0 4fbe c8fd abbe
000003a0: 744b 61bd 34fc b1bd bbfc 8e3e b307 353d
000003b0: a6fe 29ba 79a5 293e 0d70 053e e04d f0bc
000003c0: 54f5 ba3d 4af0 9bbd 8364 68be 2d23 03be
000003d0: ae9f ccbd 126e 543c 9983 8dbd 6217 b33d
000003e0: 396a 183e 3e58 843d b031 a83d b2ed 53bc
000003f0: 3c89 02be 2a92 7b3d d644 923c a82a 143e
