experiments/pedestrians/models/models_14_Feb_2024_17_26_50_eth_vel_ar3/model_registrar-97.pt (torch, 527902 bytes, 43 tensors)

weight_ih_l0 f4 [128, 6]
000000 07 58 f1 3d 6c b0 03 3e 90 64 aa be c1 af 02 be
       0.11784368 0.12860268 -0.33279848 -0.12762357
000010 c1 0e 0a be ce f1 80 bc 06 0b 5c be 84 e4 dc be
       -0.1348219 -0.015740301 -0.2148858 -0.43143094
000020 a9 b1 8a bd 55 74 4b 3e 33 fe 34 3e ec b4 8d be
       -0.06772167 0.19868596 0.17675094 -0.27677095
000030 f2 7b a4 3d 4b 07 91 3b 97 2d b3 be 9b 84 8a be
       0.08031453 0.004425918 -0.3499572 -0.27054295
000040 d9 76 98 be fa 5b 3a bd ab 2d 28 3e 3d 09 2c 3e
       -0.29778174 -0.045497872 0.16423671 0.16800399
000050 25 38 14 3e ca df 71 3d dd b0 d0 3d c1 4a 21 bc
       0.14474542 0.059051313 0.10189984 -0.009844483
000060 25 7d d0 bc 21 84 c4 3d 21 cb 86 be 38 38 a5 be
       -0.025450299 0.09595514 -0.2632685 -0.32269454
000070 3d e8 8c 3f 4b 21 f6 bf 8d bb 83 3e 69 e4 08 3e
       1.1008373 -1.922891 0.25729027 0.13368382
000080 ce f9 a7 3e e8 fe 24 be 9f e8 01 3f 24 67 ba be
       0.32807773 -0.16112864 0.50745577 -0.36406815
000090 84 49 d5 be d2 b6 fd 3d d6 8e 82 3e 64 86 a4 be
       -0.4165765 0.12388386 0.254996 -0.32133782
0000a0 89 e4 84 3d 9e 2c 78 be cb 60 c3 be e5 84 66 bd
       0.06488902 -0.2423577 -0.38159785 -0.05627908
0000b0 99 75 18 3f 1e 05 2b be eb 31 26 3e 58 f2 62 be
       0.5955444 -0.16701171 0.1622998 -0.2216276
0000c0 79 d7 8d 3e bf df 56 3e c6 8a 29 3f 9a d5 fb be
       0.27703455 0.2098379 0.66227376 -0.49186403
0000d0 0d 79 ca 3e 60 d2 1a be 57 4e 05 be 5b cb 81 be
       0.3954548 -0.15119314 -0.13018166 -0.2535046
0000e0 d4 89 21 3e d5 31 d3 3e 9f 42 bd 3d d2 03 4e be
       0.15775234 0.41248956 0.092412226 -0.20118645
0000f0 a8 fb f7 3d 8f f5 9a be 79 33 e8 be 82 76 0a 3f
       0.121085465 -0.3026547 -0.4535177 0.5408708
000100 4f ea 88 3b 09 3d 69 3e 77 77 9e 3c 61 18 c7 3d
       0.0041783224 0.2277719 0.019344075 0.09721447
000110 89 78 03 bf ac 68 b5 bd ee dd cb bf 75 22 53 bf
       -0.513558 -0.08857855 -1.5927103 -0.8247445
000120 1e 31 b9 3c 18 cb 2a 3c 59 9a 96 be cb 5b ab 3e
       0.022606429 0.010424398 -0.29414633 0.3346847
000130 c3 d4 89 3d 18 eb 36 bb f2 8a 0b be 40 35 92 3d
       0.06730034 -0.0027911123 -0.13627222 0.07139063
000140 d7 db 01 3f 5e fe b0 3e bf e2 c4 3e 03 45 9b 3e
       0.50726074 0.34569067 0.38454244 0.3032609
000150 48 d8 af 3d e0 00 2d 3b dc 9d 72 bf d6 48 2e bc
       0.08586174 0.0026398227 -0.94772124 -0.010637483
000160 41 d2 06 bf 16 7a a4 bd 9a db c7 be 7e bc 35 3e
       -0.5266457 -0.080310985 -0.3903473 0.17747685
000170 48 be 31 3f 6e 5f a3 3c 46 6c 60 be be f5 2a 3f
       0.6943097 0.019942965 -0.21916303 0.6678122
000180 42 4c 79 3e 37 ee 7c bd 53 e0 18 bf 18 87 dc 3e
       0.24345496 -0.061750617 -0.5971729 0.43071818
000190 5b 7d 23 bf 0f b3 c2 3d 1b 80 18 3e 20 77 65 be
       -0.6386315 0.09506809 0.14892618 -0.22408724
0001a0 d8 87 79 be db 6a 85 3e 84 26 14 3d 24 76 23 3e
       -0.24368227 0.26058087 0.036169544 0.15963036
0001b0 22 a8 46 3e 21 47 86 be 68 05 7f be 14 35 0c 3f
       0.19400075 -0.26226142 -0.24904406 0.5476849
0001c0 f8 d5 77 3c 2f b3 78 3f 8d 44 9e 3d 3f de a4 3d
       0.015126698 0.9714841 0.07727919 0.080502026
0001d0 f0 38 f9 be 59 a3 b3 3c 15 64 f9 bd 8d d3 c6 3e
       -0.48676252 0.021928476 -0.12177292 0.38833275
0001e0 eb 4a d0 be 6b f0 cd 3e 3e a2 2a 3f 69 3b 11 bf
       -0.40682158 0.40222487 0.6665381 -0.5673128
0001f0 d6 7b 9d 3e 43 8d f2 bc 73 55 aa 3d 17 9d a7 3e
       0.30758542 -0.029608374 0.083170794 0.32737038
000200 8b 4d 3e 3d 1d 9d e3 be fb 4f 41 3c 90 90 03 3e
       0.04646067 -0.44455805 0.011798854 0.12848115
000210 f5 ed 84 be 37 e5 ec be c4 0f 20 3e da 26 29 3e
       -0.25962797 -0.46268627 0.15631014 0.16518727
000220 86 72 9b 3e 45 ca 2a 3e 0f e2 95 bd e0 03 01 3e
       0.30360812 0.16678722 -0.07318508 0.12599134
000230 b0 fc 3b 3e e1 37 7b be fb 9e a1 3d 3a de b9 bd
       0.18358111 -0.24533035 0.07891651 -0.090755895
000240 7b e2 53 3e 35 db d9 bc f9 04 bb be ac f6 7f be
       0.20691864 -0.026593784 -0.3652723 -0.24996442
000250 13 0b 60 be 47 b5 47 be 22 d1 df be 70 02 6d be
       -0.21879224 -0.19502746 -0.43714243 -0.23145461
000260 a5 f1 5a 3d 1d a4 61 3e c6 a7 4a 3e 36 42 d2 3a
       0.053453106 0.2203526 0.19790563 0.0016041461
000270 54 d2 8c 3d 5e b7 ce 3e f8 11 49 bf e4 27 5c bf
       0.068760544 0.40374273 -0.78543043 -0.8599837
000280 1e de d0 be 57 58 42 3e 59 a1 47 be a1 eb 12 3e
       -0.40794462 0.18979011 -0.19495143 0.14347698
000290 a1 34 13 3f d7 22 06 3f cf 5e 8f 3f 44 1e a2 3f
       0.5750218 0.5239691 1.1200808 1.2665486
0002a0 18 c6 86 3e 94 a4 f8 bd d3 c5 b8 be b1 6f a6 3e
       0.2632301 -0.12140766 -0.36088428 0.3250709
0002b0 b7 76 de 3d bb 68 bd 3d ca fe b7 be aa 8f 86 3d
       0.10862487 0.092484914 -0.35936576 0.065703705
0002c0 e2 0a 48 3e dc 4f 02 bf 8d 6b 88 3e 07 e6 44 be
       0.19535401 -0.50903106 0.26644555 -0.19228373
0002d0 54 70 50 be 67 30 61 be 99 06 ae 3e ea ed cd 3d
       -0.2035535 -0.2199112 0.3398941 0.10055144
0002e0 2d e6 dd 3b 04 fe b5 be 3e 7d ae bd f6 8b ab 3d
       0.006771824 -0.3554536 -0.08519982 0.08376305
0002f0 84 5b 47 3b 63 6b 50 3e 75 70 61 be 74 a0 bb bc
       0.0030419538 0.20353465 -0.22015555 -0.022903658
000300 3d 5e 16 3e b1 0a 10 3e 90 84 6e be dc 76 16 be
       0.14684387 0.14066578 -0.23292756 -0.14693779
000310 20 a5 0a be 38 60 9e bd 55 8d df bc 9e 51 60 be
       -0.13539553 -0.07733196 -0.027289072 -0.21906134
000320 32 10 93 3d 55 7e cc 3d a4 02 0c 3e 18 91 75 be
       0.071808234 0.099850334 0.13672882 -0.2398113
000330 0e 5b dd bd 17 e9 93 bd 9d 43 95 bc eb 41 64 bd
       -0.10808383 -0.07222193 -0.018220717 -0.055726927
000340 32 88 2c be 57 1a 0f 3e b0 b5 ed 3d dc b7 27 3d
       -0.1684883 0.13974892 0.1160692 0.040946826
000350 80 88 20 3e b7 06 26 be e7 84 06 bc 5b 54 e4 bb
       0.1567707 -0.16213499 -0.008210397 -0.006968064
000360 66 55 80 3d fa 28 80 bd 60 2f 24 3e 7e bf 24 be
       0.062662885 -0.06257816 0.16033697 -0.16088673
000370 25 9b 00 3f 7e 95 26 bd ba 6c 99 3e eb 91 e0 bd
       0.5023673 -0.04066991 0.29965764 -0.10965332
000380 c1 e8 2c 3e 47 92 63 be 51 c4 5b be 49 81 99 bc
       0.16885664 -0.22223769 -0.21461608 -0.018738406
000390 96 ce dd bd db 5e 35 bd 61 7a 65 3e b9 18 2a be
       -0.10830419 -0.044279914 0.22409965 -0.16610993
0003a0 7b fd 4f be 51 db 1c 3e c1 73 d8 bd 43 79 3f be
       -0.20311539 0.15318038 -0.10568953 -0.18698601
0003b0 06 44 84 3e 6a 8a d4 bd cd 5f 83 3c 8c 3f 86 be
       0.25833148 -0.10377963 0.016036892 -0.26220357
0003c0 05 c2 b5 3e d1 49 01 bb 23 a2 04 3d 95 18 50 be
       0.35499588 -0.0019727836 0.032381188 -0.20321877
0003d0 0c 27 b9 bc 9b 6d 92 bd 3b 52 4d be 82 4f 15 3c
       -0.022601627 -0.07149812 -0.200509 0.009113194
0003e0 03 18 c9 3e 9c 91 2e 3e f3 bb 41 3e b4 48 38 bb
       0.39276132 0.17047733 0.18919353 -0.0028119506
0003f0 f2 c6 f2 3d 33 99 97 be c6 03 2c be 36 09 ad 3e
       0.11854352 -0.2960907 -0.16798314 0.3379609

weight_hh_l0 f4 [128, 32]
000000 74 00 4b 3d a9 fe 6d be 72 1e 0f 3d 50 dd af 3d
       0.04956098 -0.23241676 0.034941144 0.08587134
000010 ba ab e1 bc b3 af 1c bd 15 15 8b bd 61 81 0c be
       -0.027547706 -0.038253497 -0.067911305 -0.13721229
000020 96 9c be bb 0a 1e 89 3e 9c 8a 23 be 06 10 f3 3d
       -0.0058170063 0.2678073 -0.15970844 0.118682906
000030 1c 7c 24 be 11 64 7c 3e 06 cc 27 3e e0 22 a3 3d
       -0.16062969 0.24647547 0.16386423 0.07965636
000040 c7 5c 4c 3e c4 14 3e be 72 c5 88 39 37 e7 37 3d
       0.19957267 -0.18562609 0.0002608705 0.044898238
000050 cc 57 6f be 6a 72 97 bd e3 2f aa bd 69 e5 8e be
       -0.23373336 -0.073948696 -0.08309915 -0.279094
000060 33 a2 83 3e 42 8d f6 3b 72 09 3d be e1 77 be 3e
       0.25709686 0.0075241635 -0.18460634 0.37200835
000070 44 94 1a 3e ce b3 85 3c da ca 4a 3e 63 9f 0c be
       0.15095621 0.01632109 0.19803944 -0.13732676
000080 2c 94 e7 3d f3 f0 87 be 65 17 ac 3d cf b0 e8 bd
       0.113075584 -0.26551017 0.084029 -0.113618486
000090 dd 2a fa bc ec d1 54 3e bd 88 c5 bd 2c 1d 39 be
       -0.030538017 0.20783204 -0.096452214 -0.18077534
0000a0 a1 79 4f 3d cb b5 00 3e 47 5f dd be 5d 0f 2a bd
       0.050653104 0.12569349 -0.43236753 -0.041518558
0000b0 cc f3 87 be 78 ee 30 3e ba 83 04 3d b5 59 19 be
       -0.2655319 0.17278469 0.032352187 -0.14975627
0000c0 60 bc 9d 3e 91 d7 ca 3d 02 14 2d be a5 83 7b 3b
       0.3080778 0.09904397 -0.16902164 0.0038378027
0000d0 1b c8 0f bd b9 e2 34 be e6 d6 39 be 67 97 2f be
       -0.035102945 -0.17664613 -0.18148383 -0.17147599
0000e0 68 ea 1f 3e b6 64 53 3d 16 3b 20 be 38 85 a2 bd
       0.15616763 0.051609717 -0.1564754 -0.07935566
0000f0 1e b4 25 bd 0e 68 c2 3d 2d 98 6b 3e 88 e2 ee bd
       -0.040454976 0.09492503 0.23007269 -0.11664301
000100 c0 93 c6 3d 67 ee eb bd f7 f6 e5 bd 0e 38 df 3d
       0.0969615 -0.11520081 -0.112287454 0.108993635
000110 5a 47 87 3d d6 fb e4 3d b2 fd 10 be 53 7d 2d be
       0.06605406 0.111808464 -0.14159277 -0.16942339
000120 29 5d ab bd ca 5b 54 3e 61 1c 93 be 08 5b bd bb
       -0.08367378 0.2073814 -0.2873259 -0.005778674
000130 2c 95 1b bd 0d 4d 0a be 95 08 ab 3d f1 bd 04 be
       -0.03798406 -0.13505955 0.08351246 -0.12963082
000140 14 88 42 3e b2 17 2f be 6c 69 2e 3e 69 67 b0 bd
       0.18997222 -0.17098883 0.17032403 -0.08613474
000150 71 8b ce 3c 20 47 89 3d 6b ce 0a 3e d2 e4 17 3e
       0.025212975 0.06703019 0.13555305 0.14833382
000160 08 01 81 3e cf fc c4 3d 85 ae 14 3e bb 82 01 3e
       0.251961 0.09618532 0.14519699 0.12647526
000170 ae 37 e2 3d e1 ba ef 3d 10 5d 8c bd 3a e0 f7 3c
       0.11045776 0.11705566 -0.06853688 0.030258287
000180 72 1c 4f be 72 97 5d bd 52 13 72 bd 0f 37 27 3d
       -0.20225695 -0.054099508 -0.059100457 0.040823992
000190 40 2c 43 be bd 26 da 3c f4 63 9e bd 70 81 29 3c
       -0.19059849 0.0266298 -0.07733908 0.010345802
0001a0 cd 49 9f bd 9b 89 4d 3e 87 ec c9 be df a0 0c be
       -0.07777748 0.20072024 -0.3943827 -0.13733242
0001b0 ab b3 24 3c 75 74 78 bd 5d 3e 09 be af 4f 3e be
       0.010052602 -0.060657937 -0.13402696 -0.18585084
0001c0 1d 17 f5 3d 43 5e 0b bd dc ea 81 be 4c f1 43 bd
       0.11967299 -0.03402544 -0.25374496 -0.04783754
0001d0 18 b0 9c bd 10 e5 8c bc da b7 01 3b 83 65 94 bc
       -0.07650775 -0.01719907 0.0019793422 -0.01811481
0001e0 8f d2 15 3e 7d d4 02 3e ab a8 a7 bd 8d 11 6d 3e
       0.14631103 0.1277637 -0.08186468 0.23151226
0001f0 58 16 c4 3d 5c bf e4 3d 21 66 94 3e 08 09 fa bd
       0.09574574 0.111693114 0.28984168 -0.12208754
000200 39 51 e8 bd bf 80 ac bd b6 90 a7 3d 94 85 cd bd
       -0.11343617 -0.08422994 0.08181898 -0.10035244
000210 e9 f6 bc 3d 88 db 76 3e a1 06 9b be 5f aa 9e 3e
       0.09226782 0.24107182 -0.30278495 0.30989358
000220 51 01 cb 3e 9e 3f 98 bd c2 98 b8 be 63 57 32 be
       0.39649442 -0.07434009 -0.36054045 -0.17416148
000230 4b ab e2 3e ef 69 6b 3e 11 f1 72 3d 8b a3 72 bd
       0.4427131 0.22989629 0.05931193 -0.059237998
000240 21 3b d3 be d0 11 1e bf 02 1b d2 3e 10 27 66 3c
       -0.4125605 -0.6174593 0.4103623 0.014047399
000250 57 2d 66 3e 7a bd cb 3e 45 ab 8c 3d cf 7e 3f 3e
       0.22478233 0.39792997 0.068686046 0.18700717
000260 e3 ae 36 3e f2 f1 bf be 44 28 6b bc 8b ae 35 bf
       0.17840151 -0.37489277 -0.014352862 -0.70969456
000270 ac 7f 03 be 65 eb 47 3e 0e a7 62 3e dc e3 bc be
       -0.12841672 0.1952339 0.22134039 -0.36892593
000280 77 13 b4 3d 01 46 7a be 0f 38 94 3d 57 34 01 be
       0.08792775 -0.24440767 0.07237255 -0.12617622
000290 47 5a 4c bc f1 f6 f5 bd 86 e8 80 3e 07 be 88 be
       -0.012472696 -0.12009991 0.251774 -0.2670748
0002a0 a2 4c ba bd 3a 5b 1c bd 3b 5c 8c 3e e2 6c 39 3d
       -0.09096648 -0.038172938 0.27414116 0.045269854
0002b0 b6 46 5e be 5a 30 8e 3d e9 70 22 bc b1 fd 0f bd
       -0.21706662 0.06942816 -0.009914615 -0.03515405
0002c0 87 f0 36 be 7f 15 7a 3e 27 9e b3 bd 13 aa 81 3e
       -0.17865191 0.24422263 -0.087703995 0.2532507
0002d0 48 7a bc bd b3 34 57 bc 62 1e 38 3e 98 2b 74 be
       -0.09203011 -0.013135123 0.1798034 -0.23844755
0002e0 95 68 08 3e 9d 2b d0 3d b2 dc 3e 3e a0 fb ac 3c
       0.13321145 0.101645686 0.18638876 0.021116078
0002f0 75 39 96 3c bc 3e c2 bd 64 92 36 3e 8e 19 73 3e
       0.018337945 -0.09484622 0.17829281 0.23740217
000300 4a 6b d9 3d 01 db 55 bd 15 8e 5a be b9 46 17 3e
       0.10616167 -0.05221081 -0.21343262 0.14773072
000310 91 39 c6 3c 4e 84 c7 bd 67 08 a2 3e 74 10 a9 be
       0.024197372 -0.09742032 0.31647035 -0.33020365
000320 9b fc 28 be 01 5d b5 3d 2f 54 78 bd b3 85 88 bd
       -0.16502611 0.0885563 -0.06062716 -0.06666126
000330 38 50 49 3d ff 8e 9c 3e a8 b1 b3 3d f7 73 30 3b
       0.04914877 0.30577847 0.087741196 0.002692459
000340 15 f3 df bc 71 df e6 bd 14 9c 84 3d 43 78 82 bc
       -0.02733759 -0.11273087 0.06475082 -0.015926486
000350 17 c7 16 be de a8 a1 3e 4b d0 76 3e f6 de 03 be
       -0.14724384 0.31574148 0.24102895 -0.12878022
000360 2f 79 3b bd c0 41 85 3e 1f 17 89 3d 76 ba 2c 3e
       -0.045769867 0.26026726 0.06693863 0.16868004
000370 cb c8 37 be 9f ea 3d bd e2 66 0b bd 1a c0 cf 3d
       -0.1794769 -0.04636633 -0.034033664 0.10144062
000380 cd 16 08 3e a2 4e 91 be d9 86 4e 3d d6 d1 25 3e
       0.13289948 -0.28380305 0.05042157 0.16193327
000390 ae 53 8f be e3 6b 7a bd 4d 68 98 3e 95 fe 1e be
       -0.2799353 -0.061138045 0.29767075 -0.15526803
0003a0 f6 75 8e bd c3 8b 2c bd 6a 60 34 3e b0 80 4a 3d
       -0.06956093 -0.042125475 0.17614904 0.049439132
0003b0 f6 95 ca bd 2d 32 73 bd f8 15 54 bc 81 bf 49 3d
       -0.09891884 -0.059374023 -0.012944691 0.049254898
0003c0 db 94 08 3d 26 33 3f 3e f7 d5 99 bd 92 54 7a 3b
       0.033345085 0.18671855 -0.07511514 0.003819738
0003d0 57 8d e6 be 22 fb ec 3d 0c 81 49 bd cd 66 d7 be
       -0.4502971 0.11571337 -0.049195334 -0.42070618
0003e0 ea 66 73 3e e2 52 ec 3e a3 59 70 be e1 dd 21 3e
       0.23769727 0.46156985 -0.23471694 0.15807296
0003f0 d6 73 7e 3d 6a 34 4e bd b6 f2 71 3d 96 c8 bc 3e
       0.06212219 -0.050342955 0.059069358 0.36871785

bias_ih_l0 f4 [128]
000000 2a 5a 45 3d 4b 9d 92 3d a3 13 91 3c e4 ad 6d bd
       0.04818169 0.071589075 0.017709559 -0.058027163
000010 8a a3 f7 bd c7 f0 37 3e 72 9e a9 3d 76 3f 39 be
       -0.120917395 0.17962943 0.08282174 -0.18090615
000020 31 40 d2 bc 54 7d c6 3d eb 98 8c 3e be 64 f4 3d
       -0.025665374 0.09691873 0.27460417 0.119332775
000030 40 45 36 3e 6a c0 b1 bd 53 4f df 3d 57 7a a1 bd
       0.17799854 -0.08679278 0.10903802 -0.078846626
000040 7f ba ac bc 90 75 2d 3e 94 f9 1f 3d b8 7e f5 3d
       -0.021085022 0.16939378 0.039056376 0.1198706
000050 95 e8 1d 3e 8b a1 bc 3b 83 64 25 3e f2 22 82 bd
       0.15420754 0.005756562 0.16151623 -0.063543215
000060 c6 fc e8 3d 9b c7 00 3e 56 fe ed 3b 7f e1 3d 3d
       0.11376338 0.12576143 0.007262985 0.046357628
000070 26 16 8c bc b7 20 f1 3a e0 c3 b6 bd ce bf 4d 3e
       -0.017100405 0.0018396591 -0.08924079 0.20092699
000080 4b 7d 03 3e 83 31 8d be 16 19 68 be 22 51 0b 3d
       0.12840764 -0.27576837 -0.2266582 0.03401292
000090 be a6 5d bd bb cf 2f be 5f 2d 83 be 18 a2 32 be
       -0.054114096 -0.17169087 -0.25620553 -0.17444646
0000a0 25 a7 6a be 21 b8 a8 bd 19 41 55 be e1 34 8c bc
       -0.22915323 -0.08238245 -0.20825614 -0.017115058
0000b0 c8 2f 31 be 27 48 2a 3e 40 9d 27 bd 51 70 f9 bd
       -0.17303383 0.16629086 -0.04092145 -0.12179626
0000c0 25 0a 90 3b 96 8b 63 bd b7 f0 71 be 51 75 9b 3d
       0.0043957406 -0.05555304 -0.23626982 0.07590736
0000d0 cd 43 98 be 6f 78 c5 bd 0d 40 b8 3c b5 8c e5 bc
       -0.29739228 -0.096421115 0.02249148 -0.028021196
0000e0 97 2c df bd e2 de 1b 3e 1a a0 a0 3d 9c a0 03 3e
       -0.10897177 0.15221742 0.07843037 0.12854236
0000f0 58 37 3c bd 0f 31 92 be 68 08 8d be 00 9a 91 be
       -0.045951217 -0.28553054 -0.27545476 -0.28437805
000100 2d 5a 0e 3e d8 a1 06 3e a4 51 88 bd 19 24 0e 3d
       0.13901587 0.13147676 -0.06656197 0.034702394
000110 e6 8a c7 bd 3d 91 a8 bb ab 45 c3 3d c6 62 20 bd
       -0.0974329 -0.005144267 0.095347725 -0.039156698
000120 97 ad 82 bd c5 4a 87 3d fc cf 99 bd 87 21 cd 3c
       -0.06380766 0.06606058 -0.07510373 0.025040401
000130 28 11 bb bd 5f 8f ae bc ab 7c c4 bc ea 26 be bd
       -0.09134132 -0.021308599 -0.023985228 -0.09284766
000140 56 d9 88 bd d1 1b 00 be bd 2c 99 3d 95 97 ca 3a
       -0.066820785 -0.12510611 0.07479236 0.0015456552
000150 a1 c0 8e 3d 4f c4 65 3d bb cf d0 3d 66 d0 01 be
       0.06970335 0.056095418 0.101958714 -0.12677154
000160 29 b9 f3 3d 8e c3 ae bd f7 ac 8f 3d 88 d1 96 bd
       0.11900551 -0.08533393 0.07015412 -0.07364184
000170 23 b6 6e bd 77 76 07 3e 5b ad 99 3c 8b 18 65 bd
       -0.058279168 0.13228785 0.01875942 -0.05593161
000180 0d 46 85 3e 09 ee 68 3d bd 15 81 3d bc 18 1d 3c
       0.26030007 0.056867633 0.063029744 0.009588417
000190 3f 01 80 3e cb 98 03 3e 8c c6 e0 3d ce 99 28 be
       0.2500095 0.12851255 0.1097537 -0.16464922
0001a0 7b de 02 be e3 ae 2a 3e 97 48 1a 3d b4 09 55 3e
       -0.12780182 0.16668276 0.037666883 0.20804483
0001b0 43 f5 0c 3e f9 bc a1 bd 81 18 10 3e f1 86 9b 3d
       0.13765435 -0.07897372 0.14071847 0.075940974
0001c0 44 af c5 3d 7e 4e dd 3d dc 5a d6 3d 1f 3b 28 3b
       0.0965257 0.10805987 0.10466549 0.0025670005
0001d0 5d 4f 8e 3e bc 32 cc 3c 21 9a 15 3e 04 9f f0 38
       0.27794924 0.024926536 0.14609577 0.00011473711
0001e0 65 7d 91 bd 17 e0 1f 3e c1 5a 0c 3e a3 62 6d 3d
       -0.07103995 0.15612827 0.13706495 0.057955395
0001f0 99 77 e0 3d 28 ea 55 3e f3 98 5b bc 98 32 2e 3e
       0.109603114 0.20890105 -0.013403165 0.17011487

bias_hh_l0 f4 [128]
000000 c6 08 7f 3b 77 75 ad 3d bd bb ed bd ba e0 d3 3d
       0.0038915141 0.0846967 -0.11608074 0.103455976
000010 3b 41 bb 3c b6 a0 83 bd 81 3d 9a bc a0 fc 5a bb
       0.022858253 -0.064271376 -0.018828155 -0.0033414736
000020 35 99 73 3d 9e 0c 86 3e e4 b0 94 3c c3 09 b4 bb
       0.05947228 0.261815 0.018150754 -0.0054943278
000030 1c f7 76 bd 85 74 54 3e 29 31 19 3e 3b 10 a7 3d
       -0.060294256 0.20747574 0.1496016 0.081573926
000040 66 4a dd bd 40 d7 25 3e 0f fa 67 bd e0 d0 9a 3d
       -0.10805206 0.16195393 -0.05663496 0.07559371
000050 a2 90 9a 3e cc f2 3e 3e 7a 9a 42 3e 8f ce 45 3a
       0.3018847 0.18647307 0.1900424 0.0007545733
000060 a3 b6 7c 3c 85 93 e2 3d c7 83 a5 3d 06 3d 39 bd
       0.015424403 0.11063293 0.08081775 -0.045224212
000070 12 31 ca bd 95 de f5 bb 8b 8f a1 bc 84 92 80 3e
       -0.09872641 -0.0075033405 -0.019721767 0.25111783
000080 67 66 22 3d f4 ab 7f be af bb 34 3c 56 43 30 be
       0.03964844 -0.24967939 0.011031075 -0.17213187
000090 55 2d 82 3e 41 f6 10 bc a2 0f ec bd cf 77 a3 be
       0.2542521 -0.008847774 -0.11526419 -0.31927344
0000a0 8f 04 20 be 65 ee 0d be 7c dd 41 be d2 5d a0 bd
       -0.15626739 -0.13860472 -0.18932146 -0.07830395
0000b0 26 09 34 be 9b 60 57 bc 2e 30 85 3d 13 cf 92 bd
       -0.17581615 -0.013145591 0.0650333 -0.071684025
0000c0 94 6f 01 be 47 e1 fc bd 3a e8 54 be 91 d0 d7 bd
       -0.1264022 -0.12347656 -0.20791712 -0.10537828
0000d0 a4 2b 1d be 10 b8 84 be 35 63 4d be 1c 69 65 bd
       -0.15348679 -0.2592168 -0.20057376 -0.056008443
0000e0 f6 06 a0 be 3f 2a 20 be 0b 4f 33 be 87 f4 8a 3d
       -0.3125531 -0.15641116 -0.17510621 0.06784921
0000f0 9f e7 97 bd 9a 69 53 bd b3 cf 12 be 02 5e 8b 3c
       -0.07417225 -0.05161438 -0.14337043 0.0170126
000100 79 b4 13 be 6e 97 0c be f4 00 d4 3d 73 72 ab bc
       -0.14424314 -0.13729641 0.10351744 -0.020928597
000110 aa 0c 23 3e 2a a2 de 3c 9f f2 b9 bd 85 6e fd 3b
       0.159228 0.027176935 -0.090794794 0.007734122
000120 4a 9e 9e 3d f7 c0 e1 bc 86 fa 57 3d 4a 66 2d 3d
       0.07745035 -0.027557833 0.052729152 0.04233388
000130 b7 08 b7 3d 21 e0 38 3d ec 42 d0 bd 7a c5 5a 3d
       0.08937209 0.04513562 -0.10169014 0.053410985
000140 24 fb d5 3c c1 32 f0 3d cc d8 7a 39 69 09 00 be
       0.02612073 0.117284305 0.00023922621 -0.1250359
000150 83 bb b2 bd 8b cc 8e bb 01 09 11 be c3 6f f8 3d
       -0.08727171 -0.0043578795 -0.14163591 0.12130692
000160 fd b7 f4 bd 8c 59 a6 3c 84 c0 95 3d c3 c5 28 3d
       -0.119491555 0.020306371 0.0731211 0.041204225
000170 ec ca 3f bd 86 de 15 be 8f b7 bd bb cc de 44 3d
       -0.04682438 -0.14635667 -0.005789704 0.04806404
000180 66 bf 14 3e ea c7 43 3e b0 9b be bd 14 96 72 3e
       0.14526138 0.1911923 -0.09307039 0.23690063
000190 f5 7e b2 3e e7 aa 02 3d f5 dd 9d 3e 53 72 15 3e
       0.34862486 0.031901266 0.30833402 0.14594392
0001a0 5c 2a 3a be ee 91 41 3e 79 d0 8e 3e 18 e3 91 3e
       -0.18180221 0.18903324 0.27893427 0.2849357
0001b0 53 69 19 3e f9 e5 e9 3d 3f 1b 78 3d e5 a1 ab 3d
       0.14981584 0.11420817 0.06057286 0.08380488
0001c0 be 8e eb 3d bf 5e eb bc 96 cb 56 3e 04 a6 f7 bd
       0.11501835 -0.028731702 0.209761 -0.12092212
0001d0 02 c8 76 3e 92 34 5d 3e 9c 82 98 3e 63 e3 07 3e
       0.24099734 0.21602085 0.29787147 0.13270335
0001e0 a8 2e ef 3d 88 f0 06 3e de 83 41 3e cb 65 83 3d
       0.11678821 0.13177693 0.1889796 0.064159
0001f0 cd b0 a1 bc 52 3d 50 3e 8e 11 5f 3c a9 e0 bd 3e
       -0.019737625 0.20335892 0.013615025 0.37085465

weight_ih_l0 f4 [128, 2]
000000 92 af 1a 3e 1d b7 af 3d 36 55 16 3e 77 24 b3 3d
       0.15106037 0.08579848 0.14680943 0.087471895
000010 18 cc 55 3e 65 cd aa 3d 89 e9 42 be fd 4a 9e bc
       0.20878637 0.08339957 -0.19034399 -0.019322867
000020 32 f7 ac bd ac aa ab be 2a 89 0a 3e 1f 42 be 3d
       -0.08445586 -0.3352865 0.13528886 0.09289955
000030 f5 1b e2 bd a3 fc 38 3e 7b 12 b6 be d3 24 5d 3d
       -0.11040489 0.18065123 -0.35560974 0.053990196
000040 29 61 47 3e 4b eb 05 be 6f ea 65 be 00 96 a9 3d
       0.19470657 -0.13078038 -0.2245271 0.08280563
000050 1e f8 d0 3c e9 a5 c9 bd 9c 13 32 3e 64 6b 08 bd
       0.025508936 -0.09846098 0.17390293 -0.03330554
000060 28 38 1e 3e a9 12 bd be b4 f3 26 be 77 d6 a2 bb
       0.1545111 -0.369283 -0.16303903 -0.004969414
000070 22 c3 78 be 39 2d e5 3d 95 61 3e 3d d9 c0 14 3d
       -0.24293187 0.11190266 0.04647978 0.036316726
000080 04 05 31 be 31 0e 36 3e 05 49 0d be a5 31 9d 3e
       -0.1728707 0.17778851 -0.13797386 0.30701938
000090 39 4f 13 3d a0 f4 03 3e ff 98 93 3e 73 13 8c 3d
       0.035964224 0.12886286 0.28827664 0.06839647
0000a0 9c c3 b7 3e 10 12 23 bb b7 e8 7f 3e bb 5e ea 3e
       0.35891426 -0.0024882592 0.24991117 0.457754
0000b0 2b 5b 8f 3e b7 2f 1f 3e 93 b3 01 bf 40 ce 71 3e
       0.27999243 0.15545546 -0.50664634 0.23613834
0000c0 d9 13 e8 bc 69 87 eb 3d d3 c9 13 3e 8b 4a a5 be
       -0.028329777 0.11500437 0.14432459 -0.32283434
0000d0 5e 1a ee bd 0a 59 99 3e 5a 98 39 be 55 e3 38 be
       -0.11626123 0.29950744 -0.18124524 -0.1805547
0000e0 39 de 72 3d 0d 2b c9 bd 10 b5 58 3d 17 7a 89 3e
       0.05929396 -0.098226644 0.05290705 0.2685096
0000f0 29 c5 d2 3e 31 c6 6c 3d 52 b3 1f 3e 0f 25 d9 be
       0.41166046 0.057806198 0.15595749 -0.42411086
000100 83 9e 9e 3d b7 0f 49 be b9 37 6a bd 53 01 99 be
       0.077450775 -0.19634901 -0.057182048 -0.29883823
000110 54 d9 b2 bd dd f9 25 3e 20 be d8 3d d9 3f eb 3e
       -0.08732858 0.16208597 0.105831385 0.4594715
000120 85 36 4e 3e ec 89 86 3e 37 54 f5 be 70 5a 69 3e
       0.20137985 0.262771 -0.47915813 0.22788405
000130 8b 3d 08 bf 86 93 bc bc 36 63 c7 3e 75 75 ef 3d
       -0.5321891 -0.023019563 0.3894288 0.11692325
000140 e2 1c 38 bd 62 18 c6 bd 65 33 dd bd 98 4c a9 be
       -0.04494942 -0.096726194 -0.10800818 -0.3306625
000150 73 bd ec bd 20 c9 17 be 09 b3 8b be de 80 47 3e
       -0.11559572 -0.14822817 -0.2728503 0.19482753
000160 b8 1e 15 bf f8 a7 ca bd da e7 f3 3e 74 a8 fe 3e
       -0.5825 -0.09895319 0.47637826 0.49737895
000170 f2 7f 8a be 3d 5e 9c be 51 7b 7a 3e 8a bb 49 3d
       -0.2705074 -0.30540648 0.24461104 0.049251117
000180 f5 7e dc 3d 00 98 d1 39 ec 85 34 3d 8d 5b ac be
       0.10766403 0.00039976835 0.04407303 -0.33663598
000190 c6 7e bc 3d 2e e3 0f 3f af 3c 11 bf bf ce 30 3e
       0.092038676 0.56206024 -0.5673322 0.17266367
0001a0 d2 a3 00 bf ac fe f1 bd b7 dd 69 3e 6c b7 43 3d
       -0.5024997 -0.11816153 0.22838484 0.047782347
0001b0 4f 91 aa 3d 41 64 5a 3e 66 f2 5c 3d de e8 0a bf
       0.08328497 0.21327306 0.053942107 -0.5426158
0001c0 2c e7 96 be f5 21 2c be ad 37 9f 3e bc 24 08 3e
       -0.29473245 -0.16809829 0.31097165 0.13295263
0001d0 46 a3 91 3e 98 ea 88 be 98 72 19 be 63 52 b5 3e
       0.2844488 -0.2674148 -0.1498512 0.3541442
0001e0 60 99 8d 3d 7a bf e3 be c6 9a 86 be 74 95 04 3f
       0.069140196 -0.44482023 -0.26289958 0.5179055
0001f0 94 82 90 3e fa 6d 1e bd 96 c9 2f 3d 7a 6b ad 3e
       0.28224623 -0.0386791 0.042916857 0.3387106
000200 c1 16 27 bd 6c 5b 6d 3e 15 86 96 be 43 86 b6 be
       -0.040793184 0.23179406 -0.2939917 -0.3564931
000210 57 ec b1 be 4d b3 96 be 49 87 af bd d0 b8 c1 be
       -0.34750625 -0.2943367 -0.085707255 -0.37836313
000220 53 d2 8c be 2c e1 54 3e 74 7e 56 3e 03 b9 d6 be
       -0.27504215 0.20789021 0.20946676 -0.41938028
000230 e5 51 b6 bc d6 75 7c bd 9a cd a4 3e c0 9e a9 bd
       -0.022255847 -0.061635815 0.32188112 -0.08282232
000240 fd f0 1c 3f 03 b8 2a 3e 56 fd 87 3c af f6 46 3f
       0.6130522 0.16671757 0.016600292 0.7772016
000250 48 6a b2 3e fb ec e7 3e 39 bb 1c bf b3 cb 59 3e
       0.3484671 0.4529799 -0.6122318 0.21269111
000260 30 a8 cc be b2 3e 5c bb 2c 89 7c 3e d9 28 71 3e
       -0.39972067 -0.0033606705 0.24661702 0.23550738
000270 b2 e8 aa be 17 8d 01 bf c7 16 ac be 0c 06 69 3e
       -0.33380657 -0.5060591 -0.33611128 0.22756213
000280 e5 36 39 3c 0f 9f 31 3e aa 90 fb be eb c8 c5 3e
       0.011304592 0.17345832 -0.49133807 0.3862985
000290 ad 25 7c 3d 5c c0 06 3f 48 60 bc 3e ee b0 23 be
       0.061559368 0.5263727 0.36792207 -0.15985462
0002a0 60 5d 8f be 3c 50 d5 3a 34 df de be 33 a4 9c 3e
       -0.28000927 0.0016274522 -0.43529665 0.30594024
0002b0 df 72 88 bd cd ac 03 bf 6c 37 37 3e bc a6 2d bd
       -0.06662535 -0.5143555 0.17892236 -0.04239534
0002c0 dc 02 74 3e ca 65 8e 3e 71 86 29 be 96 9c a9 3e
       0.23829216 0.27812034 -0.16555192 0.33127278
0002d0 07 ee 27 bf 8c 15 9c 3e 05 89 90 3e f7 07 3b 3e
       -0.65597576 0.3048519 0.28229538 0.18264757
0002e0 6e f8 f7 3e a6 2c 7e 3e 35 e4 d4 3d 40 21 11 3d
       0.48431724 0.2482172 0.103950895 0.0354321
0002f0 f3 16 b0 3e df 1b 43 3e bb 5d 03 bd 9a ac 04 bf
       0.3439251 0.190536 -0.03207181 -0.5182587
000300 e8 52 9c bd dd 8b 30 be 5e 7e 52 3e 7e b4 29 3b
       -0.076330006 -0.17240854 0.20556018 0.0025894935
000310 f7 24 21 3e 56 77 f3 3c 0e b3 65 3e 57 7f 12 3e
       0.15736757 0.02971999 0.22431585 0.14306389
000320 49 f0 12 bd 0b 68 54 be 36 e7 79 be 55 3b 5f 3e
       -0.035873685 -0.20742814 -0.24404606 0.21799977
000330 c4 5b b8 be 13 fa 42 be 02 c9 33 bd 94 ad 9a bd
       -0.36007512 -0.19040708 -0.043892868 -0.07552639
000340 3f 6d 51 bc ac 41 94 3d 3a 5b 70 be 5d 81 b1 be
       -0.012782394 0.072390884 -0.234723 -0.3466901
000350 a6 4d 53 3e a8 56 f9 bd 75 99 bb 3d f4 4f b2 3c
       0.2063509 -0.121747315 0.09160129 0.02176664
000360 4a 5d d0 3e d3 eb dd 3d 8b fd 28 3e 7d 0a 3a 3e
       0.40696174 0.108359955 0.16502969 0.18168063
000370 0f 0d 36 be c2 1b 3a 3e a5 37 3e 3e 59 3c 31 bd
       -0.17778419 0.18174651 0.18575914 -0.043270443
000380 52 1c b7 bd 9c 01 0f 3e 2d 93 09 be 82 25 3d be
       -0.089409485 0.13965458 -0.1343505 -0.1847134
000390 1b de e1 bc d6 f3 03 be fe a2 8d 3e 7e 22 a1 3e
       -0.027571728 -0.12885985 0.27663416 0.31471628
0003a0 56 2b b5 3d 19 e1 b6 bd 82 9a 62 3d 7d ae fb 3e
       0.08846156 -0.08929653 0.05532313 0.49156561
0003b0 50 10 13 3e 20 3e b6 3c bd 8a 12 be ae ac 87 be
       0.14361691 0.02224642 -0.14310737 -0.26498932
0003c0 96 48 57 3e db a2 e7 3d c0 8b 31 3e 7e c5 b6 be
       0.21023783 0.11310359 0.17338467 -0.3569755
0003d0 b9 c4 22 3c 8f c5 73 be ee e3 69 3d 7c 91 9b bc
       0.009934598 -0.23805831 0.057102136 -0.01899027
0003e0 df e7 8b 3d b2 3e 4e be 2d 6d 22 be 9a 1d 89 3e
       0.06831335 -0.20141104 -0.1586196 0.26780397
0003f0 92 ac 8a 3e a9 80 cd bd b9 5d 87 3e 70 73 91 be
       0.27084786 -0.100343056 0.26438692 -0.28408384

weight_hh_l0 f4 [128, 32]
000000 fb 89 53 bd c3 f2 80 3d b9 67 1c be 3b 3a 7b 3d
       -0.05164526 0.06296303 -0.15273942 0.06133483
000010 8d 4b 13 3d 35 87 09 be b5 ae a8 be eb ec 36 bc
       0.035960723 -0.13430484 -0.3294579 -0.011164884
000020 22 eb 5e be 2f d4 aa bd 79 7b 5b 3d e0 5b 39 3e
       -0.21769384 -0.08341252 0.05358455 0.18101454
000030 83 0c 3e 3e 8e d4 18 3e 5f 8e e3 bd 15 1b 86 bd
       0.1855946 0.14924833 -0.111111395 -0.06548134
000040 bd ec ce 3d 04 e8 29 3d de 0c 8d 3e 7b 3a 14 be
       0.10103748 0.041481033 0.2754888 -0.14475434
000050 10 92 f6 3d 98 97 35 be 02 7a a8 be 03 77 30 3e
       0.12039578 -0.1773361 -0.32905585 0.172329
000060 25 78 72 be 22 c7 5f 3e 17 14 2a be 8b 4c 32 3e
       -0.23678644 0.21853307 -0.16609226 0.17412011
000070 fe c1 ff 3d 84 37 34 be c0 43 33 be 96 39 e3 bb
       0.12488173 -0.17599303 -0.17506313 -0.006934355
000080 9e 57 62 3c e6 09 ff bd 42 f7 de be 22 54 12 be
       0.013814835 -0.1245306 -0.43548018 -0.14289907
000090 72 2f c4 3d 6f 57 99 3c bb 0b e8 be 48 ab 8a bd
       0.09579362 0.01871845 -0.4532145 -0.067709506
0000a0 46 99 8d 3e ab 25 5b 3e 41 c2 eb 3e df 03 cd 3b
       0.27656 0.21401088 0.4604664 0.006256565
0000b0 bb f6 c5 bd 1e 7b d9 3e 03 12 92 bd 91 a2 4f be
       -0.09666201 0.42476743 -0.07132342 -0.20276858
0000c0 9a b0 a7 3d 42 e4 34 3e b0 90 ad 3e 23 e9 f6 3d
       0.08187981 0.17665198 0.3389945 0.12056186
0000d0 b9 e4 2a 3e 23 e6 91 be 95 b0 36 be b5 8d fc 3d
       0.16688813 -0.28495893 -0.17840798 0.12331716
0000e0 7d 4c bc 3d a3 ba 03 bd 1e 92 1c be 58 1b b2 bb
       0.091942765 -0.032160413 -0.15290114 -0.0054353885
0000f0 94 86 b9 3d f4 22 05 3c a1 91 fb 3d 2c 3f e1 be
       0.09058872 0.008126009 0.12283636 -0.4399351
000100 2f 3b cf bd 3c 8c 91 3e 2e 04 fa 3d 1e cb b4 bd
       -0.1011871 0.28427303 0.122078285 -0.08827804
000110 54 ef 8d be f7 89 07 be 3c 9b 40 be bc 60 f4 3d
       -0.27721655 -0.13236223 -0.18809217 0.11932513
000120 6e 1e 81 3d 3d 97 84 be 5f c1 e3 bd a1 2d 66 3d
       0.06304632 -0.25896636 -0.11120867 0.05619586
000130 1c 0f 23 3e a5 b7 0b 3f 61 cb 8b 3e 95 17 a0 3b
       0.15923733 0.54577094 0.27303603 0.0048856237
000140 f6 d7 69 3d 0e fb 2a 3d 9f e8 ac 3d 48 0b 88 be
       0.057090722 0.04174333 0.084428065 -0.26571107
000150 49 f6 06 3e 2e c9 f7 bd 1c d6 98 bd ba d0 74 3e
       0.13179888 -0.12098919 -0.07462713 0.23907748
000160 49 ab 9b be 71 a2 24 3d 8e 8a b3 be bf 68 97 3e
       -0.30404118 0.04019398 -0.35066646 0.29572102
000170 1e 19 a8 be 98 75 29 be ed 37 9f 3e 76 ed 0a bf
       -0.32831663 -0.16548765 0.31097355 -0.54268587
000180 87 6f 07 3e 19 93 e0 bd 2c 2d 7a 3e 99 9a bb bd
       0.13226138 -0.10965557 0.24431294 -0.091603465
000190 72 80 1d 3e 00 f2 80 3d e6 c8 5a 3e d8 81 26 3e
       0.15381029 0.06296158 0.21365699 0.16260469
0001a0 a3 aa 8f 3e 73 c4 cd 3d bb ab 88 3d a2 98 54 3d
       0.28059873 0.10047235 0.0667338 0.051903374
0001b0 34 4d af 3d 1f 37 a1 bd 91 13 c7 bd 6c 95 06 be
       0.08559647 -0.07871842 -0.09720529 -0.13142937
0001c0 6c 48 4f be c7 ce b3 be 81 3a 98 bd 9b ad e5 bd
       -0.2024247 -0.35118696 -0.07433034 -0.11214753
0001d0 d3 e8 96 bd dc e6 32 3e 57 b8 23 3e b9 31 49 bb
       -0.073686264 0.17470878 0.15988289 -0.0030699803
0001e0 51 8e a1 3c c7 f5 a6 3e d4 0a bd bd ab 89 e9 3e
       0.019721182 0.32609388 -0.09230581 0.45612845
0001f0 a0 92 fe bd be b1 f3 bd 25 bc 8f bd 86 46 90 bd
       -0.1243031 -0.11899136 -0.070183076 -0.07044701
000200 be ba 6a be f2 b2 3a 3d f1 9f 06 3e 14 30 8b 3e
       -0.22922799 0.04558081 0.1314695 0.27185118
000210 70 1f f2 bd c1 36 07 3f 43 40 c4 3e 93 49 2e 3d
       -0.118224025 0.5281792 0.38330278 0.042550635
000220 81 ec cf 3e 1e 32 50 3d e1 ec 58 be 72 06 af bd
       0.40610126 0.050829045 -0.21184112 -0.08546151
000230 ed e5 ff bd b4 22 a7 3d d8 46 7c 3e 2e a4 d5 bd
       -0.12495027 0.08160916 0.246364 -0.104317054
000240 f1 56 b7 be 52 22 49 bf 1e 51 b6 be bc 2c 7e 3e
       -0.3580852 -0.78567994 -0.35608763 0.24821752
000250 a2 84 19 3d ea 3b b3 3d 95 7f 34 3f 3c aa d6 bd
       0.037480004 0.08751662 0.70507175 -0.104816884
000260 5f 89 14 be c1 e3 29 3e e2 7c d3 be 9b d6 5d 3e
       -0.14505528 0.16590787 -0.41306216 0.21663897
000270 a5 39 05 be 2d 04 32 3e 9f 04 fd bc 92 92 1c 3e
       -0.13010271 0.17384405 -0.030885993 0.15290287
000280 9e 28 b2 bd 47 78 ae bd 9b e7 a7 be 8c 88 6c be
       -0.08699153 -0.08519035 -0.32793888 -0.23098963
000290 9b f3 1d 3e 42 89 26 3e a4 ff 55 be 79 be 78 3e
       0.1542496 0.16263297 -0.208983 0.2429141
0002a0 56 47 d2 3e 53 b0 cc be 03 ee fe bd a7 63 a3 3e
       0.4107005 -0.39978275 -0.12447741 0.31911966
0002b0 86 9e ab 3d 85 38 d7 3c 5c 78 42 3e 52 63 1e be
       0.08379845 0.026272068 0.18991226 -0.15467575
0002c0 e2 ea 5e be 39 0b 53 be 65 30 b0 bc 70 3d ee 3d
       -0.21769288 -0.2060975 -0.021507451 0.11632812
0002d0 9b 38 99 bd 43 60 8d be 5e cc 04 be f9 32 6e 3e
       -0.074815 -0.27612504 -0.12968585 0.23261632
0002e0 89 ae ef 3d de e5 85 3e ed 94 c0 bd 4e 34 c3 3e
       0.11703212 0.26151937 -0.09403405 0.38125843
0002f0 ab 75 72 bb e6 2e be be cf a0 fb 3e 4d 14 b0 bd
       -0.0036996405 -0.37145156 0.49146125 -0.08597622
000300 bf 9a 87 3e a6 d8 8b be 06 69 04 bf d4 4d 9e be
       0.2648525 -0.27313727 -0.51722753 -0.30918753
000310 24 77 25 3e ab 1e 6b be e1 50 b4 3c cf 6c 81 3d
       0.1615873 -0.22960918 0.022011222 0.06319582
000320 fe a2 a7 3e 1a 5d b7 3e 3e c1 de 3e a6 ad 21 3d
       0.3274154 0.35813218 0.43506807 0.039472245
000330 da 60 d8 bd a5 55 92 3e a1 53 f4 be 22 77 5f be
       -0.10565348 0.28580967 -0.47720054 -0.2182279
000340 48 4e 8e bc fd fc 84 3e 61 b4 74 3e d5 69 83 bc
       -0.017371312 0.25974265 0.23896934 -0.016041676
000350 af 15 ef 3c 46 82 83 3e 0e 15 d9 be 0c cd 75 bb
       0.029185144 0.25685328 -0.42398876 -0.003750625
000360 59 79 5f 3e d1 4a 46 3d 86 78 31 be 6a 76 da bb
       0.21823634 0.048411194 -0.17331132 -0.006666948
000370 ff e0 cf 3e ae a6 3a be be ae ef bd 7f 49 93 bd
       0.40601346 -0.18227646 -0.11703251 -0.07191753
000380 bf 81 92 3e 95 b9 ca 3d 2b 66 09 3f 31 1f 94 3d
       0.28614613 0.09898678 0.5367152 0.07232512
000390 3f 3e 4a 3e 5c c9 b3 be fc 8b 7e 3e 28 6f b4 bd
       0.19750308 -0.35114563 0.24858087 -0.08810264
0003a0 5e e4 63 bf 92 d2 fe bd 5f 2d a7 be 4b dc 96 3e
       -0.89020336 -0.12442507 -0.32651803 0.29464945
0003b0 e1 a8 39 3f 0e 66 33 be 7a b1 44 3d cf e2 d8 3e
       0.72523314 -0.175194 0.048020817 0.4236054
0003c0 56 a0 1b 3e d0 ed f0 3e ec 61 e1 bd 96 3e aa bc
       0.15197882 0.47056437 -0.11005005 -0.020781796
0003d0 f8 63 87 bc cd 5d 3f 3e e6 05 db bd 31 b1 20 be
       -0.016527161 0.18688126 -0.106944844 -0.15692593
0003e0 da d1 34 3d db b5 78 bd 25 c9 22 3f 6d b3 ef 3d
       0.044145443 -0.060720306 0.6358817 0.117041446
0003f0 1a d9 29 be a4 03 d5 3d b3 59 b3 bd 32 90 12 3e
       -0.16586724 0.10401085 -0.08757343 0.14312819

bias_ih_l0 f4 [128]
000000 64 eb 08 bd 8c 35 8f bd ea 2e e7 3d 0a c5 f8 3d
       -0.03342761 -0.06992635 0.11288245 0.12146957
000010 89 b8 5f bc c0 5b 0d 3e 31 db 00 3e e2 51 11 be
       -0.013654836 0.13804531 0.12583615 -0.14191392
000020 53 d5 25 3d b8 11 0d 3e 67 71 53 bd a1 a8 ec bd
       0.040486645 0.1377629 -0.05162182 -0.11555601
000030 89 9e 2e 3d 5b 88 10 3e ee 03 49 be c2 d5 a0 3c
       0.04263166 0.14114515 -0.19630405 0.019633178
000040 ed 80 99 3c ff ef 02 3e a7 1b 90 3e cf 43 a7 bb
       0.018738234 0.12786864 0.28146097 -0.005104519
000050 a4 5c 54 3e 23 6a f4 bc 6c 8a b1 bd 44 70 cc bd
       0.20738465 -0.029835766 -0.0866898 -0.099823505
000060 46 67 37 bb 0c b7 7e bd 01 ff b3 3d 24 a3 66 bb
       -0.002798514 -0.062186286 0.087888725 -0.0035192454
000070 7e 01 03 3e 5b bb 99 3d 82 ed 80 3e 01 7b b2 3d
       0.12793538 0.07506438 0.25181204 0.087148674
000080 ad 28 2e 3e 28 38 0a be 82 8a d1 bd 92 13 c8 bd
       0.17007704 -0.13497984 -0.102314964 -0.09769358
000090 b4 e5 83 3b 8f a1 c8 3d c6 51 b0 3d 57 95 60 3e
       0.0040251855 0.0979644 0.08609347 0.21931969
0000a0 c0 74 4d 3e d2 10 b6 3e eb 9f 99 3d f1 a4 67 3e
       0.20064068 0.35559708 0.07501205 0.22621514
0000b0 7c 84 c5 bd 80 42 11 3e 2c 54 fe bc e1 89 bf bd
       -0.0964441 0.14185524 -0.031045996 -0.0935247
0000c0 66 23 00 bd b9 c2 83 3e 3d 83 a0 3e 5f 4b 1b 3e
       -0.03128376 0.257345 0.31350127 0.1516547
0000d0 eb c6 30 3e 06 da 25 3e 50 77 0f be 72 b2 3b 3d
       0.17263381 0.1619645 -0.14010358 0.045824476
0000e0 89 3a 9b bc e3 24 b2 3d 8d d6 19 3e 99 c4 46 3e
       -0.01894881 0.08698442 0.15023251 0.19410934
0000f0 c0 6f 35 be 46 57 d3 3d ef e0 a8 3c 22 be 12 bc
       -0.1771841 0.103193805 0.02061507 -0.008956464
000100 4a 58 31 be bc 02 7c 3e 15 b4 49 3e 5f 7b 15 be
       -0.17318836 0.24610418 0.19697602 -0.14597844
000110 3a a7 4b 3e b5 67 ff 3d c4 a0 c5 3e 75 d9 08 3e
       0.1988801 0.124709524 0.38599217 0.13364203
000120 c5 06 e6 3d d5 a3 7d bd ad 2d 1a 3f e9 86 8a 3d
       0.1123176 -0.06192382 0.60225946 0.06764013
000130 f8 f0 f5 3d 54 3a c0 3e 78 45 e6 3d 11 eb e8 be
       0.12008852 0.375445 0.11243719 -0.4549184
000140 f1 26 ff be 7e ba 96 be 65 83 7a 3e 12 27 08 be
       -0.49834397 -0.29439157 0.24464186 -0.13296154
000150 dc 21 f0 3d 5b 7c be be a9 39 11 3e 1f 8a 36 3e
       0.11725208 -0.3720425 0.14182152 0.17826127
000160 8f 8e 9c be c7 1a 78 3d 90 25 39 3e 6c ed ec 3d
       -0.30577514 0.060572412 0.18080735 0.11568722
000170 24 24 09 bf e7 31 e4 3d 93 a8 0a be 5b 65 36 bf
       -0.5357077 0.111423306 -0.13540868 -0.71248406
000180 29 da 3a bc 38 12 30 3e 88 ba 7b 3e 13 30 43 3e
       -0.0114045525 0.1719445 0.24582875 0.19061308
000190 96 d3 2b 3e f9 04 83 3e b7 14 92 3e 93 84 f4 3d
       0.16779932 0.2558973 0.2853143 0.11939349
0001a0 4c d0 9c 3d ab 14 b9 3e 9d 7f fc 3d 7c 2e a2 bd
       0.07656917 0.3614858 0.12329028 -0.079190224
0001b0 3d 43 fe bc 6b d6 68 3e 9b f6 17 3d 1a 40 db 3d
       -0.031037921 0.22738044 0.037100416 0.10705586
0001c0 e8 72 04 3e 7f ff 87 bd d9 60 8d 3e 94 ae 47 3e
       0.12934458 -0.06640529 0.2761295 0.1950019
0001d0 08 a7 13 3c db ae 42 3e bc 07 4d 3d 36 19 84 bd
       0.009011991 0.19012015 0.050056204 -0.06450121
0001e0 67 7a 7d 3e ad 0b e0 3c 92 dc ab 3e 9f 61 7d bd
       0.24753724 0.027349317 0.3356672 -0.061860677
0001f0 89 f2 d7 bd bf 49 8e 3d 8b f3 41 3e 1e 1e ac 3c
       -0.10544307 0.0694766 0.1894056 0.021010455

bias_hh_l0 f4 [128]
000000 62 4e 48 3e 63 1c 42 3e e4 6a 30 3d 46 66 42 bd
       0.1956115 0.18956141 0.04307069 -0.047460817
000010 ca 9d a4 3d b9 24 67 3e 2c 5d f7 bd d0 f2 1a bd
       0.080379084 0.22572602 -0.12078318 -0.03782922
000020 11 0c f4 3d 67 ee 56 3e fd 1d 1d 3e ae de be 3d
       0.11916364 0.20989381 0.15343471 0.093198165
000030 50 d6 30 3d 7b 0a 1a 3e 54 16 07 3d 2f cf 90 3d
       0.043173134 0.1504306 0.032980278 0.07070767
000040 27 56 04 bd 2d aa 47 3d a0 ce 43 3e 4b 12 4d bd
       -0.032308724 0.048746277 0.1912179 -0.050066274
000050 47 8c 59 3e 97 04 a3 3d bc ad 54 3e e5 75 31 be
       0.21244918 0.0795986 0.207694 -0.1733013
000060 c1 dc e0 bd 32 d5 14 be 99 86 55 3d 6e 2c cc bd
       -0.109796055 -0.14534453 0.052130315 -0.09969412
000070 eb 77 1d 3e aa 4f cb 3d 8f 52 e3 3d 32 d0 ed 3d
       0.15377776 0.09927304 0.11099731 0.11611976
000080 a2 ec 12 3d 22 32 b0 3d bb 06 b1 3c c3 02 dc 3b
       0.035870202 0.08603312 0.021609655 0.0067141964
000090 be 8a 6c 3c 2f 1c 8d bd 20 9b 17 bd 60 b1 90 bd
       0.014437376 -0.06890141 -0.037013173 -0.070650816
0000a0 7f de 79 bd 56 26 35 3e eb 13 cf bb bc b3 f6 3d
       -0.061003204 0.17690405 -0.006319513 0.12046
0000b0 92 04 45 3d a5 aa 1e 3e 50 fd 3f be 03 78 2b be
       0.04810006 0.15494783 -0.18748975 -0.16745
0000c0 16 34 14 3d 1c 54 34 bb 1f 8b 2c 3e de 86 11 bd
       0.036182486 -0.0027515953 0.16849945 -0.03552901
0000d0 64 00 29 3e d1 41 ae 3d a8 17 9b 3b 3f 62 d0 bd
       0.16504055 0.08508647 0.0047330447 -0.10174989
0000e0 6f c5 b3 3b ac 0d 07 3e 1e af 79 3d 9c 8b cb bc
       0.0054861824 0.13188809 0.06095802 -0.024846844
0000f0 19 34 ae 3c e8 6e b6 bd 64 97 ca bd 62 07 2c 3e
       0.021265076 -0.089078724 -0.09892157 0.16799691
000100 00 e0 c7 3b 27 31 87 3e c3 62 07 3c dc 03 e7 bd
       0.006099701 0.26404688 0.008263293 -0.11280033
000110 e8 74 8b 3e 64 c7 9c bd e4 27 3a 3e dd 29 08 3e
       0.2723763 -0.07655218 0.1817928 0.1329722
000120 86 f9 17 be d4 97 24 3e 37 f5 06 3f fa 2a 33 3e
       -0.1484128 0.16073543 0.5271792 0.17496863
000130 1e 56 a6 3d 17 8b e5 3e 9f 5f b7 3d 34 40 b2 be
       0.08121894 0.4483268 0.08953785 -0.34814608
000140 a4 a2 d1 be 36 58 fc bd 79 f2 1d bd 24 01 0f bd
       -0.40944397 -0.123215124 -0.038561318 -0.034913197
000150 d3 28 28 3e 0b 24 a9 be f0 fb 8b 3e 86 56 e9 3d
       0.16421823 -0.3303531 0.2734065 0.11393456
000160 c9 6b 77 be 9e f3 90 3e 26 9f bf bc c2 fc 06 3e
       -0.2416221 0.28310865 -0.023391318 0.13182357
000170 bf 36 2f bf 80 06 95 3d c8 89 b7 3d 4a 5d 64 bf
       -0.6844291 0.072766304 0.089618266 -0.8920485
000180 6c 86 81 3e 72 77 17 3e 52 b8 14 3e 53 0a 9b bd
       0.25297868 0.14791659 0.14523438 -0.075703286
000190 21 4f b0 bb 87 c6 89 3e bb 73 57 3e ad c0 45 3e
       -0.0053805267 0.26909277 0.21040241 0.19311781
0001a0 44 07 f5 3d 9d 98 bf 3e 8a 54 8c 3d 92 48 6f bd
       0.119642764 0.37421122 0.06852062 -0.058418818
0001b0 32 b3 bd bc 94 3a b1 3d 3c 9f d2 3d d4 27 56 3e
       -0.023156736 0.08653751 0.10284278 0.2091363
0001c0 43 0c 8e 3e d1 64 03 bc a2 e9 5d 3d 5d 9e 38 3e
       0.2774373 -0.008019642 0.054177888 0.18029161
0001d0 ec 9e 05 bc 40 a3 3b b7 71 05 2f 3e f0 9c 63 3e
       -0.008155566 -1.1184078e-05 0.1709192 0.22227836
0001e0 43 d2 fa 3d f6 db 1c 3e cb f4 fd 3d 37 02 fd 3d
       0.122471355 0.15318283 0.12400206 0.12353938
0001f0 90 27 2e 3e f8 f2 0b 3e c4 ef e9 3d 4b 8e af 3d
       0.1700728 0.13666904 0.11422685 0.08572062

weight_ih_l0_reverse f4 [128, 2]
000000 ca b2 a4 3e 61 2e 47 3e 94 a4 25 3d c6 e1 95 3c
       0.32167655 0.19451286 0.040440157 0.018296134
000010 cf 13 e6 bd 38 20 1c be bf b4 d0 3e 05 77 ac 3e
       -0.11234247 -0.15246665 0.40762898 0.33684555
000020 be 79 64 be 0a 9c 0f 3d 5f 33 b3 3c 40 29 5b be
       -0.22312066 0.03506092 0.021875082 -0.21402454
000030 12 c8 df be c2 59 f3 be 7e 59 c0 3e 95 0f ce be
       -0.4370733 -0.47529417 0.37568277 -0.40246263
000040 b0 0c 4f 3e 47 12 35 bf 02 2b 00 bf b2 7b db 3e
       0.20219684 -0.70731014 -0.50065625 0.4286781
000050 55 51 f0 be 38 f2 b5 3e 9a ff c3 3e 1c 74 38 3c
       -0.4693705 0.3553636 0.38280946 0.011258151
000060 e8 0f c5 be b8 b9 c1 bd 59 14 c7 be 68 90 8f bd
       -0.38488698 -0.09459251 -0.38882712 -0.07009965
000070 c0 cd 4a 3f 7c 96 0f bf 23 4f b1 3e 9b 91 00 3e
       0.792202 -0.56088996 0.3463069 0.12555544
000080 6a e9 fb bd 40 35 1a be 5b da 39 3e 6a 38 d5 3e
       -0.123003796 -0.15059376 0.18149702 0.41644603
000090 73 7c f2 3b d3 ab 48 be 63 43 72 3c 02 68 2a 3e
       0.0074000894 -0.19596796 0.014786574 0.16641238
0000a0 3f a8 23 3c 20 a2 3d 3e 0e c8 f1 3e ea 86 96 3e
       0.009988843 0.18518877 0.47222942 0.29399806
0000b0 bd 66 8a bd ae c4 0e 3e 7d 33 ec bd 66 f9 eb bd
       -0.06757877 0.13942215 -0.11533258 -0.11522178
0000c0 53 75 81 bf 02 71 ae bd af 0d 40 bf a2 23 af be
       -1.011393 -0.08517648 -0.7502088 -0.34206873
0000d0 25 b7 2f bf 89 1c 5e be 7b ce 7e bd b6 38 2a 3e
       -0.6863883 -0.21690573 -0.062208634 0.16623196
0000e0 f2 ea e5 3e c0 b9 a9 be 04 04 fc bd 78 4b 36 3e
       0.44905812 -0.33149529 -0.123054534 0.17802227
0000f0 e8 92 9a be da b7 11 3e 10 93 0f bf 93 b2 ca be
       -0.30190206 0.1423029 -0.56083775 -0.39589366
000100 cc 2b 98 3e 23 9e fb 3e a7 16 a0 3d 0d cd c3 3b
       0.29720914 0.49144086 0.078168206 0.0059753717
000110 86 ae 26 be fb ae b5 be 26 3c b4 3e 02 f7 d9 3e
       -0.16277513 -0.35485062 0.3520214 0.42571265
000120 71 6a 82 be 67 83 92 3d 70 70 cf 3e f9 ba 2d be
       -0.25471833 0.07153969 0.4051547 -0.16965856
000130 97 83 fd be f5 a7 ea be b1 a3 d7 3e cb 4a 62 be
       -0.49514458 -0.45831266 0.42117074 -0.22098844
000140 28 53 a3 3e 94 45 35 be f2 73 9d be b1 f0 4e 3e
       0.3189938 -0.17702323 -0.30752522 0.20209004
000150 aa 8a 1e bd 21 b4 ca 3d 1e 57 84 3e 1b 91 31 bd
       -0.03870646 0.09897638 0.25847715 -0.043351274
000160 c5 b5 18 be 3a 30 89 bd 3d 50 86 be f5 e7 f4 bc
       -0.1491309 -0.066986516 -0.26233092 -0.029895762
000170 35 d3 18 3f 96 07 06 bf 58 91 e0 3e d0 c8 30 3e
       0.59697276 -0.52355325 0.43860888 0.17264104
000180 c6 a6 45 be 63 9f 66 bd 40 16 05 be b1 9a bb 3e
       -0.193019 -0.056304347 -0.12996769 0.36641458
000190 42 48 1a be d6 e4 e0 bd de b6 94 be d0 18 08 3e
       -0.15066627 -0.10981147 -0.29045767 0.13290715
0001a0 46 6a 7e bc 5a 29 29 3e 8f f0 8e 3e a3 83 af 3d
       -0.015528267 0.1651968 0.27917907 0.085700296
0001b0 ff 2d bf bd 5f 3b 14 bc 03 fb 0e bf da fa 76 be
       -0.09334945 -0.009047358 -0.55851763 -0.2411913
0001c0 7c 6c 03 bf 42 67 8f bd e9 5c 56 be 28 b2 a3 be
       -0.5133741 -0.07002117 -0.2093388 -0.3197186
0001d0 86 3d 90 be bb 5b 39 be 3d 8b b9 3d a3 e4 81 bd
       -0.2817194 -0.18101399 0.09059761 -0.06342437
0001e0 44 2d 14 3e 6a bf a7 bd f4 e6 cf bd 21 13 75 3e
       0.14470392 -0.08190806 -0.10151473 0.23933078
0001f0 ec 63 af be 1b 4d 4b 3e 67 1f 11 3e 35 6f ea be
       -0.34255922 0.19853632 0.14172135 -0.4578797
000200 a8 83 ac be 03 8f 84 be b4 93 3c 3e 64 fd ca 3e
       -0.33694196 -0.2589036 0.1841572 0.39646447
000210 ef 18 89 3e 6d 33 ff 3d f1 46 ad be ae 96 98 be
       0.26776835 0.124609806 -0.33843186 -0.2980246
000220 7d 45 94 3e 2c 2a e4 3e 44 40 83 3e ac a1 af bd
       0.28959265 0.44563425 0.25634968 -0.08575758
000230 9e dd 96 be b7 9e c7 be 1e 11 d6 be 11 4f 44 3e
       -0.29465955 -0.38988277 -0.41809934 0.19170786
000240 3a 2c d7 bc 40 dd 45 bf a3 ef 2f be 7e 01 00 3f
       -0.026266206 -0.77290726 -0.17181258 0.50002277
000250 19 91 f8 3e 88 3d 81 be 17 9d 00 3f 82 fa 9b bd
       0.485482 -0.25242257 0.502397 -0.0761614
000260 24 7f b2 3e b6 c5 84 3d ef 24 de 3e 1d 0e fb bd
       0.34862626 0.06483023 0.43387553 -0.12258551
000270 4e 04 c7 3d 59 c9 ba be ac 51 7a 3e 73 e3 b4 3d
       0.09717618 -0.3648174 0.24445218 0.08832445
000280 53 9a 9e bd 72 e6 1f 3f 4c 82 a4 3e 4c 14 4e 3f
       -0.07744279 0.62461007 0.3213066 0.8049972
000290 0e 87 04 3e b4 7a d8 be 75 5f 2b bf f4 53 91 3e
       0.12942144 -0.42281115 -0.6694253 0.28384364
0002a0 4c 5e a2 be a9 16 1a bd af f7 d1 be f5 c5 dc bd
       -0.31712568 -0.037619267 -0.4100928 -0.10779945
0002b0 88 25 8b be 8b d9 2e 3e 69 ae 2e 3e 38 e1 8f 3e
       -0.27177072 0.17075174 0.1705872 0.28101516
0002c0 4d 61 e2 be fa 6d 8c 3e 78 61 0e 3f 6d c5 e4 3e
       -0.4421486 0.27427655 0.55617476 0.44681874
0002d0 33 30 ca be 8c 8c de bd 62 cb 12 be 50 24 9e be
       -0.39489898 -0.10866651 -0.14335397 -0.3088708
0002e0 e5 5c db be be 96 74 3e 52 1c ac 3e a7 ba 58 3d
       -0.4284431 0.23885629 0.33615357 0.05291238
0002f0 e9 4c 4a 3e 57 6f 97 be 2b ee 47 3e 5c 6a 82 be
       0.19755901 -0.29577133 0.19524448 -0.2547177
000300 f1 5c bd 3e d8 ce 9a 3e 04 d5 06 3d 31 37 02 bd
       0.3698497 0.30235934 0.03291799 -0.031790916
000310 f6 79 8a bc 22 0a 6f be a1 d8 6d be f5 c5 bf 3c
       -0.016903859 -0.23343709 -0.23227169 0.023409823
000320 b7 01 ad be 82 e7 1e 3e 63 3d 1f 3d a8 dc 16 bd
       -0.3379037 0.15518 0.038876902 -0.036831528
000330 c1 47 0b bf c5 4d b7 be 7b ef 0a 3f d5 0e 03 bf
       -0.5440636 -0.3580152 0.5427167 -0.51194507
000340 47 e7 54 be 05 3d 17 bf 2e 5b b7 be 9a 1f 97 3d
       -0.2079135 -0.59077483 -0.35811752 0.073790744
000350 61 f4 89 be 8a 9b 1c 3e f4 f3 04 3f 60 af 0e be
       -0.2694426 0.15293708 0.5193474 -0.13934088
000360 b4 9a 7e be 6c 86 65 be 41 e4 65 be 80 f8 0a 3e
       -0.24863702 -0.22414559 -0.22450353 0.13571358
000370 14 70 95 3f 36 1b 2b bf a4 fa cb 3e 36 9e dc 3d
       1.1674829 -0.66838396 0.3983966 0.10772364
000380 40 74 4a 3d b9 d2 95 3b c3 42 89 3b 08 91 cd 3d
       0.04942727 0.0045722392 0.004188867 0.10037428
000390 e0 16 ff bd 62 03 90 3c bd b2 29 be 38 f7 aa 3e
       -0.12455535 0.017579738 -0.1657209 0.33391738
0003a0 02 41 9c 3e 47 df 88 bd 1e 00 78 3e fd f1 c6 3e
       0.30518347 -0.06683212 0.24218795 0.38856497
0003b0 56 9f d7 3d eb be 07 bd d7 38 d1 be 1b 0f e8 bd
       0.10528438 -0.033141058 -0.40863678 -0.11331006
0003c0 2a 7f f9 be bc 73 58 3d 3f 7b 31 be 53 a8 b2 be
       -0.4872983 0.052844748 -0.17332171 -0.34894046
0003d0 dc 1f 70 bf a1 c6 60 be 73 df f7 3d 0e f2 1d 3e
       -0.93798614 -0.21950771 0.121031664 0.15424368
0003e0 6a 65 68 3f 34 49 ea be 64 d5 70 be ba 2c 81 bd
       0.90779746 -0.45758975 -0.23518902 -0.06307359
0003f0 f4 21 8d be 30 98 64 3e 26 c9 6b be 76 7b 0d be
       -0.27564967 0.2232368 -0.23025951 -0.13816628
