experiments/pedestrians/models/models_14_Feb_2024_17_26_50_eth_vel_ar3/model_registrar-11.pt (torch, 527902 bytes, 43 tensors)

weight_ih_l0 f4 [128, 6]
0.026795657 0.0855188 -0.14933659 -0.025552848 -0.03317047 0.123782344 -0.18031971 -0.24433506
-0.124640904 0.14558856 0.02992127 -0.038866624 -0.019940818 -0.043124218 -0.24083053 -0.12704898
-0.22605889 0.12146086 0.12931731 0.19241183 0.022307467 -0.05407376 0.039033063 0.091967724
-0.061184365 0.031150213 -0.14029813 -0.22096606 0.306274 -0.51493806 0.16296594 0.04383693
0.09483471 0.14241569 0.20828821 -0.17741157 -0.31457785 0.03990032 0.05133704 -0.08768957
0.029095802 -0.14703976 -0.17949638 0.107518345 0.18993612 0.051497646 -0.023363225 0.035579037
0.26499784 0.15900171 0.18896514 -0.10720127 0.20082931 -0.045363795 -0.09150347 -0.21659794
-0.07472416 0.23177311 0.05810012 -0.03314823 0.062883474 -0.09991388 -0.28544128 0.074817166
-0.12025391 0.024700575 -0.10855507 0.0713046 -0.24995424 -0.005573233 -0.018505933 -0.00655036
-0.006350228 -0.11688578 -0.116031826 0.034080666 0.21297215 -0.19625671 -0.041297548 0.06688946
0.19095662 0.10618232 0.22102526 0.12823366 -0.04874981 -0.067201614 -0.4367037 0.10887192
-0.029462857 -0.10057192 -0.15531543 0.122237094 0.1106551 0.11915452 0.06603228 0.18144327
0.22101533 0.034915216 -0.13121885 0.19405285 -0.08236024 -0.13332807 0.080443345 -0.17326507
-0.07155797 0.026141489 -0.032518316 0.10136851 0.08303098 -0.03181377 -0.049531214 0.15276176
0.041199762 0.17715836 0.014581176 0.0065910476 -0.206917 0.11569287 0.06580903 0.20067945
-0.1927156 0.11462539 0.2194332 -0.1244339 0.25509283 0.0008770921 0.015922984 0.16578484
0.063147776 -0.019261947 -0.015627058 0.06140462 -0.075323634 -0.22676352 -0.02795283 -0.074732594
0.24114297 0.0025856167 -0.025655273 -0.0022091267 0.06518662 -0.070466965 0.026829885 0.07815771
0.019173846 -0.10242913 -0.13507196 -0.018133324 -0.14776088 -0.08765413 -0.16587886 -0.09885401
-0.04567279 0.16145474 0.06361015 0.16185975 -0.072730675 0.13524434 -0.36262828 -0.16955587
-0.15814595 0.0049683303 -0.10574581 0.06357235 0.3791606 0.38956746 0.1529438 0.26328194
0.11297211 0.079575956 -0.12118389 -0.04949915 0.08361993 0.14702718 -0.2609275 -0.026267162
-0.07952277 -0.121496014 0.18044648 -0.0071521546 -0.09953916 -0.02741345 0.18211702 -0.03186719
-0.10349114 -0.15292501 -0.16671804 0.09990269 0.09997696 -0.034841526 -0.24237193 -0.11225354
0.103530824 0.17964642 -0.14457737 -0.13116686 -0.09656356 -0.1794951 0.06057248 -0.01964444
-0.013508341 0.062311742 0.07772851 -0.08789657 -0.078296 -0.00787906 -0.099055246 -0.0060502323
-0.14199857 0.05724124 0.094705954 0.09180291 -0.010154421 -0.1971545 -0.060386967 -0.078226216
0.11644104 -0.24976093 0.049093958 -0.0047472194 -0.1860953 -0.05068514 0.092204414 -0.041664485
0.078099415 -0.16761366 -0.2461418 -0.0161616 -0.052130025 0.027744938 0.10394789 -0.07295339
-0.09669524 -0.061519817 -0.08187439 -0.13612796 0.18653232 -0.013952119 -0.05867878 0.021998962
0.24493018 0.010002779 -0.11733811 -0.11102491 -0.011054505 0.09559108 -0.22121538 -0.04749447
0.22784787 0.07157753 0.2116651 0.03806079 0.07944362 -0.26411286 -0.077905215 0.10435606
00000000: 9182 db3c 7b24 af3d b1eb 18be 3554 d1bc
00000010: c2dd 07bd 9981 fd3d bba5 38be f832 7abe
00000020: bb43 ffbd 2b15 153e 741d f53c 9c32 1fbd
00000030: ed5a a3bc 05a3 30bd 479c 76be 2119 02be
00000040: fb7b 67be 79c0 f83d c26b 043e 9b07 453e
00000050: 26be b63c 727c 5dbd 22e1 1f3d 9359 bc3d
00000060: 759c 7abd bb2e ff3c 50aa 0fbe ed44 62be
00000070: f2cf 9c3e fbd2 03bf 8be0 263e 5a8e 333d
00000080: b338 c23d 6bd5 113e 8149 553e 61ab 35be
00000090: 5910 a1be 856e 233d ca46 523d 9796 b3bd
000000a0: 525a ee3c 9791 16be e6cd 37be 9432 dc3d
000000b0: 9d7e 423e 32ef 523d 3c64 bfbc 53bb 113d
000000c0: ccad 873e 58d1 223e 1480 413e 578c dbbd
000000d0: 33a6 4d3e 63cf 39bd 2c66 bbbd dacb 5dbe
000000e0: fb08 99bd ee55 6d3e 64fa 6d3d 70c6 07bd
000000f0: 0dc9 803d a69f ccbd 5c25 92be be39 993d
00000100: af47 f6bd dc58 ca3c 1f52 debd 2508 923d
00000110: 01f4 7fbe ab9f b6bb c199 97bc 67a4 d6bb
00000120: 9315 d0bb d061 efbd 18a2 edbd 2b98 0b3d
00000130: 5f15 5a3e 85f7 48be 9e27 29bd 57fd 883d
00000140: 228a 433e 1e76 d93d 7254 623e af4f 033e
00000150: e1ad 47bd 00a1 89bd a197 dfbe 3ef8 de3d
00000160: 175c f1bc a7f8 cdbd 020b 1fbe 7157 fa3d
00000170: 249f e23d 4907 f43d ef3b 873d 44cc 393e
00000180: d851 623e 4203 0f3d 3c5e 06be cab5 463e
00000190: 7cac a8bd 2787 08be 7bbf a43d 666c 31be
000001a0: fc8c 92bd ad26 d63c ed31 05bd 4b9a cf3d
000001b0: 250c aa3d 284f 02bd 3ee1 4abd 946d 1c3e
000001c0: 15c1 283d 0069 353e e3e5 6e3c b7f9 d73b
000001d0: 0de2 53be 62f0 ec3d e2c6 863d ea7e 4d3e
000001e0: 3d57 45be b7c0 ea3d 19b3 603e 33d7 febd
000001f0: 879b 823e a8ec 653a eb70 823c 80c3 293e
00000200: 9f53 813d 3bcb 9dbc 5104 80bc 6983 7b3d
00000210: 4743 9abd b234 68be 55fd e4bc 670d 99bd
00000220: 2fee 763e 7373 293b 022b d2bc ffc6 10bb
00000230: 9080 853d fc50 90bd 59ca db3c 2611 a03d
00000240: 7812 9d3c 5dc6 d1bd 4e50 0abe 568c 94bc
00000250: a14e 17be 0284 b3bd 26dc 29be f973 cabd
00000260: 6413 3bbd 6454 253e 0a46 823d 90be 253e
00000270: d2f3 94bd 7e7d 0a3e 6aaa b9be 0ea0 2dbe
00000280: 03f1 21be 60cd a23b 4291 d8bd 3832 823d
00000290: 5721 c23e 6375 c73e 4d9d 1c3e e4cc 863e
000002a0: ec5d e73d b8f8 a23d 422f f8bd 9fbf 4abd
000002b0: ed40 ab3d 4b8e 163e 4a98 85be 3b2e d7bc
000002c0: d6dc a2bd e7d2 f8bd f6c6 383e 9f5c eabb
000002d0: 30db cbbd 2c92 e0bc e27c 3a3e 2c87 02bd
000002e0: 2af3 d3bd 6098 1cbe 22b8 2abe c899 cc3d
000002f0: b8c0 cc3d fdb5 0ebd 5930 78be 2fe5 e5bd
00000300: f807 d43d 3bf5 373e 170c 14be 9b50 06be
00000310: 1ec3 c5bd 90cd 37be d91a 783d 60ed a0bc
00000320: 1752 5dbc 993a 7f3d 2030 9f3d 1e03 b4bd
00000330: a759 a0bd 2c17 01bc 7add cabd 0741 c6bb
00000340: 1368 11be ca75 6a3d 32f5 c13d 2a03 bc3d
00000350: bb5e 26bc dfe2 49be 5358 77bd 1135 a0bd
00000360: a478 ee3d 54c1 7fbe bf16 493d 908e 9bbb
00000370: c48f 3ebe 399b 4fbd abd5 bc3d 61a8 2abd
00000380: 96f2 9f3d eaa2 2bbe 990c 7cbe 5565 84bc
00000390: 4b86 55bd 5a49 e33c a2e2 d43d 9668 95bd
000003a0: 2708 c6bd 34fc 7bbd c3ad a7bd 2165 0bbe
000003b0: 5402 3f3e 6e97 64bc 2959 70bd 2b37 b43c
000003c0: face 7a3e b2e2 233c f74e f0bd 0761 e3bd
000003d0: f41d 35bc 42c5 c33d 4986 62be 9089 42bd
000003e0: f450 693e 3d97 923d bcbe 583e a2e5 1b3d
000003f0: 56b3 a23d cd39 87be c58c 9fbd a1b8 d53d

weight_hh_l0 f4 [128, 32]
-0.021863148 -0.19833621 0.0029800143 0.09173247 -0.09281085 -0.020646216 -0.029609157 -0.14762291
0.049189635 0.2298531 -0.095354974 0.19320889 -0.09091555 0.19714114 0.12021373 0.08118317
0.13996609 -0.13038616 -0.032882158 -0.07228269 -0.21049307 -0.11491521 -0.072193615 -0.27576295
0.2688637 0.03206469 0.04383643 0.3331188 0.15343155 -0.0020972309 0.14056115 -0.10780345
0.1452772 -0.2058619 0.13961361 -0.057156183 0.035189323 0.19220848 0.044844203 -0.18210629
0.12822025 0.05371282 -0.29222742 -0.09135706 -0.26863346 0.16804741 0.13696903 -0.106374234
0.14031789 0.102907546 -0.17563361 0.06288663 -0.11161383 -0.03899122 -0.12822072 -0.15316372
0.06835592 0.058990557 -0.16304791 0.011840706 0.0050287815 0.027685976 0.17243606 -0.10439538
0.12824422 -0.17820844 -0.079020515 0.13006322 0.056226682 0.15592231 -0.18227968 -0.2316745
-0.02001963 0.25216147 -0.32463342 0.075353056 -0.08768786 -0.09756656 0.15088566 -0.15590641
0.100507885 -0.11460593 0.07988144 -0.1339221 0.09198063 0.112045005 0.030068986 0.15361996
0.2335098 0.110983424 0.11971719 0.20327008 0.16172214 0.08918278 -0.033686914 0.026339669
0.051747248 0.0022294098 0.07610234 0.15424706 -0.1748896 -0.018341623 -0.008403659 0.05131805
-0.040468987 0.10197538 -0.2353657 -0.19516055 -0.19698091 -0.14514427 -0.11768807 -0.19372775
-0.01993436 0.0857777 -0.13859284 -0.046984762 -0.13138735 0.107754275 0.09563812 -0.099166736
0.0038924764 0.041378085 -0.17170213 0.15003249 -0.043614477 0.050600324 0.20621435 -0.03089869
-0.051437255 -0.040427238 0.32806018 -0.0042577875 0.16865396 -0.14320809 0.18255831 0.0644551
-0.08786682 -0.17307197 0.007336272 -0.076398246 -0.15641402 -0.05325997 0.0016066094 -0.2578044
-0.16354477 -0.16622715 0.0048732325 0.01991883 -0.12390973 0.36502722 0.22283095 -0.27247885
-0.010288573 -0.22863294 -0.12327494 -0.2887288 0.034885865 -0.18188724 0.06357049 -0.009638611
0.058908056 -0.16208404 0.103139624 -0.14959021 -0.09926647 -0.03177928 0.09641396 -0.22667444
-0.06865561 0.09283689 0.060010888 -0.10120689 -0.16039999 0.08418493 -0.023735853 -0.069886684
0.0633179 0.16230346 -0.23603709 0.122349426 -0.027055439 -0.05317665 -0.07006695 -0.13908073
0.05763759 -0.058024835 0.13961574 0.21189095 0.06634706 0.026359435 0.25126138 0.117192075
0.14134966 0.008596217 -0.14845523 0.18436304 -0.034219287 -0.048598357 0.16491494 -0.26371774
-0.1239396 0.14968593 -0.14034356 -0.10878461 -0.014144631 0.23018017 0.052596956 0.0033784239
0.09793106 -0.07336171 -0.07831614 -0.10322907 -0.048208937 0.24770871 0.12906776 -0.095150635
-0.076562665 0.13960607 0.10133323 0.15403576 -0.11302089 0.06622388 -0.050252657 0.101745285
0.14588106 -0.15061958 0.032572567 0.119794145 -0.15402538 0.09620382 0.16323411 -0.097419985
-0.0044085775 0.00035741497 -0.06249264 -0.111579426 0.06707931 -0.029630989 0.074294485 0.06058802
0.1721512 0.00464515 -0.20807704 0.011075881 -0.31535107 0.07287524 -0.08959802 -0.23957084
0.13192904 0.27640244 -0.06940314 0.22414716 0.15273899 0.0777456 0.09399891 0.19384746
00000000: 581a b3bc a618 4bbe 584c 433b 3cde bb3d
00000010: 9d13 bebd 4122 a9bc e78e f2bc 762a 17be
00000020: 127b 493d 9c5e 6b3e 7849 c3bd 8dd8 453e
00000030: ef31 babd 5edf 493e 9e32 f63d 5d43 a63d
00000040: 4553 0f3e f383 05be 71af 06bd f208 94bd
00000050: 7f8b 57be aa58 ebbd 3fda 93bd cd30 8dbe
00000060: 81a8 893e 4456 033d d48d 333d 8c8e aa3e
00000070: 291d 1d3e b271 09bb 43ef 0f3e 0ec8 dcbd
00000080: 8cc3 143e 76cd 52be dff6 0e3e 9a1c 6abd
00000090: ae22 103d 4dd2 443e 8eae 373d 127a 3abe
000000a0: 2b4c 033e f901 5c3d d59e 95be 6919 bbbd
000000b0: 538a 89be 9f14 2c3e 9c41 0c3e bcda d9bd
000000c0: 7eaf 0f3e 31c1 d23d 4cd9 33be b5ca 803d
000000d0: cb95 e4bd 42b5 1fbd 4b4c 03be f3d6 1cbe
000000e0: 30fe 8b3d 15a0 713d 08f6 26be 85ff 413c
000000f0: 7ac8 a43b b3cd e23c 1493 303e 3fcd d5bd
00000100: 7452 033e 467c 36be 82d5 a1bd 4b2f 053e
00000110: f34d 663d 19aa 1f3e 86a7 3abe 153c 6dbe
00000120: 3500 a4bc 4f1b 813e 5a36 a6be b452 9a3d
00000130: b195 b3bd fad0 c7bd c581 1a3e eea5 1fbe
00000140: 14d7 cd3d 84b6 eabd e198 a33d e022 09be
00000150: 5760 bc3d da77 e53d 3c53 f63c 8d4e 1d3e
00000160: 311d 6f3e 474b e33d 492e f53d 0826 503e
00000170: 7d9a 253e 76a5 b63d 4afb 09bd 4ac6 d73c
00000180: ecf4 533d 4a1b 123b 8bdb 9b3d f1f2 1d3e
00000190: 4216 33be 2c41 96bc 80af 09bc e032 523d
000001a0: cfc2 25bd 78d8 d03d b503 71be 2bd8 47be
000001b0: 5db5 49be b3a0 14be 7106 f1bd 9160 46be
000001c0: 624d a3bc 38ac af3d 48eb 0dbe 1873 40bd
000001d0: 688a 06be 46ae dc3d ebdd c33d ee17 cbbd
000001e0: eb18 7f3b 117c 293d afd2 2fbe 1ea2 193e
000001f0: 18a5 32bd 4942 4f3d db29 533e 401f fdbc
00000200: dfaf 52bd 0897 25bd 81f7 a73e e984 8bbb
00000210: a0b3 2c3e 24a5 12be 91f0 3a3e 0901 843d
00000220: 85f3 b3bd c739 31be 1c65 f03b af76 9cbd
00000230: ff2a 20be 2027 5abd de94 d23a f0fe 83be
00000240: 4878 27be 7337 2abe a3af 9f3b d02c a33c
00000250: 62c4 fdbd d9e4 ba3e cc2d 643e 5982 8bbe
00000260: 6791 28bc c11e 6abe 9277 fcbd 43d4 93be
00000270: 7be4 0e3d a640 3abe 3f31 823d 44eb 1dbc
00000280: 9349 713d 5cf9 25be de3a d33d 2d2e 19be
00000290: 384c cbbd fe2a 02bd af74 c53d 581d 68be
000002a0: 509b 8cbd 4421 be3d facd 753d 8f45 cfbd
000002b0: e53f 24be 2669 ac3d b171 c2bc c020 8fbd
000002c0: d1ac 813d e132 263e b5b3 71be 5692 fa3d
000002d0: 5ea3 ddbc c2cf 59bd 437f 8fbd 2e6b 0ebe
000002e0: 6515 6c3d 73ab 6dbd 6ef7 0e3e f1f9 583e
000002f0: f8e0 873d beef d73c 55a5 803e 6602 f03d
00000300: f7bd 103e 26d7 0c3c a604 18be aac9 3c3e
00000310: 8629 0cbd 120f 47bd 76df 283e 0306 87be
00000320: 0cd4 fdbd 4547 193e 39b6 0fbe 77ca debd
00000330: e2be 67bc 5ab4 6b3e e86f 573d 8c68 5d3b
00000340: 1490 c83d aa3e 96bd 3664 a0bd c369 d3bd
00000350: bc76 45bd 5aa7 7d3e 572a 043e 56de c2bd
00000360: e3cc 9cbd e5f4 0e3e cc87 cf3d 8dbb 1d3e
00000370: 7f77 e7bd 63a0 873d bbd5 4dbd d55f d03d
00000380: d861 153e 053c 1abe d06a 053d a256 f53d
00000390: d4b8 1dbe 8206 c53d d826 273e 2184 c7bd
000003a0: d475 90bb 6d63 bb39 48f8 7fbd c183 e4bd
000003b0: e160 893d b0bc f2bc b527 983d 252b 783d
000003c0: 6748 303e 5836 983b 2612 55be 9d77 353c
000003d0: b275 a1be 9d3f 953d 2b7f b7bd 0f52 75be
000003e0: 6818 073e 9f84 8d3e 3c23 8ebd d586 653e
000003f0: 9c67 1c3e 1639 9f3d 8082 c03d f37f 463e

bias_ih_l0 f4 [128]
0.051198393 0.11469138 0.053207245 0.019926313 -0.07419181 0.25755826 0.09006608 -0.0721505
0.038591083 0.09304073 0.33021143 0.15841793 0.24104871 0.005659377 0.13111386 -0.07660517
-0.0043849964 0.2205339 0.0126977 0.16835126 0.15850985 0.036124498 0.11749978 0.01114561
0.20525107 0.11806624 -0.045456573 0.04259526 -0.0010993873 0.0350056 0.0022492614 0.113775596
0.07231888 -0.20199984 -0.19435951 0.093732715 -0.095782 -0.09267285 -0.18242821 -0.07038639
-0.13929822 0.010321462 -0.14672714 0.03333256 -0.08382929 0.19375241 0.004233472 -0.089865446
0.09994757 0.0046511195 -0.047441 0.12188009 -0.2333494 0.004321766 0.0503174 0.010292928
0.005475384 0.17177325 0.08330367 0.12876058 -0.011126374 -0.21451934 -0.18736902 -0.21006483
0.14469005 0.12144506 -0.0483392 0.03563629 -0.09532491 0.019218799 0.10079352 -0.04484415
-0.03612545 0.07380171 -0.081864625 0.066984825 -0.09722032 -0.02485921 -0.06761533 -0.11844692
-0.0965389 -0.12786204 0.17809212 -0.049579483 0.058122233 0.07762754 0.10202277 -0.12863132
0.11702867 -0.12303263 0.076168396 -0.15986761 -0.12067998 0.124508165 0.024293853 -0.08583916
0.26179844 0.0913253 0.098793305 0.0946918 0.08869246 0.20836993 0.12310601 -0.031844378
-0.0698699 0.15574579 0.10603079 0.09554924 0.2196706 -0.0027859963 0.16896893 0.09978332
0.12409889 0.15387934 0.10900562 0.051861085 0.26203403 0.062138956 0.098496325 0.06618277
0.0031029126 0.15329854 0.11537587 -0.021140076 0.13760446 0.25393897 0.07336227 0.098113924
00000000: 68b5 513d 50e3 ea3d d7ef 593d 823c a33c
00000010: e0f1 97bd adde 833e 9174 b83d a4c3 93bd
00000020: af11 1e3d 238c be3d 7911 a93e 4f38 223e
00000030: 79d5 763e 4c72 b93b b642 063e 2ce3 9cbd
00000040: 04b0 8fbb a4d3 613e 040a 503c 4664 2c3e
00000050: 6850 223e 48f7 133d baa3 f03d 149c 363c
00000060: 562d 523e b6cc f13d ac30 3abd 5e78 2e3d
00000070: 5119 90ba 0862 0f3d 5868 133b 2e03 e93d
00000080: ec1b 943d 0cd9 4ebe 2e06 47be f0f6 bf3d
00000090: 5a29 c4bd 43cb bdbd 76ce 3abe bd26 90bd
000000a0: 31a4 0ebe 591b 293c a43f 16be b987 083d
000000b0: b1ae abbd 0867 463e f0b8 8a3b 600b b8bd
000000c0: 50b1 cc3d 6b68 983b 7e51 42bd 459c f93d
000000d0: 25f3 6ebe 9a9d 8d3b 9e19 4e3d aba3 283c
000000e0: da6a b33b 54e5 2f3e 1d9b aa3d d0d9 033e
000000f0: 654b 36bc f5aa 5bbe aadd 3fbe 3c1b 57be
00000100: a129 143e 30b8 f83d 53ff 45bd 5cf7 113d
00000110: b539 c3bd be70 9d3c d56c ce3d 80ae 37bd
00000120: 48f8 13bd 5a25 973d a4a8 a7bd 572f 893d
00000130: 721b c7bd 8ba5 cbbc e879 8abd 4c94 f2bd
00000140: 30b6 c5bd 44ee 02be c85d 363e db13 4bbd
00000150: 9411 6e3d 30fb 9e3d 50f1 d03d eeb7 03be
00000160: baac ef3d 88f8 fbbd 2dfe 9b3d 56b4 23be
00000170: 1127 f7bd 23fe fe3d e703 c73c 71cc afbd
00000180: 720a 863e c208 bb3d 2554 ca3d c6ed c13d
00000190: 64a4 b53d ed5e 553e 011f fc3d 406f 02bd
000001a0: f317 8fbd d37b 1f3e ac26 d93d 52af c33d
000001b0: 54f1 603e 4395 36bb 3106 2d3e 335b cc3d
000001c0: 8f27 fe3d 8c92 1d3e 573e df3d 4a6c 543d
000001d0: 5329 863e 6b85 7e3d 71b8 c93d d58a 873d
000001e0: 3c5a 4b3b 4bfa 1c3e 2f4a ec3d f42d adbc
000001f0: 2fe8 0c3e 4a04 823e f53e 963d f4ef c83d

bias_hh_l0 f4 [128]
0.0069082775 0.12779894 -0.08058332 0.18140969 0.06958386 0.013657957 -0.011583682 0.10541401
0.123728886 0.25793692 0.073758066 0.033590168 0.0027549847 0.29992858 0.17167719 0.08381542
-0.09135182 0.21309406 -0.08299291 0.1240741 0.30618727 0.21684125 0.14602545 0.07544357
0.106912464 0.10293756 0.028098145 -0.04898675 -0.08272533 0.02566263 0.07176841 0.16396648
-0.016440248 -0.17590979 0.04332996 -0.1124113 0.2125836 0.070170574 -0.041486412 -0.21521206
-0.06641242 -0.04590077 -0.12779252 -0.027856342 -0.0866116 0.014315905 0.11018809 -0.039753016
-0.030850453 -0.06327279 -0.019088129 -0.059405655 -0.089441836 -0.15847453 -0.1727487 -0.01769465
-0.19810684 -0.13685532 -0.17023316 0.06806783 -0.039347436 0.019397099 -0.05528442 0.091326326
-0.13856892 -0.14732806 0.12174003 -0.019994723 0.16133557 0.05153991 -0.08534898 0.0020465287
0.10513249 -0.019816551 0.04596833 0.084278494 0.083493054 0.041585043 -0.14532037 0.027811373
-0.0035976244 0.11452827 0.10353906 -0.17616127 -0.098852865 0.01717461 -0.14157198 0.11944648
-0.12146831 -0.017392207 0.0791354 -0.045021206 -0.10922509 -0.15413634 -0.00025522374 0.018156694
0.14675845 0.22565076 -0.057306726 0.3220045 0.18730657 0.11175953 0.32168543 0.2787488
-0.123871125 0.17809637 0.34729907 0.17244099 0.23183209 0.19039609 0.08882319 0.10764723
0.14259166 0.017087778 0.21410179 -0.071628384 0.22508232 0.2532336 0.25027257 0.19877215
0.19093163 0.12894712 0.16729039 -0.014936532 0.008264318 0.24839687 0.10038032 0.29885265
00000000: d55e e23b badd 023e de08 a5bd 76c3 393e
00000010: fc81 8e3d a0c5 5f3c 7cc9 3dbc 4de3 d73d
00000020: 9265 fd3d 4f10 843e 780e 973d d895 093d
00000030: f98c 343b 3d90 993e 25cc 2f3e 6ba7 ab3d
00000040: aa16 bbbd 5435 5a3e 30f8 a9bd 901a fe3d
00000050: 94c4 9c3e a20b 5e3e b287 153e 2982 9a3d
00000060: ecf4 da3d edd0 d23d 152e e63c 55a6 48bd
00000070: e66b a9bd 703a d23c 51fb 923d d4e6 273e
00000080: b3ad 86bc b221 34be c27a 313d e537 e6bd
00000090: 84af 593e 97b5 8f3d a8ed 29bd 8d60 5cbe
000000a0: 3c03 88bd 7202 3cbd 0bdc 02be fc32 e4bc
000000b0: 6c61 b1bd 428d 6a3c 4baa e13d 0fd4 22bd
000000c0: 17ba fcbc 2a95 81bd b55e 9cbc 5853 73bd
000000d0: 482d b7bd 2647 22be 09e5 30be 5ff4 90bc
000000e0: 85dc 4abe cd23 0cbe 9a51 2ebe 2567 8b3d
000000f0: c72a 21bd aae6 9e3c ea71 62bd 4c09 bb3d
00000100: 03e5 0dbe 2bdd 16be d652 f93d f9cb a3bc
00000110: 2735 253e 831b 533d 72cb aebd 0e1f 063b
00000120: b44f d73d 5256 a2bc 4a49 3c3d 349a ac3d
00000130: 68fe aa3d 1455 2a3d ddce 14be add4 e33c
00000140: 1fc6 6bbb cc8d ea3d 490c d43d 9f63 34be
00000150: 5f73 cabd c5b1 8c3c 3ff8 10be 5ba0 f43d
00000160: 61c4 f8bd 1a7a 8ebc be11 a23d 2868 38bd
00000170: 67b1 dfbd ebd5 1dbe 8dcf 85b9 59bd 943c
00000180: d947 163e fe10 673e 75ba 6abd c6dd a43e
00000190: 4bcd 3f3e 2ee2 e43d f4b3 a43e 2ab8 8e3e
000001a0: 25b0 fdbd e55e 363e 2fd1 b13e 5f94 303e
000001b0: 6465 6d3e 31f7 423e efe8 b53d 2776 dc3d
000001c0: 8c03 123e abfb 8b3c 803d 5b3e e7b1 92bd
000001d0: fb7b 663e d6a7 813e ba23 803e ed8a 4b3e
000001e0: 9583 433e b70a 043e 2c4e 2b3e 5bb8 74bc
000001f0: 1067 073c c05b 7e3e 3294 cd3d 3703 993e

weight_ih_l0 f4 [128, 2]
0.12885316 0.10226362 -0.15541968 0.09122681 0.14617278 0.015322508 -0.10996383 0.03781142
-0.03723846 -0.192271 -0.02234742 0.228346 -0.03336724 0.111761674 -0.11243965 -0.024917467
0.1360091 -0.20783657 -0.04024894 -0.0115028275 0.034762707 0.17210972 -0.037049588 0.03267641
-0.1598196 -0.025313884 0.10934887 -0.034247775 -0.05640645 0.04583462 -0.033652388 0.057790358
-0.082110755 0.112633884 0.10528589 0.18799724 0.111302786 0.20412453 -0.017838242 0.12680659
0.13547084 -0.014852204 0.012014811 0.25688195 0.082393944 0.19567445 -0.35759732 0.06322457
-0.07223304 -0.05137819 -0.120273106 0.04845461 0.07964081 0.21223965 -0.2546657 0.049336098
-0.19205457 0.10746314 0.07024723 0.30992812 0.20657313 -0.12930898 -0.16316809 -0.15911278
0.013666615 -0.12523139 -0.08919478 -0.15867186 0.07669042 0.021363668 0.11108014 0.18681535
0.28005755 -0.13144544 -0.027255055 0.10073636 -0.21377198 0.105453335 0.09275766 0.2169347
0.023277516 -0.099652104 0.04082158 -0.16666524 0.059982486 -0.021021318 -0.19899733 0.19351454
-0.12273659 -0.047712397 0.16888186 0.23348674 0.009412568 -0.0020297638 0.1217901 -0.045296095
0.13371594 -0.00974547 -0.030190924 -0.13007876 0.11330963 0.3895648 -0.24624324 0.07456065
-0.20259038 -0.11924263 0.18167002 0.108779505 0.11203835 0.13573557 -0.35342306 -0.2892193
-0.24142626 -0.12562752 -0.012893256 0.04494661 0.029558545 0.07483066 -0.073381424 0.112941235
0.051805746 -0.13691466 0.027420858 0.39339626 0.18027265 -0.030727977 -0.02407107 0.02526455
-0.015751258 0.18459159 -0.17965342 -0.23332736 -0.1324004 -0.22357084 -0.117425084 -0.27841312
-0.26532337 0.13519844 0.13690054 -0.28724918 -0.01730947 -0.2241483 0.18264134 -0.09966796
0.29463676 0.1471533 -0.05504897 0.35214388 0.24769753 0.35603416 -0.38084674 0.2252134
-0.25008363 -0.085098036 0.20410036 0.1965056 -0.21200342 -0.29701954 -0.20530015 0.15694785
0.021431299 0.11553545 -0.20860046 0.20047207 0.023409672 0.3788972 0.15281774 -0.028727647
-0.2045927 0.006752554 -0.23576361 0.12462928 -0.07289885 -0.282496 0.036049563 -0.0128845265
0.23080218 0.16388492 -0.0418119 0.18657471 -0.28673017 0.10601828 0.22444128 0.08095224
0.27467522 0.19455177 0.25116158 0.16421223 0.18096608 0.1258663 -0.19938828 -0.1920115
-0.10528013 -0.09076346 0.075593926 0.055792674 0.055715416 -0.08788768 0.18276598 0.082580924
-0.03889009 -0.16561434 -0.15068632 0.18041629 -0.04216892 -0.16386545 -0.089153424 -0.021986831
0.0069667385 0.12590607 -0.18131442 -0.30734745 0.15359312 0.057062622 0.090752676 -0.01815362
0.16913 0.10991517 0.19451986 0.22134605 0.07673164 0.13108662 -0.07427088 0.00514162
-0.014300303 0.048478734 -0.10776406 -0.05429772 -0.044347122 -0.07093529 0.11499903 0.2282317
0.038101528 -0.05897006 -0.10525069 0.2604323 0.18997557 0.14119345 -0.2355365 -0.19674213
0.15601638 0.028023118 -0.019586258 -0.08932202 0.0075413384 -0.004865581 0.064267576 0.084912166
-0.13348114 0.08718802 0.013852147 0.11718112 0.10922085 0.020667687 0.015573073 -0.19032724
00000000: 15f2 033e 976f d13d 5626 1fbe 1fd5 ba3d
00000010: 51ae 153e 420b 7b3c b734 e1bd 26e0 1a3d
00000020: 5b87 18bd b0e2 44be f011 b7bc 89d3 693e
00000030: 16ac 08bd 4ee3 e43d c246 e6bd b71f ccbc
00000040: f845 0b3e 1cd3 54be 13dc 24bd 5b76 3cbc
00000050: 5763 0e3d 883d 303e 4fc1 17bd b3d7 053d
00000060: c0a7 23be 105f cfbc 4df2 df3d 6547 0cbd
00000070: 730a 67bd 15bd 3b3d 16d7 09bd 95b5 6c3d
00000080: af29 a8bd 98ac e63d 21a0 d73d 5982 403e
00000090: b7f2 e33d 0506 513e 8121 92bc 96d9 013e
000000a0: deb8 0a3e a956 73bc c5d9 443c 0886 833e
000000b0: 28be a83d e25e 483e ff16 b7be e27b 813d
000000c0: ebee 93bd f071 52bd bf51 f6bd 5778 463d
000000d0: b91a a33d 5a55 593e 8b63 82be a614 4a3d
000000e0: f4a9 44be a215 dc3d c8dd 8f3d e6ae 9e3e
000000f0: e887 533e 9369 04be 8915 27be 76ee 22be
00000100: f0e9 5f3c a83c 00be c1ab b6bd e07a 22be
00000110: de0f 9d3d dc02 af3c fc7d e33d 864c 3f3e
00000120: b463 8f3e a299 06be fe45 dfbc dd4e ce3d
00000130: 0be7 5abe ebf7 d73d baf7 bd3d 2124 5e3e
00000140: 7db0 be3c 6716 ccbd 8734 273d 4baa 2abe
00000150: 32b0 753d e634 acbc f5c5 4bbe ad28 463e
00000160: 525d fbbd 136e 43bd 5eef 2c3e 2617 6f3e
00000170: 2c37 1a3c c905 05bb 176d f93d 6688 39bd
00000180: d5ec 083e 77ab 1fbc f552 f7bc 5e33 05be
00000190: e10e e83d 0a75 c73e 3027 7cbe 41b3 983d
000001a0: da73 4fbe 7b35 f4bd b507 3a3e cac7 de3d
000001b0: 5d74 e53d 44fe 0a3e def3 b4be 8d14 94be
000001c0: 7238 77be 80a4 00be 3c3e 53bc f019 383d
000001d0: c324 f23c d140 993d 0049 96bd bc4d e73d
000001e0: 4332 543d 5b33 0cbe b5a1 e03c 3c6b c93e
000001f0: 6599 383e 3db9 fbbc b130 c5bc 9af7 ce3c
00000200: c808 81bc 9405 3d3e 11f7 37be 5eed 6ebe
00000210: f893 07be c1ef 64be 907c f0bd 2a8c 8ebe
00000220: 77d8 87be 7671 0a3e a82f 0c3e 5312 93be
00000230: 97cc 8dbc 2287 65be 5506 3b3e b71e ccbd
00000240: a1da 963e 5baf 163e 077b 61bd 344c b43e
00000250: 6ca4 7d3e 1c4a b63e 58fe c2be 579e 663e
00000260: f60a 80be e147 aebd afff 503e c438 493e
00000270: 6d17 59be f212 98be 343a 52be f0b6 203e
00000280: b190 af3c da9d ec3d 5c9b 55be 8d48 4d3e
00000290: a4c5 bf3c d0fe c13e 417c 1c3e 3e56 ebbc
000002a0: c080 51be 8744 dd3b 046c 71be a33d ff3d
000002b0: fe4b 95bd 51a3 90be b5a8 133d 9f19 53bc
000002c0: 6857 6c3e 73d1 273e f442 2bbd 710d 3f3e
000002d0: 4cce 92be 1d20 d93d efd3 653e 4aca a53d
000002e0: 3ba2 8c3e 9438 473e 4098 803e 4027 283e
000002f0: 2c4f 393e 18e3 003e 712c 4cbe aa9e 44be
00000300: 1c9d d7bd 31e2 b9bd fdd0 9a3d dc86 643d
00000310: d935 643d 75fe b3bd 0127 3b3e 3020 a93d
00000320: 374b 1fbd ce96 29be 844d 1abe 0cbf 383e
00000330: 51b9 2cbd 58cc 27be 1296 b6bd ba1d b4bc
00000340: 3d49 e43b 85ed 003e 7daa 39be a55c 9dbe
00000350: 8447 1d3e 7fba 693d 8adc b93d e7b6 94bc
00000360: 6a30 2d3e 341b e13d 3730 473e 8aa8 623e
00000370: 7a25 9d3d 923b 063e 551b 98bd 097b a83b
00000380: d14b 6abc a391 463d 67b3 dcbd 4967 5ebd
00000390: 54a5 35bd 8546 91bd 9d84 eb3d 92b5 693e
000003a0: 5910 1c3d 978a 71bd ac8d d7bd 6257 853e
000003b0: f588 423e 0495 103e 7b30 71be c576 49be
000003c0: c2c2 1f3e bd90 e53c 5c73 a0bc 77ee b6bd
000003d0: 551d f73b 746f 9fbb b89e 833d 6ee6 ad3d
000003e0: 48af 08be a28f b23d 1ef4 623c a8fc ef3d
000003f0: 2eaf df3d 484f a93c 3426 7f3c 25e5 42be

weight_hh_l0 f4 [128, 32]
-0.0657967 0.054977026 -0.17329624 0.06463972 -0.0592459 0.045231424 -0.057452284 -0.08149653
-0.018212372 -0.01634848 0.18479903 0.1571763 0.0784386 0.18091433 -0.048511844 -0.072226584
0.12431599 -0.038035247 0.21997465 -0.012920285 0.06632264 -0.12940949 -0.19268462 0.04986451
-0.20074145 0.24768181 -0.16226836 0.16770974 0.091471195 -0.21325566 -0.027055092 -0.015119885
-0.0025756755 -0.088240266 -0.18266423 -0.14519368 0.17094038 0.0051090093 -0.20309341 -0.026120493
0.069428705 0.14541984 0.12335244 -0.0034523788 -0.015257345 0.44818854 0.04900389 -0.07778894
0.067442745 0.08601107 0.34999046 0.06375446 0.17274554 -0.21591483 -0.016512653 0.21434167
0.03476451 -0.012189086 -0.15277834 0.0064907256 0.0029008717 0.04796112 0.09882189 -0.43834433
-0.1080463 0.17804834 0.105576284 -0.06532992 -0.25989503 -0.12230826 -0.1081571 0.04367851
-0.0291598 -0.22421014 -0.09741073 -0.032037485 0.021064473 0.34244186 0.1894401 -0.06457795
0.05868067 0.017912345 -0.00882552 -0.21126299 0.022558514 -0.1512845 -0.19492002 0.20161793
-0.24268822 0.0020388803 -0.2191833 0.02912409 -0.1924813 0.04985562 0.17179446 -0.43558648
0.16172063 -0.012524225 0.049978167 -0.067265466 0.050664246 0.059742708 0.1659247 0.0870531
0.3154503 0.20708372 0.04021722 0.010423711 0.12022465 -0.047241546 -0.023430686 -0.10120324
-0.09497983 -0.09550091 -0.010276707 -0.14041536 -0.041363355 0.10270101 -0.005694409 -0.051054977
-0.021151572 0.18279326 -2.2666383e-05 0.05646206 -0.060377594 -0.04602184 0.22206503 -0.15188257
-0.22906862 0.19435365 0.10995739 0.0966159 -0.015377859 0.19077924 0.16905858 -0.0042421636
0.05335029 0.014903877 -0.15117314 -0.014726397 0.058559656 0.19236341 0.2800027 -0.05518345
-0.27405155 -0.07314623 0.000234807 -0.0072010397 0.16319945 -0.039656654 0.16913724 -0.020729017
-0.27027753 0.0922258 -0.13146742 0.10328469 -0.17929214 0.0789548 0.1597036 -0.04232458
-0.009910097 -0.08003121 -0.26353675 -0.22865552 0.03248242 0.0987109 -0.19683933 0.19308488
0.24111314 -0.19286622 -0.029176738 0.23731282 0.09999879 0.018164154 0.13436928 -0.13922907
-0.18913332 0.09796072 0.0036301124 0.08945474 -0.102625154 -0.13308662 -0.18492779 0.17938147
0.112664714 0.22903714 0.16174364 0.08833467 -0.04152084 -0.24738175 0.31539556 -0.10654387
0.17522483 -0.094759524 -0.10625779 -0.0651798 0.24474224 -0.19796984 -0.09815968 0.13116372
-0.0063481354 0.0073353015 0.15710124 0.108774975 -0.13572422 0.30382392 -0.16247435 -0.25807756
-0.11038118 0.052052196 0.25939506 -0.09803827 0.18438616 0.11141292 -0.2792114 0.15964077
0.0050849877 0.07107615 -0.22732279 0.07116307 0.19422357 -0.14359787 -0.0106453765 -0.11164438
0.1269108 0.15801048 0.119647816 0.056023035 0.1353343 -0.22152314 0.05162463 0.044384502
-0.09295698 -0.21860798 -0.24367817 0.2801171 0.39416984 -0.053223975 0.1160854 0.07832061
0.07364312 -0.033300053 -0.21106982 0.011792259 0.076664396 -0.0038197914 -0.06697541 -0.08015132
-0.0069876257 -0.061333694 0.13119404 0.101675 -0.08633955 0.12354569 0.027480055 0.07964053
00000000: 6cc0 86bd 972f 613d 9274 31be d461 843d
00000010: d4ab 72bd 9644 393d 1653 6bbd a7e7 a6bd
00000020: 1d32 95bc 3fed 85bc f53b 3d3e d3f2 203e
00000030: 6ba4 a03d 9b41 393e 5bb4 46bd 88eb 93bd
00000040: 6299 fe3d d9ca 1bbd 0941 613e 9aaf 53bc
00000050: 2ad4 873d ec83 04be 1e4f 45be ba3e 4c3d
00000060: 2b8f 4dbe 4da0 7d3e ad29 26be 1abc 2b3e
00000070: 4055 bb3d b15f 5abe a4a2 ddbc 65b9 77bc
00000080: aacc 28bb 50b7 b4bd 550c 3bbe a7ad 14be
00000090: ff0a 2f3e 7a69 a73b b8f7 4fbe a5fa d5bc
000000a0: a330 8e3d f0e8 143e 34a0 fc3d 4e41 62bb
000000b0: f1f9 79bc f878 e53e 4eb8 483d cf4f 9fbd
000000c0: 6c1f 8a3d 9226 b03d f331 b33e b391 823d
000000d0: 35e4 303e c718 5dbe 8b45 87bc 627c 5b3e
000000e0: 3b65 0e3d bbb4 47bc ed71 1cbe 27b0 d43b
000000f0: 8d1c 3e3b e172 443d 2263 ca3d ab6e e0be
00000100: 6147 ddbd 4e52 363e 6138 d83d b1cb 85bd
00000110: f610 85be c17c fabd 7881 ddbd 3de8 323d
00000120: 88e0 eebc 5897 65be 477f c7bd bd39 03bd
00000130: 678f ac3c 8a54 af3e 96fc 413e 7241 84bd
00000140: 245b 703d e9bc 923c ea98 10bc 5355 58be
00000150: a2cc b83c 53ea 1abe 1d99 47be ee74 4e3e
00000160: 4383 78be bc9e 053b 9671 60be a595 ee3c
00000170: d119 45be 6835 4c3d e3ea 2f3e 3105 dfbe
00000180: 189a 253e 6832 4dbc e8b5 4c3d 7ac2 89bd
00000190: 5085 4f3d c5b4 743d 2ae8 293e e548 b23d
000001a0: b482 a13e c10d 543e d0ba 243d 36c8 2a3c
000001b0: 5738 f63d 5a80 41bd b6f1 bfbc a543 cfbd
000001c0: c984 c2bd fb95 c3bd a25f 28bc 0bc9 0fbe
000001d0: 9f6c 29bd e854 d23d 2a98 babb 061f 51bd
000001e0: 1046 adbc 282e 3b3e b023 beb7 c344 673d
000001f0: 7f4e 77bd 6681 3cbd 0465 633e 1b87 1bbe
00000200: f790 6abe a504 473e 5731 e13d 8fde c53d
00000210: 6af3 7bbc a25b 433e b11d 2d3e d901 8bbb
00000220: d585 5a3d 642f 743c 22cd 1abe fc46 71bc
00000230: 40dc 6f3d eafa 443e 845c 8f3e 0b08 62bd
00000240: 7c50 8cbe b1cd 95bd 8636 7639 b3f6 ebbb
00000250: c21d 273e 046f 22bd 5032 2d3e e6cf a9bc
00000260: d161 8abe e1e0 bc3d 659f 06be ec86 d33d
00000270: 5c98 37be 0eb3 a13d 5789 233e 8a5c 2dbd
00000280: f65d 22bc 67e7 a3bd 4aee 86be ac24 6abe
00000290: 490c 053d f128 ca3d 4090 49be 0bb8 453e
000002a0: 5de6 763e b97e 45be 0e04 efbc 2202 733e
000002b0: 2acc cc3d fecc 943c 1a98 093e 1192 0ebe
000002c0: 2aac 41be a19f c83d 2ee7 6d3b 0c34 b73d
000002d0: 232d d2bd dc47 08be b65d 3dbe c7af 373e
000002e0: c2bc e63d b688 6a3e 20a0 253e cfe8 b43d
000002f0: c211 2abd a451 7dbe 877b a13e ac33 dabd
00000300: 236e 333e 4811 c2bd af9d d9bd fd7c 85bd
00000310: b69d 7a3e 9bb8 4abe f107 c9bd c84f 063e
00000320: 0504 d0bb f85c f03b 26df 203e 6ac5 de3d
00000330: 4afb 0abe cf8e 9b3e ad5f 26be be22 84be
00000340: 870f e2bd af34 553d 6ecf 843e 4ac8 c8bd
00000350: bacf 3c3e 752c e43d ccf4 8ebe df78 233e
00000360: f89f a63b 5f90 913d 4ec7 68be f2bd 913d
00000370: 8be2 463e 520b 13be f269 2ebc cfa5 e4bd
00000380: e8f4 013e 80cd 213e ea09 f53d 6978 653d
00000390: 1395 0a3e f6d6 62be 5974 533d 86cc 353d
000003a0: 3b60 bebd c5da 5fbe c586 79be 826b 8f3e
000003b0: a1d0 c93e 6201 5abd 2fbe ed3d 8e66 a03d
000003c0: 34d2 963d a365 08bd b022 58be 5234 413c
000003d0: 3902 9d3d 7755 7abb 672a 89bd 6026 a4bd
000003e0: 74f8 e4bb 0a39 7bbd bb57 063e fb3a d03d
000003f0: cad2 b0bd 8605 fd3d da1d e13c 931a a33d

bias_ih_l0 f4 [128]
-0.02081693 -0.05522586 0.100295134 0.09357934 0.062879905 0.14750047 0.23576866 -0.088237144
0.041000217 0.124193035 -0.06253502 -0.0863568 0.046212964 0.19689596 -0.14436196 0.03673164
0.0016349008 0.18973537 0.27526903 -0.072221644 0.19262888 -0.07054523 -0.10321807 -0.07328928
0.004872088 -0.042466357 0.11677243 0.047453113 0.12820424 0.08525562 0.18097633 0.079399526
0.1784154 -0.11770686 -0.11117657 -0.12747338 0.060214333 0.09955488 0.057247516 0.20536529
0.19722928 0.29840073 0.114417344 0.24019183 -0.076809786 0.17029855 0.0009988843 -0.047264863
-0.08550142 0.264303 0.2774308 0.1568622 0.13148369 0.091186434 -0.08633796 0.02445759
-0.013333348 0.09213023 0.12110027 0.24494435 -0.13790502 0.09701781 -0.013049607 0.026176542
-0.16212203 0.15042002 0.098077476 -0.13114318 0.015486975 0.0008598795 0.1361398 0.13451475
0.11078646 -0.18763937 0.09512232 0.036840893 0.054913107 0.17368779 0.10297525 -0.1613651
-0.21313831 -0.0700785 0.24834102 -0.0666437 0.13843384 -0.14628199 -0.11455203 0.197492
-0.21716826 -0.020125384 0.11559077 0.023722095 -0.077919774 -0.037112452 -0.06822137 -0.15770271
-0.020164117 0.16720137 0.19988774 0.112498 0.15074122 0.2081556 0.15376411 0.023698337
0.028974395 0.27185515 0.054081395 -0.12944582 -0.07569762 0.21500319 0.08132562 0.021071477
0.093553126 -0.07439174 0.2231615 0.05807223 -0.047990575 0.089594245 0.011482307 -0.12918162
0.22196053 0.03532059 0.29120535 -0.08224617 -0.08822193 -0.010059262 0.12489995 -0.0016301948
00000000: 4488 aabc 8334 62bd 8967 cd3d 86a6 bf3d
00000010: 2ec7 803d 5d0a 173e 576d 713e adb5 b4bd
00000020: d8ef 273d eb58 fe3d 5c12 80bd d5db b0bd
00000030: ce49 3d3d 189f 493e 9fd3 13be eb73 163d
00000040: 2b4a d63a fd49 423e 10f0 8c3e f1e8 93bd
00000050: 8140 453e 047a 90bd ff63 d3bd b118 96bd
00000060: 09a6 9f3b 34f1 2dbd 6226 ef3d 325e 423d
00000070: f947 033e 809a ae3d dc51 393e 389c a23d
00000080: 87b2 363e 4b10 f1bd 8bb0 e3bd 6288 02be
00000090: 4ea3 763d 6ee3 cb3d 5f7c 6a3d 474b 523e
000000a0: 79f6 493e fbc7 983e a453 ea3d d9f4 753e
000000b0: 734e 9dbd be62 2e3e ffec 823a cd98 41bd
000000c0: 5e1b afbd b952 873e 690b 8e3e 7ca0 203e
000000d0: a9a3 063e f4bf ba3d f5d1 b0bd 495b c83c
000000e0: 1d74 5abc c6ae bc3d 6b03 f83d b1d2 7a3e
000000f0: f936 0dbe 46b1 c63d 05ce 55bc 3070 d63c
00000100: 5103 26be b507 1a3e d8dc c83d 664a 06be
00000110: 15bd 7d3c 8969 613a 3b68 0b3e 3cbe 093e
00000120: 03e4 e23d 8924 40be 7ecf c23d 7ae6 163d
00000130: 91ec 603d 36db 313e b0e4 d23d e53c 25be
00000140: ee40 5abe 5185 8fbd 1c4d 7e3e 7e7c 88bd
00000150: 9ac1 0d3e f2ca 15be 419a eabd 583b 4a3e
00000160: 5b61 5ebe fddd a4bc dbba ec3d d754 c23c
00000170: 6794 9fbd 3a03 18bd a5b7 8bbd d27c 21be
00000180: 382f a5bc d636 2b3e 5faf 4c3e 5a65 e63d
00000190: e85b 1a3e be26 553e 5774 1d3e 0423 c23c
000001a0: b65b ed3c 9930 8b3e 7484 5d3d 728d 04be
000001b0: 5b07 9bbd cc29 5c3e 0c8e a63d 179e ac3c
000001c0: c898 bf3d b25a 98bd 7384 643e 26dd 6d3d
000001d0: c491 44bd 307d b73d 4920 3c3c 3048 04be
000001e0: 9f49 633e 53ac 103d de18 953e ae70 a8bd
000001f0: b3ad b4bd 9acf 24bc 8ccb ff3d 43ac d5ba

bias_hh_l0 f4 [128]
0.20822233 0.20426239 0.030482844 -0.07535158 0.15691416 0.23518108 -0.010849907 0.015847504
0.11967766 0.19632405 0.14252205 0.12239739 0.04675446 0.20618142 0.08492209 0.08780654
-0.049412012 0.11061265 0.18502618 -0.11718324 0.19769353 0.038889147 0.19116616 -0.14676593
-0.10212554 -0.12562472 0.081014335 -0.048721947 0.15404665 0.10946445 0.04016122 0.10837061
0.04420766 0.10330703 0.012748051 -0.023065895 0.07062659 -0.067310974 -0.065859176 -0.084605314
-0.06441442 0.11970555 0.03308571 0.13443696 0.067734726 0.18339105 -0.15544486 -0.121190496
-0.018035216 0.0042066793 0.13242778 -0.030321235 0.123890325 0.014307943 0.05849891 -0.123116516
0.011101698 0.13703446 0.03182637 0.025988456 0.06054367 -0.09525472 -0.13258635 0.20312913
0.017166276 0.16836217 -0.09063512 -0.09796476 0.08898304 -0.20040233 -0.06805958 0.13384497
-0.14994353 0.035020165 0.020043606 0.14416923 0.016044332 0.2465698 0.08007612 -0.054592893
-0.1242383 0.10109741 -0.0348621 0.031404816 0.18540004 -0.10459356 0.017032463 0.13316524
-0.15301497 0.20241109 -0.08860832 0.039858874 -0.22664383 -0.07576923 0.15680614 -0.33726764
0.24421963 0.14317344 0.09929348 -0.15381917 -0.022439186 0.22135155 0.07885254 0.0974234
0.07204784 0.2845805 -0.00068833923 -0.10867482 -0.0678165 0.07416104 0.14706887 0.123152435
0.24164586 -0.016006306 0.0012084227 0.04336231 -0.06515811 -0.10053731 0.13234565 0.15759757
0.09689551 0.16115329 0.0795405 0.1031528 0.18729445 0.057131972 0.049721207 0.06307977
00000000: 3c38 553e 292a 513e 28b7 f93c ee51 9abd
00000010: 1bae 203e 4fd3 703e cfc3 31bc a0d2 813c
00000020: 9019 f53d 2c09 493e 4df1 113e 7cab fa3d
00000030: 9b81 3f3d 3921 533e a2eb ad3d ead3 b33d
00000040: 4064 4abd e388 e23d 8177 3d3e c4fd efbd
00000050: 2c70 4a3e 3a4a 1f3d 10c1 433e cf49 16be
00000060: 3227 d1bd c4a3 00be d8ea a53d aa90 47bd
00000070: 68be 1d3e e62e e03d 1780 243d 69f1 dd3d
00000080: 1713 353d a392 d33d 34dd 503c b0f4 bcbc
00000090: aca4 903d 56da 89bd 2de1 86bd 8d45 adbd
000000a0: b5eb 83bd 2f28 f53d e284 073d d8a9 093e
000000b0: 81b8 8a3d ddca 3b3e f02c 1fbe b932 f8bd
000000c0: 97be 93bc 2fd8 893b 269b 073e 3d64 f8bc
000000d0: 36ba fd3d dd6b 6a3c 8e9c 6f3d 8324 fcbd
000000e0: e5e3 353c c352 0c3e 5e5c 023d bee5 d43c
000000f0: a4fc 773d e814 c3bd b7c4 07be 1501 503e
00000100: 4aa0 8c3c 2267 2c3e e89e b9bd c0a1 c8bd
00000110: bd3c b63d 4536 4dbe d262 8bbd a80e 093e
00000120: cc8a 19be 4e71 0f3d 7d32 a43c 19a1 133e
00000130: 676f 833c cb7c 7c3e f3fe a33d cc9c 5fbd
00000140: a670 febd 290c cf3d 90cb 0ebd 56a2 003d
00000150: 82d9 3d3e 2635 d6bd aa87 8b3c 785c 083e
00000160: f5af 1cbe da44 4f3e 4778 b5bd 0f43 233d
00000170: 5215 68be e62c 9bbd ca91 203e 58ae acbe
00000180: b614 7a3e 0f9c 123e 615a cb3d c682 1dbe
00000190: 62d2 b7bc fba9 623e 717d a13d eb85 c73d
000001a0: d18d 933d 89b4 913e aa71 34ba e790 debd
000001b0: 61e3 8abd bee1 973d 3999 163e 5837 fc3d
000001c0: 0372 773e a81f 83bc f063 9e3a ad9c 313d
000001d0: 9d71 85bd 81e6 cdbd 9e85 073e 4261 213e
000001e0: 2771 c63d 5e05 253e 21e6 a23d c641 d33d
000001f0: 1eca 3f3e 3703 6a3d 77a8 4b3d f72f 813d

weight_ih_l0_reverse f4 [128, 2]
0.016760519 -0.05803611 0.046862714 -0.09424103 -0.02746324 -0.2610887 0.21406475 0.14135325
-0.07643812 -0.1012887 -0.062113468 -0.20222539 0.008185059 -0.31103846 0.23097648 -0.39308807
0.21549016 -0.70641 -0.22079623 0.21696506 -0.3088869 0.26014268 0.3334103 -0.15809208
-0.35822695 -0.11081276 -0.3914639 -0.17639081 0.48812383 -0.34081545 0.24287413 0.077000976
-0.04569478 -0.15014601 0.09091352 0.29469508 0.010854113 -0.2871165 0.12012623 0.1657397
-0.04026156 0.12723008 0.25849456 0.33721644 -0.15480474 0.047829054 0.016944077 -0.010837588
-0.6508896 -0.2245366 -0.49969178 -0.28890345 -0.28662333 -0.13130988 -0.097080596 0.10787816
0.25071678 -0.19102545 -0.16529477 0.099043936 -0.055453695 0.037711468 -0.3140922 -0.4176132
-0.09104595 0.18166894 0.06838929 -0.1862275 -0.05585107 -0.17562626 0.009019418 0.055054188
-0.10951376 -0.050073065 0.24478829 -0.02719679 -0.16546297 -0.2629446 0.2620265 -0.147055
0.30570138 -0.30198687 -0.11721617 0.020524925 0.022969862 0.07841458 0.2755041 -0.13583389
-0.22625625 -0.04357522 -0.17249076 -0.1451983 0.26907703 -0.30356172 0.16861936 0.042558264
0.038291093 -0.15009686 -0.078242585 0.23510988 -0.024266653 -0.2114065 -0.010299736 0.13942674
0.07543163 0.1073168 0.08382366 0.061356444 0.030765582 -0.20598952 -0.2826697 -0.078026
-0.24234663 -0.25832695 -0.19295275 -0.34693128 -0.10776417 -0.14873607 0.020903487 -0.14618765
0.088290654 -0.0069382833 -0.042986996 0.100304596 -0.02213965 0.068417855 0.09017926 -0.38737065
-0.26532108 -0.2046375 0.08167856 0.3860487 0.1389487 0.11881435 -0.3143219 -0.19993623
0.19803402 0.32919422 0.2776912 -0.08174799 -0.22890107 -0.34370157 -0.39667475 0.25527957
-0.09799826 -0.5832627 -0.18341452 0.44051054 0.2847694 -0.13905695 0.40711898 -0.070766985
0.31894198 0.09187969 0.39230374 -0.050067257 0.14967968 -0.38312703 0.25455138 0.06171561
0.006504217 0.26606706 0.22195742 0.57397985 0.17319684 -0.35915068 -0.3509198 0.14197654
-0.3237224 -0.036155444 -0.20669393 -0.14083548 -0.34534466 0.173123 0.24610196 0.23029041
-0.42072412 0.14485814 0.2994527 0.30530223 -0.35428715 -0.1508959 -0.15719917 -0.2758008
-0.39982927 0.258445 0.3597335 0.044262096 0.24092592 -0.33583716 0.11427507 -0.31551376
0.04201087 -0.07733809 0.030444972 -0.17757142 0.058946453 -0.17876115 -0.21757764 -0.11365724
-0.20235367 0.0644127 -0.18488146 -0.027697017 -0.24130103 -0.24235854 0.32923707 -0.402699
-0.14834055 -0.58396184 -0.06698006 -0.18655603 -0.14041555 0.04771994 0.35286778 -0.20017114
-0.1804347 -0.23895225 -0.237841 0.03049397 0.6581045 -0.46728382 0.039538376 -0.1381138
0.19744723 -0.04451382 -0.05821305 0.039965622 -0.096065536 -0.085277915 -0.009248037 0.27086887
0.0660571 -0.10909467 0.15105774 0.52966714 0.009169596 -0.12958133 -0.14952876 0.08334325
-0.33162114 -0.11843456 -0.11390034 -0.35201082 -0.41833943 -0.028654817 0.030076265 0.16051304
0.519734 -0.25080037 -0.16289814 -0.15445563 0.020877792 0.039760247 -0.08942123 -0.1836455
00000000: 5b4d 893c 46b7 6dbd 1ef3 3f3d 7101 c1bd
00000010: 97fa e0bc 6bad 85be ca33 5b3e e8be 103e
00000020: 978b 9cbd 7370 cfbd b16a 7ebd 2c14 4fbe
00000030: a01a 063c 6f40 9fbe 1985 6c3e d742 c9be
00000040: 74a9 5c3e 49d7 34bf 6818 62be 172c 5e3e
00000050: 6c26 9ebe 6c31 853e c1b4 aa3e e4e2 21be
00000060: 8669 b7be cdf1 e2bd f56d c8be cb9f 34be
00000070: 5eeb f93e 5d7f aebe ffb3 783e b0b2 9d3d
00000080: 732a 3bbd e0bf 19be de30 ba3d 46e2 963e
00000090: 73d5 313c ef00 93be be04 f63d abb7 293e
000000a0: 4ee9 24bd 9a48 023e 6659 843e a2a7 ac3e
000000b0: 2285 1ebe 66e8 433d 4ece 8a3c 2490 31bc
000000c0: b3a0 26bf ecec 65be 9ad7 ffbe 27eb 93be
000000d0: 4bc0 92be 1976 06be 31d2 c6bd 3aef dc3d
000000e0: f35d 803e 2d9c 43be 0843 29be 8cd7 ca3d
000000f0: 6a23 63bd 5777 1a3d b1d0 a0be 66d1 d5be
00000100: 4d76 babd 6c07 3a3e af0f 8c3d 6cb2 3ebe
00000110: 17c4 64bd 5fd7 33be 2ec6 133c 8080 613d
00000120: c048 e0bd 6a19 4dbd c8a9 7a3e cdcb debc
00000130: 206f 29be ada0 86be 5628 863e 9695 16be
00000140: e484 9c3e 069e 9abe 080f f0bd e323 a83c
00000150: 4b2b bc3c d397 a03d e00e 8d3e 0a18 0bbe
00000160: b8af 67be ee7b 32bd 6ba1 30be ddae 14be
00000170: 77c4 893e 716c 9bbe 8eaa 2c3e 9351 2e3d
00000180: 1fd7 1c3d feb2 19be a63d a0bd a5c0 703e
00000190: dcca c6bc f27a 58be 39c0 28bc e2c5 0e3e
000001a0: e67b 9a3d e9c8 db3d bdab ab3d e550 7b3d
000001b0: 1a08 fc3c ebee 52be 15ba 90be 18cc 9fbd
000001c0: b729 78be 6e43 84be 6895 45be faa0 b1be
000001d0: 76b3 dcbd 454e 18be ca3d ab3c 37b2 15be
000001e0: bbd1 b43d 8a5a e3bb 2213 30bd 7f6c cd3d
000001f0: 365e b5bc a91e 8c3d e7af b83d 7255 c6be
00000200: 2ad8 87be 7e8c 51be 1747 a73d 2da8 c53e
00000210: 9148 0e3e f054 f33d cdee a0be 15bc 4cbe
00000220: 6ec9 4a3e 258c a83e 8a2d 8e3e 7d6b a7bd
00000230: 0b65 6abe a7f9 afbe f418 cbbe 01b4 823e
00000240: 50b3 c8bd b450 15bf 04d1 3bbe 998a e13e
00000250: 4bcd 913e f264 0ebe e671 d03e 48ee 90bd
00000260: 5d4c a33e 6b2b bc3d 09dc c83e 5313 4dbd
00000270: a145 193e 3a29 c4be 8f54 823e 82c9 7c3d
00000280: 5421 d53b f139 883e ce48 633e 58f0 123f
00000290: 835a 313e 99e2 b7be c3ab b3be 4c62 113e
000002a0: f1be a5be bb17 14bd 93a7 53be 2d37 10be
000002b0: 04d1 b0be 2847 313e 2702 7c3e 40d1 6b3e
000002c0: 2769 d7be b155 143e dd51 993e 9350 9c3e
000002d0: 2065 b5be 7484 1abe d2f8 20be c335 8dbe
000002e0: 6cb6 ccbe e752 843e fd2e b83e 2c4c 353d
000002f0: 49b5 763e d9f2 abbe 0c09 ea3d 058b a1be
00000300: 9713 2c3d 6f63 9ebd bc67 f93c 48d5 35be
00000310: d671 713d 2a0d 37be accc 5ebe 21c5 e8bd
00000320: cd35 4fbe ceea 833d 9151 3dbe dbe4 e2bc
00000330: 9e17 77be d62c 78be c391 a83e 902e cebe
00000340: 96e6 17be 867e 15bf d72c 89bd 8b08 3fbe
00000350: 18c9 0fbe fc75 433d 16ab b43e aaf9 4cbe
00000360: e0c3 38be e6af 74be 978c 73be 7dce f93c
00000370: 8979 283f d33f efbe fef2 213d b46d 0dbe
00000380: 9b2f 4a3e 2054 36bd cf70 6ebd feb2 233d
00000390: 02be c4bd 30a6 aebd 1485 17bc 53af 8a3e
000003a0: f248 873d 076d dfbd e1ae 1a3e 4498 073f
000003b0: 133c 163c f8b0 04be 111e 19be deaf aa3d
000003c0: 3fca a9be d28d f2bd 9544 e9bd c33a b4be
000003d0: 9630 d6be 82bd eabc 8062 f63c 885d 243e
000003e0: 4a0d 053f e868 80be c5ce 26be 9e29 1ebe
000003f0: e707 ab3c a4db 223d 7a22 b7bd 910d 3cbe

weight_hh_l0_reverse f4 [128, 32]
-0.075464964 0.13679355 0.036225878 0.00074318994 0.13728498 0.10459296 -0.26820034 0.085192315
-0.16457479 0.104127236 0.027121533 -0.030501055 -0.0001912874 0.208059 -0.15349603 0.10045642
0.121834405 0.12806307 -0.04809813 -0.00018397057 -0.21329285 0.100599155 0.023905786 0.105379485
-0.164855 0.19771162 -0.29953155 -0.18321326 0.072190955 0.16367176 -0.16073702 -0.029347796
-0.062075097 0.12435529 0.04203114 0.20751171 -0.048967183 -0.12849315 -0.079472 -0.057493713
-0.18385607 0.097652644 -0.1502 -0.13108037 0.012818968 -0.15193515 -0.059706923 -0.069318056
0.0044970983 -0.123560295 -0.053542968 0.108613536 -0.12581886 0.103315204 -0.009482005 -0.14676078
-0.05973928 -0.039009314 -0.010166867 -0.06480643 0.053866245 -0.06615655 0.060705714 0.067692645
0.14565086 -0.23779257 -0.13685447 -0.06279023 0.13699116 0.2190537 0.05304427 -0.17816445
-0.06341548 -0.025438566 0.25661707 0.10531853 0.15844415 0.13802518 0.07324254 0.08801211
-0.4047736 -0.30017865 -0.036621973 -0.014645494 0.024863012 -0.07074173 0.036729306 -0.049726006
-0.19451629 0.31803164 -0.044672266 0.031709075 0.035754897 0.12215504 -0.024141798 -0.18509877
-0.090544745 -0.035732202 -0.067278326 -0.10198223 0.23519824 0.051682394 -0.17496991 0.1678059
-0.31947407 -0.017980978 0.06111927 0.27610135 0.19787152 0.095897466 0.049523745 0.28767237
0.12959296 0.21027142 -0.13699621 -0.007856631 -0.2496066 0.10210799 -0.27479523 0.38636124
-0.31393808 0.3882976 -0.17686439 -0.08708343 0.102064684 -0.014661528 -0.016571008 -0.118150964
0.28317302 -0.15348274 -0.020355297 0.11684751 -0.15446702 -0.061967924 -0.16594724 0.04165919
-0.030361773 -0.22390848 -0.10021473 -0.044330526 -0.21215425 0.28061554 -0.160127 -0.20941219
-0.12954167 -0.26048586 0.007341573 0.05660191 -0.025650151 0.17243762 -0.24337342 0.25717145
-0.28616273 0.22471629 -0.25722596 0.23441258 0.063260876 0.09616799 -0.042881988 -0.3287505
-0.009021608 -0.18157864 -0.05173963 0.011213965 0.08147107 0.20842187 -0.08421 -0.24135989
-0.054383125 -0.09731706 -0.005900607 -0.058770142 -0.18317477 0.21635823 0.05605977 0.08904842
-0.1093943 -0.15758465 -0.1241225 -0.09733092 0.043230757 0.06317927 -0.22944699 0.07562218
0.047644004 -0.09526995 -0.20039995 -0.08238169 -0.27527788 0.044551827 0.17071763 -0.0040006605
0.57792693 -0.280864 -0.07130231 0.14927864 -0.30651277 -0.2959894 0.26024997 -0.15076788
0.0011380604 -0.48629224 0.11496973 0.10455709 -0.3336117 0.06978095 -0.106530264 -0.029693943
-0.4055992 -0.3950963 0.077456914 0.20208581 0.22878721 0.4564427 0.17051974 -0.11027077
-0.04840831 -0.11184107 0.15388198 0.2284247 -0.11989448 -0.41572604 0.13049476 0.14303604
0.12321195 -0.23528609 0.1322088 -0.13259673 0.052847926 0.19232036 -0.1424681 -0.28224927
-0.019997692 -0.119943075 0.3384496 0.07262697 0.0032364277 0.17751324 0.09147136 -0.049804866
0.012221526 -0.04715714 -0.1913753 -0.2408114 -0.1085784 -0.06402019 -0.085539274 0.09675006
0.11969127 0.17003387 0.07429167 0.009929324 -0.14121011 0.061139848 0.022214415 0.14340065
00000000: 608d 9abd 9c13 0c3e 9661 143d a2d2 423a
00000010: 6f94 0c3e d534 d63d 8e51 89be 4f79 ae3d
00000020: 4b86 28be a940 d53d fa2d de3c 59dd f9bc
00000030: 5294 48b9 6b0d 553e 102e 1dbe 18bc cd3d
00000040: 5184 f93d f722 033e 8b02 45bd 39e8 40b9
00000050: 7169 5abe ee06 ce3d 11d6 c33c 33d1 d73d
00000060: c0cf 28be ea74 4a3e 335c 99be 429c 3bbe
00000070: dad8 933d 9299 273e 3f98 24be ca6a f0bc
00000080: 7542 7ebd fcad fe3d d828 2c3d f37d 543e
00000090: d091 48bd b593 03be 37c2 a2bd 877e 6bbd
000000a0: c444 3cbe 1cfe c73d 07ce 19be ef39 06be
000000b0: a606 523c e394 1bbe 3f8f 74bd a0f6 8dbd
000000c0: 655c 933b 2e0d fdbd df4f 5bbd c670 de3d
000000d0: a9d6 00be ec96 d33d 695a 1bbc 7548 16be
000000e0: 2db1 74bd 3bc8 1fbd ee92 26bc 3cb9 84bd
000000f0: daa2 5c3d 167d 87bd 8ea6 783d 71a2 8a3d
00000100: 8025 153e e57f 73be 9423 0cbe 2a98 80bd
00000110: 6947 0c3e 9d4f 603e f344 593d be70 36be
00000120: fadf 81bd 8a64 d0bc 5063 833e 3eb1 d73d
00000130: 2f3f 223e 7956 0d3e 2f00 963d b13f b43d
00000140: 7c3e cfbe 04b1 99be ec00 16bd a7f3 6fbc
00000150: 84ad cb3c 0ae1 90bd 7871 163d 7fad 4bbd
00000160: 472f 47be 0bd5 a23e 44fa 36bd 60e1 013d
00000170: ba73 123d 6c2c fa3d 05c5 c5bc 888a 3dbe
00000180: 866f b9bd ee5b 12bd 38c9 89bd 0fdc d0bd
00000190: cfd7 703e ebb0 533d 502b 33be 4fd5 2b3e
000001a0: 1b92 a3be d84c 93bc 3358 7a3d 285d 8d3e
000001b0: d59e 4a3e e465 c43d 69d9 4a3d cb49 933e
000001c0: 04b4 043e 6451 573e bc48 0cbe 19b9 00bc
000001d0: df98 7fbe fe1d d13d f6b1 8cbe 24d1 c53e
000001e0: 7ebc a0be f1ce c63e f01b 35be cc58 b2bd
000001f0: 4a07 d13d e836 70bc ecbf 87bc 22f9 f1bd
00000200: 0efc 903e 942a 1dbe 27c0 a6bc bf4d ef3d
00000210: 9a2c 1ebe 14d2 7dbd 13ee 29be d4a2 2a3d
00000220: 41b9 f8bc 4448 65be 613d cdbd ed93 35bd
00000230: f73e 59be d7ac 8f3e 55f8 23be 2670 56be
00000240: 92a6 04be 675e 85be 9491 f03b 68d7 673d
00000250: 4420 d2bc 7d93 303e e236 79be faab 833e
00000260: ec83 92be 071c 663e 1fb3 83be da09 703e
00000270: eb8e 813d b9f3 c43d 06a5 2fbd fc51 a8be
00000280: 5ecf 13bc c0ef 39be efec 53bd c7ba 373c
00000290: 4eda a63d 8b6c 553e 4b76 acbd 0c27 77be
000002a0: d7c0 5ebd 2b4e c7bd e159 c1bb f6b8 70bd
000002b0: 2b92 3bbe 038d 5d3e ee9e 653d 055f b63d
000002c0: 1e0a e0bd df5d 21be f033 febd 6f55 c7bd
000002d0: bc12 313d 2264 813d 27f4 6abe cddf 9a3d
000002e0: 5c26 433d e41c c3bd a535 4dbe bbb7 a8bd
000002f0: 39f1 8cbe fa7b 363d 9ad0 2e3e f917 83bb
00000300: 05f3 133f 68cd 8fbe f206 92bd 80dc 183e
00000310: 3eef 9cbe ec8b 97be 7c3f 853e e562 1abe
00000320: f82a 953a 4cfb f8be 4075 eb3d 0722 d63d
00000330: 27cf aabe 51e9 8e3d 8a2c dabd b640 f3bc
00000340: b3aa cfbe 104a cabe bba1 9e3d 95ef 4e3e
00000350: 3247 6a3e dcb2 e93e ba9c 2e3e a4d5 e1bd
00000360: cb47 46bd ee0c e5bd 3d93 1d3e 2ae8 693e
00000370: 3d8b f5bd 0bda d4be 6ba0 053e 0a78 123e
00000380: 8c56 fc3d d6ee 70be be61 073e 70c7 07be
00000390: 1177 583d a1ef 443e 28e3 11be fa82 90be
000003a0: 33d2 a3bc b7a4 f5bd 4449 ad3e 73bd 943d
000003b0: 3f1a 543b 08c6 353e 5655 bb3d 3000 4cbd
000003c0: cc3c 483c d827 41bd e3f7 43be 4397 76be
000003d0: 5a5e debd 041d 83bd 372f afbd e524 c63d
000003e0: b220 f53d 5c1d 2e3e 3b26 983d 9aae 223c
000003f0: 6299 10be c76d 7a3d 01fb b53c 9fd7 123e
