experiments/pedestrians/models/models_14_Feb_2024_17_26_50_eth_vel_ar3/model_registrar-80.pt (torch, 527902 bytes, 43 tensors)

weight_ih_l0 f4 [128, 6]
000000 08 45 c5 3d e4 94 e3 3d 50 0c a0 be 6c 7d f2 bd
       0.09632307 0.11112383 -0.31259394 -0.118403286
000010 b5 04 00 be 41 9b 43 bd ed 79 58 be 72 d7 d7 be
       -0.12501796 -0.047755484 -0.21140261 -0.4215656
000020 6c b8 7a bd a7 3a 56 3e e5 82 2d 3e 1c 8a 6a be
       -0.061211035 0.20920812 0.16944464 -0.22904247
000030 4f ab 8a 3d ce 72 59 3c 1d 11 ae be 3a d4 85 be
       0.06770956 0.0132720005 -0.3399743 -0.2613848
000040 15 37 97 be 4b 85 85 bd 53 22 2f 3e 1b d1 3a 3e
       -0.29534212 -0.06519564 0.17102937 0.1824383
000050 c5 ff 06 3e 36 b3 3f 3d 8e 9d ef 3d da 6b bd bc
       0.13183506 0.04680177 0.11699973 -0.023122717
000060 6b 47 4a bd 62 44 b3 3d 18 17 7d be 0e 37 b6 be
       -0.049384516 0.08753277 -0.24715841 -0.35588878
000070 ea 1c 8a 3f ec 01 ec bf f4 ef 6c 3e 97 82 02 3e
       1.0790074 -1.8438087 0.2313841 0.12745129
000080 9c 30 a0 3e 90 f8 ee bd 25 ba f3 3e 4b 1f ba be
       0.31287086 -0.11668503 0.47602955 -0.36352
000090 3b 09 cf be 65 de f9 3d 07 08 7d 3e 8a 70 98 be
       -0.4043673 0.122006215 0.24710093 -0.2977336
0000a0 22 48 aa 3d f1 bc 80 be 1f bb c2 be f0 7c 37 bd
       0.083145395 -0.2514415 -0.38033387 -0.044796884
0000b0 a3 77 11 3f 94 f3 14 be 4e f6 11 3e 79 b6 3a be
       0.56823176 -0.14546043 0.14254114 -0.1823367
0000c0 57 c3 8c 3e b1 2d 63 3e 30 ef 21 3f 83 24 ef be
       0.27492782 0.22185399 0.63255596 -0.46707544
0000d0 6b e3 d9 3e ba 5e 37 be a1 e9 c6 bd 64 51 7e be
       0.4255632 -0.17907229 -0.0971253 -0.24835736
0000e0 e7 9d f4 3d 5d cb c2 3e 65 87 bf 3d 5f 69 3d be
       0.1194418 0.3804578 0.09351996 -0.18497227
0000f0 1f bb 01 3e d3 74 96 be 0e 2e e0 be 8f 5f fc 3e
       0.12669037 -0.29386005 -0.43785137 0.49291655
000100 c8 a8 1a bb f1 0d 26 3e 36 da 49 3c 41 d0 05 3e
       -0.0023599137 0.16216256 0.012320092 0.13067724
000110 b7 7d 03 bf 5a 2c f9 bd 74 7b bb bf 82 fb 47 bf
       -0.513637 -0.121666625 -1.464705 -0.78118145
000120 ef 3d 2a 3c 5d 91 09 bc eb 4f 8a be d7 2a 9c 3e
       0.010390743 -0.008396474 -0.27014098 0.30501434
000130 84 9c c5 3d 3c 6e ee bc a4 a8 07 be 60 2e 7c 3d
       0.096489936 -0.029105298 -0.13247925 0.061567664
000140 04 6b f7 3e af e2 ac 3e 64 5a ea 3e 6e 92 a3 3e
       0.48323834 0.33766696 0.45772088 0.31947654
000150 bd 1a 89 3d a5 aa 98 bc 80 bb 5f bf 81 13 18 3c
       0.06694553 -0.018636057 -0.8739548 0.009281994
000160 70 82 10 bf 1d 47 e0 bd 0f 70 bb be 9e 28 2e 3e
       -0.5644903 -0.10951064 -0.3660893 0.17007682
000170 66 f0 25 3f fe cd 28 3d 7f 75 3c be 18 62 17 3f
       0.64819944 0.041212074 -0.18404196 0.59134054
000180 53 de 81 3e 52 64 52 bd 75 5b 12 bf 22 9c ca 3e
       0.25364932 -0.051365204 -0.571708 0.39572245
000190 96 f0 23 bf 03 24 b9 3d 76 f9 0d 3e 1e da 57 be
       -0.6403898 0.09040072 0.13864693 -0.21079299
0001a0 50 f5 5f be e5 29 7b 3e df ef 4e 3d 6c 27 00 3e
       -0.21870923 0.245277 0.050521728 0.12515038
0001b0 6c 12 36 3e cc 1d 87 be 43 b5 79 be cd 9a 11 3f
       0.17780465 -0.2638992 -0.24385552 0.5687683
0001c0 49 e4 94 3c e3 2a 6a 3f 95 51 82 3d 82 42 84 3d
       0.018175261 0.9147169 0.06363217 0.06457998
0001d0 58 e2 e9 be 03 8d 3a 3d 77 7e e2 bd 26 df c4 3e
       -0.456805 0.045544636 -0.110592775 0.384515
0001e0 91 71 d0 be 7d fa c8 3e fb 1a 22 3f e1 c9 04 bf
       -0.40711644 0.39253607 0.6332242 -0.5187054
0001f0 a8 37 9e 3e c6 bc 17 bd 90 e0 a2 3d 56 35 9f 3e
       0.30901837 -0.037045263 0.07952988 0.3109538
000200 f5 ce 28 3d 62 a7 cd be 2c 13 a3 3c c8 c2 bf 3d
       0.041212995 -0.40166765 0.019906603 0.093633235
000210 2a 4d 73 be f5 e2 e7 be 74 c0 1c 3e df 02 1b 3e
       -0.23759905 -0.45290342 0.1530779 0.15137814
000220 fa 8f 91 3e 0f 8e ea 3d d0 6b 9a bd 98 47 e4 3d
       0.28430158 0.11452877 -0.07540095 0.11146468
000230 cb dd 33 3e 82 dc 59 be 3d 2e 8c 3d f0 a1 bb bd
       0.17565076 -0.21275523 0.06844757 -0.091617465
000240 4a 69 41 3e 1f de f3 bc f9 37 af be 43 54 6b be
       0.18887821 -0.029769002 -0.3422239 -0.22981362
000250 89 5a 59 be 91 4a 58 be 10 00 de be aa 57 48 be
       -0.21225943 -0.21122195 -0.43359423 -0.19564691
000260 a7 2c 94 3d c0 2c 55 3e 6d d6 4a 3e 41 fc 01 3d
       0.07235079 0.20817852 0.1980836 0.03173471
000270 cf 30 54 3d a2 1d b4 3e d5 7c 40 bf 95 e0 47 bf
       0.05180436 0.35178858 -0.7519048 -0.7807706
000280 39 04 bc be 1c ae bf 3d ab 85 48 be e1 d6 dc 3d
       -0.36721972 0.093593806 -0.1958224 0.107831724
000290 0a 70 20 3f f6 7f 09 3f 2a 8c 88 3f 49 7c 96 3f
       0.6267096 0.5371088 1.0667775 1.1756679
0002a0 f0 cb 76 3e 96 66 d4 bd c0 8a ad be 7e 4b 9a 3e
       0.24101233 -0.10371129 -0.3389492 0.3013572
0002b0 59 14 17 3e a2 4f 1c 3e 82 c2 b3 be 87 00 8c 3d
       0.14753856 0.15264753 -0.35109335 0.06836038
0002c0 0c 15 35 3e 74 26 ed be 9a e4 7b 3e 46 81 2d be
       0.1768381 -0.463184 0.24598923 -0.16943845
0002d0 3c 60 4d be 08 48 44 be ef 33 b1 3e 91 cf cb 3d
       -0.20056242 -0.19168103 0.34609935 0.099516995
0002e0 da 0c 9a bc d9 62 b9 be 94 9a aa bd ef 1b aa 3d
       -0.018804956 -0.36208227 -0.08330265 0.08306109
0002f0 1a 5d 90 3b 17 d6 37 3e 95 9f 64 be 9d 1f 2b bc
       0.00440563 0.17952763 -0.223265 -0.010444549
000300 99 15 fb 3d 44 e9 f7 3d 29 73 57 be af 89 0b be
       0.12259979 0.12105039 -0.21040024 -0.13626741
000310 4e 38 1f be ac 47 f8 bd 9a f1 ba bc a8 b5 4c be
       -0.15548822 -0.12123045 -0.022820283 -0.19991171
000320 9a fe 99 3d ae 18 db 3d 20 0c f4 3d 05 50 45 be
       0.075192645 0.10698067 0.11916375 -0.19268806
000330 5b bb f3 bd 7f b4 7a bd 0e 71 93 bc 52 19 53 bd
       -0.119009696 -0.06120729 -0.017998245 -0.05153782
000340 ab 56 2c be 89 51 d8 3d 4f ee f6 3d 5d 32 80 3d
       -0.16829936 0.105624266 0.120571725 0.06259606
000350 52 8c 14 3e 25 f6 32 be 5d 13 49 bc 59 6e 09 3c
       0.14506653 -0.17476709 -0.012272683 0.008388125
000360 9f b8 39 3d f5 76 9b bd f5 ba 46 3e 8c 10 3b be
       0.045342084 -0.07591049 0.19407256 -0.18268031
000370 7b 35 de 3e 29 09 a4 bc 81 4f 84 3e 2b e2 b9 bd
       0.43400177 -0.0200239 0.25841907 -0.09076341
000380 61 02 2d 3e c7 1c 61 be 2c fc 83 be 89 6f 73 3c
       0.16895439 -0.21983634 -0.2577833 0.014858135
000390 f7 43 a2 bd 02 a9 2e bd 2b 51 4c 3e d7 d1 16 be
       -0.079231195 -0.042641647 0.19952838 -0.14728485
0003a0 a5 97 3d be 17 70 fc 3d de c0 fc bd aa 9a 40 be
       -0.18514879 0.12326067 -0.12341474 -0.18809
0003b0 c9 fc 88 3e c1 a7 c4 bd 48 b8 f8 bb 22 d9 74 be
       0.2675536 -0.09602309 -0.0075903274 -0.23910955
0003c0 6e a9 b4 3e f8 5d 6e 3b 2b 6f f1 3c 1e ca 4c be
       0.35285515 0.0036371928 0.029471954 -0.19998977
0003d0 1c 72 34 bd ed 17 b0 bd 32 9e 3d be c4 3d af bb
       -0.044054136 -0.085983135 -0.18517378 -0.005347939
0003e0 9a ce bf 3e 3b e3 16 3e 99 9b 47 3e 83 a7 b2 3c
       0.37462312 0.14735119 0.1949295 0.021808391
0003f0 a2 7f 03 3e 5e 6b 98 be 96 ab 2b be d0 f3 a2 3e
       0.12841657 -0.29769415 -0.16764674 0.3182664

weight_hh_l0 f4 [128, 32]
000000 67 78 26 3d 1c 63 6f be 6f ed c3 3c 57 d1 bd 3d
       0.04064217 -0.23377651 0.023916928 0.09268444
000010 25 d1 87 bd c4 70 a9 bc ee cd b2 bd 43 4e 1a be
       -0.06631688 -0.020683654 -0.08730684 -0.15068917
000020 fa 38 83 3c aa 0b 84 3e e1 26 16 be 19 1a b8 3d
       0.01601838 0.2579015 -0.14663269 0.08989353
000030 d4 d1 1c be 92 35 72 3e ca 9f 25 3e 04 b6 b6 3d
       -0.15314418 0.23653248 0.16174236 0.089214355
000040 6e f4 53 3e 69 ea 2c be 99 22 bd bc e5 20 9d 3c
       0.20698711 -0.16886295 -0.023087787 0.019180724
000050 18 21 56 be f8 8a e3 bd 22 95 a7 bd 91 4d 89 be
       -0.20911062 -0.111104906 -0.08182742 -0.2681699
000060 5a 10 8e 3e c2 86 12 3d 36 87 fd bd fa 06 b1 3e
       0.2774685 0.035773046 -0.12379305 0.34575635
000070 d9 91 21 3e 5d 03 96 3c b1 1f 42 3e fb 68 f3 bd
       0.15778293 0.01831215 0.18957402 -0.11885258
000080 af 83 c9 3d 45 1d 88 be ec cd ad 3d 5d cf d9 bd
       0.0983957 -0.2658483 0.08486542 -0.106352545
000090 78 7b 62 bc f7 98 55 3e b5 06 a3 bd d0 4f 46 be
       -0.013823383 0.20859133 -0.07960264 -0.19366384
0000a0 fb fb 81 3d 76 55 fc 3d 99 06 ce be 21 85 a9 bd
       0.063468896 0.12320988 -0.4023941 -0.082773454
0000b0 86 a5 87 be 3e 67 3a 3e 79 ce 80 3d a0 5f 0d be
       -0.26493472 0.18203446 0.062893815 -0.1380601
0000c0 96 bb 91 3e 73 cb d5 3d 49 ce 5d be 7c 70 8d 3c
       0.2846343 0.104391955 -0.21660723 0.01726555
0000d0 0a 19 3f bd 68 2c 2b be cb d0 47 be 91 35 24 be
       -0.04665474 -0.16716158 -0.19513242 -0.16036059
0000e0 9d 1d 1b 3e bb 97 ba 3d 8c 86 1e be 31 1c e1 bc
       0.15148015 0.091109715 -0.15481013 -0.027479263
0000f0 e6 45 62 bb 4b 59 ae 3d c7 af 70 3e 0f 4a d8 bd
       -0.0034526526 0.08513125 0.23504554 -0.105610006
000100 36 52 c0 3d ab 9e fa bd d1 1e ee bd a3 34 f3 3d
       0.093906805 -0.12237295 -0.116269715 0.11875274
000110 5a 33 ba 3d ba 9f ee 3d e9 06 13 be 56 02 2f be
       0.09091826 0.11651559 -0.14358105 -0.17090735
000120 c5 9b 9b bd ee 04 56 3e a8 94 90 be 4c be 58 3c
       -0.0759807 0.20900318 -0.28238416 0.013228964
000130 ed ed 3c bd e1 ef 10 be 7f 0e b0 3d 19 54 e8 bd
       -0.04612534 -0.14154007 0.08596515 -0.11344165
000140 62 90 23 3e f4 93 1e be 25 06 2a 3e f4 8c 00 be
       0.15973046 -0.15486127 0.16603906 -0.1255377
000150 c6 70 05 3d 44 ad 80 3d f1 22 fd 3d 07 ee 14 3e
       0.032578252 0.06283048 0.1236018 0.14543925
000160 bc bb 8a 3e eb 67 ec 3d a1 4a 1c 3e 8b 38 ef 3d
       0.27096355 0.11543258 0.15262844 0.116807066
000170 c4 fc db 3d 79 1f da 3d 52 ba 9c bd 95 0e 21 3d
       0.107415706 0.10650534 -0.07652725 0.039320547
000180 1a a1 1f be a1 37 4a bd 1d 18 2d bd 4d 19 70 3d
       -0.15588799 -0.049369458 -0.042259324 0.05861788
000190 8e 22 0a be fd 26 aa 3c 55 53 ac bd ed 8c aa 3c
       -0.13489744 0.020770544 -0.08414332 0.020819152
0001a0 1a f5 8c bd 90 0c 40 3e ea 99 bb be 46 fd d6 bd
       -0.06882687 0.18754792 -0.36640865 -0.10497527
0001b0 18 b6 c7 bc 31 52 90 bd 59 c3 f9 bd c4 48 36 be
       -0.024378821 -0.07046927 -0.12195463 -0.17801195
0001c0 7c 6e ae 3d e6 78 fc bb e4 9d 81 be cc 05 39 bd
       0.08517167 -0.007704842 -0.25315773 -0.045171544
0001d0 37 a0 95 bd e9 db 08 bc 0e 33 7c 3c 2b 97 dd bc
       -0.07305949 -0.008353212 0.015393032 -0.027049622
0001e0 8d d7 0f 3e 2a 05 06 3e e4 64 be bd 8c e5 63 3e
       0.1404707 0.13087907 -0.09296587 0.22255534
0001f0 14 16 b8 3d 3f a8 ea 3d 73 cb 8e 3e 03 b6 dd bd
       0.08988586 0.11457872 0.27889594 -0.108257316
000200 60 f5 85 bd 02 f1 a8 bd ae 1d 04 3e f0 c5 91 bd
       -0.06540942 -0.082490936 0.12901947 -0.07117832
000210 4b 93 80 3d 68 02 46 3e 68 ac 64 be fc 22 86 3e
       0.06278094 0.19336855 -0.22331393 0.26198566
000220 3a 6a b5 3e 30 a2 b2 bd 24 b4 9e be 59 30 78 be
       0.35432607 -0.08722341 -0.3099681 -0.24237193
000230 8f 54 b3 3e e1 1f 40 3e f9 c9 a0 3d a8 8e 43 bd
       0.3502545 0.18762161 0.07851023 -0.04774347
000240 bb f6 a1 be 50 47 0c bf 99 60 6c 3e b6 bb 0a 3d
       -0.31633553 -0.54796314 0.23083724 0.03387042
000250 19 c5 32 3e 44 36 c1 3e 71 15 95 3d b4 06 08 3e
       0.17458 0.37736714 0.0727948 0.13283807
000260 5e 5c 09 3e c8 a8 a3 be ab 60 c4 bb e8 b7 08 bf
       0.13414142 -0.31964707 -0.005992969 -0.5340562
000270 bd c3 82 bd 6e 6c 0d 3e a2 a8 48 3e 48 27 9c be
       -0.0638499 0.13810894 0.19595578 -0.3049872
000280 aa ed d0 3d 33 d0 7c be 8c 12 91 3d f3 04 0f be
       0.10201581 -0.24688797 0.07083616 -0.13966732
000290 dc 31 a9 bc 82 f0 e4 bd 5d 37 80 3e 87 76 8b be
       -0.020653658 -0.11178686 0.2504224 -0.27238867
0002a0 3d 60 ba bd 43 b9 d6 ba 7b 16 7e 3e f3 4e 8d 3b
       -0.09100387 -0.0016382117 0.24813263 0.00431239
0002b0 dc 47 61 be 29 ea a0 3d 2c c0 28 bc 6d d6 07 bd
       -0.22000068 0.078571625 -0.010299724 -0.033163477
0002c0 84 d7 f3 bd 9f 69 77 3e 52 ae 14 be a7 79 78 3e
       -0.11906341 0.24161385 -0.14519623 0.24265157
0002d0 7b a5 bc bd d4 b8 09 bd 2a 7f 03 3e 79 f5 69 be
       -0.092112504 -0.03362353 0.12841478 -0.22847547
0002e0 ca 14 08 3e 6d 4b c7 3d 79 12 3c 3e e2 85 f6 3d
       0.1328918 0.09731183 0.18366422 0.12037255
0002f0 b3 5a 23 3d 3f 41 b1 bd 3e ac 4c 3e d4 d8 66 3e
       0.03988142 -0.08655023 0.1998758 0.22543651
000300 2d 11 01 3e 7b a7 83 bd 96 bc 55 be 4b 6a 0b 3e
       0.12604208 -0.06428429 -0.20872721 0.13614766
000310 af f5 ec bc cc 6f b5 bd 69 59 95 3e 9e 75 a8 be
       -0.028925745 -0.08859214 0.29169777 -0.32902235
000320 9e 8e 1e be 05 96 ef 3d 63 b5 89 bd 10 e6 a8 bd
       -0.15484092 0.11698536 -0.0672405 -0.08247006
000330 75 8d 00 3d 2c cc a0 3e 87 35 b6 3d 4b 6f aa 3a
       0.031384904 0.3140577 0.08896928 0.0013003139
000340 ac c1 cc 3b 94 a6 ba bd 1c b5 22 3c 15 d3 a8 bc
       0.0062486734 -0.091138035 0.009930875 -0.020608464
000350 93 63 f9 bd 9c ae 94 3e 46 00 55 3e 47 16 02 be
       -0.121771954 0.29039466 0.20800886 -0.1270381
000360 e1 09 12 bd a1 1d 80 3e 21 0d af 3d e0 58 36 3e
       -0.035653953 0.25022605 0.08547426 0.1780734
000370 9a cc 1a be a9 cd f3 bc 34 46 b9 bc af e7 f1 3d
       -0.15117112 -0.029761152 -0.022616483 0.11811768
000380 5c 07 0e 3e 95 3c 94 be 3e 2b 51 3d a3 a4 17 3e
       0.13869995 -0.2895247 0.05106663 0.14808898
000390 46 b8 89 be 89 92 51 bd f5 48 97 3e 41 36 2a be
       -0.26898402 -0.051165137 0.2954785 -0.16622259
0003a0 0b 08 8b bd 47 1e 08 bd 0d 3d 24 3e 44 45 bc 3c
       -0.067886434 -0.033232 0.16038914 0.022982247
0003b0 60 87 b9 bd 01 ff 22 bd 93 48 fd ba bc fa 4c 3d
       -0.09059024 -0.039793972 -0.0019323997 0.050043806
0003c0 72 e0 70 3d 77 b8 37 3e 04 40 e1 bd 16 94 90 3c
       0.058807798 0.17941462 -0.10998538 0.017648738
0003d0 48 bb e6 be d7 02 dd 3d 0b 4a 73 bd a3 da cc be
       -0.4506476 0.10791557 -0.059396785 -0.40010557
0003e0 76 8e 64 3e a7 7b eb 3e 7e 56 67 be 87 0f 56 3e
       0.2231997 0.45992777 -0.22591588 0.2090436
0003f0 0f 4a a5 3d 76 fd 45 bd a3 7e a3 3d 00 fe b6 3e
       0.08070766 -0.048337422 0.079831384 0.35740662

bias_ih_l0 f4 [128]
000000 b6 62 19 3d 74 08 83 3d 66 fe 92 3c f4 86 8c bd
       0.037447654 0.06398097 0.017943572 -0.06861678
000010 2c 78 08 be 25 0e 2b 3e 80 d1 94 3d fb 04 37 be
       -0.13327092 0.16704614 0.072665215 -0.17872994
000020 79 10 f0 bc 1e b3 80 3d 06 0b 84 3e a3 07 dc 3d
       -0.02930473 0.06284164 0.2578966 0.10743644
000030 47 7b 3d 3e ca 8d b3 bd b6 dd ba 3d 7b 89 b6 bd
       0.18504058 -0.087672785 0.09124319 -0.08912941
000040 89 8c f6 bc aa f1 20 3e 24 28 8c 3a 90 1b 00 3e
       -0.03009631 0.15717188 0.0010693115 0.12510514
000050 41 c3 15 3e e6 c4 9e ba e5 2b ff 3d 0b 3f 80 bd
       0.14625265 -0.0012113124 0.12459544 -0.062620245
000060 e7 f9 e8 3d 56 20 da 3d ab f2 b2 bc 84 b7 d1 3c
       0.1137579 0.10650699 -0.021844229 0.025600202
000070 3c 6b b4 bc b7 1a 19 bb 6f 62 a3 bd 94 76 20 3e
       -0.02202379 -0.002336187 -0.07977759 0.15670234
000080 60 97 c6 3d 33 97 87 be 23 fc 6c be 36 9e f7 3c
       0.09696841 -0.26482543 -0.23143058 0.030226808
000090 32 cf d0 bc 89 93 30 be af 54 86 be 4d 62 25 be
       -0.025489423 -0.1724378 -0.26236483 -0.1615078
0000a0 cb d2 63 be d1 a3 b1 bd 96 a0 5d be 59 17 a6 3a
       -0.2224838 -0.086738236 -0.2164329 0.0012671753
0000b0 c8 91 29 be 1b a4 2c 3e 4a 15 34 bd 60 df 06 be
       -0.16559517 0.16859476 -0.043965615 -0.13171148
0000c0 e9 9c ab 3c f3 cf 6b bd 6f c6 4b be 05 bb a1 3d
       0.020948844 -0.057571363 -0.19899915 0.07896999
0000d0 ca 39 9a be 62 df aa bd ad 22 02 3a cd 29 e9 bc
       -0.30122215 -0.08343388 0.00049642735 -0.028462315
0000e0 4b fb cb bd 6a 52 13 3e 9f 86 80 3d be d2 dd 3d
       -0.0996004 0.14386907 0.06275677 0.108312115
0000f0 d2 98 28 bd 36 49 8e be c6 58 8a be da 3f 8d be
       -0.041161366 -0.2779023 -0.27020854 -0.27587777
000100 5e db 0c 3e 27 e3 06 3e 52 bf 8c bd 8c 73 0a 3d
       0.13755557 0.13172589 -0.06872429 0.0338016
000110 eb 3d c9 bd 34 07 22 bb 57 70 c8 3d 29 80 1c bd
       -0.09826263 -0.0024723532 0.09787052 -0.03820816
000120 55 7a 7c bd 0d cf 89 3d d4 4a 98 bd b9 ec db 3c
       -0.061640102 0.06728945 -0.07436147 0.026846277
000130 e7 d0 c2 bd 0c 95 bd bc b6 0d d2 bc 80 25 c0 bd
       -0.09512501 -0.02314236 -0.025641304 -0.093821526
000140 e1 fe 8e bd 66 03 f7 bd 67 5b b5 3d d8 03 e0 bb
       -0.06982208 -0.12061195 0.08855324 -0.0068363957
000150 6a 96 89 3d 3b e0 66 3d 5e 72 d2 3d 39 46 01 be
       0.06718142 0.056366187 0.1027572 -0.12624444
000160 b8 eb ee 3d 14 19 bf bd 73 5a 92 3d 76 3c a3 bd
       0.116660535 -0.09330955 0.07146158 -0.079705164
000170 45 33 78 bd 75 88 04 3e d9 d6 aa 3c 0b 40 66 bd
       -0.06059577 0.12942679 0.0208544 -0.05621342
000180 72 03 7f 3e 0f 20 4c 3d 1f e8 81 3d c5 cf 9a 3a
       0.24903658 0.04983526 0.06343102 0.0011811188
000190 f0 e8 6d 3e 34 1b fc 3d dc 78 d0 3d ad 14 22 be
       0.2323339 0.12309876 0.10179302 -0.158282
0001a0 e2 cd 04 be 4e da 06 3e b7 0a c7 3c 32 5e 2a 3e
       -0.12969163 0.13169214 0.024297101 0.16637495
0001b0 35 a8 17 3e ee 12 9f bd 90 40 02 3e c8 b9 9b 3d
       0.1481026 -0.077672824 0.12719941 0.07603794
0001c0 ec 5c c3 3d f2 76 c7 3d 10 1f ac 3d 56 75 01 3c
       0.09539208 0.09739484 0.08404362 0.00790151
0001d0 3f 80 8a 3e 98 b8 a1 3c c1 42 d8 3d 9f 08 f0 b9
       0.2705097 0.019741341 0.10559607 -0.0004578279
0001e0 3a 93 95 bd ca 7d 0f 3e 41 a1 ed 3d da fb bc 3c
       -0.07303472 0.14012828 0.11603022 0.023069311
0001f0 2c 5e e7 3d 1b 48 55 3e 5e 86 84 bb cd 86 03 3e
       0.11297259 0.20828287 -0.004044338 0.12844391

bias_hh_l0 f4 [128]
000000 20 37 e0 bb a1 e0 9d 3d 1d 41 ed bd b0 30 be 3d
       -0.006842509 0.0770886 -0.11584685 0.0928663
000010 09 1c 2c 3c ef 65 9d bd 63 71 ed bc 91 c0 98 ba
       0.010504731 -0.07685458 -0.028984731 -0.0011654069
000020 09 b1 64 3d 12 34 69 3e 5e 1c bd 3a d0 76 8e bc
       0.055832896 0.2277377 0.001442801 -0.017390639
000030 06 1f 5a bd d1 8d 53 3e 4f f8 06 3e 16 01 92 3d
       -0.053252243 0.20659567 0.1318066 0.071291134
000040 ee be ef bd 58 53 19 3e 33 c9 c1 bd 25 89 a5 3d
       -0.11706339 0.149732 -0.09462204 0.08082799
000050 fe 7d 96 3e 30 d0 37 3e ea cb 1c 3e ca e5 db 3a
       0.29393 0.17950511 0.15312162 0.0016776857
000060 2e 9f 7c 3c 8e 24 bb 3d 73 ce 53 3d 65 21 87 bd
       0.015418811 0.09137832 0.051710557 -0.065981664
000070 55 46 d4 bd 0d 5a 3f bc d7 12 28 bc d0 db 53 3e
       -0.10364977 -0.011679185 -0.010258398 0.2068932
000080 45 80 06 3c 34 77 74 be eb 18 cd 3b d3 23 34 be
       0.008209293 -0.23873597 0.006259074 -0.17591791
000090 3a d5 90 3e 61 32 1d bc a0 ac f8 bd d5 d7 9c be
       0.2828768 -0.009594531 -0.121423006 -0.30633417
0000a0 34 30 19 be 3f 64 12 be fd 3c 4a be 82 70 75 bd
       -0.14959794 -0.14296053 -0.19749828 -0.05992175
0000b0 25 6b 2c be e0 a0 31 bc 50 e8 7d 3d 79 1d a7 bd
       -0.16837747 -0.010841578 0.06198913 -0.08159918
0000c0 8d f8 e0 bd b2 81 00 be f2 bd 2e be de 8a d1 bd
       -0.10984907 -0.12549475 -0.17064646 -0.10231565
0000d0 96 17 21 be 99 23 7c be 27 e9 63 be a1 37 67 bd
       -0.15731654 -0.24622954 -0.2225691 -0.056449536
0000e0 b1 3a 9b be b6 b6 28 be b8 5b 43 be 30 0c 43 3d
       -0.30318215 -0.16475949 -0.19077957 0.047619045
0000f0 75 18 8e bd 54 2b 34 bd 6a 70 0d be 46 00 d1 3c
       -0.069382586 -0.043986633 -0.13812414 0.025512826
000100 48 33 15 be 1f 56 0c be 45 93 cf 3d af d3 b2 bc
       -0.14570343 -0.13704728 0.10135511 -0.021829454
000110 1f 33 22 3e 70 85 f4 3c f3 c7 b4 bd a9 41 0e 3c
       0.15839814 0.029848784 -0.088272 0.008682647
000120 a9 0e a3 3d a9 af d7 bc de 04 5b 3d d4 cb 34 3d
       0.079617806 -0.026328878 0.05347144 0.0441397
000130 f8 48 af 3d 53 5d 31 3d 39 a7 d3 bd 3c c8 56 3d
       0.085588396 0.04330189 -0.103346296 0.052437052
000140 cb 64 bd 3c fc 66 f9 3d 8d 60 65 3c ba 9e 08 be
       0.02311935 0.12177846 0.01400007 -0.133418
000150 bd e5 b7 bd 70 ec 85 bb 97 37 10 be 03 84 f9 3d
       -0.08979366 -0.0040870234 -0.14083706 0.12183382
000160 6d 85 f9 bd fa 07 4a 3c fd 6d 98 3d d7 ef 0f 3d
       -0.12183652 0.012331003 0.074428536 0.03514084
000170 13 48 49 bd 89 cc 18 be 04 23 72 bb 4c b7 43 3d
       -0.049141 -0.14921774 -0.003694714 0.047782227
000180 bd 36 09 3e 58 94 3c 3e 51 c9 bd bd 21 fa 69 3e
       0.13399787 0.18415964 -0.09266914 0.22849323
000190 26 72 a9 3e 31 fc d8 3c 74 ca 99 3e 76 f7 1b 3e
       0.330949 0.026487442 0.30037272 0.15231118
0001a0 be 19 3c be 58 bd 1d 3e 07 f8 87 3e fa 1a 79 3e
       -0.18369195 0.1540426 0.26556417 0.24326697
0001b0 46 1c 24 3e 02 90 ec 3d 70 bb 40 3d ba d4 ab 3d
       0.1602641 0.11550905 0.047053754 0.08390184
0001c0 68 3c e9 3d 5e 5e 21 bd b4 ad 41 3e 2a b9 ec bd
       0.11388475 -0.039396636 0.18913919 -0.11558755
0001d0 c8 29 6f 3e 5f e5 57 3e 4e c6 83 3e 44 4d 07 3e
       0.23355782 0.21083592 0.25737232 0.13213068
0001e0 d5 18 eb 3d 8b 1c ed 3d b8 f9 2b 3e b2 cd ef 3c
       0.11479346 0.1157771 0.16794479 0.029272888
0001f0 78 16 86 bc 45 9b 4f 3e bf 33 bc 3c 9f 8a a8 3e
       -0.016368136 0.20274074 0.022973893 0.3291826

weight_ih_l0 f4 [128, 2]
000000 8f fc 0d 3e 36 eb aa 3d 5a ec f9 3d 75 00 ac 3d
       0.13865875 0.08345644 0.122032836 0.08398525
000010 96 2a 33 3e eb 3b 84 3d 75 f4 3e be b1 da 25 bc
       0.17496714 0.06456741 -0.1864794 -0.010122941
000020 72 e0 ae bd 98 b3 a5 be f3 40 0d 3e 00 ad ce 3d
       -0.08538903 -0.32363582 0.13794307 0.10091591
000030 51 4a e6 bd 50 1e 3a 3e 47 ca af be 8c 1d 18 3d
       -0.112446435 0.18175626 -0.34334013 0.037137553
000040 ad 4f 39 3e df 2f 0c be f4 06 70 be f9 0e 8d 3d
       0.180968 -0.13690136 -0.23440152 0.068876214
000050 5a 29 b4 3a 18 53 a8 bd e2 54 2e 3e 28 bb 40 bd
       0.0013745234 -0.08218974 0.17024568 -0.047053486
000060 59 b6 0b 3e ad 9c ad be 6b 66 16 be 7d 2f b7 bb
       0.13643779 -0.33908597 -0.14687507 -0.005590378
000070 a2 00 81 be 0b 38 cd 3d f9 c7 04 3d 9d 24 29 3d
       -0.25195795 0.10020455 0.03241727 0.041294683
000080 1d 04 34 be 12 31 32 3e 63 85 d8 bd b3 6e 9b 3e
       -0.17579694 0.17401531 -0.105723165 0.30357894
000090 9f d6 03 3d 04 52 2d 3e c0 08 7c 3e 43 5a 98 3d
       0.0321871 0.16925818 0.24612713 0.07439091
0000a0 3b 1c b2 3e bb 4e 11 bc fe 01 7c 3e 91 7a e7 3e
       0.34787163 -0.008868868 0.24610135 0.45210698
0000b0 40 eb 92 3e a4 1a 33 3e ac ab fe be da 18 65 3e
       0.28695107 0.17490631 -0.4974035 0.22372761
0000c0 89 52 0e bd a9 42 cc 3d ca bc 0c 3e e5 c4 98 be
       -0.03474668 0.09973652 0.13743892 -0.2983772
0000d0 d6 4e db bd 1a 2e 91 3e 03 6c 48 be a9 43 32 be
       -0.10708396 0.28355485 -0.19572453 -0.17408623
0000e0 a7 20 0f 3d 9f d2 aa bd 90 9b 63 3d cf e7 8e 3e
       0.03494325 -0.08340954 0.055568278 0.2791123
0000f0 0e 8a c3 3e bf e3 38 3d f4 54 0a 3e 05 70 ce be
       0.38191265 0.04513907 0.1350897 -0.4031984
000100 08 52 8b 3d 08 4b 46 be da 35 7f bd a6 a0 93 be
       0.068027556 -0.1936456 -0.062307216 -0.28833503
000110 8a 24 be bd 55 42 f6 3d d5 06 bd 3d 6a dd d8 3e
       -0.09284313 0.120243706 0.09229819 0.42356426
000120 bd 8c 4e 3e 03 01 70 3e a3 7e e9 be 93 7e 60 3e
       0.20170875 0.23437886 -0.4560443 0.21923284
000130 3e 70 08 bf f5 30 86 bc 55 a5 be 3e 66 ac ee 3d
       -0.5329627 -0.016380766 0.37235513 0.11653976
000140 1f 02 31 bd 7c 94 c1 bd 31 06 f6 bd d1 79 a8 be
       -0.043214913 -0.09452149 -0.120129 -0.3290544
000150 90 af ea bd e2 9e 12 be 44 10 83 be f1 ec 35 3e
       -0.11459267 -0.14318421 -0.25598347 0.17766167
000160 b6 bf 0d bf e0 5b b0 bd 34 b0 ea 3e 76 61 ee 3e
       -0.5537065 -0.08611274 0.45837557 0.46558732
000170 21 d4 89 be 12 45 98 be cc 4b 67 3e 2f 30 3b 3d
       -0.26919654 -0.29740196 0.22587508 0.04570025
000180 40 36 da 3d 10 b9 c0 bb 0e ff 10 3d 72 38 a2 be
       0.106548786 -0.005881436 0.03539949 -0.3168369
000190 8a 04 d0 3d 22 6c 11 3f 56 d1 0b bf 3c a9 20 3e
       0.10157116 0.5680562 -0.54616296 0.15689558
0001a0 65 0d f3 be 6a 45 04 be ea 77 6a 3e 7a 25 87 3d
       -0.47471157 -0.12917104 0.22897306 0.06598945
0001b0 c5 60 b2 3d fa cc 7d 3e f5 57 fa 3c 93 b9 09 bf
       0.087098636 0.24785224 0.03055952 -0.5379879
0001c0 26 23 92 be ca 4b 32 be 4c 35 9c 3e e8 e5 f4 3d
       -0.2854244 -0.17411724 0.30509412 0.11957914
0001d0 9e 6e 85 3e dd f3 87 be fb 95 1b be 6e 38 ab 3e
       0.26060957 -0.2655324 -0.15193932 0.3344149
0001e0 59 0e 61 3d 95 26 d5 be 4b 24 80 be 54 a0 04 3f
       0.054945324 -0.41630998 -0.2502769 0.5180714
0001f0 69 49 8c 3e 3c f8 2f bd 33 7d 26 3d 9f fd a9 3e
       0.27399758 -0.042961344 0.040646743 0.3320131
000200 c9 cf 1e bd af ba 69 3e 47 df 91 be b2 44 b6 be
       -0.038772378 0.2282512 -0.2849066 -0.35599285
000210 8b 75 a7 be d2 7f 91 be 3f 1e ab bd 3f 5b b6 be
       -0.32706866 -0.28417832 -0.08355378 -0.3561649
000220 a7 65 8f be a4 78 52 3e d7 46 46 3e 83 e5 d3 be
       -0.28007242 0.20553833 0.19362961 -0.4138604
000230 9b 6e e5 bc 17 70 86 bd db 10 a3 3e ce 34 b4 bd
       -0.028006842 -0.06564348 0.31848797 -0.08799134
000240 c9 ac 1b 3f 22 e8 2d 3e bd cc cd 3b 2e f5 41 3f
       0.60810524 0.16983083 0.00628051 0.7576474
000250 b6 e1 ac 3e 9d c9 e5 3e 82 f6 1a bf f1 fe 67 3e
       0.33765954 0.4488038 -0.6053239 0.22655846
000260 d5 5d c9 be f1 15 b6 bb 3e 52 7f 3e 1d a2 6d 3e
       -0.393294 -0.005556815 0.24933717 0.23206373
000270 91 0e aa be 0f 0c fd be b7 81 ad be ad 5a 65 3e
       -0.33214238 -0.49423262 -0.33888027 0.22397871
000280 b0 46 45 3c fc 62 32 3e a9 b8 f7 be 3a 0d bf 3e
       0.012040779 0.17420572 -0.48383072 0.3731478
000290 4d 2a 58 3d f3 92 03 3f df 67 b5 3e f0 cb 1b be
       0.052774716 0.513961 0.3543081 -0.15214515
0002a0 32 1e 8e be a3 f0 e2 ba 16 0d df be 8b bc 9a 3e
       -0.27757412 -0.0017314147 -0.4356467 0.30221972
0002b0 89 39 92 bd 0b c7 00 bf 38 0a 29 3e 61 61 30 bd
       -0.0713988 -0.50303715 0.16507804 -0.043061618
0002c0 c1 12 6c 3e 9d 91 88 3e d7 a1 27 be e5 79 a2 3e
       0.23054029 0.26673594 -0.16370331 0.31733623
0002d0 2b 60 22 bf f8 33 99 3e 52 bc 8c 3e 2b d8 36 3e
       -0.6342799 0.29922462 0.27487427 0.17855899
0002e0 f3 d4 f4 3e 5b 58 6f 3e c9 d5 dd 3d 97 fb 09 3d
       0.47818717 0.23373549 0.10831792 0.0336872
0002f0 d8 d4 ab 3e b9 5b 3a 3e 12 6a 57 bd a9 fa fe be
       0.33560824 0.18199052 -0.05259139 -0.49800614
000300 41 85 a2 bd 81 4f 2f be 17 04 3f 3e fd ad b8 3b
       -0.079355724 -0.17120172 0.18653904 0.0056359754
000310 1a fc 10 3e fd 86 06 3c df 69 68 3e 9c 8a 0c 3e
       0.14158669 0.008210895 0.22696637 0.1372475
000320 ed 71 d7 bc d8 8f 4e be 93 16 71 be 0d 01 58 3e
       -0.026299441 -0.2017206 -0.23543768 0.21094151
000330 84 c7 b3 be 66 46 38 be 04 ac 42 bd da 53 a3 bd
       -0.35113156 -0.17995605 -0.047527328 -0.07974978
000340 2c d9 87 bc 44 f9 99 3d a4 6b 81 be 26 15 b5 be
       -0.016583048 0.07518247 -0.25277436 -0.35367697
000350 15 b6 2d 3e 0f bf de bd ab 18 d3 3d 4d 74 33 3a
       0.1696399 -0.10876285 0.103074394 0.0006845638
000360 b2 a7 ca 3e ba 0a fd 3d b3 38 2c 3e b7 e6 40 3e
       0.39581066 0.123555616 0.16818504 0.1883801
000370 31 e0 3f be 1b dd 27 3e f6 cf 27 3e 39 d0 1a bd
       -0.18737866 0.16392939 0.16387925 -0.037796233
000380 8d 0e b7 bd f5 c5 07 3e 81 27 f0 bd 48 ea 34 be
       -0.08938322 0.13259108 -0.11726285 -0.17667496
000390 82 16 ff bc a1 66 d9 bd b2 4a 80 3e 81 e8 9a 3e
       -0.031138662 -0.10615278 0.25056988 0.3025551
0003a0 d2 dd ac 3d 44 13 b8 bd 2f cd 4a 3d 78 ca f8 3e
       0.08440746 -0.089880496 0.049512085 0.4859197
0003b0 10 91 22 3e ac ce 54 3d ed 7d 13 be 04 fc 87 be
       0.1587565 0.05195491 -0.14403506 -0.2655946
0003c0 81 bd 4c 3e ed 1c d1 3d 9b 73 35 3e 29 f0 a8 be
       0.19994165 0.10210595 0.17719881 -0.32995728
0003d0 6e ea 1d 3c 21 08 69 be a6 9c 49 3d b8 93 0d bb
       0.009638412 -0.22757007 0.049221657 -0.002160294
0003e0 26 75 3c 3d 17 4d 34 be f2 ca 1e be d1 c1 87 3e
       0.04601016 -0.17607532 -0.15507105 0.26515058
0003f0 60 6a 7d 3e 87 9d b2 bd e7 18 6f 3e 3e 1c 8a be
       0.2474761 -0.08721452 0.23349343 -0.26974672

weight_hh_l0 f4 [128, 32]
000000 a9 5b 65 bd d7 3f 84 3d 01 63 11 be 67 e2 78 3d
       -0.055995617 0.06457489 -0.14197923 0.06076279
000010 e4 0f 1c 3d 07 40 e7 bd a5 ec 98 be ba 4e 94 bc
       0.038101092 -0.11291509 -0.29868045 -0.018103946
000020 b2 7c 5b be 16 4d 9d bd ac d1 60 3d 9b 40 3e 3e
       -0.21434286 -0.076807186 0.05488746 0.18579333
000030 a1 7c 39 3e 4b 17 1c 3e 13 f0 c5 bd 9a 20 8e bd
       0.18113948 0.1524326 -0.09664931 -0.06939812
000040 32 c3 cd 3d c9 89 fb 3c c0 02 89 3e ae dc 0e be
       0.10046996 0.03070535 0.2675991 -0.1395137
000050 c7 9e f1 3d 6e 91 31 be 7d a6 a2 be a7 20 23 3e
       0.117978625 -0.17340633 -0.31767645 0.15930425
000060 39 b7 70 be b4 0f 68 3e 16 ae 2e be 2d 42 32 3e
       -0.23507394 0.2266224 -0.17058596 0.17408057
000070 6f e6 f7 3d 4c d8 32 be 71 68 29 be d2 91 24 bc
       0.121044986 -0.17465323 -0.16543747 -0.010044532
000080 27 58 6b 3c 67 c3 fc bd 05 0e d1 be 2b 29 15 be
       0.014364279 -0.123419575 -0.4083101 -0.14566486
000090 a2 fe d3 3d 14 b8 64 3c 36 41 dc be b1 09 83 bd
       0.10351302 0.013959903 -0.43018502 -0.06398333
0000a0 78 29 82 3e 2f e6 55 3e f2 60 e7 3e 57 5d 24 3c
       0.25422263 0.2088859 0.4519115 0.01003202
0000b0 22 77 b7 bd c6 f7 db 3e 0e 13 7e bd e5 82 47 be
       -0.0895827 0.42962474 -0.06202989 -0.19483526
0000c0 b9 3e a0 3d f6 cf 2f 3e a4 d4 ae 3e ef d5 e8 3d
       0.078244634 0.17169175 0.34146607 0.113689296
0000d0 de b1 2c 3e f2 f1 8f be ef c2 20 be a6 69 03 3e
       0.16864726 -0.28114277 -0.15699361 0.1283327
0000e0 56 c4 b9 3d 10 30 f4 bc e2 58 19 be a9 a7 05 bb
       0.09070651 -0.029808074 -0.14975312 -0.0020394123
0000f0 0c 74 a8 3d 3e cb 80 3c c9 9c ee 3d be a8 e0 be
       0.08225259 0.015721913 0.11650998 -0.4387874
000100 b2 54 d3 bd fc 0c 88 3e ec 7a 00 3e 4d b2 a4 bd
       -0.10318889 0.26572406 0.12546891 -0.08041821
000110 cc 82 8c be 4f a1 05 be df 57 2b be 08 c3 db 3d
       -0.2744354 -0.13049816 -0.16732739 0.10730559
000120 c1 10 56 3d 82 8f 84 be 32 b6 fd bd 03 76 4e 3d
       0.05226207 -0.25890738 -0.123882666 0.050405513
000130 94 b9 15 3e ff 11 05 3f 05 37 88 3e db bd 2c 3c
       0.14621574 0.51980585 0.26604477 0.010543312
000140 c0 1d 7c 3d 6f 7e 27 3d 7e 6d 9f 3d 25 d0 85 be
       0.06155181 0.04089206 0.07784556 -0.26135364
000150 16 fd e9 3d 46 5b f3 bd dd e9 c2 bd 10 62 6d 3e
       0.114252254 -0.118826434 -0.09517262 0.23181939
000160 b7 c1 97 be 39 f1 0b 3d 8a 50 ab be 40 7d 90 3e
       -0.2963998 0.034165595 -0.33459884 0.28220558
000170 52 3b 9e be e0 f2 14 be 1f 28 9e 3e 28 fa 07 bf
       -0.30904633 -0.14545774 0.30889985 -0.53116083
000180 6d c6 09 3e 31 16 d2 bd a8 fc 5e 3e e8 d9 b2 bd
       0.134546 -0.10258139 0.21776068 -0.087329686
000190 ec ef 0f 3e bd 68 83 3d c9 09 57 3e 35 e8 24 3e
       0.14056367 0.064164616 0.20999826 0.16104205
0001a0 98 e4 a2 3e c6 be dc 3d 58 8f 4c 3d 9d bf 48 3d
       0.31815028 0.10778575 0.04994139 0.04901086
0001b0 8b 7c b0 3d ca 5e 90 bd 1b 19 b3 bd 8d ac ec bd
       0.08617505 -0.070493296 -0.08745023 -0.11556349
0001c0 99 9b 32 be d2 8c aa be 92 34 85 bd 17 24 da bd
       -0.17442168 -0.33310562 -0.065041676 -0.10651415
0001d0 d1 4c 96 bd 77 10 30 3e 63 0b 12 3e 50 2a fe bb
       -0.0733887 0.17193781 0.14262156 -0.007756509
0001e0 9a 12 b3 3c 6d 30 a2 3e 94 51 c4 bd d2 ef e1 3e
       0.021859456 0.3167757 -0.09585872 0.4412828
0001f0 98 18 c0 bd 73 41 06 be 6b 33 fb bb fd 00 a1 bd
       -0.09379691 -0.13110904 -0.0076660416 -0.078615166
000200 d1 72 6c be 71 77 47 3d 45 eb 0c 3e 68 73 87 3e
       -0.23090674 0.048697893 0.13761623 0.26455235
000210 58 1a f4 bd 4e b6 03 3f 88 5c c1 3e 52 4d 45 3d
       -0.11919087 0.5145005 0.37765908 0.04816944
000220 cb dc c6 3e f4 65 2a 3d 10 8a 5a be 42 4b a7 bd
       0.38840327 0.041601136 -0.21341729 -0.08168651
000230 05 1f f1 bd e3 02 b6 3d 6d cb 80 3e 62 8a bf bd
       -0.11773495 0.08887269 0.25155202 -0.09352566
000240 65 2c b8 be be 19 45 bf 53 92 ad be 72 97 73 3e
       -0.3597137 -0.76992404 -0.339007 0.2378824
000250 cf e2 30 3d e0 10 a8 3d a5 f0 2a 3f 42 2d bd bd
       0.04318505 0.08206344 0.66773444 -0.09237148
000260 3e 85 1a be 9e d9 1e 3e fb 51 d4 be 71 5a 5d 3e
       -0.1508989 0.15512702 -0.41468796 0.21616532
000270 f4 cd 06 be 8d 16 2d 3e f6 3d 3a bc 81 da 13 3e
       -0.13164502 0.16903134 -0.011367312 0.14438821
000280 7f dd b6 bd 15 2c a9 bd e0 73 a7 be 01 2d 6c be
       -0.08928966 -0.08260361 -0.32705593 -0.23064043
000290 d0 6c 1b 3e 72 9e 21 3e 9e d9 4e be c5 a2 7e 3e
       0.15178227 0.15783098 -0.20200202 0.24866779
0002a0 47 e0 d1 3e f7 6a c2 be fe de eb bd ce bd a2 3e
       0.40991423 -0.37972233 -0.11517142 0.31785434
0002b0 10 19 b1 3d fd 22 06 3d b7 ee 42 3e 11 4a 24 be
       0.086473584 0.03274821 0.19036375 -0.16043879
0002c0 37 d5 64 be aa dc 52 be f1 03 ae bc 32 0f e9 3d
       -0.2234696 -0.20591989 -0.021242114 0.113798514
0002d0 c3 b8 9a bd 97 eb 8d be af ab 03 be 01 d0 6e 3e
       -0.07554772 -0.27718803 -0.12858461 0.23321535
0002e0 cd 1f eb 3d 63 50 87 3e 83 1d be bd af 78 c1 3e
       0.11480675 0.26428518 -0.09282973 0.37787387
0002f0 e9 13 1a bc 52 20 c1 be a3 76 f8 3e de 11 be bd
       -0.009404161 -0.3771997 0.48528013 -0.09280752
000300 27 42 88 3e 74 62 87 be 22 a5 ff be 6b 33 9c be
       0.2661297 -0.264423 -0.49930674 -0.3050798
000310 55 9b 22 3e 32 bb 6d be d5 ec bf 3c 2f 9a aa 3d
       0.15879567 -0.2321594 0.02342836 0.083301894
000320 ae 4d a6 3e fd eb ac 3e 74 c7 de 3e 26 a6 07 3d
       0.3248114 0.33773795 0.43511546 0.033117436
000330 8d 53 e6 bd e8 3e 97 3e 75 d6 f1 be c3 8c 57 be
       -0.11246405 0.2954018 -0.4723393 -0.2104979
000340 a4 01 ef bb 80 44 85 3e 2d 41 80 3e 4d f3 83 bc
       -0.0072938967 0.26028824 0.25049725 -0.016107226
000350 be fe 05 3d c5 6d 83 3e af 88 e1 be 6b 12 10 39
       0.032713644 0.25669685 -0.44049594 0.00013739771
000360 02 fd 54 3e 8b 4c 47 3d cd bd 43 be 3d 5b 26 bc
       0.2079964 0.04865698 -0.19115372 -0.010153589
000370 ca 87 d0 3e 07 e9 32 be c1 c6 b8 bd f8 6d 95 bd
       0.407286 -0.17471705 -0.09022284 -0.072963655
000380 61 05 8c 3e d2 e2 d5 3d 49 86 01 3f dc f3 90 3d
       0.27347854 0.10443653 0.5059553 0.070777625
000390 01 00 49 3e 77 b1 b5 be 69 ae 7b 3e b8 30 af bd
       0.19628908 -0.35486957 0.24578251 -0.08554214
0003a0 15 9d 5a bf 2d c2 f1 bd fe 19 a7 be 82 03 96 3e
       -0.8539594 -0.11804614 -0.32637018 0.2929955
0003b0 e0 33 39 3f 80 bc 2e be de 90 4a 3d 2a 13 ce 3e
       0.7234478 -0.17064095 0.049454562 0.40248996
0003c0 1c 72 1d 3e 6e 05 e9 3e 6a c4 eb bd 21 95 89 bc
       0.1537556 0.45511955 -0.115120724 -0.016794743
0003d0 94 22 25 bc 03 55 34 3e f7 c7 c8 bd 32 29 23 be
       -0.010079045 0.17610554 -0.09803765 -0.15933684
0003e0 9b 27 29 3d 4b f3 64 bd 62 ea 1b 3f 58 ee f9 3d
       0.041297536 -0.055896085 0.60904515 0.122036636
0003f0 a4 34 29 be 4f 7d b8 3d ee 43 96 bd fd c9 0f 3e
       -0.16523987 0.09008276 -0.07337175 0.14041896

bias_ih_l0 f4 [128]
000000 9e 14 fd bc 26 f2 88 bd 0b e3 df 3d b5 21 e8 3d
       -0.03089362 -0.06686811 0.10931977 0.11334554
000010 b2 49 21 bc 7f 16 12 3e 09 67 0a 3e 27 ef 0a be
       -0.0098442305 0.14266394 0.13515867 -0.13567792
000020 30 1f 2b 3d 34 41 0b 3e 4e 41 67 bd 74 72 ed bd
       0.04177779 0.13599092 -0.056458764 -0.11594096
000030 2d 03 2c 3d 64 d3 18 3e 6f c2 42 be a7 93 b5 3c
       0.041995216 0.14924389 -0.19019483 0.022165133
000040 97 b6 94 3c 9e e3 0a 3e 12 bd 8e 3e 22 78 5d bc
       0.018153472 0.13563392 0.27878624 -0.013517411
000050 e1 1e 53 3e 65 9f 17 bd 25 03 ab bd 03 e4 cd bd
       0.20617248 -0.037017245 -0.08350209 -0.100532554
000060 76 18 9e bb c5 0b 70 bd e7 c4 c2 3d d4 eb 9a 3a
       -0.0048246933 -0.058604974 0.095102124 0.001181955
000070 e7 56 05 3e f7 5c 9b 3d 33 1c 7c 3e b0 9d aa 3d
       0.13021432 0.07586091 0.24620132 0.08330858
000080 32 3e 2e 3e c9 87 08 be 91 fb dc bd 72 11 cd bd
       0.17015913 -0.13333048 -0.1079017 -0.10013093
000090 13 29 ff 3b b3 04 d3 3d 17 1e b5 3d 3e 0b 61 3e
       0.007786879 0.10303631 0.0884363 0.21976945
0000a0 70 75 4c 3e 21 84 b3 3e 9f 79 9d 3d ab c5 68 3e
       0.19966674 0.35061744 0.07689213 0.22731654
0000b0 9c 56 c7 bd a8 c3 15 3e da 54 f2 bc 70 9c b7 bd
       -0.09733316 0.14625418 -0.029581476 -0.08965385
0000c0 7e 86 14 bd 71 04 85 3e 67 e6 9f 3e 71 a6 1c 3e
       -0.036261074 0.2597995 0.3123047 0.15297867
0000d0 13 96 2a 3e 01 58 21 3e ba 5f 08 be 16 c3 3a 3d
       0.16658811 0.15756227 -0.13317767 0.045596205
0000e0 ea 56 b0 bc 0f f0 b6 3d 77 d5 1c 3e 6b e8 49 3e
       -0.021525819 0.08932506 0.15315805 0.19717567
0000f0 70 57 32 be 45 3c d1 3d d5 06 98 3c 94 be 85 bb
       -0.17416167 0.102165736 0.018557945 -0.0040815566
000100 da 6c 3f be 20 24 7d 3e af 28 4a 3e 79 13 15 be
       -0.18693867 0.24720812 0.19742082 -0.1455821
000110 56 41 44 3e 29 25 a7 3d c3 ab b0 3e fe 80 1d 3e
       0.19165549 0.081613846 0.34506044 0.15381238
000120 e0 3a d3 3d 7a cb b0 bd 0f 1a 10 3f db 86 83 3d
       0.10313964 -0.0863256 0.5628976 0.06422206
000130 20 77 05 3e 56 bb be 3e 18 19 f8 3d ab 12 db be
       0.13033724 0.372523 0.12114161 -0.4278768
000140 f5 0f f9 be 30 3e 85 be a2 6b 8a 3e ed f8 f4 bd
       -0.48644987 -0.26024008 0.27035242 -0.11961541
000150 9b 54 0e 3e 3d 4f b8 be bb b5 c3 3d 02 d5 4e 3e
       0.13899462 -0.35997954 0.09556147 0.20198444
000160 96 c7 99 be 8c 54 83 3d 13 a8 26 3e b3 7f e5 3d
       -0.30035084 0.064126104 0.16275053 0.11205997
000170 f3 8f 04 bf 86 b0 b7 3d b3 1e 1a be 8e 75 34 bf
       -0.5178215 0.08969216 -0.15050773 -0.70491874
000180 c5 45 17 bc d3 e0 2f 3e 03 96 76 3e eb 43 2c 3e
       -0.009232943 0.17175607 0.24080662 0.16822784
000190 ba 91 28 3e 9f e5 82 3e ae 3b 90 3e 51 62 ed 3d
       0.1646184 0.25565812 0.28170532 0.11591018
0001a0 22 cf 99 3d 93 78 b2 3e ac da e0 3d de 7b b7 bd
       0.075102106 0.34857616 0.10979208 -0.08959173
0001b0 e2 a6 21 bd a1 fe 6a 3e 36 ec 39 3d fb bd cd 3d
       -0.039465792 0.22948696 0.045391284 0.100460015
0001c0 c7 91 04 3e 6f b3 77 bd 89 0b 8a 3e 49 a4 39 3e
       0.12946235 -0.060473856 0.26961926 0.18129076
0001d0 f3 23 38 3b 84 f8 34 3e 81 ed 4f 3d 85 a2 93 bd
       0.00280976 0.17672926 0.05076361 -0.072087325
0001e0 cb 0a 77 3e 05 16 f2 3c 7e f1 ac 3e 59 d1 75 bd
       0.24125211 0.029551515 0.33777994 -0.060014103
0001f0 58 63 cd bd 69 65 89 3d ad a4 3b 3e 05 36 88 3c
       -0.10028714 0.067087956 0.18324538 0.016627321

bias_hh_l0 f4 [128]
000000 bc e6 4a 3e 3c 3e 45 3e f3 d2 21 3d 37 ad 63 bd
       0.1981458 0.19262022 0.039507817 -0.055585112
000010 af 6b ac 3d 77 df 6b 3e 6e 45 e4 bd f4 67 01 bd
       0.084189765 0.23034464 -0.11146055 -0.031593278
000020 ef b0 f6 3d e3 1d 55 3e 10 2a 18 3e db 14 be 3d
       0.12045466 0.20812182 0.14859796 0.092813216
000030 f6 3a 2e 3d 85 55 22 3e 3c 1c 20 3d bd fe 95 3d
       0.0425367 0.15852936 0.039089426 0.07323978
000040 3b bb 06 bd 9d 78 67 3d 7f 11 41 3e dd 87 6f bd
       -0.0328934 0.05651151 0.1885433 -0.05847918
000050 85 4e 58 3e 5e 4f 94 3d 4d f1 57 3e ac 2f 32 be
       0.21123703 0.072417006 0.21088143 -0.17400998
000060 01 03 e5 bd 5d 2a 11 be 5e 12 73 3d c3 8b c2 bd
       -0.111822136 -0.14176317 0.05934369 -0.09499314
000070 53 cd 1f 3e 46 f1 cc 3d e8 d4 d7 3d e1 f2 e5 3d
       0.15605669 0.10006957 0.105386555 0.11227966
000080 6a 42 13 3d de 92 b3 3d b4 42 83 3c b8 24 8c 3b
       0.03595201 0.08768247 0.016023017 0.004276838
000090 35 16 95 3c 0c b9 82 bd 8b 02 0e bd aa c5 8f bd
       0.018199066 -0.06382951 -0.034670394 -0.07020123
0000a0 cf db 7d bd f0 0c 30 3e fa 77 91 bb 23 f5 f8 3d
       -0.061977204 0.17192435 -0.004439351 0.12156131
0000b0 94 60 41 3d cd 2b 23 3e 6c 7d 3e be 30 81 27 be
       0.047211245 0.15934677 -0.18602532 -0.16357875
0000c0 fa a1 ff 3c ae 69 9b b9 51 51 2b 3e 7c 1a 0c bd
       0.031205166 -0.0002964264 0.16730238 -0.034204945
0000d0 8d cf 22 3e ce 3d a5 3d 1f 05 3f 3c ea d9 d0 bd
       0.15899487 0.08068429 0.011658936 -0.10197814
0000e0 1c a8 3e 3b 59 73 09 3e ac d5 82 3d 16 6d b2 bc
       0.00290919 0.13422908 0.06388411 -0.021780532
0000f0 35 f6 c6 3c e9 89 b8 bd e2 cd ce bd 43 05 31 3e
       0.024287323 -0.09010679 -0.10097863 0.17287163
000100 39 b0 fa bb e1 c1 87 3e 6b ac 0e 3c 1f 34 e6 bd
       -0.007650402 0.26515105 0.0087081 -0.1124041
000110 f4 c1 87 3e f0 09 f5 bd b7 3d 10 3e 66 d1 1c 3e
       0.26515162 -0.11964786 0.14086042 0.15314254
000120 7c 5f 21 be 0a 9b 0b 3e 46 c3 f9 3e 12 ab 2f 3e
       -0.1575908 0.13633361 0.48781794 0.17155102
000130 88 53 bb 3d 19 0c e4 3e 40 33 c9 3d cd 67 a4 be
       0.09146792 0.4454048 0.09824228 -0.32110444
000140 a8 8b cb be f8 66 b6 bd f0 89 52 bc 3a ad b0 bc
       -0.39754987 -0.089063585 -0.01285027 -0.021566976
000150 87 6c 3e 3e ed f6 a2 be 20 99 68 3e 29 f6 0c 3e
       0.18596087 -0.31829014 0.22714663 0.13765778
000160 c1 dd 71 be 76 c5 92 3e bb c5 29 bd 03 46 03 3e
       -0.23619749 0.28666276 -0.041448336 0.12819676
000170 8e a2 2a bf 3d 0a 51 3d cc 9d 98 3d 7d 6d 62 bf
       -0.6665429 0.051035155 0.07451972 -0.88448316
000180 25 a3 82 3e 0c 46 17 3e cb 93 0f 3e e1 e2 c8 bd
       0.25515094 0.14772815 0.14021222 -0.09808899
000190 d3 45 0c bc 2d a7 89 3e 9e c1 53 3e 77 2f 42 3e
       -0.008561569 0.26885357 0.20679328 0.18963419
0001a0 19 06 f2 3d 85 fc b8 3e 16 5f 61 3d af f1 8c bd
       0.11817569 0.36130157 0.05502232 -0.06882035
0001b0 e6 5e 01 bd fb 8a b5 3d 1a 9a e3 3d b8 66 4f 3e
       -0.031584643 0.08864399 0.11113377 0.20254028
0001c0 9c 1b 8e 3e da d9 08 bb b7 3e 43 3d 11 94 2a 3e
       0.2775544 -0.0020881803 0.04766723 0.16658045
0001d0 e8 3c 6b bc 5c 94 5b bc dc be 2f 3e 52 d8 5b 3e
       -0.014357783 -0.013402071 0.17162651 0.21469238
0001e0 0f f3 ed 3d 3a 1d 1f 3e 34 24 01 3e 14 65 00 3e
       0.116186254 0.15538493 0.12611467 0.12538558
0001f0 3c 6f 33 3e ba 80 09 3e 27 52 dd 3d 3f 94 a6 3d
       0.17522901 0.13428012 0.10806685 0.081337444

weight_ih_l0_reverse f4 [128, 2]
000000 5d 23 99 3e 7b f0 39 3e 81 a2 0e 3d d5 2a 7e 3c
       0.29909793 0.18158142 0.034822945 0.015513142
000010 0d 68 f0 bd 30 9f 26 be 1b 2b c8 3e 7c d1 aa 3e
       -0.11738596 -0.16271663 0.39095387 0.3336295
000020 3c ed 56 be 95 49 d3 3c 8a ae 22 3c d7 c0 4b be
       -0.20988935 0.025791923 0.009929309 -0.19897781
000030 e9 98 cc be bc de ee be cc 9e b6 3e 20 a7 cb be
       -0.3996041 -0.46654308 0.35668027 -0.39775944
000040 7e 0a 57 3e 43 8e 3b bf 5c c5 e4 be 8b 4b d2 3e
       0.21000096 -0.7326395 -0.44681823 0.4107326
000050 18 b1 ec be 2f 0b b0 3e 6f a7 c7 3e c3 59 86 bc
       -0.46228862 0.34383532 0.3899493 -0.016400224
000060 18 4d cc be f4 e1 ba bd 02 97 d2 be 9d cf 76 bd
       -0.39902568 -0.091251284 -0.41130835 -0.06025659
000070 a4 9a 43 3f a0 2c 0c bf f4 48 ba 3e 28 ce ed 3d
       0.7640784 -0.5475559 0.36383784 0.11611587
000080 9f 6d f0 bd fc 62 12 be 10 35 3d 3e df 93 df 3e
       -0.117396586 -0.14295572 0.18477273 0.43667504
000090 03 3b 2d 3c a1 35 4a be 9b 02 d8 3c 8c 9e 2b 3e
       0.0105731515 -0.1974702 0.02636843 0.167597
0000a0 cf 12 1b 3c d6 1b 4c 3e 63 8a f9 3e 67 73 9a 3e
       0.009464934 0.19932494 0.48738393 0.3016617
0000b0 e1 d5 c3 bd 23 80 17 3e 8b 17 e3 bd 58 68 d0 bd
       -0.095622785 0.14794974 -0.11088475 -0.10176152
0000c0 01 f8 7f bf d4 86 b1 bd b4 3a 3b bf c4 a5 ab be
       -0.999878 -0.086682945 -0.7313645 -0.33524907
0000d0 62 1d 25 bf 86 1c 59 be f3 b2 92 bd a7 2e 26 3e
       -0.6449796 -0.21202287 -0.07163038 0.16228734
0000e0 9f 3f d8 3e d2 6a 9e be f9 7a 04 be 59 0b 28 3e
       0.4223604 -0.30940872 -0.12937535 0.16410579
0000f0 57 bf 8d be fe e5 14 3e 02 57 0c bf 54 83 dd be
       -0.27685043 0.1454086 -0.54820263 -0.43264258
000100 eb c0 8d 3e 1c 25 ed 3e 17 9d 8c 3d 95 21 26 ba
       0.27686247 0.46317375 0.068659 -0.00063374016
000110 17 72 33 be 0d 4b a9 be 1e 3b 9e 3e 3b 47 cb 3e
       -0.1752399 -0.33065072 0.30904478 0.39702782
000120 6f 7f 78 be 4f a8 69 3d 2b 67 c8 3e c8 7e 18 be
       -0.24267362 0.057045277 0.3914121 -0.14892113
000130 fa b3 f5 be 79 d9 e3 be 68 36 cd 3e 3f cb 54 be
       -0.47988874 -0.44501856 0.4008057 -0.20780657
000140 54 ac 9e 3e cb 02 61 be 6f 33 8b be 83 85 43 3e
       0.3099085 -0.21973722 -0.27187678 0.190939
000150 18 1b cd bc 2a a5 a5 3d 62 59 84 3e 97 a5 2f bd
       -0.025037333 0.08088143 0.25849444 -0.04288253
000160 3c 0c 1e be 36 d1 85 bd a4 dd 78 be 37 59 c9 bc
       -0.15434355 -0.065340444 -0.24303299 -0.024578674
000170 c5 38 0b 3f ab 3a fb be 42 98 e0 3e fc a6 28 3e
       0.543835 -0.49068198 0.43866163 0.1646995
000180 3d 98 24 be b9 3a 81 bd d7 8a e9 bd e5 53 c4 3e
       -0.160737 -0.063100286 -0.11403435 0.38345256
000190 6b d4 10 be 87 11 da bd 31 b5 7d be 29 7d 02 3e
       -0.14143531 -0.10647874 -0.2477615 0.12743057
0001a0 16 3a 26 3c f8 97 39 3e c7 48 90 3e 19 59 cf 3d
       0.010145685 0.18124378 0.28180525 0.10124416
0001b0 6b 4f be bd 22 92 f2 bb 0b 3b 08 bf ac 0b 65 be
       -0.092924915 -0.0074026743 -0.5321509 -0.22367734
0001c0 b8 29 02 bf f5 b7 ad bd 18 0a 48 be 6e 5e a1 be
       -0.5084491 -0.08482353 -0.195351 -0.31517357
0001d0 83 85 84 be a4 29 37 be 04 71 9f 3d 94 00 91 bd
       -0.2588311 -0.17886978 0.07785228 -0.070801884
0001e0 cc b9 01 3e f7 3c 87 bd f4 2f ce bd d5 83 57 3e
       0.12668532 -0.06603425 -0.1006774 0.21046384
0001f0 e4 05 9a be 97 6c 47 3e 5a 01 15 3e 10 e9 f1 be
       -0.3008262 0.19475017 0.14551297 -0.47248125
000200 e0 94 ac be 69 a8 88 be 41 b5 37 3e be d9 cc 3e
       -0.33707333 -0.26690987 0.17940237 0.40009874
000210 49 5c 83 3e c5 58 fd 3d e0 77 ae be 7e 82 95 be
       0.25656345 0.12370447 -0.34075832 -0.2920112
000220 d2 0b 8d 3e 02 ee de 3e 44 92 83 3e d8 a7 a9 bd
       0.2754808 0.4354096 0.2569753 -0.08283967
000230 77 73 95 be c5 1b c9 be 8b 29 d4 be e7 48 52 3e
       -0.29189655 -0.39279 -0.41437945 0.20535623
000240 29 ff 06 bd f5 ca 42 bf 00 67 29 be f8 9a fc 3e
       -0.032958183 -0.7609094 -0.16543198 0.49336982
000250 3c a2 ec 3e ae cc 77 be 1b f0 fa 3e c4 96 b6 bd
       0.46217525 -0.24199173 0.4901131 -0.08915475
000260 7b ec b1 3e e8 a1 8f 3d fe 63 e1 3e fc 15 fa bd
       0.34750733 0.07013303 0.440216 -0.122112244
000270 78 53 df 3d 08 f9 be be 89 7d 7a 3e af dc 8d 3d
       0.10904592 -0.3729937 0.2446195 0.06926858
000280 d7 3a 94 bd 8f 3a 14 3f 1b 67 9d 3e 8c 8a 49 3f
       -0.07237785 0.57901853 0.30742726 0.7872703
000290 51 34 05 3e 2d 68 d8 be ce 84 1e bf 01 c7 88 3e
       0.13008238 -0.4226698 -0.61921394 0.26714328
0002a0 77 09 a4 be 53 31 36 bd b4 51 d2 be 53 4a dd bd
       -0.3203847 -0.044480633 -0.4107796 -0.10805192
0002b0 b1 5c 93 be cd 1a 34 3e f8 84 33 3e 39 f3 8e 3e
       -0.28781655 0.17588349 0.17531192 0.2791994
0002c0 b0 6e ee be 12 62 87 3e 08 20 06 3f 06 05 d8 3e
       -0.46568823 0.2644201 0.52392626 0.42191333
0002d0 44 bd c6 be ea bd f3 bd 40 b9 14 be a4 cb 9e be
       -0.38816273 -0.119014576 -0.14523792 -0.3101474
0002e0 a3 09 d9 be c1 a8 7d 3e 23 f0 ad 3e 74 5c 58 3d
       -0.42390165 0.24771406 0.33972272 0.052822545
0002f0 91 ec 52 3e ef 91 9c be 9b c3 2d 3e be 8a 91 be
       0.20598055 -0.30580088 0.16969149 -0.28426164
000300 f9 aa af 3e 55 b0 88 3e 25 2c 1f 3d c5 a2 23 bd
       0.3431013 0.2669703 0.03886046 -0.03995015
000310 c3 92 a4 bc bf 7a 66 be 03 e0 73 be ef 0c d4 3b
       -0.020089513 -0.22507761 -0.23815922 0.0064712684
000320 df 9d a8 be 38 2a 1c 3e d1 65 82 3c d7 a8 84 bc
       -0.32932946 0.1525048 0.01591769 -0.01619379
000330 29 72 03 bf 02 c9 b0 be db 54 04 3f a6 36 fd be
       -0.5134607 -0.34528357 0.5169198 -0.49455756
000340 c3 b5 3c be 1b ab 1e bf 89 44 99 be 3d 6b 6d 3d
       -0.18428712 -0.61979836 -0.299351 0.0579636
000350 cd 22 86 be 3e 86 12 3e 5c e2 03 3f 4f 25 14 be
       -0.26198426 0.14309022 0.5151727 -0.14467357
000360 06 7b 80 be 8d 4e 64 be 57 d3 76 be c0 d7 1c 3e
       -0.2509386 -0.2229559 -0.24104057 0.15316677
000370 39 31 8e 3f 6c 33 25 bf 8e dd c7 3e b6 8f ae 3d
       1.1108772 -0.6453159 0.3903622 0.085235044
000380 1b 8b 87 3d dc 4b cf 3b 53 98 e3 3b cc 58 fb 3d
       0.06618329 0.006326182 0.0069456487 0.12272796
000390 c8 34 db bd 06 d2 16 3c 6c 27 08 be 50 da a1 3e
       -0.107034266 0.009205347 -0.13296288 0.31611872
0003a0 0d 95 8d 3e 12 5b 44 bd 7f c9 84 3e ae 24 ce 3e
       0.2765278 -0.047938414 0.2593498 0.4026236
0003b0 67 e0 aa 3d 05 68 d1 bc 2e 79 c7 be 65 c6 c0 bd
       0.083435826 -0.025562296 -0.3895964 -0.09412841
0003c0 86 58 f5 be 3a f1 2a 3d e3 43 2f be 2f 8c b2 be
       -0.479191 0.041733958 -0.1711574 -0.34872577
0003d0 a0 af 64 bf 41 25 51 be cc 29 ed 3d 5a 97 23 3e
       -0.8933048 -0.20424367 0.11580238 0.15975705
0003e0 3e e3 5a 3f 3c 70 de be f3 e8 6d be d3 d1 a2 bd
       0.85502994 -0.43445003 -0.23233394 -0.07950177
0003f0 89 34 6a be e9 6d 60 3e ce dc 69 be 3b 9c 1c be
       -0.22871603 0.21916927 -0.22838137 -0.15293972
