experiments/pedestrians/models/models_14_Feb_2024_17_26_50_eth_vel_ar3/model_registrar-53.pt (torch, 527902 bytes, 43 tensors)

weight_ih_l0 f4 [128, 6]
000000 6a 66 a7 3d 49 08 c7 3d b1 68 74 be be ad a3 bd
       0.08173831 0.09718377 -0.23868062 -0.07992123
000010 9b 8a 84 bd 46 32 5f bc 26 80 5b be 0c 02 ca be
       -0.064717494 -0.013622826 -0.21435603 -0.39454687
000020 5e 93 79 bd 6e 1a 4d 3e d9 ed 64 3d 68 14 04 be
       -0.060931556 0.20029613 0.05589089 -0.1289841
000030 42 dd 20 3d 9c e5 a8 3c a3 7e 9f be 8c 2e 65 be
       0.039273508 0.020617299 -0.31151304 -0.22381037
000040 10 c5 93 be b5 e3 a7 bb 79 82 1d 3e 4c 57 48 3e
       -0.28861284 -0.0051235803 0.15381803 0.19564551
000050 cc 5e dd 3d ba d7 2b 3d 51 46 c7 3d 1b 6a 4c bc
       0.10809097 0.04195378 0.09730209 -0.012476469
000060 57 72 ee bd bc fb 3b 3d 08 fe 27 be a3 62 d1 be
       -0.11642902 0.04589437 -0.16405499 -0.40895566
000070 f9 e7 60 3f 4c 32 c0 bf 7a 51 53 3e 00 d6 04 3e
       0.8785396 -1.5015349 0.2063655 0.1297226
000080 f3 fa 60 3e c2 d5 8c bc dd 54 be 3e 57 db a0 be
       0.2197073 -0.017191771 0.3717412 -0.31417343
000090 6a 7e c6 be d9 aa e1 3d 61 27 4e 3e 1d 8f 54 be
       -0.3876832 0.11018915 0.2013221 -0.20757718
0000a0 c3 61 98 3d 60 ad 85 be 4f 9d c0 be 72 49 11 bd
       0.074405216 -0.26108837 -0.37620017 -0.035470434
0000b0 8c 4d f0 3e 72 a4 92 bd 23 ad fc 3d c5 bd 56 bd
       0.46934164 -0.07160272 0.12337711 -0.052427072
0000c0 68 b3 83 3e 86 f4 65 3e 41 ed 06 3f c4 f0 b9 be
       0.25722814 0.2245656 0.5270577 -0.36316502
0000d0 84 f2 cc 3e 55 1b 5d be ab e0 93 bd 8c 5e 81 be
       0.40028775 -0.21592458 -0.072205864 -0.25267446
0000e0 d2 5d ec 3c 1c 4e ad 3e 94 0d f0 3d e7 63 d7 bd
       0.02885333 0.33848655 0.1172134 -0.10517102
0000f0 b6 85 02 3e 31 e7 8a be 41 94 d4 be a8 cf be 3e
       0.12746319 -0.2712951 -0.4151936 0.37267804
000100 92 91 8c bd f0 8c 70 3d 48 9a de 3c 98 4e 4c 3e
       -0.06863703 0.05872816 0.027173176 0.19951856
000110 61 12 0e bf 4a 47 4d be a9 70 87 bf b9 ee f5 be
       -0.55496794 -0.20046726 -1.0581256 -0.48033693
000120 33 38 03 3c c0 db 3d bd 42 cf 75 be 38 dc 42 3e
       0.008009004 -0.046352148 -0.24004844 0.1902932
000130 01 32 09 3e 7a 15 a0 bc cb b6 0b be be b8 22 3d
       0.13397981 -0.01954149 -0.13643949 0.039726965
000140 e6 e4 d9 3e b7 ed 99 3e 57 f0 00 3f a3 61 b7 3e
       0.42557448 0.30064175 0.5036673 0.35816678
000150 5d 8b 52 3d 15 7c 7f bd 53 56 40 bf 01 79 87 3d
       0.05140244 -0.062374193 -0.7513172 0.066148765
000160 c2 4f 17 bf 70 25 5f bd 07 e1 a0 be 3f 00 1e 3e
       -0.59106076 -0.054479063 -0.31421682 0.15429781
000170 7e f0 03 3f 96 51 99 3d 87 a5 c5 bd 3a 80 c7 3e
       0.51538837 0.074862644 -0.096507125 0.38965017
000180 ad 1d 86 3e ab 2a 94 bd 8f 12 07 bf c7 94 c2 3e
       0.26194516 -0.07234701 -0.52762693 0.38004133
000190 45 7c 10 bf 55 ef b1 3d 8b 97 fa 3d 1e af 4d be
       -0.5643962 0.08688227 0.12235936 -0.20086333
0001a0 af 1b 40 be dc 71 47 3e bb bf 46 3c cb 5f 97 3d
       -0.1876056 0.19477028 0.012130673 0.07391318
0001b0 88 95 41 3e e3 8e 8c be 93 17 85 be c2 a5 14 3f
       0.18904698 -0.27452764 -0.25994548 0.58065426
0001c0 79 82 4c bd e4 af 4a 3f e1 43 6c 3d 9e 7d 7a 3c
       -0.049929116 0.7917464 0.057681922 0.0152887385
0001d0 19 95 ce be c8 be cc 3d 46 7b 04 be a3 53 cd 3e
       -0.40348127 0.09997326 -0.1293765 0.40102872
0001e0 da 3f c9 be b6 2f b8 3e df 7f fb 3e 3e 81 c2 be
       -0.39306527 0.359739 0.49120995 -0.3798923
0001f0 d3 07 9a 3e 1d 3d 3f 3c 27 06 56 3d fc f8 7c 3e
       0.30084094 0.011672285 0.05225196 0.24704355
000200 41 87 3d 3d e0 18 7f be 3f 52 50 3d 21 84 80 3d
       0.046271566 -0.24911833 0.050859686 0.062752016
000210 b4 57 2f be 64 d0 d6 be 30 79 e0 3d 10 da 05 3e
       -0.171233 -0.41955864 0.10960615 0.13071465
000220 40 2e a8 3e 98 7d f6 3c bb cd 8a bd 92 04 b4 3d
       0.32847786 0.030089185 -0.06777521 0.08789934
000230 dd 26 0b 3e 61 65 1a be dd ae ed 3c ae 47 ee bc
       0.13589044 -0.15077735 0.029014045 -0.029086914
000240 e7 9f 12 3e fe 61 20 bd 8d b1 91 be ad 09 1f be
       0.1431881 -0.039155953 -0.28455773 -0.15531035
000250 7c f9 68 be 06 9e 81 be c1 c5 bb be 7b f5 09 be
       -0.2275142 -0.25315875 -0.36674312 -0.1347255
000260 21 37 5b 3d 63 87 37 3e d3 3b 36 3e 6d 3c 95 3d
       0.053519372 0.1792274 0.17796259 0.07286916
000270 73 aa b2 bc 61 0b 83 3e f7 3e 1e bf 3d e8 14 bf
       -0.021809792 0.2559462 -0.61814827 -0.5816687
000280 a0 0b c1 be eb c0 f5 bd 24 ca 66 be 63 50 11 3d
       -0.37704182 -0.11999687 -0.22538048 0.035477053
000290 7c 98 36 3f 5e d9 15 3f e1 0d 44 3f 5a 36 5e 3f
       0.7132642 0.585348 0.7658368 0.86801684
0002a0 f5 bf 49 3e f6 ca 5d bd 54 5c a7 be df b4 6b 3e
       0.19702132 -0.054148637 -0.32687628 0.23018216
0002b0 4e 82 aa 3d 06 90 80 3e 10 f0 b2 be 6a a8 66 3d
       0.08325635 0.2510988 -0.34948778 0.056312956
0002c0 4e 83 c0 3d 19 68 b0 be 6a 45 60 3e b0 60 a0 bd
       0.094000444 -0.3445442 0.2190148 -0.07830942
0002d0 75 03 23 be c1 bc be bd c9 a5 98 3e c8 e8 61 3d
       -0.15919288 -0.09313346 0.29813984 0.055153638
0002e0 6a 88 d7 bd 3a 64 98 be 72 17 c0 bd 6d cd b8 3d
       -0.10524066 -0.29763967 -0.09379472 0.09023557
0002f0 f8 3a f0 3c bd 44 aa 3d 2b c0 65 be 54 fa 68 bd
       0.029324993 0.08313892 -0.22436588 -0.056879357
000300 0b f0 e9 3d bd 4b f1 3d f1 34 2f be cf 2e f8 bd
       0.11422738 0.11782024 -0.1711004 -0.12118303
000310 57 29 31 be 15 e7 42 be 1a 07 9f bc c8 5e 25 be
       -0.17300926 -0.19033463 -0.019412566 -0.16149437
000320 51 93 93 3d c3 de cd 3d c3 cc 84 3d 83 ee e4 bd
       0.07205833 0.10052254 0.06484368 -0.11178305
000330 ff 45 f0 bd 75 8f 1d bd ab 02 31 bd e4 46 17 bd
       -0.11732101 -0.03846689 -0.043215435 -0.03693284
000340 3a af 7f be 74 89 6b 3d b0 54 d9 3d 61 24 a3 3d
       -0.24969187 0.057504132 0.10611856 0.07965923
000350 89 ce dc 3d 33 c6 1a be 47 80 ac bc 3d 5f ad 3c
       0.10781581 -0.1511467 -0.021057261 0.021163577
000360 06 94 09 3c 1f 69 18 be 1e cf 6e 3e c0 95 20 be
       0.008397108 -0.1488385 0.23321196 -0.15682125
000370 f9 2b 62 3e a7 49 8b 3c 2e 1c 47 3e d0 15 24 bd
       0.22087087 0.017002894 0.19444343 -0.040059865
000380 2e 8c f7 3d 61 dd 4e be 3c 99 96 be ed 07 d3 3c
       0.12087284 -0.20201637 -0.29413784 0.025760615
000390 69 d5 56 bd a9 39 81 bc 14 71 30 3e df 71 ce bd
       -0.052449618 -0.015774565 0.17230636 -0.10080313
0003a0 22 80 1a be ba 11 cd 3c 44 6c 14 be 52 9c 66 be
       -0.15087941 0.025032867 -0.14494425 -0.22520569
0003b0 48 c8 83 3e ef 60 00 bd e5 11 4d bc 21 77 d5 bd
       0.2573874 -0.031342443 -0.012516473 -0.10423113
0003c0 1e 7b a4 3e 44 c8 34 3c 26 6b 4a 3b 2c 3f 2a be
       0.3212518 0.011034075 0.003088662 -0.1662566
0003d0 6a c9 c0 bd 07 8a 64 bd 4c bb 35 be e9 09 12 bd
       -0.09413417 -0.055795696 -0.1774723 -0.035653982
0003e0 6d 77 96 3e d5 30 e7 3d 80 6a 4b 3e 2f 2f 93 3d
       0.2938799 0.11288611 0.19864845 0.07186734
0003f0 45 01 07 3e 3c 93 9b be 82 86 1e be b1 83 8a 3e
       0.13184078 -0.30385768 -0.15480998 0.27053598

weight_hh_l0 f4 [128, 32]
000000 b8 75 91 3c ec 22 54 be 31 5b a6 3c 95 4e e9 3d
       0.017756328 -0.20716447 0.020307155 0.113919415
000010 cf 6a 17 be 88 41 68 bc a6 a6 82 bd 67 07 19 be
       -0.14786838 -0.01417578 -0.06379442 -0.1494423
000020 e4 fc 29 3d 04 a6 70 3e 35 11 05 be 9c 81 ab 3d
       0.04150094 0.2350083 -0.12994845 0.083743304
000030 41 0f 0c be e5 e6 47 3e 17 8f 39 3e eb bf e8 3d
       -0.13677694 0.19521673 0.1812099 0.113647304
000040 18 9d 60 3e 16 2c 0d be 8d b9 d7 bd d0 cc a1 3c
       0.21934927 -0.13786349 -0.10533438 0.019750983
000050 48 d1 4b be d1 6b 08 be e3 c6 92 bd 2f d9 8d be
       -0.19904053 -0.13322379 -0.07166841 -0.2770476
000060 8a 34 8e 3e 90 59 bd 3d d8 94 47 bd 7a 0b c9 3e
       0.2777446 0.09245598 -0.048725933 0.39266568
000070 3d 38 5f 3e d9 bc 92 3c 57 c9 22 3e 73 e8 ca bd
       0.21798797 0.017912315 0.15897118 -0.099076174
000080 28 55 c5 3d 43 a1 8b be 73 38 b3 3d f9 34 c2 bd
       0.09635383 -0.2727147 0.08751001 -0.0948276
000090 4b 6a 39 bb fc 01 44 3e c9 2c 0d bb ac 27 69 be
       -0.0028292115 0.19141382 -0.0021541587 -0.2276904
0000a0 b9 6e a1 3d d2 28 e4 3d 25 46 a8 be 3f 02 da bd
       0.07882447 0.11140598 -0.32866016 -0.1064496
0000b0 d5 ab 96 be 86 9b 4c 3e cb 13 e6 3d 57 4e ed bd
       -0.29427972 0.19981202 0.11234244 -0.11587208
0000c0 77 20 68 3e 44 f9 0e 3e 51 72 6c be 0b 9f 64 3d
       0.22668634 0.13962275 -0.23090483 0.055815738
0000d0 6d fa 9c bd 31 7c 0c be 12 d5 3d be 2e e1 27 be
       -0.076649524 -0.1371925 -0.18538311 -0.16394493
0000e0 62 4c 10 3e ca e2 18 3e f9 51 1b be 62 70 44 3d
       0.14091638 0.14930263 -0.15167989 0.04795874
0000f0 53 8e ce 3c 85 f4 12 3d a5 1d 74 3e 07 61 77 bd
       0.02521435 0.035877723 0.23839433 -0.060395267
000100 d1 fd 04 3e da 5f 13 be 2b 68 dd bd 76 f5 03 3e
       0.12987448 -0.14392033 -0.10810884 0.12886605
000110 a0 55 a6 3d 83 8b 12 3e b7 5c 0c be f3 b4 41 be
       0.081218004 0.14311032 -0.13707243 -0.18916683
000120 53 e0 36 bd 6f f8 61 3e 89 89 8f be 8e 2d 6b 3d
       -0.044647526 0.22067426 -0.28034618 0.05741649
000130 99 d6 92 bd 43 f7 0a be 4a 7b 02 3e b1 3a a3 bd
       -0.071698375 -0.13570885 0.12742344 -0.07970179
000140 da c6 de 3d fb 8d fc bd 22 c9 f4 3d 68 99 01 be
       0.10877772 -0.12331768 0.119524255 -0.12656176
000150 41 d6 8a 3d 53 19 8b 3d 7a e7 c2 3d 25 d0 15 3e
       0.06779147 0.067919396 0.09516807 0.14630182
000160 ef b1 8c 3e ef 80 15 3e d4 00 2b 3e 2a 2c 18 3e
       0.27479503 0.14599966 0.16699535 0.14860597
000170 8f 5f 10 3e aa 26 ae 3d 6b 3a 81 bd d7 c7 66 3d
       0.14098953 0.08503468 -0.063099705 0.056342926
000180 04 af 9c bd 21 8f 56 bd 2b 05 0f bd 65 36 9b 3d
       -0.07650569 -0.052382592 -0.034917038 0.07578734
000190 4d 54 b0 bd 99 bd 0c 3d 0d e9 b7 bd cb 6b 0b 3d
       -0.08609829 0.034360502 -0.08979998 0.034038346
0001a0 0d 54 1e bd 18 6f 38 3e 7a 16 a0 be 1e 01 01 be
       -0.038654376 0.18011129 -0.31267148 -0.12598082
0001b0 25 2d b4 bd f2 a3 ab bd d1 3a f2 bd a8 84 16 be
       -0.08797673 -0.083808795 -0.118276246 -0.14699042
0001c0 ce ab 5e 3d d0 a3 22 3d 89 a4 6b be 09 14 38 bd
       0.054363064 0.039707005 -0.23011984 -0.044940982
0001d0 87 88 79 bd 73 78 59 bc 64 7d c4 3c 8f f5 cf bc
       -0.06092122 -0.013273346 0.023985572 -0.025385646
0001e0 ea 70 0d 3e 66 47 17 3e cc e9 9b bd 0e a7 52 3e
       0.13812605 0.1477333 -0.076129526 0.20571539
0001f0 5a 44 57 3d 6a 29 f0 3d d4 76 8d 3e 24 d9 80 bd
       0.05255542 0.11726649 0.2762972 -0.06291416
000200 48 9a d8 3c cc 53 bc bd dd c6 82 3e df 79 eb bc
       0.026440755 -0.091956705 0.25542346 -0.028744636
000210 65 bd c0 3d c7 63 6c 3c 2c f6 7c 3b 04 12 04 3e
       0.09411124 0.014428086 0.0038598878 0.12897497
000220 19 fe 25 3e 7e 09 0d be 89 ec da bd 9c e5 67 be
       0.16210212 -0.13773152 -0.10689647 -0.22646183
000230 fa 04 4f 3d d2 d0 b4 3d 9d ca 90 3d e1 6a f9 bd
       0.050541855 0.08828892 0.070698954 -0.12178589
000240 97 67 0e be ee b6 a0 be f7 18 40 3b d0 65 91 3d
       -0.13906704 -0.31389564 0.0029311755 0.07099497
000250 bd 30 51 3c 1b 00 b9 3e 62 54 17 3e 35 48 a1 bd
       0.012767968 0.36132893 0.14778283 -0.078751005
000260 eb 95 d2 3c 89 0c 5a be 89 79 89 bd c9 eb 8a be
       0.025706252 -0.21293844 -0.06712634 -0.27133015
000270 1c c5 2f 3d 6d 24 3f bd e0 3e 0a 3e 41 a9 f9 bd
       0.042912588 -0.046665598 0.13500547 -0.12190486
000280 ff da c9 3d a4 a4 4b be b6 8b c1 3d 6c 78 ff bd
       0.09856223 -0.19887024 0.09450476 -0.124741405
000290 8c e1 92 bd 9b e1 95 bd 79 ba 3c 3e 80 aa 72 be
       -0.07171926 -0.073184215 0.18430509 -0.23697853
0002a0 90 60 68 bd ce d6 01 3d 4d aa 34 3e f0 96 e6 bd
       -0.056732714 0.031698994 0.1764309 -0.11259258
0002b0 87 9b 58 be 2f 9c 90 3d 71 63 db bb 90 e8 77 bb
       -0.21153079 0.0706104 -0.006695204 -0.0037827827
0002c0 00 f0 ff bb 36 67 62 3e 1a bf 53 be 92 ed 4e 3e
       -0.0078105927 0.22109684 -0.20678368 0.20207813
0002d0 6f f6 7e bd bb d6 31 bd e3 d8 1e 3d 3a 78 41 be
       -0.062246736 -0.043417674 0.038781058 -0.18893519
0002e0 8b 77 cf 3d b6 c7 54 3d d2 0e 26 3e 30 3b 58 3e
       0.10130223 0.05194827 0.16216591 0.21116328
0002f0 70 bb 89 3d fe e0 c5 bc 3c ad 5c 3e 2f 50 3f 3e
       0.06725204 -0.024155136 0.21550459 0.18682931
000300 a4 5c 0d 3e cb cf 87 bd 51 d4 51 be cd 2c 07 3e
       0.13804871 -0.0663143 -0.20491149 0.13200684
000310 58 2c 93 bd 28 dc 78 bd 74 8d 76 3e dd 0b a6 be
       -0.07186192 -0.060756832 0.24077398 -0.32430926
000320 ad 78 04 be 20 2d 2f 3e 5e 34 b3 bd e7 d5 07 be
       -0.12936659 0.17107058 -0.087502226 -0.13265191
000330 b6 39 e0 3a 7a b7 a5 3e d3 dc 94 3d 6e d1 9a 3c
       0.0017107043 0.32366544 0.072686814 0.018898692
000340 e9 d0 b1 3d 73 b5 71 bd 38 8f 98 bd 2d be 74 bd
       0.086824246 -0.059010934 -0.07449192 -0.05975168
000350 53 81 9f bd 4e ff 6a 3e 8f 91 10 3e 11 61 e6 bd
       -0.077883385 0.22948954 0.14118026 -0.11248983
000360 93 35 00 bc dc a7 78 3e 0f ef 00 3e 87 5a 47 3e
       -0.007825273 0.24282783 0.12591194 0.19468127
000370 5d 7e ed bd da 84 2c 3c 94 26 35 3b fd 18 0a 3e
       -0.115963675 0.010529721 0.0027641403 0.13486095
000380 0f d0 0c 3e dc 37 8d be c0 e5 f9 3c 58 29 fb 3d
       0.13751243 -0.2758168 0.030505061 0.12263745
000390 c8 3a 77 be 8e 39 4b 3b 72 b6 89 3e d8 5b 2c be
       -0.24143517 0.0031009647 0.26897007 -0.1683191
0003a0 8e 73 09 bd e0 b2 c0 bb 3f 6a cd 3d fa c1 68 bd
       -0.033557467 -0.0058806986 0.100300305 -0.056825615
0003b0 d9 39 3c bd a5 22 e7 3a 73 bc 9b 3c 67 ea 9a 3d
       -0.045953605 0.0017634226 0.019010758 0.0756424
0003c0 90 84 f1 3d e8 ed 09 3e e5 99 2f be 6c 54 70 3c
       0.117928624 0.1346966 -0.1714855 0.014668565
0003d0 3d 44 d1 be cf 5e b3 3d ab 2f b4 bd ea 39 a9 be
       -0.40872374 0.08758318 -0.087981544 -0.33051997
0003e0 a6 19 49 3e 43 90 d6 3e 75 d7 1f be 47 56 94 3e
       0.1963869 0.41906938 -0.15609534 0.28972074
0003f0 3d 22 ee 3d fc df 7c bc 4d 81 f7 3d c2 13 a3 3e
       0.11627624 -0.015434261 0.12085209 0.31851012

bias_ih_l0 f4 [128]
000000 ff b4 85 bc ae ad 41 3d ba c3 88 3c 55 8d a4 bd
       -0.016321657 0.047284774 0.016694892 -0.080347694
000010 c9 ff 09 be 1d e8 2a 3e dd 7e 56 3d af 81 20 be
       -0.1347648 0.16690107 0.05236708 -0.1567447
000020 d6 26 9a bc f4 86 20 3d 93 3c 82 3e 78 c2 ff 3d
       -0.018817347 0.0391912 0.2543684 0.12488264
000030 5e 3f 39 3e 42 2e af bd 45 e4 b1 3d 8f dd af bd
       0.18090579 -0.08553745 0.08686117 -0.08587181
000040 7a 70 c6 bc 8f 76 10 3e 39 f3 4a bd 5c 23 0d 3e
       -0.024223555 0.14107727 -0.04954836 0.1378302
000050 56 7a d8 3d fd b2 09 bd bb d6 a0 3d b1 0c 85 bd
       0.10570209 -0.033617962 0.078534566 -0.06496561
000060 68 eb ec 3d 80 4b cc 3d 01 05 74 bd 99 66 32 3c
       0.11568338 0.09975338 -0.059575085 0.010888719
000070 00 30 a3 bc 07 3f 6b bc 0c 5c 94 bd e2 b8 9d 3d
       -0.01992035 -0.014358289 -0.07244119 0.07701279
000080 cd 13 f9 3c 89 72 86 be 34 c8 6f be 90 0f a6 3c
       0.03040495 -0.26259258 -0.23416215 0.020271093
000090 5d 38 33 bd f5 3e 1e be 2d 2e 7e be 92 dc fd bd
       -0.043754924 -0.15453704 -0.24822302 -0.12395586
0000a0 fe be 49 be 56 b0 6d bd eb 6d 5c be af b2 a8 3b
       -0.19701764 -0.058029495 -0.21526305 0.005148254
0000b0 7b 36 25 be 8d 1c 29 3e 38 36 25 bd db 0d da bd
       -0.16134064 0.16514798 -0.04033491 -0.10647174
0000c0 eb 8a 82 3d a1 73 47 bd 2b da 23 be da 53 b5 3d
       0.06374153 -0.048694257 -0.16001193 0.08853884
0000d0 8a 6a 9f be c8 69 8c bd 2e 14 39 b9 b0 d1 02 bd
       -0.3113597 -0.06856114 -0.00017650492 -0.031938255
0000e0 df bd a7 bd 57 af 13 3e 18 58 62 3d cf b0 a4 3d
       -0.08190512 0.14422356 0.055259794 0.08041536
0000f0 a8 4e ff bc 3f 38 88 be d9 e2 84 be 9a 0d 88 be
       -0.031165436 -0.26605412 -0.2595432 -0.26572877
000100 7b 41 0c 3e 11 21 06 3e f7 4a 89 bd 7b 11 0e 3d
       0.13696854 0.13098551 -0.067037515 0.03468464
000110 d5 7d d5 bd f0 f8 94 ba 55 af c5 3d a1 8b 16 bd
       -0.10424391 -0.0011365693 0.096525826 -0.036754254
000120 3e 91 60 bd 0f 6d 93 3d fb 0d 9e bd 4d 55 11 3d
       -0.054826014 0.07198536 -0.0771751 0.03548174
000130 eb b9 c4 bd 51 75 cf bc 32 12 14 bd 97 b3 c8 bd
       -0.096057735 -0.025324496 -0.036150165 -0.09799879
000140 2a 9b 8d bd 36 3d fc bd 55 56 dc 3d 2e d0 9a bc
       -0.06914361 -0.123163626 0.10758654 -0.018898096
000150 46 0f 8d 3d f8 26 69 3d 43 ad d4 3d 81 d1 fa bd
       0.06887679 0.05692193 0.103846096 -0.12246991
000160 44 34 f7 3d 79 02 c9 bd 55 7c 77 3d a1 d1 cc bd
       0.12070516 -0.09814925 0.060421307 -0.10000921
000170 58 36 a2 bd 26 25 09 3e 16 17 b5 3c 8a 9d 82 bd
       -0.079205215 0.13393077 0.022105735 -0.063777044
000180 e4 08 47 3e 84 5e fa 3c b9 16 79 3d 92 63 32 bc
       0.19436985 0.030562647 0.060812686 -0.010887997
000190 31 fc 0a 3e 81 4d 00 3e 65 b7 b1 3d 50 41 01 be
       0.13572766 0.12529565 0.08677558 -0.12622571
0001a0 b3 83 f3 bd e5 b9 dd 3d bb bf e3 3c eb 03 bb 3d
       -0.11890354 0.10826472 0.027801385 0.09131607
0001b0 6f e9 18 3e ab 11 97 bd 1e 59 04 3e 8c 71 c2 3d
       0.14932798 -0.07376417 0.1292462 0.094943136
0001c0 cd e7 d1 3d 73 a0 ae 3d 72 6d 34 3d 8a ad b5 3c
       0.102492906 0.08526697 0.044049688 0.022177476
0001d0 85 be 6d 3e 62 fa e1 bb 87 41 76 3d 39 ca e2 bb
       0.23217209 -0.006896303 0.060121085 -0.0069210795
0001e0 6d 7e 94 bd 7d be 0a 3e 25 cf bc 3d 72 8b 1a bd
       -0.07250676 0.13549228 0.09219197 -0.03773064
0001f0 3e 84 f5 3d 0c 40 51 3e 32 33 89 3b 81 15 68 3d
       0.11988114 0.20434588 0.004187011 0.056661133

bias_hh_l0 f4 [128]
000000 23 44 78 bd 21 5e 77 3d e9 cf ef bd 51 2a a6 3d
       -0.060611855 0.060392503 -0.117095776 0.0811354
000010 82 a1 13 3c b6 b1 9d bd da dc 49 bd 15 8e aa 3c
       0.009010674 -0.07699911 -0.049282886 0.020819703
000020 ff d2 87 3d 37 fc 50 3e a8 b3 08 bb 3e 38 68 38
       0.06632041 0.20408712 -0.0020859037 5.536549e-05
000030 3d 0f 6b bd a5 bd 55 3e 89 7b 02 3e 08 ad 98 3d
       -0.05738758 0.20873125 0.12742437 0.07454878
000040 e2 b7 e3 bd 3c d8 08 3e b5 b9 14 be 8d 98 bf 3d
       -0.11119057 0.13363737 -0.14523967 0.093552686
000050 f6 ba 81 3e 03 a1 16 3e 7b 42 db 3d 07 05 2f ba
       0.25337952 0.14709859 0.107060395 -0.00066764693
000060 c9 15 8e 3c b5 4f ad 3d 04 0b 65 3c 72 42 a5 bd
       0.017344372 0.084624685 0.013979677 -0.08069314
000070 8b f7 cf bd 39 29 c2 bc 23 80 3f bb b7 41 02 3e
       -0.10154637 -0.023701297 -0.0029220663 0.1272038
000080 b9 04 6f bd cd 2d 72 be 22 2a 67 3b 83 55 3e be
       -0.058354113 -0.23650284 0.0035272916 -0.18587308
000090 1a 7b 87 3e 4e 15 08 3c 14 b6 db bd b3 9d 89 be
       0.26461107 0.008305861 -0.10728088 -0.26878127
0000a0 c9 38 fe bd ac fc e9 bd 54 0a 49 be 12 8b 65 bd
       -0.12413175 -0.114251465 -0.19632846 -0.05604083
0000b0 d7 0f 28 be a0 17 6a bc ab 63 86 3d 42 d9 66 bd
       -0.16412292 -0.014287859 0.06561979 -0.056359537
0000c0 eb 54 89 bd 5a d5 ee bd ae d1 06 be 09 f2 bd bd
       -0.0670565 -0.11661787 -0.13165924 -0.0927468
0000d0 f2 78 2b be ce e8 6c be a4 99 64 be a6 74 75 bd
       -0.16745356 -0.23135683 -0.22324234 -0.059925698
0000e0 56 2b 92 be c9 59 28 be 16 09 4b be 2a 91 a1 3c
       -0.28548688 -0.164405 -0.19827685 0.01972254
0000f0 4a 3f 73 bd dc a3 03 bd b5 84 02 be 4a 12 12 3d
       -0.05938653 -0.03213869 -0.12745936 0.035661973
000100 29 cd 15 be 35 18 0d be 9d 07 d3 3d 89 97 ab bc
       -0.14629044 -0.13778765 0.103041865 -0.020946281
000110 21 13 1c 3e c8 76 ff 3c f5 88 b7 bd 62 13 26 3c
       0.15241672 0.031184569 -0.08961669 0.010136457
000120 2d 03 b1 3d 0b 37 b1 bc 54 7e 4f 3d e7 2a 58 3d
       0.08643184 -0.021632692 0.050657585 0.05277529
000130 f1 5f ad 3d 4d 6d 28 3d ed 2c e9 bd ee ab 45 3d
       0.08465565 0.041119862 -0.11385522 0.048259668
000140 b6 f3 c2 3c 2b 2d f4 3d 25 4e 07 3d b4 f8 14 be
       0.023797851 0.119226776 0.03303351 -0.14547998
000150 e0 6c b4 bd 6c 6b 67 bb 4c 1a 0f be 6b 9f 00 3e
       -0.08809829 -0.003531183 -0.13974875 0.12560813
000160 e4 3c f1 bd 0d 7b f5 3b b5 d1 81 3d be 17 73 3c
       -0.11779192 0.0074914754 0.063388266 0.014837204
000170 ad c0 8a bd d7 2f 14 be 3c 21 20 bb 3f bc 24 3d
       -0.06775031 -0.14471374 -0.0024433872 0.040218588
000180 3e 78 a2 3d 50 d8 28 3e 05 26 c3 bd 25 9e 5d 3e
       0.079330906 0.16488767 -0.09528736 0.21642359
000190 53 f7 6f 3e 45 fb ea 3c 10 1a 92 3e d0 ca 3c 3e
       0.2343419 0.028684268 0.2853551 0.18436742
0001a0 bb 0d 31 be 05 c0 05 3e 5e c3 89 3e b9 3e 2c 3e
       -0.17290394 0.13061531 0.26906866 0.16820802
0001b0 80 5d 25 3e 46 91 f4 3d 92 1d 49 3d 7f 8c d2 3d
       0.16148949 0.11941771 0.049100466 0.10280704
0001c0 4a c7 f7 3d 4c 0b 53 bd 79 b9 18 3e 9b 7c cf bd
       0.12098558 -0.051524445 0.14914502 -0.101311885
0001d0 d3 e7 47 3e 8a 9e 3c 3e 7d fb 58 3e 1c af 00 3e
       0.19522028 0.18419853 0.21189685 0.12566799
0001e0 af 2d ec 3d f6 9d e3 3d 91 90 13 3e 8a 22 01 bd
       0.11532151 0.11114113 0.14410616 -0.03152708
0001f0 e3 fc 1a bc 35 93 4b 3e 2e a2 ff 3c f5 c9 83 3e
       -0.009459707 0.19880374 0.031205263 0.25740018

weight_ih_l0 f4 [128, 2]
000000 f6 dd eb 3d b5 ec a1 3d 56 d2 84 3d 9f a6 98 3d
       0.11516945 0.079064764 0.06485431 0.074536555
000010 1f a5 15 3e f3 9c f5 3c 45 22 31 be f7 25 1b 3c
       0.1461377 0.029982066 -0.17298229 0.009469501
000020 56 73 ad bd 52 26 9a be e8 bf f3 3d 8e 03 04 3e
       -0.08469264 -0.3010736 0.119018376 0.12891981
000030 98 4f de bd 63 41 1a 3e a2 67 9c be 16 cd 4e bb
       -0.10855025 0.15064006 -0.30547816 -0.0031555346
000040 c6 9d 15 3e fc b9 11 be 82 cb 44 be 28 fa 4a 3d
       0.14610967 -0.14231104 -0.19218257 0.049554974
000050 84 2d 4d bd 5d 23 f5 bc 79 24 1f 3e 0f 82 89 bd
       -0.050092235 -0.02992409 0.15541257 -0.0671426
000060 0e 8f b5 3d 58 73 90 be 93 6d d0 bd 6c 17 57 bc
       0.08865176 -0.28213 -0.101771496 -0.013128143
000070 92 b9 80 be 87 aa a3 3d 5a 5d cd bc 6e b3 54 3d
       -0.2514158 0.0799151 -0.025068928 0.05192893
000080 71 70 38 be 94 e5 2c 3e b7 a9 df bc a3 ec 95 3e
       -0.18011643 0.16884452 -0.027302606 0.29282102
000090 50 ec d8 3c 75 d9 64 3e e0 58 20 3e 16 d9 d8 3d
       0.02647987 0.22348578 0.15658903 0.10588281
0000a0 9e d6 a1 3e d4 8d b5 bc 3b 23 60 3e ac 9e e3 3e
       0.31609052 -0.022162355 0.2188844 0.44456995
0000b0 8b c9 81 3e d3 5d 7a 3e a5 f5 ee be 23 7b 45 3e
       0.25349078 0.24449854 -0.46671787 0.19285254
0000c0 28 b7 2e bd f1 bd 8b 3d 10 04 e0 3d 7c d6 68 be
       -0.04265514 0.06823338 0.10938275 -0.2273807
0000d0 b6 0d 66 bd d9 0a 82 3e 1a 79 67 be 17 ae 23 be
       -0.05616542 0.253989 -0.2260479 -0.15984379
0000e0 ed 3d c4 bc 0f fc 5a bd 9e 5b 6c 3d 86 8d 9b 3e
       -0.02395531 -0.053463038 0.05770456 0.3038141
0000f0 06 41 a2 3e 1f 82 71 3b d5 8f 8e 3d e1 43 b6 be
       0.31690234 0.003685124 0.069610275 -0.35598662
000100 3c 2b 37 3d 3b ab 3c be a5 c9 93 bd 87 f4 87 be
       0.044718966 -0.18424694 -0.07216195 -0.26553747
000110 37 ae 48 bd 44 e1 4f 3d c8 e8 95 3d 83 1c a6 3e
       -0.04899427 0.05075194 0.0731979 0.32443628
000120 a3 cd 58 3e bb ac 0d 3e d8 31 d0 be 3f 3d 59 3e
       0.21172194 0.13835423 -0.40663028 0.2121477
000130 bd 9d 08 bf 41 ed 88 3c ee 19 a9 3e 20 9d ed 3d
       -0.5336569 0.016714694 0.33027595 0.11602235
000140 3e b8 6c bd 09 b4 ad bd 44 fd 9a bd 5f ce a1 be
       -0.057792895 -0.084816046 -0.07567838 -0.3160276
000150 3a b8 00 be 02 00 03 be ba ce 58 be 3e a0 0d 3e
       -0.12570277 -0.12792972 -0.2117261 0.13830659
000160 33 ba e0 be 3c 7a 8a bd 5c 08 d6 3e 46 e4 d1 3e
       -0.4389206 -0.067615956 0.41803253 0.4099447
000170 99 7e 70 be e1 b9 8a be ee ec 28 3e 87 97 f3 3c
       -0.23485793 -0.2709494 0.16496632 0.02973534
000180 95 d6 e2 3d 24 4a 88 bc ee 5d 47 3b 73 8e 88 be
       0.110760845 -0.016636916 0.0030420977 -0.2667118
000190 24 0c dc 3d 90 4b 10 3f 12 02 f3 be bc 34 08 3e
       0.10744503 0.563653 -0.47462517 0.13301367
0001a0 67 d5 ce be 37 a1 20 be 83 7e 59 3e fb d3 cf 3d
       -0.40397188 -0.15686499 0.21239667 0.10147854
0001b0 a5 d7 c0 3d b8 d9 ad 3e 21 0e 8f bc ae 96 05 bf
       0.09416131 0.3395517 -0.017462792 -0.52183044
0001c0 4c 3e 88 be b5 92 38 be d8 23 91 3e a4 95 d4 3d
       -0.2661003 -0.18024714 0.2834766 0.10380104
0001d0 f0 3b 69 3e 09 00 73 be cd 1c 05 be 01 6f 97 3e
       0.2277677 -0.23730482 -0.12999268 0.29576877
0001e0 28 2d 16 3d d3 7b b4 be 2a 25 61 be e3 92 04 3f
       0.036664158 -0.3525072 -0.21986833 0.5178663
0001f0 62 38 83 3e a2 67 77 bd a1 5d c8 3c e8 8b 99 3e
       0.25628954 -0.060401566 0.024458708 0.29989552
000200 2a 2e 12 bd 22 c5 60 3e 38 6c 83 be 88 de ae be
       -0.035688557 0.219502 -0.25668502 -0.34154153
000210 1e 64 8c be 09 6a 86 be 7c cf a8 bd 13 a2 a4 be
       -0.27420133 -0.26252773 -0.082426995 -0.32154903
000220 a5 ef 92 be 22 04 53 3e 21 9b 2b 3e 00 b0 c7 be
       -0.2869846 0.20607045 0.16758396 -0.39001465
000230 d8 2c 26 bd 4d 60 8e bd 17 f4 9c 3e 40 67 e7 bd
       -0.04057011 -0.06951962 0.30654976 -0.1129899
000240 9c ca 13 3f 8d 2b 35 3e 16 fe 94 bb 8a 43 33 3f
       0.5773103 0.17692395 -0.004546891 0.7002493
000250 fd e7 97 3e c6 b2 de 3e 76 69 0b bf 4e 38 7a 3e
       0.2966918 0.43495768 -0.54457796 0.24435541
000260 dd fc b2 be 68 1c 8c bc b9 86 81 3e e0 3e 55 3e
       -0.34958544 -0.017103389 0.25298098 0.20824766
000270 60 2b a6 be 1d 13 eb be b1 f7 b1 be 98 fc 58 3e
       -0.32454967 -0.4591302 -0.34759286 0.21190107
000280 93 10 90 3c df 78 2d 3e dd c3 eb be 93 2d ae 3e
       0.017586028 0.1694064 -0.4604787 0.34019145
000290 85 77 11 3d 2f 02 f6 3e 4e eb 9e 3e 5b 7c 08 be
       0.035514373 0.4804854 0.31038898 -0.13328688
0002a0 73 99 8b be 4b 0a 8c bc 29 bb db be 19 79 94 3e
       -0.2726551 -0.017094752 -0.4291623 0.2899864
0002b0 e7 01 af bd 69 b7 f4 be 49 c8 00 3e 0b aa 2d bd
       -0.08545285 -0.4779618 0.12576403 -0.042398494
0002c0 25 b9 56 3e 18 97 7b 3e 15 e9 13 be 7a 61 95 3e
       0.20969065 0.24569356 -0.14444382 0.2917593
0002d0 43 f0 12 bf 3e 57 8e 3e 37 1c 8a 3e 7a ba 2d 3e
       -0.5739786 0.27800936 0.2697465 0.16965666
0002e0 da c7 e3 3e 1a e2 62 3e f4 d3 03 3e 93 0b 2e 3d
       0.44488412 0.22156563 0.12873822 0.042491507
0002f0 1a 22 99 3e e8 9a 30 3e dd 81 df bd a6 d8 e0 be
       0.2990883 0.17246592 -0.10913441 -0.4391529
000300 59 1f be bd 68 7a 29 be 36 2c 16 3e e9 3a 82 3c
       -0.09283323 -0.165506 0.14665303 0.015897231
000310 69 6c ee 3d 31 9f 31 bd a3 b8 5b 3e 64 42 e7 3d
       0.11641771 -0.043364707 0.21457152 0.1129196
000320 20 d5 c1 bb 66 88 52 be ec c6 64 be 4b ac 52 3e
       -0.005915299 -0.20559844 -0.22341508 0.20573537
000330 60 18 aa be 64 e5 1c be 47 83 61 bd fb 55 b4 bd
       -0.33221722 -0.1532188 -0.055056836 -0.08805462
000340 24 d8 1e bd e9 48 b6 3d dc ba 71 be c4 12 b5 be
       -0.038780347 0.08900625 -0.23606437 -0.3536588
000350 80 55 e1 3d 06 af 8e bd 90 47 ee 3d 24 d4 f0 bc
       0.11002636 -0.06966977 0.11634743 -0.029398032
000360 20 cd b8 3e cc a2 0c 3e b0 98 31 3e 2a 7b 55 3e
       0.36093998 0.13733977 0.17343402 0.20847765
000370 5e 9a 37 be 01 4c 0e 3e e1 8c b5 3d 81 63 c3 bc
       -0.1792998 0.1389618 0.08864761 -0.023851158
000380 2d af ac bd ee 97 ef 3d 5d 3e ab bd 95 9d 25 be
       -0.0843185 0.116989 -0.08361504 -0.16173394
000390 2f 63 30 bd cf 9c 96 bd 75 d3 4d 3e 7d db 96 3e
       -0.04306334 -0.073541276 0.20100196 0.2946433
0003a0 be bd 99 3d 45 81 b5 bd 75 48 a3 3c d6 62 f0 3e
       0.075068936 -0.08862547 0.019932011 0.46950406
0003b0 14 52 31 3e 1b 54 0a 3e 49 cd 13 be 64 ab 88 be
       0.17316467 0.13508646 -0.14433779 -0.2669326
0003c0 12 57 3b 3e fb ad a6 3d 2f 19 2c 3e 4b 8f 88 be
       0.18294933 0.08138653 0.16806482 -0.26671824
0003d0 1e de 09 3d c0 1a 50 be eb 57 31 3d a5 2f 01 3d
       0.033659093 -0.20322704 0.043296736 0.031539578
0003e0 bf 96 91 bb 10 90 f4 bd b3 65 0b be 35 04 83 3e
       -0.004443019 -0.1194154 -0.13613014 0.25589147
0003f0 9b 6b 42 3e 32 d1 87 bd ec 20 30 3e 92 90 7a be
       0.1898636 -0.06631698 0.17200059 -0.24469212

weight_hh_l0 f4 [128, 32]
000000 82 23 73 bd 3a 2e 8a 3d 22 8a 04 be bb e0 70 3d
       -0.059360035 0.06747098 -0.12943318 0.05880807
000010 3e a4 40 3d 94 2a a7 bd 12 4d 62 be 11 23 05 bd
       0.047031634 -0.08162418 -0.22099712 -0.032504145
000020 bb 4a 48 be 15 7b 74 bd e7 35 8f 3d f7 34 46 3e
       -0.19559757 -0.059687693 0.06992703 0.19356142
000030 e1 29 2a 3e 7e 9d 22 3e 04 0d 95 bd 40 89 9f bd
       0.16617538 0.15880391 -0.07277873 -0.0778985
000040 00 93 d1 3d 71 67 60 3c df 6a 87 3e 08 21 fa bd
       0.10233116 0.013696537 0.26448724 -0.122133315
000050 78 49 e1 3d 94 9e 28 be 9b 03 97 be 5b b8 01 3e
       0.11000341 -0.16466743 -0.29494938 0.12667982
000060 64 40 6e be a6 59 7c 3e 33 ac 2f be cb e5 2e 3e
       -0.2326675 0.24643573 -0.17155533 0.17079847
000070 fc 10 e8 3d b2 f1 30 be d1 49 03 be 72 b5 9d bc
       0.113313645 -0.172797 -0.12821127 -0.019251559
000080 0e 58 8f 3c 5b 58 f7 bd 9a 92 b8 be 45 34 15 be
       0.017498042 -0.12077399 -0.36049348 -0.1457072
000090 16 2b ef 3d 1a 9d 02 3c d7 9b b5 be ee b8 74 bd
       0.1167814 0.007972026 -0.3547046 -0.059746675
0000a0 aa 82 5c 3e 23 a1 49 3e 28 73 dc 3e e2 59 5d 3c
       0.2153422 0.19690375 0.43056607 0.013510199
0000b0 41 a0 a2 bd 1c 1a df 3e 6b e6 35 bd a2 1b 33 be
       -0.07940722 0.43574607 -0.044409197 -0.1749101
0000c0 19 1b 9c 3d 27 de 28 3e b1 7a b3 3e 8c ac d0 3d
       0.07622356 0.16490994 0.35054544 0.10189161
0000d0 56 0f 2c 3e 65 3f 88 be b8 ec c7 bd cc 30 0c 3e
       0.16802725 -0.26610866 -0.097619474 0.1369049
0000e0 ed 92 b1 3d e6 86 e7 bc 5a 71 19 be 0c 85 69 bb
       0.08670602 -0.028262567 -0.14984646 -0.003563228
0000f0 0a bb 8f 3d 48 df 10 3d dd 7b dd 3d 87 00 df be
       0.07018097 0.035369188 0.10814641 -0.4355509
000100 69 88 dd bd 48 db 77 3e d1 05 0d 3e 90 ef 6e bd
       -0.10817034 0.24204743 0.1377175 -0.058333933
000110 f9 e7 87 be 21 93 ff bd fa 22 16 be 74 b2 a6 3d
       -0.2654417 -0.124792345 -0.1466178 0.08139506
000120 a5 15 84 3c cd aa 81 be f2 68 1f be c3 91 1b 3d
       0.016123602 -0.25325623 -0.15567377 0.037980806
000130 85 f2 f4 3d 5b d6 eb 3e dd 95 81 3e e5 80 09 bb
       0.119603194 0.46061978 0.2530965 -0.0020981368
000140 f9 60 80 3d c9 5f 0d 3d 29 d6 21 3d 2e 06 85 be
       0.06268496 0.034515176 0.03951088 -0.25981277
000150 62 34 b5 3d f8 9d ff bd f3 22 ca bd 11 ff 5d 3e
       0.08847882 -0.12481302 -0.09869947 0.21679331
000160 96 fe 90 be 07 d0 c4 3c ac a9 93 be b0 9f 7b 3e
       -0.28319234 0.024024976 -0.28840387 0.24572635
000170 2e 9f 8a be d2 b0 ac bd 19 b0 88 3e 41 85 02 bf
       -0.2707457 -0.08432163 0.26696852 -0.5098458
000180 dc 7f 10 3e 29 84 b6 bd 08 64 0d 3e 08 74 8e bd
       0.14111274 -0.08911926 0.1380769 -0.06955725
000190 19 6f d8 3d e2 bb 95 3d f5 56 52 3e 73 f5 20 3e
       0.10568065 0.073112264 0.20540984 0.15718631
0001a0 36 d8 cd 3e 51 09 05 3e 70 93 da 3c e7 12 1f 3d
       0.40204018 0.12991835 0.026681632 0.038836386
0001b0 8f 68 a5 3d ec eb 75 bd c3 29 9b bd e4 7b c0 bd
       0.080765836 -0.060039446 -0.07576325 -0.0939863
0001c0 d0 af 09 be f5 e7 98 be a9 d6 53 bd 63 91 c0 bd
       -0.13445973 -0.2986447 -0.051718388 -0.0940273
0001d0 9d c8 97 bd 47 fb 28 3e 93 96 de 3d 5d 10 a2 bc
       -0.07411311 0.16502105 0.108685635 -0.019783193
0001e0 ab ca bf 3c 8b d9 95 3e ed a1 cd bd 64 bb c5 3e
       0.02341207 0.29267535 -0.100406505 0.3861953
0001f0 25 0a bb bc f7 bb 1f be e5 c7 d8 3d 42 2a bc bd
       -0.022831986 -0.15599047 0.10585002 -0.091877475
000200 20 0b 77 be e1 3e 87 3d ca b7 19 3e dd 34 7c 3e
       -0.24125338 0.0660379 0.15011516 0.2462954
000210 a6 96 ef bd eb 90 f9 3e 64 3b b7 3e de 21 7c 3d
       -0.11698656 0.48743376 0.357875 0.061555736
000220 67 4b af 3e 3a 81 80 3c 75 a0 6b be 47 9d 93 bd
       0.34237215 0.01568662 -0.23010428 -0.07207733
000230 52 51 c7 bd be 50 d6 3d ba 04 8b 3e 87 52 89 bd
       -0.097323075 0.10464619 0.27152044 -0.06705194
000240 d4 af b7 be f8 b3 39 bf 17 ef 99 be 4c fd 51 3e
       -0.35876334 -0.72540236 -0.30065224 0.20506781
000250 de a7 74 3d ef 29 85 3d 62 ea 12 3f 88 e1 82 bd
       0.059730403 0.06502139 0.5738889 -0.06390673
000260 b7 95 2c be 79 5b 00 3e 20 1e d9 be e0 84 53 3e
       -0.16853987 0.12534894 -0.42405796 0.20656157
000270 8b 5e 09 be 6f 10 1d 3e 9d d3 4f 3d d2 ef fa 3d
       -0.13414972 0.153383 0.05073892 0.12252773
000280 6e a4 b3 bd c4 dc a4 bd 6d a0 a1 be ef e9 69 be
       -0.08771597 -0.0804992 -0.31567708 -0.22843145
000290 47 3e 14 3e e6 7a 14 3e 66 11 3c be c4 a0 85 3e
       0.14476882 0.14500007 -0.18366012 0.26099217
0002a0 e4 c5 c7 3e bb 02 b1 be 00 6d c1 bd 0e 24 9f 3e
       0.39018166 -0.34572396 -0.09444618 0.31082195
0002b0 00 c5 ba 3d ac 58 2c 3d 36 a9 46 3e 56 24 21 be
       0.09119606 0.04207675 0.19400486 -0.15736517
0002c0 36 cf 6c be d8 38 34 be af 83 b2 bc b9 c3 e2 3d
       -0.2312592 -0.17599809 -0.021791307 0.110724874
0002d0 a8 73 a8 bd c6 ca 87 be 3f ce 0e be be d4 6f 3e
       -0.08225185 -0.2652189 -0.13945864 0.23420998
0002e0 97 0e e6 3d 00 82 89 3e b5 7e 8d bd 3e ff b5 3e
       0.112332515 0.26856995 -0.06908933 0.35546297
0002f0 11 16 ad bc dc fd bb be 6b 7b ed 3e 54 58 d4 bd
       -0.021128686 -0.36717117 0.46383223 -0.1036841
000300 bd b6 90 3e 52 d7 80 be 6e 32 de be b3 0d 8d be
       0.28264418 -0.25164276 -0.4339785 -0.27549514
000310 dc 25 25 3e d0 f5 7d be 9e 13 c8 3c 6b bd 0e 3e
       0.16127723 -0.24800801 0.024423417 0.13939445
000320 5f 05 a0 3e 53 d4 93 3e 3a 95 df 3e fd 55 d8 3b
       0.31254098 0.28872928 0.43668538 0.0066020475
000330 ed be eb bd 60 3b 99 3e 20 2f eb be d4 ae 47 be
       -0.115110256 0.29928112 -0.4593439 -0.19500285
000340 54 8f 96 3c ba 96 88 3e 58 10 95 3e 37 8e 72 bc
       0.018378891 0.26677495 0.29114032 -0.0148044145
000350 ef a0 04 3d 88 04 85 3e 1e 3e e1 be 52 07 83 bb
       0.03238004 0.2598002 -0.43992704 -0.0039986754
000360 e2 54 45 3e 63 45 51 3d b6 6c 5d be e9 19 bf bc
       0.19270661 0.051091563 -0.21623501 -0.023327785
000370 7d f3 d0 3e 0c ca 30 be e4 eb 73 bc d8 88 88 bd
       0.40810767 -0.17264575 -0.014887784 -0.06666726
000380 b1 a8 77 3e 72 9d f8 3d a0 b7 e7 3e 4c 40 80 3d
       0.24185444 0.12139405 0.45257282 0.06262264
000390 ed e6 48 3e 17 93 bb be d5 d3 75 3e 09 d8 94 bd
       0.19619341 -0.36635658 0.24006589 -0.07267768
0003a0 91 de 40 bf 9e ca e1 bd 38 61 a1 be 23 7a 96 3e
       -0.7533961 -0.11024974 -0.31519485 0.29390058
0003b0 29 e4 38 3f 5c c3 1e be 2d 59 72 3d af ea aa 3e
       0.72223145 -0.15504211 0.059167076 0.33382174
0003c0 78 ae 13 3e 55 1f ce 3e dc c4 08 be 96 16 23 bc
       0.14422023 0.4025828 -0.13356346 -0.009954115
0003d0 fc 23 44 3c 8b e8 0c 3e 1e 68 6d bd b2 9b 22 be
       0.01197147 0.13760583 -0.057960622 -0.15879706
0003e0 44 51 00 3d a2 5f 38 bd a6 cf 0a 3f 8b 28 02 3e
       0.0313275 -0.045013078 0.54223096 0.12710778
0003f0 9d 2b 2b be 2c e7 8c 3d 5d 61 62 bd bb 85 fd 3d
       -0.16715856 0.0688003 -0.055268634 0.12379023

bias_ih_l0 f4 [128]
000000 26 d1 c7 bc fc c3 7d bd b0 f1 d4 3d c5 56 c7 3d
       -0.024391722 -0.061954483 0.10397661 0.09733347
000010 aa b4 42 3a b1 ac 18 3e 98 c6 1c 3e 4b f9 ea bd
       0.0007427434 0.14909627 0.15310133 -0.1147333
000020 96 67 2f 3d 89 0b 0d 3e 56 a6 83 bd b1 b4 e1 bd
       0.042823397 0.13773932 -0.064282104 -0.11020792
000030 55 3c 20 3d 52 b9 29 3e b6 fe 32 be 95 0b ef 3c
       0.039120037 0.165746 -0.17479977 0.029180327
000040 96 06 91 3c 0e 6a 20 3e cd e6 8a 3e ea c6 01 bd
       0.017703336 0.15665457 0.27129212 -0.03168384
000050 93 90 50 3e ab 48 59 bd 85 9a af bd e2 4b c8 bd
       0.2036765 -0.053047817 -0.08574394 -0.097800985
000060 e3 c0 fe bb 15 d1 47 bd 18 61 e6 3d 48 96 55 3c
       -0.0077744587 -0.04878338 0.11248988 0.013036318
000070 01 ee 03 3e ee df ad 3d f7 e9 75 3e 87 e9 93 3d
       0.1288376 0.08489977 0.24015032 0.07222276
000080 e6 23 2e 3e fa 88 06 be 3f 15 f2 bd b1 1a e5 bd
       0.17005882 -0.1313819 -0.118204586 -0.111867316
000090 f0 c8 91 3c 31 7c df 3d e0 9d b8 3d 71 37 67 3e
       0.01779601 0.109123595 0.09014487 0.22579743
0000a0 de ef 4b 3e d0 64 ab 3e ac ba a8 3d 96 b1 6b 3e
       0.19915721 0.3347535 0.0823873 0.23016962
0000b0 e3 01 c7 bd e4 5e 1d 3e d8 6e d0 bc 11 a1 a1 bd
       -0.09717157 0.15368229 -0.02544348 -0.07892049
0000c0 0c a3 37 bd 29 3c 89 3e 35 c9 9b 3e 41 bc 1d 3e
       -0.044833228 0.2680371 0.30426946 0.15403844
0000d0 86 c1 17 3e 18 3d 0d 3e b8 6a f9 bd 54 bc 24 3d
       0.14819917 0.13792837 -0.12178558 0.040218666
0000e0 0a 33 d7 bc 4f 7d ba 3d 7e 22 21 3e de 56 4f 3e
       -0.026269455 0.09105932 0.15735814 0.20247981
0000f0 56 37 2e be bc 06 d3 3d 4f 27 8f 3c fe b0 52 3b
       -0.17013296 0.10304019 0.017474798 0.0032148953
000100 7c 3e 52 be b6 d2 80 3e 2d c0 44 3e b9 e8 0f be
       -0.20531648 0.2516076 0.19213934 -0.1405362
000110 31 39 20 3e 7e 33 9a bc 13 06 84 3e 95 34 3c 3e
       0.15646817 -0.018823382 0.25785884 0.18379433
000120 a2 c7 c7 3d 3d f7 f9 bd c2 2a e2 3e 53 bc 72 3d
       0.09754874 -0.1220536 0.44173247 0.05926163
000130 b3 22 1b 3e 80 c9 bc 3e fd f1 04 3e 20 68 b4 be
       0.15149955 0.36872482 0.12982936 -0.3523569
000140 fe 00 e3 be 83 ed 34 be 39 b5 a4 3e 53 b9 c0 bd
       -0.44336694 -0.17668729 0.32169512 -0.09410348
000150 c4 c8 37 3e 06 b0 a5 be b1 f1 c5 3b 2f b3 7f 3e
       0.1794768 -0.32360858 0.0060407748 0.24970697
000160 18 1c 97 be 40 22 69 3d 0e 0c 0c 3e 63 d1 c9 3d
       -0.2951362 0.05691743 0.13676473 0.098543905
000170 9a 03 f2 be 0d 1c 2b 3d c2 8a 13 be 4e f5 29 bf
       -0.47268373 0.0417748 -0.144084 -0.6638993
000180 db 28 9c bb f6 bf 2f 3e be 40 6d 3e 9e 20 0a 3e
       -0.0047656125 0.17163071 0.23169228 0.13489005
000190 62 e9 26 3e 78 6d 80 3e 3b a2 8b 3e 64 89 e0 3d
       0.16299966 0.25083518 0.2727221 0.10963705
0001a0 19 78 92 3d 33 02 ab 3e f5 96 aa 3d 03 2f cf bd
       0.07151813 0.33400115 0.08329574 -0.10116389
0001b0 6c 6c 5d bd b6 b7 6c 3e a1 8e 84 3d 4f 47 aa 3d
       -0.054058477 0.23116955 0.06472517 0.08314382
0001c0 8d 16 06 3e 12 03 43 bd 2c c2 80 3e 5c 31 1c 3e
       0.1309454 -0.04761035 0.2514814 0.15253204
0001d0 7c df 57 bc 13 b5 13 3e 74 96 32 3d 8f 3f ac bd
       -0.013175841 0.14424543 0.043600515 -0.0841056
0001e0 7d be 6c 3e f8 09 0b 3d 71 f1 ae 3e 64 2b 59 bd
       0.2311954 0.033945054 0.3416858 -0.053019896
0001f0 66 78 bc bd b2 22 7c 3d fa 28 37 3e 08 2f 3f 3b
       -0.09202652 0.061556526 0.17886725 0.002917232

bias_hh_l0 f4 [128]
000000 12 8f 51 3e 53 46 4a 3e e4 ef 0b 3d af a1 92 bd
       0.20464733 0.19753389 0.034164324 -0.07159745
000010 4b 1a c2 3d aa 75 72 3e 19 86 bf bd 59 78 2e bc
       0.09477671 0.23677698 -0.09351749 -0.01064881
000020 26 d5 f8 3d 3c e8 56 3e 4e 27 10 3e a1 d2 c9 3d
       0.1215003 0.20987028 0.14077494 0.098546274
000030 1c 74 22 3d 71 3b 33 3e f4 2a 5f 3d cb 5c a4 3d
       0.03966151 0.17503144 0.054484323 0.08025511
000040 20 93 08 bd 2f c9 9e 3d 11 65 39 3e 57 f8 9c bd
       -0.033343434 0.077532165 0.1810496 -0.076645546
000050 37 c0 55 3e 79 f5 66 3d af a5 55 3e 82 63 2f be
       0.20874105 0.056386445 0.20863985 -0.17127803
000060 97 0d eb bd be 1b 07 be 68 25 9d 3d a9 44 aa bd
       -0.114772014 -0.13194177 0.0767315 -0.08313877
000070 6d 64 1e 3e 41 74 df 3d a0 70 cb 3d b5 3e cf 3d
       0.15467997 0.109108455 0.09933591 0.10119382
000080 1f d9 12 3d ad 90 b7 3d 95 6f bb 3b 5f 6e f4 bb
       0.035851594 0.089631416 0.0057200887 -0.0074594463
000090 de 14 e7 3c 26 83 6c bd ec 02 07 bd 30 6d 83 bd
       0.028208192 -0.05774226 -0.03296177 -0.0641731
0000a0 b9 f1 7f bd f5 cd 1f 3e 18 64 8a 3a 1d cd fe 3d
       -0.062486384 0.1560591 0.0010558395 0.12441466
0000b0 de 09 42 3d 0a c7 2a 3e b6 40 3a be 97 83 1c be
       0.04737269 0.1667749 -0.18188748 -0.15284573
0000c0 af 68 b9 3c 90 1c 02 3c eb 16 23 3e 8b c3 07 bd
       0.022632925 0.00794138 0.15926711 -0.03314547
0000d0 ff fa 0f 3e ab 0f 7a 3d d0 d5 bc 3c 3c dd db bd
       0.14060591 0.0610501 0.023051172 -0.107355565
0000e0 7a 70 f0 ba 13 3a 0b 3e ea 6f 8b 3d 4e f9 86 bc
       -0.0018344068 0.13596372 0.06808455 -0.0164763
0000f0 e9 f6 e7 3c 72 bf b6 bd be 05 d1 bd c4 7d 38 3e
       0.028315978 -0.08923234 -0.10206173 0.18016726
000100 ee 38 d5 bc 84 02 8a 3e e4 8f 60 3b 91 de db bd
       -0.026028123 0.26955044 0.0034265453 -0.107358105
000110 a0 7b 6b 3e e6 5d 61 be fc c9 5b 3d 00 85 3b 3e
       0.22996378 -0.22008476 0.053659424 0.18312454
000120 19 19 27 be 56 0a ce 3d 0f ba bb 3e 8f 96 2a 3e
       -0.16318168 0.10060565 0.3666539 0.16658996
000130 e6 aa e6 3d 44 1a e2 3e 02 fe da 3d 88 7a 7b be
       0.11263065 0.44160664 0.106929794 -0.2455846
000140 b2 7c b5 be c0 94 b4 bb 28 aa 1d 3d f0 45 81 3b
       -0.35446697 -0.0055108964 0.03849235 0.003945105
000150 af e0 67 3e b6 57 90 be a3 ed 0c 3e 58 d4 3d 3e
       0.22644304 -0.28191918 0.13762526 0.18538034
000160 ad 86 6c be a0 14 8f 3e 16 1b 8a bd b4 dd ea 3d
       -0.2309825 0.27945423 -0.067434475 0.11468068
000170 6c 14 1f bf 71 56 4c 3b 85 c5 a5 3d 3d ed 57 bf
       -0.62140536 0.0031179453 0.080943145 -0.8434637
000180 a9 ec 84 3e 2e 25 17 3e 86 3e 06 3e b0 94 06 be
       0.25961807 0.14760277 0.13109788 -0.13142657
000190 54 cd 26 bc 04 2f 87 3e ad 8e 4a 3e 0d c3 3b 3e
       -0.01018079 0.26403058 0.19780989 0.18336125
0001a0 14 af ea 3d 24 86 b1 3e f7 af e9 3c d2 a4 a4 bd
       0.11459175 0.34672654 0.02852629 -0.080392495
0001b0 73 24 3d bd 30 fd b8 3d 52 99 05 3e 68 ab 3d 3e
       -0.04617734 0.09032667 0.13046768 0.18522418
0001c0 ff dd 8e 3e c0 8a 30 3c 8a e5 f1 3c 26 21 0d 3e
       0.27903745 0.010775268 0.029528398 0.13782176
0001d0 a1 92 f8 bc a8 f2 3b bd 1b 69 28 3e 9a 89 4f 3e
       -0.030343356 -0.045885712 0.16446345 0.20267335
0001e0 b9 5a d9 3d d2 9c 23 3e 75 24 05 3e 72 8e 07 3e
       0.10613007 0.15977791 0.13002189 0.13237932
0001f0 9d e4 3b 3e 92 d6 03 3e 7d 5a d4 3d 26 80 8a 3d
       0.18348928 0.12874821 0.10368822 0.067627236

weight_ih_l0_reverse f4 [128, 2]
000000 6c 71 53 3e da 24 12 3e 5d 4f d6 3c 10 56 29 3c
       0.20648736 0.1427187 0.02616089 0.01033546
000010 5f 47 13 be 4f 05 3f be c8 ce af 3e 64 2c 97 3e
       -0.14382695 -0.18654369 0.3433745 0.29526055
000020 cb 52 37 be 5d 0d 02 bc fc 48 9d bc c2 32 30 be
       -0.17902677 -0.007937756 -0.01919984 -0.17206863
000030 45 de 99 be 5d 1a e3 be ec f7 9c 3e 1e 4a c8 be
       -0.3005239 -0.4435605 0.306579 -0.39119047
000040 d1 67 67 3e 5f 91 4c bf 06 4d bb be 39 cb c3 3e
       0.22598197 -0.7990932 -0.36582202 0.38240984
000050 40 32 dc be 22 51 a3 3e 3f 45 c4 3e 19 31 b1 bd
       -0.43007088 0.31897837 0.3833408 -0.08651943
000060 78 0e d9 be d5 24 c7 bd 88 25 e8 be 24 14 59 bd
       -0.4239385 -0.09723822 -0.45341134 -0.052997723
000070 83 de 32 3f cc 84 ff be bd 95 c7 3e fb b5 e8 3d
       0.69870776 -0.49906003 0.3898143 0.11362835
000080 bc fb b5 bd 6c 23 05 be cf 8f 43 3e e9 a6 f5 3e
       -0.08885905 -0.13001794 0.19097827 0.47978905
000090 13 7b 40 3d 49 7d 61 be c5 b8 63 3d a7 26 2b 3e
       0.046992373 -0.22020449 0.05559613 0.16713963
0000a0 72 b3 e7 bc 36 84 41 3e 2a bd 01 3f 56 2c aa 3e
       -0.028283808 0.1889809 0.50679266 0.3323695
0000b0 26 95 17 be fa 5a 07 3e 4e 3c e2 bd cd f7 94 bd
       -0.1480299 0.13218299 -0.110466585 -0.07273827
0000c0 0d 0d 71 bf 87 3e 96 bd 38 d3 32 bf fe b3 b4 be
       -0.9416054 -0.07336145 -0.69853544 -0.35293573
0000d0 a2 90 11 bf 91 0e 4d be 9c 4c cc bd f8 45 26 3e
       -0.5686132 -0.20025088 -0.099755496 0.16237628
0000e0 b8 09 b2 3e f5 fc 83 be 94 cf 23 be 8d ed 09 3e
       0.3477304 -0.25778928 -0.15997154 0.13469525
0000f0 df df 79 be ab 3c 0c 3e aa b2 f6 be 3b a2 f2 be
       -0.24401806 0.13695018 -0.48183185 -0.47389397
000100 d3 6d 46 3e 8c 3b ce 3e 50 eb 70 3d 1a c8 9a bc
       0.19377832 0.40279806 0.05881816 -0.018894244
000110 91 dd 5f be 0a 3a 8c be 02 0a 2a 3e 8c 95 88 3e
       -0.21861865 -0.2738803 0.1660538 0.26676595
000120 ed ee 5d be 7a 46 13 3c a4 95 b2 3e 85 26 d8 bd
       -0.21673174 0.008988971 0.34879792 -0.10554222
000130 7e f8 e1 be 08 5b cf be 8b fe ad 3e 17 60 34 be
       -0.44134897 -0.4049914 0.33983263 -0.1761478
000140 d0 eb 88 3e b1 f5 a4 be 47 52 5d be 7c 3d 30 3e
       0.2674241 -0.32218698 -0.21613418 0.17210954
000150 bc 54 86 3c 8e 5d 8e 3d 3b 76 83 3e 64 53 93 bd
       0.016397826 0.06951438 0.2567614 -0.0719364
000160 9c b2 30 be ee 3d 93 bd 2d ea 5e be b3 86 ca bc
       -0.17255634 -0.071895465 -0.21769018 -0.024722433
000170 4c a0 d1 3e c9 27 cc be d4 cd d3 3e 75 30 1c 3e
       0.4094261 -0.39874104 0.41367972 0.1525286
000180 fa 2a 96 bd 82 60 b8 bd dc 27 a3 bd 2a b8 da 3e
       -0.07332416 -0.090027824 -0.07966587 0.4271863
000190 5d b9 a4 bd 1b 6f 04 be 0a 8d 1c be 0f d9 f5 3d
       -0.08043168 -0.12933008 -0.15288177 0.12004291
0001a0 7f ac cd 3c 3e 4b 33 3e e2 cc 8d 3e d2 27 02 3e
       0.025106667 0.17509171 0.27695376 0.12710503
0001b0 2c d7 a8 bd fe c7 23 bd 6d a8 f8 be 20 3d 47 be
       -0.08244166 -0.03998565 -0.48566 -0.19456911
0001c0 e1 1d ef be a7 37 bb bd 85 eb 52 be b1 2e b2 be
       -0.46702483 -0.09141474 -0.20597656 -0.34801248
0001d0 83 63 63 be df 1a 37 be 28 cd 31 3d 58 45 9f bd
       -0.2220593 -0.17881344 0.043408543 -0.07776898
0001e0 ca 2f d1 3d 6c f3 e1 bc 5f ff e3 bd 8b 04 1d 3e
       0.10214193 -0.027581893 -0.111326925 0.15333764
0001f0 a9 16 67 be af 71 2f 3e 44 72 0c 3e ef ee f4 be
       -0.22567238 0.1713321 0.13715464 -0.47838542
000200 b6 c5 9e be d9 90 87 be 79 e3 25 3e 01 9e ca 3e
       -0.31010216 -0.26477697 0.16200055 0.39573672
000210 d4 13 72 3e a5 18 03 3e d0 03 ac be b5 65 87 be
       0.23640376 0.1280237 -0.3359666 -0.26444784
000220 bb db 76 3e 5c e9 cd 3e 48 94 83 3e 3f c0 b8 bd
       0.24107258 0.40217102 0.25699067 -0.09021043
000230 30 a6 93 be 93 6c d1 be 65 0e ce be a9 68 68 3e
       -0.28837729 -0.40903148 -0.40245357 0.22696175
000240 dc c5 73 bd 65 70 3f bf 49 1f 2e be 8d 64 f2 3e
       -0.059514865 -0.74780875 -0.17004122 0.4734234
000250 33 61 c6 3e cb 0a 5f be b2 0c ee 3e 73 f8 a1 bd
       0.38746032 -0.21781461 0.4649406 -0.07908716
000260 52 95 b7 3e c6 f4 8c 3d 38 00 e3 3e b0 11 eb bd
       0.3585611 0.06882624 0.44336104 -0.11477983
000270 a2 46 08 3e df 67 ca be f6 a5 81 3e b0 66 36 3d
       0.13308194 -0.39532372 0.2532193 0.044531524
000280 fb 9f 79 bd 59 29 f5 3e 76 91 8d 3e 20 ef 3f 3f
       -0.060943585 0.47883108 0.2765004 0.7497425
000290 c8 8f 10 3e be ce cf be d3 41 ff be b1 4a 73 3e
       0.14117348 -0.4058742 -0.49854907 0.23758961
0002a0 a9 3b a3 be 19 b5 5e bd b6 e7 c2 be 21 43 fc bd
       -0.31881455 -0.054371927 -0.38067406 -0.12317491
0002b0 fe ca a5 be ed e6 41 3e 8f ae 41 3e fd 85 8e 3e
       -0.32381433 0.18935747 0.18914245 0.278366
0002c0 72 18 fe be 81 d7 82 3e b9 3b e0 3e 2a f4 bc 3e
       -0.49628025 0.2555504 0.43795565 0.36905032
0002d0 b1 41 c0 be 31 ff 1b be 40 17 25 be 44 7a 96 be
       -0.3755012 -0.15234067 -0.1612215 -0.29390156
0002e0 ad 86 d4 be ff 0a 82 3e e7 81 b1 3e 92 cc 52 3d
       -0.41509 0.25399014 0.3466942 0.051464625
0002f0 69 97 65 3e ae 39 a3 be 4b 68 00 3e 4d c5 aa be
       0.2242104 -0.31879944 0.12539785 -0.33353654
000300 2a 2f 73 3e b3 b7 28 3e 86 1f 27 3d 1b e7 8c bd
       0.2374846 0.16476326 0.040801547 -0.06880017
000310 99 40 0c bd 2a e1 5d be e8 0d 80 be 38 9e 31 bd
       -0.034241293 -0.21667925 -0.2501061 -0.04336378
000320 f0 83 a1 be 37 1b 03 3e 8e 5f 57 bd 34 3f 5d 3c
       -0.31545973 0.1280335 -0.052581362 0.013503838
000330 bd 5f df be 73 63 9d be cc 95 e3 3e b6 88 e9 be
       -0.4362773 -0.30739936 0.44450223 -0.45612115
000340 8d 48 14 be 57 4e 2e bf d8 44 49 be 3e c7 97 3c
       -0.14480801 -0.6808829 -0.19655168 0.018527623
000350 f2 14 71 be 52 05 0d 3e 68 26 fb 3e 97 ba 3e be
       -0.23543146 0.13771561 0.4905274 -0.18625866
000360 ce 40 87 be a0 44 78 be 1e a3 91 be f9 d2 2d 3e
       -0.2641663 -0.24244928 -0.2844476 0.16975011
000370 86 64 7a 3f 24 47 15 bf 2d 8f b3 3e 0e 15 2a 3d
       0.97809637 -0.58311677 0.35070172 0.041523986
000380 93 03 f9 3d 2a 64 6e 3b 3d f5 22 3c c1 af 2d 3e
       0.12158885 0.003637562 0.009946165 0.16961576
000390 15 63 6f bd 71 d8 b8 bc e2 93 78 bd 1e 4e 8e 3e
       -0.0584441 -0.022564145 -0.060687907 0.27793974
0003a0 85 d7 24 3e 33 89 53 bd 63 89 98 3e 5d e5 e5 3e
       0.16097839 -0.051644515 0.29792318 0.44901553
0003b0 33 78 0d 3d 40 87 9a bc 89 3c b4 be fa b1 59 bd
       0.03453846 -0.01886332 -0.35202435 -0.053148247
0003c0 7c 4d e1 be d5 2f 30 3d 61 24 42 be 1a 97 c9 be
       -0.44004428 0.043014366 -0.1895919 -0.39373094
0003d0 0d 7a 4d bf 6e 15 2f be b2 aa ae 3d 68 8e 32 3e
       -0.8026436 -0.17098019 0.08528651 0.17437136
0003e0 0a d7 3a 3f 0a 6a c1 be 4b 0d 70 be b3 1e 01 be
       0.72984374 -0.37776214 -0.23442571 -0.12609367
0003f0 a0 b1 1c be ec 41 39 3e 32 a0 4d be 06 9a 31 be
       -0.15302134 0.18091553 -0.20080641 -0.17343912
