experiments/pedestrians/models/models_14_Feb_2024_17_26_50_eth_vel_ar3/model_registrar-43.pt (torch, 527902 bytes, 43 tensors)

weight_ih_l0 f4 [128, 6]
000000 7c cb a5 3d 08 5f ba 3d df 92 54 be 0d d0 6f bd
       0.08095452 0.09100157 -0.20759152 -0.058548022
000010 41 8c 50 bd 4c 00 0c 3d 74 bb 51 be 81 0f c2 be
       -0.050915007 0.03417997 -0.20481664 -0.37902454
000020 5a b1 ba bd 88 15 48 3e c9 d9 17 3d dc f6 b8 bd
       -0.091158584 0.19539464 0.03707293 -0.0903146
000030 b8 9d f5 3c 57 3e 8a bb b7 c8 95 be 60 78 35 be
       0.029982433 -0.0042188573 -0.29254696 -0.177217
000040 a2 11 84 be ad b0 35 3d 20 28 19 3e b7 8b 45 3e
       -0.25794703 0.044357944 0.14956713 0.19291578
000050 fe a8 bd 3d 2a ba 4c 3d dd c5 b3 3d 7e 2a 09 3c
       0.09260748 0.049982227 0.08777974 0.008371947
000060 f2 61 05 be 5f 9e 8b 3d fd 30 00 be 3f d7 e2 be
       -0.13025644 0.06817316 -0.12518688 -0.44304845
000070 c5 29 35 3f 03 f3 9f bf 6b 0b 44 3e fa f2 f3 3d
       0.7076686 -1.2496036 0.1914498 0.119115785
000080 b8 77 3a 3e f3 2d fc 3c 7e 89 ae 3e bf 75 95 be
       0.18209732 0.030783629 0.34089273 -0.29191396
000090 ea 7c cc be 90 9b e6 3d 7c fa 2e 3e 57 ce 2b be
       -0.39939052 0.1126014 0.1708774 -0.16777931
0000a0 7f 20 b7 3d 6c 07 6d be 42 e2 ba be 6a 75 f4 bc
       0.08941745 -0.23147362 -0.36500746 -0.029841144
0000b0 90 75 d2 3e ea bb d7 bc d1 f4 99 3d ea 49 8f bc
       0.41105318 -0.026334722 0.07517398 -0.0174913
0000c0 f8 6c 7b 3e a1 dd 76 3e 60 f8 ef 3e 6d 00 a4 be
       0.24553287 0.24107982 0.46869183 -0.32031575
0000d0 81 f9 b5 3e 0b 08 46 be 1d d4 8e bd 3c ff 85 be
       0.3554192 -0.19339006 -0.06974051 -0.2617129
0000e0 cd d0 93 3a 8d e8 a9 3e 32 bb b3 3d 3c 86 c6 bd
       0.0011277437 0.33185235 0.08775939 -0.09693572
0000f0 d3 4a 0e 3e d8 12 7c be 25 cc cc be 3b c4 99 3e
       0.1389573 -0.24616563 -0.399995 0.30032524
000100 1c 6f b2 bd ba 2b 48 3d f9 d8 89 3c 38 25 42 3e
       -0.08712599 0.048869826 0.016827093 0.1895951
000110 3f 28 07 bf 74 cb 4b be 9e c1 4e bf 59 97 a8 be
       -0.52795786 -0.1990183 -0.80764186 -0.3292797
000120 65 83 9b 3c 60 67 9b bd 71 74 66 be 5e 56 1c 3e
       0.018983552 -0.075880766 -0.22505356 0.15267321
000130 95 a5 14 3e 98 15 21 bd db 75 05 be c2 8e f3 3c
       0.1451629 -0.039327234 -0.1303324 0.029731158
000140 17 a5 c3 3e 19 7f 92 3e 4c 90 df 3e 2f 1f a5 3e
       0.3821189 0.28612593 0.43664777 0.32250354
000150 7f ca 2f 3d 30 c3 73 bd c7 75 31 bf 2d 41 97 3d
       0.042917725 -0.059512317 -0.6932034 0.07385478
000160 18 cc 05 bf e5 3a 44 bd a0 36 91 be a5 c1 07 3e
       -0.5226455 -0.04790773 -0.28361988 0.13257463
000170 13 b2 df 3e 74 01 d7 3d ec 8c 74 bd d5 8e 9f 3e
       0.43690547 0.10498324 -0.059704706 0.3116366
000180 11 4b 87 3e b3 44 61 bd 9f db f9 be 7f 4a bb 3e
       0.2642446 -0.054997157 -0.4880037 0.36580274
000190 4b 7d fc be 54 8f 83 3d 46 51 03 3e e9 39 5a be
       -0.4931434 0.06423822 0.12823972 -0.21311153
0001a0 56 b9 33 be 93 96 27 3e c1 45 78 3b ea f6 b0 3d
       -0.17551169 0.16366033 0.0037883373 0.08640845
0001b0 d8 46 32 3e 9a aa 5e be b2 4d 83 be 60 cb 04 3f
       0.17409837 -0.21744767 -0.25645214 0.51872826
0001c0 b2 bb 9d bd d7 ef 2e 3f 65 35 4d 3d 54 38 a8 3c
       -0.07701816 0.68334717 0.05009975 0.020534672
0001d0 db c3 ba be 37 36 c5 3d 64 fe e8 bd 6a 0d c1 3e
       -0.3647755 0.09629481 -0.11376646 0.37705547
0001e0 d1 32 c2 be 8f ab 98 3e 84 11 d3 3e 7a 81 97 be
       -0.37929395 0.2981839 0.412243 -0.2959097
0001f0 73 5f 99 3e 3b c0 dd 3c d2 5f 4a 3d 66 33 69 3e
       0.29955634 0.027069202 0.049407788 0.22773513
000200 a6 f8 2d 3d d7 b1 32 be c2 a7 d8 3c 1c cd 9d 3d
       0.042473458 -0.17450653 0.02644718 0.07705137
000210 df 73 10 be 46 86 c0 be 81 82 a7 3d 75 db c8 3d
       -0.14106701 -0.37602443 0.081791885 0.09807483
000220 f2 84 a7 3e 48 1b fa 3c c2 85 70 bd b4 c9 81 3d
       0.32718617 0.030530587 -0.05872131 0.063373
000230 90 5a dd 3d 01 3d e8 bd 4f d7 9e 3c 40 0c 84 3b
       0.10808289 -0.113397606 0.019389777 0.0040297806
000240 20 41 00 3e 77 1d 3a bd 59 cb 82 be d7 29 e4 bd
       0.12524843 -0.045438256 -0.25545767 -0.11140793
000250 2d 4e 5d be 9e cc 68 be 76 98 a7 be 53 bc f2 bd
       -0.21611853 -0.22734305 -0.32733506 -0.11852326
000260 3d 6e 02 3d f9 14 2f 3e a8 88 12 3e 0e 84 b1 3d
       0.031843413 0.17097844 0.14309943 0.086677656
000270 59 b1 ce bc b1 89 63 3e c4 22 12 bf e4 ff f9 be
       -0.02523105 0.22220494 -0.570843 -0.48828042
000280 86 ec b3 be 4a 1c 05 be 53 02 6b be 71 c1 36 3d
       -0.3514139 -0.12999073 -0.22950105 0.044618074
000290 a2 c8 32 3f 55 22 0e 3f 55 a8 1e 3f ff ea 3c 3f
       0.6983739 0.55521137 0.61975604 0.73796076
0002a0 32 1a 41 3e cc 9b 61 bc 5e b2 a1 be d9 5a 37 3e
       0.18857649 -0.013770055 -0.31581396 0.1790575
0002b0 b6 a1 6f 3d 8b 75 7c 3e 68 8a b6 be bb 50 2d 3d
       0.05850383 0.24654214 -0.3565247 0.04231332
0002c0 3e e5 4d 3d 3b fb 88 be 84 be 51 3e ff e3 00 bd
       0.05026745 -0.26754174 0.20482832 -0.031467434
0002d0 56 d8 03 be 77 fb a0 bd 88 1e 8c 3e eb 45 63 3d
       -0.12875494 -0.07860463 0.27367043 0.0554866
0002e0 6f 0e e8 bd f3 84 6c be bf 25 c3 bd 43 5f b2 3d
       -0.11330878 -0.23097591 -0.09528684 0.08709576
0002f0 61 96 09 3d f8 58 39 3d a6 b9 60 be 13 a2 bd bd
       0.033590678 0.045250863 -0.2194582 -0.09259429
000300 df 91 eb 3d fa 17 05 3e dd 70 1f be b6 eb 02 be
       0.11502432 0.12997428 -0.15570398 -0.12785229
000310 6a 9b 40 be 6c dc 52 be 93 9f 1a bc e2 7c 0e be
       -0.18809286 -0.20591897 -0.0094374595 -0.13914827
000320 34 24 1c 3d dd c7 bc 3d 82 11 4e 3d c8 61 bf bd
       0.038120463 0.092178084 0.050309666 -0.09344822
000330 54 e7 e1 bd 11 4e 11 bd 97 fd 41 bd b9 2f b2 bc
       -0.110304505 -0.03547484 -0.047360983 -0.021751272
000340 5c c9 84 be 8e 7b 81 3d 2f 20 d0 3d 51 4f 9d 3d
       -0.25934875 0.06322394 0.101623885 0.07681144
000350 34 f0 bc 3d 96 06 0a be e6 40 30 bd 6e 0f 00 3d
       0.092255026 -0.13479075 -0.043030642 0.031264715
000360 d6 87 ea 3c c3 36 3b be fd 28 58 3e 3a 22 04 be
       0.028629225 -0.18282609 0.21109386 -0.12903681
000370 6d 00 4a 3d c0 a8 fb 3b b3 01 2d 3e a4 75 b9 bc
       0.049316812 0.0076800287 0.1689518 -0.022639103
000380 5f a1 c9 3d ad cd 4a be bf e8 93 be 48 73 7e 3c
       0.09845232 -0.19805022 -0.2888851 0.015530415
000390 2a 2b a2 bd 64 d6 85 3c 13 cc 29 3e ff d8 b7 bd
       -0.07918389 0.016337581 0.16581754 -0.089769356
0003a0 34 9f d9 bd 5b fe 12 bc 7e c0 20 be 64 21 71 be
       -0.10626069 -0.008971776 -0.1569843 -0.23547894
0003b0 e8 db 80 3e 30 00 40 39 65 e0 b8 bc 08 ea 4b bd
       0.25167775 0.00018310617 -0.022567937 -0.049783736
0003c0 93 5a 95 3e 0f e5 1d 3d b5 9d 1b bc 59 aa 2b be
       0.29170665 0.038548525 -0.0094980495 -0.16764201
0003d0 ed 1a 91 bd 89 b1 18 bd 8f 8e 3d be b1 0f 4f bd
       -0.07085214 -0.037278686 -0.18511413 -0.050552074
0003e0 c2 d1 8e 3e 28 67 e3 3d 9d b7 3a 3e b4 49 b2 3d
       0.27894408 0.1110366 0.18234105 0.08705464
0003f0 70 ae 0d 3e c5 a7 99 be b5 a2 1c be b4 c5 6b 3e
       0.13836074 -0.3001081 -0.15296443 0.23024637

weight_hh_l0 f4 [128, 32]
000000 e4 d2 86 3b 1f 1f 52 be 13 52 30 3c fa bc e3 3d
       0.0041144956 -0.20519684 0.0107617555 0.11120029
000010 d4 bf 0e be d3 ad 8a bc b8 fb 2c bd 8a 32 19 be
       -0.13940364 -0.016928589 -0.042232245 -0.14960685
000020 65 66 27 3d a7 93 6f 3e 39 5d e8 bd d9 39 f0 3d
       0.040869135 0.23396169 -0.11345906 0.117297836
000030 62 79 0a be 5b 9e 45 3e 93 75 2f 3e af fb eb 3d
       -0.13522866 0.19298689 0.17134695 0.11522614
000040 ab a4 4d 3e 34 a8 01 be 44 9e da bd ad 2c 5f 3c
       0.20082347 -0.1266182 -0.10674718 0.013621491
000050 bb ef 50 be 6a 52 0c be 67 fc 8a bd f9 69 90 be
       -0.2040395 -0.13703313 -0.06786423 -0.2820585
000060 bb f4 91 3e fc cb c6 3d 4d 2e c2 bc 2e b7 c9 3e
       0.28507027 0.09706876 -0.023703719 0.39397568
000070 c5 c6 5d 3e cf 29 c6 3b d1 67 1f 3e 50 27 bd bd
       0.21657856 0.0060474644 0.15566947 -0.09236014
000080 35 58 fb 3d 79 6e 7e be c4 66 cd 3d 27 ab aa bd
       0.122726835 -0.2484683 0.100293666 -0.08333426
000090 08 24 30 3c 48 4b 4b 3e 17 7a 84 3c 15 c0 5e be
       0.010750778 0.19852936 0.016171498 -0.21752961
0000a0 47 ef c1 3d 22 9c bc 3d dc c3 a7 be b9 93 c8 bd
       0.09469467 0.092094675 -0.32766616 -0.09793801
0000b0 93 2b 90 be b5 78 46 3e a2 8e 00 3e 15 2e ca bd
       -0.28158244 0.19381984 0.1255441 -0.09872071
0000c0 3d 40 52 3e bd 2d f7 3d 1a d9 70 be ea 53 8c 3d
       0.20532317 0.12069271 -0.23520318 0.06851943
0000d0 87 f3 a8 bd 48 10 ed bd 31 e3 28 be 9f 6e 1c be
       -0.08249574 -0.11575371 -0.16492917 -0.15276574
0000e0 13 cc f7 3d aa 57 0a 3e 84 39 21 be c8 d6 6e 3d
       0.12099471 0.13510004 -0.15744597 0.0583103
0000f0 1e d2 16 3d a2 90 01 3d 0a 8e 63 3e 9d 8d 93 bd
       0.036821477 0.031632073 0.22222152 -0.07204745
000100 42 8e f9 3d 6d ea 1c be 14 12 e2 bd 09 9e f4 3d
       0.12185337 -0.15323801 -0.110386044 0.11944205
000110 aa 30 b2 3d e5 38 28 3e 0a 61 22 be c3 71 3a be
       0.08700688 0.16427954 -0.1585733 -0.18207459
000120 2b f2 cd bc ba 7e 76 3e 2a 4f 9c be 80 09 9c 3d
       -0.025139889 0.2407178 -0.30529147 0.076189995
000130 11 dc 86 bd e2 4c f4 bd c7 c4 05 3e 96 1b 8f bd
       -0.06584943 -0.11928727 0.13063346 -0.069876835
000140 56 1d e5 3d 3b 3b 02 be 42 9d bb 3d f7 65 04 be
       0.11187236 -0.12717907 0.09160854 -0.12929522
000150 6c 5f ba 3d 8d 9f 87 3d 25 70 87 3d 6c c2 25 3e
       0.091002315 0.06622229 0.06613187 0.16187447
000160 51 8f 8e 3e 92 14 13 3e 8b 69 29 3e 7d f8 34 3e
       0.27843717 0.14363316 0.16544168 0.17672916
000170 54 bb 1f 3e 8c ad d4 3d 0f 74 2e bd ca 56 1c 3d
       0.15598804 0.10384664 -0.04259115 0.038168706
000180 fc 4f 52 bd cc d1 3a bd 64 ce fb bc ac 47 9d 3d
       -0.05134581 -0.045610234 -0.030738063 0.07679686
000190 3c 6f a4 bd 94 a4 36 3d a6 58 bd bd 2b ea 34 3d
       -0.08029029 0.044590548 -0.09245424 0.044168632
0001a0 1e 61 d0 bc d0 28 36 3e d9 8f 9d be 28 18 07 be
       -0.025436934 0.17789006 -0.3077381 -0.13192809
0001b0 02 d3 c0 bd 9d 4b b2 bd ec 97 08 be ef 14 0f be
       -0.094152465 -0.08705828 -0.13339204 -0.1397283
0001c0 99 49 1b 3d 15 58 31 3d 06 b5 59 be 3e 53 80 bd
       0.037911985 0.043296892 -0.21260461 -0.06265877
0001d0 97 75 48 bd 10 08 41 bc 64 24 fa 3c 0a ad b1 bc
       -0.048940267 -0.011781707 0.03053493 -0.021688957
0001e0 80 73 05 3e e7 4a 00 3e fb 15 7c bd 78 95 43 3e
       0.13032341 0.12528573 -0.0615444 0.19099987
0001f0 d5 8c c3 3c bd f0 ff 3d 60 59 8d 3e 84 01 84 bd
       0.023870865 0.12497089 0.2760725 -0.064456016
000200 0a 6d 88 3d be 3d a0 bd b9 e0 aa 3e 68 62 86 3c
       0.066614226 -0.078242764 0.33374575 0.016404346
000210 90 21 0a 3e 34 7b d1 bd 21 00 2a 3e 44 5a 7b 3d
       0.13489366 -0.10228577 0.16601612 0.06136538
000220 39 1b f3 3c 63 de 44 be aa 5c 8c bb 7a 6d 2b be
       0.029676067 -0.19225459 -0.0042835074 -0.1674098
000230 4c e0 b2 bd 5a 33 60 3c 6f ba 42 3d 91 3b 42 be
       -0.087341875 0.013684118 0.04754108 -0.18968035
000240 f2 c1 13 be 63 55 58 be 04 fd 9f bb 70 64 7b 3d
       -0.14429453 -0.21126322 -0.0048824567 0.06137508
000250 14 85 de bd 35 32 ca 3e 1b 82 6c 3e 85 61 62 be
       -0.108652264 0.3949143 0.23096506 -0.22107513
000260 9b 68 ea bc 39 21 46 be 7e f9 ec bd 92 51 8a be
       -0.028614333 -0.19348611 -0.11571024 -0.27015358
000270 cd 2c 44 3d 40 ad 31 be 61 76 92 3d 87 99 ce bc
       0.047894288 -0.17351246 0.07151485 -0.025219692
000280 b7 b1 b8 3d 00 2e 3a be eb 2f d4 3d b6 16 fe bd
       0.090182714 -0.1818161 0.10360702 -0.124066755
000290 70 5e a0 bd 8e b7 81 bd fe 5f 1a 3e 74 8b 66 be
       -0.078305125 -0.063338384 0.1507568 -0.22514135
0002a0 68 5e 5f bd 62 53 4a 3d 66 23 0b 3e 3d 9f 07 be
       -0.054533392 0.049395926 0.13587722 -0.13244338
0002b0 21 96 50 be f3 7a 8d 3d 26 12 59 bb d7 8c fe bb
       -0.2036977 0.06908216 -0.003312239 -0.0077682543
0002c0 03 94 06 3d 6a f1 55 3e fd 3c 6f be dc 1a 42 3e
       0.032856 0.20892873 -0.23363109 0.18955559
0002d0 0d 43 3f bd 76 ce 5e bd 06 50 35 3b 13 ab 34 be
       -0.046694804 -0.054396115 0.0027666106 -0.17643385
0002e0 62 46 c1 3d c8 91 07 3d b2 6a 1a 3e 7f b7 59 3e
       0.094372526 0.033098012 0.15079764 0.21261404
0002f0 20 dc a5 3d db f6 d5 b8 3f ae 63 3e 15 15 2f 3e
       0.08098626 -0.00010202612 0.22234438 0.17097886
000300 94 bc 12 3e 13 86 57 bd 2d 1e 46 be de 28 10 3e
       0.1432975 -0.052618098 -0.19347449 0.1407809
000310 0f 14 2a bd 82 d5 5f bd 8c d7 60 3e 1e 0a a0 be
       -0.041523036 -0.054646976 0.21957225 -0.3125772
000320 5f ac 02 be 2a 9f 2f 3e d8 c0 e4 bd 07 87 0c be
       -0.12761067 0.1715056 -0.111695945 -0.13723384
000330 74 ac 86 3b 52 86 9d 3e b7 a0 ad 3d f4 e9 ae 3c
       0.0041099135 0.3076654 0.084779195 0.021351792
000340 b2 52 f1 3d 98 a1 80 bd 10 ac e1 bd c1 71 5c bd
       0.11783351 -0.062808216 -0.110191464 -0.05381942
000350 89 8c 8d bd 06 07 5e 3e ad 04 06 3e 9b 9c db bd
       -0.069115706 0.21682367 0.13087721 -0.107232295
000360 f4 cf 4e bc 93 da 70 3e 28 5c f6 3d 83 c0 48 3e
       -0.012622822 0.2352088 0.12029296 0.19604687
000370 89 7b b0 bd 37 3d cb 3c c0 ee 94 bb 27 03 06 3e
       -0.086173125 0.024809463 -0.004545063 0.1308714
000380 9e 2c 01 3e cf f7 85 be df 46 85 3b a3 93 d5 3d
       0.12614676 -0.26165625 0.0040672864 0.1042855
000390 e2 f9 4f be 2b fe 0e 3d 65 60 72 3e fb ff 22 be
       -0.20310166 0.034910362 0.23669584 -0.15917961
0003a0 a0 fd a5 bc 4d be 6e 3c 6c b6 77 3d 49 a5 96 bd
       -0.02026254 0.014571738 0.060476705 -0.073557444
0003b0 6b d8 3b bc b1 e4 81 3c 8d f5 e9 3c 43 91 a4 3d
       -0.011465172 0.015856119 0.02855947 0.08035519
0003c0 7c 82 10 3e f6 20 cd 3d dc 80 4d be 09 66 50 3c
       0.14112276 0.100160524 -0.20068687 0.01271964
0003d0 dc 45 c0 be 3f 92 7f 3d a6 4c d6 bd f0 d7 98 be
       -0.37553298 0.06239533 -0.10463838 -0.29852247
0003e0 b3 b8 49 3e 35 c9 c9 3e 46 c0 e8 bd 37 c1 8c 3e
       0.19699363 0.3941132 -0.11364798 0.2749116
0003f0 4d f7 07 3e 81 a7 f8 3b 8f 0a 0b 3e 1e 3a 94 3e
       0.13277932 0.0075883274 0.13578247 0.2895059

bias_ih_l0 f4 [128]
000000 f9 d6 86 bc 38 aa 7e 3d 18 a9 b8 3c 4e b3 52 bd
       -0.016459929 0.062174052 0.022541568 -0.05144053
000010 b3 27 dd bd f1 79 32 3e 21 ab 22 3d 32 0c 17 be
       -0.10798588 0.1742933 0.039713982 -0.14750746
000020 ee 72 df bb a2 a3 0a 3d dd 25 85 3e a4 3a 0e 3e
       -0.0068191206 0.03384746 0.2600545 0.13889557
000030 f5 e6 43 3e 6b b4 8e bd 44 34 c0 3d 19 06 ad bd
       0.19131072 -0.06968006 0.09384969 -0.08448429
000040 03 7e c0 bc 85 37 19 3e 93 22 52 bd 9d e2 10 3e
       -0.023497587 0.14962585 -0.051302504 0.14148946
000050 51 6a c0 3d e1 dc d8 bc 2d 70 85 3d fb bf 54 bd
       0.09395278 -0.02647251 0.065155365 -0.0519409
000060 71 9f 0d 3e aa 98 d6 3d 33 4d 80 bd 64 e8 15 3c
       0.13830353 0.10478337 -0.062647246 0.0091496445
000070 3f b5 92 bc 2d b2 c3 bc 11 0a 62 bd ef d4 81 3d
       -0.01790869 -0.023888672 -0.05518538 0.06339442
000080 f2 1d c4 3c f9 d6 7f be d1 50 71 be cd 2c 12 3d
       0.02394006 -0.2498435 -0.23565985 0.035687257
000090 6c 5d a4 bd 7e 73 13 be 2d 11 7c be 32 dc e5 bd
       -0.08025631 -0.14399526 -0.24615927 -0.112236395
0000a0 47 ed 3a be 81 15 45 bd 40 22 59 be 88 77 11 3b
       -0.18254577 -0.04811621 -0.21204472 0.002219649
0000b0 84 b2 13 be bf 41 2f 3e 35 ba 14 bd 96 fc cd bd
       -0.14423567 0.17114924 -0.036310393 -0.100579426
0000c0 49 5a 91 3d ce 1f 1d bd 15 e3 20 be d1 3f bb 3d
       0.07097299 -0.03836041 -0.15711625 0.091430314
0000d0 21 05 a0 be f8 19 62 bd c4 bd 14 3b a5 69 10 bd
       -0.31253913 -0.055200547 0.0022696117 -0.035257
0000e0 ff 00 81 bd 0e f2 1a 3e 73 bf 6d 3d c8 84 a3 3d
       -0.06299018 0.15131399 0.05804391 0.079843104
0000f0 a4 1f e8 bc 7f b8 89 be cb 55 7c be 07 05 87 be
       -0.0283354 -0.26898572 -0.24642102 -0.26371023
000100 93 34 10 3e 18 83 05 3e e7 c5 83 bd 81 b4 1b 3d
       0.14082555 0.1303829 -0.06434231 0.03801394
000110 82 56 d8 bd 00 16 76 bb c4 12 cc 3d cb 0f 2b bd
       -0.10563375 -0.0037549734 0.09964517 -0.04176311
000120 1e 78 5f bd c1 be 91 3d 8b 2f 98 bd 6f 61 3b 3d
       -0.054557912 0.071164615 -0.07430943 0.045747217
000130 84 0a c3 bd 7b 4c ce bc a9 25 22 bd c9 9c d6 bd
       -0.0952349 -0.025182953 -0.039586697 -0.10479123
000140 8a 1f a0 bd 56 14 f4 bd a1 25 fc 3d 01 6f bb bc
       -0.078185156 -0.11917941 0.12311865 -0.02288008
000150 7d 84 7e 3d e7 d9 80 3d c7 ea df 3d 49 bf fe bd
       0.06213807 0.062915616 0.10933452 -0.124388285
000160 f8 97 ec 3d 72 15 cb bd 0d e2 68 3d 51 5f d9 bd
       0.11552423 -0.099162 0.056856204 -0.10613883
000170 cf 29 bc bd fc c8 02 3e d6 38 ab 3c 8d 4c 82 bd
       -0.09187662 0.12771982 0.020901125 -0.06362257
000180 71 9e 46 3e 64 0c 32 3d d7 af 8a 3d 48 65 74 3c
       0.19396378 0.043468848 0.0677182 0.014916725
000190 79 da d4 3d e9 33 09 3e ff 31 95 3d 8f 4a e7 bd
       0.10393233 0.13398708 0.072849266 -0.11293518
0001a0 bc cd e0 bd 40 b0 d1 3d 15 45 14 3d 4f 31 b3 3d
       -0.10976741 0.10238695 0.036198694 0.08749639
0001b0 71 30 27 3e 5b 29 82 bd 86 11 0b 3e 57 ef c6 3d
       0.16327073 -0.06355544 0.13580903 0.09713619
0001c0 8e 39 d2 3d 82 fa c1 3d 88 d5 21 3d 84 65 d4 3c
       0.10264884 0.09471609 0.03951028 0.025927313
0001d0 45 20 60 3e ce c8 49 3b 0f e2 42 3d f1 7b a1 3b
       0.2188731 0.0030789855 0.047578868 0.004928105
0001e0 d9 a8 55 bd e0 b1 0f 3e d0 ec be 3d 6d d7 40 bd
       -0.05216298 0.14032698 0.09322512 -0.047080446
0001f0 74 69 fa 3d d2 2e 4a 3e 8b 82 85 3c db 81 33 3d
       0.12227145 0.19744423 0.0162976 0.04382501

bias_hh_l0 f4 [128]
000000 ff d4 78 bd 50 2d 9a 3d 85 d6 e3 bd f8 5d e1 3d
       -0.060750004 0.07528174 -0.11124901 0.11004251
000010 24 98 12 3d 2d 8e 8e bd 95 b0 7d bd 1b 3a f6 3c
       0.035789624 -0.06960712 -0.06193598 0.030057004
000020 91 65 a0 3d 64 83 4b 3e c1 fb 6b 3b 25 7e 66 3c
       0.07831872 0.1987434 0.0036008211 0.014068161
000030 ed 70 40 bd 98 fa 65 3e a1 a3 09 3e 7d 84 9b 3d
       -0.046982694 0.22458875 0.13441326 0.075936295
000040 4a 3b e2 bd 33 99 11 3e 84 85 16 be 22 17 c7 3d
       -0.11046465 0.14218597 -0.1469937 0.09721209
000050 dc 6d 77 3e 2e f2 1d 3e ee db bf 3d 77 75 4a 3c
       0.24163002 0.15424415 0.0936812 0.012357107
000060 d7 b1 23 3d df 9c b7 3d 16 b5 32 3c 42 d2 a8 bd
       0.039964523 0.08965468 0.010907432 -0.082432285
000070 d0 d8 cb bd ef 1d 08 bd 5c d8 6a 3c 69 9f e8 3d
       -0.09953463 -0.033231672 0.014333811 0.1135853
000080 d6 bf 84 bd c0 1f 65 be 4d 04 05 3b 5b 8c 2e be
       -0.06481902 -0.22375393 0.0020296753 -0.17045729
000090 77 95 69 3e a0 66 9a 3c f7 7b d7 bd 96 9d 83 be
       0.22810923 0.018847764 -0.10521691 -0.25706166
0000a0 50 95 e0 bd 52 af d5 bd aa be 45 be e5 89 71 bd
       -0.10965979 -0.1043383 -0.19311014 -0.058969397
0000b0 e0 8b 16 be 37 c6 07 bc a4 a1 8e 3d ae b6 4e bd
       -0.14701796 -0.008287004 0.06964424 -0.050467186
0000c0 28 0b 75 bd 81 ab d9 bd 98 da 03 be 12 06 b8 bd
       -0.059825093 -0.10628415 -0.12876356 -0.08985533
0000d0 17 ae 2c be 71 3a 5f be 6c 18 62 be 58 86 81 bd
       -0.16863285 -0.21799637 -0.22079629 -0.06324452
0000e0 13 7c 88 be 12 17 21 be 4e 2f 48 be 2a e1 9c 3c
       -0.2665716 -0.15731457 -0.19549295 0.019150335
0000f0 bf a7 67 bd f8 a5 0f bd 8d 29 ea bd 0c 57 1a 3d
       -0.05655646 -0.03507039 -0.114337064 0.03768067
000100 11 da 11 be 2f b6 0d be ab 8c d8 3d a2 51 90 bc
       -0.14243342 -0.13839029 0.10573705 -0.01761705
000110 d6 a6 1a 3e 9a 03 ea 3c 85 25 b1 bd 19 05 a8 3b
       0.15102705 0.02856617 -0.086497344 0.005127561
000120 be 8f b1 3d 78 f0 b7 bc 3d 3b 5b 3d 85 1b 81 3d
       0.08669995 -0.022453532 0.05352329 0.06304077
000130 56 0f af 3d a7 01 29 3d 8e 36 f0 bd 93 d9 29 3d
       0.08547847 0.04126134 -0.117291555 0.04146726
000140 ee c3 71 3c 0a 56 fc 3d da ec 46 3d 96 0c 19 be
       0.014756186 0.12321098 0.048565723 -0.14946207
000150 e3 39 c2 bd d3 62 21 3b 90 7b 09 be 16 51 fd 3d
       -0.09483697 0.0024625554 -0.13426042 0.123689815
000160 31 d9 fb bd 21 4b d4 3b 21 09 75 3d f9 a9 0e 3c
       -0.12297285 0.0064786826 0.05982316 0.008707517
000170 24 b4 a4 bd 01 8c 1a be 45 13 6f bb 39 5e 25 3d
       -0.080421716 -0.1509247 -0.0036479991 0.04037306
000180 fa a2 a1 3d 9c 0f 36 3e 8b 01 b5 bd bb 0a 78 3e
       0.078924134 0.17779392 -0.08838185 0.24222843
000190 5e 68 4f 3e 5e 17 19 3d ba f8 8a 3e d4 66 4a 3e
       0.20254657 0.0373758 0.27142888 0.19765788
0001a0 cd b2 27 be 62 76 ff 3d 08 10 8e 3e 82 55 28 3e
       -0.16376801 0.124737516 0.27746606 0.16438869
0001b0 83 a4 33 3e cb bc 04 3e f2 fe 63 3d 4b 0a d7 3d
       0.17543225 0.12962644 0.055663057 0.1050001
0001c0 0c 19 f8 3d 65 57 2c bd 85 13 14 3e a7 ce c7 bd
       0.12114152 -0.042075533 0.14460571 -0.09756213
0001d0 94 49 3a 3e 7a d5 46 3e a5 23 4c 3e 5e d1 0c 3e
       0.1819213 0.19417372 0.19935472 0.13751742
0001e0 e0 eb 0a 3e af 84 ed 3d 68 9f 14 3e 8a 6e 27 bd
       0.13566542 0.11597573 0.14513934 -0.040876903
0001f0 a6 a5 e7 bb fb 81 44 3e f8 6b 31 3d 04 6f 7a 3e
       -0.0070693074 0.19190209 0.043315858 0.24456412

weight_ih_l0 f4 [128, 2]
000000 84 5d db 3d 1f 8e a2 3d e2 0a 0b 3d 57 46 92 3d
       0.10711196 0.07937264 0.033945926 0.071423225
000010 5c 27 19 3e 13 32 83 3c 9a 33 1b be fb fd 8d 3c
       0.1495642 0.016015088 -0.15156403 0.017333021
000020 71 db 9d bd 83 1a 96 be de 32 c6 3d d0 7b 12 3e
       -0.07707871 -0.29317102 0.09677671 0.14305043
000030 af 3b d9 bd 00 bc 06 3e 27 24 91 be db 74 ea bc
       -0.10607087 0.13157654 -0.28347895 -0.028620174
000040 06 b6 0b 3e 1a b5 16 be cd 4b 25 be 93 b4 2c 3d
       0.13643655 -0.14717522 -0.16142197 0.042164396
000050 fd 18 83 bd 29 99 90 3b 95 bc 14 3e d6 a2 86 bd
       -0.064012505 0.0044127894 0.14525063 -0.06574027
000060 48 0a 54 3d 82 fc 83 be 26 73 93 bd 5e 42 98 bc
       0.051767617 -0.25778586 -0.07199697 -0.018586334
000070 67 80 6b be 8f 38 97 3d 52 8b 79 bd f8 e8 64 3d
       -0.229982 0.073838346 -0.06092388 0.05588624
000080 7e 41 36 be bc d3 2b 3e 73 a7 b0 3b 0a a0 90 3e
       -0.17798421 0.16779989 0.0053910553 0.282471
000090 b1 cc 4e 3d f9 8f 6d 3e 5e 2e 06 3e 9c 95 02 3e
       0.050488178 0.23199452 0.13103625 0.12752384
0000a0 2a ad 98 3e 9c 17 b9 bc 48 e8 44 3e 9b c1 e2 3e
       0.29819614 -0.022594266 0.19229233 0.44288334
0000b0 11 cb 4c 3e 18 4a 90 3e 69 d4 e4 be d9 87 30 3e
       0.19999339 0.2818153 -0.44693306 0.17239322
0000c0 2e ab 40 bd fe d8 54 3d d2 ae a3 3d ab ad 3d be
       -0.04703825 0.051964752 0.07992329 -0.1852328
0000d0 1f 48 21 bd 0b 02 6f 3e d2 5d 77 be 64 2c 17 be
       -0.03937542 0.23340623 -0.24156883 -0.14763027
0000e0 1b 6e 61 bd dc ee 24 bd 5b 26 63 3d 8b 48 a3 3e
       -0.055036645 -0.040266857 0.0554565 0.31891283
0000f0 82 23 9d 3e dc 96 99 bc b6 2f cd 3c 9f 95 a5 be
       0.30691153 -0.018748693 0.025047164 -0.32340714
000100 03 d9 eb 3c e6 da 34 be aa 90 99 bd a0 d7 7e be
       0.028790003 -0.17661628 -0.074982956 -0.24886942
000110 cf ec 3e bc 61 00 f2 3c 57 12 c2 3d 01 73 92 3e
       -0.011653139 0.029541196 0.09476154 0.28603366
000120 f9 90 6a 3e c2 91 a5 3d af e5 be be 5a 1e 4d 3e
       0.22906865 0.08084442 -0.3728461 0.2003111
000130 0f af 07 bf d5 ff 03 3d 2d 22 9a 3e ce fe d5 3d
       -0.53001493 0.032226402 0.301042 0.10448991
000140 3e 41 8b bd d1 63 b7 bd fd f0 12 bd 4d 60 9c be
       -0.06799553 -0.08954585 -0.035874356 -0.30542222
000150 1d 31 01 be 26 70 ef bd a3 ef 3e be 0a 6b 09 3e
       -0.12616391 -0.116913125 -0.18646102 0.13419738
000160 58 08 cb be dc 9b 7c bd 67 18 c9 3e 98 81 c8 3e
       -0.39654803 -0.061672077 0.3927643 0.39161372
000170 0d d2 5a be a2 7d 82 be ea d0 01 3e de f1 a7 3c
       -0.2136919 -0.25486475 0.1267735 0.020501073
000180 ed b2 da 3d 70 33 8c bc 6c 54 9d bc 5f c0 81 be
       0.10678659 -0.017114371 -0.019205295 -0.2534208
000190 78 18 01 3e 36 5a 0e 3f be 92 d5 be 49 16 ff 3d
       0.1260699 0.556064 -0.41713518 0.124554224
0001a0 b8 27 b6 be 51 b1 2a be 4a 6e 49 3e 33 ab 0d 3e
       -0.35577178 -0.16669203 0.19670978 0.13834839
0001b0 4d 0e 94 3d f1 5d ca 3e ee c4 2d bd 03 68 03 bf
       0.0722929 0.39524797 -0.042424135 -0.51330584
0001c0 32 dc 87 be 9e 5a 3a be d7 44 7d 3e cc 11 b9 3d
       -0.26535183 -0.1819863 0.24733292 0.090365976
0001d0 71 24 53 3e dd d1 54 be 4c 29 01 be 37 d8 8e 3e
       0.2061937 -0.20783181 -0.1261341 0.27899334
0001e0 0b 39 1b 3d 92 4b a5 be a8 72 56 be 1f f6 05 3f
       0.037896197 -0.32284218 -0.20942175 0.52328676
0001f0 2b d2 80 3e 2a fc 74 bd 93 af 71 3c b1 1c 92 3e
       0.25160345 -0.059810795 0.014751333 0.28537515
000200 cd ef 08 bd a3 52 5e 3e 3c a9 75 be 96 f5 a3 be
       -0.033431817 0.21711211 -0.23990339 -0.32023305
000210 a6 45 7b be 72 53 84 be 42 d0 ad bd 0e 27 9f be
       -0.24538288 -0.25844914 -0.08486988 -0.31084484
000220 b0 e9 8e be 23 29 4c 3e 63 ee 1e 3e 23 58 c2 be
       -0.27912664 0.19937567 0.15520625 -0.37957868
000230 26 26 38 bd df 0d a8 bd 30 64 96 3e 46 a7 eb bd
       -0.044958256 -0.08205771 0.29373312 -0.11506514
000240 8f 44 0e 3f 2c 50 39 3e bb c6 d1 bb 79 79 29 3f
       0.5557336 0.1809699 -0.0064018643 0.6620098
000250 93 b1 8d 3e df c8 da 3e 4a e5 01 bf e6 ca 83 3e
       0.2767454 0.42731377 -0.5074049 0.25740737
000260 f1 e1 a2 be 3b ee b6 bc 17 cb 7b 3e 39 ed 51 3e
       -0.31813005 -0.022330394 0.24589191 0.2050065
000270 dd eb a8 be a9 54 df be ed a9 ae be 92 ec 4d 3e
       -0.3299245 -0.43619278 -0.34114018 0.20109776
000280 25 52 e2 3c 85 0f 29 3e ce 32 e5 be f2 3c a9 3e
       0.02762706 0.16509826 -0.44765323 0.3305431
000290 05 01 1d 3d b2 78 ef 3e be 3b 8e 3e 71 36 fd bd
       0.03833105 0.4677177 0.27779955 -0.123638995
0002a0 ef 06 88 be aa 5d c7 bc 75 7d d6 be fe 43 8c 3e
       -0.2656779 -0.024336655 -0.4189259 0.27395624
0002b0 78 85 c0 bd 0f 65 e9 be f3 a4 db 3d 31 72 31 bd
       -0.09400457 -0.45584914 0.10724821 -0.043321792
0002c0 82 80 5b 3e bd 65 76 3e d2 c4 13 be dd bf 8c 3e
       0.2143574 0.24062248 -0.1443055 0.2749013
0002d0 a2 8a 0a bf 8d 84 86 3e fe b1 88 3e 91 ab 2b 3e
       -0.54117787 0.26273003 0.26698297 0.16764666
0002e0 f7 a3 d4 3e 1e 59 57 3e 64 d8 0d 3e 72 6b 4a 3d
       0.41531345 0.2103009 0.13852078 0.049418874
0002f0 25 50 8d 3e 37 71 2d 3e b2 e4 03 be 7a 6a cb be
       0.27600208 0.1693772 -0.12880209 -0.39729673
000300 06 b2 cc bd d2 6e 24 be 69 52 06 3e 69 1d 95 3c
       -0.09994893 -0.160579 0.13117374 0.0182025
000310 0d f7 ee 3d 00 35 8f bd e9 03 5e 3e c9 da d1 3d
       0.11668215 -0.06992531 0.21681179 0.10246808
000320 92 6d cd 3b 6e 8b 57 be c9 11 62 be d8 c5 4f 3e
       0.0062691653 -0.21049282 -0.22077097 0.20290315
000330 f3 23 a7 be 29 bd 12 be 17 1c 7b bd d6 b0 c3 bd
       -0.32644615 -0.14329971 -0.061306085 -0.09555213
000340 42 a2 3e bd eb 01 b9 3d d0 3d 61 be 97 18 b4 be
       -0.04654146 0.09033569 -0.21996236 -0.3517501
000350 ac 5f cd 3d 9d a7 4b bd b8 20 fc 3d ff 6a 11 bd
       0.100280136 -0.049720395 0.12310928 -0.03550243
000360 dc 29 a9 3e 31 89 0b 3e a4 08 34 3e 34 93 60 3e
       0.3303975 0.13626553 0.17581421 0.21931154
000370 3c 8f 1b be d7 81 07 3e 92 b4 32 3d 85 fc a6 bc
       -0.15191358 0.13233124 0.043629237 -0.020384083
000380 3e 0f a2 bd 76 27 e0 3d 14 31 a1 bd 1f ad 1f be
       -0.079130635 0.109450266 -0.07870689 -0.15593384
000390 bc 98 f7 bc c7 2a 87 bd 0e 2f 4a 3e 82 4a 92 3e
       -0.030224197 -0.06599956 0.19744512 0.2857247
0003a0 42 75 a0 3d 07 26 b2 bd f0 13 89 3b 94 e7 e9 3e
       0.07834865 -0.086986594 0.004183285 0.45684493
0003b0 94 fc 2a 3e 53 08 36 3e e4 08 19 be da 5b 8b be
       0.16697913 0.17776613 -0.14944798 -0.27218515
0003c0 76 f2 34 3e 92 27 92 3d df e9 17 3e 55 fe 69 be
       0.17670617 0.07136454 0.14835308 -0.22850926
0003d0 d0 bb 12 3d 41 2f 41 be 5f da 0f 3d b1 93 6e 3d
       0.035823643 -0.18865682 0.035120364 0.05824632
0003e0 41 97 c7 bc 03 39 c1 bd d1 f8 08 be b6 57 80 3e
       -0.024364116 -0.09434702 -0.13376166 0.25066918
0003f0 f0 32 31 3e 67 ae 41 bd 72 93 17 3e d2 4f 68 be
       0.17304587 -0.047285464 0.1480234 -0.22686699

weight_hh_l0 f4 [128, 32]
000000 88 e4 72 bd 5b d5 86 3d c9 01 05 be ce 75 68 3d
       -0.059299976 0.06583663 -0.12988962 0.056752972
000010 8d c5 46 3d 70 3c 87 bd b5 68 41 be 4e 40 33 bd
       0.048528243 -0.066033244 -0.18887599 -0.043762498
000020 dc e2 3b be 37 0c 5d bd 43 7a 9b 3d 6b d2 45 3e
       -0.18348259 -0.053966727 0.07591679 0.1931855
000030 ca a2 1a 3e c8 30 23 3e 65 34 8a bd f9 a1 a4 bd
       0.15101162 0.15936577 -0.06748275 -0.08038706
000040 bd a7 d5 3d a9 6a 07 3c f5 9e 85 3e 5b f1 e0 bd
       0.10432384 0.008265176 0.26097837 -0.10983535
000050 1c 65 d5 3d e3 81 25 be bf 9b 95 be c2 c4 ea 3d
       0.10419676 -0.16162829 -0.29220387 0.1146331
000060 63 78 6c be 42 51 7c 3e 74 a4 33 be 42 a4 2a 3e
       -0.23092799 0.24640372 -0.17543203 0.16664222
000070 ba d8 eb 3d 72 87 2c be 1c 9a f0 bd b7 a0 b5 bc
       0.11515947 -0.16848543 -0.11748144 -0.022171361
000080 50 10 9e 3c 0e 55 f6 bd a7 3f af be 60 2f 15 be
       0.019294888 -0.12027942 -0.3422825 -0.14568853
000090 66 25 fc 3d 46 08 d8 3b 3c 67 9e be ce 55 6f bd
       0.12311821 0.006592783 -0.30938137 -0.05843144
0000a0 b9 57 4c 3e 54 b2 42 3e 03 2a d2 3e 57 e0 18 3c
       0.19955339 0.1901334 0.41047677 0.009330831
0000b0 d7 c2 9c bd 5c d5 df 3e 32 a2 0f bd c9 8a 21 be
       -0.0765435 0.43717468 -0.03506679 -0.15775599
0000c0 fc 2d 9f 3d d1 f3 25 3e 93 c9 b6 3e c5 82 c7 3d
       0.07772443 0.1620629 0.35700664 0.09741739
0000d0 19 35 29 3e 94 c0 82 be a7 37 ab bd f7 48 11 3e
       0.16524161 -0.2553755 -0.08360224 0.1418799
0000e0 36 e3 aa 3d b7 cb f4 bc b9 c1 1b be 52 fd d8 bb
       0.08344118 -0.029882295 -0.15210618 -0.006621995
0000f0 a9 ad 86 3d 69 6e 2a 3d ff 04 e2 3d 6d 68 de be
       0.06576092 0.0416092 0.11036109 -0.43439046
000100 2a d8 df bd 3b b9 6b 3e 10 f0 0f 3e 91 30 53 bd
       -0.10929902 0.23019879 0.1405642 -0.05155999
000110 45 38 85 be e7 43 fd bd b4 7a 0e be 02 04 90 3d
       -0.26019493 -0.12366467 -0.13913995 0.070320144
000120 f8 aa e9 b9 c1 80 7f be aa 89 2d be e1 0a df 3c
       -0.00044568605 -0.2495146 -0.16947046 0.027226867
000130 5e 3a d4 3d e4 c4 dc 3e 03 5a 7c 3e 72 02 4f bc
       0.10362695 0.43118966 0.24643712 -0.01263486
000140 f9 51 80 3d 38 06 02 3d 57 b3 bb 3c c8 38 83 be
       0.06265635 0.031744212 0.022912664 -0.25629258
000150 e4 e3 99 3d 24 da 0a be c4 74 e2 bd 77 05 5a 3e
       0.0751417 -0.13559777 -0.110574275 0.21291147
000160 6e 5d 8e be d5 3b a2 3c 23 23 87 be a1 7b 64 3e
       -0.27805656 0.01980392 -0.26393995 0.22312786
000170 08 72 82 be a7 e6 64 bd 5e 9e 73 3e dd bf 00 bf
       -0.25477624 -0.05588403 0.23790881 -0.5029276
000180 44 a9 13 3e 78 b8 aa bd bf a9 bd 3d 9e 29 80 bd
       0.14420038 -0.08335966 0.09260892 -0.06257938
000190 d8 6e b4 3d a5 af a0 3d 11 2a 4e 3e 47 7e 1c 3e
       0.08810204 0.078460015 0.20133235 0.15282546
0001a0 6a 7f d9 3e 27 7c 15 3e e5 97 a3 3c 63 e5 dd 3c
       0.42480022 0.14598142 0.01996989 0.02708692
0001b0 21 8e 95 3d 31 0b 6d bd 5a 48 9b bd 18 69 b5 bd
       0.073024996 -0.057872 -0.07582159 -0.08857936
0001c0 03 b5 f5 bd 8c 95 8f be 7f 4b 41 bd fb 74 af bd
       -0.11997416 -0.28043783 -0.04719114 -0.08567234
0001d0 f9 9a 9d bd 97 a1 1f 3e af 50 b2 3d 4a f6 d4 bc
       -0.07695574 0.15588985 0.087067954 -0.025996346
0001e0 54 6b bb 3c bb 0f 8a 3e ab a2 c5 bd 10 7c ac 3e
       0.022878326 0.26965126 -0.09650167 0.33688402
0001f0 e3 2b 1a ba 72 85 25 be 12 97 25 3e 36 0e ca bd
       -0.00058811734 -0.16164187 0.1617091 -0.09865992
000200 e2 6a 7c be 73 cf 9e 3d 31 05 1c 3e 9a 14 71 3e
       -0.24650148 0.077544115 0.15236355 0.23543015
000210 13 20 ec bd cc 6e ef 3e 48 f0 af 3e d8 98 88 3d
       -0.11529555 0.4676422 0.34363008 0.06669778
000220 e8 c5 9f 3e 48 8c 09 3c 2e 10 75 be 46 e5 90 bd
       0.31205678 0.008395262 -0.23931953 -0.070749804
000230 dc 72 b1 bd f0 b4 e2 3d ba d3 8e 3e 42 0f 66 bd
       -0.08664486 0.11069667 0.2789591 -0.056166895
000240 98 f3 b4 be ea 16 2f bf 77 b4 8d be f7 40 3d 3e
       -0.35342097 -0.6839434 -0.27676746 0.18481813
000250 65 2e 8a 3d 20 9e 58 3d f1 b7 06 3f c0 07 55 bd
       0.0674713 0.052885175 0.5262442 -0.052009344
000260 51 e9 36 be d5 27 de 3d 77 10 d8 be 7d 9e 42 3e
       -0.1786244 0.10847441 -0.42200062 0.19005771
000270 4c fb 07 be 69 af 11 3e 39 3b a4 3d a4 a9 dd 3d
       -0.13279456 0.1422707 0.08019108 0.10823372
000280 65 68 b1 bd 29 79 a0 bd 73 95 9b be 57 69 68 be
       -0.0866249 -0.078356095 -0.30387458 -0.22696434
000290 0a 4a 0d 3e f1 8d 0e 3e 94 2c 24 be e7 31 88 3e
       0.13797775 0.13921334 -0.1603263 0.26600572
0002a0 df 5c bf 3e d6 e2 a8 be f8 31 a7 bd 2a 65 9a 3e
       0.37375543 -0.32985562 -0.08163828 0.30155307
0002b0 24 6a bc 3d 50 83 35 3d e0 c8 4a 3e 8d 06 1f be
       0.09199932 0.044314682 0.1980319 -0.15529843
0002c0 5c ab 6e be 98 1c 18 be 32 17 a2 bc 5b 39 e2 3d
       -0.23307556 -0.14854658 -0.019786451 0.11046096
0002d0 d6 83 b2 bd d4 35 83 be c9 72 17 be f6 6f 6d 3e
       -0.08716552 -0.25627005 -0.14789881 0.23187241
0002e0 ef 51 e0 3d 5d d9 89 3e bd d8 3d bd 1a 74 a7 3e
       0.109531276 0.26923648 -0.046349276 0.32705766
0002f0 35 96 ec bc bc b2 af be 80 25 e6 3e 14 8a e0 bd
       -0.028880218 -0.3431605 0.44950485 -0.10963836
000300 31 95 94 3e 91 14 7c be 54 40 ca be 4a 77 82 be
       0.29020074 -0.2461722 -0.39502203 -0.25481635
000310 14 b8 3b 3e 1f 28 81 be 74 78 a4 3c ab 1c 2f 3e
       0.18331939 -0.25225922 0.020076968 0.1710078
000320 17 de 98 3e 4e 1a 8a 3e 41 94 e1 3e 52 b2 04 bc
       0.2985694 0.26973194 0.4405842 -0.0080991555
000330 b7 fb f4 bd ea 45 97 3e 2b 98 e6 be 63 9f 3e be
       -0.11962073 0.29545528 -0.4503797 -0.18615489
000340 1d 17 c3 3c 0e 66 89 3e 4d 0e a7 3e 64 60 92 bc
       0.023814732 0.26835674 0.32628098 -0.017868228
000350 9d 3d 10 3d 44 bd 85 3e 41 0c dd be 34 c1 81 bb
       0.03521501 0.2612096 -0.4317341 -0.003959799
000360 de e9 3d 3e 7b 4f 6e 3d 7d 69 5d be 54 56 0f bd
       0.18546245 0.058181267 -0.21622272 -0.03499444
000370 4f ef cd 3e 44 fc 2b be 26 42 8b 3c ef 10 84 bd
       0.4022164 -0.1679545 0.016999315 -0.06448542
000380 f8 e0 67 3e 05 c9 05 3e 88 a6 dc 3e 8f 5b 68 3d
       0.22644413 0.13064964 0.43095803 0.056727942
000390 25 1f 4a 3e 34 85 bf be 3d 3e 73 3e 5f f1 79 bd
       0.19738443 -0.37406313 0.23754211 -0.061021205
0003a0 29 2d 2e bf 7f af e7 bd 13 da 9d be ff e5 98 3e
       -0.6803766 -0.1131277 -0.3083044 0.29862973
0003b0 65 8c 39 3f f2 c7 13 be 12 ec 8a 3d 73 0a 97 3e
       0.7247985 -0.14431742 0.06783308 0.2950016
0003c0 61 ab 0c 3e e2 de b9 3e 82 e8 10 be df 5b e8 bb
       0.13737251 0.3630286 -0.14151195 -0.00709103
0003d0 d8 e1 d2 3c 4f 1b e7 3d 65 c8 50 bd 67 aa 1f be
       0.025742456 0.112845056 -0.05097236 -0.15592347
0003e0 95 da db 3c b7 7b 2b bd 2f 2e 00 3f 0c a7 fa 3d
       0.026837626 -0.04186603 0.5007047 0.12238893
0003f0 7e 31 2a be 69 47 75 3d e9 f6 01 bd 55 4e e9 3d
       -0.16620442 0.059882555 -0.031729612 0.11391894

bias_ih_l0 f4 [128]
000000 47 f8 c5 bc 4a 98 7a bd 41 01 d1 3d b4 1e ba 3d
       -0.02416624 -0.06118039 0.10205317 0.090878874
000010 ee 57 01 3c 07 c5 1d 3e d5 20 26 3e 1f e5 d5 bd
       0.007894499 0.15407191 0.16223462 -0.10444092
000020 7d 1f 32 3d 9b 0c 0f 3e f1 64 7f bd 3e 1d db bd
       0.04348706 0.13969652 -0.062352125 -0.10698937
000030 50 cf 24 3d f3 2e 31 3e e8 bf 2c be 72 f0 f5 3c
       0.04023677 0.17303066 -0.16870081 0.03002188
000040 30 95 8a 3c ac c4 2c 3e f8 37 8b 3e c7 f0 20 bd
       0.016916841 0.168719 0.27191138 -0.039292123
000050 f8 c5 4d 3e 49 00 6f bd 21 ab c4 bd cb 98 c3 bd
       0.2009505 -0.05834988 -0.09602953 -0.09550627
000060 9c 8e 19 bc 5d 09 32 bd 10 cc f4 3d fe 97 af 3c
       -0.00937238 -0.04346596 0.11952984 0.02143478
000070 ea 60 02 3e 25 18 a0 3d 18 1f 72 3e e0 dc 90 3d
       0.12732282 0.07817105 0.23644674 0.070733786
000080 55 eb 2b 3e a8 0f 06 be 67 ba f9 bd 64 5f f6 bd
       0.16788991 -0.1309191 -0.121937566 -0.12029913
000090 49 22 ba 3c fd af e2 3d 6e 7c b6 3d a9 b3 6d 3e
       0.022721427 0.11068723 0.08910452 0.23213066
0000a0 15 98 4e 3e 3e 55 a7 3e 05 b6 b3 3d ca cf 6d 3e
       0.20175202 0.32682222 0.08774952 0.23223796
0000b0 6b 1a c2 bd be 8f 20 3e 12 3f be bc ae ce 95 bd
       -0.09477695 0.15679833 -0.023223434 -0.07314812
0000c0 c7 cf 49 bd 26 d4 8b 3e 8a 2d 99 3e 31 00 1f 3e
       -0.049270418 0.27310294 0.29917556 0.15527417
0000d0 dd 3c 10 3e 11 fa 02 3e 34 d4 f0 bd 9a fc 1f 3d
       0.14085717 0.12790705 -0.117592245 0.03905926
0000e0 8a 30 eb bc dd 6c bb 3d 58 1b 22 3e b1 63 50 3e
       -0.028709669 0.091516234 0.15830743 0.20350529
0000f0 3c bf 2b be 04 9e cb 3d c1 39 71 3c 95 85 97 3b
       -0.16772169 0.099422485 0.014723242 0.0046240785
000100 88 7b 57 be 12 20 81 3e 9b 34 3b 3e 5a a8 0f be
       -0.21043217 0.2521978 0.18281786 -0.14029065
000110 96 08 0c 3e 12 66 4b bd 85 d5 59 3e 91 a2 4b 3e
       0.1367515 -0.04965789 0.21272857 0.19886233
000120 7e e8 c3 3d a2 55 15 be 6c b6 bc 3e 8c 36 6c 3d
       0.09565829 -0.14583448 0.36857927 0.057669207
000130 15 68 1b 3e 14 5d bd 3e 4c c4 02 3e 1b a0 9e be
       0.15176423 0.36985075 0.12770194 -0.30981526
000140 0c da d6 be 24 d7 13 be 67 0c a8 3e 1d b9 a9 bd
       -0.41963232 -0.14437538 0.32821962 -0.08287261
000150 91 28 47 3e 1a 85 9b be 07 15 36 bd eb 18 86 3e
       0.19449069 -0.30374986 -0.044453647 0.26190886
000160 59 da 96 be 22 df 4d 3d c3 95 0e 3e 77 72 b4 3d
       -0.2946346 0.050261624 0.13924317 0.08810895
000170 08 e8 e1 be 6b da 6c 3c a3 af 0e be 7b 65 22 bf
       -0.44122338 0.014456372 -0.13934188 -0.63436097
000180 a2 9d c1 bb 91 21 2e 3e c6 da 67 3e 1e a7 fc 3d
       -0.005908684 0.17004992 0.22642049 0.123365626
000190 45 25 28 3e cc 69 7f 3e 9b 68 88 3e f4 b7 d6 3d
       0.16420467 0.24942702 0.26642308 0.10484305
0001a0 e3 56 8c 3d 60 22 a9 3e 34 94 9d 3d e0 88 d9 bd
       0.0685251 0.3303404 0.07694283 -0.1062181
0001b0 76 f8 6e bd 80 0e 6d 3e 3b e9 90 3d c8 fc 8e 3d
       -0.05834242 0.23150063 0.07075735 0.06981808
0001c0 0a 04 03 3e a0 77 32 bd a0 18 7d 3e fb 91 0d 3e
       0.1279451 -0.043571115 0.24716425 0.13825218
0001d0 e8 5c aa bc 87 46 06 3e f6 ea 1c 3d 1d e9 ba bd
       -0.020796254 0.13112842 0.038310014 -0.09126494
0001e0 e9 af 67 3e 7d 2e 15 3d 88 b2 ae 3e 74 dc 44 bd
       0.22625698 0.036421288 0.34120584 -0.048061803
0001f0 52 dc b2 bd dd 92 4b 3d 0b d5 37 3e ea 1c c2 b8
       -0.08733429 0.049700607 0.17952363 -9.2560265e-05

bias_hh_l0 f4 [128]
000000 34 ca 51 3e 34 11 4b 3e d4 0e 04 3d c1 d9 9f bd
       0.2048729 0.19830781 0.032240704 -0.07805205
000010 f2 bf d0 3d ff 8d 77 3e a2 d1 ac bd f3 da ba b9
       0.10192861 0.24175261 -0.08438422 -0.00035639814
000020 1c 31 fa 3d 50 e9 58 3e 3c 21 12 3e 14 6a d0 3d
       0.12216398 0.21182752 0.1427049 0.10176483
000030 19 07 27 3d 11 b1 3a 3e 27 26 78 3d 0e 16 a6 3d
       0.040778253 0.18231608 0.06058326 0.08109675
000040 c8 cb 0b bd 54 7e b7 3d 8c 07 3a 3e 3e 8d ac bd
       -0.034129888 0.08959642 0.18166941 -0.08425377
000050 9b f5 52 3e db 3d 51 3d 81 1d 4b 3e d5 09 2d be
       0.20601504 0.05108438 0.19835474 -0.16898282
000060 44 53 ee bd d5 a9 01 be 60 90 ab 3d 72 11 99 bd
       -0.116369754 -0.12662442 0.08377147 -0.074740306
000070 56 d7 1c 3e 77 ac d1 3d f0 da c3 3d 0d 32 cc 3d
       0.15316519 0.10237973 0.095632434 0.09970484
000080 a0 f6 09 3d 70 83 b8 3d 80 3c 02 3b 36 2e 82 bc
       0.033682466 0.09009445 0.0019872487 -0.015891176
000090 19 b7 07 3d 8f 1b 66 bd f7 45 0b bd a1 e9 6c bd
       0.0331336 -0.056178626 -0.03400227 -0.057839993
0000a0 4b 51 75 bd b0 ae 17 3e 47 4e d2 3b c6 84 01 3e
       -0.05989198 0.14812732 0.006418023 0.12648305
0000b0 03 d9 4b 3d e4 f7 2d 3e bd fa 37 be 61 9a 16 be
       0.049767505 0.16989094 -0.17966743 -0.14707328
0000c0 5d 0f 95 3c de 1b 55 3c 97 df 1d 3e a3 b3 02 bd
       0.018195802 0.013007132 0.15417324 -0.031909596
0000d0 56 76 08 3e 5a 03 51 3d fe 2f df 3c 25 3d de bd
       0.13326392 0.051028587 0.027244564 -0.10851506
0000e0 1d 12 8c bb dc b1 0b 3e 7e 61 8d 3d 20 26 7d bc
       -0.00427462 0.13642067 0.06903361 -0.015450984
0000f0 84 b7 fb 3c 2c 28 be bd 55 a8 d6 bd 33 ef 39 3e
       0.030727156 -0.09285006 -0.104813255 0.18157654
000100 9c 21 ff bc e1 4f 8a 3e 94 28 c1 bb c6 5d db bd
       -0.031143956 0.27014068 -0.00589473 -0.10711245
000110 06 4b 57 3e 87 78 80 be f1 bd 0b 3c fc f2 4a 3e
       0.21024713 -0.25091955 0.008529172 0.19819254
000120 95 08 29 be 7b 56 9d 3d b9 45 96 3e 10 f5 28 3e
       -0.1650718 0.076825105 0.2935007 0.16499734
000130 7a 35 e7 3d d8 ad e2 3e ab a2 d6 3d 4c ea 4f be
       0.11289497 0.44273257 0.10480245 -0.20304221
000140 c0 55 a9 be cc 8c db 3c 90 63 38 3d 2c a4 78 3c
       -0.33073235 0.026800536 0.045016825 0.01517586
000150 7b 40 77 3e c9 2c 86 be 9d 71 b2 3d 15 53 4a 3e
       0.24145691 -0.26206043 0.08713076 0.19758256
000160 37 03 6c be 24 ac 8b 3e 8d 07 85 bd c6 7e d5 3d
       -0.23048101 0.2727977 -0.06495581 0.10424571
000170 a8 06 17 bf 17 40 c6 bc c5 7b af 3d 6a 5d 50 bf
       -0.5899453 -0.024200482 0.08568529 -0.8139254
000180 d4 56 84 3e c9 86 15 3e 8f d8 00 3e bf 61 12 be
       0.25847495 0.14602198 0.1258261 -0.142951
000190 a8 0e 13 bc 75 76 86 3e 81 1b 44 3e 5b da 36 3e
       -0.008975662 0.2626225 0.19151117 0.17856734
0001a0 de 8d e4 3d 50 a6 af 3e e4 a4 b5 3c b0 fe ae bd
       0.111598715 0.34306574 0.022173353 -0.085446715
0001b0 7b b0 4e bd d1 aa b9 3d c4 c6 0b 3e 29 06 30 3e
       -0.050461274 0.09065784 0.13650042 0.1718985
0001c0 c1 54 8d 3e 32 b8 72 3c 13 88 ce 3c 8c 03 fd 3d
       0.27603725 0.014814423 0.02521137 0.12354192
0001d0 ca 7f 1b bd f6 ac 71 bd 38 fe 22 3e cd 34 48 3e
       -0.037963666 -0.05900284 0.1591729 0.19551392
0001e0 b1 3d cf 3d e9 25 26 3e d8 a6 04 3e 37 a2 0c 3e
       0.101191886 0.16225399 0.12954271 0.13733755
0001f0 b3 b2 40 3e 13 65 ef 3d c5 b2 d5 3d 25 56 84 3d
       0.18818168 0.116892 0.10434488 0.06461743

weight_ih_l0_reverse f4 [128, 2]
000000 99 6a 4a 3e dc 43 02 3e c0 17 aa 3c b5 47 90 39
       0.19767226 0.12721199 0.020763278 0.00027519246
000010 19 03 1b be 6a ab 56 be 9a a7 a3 3e 8d f3 8a 3e
       -0.151379 -0.20963827 0.31963807 0.2713894
000020 de 9e 1d be bb 29 23 bd 4f 40 f0 bc b1 56 14 be
       -0.15392634 -0.03983472 -0.02932754 -0.14486195
000030 c2 a6 87 be c7 83 e0 be c2 b7 8d 3e d0 0c ca be
       -0.26494414 -0.43850538 0.2767926 -0.394629
000040 02 34 7a 3e 1a dc 53 bf da 2a a5 be 96 4c bd 3e
       0.24433902 -0.82757723 -0.32259256 0.36972493
000050 ea e4 d2 be b2 20 a2 3e 53 42 bb 3e 55 7c f3 bd
       -0.41190273 0.3166557 0.3657404 -0.11888949
000060 05 a1 d6 be 96 f0 af bd 38 cb ea be 51 42 62 bd
       -0.41919723 -0.0859081 -0.4585817 -0.055239026
000070 06 86 2a 3f d9 fc f2 be d3 b8 ce 3e 0c 74 e2 3d
       0.66610754 -0.47458532 0.40375385 0.110572904
000080 e8 db b5 bd 73 35 01 be 84 b2 41 3e 33 55 f6 3e
       -0.088798344 -0.12618046 0.18915755 0.48111877
000090 cf 63 4e 3d da c6 71 be 92 18 af 3d 49 54 28 3e
       0.050388154 -0.23611012 0.08549608 0.16438402
0000a0 7f e8 a6 bc 76 59 36 3e 4c 0d 01 3f 07 c0 b1 3e
       -0.020374535 0.17807564 0.50410914 0.34716818
0000b0 c2 1b 32 be d4 80 02 3e 72 32 de bd e0 c9 8e bd
       -0.17393401 0.12744457 -0.108494654 -0.06972098
0000c0 31 b8 69 bf 19 90 87 bd 7f 8d 2e bf 32 8a ba be
       -0.9129668 -0.06619281 -0.68184656 -0.3643356
0000d0 5a dd 08 bf f7 81 59 be 60 a3 ca bd 76 c9 30 3e
       -0.53462756 -0.21240984 -0.098944426 0.17264351
0000e0 96 ae 9f 3e b3 66 6d be 1e e0 32 be 8c 1c e8 3d
       0.31187886 -0.23183708 -0.17468306 0.1133357
0000f0 01 d7 51 be 9d 78 04 3e f5 dd ed be c6 f6 f0 be
       -0.20492174 0.12936635 -0.46458402 -0.47063273
000100 50 b6 3c 3e 5b 5a c1 3e 02 76 7e 3d 8f 9c 1f bd
       0.18428922 0.37764248 0.06212426 -0.038967665
000110 b0 bd 74 be 81 8a 86 be 93 8e e3 3d de 26 45 3e
       -0.23900485 -0.26277545 0.11111178 0.19253108
000120 29 9a 3b be 2a d5 bf bc 81 ac a7 3e a2 d7 8d bd
       -0.18320526 -0.023417074 0.32748798 -0.06925894
000130 56 ca d6 be be 7a c8 be ec 06 9e 3e 16 6d 2e be
       -0.41951245 -0.39156145 0.30864656 -0.170338
000140 67 0b 84 3e 2e 8f b8 be be c9 34 be 6b 0b 24 3e
       0.2578995 -0.36046737 -0.17655084 0.1601998
000150 db 86 15 3d 37 fd 91 3d 06 8a 82 3e df 37 c5 bd
       0.03650556 0.07128375 0.2549593 -0.09629797
000160 39 1a 2b be 59 b7 7a bd 88 50 47 be 24 c5 3b bd
       -0.16709222 -0.06121001 -0.19464314 -0.045842305
000170 92 8a b8 3e 3c 12 bb be 1a f1 cc 3e 27 2b 01 3e
       0.3604322 -0.3653735 0.40027696 0.12614118
000180 ec d5 3c bd e8 54 ca bd 13 5b 30 bd 1f d8 d9 3e
       -0.04610245 -0.09879476 -0.043055605 0.425477
000190 c5 b5 81 bd 52 72 17 be 1f ea b1 bd 85 36 fd 3d
       -0.06333498 -0.14789703 -0.08687233 0.123639144
0001a0 0c 8c 60 3d 51 fa 23 3e 9d c5 8a 3e cc a0 da 3d
       0.05482106 0.16013457 0.27103892 0.10675201
0001b0 5e 92 b6 bd a6 f8 85 bd 2d 14 ea be 58 7d 44 be
       -0.08914636 -0.065415666 -0.45718518 -0.1918844
0001c0 e6 9b e4 be b2 54 c5 bd 1b 62 4f be 37 ca ba be
       -0.4465019 -0.09635295 -0.20252268 -0.36482403
0001d0 69 0a 50 be c1 d3 47 be 6a 5d 2c 3d b6 56 8e bd
       -0.20316471 -0.19514371 0.042081274 -0.069501325
0001e0 20 0b b9 3d 8e 1e 4b bc 41 d6 e6 bd 57 08 f3 3d
       0.09035325 -0.0123974215 -0.112713344 0.11866825
0001f0 92 85 2c be 6d ab 1d 3e bc 0e 03 3e 7c 69 f3 be
       -0.16847828 0.15397425 0.1279859 -0.47541416
000200 31 49 9f be 5c 4c 88 be 35 3b 14 3e 5c cf c9 3e
       -0.31110528 -0.26620758 0.1447571 0.39416015
000210 83 43 5c 3e 9d 04 05 3e 5a 22 af be 1c b6 82 be
       0.21510129 0.12990041 -0.34205896 -0.25529563
000220 cf 98 64 3e 56 7c c5 3e e2 52 84 3e 61 f0 ab bd
       0.22323917 0.38571423 0.25844485 -0.08395458
000230 8f d0 92 be b9 6b d0 be 9f fb c6 be 69 46 77 3e
       -0.28674743 -0.40707186 -0.38863847 0.24147953
000240 e6 99 a3 bd b8 64 3a bf 51 25 35 be cb 7a ef 3e
       -0.07988338 -0.72809935 -0.17690016 0.4677337
000250 99 29 b6 3e 94 31 53 be c8 e4 e0 3e 51 f4 b1 bd
       0.35578611 -0.20624381 0.43924546 -0.08689178
000260 5a 3d ba 3e b1 3a 9d 3d 0b 55 e9 3e cc d5 e9 bd
       0.36374933 0.0767721 0.45572695 -0.11417732
000270 2f 87 07 3e bb 76 d0 be c3 2b 79 3e 00 65 11 3d
       0.13235162 -0.40715584 0.243331 0.03549671
000280 36 79 70 bd 7d 51 db 3e 82 d6 76 3e af 5b 38 3f
       -0.058709346 0.42835608 0.24105266 0.720149
000290 a6 7c 10 3e 7d f0 c7 be cf 6d e7 be d3 4a 68 3e
       0.1411005 -0.39050665 -0.45200965 0.22684793
0002a0 9a 17 a5 be ae 62 61 bd 1c 00 af be ab 56 f3 bd
       -0.3224457 -0.05502575 -0.3417977 -0.11881765
0002b0 28 99 b0 be 87 d9 42 3e 98 1f 4b 3e 24 df 8b 3e
       -0.3449185 0.19028293 0.19836271 0.2731868
0002c0 65 4a 04 bf cf a0 7d 3e d9 15 cc 3e 52 ab b3 3e
       -0.5167602 0.24768375 0.39860418 0.35091645
0002d0 39 b7 bf be a6 32 2c be 09 06 2f be b3 aa 9a be
       -0.37444475 -0.16816196 -0.17092146 -0.30208358
0002e0 28 9f ce be c9 1b 80 3e 15 63 b4 3e b9 60 43 3d
       -0.40355802 0.25021198 0.35231844 0.047699664
0002f0 61 88 78 3e ff 5c a6 be 8e d6 eb 3d 97 b3 b2 be
       0.24270774 -0.32492825 0.115155324 -0.3490264
000300 eb df 5b 3e 69 7e fe 3d cf e5 28 3d 36 91 b9 bd
       0.21472137 0.124264546 0.041234788 -0.090609
000310 9e 43 08 bd 86 c2 5d be 99 bc 7d be 28 0b a5 bd
       -0.03326761 -0.21656236 -0.24778976 -0.080587685
000320 f9 15 97 be 92 a3 d2 3d 18 04 a7 bd b0 4b ef 3c
       -0.2950895 0.10285105 -0.08155078 0.029210895
000330 91 e6 d0 be 91 95 99 be bb 20 d0 3e 84 d7 e2 be
       -0.40800908 -0.29996923 0.4064997 -0.4430505
000340 fd 79 e3 bd 5f 5c 34 bf 7a 57 0c be e1 8c 56 bb
       -0.11107252 -0.7045345 -0.13705245 -0.003273778
000350 82 fe 6b be 09 77 10 3e b4 87 ed 3e 1f c2 51 be
       -0.23046306 0.14107908 0.46392596 -0.20484208
000360 23 10 85 be 68 40 72 be 7b a2 9a be 3c da 2e 3e
       -0.25988874 -0.23657382 -0.30202088 0.17075437
000370 70 26 6b 3f c7 9c 0e bf 96 32 a7 3e 0e 14 26 3c
       0.91855526 -0.55707973 0.32655782 0.010136617
000380 b5 c5 08 3e f3 44 65 3a d1 7f 30 3c c6 41 2c 3e
       0.13356669 0.0008745931 0.010772661 0.16821966
000390 4c 17 1f bd 8e 7a 26 bd e7 60 5b bc fd af 88 3e
       -0.038840577 -0.04064422 -0.013389803 0.26696768
0003a0 ed e8 16 3e 62 eb 62 bd 86 cf 9b 3e 0b 50 f9 3e
       0.14737292 -0.05540026 0.30431765 0.4869388
0003b0 83 bf d1 3c 91 f4 0c bd 7e f2 a8 be 10 d8 29 bd
       0.025604015 -0.034412924 -0.32997507 -0.04146582
0003c0 d5 1a da be bc aa 18 3d 40 51 46 be 94 bd d6 be
       -0.42598596 0.0372722 -0.19366932 -0.41941512
0003d0 6f 9f 42 bf f0 4d 28 be 97 70 a2 3d 47 0e 46 3e
       -0.76024526 -0.16435981 0.07931631 0.19341384
0003e0 9a 8e 2a 3f 90 3a af be c2 0b 68 be 28 61 1a be
       0.6662384 -0.34224367 -0.22660735 -0.15076125
0003f0 2f f4 d1 bd 24 5e 1a 3e 23 f2 3d be 82 e9 31 be
       -0.102516524 0.15074974 -0.18549399 -0.17374232
