experiments/pedestrians/models/models_14_Feb_2024_17_26_50_eth_vel_ar3/model_registrar-38.pt (torch, 527902 bytes, 43 tensors)

weight_ih_l0 f4 [128, 6]
00000000: d650 a03d 8866 be3d c7cd 40be 9a34 3fbd
00000010: 4863 51bd 54e1 893d cf89 4abe 914d bbbe
00000020: 9d85 ccbd 690d 493e 2a77 1c3d 2fa0 85bd
00000030: b373 c13c 7ff2 78bc 8610 8ebe d66b 21be
00000040: 4c28 78be 64e7 813d 0bd3 103e a022 423e
00000050: fc4a b53d 56aa 543d 54e2 b83d ce7c 963c
00000060: bf89 f3bd 0cf3 9d3d 91bc fabd 7b47 e6be
00000070: 5868 193f d062 8fbf 1326 383e f6bc d63d
00000080: 2753 343e 640e 4f3d 426d a53e 0a0a 8bbe
00000090: 7478 cfbe 7045 e33d 01ce 233e 7253 24be
000000a0: 38aa 863d 1064 5bbe 34d8 b3be 69b6 9ebc
000000b0: 6eaa c73e 8a1a a2bc 1a0d 813d a765 a33b
000000c0: 3ff2 763e 4868 663e e18a dc3e 97b1 93be
000000d0: 6b0e ad3e 9a63 2abe 2b9b 8ebd 59b3 82be
000000e0: 4483 9bbc 3b6b a33e 91a1 a73d 2c9d b2bd
000000f0: 8ee5 0c3e 853b 70be 52ff c4be 9356 833e
00000100: 11ce b9bd 0ee2 723d 6aee 303c d597 3a3e
00000110: a721 02bf 49a0 46be a6bd 28bf a87e 78be
00000120: ffc8 cf3c c0a1 acbd e0a9 5ebe bb9b 073e
00000130: aacb 1b3e 3d32 6abd 73ef 03be c20b c63c
00000140: a5b9 ba3e 2cdd 8d3e e9b4 c93e 31fe 983e
00000150: 19bd fa3c 72dc 65bd e48d 28bf 37eb 8e3d
00000160: 4c90 f1be c72d 24bd 333e 89be 6bf8 053e
00000170: da1d c63e 9379 d53d 0bc6 29bd c6ad 8d3e
00000180: 7016 833e d2bd 66bd fd65 e3be 6808 b93e
00000190: 3be0 e4be e8e3 503d e5d9 f53d b9a1 54be
000001a0: 75ff 1ebe d661 0f3e 36a7 44bc 0805 ba3d
000001b0: 769c 323e 0048 4fbe 0327 77be 2ba3 f83e
000001c0: d925 9dbd aca9 1d3f 4d31 443d 46d2 db3c
000001d0: 8d45 aebe 3d66 af3d 85dc b0bd 7290 b63e
000001e0: 8227 b9be 8d8a 873e ac03 c63e ec3e 86be
000001f0: f203 903e 7c19 a53c c651 163d d9ff 563e
00000200: b3c4 363d 2e0a 07be 7707 b13c 5727 a23d
00000210: f9f0 07be 982c b1be bb5c 903d 1825 973d
00000220: e081 a63e 91f8 ce3c d376 5fbd 3729 643d
00000230: 6a5f d43d e53d dfbd 3c10 b03b 4033 b73c
00000240: 7100 f23d 2de3 5cbd ad6e 71be b5c3 afbd
00000250: 8dae 50be 6620 59be e39b 9ebe 902e d4bd
00000260: 09fc fa3c 9a1a 283e 17d4 f03d 3931 c93d
00000270: 9106 03bd 2651 543e 85a6 09bf e414 e4be
00000280: d0c2 b0be 9372 dfbd 4678 59be 06c2 4c3d
00000290: abb2 2c3f 8740 0b3f 9621 0b3f 9f15 313f
000002a0: 8f68 353e 4e3a 52ba 2e58 97be 7064 173e
000002b0: bdec 833d 48f5 813e aec8 b5be aac6 2e3d
000002c0: 2429 f43c 136c 7ebe 8b03 3f3e 8024 76bc
000002d0: 3c21 f4bd 401e 8fbd 352c 863e 425e 483d
000002e0: f7a7 e1bd 6514 59be fb8d dcbd 1b6e a93d
000002f0: af4a 663d e32e 013d a482 61be 7cbc b0bd
00000300: 935d 023e 2735 123e 437f 1bbe 0b32 08be
00000310: f878 3ebe 1345 48be 7e90 373b 8eb4 f4bd
00000320: 07f8 d53c 4c49 b03d a11f 353d f79f aabd
00000330: e103 cbbd 781a 0dbd e575 50bd 9ac2 67bc
00000340: caae 80be 8f60 843d f459 c03d 8d12 973d
00000350: 16e5 b53d b260 f9bd 9c2b 5fbd 285f bf3c
00000360: f59b 673d ea14 55be 4dea 363e 7937 edbd
00000370: c1a7 06bd 310d 2d3c b2f1 173e 0f36 babc
00000380: 83b8 da3d bbd6 48be 1247 95be 1a51 923c
00000390: 7d02 c5bd b3a5 063d 5238 2d3e 149c c7bd
000003a0: c7e0 e6bd 335d 5cbc 8eef 1abe 787f 6dbe
000003b0: 85b2 7e3e 698c 7b3b d1c0 2cbd bac1 2fbd
000003c0: 0335 8d3e d5ad e93c 04d4 97bc 2a16 20be
000003d0: 659e 9fbd 0946 98bc d73d 42be db99 53bd
000003e0: 803f 893e 1b5b d63d a2ad 353e 274b b13d
000003f0: 1883 0d3e 157b 9dbe 6349 16be 20b9 543e
0.07827918 0.092969 -0.18828498 -0.046681024 -0.051120073 0.06732431 -0.19779132 -0.36582616
-0.09986422 0.19634022 0.03819958 -0.06524693 0.02361474 -0.015194534 -0.2774698 -0.15763792
-0.24234122 0.063429624 0.14143007 0.18958521 0.08852193 0.051920258 0.09027544 0.018370058
-0.11891507 0.07712373 -0.122429974 -0.4497641 0.5992484 -1.120203 0.17983274 0.1048526
0.17609845 0.050550833 0.3230992 -0.27156097 -0.40521586 0.110972285 0.15996553 -0.16047457
0.065754354 -0.2142489 -0.35125887 -0.01937409 0.38997215 -0.019788045 0.06301327 0.004986483
0.24115847 0.22500718 0.43074706 -0.28846428 0.33800063 -0.16639557 -0.0696319 -0.25527456
-0.01898349 0.31917748 0.08185113 -0.087213844 0.13759443 -0.23460205 -0.38476044 0.25651988
-0.09072507 0.059297614 0.01079903 0.18221982 -0.508326 -0.19397081 -0.6591438 -0.24267066
0.025364397 -0.08429289 -0.2174449 0.13243 0.1521441 -0.057176817 -0.12884311 0.024175528
0.3646976 0.27707803 0.39395836 0.29881433 0.030607747 -0.056118436 -0.6584151 0.069784574
-0.47180402 -0.04008272 -0.26805267 0.13083045 0.3869465 0.10423579 -0.041448634 0.2767164
0.25603056 -0.05633337 -0.44413748 0.36139226 -0.44702324 0.0509986 0.12004451 -0.20764817
-0.15527137 0.14002165 -0.012002757 0.09082991 0.17442498 -0.2024231 -0.24135976 0.48561987
-0.076732345 0.61587024 0.04789858 0.026833665 -0.34037438 0.08564422 -0.08635811 0.35657078
-0.36162955 0.26472893 0.38674676 -0.2621988 0.2812801 0.020153753 0.03669908 0.20996036
0.04462118 -0.13187477 0.021610005 0.0791766 -0.13275518 -0.34604335 0.07048937 0.07380122
0.32520962 0.02526501 -0.05455668 0.055703368 0.10369761 -0.10900477 0.005373029 0.022363305
0.118164904 -0.05392759 -0.23577376 -0.0858225 -0.20379086 -0.21203765 -0.30978307 -0.103604436
0.030637758 0.16416398 0.11759203 0.098238416 -0.031988684 0.2073408 -0.53769714 -0.44547188
-0.3452363 -0.10910525 -0.21237287 0.049989723 0.67460126 0.54395336 0.54348123 0.69173616
0.17715667 -0.00080195523 -0.29559463 0.14784408 0.064416386 0.25382447 -0.3550467 0.04266993
0.029804774 -0.24845915 0.18653695 -0.015023351 -0.119204015 -0.069881916 0.26205602 0.048918016
-0.11018365 -0.21199186 -0.10769268 0.08272954 0.056223568 0.031538855 -0.22022492 -0.086297005
0.12731008 0.14278089 -0.15185265 -0.1330034 -0.18600833 -0.195576 0.0028009708 -0.119485006
0.026119245 0.0860773 0.044219617 -0.08331292 -0.09912849 -0.03444907 -0.050893683 -0.014145518
-0.25133353 0.064637296 0.09392157 0.07376585 0.08881585 -0.12176646 -0.05448495 0.023360804
0.056545217 -0.2080876 0.17862816 -0.11582846 -0.032874826 0.010562227 0.14838293 -0.022730855
0.10679724 -0.19613163 -0.29155785 0.017860938 -0.09619615 0.032872867 0.16916016 -0.097465664
-0.112733416 -0.013449955 -0.15130445 -0.23193157 0.24872787 0.0038383252 -0.04217607 -0.04290936
0.27579507 0.028525272 -0.018533714 -0.15633455 -0.07793883 -0.018588083 -0.18968903 -0.0516604
0.2680626 0.10466596 0.17742017 0.08656912 0.1381954 -0.30757967 -0.14676432 0.20773745

weight_hh_l0 f4 [128, 32]
00000000: 8eba d9bb 6ae6 54be 1428 d73b f5f8 df3d
00000010: 98cc 04be 6060 8fbc 9675 1bbd dc55 18be
00000020: 7990 483d 7486 703e 7b48 d4bd 2dad f63d
00000030: 4ac4 06be 61a9 473e 9b24 2f3e aedb f23d
00000040: 3a5c 463e aab9 fdbd fa44 ddbd 0fe8 883c
00000050: 1d4e 52be 8bb4 08be 9f21 8dbd 98bf 8ebe
00000060: 3831 923e 2619 ca3d 6f01 babc ca76 ca3e
00000070: c661 5e3e 13b8 cc3b 29f7 1f3e 36db c3bd
00000080: 9596 083e d9a9 73be 338b d43d a6d5 a2bd
00000090: 7d49 a33c d9cd 523e 0ce3 b73c bdf2 55be
000000a0: 6df5 e13d 2d68 b03d 7f32 a7be 0b0b d9bd
000000b0: ea3c 8dbe 0493 453e 6400 0a3e f06e acbd
000000c0: f597 4f3e 6619 e43d a82a 73be 9f37 a53d
000000d0: 7ea5 a6bd 206f dabd 6fd0 20be 67df 13be
000000e0: 1ce7 e73d 005c 073e 615b 23be 1f3a 7a3d
000000f0: b662 2e3d c222 0e3d d743 5e3e 8ea9 a7bd
00000100: efbf f43d 2ac7 29be 42ae e2bd b56d ec3d
00000110: aa0c b43d f89c 303e 2154 2ebe 95df 42be
00000120: e5a0 64bc b3b7 803e df88 9ebe b140 983d
00000130: 0bf9 8dbd 0dc3 dcbd a291 083e eaf4 96bd
00000140: b1f9 e13d ee53 fbbd c121 b33d fe50 02be
00000150: e532 d33d cc64 863d 9303 573d e8a3 2b3e
00000160: 1f1d 8f3e c33e 163e 64d8 273e 4f7d 3e3e
00000170: e26d 203e 35d1 e23d b447 f6bc 550d 033d
00000180: 48cd 26bd 69ce 37bd a7a5 fcbc 5ed6 943d
00000190: 04de b2bd e2e1 3e3d 7765 b5bd 00a7 3e3d
000001a0: 555b e5bc ee63 383e b7d7 9ebe fb8a 14be
000001b0: f87b c2bd f969 acbd 6516 0abe f5f8 11be
000001c0: 026e 323d bce2 223d 9c69 59be 997b 84bd
000001d0: 65be 57bd 996f 40bc ba52 f53c 4af5 aabc
000001e0: f748 013e b51b f03d d465 82bd b633 3f3e
000001f0: cb2b 893c dce1 f63d baff 8e3e a3d0 85bd
00000200: 0abf 943d 193d 7bbd 3931 ba3e 72e3 083d
00000210: 09ae 123e 7ad8 15be ef20 6f3e d2a7 2c3d
00000220: 6bb3 fabc 2b64 5dbe b975 0e3d 45da 1abe
00000230: 46cd 0dbe d333 dcbc 0d08 253d 583e 63be
00000240: ece3 17be 4141 31be 2717 cabb 7111 733d
00000250: b8a5 27be 8a68 d43e 65b4 863e ae7a 8cbe
00000260: 6e71 59bd 6214 46be 3812 0dbe dc07 8abe
00000270: 1e9e 463d 1e95 62be 5c97 1c3d 11f1 323c
00000280: 31af ad3d fa38 3dbe 9444 d13d 0f81 04be
00000290: 7ed6 a6bd 76b0 83bd 74b1 163e 121b 6ebe
000002a0: 2b73 7dbd 598b 6d3d a4f2 053e ccf5 06be
000002b0: 2aa4 53be 944f 943d b9b5 0dbc 5ed2 81bc
000002c0: 2baa 293d e71a 583e df4b 6fbe 9ef0 393e
000002d0: 8ad1 3cbd 2615 84bd ffde e6bb 01ad 34be
000002e0: 01cb c73d b5ec 013d a3c2 1b3e 815b 5a3e
000002f0: b96e a03d 97e3 f139 d250 6a3e fd22 313e
00000300: 3854 143e dceb 51bd be07 3cbe 2851 183e
00000310: 5e32 fcbc 1891 76bd 5278 613e 64d6 9fbe
00000320: 520f 0abe 606c 283e a68d d9bd 3b2a 0dbe
00000330: 5c40 aebb 8ae1 963e f528 ae3d 18f1 953c
00000340: 6817 f83d e238 61bd cbdc e3bd 66fc 53bd
00000350: f698 98bd 721e 603e 5c6f 0b3e a8fd e3bd
00000360: b038 96bc 1bac 713e e5e2 e23d e5b8 483e
00000370: f351 acbd f14f c33c 4610 64bc 89db 0b3e
00000380: 71d4 fd3d 8667 81be 8a97 53b8 d008 d43d
00000390: fbaf 44be 89b2 1c3d 2c93 763e 6725 1fbe
000003a0: bda4 a6bc 8765 743c 6d74 5a3d d094 a8bd
000003b0: 590d 84bb b623 683c 2b27 093d da04 a93d
000003c0: 794a 173e 5be4 b93d fc06 52be f272 6c3c
000003d0: 1939 c1be d595 7b3d b634 cfbd 9484 96be
000003e0: 0f37 473e be83 c73e ef66 dfbd 1986 8b3e
000003f0: bb9d 0c3e 9baf 203c 445d 093e b87a 903e
-0.0066445535 -0.20791021 0.006566057 0.10936157 -0.12968671 -0.01750201 -0.037953936 -0.14876503
0.048965905 0.2348879 -0.10365387 0.120447494 -0.13160816 0.19498207 0.17103808 0.11858307
0.19371119 -0.12388928 -0.10804172 0.016712217 -0.2053761 -0.13350122 -0.06891178 -0.2788055
0.28553176 0.09868078 -0.022705762 0.39543754 0.21716985 0.0062475293 0.15621628 -0.095632955
0.13338692 -0.2379526 0.10378113 -0.079509065 0.019932503 0.20586337 0.022447132 -0.20893379
0.110331394 0.0861362 -0.32655713 -0.105978094 -0.27585536 0.19294363 0.13476712 -0.08419597
0.20272811 0.11137657 -0.23746741 0.080672495 -0.08137034 -0.10665727 -0.15704511 -0.1444069
0.113233775 0.13218689 -0.15952827 0.061090585 0.042574607 0.034701116 0.21705566 -0.08186637
0.11950671 -0.16579881 -0.11068393 0.115443625 0.08791478 0.17247379 -0.1702428 -0.19030602
-0.013954376 0.2514015 -0.309638 0.07434214 -0.06932267 -0.107793905 0.13336805 -0.073709324
0.11033953 -0.12271868 0.087466724 -0.12726209 0.10312442 0.06562194 0.052493643 0.16761744
0.27951905 0.14672379 0.1639114 0.18602489 0.15666917 0.11075059 -0.030063488 0.031995136
-0.040723115 -0.044874582 -0.030840708 0.0726745 -0.08733752 0.046602137 -0.088572435 0.046545982
-0.027997652 0.1800687 -0.31023952 -0.14506142 -0.094963014 -0.0841865 -0.13485105 -0.14255126
0.043561943 0.039767012 -0.21231693 -0.06468887 -0.05267181 -0.011745357 0.029946674 -0.020868916
0.1262549 0.11724035 -0.063670784 0.1867207 0.016744515 0.12054798 0.2792948 -0.06533935
0.07263 -0.061337564 0.3636568 0.033420034 0.14324202 -0.1463336 0.23352407 0.042152233
-0.030603131 -0.21620242 0.034780238 -0.15122326 -0.13847837 -0.02688018 0.04029088 -0.22191751
-0.14833039 -0.17310049 -0.0061673108 0.059342805 -0.1637181 0.41486007 0.26309505 -0.27437347
-0.05308669 -0.19343713 -0.13776481 -0.2695912 0.048490636 -0.22127196 0.038230285 0.0109217325
0.08480681 -0.18478766 0.10218158 -0.12939857 -0.0814638 -0.06430142 0.1471613 -0.23252514
-0.06187741 0.05799422 0.13080841 -0.13179702 -0.20668092 0.07241741 -0.008649283 -0.015847381
0.04142205 0.21104012 -0.23368786 0.18158194 -0.04609827 -0.06449346 -0.007045626 -0.17644121
0.09755517 0.031719882 0.15210967 0.21323968 0.07833619 0.0004613667 0.22882393 0.17298503
0.14485252 -0.051250324 -0.18362328 0.14874709 -0.030785736 -0.060196966 0.22018555 -0.31218255
-0.13482407 0.16447592 -0.106227204 -0.13785641 -0.005317731 0.29468948 0.08503906 0.018303439
0.121138394 -0.05498589 -0.11126097 -0.051754378 -0.0745105 0.21886614 0.13616699 -0.111323655
-0.018337578 0.2360081 0.11078433 0.19601782 -0.08414068 0.02384183 -0.0139198955 0.13657965
0.123940356 -0.25274295 -5.0447452e-05 0.10353243 -0.19207756 0.038256202 0.24079579 -0.15541612
-0.020342225 0.014916784 0.05333369 -0.08231509 -0.0040299115 0.01416867 0.03348462 0.082528785
0.14774503 0.090767585 -0.20510477 0.014431702 -0.37738875 0.061422188 -0.10117476 -0.29398024
0.19454597 0.389677 -0.10908305 0.27250746 0.13732044 0.009807493 0.13414484 0.28218627

bias_ih_l0 f4 [128]
00000000: 6843 a2bc a265 7d3d d42c bd3c 85f3 2cbd
00000010: e77e d3bd 1e24 333e 827d 0d3d ae1c 15be
00000020: 5734 9abb cc18 0d3d 3350 883e 0d2e 133e
00000030: 8df5 473e 8bb3 85bd 865f c73d 6d25 a5bd
00000040: e394 adbc 5635 1d3e e599 48bd 24e8 133e
00000050: f7a1 be3d ff84 0ebd 34ce 7e3d 8d9e 55bd
00000060: c30a 0f3e d66a db3d 52ab 78bd f6f3 123c
00000070: dbd2 7cbc fa1c d6bc 6119 57bd 5d11 6b3d
00000080: 8ec1 883c b93a 80be d9dc 6dbe 4066 253d
00000090: 5c1a d0bd 901c 0fbe c729 7bbe 2623 debd
000000a0: 4f27 37be 848a 2abd 42f2 52be ad8d ac3b
000000b0: 19fd 0cbe 4c87 293e f3e3 07bd 99ff c7bd
000000c0: 8ae1 983d 1399 22bd 56c9 18be fec5 c13d
000000d0: c49f 9cbe e907 56bd 7534 313b 0f74 0ebd
000000e0: c039 77bd e509 1e3e 181e 7c3d fa5d a33d
000000f0: f378 ccbc 21bf 88be ed73 79be 3bbc 85be
00000100: 97b4 0a3e 69e7 003e 9942 82bd e6f0 073d
00000110: 8b18 e7bd b277 fc3a 96ba cb3d 608b 2fbd
00000120: 4851 6cbd 2b7a 8d3d 7e57 9bbd 70d7 4a3d
00000130: ce8b c6bd 8429 e0bc b90f 35bd d914 dbbd
00000140: a29d 9dbd 90d5 eebd b713 063e 08e9 02bd
00000150: b3e2 803d dd35 803d 32dd da3d 943c fcbd
00000160: cb6a f43d 90c6 d5bd 72e8 713d 4dc1 ebbd
00000170: 3a50 c2bd c599 053e 2085 c03c e931 88bd
00000180: 5240 433e 07c6 2f3d 0125 8d3d d8bb c53c
00000190: 76d4 b73d 353c 083e 2228 893d 7819 e0bd
000001a0: b1bc debd a92a d23d 7988 2d3d e363 b23d
000001b0: a616 2c3e b262 7fbd 6224 0e3e 723c cd3d
000001c0: 0a89 d63d 909c c63d e6f6 253d 33e9 eb3c
000001d0: f5a1 5c3e 5885 8ebb c3bd 3a3d 2c3e 903b
000001e0: a12e 55bd bd01 123e 024b c53d c32a 48bd
000001f0: e4cb ff3d ab58 473e 6050 993c 14b8 1c3d
-0.019807532 0.061864503 0.023092665 -0.042224426 -0.10326939 0.17494246 0.03454352 -0.14561722
-0.0047059464 0.034447476 0.26623687 0.14373036 0.19527264 -0.06528386 0.097350165 -0.08063779
-0.021189159 0.15352377 -0.04897489 0.14444023 0.09308236 -0.034794804 0.06220837 -0.05215316
0.13968949 0.10713737 -0.06071026 0.008969298 -0.015431131 -0.026136864 -0.052514438 0.057389606
0.016693857 -0.25044802 -0.23228778 0.040380716 -0.10161278 -0.1397574 -0.24527656 -0.10846548
-0.17886089 -0.041636005 -0.20600227 0.0052659125 -0.13768424 0.16555518 -0.033176374 -0.09765548
0.07464893 -0.039696764 -0.14920554 0.09461592 -0.30590641 -0.052253637 0.0027039323 -0.03477865
-0.06035781 0.15433462 0.061552137 0.07976909 -0.024960017 -0.2670832 -0.24360628 -0.2612017
0.13545452 0.12588276 -0.06360359 0.033188723 -0.11283978 0.0019261746 0.09947698 -0.042857528
-0.057694703 0.06908067 -0.07585047 0.049521863 -0.096946344 -0.027363546 -0.044204447 -0.10697336
-0.07696082 -0.116618276 0.13093458 -0.031960517 0.062932394 0.062602736 0.10686721 -0.12316242
0.11934432 -0.104382634 0.059059568 -0.115114786 -0.09487958 0.1304694 0.023500979 -0.066501446
0.19067505 0.042913463 0.068918236 0.024137422 0.089760706 0.13304217 0.06697108 -0.10942358
-0.10875834 0.10262043 0.04236648 0.08710458 0.16805515 -0.062349983 0.13881066 0.10021295
0.10475357 0.09697831 0.040518664 0.028797721 0.21546157 -0.004349392 0.045591127 0.0044019427
-0.052046422 0.14258476 0.09633447 -0.048868906 0.12490061 0.19467418 0.018715084 0.038261488

bias_hh_l0 f4 [128]
00000000: a145 83bd fc8a 993d 9cb5 e2bd d83d f43d
00000010: d5e9 253d e039 8dbd 0c6f 89bd 42db 023d
00000020: 7bb9 a43d b120 4c3e de4a 203c 79da 9a3c
00000030: 7836 30bd 1a7b 6a3e 4339 0d3e 2865 a33d
00000040: 0481 ddbd 0497 153e 5d23 14be 5022 cd3d
00000050: 9b89 763e 776c 153e d5d2 b93d e1fa 463c
00000060: fc5e 293d 0b6f bc3d a571 523c db30 a9bd
00000070: e2c5 c6bd 4e53 11bd 744d 8b3c 3253 dc3d
00000080: e996 93bd 35be 65be 3301 b13b f5bd 29be
00000090: 04b7 533e 3d1e bd3c 42ad d5bd 58af 81be
000000a0: 5009 d9bd de69 c8bd ac8e 3fbe aa0f 65bd
000000b0: 75d6 0fbe e36d 63bc ce0c 953d 76bc 42bd
000000c0: a6fc 65bd 1c68 dcbd b381 f7bd e57f b1bd
000000d0: 42e3 25be e535 5cbe 90a6 61be 8b8b 80bd
000000e0: 1323 87be 3bff 1dbe 9e97 44be c745 9c3c
000000f0: 5ed4 59bd fdda 07bd d865 e4bd 5a9d 243d
00000100: 0e5a 17be de51 12be fa0f da3d abd8 b7bc
00000110: ca45 133e ed46 0c3d b47d b1bd 0628 843b
00000120: 1f23 ab3d da02 c9bc 61eb 543d 97d6 883d
00000130: 0d8e ab3d 1d13 203d 9cab f9bd 69e9 203d
00000140: 9be9 823c 6aca 003e 68f0 663d f658 22be
00000150: 7299 c0bd e2e2 0c3b 5502 0cbe bbd3 ff3d
00000160: 5e06 f4bd 55e2 a43a 830f 7e3d 3cb5 8cb9
00000170: 90da aabd 38bb 17be c161 89ba 9993 193d
00000180: c4e6 9a3d 067e 353e 5f8c b2bd f5bd 803e
00000190: 5fe5 403e ca38 153d 3af6 873e 57ff 4d3e
000001a0: 4aaa 26be daf0 ff3d 7338 913e ceee 273e
000001b0: ba8a 383e cff8 053e 4c4a 703d 6557 dd3d
000001c0: 8868 fc3d 3f13 23bd e31b 153e b4ed c1bd
000001d0: 43cb 363e 333a 3f3e 8e1a 4a3e 6a47 0c3e
000001e0: 770a 0b3e 6a24 f23d 7ece 173e e1c1 2ebd
000001f0: 1d7d 91bb d4ab 413e dd52 3b3d 85bc 743e
-0.06409765 0.07497212 -0.110697955 0.11925858 0.040506203 -0.068958044 -0.06710634 0.03194738
0.0804319 0.19934346 0.009783475 0.018903004 -0.043020695 0.22898522 0.13791375 0.079782784
-0.108156234 0.14608389 -0.14466615 0.1001631 0.2407593 0.14592157 0.09073416 0.012144775
0.04135035 0.09200867 0.012844478 -0.082612716 -0.09705712 -0.035479836 0.017004706 0.10758056
-0.07206518 -0.2243584 0.0054017543 -0.16576369 0.20675284 0.023085708 -0.10433437 -0.2532909
-0.10597479 -0.097858176 -0.18706769 -0.05592314 -0.14046653 -0.0138811795 0.07277833 -0.04754301
-0.056149147 -0.10762045 -0.12085285 -0.08666972 -0.16199973 -0.21504934 -0.22036195 -0.06276616
-0.26393947 -0.15429394 -0.19198462 0.019076241 -0.053181045 -0.033167828 -0.11152238 0.040189125
-0.14780447 -0.14289042 0.106475785 -0.022442183 0.14382091 0.034247328 -0.08666554 0.0040330915
0.08356308 -0.024537493 0.051982287 0.06681555 0.083767034 0.039080728 -0.12190935 0.039285097
0.015980532 0.12577215 0.056381613 -0.15854248 -0.09404267 0.0021497537 -0.13672765 0.12491556
-0.11915277 0.0012579659 0.062026512 -0.0002683791 -0.08342469 -0.14817512 -0.0010481403 0.037494276
0.07563546 0.17723855 -0.0871818 0.25144926 0.18837498 0.03643111 0.26555043 0.20116936
-0.16275898 0.12497111 0.2836338 0.1639969 0.1802167 0.13083194 0.058664605 0.10807685
0.12324625 -0.039813276 0.14561419 -0.094691664 0.17850976 0.18674545 0.19736692 0.13699117
0.13578211 0.11823352 0.14824864 -0.042665366 -0.0044399635 0.18913203 0.04573332 0.2390004

weight_ih_l0 f4 [128, 2]
00000000: 0239 d93d 3afc a33d 5916 2e3c ecc9 953d
00000010: 502f 173e 2171 2c3c 17f8 12be 5d66 b63c
00000020: 6f5b 8fbd 083c 93be f406 ab3d 5c10 1a3e
00000030: f451 d9bd 0bf4 f63d 3f76 89be 3119 1bbd
00000040: c92c f73d f625 1bbe 3b5b 10be 3bb2 163d
00000050: 4613 85bd b729 ce3c 231d 103e 85b6 6bbd
00000060: da1b e83c db33 77be 7d95 5cbd 7560 a9bc
00000070: fb78 63be 8629 943d 681b 94bd 7090 673d
00000080: 64ff 2ebe 33a4 2b3e 5baf d33c 38d3 8e3e
00000090: fa2c 853d e4fd 733e 23ab ff3d a608 0d3e
000000a0: 4011 913e 20ac c0bc ac45 323e f308 e13e
000000b0: cfb5 2e3e 1f3f 973e 7020 debe b229 243e
000000c0: 4e0b 4ebd 0f58 2d3d 1380 813d f8ca 1dbe
000000d0: d2a2 08bd 35ea 683e 32c6 81be a038 0ebe
000000e0: 6240 9cbd dc02 fcbc cf34 943d 9c01 a73e
000000f0: 3327 983e e074 04bd 00c1 a9ba f6cf 9bbe
00000100: f21f a93c d45c 30be ec47 a9bd 89cb 6fbe
00000110: e150 113c b2ec 9c3c 965c d03d e99d 883e
00000120: abf6 793e 14f9 2e3d 7455 acbe 5c7a 3d3e
00000130: c194 04bf 22dc 3d3d 4882 903e b2e9 d83d
00000140: a5f0 9ebd b47a c3bd 4389 05bc b169 98be
00000150: e560 f3bd 7ac7 e6bd e017 2dbe e457 053e
00000160: fbdf b4be 09e7 7bbd 5415 c13e 2fc0 c43e
00000170: 889b 52be 050e 76be ea2a e23d 04ba 4b3c
00000180: 82d8 db3d 6119 74bc 7607 f3bc 8f5b 72be
00000190: 8427 133e f04e 0d3f 8825 bdbe 8893 eb3d
000001a0: 88be a9be e0d4 2dbe 0317 433e ec81 223e
000001b0: c206 8b3d 9bc0 cf3e f623 8abd 8795 ffbe
000001c0: 599c 88be 1a7c 39be e5d6 603e f8bf b13d
000001d0: cf2b 433e 53fb 34be 1a35 f1bd 1799 873e
000001e0: 8380 1f3d 1ade 9cbe 947a 3dbe e731 053f
000001f0: fb7a 7d3e cf71 5dbd ef22 a53b 31db 8f3e
00000200: e926 00bd f563 5b3e f252 6abe 12fb a0be
00000210: b738 6dbe 1170 82be 0b42 b6bd dd02 9cbe
00000220: d9e0 8cbe 1f74 453e 80fb 1d3e 91cd bdbe
00000230: 8dbf 3ebd 5f24 b1bd 8a6e 923e d9d8 eebd
00000240: f3d0 083f dc49 3b3e 15b0 0bbc 5ec8 223f
00000250: f6f8 883e f062 d83e a8f2 f7be 41fa 7f3e
00000260: 40e3 99be 0db5 f7bc 83e3 783e 2802 513e
00000270: ee12 a2be 3459 d9be 3045 a9be 7965 483e
00000280: 6126 0a3d 402c 243e e163 e0be 1d5e a53e
00000290: 5768 1b3d 9eec ea3e 30b7 843e bc52 edbd
000002a0: af2e 85be 8804 00bd 7fcc d0be 0451 853e
000002b0: e921 cfbd ecf8 e0be 5224 c33d 2c63 2abd
000002c0: ff5b 5c3e a339 713e eb72 14be 1f83 883e
000002d0: b3f2 06bf cb15 7d3e d26c 883e f6be 273e
000002e0: 96d8 c93e 2ef5 533e 49b9 193e 1086 6c3d
000002f0: 6cb8 863e ff45 2b3e 1e7f 10be 2e75 bdbe
00000300: 5c43 cdbd 932e 20be dbae f33d 5cb8 b63c
00000310: 91a4 e63d 6179 a5bd e6e4 5a3e 40ad ce3d
00000320: 5bd5 473c 24b7 5abe 7a6b 59be 3d6a 4a3e
00000330: 7697 a1be 0fa2 14be 5625 82bd d57b c3bd
00000340: 8414 64bd cae7 b63d 2e85 56be 8ad5 b3be
00000350: e99a c43d 5fbf 11bd 819e 043e b5b8 1cbd
00000360: c34a 9f3e aeb6 0b3e 08ae 353e 2781 683e
00000370: 25ce 0dbe 5718 063e 13ec ac3c a2b0 91bc
00000380: e6fb 92bd 278f d83d ba58 91bd 28b1 17be
00000390: 6770 d7bc f9c6 7fbd d388 4c3e b7f4 8f3e
000003a0: efb4 9b3d 331a aebd aa15 a8bb 0b71 e43e
000003b0: 0332 263e a71d 453e 1ef7 1bbe 80ff 8abe
000003c0: 4679 313e a3a0 863d d4de 0b3e f5f4 51be
000003d0: dd90 0c3d 8456 31be af7d 113d d702 983d
000003e0: 0e89 1ebd 6c28 99bd e1bc e4bd 51c5 783e
000003f0: 8553 283e 451e 13bd 9093 093e ea19 60be
0.106065765 0.08007093 0.010625445 0.07313904 0.14764142 0.010525019 -0.14352451 0.022265607
-0.069998614 -0.28756738 0.083509356 0.15045303 -0.106113344 0.12058266 -0.26848027 -0.03786582
0.12069089 -0.151512 -0.14097302 0.036791068 -0.06497817 0.025166376 0.14073615 -0.05754711
0.028333593 -0.24140875 -0.0538535 -0.020675877 -0.22214119 0.072344825 -0.0723179 0.05653423
-0.17089611 0.16761856 0.025840452 0.27895522 0.06502719 0.2382732 0.124838136 0.1377283
0.28333473 -0.023519576 0.1740939 0.4395214 0.17061542 0.29540345 -0.43384123 0.1603153
-0.05030375 0.042320307 0.06323256 -0.15409458 -0.033358403 0.22745593 -0.25346524 -0.13888788
-0.076294675 -0.030763082 0.07236635 0.32618415 0.29717407 -0.032338023 -0.0012951195 -0.304321
0.020645116 -0.17222911 -0.08265671 -0.23417486 0.008869381 0.019155834 0.10173909 0.26682976
0.24410503 0.04271801 -0.33658946 0.18503708 -0.5178948 0.046352513 0.28224397 0.10591449
-0.07760743 -0.09544888 -0.0081504015 -0.29768136 -0.118837155 -0.11268516 -0.16903639 0.13021809
-0.35327134 -0.06149963 0.37711585 0.38427874 -0.20567143 -0.24028786 0.110433415 0.012434486
0.10734655 -0.014898629 -0.029666644 -0.2366774 0.14370543 0.55198574 -0.36942697 0.11502749
-0.33153176 -0.16975737 0.19051747 0.15869874 0.06788398 0.40576634 -0.0674514 -0.49918768
-0.26681784 -0.18113747 0.21956976 0.08679193 0.1905968 -0.17673998 -0.117777064 0.26483986
0.038940918 -0.306382 -0.18503791 0.5202927 0.24753945 -0.054063614 0.005039565 0.28096917
-0.031287108 0.2142485 -0.22883204 -0.3144155 -0.23166166 -0.25476125 -0.088993154 -0.30470935
-0.27515295 0.19282578 0.15427971 -0.37070897 -0.046569396 -0.08649515 0.2859996 -0.11662454
0.5344383 0.18289894 -0.008525868 0.63586986 0.26752442 0.42262983 -0.4842732 0.24997808
-0.3005619 -0.030237699 0.24305539 0.20410979 -0.31655067 -0.4245087 -0.33060598 0.19569959
0.033728007 0.16032505 -0.43826202 0.32298365 0.037941303 0.4588365 0.2592101 -0.11588046
-0.2601218 -0.03125432 -0.40781018 0.26038373 -0.1011389 -0.43939912 0.09528412 -0.041598484
0.21519469 0.23557143 -0.14496963 0.26662537 -0.5271408 0.24715345 0.26645523 0.1638144
0.39423054 0.20698997 0.15012087 0.05774504 0.26312578 0.1672592 -0.14110991 -0.37003464
-0.100226134 -0.15642767 0.118985854 0.022304706 0.11261857 -0.08079792 0.2137638 0.100916386
0.012196864 -0.21358925 -0.21232405 0.19767089 -0.31560868 -0.14514945 -0.063547775 -0.095451035
-0.055683628 0.08930929 -0.20949242 -0.35123855 0.09599859 -0.035582896 0.1295109 -0.038262088
0.31111726 0.13643906 0.17742169 0.22705518 -0.13848169 0.13095222 0.021108663 -0.01778442
-0.07176952 0.10574179 -0.070970014 -0.14813673 -0.026298715 -0.062445614 0.1997407 0.2811639
0.0760287 -0.08501091 -0.0051295357 0.44617495 0.16230015 0.19249593 -0.15230986 -0.27148056
0.17331418 0.06573608 0.13659221 -0.205036 0.03431784 -0.1731816 0.03552025 0.07422417
-0.038704924 -0.07478413 -0.11168838 0.2429402 0.1643811 -0.03591754 0.13435197 -0.21884885

weight_hh_l0 f4 [128, 32]
00000000: 74ba 73bd 60dc 863d 8db4 07be 38b5 5f3d
00000010: f786 523d e94b 73bd f4de 28be edf1 50bd
00000020: c9c6 32be 6b2f 48bd fe3d c03d 47d9 443e
00000030: cd6e 103e 61e0 233e f3ed 84bd acba abbd
00000040: 94c1 d83d 49d2 c03b 0934 883e eea1 cdbd
00000050: 3451 cc3d 3e9d 25be 3225 95be ea98 db3d
00000060: e691 6cbe 3d2d 803e 11da 32be 84de 273e
00000070: 0486 e93d 79c0 2abe 95d2 e1bd b0e5 cfbc
00000080: f52b a73c d115 f5bd 25bf aabe 39ac 15be
00000090: aedb 023e 5e55 ad3b 5749 90be e584 6cbd
000000a0: fcd8 443e 35e8 3f3e 0534 ce3e a2b1 0c3c
000000b0: 0e49 9abd b96e e03e e658 f6bc 01c2 14be
000000c0: 1622 a33d c6d4 243e 69c5 b93e c96c bf3d
000000d0: ec0a 283e 6dd0 7bbe b6d3 9bbd 0353 133e
000000e0: ea4d a63d 58e4 f5bc 8f4e 1ebe 1f62 29bc
000000f0: e82d 823d 32d5 3c3d 9298 e43d 1fde ddbe
00000100: a559 e2bd 6a94 683e 3948 113e 57e9 4bbd
00000110: afa5 83be 3809 fcbd ce2b 0abe fef4 883d
00000120: 91c7 fcbb 95ca 7dbe e6f4 2cbe 9fa2 be3c
00000130: 9233 c73d 6cbe d63e 1ebd 7a3e ab1a a3bc
00000140: 4fc0 7c3d ae4a f83c bbab 823c aed7 83be
00000150: f045 923d fe83 10be 5bb8 eebd 6bd5 573e
00000160: ecee 8dbe 6dd3 983c 1e8e 82be 9b63 543e
00000170: 68c9 7ebe ea51 1fbd f4c5 653e cd38 00bf
00000180: 13c5 133e 0cf8 9dbd 1072 a33d 495f 76bd
00000190: ae1b a83d eb42 a33d b382 4b3e 6199 1d3e
000001a0: eca4 d83e ec8d 1b3e 2fcb 963c f614 b83c
000001b0: 2dff 963d 7510 65bd f243 91bd 68be b3bd
000001c0: 1b04 edbd e410 8abe 2258 31bd 678f b3bd
000001d0: b03e 9bbd ee5b 183e 4fbf 963d 6ecd d9bc
000001e0: 3fb0 993c 9475 843e 0dda bebd 6de9 9a3e
000001f0: f3ec 953b 54cd 1dbe 4052 3c3e cc86 d6bd
00000200: 34bc 80be c545 b53d c709 203e 5c6e 683e
00000210: 98bb e4bd 7609 e73e 643b a83e d592 943d
00000220: 270f 923e 6d26 d83a 3788 79be e7d2 89bd
00000230: 5a04 9dbd 026d ee3d ebe6 913e 889d 5bbd
00000240: 7d15 b4be 0375 27bf ffdf 84be 7a45 2a3e
00000250: 6d01 9b3d ee1f 2d3d 0179 fd3e 1e10 2fbd
00000260: fd5d 41be 7f50 cf3d 7c2d d7be 971b 373e
00000270: 3cee 08be 427a 0d3e efc3 b53d 7908 c53d
00000280: cf70 a8bd 613b a1bd 35db 9abe b50a 69be
00000290: 296b 073e 3220 0c3e e262 1abe 5ba8 883e
000002a0: 5be2 bb3e 08b0 a2be 509f 95bd 91c8 973e
000002b0: d513 bd3d adb3 353d 248b 483e 0473 19be
000002c0: 316d 6cbe ca21 02be c941 8bbc 436a e53d
000002d0: 4135 bbbd c30b 7dbe 359c 1cbe 7112 6b3e
000002e0: 72be df3d e7ee 893e 7ad5 03bd dd6b a03e
000002f0: 42a4 00bd f58e acbe d2bd e23e 05fc e3bd
00000300: f900 983e 3a7e 7cbe 8d8c bfbe 8b5e 6abe
00000310: fddb 443e ab60 7dbe 56cc 523c f4ae 333e
00000320: 5657 923e 481f 843e 4290 dc3e 397b 6ebc
00000330: 6df3 ffbd f51e 933e ff16 e4be 084e 36be
00000340: 91ca e63c b282 8a3e 46bb a83e a074 a2bc
00000350: 5d71 153d fdc4 883e eed0 d6be f5e8 11bc
00000360: 5466 3e3e a0c3 513d d725 59be 61a0 14bd
00000370: f183 cf3e b65b 28be ffd1 eb3c ea24 6fbd
00000380: 149a 5b3e 4330 0d3e b8c0 d83e c76c 543d
00000390: 6322 4c3e 531e c2be 7865 6f3e 3d9f 51bd
000003a0: cbc4 21bf a18e f0bd 368b 99be 9d96 9b3e
000003b0: 3ce7 393f a5ff 09be 6903 9c3d ebc1 883e
000003c0: 3478 033e ab8e a83e 3aa1 15be 460d eebb
000003d0: 9cb7 153d aae4 c53d d653 4ebd 581b 1cbe
000003e0: f145 b13c fcfd 1abd ceb3 f13e e8d0 f33d
000003f0: d6a0 2bbe ec6b 6e3d 75eb b0bc 57fc d73d
-0.059503987 0.06585002 -0.13252468 0.054616183 0.051398244 -0.059398565 -0.164913 -0.05101197
-0.17458643 -0.048873346 0.09386824 0.1922351 0.14104767 0.16003563 -0.06490698 -0.08385214
0.10583797 0.005884443 0.266022 -0.10040651 0.09976426 -0.16173264 -0.2912994 0.107225254
-0.23102531 0.25034514 -0.17465998 0.16393477 0.114025146 -0.16674985 -0.110264935 -0.025378078
0.020406703 -0.11967052 -0.33348957 -0.14616479 0.12779114 0.0052897176 -0.28180954 -0.057743926
0.19223398 0.18740924 0.40274063 0.008587273 -0.07533465 0.43834475 -0.030071687 -0.14527132
0.07965486 0.16096792 0.36283424 0.09346921 0.16410416 -0.24591227 -0.0760874 0.14387135
0.0812033 -0.03001611 -0.15459655 -0.010338335 0.06356412 0.046101756 0.11161913 -0.43333527
-0.110522546 0.22712865 0.14187707 -0.049783077 -0.25712344 -0.12306446 -0.13493273 0.066873536
-0.00771422 -0.2478431 -0.16890296 0.023270903 0.09726633 0.41942155 0.24486205 -0.019910177
0.061706837 0.030309048 0.015951028 -0.25750488 0.07142246 -0.14112851 -0.11656257 0.21077506
-0.27721345 0.018655503 -0.25499052 0.20741121 -0.24881518 -0.03889648 0.22438794 -0.5008667
0.14430647 -0.07713327 0.0798074 -0.060149465 0.082084045 0.07971748 0.19874077 0.1539054
0.42313325 0.15190858 0.018407432 0.022470932 0.0737289 -0.055923898 -0.07093038 -0.087765515
-0.11573049 -0.26966012 -0.04329694 -0.08767586 -0.07580316 0.14878818 0.07360708 -0.026587214
0.018760798 0.25870955 -0.09318934 0.30256215 0.0045753657 -0.15410358 0.18390751 -0.10474929
-0.25143588 0.08851198 0.1562873 0.22698349 -0.11168593 0.45124406 0.3285781 0.072545685
0.28527185 0.0016490944 -0.24368368 -0.067296796 -0.076668456 0.11641885 0.2849649 -0.05361703
-0.35172644 -0.6541292 -0.25952145 0.16628066 0.07568631 0.04226678 0.4950638 -0.04273998
-0.1888351 0.10122775 -0.4202689 0.17881618 -0.13372129 0.13816169 0.08875262 0.09620757
-0.082246415 -0.07872654 -0.30245367 -0.2275799 0.13224472 0.13684157 -0.15076783 0.26690945
0.36696133 -0.31774926 -0.07305777 0.29645208 0.09232298 0.044360805 0.19584328 -0.14985281
-0.23088528 -0.12708202 -0.016999142 0.112019084 -0.09141017 -0.24711518 -0.15293963 0.22956254
0.109249964 0.2694008 -0.03218601 0.31332293 -0.03140665 -0.33702818 0.44285446 -0.11132053
0.29688242 -0.24657527 -0.3741192 -0.22887628 0.19224544 -0.24743907 0.0128661 0.17547208
0.28582257 0.25805116 0.4307881 -0.014555746 -0.12497602 0.28734556 -0.44548795 -0.17803204
0.028172763 0.27052838 0.32955378 -0.019831002 0.036485065 0.2671279 -0.41956276 -0.008905639
0.18593723 0.051211953 -0.21205841 -0.03628576 0.4053035 -0.16441235 0.028786657 -0.058384813
0.21445495 0.13787942 0.42334533 0.05186155 0.19934992 -0.3791376 0.23378551 -0.051177252
-0.6319091 -0.11745954 -0.29989022 0.30388346 0.7261846 -0.13476427 0.07617838 0.26710448
0.12838823 0.32921347 -0.14612284 -0.007264766 0.036552057 0.09662755 -0.05037292 -0.15244806
0.021639796 -0.037839875 0.47207493 0.1190508 -0.16760573 0.05820839 -0.02159665 0.10546177

bias_ih_l0 f4 [128]
00000000: b31c b8bc 0820 79bd 770b d13d d832 b73d
00000010: 2c1f 673c 591d 1e3e e436 243e 5026 c5bd
00000020: b9b3 343d a08c 0f3e 7888 7bbd 0de0 d3bd
00000030: 6ef2 283d f126 373e 0431 29be b796 f83c
00000040: 0789 8a3c 1c1d 353e 3f98 8b3e 8f73 34bd
00000050: 6f37 4b3e 08f0 80bd 10e3 ccbd 7326 bebd
00000060: e7a0 1cbc beed 1ebd 016c fc3d c944 cf3c
00000070: 8c79 023e 9221 9e3d 1a0e 703e 5562 913d
00000080: ec47 2c3e 0787 05be 19ff fabd 23e8 fcbd
00000090: 0297 e03c 7185 e53d 4f2b b23d c5c2 713e
000000a0: 4bd1 4f3e d6d6 a43e 2f8d bb3d 7b17 6f3e
000000b0: 76f3 bcbd 4faa 233e 666b aebc f9be 8cbd
000000c0: c61d 52bd 8b69 8e3e ccae 973e 9597 203e
000000d0: 962d 0b3e 6416 f93d fcdb e8bd 876e 1b3d
000000e0: 2d04 f0bc ed6e bb3d 7cca 223e e7be 503e
000000f0: dc20 29be e5b5 ce3d 4599 573c 2a30 a63b
00000100: 3680 55be f824 813e 9b39 303e 121c 0fbe
00000110: 3284 fc3d 063f 76bd 3f03 3e3e 10ec 4e3e
00000120: d1df ba3d 244d 1bbe eca2 a53e 1ac3 6b3d
00000130: 417d 193e f3ef b83e ce7e 013e b7ff 8fbe
00000140: 29ba cfbe b711 f5bd f4dc a73e 8e45 a3bd
00000150: 4e72 4e3e f87c 94be bdfc 92bd dac0 863e
00000160: 843c 98be b5ac 2c3d 9293 0b3e 8190 a63d
00000170: 0124 d6be ea21 633b 5df5 09be 4033 1cbf
00000180: 2002 98bb 824a 2d3e 8af9 653e cfb7 f43d
00000190: 9741 2a3e 0e2b 7c3e 0e4a 843e 2fdc d43d
000001a0: 230a 883d f8c5 a63e d72f 963d b114 dcbd
000001b0: 0481 77bd c1b7 6e3e 7fb0 983d 9cbb 7d3d
000001c0: f2ae 013e 10ef 28bd c8a1 793e 5d76 033e
000001d0: 8179 d3bc 21dd fa3d 7cdc 143d e01a c2bd
000001e0: 28ce 653e d2f5 203d e0cb ae3e dd60 3fbd
000001f0: feb3 adbd bbaa 323d 13aa 383e 861e 8aba
-0.022474622 -0.060821563 0.10207265 0.089452446 0.014106553 0.15440883 0.16036564 -0.09626448
0.04411671 0.14018488 -0.061409444 -0.10345469 0.041246824 0.17885949 -0.16522604 0.030345304
0.016911043 0.17686886 0.27264592 -0.044055518 0.19845365 -0.06295782 -0.10004246 -0.09284677
-0.0095598465 -0.038800947 0.123252876 0.025301354 0.12741679 0.07721247 0.2344288 0.070988335
0.16824311 -0.1303979 -0.12255687 -0.12348964 0.027415756 0.112070926 0.08699667 0.23609455
0.20294683 0.32195157 0.09157788 0.23348801 -0.09226124 0.15982936 -0.021291446 -0.06872363
-0.051297925 0.27814898 0.29625547 0.15682824 0.13591608 0.12162474 -0.11370084 0.037947204
-0.029298866 0.09152017 0.15897554 0.20385323 -0.16516441 0.100932874 0.013159101 0.0050716596
-0.2084969 0.25223517 0.17209475 -0.13975552 0.12329902 -0.060118698 0.18555926 0.20207238
0.09124721 -0.15166146 0.32350862 0.05755911 0.14989187 0.36120567 0.12646028 -0.28124782
-0.40571716 -0.119662695 0.3278576 -0.07972251 0.20160791 -0.29001594 -0.07177112 0.2631901
-0.2973367 0.042156894 0.13630512 0.08133031 -0.41824344 0.0034657666 -0.13472505 -0.610157
-0.004638925 0.16922954 0.22458473 0.11949121 0.16626583 0.24625799 0.2583775 0.10393559
0.066425584 0.32572913 0.073333435 -0.10746134 -0.060425773 0.23312284 0.07455539 0.061946496
0.12664393 -0.041243613 0.24378121 0.12838121 -0.025814774 0.12249208 0.036343083 -0.09477782
0.22441924 0.039296933 0.3413992 -0.046723235 -0.084815964 0.043619853 0.18033628 -0.0010537661

bias_hh_l0 f4 [128]
00000000: af85 533e 4e6f 4b3e 4023 043d 9cc5 a2bd
00000010: e078 dd3d 50e6 773e 91a5 b0bd ed1f 003c
00000020: 417b fb3d 5669 593e 5f18 133e 46a7 d73d
00000030: 382a 2b3d 10a9 403e d230 833d 94bf a63d
00000040: e5d1 0bbd 262f c83d 06c8 3a3e 984e b6bd
00000050: 1267 503e 185e 3e3d 9e01 473e ab50 2abe
00000060: 97b5 eebd e5c5 f9bd 5130 b33d 3d26 91bd
00000070: f8ef 1c3e e5b5 cf3d d8b8 bf3d 82b7 cc3d
00000080: d768 0b3d be94 b93d b74d b33a 3751 9cbc
00000090: 75f1 1a3d a870 60bd 54e8 13bd 4bad 5cbd
000000a0: 816c 70bd efb1 123e 71e0 273c 79cc 023e
000000b0: f326 563d 7512 313e 4b00 36be 8e12 12be
000000c0: 5b73 843c 97e3 933c 02e2 1a3e 05ac f8bc
000000d0: 0f67 033e bf47 373d de10 ff3c 2584 e0bd
000000e0: 8060 9fbb dab2 0b3e afbf 8e3d 1273 77bc
000000f0: 3555 083d 4a10 bbbd 79dc d9bd 8864 3a3e
00000100: 9746 efbc c754 8a3e 4522 88bc 2745 dabd
00000110: 8984 493e a4d3 85be 4bb3 98bc 7b3c 4e3e
00000120: df8c 2dbe 6567 913d 7864 7e3e 2bd8 283e
00000130: e85f e33d b740 de3e b917 d43d 8ba9 32be
00000140: dd35 a2be 78ff 523d a8e7 363d 6d20 963c
00000150: 388a 7e3e 4a49 7ebe befe 743d d9a2 4b3e
00000160: 8dc7 6ebe e085 873e 140c 8bbd d09c c73d
00000170: aa24 11bf 8724 10bd 53f0 b83d 2e2b 4abf
00000180: 43fd 843e baaf 143e aeee fd3d 7259 16be
00000190: f793 e2bb 27d7 843e 71de 3b3e 84ec 353e
000001a0: 2041 e03d e849 ad3e 5213 983c 818a b1bd
000001b0: 0939 57bd 74fd bc3d 68aa 0f3e bbf6 273e
000001c0: 41aa 8c3e 1c6d 8c3c 26d1 b23c 4ecc e83d
000001d0: 180e 30bd 8f86 8abd acfa 203e ec9b 443e
000001e0: 157a cb3d c417 293e 8fd9 043e 2001 0e3e
000001f0: d746 433e fcf0 e23d bc5c d73d 385e 823d
0.20656465 0.19866678 0.03226018 -0.07947847 0.10814071 0.24208951 -0.08625329 0.007820112
0.12279368 0.21231589 0.14364766 0.10529952 0.04178831 0.18814492 0.06405796 0.081420094
-0.034135718 0.09774618 0.18240365 -0.08901709 0.20351818 0.046476454 0.1943421 -0.16632335
-0.11655729 -0.121959485 0.0874945 -0.070873715 0.15325916 0.101421155 0.09361428 0.09995939
0.03403553 0.090615734 0.0013679777 -0.019081695 0.037827928 -0.054794937 -0.036110237 -0.053876203
-0.058697227 0.14325689 0.010246382 0.12773313 0.05228324 0.17292197 -0.1777355 -0.1426489
0.016168287 0.01805286 0.15125278 -0.030355463 0.12832282 0.044746157 0.031135973 -0.109627046
-0.0048637986 0.13642445 0.069701545 -0.0151031185 0.033284385 -0.09133966 -0.10637755 0.18202412
-0.029208465 0.27017805 -0.016617903 -0.10657721 0.19679464 -0.2613803 -0.018640181 0.20140259
-0.1694827 0.07099799 0.24843013 0.16488712 0.11102277 0.43408749 0.10356087 -0.17447488
-0.3168172 0.051513165 0.04465452 0.018326009 0.24857414 -0.24832645 0.059813254 0.1988634
-0.2331831 0.26469326 -0.06789413 0.097467065 -0.5669657 -0.035191085 0.09030213 -0.78972137
0.25974473 0.1452016 0.1239904 -0.14682558 -0.0069146114 0.25945398 0.18346573 0.17766005
0.109499216 0.33845448 0.0185639 -0.08668996 -0.052544627 0.0922803 0.14029849 0.16402714
0.27473643 0.017141871 0.021828245 0.11367093 -0.04298219 -0.06763946 0.15720624 0.19200104
0.09935395 0.16512972 0.12973617 0.13867617 0.19069992 0.1108112 0.105157346 0.06365627

weight_ih_l0_reverse f4 [128, 2]
00000000: 9655 363e ffe3 f73d a2ce ee3c 902b 093c
00000010: 21f5 22be 5891 6cbe 41f5 993e baa8 833e
00000020: c27d 0cbe f7d0 48bd a23a 2ebd 43af 29be
00000030: 97c7 76be a126 e0be 49f5 883e ae5e ccbe
00000040: d898 7d3e de2e 56bf 8627 9cbe b456 bf3e
00000050: 99e6 ccbe 216b 963e efbf b93e 8502 0bbe
00000060: e133 d3be e11f b1bd ea85 f2be 5e8f b1bd
00000070: f8f4 243f caab ebbe 839f d03e 450d ff3d
00000080: 12b4 a3bd a53f f7bd 950b 4f3e fb6b fb3e
00000090: 1404 543d 2c52 79be c856 c13d 5a04 253e
000000a0: 4444 01bd 5ee6 313e 4ca1 fe3e 9f74 b63e
000000b0: f065 36be a7b1 0e3e 6cb1 cbbd 1759 81bd
000000c0: aaee 64bf ff2f 9cbd a806 2abf fea1 b9be
000000d0: a385 01bf 3ab3 63be cd83 cabd caab 383e
000000e0: e226 973e e136 5ebe 9bbc 34be 7a9c df3d
000000f0: e519 3abe 79a3 043e 3270 dcbe b71a efbe
00000100: 6f73 213e c252 bb3e 6636 833d 232f 28bd
00000110: 696c 80be 61e4 86be 2ad1 993d 19d3 133e
00000120: 1c7d 27be 5f83 fbbc c68a 9c3e 978c a8bd
00000130: e406 d0be 2039 c5be f6d1 973e 3acb 2bbe
00000140: 3806 813e 008c bbbe 0b5b 2cbe 7ad0 263e
00000150: 18a7 0b3d a762 543d ce1c 853e 77d7 d8bd
00000160: ef67 28be 6f40 6cbd daec 4fbe c3ed 88bd
00000170: 3917 a93e 5283 afbe 6722 c33e d63e e83d
00000180: 2df7 d3bc 1763 cdbd e2b4 05bd 6653 e23e
00000190: ecb5 63bd 9bb0 23be 954d 8fbd d4c7 f83d
000001a0: 96a6 523d 915b 1c3e 1227 843e 8b10 ec3d
000001b0: f7a0 aabd fbf9 8fbd d159 debe 8c66 3bbe
000001c0: 6b7b ddbe 6a64 d3bd c964 4fbe 932e bdbe
000001d0: 9b0f 3cbe daea 4dbe 1cec 173d bb82 94bd
000001e0: 7416 b03d cfbf b9bb dedd d5bd 760f d53d
000001f0: 7e15 0ebe 6f5e 193e 0ad3 153e 1102 edbe
00000200: a594 99be 02c0 8bbe 74ad 063e d8e5 cb3e
00000210: b9ba 563e e067 053e 81be a7be ce3c 6dbe
00000220: 5d7e 5f3e 6bad c03e cf43 833e 0ac4 aebd
00000230: 4a9d 94be 3412 d1be 6ece c6be 7fd1 7c3e
00000240: e3af 8bbd c4ab 30bf 8a62 38be 19e6 f13e
00000250: da89 ac3e 3048 44be 862f df3e 2064 aabd
00000260: 95eb b53e 6ea6 b73d 7450 eb3e b25e e2bd
00000270: 609e 123e 02e9 cabe db99 803e 1424 693d
00000280: 0619 57bd 4fb7 c83e 7183 6f3e 2894 373f
00000290: 528b 113e 8024 c4be 8cdb d7be 0d6d 5c3e
000002a0: 76a2 a3be f27b 80bd be9f a8be ed9e 12be
000002b0: 1f5d b4be 4f0c 4d3e 49ed 4c3e 5888 8c3e
000002c0: 92a3 03bf 7333 7b3e f981 c23e d60b aa3e
000002d0: 8bb0 bdbe f9bc 32be 2751 30be 0164 9ebe
000002e0: 25f4 ccbe 71f4 813e 11fc b53e 2dc3 3c3d
000002f0: a2ba 813e d1d5 b0be 73df ee3d 633f adbe
00000300: 5dda 453e 9938 be3d 1f6e 403d 0f06 b3bd
00000310: cd4c e1bc 603b 61be 348c 79be a054 c4bd
00000320: 2ffd 8bbe 2361 db3d 77de d8bd 5e34 293c
00000330: 117d cabe 10f4 9cbe b98a c63e 2c8d e0be
00000340: 10f6 dcbd 2af8 36bf 79ac e9bd 92d6 dcbb
00000350: d63d 6abe dddf f73d 8218 e83e bd87 4cbe
00000360: 99f9 83be 368c 7bbe 49c3 a0be f50d 113e
00000370: ccbc 623f d706 0bbf da08 a13e 7662 9f3b
00000380: 8367 173e dd43 813a 9b08 193d e511 333e
00000390: 69ab 1cbd 690a 55bd 0cd5 a3b9 a521 863e
000003a0: bf7f fd3d f482 5cbd d09c 9a3e ac58 073f
000003b0: f89d 883c 4528 e6bc 858e 9bbe dfa8 e4bc
000003c0: a8f3 d5be bbf9 803c 456b 3fbe b341 d5be
000003d0: 5081 34bf 9dd8 1abe 7baa 963d e074 4a3e
000003e0: 2e28 223f b150 a4be 7822 5abe 4595 22be
000003f0: 498f 8ebd 1609 103e e51b 2ebe 9531 34be
0.17806086 0.12104034 0.029151265 0.0083722025 -0.15913822 -0.23102319 0.30069926 0.25714666
-0.13719848 -0.04902741 -0.042536385 -0.16570763 -0.24099575 -0.43779472 0.26749638 -0.39915985
0.24765337 -0.83665264 -0.30498904 0.37370837 -0.40019682 0.29378608 0.36279246 -0.1357518
-0.41250518 -0.086486585 -0.47367793 -0.08669923 0.6443629 -0.46029502 0.40746698 0.12453703
-0.0799333 -0.12072686 0.20219262 0.4910582 0.0517617 -0.24347752 0.0944038 0.16114941
-0.031559244 0.17373034 0.49732435 0.3563585 -0.17812324 0.13934956 -0.0994595 -0.06315821
-0.8942667 -0.07626342 -0.66416407 -0.36256403 -0.5059454 -0.22236338 -0.0988842 0.18034282
0.29521853 -0.21700622 -0.17650072 0.109185174 -0.1817394 0.12952985 -0.43054348 -0.4670007
0.1576669 0.36586577 0.0640686 -0.041060578 -0.2508271 -0.26346114 0.07510598 0.14435996
-0.16356319 -0.030702291 0.30574626 -0.082299404 -0.40630257 -0.38520145 0.29652375 -0.16776744
0.25200057 -0.3663025 -0.16831605 0.16290465 0.0340949 0.051851895 0.2599854 -0.10587972
-0.16445898 -0.057678636 -0.20305195 -0.066859744 0.3302553 -0.34279877 0.38112184 0.1134011
-0.025874699 -0.100286655 -0.032643206 0.44204253 -0.055593416 -0.15985338 -0.069972195 0.12147489
0.0514284 0.15269305 0.25811058 0.11526593 -0.08331483 -0.07030102 -0.434279 -0.18300837
-0.43258223 -0.10321887 -0.2025329 -0.36949596 -0.18365328 -0.2010912 0.037090406 -0.07251497
0.085980326 -0.0056686173 -0.104427084 0.104033396 -0.13875386 0.1497743 0.14631286 -0.4629064
-0.2999622 -0.27294928 0.13152105 0.39823794 0.20969667 0.13027906 -0.3276253 -0.23167726
0.21825548 0.37632307 0.2563767 -0.08533485 -0.29026252 -0.408342 -0.38829368 0.24689291
-0.06820657 -0.69012094 -0.1800634 0.47245863 0.33698922 -0.19168162 0.43590945 -0.083198786
0.35531297 0.08967291 0.45959818 -0.11053218 0.14318228 -0.39630896 0.25117382 0.056919172
-0.0525141 0.39202353 0.23389985 0.71710443 0.14213303 -0.38309097 -0.42159688 0.21525975
-0.31959885 -0.06273641 -0.32934374 -0.14318438 -0.35227296 0.20024227 0.20012392 0.27447772
-0.51421463 0.24531345 0.37989786 0.33212155 -0.37048754 -0.174549 -0.17218457 -0.30935672
-0.40030017 0.25381806 0.35543874 0.04608457 0.25337702 -0.3453813 0.11663713 -0.33837423
0.1932158 0.09288139 0.04698002 -0.0874139 -0.027502442 -0.21995306 -0.2436989 -0.095864534
-0.273416 0.10711887 -0.10589307 0.010327427 -0.39548543 -0.30654955 0.38777712 -0.43857706
-0.1078912 -0.7147242 -0.1140985 -0.006739446 -0.22875151 0.121032454 0.45331198 -0.19973655
-0.25776365 -0.24565205 -0.3139899 0.1416548 0.8856933 -0.5430731 0.31452066 0.0048640324
0.1478558 0.0009862144 0.037361722 0.17487295 -0.038249407 -0.05201188 -0.00031248515 0.26197544
0.12377881 -0.053835824 0.30197763 0.5286968 0.016676888 -0.028095374 -0.3038217 -0.027912555
-0.41787457 0.01574408 -0.18693264 -0.41651687 -0.70509815 -0.15121694 0.07356735 0.19771147
0.6334256 -0.32092813 -0.21302211 -0.15877254 -0.06960923 0.14065966 -0.17002828 -0.17597039

weight_hh_l0_reverse f4 [128, 32]
00000000: 8a98 8bbe a424 903e c8ff 40bd ec90 0bbd
00000010: f425 103e dde4 623e a725 69be 0fe3 a73c
00000020: 6103 06be b7dd 883e 41b4 e63d d369 72bd
00000030: 3495 0d3e 7549 763e 6722 cbbd 8aa5 943e
00000040: 9f4e 0c3e 3cf7 943e 13b1 0ebd 256c 1cbc
00000050: 36bc a4be 13de 8f3c f1ba 023e b447 083e
00000060: 4ad2 12be a595 3c3e bc9c a4be 295c a5be
00000070: 94ef d43d 7fc9 323e 247a 8fbe e52d c33c
00000080: 9f1d 14be 48c1 383e eaf5 143d f7ad 3f3e
00000090: c0c3 a5bd 5d2c 17be d33f aabd dc7a 8cbc
000000a0: 7954 3ebe acb2 313e 4ff7 16be a15c 47be
000000b0: 6784 593d d9aa 1bbe 76f1 bcbd 4616 8ebd
000000c0: 389e e0bc 59d0 e9bd 3722 65bd 102a ba3d
000000d0: f230 c9bd d501 b93d fc8b d43d f0a1 bdbd
000000e0: 7790 88bc 58c2 68bd 7ff2 373c f00e edbd
000000f0: fd1b ba3d d937 4bbd 9915 603c abf0 6c3d
00000100: 06de 3d3e 0120 83be e808 f2bd 86a2 11bc
00000110: 5e7f 733e 9290 813e 8c7b eb3d edab 35be
00000120: 3d13 79bd 616e 613c 8760 033f f56a 1b3e
00000130: 915a 3c3e ad76 813e 6acc ec3d 6cc9 893e
00000140: 9e6e 02bf de07 4fbe 6672 c1bc ddd6 ccbd
00000150: e599 5a3d 1594 41be c123 e93d 7b52 83bd
00000160: 122c 5abe d416 f03e a4ef 1fbd 0443 6a3c
00000170: 1257 113b 8c0e 203d 0fc1 43bd 507a 4fbe
00000180: 6fb1 cabd eac8 cb3a 5942 973d 0fa0 1cbe
00000190: 0282 953e e587 90bc dc82 bebe 0c9f 683e
000001a0: d5f6 c8be 33ea 0cbd 1395 603d c9ec 913e
000001b0: 08c9 823e 101f b03d 49e1 23bd cda4 9e3e
000001c0: 689f 423e 331c 933e 0bdc 5bbe dd27 44bc
000001d0: 2a61 babe f5bc a73d 7630 9abe d63d ff3e
000001e0: 128b a0be c0ff de3e ca44 84be c470 99bd
000001f0: bb82 013e f9d6 883d ec92 fdbc 1a37 21be
00000200: f5a9 a53e 365d 0dbe 91b3 1ebb c8f9 223e
00000210: 4dc6 16be 2c7e 7fbd 3ad7 80be 2b54 2b3d
00000220: fe4c cabd bd8f 42be 9034 033d b669 8fbd
00000230: 3fd4 2abe cb72 b33e 52bd 72be d0b8 1bbe
00000240: d488 bebd 624b 88be 146c 9ebd 784b bd3d
00000250: 5d8f a8bc fd7a 453e ff74 71be 330b 5e3e
00000260: f43e a8be e3a1 933e 29ad 8fbe eed1 6c3e
00000270: dca6 ca3d 1cfa aa3d 99dd 6bbd b283 c2be
00000280: 3c79 97bd bc5a 0cbe 8f00 afbd 25ea 043c
00000290: eef4 673d 6999 6a3e 3b3d 99bd 77c8 75be
000002a0: 0ef4 b1bd 2870 8dbd 7e11 0cbc 9b41 c4bd
000002b0: 5926 1cbe 9235 523e 44fa ab3c 097d 813d
000002c0: d708 a8bb 2b8b f6bd 7c37 15be 16eb af3c
000002d0: f705 463d ff6b eb3d 4716 a3be 6cab b33c
000002e0: da97 b83c 2a6d 0cbe 88eb 3dbe 76e8 efbd
000002f0: 837e 79be 2964 aa3d 9937 0c3e a5da e63c
00000300: f5a2 4a3f 1c65 b1be 705b ccbd 49fc 603e
00000310: c238 a1be fffc a2be 463f c43e 51ab edbd
00000320: 8b92 01bc 20cf 0abf 2172 153e 019e a73d
00000330: ef91 d3be c045 853d 0f9c e0bd c6de 12bd
00000340: 64db cdbe ee6e dfbe d3ad a23d aefd 4e3e
00000350: c757 a63e 26be f53e 52cc 543e 665e 78be
00000360: 4b6c 183d 52d1 3fbb f7a2 983e a7a1 963e
00000370: 81d5 c0bd 488b 12bf bd2e 2f3e 4722 433e
00000380: a8aa c03d fd28 5ebe d342 a83c cdad c7bd
00000390: 457a 93bc 5c39 4f3e 9f4c 37be ab31 90be
000003a0: 79fa 2bbd 28b4 c0bd 9a56 9e3e 07cb 363d
000003b0: 99bb 073c 6416 393e 37e9 b43d 359a 65bd
000003c0: 6888 343d 012c c8bd 1e46 57be 3bfa 4bbe
000003d0: 6da2 d6bd 13d7 77bb bdc3 60bd c551 a03d
000003e0: bf30 0f3e b2cb a53d e2c0 c23d 58a7 0ab7
000003f0: 9e2c 00be 418f 463d cd04 993c 739f 163e
-0.27264816 0.28152955 -0.047118932 -0.034073755 0.14076978 0.22157617 -0.2276827 0.020494012
-0.13087226 0.26731655 0.112648495 -0.059182953 0.13826448 0.24051459 -0.09918671 0.29032546
0.13701867 0.29094875 -0.03483684 -0.009547268 -0.32174844 0.017561948 0.12766625 0.13308603
-0.14338031 0.1841646 -0.3215083 -0.32296875 0.103972584 0.17459677 -0.28022873 0.023825595
-0.14464425 0.18042481 0.036367334 0.18718706 -0.08093977 -0.14763017 -0.08312955 -0.017148428
-0.18586911 0.17353314 -0.14742778 -0.19468929 0.053104784 -0.15201892 -0.092257425 -0.06937842
-0.027419195 -0.11416692 -0.055940833 0.09090054 -0.09823789 0.090335526 0.103782624 -0.09259403
-0.016670449 -0.056825966 0.011227249 -0.11575115 0.090873696 -0.049613807 0.013677024 0.057846706
0.18541726 -0.25610355 -0.11818105 -0.008888846 0.23779055 0.2530561 0.11498174 -0.17741366
-0.060809363 0.013759227 0.51319164 0.1517752 0.18393923 0.25285855 0.115624264 0.26911485
-0.5095004 -0.20217845 -0.02361412 -0.100019194 0.05336942 -0.18904145 0.11383773 -0.06412216
-0.21305874 0.46892416 -0.0390469 0.014298204 0.0022177142 0.039076373 -0.047791537 -0.20261502
-0.09897124 0.0015547548 0.07385702 -0.15295433 0.2920075 -0.017642925 -0.37209213 0.22716922
-0.39250818 -0.034403037 0.05482967 0.28500965 0.25544 0.08599675 -0.04000977 0.30985108
0.19006121 0.28732452 -0.21470658 -0.011972395 -0.36402255 0.081903376 -0.30115098 0.49851865
-0.31356102 0.43554497 -0.25833732 -0.074922115 0.12647526 0.06681628 -0.030953847 -0.15743676
0.3235623 -0.13805088 -0.0024215917 0.15915596 -0.14724083 -0.062376186 -0.25164205 0.041828316
-0.09877966 -0.19000144 0.03203255 -0.07002585 -0.16682528 0.35048518 -0.23705032 -0.15207219
-0.09303442 -0.26620013 -0.07735458 0.0924291 -0.020576173 0.19285198 -0.23579787 0.2168396
-0.3286053 0.28834447 -0.28061798 0.23126957 0.09895107 0.08348486 -0.05758438 -0.379911
-0.073961705 -0.13706487 -0.085450284 0.008112465 0.056630068 0.22910084 -0.07482382 -0.24002253
-0.08689128 -0.06906158 -0.008549092 -0.09582826 -0.15249003 0.20528248 0.02099336 0.06322677
-0.005128007 -0.12038263 -0.14571947 0.021474402 0.048345532 0.11495208 -0.31852934 0.021932326
0.022533346 -0.13713518 -0.1854688 -0.1171426 -0.24364667 0.08319885 0.13693084 0.02818043
0.791549 -0.34647453 -0.09978378 0.21971239 -0.31488615 -0.31833646 0.38329524 -0.11604942
-0.007908474 -0.542223 0.14594318 0.08184434 -0.41322276 0.065074444 -0.10967266 -0.035856985
-0.40206444 -0.4363932 0.079433106 0.20213959 0.32488844 0.47996634 0.20781067 -0.2425476
0.03721265 -0.0029269052 0.29811832 0.29420206 -0.09415723 -0.57243776 0.17107673 0.19056045
0.0940755 -0.21695323 0.020539677 -0.09749947 -0.018002639 0.20236725 -0.17900322 -0.28162894
-0.041986916 -0.09409362 0.30925447 0.044627216 0.008284473 0.18074948 0.08833545 -0.056055266
0.0440754 -0.09774018 -0.21022841 -0.19919674 -0.10480199 -0.0037817403 -0.05487417 0.07828096
0.13983439 0.080954924 0.09509446 -8.264404e-06 -0.1251702 0.04847646 0.018679047 0.14709263
