experiments/pedestrians/models/models_14_Feb_2024_17_26_50_eth_vel_ar3/model_registrar-55.pt (torch, 527902 bytes, 43 tensors)

weight_ih_l0 f4 [128, 6]
00000000: 668e aa3d 46f4 d03d 2974 78be 891d a9bd
00000010: 8d3d 5abd 2aa8 04bd 401b 59be 2782 ccbe
00000020: 68ec 71bd 7f49 513e dc5a 8c3d 6e8c 0dbe
00000030: 6f02 1f3d 9ed5 7d3c 649f 9fbe 5f86 64be
00000040: 9450 95be 7f54 40bc c9bf 273e b2e4 443e
00000050: 7a7d df3d c43b 4d3d ab13 c53d e315 45bc
00000060: eadd e0bd 7111 733d 8ecc 35be fed5 cfbe
00000070: 4704 683f 4e26 c5bf dfb4 543e 4ed4 063e
00000080: f59e 663e e289 b1bc 846d c43e 6fce a4be
00000090: 2bdb c6be 128f ed3d 828e 553e 3581 60be
000000a0: efad 9d3d 9e47 85be 1c53 bfbe 33ed 04bd
000000b0: 53c2 f23e 1780 a3bd c524 033e e1a6 80bd
000000c0: 2ae2 843e 0ba9 703e 649d 093f b20d c2be
000000d0: 3c5b ce3e b97e 5ebe 58eb 7abd 6858 80be
000000e0: fdaf 013d 9dae af3e d372 f03d 82a4 dfbd
000000f0: 2a1a 063e 301b 8ebe cedc d5be 7e17 c73e
00000100: d451 7ebd 7356 893d 81de 9e3c 0d04 3d3e
00000110: 75dc 0abf 1cb8 3dbe 8651 8ebf ca5c 06bf
00000120: 21bf 343c 5cef 38bd 669e 7dbe 9097 503e
00000130: 05b4 f93d 19b2 3bbc 62f8 03be d141 143d
00000140: 3b4f da3e ad98 9e3e 61fc 003f 5c2b c03e
00000150: 3179 633d e3df 8fbd a2d2 43bf 51e2 863d
00000160: 1cf2 1abf 86af 76bd 96ad a1be 4390 1e3e
00000170: a3c8 063f 8b46 8d3d 237e c5bd dec7 d03e
00000180: 1f8d 893e fde3 91bd f0fe 08bf f2be c23e
00000190: 2a37 15bf 8528 ac3d 3ded 013e 3395 52be
000001a0: f62c 43be 6419 503e 60d1 c53c aae7 953d
000001b0: 8331 463e 291e 8bbe 0998 88be d61c 143f
000001c0: a009 3fbd 2cc5 4d3f f0e6 6f3d 0289 843c
000001d0: cfeb d0be 1f2c d03d 81de 07be d165 ce3e
000001e0: 4e04 ccbe 80c2 ba3e ec56 013f 5b08 cabe
000001f0: 129f 9a3e c9f2 00bb e72f 6a3d ed5c 853e
00000200: 6d06 373d b6fa 86be 5af0 413d 8a5b 8f3d
00000210: f1a2 36be 812d d9be cba9 f43d 0656 0b3e
00000220: 45df a43e 857a 0b3d 1315 93bd 9706 be3d
00000230: ad97 163e 7a38 22be 9268 c63c c68e 32bd
00000240: 9360 123e b583 11bd ac1b 93be 3843 25be
00000250: 3279 69be 0bd9 7cbe 521b bfbe 7684 13be
00000260: d104 693d c170 3e3e be4e 383e c5ea 873d
00000270: e104 84bc 9c8c 883e 1546 22bf 705f 19bf
00000280: 0a39 bdbe 5b5b b9bd f742 5bbe 644f 203d
00000290: 637f 343f 12d0 153f ea49 4e3f a22e 663f
000002a0: abde 503e bd51 81bd 2309 a9be 7429 763e
000002b0: ddf9 b73d fa24 7a3e 7b6e b2be a31a 803d
000002c0: a3ea d23d 86f3 b8be e215 653e be6f b1bd
000002d0: 6e8c 24be d521 dbbd 215c 9d3e 1bf5 8d3d
000002e0: 33b1 d3bd 19b0 97be 4cbf b3bd 435c ac3d
000002f0: ded1 be3c 17b2 ba3d 633a 61be 63f6 60bd
00000300: d09b e63d 8032 f83d a1d0 31be d6fb 00be
00000310: 7f9a 2dbe 741b 3ebe 26e9 66bc 3a33 28be
00000320: 3b11 943d cd46 d03d 2e57 983d 2392 fcbd
00000330: 3a7a fcbd a682 35bd 97ff 0bbd caec 0ebd
00000340: 42e1 79be bc97 823d a927 ee3d 2f56 9b3d
00000350: 5350 e73d bee0 13be cd93 d6bc aef8 ba3c
00000360: bfac 3b3c 47c7 fbbd 38ce 6d3e 3848 3bbe
00000370: 2a90 743e 3734 413c ce3d 4d3e 1a87 29bd
00000380: ead1 f83d 5ee4 4ebe cb85 97be 79db af3c
00000390: 8297 5dbd ef18 39bc 65ea 313e f96c dabd
000003a0: d0b8 21be fe8b 143d 504f 0fbe 93b9 60be
000003b0: 0cb7 823e 04f2 1cbd 48bb 8dbc 2d1a f6bd
000003c0: ff58 a53e f39d b43c fa07 fd3b 6b67 34be
000003d0: fb72 c7bd 5305 88bd 89ab 2bbe a584 0abd
000003e0: 4144 983e 5b77 ef3d 703b 483e 4021 943d
000003f0: 4570 0b3e 87e9 9dbe 7193 24be 3e2c 903e
0.083279416 0.102028415 -0.24263062 -0.082575865 -0.053281356 -0.032386936 -0.21201801 -0.39943048
-0.059063345 0.20438193 0.068532676 -0.13823101 0.03882068 0.015492825 -0.31176293 -0.22316884
-0.2916304 -0.011738895 0.16381754 0.19227865 0.10912605 0.050105825 0.09622892 -0.012029144
-0.10979827 0.059342805 -0.17753813 -0.4059295 0.90631527 -1.5402315 0.20772122 0.13166925
0.22521575 -0.021672193 0.38364804 -0.32188746 -0.38839087 0.11599554 0.20855144 -0.21924289
0.07699191 -0.26031202 -0.37368095 -0.032452773 0.47413883 -0.079834156 0.12806995 -0.062818296
0.259538 0.23501985 0.53755784 -0.37901074 0.4030398 -0.21728028 -0.061259598 -0.2506745
0.031661976 0.34312907 0.11740651 -0.10920049 0.13095918 -0.27755117 -0.41770023 0.3888511
-0.062089756 0.06705942 0.019393208 0.18458577 -0.5424264 -0.18527263 -1.1118629 -0.52485335
0.011031897 -0.045150146 -0.24767455 0.20370317 0.12192539 -0.011456036 -0.1288772 0.03619558
0.42638573 0.30975857 0.503851 0.3753308 0.0555355 -0.07025125 -0.76493275 0.06586135
-0.6052568 -0.060225986 -0.31577748 0.15484719 0.526499 0.06898221 -0.09643199 0.40777487
0.2686548 -0.071235634 -0.53514004 0.38036305 -0.582873 0.08406166 0.12688155 -0.20564727
-0.1906012 0.20322186 0.02414769 0.07319577 0.19354825 -0.27171448 -0.26678494 0.578565
-0.04664004 0.80378985 0.05856985 0.016178612 -0.40804908 0.101646654 -0.13268472 0.40312055
-0.39847034 0.36476517 0.5052326 -0.394595 0.30199486 -0.0019675961 0.05717459 0.2604746
0.044683862 -0.26363152 0.047348358 0.069998816 -0.17835595 -0.4241753 0.11946448 0.13607034
0.3220159 0.03405239 -0.07181754 0.09278601 0.14706297 -0.15841857 0.024219785 -0.04359319
0.14294653 -0.035525996 -0.2873205 -0.16138923 -0.22800139 -0.2469217 -0.3732553 -0.14405999
0.05688936 0.185977 0.17998788 0.066365756 -0.016115608 0.26669776 -0.63388187 -0.5991125
-0.3695758 -0.09050628 -0.21412264 0.039138213 0.70506877 0.58520615 0.80581534 0.89914906
0.20397441 -0.063144185 -0.33014783 0.2403925 0.089832045 0.24428168 -0.34849915 0.062550806
0.1029866 -0.36123294 0.22371629 -0.08663891 -0.16069195 -0.10699812 0.3073435 0.06931516
-0.103365324 -0.2962654 -0.08776721 0.08416035 0.023293432 0.09115999 -0.21994929 -0.054922473
0.112601876 0.12119007 -0.17364742 -0.12596068 -0.16953467 -0.1856516 -0.014093673 -0.16425791
0.07229849 0.10169754 0.07438503 -0.12332561 -0.12328 -0.04431405 -0.034179296 -0.03489379
-0.24402335 0.06376597 0.11628658 0.075847976 0.112946175 -0.14441201 -0.026193524 0.022823658
0.01145476 -0.122938685 0.23223197 -0.18289268 0.23883119 0.011792234 0.20043108 -0.04138861
0.12149413 -0.20204303 -0.29594263 0.021466957 -0.054099567 -0.011297449 0.1737457 -0.10665316
-0.15793157 0.03626632 -0.13995099 -0.21945791 0.2553028 -0.03831674 -0.017301217 -0.120167114
0.3229446 0.022047972 0.007721898 -0.17617576 -0.09738728 -0.066416405 -0.16764654 -0.033817906
0.29739574 0.11692687 0.19553924 0.072329044 0.13617046 -0.3084223 -0.1607187 0.28158754

weight_hh_l0 f4 [128, 32]
00000000: 3b77 d43c e18a 58be b611 bf3c 95fa e93d
00000010: 2785 20be 57fb 8bbc d900 81bd 0a66 22be
00000020: bd41 093d e4d1 723e 218a 08be 6e4c 9f3d
00000030: b1d5 0dbe 8c83 4b3e bde2 373e 56a7 d53d
00000040: 9fe3 603e 2309 0dbe 23e7 c4bd a80e 783c
00000050: 6807 51be 2b86 0abe 840d 97bd d14f 8fbe
00000060: eef3 8d3e 2c7d bd3d fe75 57bd 35c4 c73e
00000070: f2de 583e 8c32 523c 25cf 253e 25c1 c6bd
00000080: fa92 c63d ee12 8bbe b9e6 a73d b31a cbbd
00000090: 467b 14bb d70f 463e dfe7 efbb 2765 67be
000000a0: ae19 9b3d e00c ed3d f590 acbe 8fe6 d2bd
000000b0: 1d2c 96be 00d0 4b3e c185 d33d 00fb f0bd
000000c0: 6426 723e ecd4 0c3e e342 6dbe f046 413d
000000d0: a416 93bd c494 16be d8dc 3fbe ca70 28be
000000e0: 5608 173e 9ddc 173e 5415 14be 85cb 2f3d
000000f0: 9443 c23c ab0f 203d 2055 753e c4db 80bd
00000100: 519b f63d 4317 16be 824f eabd 71fe fb3d
00000110: 9422 aa3d 6437 113e 9e3e 12be 0062 43be
00000120: 310f 58bd 22b7 663e 404d 92be 0a96 773d
00000130: 05ae 87bd 068b 09be f469 eb3d 88c5 b3bd
00000140: 4e75 eb3d 224e 03be 5aa2 fa3d c6e4 0dbe
00000150: 69da 813d b1f8 783d 840b ba3d 4838 163e
00000160: 4dcf 8f3e 8c9c 113e bf13 2e3e 8861 143e
00000170: 87e1 093e b982 b23d 9547 78bd d33e 603d
00000180: cfd4 bcbd b437 5abd da16 28bd 59bd 8c3d
00000190: 5232 a0bd 6e99 163d ae8b bebd 4ec1 013d
000001a0: 0b39 2bbd 1bfe 403e 75e6 a7be 5773 edbd
000001b0: baed 9abd 313d 9bbd 5e3f fdbd 74fe 1cbe
000001c0: 040e 693d 9bcb d93c 118c 74be ecbb 52bd
000001d0: f5b4 6dbd bae3 73bc 0baa 7a3c d470 a8bc
000001e0: 1621 113e a7db 123e 5749 97bd 02d2 593e
000001f0: 76ee 6d3d 7140 f63d fba6 903e a84a 98bd
00000200: 43a8 af3c b343 b6bd 32e6 803e 58ab c5bc
00000210: e333 aa3d e692 013d 8a0e cbbc cae5 123e
00000220: 0c0e 3a3e cb0d 11be 9772 0abe 78c2 76be
00000230: 4e30 a33d cdba bb3d 044f 983d 25ed e4bd
00000240: 697d 11be 2c47 acbe 8799 ce3b f3e9 8c3d
00000250: 358e d43c 639d ba3e 1d7f 0e3e c0d1 66bd
00000260: 85d1 f33c be51 62be 156e 83bd 96c5 8ebe
00000270: cf0f 263d ec53 d7bc cdba 0a3e 1c5b 0fbe
00000280: 4252 c63d b6ca 4cbe 779f bb3d 1636 01be
00000290: 232b 93bd ec77 98bd 2f57 3e3e a3c7 70be
000002a0: 19c8 6dbd 9bac e93c 1bd7 353e 4df7 e1bd
000002b0: 0b46 54be 8a26 8d3d 91f7 fcbb bcd8 92bb
000002c0: 9a9d 58bc 13b9 5f3e 873c 53be f4ec 503e
000002d0: 97ad 83bd 31ae 2ebd 2f0a 2a3d 1930 42be
000002e0: af9d d43d a1d5 593d a9cf 273e aba2 513e
000002f0: ee44 893d 3e53 d7bc f027 5b3e beab 3e3e
00000300: fc78 153e bc4d 86bd 6cf8 4cbe 095c 093e
00000310: 2828 a6bd ec72 88bd dd2d 7b3e 20a4 a6be
00000320: a44b 0abe 088b 283e 1c46 a4bd 31c4 0cbe
00000330: 1ff0 54bb 542a a23e 9940 8d3d 4804 4b3c
00000340: d85b a73d 2c5c 5fbd 558d 89bd 094a 7abd
00000350: c4c5 abbd 5477 6d3e dc54 183e 4566 f5bd
00000360: e288 36bc b5c0 763e 0456 f73d 7bc9 3f3e
00000370: 141f fbbd 3f2d b03b 0f96 5cbb 30ef 0e3e
00000380: 6d81 103e 1c34 8bbe 3a09 1f3d e595 043e
00000390: 5096 7abe a199 a1ba 70a1 8a3e 86bc 28be
000003a0: 49b1 0fbd 5cd2 67bc e60c d53d 4439 5abd
000003b0: 31ab 46bd 1790 d8bb 0905 953c e05d 983d
000003c0: fe9a e43d 6be5 0b3e 6de7 2abe 505d 813c
000003d0: 0e7c d3be 6579 c33d cc87 a9bd 66b8 abbe
000003e0: ce33 433e d357 d53e 7a85 2cbe c1a7 923e
000003f0: 2ef8 e93d ed1c 86bc 584b e43d 4d71 a33e
0.02593576 -0.21146728 0.023323875 0.11424748 -0.15675794 -0.017087622 -0.0629899 -0.15859237
0.03350996 0.2371288 -0.13333942 0.0777825 -0.13851048 0.198744 0.17957588 0.104323074
0.2196183 -0.13773017 -0.09614398 0.015140213 -0.20412982 -0.13527744 -0.07375625 -0.27990583
0.27725166 0.0925239 -0.05260276 0.39016882 0.21178797 0.012829434 0.161923 -0.09704808
0.09696002 -0.2716288 0.08198304 -0.09917202 -0.0022656485 0.1934198 -0.0073213424 -0.2259718
0.075732574 0.11574721 -0.33704343 -0.10297882 -0.2933053 0.19903564 0.10328246 -0.117666245
0.23647457 0.13753098 -0.23170047 0.047186792 -0.07182053 -0.14705187 -0.18736589 -0.16449276
0.14749274 0.14830251 -0.14461261 0.0429187 0.023713864 0.039077442 0.23958254 -0.06291917
0.12041343 -0.14657311 -0.11440946 0.1230439 0.083073765 0.14181286 -0.14281699 -0.19080353
-0.052748863 0.22530797 -0.28574562 0.060445823 -0.066249885 -0.1343194 0.11494818 -0.087779105
0.114969835 -0.12822774 0.12237997 -0.13856801 0.063404866 0.060784046 0.09084228 0.14669907
0.28087845 0.14219874 0.1699972 0.1449033 0.13464938 0.087163396 -0.06061514 0.054747414
-0.092202775 -0.05327578 -0.041037418 0.06872053 -0.07822098 0.036767416 -0.093039855 0.03167849
-0.041802447 0.18846934 -0.32793012 -0.11594265 -0.07564874 -0.07580031 -0.12365602 -0.15331441
0.056898132 0.026586344 -0.23881556 -0.051448748 -0.058033902 -0.014885837 0.01529933 -0.020561613
0.14172778 0.14341603 -0.07387035 0.21271518 0.058088742 0.1202401 0.28252396 -0.074361145
0.021442538 -0.08899631 0.25175625 -0.024129555 0.08310678 0.031634234 -0.024787206 0.1434547
0.18169421 -0.14165418 -0.13520275 -0.24097621 0.07968198 0.09166489 0.07436946 -0.11178044
-0.14207996 -0.3364805 0.006304923 0.0688056 0.025946716 0.36448202 0.13915677 -0.056352377
0.029762993 -0.22101495 -0.06417481 -0.2788512 0.04054242 -0.026285134 0.13547821 -0.13999599
0.09683658 -0.19999203 0.09161275 -0.12618288 -0.07185962 -0.07444748 0.18587945 -0.23513655
-0.058052156 0.028524688 0.17757837 -0.11033497 -0.20729844 0.06892116 -0.007719942 -0.004481403
-0.013221169 0.21847944 -0.20628558 0.2040289 -0.06429594 -0.04264659 0.041513618 -0.1896366
0.10381638 0.053182248 0.1638781 0.20472209 0.067026004 -0.02628481 0.21401954 0.18620202
0.14596933 -0.065577954 -0.2001664 0.13414015 -0.08113128 -0.066625446 0.24529214 -0.32547092
-0.13505417 0.16459286 -0.08021185 -0.13746716 -0.0032491756 0.3167292 0.06897087 0.012391157
0.08171815 -0.05453126 -0.0671641 -0.06110576 -0.0838733 0.23190051 0.14876121 -0.11982397
-0.011141034 0.2409695 0.12076953 0.18729202 -0.12261787 0.0053764875 -0.0033658778 0.1395843
0.14111872 -0.27188194 0.03882716 0.12947805 -0.24471402 -0.001232911 0.27076292 -0.16478166
-0.03508118 -0.014149275 0.10402851 -0.05327727 -0.048503105 -0.0066089737 0.018190878 0.0743978
0.11162375 0.13661735 -0.16689844 0.015791565 -0.41305584 0.095446385 -0.08277854 -0.33539122
0.1906273 0.41668567 -0.16847792 0.2864361 0.1142429 -0.016371215 0.11147183 0.3192238

bias_ih_l0 f4 [128]
00000000: 9193 1dbc 0733 473d 4ce8 ad3c 099c 94bd
00000010: 0a98 0abe bcb5 2a3e 28fb 603d 3aee 1fbe
00000020: 97f8 8bbc 0709 2a3d dc2d 833e 72b0 f43d
00000030: da28 383e f2f0 b3bd 4eb6 af3d f128 b2bd
00000040: 0480 bdbc 94e8 0b3e 2d86 49bd af0b 0b3e
00000050: 2a7e e53d 9c57 e2bc 63c8 a33d 564f 7fbd
00000060: b1a4 f43d 1bef c93d 5905 6dbd c8fc 0b3c
00000070: 6539 99bc be2d 73bc edc5 97bd cf85 a93d
00000080: 3639 103d c073 86be b129 6abe 054f c93c
00000090: bd3e 03bd 6101 1fbe 4aa5 7dbe c527 00be
000000a0: 6c55 48be ea89 7ebd 73ac 58be 7fcd 9a3b
000000b0: 44a9 1fbe 878f 283e 5279 28bd bcb2 e2bd
000000c0: 5ecd 823d e80d 5abd 81a6 27be 55ae b13d
000000d0: 46d9 9ebe 2e5e 88bd 7d91 3ebb baa1 d6bc
000000e0: e0e5 9fbd 51f3 123e 5df2 643d dd1e 9f3d
000000f0: 5d41 fabc 095a 88be 17ee 84be 7790 87be
00000100: 071e 0f3e 21d8 033e aca4 87bd 33c1 063d
00000110: 9d24 d2bd d32b 27bb 1d0f ce3d 2a84 20bd
00000120: 8bc5 6abd 4a58 903d 071e 97bd 6e8e 0f3d
00000130: 28b9 bdbd 43ae cebc 5d87 11bd a543 c5bd
00000140: 76b7 8fbd 5dd0 f6bd e154 db3d 5bfc 80bc
00000150: f7ec 833d 18c4 763d 730c d23d 993c fbbd
00000160: 271c ee3d fc8f bfbd d5b3 773d c0ce bcbd
00000170: b785 a6bd b818 063e 9177 b03c 79b5 80bd
00000180: 6142 4e3e ca54 023d 0935 863d 1f6d 74bb
00000190: 287a 163e 6953 003e 1ad0 b53d 0f16 01be
000001a0: 5470 f0bd d8f7 e13d 2581 ea3c 54b0 bf3d
000001b0: 1c15 173e 2393 99bd ad30 033e 53bd b93d
000001c0: 8da3 d43d d321 a63d 7d8c 373d c407 a43c
000001d0: 2d71 743e 94a7 abba b8d9 793d 08a6 87bb
000001e0: 2fa9 8dbd c18d 093e 104c be3d 2fea 13bd
000001f0: b5bc f73d 2030 503e f865 c03a 1bc0 7c3d
-0.009617702 0.048632648 0.021228932 -0.07256324 -0.13534561 0.16670889 0.05492702 -0.1561822
-0.01708631 0.041512515 0.25620925 0.11947717 0.17984334 -0.08786191 0.08579694 -0.08699215
-0.023132332 0.1366294 -0.049200226 0.13578676 0.112057045 -0.027629666 0.07997205 -0.06233152
0.11945475 0.09860059 -0.057866428 0.008544154 -0.018704126 -0.014842449 -0.07410798 0.08277475
0.03521081 -0.26260185 -0.22867467 0.024573812 -0.032042254 -0.1552787 -0.24770084 -0.12515171
-0.19563836 -0.062143244 -0.21159534 0.004724204 -0.15591913 0.16461001 -0.041131325 -0.11069247
0.06386827 -0.05323592 -0.1637211 0.08675829 -0.3102514 -0.06658588 -0.0029078417 -0.026200164
-0.07807517 0.1435063 0.055895198 0.077695586 -0.030548746 -0.2663119 -0.25962898 -0.26477405
0.13976298 0.12875415 -0.066232055 0.032899093 -0.1026089 -0.00255083 0.100614764 -0.03918854
-0.057317298 0.0704809 -0.07378774 0.03504794 -0.092638314 -0.025229579 -0.035529483 -0.09632043
-0.07017414 -0.12051461 0.10709549 -0.015745332 0.06441682 0.060245603 0.10256281 -0.122674175
0.116264634 -0.09353635 0.060474236 -0.09219122 -0.08130973 0.13095367 0.021541389 -0.06284613
0.20142509 0.031819142 0.065530844 -0.0037296487 0.14695036 0.12531818 0.08877583 -0.12606071
-0.11740175 0.110336006 0.028626034 0.09359804 0.14754146 -0.07498767 0.12811537 0.09069314
0.10382757 0.0811192 0.044811714 0.020023234 0.23871298 -0.0013096207 0.06099865 -0.0041396655
-0.06917035 0.13432981 0.092918515 -0.036112007 0.1209654 0.20330858 0.0014678827 0.061706644

bias_hh_l0 f4 [128]
00000000: 80ce 5cbd 7ae3 7c3d c386 e6bd 9d1b b63d
00000010: 551d 0a3c 8116 9ebd 8f60 3fbd f029 af3c
00000020: 8c5e 8b3d bc5c 533e e471 80b9 774f afbb
00000030: 4e69 6fbd 4f5c 533e 7f64 013e a561 963d
00000040: c57b e1bd 414a 043e 6f5e 14be 3769 bb3d
00000050: eafb 843e d3c2 1c3e 2334 de3d 13e0 003b
00000060: dcfa ac3c 50f3 aa3d d684 803c aa0f aabd
00000070: e679 cdbd 9320 c6bc 0b5e 96bb 2628 083e
00000080: 6c55 5bbd 4730 72be acb2 133c 9ced 39be
00000090: 537a 8d3e 26dd f73b 48a4 dabd 6f3a 8abe
000000a0: a665 fbbd 7269 f2bd dc48 45be b047 67bd
000000b0: a082 22be 45e8 72bc 1ac2 843d f622 78bd
000000c0: 7812 89bd 7a22 f8bd 049e 0abe 8e97 c1bd
000000d0: 6256 2abe fae2 6abe a465 67be c4f3 5dbd
000000e0: 5835 90be cf15 29be 8562 4abe 4049 8b3c
000000f0: adb8 70bd 54b2 04bd 449b 02be 67fb 153d
00000100: 9df0 12be 2461 0fbe e8ad d43d 1b38 babc
00000110: c3bf 1d3e dae0 f33c 2d29 afbd a162 fc3b
00000120: 09e9 ab3d 238a bdbc 415e 5d3d 0864 563d
00000130: b660 b43d cfd0 283d 84e7 e7bd cf8b 4c3d
00000140: 6d82 ba3c 029a f93d 464b 053d 3bbe 11be
00000150: 308f bdbd 4e9f 59b9 af6a 10be e069 003e
00000160: 0155 fabd 5351 463c 7ced 813d 3a97 b93c
00000170: 0c10 8fbd 463c 17be 671d 45bb 548c 283d
00000180: 3aeb b03d 9f21 2a3e 587c b9bd abf2 643e
00000190: 4a75 7b3e 722a eb3c 3b20 933e 0ff6 3c3e
000001a0: 0b84 2fbe 01df 073e 6e2f 8a3e e994 2e3e
000001b0: 2d89 233e cf0f f23d ca7b 443d 46d8 c93d
000001c0: 0a83 fa3d 9808 64bd 4181 193e 06e6 d3bd
000001d0: 7b9a 4e3e 0e57 423e 8ee1 593e 3688 033e
000001e0: ed02 f33d 8a3c e13d 014f 143e 9802 f5bc
000001f0: 4439 09bc 4983 4a3e c35b e93c 4d5f 863e
-0.05390787 0.061740376 -0.112561725 0.088919856 0.008429845 -0.07719136 -0.046722945 0.021382302
0.06805143 0.20640844 -0.00024498918 -0.005350049 -0.058450036 0.20640682 0.12635992 0.07342843
-0.11009935 0.1291895 -0.14489149 0.091509275 0.25973445 0.15308695 0.10849788 0.0019664809
0.021115713 0.083471894 0.015688341 -0.08303769 -0.10033016 -0.024185454 -0.0045888475 0.13296565
-0.05354826 -0.23651229 0.009014767 -0.18157047 0.27632388 0.0075642047 -0.106758654 -0.26997706
-0.12275247 -0.11836518 -0.19266075 -0.05646485 -0.15870142 -0.014825885 0.064823344 -0.060580216
-0.06692976 -0.12115951 -0.1353684 -0.09452735 -0.16634515 -0.22938147 -0.22597367 -0.05418755
-0.28165698 -0.16512226 -0.19764145 0.017002702 -0.05876987 -0.03239663 -0.12754542 0.03661671
-0.14349599 -0.140019 0.103847325 -0.022731831 0.15405183 0.029770304 -0.085527755 0.007702187
0.08394057 -0.023137158 0.054044966 0.05234149 0.08807509 0.04121476 -0.11323455 0.04993802
0.02276727 0.12187578 0.03254249 -0.14232723 -0.092558265 -0.00020754078 -0.14103197 0.12540388
-0.122232445 0.01210435 0.06344125 0.022655118 -0.069854826 -0.14769086 -0.003007734 0.041149452
0.08638616 0.16614388 -0.0905692 0.22358195 0.24556461 0.028706763 0.28735527 0.18453239
-0.17140214 0.13268663 0.2698931 0.17048992 0.15970297 0.118194215 0.047969617 0.09855704
0.12232025 -0.05567226 0.14990713 -0.10346608 0.20176117 0.18978521 0.21277449 0.12844929
0.118657924 0.10997875 0.14483263 -0.029908463 -0.00837547 0.19776644 0.028486138 0.26244584

weight_ih_l0 f4 [128, 2]
00000000: 504d ee3d 72b5 a33d eb88 903d 08d0 a13d
00000010: f71e 1a3e 80de 1a3d 369d 35be 21dd 583c
00000020: ec0e b2bd fb1f 9cbe 2df6 f63d 9a7c 013e
00000030: 5c90 e7bd b9fa 163e f32b 9fbe 2cbc dcb9
00000040: 48cd 1d3e 35fc 10be b071 4cbe 7091 4c3d
00000050: 9ad7 41bd c0b8 15bd 22c1 1f3e 8480 88bd
00000060: f1e9 c13d 2654 93be 6698 dbbd e16a 6cbc
00000070: c29e 80be 6eb4 a53d 08e5 a7bc a249 563d
00000080: ca58 3abe 2895 2e3e 410d 19bd 32bc 953e
00000090: 22d5 cf3c 7295 5f3e ba44 253e 17c0 cf3d
000000a0: 6c96 a33e 2b72 a2bc b7db 653e eecf e33e
000000b0: 98ca 823e b03d 773e af20 f1be 54d0 483e
000000c0: 39cf 31bd 9205 933d 3736 e03d b7b2 72be
000000d0: cc6e 75bd 9674 823e 5ba2 62be 6bd4 24be
000000e0: 68f7 83bc 5e28 5dbd 7bd9 653d 4f1c 9b3e
000000f0: e223 a33e b414 353c c3f5 983d 0d33 b9be
00000100: 6824 413d e2bd 3dbe 2ced 94bd 1c6e 88be
00000110: 5ae4 58bd 6aba 783d 2d12 913d 741a ac3e
00000120: 216c 543e c62d 143e b16c d4be e7d9 5a3e
00000130: 9bdf 08bf f7cb 963b f4ec aa3e e6df e93d
00000140: 1bf5 61bd 07e1 b1bd 66e5 adbd 1025 a3be
00000150: 2498 03be 0b09 05be 36c6 5dbe 7c0c 113e
00000160: ff00 e6be 9b79 89bd 5c3f d73e d83b d33e
00000170: 42ee 75be 74e4 8cbe 3c0d 2b3e 6476 033d
00000180: 491a dd3d dafe 75bc c8cd 9b3b 2164 8cbe
00000190: d03c d63d 4e99 0f3f 2ce0 f9be dac4 093e
000001a0: 4c0e d4be cbf7 1fbe 0af3 5a3e f307 c53d
000001b0: 2b63 b43d b226 ad3e 9462 51bc e8b6 05bf
000001c0: 0353 8abe 7e16 38be 2d82 8f3e c9b4 d23d
000001d0: 3ac4 6d3e c36c 7abe e603 0abe d587 993e
000001e0: 1cb0 1f3d be67 b5be 3424 65be c7cf 043f
000001f0: 5935 823e 4c52 65bd 35b3 923c 2454 9a3e
00000200: 8fcb 16bd 0715 623e d036 86be e3ce b0be
00000210: 71aa 8ebe 884e 86be b58c aabd 690a a4be
00000220: 00e4 92be b55a 503e e842 2c3e 521d cabe
00000230: 3f13 21bd 5605 92bd 071a 9e3e c455 e5bd
00000240: aa7c 143f b7e5 313e 491c 44bb d3f1 343f
00000250: 3bf6 973e b08c df3e 545b 0ebf 4d9b 7a3e
00000260: 0bd1 b4be 28b0 79bc 645d 803e 6a64 573e
00000270: 21aa a8be 9fa7 edbe cf8c b2be b457 5a3e
00000280: 0f79 863c e635 2d3e 3e2d edbe a54d af3e
00000290: a9d6 113d 0f08 f73e 4c1d a23e 391e 0cbe
000002a0: 36e7 8cbe dc73 39bc 1fcb dcbe 8b30 943e
000002b0: 506b a8bd ecda f5be 4e86 073e d475 31bd
000002c0: 5de1 593e ff52 7d3e 1d88 1abe 2d5f 963e
000002d0: 6231 14bf c931 903e 8190 8a3e 6445 2c3e
000002e0: 42d0 e53e 86b7 643e 9595 fd3d 9a84 303d
000002f0: bbc0 9b3e 9cc4 2e3e 7416 cdbd 4e6a e2be
00000300: 4b76 bdbd f282 29be 43f7 193e b539 973c
00000310: 0557 f53d 9ad3 0ebd 13fa 5b3e 2c73 ee3d
00000320: 67f3 0abc b775 54be 9e7b 68be a81f 533e
00000330: de1a acbe dd0a 29be 7ec5 62bd f67b b8bd
00000340: 8ad5 06bd e8d7 b33d eccf 77be b5e0 b5be
00000350: 4e73 e63d 4d8c 99bd 8a92 ed3d 5195 e4bc
00000360: e79b ba3e f5d2 0a3e 7a32 313e 6cd1 503e
00000370: 3f1f 36be c90e 0f3e 5a82 c23d 5b83 c8bc
00000380: 6625 b0bd f153 f43d fd3a b7bd b68a 29be
00000390: 29bd 3abd 8ddc 9dbd e7b9 4f3e d776 963e
000003a0: 999c 9a3d eb18 b7bd e214 c93c 76d0 f03e
000003b0: 6dc3 2d3e fdb4 063e 28d7 14be b14c 88be
000003c0: c42b 3c3e 9184 ab3d b3ee 2b3e a5e2 8dbe
000003d0: e92e 043d fe13 56be 3b4c 313d a898 e93c
000003e0: d32b 233b 2420 f7bd c69a 0ebe 0d75 843e
000003f0: d6c6 453e b1fb 85bd cef6 323e 31d6 7dbe
0.1163584 0.07993592 0.07057365 0.07901007 0.15050875 0.03780985 -0.17735752 0.013236315
-0.08694252 -0.3049315 0.12058673 0.12645188 -0.11306831 0.1474408 -0.31088218 -0.0004210187
0.1541034 -0.1415871 -0.19965243 0.049943388 -0.047324754 -0.036553144 0.15601018 -0.066651374
0.09468449 -0.28775138 -0.10722427 -0.014429779 -0.25121123 0.08091055 -0.020494953 0.052316315
-0.18197933 0.17049086 -0.037366156 0.29245144 0.025370184 0.21834353 0.16139498 0.1014406
0.319507 -0.01982983 0.22447096 0.44494575 0.25545192 0.24144626 -0.47095248 0.19610721
-0.043410514 0.07178797 0.10947841 -0.23700987 -0.059920117 0.25479573 -0.22132246 -0.16096656
-0.016109183 -0.053993575 0.05611561 0.30295035 0.31863314 0.011052299 0.0746875 -0.3617176
0.04715386 -0.18529466 -0.072717994 -0.26646507 -0.052952148 0.060724653 0.07083545 0.33613932
0.20744373 0.14470586 -0.41489175 0.21372186 -0.53466195 0.004601951 0.33383906 0.11419658
-0.05516539 -0.08685499 -0.0849102 -0.31864214 -0.12851006 -0.12991731 -0.21657643 0.14164919
-0.44922635 -0.067126475 0.42040527 0.41256595 -0.2401667 -0.27518046 0.16704267 0.032095328
0.10796029 -0.015014375 0.0047547556 -0.27420142 0.10460818 0.560933 -0.48803842 0.13453999
-0.41417158 -0.1562187 0.21381775 0.09620657 0.08807977 0.33818585 -0.0127798505 -0.5223222
-0.27016458 -0.1797733 0.28029004 0.10288388 0.23219386 -0.24455552 -0.1347805 0.29986444
0.03898631 -0.35430712 -0.22377092 0.51879543 0.25431326 -0.055986688 0.017907718 0.3014232
-0.036815222 0.22078334 -0.26213694 -0.34532842 -0.2786441 -0.2623179 -0.08327619 -0.32039192
-0.28689575 0.20347102 0.16822398 -0.39475495 -0.039324995 -0.07129924 0.30879232 -0.11197999
0.5800272 0.17372786 -0.0029924086 0.70681494 0.29680046 0.43662024 -0.55608106 0.24473305
-0.35315737 -0.015239753 0.2507125 0.21034399 -0.32942298 -0.46416947 -0.34873053 0.21322519
0.016415147 0.16915092 -0.4632358 0.34238926 0.035605107 0.48248336 0.31662977 -0.13683404
-0.2752015 -0.011319127 -0.4312372 0.28943285 -0.08223593 -0.48018587 0.13234827 -0.04332526
0.21277376 0.24738692 -0.15090986 0.29369488 -0.5788785 0.28162983 0.27063373 0.16823345
0.4488545 0.22335634 0.12382046 0.04309521 0.3042048 0.17067188 -0.10014048 -0.4422173
-0.09251078 -0.16553858 0.15035729 0.018460134 0.11979488 -0.034869768 0.21482114 0.11643061
-0.008480883 -0.2074803 -0.22703406 0.20617545 -0.33614248 -0.1650805 -0.055364124 -0.09008019
-0.03291849 0.08781415 -0.2420041 -0.35523 0.112524614 -0.074974634 0.11600216 -0.02790323
0.3644707 0.13557036 0.17304412 0.20392388 -0.17785357 0.13970484 0.09497519 -0.024476698
-0.08600883 0.11930073 -0.08946798 -0.1655682 -0.045590553 -0.07708082 0.2028576 0.29387543
0.075494 -0.089402996 0.02454609 0.47034043 0.1696908 0.13154979 -0.145352 -0.2662101
0.1837607 0.083748944 0.16790275 -0.2771198 0.0322713 -0.20906064 0.04328559 0.028515175
0.0024897947 -0.12066677 -0.13926229 0.25870553 0.19314131 -0.06542147 0.17476961 -0.24788739

weight_hh_l0 f4 [128, 32]
00000000: 6fe7 6fbd 0ade 883d fbb7 04be 62c5 733d
00000010: e46b 3d3d b5be aebd 6bf5 6abe edb2 02bd
00000020: aa84 4bbe c20a 77bd 2396 8a3d 476d 463e
00000030: 8a0c 2c3e b685 213e 8ecd 99bd bd97 9dbd
00000040: 947e d13d 07a4 803c a164 873e 59bb febd
00000050: c391 e23d 435f 28be 5108 98be 59c0 023e
00000060: 63f8 6dbe 58ce 7a3e d818 2ebe db12 2f3e
00000070: 8b6e ea3d 03ad 31be c98d 06be f57c 93bc
00000080: 1425 8f3c aa40 f9bd 42c4 babe a47f 15be
00000090: 776d ec3d 28a3 033c 1789 b9be 8220 78bd
000000a0: b721 603e a2ec 4a3e 9792 dd3e 3301 593c
000000b0: d5fe a4bd c4c8 de3e 3cd1 3dbd c2ce 33be
000000c0: 8b8d 9c3d e660 2a3e 3a6b b33e 6b69 d33d
000000d0: 9d99 2b3e beca 88be 6af4 d7bd 939c 0b3e
000000e0: b9c6 b23d badc e9bc 8dac 19be 4640 4dbb
000000f0: e0b4 923d e0d2 073d e263 e33d 2212 dfbe
00000100: 2886 dbbd 345b 783e 6e36 0a3e 5011 77bd
00000110: d8d2 88be 1273 00be c45c 1cbe 776d a73d
00000120: a335 a03c cab0 81be bdd3 1bbe be7e 1a3d
00000130: f53a f63d b7f6 ed3e a621 813e c0a2 8a3a
00000140: 2a07 823d 0cfa 183d 7910 333d ed4a 84be
00000150: 9310 b63d 497d fcbd 08ba e1bd 9552 5f3e
00000160: 146e 91be f935 c33c 5eaf 95be 8c2a 7e3e
00000170: 8833 8bbe 5aaa b7bd 4cbc 8b3e 6e03 03bf
00000180: 5466 113e d81b bbbd 7855 0e3e 30d3 91bd
00000190: ae82 dd3d e4bf 953d a45c 523e 2b97 1f3e
000001a0: 6e7f cc3e 5f0f 043e 7d1a 003d ff04 1f3d
000001b0: 8203 a13d 6547 7bbd 0cae a2bd 6fbc bdbd
000001c0: f495 0abe ead4 98be ab3d 53bd abbb bebd
000001d0: ae40 9bbd f0bc 2b3e 3f19 e23d 9a9d a2bc
000001e0: 8cbc c33c cc6f 973e 1d82 cbbd 4c6f c83e
000001f0: ce1d cebc 873f 1ebe 51fb cc3d 153e babd
00000200: 8b54 75be 1d04 823d 9380 183e 6e0b 7f3e
00000210: caa5 f2bd 4170 fb3e a2d7 b83e d1a2 723d
00000220: 3008 b33e c04e 943c 84fe 68be f7c1 96bd
00000230: 01e7 cdbd 444a d23d fef2 893e 89a5 8bbd
00000240: 5e54 b7be e10b 3bbf f50b 9cbe 1d17 573e
00000250: 7f81 693d a773 8b3d 2f86 153f 2cd4 89bd
00000260: 8733 2abe 5e75 033e 5979 d8be d09f 543e
00000270: edad 08be 0088 1d3e 7169 3d3d 3d6e 003e
00000280: 161e b4bd 7989 a4bd 3ed4 a1be 8ca5 69be
00000290: 9bf4 143e e9f8 153e 40b9 40be a204 853e
000002a0: b5d4 c83e 722a b3be 576f c6bd ffd7 9f3e
000002b0: 4c32 ba3d 0f75 2a3d 10c0 463e 5243 20be
000002c0: 7f80 6cbe 23b0 37be e099 b0bc 5a44 e23d
000002d0: c60e a6bd 751c 88be f48b 0dbe 1465 703e
000002e0: 4004 e53d c128 893e 54c7 93bd 948f b73e
000002f0: ae30 a6bc a3a0 bdbe 5a36 ee3e 6719 d3bd
00000300: 5aa0 903e 584b 81be 9f99 e2be 0801 90be
00000310: 921c 263e 7585 7dbe 31f2 f33c 52b4 073e
00000320: c7f6 a13e 1660 963e 00f6 e03e 40ca 083c
00000330: 8e87 ebbd 0227 993e 602e ebbe 8562 47be
00000340: e9b6 9e3c 5252 893e 245e 953e 6cc9 44bc
00000350: c5ae e73c 9401 853e 0192 e0be 8d29 d1bb
00000360: 9eb5 463e 482e 603d 9962 57be 6958 96bc
00000370: 57f0 cf3e c942 33be c222 8ebc 3c8a 8bbd
00000380: b1d2 7b3e 98d5 f33d 4664 e93e b606 833d
00000390: 0254 483e fe75 babe a668 773e cfa1 99bd
000003a0: da3b 43bf 44d1 e0bd 10f2 a1be 7fdd 953e
000003b0: 5492 383f e91b 21be 9bc5 693d 0b7d af3e
000003c0: 4b6a 163e 18e8 d13e 0726 06be 3107 18bc
000003d0: 83c9 083c 7296 123e d6dd 7ebd 2cba 24be
000003e0: bf40 063d 7279 3dbd 45a5 0c3f 4b69 003e
000003f0: 71ff 29be 6b44 8f3d c2b1 5ebd c969 013e
-0.05857032 0.066829756 -0.12960808 0.05951441 0.04624547 -0.08532468 -0.22945182 -0.03190892
-0.19874826 -0.060312994 0.067669176 0.19377623 0.16801658 0.15773663 -0.075099096 -0.076949574
0.10229221 0.015703214 0.2644396 -0.124380775 0.11062958 -0.1644259 -0.29693845 0.12768687
-0.23239283 0.24492776 -0.17001665 0.17097037 0.11446866 -0.17351155 -0.13140024 -0.01800392
0.017473735 -0.12170537 -0.36477858 -0.14599472 0.11544316 0.008034505 -0.36237404 -0.060577877
0.21887861 0.19816831 0.43275902 0.013244915 -0.08056418 0.43512547 -0.04634212 -0.1755934
0.07644185 0.16638526 0.35042745 0.10322841 0.16757818 -0.2671718 -0.10544665 0.13633947
0.087293096 -0.028547633 -0.15007229 -0.0031318828 0.071634054 0.03316009 0.111030355 -0.43568522
-0.10718948 0.24253541 0.13497326 -0.060319245 -0.2672336 -0.12543896 -0.15269762 0.08175176
0.019556826 -0.25330192 -0.1521749 0.037718527 0.12022964 0.4647729 0.25220984 0.0010577068
0.06349023 0.03734784 0.04371688 -0.25838414 0.0888988 -0.12328584 -0.11021811 0.21808846
-0.28404295 0.023829447 -0.29235357 0.24820918 -0.27187753 -0.08968039 0.27292097 -0.5117711
0.14199191 -0.0913617 0.13899791 -0.07120359 0.10815941 0.07311991 0.20543152 0.1558501
0.3994097 0.12896489 0.03127526 0.038823124 0.07861997 -0.061347384 -0.07943353 -0.092644565
-0.13533765 -0.2984994 -0.051572483 -0.093131386 -0.07580696 0.16771293 0.110399716 -0.01985054
0.023893617 0.29577482 -0.099369265 0.39147413 -0.025160696 -0.15453921 0.10008872 -0.090938725
-0.23958032 0.06348441 0.14892797 0.24906704 -0.11848028 0.4910908 0.36102015 0.059237305
0.34967184 0.018103957 -0.2275334 -0.073612146 -0.10053826 0.10268071 0.269432 -0.06818683
-0.35806555 -0.73065 -0.30477872 0.21004911 0.057008263 0.06809168 0.5840787 -0.06729922
-0.16621219 0.12837741 -0.4228008 0.20764089 -0.13347597 0.15383911 0.046243135 0.12542053
-0.08794801 -0.08034033 -0.3160724 -0.22817057 0.14546435 0.14645733 -0.18820667 0.25980097
0.39224783 -0.3499332 -0.09689205 0.3121948 0.090916246 0.041615542 0.19409204 -0.1565068
-0.23095892 -0.17938285 -0.021557748 0.11048193 -0.081082866 -0.2658421 -0.13822919 0.23476058
0.11182451 0.26788905 -0.07215753 0.3585173 -0.020286884 -0.3703662 0.46525842 -0.103075795
0.2824734 -0.25252795 -0.4425783 -0.28125787 0.16221836 -0.24757941 0.029778572 0.1325238
0.3163359 0.29370183 0.43937683 0.008349001 -0.115004644 0.29912573 -0.4593382 -0.19471176
0.019374328 0.26820618 0.29173386 -0.012010913 0.028281579 0.25977767 -0.43861392 -0.006383127
0.19405219 0.054731637 -0.21033706 -0.018352704 0.40613052 -0.17505945 -0.017350558 -0.068134755
0.24592091 0.11905974 0.45584315 0.063977644 0.19563296 -0.36418146 0.24161014 -0.07501566
-0.762632 -0.10977414 -0.31629992 0.2927055 0.7209828 -0.15733303 0.057073217 0.34275088
0.14688985 0.40997386 -0.13100444 -0.009279058 0.008348825 0.14315203 -0.062223278 -0.16086644
0.03277659 -0.046258397 0.5493968 0.12540166 -0.1660135 0.069954716 -0.05436874 0.1263801

bias_ih_l0 f4 [128]
00000000: 7c0f cebc 5da4 7fbd ab76 d43d b0ca c73d
00000010: 47c3 85ba afef 173e 23d7 1b3e 7117 f0bd
00000020: 7869 2d3d fc54 0c3e e76e 83bd 7b1e e3bd
00000030: 739b 1b3d 3438 283e 079f 34be 1827 e83c
00000040: 639d 8b3c 3d3a 1e3e c6e1 8a3e 6b77 fbbc
00000050: 2fd6 503e f935 54bd a195 b2bd b095 c9bd
00000060: 71ab 04bc 2083 4fbd 088b e23d d778 373c
00000070: 2731 043e 7aff ad3d b7df 753e 390e 953d
00000080: 4ee5 2d3e 01fc 06be 646e f0bd 55a3 e3bd
00000090: 3dab 8a3c e471 e03d 26b8 b83d 0d1f 663e
000000a0: d0e6 4b3e 8375 ab3e 7ada a73d 5a9c 6b3e
000000b0: 493c c9bd 02ba 1c3e 5437 d5bc edae a4bd
000000c0: d0d3 35bd bfb6 883e 2e28 9c3e b565 1d3e
000000d0: a565 193e a075 0f3e 87b5 fdbd 4a89 213d
000000e0: 02b8 ddbc 6343 b83d c308 213e 2887 4d3e
000000f0: 2c85 2ebe 11b8 d33d 63ce 8a3c 662b 1e3b
00000100: cf15 52be 27fc 7f3e 9bd1 473e 1230 11be
00000110: e90c 233e a729 31bc 5d1e 883e 15ff 3d3e
00000120: 6b8a c83d ea0d f4bd 6b16 e93e a2e2 6a3d
00000130: 2b9b 173e d534 bd3e 4b76 043e 7064 b8be
00000140: 18df e6be ab83 3bbe 9e3f a33e e81a c2bd
00000150: 3d79 333e 8907 a7be 03c9 8f3c 5d1d 7d3e
00000160: c8c4 96be b223 6a3d f2d6 0c3e 981b c73d
00000170: e326 f3be 2148 4c3d 3300 15be 7dca 2abf
00000180: 3846 acbb 9e66 2f3e da55 6d3e c0a9 0b3e
00000190: b863 263e 1bc2 803e 428b 8c3e a6ad e13d
000001a0: 9e68 933d 3b0c ab3e 7b69 ae3d 26ad cdbd
000001b0: 12c2 5bbd 09c8 6c3e a601 813d 728b ad3d
000001c0: 5f95 053e 8758 45bd 5975 813e d1f7 1d3e
000001d0: df47 3cbc 4db5 163e c832 333d ab65 aabd
000001e0: 9015 6d3e 0def 073d 0bce ae3e 342e 5cbd
000001f0: f4a2 bebd d5fb 803d 04e0 363e 227c 833b
-0.025153868 -0.06241261 0.103741966 0.097554564 -0.0010205292 0.14837526 0.15218787 -0.11723221
0.04233691 0.13704294 -0.06417637 -0.11089798 0.037990045 0.1642769 -0.17638789 0.028338954
0.017042821 0.15451904 0.27125376 -0.030696591 0.20394205 -0.051809285 -0.08719946 -0.09843004
-0.008097515 -0.05066216 0.11061674 0.011198244 0.12909375 0.08495994 0.24011122 0.072781034
0.16982004 -0.1318207 -0.11739805 -0.111151375 0.016927356 0.10959223 0.090194985 0.22472782
0.19912267 0.33488092 0.08195968 0.23008862 -0.098259516 0.15305331 -0.026027359 -0.08041177
-0.044391453 0.26701924 0.30499405 0.1537083 0.1498018 0.14009714 -0.12388139 0.03943757
-0.02706528 0.08997228 0.15725999 0.2007109 -0.17042989 0.10337842 0.016944116 0.0024134754
-0.20516132 0.24998532 0.19513552 -0.14178494 0.15922894 -0.010813153 0.26585665 0.18554337
0.09792026 -0.119167164 0.45524916 0.05734504 0.14805286 0.3695437 0.1293575 -0.36014128
-0.45092082 -0.18311946 0.31884474 -0.09477788 0.17526717 -0.32622936 0.017551905 0.24718232
-0.29447007 0.057162948 0.1375387 0.0972206 -0.47490606 0.049873475 -0.14550857 -0.6671522
-0.005257394 0.17128989 0.23177281 0.13638973 0.16248977 0.2514809 0.27449995 0.11019449
0.071976885 0.3340777 0.085162126 -0.10042791 -0.053651877 0.23123182 0.062991425 0.08473863
0.13045262 -0.04818013 0.25284842 0.15426566 -0.011491745 0.14717598 0.0437496 -0.08320173
0.23152757 0.03318696 0.34141573 -0.053755 -0.093084246 0.06298033 0.17858893 0.0040126005

bias_hh_l0 f4 [128]
00000000: 40c7 503e 32ce 493e e7f9 0a3d c32d 92bd
00000010: cf7d be3d a8b8 713e 1365 c1bd 9369 57bc
00000020: 18d6 f73d af31 563e 0243 103e d768 c83d
00000030: 3ad3 1d3d 53ba 313e c2a9 583d a4a3 a23d
00000040: c347 0bbd 8a69 9a3d 075b 393e c4f2 9abd
00000050: d305 563e 2b08 6c3d 2228 543e 6808 30be
00000060: f1b6 ebbd 3f08 09be 584f 993d 5708 aebd
00000070: 93a7 1e3e cc93 df3d 2f5c cb3d 6663 d03d
00000080: d6de 113d 96aa b63d 6add d53b d6f8 dcbb
00000090: 2cf7 df3c ba97 6abd 70ce 06bd 049e 85bd
000000a0: f40a 80bd 60ef 1f3e f5ad 243a b0a2 fe3d
000000b0: 2695 3d3d 2822 2a3e c1d9 3abe 800a 1ebe
000000c0: 2307 bd3c abde e23b e0d4 233e a31d 09bd
000000d0: 1e9f 113e dc78 813d 79aa ab3c c376 ddbd
000000e0: 0460 2cbb 181d 0a3e 803c 8b3d 0877 95bc
000000f0: 5388 e53c 1d0e b6bd f41b d2bd baab 373e
00000100: b8f3 d3bc e32d 893e 1e76 d23b 3d6d debd
00000110: 584f 6e3e 102a 59be 568c 7c3d 804f 3d3e
00000120: adb7 26be a9f3 d33d b8a5 c23e 24a0 283e
00000130: bc9b df3d 9985 e23e 8f06 da3d 92b9 81be
00000140: cc5a b9be bfac 43bc 6bfd 113d b359 563b
00000150: 2891 633e 39af 91be 35b7 183e 843e 3b3e
00000160: 07d8 6bbe cc34 8f3e 3785 88bd e927 e83d
00000170: 09a6 1fbf fac5 373c 8dda a23d 6cc2 58bf
00000180: 37ac 843e d6cb 163e a353 063e 8e0b 05be
00000190: e827 2fbc a783 873e ab60 4c3e 2a55 3c3e
000001a0: 9a9f eb3d 2c90 b13e e6f9 f83c f622 a3bd
000001b0: 177a 3bbd e21d b93d ddd2 033e 6d4d 3f3e
000001c0: 689d 8e3e 0135 273c 1a18 fd3c 9be7 0e3e
000001d0: d6c6 eabc c3f1 2fbd 2d90 283e 9076 503e
000001e0: d008 da3d 19d6 223e a4dd 043e c2cd 063e
000001f0: 52cf 3a3e cf4b 053e 84c8 d33d 78be 8c3d
0.20388508 0.19707564 0.03392973 -0.071376346 0.0930134 0.23605597 -0.094431065 -0.013147729
0.12101382 0.2091739 0.14088061 0.097856216 0.03853152 0.17356233 0.05289627 0.07941368
-0.034003984 0.07539661 0.1810113 -0.07565835 0.2090066 0.057624977 0.20718434 -0.17190707
-0.11509503 -0.13382052 0.07485837 -0.084976844 0.15493612 0.10916862 0.09929692 0.10175209
0.035612904 0.089192554 0.0065266388 -0.0067435307 0.02733954 -0.057273604 -0.032911718 -0.0652428
-0.06252089 0.15618658 0.0006282025 0.12433374 0.046284817 0.16614592 -0.18247129 -0.15433693
0.023074692 0.0069235167 0.15999174 -0.03347553 0.14220855 0.0632188 0.020955311 -0.108136676
-0.0026302347 0.13487661 0.06798649 -0.018245235 0.028019106 -0.08889411 -0.10259238 0.17936602
-0.02587305 0.2679282 0.006422772 -0.10860679 0.23272455 -0.21207452 0.061657272 0.18487358
-0.16281004 0.10349209 0.38017058 0.16467339 0.10918376 0.44242552 0.10645782 -0.2533689
-0.36202085 -0.011943041 0.03564207 0.0032707273 0.22223341 -0.28453997 0.14913638 0.18285567
-0.23031627 0.27969968 -0.06666034 0.11335737 -0.62362725 0.011216635 0.079518415 -0.84671664
0.2591264 0.14726195 0.13117842 -0.12992689 -0.010690667 0.2646763 0.19958751 0.18391863
0.11505051 0.34680307 0.030392598 -0.07965653 -0.04577073 0.09038903 0.12873407 0.1868188
0.27854466 0.010205508 0.030895282 0.13955538 -0.028659265 -0.04295517 0.16461249 0.20357728
0.10646212 0.15901984 0.12975174 0.13164428 0.18243149 0.130172 0.1034098 0.068722665

weight_ih_l0_reverse f4 [128, 2]
00000000: 3b29 643e 105c 153e bd29 c13c f964 e43b
00000010: 254f 0ebe c255 3bbe d9f9 b33e 7354 963e
00000020: bc03 3ebe 83ff 5dbb de69 74bc e800 29be
00000030: 06bf 9fbe 15c5 e1be 2a5d a03e 9951 c7be
00000040: d40e 663e bff5 4bbf 85e7 bebe f10e c33e
00000050: 0d48 ddbe 3772 a63e e058 c43e 17e3 a0bd
00000060: a66b d8be 4a82 c5bd 3f9c e6be a65c 4cbd
00000070: 18cc 333f 56b5 00bf 746f c73e b229 e93d
00000080: 9709 c1bd 3c8c 04be 3a7f 403e d8f6 f33e
00000090: 98b0 3a3d efeb 60be b06c 693d 5cb4 2c3e
000000a0: 2356 a6bc b3bc 433e 5485 003f 3f5d ae3e
000000b0: 0f96 11be f143 023e 0dd3 debd 1111 96bd
000000c0: cbcf 71bf b73e 97bd 66fe 32bf 0488 b2be
000000d0: 2de6 12bf 70da 48be c705 cebd 27f7 1f3e
000000e0: 5958 b53e 65dc 86be ac15 1fbe b0df 093e
000000f0: 0742 7cbe 9d13 0a3e c741 febe df25 f2be
00000100: 56aa 583e f1b4 d03e 2848 663d 97fb a9bc
00000110: ebfb 59be f6d3 8dbe b811 393e 6bc6 8e3e
00000120: 3a5b 63be b9ca 7b3c 8b5c b53e 588b d1bd
00000130: 235d e5be 6836 cfbe 8cb9 b13e 8d66 35be
00000140: 974f 893e 196c a3be aa5a 62be a432 2e3e
00000150: d851 693c 1852 983d 1449 823e d4b7 89bd
00000160: f213 2fbe 46d9 93bd e601 62be caf4 cfbc
00000170: 563b d73e 1d82 d1be 1d11 d73e 940f 1e3e
00000180: 2ec4 a7bd d25d b3bd 6d96 abbd 404c d83e
00000190: de98 b3bd cc00 04be 58f1 1dbe 4afb f83d
000001a0: 2cdc f73c 036d 343e 1c2e 8c3e 1d52 073e
000001b0: d320 a6bd 968a 2fbd 4f05 fabe 7c45 47be
000001c0: 3bf3 f0be 21cb bdbd a09e 51be 657c aebe
000001d0: 1903 67be 6d05 33be 50eb 2f3d dca2 a8bd
000001e0: 2dae d43d 0e43 03bd 8b28 debd 7304 1e3e
000001f0: a5a9 6cbe a625 2f3e c91e 0a3e f43b f5be
00000200: 27aa a3be dc11 87be fd85 2b3e 1c0e ca3e
00000210: 4769 733e 854f ff3d 0e12 abbe 4587 8bbe
00000220: 6f78 7c3e 1159 cf3e 5c50 843e 79b0 abbd
00000230: 481b 94be 533d cfbe 2cea cebe b723 643e
00000240: 9f07 66bd 1b6f 40bf 754a 27be 4202 f23e
00000250: dd59 c93e c819 66be 00bc ee3e d8d2 a5bd
00000260: 3f04 b63e 1e41 873d 8e65 e13e 8c61 ebbd
00000270: 49f3 073e 30cd c5be e28a 813e 29c9 1b3d
00000280: 9e3e 72bd 7abf fa3e b270 903e 4417 403f
00000290: b24d 053e a82e d1be 43c2 02bf 4700 793e
000002a0: 6910 a4be f67a 51bd e6f8 c4be 5e51 efbd
000002b0: ff71 a2be 5e19 3c3e a848 3d3e 6b07 8e3e
000002c0: 3b71 fcbe 9a98 813e 1edf e33e 850a bd3e
000002d0: 5f57 bfbe 2b7e 19be 4443 25be 8e5d 97be
000002e0: 7834 d5be b342 813e 1bb5 b03e 9541 5e3d
000002f0: c75e 5f3e bb56 a1be c92b 033e d8fd aabe
00000300: b939 823e 0523 353e c170 1d3d d931 88bd
00000310: e853 02bd 3efd 5dbe 49f9 7cbe 0e3a 29bd
00000320: 9a26 a4be dc9f 073e 9c05 3fbd df6a 6c3c
00000330: cda2 e6be a856 9dbe 40c0 e73e 572a eabe
00000340: 7ce9 1bbe 4ee2 2dbf 3a80 51be a3a5 913c
00000350: 71b3 72be 23b6 103e 9086 fb3e eaed 38be
00000360: d0c0 86be a0b4 79be c8b7 90be ef60 2c3e
00000370: 0ff1 7c3f 4fe1 16bf cac0 b63e 029f 363d
00000380: 6cf1 ea3d 668a 9f3b b881 4d3c e3af 283e
00000390: 5715 78bd 5aa1 a7bc 2227 82bd 29cf 903e
000003a0: 4d5c 343e 0ecb 51bd 89fa 963e 7744 e73e
000003b0: edf1 263d 8b41 e4bc 67b5 b5be e91b 5dbd
000003c0: 2050 e3be c7df 1d3d ae7f 3dbe 53f3 c4be
000003d0: ab93 4fbf 40ed 2ebe 8f9c b33d 22fb 2d3e
000003e0: 0402 3d3f 25bc c2be ba3a 6fbe f320 02be
000003f0: 6707 20be 5c06 373e dc19 55be 16a3 33be
0.22281353 0.145859 0.023579473 0.0069700447 -0.13897379 -0.18294433 0.35151556 0.29361305
-0.18556112 -0.003387422 -0.014917819 -0.16504252 -0.31200427 -0.44095674 0.3132108 -0.38929442
0.22466594 -0.79671854 -0.3728601 0.38097337 -0.43219033 0.32509014 0.38349056 -0.07855814
-0.4226963 -0.09643991 -0.4504108 -0.049893044 0.702333 -0.50276697 0.3895222 0.11384906
-0.09425657 -0.1294412 0.18798533 0.47649264 0.04557857 -0.21965002 0.056988418 0.16865677
-0.020304745 0.19114952 0.5020344 0.34055516 -0.14217399 0.1272123 -0.108800985 -0.07327474
-0.9445769 -0.07385009 -0.6991943 -0.34869397 -0.5738247 -0.19614577 -0.10059696 0.15621625
0.35418966 -0.26340023 -0.15535611 0.13464236 -0.24634562 0.13484044 -0.4965956 -0.47294518
0.21158728 0.40763047 0.056221157 -0.02074985 -0.21287505 -0.27700776 0.18073165 0.27885756
-0.22202769 0.015368157 0.35422167 -0.10231656 -0.4479762 -0.40471196 0.34711874 -0.17714901
0.26818535 -0.3191841 -0.22104898 0.17011505 0.0142407045 0.07437533 0.2544638 -0.067245156
-0.17097452 -0.07219176 -0.22071037 -0.02538528 0.42037457 -0.4091958 0.42005244 0.1543563
-0.08191715 -0.08758129 -0.08378301 0.42245674 -0.087693915 -0.12890929 -0.15424097 0.121573046
0.030256353 0.1761971 0.2737893 0.13214917 -0.081117295 -0.042856775 -0.48832175 -0.194601
-0.4706057 -0.092672594 -0.20470667 -0.3407928 -0.22559775 -0.17482539 0.04294902 -0.08234188
0.10384784 -0.03204637 -0.10847577 0.15431385 -0.23111589 0.17104205 0.13488306 -0.47897303
-0.31965753 -0.26380813 0.16750331 0.3946389 0.23770629 0.12466339 -0.33412212 -0.2725164
0.24655317 0.4049764 0.2584256 -0.08383269 -0.28927064 -0.40476474 -0.40413034 0.22279249
-0.05615961 -0.75169533 -0.16336997 0.47267348 0.39326373 -0.22470772 0.46627808 -0.08096856
0.35550115 0.06604217 0.44022793 -0.11493215 0.132764 -0.38633108 0.25301272 0.03803364
-0.059141748 0.4897421 0.2821098 0.750355 0.1301792 -0.40855908 -0.5107767 0.24316512
-0.3204377 -0.051142655 -0.38471144 -0.116854414 -0.31727597 0.18369052 0.18484747 0.27740034
-0.49305138 0.25311738 0.44506162 0.36922088 -0.37371346 -0.14989536 -0.16138941 -0.29563564
-0.41641593 0.252462 0.34513173 0.054261763 0.21813498 -0.31511483 0.12809671 -0.33396792
0.25434664 0.1768914 0.03843761 -0.06650133 -0.0318183 -0.21678635 -0.2470447 -0.04131513
-0.320607 0.13244575 -0.04663621 0.014429777 -0.45046082 -0.30730176 0.45263863 -0.45735428
-0.15225786 -0.6792344 -0.20459071 0.017779177 -0.23701264 0.1413198 0.491261 -0.18059507
-0.2631898 -0.24385309 -0.28265214 0.16833852 0.98805326 -0.58937544 0.3569396 0.044585235
0.11471829 0.0048687933 0.012543134 0.16473345 -0.060567226 -0.02046268 -0.0635512 0.2828305
0.17613335 -0.05121904 0.29488018 0.45169422 0.040758062 -0.027863285 -0.35489962 -0.053981695
-0.44397068 0.03854349 -0.18505737 -0.38466892 -0.810847 -0.17082691 0.087700956 0.16990331
0.738312 -0.38034168 -0.23362246 -0.12707882 -0.15627824 0.1787352 -0.20810646 -0.17542681

weight_hh_l0_reverse f4 [128, 32]
00000000: f951 b3be 28d5 a53e 168c a6bd 05b0 463b
00000010: 4ce2 e13d e831 833e 67d1 51be f563 9ebc
00000020: 276a e0bd ac24 a03e ec21 033e d51a aebd
00000030: 438b 233e e5a0 543e 1c6e 56bd 9b67 b53e
00000040: ac53 033e 1433 973e ce32 fcbc 209b 273c
00000050: 81d9 9cbe c4c4 923c 2a90 2b3e 246c fb3d
00000060: 1a20 0fbe 87a4 053e 4a94 9abe 6230 bcbe
00000070: 23d2 fb3d ee49 133e 3ce0 a1be 4ede 863d
00000080: 534a 13be edef 3f3e 4827 153d 21e9 4c3e
00000090: fba1 dfbd d2c5 1bbe e4b2 91bd 276b 46bc
000000a0: 7d28 33be ed1b 3a3e 2557 19be 28ac 42be
000000b0: aeb5 5a3d 8c7f 31be d5c1 a9bd 413c 83bd
000000c0: f878 b4bd ee95 11be 4a7c 02bd e544 6d3d
000000d0: 2b3f b0bd b2e9 a73d 7d91 f63d 08ff a4bd
000000e0: 5401 573a 57d2 9dbd d48a b73c e9b6 fcbd
000000f0: d379 993d 26bc 28bd f332 2c3c 2ad6 763d
00000100: 8340 353e 3aa8 74be fbfe fabd db97 52bb
00000110: e294 673e 3734 863e b3b1 fe3d d17b 40be
00000120: 2cc5 78bd e8d0 063d d969 083f a608 223e
00000130: 07a0 4e3e 8bdc 723e 5778 093e b94c 943e
00000140: 88b6 12bf 4b95 44be a182 32bc f96f 02be
00000150: 4461 883d f57a 62be db68 0d3e 4bde 88bd
00000160: 5e44 63be e943 013f f329 06bd 2f37 ceba
00000170: 2d13 55bc a46c 1b3d 0370 83bd 0eed 53be
00000180: 35bb 1ebd a2c1 41ba 491e 2c3e 5687 5fbe
00000190: f919 a83e e6f0 76bd 3c2b f2be ba7f 963e
000001a0: 6ae7 dcbe 7bc0 97bd 12d7 4a3d 98e5 a83e
000001b0: d83f 873e 58bb b23d 756a e8bd 588a 923e
000001c0: 3d55 563e 7efc 9d3e 03e9 83be 7728 e0bc
000001d0: 1337 dbbe 0dbc 703d ef74 b3be 875f 0c3f
000001e0: 0fc2 a5be f518 ea3e 7c0c 91be c33f 6abd
000001f0: 580a 003e 660d 103e d191 66bc 25af 4abe
00000200: c645 b73e 98e8 ffbd 3e5e 3cbc 959c 273e
00000210: f580 28be 072d 6abd acd9 8ebe e742 603d
00000220: fa1c 11be f800 33be c118 483d dea0 a0bd
00000230: 3f12 1bbe dd7b ac3e f3e6 7bbe a7ee 0abe
00000240: f499 9fbd ebf0 8ebe 1484 f7bd 2b7a bc3d
00000250: 6ef3 0cbc 306d 393e a083 5cbe 7442 473e
00000260: 317e aabe 132a a03e de00 87be ea0a 663e
00000270: 8b3e e63d 5878 ad3d 85ae 86bd c50f cfbe
00000280: 3fa6 a1bd f152 02be 4df5 bcbd c838 4e3c
00000290: 039f 483d 1609 753e cc7e 82bd 9d93 84be
000002a0: 9659 adbd a589 7dbd ca24 1abc 6a12 bfbd
000002b0: 42b1 15be 1341 3a3e 89cc 1a3d f026 a23d
000002c0: b9f9 e33b edb9 c9bd c0f3 0cbe 281e 323d
000002d0: 032a 753d 0bcd d13d 9c43 abbe 7552 b93c
000002e0: 9515 943c c76b 12be de47 33be 2531 08be
000002f0: c0f8 7bbe 754f c93d 50af 043e 4038 1e3d
00000300: 7f71 5f3f 5987 aebe 011c d2bd ba87 543e
00000310: f777 9bbe ee6e a0be f4d9 d73e c298 edbd
00000320: 1223 c6bc 1fe8 0abf d9c5 2c3e 8a8a c43d
00000330: b94c c9be 56ab 933d 2be2 c1bd f575 cbbc
00000340: 4f2f c9be b8f4 ddbe eebd 943d ab18 343e
00000350: c313 b33e 0339 f13e 109f 523e 6c74 85be
00000360: 1899 da3c 9ab7 f43d d410 a83e fe12 943e
00000370: a51d d2bd fb68 13bf bb89 303e 4956 453e
00000380: 2bf2 ad3d f1fa 59be 457d 0e3c 4532 99bd
00000390: 68af d6bc 5276 583e 4bcb 4abe a495 a0be
000003a0: e5f9 5bbd f4c4 b5bd 3112 933e 292d 383d
000003b0: 258d 213b 53b5 2e3e 0082 e83d 9b4b 14bd
000003c0: 367c 9a3d 3615 aabd c937 65be 0710 1fbe
000003d0: 7282 d4bd 18c6 b93a 10a2 80bd 523f ae3d
000003e0: ddc0 193e 2296 8f3d 91a8 b03d 3145 0ebc
000003f0: 0486 01be 75e6 713d 7a3a 933c e7cf 123e
-0.35023478 0.32389188 -0.08132188 0.0030317318 0.11029491 0.25624013 -0.20490037 -0.019334773
-0.10957747 0.31277978 0.12805909 -0.085012116 0.15971093 0.20764501 -0.052351102 0.35430607
0.12824887 0.29531157 -0.030785944 0.010229856 -0.30634692 0.01791609 0.16754213 0.122764856
-0.1397709 0.13051043 -0.3019126 -0.36755663 0.1229594 0.1438367 -0.3161639 0.0658537
-0.14383821 0.18743868 0.036414415 0.20010807 -0.10919567 -0.15212181 -0.07114199 -0.012110508
-0.17495914 0.18174715 -0.14974649 -0.19010985 0.05339592 -0.17333812 -0.08288924 -0.06407977
-0.088121355 -0.1421735 -0.031856813 0.05792703 -0.08605798 0.08198871 0.120394684 -0.08056456
0.0008201797 -0.07706135 0.022405066 -0.12339575 0.07493939 -0.041195057 0.010510194 0.060262837
0.1770039 -0.23892298 -0.12255665 -0.003213397 0.22615388 0.26211712 0.12436237 -0.18797232
-0.060734913 0.032914072 0.5328651 0.15823612 0.20178233 0.23716943 0.13424812 0.28964785
-0.5730977 -0.19197576 -0.010895402 -0.12738027 0.06659177 -0.22117217 0.1380953 -0.06683024
-0.22194049 0.5049425 -0.03275485 -0.0015732999 -0.01300506 0.037945405 -0.06417849 -0.20695898
-0.038752753 -0.0007391219 0.16808428 -0.2182897 0.32832316 -0.060288332 -0.4729861 0.29394323
-0.43145305 -0.074097596 0.049521513 0.32987666 0.26415896 0.08727139 -0.1134843 0.28621173
0.20930953 0.308567 -0.2576371 -0.027363045 -0.42815456 0.05877309 -0.3505015 0.54833263
-0.32374617 0.45722166 -0.28329837 -0.057189714 0.12503946 0.14067611 -0.014072851 -0.19793375
0.3579542 -0.124955356 -0.011497078 0.16368325 -0.16455443 -0.057171848 -0.27900445 0.054751303
-0.1417121 -0.17480838 0.048851732 -0.07843183 -0.15143679 0.3368825 -0.24599819 -0.13567601
-0.07793036 -0.2791818 -0.12085739 0.09202989 -0.00860296 0.18108058 -0.21534586 0.19458944
-0.332994 0.312821 -0.2636785 0.22465101 0.11242398 0.084702194 -0.06576256 -0.4044172
-0.07893037 -0.12726952 -0.09226475 0.01258678 0.04897977 0.23929247 -0.06371841 -0.2589387
-0.08464353 -0.061898846 -0.009408185 -0.09329684 -0.146184 0.18188886 0.037792716 0.07917583
0.0069572595 -0.09849916 -0.13764858 0.04348579 0.05985452 0.10244187 -0.3345002 0.022622326
0.018076697 -0.14298926 -0.17507884 -0.13299997 -0.2460661 0.09829608 0.12957501 0.038627863
0.87282556 -0.34087637 -0.102592476 0.207549 -0.30364963 -0.31334633 0.42158473 -0.11601402
-0.024186645 -0.5426044 0.16872348 0.09596737 -0.39316347 0.07210414 -0.09466966 -0.02483652
-0.39293906 -0.43350768 0.07262789 0.17587535 0.34976014 0.4711381 0.2056849 -0.26065385
0.026684329 0.11949082 0.3282534 0.2892074 -0.102595605 -0.5758206 0.1724004 0.19271196
0.084934555 -0.21287133 0.008696859 -0.07480291 -0.026206687 0.21138886 -0.19804113 -0.31364167
-0.053705115 -0.088754565 0.28724816 0.044964943 0.002465078 0.17061357 0.113529205 -0.036204915
0.075432226 -0.08304827 -0.22384562 -0.15533458 -0.10376443 0.0014173416 -0.06280911 0.08508171
0.15014978 0.070110574 0.086259015 -0.008683489 -0.12648779 0.05905767 0.01797222 0.14337121
