experiments/pedestrians/models/models_14_Feb_2024_17_26_50_eth_vel_ar3/model_registrar-77.pt (torch, 527902 bytes, 43 tensors)

weight_ih_l0 f4 [128, 6]
0.09891594 0.10692219 -0.31287748 -0.11056095 -0.12128528 -0.055036973 -0.21122853 -0.42110118
-0.060087696 0.21174335 0.15821978 -0.22343665 0.05958515 0.012792822 -0.33893898 -0.25505003
-0.29924005 -0.06751855 0.17210668 0.18380922 0.12611242 0.04620848 0.104278825 -0.031298757
-0.04975644 0.08935947 -0.24738052 -0.36916116 1.0629797 -1.8286115 0.22455503 0.13464962
0.30407873 -0.11325407 0.47657007 -0.3598081 -0.40457195 0.119481005 0.24057895 -0.29133004
0.08345272 -0.2501422 -0.37832034 -0.04301976 0.56123585 -0.13746774 0.14889655 -0.17513976
0.2740193 0.22441648 0.6246485 -0.46065906 0.430222 -0.18116358 -0.088456415 -0.24902189
0.102953404 0.37429875 0.089966774 -0.18721624 0.1265977 -0.2924664 -0.43418404 0.48476335
-0.0095932335 0.14882849 0.01291634 0.14149015 -0.518527 -0.13465069 -1.428139 -0.76578605
0.010937479 -0.013204112 -0.26990965 0.30169627 0.10698382 -0.026999941 -0.12992735 0.058285482
0.4751255 0.3378696 0.46571952 0.329404 0.06152311 -0.020625643 -0.85632724 0.014170146
-0.57119966 -0.098322876 -0.36321872 0.16874652 0.63969404 0.044422355 -0.171 0.5771591
0.25657225 -0.05106719 -0.5679126 0.39344615 -0.6310481 0.088491574 0.13817585 -0.2053611
-0.21663807 0.23955809 0.058405343 0.12366325 0.1730203 -0.26970017 -0.24926518 0.57080805
0.009968963 0.90754634 0.054281503 0.050981607 -0.44466415 0.0613353 -0.11001388 0.38613594
-0.4110752 0.39713925 0.6248839 -0.5144092 0.30762288 -0.035116244 0.07640692 0.30804113
0.03950807 -0.38895398 0.014279442 0.074274436 -0.2301016 -0.45462468 0.14526246 0.15647958
0.2839641 0.09520801 -0.07853012 0.11354133 0.1741027 -0.21173157 0.067687444 -0.08445718
0.1837872 -0.03090158 -0.3362798 -0.22435118 -0.22379449 -0.21921487 -0.43285224 -0.18388481
0.07484594 0.20316996 0.18997815 0.03516945 0.043354616 0.3450282 -0.74636483 -0.76954436
-0.36476508 0.064527445 -0.20066541 0.08953547 0.6403871 0.55160195 1.039924 1.1591625
0.23729159 -0.10143022 -0.3433025 0.2985162 0.15010776 0.1613686 -0.34532258 0.07072422
0.16702576 -0.45741302 0.25227696 -0.16049841 -0.19223271 -0.17823975 0.33306402 0.09519887
-0.031804267 -0.36058128 -0.08546072 0.08155853 0.009336925 0.16958445 -0.22368978 -0.018453458
0.12451914 0.11872269 -0.21368837 -0.1277804 -0.15693285 -0.13816175 -0.02366781 -0.2007096
0.078135215 0.109162875 0.10403706 -0.1954236 -0.12630348 -0.063029155 -0.018171994 -0.04321978
-0.18395282 0.10162072 0.12110449 0.061374173 0.14053035 -0.1665192 -0.025459858 0.003580972
0.04565086 -0.079354554 0.19485883 -0.18877761 0.4144672 -0.018650806 0.248894 -0.08126521
0.16519481 -0.22210237 -0.26121312 0.024674041 -0.07811086 -0.044106502 0.1962813 -0.14128196
-0.18155147 0.117955826 -0.12162917 -0.18828014 0.26865605 -0.09065439 -0.0068723382 -0.22951037
0.35021576 0.005926643 0.02952812 -0.19891772 -0.047778018 -0.08565769 -0.17771435 -0.012924645
0.3610814 0.1511869 0.18882664 0.018509168 0.12974003 -0.29959458 -0.16657197 0.31635058
00000000: 7194 ca3d 05fa da3d 7a31 a0be c86d e2bd
00000010: 6b64 f8bd 736e 61bd 4b4c 58be 939a d7be
00000020: 841e 76bd 40d3 583e 5e04 223e 94cc 64be
00000030: 8f0f 743d fc98 513c 6989 adbe eb95 82be
00000040: fe35 99be 2a47 8abd bc3c 303e 7c38 3c3e
00000050: 9d23 013e 1a45 3d3d 2390 d53d 2033 00bd
00000060: 69cd 4bbd 1902 b73d 5251 7dbe b102 bdbe
00000070: b80f 883f f10f eabf c1f1 653e 97e1 093e
00000080: 35b0 9b3e c0f1 e7bd fe00 f43e c438 b8be
00000090: 0e24 cfbe 75b2 f43d 545a 763e 3629 95be
000000a0: 42e9 aa3d a312 80be 34b3 c1be 7d35 30bd
000000b0: 27ad 0f3f 58c4 0cbe 5678 183e d657 33be
000000c0: 424c 8c3e 6fcd 653e f7e8 1f3f 81db ebbe
000000d0: 0f46 dc3e f282 39be a328 b5bd 98ff 7ebe
000000e0: 3cd9 d23d 16a4 bf3e 8040 b83d 9db5 3fbe
000000f0: d4a2 013e 28be 95be 5f4d debe e732 f83e
00000100: f02c 1dbc 7f66 183e 0e9f 533c cbe2 103e
00000110: 2fbe 04bf dfe1 09be 42cd b6bf 8e0a 44bf
00000120: 1d33 333c 0f56 58bc 9931 8abe ef77 9a3e
00000130: 551a db3d fb2e ddbc ad0b 05be c2bc 6e3d
00000140: a643 f33e 3ffd ac3e ca72 ee3e a4a7 a83e
00000150: a8ff 7b3d 1cf7 a8bc 4338 5bbf e629 683c
00000160: 243a 12bf 815d c9bd cef7 b9be e3cb 2c3e
00000170: fdc2 233f 37f4 353d a01a 2fbe b3c0 133f
00000180: 705d 833e d42b 51bd b862 11bf c671 c93e
00000190: 5e8c 21bf 123b b53d f87d 0d3e 2e4a 52be
000001a0: 5fd6 5dbe b74e 753e 713a 6f3d 2843 fd3d
000001b0: 3c2c 313e 2416 8abe 5f3f 7fbe 7a20 123f
000001c0: dd54 233c f554 683f 4856 5e3d 17d2 503d
000001d0: 05ab e3be b93a 7b3d f54e e1bd 9cb3 c53e
000001e0: 7378 d2be d655 cb3e 64f8 1f3f 52b0 03bf
000001f0: bf80 9d3e 0dd6 0fbd 3b7b 9c3d 91b7 9d3e
00000200: 37d3 213d fa24 c7be 52f4 693c 321d 983d
00000210: c19f 6bbe 91c4 e8be afbf 143e 2f3c 203e
00000220: be63 913e 6bfc c23d 66d4 a0bd 5b88 e83d
00000230: fa47 323e 29d0 58be b79f 8a3d e3f7 acbd
00000240: b632 3c3e 4f25 fdbc de2c acbe 51bc 65be
00000250: 622a 65be dd79 60be cf9e ddbe 4d4c 3cbe
00000260: d448 993d c90b 503e a289 423e d70d 103d
00000270: 9c94 313d 89a7 b03e c411 3fbf dc00 45bf
00000280: 7dc2 babe f726 843d 3c7b 4dbe 5f5e b73d
00000290: 69f0 233f c935 0d3f 3b1c 853f 705f 943f
000002a0: 91fc 723e a6ba cfbd 58c5 afbe 1ed7 983e
000002b0: d9b5 193e cf3d 253e 1fce b0be dcd7 903d
000002c0: cd08 2b3e 0a32 eabe 722a 813e b259 24be
000002d0: a7d8 44be 7b84 36be 5e87 aa3e a0f7 c23d
000002e0: 3145 02bd 1c9e b8be 0806 afbd 2908 a73d
000002f0: e7f9 183c 8ca7 2d3e ef0e 65be b52b 97bc
00000300: e403 ff3d e224 f33d 20d1 5abe ddd8 02be
00000310: 01b3 20be 467a 0dbe ffe2 c1bc d186 4dbe
00000320: 5b05 a03d c990 df3d 6211 d53d 201d 48be
00000330: b355 01be 6e15 81bd 6fdd 94bc 3907 31bd
00000340: 215e 3cbe 861e d03d a105 f83d 7c63 7b3d
00000350: 30e7 0f3e 0284 2abe 3191 d0bc beae 6a3b
00000360: 65fc 3a3d a484 a2bd 1389 473e eb4e 41be
00000370: 0b35 d43e 93c9 98bc 12de 7e3e 606e a6bd
00000380: d428 293e ce6e 63be babd 85be 3721 ca3c
00000390: 96f8 9fbd 05a9 34bd f7fd 483e 38ac 10be
000003a0: a1e8 39be d392 f13d b718 f9bd 82cc 40be
000003b0: 498d 893e 02a9 b9bd 5a31 e1bb c404 6bbe
000003c0: 7b4f b33e 4934 c23b f5e4 f13c 16b1 4bbe
000003d0: e2b2 43bd 4d6d afbd c0fa 35be e4c1 53bc
000003e0: a9df b83e bdd0 1a3e c55b 413e 8aa0 973c
000003f0: 92da 043e 7664 99be d891 2abe b4f8 a13e

weight_hh_l0 f4 [128, 32]
0.033341054 -0.22412293 0.017090514 0.096395366 -0.07176412 -0.009833871 -0.09774653 -0.14057785
0.029418893 0.25571987 -0.14781883 0.089750744 -0.14984582 0.22652026 0.15680924 0.10055912
0.21354142 -0.16827321 -0.03390808 0.009899852 -0.19835116 -0.12401501 -0.08074697 -0.26239446
0.28611413 0.041909248 -0.10516007 0.3424092 0.16690843 0.030203931 0.18282796 -0.12054398
0.09936467 -0.2675317 0.08501225 -0.10735121 -0.01638764 0.20731197 -0.073374584 -0.20132142
0.060692422 0.12703456 -0.39984176 -0.09221832 -0.26589808 0.18530367 0.0717898 -0.14220163
0.28681925 0.10649555 -0.22413301 0.01800491 -0.048668154 -0.1683076 -0.19994967 -0.16226174
0.15204012 0.09739305 -0.15266857 -0.016247697 0.0018610965 0.07885806 0.23819645 -0.10069891
0.089515 -0.1291297 -0.12174786 0.11516738 0.089225635 0.12641776 -0.15309937 -0.17611271
-0.06933829 0.21404374 -0.28382808 0.018457131 -0.042915918 -0.1371462 0.08952636 -0.110655725
0.15228014 -0.15580194 0.16298553 -0.13264649 0.04166099 0.056045774 0.117291324 0.15195228
0.27736568 0.11764928 0.16095088 0.11268487 0.108282275 0.108775645 -0.07220226 0.040200558
-0.15315962 -0.048708007 -0.045268945 0.05965404 -0.123000644 0.02779313 -0.090769 0.025351765
-0.06112948 0.18806346 -0.36231077 -0.09907829 -0.026839787 -0.071099654 -0.12217377 -0.17421305
0.0752734 -0.0074961106 -0.24692477 -0.04959329 -0.06258735 -0.010231687 0.014962373 -0.021477094
0.1441961 0.12447297 -0.08811118 0.21476424 0.08408158 0.12076002 0.27828455 -0.10772161
-0.04972626 -0.07750459 0.14848557 -0.060592316 0.05781568 0.17493 -0.20254485 0.25486958
0.3404186 -0.09722051 -0.29748473 -0.26052877 0.32459444 0.17417784 0.087769665 -0.04985427
-0.28702536 -0.5279725 0.19290131 0.044886313 0.158136 0.3817213 0.082522355 0.11447163
0.11587418 -0.30819437 -0.017498547 -0.48873374 -0.044217892 0.124380976 0.18446603 -0.2925083
0.10888922 -0.2414736 0.079361364 -0.13393351 -0.022022221 -0.11036086 0.24742992 -0.2731758
-0.09139762 -0.0053464477 0.24094857 -0.00771185 -0.21890779 0.07634431 -0.0012562394 -0.033398584
-0.10839318 0.24029574 -0.1562472 0.24242863 -0.093073785 -0.028807292 0.12839493 -0.22723366
0.12324371 0.091036804 0.17846937 0.12993376 0.049271397 -0.08658665 0.19557233 0.22191183
0.12854543 -0.062687434 -0.20535158 0.13712995 -0.035129767 -0.08428284 0.2841706 -0.3294679
-0.1529354 0.12011701 -0.07223017 -0.09086595 0.03067061 0.3127838 0.08724927 0.0014905389
0.017842624 -0.0894583 0.0018494062 -0.032860823 -0.11610007 0.28633556 0.20196158 -0.12506609
-0.036810737 0.24015494 0.09150508 0.16779779 -0.14976563 -0.02570677 -0.0229411 0.118036054
0.13730884 -0.28889605 0.050724037 0.1460316 -0.26928502 -0.047033936 0.29442573 -0.16654448
-0.06694083 -0.032009833 0.15550138 0.024996072 -0.086614974 -0.035653636 0.0018692785 0.049939375
0.06103282 0.1768792 -0.11587669 0.01666885 -0.44807616 0.10736459 -0.061509658 -0.39330438
0.21974987 0.45796478 -0.2229152 0.2262488 0.08420562 -0.046328288 0.08304215 0.35295933
00000000: a190 083d 7b80 65be 6801 8c3c ef6a c53d
00000010: 11f9 92bd 3f1e 21bc 552f c8bd a4f3 0fbe
00000020: e4ff f03c b7ed 823e d25d 17be 3dcf b73d
00000030: 2f71 19be edf4 673e 9a92 203e f1f1 cd3d
00000040: 9aaa 5a3e d04f 2cbe 33e3 0abd fd32 223c
00000050: 911c 4bbe 95fb fdbd ab5e a5bd 9158 86be
00000060: 8d7d 923e 08a9 2b3d 2a5e d7bd 4250 af3e
00000070: 0bea 2a3e 3c6e f73c 4137 3b3e c3df f6bd
00000080: b47f cb3d eaf9 88be e71a ae3d f4da dbbd
00000090: 5f3f 86bc 9749 543e 6a45 96bd 3427 4ebe
000000a0: 9e98 783d 5915 023e 0fb8 ccbe f5dc bcbd
000000b0: cb23 88be 3fc0 3d3e 8806 933d 4e9d 11be
000000c0: f9d9 923e 571a da3d 2083 65be 087f 933c
000000d0: 4258 47bd d458 2cbe 9bbf 4cbe f127 26be
000000e0: 68b0 1b3e 0276 c73d 2655 1cbe e419 85bc
000000f0: 09f0 f33a 5680 a13d c5e9 733e 3b3b cebd
00000100: a453 b73d 933a 04be f156 f9bd e0dc eb3d
00000110: eebb b63d a873 013e 15c6 1cbe e456 34be
00000120: 3c01 8ebd 482e 5b3e ea51 91be 6933 973c
00000130: 9ac8 2fbd 0e70 0cbe 9959 b73d 789f e2bd
00000140: 53ef 1b3e 8b8a 1fbe aee5 263e 7bd4 07be
00000150: b7a4 2a3d 4190 653d 6f36 f03d 6199 1b3e
00000160: e002 8e3e 1bf2 f03d 4fd0 243e 53c7 e63d
00000170: 19c3 dd3d c4c5 de3d c7de 93bd 57a9 243d
00000180: e0d5 1cbe 0c82 47bd ee6b 39bd cb57 743d
00000190: c3e7 fbbd 6bae e33c 19e5 b9bd 81ae cf3c
000001a0: e862 7abd b593 403e cc80 b9be 8fe9 cabd
000001b0: 1ddf dbbc b29c 91bd 3e36 fabd e864 32be
000001c0: f128 9a3d efa1 f5bb d9d9 7cbe 5522 4bbd
000001d0: cc2d 80bd cea2 27bc be24 753c bbf0 afbc
000001e0: 24a8 133e afeb fe3d a273 b4bd 28eb 5b3e
000001f0: f732 ac3d 0851 f73d 507b 8e3e 269d dcbd
00000200: c3ad 4bbd baba 9ebd 9a0c 183e a62f 78bd
00000210: 22d0 6c3d da20 333e eb67 4fbe 447e 823e
00000220: 594b ae3e 8c1b c7bd eb4f 98be 0764 85be
00000230: 3e31 a63e ad5b 323e 95c0 b33d fe33 4cbd
00000240: fdf4 92be 3529 07bf ec87 453e b6da 373d
00000250: 67ee 213e f970 c33e 7b01 a93d 1a70 ea3d
00000260: 714f ed3d a7cb 9dbe 1d59 8fbc 4f3b fabe
00000270: d21d 35bd 74bb fe3d aae4 3c3e a6c3 95be
00000280: 5001 df3d db44 77be 3688 a23d de25 09be
00000290: f267 b4bc e004 e2bd 455e 7d3e b3dd 8bbe
000002a0: ad2e bbbd 4131 afbb 39bb 763e b0b3 fcbb
000002b0: 5d29 60be 685a 9c3d 66a8 a4ba f4cc 08bd
000002c0: 3efd ddbd 1610 763e 44ff 1fbe 363f 783e
000002d0: 789d bebd 45fd ebbc f679 033e f1af 68be
000002e0: 3367 fc3d 8171 ba3d adc0 363e 5b0d 053e
000002f0: ced0 493d 5754 b1bd 1d44 483e db3c 633e
00000300: 6aa1 033e 4562 80bd af47 52be cb6b 0c3e
00000310: 3be4 0fbd 7b9c acbd cf7e 913e 04b0 a8be
00000320: 199b 1cbe e8ff f53d 69ed 93bd ed17 babd
00000330: ee40 fb3c 3325 a03e bfaf b23d 305e c33a
00000340: b22a 923c ea35 b7bd c667 f23a 1299 06bd
00000350: e0c5 edbd 939a 923e 04cf 4e3e 5311 00be
00000360: dbc6 16bd 2deb 753e 0467 bb3d 2fd3 2b3e
00000370: 295c 19be 0197 d2bc f9ee bbbc e3bc f13d
00000380: b09a 0c3e 2fea 93be 02c4 4f3d 4f89 153e
00000390: badf 89be a8a6 40bd f8be 963e a38a 2abe
000003a0: 4618 89bd be1c 03bd c13b 1f3e 90c4 cc3c
000003b0: 3163 b1bd 8c09 12bd 9402 f53a 3b8d 4c3d
000003c0: 8dfd 793d d21f 353e c250 edbd 1d8d 883c
000003d0: 3d6a e5be f7e1 db3d 8df1 7bbd 315f c9be
000003e0: 1c06 613e 5c7a ea3e e243 64be c4ad 673e
000003f0: ff73 ac3d bbc2 3dbd 0112 aa3d 16b7 b43e

bias_ih_l0 f4 [128]
0.029130526 0.06320436 0.017826403 -0.06812365 -0.13786182 0.16829085 0.078541525 -0.17827974
-0.028657489 0.0614573 0.2526292 0.10928702 0.18310066 -0.091749154 0.0906792 -0.08805902
-0.02468287 0.15514363 -0.005534917 0.12713176 0.13498633 -0.008282754 0.12240709 -0.062821575
0.11421971 0.10428954 -0.028023954 0.021282516 -0.021403534 -0.0005992269 -0.080651894 0.14851165
0.0869782 -0.26167855 -0.23232092 0.032127514 -0.026830414 -0.16568434 -0.25368977 -0.15893781
-0.21800235 -0.08342805 -0.21903631 0.0056901355 -0.16414435 0.16424112 -0.042915087 -0.12750296
0.028222121 -0.05602885 -0.19117329 0.07997211 -0.30385017 -0.08625184 0.002352864 -0.026940428
-0.100204416 0.14531584 0.06026 0.10840237 -0.039195873 -0.2742849 -0.26780048 -0.27469802
0.13715065 0.13285448 -0.067220904 0.033837784 -0.09906328 -0.0028002271 0.097409226 -0.038620695
-0.06515281 0.07060014 -0.07396916 0.028721027 -0.08992743 -0.023370579 -0.026708359 -0.095554724
-0.07154561 -0.12202725 0.09073188 -0.0072985156 0.06418259 0.058838066 0.101599865 -0.12663504
0.11593463 -0.09407202 0.06635953 -0.08037374 -0.06339495 0.12879242 0.01796544 -0.059803262
0.24142773 0.04919615 0.06343445 0.00050498033 0.2237749 0.12542614 0.10883218 -0.15723237
-0.12870105 0.13148294 0.019482668 0.15551452 0.14820157 -0.08139678 0.1274498 0.07896455
0.10071205 0.095247194 0.081910856 0.01005604 0.2596403 0.012667805 0.10304473 -0.00080569665
-0.07261478 0.13827407 0.11050962 0.013516283 0.11448615 0.2112651 -0.0050261463 0.12103649
00000000: 24a3 ee3c 4a71 813d ad08 923c 6a84 8bbd
00000010: a62b 0dbe 7054 2c3e 61da a03d f78e 36be
00000020: 1cc3 eabc a6ba 7b3d 9d58 813e e0d1 df3d
00000030: bd7e 3b3e fbe6 bbbd 04b6 b93d 4a58 b4bd
00000040: bb33 cabc f9dd 1e3e 405e b5bb d42e 023e
00000050: db39 0a3e 63b4 07bc 92b0 fa3d 99a8 80bd
00000060: 06ec e93d c195 d53d 7e92 e5bc ac58 ae3c
00000070: 7756 afbc 7015 1dba d22c a5bd 7013 183e
00000080: a021 b23d bbfa 85be 89e5 6dbe 2498 033d
00000090: 75cb dbbc 28a9 29be a0e3 81be 98c0 22be
000000a0: 023c 5fbe 53dc aabd 0e4b 60be 5174 ba3b
000000b0: 7515 28be d32e 283e bbc7 2fbd 2390 02be
000000c0: 1432 e73c 827e 65bd eec2 43be 6bc8 a33d
000000d0: 4092 9bbe cea4 b0bd 8232 1a3b 2cb2 dcbc
000000e0: f937 cdbd adcd 143e 31d3 763d 1002 de3d
000000f0: da8b 20bd 126f 8cbe 251d 89be 38a5 8cbe
00000100: 3871 0c3e 010b 083e 1dab 89bd 7d99 0a3d
00000110: b0e1 cabd 0484 37bb 7d7e c73d bc30 1ebd
00000120: d66e 85bd ce96 903d 257d 97bd 5c48 eb3c
00000130: df2b b8bd a873 bfbc 7dcb dabc 32b2 c3bd
00000140: 8186 92bd 6ce9 f9bd a3d1 b93d 6328 efbb
00000150: 2972 833d 2f00 713d 9713 d03d 9eac 01be
00000160: 236f ed3d d5a8 c0bd 81e7 873d fd9a a4bd
00000170: 36d5 81bd 29e2 033e 422c 933c 44f4 74bd
00000180: d538 773e e781 493d ece9 813d a860 043a
00000190: 3f25 653e b66f 003e 68e3 de3d 8601 21be
000001a0: 35ca 03be 77a3 063e 1e9a 9f3c 333f 1f3e
000001b0: 27c2 173e 5bb3 a6bd 3382 023e 2ab8 a13d
000001c0: 1f42 ce3d f610 c33d e1c0 a73d 17c2 243c
000001d0: 93ef 843e a08c 4f3c 1e09 d33d 6335 53ba
000001e0: 0fb7 94bd b897 0d3e de52 e23d 6673 5d3c
000001f0: b777 ea3d e155 583e 5fb2 a4bb fbe1 f73d

bias_hh_l0 f4 [128]
-0.015159642 0.07631206 -0.115964025 0.093359426 0.005913688 -0.07560977 -0.023108372 -0.00071520684
0.056480177 0.22635327 -0.0038249493 -0.01554004 -0.055192348 0.20251942 0.1312424 0.07236152
-0.111650035 0.14770375 -0.101226225 0.08285452 0.28266373 0.17243375 0.15093312 0.0014763904
0.01588067 0.08916086 0.045530837 -0.07029941 -0.10302946 -0.00994223 -0.011132686 0.19870253
-0.0017809623 -0.23558912 0.0053686 -0.17401692 0.2815357 -0.0028412791 -0.11274813 -0.30376434
-0.1451165 -0.13965026 -0.2001017 -0.05549878 -0.16692665 -0.015195161 0.06303972 -0.07739071
-0.10257583 -0.12395239 -0.16282059 -0.101313524 -0.15994447 -0.2490475 -0.22071274 -0.054927602
-0.303786 -0.16331272 -0.19327638 0.04770928 -0.06741702 -0.040369477 -0.13571605 0.026692713
-0.14610836 -0.13591869 0.1028585 -0.02179321 0.15759751 0.029520905 -0.08873329 0.008270154
0.0761051 -0.023018135 0.05386363 0.04601445 0.09078598 0.043073643 -0.10441335 0.050703853
0.02139585 0.12036316 0.016178736 -0.1338801 -0.092792496 -0.0016151179 -0.14199454 0.121443294
-0.12256242 0.011568506 0.06932649 0.034472253 -0.051940143 -0.14985211 -0.006583678 0.044192385
0.1263891 0.18352073 -0.092665695 0.22781704 0.32239014 0.028814891 0.3074119 0.1533608
-0.18270136 0.1538334 0.26074985 0.23240654 0.16036306 0.11178509 0.047304187 0.08682844
0.11920472 -0.041544314 0.18700638 -0.1134331 0.22268793 0.20376232 0.25482082 0.13178292
0.115213394 0.11392277 0.16242404 0.01971986 -0.0148545625 0.20572297 0.021992104 0.32177523
00000000: 2660 78bc 7f49 9c3d 8c7e edbd 3a33 bf3d
00000010: 9cc7 c13b 4cd9 9abd c54d bdbc b87c 3bba
00000020: c257 673d 27c9 673e 00ac 7abb a79b 7ebc
00000030: 5f11 62bd 4061 4f3e 6864 063e 4732 943d
00000040: c6a8 e4bd a73f 173e b24f cfbd a1af a93d
00000050: 4db9 903e 7992 303e 368e 1a3e 7183 c13a
00000060: 2e18 823c f899 b63d 8b7e 3a3d 23f9 8fbd
00000070: 1c01 d3bd bce4 22bc df65 36bc ad78 4b3e
00000080: 2e6f e9ba 463e 71be 15eb af3b 7e31 32be
00000090: 7325 903e c134 3abb 7ee8 e6bd 0087 9bbe
000000a0: 6b99 14be 7a00 0fbe 76e7 4cbe b052 63bd
000000b0: d2ee 2abe 20f5 78bc f81a 813d 057f 9ebd
000000c0: 4713 d2bd c0da fdbd 71ba 26be 777d cfbd
000000d0: 7cc8 23be 4f06 7fbe 8502 62be c4fb 60bd
000000e0: d789 9bbe 733b 27be 3eea 45be ce6a 433d
000000f0: ef11 8abd 775a 25bd 26f9 0abe adaa da3c
00000100: 6e9d 15be 452e 0bbe 7aa7 d23d ad87 b2bc
00000110: 3e61 213e d3d5 f13c cdb9 b5bd 8a7f 073c
00000120: fedc 9b3d 8790 bcbc 1ca0 5c3d a679 3c3d
00000130: 00ee b93d fd6d 303d abd6 d5bd d8ae 4f3d
00000140: 5a46 af3c f680 f63d 4589 843c dd17 09be
00000150: fe09 bebd 5db2 d3ba 0467 11be 43b7 f83d
00000160: 0202 fbbd d589 3d3c 0cfb 8d3d c732 0d3d
00000170: 30bf 54bd d572 19be e5bb d7bb 1303 353d
00000180: 256c 013e dcec 3b3e 83c7 bdbd df48 693e
00000190: 5210 a53e 350d ec3c 1865 9d3e 9d0a 1d3e
000001a0: 1116 3bbe 8186 1d3e 0181 853e fbfb 6d3e
000001b0: 3736 243e 95ef e43d 09c2 413d 1cd3 b13d
000001c0: 9b21 f43d 5f2a 2abd 9a7e 3f3e 9d4f e8bd
000001d0: 4e08 643e 12a7 503e e077 823e 1af2 063e
000001e0: 00f5 eb3d 5750 e93d 7d52 263e 8b8b a13c
000001f0: 8d60 73bc 0ba9 523e c928 b43c b9bf a43e

weight_ih_l0 f4 [128, 2]
0.1369795 0.084106214 0.11689107 0.08584864 0.16575225 0.0640971 -0.18651237 -0.0063759447
-0.0852351 -0.32096386 0.13805777 0.104304455 -0.11294771 0.18190826 -0.3414978 0.03272183
0.17556019 -0.13627459 -0.23316917 0.069415934 0.0015897296 -0.07936373 0.16911934 -0.04744302
0.13188954 -0.33275852 -0.14419357 -0.006312299 -0.25220746 0.098517716 0.030209217 0.044405736
-0.17696655 0.17452209 -0.098294206 0.30318525 0.027814023 0.1798442 0.23641112 0.07734038
0.3463076 -0.00786605 0.24528316 0.45229822 0.28745097 0.18143447 -0.49452633 0.22181171
-0.036461897 0.09795269 0.1336236 -0.29289117 -0.09775716 0.28206605 -0.1990258 -0.17243192
0.02904929 -0.07870585 0.055836063 0.282363 0.37206188 0.04376375 0.13013725 -0.39795527
0.065878145 -0.19198917 -0.06337334 -0.28571066 -0.09992307 0.11449593 0.08929719 0.41618082
0.20354776 0.22729126 -0.4526148 0.22089203 -0.5339979 -0.014603688 0.36713138 0.11424168
-0.045581777 -0.09297768 -0.12192609 -0.3266132 -0.11221127 -0.14337787 -0.25280818 0.17391284
-0.54693747 -0.08383 0.4533368 0.45867825 -0.2656969 -0.2953158 0.22198541 0.046188127
0.106595494 -0.005303203 0.03279095 -0.31230992 0.09827602 0.57259035 -0.54245085 0.15443622
-0.46896154 -0.13008507 0.22764346 0.0703554 0.08567434 0.25539234 0.026078371 -0.5343223
-0.28441042 -0.17384353 0.30286065 0.11502437 0.25818717 -0.26374584 -0.14984077 0.33078772
0.05235321 -0.41007257 -0.24722657 0.5183134 0.26928163 -0.041060623 0.04101355 0.32925916
-0.037837178 0.22675522 -0.2832259 -0.35396978 -0.32453722 -0.28043512 -0.08481274 -0.35027596
-0.2804975 0.2052333 0.19154829 -0.4106387 -0.030023122 -0.066177845 0.31701747 -0.09166201
0.60576296 0.16857496 0.0045620315 0.7545976 0.33613256 0.44649482 -0.60484564 0.22958909
-0.3923685 -0.0068357857 0.25072047 0.22929686 -0.33201003 -0.4906875 -0.3402475 0.22224258
0.013747402 0.17360204 -0.48172793 0.37155 0.04893414 0.5100482 0.352481 -0.15304342
-0.27689904 -0.0007292456 -0.43562713 0.3012438 -0.073093124 -0.5011026 0.1611675 -0.04332292
0.22822645 0.26439562 -0.16436674 0.3135283 -0.629391 0.29766414 0.27373266 0.17640412
0.47605878 0.23194775 0.109398 0.034180503 0.3336782 0.18133391 -0.05965503 -0.49160856
-0.08016949 -0.16977744 0.18206592 0.0093867555 0.13489659 0.005592992 0.2263223 0.13879766
-0.024362018 -0.20056726 -0.23418702 0.21193506 -0.35074225 -0.17703219 -0.049818292 -0.08179947
-0.02155044 0.07884151 -0.2536747 -0.3513861 0.1674973 -0.105737224 0.10439996 -0.0012100927
0.3940268 0.1264714 0.16724004 0.18986997 -0.18766204 0.16179252 0.15890704 -0.03536249
-0.08955595 0.13291015 -0.11360783 -0.17429043 -0.034297094 -0.09981921 0.24405672 0.3030105
0.08322353 -0.08719519 0.04735697 0.48564145 0.15860577 0.059700463 -0.14372401 -0.26391053
0.19728418 0.101099774 0.17593029 -0.32375067 0.013793431 -0.22516957 0.046841707 0.0017707526
0.039719786 -0.16843429 -0.15385996 0.26610076 0.23868014 -0.08052943 0.22710736 -0.26664305
00000000: 5b44 0c3e e13f ac3d 9664 ef3d 69d1 af3d
00000010: f5ba 293e 5745 833d 19fd 3ebe 4ded d0bb
00000020: bd8f aebd 6055 a4be 045f 0d3e 939d d53d
00000030: 2151 e7bd 2946 3a3e cdd8 aebe 5307 063d
00000040: 0dc6 333e 918b 0bbe e6c3 6ebe f129 8e3d
00000050: 795e d03a 7489 a2bd 9f2d 2d3e 9d53 42bd
00000060: 0d0e 073e 535f aabe 7ba7 13be 67d7 cebb
00000070: 5621 81be a8c3 c93d 5279 f73c cae2 353d
00000080: b836 35be ebb5 323e 794e c9bd 193b 9b3e
00000090: 3cda e33c 1429 383e c215 723e a264 9e3d
000000a0: 3b4f b13e 9be0 00bc 822b 7b3e a293 e73e
000000b0: c62c 933e f5c9 393e 8e32 fdbe 9c22 633e
000000c0: 1259 15bd 6c9b c83d a0d4 083e d5f5 95be
000000d0: e834 c8bd f66a 903e 6bcd 4bbe fe91 30be
000000e0: c7f8 ed3c 8830 a1bd 5bb4 643d e291 903e
000000f0: e57e be3e 9e41 333d b342 053e cbc0 cbbe
00000100: 1feb 863d cf98 44be e2c9 81bd ab48 92be
00000110: 77a4 ccbd d87c ea3d 72e1 b63d a715 d53e
00000120: d36e 503e 0abf 683e 21bd e7be 8531 623e
00000130: 16b4 08bf 4f44 6fbc a5f8 bb3e 8bf7 e93d
00000140: f5b3 3abd 156b bebd 63b4 f9bd d839 a7be
00000150: 06cf e5bd a6d1 12be 1370 81be 3516 323e
00000160: 1804 0cbf 10af abbd c31b e83e e0d7 ea3e
00000170: 6d09 88be a233 97be 2550 633e c32f 3d3d
00000180: bd4e da3d 7ec6 adbb ce4f 063d 16e7 9fbe
00000190: f044 c93d 4895 123f 0fde 0abf 8724 1e3e
000001a0: ba1b f0be 0535 05be 5e1b 693e 7e16 903d
000001b0: 0776 af3d c9c2 823e 4fa2 d53c 59c9 08bf
000001c0: 3e9e 91be 0a04 32be 8d10 9b3e e691 eb3d
000001d0: 1c31 843e b209 87be dc6f 19be 025d a93e
000001e0: 5270 563d 08f5 d1be f628 7dbe 30b0 043f
000001f0: 48df 893e 2f2f 28bd d3fd 273d a894 a83e
00000200: 28fb 1abd 8532 683e fc02 91be 873b b5be
00000210: be29 a6be 3195 8fbe 4db2 adbd 5f57 b3be
00000220: 5e9d 8fbe ae28 523e 3c25 443e 3c3f d2be
00000230: 0df3 f5bc 4088 87bd 1d50 a23e 4bb9 bbbd
00000240: 4813 1b3f ea9e 2c3e 187d 953b 4f2d 413f
00000250: 9119 ac3e f89a e43e 2ad7 1abf 6719 6b3e
00000260: 86e4 c8be bafe dfbb 6f5e 803e cccc 6a3e
00000270: 38fd a9be 643b fbbe ec34 aebe 8f93 633e
00000280: c83c 613c bcc4 313e 0ba5 f6be cd3b be3e
00000290: 2a6f 483d 8592 023f 6478 b43e 6ab7 1cbe
000002a0: b6c5 8dbe d82a 3fba 850a dfbe a13c 9a3e
000002b0: d9b1 95bd 4348 00bf 1809 253e 6073 31bd
000002c0: 32b4 693e dd5e 873e c14f 28be c886 a03e
000002d0: c51f 21bf 6f67 983e b026 8c3e 48a3 343e
000002e0: fabd f33e b683 6d3e 0f0c e03d db00 0c3d
000002f0: ded7 aa3e 99af 393e d558 74bd 1eb4 fbbe
00000300: e72f a4bd 23da 2dbe 7d6f 3a3e e8ca 193c
00000310: 5522 0a3e 6b45 b73b 08c1 673e f920 0e3e
00000320: db92 c7bc 8161 4dbe b9ce 6fbe 8105 593e
00000330: 7d94 b3be ed47 35be 440e 4cbd 7b86 a7bd
00000340: 8c8a b0bc a877 a13d a6e1 81be e1e8 b3be
00000350: 6a84 2b3e c28c d8bd a5cf d53d f99b 9eba
00000360: e1bd c93e b881 013e f940 2b3e 466d 423e
00000370: 7a2a 40be f0ac 253e 87b8 223e 42d8 10bd
00000380: 1c69 b7bd 9919 083e 39ab e8bd 3179 32be
00000390: 1c7b 0cbd 046e ccbd 01ea 793e 3124 9b3e
000003a0: 1971 aa3d 6493 b2bd 62f9 413d ffa5 f83e
000003b0: 8d69 223e 7988 743d 632c 13be 481f 87be
000003c0: dd04 4a3e 660d cf3d 1227 343e a6c2 a5be
000003d0: d8fd 613c da92 66be 17dd 3f3d 9918 e83a
000003e0: 37b1 223d 0a7a 2cbe 778d 1dbe 5c3e 883e
000003f0: 9168 743e 9dec a4bd d58e 683e 7085 88be

weight_hh_l0 f4 [128, 32]
-0.056667395 0.06430015 -0.13943864 0.061639834 0.038530756 -0.10760071 -0.29301775 -0.020674689
-0.21416876 -0.07449113 0.05389069 0.18584481 0.17908682 0.15217416 -0.09397882 -0.06994082
0.100506395 0.028587602 0.26405826 -0.13783208 0.11687337 -0.17224234 -0.31553146 0.15548584
-0.23421393 0.22835667 -0.17031233 0.17352848 0.12060977 -0.1748812 -0.16339101 -0.010382894
0.014597149 -0.123526745 -0.40319145 -0.14546746 0.10444725 0.013484427 -0.42609486 -0.0639025
0.24951938 0.20863499 0.44988713 0.009900432 -0.08909522 0.42997974 -0.060596876 -0.19345365
0.07758787 0.17163326 0.34197646 0.11286754 0.16840488 -0.2799209 -0.15333049 0.12878947
0.09035061 -0.029495783 -0.14854845 -0.0025440694 0.08113859 0.01770561 0.11433151 -0.4384972
-0.10389116 0.26211983 0.12752706 -0.078219935 -0.2734449 -0.12901144 -0.16391328 0.10435886
0.048522055 -0.25784394 -0.12645286 0.04853523 0.14336713 0.5138416 0.26458886 0.0107686445
0.06113447 0.039673083 0.07416891 -0.2605495 0.11103103 -0.11836061 -0.09754534 0.22988729
-0.295234 0.03364627 -0.3299838 0.27834144 -0.3055788 -0.13921711 0.303565 -0.52867305
0.13659775 -0.10306308 0.21186596 -0.08485673 0.13676341 0.06552418 0.2096763 0.15898152
0.32488903 0.11033106 0.045033365 0.047120232 0.084505685 -0.0708918 -0.08702728 -0.11043964
-0.16771378 -0.32866 -0.064429015 -0.10386073 -0.07484217 0.1730162 0.13966975 -0.009924979
0.0235671 0.31346655 -0.09555501 0.43739745 -0.08365753 -0.1339405 0.004940565 -0.07807948
-0.23068264 0.04902889 0.13863292 0.2644927 -0.120817736 0.5131358 0.37633064 0.04796445
0.38376522 0.040440526 -0.21432169 -0.082164966 -0.11764913 0.08918197 0.2520192 -0.09122954
-0.35938284 -0.7652938 -0.33673748 0.23671828 0.043635674 0.081840985 0.65952826 -0.090582564
-0.15175799 0.15155399 -0.4138188 0.21462157 -0.13122623 0.16844901 -0.010995591 0.1431352
-0.090104364 -0.08169944 -0.3239881 -0.23029016 0.15130629 0.15656422 -0.2023069 0.24931346
0.4067249 -0.37527248 -0.11361874 0.3171081 0.086769134 0.03389111 0.19176613 -0.16174571
-0.22533065 -0.20619345 -0.021869605 0.113422126 -0.075614914 -0.27733663 -0.12858143 0.23348635
0.11381685 0.26525375 -0.090498336 0.37693554 -0.011304849 -0.37841132 0.480149 -0.094432235
0.26568848 -0.26200897 -0.4953367 -0.3037652 0.15829316 -0.23320596 0.022545718 0.08767607
0.3227507 0.33317843 0.43558535 0.0308976 -0.11416691 0.2975469 -0.47073263 -0.2098827
-0.0066262814 0.2603008 0.25336355 -0.016440852 0.03373313 0.25599962 -0.44244078 0.0017616001
0.20461646 0.048101563 -0.19340691 -0.0112032695 0.4058188 -0.17366756 -0.08770283 -0.07364958
0.2708152 0.1050515 0.5021367 0.071560435 0.19503683 -0.35343912 0.24584012 -0.085679196
-0.8463449 -0.117434345 -0.32670584 0.29170385 0.7217438 -0.17011872 0.049813736 0.39822352
0.15391812 0.45146412 -0.11808872 -0.014756001 -0.009303492 0.1746663 -0.09419862 -0.16129905
0.041176967 -0.055202764 0.60375017 0.12216293 -0.16500133 0.087567985 -0.072451465 0.14023358
00000000: 121c 68bd ccaf 833d 01c9 0ebe 0d7a 7c3d
00000010: 6dd2 1d3d c35d dcbd 6c06 96be f75d a9bc
00000020: 0e4f 5bbe ce8e 98bd 7cbc 5c3d 1a4e 3e3e
00000030: 8962 373e 8bd3 1b3e f877 c0bd 223d 8fbd
00000040: 4cd6 cd3d 8c30 ea3c a532 873e da23 0dbe
00000050: 4e5b ef3d 4c60 30be 578d a1be ae37 1f3e
00000060: c7d5 6fbe 55d6 693e 5b66 2ebe 73b1 313e
00000070: 4102 f73d 0f14 33be f94f 27be 041d 2abc
00000080: e128 6f3c 97fb fcbd 1c6f cebe 6cf5 14be
00000090: 71e8 d53d c9ed 5c3c 1b29 dabe 50df 82bd
000000a0: 0282 7f3e 69a4 553e 9b57 e63e 6c35 223c
000000b0: 8e77 b6bd 4e26 dc3e 6e34 78bd b718 46be
000000c0: 64e6 9e3d a1c0 2f3e 8a17 af3e 1927 e73d
000000d0: 5472 2c3e cb51 8fbe ab02 1dbe 63e1 033e
000000e0: be09 b93d 24a1 f1bc 161d 18be 67ba 26bb
000000f0: fd2b a63d 5b0b 913c a426 ea3d b482 e0be
00000100: e3c4 d4bd 9234 863e 7496 023e c631 a0bd
00000110: f800 8cbe 931b 04be e2d8 27be 19ba d53d
00000120: 10bf 463d 1f04 84be dc7c 01be e1cc 463d
00000130: d5ce 123e 208b 033f 3178 873e f86e 303c
00000140: 2368 7a3d 3e80 223d dfe5 973d be66 85be
00000150: 3d64 e33d 0c67 f2bd dac5 c7bd 9367 6b3e
00000160: e928 97be acd0 093d a3f3 a8be c582 8e3e
00000170: d374 9cbe ee8e 0ebe df6c 9b3e 1e57 07bf
00000180: 48e0 0b3e bc12 d3bd 64f3 583e 5ec9 adbd
00000190: b50b 0c3e 8b31 863d 62b5 563e 0dcc 223e
000001a0: db57 a63e 40f5 e13d e874 383d 2501 413d
000001b0: 5111 ad3d b82f 91bd 5c3b b2bd 2e2e e2bd
000001c0: 29bd 2bbe 2046 a8be 5cf3 83bd efb4 d4bd
000001d0: da46 99bd 292b 313e 9605 0f3e 619c 22bc
000001e0: ca0f c13c b07e a03e 58b2 c3bd 8ff2 df3e
000001f0: a454 abbd b327 09be 77e4 a13b 22e8 9fbd
00000200: 1238 6cbe 84d2 483d caf5 0d3e 966b 873e
00000210: 4a6f f7bd de5c 033f 69ae c03e 5f76 443d
00000220: e07c c43e f7a4 253d 2577 5bbe 1b46 a8bd
00000230: 07f2 f0bd 09a5 b63d a908 813e 8ed6 babd
00000240: 0701 b8be 4bea 43bf db68 acbe 4766 723e
00000250: 52bb 323d 3f9c a73d d8d6 283f 5a83 b9bd
00000260: 7266 1bbe f830 1b3e 0fe0 d3be c2c5 5b3e
00000270: 2b60 06be e67d 2c3e da26 34bc 0992 123e
00000280: a388 b8bd 0952 a7bd c5e1 a5be 2fd1 6bbe
00000290: 09f0 1a3e 5f52 203e 8a29 4fbe 074c 7f3e
000002a0: 3f3e d03e b723 c0be f1b0 e8bd fe5b a23e
000002b0: 04b4 b13d 68d1 0a3d 575e 443e aba0 25be
000002c0: 14bd 66be 6024 53be e327 b3bc dc49 e83d
000002d0: fedb 9abd 11ff 8dbe daaa 03be 0c17 6f3e
000002e0: cf18 e93d 57cf 873e 3157 b9bd b2fd c03e
000002f0: f937 39bc 21bf c1be 17d6 f53e b065 c1bd
00000300: 5208 883e 0a26 86be c69c fdbe 1d87 9bbe
00000310: 9a17 223e 8bcd 6ebe ccb1 b83c 838f b33d
00000320: 943f a53e 5d96 aa3e 0b05 df3e f71c fd3c
00000330: 57d0 e9bd 1158 983e de03 f1be 7eeb 56be
00000340: 4721 d9bb 2546 853e deb8 813e f7ae 86bc
00000350: c02b 0a3d 6212 833e 9987 e2be 7ee5 e63a
00000360: fa86 513e 2506 453d 760c 46be eb8d 37bc
00000370: 7bc7 cf3e e9d5 31be 8b9d b3bd 97d5 96bd
00000380: 4aa8 8a3e 3e25 d73d 088c 003f 478e 923d
00000390: bcb7 473e f9f5 b4be 83bd 7b3e 9378 afbd
000003a0: 0faa 58bf 6b81 f0bd fd45 a7be 355a 953e
000003b0: 34c4 383f 9a33 2ebe 7d09 4c3d f4e3 cb3e
000003c0: b69c 1d3e 4e26 e73e 80d8 f1bd 27c3 71bc
000003d0: ac6d 18bc b9db 323e 35eb c0bd 942b 25be
000003e0: 2ea9 283d 4b1c 62bd 5f8f 1a3f 8f30 fa3d
000003f0: 1cf6 28be d856 b33d 6f61 94bd 6499 0f3e

bias_ih_l0 f4 [128]
-0.030952284 -0.066345155 0.10875148 0.11020323 -0.009641828 0.14368105 0.13780078 -0.13457356
0.041545454 0.13552079 -0.057970867 -0.11624763 0.042421874 0.15030636 -0.18913327 0.0228384
0.01762541 0.13726881 0.27738914 -0.016001016 0.2061818 -0.03858172 -0.082955144 -0.10100841
-0.0058166287 -0.058080338 0.096529625 0.0027150107 0.13114077 0.07655369 0.24590893 0.08244539
0.16932717 -0.13321337 -0.10938307 -0.102349594 0.007831411 0.10382559 0.08859061 0.22001451
0.19907114 0.34972793 0.076934 0.22719686 -0.09771115 0.14644435 -0.030284612 -0.08885768
-0.03733105 0.26011992 0.311288 0.15229064 0.16517179 0.15590757 -0.13212614 0.0453964
-0.022953177 0.08928471 0.15379977 0.1970214 -0.17366733 0.10166995 0.0180229 -0.0034928937
-0.18993644 0.2483509 0.19702701 -0.14447753 0.18777844 0.07264832 0.3363205 0.15898365
0.10182843 -0.09396585 0.5508517 0.06276152 0.13294943 0.37423828 0.12160791 -0.41894558
-0.48403183 -0.25593245 0.2774679 -0.1163907 0.14494133 -0.35520232 0.08589356 0.2093192
-0.2986742 0.0626868 0.15843123 0.10913462 -0.5130319 0.08446731 -0.15311514 -0.7010306
-0.009315852 0.17166993 0.23998643 0.16220221 0.16356425 0.25555822 0.28163975 0.114755355
0.07444098 0.34654593 0.10622632 -0.09173773 -0.040630054 0.22946395 0.04700443 0.09939232
0.12944645 -0.059052695 0.26706818 0.17842886 0.002196356 0.17414759 0.05057417 -0.0739264
0.23966217 0.029575855 0.33806074 -0.058724098 -0.09862791 0.066773586 0.18271814 0.015260766
00000000: a58f fdbc f8df 87bd 19b9 de3d 3bb2 e13d
00000010: c2f8 1dbc 2021 133e a61b 0d3e a7cd 09be
00000020: 912b 2a3d f6c5 0a3e dc72 6dbd 3d13 eebd
00000030: 8fc2 2d3d e9e9 193e 27ac 41be 9917 bb3c
00000040: 2a63 903c 3290 0c3e f305 8e3e 9014 83bc
00000050: 5221 533e de07 1ebd 63e4 a9bd 7fdd cebd
00000060: 6b99 bebb a6e5 6dbd 53b1 c53d 52ee 313b
00000070: c449 063e 2ec8 9c3d 8dcf 7b3e 21d9 a83d
00000080: 1a64 2d3e 1669 08be 3b04 e0bd aa9c d1bd
00000090: 524f 003c 83a2 d43d fe6e b53d 7c4b 613e
000000a0: 4ed9 4b3e 8a0f b33e 938f 9d3d 4ba6 683e
000000b0: c91c c8bd 82f5 153e 6f17 f8bc 04fb b5bd
000000c0: 71e8 18bd 702e 853e 2461 9f3e 14f2 1b3e
000000d0: cb22 293e 3ca6 1f3e 134c 07be 93f1 393d
000000e0: 4d08 bcbc e7da b63d b07d 1d3e fabf 493e
000000f0: d9d5 31be 5638 d03d c3a4 933c 08e9 64bb
00000100: b37e 42be b34f 7e3e 73c1 493e ebf1 13be
00000110: fe48 403e a4c8 943d 3332 ac3e 9ccc 223e
00000120: 6d8b d03d 2b71 c0bd 9e04 0d3f 1d89 803d
00000130: e523 083e 299c bf3e 910d f93d 0980 d6be
00000140: 05d3 f7be 9409 83be 4610 8e3e 3f5e eebd
00000150: 806b 143e 14dd b5be f6e8 af3d c657 563e
00000160: d3eb 98be f061 803d cc3b 223e f981 df3d
00000170: 0f56 03bf 32fd ac3d 37ca 1cbe be76 33bf
00000180: 84a1 18bc 3eca 2f3e 01bf 753e 5618 263e
00000190: 637d 273e 87d8 823e 1633 903e db04 eb3d
000001a0: 8374 983d 786e b13e 2f8d d93d fee0 bbbd
000001b0: b36b 26bd 99f8 6a3e b887 403d 338e cb3d
000001c0: 9c8d 043e 3de1 71bd 29bd 883e 0eb6 363e
000001d0: bdf0 0f3b bf53 323e dc26 4f3d b966 97bd
000001e0: 006a 753e 1049 f23c 4c16 ad3e ae88 70bd
000001f0: 6efd c9bd 97c0 883d 771a 3b3e 4b08 7a3c

bias_hh_l0 f4 [128]
0.19808719 0.1931431 0.03893955 -0.05872753 0.084392145 0.23136175 -0.108818434 -0.030489063
0.12022237 0.2076517 0.14708586 0.09250654 0.042963352 0.15959182 0.040150918 0.07391306
-0.033421516 0.05814649 0.18714659 -0.060962785 0.21124634 0.070852555 0.21142834 -0.17448583
-0.112813994 -0.14123851 0.06077124 -0.09346009 0.15698314 0.10076235 0.105094135 0.111416474
0.035119966 0.087799616 0.014541623 0.0020581563 0.018243585 -0.06304023 -0.03451607 -0.069956124
-0.06257262 0.17103423 -0.004397444 0.12144176 0.04683328 0.15953694 -0.1867286 -0.16278264
0.030135168 2.375702e-05 0.16628575 -0.034892865 0.15757854 0.079029545 0.012710606 -0.10217794
0.001481843 0.13418877 0.06452591 -0.021934897 0.024781771 -0.09060258 -0.10151374 0.17346029
-0.010648075 0.2662941 0.008314204 -0.11129965 0.26127446 -0.12861335 0.13212016 0.15831381
-0.15890197 0.12869333 0.47577298 0.17009056 0.094080046 0.44712007 0.09870858 -0.31217322
-0.39513183 -0.084755994 -0.005734734 -0.01834222 0.19190758 -0.31351292 0.2174786 0.14499255
-0.23452075 0.2852236 -0.045767725 0.12527142 -0.6617533 0.04581036 0.071912296 -0.880595
0.25506768 0.147642 0.13939202 -0.10411467 -0.009615627 0.26875365 0.20672785 0.18847935
0.117514566 0.35927135 0.051456455 -0.070966356 -0.032748904 0.088621005 0.112746954 0.20147246
0.277539 -0.0006670379 0.045116093 0.16371857 -0.014971189 -0.015983772 0.17143717 0.2128533
0.1145964 0.15540922 0.12639578 0.1266756 0.17688812 0.13396585 0.107539564 0.079970926
00000000: 5ed7 4a3e 4ec7 453e 147f 1f3d 478c 70bd
00000010: cad5 ac3d 18ea 6c3e 33dc debd 33c4 f9bc
00000020: 2537 f63d a6a2 543e ad9d 163e 1274 bd3d
00000030: 57fa 2f3d 0a6c 233e 4a75 243d bb5f 973d
00000040: 00e5 08bd 042b 6e3d 5ba3 3f3e 1db4 79bd
00000050: f650 583e 251b 913d ac80 583e 6aac 32be
00000060: 060b e7bd d4a0 10be 44eb 783d 0168 bfbd
00000070: 30c0 203e 7e5c ce3d 983b d73d 522e e43d
00000080: f4d9 0f3d 49d0 b33d fd3f 6e3c 22e2 063b
00000090: 9273 953c 3c1b 81bd b960 0dbd 2845 8fbd
000000a0: 1326 80bd 9923 2f3e 6f18 90bb 75b6 f83d
000000b0: 41d4 3f3d a75d 233e c835 3fbe 7eb0 26be
000000c0: 07de f63c d049 c737 d046 2a3e d2eb 0ebd
000000d0: 455c 213e 3eda a13d 2540 503c ab42 d1bd
000000e0: 663a c23a c868 093e 2926 843d d0b0 b3bc
000000f0: 2403 cb3c d88d b9bd 70e6 cfbd 939f 313e
00000100: 4375 2ebc b357 883e 4d38 083c 12f1 e3bd
00000110: c4c5 853e 38b3 03be 824a 073e 041d 223e
00000120: 33b7 22be 2fc8 033e 8498 f33e 382c 2e3e
00000130: 0aad c03d ecec e43e b927 ca3d 2bd5 9fbe
00000140: b84e cabe 8d94 adbd 6fea bbbb 6c42 96bc
00000150: 6c83 443e c484 a0be b6b2 5e3e ed78 143e
00000160: 3526 70be d408 923e f076 3bbd 2747 003e
00000170: aa68 29bf a5a3 3b3d c146 933d ad6e 61bf
00000180: 3b98 823e 772f 173e c8bc 0e3e 123a d5bd
00000190: dd8a 1dbc 149a 893e 77b0 533e bb00 413e
000001a0: 7aab f03d 6af2 b73e 01c4 523d cf56 91bd
000001b0: b723 06bd ee7e b53d e0e7 e63d cc4e 4e3e
000001c0: 9819 8e3e 28dc 2eba a7cb 383d d7a5 273e
000001d0: b849 75bc 66f0 82bc 3a8d 2f3e 37f6 593e
000001e0: 84b1 ea3d 9823 1f3e e56d 013e 40b7 013e
000001f0: 2922 353e 582e 093e b43d dc3d ccc7 a33d

weight_ih_l0_reverse f4 [128, 2]
0.29365614 0.17476963 0.038891885 0.022798369 -0.12165078 -0.15726618 0.38976058 0.32884637
-0.20759533 0.023814596 0.0064647426 -0.18891478 -0.38743627 -0.46177298 0.34993714 -0.39666176
0.21157624 -0.7432675 -0.44082206 0.40806022 -0.460327 0.34613788 0.3872525 -0.019728469
-0.4021774 -0.088156864 -0.41285005 -0.05432301 0.7579176 -0.5387271 0.36426416 0.10974431
-0.11370199 -0.14473474 0.18729593 0.44100896 0.0103541175 -0.20317854 0.030793147 0.16580734
0.0049964157 0.19745182 0.48811436 0.3113746 -0.100818895 0.14414215 -0.10876554 -0.09580664
-0.9967194 -0.08593991 -0.72738045 -0.33706954 -0.6370941 -0.20534486 -0.07291028 0.16486591
0.4134353 -0.2991046 -0.12833522 0.1620034 -0.27449533 0.14559773 -0.537611 -0.4402715
0.27120498 0.45453456 0.069694646 0.0045291292 -0.18062194 -0.31753513 0.29580274 0.3864306
-0.24187972 0.054356135 0.38577792 -0.13691999 -0.47285882 -0.43487823 0.39368656 -0.20415273
0.3048441 -0.2361434 -0.26966357 0.18850015 -0.022167386 0.0823537 0.253638 -0.04299141
-0.15632345 -0.0648482 -0.23994382 -0.01972646 0.5317389 -0.48067284 0.4350189 0.16033146
-0.14973907 -0.06939383 -0.11148306 0.3826045 -0.13895757 -0.111666895 -0.23579788 0.123869404
0.011420532 0.1810121 0.2800636 0.107121944 -0.09199051 -0.014953923 -0.5256563 -0.21583025
-0.5048362 -0.0873689 -0.19704103 -0.3187389 -0.25506833 -0.1736806 0.07439525 -0.06713906
0.121243246 -0.060108647 -0.0987411 0.20382921 -0.29638946 0.19333223 0.14726582 -0.47436792
-0.33533964 -0.25899467 0.17593193 0.397491 0.2535989 0.12424765 -0.33697945 -0.28835532
0.26778817 0.43371484 0.25579336 -0.082538344 -0.29076198 -0.39166594 -0.40970525 0.20801309
-0.035736874 -0.7612131 -0.16857152 0.48885518 0.45375818 -0.23750295 0.48352626 -0.083558716
0.34610495 0.06811728 0.44029102 -0.119155385 0.11018336 -0.3758628 0.240308 0.062105272
-0.071656734 0.56790066 0.30255738 0.78009444 0.13259833 -0.4210947 -0.604962 0.2616026
-0.31832007 -0.04215139 -0.4043939 -0.10768999 -0.28933942 0.17234398 0.17583941 0.27818063
-0.47354072 0.26661232 0.5112865 0.41555545 -0.3870544 -0.12332573 -0.14467487 -0.30425403
-0.42253983 0.24390124 0.33759418 0.053241972 0.2062514 -0.3014196 0.16740125 -0.2936847
0.3350793 0.2563195 0.04402208 -0.03591909 -0.025703065 -0.21703163 -0.24260359 0.0032469584
-0.3288841 0.15071836 0.011112963 -0.0036363343 -0.5012708 -0.33698365 0.5096772 -0.4899944
-0.18153498 -0.63408625 -0.2917277 0.054211397 -0.26070374 0.14673917 0.50861 -0.14591284
-0.25346303 -0.22268958 -0.2436276 0.16023438 1.1023347 -0.6345679 0.3866134 0.08009749
0.07400894 0.0013933633 0.009733595 0.12699366 -0.10803367 0.002491407 -0.12511925 0.31175056
0.2648866 -0.04912839 0.26328284 0.4106527 0.07609251 -0.028682593 -0.38525254 -0.08480809
-0.47573757 0.0410497 -0.1721977 -0.35559338 -0.8841742 -0.19628796 0.114240944 0.16332568
0.8371152 -0.4230128 -0.23099105 -0.08209398 -0.22522755 0.21750766 -0.22646397 -0.15955848
00000000: 195a 963e cff6 323e 194d 1f3d a5c3 ba3c
00000010: 0b24 f9bd 630a 21be b38e c73e 8d5e a83e
00000020: df93 54be d416 c33c 31d6 d33b e072 41be
00000030: 0c5e c6be 826d ecbe f62a b33e 4017 cbbe
00000040: 71a7 583e c746 3ebf 6eb3 e1be 45ed d03e
00000050: fbaf ebbe fc38 b13e f645 c63e 999d a1bc
00000060: 32ea cdbe 968b b4bd 1561 d3be ce81 5ebd
00000070: e306 423f 05ea 09bf d580 ba3e a0c1 e03d
00000080: 97dc e8bd 5835 14be 81ca 3f3e edcb e13e
00000090: 51a4 293c 090e 50be e941 fc3c 66c9 293e
000000a0: f9b8 a33b cf30 4a3e 20ea f93e 7e6c 9f3e
000000b0: 237a cebd 009a 133e 78c0 debd 4636 c4bd
000000c0: 0129 7fbf 4301 b0bd 9b35 3abf 6194 acbe
000000d0: 9918 23bf ec45 52be fc51 95bd 9cd2 283e
000000e0: cbad d33e 3d24 99be 4f6a 03be 38e4 253e
000000f0: a78a 8cbe 9217 153e e0a0 09bf 446b e1be
00000100: 61db 8a3e c1b8 e83e 11bc 8e3d 1769 943b
00000110: f5f4 38be f793 a2be 7573 973e 3bda c53e
00000120: 51af 77be 8aa4 5e3d af84 c53e c134 0cbe
00000130: 8d1a f2be 5ca8 debe 4991 c93e 6a0d 51be
00000140: 8714 9c3e 93cf 71be 5811 8abe 2f06 413e
00000150: 6198 b5bc 0fa9 a83d d7dc 813e c317 30bd
00000160: 4113 20be 22cf 84bd d5b3 75be 6399 a1bc
00000170: 0a20 083f c01a f6be ccba de3e ee2d 243e
00000180: 3355 19be 5a1e 8ebd 3b51 e4bd bde4 c33e
00000190: e54a 0ebe 9db1 e4bd 0075 71be 3eaf fd3d
000001a0: 2f1d 3b3c 3c5b 393e 7f64 8f3e c062 db3d
000001b0: 8565 bcbd 4d01 75bc 6991 06bf 9b02 5dbe
000001c0: f23c 01bf 77ee b2bd 20c5 49be bf31 a3be
000001d0: 5198 82be 54d9 31be 895c 983d 3480 89bd
000001e0: 614e f83d 7c34 76bd c638 cabd 9bb8 503e
000001f0: 5cc0 97be e2f8 453e dacc 163e 5ae0 f2be
00000200: a3b1 abbe f39a 84be 8027 343e f183 cb3e
00000210: b7d7 813e 8d75 fe3d 9288 acbe 4fa3 93be
00000220: 881b 893e df0f de3e 59f7 823e dd09 a9bd
00000230: c1de 94be 7088 c8be e3c4 d1be 6201 553e
00000240: d460 12bd ddde 42bf 039e 2cbe 3a4b fa3e
00000250: fe52 e83e f933 73be c190 f73e d520 abbd
00000260: ab34 b13e 1381 8b3d d36d e13e bd07 f4bd
00000270: d0a7 e13d 1771 c0be 4d13 763e 1962 7e3d
00000280: c4c0 92bd f061 113f cde8 9a3e 45b4 473f
00000290: dbc7 073e b999 d7be cade 1abf c7f0 853e
000002a0: d9fa a2be f0a6 2cbd b80c cfbe 928c dcbd
000002b0: 4c24 94be f17a 303e 3f0f 343e b16d 8e3e
000002c0: ee73 f2be 6981 883e ace3 023f afc3 d43e
000002d0: ff2b c6be 3392 fcbd a625 14be 2fc7 9bbe
000002e0: 2457 d8be 3fc1 793e 25d9 ac3e 4114 5a3d
000002f0: 9133 533e ab53 9abe 3c6b 2b3e d75d 96be
00000300: 848f ab3e 4f3c 833e 7f50 343d e51f 13bd
00000310: 3c8f d2bc 8a3d 5ebe 136d 78be ecca 543b
00000320: 7f63 a8be ea55 1a3e 2513 363c 914f 6ebb
00000330: 4853 00bf 1f89 acbe 347a 023f 8ce0 fabe
00000340: 4ee4 39be 7a53 22bf 555d 95be c50c 5e3d
00000350: f67a 85be cb42 163e 4434 023f 2d6a 15be
00000360: e8c5 81be bd08 64be 8379 79be 7b14 243e
00000370: 4e19 8d3f 0b73 22bf 31f2 c53e 270a a43d
00000380: 0092 973d 84a1 b63a a879 1f3c a00a 023e
00000390: c240 ddbd e046 233b 431f 00be c59d 9f3e
000003a0: 379f 873e da3a 49bd 02cd 863e 1241 d23e
000003b0: 64d6 9b3d c2f7 eabc d23f c5be ddaf adbd
000003c0: e093 f3be bb23 283d 9854 30be 5610 b6be
000003d0: 3e59 62bf b6ff 48be 28f7 e93d d93e 273e
000003e0: 2f4d 563f 2295 d8be eb88 6cbe e320 a8bd
000003f0: 0da2 66be 54ba 5e3e 2ce6 67be 4c63 23be

weight_hh_l0_reverse f4 [128, 32]
-0.42768288 0.34169555 -0.103766866 0.031568997 0.09186431 0.2768435 -0.20264944 -0.05501319
-0.06715188 0.33651924 0.130734 -0.09765218 0.16527012 0.18120468 0.002277492 0.3877944
0.1271609 0.30202606 -0.0073789097 0.02812384 -0.29995456 0.027423726 0.20196493 0.118615575
-0.1370918 0.098792315 -0.30291918 -0.39116487 0.116788894 0.11868749 -0.33618358 0.10866232
-0.16598347 0.19593725 0.033895187 0.2064654 -0.11958948 -0.15091604 -0.06999595 -0.008965051
-0.16319284 0.19076534 -0.14852786 -0.19010206 0.056741904 -0.18408069 -0.075568855 -0.059326507
-0.12739407 -0.14855663 -0.016170103 0.04195815 -0.08609106 0.07725521 0.13453825 -0.07069422
0.0076182247 -0.08759634 0.016951976 -0.13118026 0.061723284 -0.043715823 0.0035356614 0.05529131
0.17203481 -0.23125783 -0.12162503 -0.0077623297 0.22226742 0.26539952 0.13064714 -0.18710561
-0.050787687 0.04339149 0.542908 0.1639753 0.21001421 0.23103395 0.1324264 0.2933265
-0.61055815 -0.17522551 0.0026620883 -0.14232506 0.0710556 -0.24286544 0.15097769 -0.0667582
-0.22755502 0.5182558 -0.032740023 -0.008277195 -0.025444739 0.035278264 -0.075804785 -0.21293445
0.029858762 0.0002800518 0.21943761 -0.2872985 0.3639619 -0.08324582 -0.5491068 0.359821
-0.46380627 -0.104470074 0.051155455 0.3524338 0.28109086 0.09842578 -0.19466811 0.2464319
0.21922964 0.30629268 -0.28503358 -0.04671978 -0.44756526 0.074315846 -0.40161026 0.5901081
-0.34115285 0.4775371 -0.3041905 -0.04989922 0.14016277 0.21991588 0.0027562524 -0.239341
0.38610908 -0.117722824 -0.014850269 0.1393849 -0.15942255 -0.049508136 -0.29347083 0.06126397
-0.16652128 -0.16404094 0.0667603 -0.083954774 -0.13553336 0.33821788 -0.2539911 -0.13922715
-0.06535074 -0.2785761 -0.15231527 0.09901952 0.0015243741 0.19085138 -0.21557626 0.17895079
-0.35328987 0.34097818 -0.26492873 0.22034872 0.11763008 0.083521806 -0.07548174 -0.423556
-0.07769492 -0.12514725 -0.096563175 0.010770584 0.044974055 0.24447465 -0.05349847 -0.26753893
-0.059608884 -0.06333805 -0.013676678 -0.09588499 -0.14670344 0.1644054 0.04676452 0.081619635
0.018592924 -0.08003678 -0.11788113 0.062417604 0.06767423 0.10433868 -0.35046723 0.024318408
0.020629313 -0.1588769 -0.16640545 -0.14063884 -0.24643534 0.10576285 0.12862253 0.052905962
0.9318314 -0.33665457 -0.10754716 0.19344887 -0.2924051 -0.30617663 0.47009736 -0.11174892
-0.034974825 -0.54472613 0.18667892 0.10087005 -0.37732846 0.07637214 -0.09209762 -0.025724808
-0.37998185 -0.4246188 0.06139583 0.16310132 0.37016433 0.46080834 0.19805303 -0.27968842
0.013472562 0.19121508 0.3500128 0.28511724 -0.08212685 -0.5782126 0.16758215 0.20343894
0.08234593 -0.2128269 -0.00039422128 -0.061921436 -0.033128552 0.2169781 -0.20804325 -0.3499749
-0.046983987 -0.088128954 0.27032956 0.041960094 -0.006472706 0.1634841 0.13896927 -0.027830044
0.10504101 -0.07148954 -0.2267365 -0.097178414 -0.098314986 0.033710666 -0.07613068 0.091647774
0.15505798 0.054301977 0.07725254 -0.013887292 -0.12768613 0.06517257 0.020318974 0.1457009
00000000: 40f9 dabe b8f2 ae3e b983 d4bd 7e4e 013d
00000010: 5b23 bc3d 6ebe 8d3e 5683 4fbe 8355 61bd
00000020: ed86 89bd 404c ac3e 22df 053e defd c7bd
00000030: 923c 293e b88d 393e fa41 153b fd8c c63e
00000040: 7836 023e 29a3 9a3e c8ca f1bb f863 e63c
00000050: a593 99be b9a7 e03c e5cf 4e3e b9ec f23d
00000060: cb61 0cbe a053 ca3d 3918 9bbe c346 c8be
00000070: 042f ef3d 6d12 f33d 4120 acbe 5a8a de3d
00000080: 92f7 29be c6a3 483e aed5 0a3d aa6b 533e
00000090: 54eb f4bd bc89 1abe 095a 8fbd 26e2 12bc
000000a0: 061c 27be fd57 433e b017 18be 1daa 42be
000000b0: 336a 683d a67f 3cbe d8c3 9abd 5a00 73bd
000000c0: 9773 02be 3b1f 18be 2a77 84bc 4fdc 2b3d
000000d0: 8250 b0bd fb37 9e3d 65c4 093e 22c8 90bd
000000e0: 4da2 f93b b665 b3bd dfde 8a3c 1e54 06be
000000f0: 8ed1 7c3d 5d0f 33bd 8eb6 673b 2479 623d
00000100: e529 303e dace 6cbe 8b16 f9bd 245b febb
00000110: 129a 633e 72e2 873e 5dc8 053e 9d98 3fbe
00000120: c006 50bd 46bb 313d 05fc 0a3f 24e9 273e
00000130: f70d 573e 2a94 6c3e c99a 073e e42e 963e
00000140: 8a4d 1cbf 516e 33be 6e76 2e3b a9bd 11be
00000150: 9985 913d b8b1 78be e599 1a3e 86b8 88bd
00000160: 2f04 69be 69ac 043f 671a 06bd 129d 07bc
00000170: 7c71 d0bc f17f 103d 8a3f 9bbd 7d0b 5abe
00000180: 5d9a f43c ebd3 9239 41b4 603e ca18 93be
00000190: 3759 ba3e c97c aabd 4392 0cbf 753a b83e
000001a0: 0478 edbe 68f4 d5bd 6288 513d 3472 b43e
000001b0: 24eb 8f3e 7593 c93d 1457 47be a558 7c3e
000001c0: bc7d 603e 65d2 9c3e ecef 91be 3d5d 3fbd
000001d0: 4627 e5be e832 983d dc9f cdbe 5311 173f
000001e0: 96ab aebe be7f f43e dbbe 9bbe 2063 4cbd
000001f0: d486 0f3e a131 613e 3ea2 343b cf15 75be
00000200: 17b0 c53e aa18 f1bd 8b4e 73bc eaba 0e3e
00000210: aa3f 23be 0bc9 4abd cf41 96be eeef 7a3d
00000220: 8e84 2abe 59fa 27be a0b9 883d 7bf0 abbd
00000230: 42c9 0abe e52a ad3e 1f0b 82be 9091 0ebe
00000240: 9cd6 85bd 87a1 8ebe 89f8 1bbe bfca ca3d
00000250: 82cd c73a 8b6e 433e 06c0 5cbe e03e 373e
00000260: 69e2 b4be b194 ae3e bda4 87be 18a3 613e
00000270: 0ae8 f03d 7b0d ab3d 2c96 9abd 55dc d8be
00000280: 841e 9fbd 9a26 00be eac2 c5bd 1b77 303c
00000290: b736 383d 9057 7a3e 3621 5bbd ddfa 88be
000002a0: 7228 74bd 61b7 81bd 2514 60bc 5a5f c4bd
000002b0: 6d39 16be e459 283e 278c 3f3d 3228 a73d
000002c0: 3050 983c 53ea a3bd a96b f1bd 9aa9 7f3d
000002d0: c998 8a3d 85af d53d 7170 b3be 6637 c73c
000002e0: cefe a83c a0b0 22be 3166 2abe a103 10be
000002f0: 8c59 7cbe 319a d83d a0b5 033e ecb3 583d
00000300: 818c 6e3f fd5d acbe af41 dcbd 7617 463e
00000310: 1fb6 95be 2fc3 9cbe 9ab0 f03e 9edc e4bd
00000320: c341 0fbd 2c73 0bbf c228 3f3e f594 ce3d
00000330: 3231 c1be ff68 9c3d ad9d bcbd d5bc d2bc
00000340: fb8c c2be a367 d9be 327a 7b3d 0804 273e
00000350: 2e86 bd3e 12ef eb3e 6ace 4a3e 5233 8fbe
00000360: 05bc 5c3c e3cd 433e e134 b33e e3fa 913e
00000370: 1f32 a8bd be05 14bf a89a 2b3e 4c52 503e
00000380: fca4 a83d 4bef 59be 7caf ceb9 55a1 7dbd
00000390: ceb1 07bd 822f 5e3e 4a09 55be e92f b3be
000003a0: 4872 40bd f47c b4bd a368 8a3e 59de 2b3d
000003b0: fe18 d4bb 6068 273e f64d 0e3e d5fb e3bc
000003c0: be1f d73d 1c69 92bd 9d2d 68be 7a05 c7bd
000003d0: 5e59 c9bd 3214 0a3d 67ea 9bbd d4b1 bb3d
000003e0: 85c7 1e3e c06b 5e3d 9436 9e3d 8687 63bc
000003f0: 27c0 02be 3279 853d fa73 a63c 9e32 153e
