experiments/pedestrians/models/models_14_Feb_2024_17_26_50_eth_vel_ar3/model_registrar-65.pt (torch, 527902 bytes, 43 tensors)

weight_ih_l0 f4 [128, 6]
0	0x3db50592	0.08838953
1	0x3dd0b3ad	0.101905204
2	0xbe8d7745	-0.27630058
3	0xbdd04218	-0.101688564
4	0xbd99d25d	-0.07510827
5	0xbd3ce959	-0.046120975
6	0xbe566641	-0.20937444
7	0xbecf4406	-0.40481585
8	0xbd8791b1	-0.06619585
9	0x3e5626cf	0.20913242
10	0x3dee67a2	0.1164086
11	0xbe358215	-0.17725404
12	0x3d61d5a8	0.0551354
13	0x3ca1b578	0.019739851
14	0xbea9c250	-0.3315606
15	0xbe80c760	-0.2515211
16	0xbe94ad5d	-0.29038516
17	0xbd4909ef	-0.04908174
18	0x3e2a9c86	0.16661271
19	0x3e3a8626	0.18215236
20	0x3df5c02d	0.11999545
21	0x3d35d96e	0.04439681
22	0x3dd08504	0.10181621
23	0xbcee0ace	-0.029057886
24	0xbd90fa60	-0.07079005
25	0x3d773177	0.060349908
26	0xbe643c4d	-0.22288628
27	0xbec4673a	-0.38360006
28	0x3f808313	1.0040001
29	0xbfd910b6	-1.6958225
30	0x3e53b269	0.20673527
31	0x3e060167	0.13086472
32	0x3e87f263	0.26552114
33	0xbd92473c	-0.07142493
34	0x3edadd33	0.42746887
35	0xbeae2ad9	-0.34017065
36	0xbec6efa9	-0.3885472
37	0x3dea1e4d	0.11431561
38	0x3e686906	0.22696313
39	0xbe89d09c	-0.2691697
40	0x3db1d8d5	0.086839356
41	0xbe87a5d8	-0.26493716
42	0xbebf96b4	-0.37419665
43	0xbd15c9e4	-0.03656949
44	0x3f047b62	0.5175077
45	0xbdeb3812	-0.11485304
46	0x3e11fbe8	0.14256251
47	0xbddd15d6	-0.107951805
48	0x3e8b0281	0.27150348
49	0x3e684c83	0.22685437
50	0x3f1485eb	0.5801684
51	0xbed76b0f	-0.42073867
52	0x3edec1a2	0.43507105
53	0xbe48949e	-0.19587943
54	0xbda9d10a	-0.08291824
55	0xbe741044	-0.2383433
56	0x3d90fbba	0.07079263
57	0x3eae30c7	0.3402159
58	0x3df34d40	0.11879969
59	0xbe16b628	-0.14717925
60	0x3e0207fe	0.12698361
61	0xbe929e93	-0.28636608
62	0xbed8c710	-0.42339373
63	0x3ee045d2	0.4380327
64	0xbd310fac	-0.043227836
65	0x3dd8a104	0.10577586
66	0x3cb7871c	0.022403292
67	0x3e2c5a7c	0.16831392
68	0xbf076251	-0.52884394
69	0xbe2a27e4	-0.1661678
70	0xbfa35e24	-1.2763104
71	0xbf25535d	-0.6458033
72	0x3b007af2	0.001960453
73	0xbce4c10c	-0.027924083
74	0xbe836de1	-0.25669768
75	0x3e812305	0.2522203
76	0x3ded1498	0.115761936
77	0xbccdcd41	-0.025122287
78	0xbe042f2f	-0.12908624
79	0x3d2ad828	0.04171005
80	0x3ee83bd9	0.4535816
81	0x3ea82772	0.32842594
82	0x3efd2317	0.49440834
83	0x3ebc1e97	0.36742088
84	0x3d6472de	0.05577361
85	0xbd429f02	-0.047514923
86	0xbf4e1e5b	-0.8051507
87	0x3d2d7da9	0.042356167
88	0xbf1a2011	-0.6020518
89	0xbd8d678c	-0.069045156
90	0xbeae5879	-0.34051874
91	0x3e29d006	0.16583261
92	0x3f151b20	0.58244514
93	0x3d524533	0.051335525
94	0xbe051575	-0.12996466
95	0x3efeb792	0.49749428
96	0x3e8a9372	0.27065617
97	0xbd733d5a	-0.05938468
98	0xbf0f855b	-0.5606286
99	0x3ec5ea2b	0.38655218
100	0xbf1e8a1a	-0.61929476
101	0x3dbec488	0.09314829
102	0x3e06b168	0.13153613
103	0xbe5899da	-0.2115244
104	0xbe532dc8	-0.20622933
105	0x3e692e01	0.22771455
106	0x3d1cca1f	0.038278695
107	0x3da5ff07	0.08105283
108	0x3e38958a	0.18025795
109	0xbe8a134d	-0.2696785
110	0xbe87a233	-0.26490936
111	0x3f15fe17	0.58590835
112	0xbcfa3ffa	-0.030548085
113	0x3f5e8ad9	0.86930615
114	0x3d68c25f	0.05682599
115	0x3cbc89ed	0.023014987
116	0xbeda6a29	-0.4265912
117	0x3dbf458e	0.093394384
118	0xbdf408dd	-0.11915753
119	0x3ecf8fc9	0.40539387
120	0xbecda533	-0.401651
121	0x3ec48939	0.38385943
122	0x3f112ef3	0.56712264
123	0xbeea2e7d	-0.45738593
124	0x3e9b7a30	0.3036666
125	0xbc9ae67d	-0.018908734
126	0x3d848cf9	0.06472201
127	0x3e93b710	0.28850603
128	0x3d1b4539	0.037907813
129	0xbeaadd39	-0.33371904
130	0x3d1e377f	0.038627144
131	0x3d8698f9	0.06572146
132	0xbe52b001	-0.20574953
133	0xbedf75e9	-0.43644646
134	0x3e0334ce	0.12813112
135	0x3e08ba73	0.13352375
136	0x3e9533f2	0.29141194
137	0x3d79310d	0.060837794
138	0xbd9b090c	-0.07570085
139	0x3dd4bc04	0.10387424
140	0x3e280465	0.16407926
141	0xbe43ad2c	-0.19109029
142	0x3d219656	0.039450012
143	0xbdb1961e	-0.08671211
144	0x3e2de596	0.16982111
145	0xbd107c6f	-0.03527492
146	0xbea62386	-0.32448977
147	0xbe4dc886	-0.20096025
148	0xbe69702f	-0.22796701
149	0xbe76fc8b	-0.24119775
150	0xbed0347b	-0.4066504
151	0xbe25d326	-0.16193828
152	0x3d8e8f21	0.069608934
153	0x3e420da4	0.18950516
154	0x3e46662c	0.19374913
155	0x3d35dedd	0.044401992
156	0x3a2d3689	0.00066075526
157	0x3e9b6484	0.30350125
158	0xbf2dd2ea	-0.67899954
159	0xbf2fc84d	-0.6866501
160	0xbeb270b9	-0.34851626
161	0xbbecf3a4	-0.0072311927
162	0xbe5d7266	-0.21625671
163	0x3d8681fc	0.06567761
164	0x3f2d6ac7	0.67741054
165	0x3f0fd0c2	0.56177914
166	0x3f6e2c18	0.9303603
167	0x3f84e29e	1.0381658
168	0x3e61e7dc	0.22061104
169	0xbdb3910c	-0.087679
170	0xbeabe03b	-0.33569512
171	0x3e8ef6a2	0.2792254
172	0x3df60f2f	0.12014615
173	0x3e515345	0.20441921
174	0xbeaebe01	-0.34129336
175	0x3d80a948	0.06282288
176	0x3e0cdf34	0.1375702
177	0xbed517dd	-0.4161977
178	0x3e771949	0.2413074
179	0xbdff953a	-0.124796346
180	0xbe3b2e4f	-0.18279384
181	0xbe1ad556	-0.15120444
182	0x3ea8b7d0	0.32952738
183	0x3da9962d	0.08280597
184	0xbd8cb8a3	-0.06871154
185	0xbeb0a81d	-0.3450326
186	0xbdb89f7b	-0.090147935
187	0x3dabce62	0.08388974
188	0x3c8040a7	0.015655829
189	0x3e0612b6	0.13093075
190	0xbe617fc7	-0.220214
191	0xbd6f757b	-0.058461647
192	0x3deee633	0.11665001
193	0x3de833da	0.11338015
194	0xbe4890d2	-0.19586495
195	0xbe0114f9	-0.12605657
196	0xbe27d2e8	-0.16389048
197	0xbe218401	-0.15773012
198	0xbc6a9822	-0.014318498
199	0xbe3023ec	-0.17201203
200	0x3d9207ed	0.07130418
201	0x3dc95dc8	0.098323405
202	0x3dc0dad3	0.094167374
203	0xbe1c26e2	-0.15249208
204	0xbdf75386	-0.12076478
205	0xbd4a540e	-0.049396567
206	0xbcf48f3b	-0.029853454
207	0xbd4d17cf	-0.050071534
208	0xbe53fc42	-0.20701697
209	0x3d9f1103	0.077669166
210	0x3deec897	0.11659353
211	0x3d7f9013	0.06239326
212	0x3e05bf4f	0.1306126
213	0xbe265784	-0.16244322
214	0xbcef6e2e	-0.029227342
215	0x3cbdc5cb	0.023165604
216	0x3d0bdf63	0.034148585
217	0xbddc8030	-0.10766637
218	0x3e57ca00	0.2107315
219	0xbe38c982	-0.18045619
220	0x3eadfac7	0.3398039
221	0xbcd5306a	-0.026024062
222	0x3e5a192f	0.2129867
223	0xbd8102c3	-0.06299355
224	0x3e157f20	0.14599276
225	0xbe595abb	-0.21226017
226	0xbe907e92	-0.28221565
227	0x3c86e475	0.016466359
228	0xbd5a61af	-0.053315815
229	0xbd1e46b8	-0.03864166
230	0x3e3819fc	0.17978662
231	0xbe03f967	-0.12888108
232	0xbe32251f	-0.17396973
233	0x3d9d68fc	0.0768604
234	0xbe017cf4	-0.12645322
235	0xbe4dc477	-0.20094477
236	0x3e84d8fa	0.2594679
237	0xbd988bbd	-0.07448528
238	0xbc37ecac	-0.011225861
239	0xbe304bd9	-0.17216434
240	0x3eaff38a	0.34365493
241	0x3bc42d4d	0.0059868456
242	0x3c81586a	0.01578923
243	0xbe392bc5	-0.18083103
244	0xbd9ba633	-0.07600059
245	0xbdb2f10e	-0.08737384
246	0xbe369309	-0.17829527
247	0xbc0eede1	-0.008723707
248	0x3ea97e41	0.33104137
249	0x3dde2e68	0.10848695
250	0x3e56e49a	0.20985642
251	0x3d6f9ad4	0.058497265
252	0x3e07c1e9	0.13257565
253	0xbe99e360	-0.30056286
254	0xbe25142a	-0.16120973
255	0x3e95c683	0.29253015

weight_hh_l0 f4 [128, 32]
0	0x3d07683c	0.03305839
1	0xbe615069	-0.2200333
2	0x3cc58486	0.024111044
3	0x3ddcb3fd	0.107765175
4	0xbdf61e96	-0.120175526
5	0xbc268ccf	-0.010165407
6	0xbdb1bbeb	-0.08678421
7	0xbe1f8a20	-0.15580034
8	0x3d0827b0	0.033240974
9	0x3e7d48dc	0.24734825
10	0xbe14cb32	-0.14530638
11	0x3d995e3a	0.074886754
12	0xbe0d677e	-0.1380901
13	0x3e5c6b56	0.2152532
14	0x3e30d9b1	0.17270543
15	0x3dc6c515	0.09705559
16	0x3e67e03b	0.22644131
17	0xbe1fcc07	-0.15605174
18	0xbd7afb33	-0.06127472
19	0x3bf1e384	0.0073818583
20	0xbe4d72b2	-0.20063284
21	0xbe02cf43	-0.12774377
22	0xbda7e3b8	-0.08197731
23	0xbe88a9ab	-0.26691946
24	0x3e8dbc67	0.27682802
25	0x3d95b422	0.07309748
26	0xbd9e8926	-0.07741003
27	0x3ebbdc03	0.36691293
28	0x3e3d2ec7	0.18474875
29	0x3cc6cf36	0.024268728
30	0x3e335942	0.17514518
31	0xbde15243	-0.11002018
32	0x3dcffc52	0.10155548
33	0xbe8625c6	-0.26200694
34	0x3db1a0c1	0.086732395
35	0xbdc1c95e	-0.09462236
36	0xbc9593e3	-0.018258994
37	0x3e529bb1	0.20567204
38	0xbd38116a	-0.044938482
39	0xbe56894b	-0.2095081
40	0x3d9b8f88	0.07595736
41	0x3dee603f	0.11639451
42	0xbebcf593	-0.36906108
43	0xbdd3569d	-0.103192545
44	0xbe8f4851	-0.2798486
45	0x3e3d2642	0.18471625
46	0x3dc90f6e	0.09817396
47	0xbdf9daa9	-0.12199909
48	0x3e8624db	0.26199993
49	0x3df0faf1	0.11766613
50	0xbe6e0a52	-0.23246124
51	0x3d219020	0.03944409
52	0xbd6ee8b7	-0.058327403
53	0xbe1e2128	-0.15442336
54	0xbe4497e3	-0.19198565
55	0xbe230375	-0.15919288
56	0x3e14be19	0.14525642
57	0x3e010056	0.12597784
58	0xbe17d47a	-0.14827147
59	0x3bedfd37	0.0072628516
60	0x3c9a1f7c	0.018813841
61	0x3d7d366a	0.06181947
62	0x3e6d2c56	0.23161444
63	0xbdab08fe	-0.083513245
64	0x3de9bac0	0.11412573
65	0xbe0462cb	-0.12928312
66	0xbde19ca3	-0.11016204
67	0x3e04f38e	0.12983534
68	0x3dbd4025	0.0924075
69	0x3e00eb9d	0.1258988
70	0xbe0f87de	-0.14016673
71	0xbe3462b8	-0.17615783
72	0xbd82a889	-0.06379802
73	0x3e57c36f	0.21070646
74	0xbe8ebdba	-0.27879125
75	0x3d2a4342	0.04156805
76	0xbd812e75	-0.06307689
77	0xbe160c09	-0.14653029
78	0x3dd80af4	0.10548964
79	0xbdbf06c9	-0.09327466
80	0x3e05baf4	0.13059598
81	0xbe0d5dc7	-0.13805304
82	0x3e1578fe	0.14596936
83	0xbe07f2d6	-0.13276228
84	0x3d30ecd5	0.04319461
85	0x3d8b8f96	0.06814496
86	0x3de07081	0.109589584
87	0x3e10e0dd	0.14148279
88	0x3e8b4544	0.27201283
89	0x3e058fe3	0.1304317
90	0x3e203cf5	0.15648253
91	0x3de974be	0.1139922
92	0x3df4ca8f	0.119526975
93	0x3dbd85aa	0.0925401
94	0xbd9e17c9	-0.077193804
95	0x3d5647aa	0.052314438
96	0xbdebccb3	-0.11513653
97	0xbd548a34	-0.051889613
98	0xbd31584c	-0.043297097
99	0x3d7ee90b	0.062233966
100	0xbdc5e516	-0.09662835
101	0x3cdd1621	0.026988091
102	0xbdac170b	-0.084028326
103	0x3cc75ae7	0.024335338
104	0xbd74d1ac	-0.05977027
105	0x3e41ceb2	0.18926504
106	0xbeaf7a2d	-0.342729
107	0xbdd5d23e	-0.10440491
108	0xbd723483	-0.05913211
109	0xbd96f6b8	-0.073712766
110	0xbe00dbfc	-0.12583917
111	0xbe2b3d64	-0.16722637
112	0x3d89d257	0.06729572
113	0x3c4b4b66	0.012408113
114	0xbe789728	-0.24276412
115	0xbd497186	-0.04918053
116	0xbd87a2bb	-0.06622835
117	0xbc86fa70	-0.01647684
118	0x3c7eecd5	0.015559395
119	0xbce63da4	-0.028105564
120	0x3e130961	0.14359047
121	0x3e0d0f15	0.13775285
122	0xbda0c7de	-0.07850622
123	0x3e54dfba	0.2078847
124	0x3d8c3fc5	0.068481006
125	0x3ddfb9ab	0.10924085
126	0x3e8f6c5c	0.2801236
127	0xbdb2e345	-0.087347545
128	0xbcc29c72	-0.02375624
129	0xbd8f6b86	-0.0700293
130	0x3e424adb	0.18973868
131	0xbd2c87a1	-0.042121533
132	0x3d5a88f6	0.053353272
133	0x3dfe1049	0.1240545
134	0xbe0377b8	-0.12838638
135	0x3e58b6a3	0.2116342
136	0x3e8f94d1	0.28043225
137	0xbde7465d	-0.112927176
138	0xbe69f110	-0.22845864
139	0xbe89eb56	-0.2693736
140	0x3e5b99c0	0.2144537
141	0x3e050f2d	0.1299407
142	0x3dbf96ff	0.09354972
143	0xbd7bd0a7	-0.061478283
144	0xbe47e515	-0.19520982
145	0xbee6142a	-0.4493726
146	0x3d91d344	0.07120374
147	0x3d87576c	0.06608471
148	0x3de24f0f	0.110502355
149	0x3ebcd401	0.36880496
150	0x3dcbb2a2	0.09946181
151	0x3d45ecdb	0.048321586
152	0x3d9df7e7	0.07713299
153	0xbe841263	-0.25795278
154	0xbce790b5	-0.028267244
155	0xbeb54a87	-0.35408422
156	0x3c4bb144	0.0124324
157	0x3d8d7516	0.06907098
158	0x3e25b321	0.16181614
159	0xbe6dab31	-0.23209836
160	0x3dd4441b	0.103645526
161	0xbe640dc3	-0.22270875
162	0x3db6c270	0.08923805
163	0xbe01f36b	-0.12690513
164	0xbd49bf5d	-0.049254764
165	0xbdbd0bb5	-0.092307486
166	0x3e6190e6	0.2202793
167	0xbe82c3dc	-0.25540054
168	0xbd95bd62	-0.073115125
169	0x3c097bc4	0.008391324
170	0x3e5a74f1	0.21333672
171	0xbd8ef029	-0.06979401
172	0xbe5cd70e	-0.21566412
173	0x3d9266c1	0.07148505
174	0xbb005307	-0.0019580738
175	0xbc834caa	-0.016027767
176	0xbd5c2b1f	-0.05375206
177	0x3e6b5f15	0.2298549
178	0xbe42db04	-0.1902886
179	0x3e670f95	0.22564538
180	0xbdab2ea7	-0.083585076
181	0xbcf71bd0	-0.03016463
182	0x3da1fc0e	0.07909404
183	0xbe549916	-0.20761523
184	0x3dd9042a	0.10596497
185	0x3d947fc5	0.072509326
186	0x3e2a61ee	0.1663892
187	0x3e41cbac	0.18925351
188	0x3d7e521e	0.06209003
189	0xbd71d344	-0.05903937
190	0x3e50f5c5	0.20406254
191	0x3e52724f	0.20551418
192	0x3e10cae0	0.1413989
193	0xbd7f9913	-0.062401842
194	0xbe4a2bca	-0.19743267
195	0x3e12be0b	0.14330308
196	0xbd874935	-0.0660576
197	0xbda0b78e	-0.0784751
198	0x3e8a222c	0.26979196
199	0xbea6fb3b	-0.3261355
200	0xbe11b671	-0.14229752
201	0x3e0d3f44	0.13793665
202	0xbd866661	-0.06562496
203	0xbdef0872	-0.11671533
204	0x3b63f004	0.0034780512
205	0x3e9ce5c8	0.3064406
206	0x3d8ebe4e	0.069698915
207	0x3c3f16d5	0.011663158
208	0x3d592edd	0.053023208
209	0xbd8074a0	-0.062722445
210	0xbd221f36	-0.039580546
211	0xbd640da9	-0.05567709
212	0xbdcc8193	-0.09985652
213	0x3e875bf4	0.26437342
214	0x3e3788ed	0.17923327
215	0xbe0159b6	-0.12631878
216	0xbcd4607e	-0.025924917
217	0x3e75dee7	0.24010812
218	0x3ddd1c43	0.10796406
219	0x3e33ce8c	0.1755926
220	0xbe0f0a73	-0.1396883
221	0xbc391dc8	-0.011298604
222	0xbcbdb802	-0.02315903
223	0x3e0c61de	0.13709208
224	0x3e0cdea8	0.13756812
225	0xbe8e1382	-0.27749258
226	0x3d34b08f	0.044113692
227	0x3e10770b	0.14107911
228	0xbe823dc7	-0.25437757
229	0xbce0db8c	-0.027448438
230	0x3e97139c	0.29507148
231	0xbe29283a	-0.16519251
232	0xbd507668	-0.05089417
233	0xbcf835b4	-0.030299045
234	0x3e08567f	0.13314246
235	0xbc161e42	-0.009162487
236	0xbd8ad3cb	-0.067786776
237	0xbcc8217f	-0.024430035
238	0x3c053787	0.0081309145
239	0x3d887045	0.06662039
240	0x3dab9013	0.08377089
241	0x3e20edf5	0.15715773
242	0xbe13bce2	-0.14427522
243	0x3c90c479	0.01767181
244	0xbedfd965	-0.43720546
245	0x3ddb9f90	0.107237935
246	0xbd84900c	-0.06472787
247	0xbeb9f42b	-0.36319098
248	0x3e4fad47	0.20280944
249	0x3ee14f90	0.44006014
250	0xbe47bbb8	-0.19505203
251	0x3e8ab30c	0.27089727
252	0x3dd5fe19	0.10448856
253	0xbd1783db	-0.03699098
254	0x3dbb6370	0.091498256
255	0x3eac8a2a	0.3369916

bias_ih_l0 f4 [128]
0	0x3c86f3cd	0.016473675
1	0x3d5be83d	0.053688277
2	0x3cafe94e	0.021473553
3	0xbd963281	-0.073338516
4	0xbe154f2e	-0.14580986
5	0x3e294f67	0.16534196
6	0x3d8db6a9	0.06919605
7	0xbe2db3fd	-0.16963191
8	0xbca4a989	-0.020100372
9	0x3d3df345	0.046374578
10	0x3e81ac82	0.25326926
11	0x3ddf0066	0.10888748
12	0x3e3676cb	0.17818753
13	0xbdb7f787	-0.08982759
14	0x3dae4a82	0.08510305
15	0xbdb7b3dd	-0.08969853
16	0xbcaf2a0f	-0.02138236
17	0x3e153a6a	0.14573064
18	0xbce986ee	-0.028506722
19	0x3e067459	0.1313032
20	0x3e044e51	0.129205
21	0xbca3db7c	-0.02000212
22	0x3dba1e97	0.09087866
23	0xbd82b32a	-0.06381829
24	0x3df12f55	0.11776606
25	0x3dccad08	0.099939406
26	0xbd2f4839	-0.042793486
27	0x3c4016c1	0.011724175
28	0xbcb0c55d	-0.021578485
29	0xbbb00ee3	-0.0053728684
30	0xbda96d8e	-0.08272849
31	0x3df48948	0.11940247
32	0x3d844366	0.06458168
33	0xbe868cf2	-0.26279408
34	0xbe6bfed1	-0.23046423
35	0x3cf9046e	0.03039762
36	0xbcaf468c	-0.021395944
37	0xbe28f5e3	-0.16500048
38	0xbe800bb4	-0.2500893
39	0xbe150b01	-0.14554979
40	0xbe54c038	-0.2077645
41	0xbd9cd12c	-0.07657084
42	0xbe604bf1	-0.2190397
43	0x3bf81cfa	0.0075718137
44	0xbe282394	-0.16419822
45	0x3e2d1303	0.16901784
46	0xbd304e56	-0.043043457
47	0xbdf70950	-0.12062323
48	0x3d5a6fce	0.05332928
49	0xbd4e28cb	-0.050331872
50	0xbe2c23e1	-0.16810562
51	0x3da9d731	0.08292998
52	0xbe98f1c2	-0.29871947
53	0xbd940e50	-0.072292924
54	0xbc1c5ccd	-0.00954361
55	0xbd013876	-0.031547986
56	0xbdba28d7	-0.09089821
57	0x3e12dca0	0.14341974
58	0x3d746022	0.059661992
59	0x3dbd6fb3	0.092498206
60	0xbd0c2076	-0.034210645
61	0xbe8ad0dc	-0.27112472
62	0xbe871542	-0.26383406
63	0xbe88edd5	-0.2674395
64	0x3e0eaf03	0.13933949
65	0x3e03e378	0.12879741
66	0xbd8fb525	-0.070169725
67	0x3d13e7b8	0.036109656
68	0xbdd05ec3	-0.10174324
69	0xba6c4a3c	-0.00090137473
70	0x3dc8e8bc	0.098100156
71	0xbd225d1a	-0.03963957
72	0xbd80ad89	-0.06283099
73	0x3d8f252a	0.0698951
74	0xbd97a801	-0.07405091
75	0x3cf740b2	0.030182216
76	0xbdc247df	-0.094863646
77	0xbcbfcfcb	-0.023414513
78	0xbce97204	-0.02849675
79	0xbdc91c9c	-0.0981991
80	0xbd8ffbce	-0.0703045
81	0xbdfb1a55	-0.12260882
82	0x3dca6384	0.09882262
83	0xbc203e4b	-0.009780477
84	0x3d8a4517	0.06751459
85	0x3d6d0d20	0.057873845
86	0x3dd294e4	0.10282305
87	0xbdff642e	-0.1247028
88	0x3dee7292	0.11642946
89	0xbdc172b8	-0.09445709
90	0x3d86fed5	0.06591574
91	0xbdb7b906	-0.08970837
92	0xbd8d240b	-0.0689164
93	0x3e067f42	0.13134483
94	0x3ca93576	0.020655375
95	0xbd6f5278	-0.058428258
96	0x3e6972c7	0.2279769
97	0x3d1c79e3	0.038202178
98	0x3d87a3d1	0.066230424
99	0xbb908f7b	-0.0044116355
100	0x3e42300c	0.18963641
101	0x3dfd061d	0.12354682
102	0x3dd11477	0.102089815
103	0xbe13eb9a	-0.14445344
104	0xbdf6d261	-0.12051845
105	0x3de917ab	0.113814674
106	0x3cbecfbd	0.023292417
107	0x3de22059	0.11041326
108	0x3e14e3ec	0.1454007
109	0xbd9fe871	-0.078080066
110	0x3e01212d	0.12610312
111	0x3dad4719	0.084608264
112	0x3dd89ca8	0.10576755
113	0x3db8a8a5	0.090165414
114	0x3d8a7eab	0.06762441
115	0x3c79a533	0.0152371405
116	0x3e81fc6e	0.253879
117	0x3b30aab6	0.002695722
118	0x3d905f25	0.070493974
119	0xbb931177	-0.004488166
120	0xbd8e1619	-0.069378085
121	0x3e0a7bfe	0.13523862
122	0x3dd313fb	0.10306545
123	0xbc90f511	-0.017694982
124	0x3def48dd	0.116838194
125	0x3e5665ab	0.20937221
126	0xbbdec7fe	-0.0067987433
127	0x3dc5a27d	0.09650133

bias_hh_l0 f4 [128]
0	0xbce3df6b	-0.027816495
1	0x3d88cc55	0.06679598
2	0xbde6066d	-0.11231694
3	0x3db48525	0.08814458
4	0xbb0552af	-0.0020343473
5	0xbda0e338	-0.078558385
6	0xbd04ee80	-0.032454014
7	0x3c01f7ba	0.007932598
8	0x3d85324d	0.06503735
9	0x3e58574e	0.21127054
10	0xbb50bcf7	-0.0031850913
11	0xbc8293b8	-0.015939578
12	0xbd763180	-0.0601058
13	0x3e515901	0.20444109
14	0x3e00ae9d	0.1256661
15	0x3d90d6b5	0.07072202
16	0xbddde65d	-0.10834954
17	0x3e0d9c18	0.13829076
18	0xbdfe5b83	-0.12419798
19	0x3db23a9d	0.08702586
20	0x3e8dc391	0.27688268
21	0x3e249257	0.16071449
22	0x3df48a56	0.11940448
23	0x39fb7964	0.00047964894
24	0x3c9f25c0	0.01942718
25	0x3dadb13e	0.08481072
26	0x3cfbff09	0.030761259
27	0xbda38c6a	-0.07985766
28	0xbdd35cd3	-0.10320439
29	0xbc711ae0	-0.01471588
30	0xbc586c2c	-0.013209384
31	0x3e2da9e9	0.16959347
32	0xbcc60fbe	-0.024177428
33	0xbe7262ab	-0.23670451
34	0x3becc3a5	0.007225471
35	0xbe33f6ea	-0.17574659
36	0x3e92edb0	0.28696966
37	0xbb0d6802	-0.0021576886
38	0xbddf8887	-0.109147124
39	0xbe94ac2f	-0.29037616
40	0xbe0a1da0	-0.13487864
41	0xbe07facd	-0.13279267
42	0xbe4ce85a	-0.2001051
43	0xbd5b9da6	-0.053617142
44	0xbe2afcf1	-0.16698052
45	0xbc2ab0c8	-0.0104181245
46	0x3d80d7a1	0.06291128
47	0xbd906816	-0.07051103
48	0xbd9ea7ef	-0.077468745
49	0xbdf22fef	-0.11825549
50	0xbe0f1b64	-0.13975292
51	0xbdc96eb1	-0.09835566
52	0xbe1e875f	-0.15481327
53	0xbe70bb1c	-0.23508877
54	0xbe6e3126	-0.23260936
55	0xbd73db3a	-0.059535243
56	0xbe96c619	-0.29448012
57	0xbe292c80	-0.16520882
58	0xbe468713	-0.19387464
59	0x3d024643	0.031805288
60	0xbd7fb86f	-0.06243175
61	0xbd1868af	-0.03720921
62	0xbe06e977	-0.13174997
63	0x3d0b109f	0.033951398
64	0xbe135fa2	-0.1439195
65	0xbe0f55ce	-0.13997576
66	0x3dcc9d72	0.09990968
67	0xbc9feb27	-0.019521309
68	0x3e1ea2b6	0.15491757
69	0x3d00b1f9	0.031419728
70	0xbdb44f8f	-0.08804237
71	0x3bed9b6a	0.007251193
72	0x3da09e3f	0.07842683
73	0xbcc256e7	-0.023723079
74	0x3d5c4a4c	0.053781793
75	0x3d4275eb	0.047475737
76	0x3dafd1fe	0.08584975
77	0x3d30400e	0.043029837
78	0xbdd9804f	-0.10620176
79	0x3d44d9db	0.048059326
80	0x3cb9713a	0.022636998
81	0x3df5500b	0.119781576
82	0x3cc6d11c	0.024269633
83	0xbe0ba285	-0.13636215
84	0xbdb7370e	-0.08946048
85	0xbb290975	-0.002579299
86	0xbe10266a	-0.14077154
87	0x3dfcac2b	0.12337526
88	0xbdf9fe9a	-0.122067645
89	0x3c373b06	0.011183506
90	0x3d8d1260	0.068882704
91	0x3ccdee04	0.025137909
92	0xbd6b5cd7	-0.057461586
93	0xbe16d5bc	-0.1472997
94	0xbb7f2da4	-0.0038937116
95	0x3d3aa4dc	0.04556738
96	0x3de74c16	0.11293809
97	0x3e30aad1	0.17252661
98	0xbdb80d8e	-0.0898696
99	0x3e644003	0.22290044
100	0x3e9395a5	0.28825107
101	0x3cdca811	0.026935609
102	0x3e99f15d	0.30066958
103	0x3e2a2087	0.1661397
104	0xbe32b513	-0.17451887
105	0x3e0b6ee3	0.13616519
106	0x3e877464	0.26455986
107	0x3e3fccf4	0.18730527
108	0x3e2157fd	0.15756221
109	0x3debba81	0.11510182
110	0x3d3c3dc6	0.04595735
111	0x3dbd620c	0.092472166
112	0x3dfe7c25	0.124260224
113	0xbd3efb06	-0.046626113
114	0x3e30dd7c	0.1727199
115	0xbdddb34d	-0.108252145
116	0x3e5e2227	0.21692716
117	0x3e4670f2	0.19379023
118	0x3e639abc	0.22226995
119	0x3e032cdd	0.12810083
120	0x3df295f6	0.11845009
121	0x3de318f7	0.11088746
122	0x3e1eb2f6	0.15497956
123	0xbc3c467e	-0.011491416
124	0xbc4cd7cc	-0.012502622
125	0x3e50b8d4	0.20383006
126	0x3ca5a35c	0.020219497
127	0x3e982fda	0.29724008

weight_ih_l0 f4 [128, 2]
0	0x3e011ae6	0.12607917
1	0x3da640f2	0.08117856
2	0x3dc4ba18	0.09605807
3	0x3da4a01c	0.08038351
4	0x3e1cb200	0.15302277
5	0x3d486471	0.048923913
6	0xbe3b3042	-0.18280128
7	0x3c259dde	0.010108439
8	0xbdb269a8	-0.087115586
9	0xbe9f28ba	-0.3108576
10	0x3e09940d	0.13435383
11	0x3df11a32	0.117725745
12	0xbde371a5	-0.1110566
13	0x3e29ba2f	0.1657493
14	0xbea7a529	-0.32743195
15	0x3c8e06c7	0.017337216
16	0x3e2c53b6	0.16828808
17	0xbe10807e	-0.14111516
18	0xbe641e2c	-0.22277135
19	0x3d6e84e0	0.05823219
20	0xbce196e4	-0.02753777
21	0xbd79b0b5	-0.060959537
22	0x3e268278	0.16260707
23	0xbd6e334d	-0.058154393
24	0x3dea5b49	0.114431925
25	0xbe9ce036	-0.3063981
26	0xbe0243c4	-0.12721163
27	0xbc166f3b	-0.009181793
28	0xbe839d3a	-0.25705892
29	0x3db824bb	0.08991381
30	0x3c170df3	0.009219634
31	0x3d4ba0b9	0.049713824
32	0xbe35ef41	-0.1776705
33	0x3e2e566a	0.17025152
34	0xbd883097	-0.06649893
35	0x3e99d858	0.3004787
36	0x3c9f92ac	0.019479118
37	0x3e5121d9	0.20423068
38	0x3e456672	0.19277361
39	0x3db78593	0.08961024
40	0x3eabf807	0.33587667
41	0xbc71118e	-0.014713658
42	0x3e729170	0.23688293
43	0x3ee5b2f8	0.44863105
44	0x3e8f6d4a	0.28013068
45	0x3e5a4687	0.21315967
46	0xbef7db7b	-0.48409638
47	0x3e5590e8	0.20856059
48	0xbd208d96	-0.039197527
49	0x3dacb2d0	0.08432543
50	0x3e01c953	0.12674455
51	0xbe88489a	-0.2661789
52	0xbd99475d	-0.074843146
53	0x3e8bee21	0.27330115
54	0xbe561093	-0.2090476
55	0xbe29d001	-0.16583253
56	0x3bd59cfb	0.0065189577
57	0xbd8b042d	-0.06787906
58	0x3d826c12	0.06368269
59	0x3e9583cf	0.29202124
60	0x3eb11f38	0.3459413
61	0x3cda60d4	0.0266575
62	0x3dd538d1	0.104112275
63	0xbec1fdf5	-0.37889066
64	0x3d6aadae	0.05729454
65	0xbe42754c	-0.18990058
66	0xbd83b889	-0.06431682
67	0xbe8e15a6	-0.2775089
68	0xbdaa2e7e	-0.08309649
69	0x3da8cf4e	0.08242665
70	0x3da4c0ac	0.08044562
71	0x3ec44580	0.38334274
72	0x3e54933f	0.20759295
73	0x3e3d9ef9	0.18517675
74	0xbedc3789	-0.4301112
75	0x3e635cd7	0.22203384
76	0xbf097e1a	-0.5370804
77	0xbb38bde3	-0.0028189353
78	0x3eb5522c	0.35414255
79	0x3df2480b	0.11830147
80	0xbd3de2d0	-0.046358883
81	0xbdb96aab	-0.090535484
82	0xbde4c747	-0.11170822
83	0xbea662b5	-0.32497182
84	0xbdfa1dc4	-0.122127086
85	0xbe0c4548	-0.13698304
86	0xbe6f43b2	-0.23365667
87	0x3e216fc5	0.15765293
88	0xbefe35a6	-0.49650306
89	0xbd96cbc2	-0.073630825
90	0x3ee0e845	0.43927208
91	0x3edef741	0.43548015
92	0xbe84c20a	-0.2592929
93	0xbe92e8c6	-0.28693217
94	0x3e4bbdef	0.19896673
95	0x3d2c1a88	0.04201749
96	0x3de2063f	0.110363476
97	0xbc4a5f47	-0.012351817
98	0x3caf13fc	0.021371834
99	0xbe94f1bf	-0.29090688
100	0x3dc7e39a	0.097602084
101	0x3f120bbc	0.57049155
102	0xbf06cb3b	-0.52653855
103	0x3e1ab5ae	0.15108368
104	0xbedfd743	-0.4371892
105	0xbe0e905d	-0.13922258
106	0x3e6428bd	0.22281165
107	0x3daf52a5	0.08560685
108	0x3dbac755	0.09120051
109	0x3e979e34	0.29612887
110	0x3c12c274	0.008957494
111	0xbf086a42	-0.53287137
112	0xbe8babdc	-0.27279556
113	0xbe35ee4f	-0.17766689
114	0x3e9767da	0.2957142
115	0x3ddb088f	0.10694992
116	0x3e7f8ea1	0.24956752
117	0xbe84afaa	-0.2591527
118	0xbe0d8fad	-0.13824339
119	0x3ea2af1f	0.31774232
120	0x3d35ab92	0.044353075
121	0xbec5b7b1	-0.38616708
122	0xbe6b9c95	-0.2300895
123	0x3f04a189	0.51808983
124	0x3e863586	0.2621271
125	0xbd58c429	-0.052921448
126	0x3d18d92a	0.03731648
127	0x3ea2cfc5	0.3179914
128	0xbd1285c1	-0.03577209
129	0x3e66777f	0.22506522
130	0xbe8ae2bc	-0.2712611
131	0xbeb49b26	-0.3527462
132	0xbe9a8576	-0.30179948
133	0xbe8b6674	-0.27226603
134	0xbdaa0880	-0.083024025
135	0xbeabd557	-0.33561203
136	0xbe91e27b	-0.28493103
137	0x3e535c2c	0.2064063
138	0x3e38fa49	0.18064226
139	0xbecdce93	-0.40196666
140	0xbd1314a4	-0.035908356
141	0xbd884da4	-0.06655434
142	0x3ea05b0c	0.31319463
143	0xbdcaa13e	-0.09894036
144	0x3f1885f5	0.595794
145	0x3e3102be	0.17286202
146	0xbb88013c	-0.004150538
147	0x3f3c14bb	0.7346913
148	0x3ea2bc33	0.3178421
149	0x3ee2db43	0.44307908
150	0xbf1412ca	-0.5784117
151	0x3e72a135	0.23694308
152	0xbec12417	-0.37722847
153	0xbc2b7c27	-0.010466612
154	0x3e80cfd2	0.25158554
155	0x3e635e36	0.22203907
156	0xbea77a6e	-0.32710594
157	0xbef583c9	-0.47952107
158	0xbeb163af	-0.34646365
159	0x3e5f19fe	0.21787259
160	0x3c69a482	0.014260413
161	0x3e31150f	0.1729319
162	0xbef20d27	-0.4727566
163	0x3eb66b6f	0.3562884
164	0x3d23dc82	0.040005215
165	0x3eff42a2	0.49855524
166	0x3ead64fc	0.33866107
167	0xbe13d2a6	-0.14435825
168	0xbe8c9a85	-0.2746164
169	0xbbe8ab07	-0.007100466
170	0xbedf1661	-0.4357176
171	0x3e970783	0.29497918
172	0xbd9e96f9	-0.077436395
173	0xbefb357d	-0.49064246
174	0x3e15068a	0.14553276
175	0xbd3091c9	-0.04310778
176	0x3e5d57f8	0.21615589
177	0x3e82b099	0.25525358
178	0xbe247c37	-0.16063009
179	0x3e9c39a2	0.3051272
180	0xbf1b116c	-0.6057346
181	0x3e942384	0.28933346
182	0x3e8acd80	0.2710991
183	0x3e32e5be	0.17470452
184	0x3eee8510	0.46585894
185	0x3e67fe6f	0.22655652
186	0x3ded6d91	0.11593164
187	0x3d13c5c7	0.036077287
188	0x3ea36b2d	0.31917706
189	0x3e355029	0.1770636
190	0xbdae3013	-0.08505263
191	0xbef1fa84	-0.4726144
192	0xbdaee45c	-0.0853965
193	0xbe2bb324	-0.16767555
194	0x3e2b7ce3	0.16746859
195	0x3c451bdd	0.012030569
196	0x3e01a994	0.12662345
197	0xbc86326c	-0.016381465
198	0x3e63cc8d	0.22245999
199	0x3e03d3b2	0.12873724
200	0xbc8c898d	-0.017155433
201	0xbe4d7f6d	-0.2006814
202	0xbe67c93a	-0.22635356
203	0x3e5821db	0.21106665
204	0xbeaf66d2	-0.34258133
205	0xbe2b5c94	-0.16734535
206	0xbd5022a1	-0.050814275
207	0xbdabdaa8	-0.08391315
208	0xbccff6e2	-0.025386278
209	0x3dacf458	0.08445042
210	0xbe810b9d	-0.25204173
211	0xbeb617be	-0.3556499
212	0x3e0b19e0	0.1358409
213	0xbdb9afb1	-0.090667136
214	0x3de589d8	0.11207932
215	0xbc8fd99c	-0.017559819
216	0x3ec60c51	0.38681272
217	0x3e09ce08	0.13457501
218	0x3e2ea341	0.17054464
219	0x3e4a38cd	0.1974823
220	0xbe3f8af4	-0.1870535
221	0x3e17e69b	0.14834063
222	0x3e0675c6	0.13130865
223	0xbcec9157	-0.028877897
224	0xbdae35f3	-0.08506384
225	0x3e002cef	0.12517141
226	0xbdc72651	-0.09724105
227	0xbe28c5c0	-0.16481686
228	0xbd23fb6b	-0.040034693
229	0xbdaecae4	-0.08534792
230	0x3e60b359	0.21943416
231	0x3e99cf3b	0.30040917
232	0x3da618be	0.08110188
233	0xbdb39e2a	-0.08770402
234	0x3d16de13	0.03683288
235	0x3ef4f269	0.47841194
236	0x3e2f9bbc	0.17149252
237	0x3dcc4b40	0.0997529
238	0xbe1287a0	-0.1430955
239	0xbe883658	-0.2660396
240	0x3e4386c2	0.19094375
241	0x3dba775d	0.09104798
242	0x3e34bb70	0.17649627
243	0xbe9a2bd4	-0.30111563
244	0x3cee5cb2	0.029096935
245	0xbe5a3e8c	-0.21312922
246	0x3d3a5100	0.045487404
247	0x3c84dd20	0.016218722
248	0x3ca62e45	0.020285735
249	0xbe16af03	-0.14715199
250	0xbe109819	-0.1412052
251	0x3e861585	0.26188293
252	0x3e5a6d58	0.21330774
253	0xbd9853c0	-0.07437849
254	0x3e49ae67	0.19695435
255	0xbe832b1a	-0.2561882

weight_hh_l0 f4 [128, 32]
0	0xbd6ee2ab	-0.058321636
1	0x3d873e80	0.06603718
2	0xbe0696b9	-0.13143434
3	0x3d7e8877	0.06214186
4	0x3d2b82a2	0.041872628
5	0xbdc0fb97	-0.09422987
6	0xbe850b5a	-0.25985223
7	0xbcd08a6e	-0.025456633
8	0xbe553ac3	-0.20823197
9	0xbd88f55a	-0.06687422
10	0x3d7595b1	0.05995721
11	0x3e429267	0.1900116
12	0x3e330f2c	0.17486256
13	0x3e1fa98b	0.1559202
14	0xbdaaa5ad	-0.083323814
15	0xbd97a099	-0.074036784
16	0x3dcc2ca5	0.09969453
17	0x3ca7e762	0.020496074
18	0x3e8677d4	0.26263297
19	0xbe07dae8	-0.132671
20	0x3dead40b	0.11466225
21	0xbe2c28d9	-0.16812457
22	0xbe9ad9ae	-0.302442
23	0x3e102b97	0.14079128
24	0xbe6ede91	-0.2332709
25	0x3e7160df	0.2357211
26	0xbe2e982b	-0.17050235
27	0x3e309cd8	0.17247331
28	0x3dee01be	0.11621426
29	0xbe31ec9d	-0.17375417
30	0xbe1a54a0	-0.15071344
31	0xbc6f0701	-0.014589072
32	0x3c83300f	0.016014127
33	0xbdfb0ff3	-0.122589014
34	0xbec3367e	-0.38127512
35	0xbe14c1a8	-0.14526999
36	0x3de0bbb9	0.10973305
37	0x3c1eee5e	0.009700386
38	0xbecbd3fb	-0.39810166
39	0xbd7f5909	-0.06234077
40	0x3e6d3e95	0.23168404
41	0x3e4ff855	0.20309575
42	0x3ee0f24a	0.43934852
43	0x3c47e7e0	0.012201279
44	0xbdaaeb81	-0.083457
45	0x3edd8cc5	0.4327146
46	0xbd5ad9e1	-0.05343044
47	0xbe3eae55	-0.1862119
48	0x3d9cc7fa	0.0765533
49	0x3e2d03f0	0.16896033
50	0x3eb07db1	0.34470895
51	0x3ddc644e	0.10761319
52	0x3e2cdb1a	0.16880456
53	0xbe8cbcb9	-0.27487734
54	0xbdfccac1	-0.1234336
55	0x3e07869c	0.13234943
56	0x3db7090e	0.08937274
57	0xbcedaa83	-0.02901197
58	0xbe17e97b	-0.1483516
59	0xbac91a4d	-0.0015342921
60	0x3d9aed5f	0.07564806
61	0x3cbd8d81	0.023138763
62	0x3de3d501	0.11124612
63	0xbedf687f	-0.43634412
64	0xbdd829f9	-0.10554881
65	0x3e80a7d1	0.25128034
66	0x3e0a011a	0.13476983
67	0xbd8c7fee	-0.06860338
68	0xbe8a0681	-0.26958087
69	0xbe047081	-0.12933542
70	0xbe1e1934	-0.15439302
71	0x3dbec11d	0.09314177
72	0x3cfe58c9	0.031048195
73	0xbe83870a	-0.25688964
74	0xbe0e9a06	-0.13925943
75	0x3d3501f6	0.044191323
76	0x3e0965d3	0.13417749
77	0x3efa58ef	0.48895976
78	0x3e83d096	0.25745076
79	0x3bd4bf48	0.006492529
80	0x3d7df1d5	0.061998207
81	0x3d1d0284	0.038332477
82	0x3d73d607	0.059530284
83	0xbe85d1db	-0.2613667
84	0x3dcd6e01	0.10030747
85	0xbdf5d73f	-0.120039456
86	0xbdc873d6	-0.09787719
87	0x3e6554ad	0.22395582
88	0xbe941428	-0.28921628
89	0x3ce0e5e2	0.027453367
90	0xbe9d8f76	-0.30773515
91	0x3e876512	0.26444298
92	0xbe9423b8	-0.289335
93	0xbdefe13c	-0.11712882
94	0x3e93e8ce	0.28888553
95	0xbf04da33	-0.51895446
96	0x3e0fdac9	0.14048304
97	0xbdc58b6a	-0.09645732
98	0x3e3619e6	0.17783317
99	0xbda4aaa7	-0.08040362
100	0x3e00336f	0.1251962
101	0x3d88572a	0.0665725
102	0x3e52c86d	0.20584269
103	0x3e20a548	0.1568805
104	0x3eb9cb92	0.36288124
105	0x3df55ce0	0.11980605
106	0x3d1a4738	0.037665576
107	0x3d324fe3	0.043533217
108	0x3da9e281	0.08295155
109	0xbd855281	-0.06509877
110	0xbda7691e	-0.081743464
111	0xbdc91065	-0.0981758
112	0xbe178936	-0.14798436
113	0xbe9da821	-0.30792335
114	0xbd600e94	-0.054701403
115	0xbdcc6359	-0.099798866
116	0xbd9a1682	-0.07523824
117	0x3e2e3070	0.17010665
118	0x3df8a15a	0.1214015
119	0xbc693425	-0.014233624
120	0x3cbfc898	0.02341108
121	0x3e9aebee	0.30258125
122	0xbdc4784d	-0.09593258
123	0x3ed67bd8	0.4189136
124	0xbd53716f	-0.05162185
125	0xbe15611a	-0.14587823
126	0x3d6d6630	0.05795878
127	0xbdb5aa66	-0.088703915
128	0xbe70ac2c	-0.23503178
129	0x3d641b63	0.05569018
130	0x3e16192f	0.14658044
131	0x3e83b9ee	0.2572779
132	0xbdf5963f	-0.11991548
133	0x3f008b9d	0.5021303
134	0x3ebd72f3	0.37001762
135	0x3d5ef9eb	0.05443756
136	0x3eba71e7	0.36415026
137	0x3ced88bc	0.028995864
138	0xbe626103	-0.2210732
139	0xbd9fab9a	-0.07796402
140	0xbddd9e16	-0.10821168
141	0x3dc5183c	0.09623763
142	0x3e85d426	0.2613842
143	0xbda27e39	-0.07934231
144	0xbeb86f0b	-0.3602222
145	0xbf3fe2f4	-0.7495568
146	0xbea4b4de	-0.3216924
147	0x3e64d58e	0.2234709
148	0x3d4ec813	0.050483774
149	0x3d994ace	0.07484971
150	0x3f1f20bf	0.6215934
151	0xbd9fbf3d	-0.07800148
152	0xbe228698	-0.15871656
153	0x3e0d3e39	0.13793267
154	0xbed56379	-0.41677454
155	0x3e59dc94	0.2127555
156	0xbe09073e	-0.13381669
157	0x3e250fc2	0.16119292
158	0x3c8894fd	0.016672606
159	0x3e09b4bc	0.13447851
160	0xbdb7c520	-0.089731455
161	0xbda5cef9	-0.080961175
162	0xbea3cf9f	-0.3199434
163	0xbe6a3632	-0.22872236
164	0x3e16daf6	0.14731964
165	0x3e1b75d6	0.1518167
166	0xbe4c690f	-0.19961952
167	0x3e81c344	0.25344288
168	0x3ecc3be5	0.39889446
169	0xbeb956f1	-0.36199144
170	0xbdd93f8e	-0.10607825
171	0x3ea1ae3d	0.31578246
172	0x3db5cdf0	0.0887717
173	0x3d1b5409	0.03792194
174	0x3e450e66	0.19243774
175	0xbe24f7c8	-0.16110146
176	0xbe6c8f1f	-0.23101471
177	0xbe470b9f	-0.19438027
178	0xbcbbff9d	-0.022949034
179	0x3de25274	0.11050883
180	0xbd9d426d	-0.07678685
181	0xbe8c0ce0	-0.27353573
182	0xbe088185	-0.13330658
183	0x3e708526	0.23488292
184	0x3de6266b	0.112377964
185	0x3e86ed25	0.26352802
186	0xbda9c132	-0.08288802
187	0x3ebd2581	0.36942676
188	0xbc7e5063	-0.015522095
189	0xbec0c539	-0.3765047
190	0x3ef04e72	0.4693485
191	0xbdcbae75	-0.099453844
192	0x3e8d3821	0.27581885
193	0xbe841618	-0.25798106
194	0xbef36e4e	-0.47545093
195	0xbe96e0aa	-0.2946828
196	0x3e218df0	0.15776801
197	0xbe79d41a	-0.24397317
198	0x3ccf5f45	0.025313983
199	0x3ddcd893	0.10783496
200	0x3ea42726	0.32061118
201	0x3ea25d1c	0.31711662
202	0x3edf8ef0	0.4366374
203	0x3c8bce29	0.017066078
204	0xbdecc38b	-0.11560734
205	0x3e97f9ad	0.29682675
206	0xbeeeefb8	-0.46667266
207	0xbe4fc676	-0.2029055
208	0x3c1e37e9	0.009656885
209	0x3e89c097	0.26904747
210	0x3e8a543a	0.27017385
211	0xbc5c1970	-0.013433799
212	0x3cea152b	0.028574547
213	0x3e838206	0.25685138
214	0xbee4736e	-0.44619316
215	0xbaaa5cd8	-0.001299764
216	0x3e4c9c2e	0.19981453
217	0x3d4621b3	0.04837198
218	0xbe4d5f05	-0.20055778
219	0xbc91293b	-0.017719856
220	0x3ed012c2	0.4063931
221	0xbe34a023	-0.17639212
222	0xbd4ff57f	-0.050771233
223	0xbd914e55	-0.07095019
224	0x3e846432	0.25857693
225	0x3de5c96b	0.11220058
226	0x3ef624a2	0.48074824
227	0x3d8bec10	0.06832135
228	0x3e480bc7	0.19535743
229	0xbeb7dd59	-0.35911062
230	0x3e7a2193	0.2442687
231	0xbda72412	-0.08161177
232	0xbf4f6b9c	-0.81023574
233	0xbde4188f	-0.11137497
234	0xbea4b4c2	-0.32169157
235	0x3e959355	0.29213968
236	0x3f38b33e	0.721485
237	0xbe27968d	-0.16366024
238	0x3d5ae78f	0.053443488
239	0x3ebe8c0e	0.37216228
240	0x3e19983b	0.14999478
241	0x3eddfd07	0.43357107
242	0xbdfde226	-0.1239665
243	0xbc543843	-0.012952867
244	0xb9615db4	-0.00021492579
245	0x3e23d820	0.16000414
246	0xbd9c502c	-0.07632479
247	0xbe257887	-0.16159259
248	0x3d1666c6	0.036719106
249	0xbd53e12d	-0.051728416
250	0x3f145d49	0.5795484
251	0x3e0046e8	0.12527049
252	0xbe2aee04	-0.16692358
253	0x3d9fa013	0.077942036
254	0xbd83955c	-0.064249724
255	0x3e084c99	0.1331047

bias_ih_l0 f4 [128]
0	0xbcdfbe15	-0.027312318
1	0xbd831d69	-0.06402094
2	0x3ddb2412	0.10700239
3	0x3dd39d60	0.10332751
4	0xbbb10dbb	-0.005403248
5	0x3e1593bb	0.14607136
6	0x3e1392fa	0.14411536
7	0xbe006c5a	-0.12541333
8	0x3d2dc48e	0.042423777
9	0x3e0bc367	0.13648759
10	0xbd7f98b2	-0.06240148
11	0xbde9296e	-0.11384855
12	0x3d24fd36	0.040280543
13	0x3e21d128	0.15802443
14	0xbe3aafff	-0.182312
15	0x3cd407f3	0.025882697
16	0x3c98b1a6	0.018639397
17	0x3e15ddcf	0.14635395
18	0x3e8cf0ce	0.2752747
19	0xbcbbb129	-0.022911625
20	0x3e521b08	0.20518124
21	0xbd3ade03	-0.045621883
22	0xbda886c0	-0.082288265
23	0xbdcb0a69	-0.09914095
24	0xbbc9b46a	-0.0061555402
25	0xbd5e9fdf	-0.054351684
26	0x3dd4e1cb	0.10394629
27	0x3bc4589f	0.00599201
28	0x3e04edc9	0.12981333
29	0x3da579e1	0.08079887
30	0x3e77c73e	0.24197099
31	0x3d9d0b45	0.07668165
32	0x3e2e4beb	0.17021148
33	0xbe07b483	-0.13252454
34	0xbde7debd	-0.11321781
35	0xbddb3e7d	-0.10705278
36	0x3c4cad27	0.012492455
37	0x3ddc09a3	0.107440256
38	0x3dba14f2	0.09086026
39	0x3e64f927	0.22360669
40	0x3e4c01cf	0.19922565
41	0x3eaf33dc	0.34219253
42	0x3da1d448	0.079018176
43	0x3e6ab856	0.22921881
44	0xbdc7c854	-0.097550064
45	0x3e1a018a	0.1503965
46	0xbce5c684	-0.028048761
47	0xbdad07fa	-0.08448787
48	0xbd267d11	-0.040646616
49	0x3e874cbb	0.26425728
50	0x3e9e58ba	0.30927068
51	0x3e1d249e	0.15346
52	0x3e227822	0.1586614
53	0x3e18872a	0.14895311
54	0xbe012d97	-0.12615047
55	0x3d3398b8	0.043846816
56	0xbcc7359f	-0.02431756
57	0x3db96f96	0.090544865
58	0x3e1f8b42	0.15580466
59	0x3e4bc3cc	0.1989891
60	0xbe3071ea	-0.17230955
61	0x3dd3b2bf	0.103368275
62	0x3c9052e4	0.01761765
63	0x3819a72e	3.663374e-05
64	0xbe4a1f84	-0.19738585
65	0x3e7f0e23	0.24907736
66	0x3e4b5f2b	0.19860522
67	0xbe12a757	-0.14321648
68	0x3e3405df	0.17580365
69	0x3cc9c412	0.024629626
70	0x3e997bcc	0.29977262
71	0x3e324365	0.17408521
72	0x3dcbc998	0.0995056
73	0xbde59bb6	-0.1121134
74	0x3f01a320	0.50639534
75	0x3d790c96	0.06080302
76	0x3e12b935	0.14328463
77	0x3ebeb4b4	0.3724724
78	0x3e02fa36	0.1279076
79	0xbec72575	-0.38895765
80	0xbeef4615	-0.46733156
81	0xbe637089	-0.22210898
82	0x3e9b29e1	0.3030539
83	0xbdd8da04	-0.10588458
84	0x3e277cce	0.16356203
85	0xbeaddf15	-0.3395926
86	0x3d3a7570	0.045522153
87	0x3e6dcf30	0.23223567
88	0xbe98c7ae	-0.29839844
89	0x3d7e884c	0.0621417
90	0x3e1c821c	0.15284008
91	0x3dd8b441	0.10581256
92	0xbefc6368	-0.4929459
93	0x3d7dd352	0.06196911
94	0xbe1ae328	-0.15125716
95	0xbf301eff	-0.68797296
96	0xbbc3fb79	-0.0059809056
97	0x3e2fe23e	0.17176148
98	0x3e72cc5f	0.23710774
99	0x3e17e83f	0.14834689
100	0x3e26acd3	0.16276865
101	0x3e81fedc	0.25389755
102	0x3e8ea253	0.2785822
103	0x3de94b5f	0.11391329
104	0x3d96e357	0.073675804
105	0x3eada27a	0.33913022
106	0x3dc0809b	0.093995295
107	0xbdc6c728	-0.09705955
108	0xbd43c923	-0.04779924
109	0x3e6cf471	0.23140122
110	0x3d657a71	0.056024972
111	0x3dbe16e1	0.092817076
112	0x3e065696	0.13118967
113	0xbd57a4ed	-0.05264752
114	0x3e858b7d	0.26082984
115	0x3e2b71e4	0.16742665
116	0xbb9aed13	-0.0047279685
117	0x3e24456d	0.16042109
118	0x3d48a4d7	0.04898533
119	0xbd9f9ca9	-0.077935524
120	0x3e7178c3	0.23581223
121	0x3d02983f	0.031883474
122	0x3eae6c90	0.34067202
123	0xbd6b09c6	-0.057382368
124	0xbdc4128a	-0.095738485
125	0x3d87bf36	0.066282675
126	0x3e37635d	0.17908998
127	0x3c0faf38	0.008769803

bias_hh_l0 f4 [128]
0	0x3e4e9174	0.20172673
1	0x3e482893	0.19546728
2	0x3d1854de	0.03719031
3	0xbd865b16	-0.06560342
4	0x3db58401	0.08863068
5	0x3e6f5cb4	0.23375207
6	0xbdd1ed7d	-0.102503754
7	0xbcaeb9e6	-0.021328878
8	0x3df80395	0.12110058
9	0x3e55a018	0.20861852
10	0x3e121435	0.14265521
11	0x3dc25de2	0.09490563
12	0x3d2734fa	0.040822007
13	0x3e2b5349	0.1673099
14	0x3d4065bd	0.046972025
15	0x3d9d9bd9	0.07695741
16	0xbd04bdbb	-0.032407504
17	0x3d89b0b8	0.067231596
18	0x3e3d78fd	0.18503185
19	0xbd8b012c	-0.06787333
20	0x3e574aac	0.21024579
21	0x3d82b013	0.0638124
22	0x3e592f91	0.21209551
23	0xbe30c2e0	-0.17261839
24	0xbde7bcc1	-0.11315299
25	0xbe0ccf5d	-0.13750978
26	0x3d8ba618	0.06818789
27	0xbdb8b1e3	-0.09018304
28	0x3e1f6435	0.1556557
29	0x3dd70e32	0.105007544
30	0x3dcf2b29	0.10115654
31	0x3dd86074	0.10565272
32	0x3d137973	0.036004495
33	0x3db53986	0.08848862
34	0x3c2f6bae	0.010706825
35	0xbb2d5581	-0.002644867
36	0x3cbba284	0.022904642
37	0xbd736831	-0.059425537
38	0xbd0414c3	-0.032246362
39	0xbd87e9d5	-0.06636397
40	0xbd7faa29	-0.062418137
41	0x3e276c26	0.16349849
42	0xbb179bd3	-0.002313365
43	0x3dfcdaa4	0.1234639
44	0x3d407d3a	0.046994425
45	0x3e2769b0	0.1634891
46	0xbe3cebbc	-0.184493
47	0xbe223716	-0.15841326
48	0x3cdbb4c6	0.026819598
49	0x3b885d97	0.0041615474
50	0x3e2835ee	0.16426823
51	0xbd0a21ab	-0.033723515
52	0x3e1ab19b	0.15106814
53	0x3d939c12	0.072075024
54	0x3c9913db	0.018686226
55	0xbdd46f0c	-0.10372743
56	0x38f6659c	0.0001174912
57	0x3e0ab32a	0.13544908
58	0x3d884165	0.06653098
59	0xbca39234	-0.019967176
60	0x3cd62284	0.026139505
61	0xbdb61370	-0.08890426
62	0xbdd0bada	-0.10191889
63	0x3e353cc2	0.17698959
64	0xbc94410f	-0.018097429
65	0x3e88b6e8	0.26702046
66	0x3c221445	0.009892528
67	0xbde15c02	-0.11003877
68	0x3e7f484d	0.24929924
69	0xbe34defa	-0.17663184
70	0x3dc3bbbe	0.09557293
71	0x3e3193ce	0.1734154
72	0xbe251830	-0.16122508
73	0x3de265db	0.11054584
74	0x3edcd585	0.43131652
75	0x3e2c2ab7	0.1681317
76	0x3dd5d7c9	0.104415484
77	0x3ee40577	0.4453542
78	0x3dd70e73	0.10500803
79	0xbe907a97	-0.2821853
80	0xbec1c1c9	-0.3784316
81	0xbd509eab	-0.050932568
82	0x3ca29f1f	0.019851265
83	0xbc006266	-0.00783596
84	0x3e5794b8	0.21052825
85	0xbe9886c5	-0.2979032
86	0x3e355b86	0.17710695
87	0x3e2bf057	0.16790901
88	0xbe6fddcd	-0.23424454
89	0x3e91c16d	0.28467885
90	0xbd525da0	-0.05135882
91	0x3df9c091	0.12194932
92	0xbf24444b	-0.64166707
93	0x3cbef948	0.023312226
94	0x3d9714a0	0.07376981
95	0xbf5e16ee	-0.8675374
96	0x3e844d6c	0.25840318
97	0x3e174776	0.14773354
98	0x3e0bca26	0.13651332
99	0xbdf19a0d	-0.11796961
100	0xbc2a9556	-0.010411581
101	0x3e88c069	0.26709297
102	0x3e508ede	0.20367
103	0x3e40240c	0.18763751
104	0x3def1a51	0.11674941
105	0x3eb4266c	0.35185564
106	0x3d20ab21	0.0392257
107	0xbd9c3cfa	-0.07628818
108	0xbd238129	-0.0399181
109	0x3db9769b	0.09055825
110	0x3df9614d	0.12176762
111	0x3e479321	0.19489719
112	0x3e8efe15	0.27928224
113	0x3bbc06f3	0.005738133
114	0x3d1f3dff	0.038877483
115	0x3e1c61ad	0.15271635
116	0xbcb35e35	-0.021895507
117	0xbcf362d3	-0.029710209
118	0x3e2decad	0.16984816
119	0x3e55db1f	0.2088437
120	0x3de2cf22	0.11074664
121	0x3e218068	0.1577164
122	0x3e041a81	0.12900735
123	0x3e0316ec	0.12801713
124	0x3e381785	0.17977722
125	0x3e08ad95	0.13347466
126	0x3dd4cf69	0.10391123
127	0x3d967ca8	0.07347995

weight_ih_l0_reverse f4 [128, 2]
0	0x3e859ca7	0.2609608
1	0x3e288d14	0.16460067
2	0x3d05ea6c	0.032694265
3	0x3c466d40	0.012111008
4	0xbe03a38f	-0.12855361
5	0xbe2abcc1	-0.16673566
6	0x3ebe9bf8	0.3722837
7	0x3e9c8fc2	0.30578429
8	0xbe4814a9	-0.19539131
9	0x3c659720	0.014013082
10	0xbbdc8387	-0.0067295465
11	0xbe2d2853	-0.16909914
12	0xbeb07232	-0.34462124
13	0xbee93508	-0.45548272
14	0x3eabb3a1	0.33535483
15	0xbec85451	-0.39126828
16	0x3e5a37a4	0.21310288
17	0xbf46b87d	-0.77625257
18	0xbecd05d2	-0.40043503
19	0x3ec9d934	0.39423525
20	0xbee4f1a7	-0.44715616
21	0x3ead5fe7	0.3386223
22	0x3ec3442c	0.3813795
23	0xbd3f2c15	-0.0466729
24	0xbed2de4c	-0.41185224
25	0xbdbbbdee	-0.091670856
26	0xbedec486	-0.4350931
27	0xbd30dff4	-0.04318233
28	0x3f3d2c16	0.73895395
29	0xbf09270f	-0.53575224
30	0x3ec29be9	0.38009575
31	0x3dda84be	0.1066985
32	0xbdd57a58	-0.10423726
33	0xbe0e916d	-0.13922663
34	0x3e42a972	0.19009951
35	0x3ee9f7b9	0.4569681
36	0x3ce19b51	0.027539881
37	0xbe54dfa1	-0.20788433
38	0x3d2c28b0	0.04203099
39	0x3e29c5cc	0.1657936
40	0xbbcfaf8f	-0.006338067
41	0x3e58cc4e	0.21171686
42	0x3effc23e	0.49952883
43	0x3ea1bea4	0.3159076
44	0xbdfbc922	-0.122942224
45	0x3e0cc06b	0.13745277
46	0xbddef8ef	-0.10887324
47	0xbdb8559e	-0.09000705
48	0xbf79b6ad	-0.97544366
49	0xbda6ec42	-0.08150531
50	0xbf368693	-0.71299094
51	0xbeacb3e8	-0.33731008
52	0xbf1ab02e	-0.6042508
53	0xbe4f3db0	-0.20238376
54	0xbdb7ad50	-0.089686036
55	0x3e231e25	0.15929468
56	0x3ebff52a	0.37491733
57	0xbe8d6c77	-0.27621815
58	0xbe0fc85c	-0.14041275
59	0x3e1276ee	0.1430318
60	0xbe85eb71	-0.2615619
61	0x3e16c1b5	0.14722331
62	0xbefe3932	-0.49653012
63	0xbeef6820	-0.4675913
64	0x3e7b091f	0.24515198
65	0x3edeea65	0.43538204
66	0x3d816d38	0.0631966
67	0xbc1e929e	-0.009678511
68	0xbe489117	-0.19586597
69	0xbe9592fb	-0.292137
70	0x3e77dde7	0.24205743
71	0x3ea90414	0.33010924
72	0xbe6b9252	-0.23005036
73	0x3d266f01	0.040633205
74	0x3ebbd136	0.36683053
75	0xbdda8ac6	-0.10671
76	0xbeed645b	-0.46365628
77	0xbedaabe5	-0.4270927
78	0x3ebffc40	0.3749714
79	0xbe3e6d66	-0.1859642
80	0x3e903872	0.28168064
81	0xbe8fda11	-0.2809606
82	0xbe7400d8	-0.23828447
83	0x3e37adca	0.17937389
84	0xbb9388bf	-0.0045023854
85	0x3daadef3	0.083433054
86	0x3e7cf9f0	0.24704719
87	0xbd3f5f08	-0.04672149
88	0xbe25bc8d	-0.16185208
89	0xbd85e38a	-0.0653754
90	0xbe6dcdb8	-0.23223007
91	0xbc3c8fd1	-0.011508898
92	0x3ef5c76e	0.48003715
93	0xbee42b25	-0.44564167
94	0x3edd619a	0.43238527
95	0x3e247d44	0.1606341
96	0xbde55a53	-0.111988686
97	0xbda22a03	-0.07918169
98	0xbdc5532f	-0.09635007
99	0x3eccfee1	0.40038207
100	0xbde91f04	-0.11382869
101	0xbde7f6fc	-0.113264054
102	0xbe488425	-0.19581659
103	0x3dfdf064	0.123993665
104	0x3cabed36	0.020987134
105	0x3e47d660	0.19515371
106	0x3e8c6164	0.27418053
107	0x3dde0170	0.10840118
108	0xbdaa640c	-0.08319864
109	0xbcd9f47e	-0.02660584
110	0xbf023133	-0.5085632
111	0xbe57337b	-0.21015732
112	0xbefaf425	-0.49014392
113	0xbdc1fe1c	-0.09472296
114	0xbe4e4d1c	-0.20146602
115	0xbea49adc	-0.32149398
116	0xbe77a32d	-0.2418334
117	0xbe377219	-0.17914619
118	0x3d6632d2	0.05620081
119	0xbd91b706	-0.07114987
120	0x3dd1e7f5	0.102493204
121	0xbcfaacbe	-0.030599948
122	0xbdd33363	-0.103125356
123	0x3e323f01	0.17406847
124	0xbe87ded4	-0.26537192
125	0x3e410721	0.18850376
126	0x3e249060	0.160707
127	0xbef529fb	-0.4788359
128	0xbea5fe3c	-0.32420528
129	0xbe8a11e2	-0.26966769
130	0x3e2c2a8c	0.16813105
131	0x3ecc03ac	0.3984655
132	0x3e7c3ae0	0.24631834
133	0x3e00ca17	0.12577091
134	0xbea90b84	-0.33016598
135	0xbe9376c0	-0.28801537
136	0x3e83697b	0.25666413
137	0x3ed826fe	0.4221725
138	0x3e831ee9	0.2560952
139	0xbdac1682	-0.084027305
140	0xbe93ac74	-0.2884251
141	0xbecfceaa	-0.4058736
142	0xbecf6557	-0.40507004
143	0x3e5f2016	0.21789584
144	0xbd303bfe	-0.043025963
145	0xbf42a859	-0.7603813
146	0xbe2b4d8d	-0.16728802
147	0x3ef7d651	0.48405698
148	0x3edaa158	0.4270122
149	0xbe74b635	-0.23897631
150	0x3ef51953	0.47870883
151	0xbda92c79	-0.082604356
152	0x3eb26e7c	0.34849918
153	0x3d75ea32	0.0600378
154	0x3ee401f7	0.4453275
155	0xbdf88a31	-0.12135733
156	0x3df36d88	0.11886126
157	0xbec762c1	-0.3894253
158	0x3e7d898c	0.24759501
159	0x3d3c40c8	0.045960218
160	0xbd8f915e	-0.070101485
161	0x3f07cba7	0.53045124
162	0x3e950155	0.2910258
163	0x3f45228d	0.77005845
164	0x3e0b8714	0.13625747
165	0xbed45bb2	-0.41476208
166	0xbf0f3d68	-0.55953074
167	0x3e8185dd	0.25297442
168	0xbea3bf06	-0.31981677
169	0xbd64a635	-0.05582257
170	0xbeca10bb	-0.3946589
171	0xbde1aa55	-0.110188164
172	0xbe9ab67e	-0.30217355
173	0x3e3d8daa	0.18511072
174	0x3e3ac2f7	0.18238436
175	0x3e8ffd04	0.28122723
176	0xbefaee7b	-0.4901007
177	0x3e863dbc	0.26218975
178	0x3ef6a98b	0.48176226
179	0x3ec7db59	0.39034536
180	0xbec55b91	-0.38546422
181	0xbe1000bf	-0.14062785
182	0xbe18286f	-0.14859174
183	0xbe9a0c9e	-0.3008775
184	0xbed6cbeb	-0.41952452
185	0x3e784fae	0.24249145
186	0x3eae6fb2	0.34069592
187	0x3d5bddf4	0.053678468
188	0x3e612b11	0.21989085
189	0xbe9dd7d1	-0.30828717
190	0x3e137d57	0.14403282
191	0xbea2570b	-0.31707034
192	0x3e9646b4	0.29350817
193	0x3e6568dc	0.22403282
194	0x3d375afc	0.044764504
195	0xbd5f416d	-0.054505754
196	0xbce7906d	-0.02826711
197	0xbe563fdc	-0.20922798
198	0xbe7c987c	-0.24667543
199	0xbcf48f6e	-0.029853549
200	0xbea6b508	-0.3255999
201	0x3e11e03b	0.14245693
202	0xbc95cbd7	-0.018285675
203	0x3c84db66	0.016217899
204	0xbef45906	-0.4772417
205	0xbea8e4b1	-0.32986978
206	0x3ef7c995	0.48395982
207	0xbef1aa84	-0.47200406
208	0xbe3074c8	-0.17232049
209	0xbf29853e	-0.66218936
210	0xbe783c59	-0.24241771
211	0x3d1483cc	0.036258504
212	0xbe80c62b	-0.2515119
213	0x3e1b204c	0.15149039
214	0x3efe32f1	0.4964824
215	0xbe25e820	-0.1620183
216	0xbe82ff88	-0.2558558
217	0xbe6dc9f9	-0.23221578
218	0xbe84c4f4	-0.25931513
219	0x3e37bfeb	0.17944305
220	0x3f87776a	1.0583317
221	0xbf1fe3f1	-0.62457186
222	0x3ec002ca	0.37502128
223	0x3d7aa814	0.061195448
224	0x3dbd0642	0.09229709
225	0x3b4958d0	0.0030723102
226	0x3c798767	0.015230036
227	0x3e150b72	0.14555147
228	0xbda5886d	-0.08082662
229	0xbbb3a2d4	-0.005482057
230	0xbdbf2208	-0.09332663
231	0x3e97720d	0.295792
232	0x3e66f5dc	0.22554725
233	0xbcf479c4	-0.029843219
234	0x3e91e17d	0.28492346
235	0x3ed5247f	0.41629407
236	0x3d7eb41c	0.062183484
237	0xbce4bb65	-0.027921388
238	0xbebdc1f5	-0.3706204
239	0xbd9a7f3c	-0.07543799
240	0xbeec2834	-0.46124423
241	0x3d0fb4bf	0.035084482
242	0xbe342eff	-0.17596053
243	0xbebbbaa7	-0.36665842
244	0xbf58f38a	-0.8474661
245	0xbe41d33d	-0.18928237
246	0x3dccd31f	0.10001206
247	0x3e2a010f	0.16601966
248	0x3f480c94	0.7814419
249	0xbeccdcfd	-0.4001235
250	0xbe6d139c	-0.23152012
251	0xbdea1e76	-0.11431591
252	0xbe403160	-0.18768835
253	0x3e54e8e6	0.20791969
254	0xbe4e42cf	-0.20142673
255	0xbe2fe8bc	-0.17178625
