experiments/pedestrians/models/models_14_Feb_2024_17_26_50_eth_vel_ar3/model_registrar-68.pt (torch, 527902 bytes, 43 tensors)

weight_ih_l0 f4 [128, 6]
0.09031246 0.10472064 -0.2887737 -0.10549598 -0.084152065 -0.062314488 -0.2056045 -0.41197973
-0.060118604 0.20836914 0.123741075 -0.1874229 0.055370133 0.022354743 -0.33651248 -0.25472602
-0.28752324 -0.05973389 0.17082934 0.1836525 0.12080215 0.049428634 0.11531306 -0.027400032
-0.070674166 0.076066904 -0.23136166 -0.38380963 1.0316299 -1.742695 0.21521242 0.13212934
0.2785101 -0.082938135 0.44337493 -0.35553038 -0.38963324 0.11002922 0.23209956 -0.2707408
0.07853515 -0.25885788 -0.37701443 -0.043072045 0.5342149 -0.1150175 0.14728363 -0.12602592
0.2733663 0.22410652 0.5896055 -0.42713726 0.44058213 -0.20114936 -0.07888069 -0.24077602
0.08064481 0.3523271 0.11249181 -0.15634389 0.12582892 -0.2877964 -0.4223638 0.4476561
-0.032404825 0.12245577 0.027976537 0.16754729 -0.53668946 -0.16099969 -1.3174357 -0.68003964
0.01007127 -0.02303108 -0.26253468 0.26271665 0.12936033 -0.04048551 -0.13725431 0.048329826
0.46985894 0.33175257 0.4951343 0.36139712 0.057981048 -0.033466212 -0.8147298 0.024505254
-0.5903252 -0.0753243 -0.34397835 0.16513091 0.59787214 0.05333763 -0.14749537 0.52819395
0.25995135 -0.054188218 -0.55179447 0.38121688 -0.6257834 0.09746744 0.13344009 -0.20175119
-0.2044298 0.22596674 0.04099109 0.081138596 0.18483229 -0.272142 -0.26138452 0.58047974
-0.017660176 0.8720885 0.056308363 0.03500203 -0.42827424 0.08612938 -0.11218324 0.3983315
-0.4022096 0.3916764 0.58061457 -0.46960944 0.3152956 -0.02415077 0.0773513 0.2927958
0.029803915 -0.35110793 0.0391685 0.0699033 -0.21559057 -0.44455194 0.13769428 0.14426497
0.29801628 0.06595495 -0.07638008 0.11034345 0.16826275 -0.19852911 0.042957347 -0.09048503
0.18190959 -0.036780868 -0.33316544 -0.20438755 -0.21906994 -0.23856646 -0.41972768 -0.17146008
0.07072659 0.196539 0.19779168 0.044105064 0.013268011 0.31820452 -0.701808 -0.71187377
-0.35556322 0.009704424 -0.2010265 0.06598457 0.6716423 0.5678114 0.9667007 1.0821701
0.22076087 -0.08953693 -0.32607958 0.27930197 0.1341754 0.18744022 -0.3398895 0.06839161
0.14868167 -0.42525318 0.23979561 -0.13093548 -0.20283538 -0.15712349 0.33877718 0.08679815
-0.054642655 -0.35432905 -0.083691336 0.08734945 0.013956899 0.13708425 -0.22397636 -0.051472086
0.11518104 0.1168356 -0.19601166 -0.12704214 -0.1641031 -0.16230279 -0.01763937 -0.18709016
0.08079604 0.10604302 0.10147876 -0.15818967 -0.12599955 -0.050035406 -0.027175793 -0.048759926
-0.20063782 0.08522899 0.12115633 0.06447625 0.13149971 -0.16055657 -0.020864252 0.013881478
0.0306659 -0.09170499 0.2132264 -0.1926832 0.3667154 -0.019843757 0.22585806 -0.06617198
0.15348019 -0.21665142 -0.28804496 0.024699781 -0.05645223 -0.047664236 0.18180072 -0.12390335
-0.18362124 0.09219176 -0.13284115 -0.2000018 0.2717894 -0.0766219 -0.015474608 -0.18164979
0.34702787 0.0021485114 0.015867459 -0.18246157 -0.07271923 -0.08856783 -0.16818929 -0.0069109104
0.3396083 0.11974184 0.20115942 0.04161929 0.13252248 -0.30211464 -0.16096872 0.29856285
00000000: bdf5 b83d c677 d63d 25da 93be 470e d8bd
00000010: eb57 acbd 7a3d 7fbd fc89 52be 02ef d2be
00000020: ed3e 76bd b85e 553e f66b fd3d caeb 3fbe
00000030: cbcb 623d 4b21 b73c 5d4b acbe 736b 82be
00000040: 3f36 93be 86ab 74bd e3ed 2e3e 670f 3c3e
00000050: 1e67 f73d ae75 4a3d 4129 ec3d 0876 e0bc
00000060: 9ebd 90bd f7c8 9b3d 12ea 6cbe b282 c4be
00000070: 730c 843f a110 dfbf a560 5c3e ea4c 073e
00000080: e098 8e3e 78db a9bd 0a02 e33e 1408 b6be
00000090: 027e c7be 0057 e13d 82ab 6d3e 8a9e 8abe
000000a0: 09d7 a03d 0589 84be 0908 c1be 506c 30bd
000000b0: 4fc2 083f 4c8e ebbd 85d1 163e f00c 01be
000000c0: abf6 8b3e 2e7c 653e 63f0 163f bcb1 dabe
000000d0: fb93 e13e 19fa 4dbe 338c a1bd fd8d 76be
000000e0: 1b29 a53d 3864 b43e 1b62 e63d 9d18 20be
000000f0: 4cd9 003e 0d5a 93be 1140 d8be 2e33 e53e
00000100: ecba 04bd 17ca fa3d 0d2f e53c 8491 2b3e
00000110: 7b64 09bf 1add 24be bca1 a8bf 1417 2ebf
00000120: f801 253c adab bcbc f26a 86be cc82 863e
00000130: 0977 043e 22d4 25bd 658c 0cbe 7ff5 453d
00000140: 5a91 f03e 79db a93e 3e82 fd3e 0b09 b93e
00000150: 897d 6d3d de13 09bd 2292 50bf 3ebf c83c
00000160: 8d1f 17bf a043 9abd ee1d b0be 1418 293e
00000170: 260e 193f 8f78 5a3d 0709 17be b837 073f
00000180: 5818 853e 77f4 5dbd 6742 0dbf dc2e c33e
00000190: 5733 20bf 029d c73d 85a4 083e dd97 4ebe
000001a0: 0c56 51be d363 673e 46e6 273d fe2b a63d
000001b0: ad44 3d3e 3256 8bbe 31d4 85be 529a 143f
000001c0: 13ac 90bc 3141 5f3f 99a3 663d 4a5e 0f3d
000001d0: c346 dbbe 9a64 b03d 54c0 e5bd 1bf2 cb3e
000001e0: 6bee cdbe cf89 c83e 28a3 143f a670 f0be
000001f0: 6d6e a13e d6d7 c5bc 5c6a 9e3d 55e9 953e
00000200: 5727 f43c 6bc4 b3be 266f 203d 7629 8f3d
00000210: c6c3 5cbe 509c e3be bbff 0c3e 32ba 133e
00000220: 9795 983e 6413 873d 296d 9cbd bffb e13d
00000230: 124d 2c3e 374b 4bbe 0bf4 2f3d 3750 b9bd
00000240: 8246 3a3e 89a7 16bd a994 aabe f84a 51be
00000250: df53 60be c44a 74be 8ce6 d6be 3b93 2fbe
00000260: 1ad9 903d 8541 493e e789 4a3e 83a7 343d
00000270: 1262 593c b4eb a23e b0a9 33bf 5c3d 36bf
00000280: 620c b6be 4eff 1e3c e4d9 4dbe eb22 873d
00000290: c0f0 2b3f 175c 113f b279 773f 8d84 8a3f
000002a0: 230f 623e 235f b7bd e7f3 a6be ab00 8f3e
000002b0: 4765 093e 54f0 3f3e ff05 aebe e710 8c3d
000002c0: 0240 183e c9ba d9be fb8c 753e f313 06be
000002d0: 14b4 4fbe fbe4 20be 3474 ad3e 3ac3 b13d
000002e0: fad0 5fbd 9e6a b5be 5d66 abbd 45e4 b23d
000002f0: 7aab 643c d05f 0c3e 0f5a 65be 65d4 52bd
00000300: 09e4 eb3d 8147 ef3d 48b7 48be 5617 02be
00000310: a50a 28be b432 26be 7180 90bc 9094 3fbe
00000320: 6578 a53d 152d d93d 19d4 cf3d 79fc 21be
00000330: 0706 01be edf1 4cbd c59f debc 7db8 47bd
00000340: 0074 4dbe 898c ae3d cf20 f83d 200c 843d
00000350: dca7 063e f168 24be 82eb aabc 246f 633c
00000360: 0e37 fb3c d3cf bbbd 0558 5a3e bf4e 45be
00000370: 1fc2 bb3e 608f a2bc 5647 673e 2d85 87bd
00000380: e929 1d3e dfd9 5dbe a17a 93be 3257 ca3c
00000390: 743a 67bd 933b 43bd f829 3a3e 0ac1 fdbd
000003a0: 3507 3cbe 09cf bc3d 8307 08be 46cd 4cbe
000003b0: fb27 8b3e f1eb 9cbd 3689 7dbc 6702 3abe
000003c0: a3ad b13e 0ace 0c3b 79fc 813c 35d7 3abe
000003d0: d2ed 94bd 0d63 b5bd d039 2cbe eb74 e2bb
000003e0: 24e1 ad3e 363b f53d bcfc 4d3e fd78 2a3d
000003f0: f9b3 073e c5ae 9abe fcd4 24be 3bdd 983e

weight_hh_l0 f4 [128, 32]
0.035899196 -0.22209024 0.02341947 0.10562316 -0.11190411 -0.010678272 -0.093217 -0.15713465
0.028770957 0.24769427 -0.14894003 0.077442475 -0.13789281 0.21908635 0.17182001 0.09109056
0.22777146 -0.15984613 -0.054528546 0.0074829264 -0.19916236 -0.12891613 -0.07797217 -0.26520586
0.2796417 0.06455127 -0.08249375 0.35522863 0.18172795 0.024887014 0.17554994 -0.11240196
0.09630083 -0.26910898 0.08660362 -0.10148003 -0.016810926 0.19862859 -0.048202887 -0.21173918
0.063463904 0.12427374 -0.37383857 -0.10133757 -0.2803377 0.18914528 0.087247044 -0.13671568
0.27251917 0.11960742 -0.22952083 0.02982376 -0.059130844 -0.15750672 -0.19892338 -0.16563496
0.14874044 0.12114303 -0.15009779 -0.00047146427 0.0077304062 0.06112365 0.2382534 -0.0852731
0.11408832 -0.12640722 -0.11347211 0.12853199 0.090089045 0.12643851 -0.14480731 -0.17607509
-0.0669847 0.20930201 -0.2814617 0.040996626 -0.05681868 -0.14675866 0.101280816 -0.09909868
0.13408932 -0.14221783 0.15295172 -0.13442874 0.043420665 0.0627649 0.11631069 0.14320007
0.27536798 0.12528828 0.16020416 0.10659122 0.11777892 0.09590776 -0.080183916 0.05001646
-0.12784395 -0.046984702 -0.04372867 0.06133751 -0.11073924 0.031312626 -0.089357704 0.028425803
-0.058422435 0.18977626 -0.35920477 -0.09398774 -0.040276494 -0.07259625 -0.12337802 -0.16868912
0.07020498 -0.0015335219 -0.25634518 -0.050833944 -0.06270846 -0.011597183 0.013490068 -0.023355229
0.14162356 0.12474306 -0.08343876 0.21663687 0.08309326 0.11732958 0.27865702 -0.10241536
-0.021522246 -0.075816676 0.18618436 -0.041298576 0.04476492 0.1380148 -0.15233119 0.21721737
0.2967122 -0.113922924 -0.24812406 -0.27709723 0.24350531 0.14522731 0.1034356 -0.05906545
-0.21679597 -0.46853703 0.09629313 0.06567701 0.11701455 0.37543362 0.097170815 0.06735604
0.077454135 -0.2628911 -0.03012252 -0.38371295 0.0034997687 0.08116414 0.16899909 -0.24394731
0.10173311 -0.234362 0.086980924 -0.1326692 -0.03499612 -0.09927761 0.22773317 -0.2658267
-0.08076728 0.0100164935 0.22008553 -0.0672211 -0.21687327 0.07929711 0.0042721885 -0.024824915
-0.061311144 0.23330875 -0.18551575 0.23679243 -0.08909436 -0.029408218 0.08826915 -0.2134911
0.109465376 0.084675916 0.1661409 0.17379369 0.063500434 -0.06883933 0.20859511 0.21068257
0.13397935 -0.06649556 -0.20356083 0.13393512 -0.058355194 -0.078249246 0.26861048 -0.32706964
-0.14348169 0.14163569 -0.06614951 -0.11582724 0.009714264 0.31425107 0.07154033 0.008504716
0.047018755 -0.06827447 -0.032041904 -0.05132365 -0.099584065 0.26487574 0.17770486 -0.124274485
-0.023993567 0.24016987 0.10836143 0.16743967 -0.14223541 -0.011945963 -0.015628489 0.1322006
0.13825807 -0.28630665 0.04463743 0.13504739 -0.2683311 -0.034926597 0.29408655 -0.17399804
-0.061440613 -0.023825817 0.1335157 -0.0028961184 -0.07070149 -0.02005531 0.009042043 0.054458257
0.08788632 0.16159548 -0.14192231 0.017219352 -0.44534588 0.10332279 -0.069613986 -0.3729745
0.20769238 0.4495866 -0.20237823 0.26009795 0.103942834 -0.043908816 0.09750039 0.34169975
00000000: 090b 133d a06b 63be 30da bf3c f550 d83d
00000010: fb2d e5bd ebf3 2ebc 8ee8 bebd e8e7 20be
00000020: 12b1 eb3c 91a3 7d3e bc83 18be 299a 9e3d
00000030: c633 0dbe 2c58 603e 96f1 2f3e b08d ba3d
00000040: ec3c 693e b4ae 23be 5359 5fbd 5633 f53b
00000050: 38f1 4bbe 9702 04be e0af 9fbd 10c9 87be
00000060: 322d 8f3e 7533 843d 7cf2 a8bd 87e0 b53e
00000070: e416 3a3e dadf cb3c 5dc3 333e 0033 e6bd
00000080: 5f39 c53d a7c8 89be 3d5d b13d c3d4 cfbd
00000090: 11b7 89bc 4b65 4b3e 6470 45bd 28d2 58be
000000a0: 5df9 813d 3b83 fe3d c567 bfbe 128a cfbd
000000b0: 6c88 8fbe 4daf 413e 94ae b23d 32ff 0bbe
000000c0: a287 8b3e bcf4 f43d 8207 6bbe f550 f43c
000000d0: 2f33 72bd 7149 21be 92b2 4bbe 369c 29be
000000e0: 6a4f 183e d619 f83d 3cb3 19be dd2e f7b9
000000f0: 594f fd3b cb5c 7a3d b3f8 733e aaa3 aebd
00000100: 23a7 e93d e570 01be 1164 e8bd e49d 033e
00000110: 9b80 b83d 1979 013e 5e48 14be 074d 34be
00000120: 462f 89bd 4453 563e bf1b 90be 14ec 273d
00000130: b4ba 68bd e747 16be 516c cf3d 40f4 cabd
00000140: b64e 093e 8da1 11be 609f 1c3e b0a7 09be
00000150: ded9 313d e28a 803d 4d34 ee3d 0aa3 123e
00000160: 08fd 8c3e 924b 003e 8f0c 243e 7f4c da3d
00000170: 1336 f13d 4a6b c43d 7737 a4bd 0fde 4c3d
00000180: 86e9 02be 0873 40bd d51c 33bd 0a3d 7b3d
00000190: 41cb e2bd ab41 003d 2c01 b7bd 3bdd e83c
000001a0: 5d4c 6fbd b554 423e b0e9 b7be a57c c0bd
000001b0: f7f8 24bd 58ad 94bd 9ead fcbd d7bc 2cbe
000001c0: a1c7 8f3d 7500 c9ba ad3f 83be 4137 50bd
000001d0: 4b6d 80bd 1c02 3ebc 7205 5d3c 7753 bfbc
000001e0: c405 113e 4a79 ff3d f1e1 aabd 0ed6 5d3e
000001f0: cd2c aa3d 7e4a f03d 22ac 8e3e 25bf d1bd
00000200: 6c4f b0bc c645 9bbd 1da7 3e3e b228 29bd
00000210: 6c5b 373d c053 0d3e b5fc 1bbe 3b6e 5e3e
00000220: a9ea 973e 6c50 e9bd 3c14 7ebe b0df 8dbe
00000230: 7559 793e 78b6 143e 0bd6 d33d 9dee 71bd
00000240: c3ff 5dbe 16e4 efbe 5535 c53d ab81 863d
00000250: 53a5 ef3d d638 c03e 7e01 c73d f7f1 893d
00000260: 46a0 9e3d aa99 86be 81c3 f6bc 0676 c4be
00000270: 605c 653b 6239 a63d 190e 2d3e 53cd 79be
00000280: 7359 d03d 98fc 6fbe 0e23 b23d 6fda 07be
00000290: 1758 0fbd 0f52 cbbd e232 693e 701a 88be
000002a0: 5169 a5bd 381c 243c 1a5e 613e 37ab 89bd
000002b0: 0714 5ebe 8666 a23d b7fd 8b3b 9f5d cbbc
000002c0: 6521 7bbd 7de8 6e3e d7f7 3dbe b779 723e
000002d0: 1b77 b6bd 81e9 f0bc 75c6 b43d 699d 5abe
000002e0: 622f e03d 916a ad3d d720 2a3e f9f6 313e
000002f0: 840c 823d a2fb 8cbd f599 553e 2cbd 573e
00000300: e231 093e d32e 88bd 4072 50be 4a26 093e
00000310: db05 6fbd 2441 a0bd 5087 893e ac75 a7be
00000320: ddec 12be f208 113e 6579 87bd d536 edbd
00000330: 9428 1f3c 84e5 a03e bd83 923d 5d57 0b3c
00000340: bd96 403d 7cd3 8bbd 5f3e 03bd bf38 52bd
00000350: bbf2 cbbd cb9d 873e 43f8 353e 9f83 febd
00000360: 288e c4bc 17ef 753e 99ec dd3d 4e75 2b3e
00000370: 29a6 11be 00b9 43bc 5107 80bc 985f 073e
00000380: 8693 0d3e c996 92be bdd5 363d dd49 0a3e
00000390: b262 89be 310f 0fbd 8392 963e 8b2c 32be
000003a0: 27a9 7bbd 5c2e c3bc 57b8 083e cecc 3dbb
000003b0: f1cb 90bd 094b a4bc 1425 143c 9f0f 5f3d
000003c0: befd b33d 4979 253e 1554 11be 990f 8d3c
000003d0: 6004 e4be e69a d33d c791 8ebd 83f6 bebe
000003e0: 50ad 543e 3730 e63e 3d3c 4fbe 8f2b 853e
000003f0: fbdf d43d bbd9 33bd 49ae c73d 45f3 ae3e

bias_ih_l0 f4 [128]
0.021332517 0.057499696 0.02173757 -0.068648 -0.14398223 0.16245443 0.07259004 -0.16884948
-0.027117359 0.049412258 0.24642494 0.109147705 0.18199229 -0.08702951 0.086882085 -0.08656668
-0.027357582 0.14889283 -0.02292363 0.13022014 0.13580982 -0.016808381 0.10265616 -0.06031593
0.11194157 0.10195856 -0.04137225 0.012454119 -0.021852827 -0.0037585474 -0.08477063 0.12964445
0.07073383 -0.25959304 -0.23294228 0.030744042 -0.017843658 -0.16313629 -0.25015667 -0.14519857
-0.21136695 -0.08007242 -0.22188362 0.011134176 -0.16447188 0.17091575 -0.043060627 -0.11972728
0.042209174 -0.055679496 -0.17349353 0.0820035 -0.299178 -0.077726714 -0.004282036 -0.026468907
-0.09555811 0.14607249 0.05909589 0.09508104 -0.035814203 -0.27093333 -0.26548132 -0.26507103
0.13847318 0.13027577 -0.06631572 0.03498936 -0.10230049 -0.005216857 0.10196099 -0.04283745
-0.062143236 0.069477856 -0.07335044 0.02875831 -0.09701697 -0.022944963 -0.027761344 -0.09859775
-0.07082909 -0.12171707 0.099208556 -0.010860564 0.063477874 0.05858022 0.10373877 -0.12445739
0.11355694 -0.0925496 0.06687832 -0.086496554 -0.069786675 0.12626727 0.020560324 -0.055873036
0.23309995 0.041919034 0.06667364 0.00015593576 0.2004086 0.12125721 0.10531479 -0.14440247
-0.12736519 0.11741366 0.015032203 0.11988535 0.14812598 -0.07575746 0.12651187 0.08374175
0.10052963 0.090830065 0.07113714 0.013784109 0.26087472 0.0058192057 0.08338666 -0.00012643493
-0.07476946 0.13723722 0.10290495 -0.010729985 0.1161768 0.21058199 -0.008335203 0.10590333
00000000: 88c1 ae3c cd84 6b3d fd12 b23c 5397 8cbd
00000010: 1470 13be 745a 263e 16aa 943d e1e6 2cbe
00000020: 3925 debc 8264 4a3d d256 7c3e d588 df3d
00000030: 305c 3a3e 873c b2bd 3cef b13d df49 b1bd
00000040: 021d e0bc 5d77 183e 56ca bbbc 6e58 053e
00000050: bb11 0b3e bbb1 89bc 653d d23d d60d 77bd
00000060: 9f41 e53d a6cf d03d f375 29bd 5c0c 4c3c
00000070: b304 b3bc f651 76bb 399c adbd 84c1 043e
00000080: e6dc 903d 61e9 84be 6c88 6ebe eeda fb3c
00000090: dd2c 92bc 330d 27be 8914 80be efae 14be
000000a0: 9470 58be 02fd a3bd 7635 63be 1e6c 363c
000000b0: 516b 28be 8a04 2f3e 5760 30bd 9433 f5bd
000000c0: 87e3 2c3d 2f10 64bd 4aa8 31be 73f1 a73d
000000d0: dc2d 99be 2f2f 9fbd 5250 8cbb 52d5 d8bc
000000e0: f8b3 c3bd 0794 153e 880e 723d d9b9 c23d
000000f0: eab1 12bd c6b7 8abe 2bed 87be 64b7 87be
00000100: eacb 0d3e 0367 053e 89d0 87bd 0151 0f3d
00000110: eb82 d1bd 2bf2 aabb ecd0 d03d 5276 2fbd
00000120: e889 7ebd 684a 8e3d c138 96bd 8c96 eb3c
00000130: d5b0 c6bd 13f7 bbbc c26b e3bc 9eed c9bd
00000140: d80e 91bd cd46 f9bd db2d cb3d 82f0 31bc
00000150: b000 823d d0f1 6f3d fe74 d43d 84e3 febd
00000160: 8a90 e83d a58a bdbd 80f7 883d 1b25 b1bd
00000170: 51ec 8ebd 354c 013e 206e a83c 20db 64bd
00000180: c1b1 6e3e 4bb3 2b3d 308c 883d b082 2339
00000190: e937 4d3e b355 f83d 48af d73d 3ede 13be
000001a0: 056c 02be 9376 f03d a149 763c 7386 f53d
000001b0: 56ae 173e ba26 9bbd 548c 013e cb80 ab3d
000001c0: 7be2 cd3d 1d05 ba3d 59b0 913d bed6 613c
000001d0: 5f91 853e 09af be3b a0c6 aa3d 9e93 04b9
000001e0: bb20 99bd ea87 0c3e d5bf d23d d2cc 2fbc
000001f0: 1aee ed3d cea2 573e 6090 08bc d8e3 d83d

bias_hh_l0 f4 [128]
-0.022957657 0.070607334 -0.11205296 0.09283509 -0.00020666349 -0.081445955 -0.02905997 0.008714988
0.05802032 0.21430817 -0.010029439 -0.01567935 -0.056300946 0.20723914 0.12744527 0.07385388
-0.114324786 0.14145295 -0.11861491 0.08594276 0.28348732 0.16390808 0.13118191 0.0039820154
0.013602639 0.08682987 0.032182496 -0.07912779 -0.10347874 -0.013101559 -0.015251493 0.17983533
-0.01802527 -0.2335033 0.00474739 -0.17540021 0.29052216 -0.0002933932 -0.10921451 -0.29002526
-0.13848108 -0.13629451 -0.20294903 -0.050054777 -0.16725418 -0.008520387 0.06289416 -0.06961507
-0.088588916 -0.123603165 -0.14514084 -0.09928214 -0.1552719 -0.24052252 -0.22734772 -0.054456122
-0.2991399 -0.16255607 -0.19444078 0.03438801 -0.064035304 -0.037017934 -0.13339697 0.036319777
-0.1447858 -0.1384974 0.103763685 -0.020641612 0.15436022 0.027104238 -0.08418155 0.004053355
0.07911459 -0.02414035 0.054482415 0.046051785 0.083696425 0.04349936 -0.10546634 0.04766075
0.022112371 0.12067333 0.024655573 -0.13744214 -0.093497194 -0.0018729384 -0.1398558 0.12362081
-0.12494012 0.013090985 0.06984528 0.02834968 -0.058331877 -0.15237726 -0.0039887517 0.048122607
0.11806108 0.17624366 -0.08942639 0.22746798 0.29902327 0.024645887 0.30389458 0.16619068
-0.1813655 0.1397642 0.25629938 0.19677737 0.16028748 0.11742441 0.04636621 0.09160565
0.1190223 -0.045961395 0.17623277 -0.10970515 0.22392283 0.19691363 0.23516253 0.13246249
0.11305873 0.112885974 0.15481897 -0.0045264065 -0.013163984 0.20503984 0.018683039 0.3066424
00000000: b211 bcbc 949a 903d 067c e5bd 5320 be3d
00000010: cfb3 58b9 23cd a6bd 2d0f eebc 4fc9 0e3c
00000020: b7a6 6d3d 9a73 5b3e 8452 24bc fb71 80bc
00000030: d29b 66bd 7f36 543e 0381 023e b440 973d
00000040: 1d23 eabd 0bd9 103e 60ec f2bd c202 b03d
00000050: 4025 913e 85d7 273e 8d54 063e 917b 823b
00000060: 9add 5e3c dcd3 b13d cbd1 033d c00d a2bd
00000070: a9ec d3bd eca7 56bc 66e1 79bc c126 383e
00000080: bba9 93bc 7d1b 6fbe fe8f 9b3b 1d9c 33be
00000090: 52bf 943e 92d2 99b9 dbab dfbd 317e 94be
000000a0: fccd 0dbe ca90 0bbe dfd1 4fbe 3d06 4dbd
000000b0: ae44 2bbe 1899 0bbc a7ce 803d 5992 8ebd
000000c0: 1b6e b5bd a823 fdbd cd9f 14be 6f54 cbbd
000000d0: 99ff 1ebe 894b 76be d7cd 68be 620d 5fbd
000000e0: dd28 99be 1975 26be 7c1b 47be 71da 0c3d
000000f0: f124 83bd 1ea0 17bd 3799 08be 0cc4 143d
00000100: bb42 14be 43d2 0dbe 0e82 d43d 9918 a9bc
00000110: 9b10 1e3e b509 de3c 6067 acbd 02d2 843b
00000120: d506 a23d fcc1 c5bc f428 5f3d cca0 3c3d
00000130: 0869 ab3d 632c 323d bdfe d7bd eb37 433d
00000140: 0125 b53c 9423 f73d 7cfa c93c a2bd 0cbe
00000150: 757b bfbd 627d f5ba 5c36 0fbe e82c fd3d
00000160: 9be0 ffbd 927b 563c 0b0b 8f3d 973d e83c
00000170: 68ed 6ebd c908 1cbe 13b4 82bb 361c 453d
00000180: 02ca f13d 3879 343e 2f25 b7bd 5eed 683e
00000190: 9419 993e 2ce6 c93c 1298 9b3e e42d 2a3e
000001a0: e1b7 39be 591e 0f3e ac39 833e 0280 493e
000001b0: 6722 243e 367c f03d 7fea 3d3d be9b bb3d
000001c0: f7c1 f33d 0442 3cbd 5d76 343e 18ad e0bd
000001d0: 074c 653e baa3 493e 72ce 703e 3fa4 073e
000001e0: 568b e73d c330 e73d dd88 1e3e 4052 94bb
000001f0: c0ad 57bc f7f5 513e 2c0d 993c 3c00 9d3e

weight_ih_l0 f4 [128, 2]
0.12798055 0.08089832 0.10212006 0.08019086 0.15579458 0.05072481 -0.18368886 0.0034608715
-0.08651741 -0.3145068 0.13746017 0.112136446 -0.114814594 0.16658692 -0.3306098 0.022180451
0.1710269 -0.14236464 -0.22873342 0.058772627 -0.020057758 -0.066300444 0.16330233 -0.058603056
0.118285015 -0.31407842 -0.13205743 -0.009392135 -0.2560374 0.09231785 0.015248536 0.044836223
-0.1774207 0.17002693 -0.07358389 0.30107212 0.021335263 0.19627999 0.20506299 0.08344672
0.33835125 -0.01440921 0.23949456 0.44859815 0.2816808 0.20368168 -0.48801723 0.21210025
-0.03790468 0.086760975 0.12913716 -0.27502212 -0.08179591 0.27327424 -0.20673887 -0.167917
0.012981344 -0.07261716 0.058953863 0.28881687 0.3530547 0.029305818 0.111454144 -0.38423565
0.059124254 -0.19156098 -0.06389835 -0.28340098 -0.08841729 0.09010201 0.08204031 0.3881755
0.20413092 0.19395547 -0.43509528 0.2188488 -0.5360173 -0.012445627 0.35906437 0.11821978
-0.044048533 -0.093600735 -0.120671235 -0.32663837 -0.11851025 -0.13906944 -0.24317159 0.15660325
-0.5128754 -0.07905436 0.44569162 0.43668 -0.2622481 -0.28926742 0.20490414 0.039631203
0.10925696 -0.011508922 0.027350696 -0.29630762 0.097170755 0.56724036 -0.5324527 0.14582591
-0.44637558 -0.14129077 0.22431763 0.07949166 0.08634322 0.28398007 0.01066453 -0.53278184
-0.27584803 -0.17782786 0.29837462 0.10686625 0.25058228 -0.26354963 -0.14467856 0.32060146
0.04589517 -0.39731565 -0.23625971 0.51786184 0.2630336 -0.05266325 0.039310485 0.31951818
-0.036043085 0.22656584 -0.27443826 -0.35500333 -0.30821142 -0.27546674 -0.08273293 -0.34076297
-0.28279224 0.20694849 0.18324962 -0.40292293 -0.034277037 -0.069070116 0.31472918 -0.098139346
0.5990833 0.17219296 -0.002059893 0.74096775 0.32253212 0.44469255 -0.5856066 0.23075004
-0.38085866 -0.0099142175 0.25121465 0.22232977 -0.32588124 -0.48290783 -0.34408605 0.22058032
0.012764557 0.17359638 -0.47517362 0.35951114 0.042168252 0.50354433 0.34498823 -0.14446682
-0.27601236 -0.0059237313 -0.43686873 0.29505453 -0.076277286 -0.494316 0.15122908 -0.04258398
0.2190452 0.25754347 -0.15961947 0.30978414 -0.6114946 0.2905917 0.27392364 0.1763273
0.46983933 0.22979183 0.114985414 0.035760712 0.32212445 0.17928173 -0.0789231 -0.47980362
-0.08512415 -0.16934454 0.17167619 0.009384623 0.12923841 -0.011582771 0.22505057 0.12877275
-0.018989483 -0.20203578 -0.2263221 0.20820314 -0.3448638 -0.1741341 -0.04922161 -0.08307092
-0.023537992 0.08039734 -0.25684384 -0.358537 0.14386737 -0.09680126 0.10955433 -0.016194655
0.38600838 0.13182141 0.1707236 0.19385931 -0.1887448 0.15141165 0.14017041 -0.033711623
-0.086313955 0.12594081 -0.09908679 -0.16739957 -0.037989702 -0.09288172 0.22739956 0.29877907
0.08166497 -0.089636914 0.039905712 0.47945443 0.16614869 0.08346254 -0.14447589 -0.26533523
0.19318572 0.09298908 0.17572944 -0.30820817 0.024146697 -0.21898754 0.04191282 0.011299124
0.025648514 -0.15423086 -0.14693785 0.26280788 0.21806523 -0.07909976 0.2036071 -0.25990528
00000000: 550d 033e 05ae a53d 5224 d13d 1b3b a43d
00000010: 9d88 1f3e d2c4 4f3d ef18 3cbe cacf 623b
00000020: 0a30 b1bd 0907 a1be 5cc2 0c3e cba7 e53d
00000030: ea23 ebbd c395 2a3e b045 a9be c7b3 b53c
00000040: ad21 2f3e 09c8 11be 1839 6abe 91bb 703d
00000050: 2b50 a4bc 87c8 87bd ba38 273e c209 70bd
00000060: 6a3f f23d e3ce a0be 103a 07be 78e1 19bc
00000070: 5617 83be 2411 bd3d ffd4 793c 30a6 373d
00000080: c6ad 35be 8a1b 2e3e 27b3 96bd 2026 9a3e
00000090: 4ac7 ae3c 9ffd 483e 08fc 513e 1de6 aa3d
000000a0: 603c ad3e 9b14 6cbc 103e 753e a8ae e53e
000000b0: 7738 903e ee91 503e 65dd f9be cf30 593e
000000c0: f041 1bbd bdaf b13d 883c 043e b3cf 8cbe
000000d0: 9d84 a7bd 9aea 8b3e 5bb3 53be 6ff2 2bbe
000000e0: b4af 543c 4eb8 94bd 9b79 713d cedf 933e
000000f0: 96c3 b43e c112 f03c 1242 e43d 89ba c4be
00000100: 462c 723d 9028 44be 23dd 82bd ef19 91be
00000110: 2014 b5bd 6787 b83d c004 a83d f0be c63e
00000120: b207 513e 439c 463e cfc4 debe e619 603e
00000130: 6e38 09bf bee8 4bbc 49d7 b73e 361d f23d
00000140: 3c6c 34bd beb1 bfbd 7b22 f7bd 253d a7be
00000150: 80b5 f2bd 3868 0ebe f901 79be 9a5c 203e
00000160: cd4b 03bf 41e7 a1bd b131 e43e 8594 df3e
00000170: 6245 86be dc1a 94be 64d2 513e 5454 223d
00000180: 1dc2 df3d eb8f 3cbc 910e e03c a2b5 97be
00000190: 7601 c73d aa36 113f d24e 08bf 6353 153e
000001a0: 578b e4be 87ae 10be 85b3 653e 86cc a23d
000001b0: b7d4 b03d d665 913e 48ba 2e3c 6464 08bf
000001c0: f43b 8dbe 8218 36be 8fc4 983e b1dc da3d
000001d0: 524c 803e faef 86be 9e26 14be e025 a43e
000001e0: 93fc 3b3d f56c cbbe 11ee 71be 9892 043f
000001f0: 57ac 863e 6cb5 57bd 0804 213d e397 a33e
00000200: eaa1 13bd e000 683e 2c83 8cbe ffc2 b5be
00000210: e3cd 9dbe fa09 8dbe e26f a9bd 7c78 aebe
00000220: 25ca 90be 4eea 533e caa5 3b3e ea4b cebe
00000230: 1466 0cbd a274 8dbd 2f24 a13e 48fd c8bd
00000240: 865d 193f 5a53 303e 45ff 06bb 10b0 3d3f
00000250: ee22 a53e beae e33e 50ea 15bf bd49 6c3e
00000260: e8ff c2be 3e6f 22bc 359f 803e 6aaa 633e
00000270: e8d9 a6be b23f f7be 0c2c b0be cfdf 613e
00000280: 6f22 513c 40c3 313e f549 f3be d811 b83e
00000290: 9eb8 2c3d 48e8 003f 4ca2 b03e 1cef 13be
000002a0: 7e51 8dbe dc1b c2bb 42ad dfbe 6311 973e
000002b0: 4437 9cbd fd16 fdbe ccdb 1a3e 8a6c 2ebd
000002c0: 634d 603e bddc 833e 4973 23be 079c 9e3e
000002d0: e98a 1cbf 6fc8 943e b83f 8c3e 258f 343e
000002e0: c88e f03e 8d4e 6b3e 797d eb3d d379 123d
000002f0: 7fed a43e a195 373e 6fa2 a1bd d2a8 f5be
00000300: 9255 aebd a868 2dbe e2cb 2f3e f6c1 193c
00000310: 1357 043e aac5 3dbc a873 663e 01dd 033e
00000320: d58f 9bbc 78e2 4ebe fbc0 67be 3433 553e
00000330: fd91 b0be 3650 32be 999c 49bd 1621 aabd
00000340: bfd2 c0bc 5ca7 a43d 0981 83be 2992 b7be
00000350: f851 133e bd3f c6bd 055e e03d a7aa 84bc
00000360: e4a2 c53e 31fc 063e 2bd2 2e3e 0e83 463e
00000370: 5146 41be a80b 1b3e d588 0f3e 3315 0abd
00000380: 5fc5 b0bd a1f6 003e 04ee cabd cb6a 2bbe
00000390: 179b 1bbd c538 bebd 6edb 683e 92f9 983e
000003a0: f73f a73d 8f93 b7bd 2c74 233d 0d7b f53e
000003b0: e222 2a3e 68ee aa3d 7df1 13be 05da 87be
000003c0: 7ad2 453e 0f71 be3d 6bf2 333e 76cd 9dbe
000003d0: 4bcf c53c 453e 60be c7ac 2b3d f61f 393c
000003e0: d51c d23c b2ee 1dbe e076 16be c18e 863e
000003f0: 7e4c 5f3e 0eff a1bd 617e 503e 4e12 85be

weight_hh_l0 f4 [128, 32]
-0.05854777 0.06611512 -0.1333657 0.061601788 0.04154784 -0.097356424 -0.2676916 -0.022674263
-0.2087782 -0.06990294 0.059389137 0.18983845 0.17698234 0.1557587 -0.085575305 -0.07349054
0.09966409 0.022068877 0.26435232 -0.1345081 0.115571976 -0.16952823 -0.30575806 0.14582032
-0.23424198 0.23503971 -0.17115581 0.17325051 0.11695243 -0.17398445 -0.15457429 -0.013826735
0.014833058 -0.12226356 -0.38634354 -0.14556344 0.10878253 0.0111632245 -0.40562412 -0.06237821
0.23624091 0.20431463 0.44307834 0.012461711 -0.08456878 0.4324446 -0.054612905 -0.18962198
0.0756393 0.16852804 0.34372002 0.10872321 0.16946343 -0.2772582 -0.128248 0.13189532
0.089140296 -0.02813683 -0.14864899 -0.00089338655 0.076419644 0.02191327 0.108916126 -0.43743956
-0.105593875 0.25506216 0.13264987 -0.070937596 -0.27066728 -0.12863247 -0.15793693 0.09683447
0.0375003 -0.25869423 -0.13569342 0.04646809 0.13747114 0.49679986 0.26071087 0.0076751653
0.06141285 0.03776059 0.06301196 -0.2614258 0.103749074 -0.119352095 -0.09541986 0.22599147
-0.29144132 0.029582826 -0.3167183 0.26860628 -0.29356313 -0.12438578 0.292395 -0.5220992
0.13839413 -0.09713188 0.19118725 -0.08107927 0.12765482 0.067044996 0.20743002 0.15803523
0.35333166 0.1162267 0.038054794 0.045050483 0.083928056 -0.06545027 -0.078273654 -0.10254899
-0.15436447 -0.31567597 -0.058751073 -0.1008327 -0.07426451 0.17029394 0.12825495 -0.012846858
0.023290662 0.3061026 -0.09689484 0.4263274 -0.061692882 -0.14308184 0.042753335 -0.08625955
-0.23386453 0.053832505 0.14263517 0.25893885 -0.119713455 0.50533813 0.37130532 0.0526072
0.373468 0.031145323 -0.2194266 -0.077830516 -0.11011562 0.094584934 0.25908595 -0.082103886
-0.36004502 -0.75495815 -0.32581863 0.22710322 0.048843905 0.07654866 0.6324901 -0.080712765
-0.15691252 0.1417417 -0.41717952 0.21385194 -0.13303013 0.16235262 0.0098276455 0.13688035
-0.08953607 -0.08137969 -0.32223305 -0.22883989 0.14824688 0.1525779 -0.20377846 0.2516968
0.40256423 -0.3656155 -0.10877124 0.31585553 0.08854517 0.036194686 0.19235405 -0.1614525
-0.22852068 -0.19629197 -0.023132468 0.11175715 -0.07673773 -0.27551177 -0.13115081 0.23441221
0.11337611 0.26406223 -0.085475974 0.37268555 -0.01365571 -0.3840988 0.4730121 -0.097541675
0.27180997 -0.25721592 -0.48434153 -0.30022565 0.16045494 -0.24212196 0.027014717 0.103785455
0.32585317 0.3202617 0.43806854 0.024562923 -0.11121579 0.2996329 -0.46590847 -0.20457093
0.0060630674 0.26445854 0.26880917 -0.014091799 0.029869476 0.25476873 -0.44349438 0.0010553963
0.19994448 0.05283905 -0.20106469 -0.012156812 0.4043476 -0.17581962 -0.058253814 -0.07249326
0.2618634 0.10989859 0.48530227 0.06909288 0.19565746 -0.3580215 0.24497478 -0.08279571
-0.81952536 -0.112824574 -0.323496 0.2919652 0.72174317 -0.165853 0.052021436 0.3796251
0.15133809 0.43845886 -0.12243629 -0.013656861 -0.003154901 0.16424894 -0.081991866 -0.16125666
0.038186166 -0.052152723 0.5856536 0.12469338 -0.16604753 0.079694256 -0.06573476 0.13549638
00000000: c9cf 6fbd 5d67 873d 0591 08be 2852 7c3d
00000010: 112e 2a3d ce62 c7bd e00e 89be 60bf b9bc
00000020: f4c9 55be 4629 8fbd 0642 733d 0365 423e
00000030: dc3a 353e 357f 1f3e 1b42 afbd 3582 96bd
00000040: b01c cc3d cac9 b43c 3059 873e 7ebc 09be
00000050: 00b1 ec3d cf98 2dbe 528c 9cbe ec51 153e
00000060: 21dd 6fbe 40ae 703e 7843 2fbe 9568 313e
00000070: c184 ef3d fb28 32be b948 1ebe 8889 62bc
00000080: 5b06 733c 5165 fabd d2ce c5be 950e 15be
00000090: 60c9 de3d f5e5 363c f7ad cfbe 4b80 7fbd
000000a0: 23e9 713e db37 513e 2adb e23e 342c 4c3c
000000b0: 6632 adbd 6169 dd3e c8b1 5fbd 442c 42be
000000c0: c7e8 9a3d 9d92 2c3e 12fc af3e 46aa de3d
000000d0: d287 2d3e c9f4 8dbe 7253 03be 910f 073e
000000e0: 308f b63d 367f e6bc 7137 18be 2832 6aba
000000f0: e781 9c3d 7583 b33c 6b0f df3d 14f8 dfbe
00000100: 9a41 d8bd 8297 823e 5ed5 073e bb47 91bd
00000110: e794 8abe 3bb8 03be 38ba 21be 2751 c63d
00000120: ea99 193d 9273 84be 37f3 0abe 5355 3e3d
00000130: 3cc5 0c3e 8d5c fe3e e57b 853e f47f fb3b
00000140: 0a8c 7b3d d9aa 1a3d 6a0c 813d 9ad9 85be
00000150: 657a d43d df6e f4bd 7d6b c3bd 4f6a 673e
00000160: cc37 95be af57 f23c e728 a2be c386 893e
00000170: e84d 96be f9bd febd ccb4 953e 4ba8 05bf
00000180: 31b7 0d3e 14ed c6bd 97c6 433e e30c a6bd
00000190: f2b7 023e e34e 893d 8968 543e fdd3 213e
000001a0: e3e7 b43e 4408 ee3d 58df 1b3d db86 383d
000001b0: 79e2 ab3d cb0a 86bd f04d a0bd 3405 d2bd
000001c0: b811 1ebe 48a0 a1be f7a4 70bd 6081 cebd
000001d0: fe17 98bd 8961 2e3e 4455 033e a17b 52bc
000001e0: 0fcc be3c 7bb9 9c3e cd70 c6bd 9647 da3e
000001f0: adb1 7cbd 0c84 12be 1f1e 2f3d d9a8 b0bd
00000200: 2f7a 6fbe 797f 5c3d f40e 123e a293 843e
00000210: 542c f5bd d75d 013f bb1b be3e a67a 573d
00000220: 3337 bf3e 7a24 ff3c 5eb1 60be 9b65 9fbd
00000230: 4c84 e1bd bfb5 c13d eaa6 843e 1526 a8bd
00000240: d257 b8be f044 41bf b3d1 a6be bf8d 683e
00000250: 8c10 483d 8bc5 9c3d dfea 213f bc4c a5bd
00000260: adad 20be bc24 113e 8e98 d5be 01fc 5a3e
00000270: 0d39 08be c43f 263e 2204 213c 5d2a 0c3e
00000280: b05e b7bd 65aa a6bd bbfb a4be 0155 6abe
00000290: 08ce 173e 623d 1c3e 4dab 50be 67de 803e
000002a0: e61c ce3e f431 bbbe 75c3 debd d1b7 a13e
000002b0: 2c57 b53d e140 143d 76f8 443e ce53 25be
000002c0: 5301 6abe c300 49be 4d80 bdbc efe0 e43d
000002d0: ac28 9dbd e10f 8dbe 664c 06be c109 703e
000002e0: bc31 e83d 2a33 873e 070e afbd a4d0 be3e
000002f0: 33bc 5fbc 99a8 c4be a42e f23e eec3 c7bd
00000300: ad2a 8b3e ceb1 83be 9dfb f7be 2db7 99be
00000310: 4d4e 243e d2ee 77be f84d dd3c 788d d43d
00000320: 3ad6 a63e 57f9 a33e 854a e03e 2f38 c93c
00000330: 1bc5 e3bd 7c69 993e 8e8b eebe 0b7b 51be
00000340: b2ac c63b 1c67 873e 5ba1 893e 4ae1 66bc
00000350: d5b0 f43c 0c71 823e b211 e3be 3955 8a3a
00000360: 3fbe 4c3e c26d 583d e7e3 4dbe 5d2d 47bc
00000370: a606 cf3e 0f0a 34be 8d9b 6ebd 5977 94bd
00000380: f612 863e 8312 e13d 8a79 f83e 9180 8d3d
00000390: 6e5a 483e 984e b7be abda 7a3e cc90 a9bd
000003a0: 6acc 51bf 9210 e7bd 45a1 a5be 767c 953e
000003b0: 29c4 383f 5ed5 29be 6e14 553d 395e c23e
000003c0: 5ff8 1a3e ae7d e03e e1bf fabd 07c1 5fbc
000003d0: 75c2 4ebb e030 283e 5aeb a7bd 7720 25be
000003e0: 1969 1c3d 189e 55bd 65ed 153f 3e5f ff3d
000003f0: 5d08 2abe be36 a33d f29f 86bd 90bf 0a3e

bias_ih_l0 f4 [128]
-0.027542528 -0.06419656 0.10739011 0.10544169 -0.0071489536 0.14473169 0.14359082 -0.12815766
0.042558726 0.13555627 -0.061897222 -0.11431069 0.03924826 0.15541139 -0.18397194 0.025890851
0.018887237 0.14430287 0.27588725 -0.021303566 0.20633323 -0.04355999 -0.08248532 -0.09900827
-0.0052023507 -0.055324253 0.10172972 0.0046494156 0.13015044 0.08046843 0.24374966 0.07693898
0.17069207 -0.13247603 -0.11209087 -0.105504245 0.011236381 0.10688696 0.08984929 0.22186653
0.19930117 0.34278774 0.07823663 0.22856836 -0.09777532 0.14857718 -0.028407738 -0.085410476
-0.03924085 0.26336533 0.30963206 0.1530193 0.16106342 0.15140377 -0.12787126 0.043692734
-0.023262242 0.09105569 0.15480238 0.1987014 -0.17230509 0.10355194 0.018662106 -0.0008389715
-0.19476362 0.24869552 0.19984643 -0.14326563 0.18091024 0.038132913 0.3078543 0.17112379
0.10091082 -0.104796045 0.51972455 0.060695577 0.14096501 0.37237766 0.12711464 -0.39707094
-0.47211295 -0.23138961 0.2981109 -0.10754417 0.15880935 -0.34383178 0.059144355 0.22665396
-0.29847115 0.063329205 0.15507968 0.10947106 -0.49966484 0.06815242 -0.15171029 -0.69310766
-0.005904914 0.17254013 0.23794456 0.1518313 0.16191685 0.25403747 0.2789688 0.11373085
0.07417962 0.33960634 0.09593915 -0.09543908 -0.04700776 0.23008636 0.053931456 0.09540512
0.13172078 -0.05405202 0.2614318 0.17058986 -0.0018720856 0.16436367 0.04950973 -0.07670728
0.23779924 0.031224389 0.3397474 -0.058665533 -0.09677637 0.06672394 0.18004754 0.009513644
00000000: dea0 e1bc 7c79 83bd 59ef db3d d0f1 d73d
00000010: c541 eabb 8b34 143e 7909 133e c33b 03be
00000020: 0f52 2e3d 43cf 0a3e f187 7dbd b91b eabd
00000030: c9c2 203d 2a24 1f3e 2463 3cbe 0d19 d43c
00000040: 68b9 9a3c 22c4 133e 1841 8d3e d184 aebc
00000050: 0549 533e f66b 32bd 10ee a8bd d9c4 cabd
00000060: 7b78 aabb af9b 62bd ac57 d03d 205a 983b
00000070: 2846 053e a2cc a43d 8399 793e 2f92 9d3d
00000080: e7c9 2e3e cca7 07be e68f e5bd 9c12 d8bd
00000090: cc18 383c 8de7 da3d e802 b83d fb30 633e
000000a0: 9b15 4c3e e081 af3e 873a a03d d30d 6a3e
000000b0: 6d3e c8bd 9e24 183e 58b7 e8bc b0eb aebd
000000c0: 03bb 20bd d2d7 863e 1888 9e3e 17b1 1c3e
000000d0: cfed 243e 9709 1b3e aff0 02be 27f7 323d
000000e0: 7590 bebc 687b ba3d 8484 1e3e 6178 4b3e
000000f0: bf70 30be 0a13 d43d 46e1 983c 6dee 5bba
00000100: 1d70 47be 0aaa 7e3e 8ba4 4c3e 3ab4 12be
00000110: 8940 393e 4231 1c3d 149f 9d3e 133b 2f3e
00000120: 55aa ce3d 4f9f d6bd ab0c 053f ed9b 783d
00000130: 2259 103e 49a8 be3e 572a 023e e24c cbbe
00000140: cab8 f1be 66f1 6cbe fea1 983e 1e40 dcbd
00000150: eb9e 223e b80a b0be 5a41 723d fa17 683e
00000160: 36d1 98be beb2 813d 35cd 1e3e 5d32 e03d
00000170: 12d4 ffbe 7f93 8b3d f159 1bbe 816f 31bf
00000180: 027e c1bb 5cae 303e bda7 733e aa79 1b3e
00000190: 88cd 253e 3311 823e 00d5 8e3e b8eb e83d
000001a0: 7ceb 973d e2e0 ad3e bf7b c43d 9075 c3bd
000001b0: 358b 40bd c29b 6b3e 3be7 5c3d c263 c33d
000001c0: d0e1 063e a765 5dbd 64da 853e 1caf 2e3e
000001d0: c560 f5ba f34e 283e b7ca 4a3d b518 9dbd
000001e0: a581 733e 4aca ff3c 5ff3 ad3e 454b 70bd
000001f0: b132 c6bd 90a6 883d 625e 383e 1ddf 1b3c

bias_hh_l0 f4 [128]
0.20149656 0.19529146 0.03757805 -0.06348924 0.086885065 0.2324124 -0.10302838 -0.024073115
0.121235564 0.2076872 0.14315963 0.09444349 0.039789733 0.16469686 0.045312025 0.07696557
-0.032159638 0.06518056 0.18564446 -0.066265315 0.21139778 0.06587431 0.21189824 -0.17248592
-0.112199806 -0.1384824 0.06597132 -0.09152559 0.1559928 0.1046771 0.102935135 0.10591005
0.03648509 0.08853703 0.011833732 -0.0010963804 0.021648565 -0.05997886 -0.03325726 -0.06810405
-0.062342606 0.16409385 -0.0030948794 0.122813486 0.04676914 0.16166979 -0.18485199 -0.15933588
0.028225359 0.0032692878 0.16462982 -0.034164213 0.15347016 0.07452573 0.016965233 -0.10388158
0.0011728073 0.1359599 0.065528736 -0.020254869 0.026144082 -0.0887206 -0.10087454 0.17611405
-0.015475282 0.26663896 0.011133684 -0.110087946 0.25440598 -0.1631286 0.10365417 0.17045397
-0.1598198 0.11786319 0.4446466 0.16802444 0.102095835 0.44525945 0.10421512 -0.29029858
-0.38321295 -0.060213227 0.014908036 -0.009495615 0.20577559 -0.30214238 0.19072922 0.1623273
-0.2343173 0.28586632 -0.04911924 0.1256078 -0.6483863 0.02949546 0.07331681 -0.8726721
0.25847873 0.1485122 0.13735014 -0.114485465 -0.011263354 0.2672329 0.20405684 0.18745498
0.11725323 0.35233176 0.04116953 -0.07466771 -0.039126612 0.089243405 0.11967412 0.1974852
0.27981308 0.0043336265 0.03947974 0.15587957 -0.019039622 -0.025767738 0.17037253 0.21007206
0.11273362 0.15705745 0.12808259 0.12673399 0.17873938 0.13391593 0.10486883 0.07422379
00000000: 1d55 4e3e 7cfa 473e 71eb 193d a606 82bd
00000010: ccf0 b13d 84fd 6d3e 8b00 d3bd fb34 c5bc
00000020: 5a4a f83d f4ab 543e 7098 123e 976b c13d
00000030: 8ffa 223d 4ba6 283e 1a99 393d 20a0 9d3d
00000040: d3b9 03bd 637d 853d 9519 3e3e 1cb6 87bd
00000050: a978 583e 1ce9 863d dafb 583e 26a0 30be
00000060: 03c9 e5bd 55ce 0dbe f91b 873d c571 bbbd
00000070: 94bc 1f3e f360 d63d a8cf d23d 5ee7 d83d
00000080: 6471 153d e752 b53d 45e2 413c 6cb4 8fba
00000090: 5558 b13c 65ac 75bd c438 08bd 237a 8bbd
000000a0: f65a 7fbd 3808 283e 76d3 4abb a385 fb3d
000000b0: ff90 3f3d c48c 253e d749 3dbe f228 23be
000000c0: de38 e73c 8c41 563b b894 283e c6ef 0bbd
000000d0: 4827 1d3e f2a0 983d acfa 8a3c debf d4bd
000000e0: e2b8 993a 1239 0b3e ee33 863d 8aed a5bc
000000f0: 1d2c d63c 25b3 b5bd 5097 cebd 3e57 343e
00000100: 0a8c 7dbc e784 883e 0e6a 363c ca75 e1bd
00000110: 8041 823e 2f0b 27be a348 d43d 7c8b 2e3e
00000120: cda7 23be 4262 f13d b8a8 e33e 990e 2c3e
00000130: 9f17 d13d 0cf9 e33e bd6e d53d 04a2 94be
00000140: 7d34 c4be 25a2 76bd d640 743c 7f93 1bbc
00000150: d6b6 523e 68b2 9abe 854e 433e 2139 263e
00000160: e0f0 6fbe 125d 923e 4231 49bd 559f 003e
00000170: a5fc 25bf 77a0 f13c 2027 963d 7067 5fbf
00000180: 5357 843e 9513 183e 84a5 0c3e 5b77 eabd
00000190: ee89 38bc c0d2 883e 47f4 503e 33f4 3f3e
000001a0: 7622 f03d d464 b43e 62a1 283d 62eb 98bd
000001b0: 3a43 20bd 3fc5 b63d b417 f53d 8f39 4a3e
000001c0: a943 8f3e 1801 8e3b 82b5 213d e59e 1f3e
000001d0: fbf8 9bbc dd16 d3bc 2376 2e3e 211d 573e
000001e0: e2e0 e63d abd3 203e 1528 033e 8ec6 013e
000001f0: 7507 373e 4221 093e 78c5 d63d a402 983d

weight_ih_l0_reverse f4 [128, 2]
0.26862097 0.16038491 0.0297839 0.01333903 -0.1259278 -0.16531874 0.37411153 0.30932102
-0.20047984 0.012055509 -0.010103282 -0.1842126 -0.3485884 -0.46218345 0.3414088 -0.39400792
0.20910165 -0.7645553 -0.40874738 0.39623255 -0.4500763 0.33917424 0.38527185 -0.035097048
-0.412296 -0.09360245 -0.43007046 -0.04961416 0.74650586 -0.5388191 0.3798555 0.10247484
-0.1120794 -0.14018402 0.19037235 0.45281196 0.019704051 -0.20825197 0.038702548 0.16581134
0.0072088907 0.20555413 0.49673313 0.3102299 -0.11905668 0.13641232 -0.1081788 -0.09549272
-0.98131454 -0.08648191 -0.7196482 -0.34129968 -0.609839 -0.20665717 -0.09041101 0.15904132
0.3884065 -0.27465206 -0.13634615 0.14137821 -0.26426935 0.14515254 -0.49357072 -0.46291995
0.2459928 0.43560353 0.062188044 -0.0064825425 -0.19108832 -0.3016588 0.2610771 0.34607777
-0.23497951 0.040046662 0.36367065 -0.12205166 -0.46154338 -0.4317222 0.382141 -0.19299991
0.27940324 -0.26778582 -0.24195938 0.17991492 -0.010208143 0.081113234 0.24936245 -0.043395054
-0.16338016 -0.06726717 -0.23545064 -0.018242056 0.49795294 -0.4625194 0.43825966 0.15085414
-0.12854008 -0.074580885 -0.102363594 0.39671966 -0.12576109 -0.11430588 -0.20683789 0.1219827
0.028728561 0.18827657 0.28154942 0.10106831 -0.08503285 -0.030497655 -0.51324815 -0.21499127
-0.4934085 -0.0912852 -0.20535563 -0.3214974 -0.24284686 -0.178803 0.05721412 -0.071004584
0.10787329 -0.031464532 -0.10076831 0.17528133 -0.27204934 0.18869017 0.16718577 -0.48130187
-0.326757 -0.26582927 0.17285968 0.39697215 0.25199804 0.12576494 -0.33211198 -0.2907631
0.26167873 0.4239084 0.25399154 -0.08374095 -0.28604597 -0.39801365 -0.40602416 0.21166514
-0.04475764 -0.754763 -0.16650304 0.48372796 0.43675402 -0.23035793 0.47782433 -0.077948704
0.35120618 0.06586827 0.4464104 -0.12588567 0.11260448 -0.38083684 0.2461215 0.05278465
-0.070583336 0.5374064 0.29528552 0.7712859 0.1311487 -0.41069996 -0.57465357 0.24594563
-0.32336706 -0.046981726 -0.39770383 -0.10759518 -0.29848596 0.17980602 0.18157503 0.28072327
-0.48552552 0.26574197 0.492521 0.40132672 -0.3862372 -0.13403352 -0.14315528 -0.3018177
-0.41847566 0.24378861 0.33881626 0.05626934 0.2176181 -0.30812478 0.15029714 -0.3075712
0.2974318 0.22908019 0.039963562 -0.050504107 -0.027484277 -0.20960702 -0.2427898 -0.021168655
-0.3310179 0.13996844 -0.016095815 0.0017821703 -0.47539097 -0.33798274 0.49041393 -0.47895327
-0.1789361 -0.65159464 -0.25379023 0.040662594 -0.2542261 0.1484229 0.5006824 -0.1538643
-0.25776225 -0.23458762 -0.25249803 0.17037506 1.0740688 -0.6304958 0.38128245 0.0587334
0.081168205 0.00387435 0.013343726 0.14116803 -0.09116322 -0.0034127638 -0.10212076 0.30020317
0.24310543 -0.041884672 0.28507 0.41029093 0.07069475 -0.031206936 -0.37276173 -0.0796959
-0.46020332 0.035553645 -0.18076584 -0.3663274 -0.8546142 -0.19561599 0.09963935 0.16233602
0.7971859 -0.3966406 -0.23026502 -0.11207049 -0.19430955 0.2065432 -0.19447781 -0.16972205
00000000: b088 893e f13b 243e 5efd f33c f28b 5a3c
00000010: 38f3 00be 5149 29be 8c8b bf3e 535f 9e3e
00000020: 964a 4dbe 7884 453c 3c88 25bc 3aa2 3cbe
00000030: 2e7a b2be 4fa3 ecbe 22cd ae3e 68bb c9be
00000040: be1e 563e e5b9 43bf 5647 d1be fede ca3e
00000050: 6770 e6be 3fa8 ad3e 5a42 c53e ecc1 0fbd
00000060: 7618 d3be a4b2 bfbd 3232 dcbe 3838 4bbd
00000070: 021b 3f3f 0cf0 09bf 6c7c c23e 54de d13d
00000080: e289 e5bd 668c 0fbe f8f0 423e f8d6 e73e
00000090: 646a a13c 0140 55be 9086 1e3d 73ca 293e
000000a0: 8f38 ec3b c87c 523e ce53 fe3e 74d6 9e3e
000000b0: fdd3 f3bd acaf 0b3e d98c ddbd b091 c3bd
000000c0: 6e37 7bbf 6d1d b1bd dd3a 38bf d5be aebe
000000d0: 691e 1cbf f09d 53be 6829 b9bd badb 223e
000000e0: 37dd c63e 329f 8cbe 539e 0bbe 73c5 103e
000000f0: 504e 87be dea2 143e 4db5 fcbe d803 edbe
00000100: 89e5 7b3e 6d07 df3e e4b8 7e3d 826b d4bb
00000110: a8ac 43be 0673 9abe e6ab 853e 1b31 b13e
00000120: 789e 70be f807 243d 0a33 ba3e 39f6 f9bd
00000130: 6a4f ecbe b10a ddbe fca7 c33e c5a1 45be
00000140: f10d 8f3e 391b 89be 33c4 77be 9e3b 383e
00000150: 0e40 27bc b21e a63d df58 7f3e 03bf 31bd
00000160: 214d 27be 5fc3 89bd f919 71be 5d70 95bc
00000170: b0f3 fe3e 58cf ecbe 9263 e03e 8279 1a3e
00000180: 03a0 03be ddbd 98bd 01a4 d1bd d71e cb3e
00000190: 84c7 00be 3419 eabd 50cd 53be 11d2 f93d
000001a0: 2958 eb3c 93cb 403e 3f27 903e e7fc ce3d
000001b0: b425 aebd 38d6 f9bc 3b64 03bf ac26 5cbe
000001c0: 0aa0 fcbe bcf3 babd bf48 52be 4f9b a4be
000001d0: d9ac 78be 2218 37be 5a59 6a3d da6a 91bd
000001e0: acec dc3d f4e0 00bd 9e5f cebd f37c 333e
000001f0: 0d4a 8bbe ff37 413e bf32 2b3e 336d f6be
00000200: b24c a7be c61a 88be 2102 313e ef3f cb3e
00000210: e305 813e 86c8 003e 950a aabe e7de 94be
00000220: c1fa 853e 860a d93e 2e0b 823e 6080 abbd
00000230: 9e74 92be 72c8 cbbe 66e2 cfbe bfbe 583e
00000240: ca53 37bd 2638 41bf c67f 2abe 31ab f73e
00000250: 399e df3e f3e2 6bbe 64a5 f43e 92a3 9fbd
00000260: 4cd1 b33e f2e5 863d e78f e43e 2ce8 00be
00000270: 2d9d e63d 0cfd c2be 4607 7c3e b834 583d
00000280: ff8d 90bd 7793 093f aa2f 973e fe72 453f
00000290: d84b 063e 4447 d2be 7f1c 13bf 2cd9 7b3e
000002a0: 5e90 a5be e96f 40bd d69f cbbe dd5a dcbd
000002b0: 27d3 98be 121f 383e ceee 393e f6ba 8f3e
000002c0: cd96 f8be 550f 883e b62b fc3e b27a cd3e
000002d0: e2c0 c5be 1540 09be 4c97 12be d987 9abe
000002e0: 7142 d6be b9a3 793e 5379 ad3e ae7a 663d
000002f0: 47d7 5e3e 88c2 9dbe 7ee7 193e f979 9dbe
00000300: fb48 983e ff93 6a3e d5b0 233d 65dd 4ebd
00000310: b526 e1bc 39a3 56be e49d 78be e369 adbc
00000320: 2e7b a9be e353 0f3e 5fdb 83bc b697 e93a
00000330: 7266 f3be 130c adbe 8917 fb3e 5d39 f5be
00000340: 063b 37be e8ce 26bf cbf0 81be d28d 263d
00000350: ec29 82be 2cfc 173e b92c 003f 9a8e 1dbe
00000360: 6af9 83be bd37 70be 6c47 81be cd76 2e3e
00000370: 167b 893f 2c68 21bf 7437 c33e 6f92 703d
00000380: 843b a63d cfe8 7d3b a59f 5a3c 5a8e 103e
00000390: c8b3 babd ada8 5fbb b024 d1bd 3bb4 993e
000003a0: a1f0 783e 438f 2bbd b2f4 913e a711 d23e
000003b0: 69c8 903d b0a5 ffbc a0da bebe 9b37 a3bd
000003c0: c59f ebbe b3a0 113d ae1a 39be 448f bbbe
000003d0: ffc7 5abf 8f4f 48be b70f cc3d 6a3b 263e
000003e0: 6014 4c3f 7a14 cbbe 98ca 6bbe 3785 e5bd
000003f0: 15f9 46be 1080 533e 3125 47be 9ecb 2dbe

weight_hh_l0_reverse f4 [128, 32]
-0.39713898 0.3345672 -0.09585594 0.022968803 0.098841265 0.2682371 -0.20343725 -0.0421733
-0.081637055 0.32812536 0.12812994 -0.093039274 0.16225705 0.18932518 -0.018237984 0.37643352
0.13336433 0.30250564 -0.019192278 0.02560902 -0.30295378 0.02657566 0.18977906 0.11904818
-0.13735095 0.1078097 -0.3034893 -0.38210797 0.11931942 0.1266808 -0.33037525 0.09634084
-0.15791783 0.19350578 0.03335012 0.20606448 -0.11691601 -0.15023671 -0.06952701 -0.010654314
-0.16969559 0.18793213 -0.14853087 -0.1908907 0.055956822 -0.18145722 -0.07813567 -0.060098175
-0.112010136 -0.14670406 -0.023706399 0.04911318 -0.08461012 0.07824543 0.13056827 -0.075732075
0.0046472736 -0.08299151 0.020925874 -0.12914434 0.06897179 -0.04417182 0.005040008 0.056613397
0.17488036 -0.2344346 -0.12088347 -0.0054318034 0.22379754 0.26344633 0.12804577 -0.18760546
-0.05395509 0.039099958 0.5397811 0.16234057 0.20679648 0.23557982 0.13083956 0.29207873
-0.5983084 -0.18029107 -0.002790242 -0.13536511 0.06979323 -0.23397604 0.14407188 -0.06696549
-0.22602205 0.5149166 -0.033501625 -0.0056548854 -0.021375906 0.03727368 -0.071298964 -0.21139249
0.010633095 -0.0007017656 0.2002204 -0.2588978 0.34654397 -0.0768104 -0.5192202 0.33805504
-0.4558577 -0.09500954 0.04817022 0.34659788 0.2744048 0.08875584 -0.16632646 0.25921988
0.21646075 0.30133447 -0.27872005 -0.039607424 -0.44105095 0.06812429 -0.38155147 0.5694993
-0.3319331 0.4699086 -0.29264536 -0.051265053 0.13518284 0.18588443 -0.0035180254 -0.22630584
0.37933046 -0.12211106 -0.011717042 0.14146543 -0.15627062 -0.054825332 -0.28922406 0.06363595
-0.15842415 -0.17151132 0.05658038 -0.07899867 -0.1434582 0.33739734 -0.2544236 -0.14089233
-0.065313265 -0.2758496 -0.1442208 0.09713976 -0.0053067827 0.18531162 -0.21723022 0.18494524
-0.34464067 0.3305661 -0.26372615 0.22401473 0.114685886 0.08598837 -0.06870732 -0.41762766
-0.06944297 -0.12664384 -0.0940776 0.012909725 0.045864556 0.2391364 -0.055942588 -0.25993064
-0.067050084 -0.063053966 -0.013372949 -0.09669945 -0.14769012 0.169563 0.035116564 0.07884692
0.016107641 -0.088416465 -0.12512995 0.05876568 0.066107444 0.109861985 -0.34425202 0.022859296
0.021849405 -0.15520105 -0.16761665 -0.13660756 -0.24296662 0.10325492 0.1286169 0.047302593
0.913709 -0.33948684 -0.104812905 0.19645852 -0.29565856 -0.30820507 0.45556974 -0.11338672
-0.026085723 -0.5457249 0.1831307 0.10016736 -0.38279673 0.08706877 -0.09521303 -0.026042711
-0.3869619 -0.4268712 0.072329335 0.16492093 0.36352885 0.4632655 0.19480701 -0.2715764
0.016533745 0.16843724 0.34101522 0.2868402 -0.09227616 -0.57419705 0.17295207 0.20193467
0.083081245 -0.21253717 0.0021063825 -0.06494276 -0.031332627 0.21548757 -0.20316514 -0.33906794
-0.051916655 -0.0875372 0.27664137 0.043852367 -0.0026017928 0.16592072 0.13164489 -0.02952429
0.093697146 -0.07582605 -0.22711053 -0.11847117 -0.09981681 0.017202508 -0.070245974 0.0874164
0.15413897 0.059937105 0.082679525 -0.012361238 -0.12766589 0.060499743 0.018775256 0.14528999
00000000: cd55 cbbe 644c ab3e 1e50 c4bd 1229 bc3c
00000010: 4a6d ca3d 6056 893e db51 50be e9bd 2cbd
00000020: 5431 a7bd 0c00 a83e 7f34 033e 608b bebd
00000030: b626 263e 76de 413e d367 95bc e5bb c03e
00000040: a990 083e 05e2 9a3e 2039 9dbc 02ca d13c
00000050: c21c 9bbe 33b5 d93c 7155 423e 88cf f33d
00000060: baa5 0cbe 55cb dc3d f362 9bbe a8a3 c3be
00000070: bd5d f43d 9db8 013e f226 a9be 594e c53d
00000080: 36b5 21be 6126 463e 239a 083d 9102 533e
00000090: a971 efbd a7d7 19be 2d64 8ebd 6f8f 2ebc
000000a0: aec4 2dbe 4871 403e 7a18 18be da78 43be
000000b0: fb32 653d eccf 39be 9805 a0bd 8129 76bd
000000c0: 9265 e5bd 9739 16be ec33 c2bc e72a 493d
000000d0: 1248 adbd 243f a03d b0b3 053e 6b19 9bbd
000000e0: 2848 983b 74f7 a9bd bd6c ab3c 6a3e 04be
000000f0: 1541 8d3d 83ed 34bd a726 a53b 73e3 673d
00000100: d613 333e a00f 70be c191 f7bd 45fd b1bb
00000110: 2f2b 653e 70e2 863e 6e1e 033e a51b 40be
00000120: 0300 5dbd 4727 203d 182f 0a3f 9b3c 263e
00000130: 75c2 533e d63b 713e cefa 053e 588b 953e
00000140: bd2a 19bf 399e 38be 7edc 36bb 279d 0abe
00000150: c1ef 8e3d 6a97 6fbe 9487 133e 3425 89bd
00000160: 5372 67be 93d1 033f 0039 09bd 9e4c b9bb
00000170: 861c afbc 49ac 183d 3105 92bd 4677 58be
00000180: 6f36 2e3c b1f6 37ba 9406 4d3e 418e 84be
00000190: 366e b13e c54e 9dbd 9deb 04bf 8d15 ad3e
000001a0: 2e66 e9be 5d94 c2bd 234e 453d 4775 b13e
000001b0: c97e 8c3e 9fc5 b53d 7c51 2abe 78b8 843e
000001c0: e3a7 5d3e 8348 9a3e 65b4 8ebe 653b 22bd
000001d0: 6ed1 e1be bf84 8b3d b75a c3be b5ca 113f
000001e0: 23f3 a9be dc97 f03e 9dd5 95be 4efb 51bd
000001f0: 5f6d 0a3e 7d58 3e3e ac8e 66bb b8bc 67be
00000200: 9a37 c23e 5d15 fabd d6f8 3fbc 50dc 103e
00000210: 6805 20be 8790 60bd 2d15 94be 9153 823d
00000220: f139 22be aaa0 2fbe d4c0 673d 0eca a1bd
00000230: b5e6 12be 58bf ac3e cf43 82be 1446 10be
00000240: f6c2 85bd 293c 8dbe 9eae 13be 36f1 c63d
00000250: 85e4 adbb 54c2 3d3e 9971 5ebe 4962 3d3e
00000260: be74 b0be f63f a93e 1d07 87be 1e64 653e
00000270: 6fe0 ea3d ac1a b03d 6cb6 8cbd 4bd3 d5be
00000280: 1e38 8ebd ecae 01be c2ab c0bd 5083 533c
00000290: 79dc 3b3d 2ce0 743e 0e24 65bd a115 85be
000002a0: 8e51 89bd 7022 81bd 371a 5bbc 5c0a c6bd
000002b0: 143c 17be eca1 2d3e 63d6 0f3d 7e7a a13d
000002c0: 2cf4 833c b113 b5bd 1122 00be 48b4 703d
000002d0: 5763 873d 52ff e03d cd41 b0be 6b43 bb3c
000002e0: 86fd b23c 06ed 1ebe b3a3 2bbe dae2 0bbe
000002f0: 3ecc 78be 5177 d33d 26b4 033e 5dc0 413d
00000300: d5e8 693f 38d1 adbe 26a8 d6bd 6c2c 493e
00000310: 8f60 97be 0ecd 9dbe 7040 e93e 4c37 e8bd
00000320: bab1 d5bc a1b4 0bbf 9d86 3b3e 8b24 cd3d
00000330: effd c3be 1c51 b23d 0dff c2bd 8657 d5bc
00000340: df1f c6be dd8e dabe 6721 943d 08e1 283e
00000350: 7420 ba3e 2331 ed3e 7d7b 473e 100c 8bbe
00000360: c771 873c d07a 2c3e 8c99 ae3e b8dc 923e
00000370: 49fb bcbd 94fe 12bf 591a 313e f6c7 4e3e
00000380: 8026 aa3d 58a3 59be 3c0b 0a3b b600 85bd
00000390: a456 00bd c6a8 5c3e 860a 50be 509a adbe
000003a0: 8fa6 54bd b446 b3bd f0a3 8d3e 8a9e 333d
000003b0: d782 2abb 1fe7 293e ebcd 063e ecdc f1bc
000003c0: 4ae4 bf3d b04a 9bbd aa8f 68be 03a1 f2bd
000003d0: c16c ccbd 46ec 8c3c 1fdd 8fbd 5f07 b33d
000003e0: 9bd6 1d3e 9c80 753d e253 a93d ca86 4abc
000003f0: d9ba 02be 94ce 773d 91ce 993c e6c6 143e
