experiments/pedestrians/models/models_14_Feb_2024_17_26_50_eth_vel_ar3/model_registrar-70.pt (torch, 527902 bytes, 43 tensors)

weight_ih_l0 f4 [128, 6]
000000 95 3e b6 3d 6f 34 d5 3d 9e c0 97 be 7c 7e e2 bd
       0.08898655 0.104103915 -0.29639143 -0.11059281
000010 eb 23 c8 bd a9 49 75 bd be 73 55 be a3 0b d6 be
       -0.09772476 -0.0598847 -0.20844933 -0.41805753
000020 0f 51 79 bd 62 e9 54 3e 21 6c 08 3e 36 c2 44 be
       -0.06086832 0.20792153 0.13322498 -0.1921471
000030 92 a2 56 3d e6 4a 82 3c 4c c2 ae be 67 5f 82 be
       0.052401133 0.015904855 -0.34132612 -0.2546341
000040 e9 5f 93 be 60 4f 88 bd 6f a0 2b 3e 17 36 37 3e
       -0.2878411 -0.066557646 0.1676042 0.17891727
000050 ca 44 fb 3d 91 4b 51 3d 19 96 eb 3d 51 31 02 bd
       0.1226898 0.051097456 0.11503238 -0.031785313
000060 6d 1d 89 bd d0 fe 9f 3d 8b f1 70 be c5 6a c2 be
       -0.06695066 0.078122735 -0.23529641 -0.37972084
000070 ff ab 85 3f 84 f3 e0 bf 93 0f 60 3e fd d5 fe 3d
       1.0443114 -1.7574315 0.21880941 0.12443159
000080 31 48 92 3e ba 24 b8 bd a8 d5 e6 3e 8a b2 b9 be
       0.28570703 -0.0899138 0.45084882 -0.36269027
000090 4c d9 ca be 93 bc e9 3d 91 06 74 3e e0 61 8f be
       -0.3961891 0.11412921 0.2383063 -0.2800436
0000a0 3d ee ab 3d 7d af 85 be 77 ec be be 85 6f 27 bd
       0.0839505 -0.2611045 -0.37289783 -0.040877838
0000b0 45 93 08 3f 1a 03 fe bd 3a 43 0c 3e d9 4a 0d be
       0.53349715 -0.12402935 0.1369752 -0.13798083
0000c0 0d d6 8c 3e d7 51 67 3e fa 0f 18 3f 09 26 df be
       0.27507058 0.22589813 0.5939938 -0.43583706
0000d0 6a fc df 3e cf 57 4e be bd 45 a5 bd f4 19 74 be
       0.43747264 -0.20150684 -0.08069942 -0.23838025
0000e0 d1 0d a5 3d a7 79 b4 3e 8b e9 c6 3d cb 82 26 be
       0.08059276 0.35249063 0.097125135 -0.16260831
0000f0 5f 61 01 3e e9 59 93 be eb 02 d9 be 7a 6b e9 3e
       0.126348 -0.28779534 -0.4238504 0.4558981
000100 4c cc e7 bc 82 15 03 3e d1 95 c2 3c 18 8b 24 3e
       -0.028295659 0.12801173 0.023753079 0.16068685
000110 90 d6 08 bf ec e2 20 be ee 8f ac bf 38 f7 34 bf
       -0.53452396 -0.15711564 -1.3481424 -0.70689726
000120 27 28 32 3c a8 da a2 bc b9 af 87 be 09 46 8a 3e
       0.010873831 -0.019879654 -0.26501253 0.27006558
000130 b4 94 03 3e 77 84 12 bd 65 dc 06 be 3a 97 57 3d
       0.12849694 -0.03577086 -0.13170011 0.052634455
000140 e8 05 ef 3e 7f 1e aa 3e c4 a1 fc 3e a5 ac b3 3e
       0.46684194 0.33226392 0.49342167 0.35092655
000150 77 4c 6d 3d 8d 36 ed bc 89 01 53 bf c3 fa 69 3c
       0.05793425 -0.028956676 -0.8242422 0.014280978
000160 65 98 17 bf 75 8e a8 bd 5b 68 b1 be 36 bf 28 3e
       -0.5921691 -0.082302965 -0.3464993 0.16479191
000170 36 b5 1a 3f f7 63 4e 3d 64 7d 1e be 1a 42 0b 3f
       0.60432756 0.050388303 -0.1547752 0.5439774
000180 fa f1 84 3e bd bc 4c bd 0b 5c 0d bf 68 1a c4 3e
       0.25965863 -0.049984682 -0.5521857 0.38301396
000190 5f f3 21 bf f9 0b b7 3d 09 9a 0b 3e 43 de 51 be
       -0.6326198 0.089378305 0.13632978 -0.20494942
0001a0 56 43 57 be 31 a7 6d 3e 0b 11 59 3d 7e f6 c4 3d
       -0.2102178 0.2320831 0.05299477 0.09617327
0001b0 33 d9 3d 3e 1e 9e 87 be 9f 2e 86 be 2a b5 12 3f
       0.18539886 -0.2648782 -0.26207444 0.57307684
0001c0 9d 18 d0 bb 1f 1a 5e 3f a5 26 5e 3d db ff 1f 3d
       -0.0063505904 0.8675861 0.054236073 0.039062362
0001d0 fd f1 dd be fe 3f a2 3d 7a 1f df bd e0 ba c9 3e
       -0.43348685 0.07922362 -0.108946756 0.39400387
0001e0 92 a0 d0 be c2 59 c6 3e f0 59 18 3f 0c e7 f4 be
       -0.40747505 0.38740355 0.59512234 -0.47832525
0001f0 9b ab 9f 3e 75 34 f2 bc 3c df 9b 3d b7 dc 96 3e
       0.31185612 -0.02956603 0.07610938 0.29465267
000200 a7 4f c8 3c 1a c9 b9 be bf a8 06 3d f5 34 86 3d
       0.024452044 -0.3628624 0.032875773 0.065530695
000210 3b 2f 5f be 36 aa e2 be 85 ef 12 3e fd fd 12 3e
       -0.2179536 -0.44270486 0.14349182 0.14354701
000220 74 e5 8f 3e f1 d8 8c 3d 02 42 9b bd f7 dc e0 3d
       0.28104746 0.06877316 -0.07580949 0.10979646
000230 49 f3 29 3e 5f 06 4f be 04 90 61 3d 72 30 c4 bd
       0.16596712 -0.20217274 0.055068985 -0.09579553
000240 ed 12 36 3e b5 d2 15 bd dc dd ac be 7e 29 5c be
       0.17780657 -0.0365779 -0.33763015 -0.21500203
000250 a4 ef 5d be 67 c9 6c be 30 07 d8 be 7c ae 32 be
       -0.21673447 -0.23123704 -0.42192984 -0.17449373
000260 fc 9a 91 3d 2e 7b 47 3e 2b 73 4f 3e 19 d9 28 3d
       0.07109639 0.19480583 0.20258777 0.041222665
000270 b6 94 ae 3c ca de a4 3e bd 9a 37 bf 06 9a 39 bf
       0.021311145 0.32201225 -0.71720487 -0.72500646
000280 2d e6 b9 be 13 7a 91 3c 57 ad 4d be 5b 0d 97 3d
       -0.36308423 0.017758405 -0.20085655 0.07375594
000290 7d 1b 2b 3f 24 a0 10 3f 68 29 7d 3f 5e b0 8c 3f
       0.6683882 0.56494355 0.98891306 1.0991323
0002a0 5b 40 67 3e f8 4e bc bd ba 57 a8 be 3f 84 91 3e
       0.22583143 -0.091947496 -0.3287943 0.28421208
0002b0 95 08 10 3e 0c cb 37 3e 74 a7 ae be d6 54 8e 3d
       0.14065774 0.1794855 -0.34112132 0.06949775
0002c0 b8 ae 1b 3e ce 68 dd be e9 47 76 3e b9 e2 09 be
       0.15203369 -0.43244022 0.24050869 -0.13465394
0002d0 c2 c6 49 be eb b2 28 be ca 8c a8 3e 83 79 b0 3d
       -0.19704726 -0.16474502 0.32919914 0.086169265
0002e0 c4 fb 42 bd 8d 1e b0 be a6 ac ae bd d6 bb b0 3d
       -0.047603384 -0.34398308 -0.08529024 0.08629577
0002f0 6a dc 60 3c 5b 17 10 3e 57 f6 61 be bf 94 03 bd
       0.013724426 0.1407141 -0.22066627 -0.032124277
000300 7b 3a e9 3d eb ad ed 3d 9d d5 49 be dd e9 02 be
       0.113881074 0.11605438 -0.19710393 -0.12784524
000310 6f 94 22 be b8 bf 1f be 95 70 9b bc b9 10 45 be
       -0.15876935 -0.15600479 -0.018974582 -0.1924466
000320 5d a6 9d 3d 9d 39 d3 3d 44 d1 c4 3d 56 f1 2a be
       0.07697747 0.10313723 0.09610227 -0.16693625
000330 9a 37 05 be 8d cf 69 bd 3a b1 ea bc 10 4d 40 bd
       -0.13009492 -0.0570827 -0.028648961 -0.046948493
000340 b3 02 41 be 55 e0 bf 3d 07 0a ef 3d 8d 47 73 3d
       -0.18848686 0.0936896 0.116718344 0.059394408
000350 8e 37 09 3e b2 7d 26 be 50 5a ca bc 58 e4 97 3c
       0.13400099 -0.16258886 -0.024701267 0.0185415
000360 21 a4 06 3d 95 d7 b6 bd cd 55 56 3e 28 49 43 be
       0.03287137 -0.08927838 0.20931168 -0.19070876
000370 ff 27 c1 3e a7 a3 ca bc 77 a6 70 3e 4b 84 9e bd
       0.37725827 -0.024736239 0.23501001 -0.07740077
000380 eb 5e 21 3e 70 49 5e be aa 67 90 be 06 e5 d1 3c
       0.15758865 -0.21707702 -0.2820409 0.025621902
000390 7f 3c 81 bd 87 01 36 bd 46 1f 41 3e 33 f8 06 be
       -0.06310367 -0.04443505 0.18859586 -0.13180618
0003a0 96 d7 37 be dc 92 c4 3d ee 78 fb bd 47 8d 46 be
       -0.17953333 0.09598324 -0.12278925 -0.1938983
0003b0 80 20 86 3e 68 47 af bd c4 4d d0 bc 91 7c 43 be
       0.2619667 -0.085585415 -0.025427707 -0.19090487
0003c0 69 df b2 3e 81 95 c7 3b 9b 57 71 3c 98 48 40 be
       0.34936073 0.0060908203 0.014730359 -0.18777692
0003d0 0f 85 92 bd 8e 72 b9 bd 30 2c 33 be 31 09 ca bb
       -0.07154285 -0.09055053 -0.17497325 -0.0061656465
0003e0 28 3f b0 3e 0a f0 f8 3d a4 0a 46 3e 1d 9c 1e 3d
       0.34423184 0.12155159 0.19339997 0.0387231
0003f0 09 b2 08 3e 07 45 9a be f3 8b 27 be 79 b7 9a 3e
       0.13349165 -0.3013079 -0.1636198 0.30218104

weight_hh_l0 f4 [128, 32]
000000 c7 a7 20 3d b1 8b 65 be d3 17 bc 3c 56 e9 d0 3d
       0.039222505 -0.2241657 0.022960579 0.10200755
000010 54 23 d1 bd b0 0b 3e bc 21 d9 ba bd 15 70 22 be
       -0.102118164 -0.011599466 -0.09123445 -0.15863068
000020 86 8a d3 3c ef 68 7f 3e af c6 15 be 27 98 9d 3d
       0.025822889 0.24942373 -0.14626573 0.076950364
000030 ca 57 11 be a3 fd 63 3e 1b 0d 2f 3e 6b a5 b9 3d
       -0.14193645 0.22264723 0.17094843 0.09064754
000040 b5 48 66 3e 0e 30 26 be 1a c1 49 bd 10 70 5b 3c
       0.22488673 -0.16229269 -0.04925642 0.013393417
000050 4c 37 4e be 45 43 03 be 79 b3 9e bd 1a 94 88 be
       -0.20138282 -0.1281863 -0.077490754 -0.26675493
000060 0c c3 8e 3e 56 43 80 3d 5d 2d b5 bd 70 60 b4 3e
       0.27883184 0.06262843 -0.08846543 0.35229826
000070 0b 7a 36 3e 4a 1a b3 3c 5d 5d 37 3e 76 93 e6 bd
       0.17819993 0.021863122 0.17906709 -0.11258595
000080 23 1d c9 3d 5d d1 87 be 34 66 b4 3d fa 3b c8 bd
       0.098200105 -0.2652692 0.08808556 -0.097770646
000090 f1 68 7c bc 6c 5f 4f 3e f6 63 66 bd 3f e7 53 be
       -0.015405879 0.20251244 -0.056247674 -0.20693682
0000a0 95 4a 8a 3d 67 c7 f4 3d 60 b4 bf be db cb cf bd
       0.06752507 0.119520955 -0.37442303 -0.10146304
0000b0 c9 5a 8e be 23 b4 3b 3e 71 20 b4 3d 06 d1 06 be
       -0.2780364 0.18330435 0.0879525 -0.13165674
0000c0 14 3c 8c 3e 3d 0f ed 3d 2d ee 64 be 96 01 0b 3d
       0.27389586 0.11575172 -0.22356482 0.03393706
0000d0 4a cb 67 bd af 94 21 be 0b 30 48 be 59 f0 25 be
       -0.056590356 -0.15779375 -0.19549577 -0.16204967
0000e0 eb 80 15 3e dd 7a f2 3d f5 eb 1a be 6d b7 0a bc
       0.1459996 0.118398406 -0.15129073 -0.008466584
0000f0 d8 26 b3 3b ac 22 8c 3d f8 47 70 3e 19 23 ba bd
       0.005467277 0.06842551 0.23464954 -0.090887256
000100 c7 aa d8 3d 14 81 01 be c8 01 eb bd 51 1c 00 3e
       0.10579448 -0.12646896 -0.11474949 0.12510802
000110 fb 82 bb 3d 3e a3 02 3e 4a 35 18 be 1c 38 34 be
       0.09155842 0.12757584 -0.14864078 -0.17599529
000120 f7 f0 8c bd 80 f2 56 3e bc c2 92 be 10 8b 0a 3d
       -0.06881898 0.20990944 -0.28664196 0.033824027
000130 ea 77 46 bd 1a 9c 13 be d3 9c d2 3d cc a8 cf bd
       -0.048454203 -0.14415017 0.10283818 -0.10139617
000140 3f 07 11 3e 6f 37 1b be 29 79 1b 3e 49 9d 02 be
       0.1416292 -0.15157865 0.15182938 -0.12755312
000150 b6 31 28 3d 52 45 81 3d 53 b5 ec 3d b2 a9 16 3e
       0.041063033 0.0631205 0.11558022 0.14713171
000160 5b 05 8c 3e 21 74 f8 3d d6 92 21 3e 35 10 da 3d
       0.27347836 0.12131525 0.1577867 0.106476225
000170 10 a1 f2 3d 20 7b ca 3d d1 00 9f bd 14 7d 2b 3d
       0.118471265 0.098867655 -0.077638276 0.04186733
000180 28 ba 0a be 3b d0 51 bd 08 7d 3a bd 23 8e 6d 3d
       -0.13547575 -0.051223975 -0.045529395 0.05799688
000190 8d 8c ec bd 27 6f 00 3d f0 c6 c4 bd e5 4f cc 3c
       -0.115502454 0.031356003 -0.09608257 0.02494044
0001a0 da 9f 7a bd d8 be 43 3e 4f 1c bb be eb d1 bf bd
       -0.061187603 0.1911577 -0.36545035 -0.093662106
0001b0 88 a6 02 bd 7f af 8c bd 0c 53 fe bd d8 ae 30 be
       -0.031897098 -0.06869411 -0.12418184 -0.17254198
0001c0 90 0e 9b 3d ca 20 ff bb fd d4 82 be 68 a8 4b bd
       0.07571137 -0.007785891 -0.25553122 -0.04972115
0001d0 00 c1 81 bd 2a 96 41 bc de 4b 33 3c ac 7e a6 bc
       -0.0633564 -0.011815587 0.010943381 -0.020324074
0001e0 fd 99 11 3e 33 ee fb 3d d6 10 ae bd 1c f7 59 3e
       0.14218898 0.12301292 -0.08499305 0.21285671
0001f0 42 32 a6 3d 06 3a f0 3d ef 44 90 3e a6 e6 da bd
       0.08115055 0.11729817 0.28177592 -0.10688524
000200 b0 ff d2 bc 8d c4 9a bd ff 34 34 3e fe 67 42 bd
       -0.025756687 -0.0755702 0.17598341 -0.047462456
000210 ba 39 35 3d 54 a3 19 3e 84 4a 28 be 28 bf 66 3e
       0.044244505 0.15003711 -0.16434675 0.22533858
000220 c4 2c 9e 3e 84 19 de bd bd 38 86 be 6b 94 8d be
       0.30893528 -0.108447105 -0.26215163 -0.27652296
000230 a2 26 87 3e 14 fd 1b 3e e2 d7 cd 3d 4c ac 5e bd
       0.26396662 0.1523326 0.10050942 -0.054363534
000240 88 9e 6a be 3a 3e f8 be 1c 04 eb 3d 08 0b 76 3d
       -0.22912037 -0.48484975 0.11475393 0.060069114
000250 d4 99 03 3e 43 39 bf 3e 40 11 ba 3d ab 1c a3 3d
       0.1285165 0.37348375 0.090853214 0.07964452
000260 87 3c b1 3d 6a 41 8c be 2d 4d c1 bc 6f ba d0 be
       0.08654123 -0.27393657 -0.02359637 -0.40767238
000270 e5 b7 fd bb 13 3a bb 3d ac 21 32 3e 91 bf 82 be
       -0.007742869 0.09141936 0.17395657 -0.2553678
000280 23 e5 c8 3d a2 a5 72 be 18 78 ab 3d b3 a8 09 be
       0.09809329 -0.23695996 0.083725154 -0.1344326
000290 95 76 12 bd ff af cf bd 97 57 6f 3e fb 3d 88 be
       -0.03575762 -0.101409905 0.23373257 -0.26609787
0002a0 66 76 a8 bd ce 94 e9 3b 87 43 65 3e bd ff 71 bd
       -0.08225708 0.0071283346 0.22389041 -0.05908178
0002b0 29 47 5b be 7c d3 9f 3d e2 64 02 3b 05 fe d1 bc
       -0.21413864 0.07804009 0.0019896557 -0.025633821
0002c0 ff 9c 94 bd 8b ef 6d 3e 33 07 37 be f3 fa 73 3e
       -0.07256507 0.2323591 -0.1787384 0.23826198
0002d0 e7 7f b7 bd e1 69 ea bc f1 99 bf 3d cb 2a 5d be
       -0.08959942 -0.02861494 0.09355534 -0.21598355
0002e0 83 0f e9 3d 18 b1 b0 3d 66 77 2c 3e 6a dc 29 3e
       0.11379912 0.08627528 0.16842422 0.16587988
0002f0 f4 46 6f 3d ce a7 94 bd 77 a4 54 3e bf 80 57 3e
       0.058417276 -0.07258569 0.20765863 0.21045206
000300 4d ae 0a 3e 61 d6 8c bd 75 5f 4e be 58 a7 0b 3e
       0.13543053 -0.06876827 -0.20153601 0.13638055
000310 54 b2 60 bd f9 53 a9 bd 05 bc 8c 3e 41 f0 a8 be
       -0.054857567 -0.0826797 0.27487198 -0.329958
000320 27 48 17 be 6c fc 08 3e c2 df 80 bd 3a a4 e9 bd
       -0.14773618 0.13377541 -0.062926784 -0.11408277
000330 df 4e 49 3c b2 f7 9f 3e 9c d4 98 3d 54 8e a4 3b
       0.012286871 0.31243664 0.07462427 0.0050218496
000340 85 c8 15 3d 2c e2 90 bd cc 25 be bc ce 93 38 bd
       0.036568183 -0.07074389 -0.023211382 -0.045062833
000350 ca ec da bd d0 4b 8b 3e 6d d9 3d 3e e0 c0 02 be
       -0.10689695 0.27206278 0.18539973 -0.12768888
000360 cd 5c e7 bc 04 b2 79 3e 76 8f ce 3d 7e 58 2a 3e
       -0.028242493 0.24384314 0.10085957 0.1663532
000370 fb 47 14 be 87 33 94 bc 5e 9c 96 bc 99 32 07 3e
       -0.14480583 -0.018090976 -0.018385109 0.13202895
000380 2f 40 0b 3e e7 dc 8e be 81 6d 54 3d bf bf 16 3e
       0.13598703 -0.2790291 0.051862244 0.14721583
000390 5e ae 88 be 38 5d 13 bd 82 03 97 3e 70 c6 28 be
       -0.26695532 -0.035977572 0.29494864 -0.16481948
0003a0 fb 70 6c bd 11 c0 0b bd 46 c8 0c 3e 2b 7a a8 bb
       -0.057724934 -0.034118716 0.13748273 -0.0051415167
0003b0 47 0a 92 bd d7 fd 06 bd 77 1b 3a 3c 05 67 76 3d
       -0.071308665 -0.032956924 0.011359087 0.06015684
0003c0 2c c4 a1 3d 59 74 25 3e 15 2b 0a be 0e 34 a7 3c
       0.07898745 0.16157664 -0.13492997 0.020410564
0003d0 f6 bf e3 be dc 3a e9 3d 6c 3c 84 bd 92 5f c0 be
       -0.44482392 0.1138818 -0.06456837 -0.37572914
0003e0 ed 9d 50 3e 13 f0 e4 3e 06 5e 5b be df 72 80 3e
       0.20372744 0.44714412 -0.21422586 0.2508764
0003f0 1d 6e ce 3d d1 e1 25 bd 7c 18 af 3d 34 8d ad 3e
       0.10079596 -0.04049856 0.08549592 0.33896792

bias_ih_l0 f4 [128]
000000 bd 46 bb 3c 35 c2 67 3d f2 17 ba 3c e1 c3 89 bd
       0.02286088 0.056581695 0.022716496 -0.06726814
000010 18 9a 10 be 0c 6f 27 3e e6 7d 96 3d c3 41 2e be
       -0.14121282 0.16350955 0.07348232 -0.17017274
000020 93 95 ea bc 04 b2 5e 3d 79 d9 7e 3e 27 44 db 3d
       -0.028635776 0.054368988 0.24887647 0.107063584
000030 43 ac 3c 3e e9 a0 b7 bd 07 d5 ae 3d 09 de bb bd
       0.18425088 -0.08966238 0.085367255 -0.09173209
000040 96 1a d5 bc 0c 1d 1b 3e 68 aa c4 bc f0 6f 05 3e
       -0.026013654 0.15147799 -0.024007037 0.13030982
000050 ab 69 0e 3e 60 20 49 bc 02 ca e9 3d 2a c1 7f bd
       0.13907497 -0.012275785 0.11415483 -0.062440075
000060 4b db ea 3d 03 92 d3 3d 43 fe 15 bd e4 1a 6d 3c
       0.11467608 0.10330584 -0.036619436 0.014471743
000070 d9 b8 c1 bc 51 45 64 bb 30 7b a3 bd 86 5f 0b 3e
       -0.023647713 -0.0034831355 -0.079824805 0.13610658
000080 92 c6 90 3d 6a bc 85 be 43 19 6e be 8c 09 14 3d
       0.07069124 -0.2612031 -0.23251824 0.036141917
000090 c6 a9 9c bc 76 40 27 be 3e 9a 80 be 4e db 1b be
       -0.019123923 -0.16333184 -0.25117677 -0.15220377
0000a0 10 df 5c be bd 73 a5 bd 84 fc 60 be af ad 29 3c
       -0.21569467 -0.08078716 -0.21971327 0.010356351
0000b0 d9 fa 27 be 2e 61 2d 3e c7 10 33 bd 37 64 00 be
       -0.16404285 0.16931602 -0.043717172 -0.12538229
0000c0 e8 d6 1e 3d d1 e1 67 bd 0e 02 3d be 69 df a7 3d
       0.03877917 -0.05661184 -0.18457815 0.08196909
0000d0 3e 9d 98 be 03 e5 9c bd bb 4d 07 bb e9 ab e4 bc
       -0.29807466 -0.07660868 -0.0020645696 -0.027914004
0000e0 af 56 bd bd 6a 73 16 3e 88 d9 70 3d ad 52 c6 3d
       -0.09245049 0.14692464 0.058801204 0.09683738
0000f0 88 f0 1c bd eb b8 8c be b4 3f 86 be 7f 05 89 be
       -0.038315326 -0.2748483 -0.26220477 -0.26762006
000100 62 bf 0b 3e 42 04 06 3e d8 ec 89 bd b3 1e 0b 3d
       0.13647225 0.13087562 -0.067346275 0.033964824
000110 79 e8 ce bd 61 94 7a bb 7c 0d c9 3d b5 6d 26 bd
       -0.101029344 -0.0038235413 0.09817025 -0.04063197
000120 1d c0 7a bd 87 f3 90 3d 10 7e 9d bd 17 8c f5 3c
       -0.06121837 0.07077699 -0.0769006 0.029974027
000130 7f cc bf bd 07 94 b7 bc e5 bd f4 bc d4 77 c6 bd
       -0.093651764 -0.022409452 -0.029875705 -0.09690824
000140 67 6e 97 bd 25 cb f9 bd 48 65 cf 3d 0e 51 38 bc
       -0.073941045 -0.1219695 0.1012674 -0.011249794
000150 bc 3e 86 3d 3c cf 78 3d f0 e9 d3 3d c3 42 00 be
       0.065549344 0.06074451 0.103473544 -0.12525468
000160 27 7f ec 3d 19 6b bb bd 44 00 8c 3d 43 61 aa bd
       0.1154769 -0.09151287 0.06835988 -0.083193325
000170 d7 04 85 bd 0f 38 04 3e 11 e7 96 3c b9 51 5d bd
       -0.06495064 0.1291201 0.018420728 -0.054033015
000180 57 89 70 3e c4 a8 2a 3d ee 6d 8c 3d 61 83 af 3a
       0.23489891 0.041664854 0.06856905 0.0013390594
000190 65 ab 51 3e 3b 64 fa 3d 26 9d d7 3d c5 44 15 be
       0.20475538 0.12226149 0.105280206 -0.14577015
0001a0 a2 64 04 be f3 01 fc 3d 33 96 8c 3c d0 fd 01 3e
       -0.12929013 0.12305059 0.017161464 0.12694478
0001b0 d8 b7 19 3e df 0e a1 bd a3 1f ff 3d 9e 62 a3 3d
       0.15011537 -0.078641646 0.12457206 0.07977794
0001c0 c4 70 d0 3d f8 6d bf 3d d6 77 88 3d d3 43 61 3c
       0.10177758 0.09347147 0.06663482 0.013749081
0001d0 9d 08 87 3e 58 ea 20 3c 36 38 c1 3d e1 4a b0 ba
       0.2637376 0.009821497 0.094345495 -0.001345005
0001e0 52 e6 92 bd 18 d3 0d 3e 74 da d9 3d aa 30 a9 bb
       -0.07172836 0.13850057 0.1063737 -0.005163272
0001f0 8a 56 e9 3d e1 77 57 3e fb 43 ac bb bf 5c e3 3d
       0.11393459 0.21041824 -0.0052571273 0.11101674

bias_hh_l0 f4 [128]
000000 7b 8c af bc 4e b9 8e 3d bd 7a e3 bd c4 f3 c0 3d
       -0.021429291 0.06968938 -0.11107395 0.094214946
000010 0b f4 27 3b ef a3 a4 bd eb bf e6 bc a4 36 f2 3b
       0.0025627639 -0.0803908 -0.028167685 0.0073917676
000020 92 6e 67 3d fb 86 60 3e a1 4f f8 bb b9 84 91 bc
       0.056501932 0.21926491 -0.007577852 -0.017763482
000030 78 5b 5d bd 3e 84 51 3e e3 f3 00 3e 89 ac 8c 3d
       -0.05404231 0.20460603 0.12593035 0.06868846
000040 80 62 e7 bd ba 7e 13 3e 5f 24 f5 bd cb 31 b0 3d
       -0.11298084 0.14403811 -0.11969828 0.08603247
000050 39 d1 92 3e b9 7b 2c 3e e6 1a 12 3e 8c 82 f3 3a
       0.2867525 0.16844071 0.14268073 0.0018578335
000060 5b d5 85 3c 39 96 b4 3d 7b 49 17 3d f0 eb 9d bd
       0.016337087 0.08817715 0.03693531 -0.07711017
000070 b0 99 d7 bd bd 24 52 bc 58 d9 28 bc c3 c4 3e 3e
       -0.105273604 -0.012826142 -0.010305725 0.18629746
000080 0e 03 94 bc 9a c1 70 be 72 75 a9 3b 1d 15 2e be
       -0.018067863 -0.23511353 0.0051714713 -0.17000242
000090 88 17 94 3e a3 2d 00 ba a3 c2 e1 bd 5c 14 98 be
       0.28924203 -0.0004889613 -0.11023452 -0.29703033
0000a0 78 3c 12 be 2b 4c 0c be ed 98 4d be d4 35 50 bd
       -0.1428088 -0.13700931 -0.20077868 -0.050832585
0000b0 36 d4 2a be f5 ce 25 bc db ec 7e 3d 33 27 9a bd
       -0.16682515 -0.010120143 0.0622376 -0.07527008
0000c0 62 74 bc bd 78 0c ff bd 91 f9 1f be 79 66 cb bd
       -0.09201886 -0.1245355 -0.15622546 -0.099316545
0000d0 63 de 1d be 79 26 75 be 8b 88 66 be ae f8 64 bd
       -0.15416865 -0.23940457 -0.22513025 -0.055901222
0000e0 88 91 97 be b6 95 25 be b7 68 47 be 09 0c 14 3d
       -0.2960322 -0.16170391 -0.1947354 0.03614429
0000f0 41 44 88 bd 3e a9 27 bd 45 3e 05 be 29 53 0a 3d
       -0.066536434 -0.040932886 -0.13012035 0.033770714
000100 43 4f 16 be 04 35 0d be bf 65 d2 3d 47 7d b1 bc
       -0.14678673 -0.13789755 0.10273313 -0.021666182
000110 d2 5d 1f 3e bd 73 e9 3c cf 2a b4 bd cf 16 cd 3b
       0.15563133 0.028497571 -0.087972276 0.0062588225
000120 b9 eb a3 3d b1 1d bb bc 58 9e 50 3d 82 9b 41 3d
       0.08003945 -0.022841306 0.05093226 0.047267444
000130 5e 4d b2 3d e5 5d 34 3d 44 53 dc bd 8c 23 4a 3d
       0.08706163 0.044034857 -0.10758069 0.049350306
000140 d3 a6 9b 3c 3c 9f f6 3d 0e d8 da 3c a4 23 0d be
       0.019000446 0.1204209 0.026714351 -0.13783127
000150 69 3d bb bd 4e c4 98 39 e6 7b 0f be e8 8a fb 3d
       -0.091425724 0.00029137958 -0.14012107 0.12282354
000160 fe f1 fb bd d5 77 67 3c cf 13 92 3d 6a a6 01 3d
       -0.12302016 0.014127691 0.071326844 0.031652845
000170 69 1e 5b bd ef 1c 19 be 59 d0 c8 bb 9d a5 4c 3d
       -0.0534958 -0.14952444 -0.0061283526 0.04996263
000180 2e 79 f5 3d 98 36 34 3e 71 43 b3 bd 86 23 6a 3e
       0.11986004 0.17598951 -0.08753098 0.22865114
000190 55 53 9b 3e 5e 20 d2 3c 85 93 9b 3e 5d c7 28 3e
       0.30337015 0.0256502 0.30385986 0.16482301
0001a0 7e b0 3b be 0b e4 14 3e be 50 84 3e 96 ba 50 3e
       -0.18329045 0.14540116 0.2584285 0.20383677
0001b0 e9 2b 26 3e 11 94 ea 3d 7a f8 35 3d 91 7d b3 3d
       0.16227688 0.11454023 0.04442642 0.08764184
0001c0 40 50 f6 3d 52 70 31 bd 1a da 2f 3e 71 bf e0 bd
       0.12027025 -0.043320008 0.17173043 -0.109740146
0001d0 7d 3a 68 3e f3 bc 4d 3e 4b 07 7c 3e cb 64 06 3e
       0.22678562 0.2009161 0.24612157 0.13124387
0001e0 bf c5 ed 3d 37 c7 e9 3d 2c 16 22 3e e9 5a 88 3a
       0.11609983 0.1141495 0.1582877 0.001040307
0001f0 2b 6a 7c bc 0b cb 51 3e 64 44 b2 3c 6e 9e 9f 3e
       -0.015406172 0.20487611 0.021761127 0.3117556

weight_ih_l0 f4 [128, 2]
000000 d5 9d 02 3e 47 b1 a7 3d d0 9c d9 3d 6e 28 a9 3d
       0.1275552 0.0818811 0.10625613 0.082596645
000010 b5 35 20 3e 29 c4 5d 3d 3d c5 3e be 46 cf f3 b9
       0.15645488 0.05414215 -0.18629928 -0.00046503003
000020 3b 93 b4 bd 88 c7 a0 be 1b fb 0b 3e fe 60 e1 3d
       -0.088171445 -0.3140223 0.13670008 0.11004828
000030 7f c3 e4 bd 65 df 33 3e 50 1e ab be 6d e7 cc 3c
       -0.111701004 0.17565687 -0.33421564 0.025012696
000040 3a 1d 31 3e 06 28 11 be e3 19 6d be 45 55 71 3d
       0.17296305 -0.14175424 -0.23154406 0.05891921
000050 e3 04 62 bc ee 91 8a bd 75 31 27 3e 30 90 59 bd
       -0.01379511 -0.06766115 0.1632746 -0.053116024
000060 c4 42 f7 3d 4a 61 a2 be 92 5c 0b be 29 f1 09 bc
       0.120732814 -0.3171485 -0.13609532 -0.0084193135
000070 ed 2d 84 be e9 eb c0 3d 03 5f 9e 3c ef 45 45 3d
       -0.2581629 0.09419996 0.019332414 0.048162397
000080 1a 6c 35 be 1f 9e 2f 3e bf 30 a5 bd ea c4 99 3e
       -0.17717019 0.17150162 -0.08065938 0.30033046
000090 77 35 ac 3c c4 cc 47 3e 83 f6 56 3e b4 2f a8 3d
       0.021021588 0.19511706 0.20992474 0.08212224
0000a0 c0 a4 ae 3e af 7e 52 bc 96 f9 76 3e 0f 55 e6 3e
       0.3411007 -0.012847587 0.24118647 0.4498677
0000b0 59 8f 94 3e 3c 19 4d 3e 1b f5 fa be f4 aa 5b 3e
       0.29015616 0.20029157 -0.49015126 0.21451932
0000c0 bc 07 1c bd a1 e9 b6 3d 14 7f 03 3e b1 c1 8e be
       -0.038093314 0.0893128 0.12841445 -0.2788215
0000d0 06 4c b0 bd 40 11 8c 3e f9 01 50 be af de 2d be
       -0.0860825 0.2735691 -0.20313253 -0.16979478
0000e0 ab 5e 89 3c 85 2a 93 bd 1c b2 77 3d 81 50 93 3e
       0.016768774 -0.07185844 0.060472593 0.28772357
0000f0 d9 6d b7 3e dd 15 10 3d bd 38 eb 3d bc 7a c5 be
       0.35825995 0.0351771 0.11485431 -0.385702
000100 76 ae 74 3d ff e3 43 be 4e 22 81 bd 31 6b 8f be
       0.05973669 -0.19129942 -0.06305371 -0.28011468
000110 d4 a0 c7 bd 0e 50 c1 3d 94 6d a6 3d 80 7f ca 3e
       -0.097474724 0.09439097 0.08126369 0.395504
000120 b4 54 50 3e e1 c0 51 3e ef e3 e1 be e2 ac 5f 3e
       0.20344812 0.20483734 -0.44119212 0.21843293
000130 0f 68 09 bf 81 e2 dc bb 14 5a b8 3e 97 14 f6 3d
       -0.53674406 -0.0067408686 0.36006224 0.12015646
000140 7f 8b 36 bd 9b ac ba bd 59 36 f5 bd f2 38 a7 be
       -0.044566628 -0.09114953 -0.119732566 -0.32660633
000150 24 c9 f1 bd 73 60 0e be 5f 9d 7d be d5 1d 29 3e
       -0.11805943 -0.1390398 -0.24767064 0.16515286
000160 b6 0a 05 bf 4c e4 a0 bd 72 19 e4 3e ae 5f e3 3e
       -0.5196947 -0.07856044 0.44550663 0.44408935
000170 87 e5 87 be 3e 0b 94 be db 31 56 3e 2f 6d 38 3d
       -0.26542303 -0.28914827 0.20917456 0.045026
000180 a2 d3 e2 3d 9a ca 13 bc a0 97 d7 3c 28 14 9a be
       0.11075522 -0.009020472 0.026317418 -0.30093503
000190 2d 9e c6 3d 07 5e 12 3f e8 6e 09 bf 64 5b 1b 3e
       0.096981384 0.57174724 -0.53684855 0.15171582
0001a0 2b 56 e7 be 47 2d 09 be 86 fb 64 3e 61 38 a8 3d
       -0.45182928 -0.13396178 0.22361574 0.082138784
0001b0 67 cc be 3d 70 c7 8e 3e c3 3c 89 3c 93 f8 07 bf
       0.093163304 0.27886534 0.016752606 -0.5311367
0001c0 84 51 8d be 73 f5 34 be 85 00 99 3e 55 c3 de 3d
       -0.27601254 -0.17671756 0.2988321 0.108771004
0001d0 46 ae 80 3e 74 8e 87 be fe 3e 11 be f9 02 a5 3e
       0.2513296 -0.2647587 -0.14184186 0.3222883
0001e0 af d2 3e 3d 23 a9 ca be 28 0d 73 be 2c 75 04 3f
       0.046587642 -0.39582166 -0.23735487 0.5174129
0001f0 63 86 89 3e 06 be 40 bd f7 e6 15 3d b7 58 a6 3e
       0.2686034 -0.04705622 0.03659722 0.3248956
000200 71 72 12 bd c5 87 67 3e 41 df 8c be 1a 44 b4 be
       -0.03575367 0.22610386 -0.2751408 -0.35208207
000210 27 51 9f be 6b 5d 8d be aa 6b a9 bd 61 3e af be
       -0.31116602 -0.27610335 -0.082724884 -0.3422728
000220 11 29 91 be 71 cc 52 3e ca 90 3c 3e d9 c8 cf be
       -0.28351644 0.205858 0.18414608 -0.40582922
000230 ca 26 10 bd ef 90 87 bd 49 61 a1 3e 75 35 bf bd
       -0.035193242 -0.06619441 0.31519535 -0.09336368
000240 e8 8f 19 3f 74 cc 2f 3e 21 f7 c7 ba 57 d7 3e 3f
       0.5998521 0.17167836 -0.0015256145 0.7454733
000250 eb 69 a6 3e 70 f5 e3 3e 2e b0 17 bf 0e 94 6f 3e
       0.32502684 0.4452319 -0.59253204 0.23396322
000260 e2 0e c5 be 36 0f cb bb a0 5e 80 3e 9d e1 65 3e
       -0.38487917 -0.0061968816 0.25072193 0.22449346
000270 19 68 a7 be fc 9d f7 be 14 50 b0 be 49 6b 61 3e
       -0.32696608 -0.4836272 -0.34436095 0.22013582
000280 0e 37 53 3c 23 0e 32 3e a9 1a f4 be 94 7b b9 3e
       0.012891544 0.17388205 -0.4767659 0.36227095
000290 1d f7 2a 3d 9e 15 01 3f dc 81 b2 3e b9 5f 17 be
       0.04173957 0.5042361 0.348647 -0.14782609
0002a0 a0 54 8d be 85 d4 81 bb 82 60 e0 be d7 03 98 3e
       -0.27603626 -0.003962102 -0.4382363 0.2969043
0002b0 95 17 99 bd b7 c0 fd be 03 30 1e 3e 3e 08 33 bd
       -0.07475201 -0.49561092 0.15448003 -0.043709032
0002c0 21 09 62 3e d0 f9 84 3e 70 0c 20 be dd 33 9e 3e
       0.22073795 0.25971842 -0.15629745 0.30898944
0002d0 a3 77 1d bf 6c 09 96 3e a0 e1 8c 3e 2e e8 34 3e
       -0.61510676 0.29304063 0.27515888 0.17666695
0002e0 39 de f0 3e 23 39 67 3e da 45 e8 3d 3a be 11 3d
       0.47044542 0.2258039 0.11341448 0.035581805
0002f0 1f 7e a6 3e 15 a4 37 3e 7e db 96 bd 93 f7 f7 be
       0.32518098 0.17933686 -0.073660836 -0.48431072
000300 c4 15 b0 bd f9 45 2d be d2 b1 32 3e fa 93 23 3c
       -0.085979015 -0.16921224 0.17450646 0.009984011
000310 35 99 04 3e 82 30 f5 bb d7 5f 64 3e 80 c7 06 3e
       0.12949069 -0.007482589 0.22302185 0.1316204
000320 23 00 b6 bc 3d ed 4b be a9 4e 6b be 43 54 54 3e
       -0.022216862 -0.19914718 -0.22979225 0.20735268
000330 8a f0 b0 be f8 29 2d be b0 38 4e bd 0b c5 a6 bd
       -0.34558517 -0.16910541 -0.05034703 -0.08143052
000340 ea 43 bd bc 98 8e a2 3d d5 c4 82 be 34 90 b7 be
       -0.023103673 0.07937354 -0.25540796 -0.35852206
000350 8d cf 16 3e eb d6 c6 bd 95 32 da 3d 81 82 4c bc
       0.14727612 -0.09708961 0.10654179 -0.012482286
000360 6d f5 c7 3e fa 78 06 3e 0d bc 2c 3e 2e ff 45 3e
       0.39054433 0.13132086 0.1686861 0.19335625
000370 49 4d 43 be 03 bc 1d 3e 44 d7 13 3e 63 ff fa bc
       -0.1907245 0.15403752 0.14437586 -0.030639356
000380 52 f2 af bd 61 ee 02 3e ff b1 d5 bd 23 d0 2d be
       -0.08591141 0.12786247 -0.10434341 -0.16973929
000390 30 44 21 bd d4 8b bb bd d9 a3 6a 3e 54 64 99 3e
       -0.03937167 -0.091575295 0.22914065 0.29959357
0003a0 54 86 a8 3d b4 36 b3 bd 77 57 29 3d f5 30 f7 3e
       0.08228746 -0.08750668 0.04134318 0.4827954
0003b0 f3 b1 2c 3e 50 3f a4 3d b3 ce 12 be ae 73 87 be
       0.16864757 0.080198884 -0.14336662 -0.26455444
0003c0 5e d5 46 3e d4 fb c1 3d d8 ad 33 3e 9c d9 9e be
       0.1941733 0.094718605 0.17546785 -0.31025398
0003d0 70 a9 b2 3c c2 b0 62 be 8e 4a 42 3d 40 60 0e 3c
       0.02180931 -0.2213774 0.047434382 0.00868994
0003e0 66 19 f0 3c a4 d6 20 be f1 db 15 be 0f c7 86 3e
       0.029308986 -0.15706879 -0.14634682 0.26323745
0003f0 8c ec 67 3e 98 3d 9b bd 1f d3 52 3e 18 2d 85 be
       0.22648829 -0.075801075 0.20588349 -0.26010966

weight_hh_l0 f4 [128, 32]
000000 4f 26 6c bd 12 03 85 3d f5 71 09 be ef 7b 7e 3d
       -0.05765372 0.06494726 -0.13422377 0.06212991
000010 ae 7b 2b 3d 28 bf cb bd bc f3 8a be 3f 8d ba bc
       0.041865997 -0.099485695 -0.2713908 -0.02277243
000020 ae 16 58 be e9 e3 8f bd 46 cf 6c 3d b7 17 41 3e
       -0.21102402 -0.07025892 0.05781486 0.18856703
000030 70 38 35 3e fd 0e 1e 3e 99 06 b4 bd b5 27 94 bd
       0.1769731 0.15435405 -0.08790321 -0.07234136
000040 c9 23 cd 3d ec ae c2 3c b3 4b 87 3e 45 14 0a be
       0.10016591 0.02376505 0.2642494 -0.13484295
000050 9d 5c eb 3d f8 18 2d be 15 73 9d be dd fb 15 3e
       0.11492274 -0.16904056 -0.30751863 0.1464686
000060 ce 0d 6f be 02 c6 6f 3e 3c c4 2d be 3e ba 30 3e
       -0.2334511 0.23415378 -0.16969389 0.17258546
000070 c9 a3 f1 3d 0d f8 31 be fb 01 1f be c7 46 47 bc
       0.11798818 -0.1737978 -0.15528099 -0.012162871
000080 01 6a 76 3c f2 3b fb bd 56 a7 c7 be a6 c8 14 be
       0.015039922 -0.12267293 -0.38994855 -0.14529666
000090 eb 06 dd 3d 33 29 31 3c a7 4d d3 be d6 1c 81 bd
       0.10792335 0.010813045 -0.41270182 -0.06304328
0000a0 47 ea 73 3e 96 96 52 3e de 7f e3 3e 97 c1 3e 3c
       0.23819838 0.20565256 0.44433492 0.011642835
0000b0 e2 34 af bd 4f df dc 3e 3d 26 66 bd a2 58 43 be
       -0.085550085 0.4313912 -0.05618881 -0.1907678
0000c0 37 1f 9c 3d 70 4d 2e 3e 40 8e af 3e 80 cc df 3d
       0.07623141 0.17021728 0.34288216 0.10927677
0000d0 fb 5b 2d 3e 06 5a 8e be 22 d9 0a be 86 09 06 3e
       0.16929619 -0.27803057 -0.13559392 0.1308957
0000e0 07 a6 b7 3d 7e 34 ec bc 0d 93 16 be 65 63 f8 ba
       0.08967214 -0.028833624 -0.14704533 -0.001895052
0000f0 c7 08 9f 3d dc 2b aa 3c 51 fb e2 3d 1c fa df be
       0.07765346 0.020772867 0.11083091 -0.43745506
000100 fa b3 d5 bd 90 16 83 3e 22 80 07 3e f0 18 95 bd
       -0.104347184 0.2560315 0.13232473 -0.07280147
000110 d4 76 8a be 7d f1 04 be 8c c0 21 be 91 12 c9 3d
       -0.27043784 -0.12982745 -0.15796107 0.098179944
000120 44 14 20 3d b9 cb 83 be 77 0f 08 be 84 4e 40 3d
       0.039081827 -0.25741366 -0.1328715 0.04694988
000130 c5 ce 0e 3e 2d e1 ff 3e 1f 7e 85 3e 80 81 11 3c
       0.13946064 0.49976483 0.26072785 0.008880973
000140 99 c3 7d 3d e6 8b 20 3d 47 48 88 3d 76 02 86 be
       0.061954115 0.039195918 0.06654411 -0.26173753
000150 60 c3 d7 3d 3c be f2 bd 74 9b c4 bd 1c 8e 67 3e
       0.10535312 -0.118526906 -0.09599963 0.22612804
000160 10 5e 95 be af 32 fc 3c ac 97 a2 be 39 9a 8a 3e
       -0.29173326 0.030785887 -0.3175634 0.27070788
000170 d2 a4 97 be bf ea 02 be af 4b 98 3e 26 e1 05 bf
       -0.29617935 -0.12784861 0.29745242 -0.52296674
000180 1d 0a 0e 3e 3b 8c cd bd fb 94 48 3e bf 0c a8 bd
       0.13871045 -0.100365125 0.19588082 -0.08205556
000190 e8 36 06 3e 13 b8 88 3d bb 13 56 3e c4 f9 20 3e
       0.13106883 0.06675734 0.20905964 0.15720278
0001a0 6c d7 b0 3e f3 ec eb 3d 39 ce 1f 3d 86 ef 39 3d
       0.34539354 0.11519804 0.03901503 0.045394443
0001b0 e4 de aa 3d 57 c9 8b bd 58 28 aa bd fa d8 d2 bd
       0.08343294 -0.06825512 -0.08308476 -0.10295291
0001c0 70 1b 20 be 7a 63 a2 be 1b 78 73 bd dc 46 cf bd
       -0.15635467 -0.3171652 -0.059440713 -0.10120937
0001d0 68 dc 9a bd 40 55 30 3e 51 e4 05 3e 78 20 50 bc
       -0.075615704 0.1722002 0.13075377 -0.012703054
0001e0 f7 97 c7 3c ce 95 9d 3e 35 07 c4 bd 6c 43 db 3e
       0.024364455 0.30778354 -0.09571687 0.42824876
0001f0 ad 55 83 bd 9b 65 0f be 77 09 15 3d fc d3 a9 bd
       -0.06412826 -0.14003603 0.03638598 -0.08292386
000200 77 88 6d be 49 2d 53 3d de ab 0f 3e 03 67 85 3e
       -0.23196588 0.05155686 0.14030406 0.26055154
000210 7d 1e f7 bd df 26 02 3f 73 58 bf 3e 9d be 4e 3d
       -0.12066362 0.5084056 0.3737217 0.05047475
000220 ed 34 c1 3e 59 16 0c 3d 25 7d 5f be a6 4b a3 bd
       0.37735692 0.034201 -0.21825083 -0.07973413
000230 24 e8 e7 bd 06 04 be 3d b8 1e 83 3e 02 80 a9 bd
       -0.11323574 0.09278111 0.25609374 -0.08276369
000240 57 93 b7 be 30 9d 41 bf 84 c6 a7 be b1 22 6c 3e
       -0.358546 -0.75630474 -0.32768643 0.23060109
000250 de d1 3e 3d 3d b2 a2 3d f3 3e 23 3f 1e c2 ab bd
       0.046586864 0.079441525 0.6376793 -0.08386634
000260 1a ac 1e be 1f 53 13 3e 92 2a d5 be 32 6d 5a 3e
       -0.15495339 0.14387177 -0.4163404 0.21330717
000270 f1 aa 06 be e7 4c 29 3e 37 cd df 3b fd b8 0e 3e
       -0.13151146 0.16533242 0.0068298834 0.13937755
000280 32 d8 b7 bd ca b7 a6 bd 5b 9b a5 be 57 79 6b be
       -0.08976783 -0.08140524 -0.3234509 -0.22995506
000290 7d c8 19 3e 9a d7 1c 3e 6f 2b 4e be a8 49 80 3e
       0.15017886 0.1531662 -0.20133756 0.25056195
0002a0 c0 d7 ce 3e fa 92 bb be ac e3 de bd 5c 40 a2 3e
       0.4039898 -0.36635572 -0.10883269 0.31689727
0002b0 e9 a7 b4 3d 41 90 13 3d 98 4c 45 3e 76 3f 25 be
       0.08821089 0.036026243 0.192675 -0.1613749
0002c0 7f c5 69 be e4 37 4d be 60 eb b5 bc 0f 79 e5 3d
       -0.22829245 -0.20040852 -0.022206962 0.11204731
0002d0 86 bf 9c bd 03 fd 8c be 6f 26 05 be f1 5e 6f 3e
       -0.07653718 -0.27536783 -0.13002943 0.23376061
0002e0 04 08 e8 3d 70 c9 87 3e d3 c8 b1 bd 79 d6 bf 3e
       0.11329654 0.26520872 -0.08680882 0.37468317
0002f0 96 fa 5f bc 75 72 c3 be 80 62 f3 3e 3d 5a c7 bd
       -0.013670584 -0.3817326 0.47536087 -0.097340085
000300 e8 e8 88 3e 62 cc 83 be f8 58 f8 be 9f 1e 9a be
       0.26740193 -0.2574187 -0.48505378 -0.30101487
000310 ce 60 23 3e 76 11 76 be 08 93 c8 3c d1 ed ce 3d
       0.15954897 -0.24030098 0.024484172 0.10103954
000320 7c 71 a5 3e 91 9b a4 3e 5b d7 df 3e 23 5f ca 3c
       0.32313144 0.32149938 0.4371899 0.024703568
000330 5f 7c e9 bd 97 e0 99 3e 07 de ee be b2 39 56 be
       -0.11400675 0.3005416 -0.46653768 -0.20920447
000340 09 7f a5 39 03 ed 85 3e 94 9f 86 3e 25 a6 86 bc
       0.000315659 0.26157388 0.26293623 -0.016436646
000350 72 d5 07 3d 3b bf 81 3e b5 fa e3 be 8f d9 89 3b
       0.03316254 0.2534121 -0.44527212 0.004206843
000360 7b 11 4c 3e 9f 52 50 3d 9e 7b 4f be e8 74 60 bc
       0.19928543 0.050860044 -0.20262 -0.013699748
000370 79 07 cf 3e 34 ad 30 be 48 f9 8f bd 38 21 97 bd
       0.4043539 -0.17253572 -0.070299685 -0.07379383
000380 d5 71 87 3e f0 91 dd 3d 60 61 fa 3e 2c 18 8f 3d
       0.26454034 0.10818851 0.48902416 0.06987032
000390 9b fb 47 3e 81 0d b6 be 91 91 7b 3e 8f 54 ac bd
       0.19529574 -0.35557178 0.24567248 -0.08414566
0003a0 2d b4 53 bf 4d 59 e8 bd 09 16 a6 be 91 1a 95 3e
       -0.826968 -0.11345158 -0.32438686 0.2912183
0003b0 f5 8d 38 3f 66 44 2b be 41 b6 4f 3d 10 25 c5 3e
       0.7209161 -0.1672531 0.05071092 0.3850484
0003c0 fe 04 1c 3e df 73 e2 3e 32 1f f7 bd da 0a 58 bc
       0.1523628 0.44229028 -0.12066497 -0.013186181
0003d0 48 f4 af bb 35 d3 2b 3e 2a 4c ae bd 54 7e 25 be
       -0.0053696968 0.16779788 -0.08510621 -0.16161472
0003e0 53 24 20 3d 07 58 58 bd d8 18 17 3f a3 f1 fd 3d
       0.03909714 -0.052818324 0.59022284 0.12399604
0003f0 5b 8a 29 be 23 42 a9 3d 51 6b 8a bd 2d 7d 0c 3e
       -0.16556685 0.08264568 -0.0675875 0.13719626

bias_ih_l0 f4 [128]
000000 5c 2b e9 bc 3b 6e 84 bd da 9a dc 3d fa 3f d9 3d
       -0.028463058 -0.06466337 0.10771723 0.10607906
000010 3f 7a 0a bc b0 48 14 3e 5e 49 13 3e 65 38 05 be
       -0.008451997 0.14480853 0.14383456 -0.13009794
000020 71 2e 2d 3d 06 a3 0b 3e 23 73 7d bd 7c 8c eb bd
       0.042280618 0.13636407 -0.06187738 -0.11501405
000030 da 30 22 3d f5 ce 1d 3e c6 cf 3d be 25 29 d0 3c
       0.03959737 0.15410979 -0.1853629 0.025410244
000040 e0 27 99 3c 92 40 12 3e 20 94 8d 3e 02 14 a8 bc
       0.018695772 0.14282444 0.27652073 -0.020517353
000050 33 82 53 3e bf a3 2e bd d6 30 a9 bd 29 54 cc bd
       0.20655136 -0.04263663 -0.08261268 -0.0997699
000060 4e 86 b6 bb 52 2e 67 bd 03 fc cd 3d 0b 11 97 3b
       -0.0055702096 -0.05644066 0.10057833 0.004610186
000070 e3 0b 06 3e 2d 2a a4 3d e7 54 7a 3e 88 05 a0 3d
       0.13090472 0.08015857 0.2444645 0.07813555
000080 c0 31 2e 3e 70 b2 07 be 99 77 e4 bd 50 cd d6 bd
       0.17011166 -0.13251662 -0.11155624 -0.10488379
000090 60 7d 19 3c 23 b5 da 3d f5 11 bb 3d 6c 9c 62 3e
       0.009368271 0.1067908 0.091342844 0.22129983
0000a0 c1 f5 4b 3e 86 50 b0 3e a5 3d 9f 3d a2 e1 69 3e
       0.19917966 0.34436435 0.0777543 0.22839978
0000b0 7c 3e ca bd eb c1 17 3e db e6 ee bc c3 d1 af bd
       -0.09875199 0.14820068 -0.029162815 -0.08584931
0000c0 4e 92 1e bd 4a 48 86 3e b5 03 9f 3e 7d 07 1c 3e
       -0.038713746 0.26227027 0.31057516 0.15237232
0000d0 83 0a 26 3e d3 43 1c 3e 4e 0d 04 be b1 d1 31 3d
       0.16214947 0.15260248 -0.128957 0.043412868
0000e0 ab 1e c1 bc 80 44 b8 3d 74 83 1e 3e 2f 3b 4c 3e
       -0.023574194 0.0899744 0.15479833 0.19944452
0000f0 4f b8 30 be d0 34 d3 3d d1 90 9a 3c 7c 32 f4 ba
       -0.17257808 0.103128076 0.018867882 -0.0018630768
000100 be 6a 47 be b4 6e 7f 3e 33 e9 4c 3e ab 32 13 be
       -0.19474313 0.24944574 0.20010833 -0.14374797
000110 d9 80 3a 3e 8e bc 39 3d a8 07 a1 3e 89 46 2d 3e
       0.18213214 0.045345835 0.31451154 0.16921438
000120 1b 39 cd 3d 74 2a d2 bd 2e 61 06 3f c5 51 77 3d
       0.10020658 -0.102620035 0.52492034 0.060380716
000130 de e9 0c 3e 00 72 bf 3e fe f1 00 3e 63 f9 cc be
       0.13761088 0.37391663 0.12592313 -0.40034017
000140 9c b7 f2 be b7 b1 72 be 4f 14 96 3e 57 82 de bd
       -0.47405708 -0.23700605 0.2931237 -0.10864704
000150 a7 43 1e 3e 41 94 b0 be 66 fb 81 3d ba 37 64 3e
       0.15455495 -0.3448811 0.063467786 0.22286883
000160 a6 8f 98 be e9 42 82 3d f8 4b 20 3e af 86 de 3d
       -0.29797095 0.06360418 0.1565398 0.108655326
000170 c1 66 00 bf 00 c5 93 3d a6 12 1c be e2 9e 31 bf
       -0.5015679 0.07215309 -0.15241489 -0.6938306
000180 96 79 e2 bb fc 54 30 3e 3d f0 73 3e d4 c1 1d 3e
       -0.006911467 0.17219919 0.23822112 0.15405971
000190 37 f3 25 3e ee 3e 82 3e fe e8 8f 3e c1 35 e9 3d
       0.1620606 0.25438637 0.28107446 0.11387206
0001a0 cc c1 98 3d 65 b8 ae 3e d3 61 c8 3d c9 c0 c2 bd
       0.07458839 0.34125057 0.097842835 -0.09509427
0001b0 8a 74 3d bd 73 61 6b 3e 73 81 56 3d 53 bf c5 3d
       -0.04625372 0.22986393 0.052369546 0.09655633
0001c0 3e 65 06 3e a6 f5 60 bd ec e1 86 3e f7 65 30 3e
       0.13124558 -0.05492177 0.2634424 0.17226397
0001d0 ba 5f 41 ba 22 55 2a 3e 4a 53 4a 3d bd 65 9c bd
       -0.000737663 0.16634038 0.049395837 -0.076365925
0001e0 92 95 73 3e 24 0f fa 3c df e2 ad 3e 04 e0 6b bd
       0.23787525 0.030524798 0.3396215 -0.057586685
0001f0 78 c3 c5 bd 28 0d 89 3d 50 26 3a 3e 76 94 31 3c
       -0.09656423 0.066919625 0.18178678 0.0108386185

bias_hh_l0 f4 [128]
000000 cf 63 4d 3e 1e 80 47 3e 75 42 1b 3d 7d b8 80 bd
       0.20057605 0.19482467 0.037905175 -0.06285188
000010 a2 45 af 3d a9 11 6e 3e b5 80 d2 bd 0f 1a d5 bc
       0.08558203 0.23248924 -0.10278455 -0.026013402
000020 92 b8 f7 3d b6 7f 55 3e 9d 9d 12 3e d4 fa bf 3d
       0.12095751 0.20849499 0.14317937 0.093740135
000030 a0 68 24 3d 16 51 27 3e ad e6 33 3d 1a a4 9c 3d
       0.04013884 0.16339526 0.04392116 0.076484874
000040 97 82 04 bd 51 76 82 3d 9b bf 3e 3e ed 19 86 bd
       -0.032351103 0.06370223 0.18627779 -0.06547914
000050 d7 b1 58 3e 36 cd 88 3d 78 da 58 3e c9 67 31 be
       0.2116159 0.06679766 0.21177089 -0.17324747
000060 de 89 e6 bd 05 f3 0e be 50 c0 84 3d 57 86 bb bd
       -0.11256765 -0.13959892 0.06481993 -0.09156483
000070 4f 82 20 3e 7d be d5 3d 61 46 d4 3d b8 5a db 3d
       0.15674709 0.104367234 0.10364986 0.107106626
000080 d0 10 13 3d 9b 3d b5 3d de a4 4a 3c 48 83 f9 b9
       0.035904706 0.08849641 0.012368409 -0.00047590793
000090 98 0a a2 3c 41 11 76 bd a0 1a 02 bd 44 a3 8c bd
       0.019780442 -0.06007505 -0.031763673 -0.06867078
0000a0 57 da 7f bd 96 a5 29 3e 75 70 6a bb 3f 2d fb 3d
       -0.062464084 0.16567072 -0.0035772596 0.122644894
0000b0 d7 90 3b 3d 11 2a 25 3e bd 0f 3e be f5 9b 23 be
       0.045792427 0.16129328 -0.18560691 -0.15977462
0000c0 57 8a eb 3c 41 80 0e 3b f6 8b 29 3e 3e 96 0e bd
       0.028752489 0.0021743926 0.16557297 -0.03481125
0000d0 fd 43 1e 3e 60 15 9b 3d e0 15 82 3c 9c 52 d5 bd
       0.15455623 0.07572436 0.015879571 -0.10416147
0000e0 4a aa 61 3a 9a 1d 0a 3e c4 31 86 3d 3d d7 9f bc
       0.0008608444 0.13487855 0.06552461 -0.019511813
0000f0 b5 ef d3 3c 5f 91 b6 bd 6c 2b ce bd cb 4a 33 3e
       0.025871137 -0.08914446 -0.10066876 0.17509
000100 cb 35 7d bc 33 e7 88 3e b2 b4 3a 3c ac 72 e2 bd
       -0.01545472 0.2673889 0.01139562 -0.11057028
000110 a5 e1 82 3e 5e a8 1f be 31 eb e1 3d f2 96 2c 3e
       0.25562778 -0.1559157 0.11031187 0.16854456
000120 62 60 24 be 1f d7 f5 3d be 51 e6 3e 13 bc 2b 3e
       -0.16052392 0.12003922 0.4498424 0.16770963
000130 07 39 ca 3d c3 c2 e4 3e 0a fe d2 3d 85 4e 96 be
       0.09874158 0.4467984 0.1030236 -0.2935678
000140 4f 33 c5 be b2 d1 86 bd 17 8b 22 3c 50 a5 2d bc
       -0.38515708 -0.06582965 0.009920857 -0.010598496
000150 92 5b 4e 3e f1 3b 9b be db bb 47 3e e1 58 22 3e
       0.20152119 -0.3031917 0.19505255 0.15854217
000160 ba 6d 6f be 1c 81 92 3e 38 36 43 bd f9 92 ff 3d
       -0.23381701 0.28614128 -0.04765913 0.12479205
000170 5c 79 26 bf 3e 33 09 3d c8 b5 94 3d d1 96 5f bf
       -0.6502893 0.033496134 0.072612345 -0.873395
000180 65 d3 83 3e 35 ba 17 3e 04 ee 0c 3e 06 e7 e5 bd
       0.2574722 0.14817126 0.13762671 -0.11225705
000190 47 2f 36 bc 7b 00 89 3e 3f 1c 53 3e 34 19 40 3e
       -0.01111967 0.2675818 0.20616244 0.18759614
0001a0 c5 f8 f0 3d 57 3c b5 3e 77 6d 30 3d 9b 36 98 bd
       0.11766199 0.35397598 0.043073144 -0.0743229
0001b0 90 2c 1d bd b6 50 b6 3d cd e4 f1 3d 5b 67 4b 3e
       -0.038372576 0.08902113 0.118112184 0.19863646
0001c0 64 05 8f 3e 23 02 63 3b a5 f1 29 3d c0 55 21 3e
       0.279338 0.0034638725 0.041490216 0.15755367
0001d0 f4 ad 92 bc 58 e5 c2 bc 4e 58 2e 3e 96 76 57 3e
       -0.017905213 -0.023791 0.17025873 0.2104133
0001e0 bf 08 e7 3d 43 1c 20 3e 0d 07 03 3e 65 e1 02 3e
       0.11280965 0.15635781 0.12795658 0.12781294
0001f0 17 3f 37 3e 93 54 09 3e 4e 55 da 3d 4a b9 9a 3d
       0.1789516 0.13411169 0.10660802 0.07554872

weight_ih_l0_reverse f4 [128, 2]
000000 39 8a 8d 3e 7b f4 2a 3e b5 2d 15 3d 35 8f 8d 3c
       0.27644518 0.16694824 0.036420543 0.0172802
000010 a2 5a 02 be 28 0b 28 be aa 49 c3 3e 49 ea a1 3e
       -0.12729886 -0.16410506 0.3814214 0.31624058
000020 0f bc 4c be b1 61 8c 3c cb b4 a7 bb 41 65 34 be
       -0.19993614 0.017136427 -0.0051179877 -0.1761675
000030 62 17 b8 be 97 bc eb be 96 9a af 3e 8e 86 ca be
       -0.3595534 -0.4604232 0.34297627 -0.39555782
000040 28 f2 5a 3e f4 6d 42 bf d3 1b d4 be fe c1 cc 3e
       0.21381438 -0.75949025 -0.41427478 0.39991754
000050 df c4 e7 be 41 5c ae 3e 2a 6b c4 3e 29 61 14 bd
       -0.45267388 0.3405476 0.3836301 -0.03622547
000060 0b dc d0 be e5 dc b6 bd 7e 60 d9 be 0f 2b 42 bd
       -0.4079288 -0.08928851 -0.4245643 -0.047404345
000070 f0 11 3f 3f 78 d2 09 bf cf d5 c0 3e 0a c1 d4 3d
       0.74636745 -0.53836775 0.37663123 0.10388382
000080 6e 44 eb bd 64 a0 0f be d6 34 38 3e 5c ac e6 3e
       -0.11487661 -0.14026028 0.17988905 0.45053375
000090 62 ee a9 3c 3e 56 51 be f1 39 26 3d 9d 10 2b 3e
       0.020743553 -0.20443055 0.0405826 0.16705556
0000a0 11 7c 14 3a 95 ab 4d 3e 72 3c ff 3e f9 64 9c 3e
       0.0005664239 0.20084985 0.49850804 0.30545786
0000b0 38 aa f8 bd 4b 00 12 3e 00 99 db bd fa 05 c2 bd
       -0.12141842 0.14257924 -0.10722542 -0.09473796
0000c0 a2 a7 7c bf ea 04 a6 bd 27 0a 38 bf 34 47 ac be
       -0.9869329 -0.08106406 -0.7189049 -0.33648074
0000d0 a6 a7 1d bf 7a 13 53 be 0f 2f a7 bd 4d bd 28 3e
       -0.61583936 -0.20612898 -0.081632726 0.16478463
0000e0 9d be c6 3e 67 a3 92 be d2 ee 05 be f8 f1 17 3e
       0.388173 -0.2864029 -0.13079384 0.14838398
0000f0 54 f6 88 be e2 df 13 3e c9 ff 00 bf 1f 39 ea be
       -0.26750433 0.14440873 -0.503903 -0.45746705
000100 43 f0 82 3e 77 ff e2 3e 17 47 87 3d 98 6b 25 bb
       0.2557393 0.4433553 0.06605356 -0.0025241133
000110 0d fb 41 be 8e fb 9c be 9f 18 8d 3e 7c 41 b6 3e
       -0.18943425 -0.3066067 0.27557847 0.35596836
000120 15 72 6f be d8 97 32 3d c5 bc bc 3e 45 0a ed bd
       -0.23383363 0.04360184 0.3686277 -0.115742244
000130 4c bc ed be c1 61 dd be dd 2f c5 3e 75 b4 49 be
       -0.46432722 -0.43238643 0.3851308 -0.19697745
000140 19 f9 93 3e 78 ba 85 be 43 09 7e be e9 f0 3a 3e
       0.28900984 -0.26118827 -0.2480822 0.18255962
000150 e0 c9 5b bc 01 b7 9e 3d d2 46 80 3e 60 80 4d bd
       -0.01341483 0.07749749 0.25054032 -0.050171256
000160 47 11 25 be 15 a7 86 bd 75 2b 6d be 8c b5 9c bc
       -0.16119872 -0.06574837 -0.23161109 -0.019129537
000170 61 36 01 3f 08 52 ef be 5b 56 e0 3e 92 b8 1b 3e
       0.504736 -0.46742272 0.43815884 0.15207127
000180 cc 78 08 be eb 6a 95 bd 19 3d e2 bd c0 ac c9 3e
       -0.1332733 -0.072957836 -0.1104681 0.3938961
000190 27 a8 fd bd 47 d2 e3 bd 0f a5 53 be db 6a f9 3d
       -0.12385588 -0.111240916 -0.20668434 0.12178584
0001a0 cd 29 9c 3c 4c e4 3c 3e 62 8e 91 3e ea db c9 3d
       0.0190629 0.18446463 0.28428942 0.098563984
0001b0 11 38 b6 bd 2b 67 ba bc 26 a4 03 bf d3 9b 5d be
       -0.088974126 -0.022754272 -0.51422346 -0.21641473
0001c0 65 c0 00 bf 4f 68 b4 bd 0d d0 4e be 66 e3 a3 be
       -0.5029357 -0.08808958 -0.20196553 -0.3200943
0001d0 92 11 7b be 65 fb 35 be f0 53 84 3d e0 54 87 bd
       -0.24518421 -0.1777168 0.06461322 -0.066079855
0001e0 a9 79 e2 3d b4 27 41 bd 51 e7 c3 bd 6f eb 3a 3e
       0.11058361 -0.047157004 -0.095656045 0.18253873
0001f0 3a da 8d be 5f 01 41 3e b0 f0 26 3e 05 e7 f6 be
       -0.27705556 0.1884818 0.16302752 -0.4822313
000200 52 94 a8 be 8d 60 88 be 55 ac 32 3e fb 16 cd 3e
       -0.3292566 -0.26636162 0.17448552 0.40056595
000210 92 70 81 3e c3 8b fe 3d c0 58 ad be 37 c2 91 be
       0.25281197 0.12429001 -0.33856773 -0.28468487
000220 36 14 82 3e eb 6a db 3e c1 1d 82 3e 8e 91 a7 bd
       0.25406045 0.4285501 0.25413325 -0.08182059
000230 6c 15 93 be 73 1f cb be f8 67 d0 be 0c ba 58 3e
       -0.2872728 -0.3967243 -0.40704322 0.21164721
000240 1c 96 17 bd 5b d0 41 bf 5c a8 2c be 38 0b fa 3e
       -0.03700839 -0.7570855 -0.16861099 0.48836684
000250 1b 87 e0 3e 6c f0 6f be 8b 10 f2 3e 39 b5 a7 bd
       0.43853077 -0.23431557 0.47278246 -0.08188862
000260 73 5b b2 3e 74 a5 85 3d 35 dc e3 3e 79 d9 09 be
       0.34835395 0.06525698 0.44503942 -0.13461865
000270 21 68 e4 3d 70 77 c2 be ed 30 75 3e aa ca 6c 3d
       0.111526735 -0.3798175 0.23944445 0.057810463
000280 1c 06 9b bd 33 00 0d 3f d3 d6 93 3e 3a 39 48 3f
       -0.07569525 0.5507843 0.28874835 0.7821232
000290 a5 59 07 3e e2 39 d7 be 02 37 14 bf fb f8 82 3e
       0.1321779 -0.4203635 -0.57896435 0.25580582
0002a0 58 f3 a3 be d3 c0 39 bd 7e eb cc be 93 05 e1 bd
       -0.32021594 -0.045349907 -0.40023416 -0.10987391
0002b0 43 18 98 be 6e 23 38 3e 12 31 37 3e d7 9e 8e 3e
       -0.2970601 0.17982265 0.17889813 0.2785556
0002c0 cf b4 f8 be cf 94 8a 3e 9c 51 f9 3e 06 33 cf 3e
       -0.48575446 0.27066657 0.48695076 0.40468615
0002d0 1f 6b c4 be 80 13 03 be d4 42 15 be 7b c4 9b be
       -0.38362977 -0.12800407 -0.14576274 -0.3042334
0002e0 b7 c8 d4 be 02 87 7e 3e e8 68 ad 3e 1d 60 56 3d
       -0.41559383 0.24856189 0.338691 0.052337755
0002f0 78 0e 5b 3e 69 3d a0 be 09 f0 1e 3e c7 a9 9b be
       0.21392238 -0.31296852 0.15521254 -0.30402967
000300 b6 58 9e 3e 84 0e 75 3e 85 46 42 3d 8f 89 38 bd
       0.30927056 0.23931319 0.047430534 -0.04505306
000310 ba f6 e2 bc 70 d7 56 be f9 73 77 be be f8 55 bc
       -0.027705539 -0.2098062 -0.24165334 -0.013059793
000320 b5 27 a8 be 7d 1d 14 3e 06 56 12 bc cd d1 1b 3c
       -0.32842794 0.14464374 -0.008931642 0.00951047
000330 8e 1e f7 be 9d e5 ab be b4 d0 fd 3e ff 45 f6 be
       -0.482655 -0.3357362 0.4957329 -0.48100278
000340 a0 a1 31 be 4b 7e 25 bf b1 f1 84 be b5 49 31 3d
       -0.17346811 -0.6464583 -0.25965646 0.043283183
000350 e1 0f 83 be 65 d9 19 3e 16 ab 00 3f 2b 73 21 be
       -0.25598052 0.15024336 0.50261056 -0.1576659
000360 82 03 83 be e7 5d 68 be 56 ad 7d be 03 76 30 3e
       -0.25588614 -0.22692071 -0.24773154 0.17232518
000370 6e e4 89 3f 3a e7 20 bf 42 76 c4 3e 11 a5 89 3d
       1.0772836 -0.62852824 0.38371474 0.06720937
000380 ca 99 a2 3d 2a 83 9a 3b bf fd 5f 3b 49 c8 0e 3e
       0.07939489 0.004715343 0.0034178344 0.1394359
000390 c4 ab b9 bd 22 dc 62 ba 5f c2 d1 bd 1f 56 9b 3e
       -0.09065965 -0.0008654018 -0.102421515 0.30339143
0003a0 32 b4 7a 3e 3f 17 3e bd ef 14 8d 3e 5e 24 d0 3e
       0.24482802 -0.046408888 0.27555034 0.40652746
0003b0 69 7a 7d 3d c1 50 bd bc 3f 34 c0 be 61 bc a6 bd
       0.061884318 -0.023109796 -0.3753986 -0.08141399
0003c0 72 cc ee be 55 03 2a 3d 5e 90 35 be c8 af b7 be
       -0.46640354 0.041507084 -0.17730853 -0.35876298
0003d0 27 97 5c bf e9 4d 46 be f5 43 da 3d b1 d9 28 3e
       -0.8616814 -0.19365658 0.10657493 0.16489293
0003e0 de 2f 4e 3f 35 67 d1 be ca e2 6a be 89 f7 d3 bd
       0.8054179 -0.40899053 -0.22938076 -0.10349948
0003f0 57 d5 4d be f2 5b 53 3e 53 92 4e be c3 19 2a be
       -0.20100914 0.20640543 -0.20173006 -0.1661139
