experiments/pedestrians/models/models_14_Feb_2024_17_26_50_eth_vel_ar3/model_registrar-92.pt (torch, 527902 bytes, 43 tensors)

weight_ih_l0 f4 [128, 6]
000000 e8 21 e1 3d 2d 5a f9 3d c7 99 a7 be eb 67 f2 bd
       0.10992795 0.12175403 -0.3273451 -0.11836227
000010 d2 17 00 be d0 8f f7 bc 53 8e 5a be c0 61 df be
       -0.12509087 -0.030219942 -0.21343355 -0.43629265
000020 b8 a8 8a bd 37 cb 4b 3e 5f fa 44 3e 60 b8 85 be
       -0.06770462 0.19901739 0.19236134 -0.2611723
000030 91 85 97 3d f6 dc 31 3c 50 11 b3 be 9a 98 8a be
       0.07398523 0.010855904 -0.34974146 -0.2706955
000040 c4 09 97 be 43 2d 6e bd 4e f8 23 3e f6 fc 30 3e
       -0.29499638 -0.058148634 0.1601269 0.17283997
000050 c4 d6 18 3e 0d df 69 3d 34 24 d2 3d 1e 48 2e bc
       0.14925677 0.057097483 0.102608114 -0.010637311
000060 79 0a ef bc 87 95 c6 3d bf 95 86 be 58 f1 aa be
       -0.029179798 0.09696489 -0.26286122 -0.33387256
000070 a8 15 8c 3f 86 80 f4 bf 97 11 80 3e 07 37 0b 3e
       1.0944109 -1.9101722 0.2501342 0.1359521
000080 74 14 a8 3e f3 ec 1d be bf b6 00 3f 43 d8 b5 be
       0.32828104 -0.1542242 0.5027885 -0.35516557
000090 26 05 d6 be 20 05 00 3e 80 cd 85 3e af 36 a3 be
       -0.41800803 0.12501955 0.26133347 -0.31877658
0000a0 ed dd 85 3d e9 ca 74 be 02 72 c3 be 05 f4 42 bd
       0.065364696 -0.23905529 -0.3817292 -0.047595996
0000b0 b6 08 17 3f 21 8b 2b be 06 44 20 3e 38 39 4a be
       0.58997667 -0.16752292 0.15650949 -0.1974839
0000c0 4d 03 8d 3e c1 d9 5b 3e b0 4a 28 3f 2b c8 f8 be
       0.2754158 0.21469785 0.65738964 -0.48590216
0000d0 a5 81 cb 3e ac 80 22 be 5f f6 f1 bd bb a8 80 be
       0.39747348 -0.15869397 -0.1181457 -0.2512873
0000e0 14 c1 19 3e 09 d4 ce 3e a0 b0 c3 3d 73 66 41 be
       0.1501506 0.40396145 0.09555173 -0.18886738
0000f0 54 b2 00 3e 94 48 9a be 0a 95 e5 be e9 a8 07 3f
       0.12568027 -0.30133498 -0.4484027 0.5299211
000100 62 e0 b0 bb a8 72 55 3e 24 c7 88 3c 95 19 c5 3d
       -0.0053978423 0.20844519 0.01669652 0.0962402
000110 77 55 04 bf 07 27 b7 bd 08 02 c7 bf 49 4b 51 bf
       -0.5169291 -0.08942991 -1.5547495 -0.817555
000120 42 2c 93 3c 6e f5 ab 3b bc 16 94 be 2b e6 a8 3e
       0.01796544 0.0052477634 -0.28923595 0.32988104
000130 d6 ea 93 3d 04 e7 b4 bb a7 4d 07 be fe 92 95 3d
       0.07222526 -0.0055207033 -0.13213216 0.07303427
000140 74 e0 ff 3e 9c 02 ae 3e 01 2f ce 3e 88 22 9b 3e
       0.49975932 0.33986366 0.40270236 0.30299783
000150 9e 50 9f 3d b6 58 c9 bb bf 6e 6c bf b1 28 82 bb
       0.077790484 -0.0061446084 -0.92356485 -0.003972136
000160 29 eb 07 bf 3f 17 c3 bd 94 f1 c3 be 92 97 2f 3e
       -0.530932 -0.09525918 -0.38270247 0.17147663
000170 77 8d 2e 3f 7b ee 01 3d 3c fb 54 be a6 b7 26 3f
       0.6818461 0.031721573 -0.20798963 0.65123975
000180 65 cc 7c 3e 28 d5 76 bd c2 da 18 bf a3 23 d9 3e
       0.24687345 -0.060261875 -0.597088 0.4241
000190 85 ba 21 bf 7c 75 b8 3d 7e 06 13 3e 1b 80 5e be
       -0.6317523 0.09006783 0.14357945 -0.21728556
0001a0 10 b6 6f be a4 8e 80 3e c2 e7 1b 3d b1 26 1c 3e
       -0.23409295 0.25108826 0.03806282 0.15249135
0001b0 64 f9 3f 3e f0 d3 85 be f3 5b 7e be 04 19 0c 3f
       0.18747479 -0.26138258 -0.24839763 0.5472567
0001c0 12 31 a7 3c bb a7 74 3f 15 82 9a 3d f4 a8 a6 3d
       0.02040914 0.95568436 0.075443424 0.08137694
0001d0 78 4e f7 be 2b 85 c3 3c 85 88 e8 bd 05 4d c6 3e
       -0.48302054 0.02386721 -0.11354164 0.38730636
0001e0 ba 1d d0 be 2a f0 cc 3e a4 56 28 3f 8f 97 0e bf
       -0.4064768 0.4002698 0.65757203 -0.5570001
0001f0 de c5 9f 3e 62 41 8c bc 70 2f a8 3d 21 6a a4 3e
       0.31205648 -0.01712102 0.08212173 0.3211222
000200 02 71 2e 3d 53 72 df be 2f 4c 1d 3c 11 c0 fb 3d
       0.04258824 -0.4364191 0.009600683 0.12292493
000210 b7 c0 7f be 36 71 ec be cc 65 1c 3e dc c4 29 3e
       -0.24975859 -0.46180123 0.15273207 0.16579002
000220 e1 4f 96 3e 8b 6c 23 3e a4 5c 9a bd 42 cf fb 3d
       0.29357818 0.15959375 -0.07537201 0.12295391
000230 ca 3d 3d 3e 55 30 72 be 16 26 a2 3d 41 eb b6 bd
       0.18480602 -0.2365125 0.079174206 -0.0893159
000240 27 fe 49 3e 74 03 f3 bc 74 26 b6 be 3a ca 7d be
       0.19725858 -0.029664733 -0.35576212 -0.24784175
000250 0a 5a 5b be fb 5a 51 be 25 56 e0 be 82 b3 61 be
       -0.21421066 -0.20444863 -0.43815723 -0.22041133
000260 21 99 71 3d d8 3a 5d 3e 96 0f 52 3e e9 cc 86 3c
       0.058983926 0.21604478 0.20513758 0.01645513
000270 98 91 87 3d 5f dd c7 3e ed 97 47 bf 35 29 57 bf
       0.06619567 0.3903608 -0.77966195 -0.8404725
000280 e1 7b ce be e0 8f 28 3e 32 5e 40 be 0f 2e 04 3e
       -0.40328887 0.16461134 -0.18785933 0.12908195
000290 d5 03 17 3f 9f 64 07 3f c0 a4 8d 3f 1b 56 9f 3f
       0.5899022 0.5288791 1.1065903 1.2448152
0002a0 d1 30 84 3e 6c e8 ef bd 95 80 b4 be 55 c8 a2 3e
       0.25818494 -0.11714253 -0.3525435 0.31793466
0002b0 de f9 fe 3d a1 6f de 3d 62 26 b9 be a9 88 87 3d
       0.12450002 0.10861135 -0.36162096 0.06617863
0002c0 4a 4f 49 3e 31 99 fe be 52 5d 80 3e d1 81 3b be
       0.19659153 -0.4972625 0.25071198 -0.1831124
0002d0 eb b1 50 be 90 76 5a be 66 7d af 3e 53 23 d6 3d
       -0.2038037 -0.2133429 0.3427536 0.10455956
0002e0 32 4a 07 3c 95 9f ba be e5 e2 ac bd ff 45 ab 3d
       0.008257436 -0.36449876 -0.08441714 0.0836296
0002f0 81 3b 42 3b a8 19 46 3e 64 40 65 be 9d b1 c4 bb
       0.0029637518 0.19345725 -0.22387844 -0.0060026185
000300 d5 6d 0f 3e 5c e7 07 3e 83 0f 69 be bc 61 0f be
       0.14006741 0.1327185 -0.22759824 -0.14002126
000310 55 13 0f be 32 1f be bd 4f 0a e7 bc b4 bd 62 be
       -0.13972218 -0.09283294 -0.028203158 -0.22142678
000320 ec 31 9f 3d 8e 4b ca 3d 87 f8 10 3e 35 61 5f be
       0.07773194 0.09877692 0.14157306 -0.21814425
000330 74 de ec bd e7 89 84 bd af bf 9a bc 07 a4 68 bd
       -0.11565867 -0.06471615 -0.01889023 -0.056797054
000340 bc a5 23 be b0 aa 04 3e 47 6f df 3d b1 76 43 3d
       -0.15981191 0.12955737 0.10909896 0.047720615
000350 16 8d 28 3e a7 4c 27 be aa bb 33 bc 61 d8 e8 bb
       0.1646007 -0.16337834 -0.010970036 -0.0071058725
000360 2f 6b 74 3d a2 ef 7e bd dd b1 2a 3e f3 53 2f be
       0.05967253 -0.06224025 0.16669412 -0.17121868
000370 cb 0b f3 3e c3 c3 f9 bc 14 38 92 3e f5 b8 cd bd
       0.47469935 -0.030488854 0.2855841 -0.100450434
000380 c4 9c 31 3e dc cf 64 be 20 3b 66 be d5 58 06 3b
       0.17344958 -0.22344917 -0.22483492 0.0020499725
000390 e2 d1 d2 bd 84 5f 36 bd cb 34 63 3e 20 da 27 be
       -0.10293938 -0.044524685 0.22188108 -0.16391802
0003a0 62 fb 4e be a4 5c 18 3e cd c9 e5 bd fc 4c 3b be
       -0.20213082 0.1487909 -0.11220131 -0.18291086
0003b0 df 3f 87 3e b5 1b dd bd c2 21 0b 3c e9 41 7b be
       0.26415917 -0.107963 0.008491935 -0.24536861
0003c0 6a ad b5 3e f5 eb d2 ba f3 07 08 3d d0 21 4c be
       0.35483867 -0.0016092049 0.033210706 -0.19934773
0003d0 54 43 da bc 23 14 95 bd 87 9c 46 be 91 22 ae 3b
       -0.026643433 -0.072792314 -0.19395648 0.005314179
0003e0 ad 54 c7 3e e2 84 29 3e 23 a1 4e 3e 9e 50 12 3c
       0.3893179 0.16554597 0.20178656 0.008930353
0003f0 9d fd ff 3d 12 e8 97 be 07 65 2b be ab 35 ab 3e
       0.12499545 -0.29669243 -0.16737758 0.33439383

weight_hh_l0 f4 [128, 32]
000000 4d 30 24 3d 78 e1 6e be 65 1c e9 3c 4d e6 b3 3d
       0.040085126 -0.23328197 0.028455922 0.08784161
000010 47 8b 03 bd 42 c6 ef bc 89 a0 a1 bd 7a 2b 0d be
       -0.032115247 -0.029269341 -0.07891948 -0.13786116
000020 88 6d 54 3b 34 ca 87 3e e2 04 23 be 14 b3 ea 3d
       0.0032413919 0.26521456 -0.15919831 0.11459938
000030 ad ca 1b be a5 df 7a 3e 24 31 2a 3e cf d9 ae 3d
       -0.15214033 0.24499376 0.16620308 0.085376374
000040 45 5e 52 3e f3 2f 3e be ab 24 39 bb 80 25 1c 3d
       0.20543773 -0.18572979 -0.0028250616 0.0381217
000050 13 cc 65 be 18 ac ad bd ab db ae bd e1 62 89 be
       -0.2244113 -0.0848009 -0.08537992 -0.2683325
000060 c3 ef 87 3e f2 ca 83 3c ee 1a 2c be a1 54 b8 3e
       0.2655011 0.016087983 -0.16807148 0.36002067
000070 b6 ef 1b 3e 78 87 a5 3c 75 90 49 3e 06 4a 0c be
       0.15228161 0.020206198 0.19684012 -0.13700113
000080 78 e1 e0 3d 3c 00 88 be e8 a1 ba 3d 0c dc dc bd
       0.10980505 -0.2656268 0.091129124 -0.10784158
000090 51 49 e1 bc e8 c1 52 3e 5a 8e c3 bd e6 1f 3e be
       -0.02750078 0.20581782 -0.09548636 -0.18566856
0000a0 ef 94 55 3d d2 09 fb 3d ca d5 da be 45 cc 82 bd
       0.052143987 0.122577325 -0.42741233 -0.063866176
0000b0 9a 44 88 be 3b 5a 30 3e 9a fc 29 3d fb 84 15 be
       -0.2661484 0.1722192 0.041500665 -0.1460151
0000c0 f7 f2 9e 3e cf 83 ce 3d 57 b7 3e be 89 9c dc 3b
       0.31044742 0.10083734 -0.18624626 0.0067325276
0000d0 17 4a 24 bd bd c8 2e be 90 ab 3f be 37 7e 2c be
       -0.04010972 -0.17068763 -0.1871779 -0.16845022
0000e0 03 39 19 3e 2e e7 85 3d 9f 05 27 be 47 c3 66 bd
       0.14963154 0.06538235 -0.16310738 -0.056338575
0000f0 aa 91 fd bc 46 a9 bf 3d 0b 30 6c 3e 90 11 ed bd
       -0.030953247 0.09358458 0.23065202 -0.115756154
000100 6c 12 cd 3d 79 cf ef bd 86 1a e4 bd ba 6f ed 3d
       0.10013279 -0.11709494 -0.111378714 0.11593576
000110 59 45 93 3d 05 28 e4 3d 61 7e 12 be 82 ee 2c be
       0.071909614 0.111404456 -0.14306022 -0.16887859
000120 04 ed a9 bd e3 73 50 3e 7f 4d 91 be da 20 49 38
       -0.0829716 0.20356707 -0.28379437 4.795273e-05
000130 05 17 2b bd c4 15 0f be 3c 95 af 3d 31 ce ff bd
       -0.04177 -0.13973147 0.08573386 -0.124905
000140 b6 27 36 3e 7c 6c 27 be a2 e6 35 3e 96 92 c7 bd
       0.17788586 -0.16349977 0.1776376 -0.09744756
000150 0d 8c d1 3c 60 f1 89 3d 39 b1 0c 3e 6a 71 16 3e
       0.025579477 0.06735492 0.1373948 0.14691702
000160 1b 3f 83 3e ae db cf 3d b4 9f 14 3e d3 b6 eb 3d
       0.25634083 0.101493225 0.14514047 0.1150948
000170 60 e8 d7 3d a2 3d e6 3d 81 84 99 bd bf b6 0e 3d
       0.10542369 0.11242224 -0.07495976 0.03484225
000180 91 7e 3f be 0b 5c 78 bd 10 08 6d bd fc 80 26 3d
       -0.18700625 -0.060634654 -0.057869017 0.040650353
000190 c3 be 2e be c9 e8 a5 3c f7 ae 9f bd f6 00 c0 3b
       -0.17064957 0.020252602 -0.07797044 0.0058594896
0001a0 52 c3 aa bd 1c c4 4f 3e 13 e1 c3 be 93 cc 04 be
       -0.08338036 0.20289654 -0.38257656 -0.12968664
0001b0 4c 37 db bb 43 84 6f bd e7 5b 08 be 40 d3 42 be
       -0.0066899415 -0.058475744 -0.13316308 -0.19025898
0001c0 58 b1 e9 3d 6e 67 94 bc b5 39 83 be 9a eb 44 bd
       0.11410779 -0.018115725 -0.25629964 -0.04807625
0001d0 1a 26 a0 bd b0 bb a8 bc 24 c4 2b 3b f5 0b c6 bc
       -0.07819767 -0.020597309 0.0026209438 -0.024175623
0001e0 bc f3 19 3e 49 74 0d 3e cb ad a7 bd 43 ed 6d 3e
       0.15034384 0.1381389 -0.08187445 0.2323504
0001f0 f0 57 b6 3d 06 17 d7 3d 14 da 94 3e b8 46 de bd
       0.089034915 0.10502438 0.2907263 -0.10853332
000200 bb 7a db bd 5c bb a2 bd 14 6a ba 3d 88 c1 b0 bd
       -0.10716768 -0.07945892 0.09102264 -0.08630663
000210 ee c0 bd 3d 46 9c 6d 3e e1 c1 90 be 00 0a 9c 3e
       0.09265314 0.23204145 -0.28272918 0.3047638
000220 1d bf c8 3e ab fa a8 bd 0c 45 b0 be 00 d2 45 be
       0.39208308 -0.08250936 -0.3442768 -0.1931839
000230 12 da d7 3e 7f 02 59 3e ad be 82 3d 50 2f 44 bd
       0.42158562 0.21192358 0.06384025 -0.047896683
000240 af 2c cd be 6e 5d 1a bf 69 6a c0 3e 0a 76 97 3c
       -0.40073153 -0.6029881 0.37581185 0.018488903
000250 72 45 5d 3e 7b 09 c9 3e d9 3b 97 3d d7 54 34 3e
       0.21608523 0.39265046 0.07384462 0.17610489
000260 77 4e 30 3e d1 aa b8 be f9 1a 05 bc e0 33 2c bf
       0.17217432 -0.36067823 -0.008124107 -0.67266655
000270 76 e1 f4 bd 0f 63 3d 3e 3c 70 54 3e 2d 8e b6 be
       -0.11957066 0.18494819 0.20745939 -0.35655347
000280 8e ce d0 3d 6a 18 7e be 80 57 9a 3d 71 88 05 be
       0.10195647 -0.24814 0.075362206 -0.1304033
000290 8e a0 78 bc 06 d0 f7 bd 63 85 81 3e 51 73 8b be
       -0.015174998 -0.12100224 0.25297078 -0.27236417
0002a0 8c 48 c4 bd 78 ce e4 bc 0b f2 8b 3e 09 8e 23 3d
       -0.0958415 -0.027930483 0.27333102 0.039930377
0002b0 b5 c7 64 be a8 97 90 3d 87 25 94 bb 89 bf 25 bd
       -0.22341807 0.07060176 -0.004521075 -0.040465865
0002c0 fe b9 27 be de 22 7f 3e b9 f0 dd bd c6 8d 83 3e
       -0.16379544 0.24915645 -0.1083693 0.25694102
0002d0 83 0e c0 bd 15 52 ad bc 9b a2 30 3e c9 04 78 be
       -0.09377768 -0.021157304 0.17249529 -0.24220575
0002e0 ae 10 07 3e 3a 1d cf 3d 78 0a 3d 3e 03 07 1f 3d
       0.13189957 0.101129964 0.18461025 0.038825046
0002f0 28 30 cb 3c e7 f1 c6 bd f2 99 38 3e 89 2c 76 3e
       0.024803236 -0.09714108 0.18027475 0.24040426
000300 e9 e1 e1 3d 68 75 80 bd 2d 9d 59 be 3b e8 10 3e
       0.11029417 -0.062723935 -0.21251364 0.14151089
000310 c6 23 3a 3c 5e 3e c9 bd b4 31 a1 3e fe 7a aa be
       0.011361068 -0.09826349 0.31483233 -0.3329696
000320 81 3e 26 be 04 c9 c4 3d bc 63 68 bd d3 62 96 bd
       -0.16234781 0.09608653 -0.05673574 -0.07343068
000330 d1 93 29 3d 55 37 a1 3e 7a de b0 3d 76 a8 20 3b
       0.041400734 0.31487527 0.08636184 0.0024514473
000340 7f 02 ba bc 50 3e d4 bd af 38 64 3d ce 17 82 bc
       -0.022706268 -0.10363448 0.05571812 -0.015880492
000350 57 9a 12 be da 93 a0 3e 8c 3a 6c 3e 33 63 03 be
       -0.14316688 0.31362802 0.23069209 -0.1283081
000360 f8 e3 33 bd fd ff 87 3e e1 45 91 3d be 95 29 3e
       -0.04391858 0.2656249 0.070934065 0.16561028
000370 ed 81 39 be 00 17 3b bd e5 5c d7 bc d1 25 e2 3d
       -0.18115969 -0.04567623 -0.026289413 0.11042369
000380 56 06 12 3e a2 5d 92 be 6f 59 76 3d fe 9a 24 3e
       0.1426023 -0.2858706 0.060143884 0.1607475
000390 3e 44 90 be 84 a0 83 bd 56 eb 99 3e 91 8d 26 be
       -0.28177065 -0.064271 0.3006236 -0.16264941
0003a0 1a 31 99 bd 8a f0 2b bd b7 53 32 3e 4d d7 21 3d
       -0.074800685 -0.041977443 0.17414747 0.039511967
0003b0 db e2 cb bd d7 cf 64 bd c0 48 c3 bb e2 7e 34 3d
       -0.099553786 -0.055862274 -0.0059596 0.044066317
0003c0 a2 15 2f 3d fe 25 41 3e f9 ef b9 bd 77 00 12 3c
       0.04274524 0.18862149 -0.09078974 0.008911244
0003d0 82 6e e9 be bc 55 f0 3d 7a e2 4c bd a3 14 d8 be
       -0.45592123 0.117351025 -0.050020672 -0.42203245
0003e0 61 d3 67 3e 0e af ec 3e 3c 59 72 be cd bf 2e 3e
       0.22639228 0.46227306 -0.23666853 0.17065354
0003f0 17 6e 87 3d d7 7a 5e bd f6 c4 7c 3d fa f9 bc 3e
       0.06612795 -0.054316368 0.061711274 0.36909467

bias_ih_l0 f4 [128]
000000 4d 69 35 3d fd 94 8e 3d 5c 18 8f 3c 49 29 83 bd
       0.044289876 0.06962011 0.01746767 -0.06404359
000010 b0 a3 00 be 88 a6 2f 3e 43 57 aa 3d b4 9c 33 be
       -0.12562442 0.1715337 0.08317425 -0.17540246
000020 31 f9 cb bc fa 0b ab 3d 73 34 89 3e 09 8e f6 3d
       -0.024899097 0.08351894 0.26797828 0.1203881
000030 d6 3f 37 3e 8f 2c b1 bd 86 6e c9 3d 7e 96 af bd
       0.17895445 -0.08651077 0.09835534 -0.08573626
000040 04 f2 9c bc 9a 0f 2a 3e cd ca d1 3c 54 74 f8 3d
       -0.01915837 0.16607514 0.025609398 0.12131563
000050 06 35 17 3e 87 f1 98 3b 9a 8b 1b 3e 24 eb 86 bd
       0.1476632 0.004667464 0.15189973 -0.06587818
000060 96 31 ea 3d a7 30 fc 3d 40 d3 d5 ba fd a7 16 3d
       0.11435239 0.12313967 -0.0016313568 0.0367813
000070 c4 24 a2 bc fe 3b 93 3b 74 e2 af bd 44 33 41 3e
       -0.019792922 0.0044932356 -0.085881144 0.18867213
000080 03 ac f5 3d ad 5b 8b be 7b 53 6a be b6 9d f9 3c
       0.11995699 -0.2721838 -0.22883408 0.03047071
000090 ff 93 2e bd 60 85 33 be c3 50 82 be 27 fb 29 be
       -0.04262161 -0.17531347 -0.2545224 -0.16599713
0000a0 58 6f 68 be a0 82 af bd a4 c6 58 be 3c 1d 3e bc
       -0.22698724 -0.085698366 -0.21169525 -0.01160365
0000b0 fe b6 2f be 77 c0 2b 3e bb 66 40 bd 58 86 04 be
       -0.1715965 0.16772638 -0.04697297 -0.12941873
0000c0 1e 7f 3c 3c 88 e6 6e bd fb 26 68 be f9 3c 9f 3d
       0.0115049165 -0.05832532 -0.2267112 0.077753015
0000d0 09 08 99 be c8 04 bb bd 00 fc 85 3c 16 13 07 bd
       -0.29888943 -0.09131771 0.016355515 -0.032977186
0000e0 77 4e dc bd 32 63 1b 3e 72 12 9e 3d d9 94 f3 3d
       -0.107571535 0.15174559 0.07718362 0.11893625
0000f0 0d 90 37 bd 95 fe 8f be 47 5e 8a be 94 e1 8f be
       -0.044815112 -0.28123918 -0.27025053 -0.2810179
000100 29 4b 0e 3e 15 ff 06 3e b6 ff 85 bd 0c 1d 07 3d
       0.13895859 0.13183244 -0.065429136 0.032986686
000110 0c a4 c6 bd 2b e8 d1 bb 98 be c5 3d 49 ce 1f bd
       -0.09699258 -0.0064058504 0.096554935 -0.03901509
000120 a5 d5 7e bd f8 68 8b 3d f2 c2 98 bd 65 ee bd 3c
       -0.062215466 0.068071306 -0.07459058 0.023184964
000130 85 97 b3 bd f5 09 b4 bc f8 03 c8 bc 2c 3b bc bd
       -0.087691344 -0.021977404 -0.024415955 -0.09190974
000140 2e c4 8a bd 7a ad fd bd f5 f5 a1 3d cc 30 ad ba
       -0.067756996 -0.12386604 0.07908241 -0.0013213395
000150 a1 57 8f 3d bc 0e 65 3d f5 b9 cd 3d 53 6a fe bd
       0.06999136 0.055922255 0.10045234 -0.124226235
000160 69 16 ef 3d d4 53 b6 bd a6 b6 8d 3d ac e6 97 bd
       0.11674196 -0.08902708 0.06919603 -0.07417044
000170 90 1b 68 bd 1a 14 08 3e 89 a0 8e 3c fb 79 57 bd
       -0.05666691 0.13288918 0.017410534 -0.052606564
000180 bc 77 83 3e 3a f9 63 3d 0e 0d 81 3d ad 89 aa 3b
       0.25677288 0.055657603 0.06301318 0.0052044005
000190 4b e4 7c 3e cd ae f9 3d 66 7b e1 3d 37 5f 21 be
       0.24696462 0.12191544 0.110098645 -0.15758978
0001a0 8b f1 01 be ae 91 1b 3e 2e 88 03 3d dd 56 4e 3e
       -0.12689798 0.15192291 0.032112293 0.20150323
0001b0 ed 8e 0e 3e fd 46 9f bd 93 8f 05 3e f0 97 95 3d
       0.1392171 -0.07777212 0.1304305 0.073043704
0001c0 18 94 cb 3d 8f 14 d7 3d 81 ad c7 3d 72 a2 8a 3b
       0.09940356 0.10501968 0.0974989 0.004230791
0001d0 93 2b 8b 3e fa a5 c7 3c 4f 5b 0a 3e c2 40 0f bb
       0.27181682 0.024371136 0.13511394 -0.0021858667
0001e0 f5 97 91 bd 1d 8e 1e 3e de f8 05 3e 8e fc 3b 3d
       -0.07109062 0.154839 0.13083217 0.04589515
0001f0 2b 06 df 3d 2f d4 58 3e 79 d3 22 bc 0b 29 22 3e
       0.10889848 0.21174692 -0.009938114 0.15835969

bias_hh_l0 f4 [128]
000000 80 08 9b b4 29 6d a9 3d 98 3a ee bd 5e 8e c7 3d
       -2.8877184e-07 0.08272774 -0.116322696 0.09743951
000010 da b1 94 3c 31 35 94 bd 3d 5a 97 bc e1 b1 0d 3b
       0.018151212 -0.07236708 -0.018475646 0.0021620917
000020 ba bc 76 3d 86 60 7e 3e 80 d3 3c 3c 27 74 91 bb
       0.060238577 0.24841508 0.011525035 -0.0044388953
000030 dc 0c 73 bd 6a be 54 3e be 40 0e 3e 13 f4 98 3d
       -0.059338436 0.20775762 0.13891885 0.074684285
000040 52 58 d9 bd 49 71 22 3e 20 87 8f bd 7c c6 9d 3d
       -0.10612549 0.15863527 -0.07008195 0.077038735
000050 d4 36 97 3e 53 d5 3d 3e 91 c1 38 3e da 25 cf ba
       0.29534018 0.18538408 0.1804259 -0.0015804127
000060 70 2e 83 3c df 34 dd 3d 92 4c 93 3d 89 76 60 bd
       0.016013354 0.108011 0.07192339 -0.054800544
000070 ba b4 cf bd c4 ea 9e bb c5 09 86 bc 7f 98 74 3e
       -0.10141893 -0.0048497636 -0.01636208 0.23886298
000080 a6 92 ff 3c 58 00 7c be d1 14 11 3c e7 e3 33 be
       0.031197857 -0.24609506 0.008855061 -0.17567407
000090 b7 0f 88 3e c9 50 4c bc 2d 9d e8 bd 45 24 9f be
       0.2657449 -0.012470433 -0.11358104 -0.3108236
0000a0 c2 cc 1d be 9c 53 11 be 07 63 45 be 4a 14 95 bd
       -0.1541014 -0.1419205 -0.19276057 -0.072792605
0000b0 5c 90 32 be 19 db 3f bc df 96 71 3d 76 6b a2 bd
       -0.17437881 -0.011709952 0.058981773 -0.07930653
0000c0 eb 4f f4 bd 63 47 01 be 7e 1e 4b be ea 08 d4 bd
       -0.11929306 -0.12624888 -0.1983585 -0.10353263
0000d0 0e b4 1e be 27 1b 82 be be ab 53 be d4 b5 79 bd
       -0.15498373 -0.2541134 -0.20670983 -0.06096442
0000e0 6d 4f 9f be ee a5 20 be df 95 34 be 58 90 6e 3d
       -0.31115285 -0.15688297 -0.17635296 0.058243126
0000f0 00 94 95 bd 06 d6 41 bd 98 7b 0d be 82 e4 a6 3c
       -0.073036194 -0.04732325 -0.13816679 0.020372633
000100 7d c3 13 be 31 3a 0c be e2 52 d6 3d 8e 80 b9 bc
       -0.14430042 -0.13694073 0.104650274 -0.022644307
000110 1d 80 23 3e 69 4c d4 3c b2 79 b7 bd 25 09 01 3c
       0.1596684 0.025915341 -0.089587584 0.007875715
000120 0b e1 a1 3d 36 48 d1 bc a0 14 5a 3d ad cc 25 3d
       0.07904252 -0.025547128 0.053242326 0.040478397
000130 59 82 be 3d e0 22 36 3d cb 24 d1 bd 08 9d 5e 3d
       0.093022056 0.044466853 -0.10212096 0.054348975
000140 c0 4f ce 3c e9 bc f2 3d 7d 6a 94 3b 06 f9 02 be
       0.025184512 0.11852438 0.004529296 -0.12790307
000150 84 24 b2 bd 8b 79 94 bb f0 93 12 be 3a a6 fd 3d
       -0.08698371 -0.0045310906 -0.14314246 0.12385221
000160 bd 5a f9 bd ad 18 88 3c 32 ca 93 3d 75 9b 26 3d
       -0.1217551 0.016613329 0.072163 0.0406756
000170 5a 30 39 bd e3 40 15 be a6 ea e9 bb 5c 7d 52 3d
       -0.045212127 -0.14575534 -0.007138568 0.051389083
000180 ac 22 11 3e b5 8a 42 3e 6f a4 be bd dd 18 6e 3e
       0.14173383 0.18998225 -0.09308707 0.23251672
000190 d7 ef b0 3e 99 4a cf 3c 20 0b 9e 3e eb ac 1c 3e
       0.34557983 0.025304126 0.30867863 0.15300338
0001a0 6c 3d 39 be b9 74 32 3e 61 f8 8b 3e b5 89 8e 3e
       -0.18089837 0.17427339 0.27337936 0.27839437
0001b0 fd 02 1b 3e f5 5b ec 3d 84 f7 4d 3d e4 b2 a5 3d
       0.15137859 0.11540977 0.050284877 0.08090761
0001c0 93 73 f1 3d 3e 23 02 bd ee 74 4f 3e b6 3d f4 bd
       0.11789622 -0.03177189 0.20259449 -0.11925833
0001d0 65 80 70 3e f4 a2 5c 3e 48 e3 92 3e 4a 88 05 3e
       0.23486479 0.21546537 0.28689027 0.13040271
0001e0 19 14 ef 3d 8f 9e 05 3e fa 21 3b 3e 78 65 55 3d
       0.11673755 0.13048767 0.1827468 0.05209872
0001f0 84 76 a7 bc 59 27 53 3e 81 eb 8b 3c d7 db b7 3e
       -0.020442255 0.20620479 0.01708007 0.35909912

weight_ih_l0 f4 [128, 2]
000000 c3 5c 18 3e 66 24 ae 3d be 5d 10 3e 32 99 ae 3d
       0.14879136 0.08503036 0.1409826 0.085253134
000010 21 c7 4d 3e f2 11 a1 3d 57 e2 3f be f3 c4 7b bc
       0.20095493 0.07864751 -0.18738686 -0.015366781
000020 ce 0a ab bd 4e c4 aa be 37 31 0b 3e 33 74 c2 3d
       -0.0835167 -0.33352894 0.13592993 0.094948195
000030 37 9b e5 bd 3f 77 3b 3e 65 72 b4 be f2 60 51 3d
       -0.112112455 0.18307208 -0.35243526 0.051117845
000040 57 98 43 3e 13 02 07 be 5b ee 6b be f4 61 9b 3d
       0.19101082 -0.13184385 -0.23040144 0.075870425
000050 c5 36 87 3c b5 eb c2 bd d9 05 32 3e 47 68 16 bd
       0.016505608 -0.09517614 0.17385043 -0.03672054
000060 c8 2e 1b 3e 8d 08 b9 be 9d aa 22 be ee ed 95 bb
       0.15154564 -0.36139336 -0.15885396 -0.0045754826
000070 13 2a 79 be b0 b9 de 3d 11 95 36 3d b8 f1 14 3d
       -0.24332456 0.10875261 0.044575755 0.036363333
000080 90 6f 30 be 51 97 34 3e d0 f0 05 be 93 84 9d 3e
       -0.17230058 0.17635848 -0.13080144 0.3076521
000090 35 99 16 3d 99 a9 0c 3e 6b 04 8f 3e c5 fc 8f 3d
       0.036767203 0.13736571 0.27933058 0.07030634
0000a0 7f 9b b6 3e d8 cf 9c bb 0a 01 80 3e 00 cc e9 3e
       0.3566551 -0.004785519 0.25000793 0.45663452
0000b0 84 3c 90 3e d8 87 23 3e 02 bb 00 bf c4 7e 6e 3e
       0.2817117 0.15969789 -0.5028535 0.23290545
0000c0 9e d0 ed bc 8e 08 e4 3d f5 f2 13 3e c7 29 a0 be
       -0.02903014 0.11134444 0.1444815 -0.31281874
0000d0 bd aa e9 bd af 0c 96 3e 7b 8b 3f be b1 d3 36 be
       -0.11409519 0.29306552 -0.18705551 -0.17854191
0000e0 8e 92 5d 3d 4d 4b c6 bd bb 7c 57 3d 6e 7c 8a 3e
       0.054094844 -0.09682331 0.052609187 0.27048057
0000f0 33 1d d0 3e 42 56 5c 3d 4f cd 1a 3e 1d 6d d6 be
       0.40647277 0.0537932 0.15117382 -0.41880122
000100 f0 41 9a 3d ca aa 47 be f4 a2 6a bd fa 69 97 be
       0.07532108 -0.19498745 -0.05728431 -0.2957304
000110 53 69 b0 bd 94 e8 1a 3e 1d 0e db 3d b5 3a e7 3e
       -0.08613839 0.15127784 0.10696051 0.45161977
000120 67 c1 50 3e 8d 98 82 3e 09 3e f3 be 5f 98 67 3e
       0.20386277 0.25507012 -0.47508267 0.22616719
000130 e8 57 08 bf 97 e5 a9 bc f6 27 c5 3e 02 77 f6 3d
       -0.53259134 -0.02073936 0.3850705 0.12034418
000140 d1 28 2a bd a6 bb c5 bd 89 12 ed bd 74 ac a9 be
       -0.04154283 -0.09654932 -0.11575801 -0.33139384
000150 41 52 f2 bd b6 28 17 be c6 86 88 be c4 59 44 3e
       -0.11832095 -0.14761624 -0.26665324 0.19174868
000160 53 14 13 bf b5 9c c0 bd 1d fc f1 3e 1a 44 f9 3e
       -0.5745289 -0.094048895 0.4726266 0.4868477
000170 b7 29 8a be ed eb 9a be 49 c2 75 3e 7f 1c 43 3d
       -0.2698495 -0.30258122 0.23999895 0.047634598
000180 ff 29 de 3d 2f bd 70 ba 79 52 2c 3d 2d 7b a9 be
       0.10847854 -0.0009183464 0.04207084 -0.33101788
000190 7a 6b c9 3d ec dd 0f 3f e2 62 0f bf 02 27 2d 3e
       0.09834953 0.56198 -0.5601026 0.16909412
0001a0 a0 ea fc be a4 66 f1 bd ea a2 6b 3e d1 48 5d 3d
       -0.49397755 -0.11787155 0.23011366 0.05402452
0001b0 1c 99 a6 3d 26 03 62 3e 31 e5 48 3d 55 16 0b bf
       0.08134672 0.22071514 0.0490467 -0.5433095
0001c0 75 4b 95 be b3 46 2d be 36 9d a0 3e 50 9f 09 3e
       -0.29159132 -0.16921501 0.31369942 0.13439679
0001d0 f2 d7 8d 3e 93 cb 89 be 17 67 1b be 8b 3c b4 3e
       0.27703816 -0.26913127 -0.15176044 0.3520244
0001e0 e2 58 86 3d 76 49 e2 be bb af 85 be 2a d9 04 3f
       0.06559922 -0.4419667 -0.26110634 0.51893866
0001f0 c1 5f 90 3e ed 07 21 bd a8 7f 37 3d 0a 73 ac 3e
       0.28198054 -0.0393142 0.044799477 0.33681518
000200 77 97 2c bd 3c 5d 6c 3e ad bc 94 be 2a 88 b5 be
       -0.042136636 0.23082441 -0.29050198 -0.35455447
000210 cc 7d ae be 09 57 96 be da 12 ae bd 4e 94 bf be
       -0.3408035 -0.29363278 -0.084996894 -0.37417835
000220 ff 90 8c be 8e de 55 3e 0c 5e 51 3e a0 4e d6 be
       -0.27454373 0.20885679 0.20446032 -0.4185686
000230 27 14 c4 bc ba b3 81 bd ee 2a a4 3e aa ba a6 bd
       -0.02393539 -0.06333108 0.32064003 -0.08141072
000240 e9 9b 1c 3f 3b 47 2b 3e 67 5c 4c 3c 95 22 46 3f
       0.611754 0.16726391 0.012473202 0.7739652
000250 5c 00 b0 3e e7 58 e7 3e 40 3c 1c bf 30 7e 5e 3e
       0.34375274 0.45185015 -0.61029434 0.21727824
000260 12 f5 cb be ae 71 47 bb 6d cf 7c 3e 97 8c 70 3e
       -0.3983541 -0.0030432749 0.24688502 0.23491131
000270 74 99 a9 be e7 63 00 bf a2 8b ac be 22 c2 66 3e
       -0.33124888 -0.5015244 -0.3370028 0.22534993
000280 c5 13 3b 3c 3e fb 30 3e 32 ce fa be c7 67 c3 3e
       0.011418288 0.17283341 -0.4898544 0.38165113
000290 7e 03 72 3d 9e e4 05 3f 07 65 ba 3e 85 b1 1f be
       0.05908536 0.5230197 0.36405203 -0.15595062
0002a0 c0 0a 8f be 92 9f a2 ba bd 57 de be 7b d7 9b 3e
       -0.2793789 -0.0012407175 -0.43426314 0.30437836
0002b0 ae 7c 8c bd ba 1d 03 bf ac 6f 35 3e 3d 9e 28 bd
       -0.06859718 -0.51217234 0.1771838 -0.041166533
0002c0 a5 a3 6f 3e c2 37 8d 3e 57 dc 28 be d6 37 a9 3e
       0.23402269 0.27581602 -0.16490303 0.33050412
0002d0 7b 48 26 bf 43 ce 9b 3e cd a0 8e 3e ef a2 3a 3e
       -0.64954346 0.30430803 0.27857056 0.18226217
0002e0 2a 3b f7 3e b8 be 7c 3e 0b 4a d6 3d fc ef 0d 3d
       0.48287326 0.24682128 0.10463341 0.034652695
0002f0 f7 a6 ae 3e 95 32 40 3e cb 59 21 bd c5 f4 03 bf
       0.3411176 0.18769296 -0.039392274 -0.51545364
000300 1a f1 9b bd 78 47 30 be b6 52 4e 3e 22 db d3 3a
       -0.07614346 -0.17214763 0.20148739 0.0016163329
000310 ef 0c 20 3e 20 04 c0 3c 84 35 68 3e 77 49 12 3e
       0.15629934 0.023439467 0.22676665 0.14285837
000320 66 52 01 bd be 77 54 be 2d a4 78 be cc 39 5c 3e
       -0.031572722 -0.20748803 -0.24281378 0.21506423
000330 42 9c b7 be 07 10 3e be 3f 77 35 bd bb 50 98 bd
       -0.35861403 -0.18560801 -0.044303175 -0.07437273
000340 f0 ad 2d bc 39 1d 98 3d 06 89 79 be 81 3b b3 be
       -0.010600552 0.07427449 -0.24368677 -0.35006335
000350 f1 01 49 3e 71 e0 f3 bd a5 17 c3 3d 27 42 84 3c
       0.19629647 -0.11908043 0.09525994 0.016144825
000360 39 53 d0 3e 41 6e e6 3d c3 6a 2a 3e 0e b8 3b 3e
       0.40688494 0.11251498 0.16642289 0.1833193
000370 e0 59 39 be 36 e4 33 3e 3c 7e 3a 3e 3a 02 2f bd
       -0.18100691 0.17567524 0.18212217 -0.042726733
000380 9f e9 b3 bd 3f e6 0c 3e 0b 19 05 be fe 63 39 be
       -0.08784794 0.13759707 -0.12997834 -0.1810455
000390 06 c8 bb bc a4 a3 fc bd c9 52 8b 3e b7 5d 9f 3e
       -0.022922527 -0.123358995 0.27211598 0.31126186
0003a0 72 68 b5 3d bc 61 b6 bd b3 d7 63 3d 78 04 fb 3e
       0.08857812 -0.0890536 0.05562563 0.49026847
0003b0 4d ba 17 3e 83 19 e6 3c a2 f7 10 be f3 10 88 be
       0.14817162 0.028088337 -0.14156964 -0.2657543
0003c0 ac f9 54 3e 82 43 e2 3d e1 da 33 3e e0 93 b2 be
       0.20798367 0.11048032 0.17563964 -0.34878445
0003d0 cf c6 29 3c 03 23 73 be 85 9e 54 3d 28 dd 6a bc
       0.010362341 -0.23743825 0.05190899 -0.014334954
0003e0 a4 1d 82 3d fe 6a 49 be 96 b4 22 be 46 b2 88 3e
       0.0635331 -0.1966972 -0.158892 0.26698512
0003f0 21 91 88 3e 14 b6 c6 bd 79 66 83 3e 36 a6 8f be
       0.26673225 -0.097026974 0.25664118 -0.28056496

weight_hh_l0 f4 [128, 32]
000000 85 6f 56 bd 8d d4 80 3d 73 64 19 be 4f 09 7d 3d
       -0.052352447 0.06290541 -0.14979725 0.061776455
000010 8d d7 14 3d e1 44 03 be bb 4b a4 be 2e c2 61 bc
       0.036338378 -0.12819244 -0.32089028 -0.013779206
000020 f1 95 5e be ec 13 a4 bd 92 51 59 3d 72 4f 3a 3e
       -0.21736886 -0.08011612 0.053056307 0.18194368
000030 6e cc 3c 3e a5 f9 18 3e ac fe db bd ed 50 88 bd
       0.18437359 0.14938982 -0.10741934 -0.0665606
000040 89 b1 ce 3d 26 9a 1e 3d 97 80 8b 3e 8d 48 12 be
       0.10092456 0.038721226 0.27246544 -0.14285488
000050 1c 7b f4 3d eb 0c 34 be e3 04 a7 be a9 48 2c 3e
       0.11937544 -0.17583053 -0.32620916 0.16824593
000060 b7 7f 71 be 21 ec 61 3e 9a 62 2a be 81 ed 31 3e
       -0.23583876 0.22062732 -0.16639176 0.17375757
000070 ec 07 fe 3d e0 2e 33 be 77 a6 30 be 81 c7 e7 bb
       0.12403855 -0.1749835 -0.17251001 -0.0070733433
000080 37 dd 5e 3c 5a aa fe bd 24 fe da be 84 a5 12 be
       0.013602546 -0.12434836 -0.4277202 -0.14320952
000090 6d 82 c7 3d 9f 18 98 3c 03 42 e4 be e8 0c 89 bd
       0.097416736 0.018566428 -0.44581613 -0.06691915
0000a0 0f 7f 8a 3e 34 8d 5a 3e d1 d3 ea 3e fe b9 d8 3b
       0.27050063 0.21342927 0.45864728 0.006613969
0000b0 da 57 c3 bd 22 1e da 3e 67 4a 8c bd 5e 4d 4e be
       -0.09538241 0.42601115 -0.068501286 -0.201467
0000c0 89 4a a4 3d 9a 36 32 3e 68 6a ad 3e 0c 37 f4 3d
       0.08022029 0.17403641 0.33870244 0.11924562
0000d0 20 0a 2b 3e 4a 4c 91 be af 4c 2e be f0 96 fd 3d
       0.16703081 -0.28378516 -0.1702144 0.12382305
0000e0 0e 4f bc 3d 68 78 00 bd cd ef 1b be b5 e9 95 bb
       0.09194766 -0.03136483 -0.15228195 -0.004574979
0000f0 eb 04 b4 3d 42 3c 32 3c f4 53 f8 3d c8 0f e1 be
       0.087900005 0.010878624 0.12125388 -0.43957353
000100 4f c2 d0 bd 43 8d 8d 3e b4 e0 fa 3d e3 f4 ae bd
       -0.101933114 0.27646837 0.1224989 -0.08542802
000110 7b e3 8d be a4 6e 06 be bf 03 36 be ce c6 ed 3d
       -0.27712616 -0.13128144 -0.17774867 0.116101846
000120 bf b7 77 3d ed b3 84 be c6 46 ee bd 16 18 5c 3d
       0.06047797 -0.25918522 -0.11634593 0.053733908
000130 59 ea 1e 3e 1b a3 09 3f c5 fe 89 3e f7 16 ea 3b
       0.15519084 0.53764504 0.26952186 0.007143851
000140 c9 1b 6f 3d 24 37 27 3d 70 63 a8 3d eb 22 87 be
       0.058376107 0.04082407 0.08222091 -0.26393828
000150 13 a0 00 3e fb e0 f4 bd 3e 65 a6 bd eb fe 72 3e
       0.12561063 -0.11956974 -0.08124779 0.23730056
000160 2d d3 99 be fe 12 1d 3d 32 f1 b2 be 2d 62 95 3e
       -0.30043927 0.03834819 -0.34949642 0.29176465
000170 fd 10 a5 be ab c4 23 be 99 7f 9e 3e 38 82 09 bf
       -0.32239524 -0.15992992 0.30956724 -0.53714323
000180 18 1b 07 3e a1 0c de bd 74 6d 73 3e 74 71 b8 bd
       0.13193929 -0.108422525 0.23772222 -0.090060145
000190 f9 e4 17 3e 3c eb 82 3d 3c 2a 5a 3e 01 b7 25 3e
       0.1483344 0.06392524 0.21305174 0.16183092
0001a0 00 c4 95 3e c1 eb d1 3d df 00 7d 3d 6a b7 51 3d
       0.292511 0.102500446 0.06176841 0.051200308
0001b0 eb 06 ae 3d d5 94 9b bd dd 9d c2 bd 13 ab 03 be
       0.08497413 -0.07596747 -0.09502766 -0.12858228
0001c0 c6 dd 48 be c5 e9 b2 be d4 dc 94 bd bf 0b e0 bd
       -0.1961585 -0.34943977 -0.07268682 -0.109397404
0001d0 33 f6 96 bd 95 46 32 3e c7 f2 1f 3e a7 f3 88 bb
       -0.073711775 0.17409737 0.15619956 -0.0041794362
0001e0 fe 83 a9 3c f4 d4 a5 3e e8 df c2 bd 54 e1 e7 3e
       0.020692822 0.32389033 -0.09515363 0.452891
0001f0 a9 5b ed bd a6 da f8 bd 8c bd 61 bd f7 e8 92 bd
       -0.115897484 -0.12151079 -0.055112407 -0.07173341
000200 8c f5 69 be 45 3b 38 3d 13 a8 07 3e 46 71 8a 3e
       -0.22847575 0.0449784 0.13247709 0.27039546
000210 b8 0c f4 bd e2 44 06 3f bc bf c3 3e f6 40 32 3d
       -0.119164884 0.52448857 0.3823222 0.043518983
000220 dc 09 ce 3e a0 3a 4a 3d 69 42 59 be 23 26 ad bd
       0.40241897 0.049372315 -0.2121674 -0.084545396
000230 31 8c fc bd 03 c7 a9 3d 63 8c 7c 3e 2d fa cf bd
       -0.12331427 0.082899116 0.24662928 -0.10155139
000240 2f ac b7 be 4b 1c 48 bf 4e 5b b4 be f3 09 7c 3e
       -0.35873553 -0.7816817 -0.3522591 0.2461317
000250 c8 5e 1d 3d f5 16 b1 3d cc cf 32 3f 06 77 d0 bd
       0.03842047 0.08646957 0.6984832 -0.10178952
000260 0d fc 14 be 3c 73 26 3e 5c a6 d3 be e8 d2 5d 3e
       -0.14549275 0.16254896 -0.4133786 0.21662486
000270 77 21 05 be 9a be 30 3e 9a 0f d5 bc 6a f8 1a 3e
       -0.13001047 0.17260209 -0.026008416 0.15133825
000280 0f 57 b7 bd e4 35 ae bd 65 ed a7 be c2 17 6c be
       -0.08952152 -0.085063726 -0.32798305 -0.23055938
000290 a9 62 1d 3e bd 76 26 3e a8 8c 50 be d9 1c 7a 3e
       0.15369667 0.16256233 -0.20366156 0.24425067
0002a0 02 1f d3 3e ff 62 c9 be 5c 16 fa bd c2 5e a3 3e
       0.41234595 -0.3933334 -0.12211296 0.31908232
0002b0 9c a6 ab 3d 6e 7e e6 3c 97 21 43 3e bc b8 20 be
       0.083813876 0.028136458 0.19055782 -0.1569547
0002c0 34 72 61 be 7a 1c 57 be 94 0e b1 bc 36 40 ed 3d
       -0.22016221 -0.21006957 -0.021613397 0.11584513
0002d0 2a 88 9a bd b7 8c 8d be 8b 58 03 be f4 e4 6d 3e
       -0.075455025 -0.2764642 -0.12826745 0.2323187
0002e0 ce 15 ef 3d ce af 86 3e 97 e9 c4 bd 86 9d c2 3e
       0.11674081 0.26306003 -0.09614866 0.38010806
0002f0 6d 6d a5 bb 9d 0a bd be e3 a8 fb 3e cc bc b3 bd
       -0.005048445 -0.3692216 0.49152288 -0.087762445
000300 8e 08 87 3e 58 1b 8b be 90 83 03 bf ec ff 9e be
       0.26373714 -0.271693 -0.51372623 -0.31054628
000310 00 cc 25 3e 01 a3 6c be 8a ed be 3c a3 03 8e 3d
       0.16191101 -0.23109056 0.023306627 0.069342874
000320 3d 9f a8 3e 22 1b b4 3e 52 ae de 3e 5c 9a 23 3d
       0.3293399 0.3517695 0.4349237 0.03994213
000330 3d 5e d9 bd 43 79 94 3e 61 53 f3 be c3 c2 5c be
       -0.10613678 0.28998765 -0.4752455 -0.2155867
000340 55 00 88 bc 40 2f 83 3e c4 a2 78 3e c5 c8 88 bc
       -0.01660172 0.25621986 0.2428084 -0.016697297
000350 c0 2e fa 3c 62 58 83 3e 43 ea db be 81 3f ae 3a
       0.03053987 0.25653368 -0.42952165 0.0013294072
000360 05 0a 5c 3e 72 02 4c 3d df 37 3c be 11 78 a0 bb
       0.21488197 0.04980702 -0.18380688 -0.0048971255
000370 55 b7 d0 3e 88 7d 38 be 25 6e e5 bd 6d b0 94 bd
       0.4076487 -0.18016636 -0.11202649 -0.07260213
000380 b7 14 91 3e 45 f9 ca 3d 06 29 07 3f 43 98 95 3d
       0.28336117 0.09910826 0.5279697 0.07304432
000390 e1 97 48 3e 07 96 b3 be 9e 4c 7d 3e b0 80 b4 bd
       0.19589187 -0.350754 0.24736258 -0.08813608
0003a0 ac 91 61 bf bc ee fc bd ac dc a7 be fc 03 96 3e
       -0.881129 -0.123502225 -0.32785547 0.29299915
0003b0 84 3e 39 3f 19 ef 32 be 8e 6a 40 3d 67 a3 d6 3e
       0.72361016 -0.17474021 0.04697662 0.4192154
0003c0 7c 06 1d 3e ed 05 ef 3e 51 4d e7 bd 1e 9a 98 bc
       0.15334505 0.4668421 -0.11294044 -0.018628176
0003d0 0e 2d 80 bc a3 c5 3d 3e 8d bc d8 bd 96 5b 21 be
       -0.015646484 0.18532424 -0.10582838 -0.15757594
0003e0 09 f4 35 3d e1 92 77 bd 19 9e 20 3f f8 ee f0 3d
       0.044422183 -0.06044281 0.6274124 0.1176433
0003f0 c1 5e 28 be e7 c8 cd 3d 4a 1f ac bd e4 60 13 3e
       -0.16442396 0.10048085 -0.084044054 0.1439243

bias_ih_l0 f4 [128]
000000 8b d6 08 bd 60 2c 8d bd e3 66 e4 3d f9 66 f4 3d
       -0.03340773 -0.068932295 0.111524366 0.11933703
000010 81 53 59 bc 06 93 0e 3e ad 24 03 3e 3f ef 10 be
       -0.013264538 0.13923272 0.1280696 -0.14153765
000020 ee fe 26 3d 0e 01 0c 3e da 96 5b bd 24 e6 ee bd
       0.040770464 0.13672277 -0.05361066 -0.116649896
000030 2c bf 2a 3d 0c f4 11 3e f9 a0 47 be a2 60 ac 3c
       0.041686222 0.14253253 -0.19495 0.021042172
000040 32 36 9b 3c 95 2b 04 3e 40 e1 8f 3e a4 bb f1 bb
       0.01894674 0.1290725 0.2810154 -0.007377105
000050 45 ec 54 3e 30 02 ff bc b4 cf af bd bf a3 cc bd
       0.20793255 -0.031128973 -0.08584538 -0.099921696
000060 f7 63 4d bb 6d b2 7c bd e8 95 b8 3d f6 d2 1e bb
       -0.0031340101 -0.061693598 0.09012967 -0.002423463
000070 a9 22 04 3e bc f8 98 3d 67 71 80 3e fb 90 ae 3d
       0.12903847 0.07469317 0.2508652 0.085237466
000080 bc 8f 2d 3e cb a7 09 be a5 1a d5 bd 6a 97 c9 bd
       0.16949362 -0.13442914 -0.10405473 -0.09843333
000090 f9 a5 93 3b a0 59 ca 3d 62 98 b1 3d 49 38 5f 3e
       0.0045058695 0.09880376 0.08671643 0.21798815
0000a0 e8 4c 4d 3e 0a 4a b5 3e ae 95 98 3d 3e 72 67 3e
       0.20048869 0.3540805 0.07450424 0.22602174
0000b0 86 5b c8 bd a0 2c 12 3e 01 34 00 bd 57 ee bc bd
       -0.09783082 0.14274836 -0.031299595 -0.09225147
0000c0 77 94 04 bd 08 b2 83 3e 0e 9a a0 3e 1e 6a 1b 3e
       -0.03236815 0.25721765 0.31367534 0.15177199
0000d0 59 61 2f 3e 8a 69 24 3e dc be 0d be fe 7a 39 3d
       0.17126979 0.16055885 -0.13842338 0.04528331
0000e0 d6 3f 9e bc df d3 b1 3d 6a e8 1a 3e e6 78 47 3e
       -0.019317549 0.08682989 0.15127721 0.19479713
0000f0 ef 5e 34 be d2 17 d2 3d ed cf a3 3c f2 ab 01 bc
       -0.1761434 0.102584496 0.019996608 -0.00791453
000100 a0 c4 35 be cf 79 7b 3e 2f 14 4b 3e 3c 71 14 be
       -0.17750788 0.24558185 0.19831918 -0.1449632
000110 45 4e 49 3e 44 5e ec 3d 71 4d c1 3e b9 9f 0f 3e
       0.19658764 0.11541417 0.37754396 0.14025773
000120 0e c0 e6 3d 29 aa 8f bd d2 fa 17 3f fe 76 87 3d
       0.112671 -0.07014877 0.59367096 0.06614493
000130 b8 07 fa 3d 40 33 c0 3e 88 e8 e9 3d 58 90 e4 be
       0.122085035 0.375391 0.11421305 -0.44641376
000140 66 ab fd be 5c 7a 93 be 19 31 83 3e 96 7d 04 be
       -0.4954483 -0.2880429 0.25623396 -0.12938532
000150 1a 6a f8 3d 39 e2 bc be fd 4e 03 3e 20 47 3d 3e
       0.12129612 -0.36891344 0.128231 0.18484163
000160 e4 08 9c be 19 50 7d 3d 92 90 35 3e eb d1 e9 3d
       -0.30475533 0.061843965 0.1773093 0.11416992
000170 2f 01 08 bf 40 c5 d9 3d e4 b5 0f be bf 9d 35 bf
       -0.53126806 0.106333256 -0.1403423 -0.70943826
000180 e6 33 39 bc f2 5f 30 3e 67 41 7a 3e 24 db 3c 3e
       -0.011303877 0.172241 0.24439012 0.1844297
000190 f7 01 2a 3e 94 c2 82 3e f4 53 91 3e 31 06 f0 3d
       0.16602312 0.25539076 0.28384364 0.11719931
0001a0 e3 b1 9b 3d 19 ef b6 3e 40 53 f5 3d dd 7d aa bd
       0.076022886 0.35729292 0.11978769 -0.08324788
0001b0 17 bc 0a bd 44 9a 68 3e 43 63 1f 3d 14 37 da 3d
       -0.033870783 0.22715098 0.038913023 0.106550366
0001c0 3b 23 05 3e 04 98 85 bd 8f 8c 8c 3e 40 f7 43 3e
       0.1300172 -0.06523135 0.27450988 0.19137287
0001d0 b0 60 f9 3b 2a fc 3f 3e 2b 54 4f 3d 19 64 88 bd
       0.007610403 0.18748537 0.05061738 -0.06659717
0001e0 ef fb 7b 3e b1 d4 e0 3c 1f 44 ac 3e e4 62 7c bd
       0.24607824 0.02744517 0.33645722 -0.061617747
0001f0 6a 64 d4 bd 03 f0 8c 3d 40 ba 40 3e 70 61 9f 3c
       -0.10370715 0.06881716 0.18821049 0.019455642

bias_hh_l0 f4 [128]
000000 a5 53 48 3e 0b 21 43 3e d9 da 2a 3d 86 22 4b bd
       0.19563158 0.19055574 0.041712616 -0.04959347
000010 72 6a a5 3d fe 5b 68 3e 3b ca f2 bd 32 68 19 bd
       0.080769435 0.22691342 -0.11854979 -0.037452884
000020 e6 a0 f4 3d bd dd 55 3e 96 14 1b 3e 2c a1 bc 3d
       0.119447514 0.20885368 0.15144572 0.092104286
000030 f3 f6 2c 3d 2c 76 1b 3e f8 a1 0c 3d e3 b1 93 3d
       0.042227697 0.15181798 0.034334153 0.072116636
000040 77 7b 03 bd 8a 98 4c 3d d9 59 43 3e 38 61 56 bd
       -0.032100167 0.04995016 0.19077243 -0.05233881
000050 e8 1b 5a 3e 8f 5e a0 3d 1a 8b 55 3e 98 8f 31 be
       0.21299708 0.078305356 0.20853844 -0.17339933
000060 a3 8c e1 bd 05 54 14 be 65 b4 5e 3d f4 ed c9 bd
       -0.110131525 -0.14485176 0.054371256 -0.09859839
000070 15 99 1e 3e 0b 8d ca 3d 23 62 e1 3d 2c e6 e9 3d
       0.15488084 0.09890183 0.11005046 0.11420855
000080 ed 88 10 3d db 52 b1 3d 37 c6 a2 3c 7c c4 c3 3b
       0.035286833 0.086583816 0.019869907 0.0059743505
000090 e8 6a 74 3c 1f 64 8b bd fc 0d 15 bd 82 6b 93 bd
       0.014918067 -0.06806206 -0.03639029 -0.0719824
0000a0 dc 7d 7a bd f3 98 33 3e 58 b7 df bb 57 4e f6 3d
       -0.061155185 0.17538814 -0.006827276 0.12026661
0000b0 86 56 3f 3d c5 94 1f 3e d2 3f 40 be 3b 2a 2a be
       0.046713375 0.15584095 -0.18774346 -0.16617672
0000c0 04 c3 0f 3d 25 ad 3c bb a7 b8 2c 3e e6 0b 11 bd
       0.03509809 -0.0028789726 0.16867314 -0.035411738
0000d0 d2 9a 27 3e fa 60 ab 3d 4a 25 d2 3b fa 7d d1 bd
       0.16367653 0.08368106 0.0064131366 -0.10229106
0000e0 53 b0 a7 3b 33 e5 06 3e da f6 7d 3d 42 e9 c5 bc
       0.005117455 0.1317337 0.062002994 -0.024159078
0000f0 89 ba b6 3c 5c ae b7 bd a4 db cb bd 8e 18 2d 3e
       0.022305744 -0.08968803 -0.099540025 0.16903898
000100 c1 53 e9 3a 9f ec 86 3e 8b 64 1d 3c b4 ef e4 bd
       0.001780145 0.26352403 0.009606491 -0.11178532
000110 73 48 8a 3e d5 d0 af bd 29 81 31 3e 21 f0 0e 3e
       0.270084 -0.085847534 0.17334427 0.1395879
000120 d6 9c 17 be af 2b 1c 3e 5c c2 04 3f 0c a3 31 3e
       -0.14805922 0.15251039 0.5185907 0.17347354
000130 df 6c aa 3d 03 84 e5 3e b0 02 bb 3d 7b e5 ad be
       0.08321547 0.4482728 0.09131372 -0.33964142
000140 19 27 d0 be a9 57 ef bd 70 ee dc bc 0b 5b 00 bd
       -0.4065483 -0.11686642 -0.026969165 -0.031336825
000150 fd 4c 2c 3e e9 89 a7 be a7 06 85 3e 9a d0 f6 3d
       0.16826244 -0.32722405 0.25981638 0.12051506
000160 5b 60 76 be 4c 9a 91 3e 03 47 dc bc 09 6f 05 3e
       -0.24060194 0.28438032 -0.02688933 0.13030638
000170 ca 13 2e bf d9 99 8a 3d 47 6f ad 3d ae 95 63 bf
       -0.67998946 0.06767625 0.0846849 -0.8890027
000180 a5 93 81 3e 2c c5 17 3e 30 3f 13 3e 41 b4 a7 bd
       0.25307956 0.14821309 0.14379573 -0.081886776
000190 69 82 ea bb 22 84 89 3e 2e f2 55 3e 7b 81 43 3e
       -0.0071566594 0.26858622 0.20893165 0.19092362
0001a0 db e8 f3 3d 0b 73 bd 3e 2c 28 85 3d 56 e7 7f bd
       0.11909648 0.37001833 0.06501803 -0.06247648
0001b0 2d e8 d4 bc 2b c2 b0 3d 96 55 d6 3d 55 a3 55 3e
       -0.025989616 0.086307846 0.10465543 0.20863087
0001c0 66 64 8e 3e f2 51 e0 bb 25 47 57 3d 08 e7 34 3e
       0.27810973 -0.006845706 0.052558083 0.17666256
0001d0 8f 95 1c bc 95 65 2d bb 8c 98 2f 3e 7e 77 61 3e
       -0.009557142 -0.0026458253 0.17148036 0.22018239
0001e0 3a d5 f7 3d 0f f5 1c 3e e2 92 ff 3d 84 81 fd 3d
       0.121012166 0.15327857 0.124791875 0.12378219
0001f0 a6 ee 2f 3e 10 46 0b 3e 3f 7d e7 3d 17 5f ac 3d
       0.17180881 0.13600945 0.11303186 0.084165744

weight_ih_l0_reverse f4 [128, 2]
000000 8a ed 9f 3e dd 56 45 3e 2f 8d 24 3d b9 8a ae 3c
       0.31235915 0.19271417 0.040173706 0.021306382
000010 d5 00 ee bd 29 61 1d be 58 a8 cd 3e 2a 1e aa 3e
       -0.116212524 -0.15369095 0.401675 0.33226138
000020 10 a0 66 be c2 7f 0e 3d cb f0 7b 3c b9 59 53 be
       -0.22521996 0.034789808 0.015377234 -0.20639695
000030 15 e5 d9 be 12 c9 f4 be 5c 55 bc 3e 41 ae cc be
       -0.42557588 -0.47809654 0.36783874 -0.39976695
000040 00 83 54 3e 50 d8 36 bf 5b 2d f9 be 9a 1b da 3e
       0.20753098 -0.71423817 -0.48667416 0.42599183
000050 ff 06 f0 be 6d 83 b4 3e 1f 3a c4 3e 7d 2b 09 3b
       -0.46880338 0.3525652 0.38325593 0.0020930462
000060 cc 7c c6 be 33 5d c3 bd 2e 62 ca be 8e 61 82 bd
       -0.38767087 -0.09539261 -0.3952803 -0.06366263
000070 1c f7 48 3f 7a e9 0e bf f6 aa b3 3e 55 6d 03 3e
       0.7850206 -0.55825007 0.3509137 0.12834676
000080 4b b5 f5 bd a4 24 16 be 6b 6e 3c 3e 1b 78 d8 3e
       -0.119974695 -0.14662415 0.18401496 0.42279133
000090 fd 73 4f 3c ea 2c 47 be 05 3e a6 3c 4b 5f 28 3e
       0.012661931 -0.19450727 0.020293245 0.16442601
0000a0 33 41 93 3b e9 f3 3e 3e 85 0e f5 3e 0a 5a 99 3e
       0.0044938563 0.18647732 0.4786264 0.29951507
0000b0 18 2a 94 bd 23 5b 0c 3e 13 93 e8 bd a3 0b e3 bd
       -0.07234591 0.13706641 -0.11356177 -0.11086204
0000c0 f6 89 80 bf 81 66 ad bd 4b e5 3f bf c7 99 ab be
       -1.0042102 -0.08466817 -0.7495925 -0.3351576
0000d0 0f 1e 2d bf a4 b5 5c be a9 01 88 bd c5 b2 27 3e
       -0.6762399 -0.21553665 -0.06640942 0.16376789
0000e0 e9 f4 e1 3e 21 3c a9 be 6d 81 fc bd 6c 20 2e 3e
       0.44132164 -0.33053687 -0.123293735 0.17004555
0000f0 ae 63 96 be 9d 3d 12 3e 55 01 0e bf 84 15 d0 be
       -0.29372925 0.14281316 -0.5547078 -0.40641415
000100 42 e7 93 3e 49 94 f8 3e 0b a3 98 3d 1a 03 02 3c
       0.28887373 0.48550633 0.07452973 0.00793531
000110 34 f3 2b be 92 ca b1 be a2 83 ac 3e 64 14 d4 3e
       -0.16791993 -0.3472486 0.33694178 0.41421807
000120 6c 9e 83 be 31 09 8c 3d a9 09 cc 3e 3c c0 22 be
       -0.25706804 0.068376906 0.3985112 -0.15893644
000130 08 f0 fa be 36 84 e9 be 9b 47 d3 3e 68 c2 5b be
       -0.49011254 -0.4560868 0.41265568 -0.21460879
000140 a3 48 a1 3e 63 d1 3a be 3b 50 98 be d1 5f 4d 3e
       0.3150073 -0.18243937 -0.2974871 0.20056082
000150 5a 12 18 bd 43 ec bf 3d a0 84 82 3e e1 f2 3b bd
       -0.037126876 0.09371235 0.2549181 -0.045885924
000160 ea 87 1a be a4 9d 89 bd c0 1b 83 be dd 18 d8 bc
       -0.1509091 -0.06719521 -0.2560711 -0.026379043
000170 0b c1 14 3f bb f7 02 bf 27 0e e0 3e c1 c4 34 3e
       0.5810706 -0.51159257 0.43760797 0.1765318
000180 82 90 3b be b4 1a 70 bd 31 67 fa bd cf 53 bd 3e
       -0.18316844 -0.058619216 -0.122267134 0.36978003
000190 da 74 14 be d2 7a db bd 77 d1 8d be 3f 03 05 3e
       -0.144977 -0.107167855 -0.27698871 0.1298952
0001a0 65 58 39 bc 9c 1e 2b 3e 2b e2 8c 3e 0b f7 bd 3d
       -0.011312579 0.16710895 0.27516302 0.09275635
0001b0 09 42 b5 bd f8 52 3b bc 94 f3 0c bf ec c7 70 be
       -0.08850486 -0.0114333555 -0.5505917 -0.23513764
0001c0 f5 21 01 bf 11 8d 95 bd 5a 96 57 be be cd a0 be
       -0.5044244 -0.07302297 -0.21053448 -0.3140697
0001d0 5d 94 8d be 4a 18 39 be 4d 77 ab 3d 84 00 8a bd
       -0.27652255 -0.18075672 0.08372364 -0.067383796
0001e0 6c a8 0b 3e 15 db 9d bd d3 4c ca bd c5 03 68 3e
       0.13638467 -0.07707802 -0.09877934 0.22657688
0001f0 1c fe a6 be ac 27 49 3e 7b cd 14 3e 7c 2f ed be
       -0.32615745 0.1964404 0.1453151 -0.4632529
000200 6d b1 ab be d0 c2 87 be 76 16 3c 3e 53 2f cb 3e
       -0.33533803 -0.26515818 0.18367943 0.39684543
000210 11 a5 86 3e 05 6d fa 3d 16 db ac be 71 1c 98 be
       0.2629781 0.12227825 -0.337609 -0.297092
000220 18 da 91 3e c9 88 e2 3e ee c0 82 3e 3c 40 ab bd
       0.28486705 0.44244984 0.2553782 -0.08361861
000230 db d3 94 be 8f fa c8 be b8 b8 d4 be 2e 7e 46 3e
       -0.29067883 -0.3925366 -0.4154718 0.19384071
000240 57 cf eb bc 5a fc 44 bf 72 68 2a be 65 0a 00 3f
       -0.02878539 -0.7694756 -0.16641405 0.5001586
000250 53 d6 f5 3e 42 bd 7f be 39 86 ff 3e de 54 aa bd
       0.4801508 -0.2497454 0.4990709 -0.083169684
000260 ae 28 b3 3e 6b b6 8d 3d a7 57 df 3e fd 24 f5 bd
       0.34991974 0.06919559 0.4362156 -0.119699456
000270 57 ce d6 3d 3e 76 bc be 7c f3 7a 3e 69 fa ab 3d
       0.10488575 -0.36808962 0.24506944 0.08397371
000280 ae e5 9e bd f1 5d 1d 3f c0 46 a2 3e db 95 4c 3f
       -0.07758652 0.6147147 0.31694603 0.7991616
000290 4a 67 05 3e 27 93 da be 01 98 27 bf 9d fd 92 3e
       0.13027683 -0.42690393 -0.65466315 0.28709117
0002a0 2f f6 a0 be 6f b7 11 bd 13 b1 d1 be d6 9c dd bd
       -0.31437823 -0.035575327 -0.4095541 -0.1082093
0002b0 f6 bc 8e be 84 21 30 3e ec 77 30 3e b3 b4 8f 3e
       -0.2787854 0.17200285 0.17233247 0.2806755
0002c0 e1 ba e4 be 52 1a 8a 3e 9f eb 0c 3f 32 39 e0 3e
       -0.44673827 0.26973206 0.5504703 0.43793637
0002d0 1a 21 c9 be a5 d9 e4 bd 44 30 14 be 68 f1 9f be
       -0.39283067 -0.11174325 -0.14471537 -0.31238866
0002e0 a1 f0 d9 be 59 b5 7b 3e e0 c3 ac 3e 41 c5 60 3d
       -0.42566398 0.24580897 0.3374319 0.054875616
0002f0 5f df 4c 3e 5a 13 9a be 21 dd 3e 3e 6c f6 87 be
       0.20007084 -0.3009289 0.18639041 -0.26555192
000300 26 e3 b8 3e 0f e4 96 3e f8 ba 0e 3d 5c f4 01 bd
       0.361108 0.2947087 0.034846276 -0.03172718
000310 70 7c 98 bc 4b d8 6b be dd 9e 6f be ff c3 75 3c
       -0.018614024 -0.23031728 -0.23400445 0.015000342
000320 27 f0 ae be 08 04 1f 3e 45 ab f1 3c 76 7d da bc
       -0.34167597 0.15528882 0.029500613 -0.026671153
000330 ff 14 09 bf 76 54 ba be b9 ad 08 3f be 6c 01 bf
       -0.5354766 -0.36392564 0.5339008 -0.5055655
000340 1e 8d 4c be 8a e3 19 bf 77 83 af be a9 54 92 3d
       -0.19975707 -0.6011282 -0.34279987 0.07145054
000350 8a 20 89 be 82 11 1b 3e b0 87 04 3f ca 49 14 be
       -0.26782638 0.15143397 0.5176954 -0.14481273
000360 65 e4 7e be 85 4e 66 be fb 68 6a be ad 07 14 3e
       -0.24891813 -0.2249089 -0.2289161 0.14456053
000370 dd 6d 93 3f b0 db 29 bf 70 e0 ca 3e ca 31 e0 3d
       1.1517903 -0.6635084 0.39624357 0.109469965
000380 c2 97 60 3d 86 87 8d 3b b7 eb 07 3c 73 65 da 3d
       0.054832228 0.004319134 0.008295945 0.10663881
000390 0b b8 ed bd 43 78 87 3c ef 22 1e be 3d fc a5 3e
       -0.11607369 0.016536837 -0.15443014 0.32419005
0003a0 02 ee 95 3e 2f 39 85 bd 83 6d 7d 3e af 5e c9 3e
       0.29283148 -0.065050475 0.24748807 0.3933005
0003b0 3d 79 da 3d d1 a0 05 bd b2 47 ce be 11 02 de bd
       0.106676556 -0.03262407 -0.40289074 -0.10840238
0003c0 0b 30 f5 be 6b c0 55 3d bb 8d 36 be f6 b1 b2 be
       -0.47888216 0.052185457 -0.17827503 -0.34901398
0003d0 23 09 6d bf ef 28 5e be 69 e4 ee 3d b5 eb 1c 3e
       -0.92592067 -0.21695302 0.116646595 0.1532429
0003e0 70 9b 64 3f 55 4a ea be 56 b3 6b be 2e 20 94 bd
       0.8929968 -0.45759836 -0.2301763 -0.072327
0003f0 44 9d 84 be 5d af 61 3e 7f 83 65 be a7 bc 12 be
       -0.25901234 0.22039552 -0.22413443 -0.14329778
