experiments/pedestrians/models/models_14_Feb_2024_17_26_50_eth_vel_ar3/model_registrar-81.pt (torch, 527902 bytes, 43 tensors)

weight_ih_l0 f4 [128, 6]
0.099735945 0.12242265 -0.3156368 -0.12516837 -0.12648608 -0.043756623 -0.2104968 -0.41640842
-0.0615946 0.20181239 0.1748343 -0.23198432 0.06899094 0.01319304 -0.33953777 -0.26325122
-0.30056688 -0.061137486 0.17384997 0.17934585 0.13086769 0.048494417 0.11421774 -0.02139881
-0.04401684 0.08782295 -0.25051233 -0.35294095 1.0800562 -1.8495334 0.22898652 0.13034602
0.31666216 -0.12299088 0.47736433 -0.36436528 -0.4033982 0.124508284 0.24793252 -0.30227473
0.07940202 -0.25478968 -0.38011104 -0.03862474 0.5719979 -0.151434 0.14727679 -0.18691374
0.27626637 0.22287221 0.634997 -0.47034568 0.42055315 -0.1771195 -0.10162327 -0.2532494
0.12192497 0.3863436 0.099788845 -0.18478909 0.12657195 -0.2987725 -0.44051433 0.499684
-0.0012319427 0.15530732 0.013249688 0.13019955 -0.5161956 -0.1170984 -1.4695412 -0.78902555
0.009431162 -0.004036083 -0.27084103 0.30168313 0.09145847 -0.028854009 -0.13304624 0.05871525
0.48610646 0.34079877 0.45023337 0.32268575 0.069199696 -0.016680408 -0.877704 0.006618193
-0.5583549 -0.11707788 -0.36647117 0.1719842 0.64989245 0.038635395 -0.18866523 0.59656703
0.25616792 -0.05527107 -0.5770404 0.39989036 -0.63942623 0.09172675 0.13728508 -0.20592146
-0.21747868 0.23903543 0.049008198 0.118679754 0.18041712 -0.26974615 -0.24274024 0.5665082
0.019664997 0.92312974 0.06623581 0.06772582 -0.45980418 0.04106101 -0.10413221 0.3823238
-0.40905306 0.39376882 0.635831 -0.52347785 0.30260685 -0.035088874 0.08400124 0.31433696
0.036572706 -0.4048731 0.015092779 0.097015 -0.24178925 -0.4515795 0.15234652 0.14906023
0.28946435 0.115140036 -0.07539167 0.116033874 0.17643936 -0.21919991 0.06776154 -0.095128216
0.19298744 -0.028092321 -0.34545094 -0.23268792 -0.21276432 -0.20797394 -0.43747592 -0.19578254
0.07562641 0.20546322 0.20680858 0.028964765 0.056425817 0.35081702 -0.7549145 -0.7810927
-0.36796016 0.1018044 -0.19516279 0.10765732 0.62451136 0.53592366 1.071893 1.1842415
0.24034789 -0.107229546 -0.3372557 0.30261624 0.14802216 0.15069753 -0.3541094 0.07097735
0.18013228 -0.4681161 0.23997945 -0.1764346 -0.19494839 -0.18991745 0.34035432 0.094552346
-0.016435841 -0.3591458 -0.08353633 0.08719152 0.005920696 0.17336388 -0.22166426 -0.01483009
0.1270731 0.1314595 -0.2176904 -0.1444145 -0.15920123 -0.11793597 -0.020550998 -0.1959347
0.072357945 0.09929674 0.12305653 -0.19492412 -0.117027715 -0.061538845 -0.018323543 -0.052605543
-0.17213045 0.109845445 0.124445476 0.05912249 0.14355648 -0.1722015 -0.014168298 0.0053888354
0.04962405 -0.07524683 0.18969055 -0.18165714 0.4394136 -0.021604588 0.25658125 -0.091253735
0.1724031 -0.2225851 -0.25604737 0.012458366 -0.07886671 -0.04197153 0.20010431 -0.15080717
-0.18929006 0.12142596 -0.12109787 -0.18344818 0.2676776 -0.09788715 -0.0028030702 -0.24035233
0.35557958 0.0039138338 0.028738996 -0.2002188 -0.041961007 -0.08892216 -0.18928556 -0.008219931
0.3752779 0.15169191 0.19738461 0.024688708 0.12811905 -0.30150372 -0.16955273 0.32323208
00000000: 5c42 cc3d bab8 fa3d 269b a1be 232c 00be
00000010: 9185 01be 253a 33bd 798c 57be 7c33 d5be
00000020: 9f4a 7cbd e8a7 4e3e c307 333e 4c8d 6dbe
00000030: 1f4b 8d3d 9f27 583c e5d7 adbe ddc8 86be
00000040: e7e3 99be 4d6b 7abd ba05 323e 70a6 373e
00000050: 2e02 063e 15a2 463d feea e93d 8f4c afbc
00000060: 014b 34bd 85dc b33d 2743 80be adb4 b4be
00000070: 483f 8a3f 83bd ecbf 717b 6a3e 6d79 053e
00000080: 8b21 a23e a4e2 fbbd 1969 f43e 168e babe
00000090: 358a cebe 33fe fe3d 06e2 7d3e c1c3 9abe
000000a0: 879d a23d cb73 82be ea9d c2be fa34 1ebd
000000b0: 746e 123f 8411 1bbe bacf 163e 5166 3fbe
000000c0: c972 8d3e 9d38 643e 2a8f 223f 26d1 f0be
000000d0: be52 d73e d05e 35be dc1f d0bd e8a9 81be
000000e0: ccb3 f93d d4ce c53e 185e cc3d 5a39 3dbe
000000f0: 149c 013e b6f8 98be 188b e1be 95d6 ff3e
00000100: 2379 a1ba e208 1f3e 3815 593c 0853 053e
00000110: 6525 04bf 49d1 efbd ed19 bcbf 94fd 49bf
00000120: 2985 1a3c 1e41 84bb adab 8abe 3676 9a3e
00000130: 944e bb3d 3e5f ecbc 463d 08be 677f 703d
00000140: f2e2 f83e 2d7d ae3e fd84 e63e 1137 a53e
00000150: 92b8 8d3d 5aa5 88bc 36b1 60bf 6ddd d83b
00000160: 59f0 0ebf 87c6 efbd 1ca2 bbbe a01c 303e
00000170: 5a5f 263f 2640 1e3d 7531 41be 9eb8 183f
00000180: 7128 833e eb63 62bd ebb8 13bf 6ebe cc3e
00000190: 70b1 23bf 3cdb bb3d 7694 0c3e 13dd 52be
000001a0: bbb2 5ebe b4c5 743e d2bc 483d 5f0e f33d
000001b0: 44bf 383e 2b1c 8abe e690 78be ae06 113f
000001c0: 7d18 a13c 3b52 6c3f a4a6 873d d6b3 8a3d
000001d0: 746b ebbe 972f 283d 4543 d5bd f2bf c33e
000001e0: 676f d1be 119c c93e d2c5 223f a502 06bf
000001f0: 49ef 9a3e 5ab9 0fbd d808 ac3d c6f0 a03e
00000200: 43cd 153d 874b cfbe b447 773c cdaf c63d
00000210: 9a97 77be 6e35 e7be ba00 1c3e 3fa3 183e
00000220: ac34 943e 8ace eb3d f366 9abd 2ba3 ed3d
00000230: 85ac 343e f175 60be 90c6 8a3d 95d2 c2bd
00000240: 809e 453e de21 e6bc f2de b0be be45 6ebe
00000250: e4de 59be 1ff7 54be d8fc dfbe 387b 48be
00000260: 05e2 9a3d f364 523e a1c5 533e 8447 ed3c
00000270: c21e 673d 4a9e b33e 1442 41bf b1f5 47bf
00000280: 4665 bcbe d37e d03d c1d8 47be 717b dc3d
00000290: fadf 1f3f 4b32 093f ca33 893f 3a95 973f
000002a0: c21d 763e 2a9b dbbd c7ac acbe 84f0 9a3e
000002b0: 1f93 173e 7450 1a3e d44d b5be 935c 913d
000002c0: 9974 383e eaac efbe 2cbd 753e 46ab 34be
000002d0: 8da0 47be b879 42be ec42 ae3e a9a4 c13d
000002e0: 75a4 86bc f5e1 b7be 1815 abbd 7891 b23d
000002f0: 6602 c23b 4d86 313e f5fb 62be e8f9 72bc
00000300: 731f 023e 529d 063e 3bea 5ebe 65e1 13be
00000310: a605 23be 6a88 f1bd 915a a8bc 1ba3 48be
00000320: 6730 943d 175c cb3d 1005 fc3d 309a 47be
00000330: 3aac efbd 2810 7cbd 411b 96bc e978 57bd
00000340: f742 30be a6f6 e03d 45dd fe3d 6d2a 723d
00000350: 7800 133e 9755 30be 2622 68bc d494 b03b
00000360: 9642 4b3d 031b 9abd 3d3e 423e 5404 3abe
00000370: d2fa e03e 1bfc b0bc 9e5e 833e 3de3 babd
00000380: 708a 303e 59ed 63be a418 83be 2d1e 4c3c
00000390: df84 a1bd 57ea 2bbd 25e8 4c3e 326d 1abe
000003a0: 41d5 41be 2cae f83d 2902 f8bd d7d9 3bbe
000003b0: 0a0d 893e 0f79 c8bd b7b3 37bb ec1e 76be
000003c0: 870e b63e 9e3f 803b 0b6e eb3c 2806 4dbe
000003d0: 4edf 2bbd d21c b6bd 13d4 41be e4ac 06bc
000003e0: 6d24 c03e 2055 1b3e 311f 4a3e f93f ca3c
000003f0: a431 033e b25e 9abe 3b9f 2dbe ad7e a53e

weight_hh_l0 f4 [128, 32]
0.045387976 -0.23113394 0.029146822 0.097535506 -0.06294271 -0.027918676 -0.08295121 -0.1489137
0.010679541 0.25329936 -0.14531146 0.093874656 -0.15492418 0.23434101 0.1636879 0.085786164
0.20246124 -0.16834721 -0.016532874 0.023950888 -0.21623671 -0.10144697 -0.075931236 -0.27380028
0.27199876 0.03284016 -0.13501814 0.34022304 0.15844877 0.01575735 0.1847994 -0.11807318
0.105327055 -0.2620864 0.08960628 -0.103215195 -0.016654296 0.19969736 -0.074686356 -0.19272922
0.055542186 0.117336415 -0.40449718 -0.077311 -0.26723194 0.17715813 0.058848668 -0.14170527
0.28751028 0.105736755 -0.21337502 0.018827118 -0.054429714 -0.1622714 -0.18759327 -0.16886117
0.14694051 0.08737928 -0.16073562 -0.03246948 -0.0034774311 0.0811659 0.22945856 -0.10600033
0.09179476 -0.1224142 -0.1161396 0.11881933 0.09327459 0.11509555 -0.14450426 -0.16695197
-0.074312665 0.20857298 -0.276815 0.00974232 -0.05030939 -0.14230944 0.08108446 -0.111561395
0.16018002 -0.15212198 0.17209652 -0.12551884 0.03292596 0.063077964 0.124275066 0.14495802
0.27096587 0.11744488 0.15194085 0.11115316 0.10075756 0.1098652 -0.07696189 0.041881412
-0.16320616 -0.04735422 -0.044077735 0.05802488 -0.14036351 0.022834197 -0.085191354 0.022302903
-0.06699866 0.18775958 -0.36897233 -0.10967223 -0.020253064 -0.07140375 -0.12390129 -0.17591974
0.086766705 -0.012453618 -0.2547082 -0.044421215 -0.07037837 -0.009171379 0.014939306 -0.0245284
0.14058729 0.13158765 -0.09038397 0.22457889 0.09141432 0.117219836 0.27845314 -0.11307686
-0.06925844 -0.08130677 0.12650588 -0.07373989 0.06409308 0.19573802 -0.22691503 0.2679744
0.35755223 -0.084643304 -0.31759804 -0.24512117 0.3607283 0.19112463 0.076524176 -0.047955055
-0.32171053 -0.55658776 0.24269648 0.034153827 0.17798403 0.38187352 0.070712656 0.13715668
0.13428514 -0.32671878 -0.009991809 -0.53867567 -0.06920671 0.14415951 0.1985953 -0.31351122
0.10251768 -0.24924485 0.07225876 -0.13749607 -0.019237423 -0.11477203 0.25281796 -0.27489808
-0.09355795 -0.0077139665 0.25563434 0.009809038 -0.22258177 0.075514875 -0.0128678745 -0.03566525
-0.12915796 0.24499045 -0.13657415 0.2413497 -0.09382785 -0.032832168 0.13632104 -0.231714
0.13252611 0.0977029 0.18356119 0.10983709 0.031677514 -0.090400614 0.19521464 0.22998188
0.12484597 -0.06324644 -0.20602645 0.14003487 -0.025760239 -0.09035698 0.2938852 -0.3278615
-0.15496105 0.11213815 -0.064808786 -0.08119531 0.032024354 0.31236586 0.088079184 0.0025784299
-0.004909312 -0.09166652 0.0192571 -0.01998676 -0.12531067 0.2977594 0.21251082 -0.12739424
-0.03956594 0.2531033 0.08049491 0.17600337 -0.15591434 -0.030604105 -0.025191808 0.116729036
0.1381395 -0.2891243 0.05263197 0.15164822 -0.26866975 -0.053344037 0.29805654 -0.16551448
-0.0679422 -0.037999835 0.16644338 0.026778372 -0.09263567 -0.04266579 -0.0030859255 0.049755834
0.048027895 0.18266362 -0.10378141 0.015504088 -0.45252618 0.110135056 -0.054436814 -0.40273857
0.22335987 0.46146742 -0.22472234 0.2025204 0.0763118 -0.049582522 0.075054064 0.36074436
00000000: bee8 393d 60ae 6cbe 51c5 ee3c b2c0 c73d
00000010: 1ce8 80bd b5b5 e4bc 53e2 a9bd d57c 18be
00000020: 3ef9 2e3c 74b0 813e 87cc 14be 5b41 c03d
00000030: 72a4 1ebe 17f7 6f3e cd9d 273e a8b0 af3d
00000040: 0052 4f3e 3663 2cbe f36f 87bc a734 c43c
00000050: 286d 5dbe 6ec3 cfbd d681 9bbd 8d2f 8cbe
00000060: 6c43 8b3e 6783 063d 3242 0abe b731 ae3e
00000070: 6540 223e 8f15 813c 0e3c 3d3e 5ad0 f1bd
00000080: b6b5 d73d 3030 86be 7f83 b73d 7d62 d3bd
00000090: 976e 88bc 777d 4c3e 29f5 98bd cf5a 45be
000000a0: 3480 633d 134e f03d 411a cfbe 3b55 9ebd
000000b0: a0d2 88be f168 353e 4d0b 713d 301b 11be
000000c0: 8c34 933e 838c d83d fb7e 5abe 543b 9a3c
000000d0: b1f1 5ebd 792a 26be 7318 40be f1e9 2cbe
000000e0: 9377 163e e8f3 b23d e197 24be b8fe 04bd
000000f0: 9de5 63bb 4f3a a63d 2ff7 6a3e b316 d9bd
00000100: e4fe bb3d 4cb4 fabd 99da edbd 8d57 f33d
00000110: c006 bf3d 37b7 eb3d edf8 13be 75f5 2abe
00000120: 3d31 98bd 2894 553e b2ba 8dbe 409e 1f3c
00000130: 3811 4ebd 91b9 11be 9c0f a63d 4d7a e4bd
00000140: 3b06 243e ddc5 1bbe 123a 303e 0388 00be
00000150: 5fdd 063d 052f 813d ed83 fe3d e06f 143e
00000160: 0abc 8a3e f186 f03d 6296 1b3e 45a4 e33d
00000170: fb59 ce3d 0201 e13d 329e 9dbd d88b 2b3d
00000180: 841f 27be 80f6 41bd db8a 34bd 7fab 6d3d
00000190: 74bb 0fbe c80e bb3c ce78 aebd 94b4 b63c
000001a0: 9836 89bd 0c44 403e f1e9 bcbe d69b e0bd
000001b0: c1e9 a5bc 213c 92bd f6bf fdbd 4e24 34be
000001c0: beb2 b13d 430a 4cbc 1d69 82be 05f3 35bd
000001d0: 8922 90bd 8d43 16bc fec3 743c c8ef c8bc
000001e0: 1df6 0f3e eabe 063e 3b1b b9bd 02f8 653e
000001f0: 6e37 bb3d f410 f03d 6991 8e3e d794 e7bd
00000200: 5ed7 8dbd 2a84 a6bd c28a 013e f004 97bd
00000210: 3c43 833d 8c6f 483e 6a5c 68be f133 893e
00000220: 1611 b73e 7859 adbd 369c a2be 0b01 7bbe
00000230: 61b1 b83e 2db6 433e b5b8 9c3d 856c 44bd
00000240: 3eb7 a4be 897c 0ebf 6d85 783e e2e4 0b3d
00000250: 7241 363e ed84 c33e ccd1 903d cd72 0c3e
00000260: 0b82 093e af47 a7be afb4 23bc a6e6 09bf
00000270: 3fbc 8dbd 8d9e 133e 915c 4b3e 8b84 a0be
00000280: caf4 d13d 0b3a 7fbe 67fc 933d c5cb 0cbe
00000290: cd97 9dbc 990d ebbd 5b71 813e 71bf 8cbe
000002a0: 4f9b bfbd 71c5 fcbb 81e2 823e 16b6 203c
000002b0: 7aec 63be 8ba7 9a3d c7d3 52bc ba15 12bd
000002c0: fc41 04be c7de 7a3e 18da 0bbe 6024 773e
000002d0: d128 c0bd 067b 06bd be97 0b3e 6f46 6dbe
000002e0: edb4 073e 7518 c83d 77f7 3b3e 45f2 e03d
000002f0: 48c0 013d f523 b9bd 59e6 473e 5f80 6b3e
00000300: 3eaf ff3d 5987 81bd 99f8 52be 4d65 0f3e
00000310: 2307 d3bc 150d b9bd 1f78 963e 76dd a7be
00000320: 1cae 1ebe b0a8 e53d 78ba 84bd ba49 a6bd
00000330: f82b 033d 6bee 9f3e dc62 b43d e0fa 283b
00000340: 4bde a0bb a8bb bbbd 11c1 9d3c 46bb a3bc
00000350: 7151 00be ec73 983e 709c 593e a373 02be
00000360: e50f 22bd c196 813e 84da a43d 3a3a 343e
00000370: 02a8 1fbe 76b5 fabc 0d5f cebc a20f ef3d
00000380: 7174 0d3e 1a08 94be 9f94 573d ac49 1b3e
00000390: 158f 89be 477f 5abd de9a 983e a17c 29be
000003a0: 4825 8bbd b7a5 1bbd 2270 2a3e 515e db3c
000003b0: c5b7 bdbd 53c2 2ebd 3d3d 4abb c6cc 4b3d
000003c0: e6b8 443d 2c0c 3b3e 598b d4bd dc04 7e3c
000003d0: 83b1 e7be 7d8e e13d 23f9 5ebd c033 cebe
000003e0: 73b8 643e 7545 ec3e 9d1d 66be 8261 4f3e
000003f0: 5c49 9c3d 0b17 4bbd f2b5 993d 7cb3 b83e

bias_ih_l0 f4 [128]
0.039702874 0.06582046 0.015997235 -0.06961087 -0.13207471 0.16803233 0.07588514 -0.17732842
-0.026941549 0.06358393 0.25943273 0.10912302 0.1820097 -0.08642339 0.09031555 -0.09080968
-0.02615534 0.15885088 0.0032570418 0.12534899 0.14916754 -0.0011554584 0.12729949 -0.06235715
0.11434343 0.10905816 -0.021502212 0.02538259 -0.021789473 0.0022428224 -0.08242894 0.1574631
0.103950195 -0.26563683 -0.23334914 0.02985589 -0.028001888 -0.17153646 -0.26173142 -0.16106285
-0.2228903 -0.08693679 -0.21450393 0.0024473616 -0.16792056 0.17121434 -0.047431987 -0.13179137
0.023824662 -0.05792796 -0.19949363 0.07928118 -0.3016525 -0.08473376 0.004654549 -0.028630977
-0.10090324 0.14568461 0.06345843 0.10772703 -0.041774716 -0.27595577 -0.27372348 -0.27969593
0.13857743 0.1308292 -0.068993114 0.031171206 -0.10020389 -0.00077964074 0.09791895 -0.039788287
-0.061100807 0.06980304 -0.07454895 0.025868481 -0.09064876 -0.019300088 -0.025311429 -0.09280883
-0.06828643 -0.12019347 0.087153755 -0.0074618645 0.06766919 0.054862387 0.100895785 -0.12613603
0.11610073 -0.09286214 0.07175439 -0.07803939 -0.060044758 0.1296983 0.020565394 -0.054475944
0.25068232 0.051649347 0.06127213 -0.00022973148 0.23442335 0.12324575 0.10491144 -0.1575736
-0.12773408 0.13249347 0.025810767 0.17033608 0.14406332 -0.076934405 0.12559928 0.07478965
0.098654315 0.09799552 0.0865867 0.008016089 0.2734926 0.019826818 0.108952604 -0.00016475495
-0.07237749 0.14275916 0.11599183 0.022916574 0.11285613 0.21195416 -0.00703732 0.12964676
00000000: 7b9f 223d e1cc 863d a20c 833c 2590 8ebd
00000010: 983e 07be ab10 2c3e ab69 9b3d 9595 35be
00000020: 86b4 dcbc 4b38 823d 5ed4 843e e47b df3d
00000030: c060 3a3e bffe b0bd 5cf7 b83d 6dfa b9bd
00000040: b943 d6bc cea9 223e 1874 553b 7c5b 003e
00000050: 60bf 183e c072 97ba cc5a 023e 366a 7fbd
00000060: e32c ea3d e259 df3d 6825 b0bc 26ef cf3c
00000070: d67f b2bc 51fc 123b 81d0 a8bd 023e 213e
00000080: d7e3 d43d 8d01 88be 14f3 6ebe 5794 f43c
00000090: 3764 e5bc 41a7 2fbe a901 86be a9ed 24be
000000a0: 5b3d 64be ea0b b2bd eba6 5bbe ea63 203b
000000b0: 5ef3 2bbe d052 2f3e 0b48 42bd 51f4 06be
000000c0: f02b c33c de45 6dbd 0f48 4cbe 2c5e a23d
000000d0: 3272 9abe e588 adbd 3085 983b 838b eabc
000000e0: 5ca6 cebd 592e 153e 7ef6 813d fd9f dc3d
000000f0: f71b 2bbd 134a 8dbe 7c25 8cbe 4e34 8fbe
00000100: 3ee7 0d3e 17f8 053e 434c 8dbd c25a ff3c
00000110: b237 cdbd ce60 4cba bb89 c83d 0bf9 22bd
00000120: d744 7abd e5f4 8e3d 1fad 98bd 23ea d33c
00000130: 0fa6 b9bd 381b 9ebc ea59 cfbc 8e12 bebd
00000140: c1d9 8bbd fe27 f6bd ab7d b23d a882 f4bb
00000150: 2596 8a3d 62b7 603d 73a2 ce3d ce29 01be
00000160: 38c6 ed3d 812e bebd f7f3 923d 1ed3 9fbd
00000170: 7ef1 75bd a2cf 043e c278 a83c 2b22 5fbd
00000180: 6f59 803e 448e 533d 7cf8 7a3d 13e4 70b9
00000190: ad0c 703e 4568 fc3d cfdb d63d f95a 21be
000001a0: b9cc 02be 5eac 073e 1a71 d33c 956c 2e3e
000001b0: 5685 133e c98f 9dbd 199d 003e 512b 993d
000001c0: 460b ca3d e0b1 c83d 5e54 b13d ea55 033c
000001d0: 3907 8c3e da6b a23c 8b22 df3d 12c2 2cb9
000001e0: a63a 94bd 752f 123e 208d ed3d 8abb bb3c
000001f0: 1d21 e73d 830a 593e 5299 e6bb 1fc2 043e

bias_hh_l0 f4 [128]
-0.0045872782 0.0789281 -0.11779317 0.09187221 0.011700949 -0.07586836 -0.025764804 0.00023613559
0.058196098 0.22848 0.0029791615 -0.015704088 -0.056283094 0.20784503 0.13087898 0.069610864
-0.11312245 0.151411 -0.092434295 0.081071995 0.2968448 0.17956108 0.15582567 0.0019407482
0.016004339 0.093929484 0.05205254 -0.066199265 -0.103415444 -0.007100174 -0.012909767 0.20765397
0.01519105 -0.23954733 0.00434047 -0.1762888 0.28036413 -0.00869332 -0.12078978 -0.3058891
-0.15000445 -0.1431591 -0.1955693 -0.058741577 -0.17070286 -0.008222012 0.058522757 -0.08167909
-0.10697324 -0.12585135 -0.17114094 -0.10200446 -0.1577469 -0.24752937 -0.21841094 -0.0566182
-0.30448487 -0.16294394 -0.19007792 0.04703398 -0.06999592 -0.04204024 -0.1416391 0.021694735
-0.14468157 -0.13794397 0.10108629 -0.02445982 0.15645689 0.031541497 -0.08822357 0.0071025244
0.08015713 -0.023815317 0.053283982 0.043161914 0.09006464 0.047144167 -0.10301646 0.053449813
0.024655018 0.12219694 0.012600613 -0.13404351 -0.08930589 -0.005590833 -0.14269847 0.121942215
-0.12239633 0.0127783995 0.074721344 0.036806654 -0.04858999 -0.14894621 -0.0039837146 0.049519707
0.13564356 0.18597372 -0.09482803 0.22708252 0.3330383 0.026634384 0.30349103 0.15301956
-0.1817344 0.15484393 0.2670777 0.2472281 0.15622483 0.116247475 0.04545366 0.082653545
0.117146984 -0.03879586 0.19168231 -0.115472965 0.23654066 0.21092151 0.26072884 0.13242379
0.11545069 0.11840795 0.16790636 0.029120153 -0.01648458 0.20641203 0.01998091 0.33038548
00000000: e150 96bb 0ea5 a13d 8c3d f1bd 7f27 bc3d
00000010: 56b5 3f3c df60 9bbd b610 d3bc 2a9b 7739
00000020: 085f 6e3d a9f6 693e 093e 433b dca5 80bc
00000030: 1a89 66bd 54d5 543e 2405 063e 2490 8e3d
00000040: beac e7bd 7c0b 1b3e 314e bdbd 1309 a63d
00000050: 0bfc 973e dcde 373e c490 1f3e b460 fe3a
00000060: 881b 833c 1a5e c03d 0b35 553d 7b93 87bd
00000070: 7acb d3bd 94a8 e8bb 7d83 53bc 3ea3 543e
00000080: e2e3 783c e54b 75be 803a 8e3b 0d85 34be
00000090: e38b 8f3e 6d6e 0ebc a260 f7bd 7f9d 9cbe
000000a0: c49a 19be 4d98 12be 5243 48be 029b 70bd
000000b0: bbcc 2ebe 9eb5 06bc 8fb5 6f3d 5e47 a7bd
000000c0: c914 dbbd 2ddf 00be 923f 2fbe b7e7 d0bd
000000d0: 6788 21be 5778 7dbe 1ea7 5fbe 7ce8 67bd
000000e0: 71e5 9bbe c7da 26be c9a3 42be b4a6 403d
000000f0: 055a 8fbd 6332 2cbd d709 11be 28b9 b13c
00000100: 6827 14be 2f41 0dbe 5406 cf3d f65f c8bc
00000110: 3c36 203e a831 013d 8fae b4bd 4bbc e83b
00000120: 6c29 a43d 5718 c3bc 4e40 5a3d 8cca 303d
00000130: cf73 b83d 3e1a 413d 4bfa d2bd 31ee 5a3d
00000140: 52f9 c93c 6442 fa3d cd72 4e3c b442 09be
00000150: 02e6 b6bd 4e33 b7bb 8c1f 12be d7bc f93d
00000160: edaa fabd 7e5c 513c 8107 993d 93c2 163d
00000170: 4c06 47bd 5b85 18be d289 82bb 2dd5 4a3d
00000180: 25e6 0a3e e56f 3e3e 3335 c2bd 5288 683e
00000190: ff83 aa3e 5a30 da3c 2d63 9b3e 29b1 1c3e
000001a0: 9518 3abe 688f 1e3e 69be 883e 5d29 7d3e
000001b0: 67f9 1f3e 2813 ee3d 9e2d 3a3d 4346 a93d
000001c0: c2ea ef3d 68e8 1ebd 5e48 443e 177d ecbd
000001d0: b737 723e cffb 573e 407e 853e 1a9a 073e
000001e0: 6971 ec3d de7f f23d a5ef 2b3e 638d ee3c
000001f0: ab0a 87bc ad5d 533e 01af a33c 4928 a93e

weight_ih_l0 f4 [128, 2]
0.14069672 0.08382334 0.124613814 0.082469486 0.17665567 0.06366995 -0.18760583 -0.009722646
-0.08695777 -0.3234437 0.13905556 0.100343086 -0.11367194 0.18266833 -0.34511182 0.039725006
0.18443462 -0.13731387 -0.23504233 0.07205849 -0.0016287138 -0.08358435 0.16892631 -0.043825652
0.13808507 -0.34156257 -0.14878902 -0.004652091 -0.24983792 0.101158336 0.033394575 0.04034237
-0.1748427 0.1745419 -0.10806992 0.30575034 0.03051016 0.16440669 0.24971065 0.07637997
0.3497146 -0.008531271 0.24713215 0.45288244 0.2871289 0.17083189 -0.4985656 0.2260423
-0.03433017 0.101561405 0.13783076 -0.3010985 -0.106800824 0.28440732 -0.19484782 -0.17616528
0.038193837 -0.08769699 0.056369793 0.27757546 0.38566694 0.04558604 0.13518722 -0.40433007
0.06903677 -0.19346508 -0.062173277 -0.28936085 -0.09192309 0.12393797 0.09113989 0.4257239
0.20004763 0.23701334 -0.45788792 0.22015983 -0.53463763 -0.01575344 0.37249628 0.116672166
-0.041317973 -0.09547106 -0.12122671 -0.32931516 -0.11925532 -0.14403322 -0.258672 0.18001753
-0.5553954 -0.08720307 0.45930937 0.4679116 -0.26907527 -0.29689294 0.22734398 0.045612123
0.107441716 -0.0050495313 0.03601756 -0.3170323 0.09938133 0.5659692 -0.5481886 0.16047084
-0.4769222 -0.12726836 0.22873771 0.066649295 0.08708562 0.24240333 0.030672297 -0.53687817
-0.28629005 -0.17244291 0.305412 0.11967843 0.26204875 -0.26668605 -0.15246306 0.33480752
0.057175912 -0.4210088 -0.25191584 0.51802975 0.27684256 -0.042654447 0.037640177 0.33272734
-0.03882617 0.22754943 -0.28546628 -0.35471508 -0.32624444 -0.2859366 -0.08239639 -0.35911518
-0.28024116 0.20606917 0.19341119 -0.4132463 -0.028621873 -0.06540342 0.3179725 -0.08654544
0.6077486 0.1698863 0.0069373543 0.7592664 0.33607125 0.4485362 -0.60744745 0.22618403
-0.39349556 -0.00617049 0.24787752 0.23400952 -0.33107457 -0.49431622 -0.3397062 0.22370015
0.011515477 0.17332067 -0.48337266 0.37362158 0.052676987 0.5152455 0.35517573 -0.15223993
-0.2771154 -0.0009879179 -0.43707055 0.3026749 -0.070657186 -0.5057031 0.16559133 -0.042267635
0.23117407 0.2662314 -0.16608052 0.31914234 -0.6346593 0.29863513 0.27381456 0.17919569
0.47820818 0.23625247 0.107182436 0.034462366 0.33614245 0.18186049 -0.047720082 -0.5005429
-0.078235246 -0.17146663 0.18884373 0.0039456044 0.14350224 0.007475959 0.2256343 0.13941646
-0.028622197 -0.20196 -0.23479119 0.2112299 -0.3534946 -0.18059905 -0.047999103 -0.07828276
-0.01434587 0.07372276 -0.25354406 -0.35292083 0.16720447 -0.10937529 0.10110414 0.0038934478
0.3961552 0.12155143 0.1674096 0.18855748 -0.18526173 0.16553017 0.165701 -0.038510405
-0.08837646 0.13307588 -0.11848272 -0.17507577 -0.03392115 -0.107689515 0.2531303 0.30497125
0.0855023 -0.09027687 0.050385423 0.48658237 0.15797624 0.04760738 -0.14424631 -0.26422212
0.20129159 0.10347423 0.17642154 -0.33263844 0.008810245 -0.22802396 0.050825775 -0.0051559587
0.04910073 -0.18204574 -0.15545008 0.26535252 0.25048348 -0.0884842 0.23458348 -0.27051577
00000000: cd12 103e 92ab ab3d 8735 ff3d c3e5 a83d
00000010: 39e5 343e 6465 823d be1b 40be bc4b 1fbc
00000020: ea16 b2bd 6a9a a5be 9564 0e3e ad80 cd3d
00000030: d6cc e8bd 680d 3b3e 7fb2 b0be b0b6 223d
00000040: 6edc 3c3e 029c 0cbe f0ae 70be 6793 933d
00000050: 917a d5ba 462e abbd 05fb 2c3e 8782 33bd
00000060: 2c66 0d3e 4ae1 aebe 265c 18be 9170 98bb
00000070: 83d5 7fbe 1a2c cf3d c0c8 083d 0a3e 253d
00000080: f709 33be 1dbb 323e c353 ddbd 4f8b 9c3e
00000090: 71f0 f93c 3a5a 283e 26b4 7f3e 1a6d 9c3d
000000a0: cb0d b33e bec6 0bbc 3610 7d3e 35e0 e73e
000000b0: 8f02 933e 8eee 2e3e fe43 ffbe a277 673e
000000c0: cb9d 0cbd 6dff cf3d 8223 0d3e 9529 9abe
000000d0: 64ba dabd d69d 913e 3086 47be ac64 34be
000000e0: 2471 1c3d 7b9a b3bd 03e4 663d 5f1e 8e3e
000000f0: 2376 c53e 6db8 3a3d 856e 0a3e 5a04 cfbe
00000100: 2663 8d3d b61b 46be 68a9 7ebd 1b27 94be
00000110: 2c42 bcbd 31d3 fd3d 8da7 ba3d 7cf8 d93e
00000120: 49d9 4c3e a0b3 723e 4970 eabe 9471 613e
00000130: 03de 08bf 5c0d 81bc d5b7 be3e d1f1 ee3d
00000140: 093d 29bd 5586 c3bd b645 f8bd ff9b a8be
00000150: 223c f4bd 727d 13be a870 84be 8456 383e
00000160: 652e 0ebf 8697 b2bd 992a eb3e 1c92 ef3e
00000170: 3cc4 89be 5a02 98be dccc 683e c7d3 3a3d
00000180: 670a dc3d 8a76 a5bb 2687 133d 0f52 a2be
00000190: 7088 cb3d 5ce3 103f 1756 0cbf 7852 243e
000001a0: 262f f4be a352 02be 383a 6a3e 6d7f 883d
000001b0: f259 b23d 9438 783e 7844 fb3c d970 09bf
000001c0: 9c94 92be e094 30be f65e 9c3e f719 f53d
000001d0: 412b 863e 138b 88be 471f 1cbe e46b ab3e
000001e0: 4a31 6a3d 778e d7be 1dfb 80be 999d 043f
000001f0: 4fbe 8d3e 6eb6 2ebd 962c 1a3d 3d5b aa3e
00000200: 3108 1fbd b802 693e a328 92be 379d b5be
00000210: 8309 a7be 4866 92be 70bf a8bd f2dd b7be
00000220: c57b 8fbe cc03 533e 950d 463e 0595 d3be
00000230: 6b78 eabc 3af2 85bd 4bcd a23e bc3e b1bd
00000240: 6a95 1b3f adf6 2d3e bf52 e33b 485f 423f
00000250: 8811 ac3e 89a6 e53e ad81 1bbf c99c 673e
00000260: 4078 c9be d231 cabb 9bd3 7d3e 31a0 6f3e
00000270: 9b82 a9be 0417 fdbe f9ed adbe a711 653e
00000280: 69ab 3c3c f97a 313e 9f7c f7be 544b bf3e
00000290: d3c3 573d 21e7 033f 98d9 b53e c9e4 1bbe
000002a0: 12e2 8dbe 067d 81ba b6c7 dfbe 34f8 9a3e
000002b0: b7b4 90bd c275 01bf c690 293e d420 2dbd
000002c0: e5b8 6c3e 7b4f 883e 0311 2abe a066 a33e
000002d0: 0879 22bf b4e6 983e 6c31 8c3e 137f 373e
000002e0: b4d7 f43e 2bec 713e 7782 db3d 6928 0d3d
000002f0: dd1a ac3e a339 3a3e 2276 43bd 9423 00bf
00000300: cd39 a0bd f394 2fbe 4060 413e 214a 813b
00000310: 40f2 123e e4f8 f43b ae0c 673e 30c3 0e3e
00000320: 1979 eabc 9ace 4ebe 1a6d 70be a74c 583e
00000330: 3ffd b4be f5ee 38be b59a 44bd b652 a0bd
00000340: f10a 6bbc f5fb 963d 87d0 81be 0ab2 b4be
00000350: a637 2b3e 2700 e0bd b00f cf3d 3729 7f3b
00000360: dbd4 ca3e f5ef f83d 6c6d 2b3e 3615 413e
00000370: 40b5 3dbe be80 293e 86ad 293e 16bd 1dbd
00000380: b8fe b4bd 0b45 083e 11a7 f2bd 1047 33be
00000390: e7f0 0abd 528c dcbd 4b9a 813e 3125 9c3e
000003a0: d41b af3d 14e3 b8bd f260 4e3d 5321 f93e
000003b0: 86c4 213e f5ff 423d 4eb5 13be 1f48 87be
000003c0: 621f 4e3e 4cea d33d d9a7 343e 964f aabe
000003d0: d958 103c 1d7f 69be b02e 503d 51f3 a8bb
000003e0: d91d 493d 336a 3abe 4e2e 1fbe 49dc 873e
000003f0: 5f3f 803e 3437 b5bd a736 703e 0b81 8abe

weight_hh_l0 f4 [128, 32]
-0.055343587 0.06378962 -0.14264236 0.061843116 0.036690556 -0.11464307 -0.30027458 -0.018347276
-0.21538216 -0.07622271 0.054398146 0.18442145 0.180738 0.15145794 -0.09812598 -0.069240145
0.10093205 0.031917214 0.26654562 -0.1391413 0.117425464 -0.17321488 -0.31866977 0.15947933
-0.2343953 0.22513969 -0.16952337 0.17348479 0.121862434 -0.17416394 -0.16677308 -0.009250194
0.015167532 -0.12428429 -0.41075185 -0.1445192 0.101904266 0.0150906835 -0.43187103 -0.06525456
0.25668514 0.20993514 0.45201385 0.009158278 -0.0908945 0.4284655 -0.0633191 -0.1950706
0.0793463 0.1727008 0.3403115 0.11535345 0.16763853 -0.2805532 -0.15702914 0.12677091
0.09179043 -0.030477205 -0.1495628 -0.0025178029 0.08340496 0.014458348 0.11695779 -0.43802214
-0.10238294 0.2656854 0.12502651 -0.08049782 -0.27510214 -0.13069038 -0.16732563 0.107342206
0.053512122 -0.2582093 -0.12443675 0.050893284 0.14696655 0.52018476 0.26572496 0.0111585725
0.062034447 0.04192475 0.077618614 -0.2613938 0.114802495 -0.11809686 -0.09394762 0.23139451
-0.2954524 0.034025267 -0.3348875 0.28287622 -0.3093825 -0.14789219 0.3091798 -0.53072864
0.13459623 -0.103980064 0.22250254 -0.086593695 0.14041585 0.06489674 0.21167183 0.16078004
0.31294817 0.10796457 0.049818996 0.048549786 0.0855767 -0.07170542 -0.0876261 -0.11656773
-0.17673786 -0.33516642 -0.06722617 -0.10640789 -0.07377383 0.17305 0.14515457 -0.008174738
0.022756668 0.31567466 -0.09540647 0.44110435 -0.096417725 -0.12905806 -0.0131581845 -0.0767941
-0.22966152 0.04732381 0.13829942 0.26607624 -0.12016307 0.516165 0.3789752 0.046685327
0.3872008 0.0432825 -0.21404094 -0.08293392 -0.11901474 0.087244414 0.25015554 -0.09314683
-0.35926598 -0.7694116 -0.34111497 0.23930432 0.041898437 0.083693154 0.66997474 -0.094052225
-0.14939754 0.15436666 -0.41260752 0.2151718 -0.13103573 0.17046852 -0.013988496 0.14588848
-0.088288665 -0.083775625 -0.3281341 -0.22960864 0.15045142 0.15864988 -0.20241392 0.24648382
0.40986508 -0.379624 -0.11673973 0.31688815 0.08509487 0.03123635 0.18888803 -0.15999995
-0.22193117 -0.2042648 -0.022271406 0.115110576 -0.07645902 -0.27613947 -0.12822221 0.23194957
0.11616246 0.2626613 -0.09294332 0.3773635 -0.007867612 -0.37619516 0.48543298 -0.091258906
0.26600736 -0.2644898 -0.50248295 -0.3061662 0.15918809 -0.23263954 0.023619413 0.08197125
0.32610434 0.34051087 0.4356502 0.034804862 -0.11227292 0.2952904 -0.472353 -0.21115394
-0.0076894 0.2603037 0.25091094 -0.01666043 0.032969277 0.25661406 -0.4404142 -0.00022981386
0.20826165 0.04854594 -0.19021055 -0.010550903 0.40722352 -0.1739939 -0.092049636 -0.07322039
0.27474684 0.10356847 0.50973237 0.071446896 0.19610246 -0.3541544 0.24685666 -0.086588666
-0.8589534 -0.11745924 -0.3265473 0.29252484 0.7228811 -0.17170137 0.049179763 0.4045791
0.1534723 0.45691174 -0.11510373 -0.016678344 -0.011160527 0.17745335 -0.09949859 -0.15978168
0.0418228 -0.056793697 0.6126752 0.1208936 -0.16515146 0.092157 -0.07509848 0.14080635
00000000: f5af 62bd 22a4 823d d710 12be 354f 7d3d
00000010: d648 163d fcc9 eabd 97bd 99be 074d 96bc
00000020: 248d 5cbe a71a 9cbd 97d0 5e3d fad8 3c3e
00000030: 6213 393e ca17 1b3e 46f6 c8bd c7cd 8dbd
00000040: 76b5 ce3d a0bb 023d ab78 883e 0f7b 0ebe
00000050: c37c f03d 3e5f 31be af28 a3be 8d4e 233e
00000060: 5205 70be 058b 663e 8997 2dbe ffa5 313e
00000070: 0393 f93d 0858 32be 90c6 2abe 208e 17bc
00000080: 3d81 783c c388 febd 114e d2be d7fc 13be
00000090: 2fb3 d03d ea3e 773c 331e ddbe 2fa4 85bd
000000a0: 3c6c 833e 3df9 563e 5c6e e73e 9a0c 163c
000000b0: e526 babd d45f db3e 72ad 81bd 96c0 47be
000000c0: 5080 a23d 7ad8 303e 4f3d ae3e 6e3e ec3d
000000d0: 6fa9 2b3e aba4 8fbe 3fcc 20be 3cd0 013e
000000e0: 9ffc bb3d 55ab f9bc fe26 19be b901 25bb
000000f0: 38d0 aa3d b5e2 6c3c 9187 ef3d 7044 e0be
00000100: 26ae d1bd eb07 883e f306 003e 0bdc a4bd
00000110: 30da 8cbe b3d3 05be 6957 2bbe 3bd6 db3d
00000120: 872f 5b3d 0234 84be b2d8 febd 7a75 503d
00000130: 667e 163e d42a 053f 1a0d 883e 72d2 363c
00000140: d517 7e3d 49b9 2b3d 82f6 9e3d 68d5 85be
00000150: 921d eb3d c4dc f1bd 9c67 c0bd aff2 6c3e
00000160: 8945 97be 145e 0b3d 6076 abbe 27d5 903e
00000170: 6267 9ebe 0d71 17be d14c 9e3e d5dd 07bf
00000180: 98d3 093e 80f3 d4bd b5d7 633e 0958 b1bd
00000190: 2cc9 0f3e 95e8 843d 80c0 583e 86a3 243e
000001a0: be3a a03e 871c dd3d 010f 4c3d 24dc 463d
000001b0: d642 af3d 4bda 92bd 5075 b3bd 10bb eebd
000001c0: c5fa 34be ef9a abbe e0ad 89bd 61ec d9bd
000001d0: bc16 97bd 0534 313e 66a3 143e 56ef 05bc
000001e0: 316c ba3c 1ca0 a13e 7864 c3bd 6ed8 e13e
000001f0: a876 c5bd cc27 04be 6d95 57bc 3a46 9dbd
00000200: 642c 6bbe 9dd6 413d 5d9e 0d3e 253b 883e
00000210: 0e18 f6bd 6423 043f 0a09 c23e 1d39 3f3d
00000220: 2f3f c63e fe48 313d 8c2d 5bbe 42d9 a9bd
00000230: 00be f3bd 33ad b23d 6314 803e c4c3 bebd
00000240: b6f1 b7be 29f8 44bf 9fa6 aebe 310c 753e
00000250: b29d 2b3d 5167 ab3d 7783 2b3f 749e c0bd
00000260: abfb 18be 4b12 1e3e 4b41 d3be ff55 5c3e
00000270: 3b2e 06be 4d8f 2e3e 0130 65bc ca63 153e
00000280: b0d0 b4bd 8e92 abbd 3101 a8be 871e 6bbe
00000290: f00f 1a3e 1d75 223e 9845 4fbe 4166 7c3e
000002a0: d6d9 d13e 145e c2be 3d15 efbd 2a3f a23e
000002b0: 3846 ae3d 60e3 ff3c dd6b 413e 07d7 23be
000002c0: ed41 63be cb2a 51be 8672 b6bc 18bf eb3d
000002d0: 8c96 9cbd 2762 8dbe af4c 03be 3084 6d3e
000002e0: 95e6 ed3d 8b7b 863e 1159 bebd ca35 c13e
000002f0: 28e7 00bc a79c c0be ac8a f83e f3e5 babd
00000300: 1e32 883e 356b 87be b9a2 00bf d1c1 9cbe
00000310: 3402 233e 0f39 6ebe 807d c13c 8be0 a73d
00000320: 26f7 a63e 7157 ae3e 8b0d df3e 8b8f 0e3d
00000330: 58ef e5bd 4e30 973e 41d8 f1be bd38 58be
00000340: 5df7 fbbb 8746 853e 6677 803e 747b 88bc
00000350: cb0a 073d eb62 833e f87d e1be 30fa 70b9
00000360: 8b42 553e 1cd8 463d 8ec6 42be b2dd 2cbc
00000370: 9a7f d03e 752b 32be 8584 bcbd 92f4 95bd
00000380: 9eab 8c3e b51b d43d d27d 023f c052 923d
00000390: 15cf 483e ba53 b5be fec7 7c3e 6655 b1bd
000003a0: 5fe4 5bbf 788e f0bd 3531 a7be d1c5 953e
000003b0: bc0e 393f 7cd2 2fbe b870 493d fe24 cf3e
000003c0: d827 1d3e 56f0 e93e 81bb ebbd 06a1 88bc
000003d0: a5da 36bc 55b6 353e ebc5 cbbd cf9d 23be
000003e0: 624e 2b3d 82a0 68bd 48d8 1c3f 1097 f73d
000003f0: 771d 29be cfbc bc3d 3bcd 99bd 8a2f 103e

bias_ih_l0 f4 [128]
-0.03152628 -0.067815214 0.10880074 0.113498665 -0.010889794 0.14156903 0.13466449 -0.13632056
0.040711332 0.13531023 -0.05704911 -0.11663833 0.04143251 0.14807327 -0.19135498 0.021696337
0.018176237 0.13454594 0.2781155 -0.013611248 0.20556235 -0.036522202 -0.08457902 -0.09998907
-0.0046341973 -0.0596403 0.09381729 0.00044147344 0.12961946 0.07616296 0.246544 0.08271184
0.16985315 -0.13435557 -0.10810643 -0.100755855 0.006548368 0.10220135 0.088565476 0.21966575
0.19883703 0.3507924 0.07563943 0.22640128 -0.09815315 0.14539629 -0.030624675 -0.09041499
-0.036089167 0.2590758 0.31136432 0.15197724 0.16581246 0.1574269 -0.13437946 0.046546225
-0.02142465 0.08846943 0.15243347 0.19693387 -0.17466947 0.102524295 0.018312925 -0.005291924
-0.18614201 0.24675171 0.19812992 -0.14642896 0.19219905 0.08545249 0.3475305 0.15333888
0.10426784 -0.0835195 0.56646127 0.06304286 0.12973222 0.37279013 0.12038245 -0.42918852
-0.48729268 -0.26389524 0.26980254 -0.12048935 0.137475 -0.3608336 0.10025816 0.19932422
-0.3012686 0.06253645 0.16452064 0.112492666 -0.51890093 0.09144948 -0.1494919 -0.70535934
-0.00972278 0.17105909 0.24054956 0.1694013 0.16445631 0.25515807 0.28259006 0.116176836
0.07441937 0.34856632 0.10974963 -0.08950645 -0.039375424 0.22889304 0.044018365 0.10097912
0.1294574 -0.06144312 0.26932162 0.18186933 0.002661754 0.1778219 0.049876057 -0.07097512
0.2417457 0.028526936 0.33714542 -0.060368646 -0.10089148 0.06791797 0.18351085 0.0158579
00000000: b321 01bd b4e2 8abd ecd2 de3d fd71 e83d
00000010: 1b6b 32bc 79f7 103e 7de5 093e 9e97 0bbe
00000020: edc0 263d c48e 0a3e 54ac 69bd 14e0 eebd
00000030: 23b5 293d 85a0 173e 8ff2 43be 84bc b13c
00000040: 55e6 943c 69c6 093e 2865 8e3e b601 5fbc
00000050: f07e 523e 4e98 15bd c437 adbd 12c7 ccbd
00000060: 77da 97bb 6349 74bd 4823 c03d 9075 e739
00000070: f7ba 043e 53fb 9b3d 0876 7c3e d364 a93d
00000080: fced 2d3e 8294 09be e766 ddbd 1659 cebd
00000090: b193 d63b f14e d13d d161 b53d 0ff0 603e
000000a0: ef9b 4b3e 109b b33e d8e8 9a3d bdd5 673e
000000b0: 8504 c9bd c4e2 143e 99e0 fabc 7f2b b9bd
000000c0: 3cd2 13bd 95a5 843e 256b 9f3e ec9f 1b3e
000000d0: beca 293e 8434 213e c59a 09be 41a7 3e3d
000000e0: bf82 afbc 762f b53d 8517 1c3e 08a9 493e
000000f0: 8edc 32be 42f8 d13d fd04 963c e067 adbb
00000100: 039c 3ebe 7bac 7c3e 92e2 4a3e 79f1 15be
00000110: d4cf 443e b701 af3d 85ef b13e de04 1d3e
00000120: 618a d53d 460c abbd 9b03 113f 9d1c 813d
00000130: 86d8 043e 59de be3e 138b f63d 99be dbbe
00000140: 6d7e f9be 471d 87be 8f23 8a3e 1fc3 f6bd
00000150: 3fc6 0c3e 2ebf b8be 2654 cd3d a61b 4c3e
00000160: e13f 9abe 1c13 803d 1978 283e 8e62 e63d
00000170: b1d6 04bf dd49 bb3d 6814 19be 6e92 34bf
00000180: 4c4c 1fbc 1d2a 2f3e a052 763e 8977 2d3e
00000190: 3c67 283e 14a4 823e a5af 903e 1fee ed3d
000001a0: 2f69 983d 4977 b23e 6ac4 e03d 284f b7bd
000001b0: 2048 21bd f062 6a3e 9a4c 343d 24ce ce3d
000001c0: 7b90 043e c8ab 7bbd 86e4 893e f43b 3a3e
000001d0: d270 2e3b f216 363e d64a 4c3d 675b 91bd
000001e0: 2f8c 773e 52b1 e93c 539e ac3e 1d45 77bd
000001f0: 31a0 cebd 9418 8b3d 45ea 3b3e 6de8 813c

bias_hh_l0 f4 [128]
0.1975132 0.19167311 0.038988784 -0.055431936 0.0831442 0.22924973 -0.111954644 -0.032235805
0.119388245 0.20744114 0.14800768 0.09211584 0.04197399 0.15735874 0.037929233 0.072770946
-0.032870654 0.055423506 0.18787254 -0.058572993 0.2106269 0.07291207 0.20980453 -0.17346652
-0.11163164 -0.14279847 0.058058865 -0.09573359 0.15546183 0.100371614 0.10572929 0.11168292
0.035645995 0.08665732 0.015818326 0.0036518914 0.016960548 -0.06466447 -0.034541216 -0.0703049
-0.062806904 0.17209949 -0.0056920485 0.120645985 0.046391293 0.15848888 -0.18706852 -0.16433987
0.031377073 -0.0010201348 0.16636199 -0.035206363 0.15821922 0.08054897 0.010457173 -0.10102814
0.0030103587 0.13337335 0.06315963 -0.0220222 0.023779573 -0.08974823 -0.101223595 0.17166127
-0.0068537807 0.26469442 0.009417132 -0.11325098 0.26569512 -0.11580922 0.14333041 0.15266904
-0.15646254 0.13913977 0.49138138 0.1703718 0.09086291 0.44567192 0.09748312 -0.3224162
-0.39839268 -0.09271861 -0.013400084 -0.022440944 0.18444125 -0.3191442 0.2318434 0.13499756
-0.23711532 0.285073 -0.039678223 0.12862943 -0.6676223 0.052792467 0.0755356 -0.88492376
0.25466087 0.14703116 0.13995516 -0.09691553 -0.008723727 0.26835352 0.2076781 0.18990083
0.11749296 0.36129174 0.05497984 -0.06873507 -0.031494282 0.088050045 0.10976091 0.20305935
0.2775494 -0.0030574496 0.047369752 0.16715902 -0.014505787 -0.012309374 0.1707389 0.21580462
0.11667978 0.15436031 0.12548015 0.125031 0.17462471 0.13511012 0.108332224 0.08056801
00000000: e640 4a3e f545 443e b4b2 1f3d 990c 63bd
00000010: 8247 aa3d 71c0 6a3e 7a48 e5bd b109 04bd
00000020: d381 f43d 736b 543e 538f 173e 3ba7 bc3d
00000030: ebec 2b3d a622 213e af5b 1b3d ef08 953d
00000040: 61a3 06bd c203 633d a961 403e 3cea 6fbd
00000050: 94ae 573e ec52 953d 00d7 563e 35a1 31be
00000060: 219f e4bd c339 12be 22cf 6d3d f90f c4bd
00000070: 6331 1f3e a28f cd3d 9988 d83d 04ba e43d
00000080: 8901 123d 6579 b13d 6f95 813c 9254 6f3b
00000090: d9f0 8a3c ce6e 84bd 177b 0dbd 04fc 8fbd
000000a0: e8a0 80bd d93a 303e 5d84 babb 3e15 f73d
000000b0: cc04 3e3d e94a 223e e48e 3fbe b648 28be
000000c0: 3f85 003d 0bb6 85ba cc5a 2a3e 8c34 10bd
000000d0: 3804 223e dcf6 a43d 9054 2b3c d7e7 cebd
000000e0: 7049 453b 0693 083e d659 813d e767 b4bc
000000f0: 61cd c23c eccd b7bd 514e cfbd f9c7 2f3e
00000100: ae95 e0bb 0786 873e 504a 1a3c 21f0 e7bd
00000110: 3109 883e 622d edbd 35c5 123e 4655 1c3e
00000120: b737 20be a87a 0e3e 5796 fb3e f275 2e3e
00000130: 5516 ba3d 1c2f e43e 3ba5 c73d bc13 a5be
00000140: 20fa cbbe 41e3 bdbd 078c 5bbc 12d6 b7bc
00000150: 2bde 3c3e de66 a3be 5b68 6d3e cd3c 0a3e
00000160: 5cce 72be 17f5 913e a285 22bd 6fb7 033e
00000170: 4ce9 2abf ea3c 583d 69b2 9a3d 5d8a 62bf
00000180: e962 823e 568f 163e 6850 0f3e a67b c6bd
00000190: f7ed 0ebc a265 893e 91a9 543e 5d75 423e
000001a0: 26a0 f03d 3bfb b83e 8a32 613d f9c4 8cbd
000001b0: 2600 01bd 9553 b43d 54ca e03d caee 4f3e
000001c0: f41a 8e3e 7e5f 48bb c906 423d bc2b 2b3e
000001d0: aea9 6dbc 42ad 49bc 2ed6 2e3e e3fb 5c3e
000001e0: cff5 ee3d a110 1e3e de7d 003e 2008 003e
000001f0: d2d0 323e 4f5a 0a3e 49dd dd3d d700 a53d

weight_ih_l0_reverse f4 [128, 2]
0.29827893 0.18069912 0.03606916 0.015499715 -0.115779825 -0.1601113 0.3930998 0.32995257
-0.20736726 0.027181448 0.0099167125 -0.19903009 -0.39696932 -0.46613067 0.35665452 -0.40026143
0.21131675 -0.7314566 -0.44960096 0.4130743 -0.46325147 0.34643546 0.3907236 -0.013805817
-0.39893943 -0.09253713 -0.41012117 -0.0586429 0.76504743 -0.5540621 0.36118278 0.11868356
-0.116468474 -0.14486293 0.1860504 0.4357683 0.0065002353 -0.19608112 0.024711847 0.1697279
0.006801183 0.20052828 0.48759854 0.30432615 -0.094803154 0.14568588 -0.108698666 -0.10412798
-1.0026547 -0.086954765 -0.7341676 -0.3400716 -0.6460905 -0.21114714 -0.07053392 0.16252662
0.42285845 -0.30906972 -0.12744486 0.16307339 -0.27732491 0.14738186 -0.55309516 -0.43058634
0.27646777 0.46512076 0.06891932 0.0009112834 -0.17322847 -0.33034533 0.310532 0.39591548
-0.24122587 0.057737604 0.3914344 -0.14836521 -0.47617692 -0.4458841 0.40116483 -0.21031402
0.30935228 -0.21482798 -0.27398136 0.19247931 -0.027006831 0.08358192 0.26064754 -0.04360562
-0.15557708 -0.06600456 -0.24386744 -0.023463441 0.5474899 -0.49553883 0.43775725 0.16823979
-0.16222264 -0.066158846 -0.11448456 0.38065624 -0.14629221 -0.105723076 -0.25190136 0.12911946
0.006213528 0.18249121 0.2857715 0.09920621 -0.0932043 -0.008111853 -0.53175545 -0.22609445
-0.5113282 -0.082613066 -0.19792965 -0.31819037 -0.25801176 -0.17866208 0.07867164 -0.06986911
0.12752695 -0.06449067 -0.09966701 0.21120979 -0.30233964 0.19623917 0.1394193 -0.47174627
-0.335279 -0.2665551 0.17899828 0.39988634 0.2565919 0.12600648 -0.33993325 -0.29171318
0.27426028 0.4350119 0.25787246 -0.08601185 -0.2865189 -0.39524937 -0.41433537 0.20714545
-0.033612892 -0.7631624 -0.16615239 0.49383244 0.4657254 -0.24516669 0.48962295 -0.09092932
0.35116303 0.07032555 0.44016927 -0.121075764 0.108352095 -0.3780226 0.24351211 0.06816051
-0.07759811 0.5813196 0.306592 0.786969 0.13379408 -0.42090786 -0.6224037 0.2682533
-0.31672394 -0.046667505 -0.41014332 -0.10794752 -0.28826675 0.17606215 0.17212231 0.28015637
-0.46568504 0.26092973 0.528127 0.42275035 -0.3864097 -0.1199657 -0.14523204 -0.3092218
-0.42376924 0.2479699 0.33980852 0.05333581 0.20293774 -0.3046079 0.17135882 -0.2840108
0.3433968 0.2682228 0.038283784 -0.039196465 -0.018940056 -0.22464262 -0.23595905 0.0013879878
-0.32712704 0.15234108 0.016016545 -0.015090156 -0.5100635 -0.34667945 0.5177304 -0.49818656
-0.18521576 -0.6203857 -0.30338097 0.059443884 -0.26370198 0.1461515 0.51738864 -0.14478001
-0.2516749 -0.22375037 -0.24032336 0.15643112 1.1114715 -0.6526986 0.38958934 0.08851959
0.065708145 0.0027892354 0.0065253526 0.12139032 -0.11002975 0.011457731 -0.13635933 0.31847662
0.27699775 -0.048721116 0.2575352 0.40351948 0.08295046 -0.02604189 -0.38839558 -0.09684293
-0.48041964 0.042148255 -0.17334734 -0.3523414 -0.8949829 -0.20553128 0.11627831 0.1600012
0.85501695 -0.43682936 -0.23104525 -0.080771536 -0.2312808 0.22152764 -0.23262754 -0.15330718
00000000: 04b8 983e 3109 393e 41bd 133d 84f2 7d3c
00000010: f91d edbd 37f4 23be 6144 c93e 8bef a83e
00000020: 1558 54be a1ab de3c b579 223c 8bce 4bbe
00000030: 903f cbbe aea8 eebe 6c9b b63e 11ef ccbe
00000040: 6b63 583e bd40 3bbf 1932 e6be 7a7e d33e
00000050: 4c2f edbe fd5f b13e ec0c c83e cb31 62bc
00000060: ca41 ccbe 1b84 bdbd 67fb d1be 8a33 70bd
00000070: 26da 433f 04d7 0dbf f3ec b83e 5e10 f33d
00000080: 0687 eebd f356 14be ff83 3e3e 061d df3e
00000090: edff d43b 7dc9 48be 8070 ca3c 27cd 2d3e
000000a0: 75dc de3b 4957 4d3e 84a6 f93e a3d0 9b3e
000000b0: 2828 c2bd ae2e 153e 689d debd 0d41 d5bd
000000c0: fd56 80bf 5715 b2bd 68f2 3bbf dd1d aebe
000000d0: 3066 25bf f536 58be 1674 90bd 616d 263e
000000e0: e780 d83e 633e 9ebe e880 02be b6fc 263e
000000f0: 88fd 8dbe 45eb 163e a597 0dbf d075 dcbe
00000100: 2f8d 8d3e 4f24 ee3e 9325 8d3d 32e3 6e3a
00000110: ce62 31be 0623 a9be 0dfe 9e3e 6fb5 ca3e
00000120: ea03 77be 447e 6c3d 176a c83e 0ded 17be
00000130: 76cd f3be ec4a e4be 7a65 cd3e 8f5c 57be
00000140: 6c63 9e3e defb 5bbe 4947 8cbe 4c19 453e
00000150: 6e3d ddbc ff2c ab3d 9873 853e ce9b 32bd
00000160: 994f 1fbe 662d 87bd 63b8 79be 6736 c0bc
00000170: 4c28 0c3f 44b7 fdbe b821 e03e 0d47 2c3e
00000180: b11d 26be 4a7e 87bd e276 eabd 60e5 c23e
00000190: a0cd 15be 5785 d8bd 37f9 80be e437 043e
000001a0: da9a cb3b fade 3a3e a450 923e a02c cb3d
000001b0: e5e1 bebd 94e7 04bc 2021 08bf 4e85 67be
000001c0: 68e6 02bf 0a31 a9bd 12ae 4abe d9e9 a2be
000001d0: 1e1a 84be 31f3 36be 991e a13d 8917 8fbd
000001e0: 6d96 023e af13 84bd 381e ccbd 6147 583e
000001f0: 43cc 9abe ecf2 483e efc3 0e3e ba88 f1be
00000200: b0a9 abbe e979 88be 534b 373e e7bd cc3e
00000210: 0360 833e d807 013e bb0b aebe 6e5b 95be
00000220: d86b 8c3e e1b9 de3e dc07 843e fb26 b0bd
00000230: 9bb2 92be 205e cabe c423 d4be f01d 543e
00000240: acad 09bd 9c5e 43bf da23 2abe 9bd7 fc3e
00000250: 8f73 ee3e fa0c 7bbe dcaf fa3e 2739 babd
00000260: a4cb b33e d806 903d de5d e13e 92f6 f7bd
00000270: b4e7 dd3d 2e8c c1be 3d5b 793e bd97 8b3d
00000280: c2eb 9ebd 5cd1 143f a0f9 9c3e cd76 493f
00000290: 5101 093e 3c81 d7be d955 1fbf 7f58 893e
000002a0: a429 a2be 6d26 3fbd 4efe d1be 9713 ddbd
000002b0: b397 93be a349 343e d540 303e a870 8f3e
000002c0: 456e eebe 9598 853e 5533 073f bc72 d83e
000002d0: 7ed7 c5be 94b0 f5bd b5b7 14be 5252 9ebe
000002e0: 48f8 d8be d2eb 7d3e 62fb ad3e a676 5a3d
000002f0: e9ce 4f3e 91f5 9bbe b078 2f3e dd69 91be
00000300: b5d1 af3e 8054 893e 75cf 1c3d 798c 20bd
00000310: 2d28 9bbc b708 66be 409f 71be 24ed b53a
00000320: 327d a7be 4dff 1b3e 2135 833c b43c 77bc
00000330: 8693 02bf f87f b1be fb89 043f 4f12 ffbe
00000340: 33a9 3dbe 99d1 1ebf c054 9bbe 6e7b 733d
00000350: f203 87be bda8 153e 9573 043f 3641 14be
00000360: 88db 80be d11e 65be 5417 76be 7b2f 203e
00000370: b344 8e3f 4117 27bf 4178 c73e c249 b53d
00000380: fe91 863d 9bcb 363b a0d2 d53b 7d9b f83d
00000390: 4757 e1bd 35b9 3b3c c8a1 0bbe 5e0f a33e
000003a0: a6d2 8d3e cb8f 47bd a7db 833e 1b9a ce3e
000003b0: eee1 a93d cd55 d5bc c9db c6be 9655 c6bd
000003c0: 90f9 f5be a6a3 2c3d f781 31be 1866 b4be
000003d0: 991d 65bf cb76 52be 5323 ee3d 5bd7 233e
000003e0: 64e2 5a3f 19a8 dfbe 2097 6cbe 8c6b a5bd
000003f0: e0d4 6cbe 24d8 623e ea35 6ebe 8ffc 1cbe

weight_hh_l0_reverse f4 [128, 32]
-0.44105652 0.34450802 -0.10691739 0.03710929 0.0900236 0.27933148 -0.20280951 -0.0592676
-0.05909759 0.34075242 0.13035108 -0.10037053 0.16552047 0.17648202 0.00916469 0.39379844
0.13240226 0.30675074 -0.01017844 0.03315805 -0.29941377 0.027008245 0.21396576 0.11700377
-0.13492922 0.09357664 -0.30254897 -0.3938879 0.11867831 0.112735145 -0.34051833 0.115856156
-0.16398518 0.1952031 0.034283016 0.20861955 -0.120643474 -0.15200488 -0.0689825 -0.008888188
-0.15957181 0.19110869 -0.14838557 -0.18866257 0.056306757 -0.18520956 -0.07398282 -0.058197767
-0.13335523 -0.14809634 -0.014908642 0.03887017 -0.087009765 0.07477447 0.13757712 -0.07098208
0.009675889 -0.08985859 0.01711089 -0.13054553 0.057797637 -0.045075104 0.0031409601 0.05678978
0.17079066 -0.23003921 -0.121864095 -0.008092478 0.22038983 0.2671926 0.13472004 -0.1875838
-0.044132378 0.04523629 0.5470338 0.16447207 0.21279162 0.23657973 0.13504203 0.2944183
-0.62728846 -0.17629701 0.015627831 -0.14997557 0.07295123 -0.24526767 0.15251629 -0.0657543
-0.23009475 0.5193037 -0.03433041 -0.009905492 -0.02936689 0.035083342 -0.076936916 -0.21178293
0.040253438 0.0010042917 0.22092295 -0.2999435 0.3647818 -0.08411897 -0.55065626 0.3637303
-0.47037655 -0.107719705 0.050500557 0.35357147 0.28503957 0.0943421 -0.20424826 0.23933652
0.2188058 0.29467866 -0.28989112 -0.049989123 -0.44819853 0.080443375 -0.406643 0.58705497
-0.34050488 0.48014328 -0.2996481 -0.049976263 0.14184667 0.2277513 0.0034152253 -0.24336249
0.38605654 -0.11588074 -0.017220737 0.13395464 -0.16231832 -0.045784034 -0.29141065 0.05832329
-0.16875552 -0.16136676 0.072377525 -0.08531868 -0.13157389 0.3396434 -0.25209355 -0.13891922
-0.07097772 -0.28180033 -0.15047006 0.09626162 0.0045181164 0.190936 -0.21471527 0.17693192
-0.35756055 0.34435368 -0.26429394 0.21831995 0.11774707 0.082895 -0.07693556 -0.42412978
-0.08149871 -0.12397837 -0.09886935 0.012175141 0.043695256 0.24745438 -0.048520926 -0.27221635
-0.05375969 -0.062090125 -0.012916487 -0.09663263 -0.1452487 0.16063799 0.052876864 0.08432861
0.02105441 -0.07533785 -0.11802227 0.06578552 0.06895223 0.10232408 -0.34871522 0.0212957
0.021487998 -0.15920413 -0.1630574 -0.14239058 -0.24686044 0.10321451 0.12674576 0.05954319
0.9393159 -0.3372094 -0.106823884 0.19108944 -0.29039663 -0.30542144 0.48146456 -0.11122956
-0.03399347 -0.54506004 0.18989743 0.10349344 -0.3743123 0.08362125 -0.08840191 -0.026309077
-0.38201877 -0.42351505 0.06325467 0.1581513 0.37198514 0.45901904 0.19917421 -0.28198454
0.010735416 0.19856186 0.35269165 0.2856832 -0.08539723 -0.5787967 0.16675168 0.20584637
0.08055139 -0.2134976 -0.0016248771 -0.06101756 -0.033457708 0.21764801 -0.20991568 -0.35739893
-0.04424537 -0.08850994 0.26687375 0.042079605 -0.008895185 0.1631144 0.14498484 -0.026645284
0.110388115 -0.06758298 -0.22828342 -0.086759135 -0.09847323 0.032724034 -0.07793942 0.092678025
0.15793066 0.050364 0.075644985 -0.014082786 -0.12848349 0.06554334 0.02130676 0.14650542
00000000: 29d2 e1be 5b63 b03e 81f7 dabd e9ff 173d
00000010: 4b5e b83d 8904 8f3e 4cad 4fbe 95c2 72bd
00000020: 5110 72bd 1a77 ae3e c17a 053e 108f cdbd
00000030: 337e 293e b4b7 343e 7f27 163c f39f c93e
00000040: 7594 073e 6f0e 9d3e 79c3 26bc bcd0 073d
00000050: c34c 99be 6540 dd3c d719 5b3e ac9f ef3d
00000060: e32a 0abe 1ca5 bf3d b3e7 9abe adab c9be
00000070: 9d0d f33d afe1 e63d 6b58 aebe fe45 ed3d
00000080: bbeb 27be 52e3 473e 596c 0c3d 5da0 553e
00000090: ed13 f7bd 2ba7 1bbe b246 8dbd c39f 11bc
000000a0: cb66 23be ffb1 433e 63f2 17be c330 41be
000000b0: eaa1 663d 93a7 3dbe 4e84 97bd c860 6ebd
000000c0: 468e 08be 91a6 17be 6043 74bc 5436 1f3d
000000d0: 2d32 b2bd 5b23 993d 04e1 0c3e 0e5f 91bd
000000e0: 9f87 1e3c c807 b8bd 232c 8c3c baad 05be
000000f0: 37bd 6c3d aca0 38bd 91d8 4d3b 669c 683d
00000100: bfe3 2e3e 668f 6bbe e293 f9bd 5096 04bc
00000110: dfad 613e 78cd 883e 0df4 093e f815 40be
00000120: 27c4 34bd b049 393d 680a 0c3f 5e6b 283e
00000130: 0ce6 593e f541 723e 7548 0a3e ffbd 963e
00000140: fa95 20bf 3487 34be f005 803c 3293 19be
00000150: 7467 953d 7327 7bbe 3b2d 1c3e 31aa 86bd
00000160: f59d 6bbe 16f1 043f 0b9e 0cbd a54a 22bc
00000170: d592 f0bc 8db3 0f3d 1a91 9dbd a0dd 58be
00000180: cae0 243d 70a2 833a a039 623e 3292 99be
00000190: aec4 ba3e 9146 acbd cff7 0cbf dc3a ba3e
000001a0: 32d5 f0be 269c dcbd acd9 4e3d 5207 b53e
000001b0: b5f0 913e 6e36 c13d 7526 51be a214 753e
000001c0: a10e 603e 1fe0 963e 9c6c 94be 65c1 4cbd
000001d0: 477a e5be 7fbf a43d 8333 d0be 3c49 163f
000001e0: a856 aebe 57d5 f53e 7a6b 99be e9b3 4cbd
000001f0: 4140 113e a337 693e f9d1 5f3b 0434 79be
00000200: 34a9 c53e e252 edbd 8112 8dbc 682b 093e
00000210: c636 26be 0a88 3bbd c733 95be 67e4 6e3d
00000220: 3fce 2cbe 543d 25be ab3a 943d 8fbb aebd
00000230: 4ebb 06be bde5 ad3e 6812 81be d740 0ebe
00000240: c45c 91bd 2248 90be d314 1abe d024 c53d
00000250: b50c 943b ba84 433e 52de 5bbe a42d 353e
00000260: 2d12 b7be 204f b03e 8951 87be 448f 5f3e
00000270: 6025 f13d dbc4 a93d 6490 9dbd 8a27 d9be
00000280: cce8 a6bd 5fe8 fdbd 047c cabd 3e7a 473c
00000290: ccf9 323d ae64 7d3e e1bd 46bd f15f 8bbe
000002a0: 1f33 5cbd 3752 7ebd ac9f 53bc 54e7 c5bd
000002b0: 13bc 14be 497e 243e 6995 583d 7ab4 ac3d
000002c0: 4c7a ac3c bb4a 9abd a9b5 f1bd 8fba 863d
000002d0: d436 8d3d 4a8f d13d cd8a b2be 5274 ae3c
000002e0: 9907 b03c 6806 23be 85f8 26be d6ce 11be
000002f0: fcc8 7cbe 2162 d33d a4c9 013e 8fe3 733d
00000300: 0277 703f b6a6 acbe 7bc6 dabd f3ac 433e
00000310: deae 94be 3360 9cbe 8682 f63e 53cc e3bd
00000320: bd3c 0bbd 0e89 0bbf 7974 423e 5ef4 d33d
00000330: dda5 bfbe 9e41 ab3d 100c b5bd 2286 d7bc
00000340: f797 c3be f7d6 d8be aa8b 813d 6af2 213e
00000350: d674 be3e 8b04 eb3e 53f4 4b3e 4760 90be
00000360: 99e3 2f3c cd53 4b3e 0094 b43e 1245 923e
00000370: bee4 aebd 052c 14bf f4c0 2a3e 64c9 523e
00000380: 21f8 a43d 1d9f 5abe d4f9 d4ba 8ded 79bd
00000390: f30a 09bd 1fdf 5e3e 23f4 56be fefc b6be
000003a0: a23a 35bd b344 b5bd ada3 883e aa5b 2c3d
000003b0: 1cbd 11bc 7607 273e e876 143e 3647 dabc
000003c0: 2a13 e23d f268 8abd 21c3 69be c6ae b1bd
000003d0: 55ac c9bd a309 063d b49e 9fbd facd bd3d
000003e0: 93b8 213e 7b4a 4e3d c2eb 9a3d 7cbb 66bc
000003f0: 2d91 03be 963b 863d 848b ae3c 8405 163e
