experiments/pedestrians/models/models_14_Feb_2024_17_26_50_eth_vel_ar3/model_registrar-33.pt (torch, 527902 bytes, 43 tensors)

weight_ih_l0 f4 [128, 6]
00000000: 5f83 863d 3dfb 9d3d aeb2 2bbe 8213 a6bc
00000010: 2d03 4dbd 2663 a23d acaf 47be 7f08 b6be
00000020: 9a2f c0bd 8465 5c3e 5001 323d 98db 5dbd
00000030: 2369 153c 696e 95bc 8c51 83be f36b 0ebe
00000040: e3fb 52be 6433 b13d b82b 083e aada 4c3e
00000050: 5493 b03d 0172 073d 61c3 d43d b1d3 143d
00000060: 0455 e8bd afc4 9c3d b484 02be 8c05 dfbe
00000070: b9e7 033f c5a4 80bf 7cf2 2b3e 3c7b d73d
00000080: 76d6 273e 1817 8a3d 696f a03e 46ad 89be
00000090: 5008 cebe 0a07 c53d 9008 0e3e 13b8 0bbe
000000a0: 1de3 883d e484 5ebe 6bff a6be 6c98 e73b
000000b0: 6e31 b63e 00a3 55bc 4b76 363d 5c1c 903b
000000c0: 6726 6d3e 4f47 5c3e 2d2d cd3e 1b67 82be
000000d0: b384 a33e 9a72 30be 2381 aebd aa19 71be
000000e0: 52bd 8cbc ac80 9b3e 3904 bb3d f56d 99bd
000000f0: 0823 073e 55df 51be dd8c b8be d698 563e
00000100: 5d58 c1bd 3e65 573d 0d68 43bc 9b08 213e
00000110: 9ee8 e7be c056 2abe c252 00bf c71c 23be
00000120: 4679 023d cfb2 bfbd 61f8 48be e984 f63d
00000130: 3ca6 263e e4ac 7cbd f2db f1bd 3f3a 013d
00000140: 68da af3e b5f4 823e 059d b63e 570e 8c3e
00000150: 8cb1 b83c aa44 5abd 399a 1dbf f9d4 a33d
00000160: f854 d4be 150c 46bd a052 7ebe 19e0 fe3d
00000170: d06c b13e fc60 fc3d 433e 2abb 6ac8 813e
00000180: d433 7d3e 36d6 25bd 3d6b c4be 6514 ad3e
00000190: 337c c7be e4c6 d03c 6bc4 f93d b19a 61be
000001a0: af47 0dbe 101b 073e 8787 adbc c31a bc3d
000001b0: 7754 213e e1b7 2abe 75b6 5abe b7ce e13e
000001c0: 5388 51bd 8f4f 0d3f e8a8 663d 1fd6 b83c
000001d0: eb91 a2be 92b4 bc3d 582d 51bd 407e a83e
000001e0: 819d abbe f9f0 713e 9e9b b03e 7543 6bbe
000001f0: dfd9 903e e5d1 843c 1ab4 023d 32e2 523e
00000200: 57ed 573d fdff d9bd a734 263d 57d0 b63d
00000210: 538a 02be 0afa a7be c209 6e3d 967a 573d
00000220: 9f27 a63e be80 c93c 9a56 63bd e2ad 213d
00000230: f882 d03d 32a4 cbbd d801 8f3c 0d7a 163d
00000240: 9874 d03d 30eb 5dbd d2f7 59be 8ea1 82bd
00000250: 9c5c 3ebe ed42 40be 81f0 93be d361 e0bd
00000260: 4716 913c ae28 303e f732 e03d 423a c73d
00000270: 5004 39bd 45d1 533e 5679 febe bc21 d3be
00000280: a764 a9be 2ed4 e0bd 4c9e 49be b82f 643d
00000290: 23b0 233f 463d 063f 1494 ea3e 987c 213f
000002a0: 33b7 223e 7c6c 6d3c 29ce 88be 8c52 ef3d
000002b0: 1a62 a03d 5c2c 783e 7fc4 b0be 9188 fc3c
000002c0: e74e 033c 5ed4 62be 2942 3f3e c85f 91bc
000002d0: ab8c f0bd afca 74bd ea00 803e c85e 373d
000002e0: e95a d5bd bfe9 49be c618 cfbd dec8 af3d
000002f0: 8e53 5d3d c183 ab3c 5c8a 63be 976b b5bd
00000300: 5b2d fe3d cb31 103e 95af 0fbe cef8 ecbd
00000310: c5fb 4fbe e46e 5abe 68a0 d93b a328 d3bd
00000320: 035a e03c 9033 d03d 6f23 2a3d 0fa6 a4bd
00000330: b478 c8bd 6325 bebc a98a 46bd 3a42 0ebc
00000340: ee5b 81be 5258 8d3d 8020 a83d ef27 af3d
00000350: 0887 b13d de66 06be aa5b 94bd de59 6d3c
00000360: df51 7c3d 07e5 60be 7377 2a3e 3472 d6bd
00000370: 2eee b4bd 0e3b 0a3c fc0a 003e 37da 03bc
00000380: aea4 dc3d 66a9 4bbe 4c68 90be 19d4 c33c
00000390: 891f e8bd c014 1a3d 8c35 273e 7037 b0bd
000003a0: 1078 d3bd ec20 0ebd f988 1abe 8b52 59be
000003b0: 6946 7f3e 521b 8239 83db 58bd 232e d8bc
000003c0: 4123 803e 93b4 da3c f06d 4abc 7f2d 1bbe
000003d0: 2548 4fbd f062 3d39 05b5 51be d70c 1fbd
000003e0: 0f55 8a3e 3946 c13d dc6c 2b3e 161c b13d
000003f0: 6031 0c3e 4189 97be 9b3d 0abe d0ac 383e
0.06568026 0.077139355 -0.1676738 -0.020272974 -0.050051857 0.07929067 -0.19500607 -0.35553357
-0.09384079 0.215231 0.043458283 -0.0541645 0.009119305 -0.018241124 -0.25648153 -0.13908367
-0.206039 0.0865238 0.13297927 0.20005289 0.086218506 0.033067707 0.10388828 0.036334697
-0.113443404 0.07654702 -0.12745935 -0.4355892 0.51525456 -1.0050284 0.16791719 0.10521552
0.16390404 0.06742686 0.31335 -0.2689001 -0.40240717 0.09620483 0.13870454 -0.13644437
0.066839434 -0.21730381 -0.32616743 0.0070677307 0.35584587 -0.0130393505 0.044546407 0.004397912
0.2315918 0.21511577 0.4007353 -0.25469288 0.3193718 -0.17231217 -0.085207246 -0.23544946
-0.017180119 0.30371606 0.09131665 -0.07491676 0.13196957 -0.2049535 -0.3604497 0.2095674
-0.09440682 0.052586786 -0.011926663 0.15725939 -0.4529466 -0.16634655 -0.5012628 -0.15928946
0.031853937 -0.09360277 -0.19625999 0.12037069 0.16274351 -0.06168832 -0.11809529 0.03154969
0.34346318 0.25577322 0.3566667 0.2735469 0.022545598 -0.05328814 -0.6156345 0.07999606
-0.41471076 -0.048351366 -0.24836206 0.12445087 0.3465333 0.12323186 -0.0025977052 0.25348216
0.24726802 -0.04048749 -0.38363066 0.33804622 -0.38961944 0.025485463 0.12195667 -0.22031666
-0.13796876 0.13193917 -0.021182789 0.09184792 0.15754877 -0.16671707 -0.21358664 0.44103023
-0.0511554 0.5519952 0.056313425 0.022563038 -0.31751952 0.092141286 -0.051068634 0.3290882
-0.33518603 0.2362708 0.34493726 -0.22974952 0.28291222 0.016213367 0.03191004 0.20594099
0.05271658 -0.10644529 0.040577557 0.089264564 -0.12748079 -0.32807952 0.058114775 0.05260714
0.32452103 0.024597522 -0.05550251 0.03947247 0.1018123 -0.09943427 0.017456934 0.03673749
0.101784885 -0.05417937 -0.21285942 -0.0637847 -0.18590015 -0.1877553 -0.28894427 -0.109561585
0.017710818 0.17203018 0.10947221 0.09727909 -0.04517013 0.20685299 -0.49701947 -0.41236675
-0.33084604 -0.1097797 -0.19689292 0.05570957 0.6394064 0.52437246 0.458161 0.6308074
0.15890197 0.014491197 -0.26719788 0.116856664 0.078312114 0.24235672 -0.34524915 0.030826839
0.008014417 -0.22151324 0.18677582 -0.017745867 -0.1174558 -0.059763607 0.25000697 0.044768125
-0.1041773 -0.19718073 -0.10112147 0.08583234 0.054034762 0.020936849 -0.22220749 -0.08858412
0.124109946 0.14081495 -0.14031823 -0.11570893 -0.20310886 -0.21331364 0.0066414364 -0.10310485
0.027386671 0.10166085 0.0415377 -0.08039486 -0.09788647 -0.023211187 -0.04847208 -0.008682782
-0.2526545 0.069016114 0.08209324 0.085525386 0.08668333 -0.13125178 -0.07244046 0.014486758
0.061601516 -0.21962367 0.16647129 -0.10471001 -0.08834492 0.008436931 0.1250419 -0.008047632
0.10773598 -0.19888839 -0.28204572 0.023904847 -0.1133414 0.037617445 0.1632902 -0.08604324
-0.103256345 -0.034699365 -0.15091313 -0.21222894 0.24929203 0.00024815887 -0.052943718 -0.026389187
0.25026897 0.026697433 -0.012355313 -0.15154074 -0.05060591 0.00018061302 -0.2047921 -0.038830604
0.2701802 0.09437222 0.16740745 0.08647935 0.1369071 -0.29596904 -0.13500063 0.18034673

weight_hh_l0 f4 [128, 32]
00000000: 6cc0 bbbc ef04 63be 5485 0fbc fc29 c23d
00000010: 4472 f0bd fa5b 0fbc f1ab 3fbd d442 20be
00000020: 1cfe 503d d5e7 7e3e 3942 debd 5ce9 083e
00000030: f65a edbd 27a6 583e 3d52 283e 935b df3d
00000040: 97cf 443e c0c1 02be 6e12 e1bd 3b6c 0b3c
00000050: 5675 49be 113d 11be e990 abbd dbc2 88be
00000060: 5d9b 973e efeb c93d b599 f6bb d470 cd3e
00000070: 979d 5b3e 2629 113c 2597 2d3e c6f9 d5bd
00000080: 506b 053e b56e 79be b12a b93d 5beb b9bd
00000090: c2f7 1a3d 207e 603e 4662 8b3c f185 58be
000000a0: df74 ef3d 8f6f c33d 1b4b aabe 389f c7bd
000000b0: 0aab 84be 3388 553e 2a6e 0d3e 18b5 b2bd
000000c0: 1c58 4c3e e6fc d13d e541 76be 59e6 a93d
000000d0: 0a62 8dbd de37 e8bd 8028 28be 7a38 07be
000000e0: 3ec6 f73d dac6 0a3e 2f90 0fbe ad0b 8a3d
000000f0: 83af 3f3d 3d33 193d eb4a 683e 8e23 bfbd
00000100: e0f7 f43d f10c 38be bf50 e1bd bac3 e23d
00000110: 0212 ab3d c1dc 333e 3a06 35be 7911 54be
00000120: f4c0 8ebc fc2f 853e 29cb a3be 2c6b a33d
00000130: d649 8dbd dbf7 c4bd 10b5 093e 70ae b7bd
00000140: e3d5 e33d af07 f7bd f88e a03d 6c90 02be
00000150: 4a9f d73d 6375 853d c4b1 203d d335 2d3e
00000160: c525 8f3e 013f 173e 6d05 253e b232 483e
00000170: 65b0 253e 02f3 db3d 0b32 9fbc 33e2 f53c
00000180: 6cec 5abc 66a3 1ebd 0916 59bc 1cf7 a63d
00000190: 74f0 d8bd 6914 133d e54b 88bd 751f 223d
000001a0: cc84 25bd 1d24 2b3e 427f 97be 083c 1ebe
000001b0: 702b e3bd d4b8 babd 4414 03be 6212 1fbe
000001c0: 2454 0b3d 1892 5a3d 98fc 50be 7f73 73bd
000001d0: 7023 93bd 249f 443a f6c1 3a3d 3823 1dbd
000001e0: 64ab de3d f954 e63d 2b1d 98bd 08ad 383e
000001f0: 1b84 323c babd c83d 5ffa 893e 89e4 4ebd
00000200: f854 873d 008e 44bd 211d c13e 2d29 3b3d
00000210: 8f78 163e 93ac 29be c887 833e f92c 1d3d
00000220: 1503 78bd 2d87 6abe 0cd4 5f3d 08e5 0abe
00000230: 780e 31be cb48 64bd 2fb8 073d 15eb 6ebe
00000240: 8dc0 1abe 965b 19be 58e8 eebb e972 613d
00000250: 46bd 3cbe 1647 d63e 2d7a 8f3e a394 99be
00000260: 0e3c 7dbd b3bb 47be cb7c 15be eda4 8abe
00000270: 0d6f 463d 81e1 76be c0c1 a93c f33e 043d
00000280: edf7 b23d efae 39be cdc9 da3d 7152 09be
00000290: 36d0 babd eb13 89bd e0c3 123e 96de 75be
000002a0: 53eb 9fbd b5a1 7d3d 44ec eb3d 0154 09be
000002b0: 920f 4cbe b000 943d 831c 0abc 7c7d 1dbd
000002c0: c0d2 633d 78c0 533e 8d13 79be 57bc 313e
000002d0: 8c19 5abd 71d1 8abd 21ab 8dbc 3c1b 34be
000002e0: 0be4 b73d 5b59 b53c 339f 113e a3bc 5a3e
000002f0: e090 ae3d f5ac 1fbb f400 6c3e d27d 303e
00000300: 39e6 0c3e f12d 3bbd 2c31 41be f04e 123e
00000310: dd8e ebbc f9c3 5ebd 248a 533e a284 9cbe
00000320: a3bc 0bbe 0405 2e3e b488 fabd 6687 0cbe
00000330: f2f9 983b 0c22 963e 8afc b13d 218f 503c
00000340: 918d 093e 6690 82bd 3ef8 f9bd 603d 65bd
00000350: 7536 8dbd 7f04 583e fa98 fc3d b01b d4bd
00000360: f175 98bc 5b14 683e d8dc de3d d43c 4b3e
00000370: 7f77 9abd 2669 053d 0554 22bc 0672 053e
00000380: 8625 073e a03a 72be 8d5a 7a3b 9afe d33d
00000390: eedd 44be 6c74 2e3d 983f 733e 75e7 1ebe
000003a0: e44b efbc e6c5 323c 84c5 073d 2322 c1bd
000003b0: c917 483c 84e5 ff3b c775 443d 0ecf 923d
000003c0: c93d 243e 09f2 9a3d e340 5ebe 1507 a23c
000003d0: 10dd c1be cb9d 713d 22e7 c0bd b5db 93be
000003e0: c38a 3c3e 631d c33e be51 d7bd 7de5 883e
000003f0: f9f1 1b3e 8fa1 3b3c ba08 023e 7372 8c3e
-0.022918902 -0.22169851 -0.008759815 0.09480664 -0.117405444 -0.008749956 -0.046794835 -0.15650493
0.051023588 0.24893124 -0.10852475 0.1337027 -0.11589615 0.21157132 0.16437621 0.10906138
0.19219814 -0.12769222 -0.10989843 0.008509691 -0.19673666 -0.14183451 -0.08377249 -0.26711163
0.2961072 0.09859454 -0.0075256475 0.40125144 0.21446835 0.008859908 0.16952188 -0.10448031
0.13029218 -0.24358638 0.09041346 -0.090780936 0.037833937 0.21923113 0.017014634 -0.21144845
0.11692213 0.095427625 -0.33260426 -0.097471654 -0.25911742 0.20852737 0.13811556 -0.08725947
0.19955486 0.10253315 -0.24048574 0.082958885 -0.06903465 -0.11338781 -0.164217 -0.13205138
0.120983586 0.13552418 -0.14019845 0.06740508 0.04679824 0.03740238 0.22684829 -0.093329534
0.11961341 -0.17973687 -0.11001729 0.11072488 0.08353044 0.1756468 -0.17678156 -0.2070979
-0.017425992 0.26013172 -0.31990936 0.07979426 -0.06898849 -0.09617587 0.13447976 -0.08968818
0.1112478 -0.120620124 0.07839769 -0.12750405 0.10528429 0.0651653 0.03923203 0.16915064
0.27958503 0.14770128 0.16115351 0.19550589 0.1618057 0.107397094 -0.019433042 0.030015087
-0.013362031 -0.038730048 -0.0132498825 0.08152601 -0.10592738 0.035908137 -0.06655101 0.03958078
-0.040409848 0.16712995 -0.29589278 -0.15452588 -0.110922694 -0.091172844 -0.128007 -0.15534356
0.03401579 0.053361982 -0.20408857 -0.059436318 -0.071844935 0.00075005204 0.04559513 -0.038363665
0.10872534 0.11246676 -0.07427438 0.18034756 0.010895754 0.098018125 0.2694883 -0.050510917
0.066080034 -0.047986984 0.37717536 0.045693565 0.14694427 -0.16569738 0.2568953 0.038372967
-0.060549814 -0.22903128 0.054645583 -0.13563931 -0.17290676 -0.055733483 0.033134636 -0.23331864
-0.15112515 -0.14976344 -0.007290881 0.055041227 -0.18431577 0.4185111 0.280229 -0.29996213
-0.06182485 -0.19505195 -0.14598386 -0.27078953 0.04844575 -0.2410946 0.02072227 0.032286596
0.08738694 -0.18133138 0.10683022 -0.13410355 -0.09121744 -0.06693252 0.14332533 -0.24010691
-0.078085564 0.061921794 0.115196735 -0.13410951 -0.19927815 0.07226694 -0.008429649 -0.03844975
0.05562091 0.2067889 -0.24323864 0.17357002 -0.05324702 -0.06778229 -0.017293515 -0.17588514
0.089790426 0.022137335 0.14220886 0.21361022 0.085237265 -0.0024364565 0.23047239 0.17235497
0.13759698 -0.04569811 -0.18866414 0.14287925 -0.028754646 -0.054386113 0.20658165 -0.3056994
-0.13646178 0.16994101 -0.12233105 -0.13723525 0.0046684677 0.2932285 0.08690746 0.012729437
0.1343291 -0.06375198 -0.122055516 -0.055966735 -0.068951525 0.21095465 0.123338655 -0.103568435
-0.018610926 0.22664015 0.10881966 0.19847423 -0.07542323 0.03257098 -0.009907727 0.13031778
0.13197908 -0.23655176 0.0038200945 0.10351296 -0.19225284 0.042591497 0.23754728 -0.15517981
-0.029210992 0.0109114405 0.03314735 -0.09430339 0.012212702 0.007809343 0.047963884 0.07168399
0.16039194 0.07565696 -0.2170444 0.019778768 -0.3786397 0.058988374 -0.09419085 -0.2887856
0.18412308 0.38108358 -0.10513638 0.26737586 0.15229024 0.011452093 0.12698641 0.27431068

bias_ih_l0 f4 [128]
00000000: 080d 83bc 86c3 7b3d 347c c63c 561e 14bd
00000010: 834d cebd 7c5f 3a3e f0e8 053d 8608 12be
00000020: a75e 803b b6c0 243d 3e7d 8b3e 9714 193e
00000030: b6e8 513e 206b 62bd 4613 c63d 4172 a0bd
00000040: 5d36 98bc c490 223e ea94 43bd 63bd 133e
00000050: 8a86 c43d 3cfa 03bd a47d 823d fb11 3abd
00000060: c17d 123e c94b d43d 043f 7fbd 0eda 373c
00000070: f3f3 37bc c114 99bc 821d 3bbd 7d03 803d
00000080: d296 9b3c 8951 80be dee8 6bbe 8026 5a3d
00000090: d536 dcbd 858c 09be 9d3b 76be c5c0 d4bd
000000a0: 2443 31be 2552 07bd ba1a 4ebe 1541 2d3c
000000b0: 6ece 06be 3f5c 2a3e 2382 08bd a872 c8bd
000000c0: 2ac1 a03d 37e6 23bd 95dd 15be 5303 c23d
000000d0: 10e1 96be 1078 3fbd 6bb6 ae3b 1e7d eabc
000000e0: f0b6 6abd c204 1c3e 63fb 793d dea8 a83d
000000f0: 5de6 a8bc e5a8 86be 46de 71be d9aa 84be
00000100: ff3c 0f3e bdfc 013e 83a8 79bd 2179 133d
00000110: cdb1 e2bd 7410 9a3a cf09 cc3d a586 2dbd
00000120: 1e22 55bd a71d 913d 3641 9dbd d120 473d
00000130: be52 cabd cc6d edbc 4730 30bd 9397 d9bd
00000140: 7851 a5bd 0117 f2bd 697b 083e 4903 0ebd
00000150: af3b 753d 6c95 803d 6c23 da3d 369a fbbd
00000160: 4615 f53d bd75 ebbd 66c5 803d e213 f1bd
00000170: a280 c8bd 7de3 063e 75ca bb3c ee3a 8fbd
00000180: de7c 473e 562e 2a3d 16a9 8f3d 88d3 033d
00000190: 4c75 a43d 7b65 0f3e 1f8b 863d 8172 d6bd
000001a0: 4754 cbbd b560 dc3d 1e9e 483d 97f8 b73d
000001b0: 92b7 353e ce3d 65bd 3213 0d3e 072a cf3d
000001c0: d7ec dc3d 2de8 d03d f356 2c3d 2f45 e93c
000001d0: ae55 5d3e 1fe7 d9ba 9609 433d 2ff3 333c
000001e0: b9f4 4fbd 6d7e 0e3e 4f58 c43d 67f0 46bd
000001f0: c72c 043e 6273 4f3e c6f6 d03c d916 323d
-0.015997425 0.061465763 0.024229147 -0.036161743 -0.10073378 0.18200487 0.03269285 -0.14261064
0.0039175334 0.040222846 0.2724399 0.1494926 0.20498928 -0.055277944 0.09671645 -0.07834292
-0.01858061 0.15875536 -0.047749437 0.14427714 0.09595974 -0.032221064 0.0637162 -0.045427304
0.14305784 0.10366017 -0.062315956 0.011221422 -0.011227596 -0.018686654 -0.045682438 0.06250665
0.018992815 -0.25062206 -0.2303805 0.053259373 -0.10752646 -0.1343251 -0.24046178 -0.1038833
-0.17310768 -0.033037324 -0.20127383 0.010574599 -0.13164684 0.16636752 -0.033327233 -0.09787494
0.07849343 -0.04001447 -0.14635308 0.0947329 -0.29468584 -0.04674536 0.0053318045 -0.028624114
-0.05730337 0.1523619 0.061030757 0.08235334 -0.020617658 -0.2630073 -0.23619947 -0.25911596
0.13988112 0.12694068 -0.06095172 0.03600419 -0.11069069 0.0011754171 0.09962808 -0.042364735
-0.05203449 0.07085734 -0.076784536 0.04861528 -0.09879063 -0.02898302 -0.04301479 -0.106246136
-0.080721796 -0.11820794 0.13328327 -0.0346711 0.05987137 0.062785 0.106512874 -0.12285273
0.11966948 -0.11497066 0.06287651 -0.117713705 -0.0979016 0.13172717 0.022923687 -0.06993662
0.19481227 0.041548096 0.070146725 0.032184154 0.08030185 0.14003555 0.06569504 -0.10471059
-0.09928184 0.10760633 0.048978917 0.089829616 0.17745808 -0.055967145 0.13776854 0.10115438
0.10787361 0.10200534 0.04207511 0.028475372 0.21614715 -0.0016624666 0.047616564 0.010983272
-0.050770495 0.13915415 0.09587156 -0.04856911 0.12907706 0.20258859 0.025508296 0.04347882

bias_hh_l0 f4 [128]
00000000: 1af0 76bd eeb9 983d c761 e0bd 3554 003e
00000010: 984c 303d 2086 7dbd 5539 8dbd c72b 0f3d
00000020: a162 b63d ae0a 523e e0f5 823c d70e ca3c
00000030: 026a 08bd 22ba 743e 1193 0c3e 5518 a83d
00000040: 5529 d8bd 73f2 1a3e 10e2 12be c6cc cc3d
00000050: f67b 793e 270f 183e 5ae9 bc3d ab96 9a3c
00000060: f42a 373d fe4f b53d cf22 383c 1594 a4bd
00000070: fb29 bebd 529e e5bc 3445 c33c f4cd e63d
00000080: 9fe1 8ebd c6eb 65be 9e80 ef3b dd8d 1cbe
00000090: baa8 4d3e 929e e93c 0cd1 cbbd 7cad 7ebe
000000a0: ec40 cdbd bccd b6bd 23b7 3abe 0851 4fbd
000000b0: c9a7 09be da1e 56bc abbd 943d 91a2 43bd
000000c0: 623d 56bd aa0e ddbd 32aa f1bd 9042 b1bd
000000d0: bf65 1abe ef91 56be b0f5 5ebe 9be1 67bd
000000e0: bb92 85be 5e04 20be 4a20 45be 5271 b13c
000000f0: 140b 48bd 1d51 eebc 6d3a d5bd ae28 2d3d
00000100: a6d1 12be 8a3c 11be 4b7e df3d 76c8 a0bc
00000110: 1579 153e b033 093d 7a2e b1bd f24d 943b
00000120: bfba b63d f974 babc f417 513d 37fb 863d
00000130: 1ec7 a73d f770 193d ec3b f7bd eee3 233d
00000140: a634 483c 6753 fe3d 198f 703d 861f 25be
00000150: 5dde c6bd 5ed3 183b 2b5f 0cbe 063b 003e
00000160: e35b f3bd 3fdd 18bc f9d8 863d 07e8 3bbb
00000170: f80a b1bd 8071 16be e60c d5ba 9181 0b3d
00000180: ec5f a33d 2618 343e 4a08 b0bd aedc 843e
00000190: c935 373e 05de 313d fc4e 873e d3d2 523e
000001a0: 23f6 1cbe 8613 053e 2d9b 943e 31b9 2a3e
000001b0: a52b 423e 0782 0c3e b905 6c3d fb44 df3d
000001c0: 2d66 013e 017c 0ebd f4b3 163e bc96 c2bd
000001d0: fb7e 373e 8bfa 413e 852d 4c3e b704 133e
000001e0: e758 0c3e e01d eb3d 2955 173e 8487 2dbd
000001f0: 6218 8ab9 8ac6 493e 0626 573d 3714 7a3e
-0.060287572 0.07457338 -0.109561495 0.12532122 0.043041795 -0.06189549 -0.06895701 0.03495386
0.08905531 0.20511886 0.015986383 0.02466528 -0.033304222 0.23899129 0.13727976 0.08207766
-0.105547585 0.1513155 -0.14344049 0.09999995 0.24363694 0.1484953 0.09224196 0.018870672
0.044718698 0.08853148 0.011238768 -0.08036057 -0.09285351 -0.028029595 0.02383671 0.11269751
-0.069766276 -0.22453222 0.0073090335 -0.15288492 0.20083895 0.028517995 -0.09951982 -0.24870867
-0.100221485 -0.089259595 -0.18233924 -0.050614387 -0.13442911 -0.013068879 0.07262739 -0.047762457
-0.052304633 -0.107938126 -0.1180004 -0.08655274 -0.15077876 -0.20954107 -0.2177341 -0.05661164
-0.2608851 -0.15626666 -0.19250599 0.02166048 -0.04883869 -0.029091412 -0.104115345 0.042275123
-0.14337787 -0.1418325 0.1091276 -0.019626837 0.1459697 0.03349656 -0.08651443 0.0045258934
0.08922338 -0.022760855 0.051048234 0.06590884 0.081922755 0.037461247 -0.12071976 0.040012293
0.012219584 0.124182515 0.05873022 -0.16125306 -0.09710381 0.0023319344 -0.13708179 0.12522516
-0.118827604 -0.009330093 0.06584353 -0.0028672235 -0.0864467 -0.14691734 -0.0016254454 0.03405911
0.0797728 0.17587337 -0.08595331 0.25949615 0.17891611 0.043424625 0.26427448 0.20588236
-0.15328269 0.12995729 0.2902464 0.16672207 0.18961962 0.13721476 0.057622645 0.10901829
0.12636633 -0.034786228 0.14717084 -0.095014066 0.17919533 0.18943231 0.1993924 0.14357267
0.13705789 0.114803076 0.1477858 -0.042365566 -0.00026339578 0.19704643 0.052526496 0.24421774

weight_ih_l0 f4 [128, 2]
00000000: 6490 d73d c403 a63d 310c 51bc 77d8 973d
00000010: a231 1d3e dda9 e33b eb8c 05be 8c23 5b3c
00000020: 6de1 4abd aa04 92be 05f2 8a3d 4b9d 243e
00000030: bda8 e7bd 7141 e83d 4113 81be d82e 43bd
00000040: fd61 d73d c278 23be e25a febd f017 e73c
00000050: ae2a 81bd a5ab 3a3d a8ff 003e e6dd 60bd
00000060: 2584 13bc 3365 61be ae99 10bd bca4 acbc
00000070: ab7e 46be 0709 963d 3e21 a5bd 3dfb 623d
00000080: 86e3 21be 084d 2a3e 73dc 3d3d 9c50 883e
00000090: fe0d b73d 96a4 733e fc59 da3d 73a4 163e
000000a0: bc9b 863e dcd3 96bc 7afb 123e 3b80 de3e
000000b0: 52aa 0b3e c248 983e d0c0 d8be ae8c 133e
000000c0: e12e 6bbd 19f9 f23c 8bcf 203d ec08 04be
000000d0: 957a dcbc d74d 623e 2c89 87be db91 f7bd
000000e0: 5056 bebd 1663 afbc b6a7 c53d 7cf3 ac3e
000000f0: 9b57 993e 26a4 53bd ea9f 15bd 713d 91be
00000100: e023 4c3c 67d2 2bbe 9426 b6bd 5427 5fbe
00000110: cd4a 213d 9620 043c e700 e33d 406d 6d3e
00000120: 4320 883e e740 ffbb 516e 95be 584f 2d3e
00000130: 2153 02bf 48b4 863d 9c5f 813e 23bb dd3d
00000140: da80 b2bd 89df d1bd 3ac3 733c dd33 93be
00000150: b959 ddbd b67b dbbd 8a7a 2bbe 25ac fd3d
00000160: 9e45 a8be 39fd 75bd 1299 b23e 76f6 c43e
00000170: 8fdf 38be d2e4 5fbe 5f2b c53d 730e 383b
00000180: b09e e43d 8b10 4ebc 82d5 1cbd bea2 68be
00000190: a77b 283e 6b0d 0c3f b240 aebe 6143 d53d
000001a0: 839e 9ebe 5345 2ebe 6e3a 2d3e d74b 353e
000001b0: c6f5 733d 8e9d c63e 452c d6bd 1a2c f7be
000001c0: db3b 8cbe ca56 37be 0e86 3a3e 2406 933d
000001d0: d599 2c3e d050 0fbe 5bf4 e9bd a205 823e
000001e0: b8f3 383d be3b 97be cc90 22be 210b 043f
000001f0: 1f1e 863e 0cf1 52bd 9a69 9cbc 9034 893e
00000200: f2d9 f2bc 9c95 593e dcc9 5fbe 56be 9bbe
00000210: 7f99 54be b2c3 81be cd37 b7bd 503a 9abe
00000220: cd98 8bbe a184 3c3e c95d 1e3e 7b50 bbbe
00000230: cad7 43bd 17b7 c8bd 9108 8c3e fbe9 f2bd
00000240: bec7 033f 0875 373e cd0f 36bc 796f 1c3f
00000250: 353c 833e a199 d43e 1f6e eebe f442 7b3e
00000260: f2ef 90be c3ac 17bd 79a2 713e aa31 503e
00000270: 9bdf 97be 123a d3be 9fce 9fbe 2c40 433e
00000280: 8abc 193d f12d 203e 6f13 dabe 0dd7 a13e
00000290: c083 243d c017 e53e af19 763e 2f15 d6bd
000002a0: 4aa4 80be e09d 0dbd e6c3 cdbe e5b4 783e
000002b0: cee3 ccbd c769 d5be d6f0 a53d 8adb 21bd
000002c0: 597b 603e ff7f 693e 8a7c 14be b8f5 823e
000002d0: 734d 02bf 0b82 753e 4ca6 863e 5e42 253e
000002e0: 7150 bf3e 2627 5b3e cdc0 293e 3dc2 823d
000002f0: 6b63 7f3e b636 2b3e 1a0a 12be 41bc afbe
00000300: 8882 cbbd ef54 1bbe 0264 e43d ae64 d23c
00000310: 3646 ea3d b851 b9bd 47fd 563e 517c c23d
00000320: b3f9 e83c cd90 5cbe 6dd8 4fbe c428 453e
00000330: a5e2 9dbe e4ed 16be 5731 8cbd ba17 bfbd
00000340: a608 88bd e787 b53d d114 51be 0538 b4be
00000350: bc26 b63d 7e5e b4bc 5d8f ff3d 7ba3 21bd
00000360: c7f9 8e3e 8774 0f3e d064 333e f2ff 713e
00000370: 88ed d8bd 67e1 063e fba1 673b 54e3 7abc
00000380: e6cf 6fbd d430 cf3d 8d54 8cbd 6ca5 16be
00000390: 93bd cdbc 4332 71bd f978 493e 3b41 8e3e
000003a0: c53c 973d 6888 a5bd 332c a4bc 04a1 dd3e
000003b0: 5f70 1b3e 8830 473e c1ed 21be a11a 8bbe
000003c0: 6edc 2b3e cfe2 6d3d aaa6 f13d 9006 39be
000003d0: 4562 e73c 8f82 1dbe da45 233d 432c c83d
000003e0: 6b4e 3bbd 456d 4cbd 9ba1 a8bd d1f1 723e
000003f0: d1b9 283e 84be d3bc 6b4c e03d b8f1 5abe
0.10525587 0.08106187 -0.012759254 0.07414334 0.15350965 0.0069477395 -0.13042037 0.013375174
-0.04953139 -0.28519183 0.06784443 0.16075628 -0.11311481 0.11340607 -0.25210002 -0.047652096
0.10516737 -0.15964034 -0.12419678 0.028209656 -0.06306969 0.04557385 0.12597525 -0.05489912
-0.009003674 -0.2201126 -0.03530281 -0.021074645 -0.19384257 0.073259406 -0.08062981 0.05541538
-0.1580945 0.16630948 0.046352815 0.26624 0.08938216 0.23793253 0.106616944 0.1471117
0.2629069 -0.01841157 0.14353743 0.43457207 0.13639191 0.2974301 -0.42334604 0.14409134
-0.057417754 0.029659795 0.03926043 -0.12894028 -0.02691392 0.22100006 -0.2647184 -0.120883666
-0.092938066 -0.021409553 0.09651129 0.33779514 0.2994965 -0.051670216 -0.03652946 -0.2836719
0.012459725 -0.16779481 -0.08894077 -0.21792346 0.039377976 0.00806441 0.110841565 0.23186207
0.26587114 -0.0077897194 -0.29185727 0.16924798 -0.50908095 0.06577355 0.25268257 0.10826709
-0.08715983 -0.10247714 0.014878089 -0.28750506 -0.10808129 -0.10716955 -0.16745964 0.123863496
-0.32865614 -0.060055945 0.34882408 0.38469285 -0.18054031 -0.21864632 0.09627413 0.0028084784
0.1116308 -0.012577186 -0.038289554 -0.22718331 0.1645342 0.54707974 -0.34033734 0.10413242
-0.3098031 -0.17018633 0.1691682 0.17704712 0.05956056 0.3879208 -0.104576625 -0.48275834
-0.27389416 -0.17904201 0.182152 0.071789056 0.16855557 -0.13995671 -0.1142356 0.25394922
0.045154303 -0.29537767 -0.15875548 0.5157948 0.26194856 -0.05149941 -0.019093323 0.26797915
-0.02964494 0.21248478 -0.21854347 -0.30418652 -0.20761679 -0.25344616 -0.0894619 -0.30122614
-0.27265015 0.18409969 0.15465464 -0.3658484 -0.047813214 -0.098005466 0.27350286 -0.118610345
0.5147666 0.17915738 -0.011112166 0.61107594 0.25631872 0.4152346 -0.4656839 0.2453726
-0.28308064 -0.037029993 0.23597135 0.20331445 -0.29662785 -0.41255242 -0.31212327 0.19067448
0.03753332 0.15642525 -0.42592952 0.31609383 0.04016471 0.44744682 0.24033235 -0.10453259
-0.25125343 -0.03457439 -0.4018852 0.24287756 -0.10004388 -0.41682264 0.081025764 -0.03951601
0.21922053 0.22802733 -0.14500633 0.25578094 -0.5089943 0.23975389 0.2629875 0.16138598
0.3736606 0.21401653 0.16577454 0.06384704 0.24940269 0.1672009 -0.14261666 -0.34323314
-0.09937006 -0.15169118 0.111518875 0.025682773 0.11439173 -0.0904879 0.20995055 0.09496368
0.028439378 -0.21539612 -0.20297404 0.19253832 -0.3083698 -0.14739186 -0.06845348 -0.09330697
-0.066422746 0.08863812 -0.20418097 -0.3519899 0.08894107 -0.022017714 0.12478516 -0.039462548
0.2792494 0.14009295 0.17518926 0.23632792 -0.105921805 0.13171922 0.003534435 -0.015312988
-0.058547877 0.10116735 -0.06852064 -0.14711541 -0.02511481 -0.058885824 0.19675054 0.27784142
0.07384638 -0.08082658 -0.020040607 0.43286908 0.15179585 0.19452107 -0.15813352 -0.27168754
0.16783306 0.05807763 0.11799367 -0.1806891 0.0282451 -0.15381835 0.039861538 0.09774067
-0.045729082 -0.049908895 -0.08233949 0.23725058 0.16477133 -0.02584768 0.109520756 -0.21381271

weight_hh_l0 f4 [128, 32]
00000000: 319f 79bd 5e75 863d 0622 08be c76e 5c3d
00000010: 03b0 553d 5856 4abd 8ff8 0dbe 6e27 74bd
00000020: 00ec 29be 9d70 39bd af89 dc3d e712 413e
00000030: 71e8 033e c1b6 233e d0ab 79bd 94f0 b2bd
00000040: 78e9 d83d bd8d c03a 4d84 883e c390 b5bd
00000050: 3b30 c23d 7ef1 25be fe20 94be ba03 d03d
00000060: e70a 6dbe a0ff 7f3e d230 30be 317b 233e
00000070: 0dd8 e43d 3af6 28be 09cf d7bd d5eb ebbc
00000080: 9055 a63c ab82 f3bd 0829 a6be 03d4 15be
00000090: 60d2 083e 0b9f 8c3b 07b0 81be 93c8 68bd
000000a0: a456 3d3e f8c8 3a3e 4c29 c63e a04f d43b
000000b0: b4ad 98bd 2ab0 e03e 9408 bbbc 7f1a 07be
000000c0: 8c00 a63d b88d 223e 9407 bd3e f425 b73d
000000d0: 8e66 263e 7e98 73be 558f 8dbd 6f96 183e
000000e0: 8e1f a03d a4dd 01bd c5a5 20be 3946 81bc
000000f0: 7c23 793d 5457 4a3d e42e e53d 00b3 ddbe
00000100: 8ef6 debd 3705 613e f4d9 113e 909a 43bd
00000110: 666b 83be 2391 fbbd f375 febd 612f 7c3d
00000120: 320b 80bc 8db7 78be 7738 2dbe 2b26 723c
00000130: a35a b63d 41cb ce3e a68e 753e c8be d4bc
00000140: 96ab 833d 492e 0d3d 0f01 0c3c 00fd 82be
00000150: 033d 823d 54a0 16be 7ad2 01be f82d 553e
00000160: 8f32 8bbe 53d5 533c 3fe5 77be 91a8 403e
00000170: be1a 77be 716b aabc ee2a 5c3e 8896 fdbe
00000180: c435 163e 7744 98bd 8921 873d 2f52 62bd
00000190: f6e9 853d e28c ab3d dbe9 4f3e a803 1c3e
000001a0: dcfa d93e 6e1a 253e e637 a13c fffb 633c
000001b0: 4e6f 933d 088b 64bd e68f 92bd 1f1f b4bd
000001c0: 4fc8 dfbd f4b8 83be 1b16 26bd b7db aabd
000001d0: 99dc 9fbd efea 113e 54ce 833d 262f f4bc
000001e0: 38e1 8f3c 5baf 723e e5cd b6bd b1b0 813e
000001f0: 3295 0d3c fed5 0fbe 32e1 4b3e a392 dabd
00000200: 59c6 81be b227 c83d 2a1e 1e3e ebd6 5a3e
00000210: df6f dcbd d1b5 da3e c24a a13e 1c97 9f3d
00000220: d202 833e 23fc e2ba 42ca 79be 8906 86bd
00000230: 6180 7dbd b69b f73d e400 923e 9c63 4bbd
00000240: 102e b1be 24c2 1bbf 9078 72be a839 163e
00000250: 171e a73d eab7 f23c 78dc ea3e 9f43 0bbd
00000260: e86d 49be c2a3 b93d a2bb d2be 3969 283e
00000270: 5914 09be 16e8 023e b137 cd3d da21 ac3d
00000280: 9cc1 9ebd 3106 a4bd 2776 99be a333 69be
00000290: cb0f f63d 2e14 0a3e fcb2 0cbe 2538 883e
000002a0: fd24 b73e 8cbc 9abe ac0f 83bd 6840 923e
000002b0: 7e17 b53d 7ef8 2c3d de34 443e 04fb 15be
000002c0: 1fb8 68be 7e79 d1bd 7809 73bc 402c eb3d
000002d0: 5e8a c7bd 9649 72be 4b3d 22be af80 673e
000002e0: 3ac9 e03d b4c3 883e 066c 5bbc 7de3 923e
000002f0: 898d 0cbd 0c7a a5be 5ab3 db3e 2fcd e5bd
00000300: 3fb3 953e 6d38 75be 550b b0be 36bd 52be
00000310: 9424 5f3e 972f 73be 5653 db3a a967 3b3e
00000320: ad62 893e f747 703e 8af5 d43e 7a7d c7bb
00000330: 6cfc 08be c144 933e 1b61 dabe 84be 32be
00000340: fa1a a43c a21a 7c3e c105 ab3e 4dfe cebc
00000350: 57b6 443d 77ce 893e bc0b cfbe 5414 2fba
00000360: 3ece 333e c364 583d 2af0 5ebe f5ac 16bd
00000370: e250 cb3e d0e8 1bbe 7174 053d 630e 72bd
00000380: d07a 4f3e 340d 143e 061e d33e 54db 403d
00000390: e231 4f3e 9ec3 c4be 4982 663e 71b4 25bd
000003a0: be8a 13bf 2638 ffbd df12 96be a409 9f3e
000003b0: 776e 3a3f 6aab 00be 2796 ac3d 05d4 733e
000003c0: 6eab f63d 93db 923e 8136 1bbe 9bb3 21bc
000003d0: d86b 463d b4ac a23d 2d65 57bd ba4a 17be
000003e0: 8cb7 8e3c d43c 10bd 7246 e03e 372c eb3d
000003f0: 809d 2abe f200 5e3d 48d1 25bc db94 c83d
-0.060942832 0.06565355 -0.13294229 0.053816583 0.05216981 -0.04939875 -0.13864349 -0.059607916
-0.16593933 -0.045273412 0.107684486 0.18854867 0.12881638 0.15987684 -0.06095487 -0.08737293
0.10591406 0.0014690679 0.26663437 -0.08865502 0.094818555 -0.16205403 -0.2893142 0.10156961
-0.2314869 0.24999857 -0.17206123 0.15964963 0.11174021 -0.16500178 -0.10537536 -0.028798977
0.020304471 -0.11890157 -0.3245318 -0.14631657 0.13361502 0.0042914203 -0.2532961 -0.056831907
0.18490082 0.18240726 0.38703382 0.0064792186 -0.07455006 0.43884403 -0.022831239 -0.13193701
0.08105573 0.15874374 0.36919844 0.08942786 0.16250059 -0.2378864 -0.06912104 0.14901136
0.078185186 -0.031705514 -0.15688236 -0.015780555 0.060824856 0.04939969 0.11190584 -0.4330063
-0.1088687 0.21974646 0.14243299 -0.047754824 -0.25667876 -0.12283542 -0.12424841 0.06156862
-0.015630338 -0.24288769 -0.16916071 0.014779608 0.08904006 0.40389445 0.23980197 -0.025969878
0.06429212 0.03446797 0.008545174 -0.2558365 0.06359293 -0.14709598 -0.12677947 0.20818317
-0.2718701 0.012929278 -0.24208544 0.18814303 -0.24131295 -0.020803185 0.21500751 -0.4952891
0.14668947 -0.07434934 0.06598193 -0.055254158 0.06538765 0.08376481 0.20304053 0.1523577
0.42574203 0.16123363 0.019679975 0.013915061 0.07198964 -0.055796653 -0.07156353 -0.087949984
-0.10926878 -0.25727046 -0.040548425 -0.083426885 -0.078057475 0.14249776 0.06435838 -0.029807638
0.017563447 0.23699705 -0.0892599 0.25330117 0.008641528 -0.14046475 0.19910124 -0.106725
-0.2534664 0.09773196 0.15441194 0.21371047 -0.10763525 0.4271684 0.31502348 0.07792494
0.2558809 -0.0017317574 -0.24393561 -0.06544215 -0.06189001 0.120902464 0.28516304 -0.04965554
-0.34605455 -0.6084311 -0.23678803 0.14670432 0.08160036 0.029628713 0.4587133 -0.034000035
-0.19670832 0.090644374 -0.41158777 0.1644639 -0.13386668 0.12783846 0.10020388 0.08404894
-0.07751772 -0.080089934 -0.29972956 -0.22773604 0.12014731 0.1348426 -0.13740152 0.26605335
0.35770407 -0.30221975 -0.063994735 0.28564763 0.088423714 0.042229168 0.19160792 -0.14646536
-0.22726487 -0.10228251 -0.0148338005 0.114830494 -0.09743188 -0.23660883 -0.15843694 0.22607683
0.10975881 0.2671181 -0.013392454 0.28689185 -0.034314666 -0.32319677 0.42910272 -0.11220776
0.29238316 -0.23947306 -0.34383646 -0.2057999 0.21791297 -0.23748623 0.001673321 0.18301262
0.26833096 0.23464952 0.4159358 -0.006087956 -0.13377541 0.28763393 -0.4265221 -0.17455488
0.020032395 0.24619535 0.33402827 -0.025267744 0.048025455 0.26915333 -0.4043864 -0.00066787493
0.17559144 0.05283047 -0.21771303 -0.03678604 0.39710146 -0.1522553 0.03258175 -0.05909575
0.20261693 0.14458162 0.41233844 0.047084168 0.20233873 -0.38430494 0.22510637 -0.040455285
-0.5763358 -0.12461881 -0.29311273 0.31062043 0.72824806 -0.1256539 0.08427077 0.23811348
0.12044416 0.28683147 -0.1515751 -0.009869481 0.04844269 0.07943097 -0.052586723 -0.147746
0.017421506 -0.03521426 0.43803746 0.11483043 -0.16661644 0.05420012 -0.010120697 0.09794017

bias_ih_l0 f4 [128]
00000000: dfbb a7bc a461 77bd 6976 cc3d 389d b13d
00000010: e22b a33c 79a0 1e3e 9e10 2b3e f0ed b7bd
00000020: 2e27 333d e442 123e c628 7bbd d6b1 cfbd
00000030: 89a9 293d 52af 3a3e b2a5 23be 235c f23c
00000040: b8ff 873c 03da 3c3e 559c 8b3e e188 4cbd
00000050: 9eee 483e bcc2 84bd a8ee d7bd b4bc b4bd
00000060: a659 ffbb c83f 12bd c0f2 ff3d 9be7 fd3c
00000070: 0f1b 023e 7881 8c3d 0b8a 6c3e 4f3a 903d
00000080: 7634 2d3e 2bd4 04be fbe3 fdbd a258 03be
00000090: 783f ff3c a536 e33d dd76 aa3d e7df 753e
000000a0: 705c 513e 5349 a43e b612 c23d 7376 6f3e
000000b0: 210f b6bd 33d5 253e e3b3 91bc 7153 84bd
000000c0: 1e19 5fbd e0d6 8f3e d94b 953e 57f5 1e3e
000000d0: 9391 053e 3752 ee3d a8f0 e3bd 5bd1 1c3d
000000e0: 52a9 e6bc 7c96 be3d 5e4e 203e 28d3 533e
000000f0: 12df 26be c060 c93d a734 423c 4aec a43b
00000100: 6309 55be b2d7 803e e83f 2b3e 14e5 0cbe
00000110: 1975 e63d ca12 89bd d7cf 223e b5ff 4d3e
00000120: 5ee8 c63d b96e 27be 3aed 8e3e 86e6 623d
00000130: 48db 143e 21cc b73e 4638 013e 8ddf 84be
00000140: b30d c5be 5391 cfbd 33db aa3e 24f3 99bd
00000150: 6651 513e eaab 8ebe 7e9c c3bd 27c6 863e
00000160: 3364 98be 9f56 173d 481e 123e 4a58 a53d
00000170: 30a6 c9be ce2b 59bc 3533 fabd ef9f 16bf
00000180: 996c 81bb fddb 2c3e bd83 623e b096 ec3d
00000190: 2695 293e 323f 793e d30d 803e 45af cb3d
000001a0: e5fb 813d 4e41 a53e 36db 8d3d e7ba e2bd
000001b0: b03e 7fbd 2f27 6d3e 5ecd a03d 3c26 573d
000001c0: 694c 003e 621f 28bd 024c 763e 8225 f43d
000001d0: e5a0 fabc 86cd ec3d e776 fe3c 670c c7bd
000001e0: ac34 663e 45e5 253d 9cf6 ac3e 26fd 33bd
000001f0: 530b aabd 012b 073d 9a21 363e 26a8 6abb
-0.020475326 -0.06039585 0.099835224 0.08672565 0.019918386 0.15490903 0.16705558 -0.0898093
0.043738537 0.14283329 -0.06131818 -0.101413414 0.041421447 0.18230942 -0.15981176 0.02958495
0.016601428 0.1844254 0.2726771 -0.049935225 0.19622275 -0.06482455 -0.10543567 -0.08825055
-0.0077926693 -0.035705358 0.12497473 0.030994227 0.12705635 0.06860632 0.23099534 0.070423715
0.16914544 -0.1297156 -0.123969994 -0.1282678 0.031158194 0.11094407 0.083234526 0.24011193
0.20445418 0.32087192 0.09476225 0.23385029 -0.08889604 0.1619461 -0.017785972 -0.06461228
-0.054467313 0.28093624 0.2915943 0.15523277 0.13043813 0.11636775 -0.11129886 0.038285594
-0.02815691 0.09306046 0.15654895 0.20686018 -0.16296032 0.09832907 0.011853374 0.0050330507
-0.20804362 0.25164562 0.16723597 -0.13759261 0.11252803 -0.06693037 0.15899597 0.20117076
0.09712289 -0.16350831 0.27915365 0.055395626 0.14536774 0.35897925 0.12619123 -0.25951806
-0.38487014 -0.1013514 0.3337036 -0.075170785 0.20441207 -0.27865535 -0.09551333 0.26323053
-0.29763946 0.036947843 0.14269364 0.080734804 -0.39384604 -0.013255073 -0.12216798 -0.5883779
-0.0039497134 0.16880794 0.22120567 0.11552179 0.16560802 0.24340513 0.25010547 0.099455394
0.06346873 0.32276386 0.06926577 -0.11070805 -0.062315643 0.23159479 0.07851671 0.052526698
0.12529148 -0.041045554 0.24052432 0.119212165 -0.030594299 0.11562638 0.031062556 -0.097191624
0.2248103 0.04050185 0.33781898 -0.043942593 -0.08302941 0.032999996 0.17786255 -0.003580579

bias_hh_l0 f4 [128]
00000000: c391 553e e9de 4b3e 6df2 f53c 3d5b a8bd
00000010: f55f e93d 7169 783e 23f2 a2bd 23e3 693c
00000020: fcb4 fa3d 9a1f 5c3e 4030 133e 7cd5 db3d
00000030: 56e1 2b3d 7131 443e 6047 8e3d f730 a53d
00000040: 9816 0dbd eda8 d73d 4bd0 3a3e 4659 c2bd
00000050: 411e 4e3e b3b8 363d d07b 413e c69b 25be
00000060: 1817 ebbd df6e f3bd 18b7 b63d 887d 85bd
00000070: 7b91 1c3e ca15 be3d 92b0 b83d 7e8f cb3d
00000080: cf1a 0f3d a5fa ba3d c879 3db8 d375 c3bc
00000090: b545 2a3d 320e 65bd 3d51 23bd b138 4cbd
000000a0: c93f 6abd e696 113e 960c 5c3c 712b 033e
000000b0: a0ef 633d 563d 333e 5169 32be d2dc 0dbe
000000c0: 19f9 543c 96b8 aa3c 1a1c 163e c7de 02bd
000000d0: 1e96 fb3d 4fbf 213d 205f 093d bdd2 dfbd
000000e0: 46ea 73bb 9f46 0d3e 68c7 893d 322f 46bc
000000f0: 4b5c 113d 6f65 c0bd 0689 dcbd 645a 3a3e
00000100: 3390 ebbc 8107 8a3e 2bf0 afbc 48d7 d5bd
00000110: fc7c 3e3e 8250 89be 4927 39bd 2050 4d3e
00000120: 9a88 27be 6f48 723d 0ef9 503e 10a1 263e
00000130: 161c da3d e51c dd3e c18a d33d 3e69 1cbe
00000140: 6789 97be 2600 8f3d 7ed9 4e3d 256a bb3c
00000150: a8b4 803e 46a7 72be 30bf 133d 86ad 4b3e
00000160: e116 6fbe 21db 843e 2ced 7bbd 9564 c63d
00000170: bde5 0abf 99a1 54bd e1a7 d23d dd97 44bf
00000180: 9657 853e 3541 143e 1a03 f73d 046a 1abe
00000190: 1e22 f8bb 4561 833e 1766 333e 1b56 313e
000001a0: e332 da3d 3fc5 ab3e 8f81 6d3c b730 b8bd
000001b0: b7f6 5ebd 5adc b93d d7b8 133e 6451 1e3e
000001c0: 05f9 8b3e 7d0c 8e3c e422 983c 3e05 d63d
000001d0: d9a1 43bd 2896 98bd 7792 1b3e 2723 423e
000001e0: 2447 cc3d 9853 2a3e e02e 013e 01da 103e
000001f0: 2f1b 453e 0c31 cd3d d14b d23d d762 7a3d
0.20856385 0.19909252 0.030022824 -0.08220527 0.113952555 0.24258973 -0.0795634 0.014275345
0.12241551 0.2149643 0.14373875 0.10734078 0.041962944 0.19159485 0.069472075 0.0806598
-0.034445375 0.10530267 0.1824352 -0.09489684 0.20128728 0.044609737 0.18894887 -0.16172704
-0.11479014 -0.11886381 0.08921641 -0.06518084 0.15289871 0.092815 0.09018053 0.09939478
0.034937676 0.09129838 -4.517453e-05 -0.023859894 0.041570384 -0.05592174 -0.039872397 -0.049858753
-0.057189737 0.1421772 0.013430735 0.1280954 0.055648446 0.17503867 -0.17422988 -0.13853768
0.012998843 0.02083997 0.14659157 -0.03195074 0.12284492 0.039489087 0.033537984 -0.10928867
-0.0037218495 0.13796471 0.06727487 -0.012096213 0.035488408 -0.09394347 -0.10768323 0.18198544
-0.028755283 0.2695885 -0.021476826 -0.10441452 0.18602365 -0.26819235 -0.04520348 0.20050097
-0.16360703 0.05915111 0.20407507 0.16272378 0.10649888 0.43186107 0.103291996 -0.15274522
-0.29597017 0.0698245 0.050500385 0.022877762 0.2513783 -0.23696622 0.036071002 0.19890413
-0.23348571 0.25948432 -0.06150548 0.09687153 -0.542568 -0.051911924 0.102859266 -0.76794225
0.26043385 0.14478 0.120611385 -0.15079504 -0.0075724265 0.25660148 0.17519413 0.17318003
0.10654237 0.33548924 0.014496221 -0.089936666 -0.054434504 0.09075232 0.1442598 0.15460736
0.27338424 0.01733994 0.018571325 0.104502186 -0.04776177 -0.07450515 0.1519259 0.18958722
0.099745065 0.16633451 0.12615538 0.14145662 0.19248651 0.100191206 0.10268367 0.061129417

weight_ih_l0_reverse f4 [128, 2]
00000000: bc8e 203e 2182 d63d b506 c83c 6bbe 31bc
00000010: dda4 1ebe e4da 72be 1c57 903e 1402 713e
00000020: cc0a fcbd c013 9dbd 2ce8 4ebd 3d2b 29be
00000030: 125b 5bbe 9e76 e1be 2c12 843e 2dc2 d0be
00000040: b531 813e c1fe 57bf 0994 97be a214 ba3e
00000050: 7569 c4be c8f0 923e f43d b23e 219f 15be
00000060: 4a7f d3be b0c3 b5bd 40a7 f6be b256 bebd
00000070: 271f 1e3f 37b3 e3be cb6b d23e 8244 033e
00000080: 4bf0 b4bd 899c 02be 7f37 503e 5694 fb3e
00000090: 2f81 163d 64f3 80be 0f20 db3d 5fe3 273e
000000a0: 22ce ebbc 42d1 2d3e 2e48 f63e e59b c03e
000000b0: b281 3bbe b476 213e 35b0 bdbd 955c 58bd
000000c0: b7aa 5ebf 6a6c 9dbd 03dc 25bf eaef c2be
000000d0: 3d69 f8be be5b 5bbe 1906 c8bd b2d9 3d3e
000000e0: 4d7d 8c3e a5c9 4ebe 29ba 33be e0e7 e83d
000000f0: 5f69 35be 5cdb f93d 81e0 d1be c446 f3be
00000100: e232 0a3e 6294 b13e 1229 653d 9811 88bd
00000110: 2cb8 81be a1f4 79be 9498 213d 26a8 da3d
00000120: 0db3 19be eb07 64bd ff41 943e a101 89bd
00000130: 7d1a c9be eb8f c2be 49bf 913e cea1 29be
00000140: 2cec 823e 5b3f b6be cf29 2abe 8e0d 1b3e
00000150: 72a5 123d 17d2 6c3d 24a5 843e fc42 e7bd
00000160: 1704 2cbe 9914 65bd 19dc 4fbe 4924 8fbd
00000170: 3a87 9c3e 1750 a5be 4b42 b73e 3c54 da3d
00000180: 96eb babc fa2c ebbd 1a67 30bd fbc1 df3e
00000190: af95 87bd 1ab5 2bbe 263b 5bbd 3c22 fc3d
000001a0: 8692 7f3d b756 173e aedf 743e 9587 fb3d
000001b0: 5c01 a2bd 72ff 97bd 3e7c d2be 6ca8 2ebe
000001c0: 7297 d3be 564e c6bd 2c2f 56be bdb3 c5be
000001d0: 2e69 31be 1095 48be 3d04 0c3d a553 97bd
000001e0: c8cd a03d 6251 643b 3646 bfbd fcaa d13d
000001f0: f106 06be 8403 0c3e 454e 0d3e 6087 f2be
00000200: 7d09 97be 4355 89be 4609 e83d e69e c93e
00000210: 96d8 3f3e 3bcb 0a3e 179e a2be 8a95 55be
00000220: e173 593e 9d95 b83e cf5e 833e 875a b5bd
00000230: f7c5 92be f1e9 d4be ba11 c7be 233c 813e
00000240: a481 90bd 2487 2cbf 2aa9 3abe 2fca ed3e
00000250: d0fc a23e 1cc7 3abe cd56 db3e 764c adbd
00000260: 02f0 af3e bc77 b23d 68fa e83e b3dc c7bd
00000270: d4d3 233e e21c d9be 2f29 883e 6abf 483d
00000280: e916 3dbd d160 b53e 499c 633e 8688 303f
00000290: b8e8 0f3e ee32 c0be db31 cdbe 1395 4e3e
000002a0: 3d9f a6be d2e5 89bd f953 9fbe 8d04 16be
000002b0: 1b90 b8be 87b8 523e b1bc 503e 5367 893e
000002c0: 1533 04bf d65c 7d3e 2e77 b83e 2b8f a73e
000002d0: 62f7 bfbe 5c0b 3bbe fbab 2dbe 19d6 9abe
000002e0: e75d cbbe 3ea6 813e 2fd7 b43e d5cf 0e3d
000002f0: bf14 8e3e 3be0 b2be dd40 e93d 9bd7 afbe
00000300: ad90 353e a3dc 663d 5b3a 2b3d beea e6bd
00000310: a8bd 5fbc df83 52be 3546 71be e8b6 e1bd
00000320: f35b 87be 58d5 b23d 6299 04be a6ac 793c
00000330: b270 bdbe fbf1 a1be faf1 bd3e dab7 debe
00000340: fbbe c6bd 4910 39bf bb23 d4bd 261a febc
00000350: cbdc 65be ad1c ec3d 6dd8 de3e de8b 50be
00000360: 07ef 83be a87d 82be 167d a6be 5407 113e
00000370: 6e09 5b3f 8687 09bf 9191 933e 3790 a0bc
00000380: 8a90 153e cc80 4fbc c47a fe3c 38e8 363e
00000390: f1d2 3fbd dd68 84bd 8446 323c 2297 843e
000003a0: 67a9 db3d edd7 72bd 3588 963e 07f6 133f
000003b0: 9c82 5d3c c773 33bc c669 90be 9056 9cbb
000003c0: 10aa d2be 586f 743c c5dc 3fbe 5053 dfbe
000003d0: db08 29bf c942 03be f24a 933d 7ea7 543e
000003e0: f810 1a3f cde0 9bbe a4ff 4bbe bc54 17be
000003f0: 336a 83bd c950 043e efda 14be 411d 41be
0.15679449 0.10474039 0.02441726 -0.010848622 -0.15492578 -0.23716313 0.2819146 0.23535949
-0.12306747 -0.07669783 -0.050514385 -0.165204 -0.2142146 -0.4403581 0.25795114 -0.40773144
0.25233236 -0.843731 -0.2960513 0.36343867 -0.38361707 0.28699327 0.3481289 -0.14611484
-0.4130805 -0.08875215 -0.48174477 -0.092938796 0.61766285 -0.44472668 0.41097865 0.12819102
-0.08834895 -0.12755026 0.2033367 0.4913661 0.036744293 -0.25185692 0.10699474 0.16395329
-0.028784815 0.16974357 0.48101944 0.37618938 -0.18311194 0.15767938 -0.092621244 -0.052822668
-0.8697924 -0.07686694 -0.64788836 -0.38073665 -0.4851779 -0.21421716 -0.09766788 0.18540075
0.27439347 -0.20194109 -0.17551483 0.11372352 -0.17715977 0.122000426 -0.40991595 -0.47514927
0.13495973 0.3468352 0.05594737 -0.06643981 -0.25335824 -0.24409725 0.03945215 0.10676603
-0.15009709 -0.055671614 0.289566 -0.06689764 -0.3927802 -0.38000426 0.28466251 -0.1656563
0.2557081 -0.3559521 -0.16617511 0.1514189 0.035802312 0.057817545 0.25907242 -0.11292073
-0.16798435 -0.055927847 -0.20298804 -0.06989343 0.3057192 -0.32287666 0.35792765 0.10660598
-0.022817414 -0.11483188 -0.043067075 0.43702683 -0.06620347 -0.16768304 -0.053523205 0.12311217
0.062395595 0.14779173 0.23913452 0.122817196 -0.079104155 -0.07421769 -0.41110414 -0.17056435
-0.4132648 -0.0968291 -0.20916432 -0.38613692 -0.17325279 -0.19588113 0.03418373 -0.07389001
0.0785175 0.0034838547 -0.093395635 0.10237691 -0.13088585 0.13673216 0.13799389 -0.47368908
-0.29499426 -0.26822862 0.11329894 0.39379042 0.18734965 0.13554089 -0.31761238 -0.20857826
0.2123561 0.36051646 0.2565827 -0.08855157 -0.2866666 -0.41584733 -0.38880712 0.25241193
-0.07055977 -0.6739371 -0.18228593 0.46443316 0.31833506 -0.18240017 0.4283966 -0.084618494
0.343628 0.08714244 0.45503545 -0.09758892 0.15998775 -0.42404848 0.2659392 0.04901067
-0.046164427 0.35425428 0.22227587 0.6895832 0.14053619 -0.37538856 -0.400771 0.20174055
-0.32543364 -0.06733288 -0.31118754 -0.14650173 -0.36047444 0.20578204 0.2038448 0.26836643
-0.51640445 0.24742445 0.36028427 0.32726416 -0.37493426 -0.18266052 -0.16960137 -0.3024147
-0.3972008 0.25322145 0.35320422 0.034866173 0.27750203 -0.349367 0.11389325 -0.3434418
0.1773097 0.05636276 0.0418037 -0.11275242 -0.013656057 -0.20558117 -0.23561938 -0.11021215
-0.2643734 0.08732098 -0.12949136 0.0152389165 -0.37000042 -0.3162993 0.37098676 -0.43499643
-0.097043954 -0.72290474 -0.103583775 -0.031018328 -0.22447507 0.11528907 0.43524495 -0.20365855
-0.257683 -0.25486493 -0.32517308 0.14162952 0.85561264 -0.5372242 0.28821996 -0.019600017
0.14605919 -0.012664985 0.031064399 0.17862022 -0.04683203 -0.064653136 0.01088107 0.25896555
0.1072567 -0.059287954 0.29400793 0.5779728 0.013519909 -0.010952896 -0.282057 -0.0047710612
-0.41145372 0.014919125 -0.1873656 -0.4361825 -0.6602914 -0.12818445 0.07192029 0.20767018
0.6018214 -0.30444947 -0.19921738 -0.14778417 -0.0641674 0.12921442 -0.14536642 -0.18858816

weight_hh_l0_reverse f4 [128, 32]
00000000: 041c 71be 70e5 7f3e 0bb0 e9bc f0d5 55bd
00000010: 1b07 1e3e deaa 4a3e 587d 7bbe 378f 1d3d
00000020: 3ad4 0fbe 095b 703e 4112 c13d dcb3 3bbd
00000030: bf94 ec3d ad10 823e c383 f3bd 81aa 7e3e
00000040: 56e1 123e f7e8 903e 5534 20bd 1172 4ebc
00000050: f348 a6be 20dd c83c 5e6c d03d f968 123e
00000060: f1e8 12be 2a6d 443e 7eae a8be 9ef4 94be
00000070: 0056 b83d 88fe 403e 7ee8 7ebe e139 0f3c
00000080: a2fb 05be f59e 2f3e 749c 1b3d 08a3 393e
00000090: d174 90bd 59d2 19be 5111 b5bd 4045 98bc
000000a0: 5b0c 43be 4572 253e 5640 20be e592 46be
000000b0: 1234 403d 893f 19be 7d77 c7bd 3711 a2bd
000000c0: f7cc 2bbc 1e75 e7bd 1f8f 82bd 366f db3d
000000d0: e836 d1bd eea4 b93d ed6f bb3d e1c3 c4bd
000000e0: 3c50 81bc c90c 6dbd 8463 5c3c d451 d9bd
000000f0: b4e8 bd3d 6fc6 54bd 0abe c03c 126f 713d
00000100: 7d36 403e c22c 86be c190 ebbd 753b 8fbc
00000110: 1f72 793e 6fa5 7f3e 1271 de3d e213 2ebe
00000120: 5378 65bd 0614 c33b 4a6e 013f cb03 193e
00000130: c7c2 353e 74a1 833e 9b95 e23d 0854 843e
00000140: 2ae8 f9be c7a4 51be cfc8 a8bc 1cd1 c0bd
00000150: 285b 483d 9545 3bbe 831e d73d 39dd 74bd
00000160: eb22 59be 3cfb e93e 58b0 47bd 53f1 a83c
00000170: 94ff 003c b521 3a3d 1970 26bd ee44 4dbe
00000180: bcbe edbd 26c4 fdbb e670 033d 6a06 03be
00000190: bfa6 893e 56d0 51b9 c4dc a8be 2ec9 4a3e
000001a0: ee7e b7be c8aa dcbc 0ede 5f3d 8ac2 873e
000001b0: 401d 793e c7d6 b03d 121c 8bbc 2e59 9f3e
000001c0: 7393 2e3e 339b 8d3e 52fe 40be d11d 5cbb
000001d0: db8b aebe b678 c33d aee4 92be cb00 f23e
000001e0: d170 9ebe 6ad5 d43e 6764 79be a3fa 9ebd
000001f0: ea9f 013e 4015 193d 01c7 dabc 5765 04be
00000200: dd5e a73e d050 17be d3b9 cd3b 6174 173e
00000210: c955 0fbe cec7 8cbd e4e1 76be bbbc 403d
00000220: 6cba acbd 7883 53be 7f47 833c e497 7dbd
00000230: 28be 37be b020 b63e 88b4 71be cb64 32be
00000240: c64f d3bd 1347 8cbe 812c 67bd 7e38 b23d
00000250: 3985 abbc 6cc3 483e 77ba 83be dc24 713e
00000260: c793 a7be 6eca 8e3e 43a5 93be f45f 723e
00000270: dc02 b93d bb54 b93d ca57 36bd cc62 bebe
00000280: 0cac 8ebd 8011 11be 1d2e a3bd 8d80 283a
00000290: 5051 823d f1ab 653e 1b27 a2bd 2520 6cbe
000002a0: fd8e a4bd 181a 98bd 3b80 8bbb 9680 c0bd
000002b0: 0f1e 1ebe 1ead 5d3e 8da2 733c 1c0e 673d
000002c0: 0624 87bc 0a26 f7bd b8bb 14be d0d0 20bb
000002d0: 16a5 393d 142e e33d a7d7 a0be f83d d13c
000002e0: ea93 cc3c e35a 00be c6fc 45be dc4e e1bd
000002f0: 09bc 79be 1222 a83d a5a2 123e 9952 e23c
00000300: 8cab 443f 7193 b5be 2331 c4bd e01a 693e
00000310: 72c3 a4be 2b2f a5be 5ff6 be3e b7c1 f1bd
00000320: a154 e83b fc99 0bbf 7aec 0e3e 8ba6 9d3d
00000330: 847d d8be 975d 903d e3b8 e8bd d247 2bbd
00000340: f83d d3be 59ef dfbe fc8e b13d 7e25 5a3e
00000350: e5d9 9f3e 8640 f73e db89 573e 7ca6 6fbe
00000360: 969a 283d 972d 7cbd 0ab2 923e 44fc 9a3e
00000370: e47b c3bd 0601 13bf fc0a 333e cdf6 463e
00000380: eb2c c43d f9ae 60be 011e dd3c 03de debd
00000390: 4040 87bc 1ad0 4b3e 67f3 26be a7a2 8dbe
000003a0: 5f8c 05bd 88b4 c8bd d4b3 a53e 0a46 383d
000003b0: 8475 273c d958 3c3e 7a8d a33d deab 83bd
000003c0: 2241 053d 9c7b cdbd 9c3e 54be 706f 57be
000003d0: a6d6 d3bd de77 20bc ccc9 57bd c8bb 983d
000003e0: 45d2 143e 527d a53d dd28 ce3d 7c99 8b3b
000003f0: 2024 ffbd ff30 393d 2a20 a63c a7c9 223e
-0.23545843 0.24989867 -0.028526327 -0.05220598 0.15432398 0.19791743 -0.24559534 0.03846666
-0.14045802 0.23472227 0.0942731 -0.045825824 0.115518086 0.25403348 -0.11890366 0.2486973
0.14343771 0.28302738 -0.039112408 -0.012600438 -0.3247753 0.024519503 0.101769194 0.14297856
-0.14346673 0.19182268 -0.32945627 -0.29092878 0.09000778 0.18847096 -0.24893376 0.008741827
-0.13084272 0.17150481 0.037991002 0.18128598 -0.07053531 -0.15021648 -0.088411935 -0.018587708
-0.19047682 0.16156872 -0.15649542 -0.19391973 0.046924658 -0.14965643 -0.097395875 -0.0791344
-0.010485879 -0.11301635 -0.063749544 0.10714571 -0.10215551 0.09064661 0.091522075 -0.096076734
-0.015785329 -0.05787352 0.013451461 -0.106113106 0.092729 -0.051947054 0.023528118 0.058943816
0.18770786 -0.26206023 -0.11502219 -0.017484406 0.2435994 0.24965452 0.1086141 -0.16999772
-0.056022953 0.0059533147 0.5055891 0.14942853 0.17750083 0.25709116 0.11063691 0.2584536
-0.4880994 -0.20473014 -0.020603565 -0.094148844 0.04891506 -0.18288262 0.105038665 -0.059781287
-0.21204726 0.4569949 -0.04875216 0.020622885 0.007873435 0.0454423 -0.04063425 -0.20045826
-0.11608645 -0.00774433 0.03209009 -0.12795416 0.2688503 -0.00020009404 -0.3298093 0.19803306
-0.35839027 -0.026936904 0.054655127 0.2651561 0.24327564 0.086347155 -0.016981158 0.31122726
0.17048435 0.2765747 -0.18847016 -0.0033587108 -0.34091076 0.09544508 -0.28690094 0.4726623
-0.30945447 0.41569072 -0.24354707 -0.07762649 0.12658659 0.03737378 -0.02670622 -0.12929283
0.32689562 -0.14776921 0.0062782555 0.14790489 -0.13997568 -0.06874047 -0.24109608 0.047054987
-0.08433995 -0.2065562 0.016025303 -0.061912432 -0.17943633 0.35571814 -0.23604023 -0.17421262
-0.1031795 -0.27397975 -0.056438927 0.08702181 -0.020937549 0.19605798 -0.257282 0.23549217
-0.32729933 0.27888817 -0.28837022 0.23669416 0.090337485 0.09049364 -0.044517316 -0.3718475
-0.06966409 -0.14166832 -0.0796778 0.0006427847 0.063631654 0.22428872 -0.07917615 -0.23059137
-0.08035085 -0.07426852 -0.0042572296 -0.09399526 -0.15441154 0.2164807 0.014870298 0.05640994
-0.01649667 -0.12067802 -0.14524734 -0.0024538524 0.045323454 0.11092773 -0.3141453 0.025542244
0.024972875 -0.1253467 -0.19334707 -0.11001369 -0.24388136 0.082096234 0.14319856 0.027627276
0.7682426 -0.3546405 -0.095796846 0.22764158 -0.32180363 -0.3226255 0.3729734 -0.11804526
0.0070901667 -0.54531837 0.13957396 0.07697781 -0.4228326 0.07049101 -0.11363389 -0.04181654
-0.41258216 -0.43737295 0.0866985 0.21303365 0.31220928 0.48291415 0.21048681 -0.23403352
0.04116305 -0.061566915 0.28651458 0.30270588 -0.09545115 -0.57423437 0.17484659 0.19430085
0.0957888 -0.21941747 0.026991846 -0.10882189 -0.016510129 0.19903603 -0.16303788 -0.27663156
-0.03260457 -0.098000586 0.3236376 0.04498867 0.010220889 0.18393268 0.07985969 -0.064292654
0.03253282 -0.10033342 -0.20727009 -0.21038604 -0.10343675 -0.009794204 -0.052682683 0.074576914
0.14533336 0.080805436 0.10066388 0.00426024 -0.12458062 0.045212742 0.020279009 0.15897237
