experiments/pedestrians/models/models_14_Feb_2024_17_26_50_eth_vel_ar3/model_registrar-31.pt (torch, 527902 bytes, 43 tensors)

weight_ih_l0 f4 [128, 6]
0.06436132 0.073096246 -0.16116011 -0.012148358 -0.040267807 0.08753328 -0.19315182 -0.348174
-0.092905134 0.21889892 0.04108424 -0.05680982 0.009019391 -0.020924548 -0.2546493 -0.13458982
-0.20240809 0.08859779 0.12899409 0.19704953 0.08472472 0.03055035 0.09560615 0.03823473
-0.11414817 0.06939083 -0.12573494 -0.4209019 0.48711056 -0.9545787 0.16127239 0.10131002
0.1635917 0.07705229 0.30622503 -0.26722735 -0.3983325 0.0881841 0.13413379 -0.1308203
0.0564515 -0.21436991 -0.31710765 0.0060677864 0.34171486 -0.0037455559 0.035522662 0.0032969269
0.22963952 0.2023013 0.38417327 -0.23475853 0.3034108 -0.16419846 -0.090414256 -0.2323119
-0.018832378 0.29991522 0.092341565 -0.07457073 0.11947144 -0.18953012 -0.34078148 0.19008963
-0.09975196 0.047995504 -0.016760573 0.14862029 -0.43788 -0.1505441 -0.44228673 -0.12592442
0.03593204 -0.09690723 -0.18919364 0.111929595 0.16777916 -0.066026494 -0.121932864 0.03377022
0.33954334 0.24942374 0.3349954 0.26185054 0.017590273 -0.05147089 -0.6010524 0.08011093
-0.3835207 -0.04619725 -0.24069676 0.12127281 0.32609445 0.13018356 0.008375317 0.24440446
0.23453884 -0.03483354 -0.36206827 0.33299604 -0.3688492 0.01397173 0.120604806 -0.22043881
-0.12859063 0.12259032 -0.0253886 0.08779509 0.1522228 -0.15833418 -0.2062222 0.42246103
-0.03894753 0.5170247 0.05768846 0.023034338 -0.3117737 0.09083853 -0.034867395 0.31723163
-0.3253208 0.22224121 0.33306015 -0.21405603 0.2764274 0.015062177 0.03531947 0.20073985
0.051022757 -0.09281646 0.041877553 0.08534096 -0.12638393 -0.31946906 0.05305501 0.042790692
0.32180062 0.017919257 -0.055560555 0.029259788 0.102153994 -0.093833156 0.019232493 0.044702962
0.10206966 -0.054997634 -0.20905998 -0.056178942 -0.18128736 -0.18270238 -0.27834523 -0.11744057
0.010519183 0.18054062 0.102106854 0.09911018 -0.046771254 0.20115386 -0.48689464 -0.39223936
-0.31635475 -0.105619095 -0.19487393 0.05862328 0.6230272 0.5161889 0.422489 0.6059604
0.14937761 0.025439713 -0.25501814 0.099796 0.083122864 0.2420708 -0.34099317 0.023350198
-0.0015235518 -0.21237785 0.17878945 -0.0155794285 -0.11329421 -0.056027763 0.24288908 0.042682737
-0.1045434 -0.19454102 -0.10774818 0.09418418 0.06693101 0.008448844 -0.22903834 -0.090048015
0.12553 0.14161712 -0.13957159 -0.11286353 -0.18624341 -0.21460888 0.013575944 -0.09487377
0.02377035 0.10308014 0.050784003 -0.07708031 -0.09349739 -0.020216784 -0.05302181 -0.01015689
-0.24284022 0.069624744 0.07875192 0.082695626 0.0844813 -0.13296883 -0.067956164 0.011000511
0.0586957 -0.2244543 0.16491702 -0.09811343 -0.10870889 -0.0033881348 0.113554046 -0.004522547
0.11157051 -0.19669923 -0.2896857 0.026057396 -0.11277907 0.03568732 0.16137855 -0.08353602
-0.10241241 -0.042844947 -0.15008065 -0.21067998 0.246788 0.0004487284 -0.051549766 -0.012305881
0.2438126 0.017712168 -0.016709516 -0.14190762 -0.03746588 0.004633177 -0.21076699 -0.036403976
0.2702522 0.092564546 0.17560133 0.07740266 0.12375713 -0.28329408 -0.118620366 0.16519803
00000000: decf 833d 7cb3 953d 2807 25be e809 47bc
00000010: dbef 24bd a644 b33d 97c9 45be dd43 b2be
00000020: 0c45 bebd 0a27 603e f347 283d 6ab1 68bd
00000030: 11c6 133c f569 abbc 6561 82be ead1 09be
00000040: 1144 4fbe c272 b53d 0717 043e 5ac7 493e
00000050: 2784 ad3d ba44 fa3c 28cd c33d 059c 1c3d
00000060: 84c6 e9bd c81c 8e3d a9c0 00be 7480 d7be
00000070: 8e66 f93e 455f 74bf 9724 253e a17b cf3d
00000080: 9584 273e 97cd 9d3d 87c9 9c3e 06d2 88be
00000090: 3df2 cbbe de99 b43d 5e5a 093e c2f5 05be
000000a0: b039 673d c983 5bbe ef5b a2be 48d4 c63b
000000b0: 40f5 ae3e 0078 75bb 3680 113d 4111 583b
000000c0: 9f26 6b3e 1228 4f3e 5cb2 c43e 8a64 70be
000000d0: a958 9b3e a423 28be 1c2b b9bd 2ce3 6dbe
000000e0: 5c46 9abc 7d8e 993e 931d bd3d 8ab8 98bd
000000f0: 71ad f43d 2f14 42be e97a aebe dba6 423e
00000100: c14a ccbd ef96 443d 784d 89bc eb2f 183e
00000110: cf31 e0be 3c28 1abe 6873 e2be 55f2 00be
00000120: 7a2d 133d 4c77 c6bd fabb 41be 583b e53d
00000130: 4dce 2b3e e638 87bd f0b7 f9bd a452 0a3d
00000140: a0d8 ad3e f068 7f3e 8484 ab3e 4611 863e
00000150: 7a19 903c 24d3 52bd 92de 19bf 3311 a43d
00000160: d35c c4be 5439 3dbd 3679 76be e15d f83d
00000170: daf5 a63e d74e 053e a038 093c 2a45 7a3e
00000180: f32a 703e 9dad 0ebd 0361 b9be 757e aa3e
00000190: cdd9 bcbe afe9 643c a7ff f63d b6ba 61be
000001a0: 43ad 03be a210 fb3d c1fb cfbc eacd b33d
000001b0: 4be0 1b3e 5b22 22be ea2b 53be d04c d83e
000001c0: 7287 1fbd bb5b 043f bc4a 6c3d 82b2 bc3c
000001d0: cda0 9fbe 8d09 ba3d 1dd1 0ebd 2f6c a23e
000001e0: 7390 a6be 3393 633e dc86 aa3e 8131 5bbe
000001f0: e487 8d3e 59c7 763c 26ab 103d bf8e 4d3e
00000200: 3dfd 503d 8e16 bebd cc87 2b3d 3ec7 ae3d
00000210: ca6a 01be 7391 a3be 3650 593d 4b45 2f3d
00000220: 0dc3 a43e 68cb 923c 7793 63bd 39b2 ef3c
00000230: 1d36 d13d 992b c0bd 768d 9d3c 741a 373d
00000240: e609 d13d 3345 61bd d213 56be e41b 66bd
00000250: 65a3 39be 5516 3bbe 4483 8ebe ae84 f0bd
00000260: a758 2c3c a4df 383e 661d d13d 47fa ca3d
00000270: 3793 3fbd 47fb 4d3e 414a f9be 99d3 c8be
00000280: 40f9 a1be d34e d8bd 088d 47be f71e 703d
00000290: b67e 1f3f f524 043f 7a50 d83e 3920 1b3f
000002a0: 72f6 183e f266 d03c bd91 82be d861 cc3d
000002b0: 523c aa3d 68e1 773e a896 aebe ea48 bf3c
000002c0: eab1 c7ba 9479 59be 9514 373e dc40 7fbc
000002d0: cb06 e8bd 5e7d 65bd eab7 783e 18d4 2e3d
000002e0: da1a d6bd c335 47be 14ab dcbd a3e3 c03d
000002f0: 2013 893d 056d 0a3c 0789 6abe 186b b8bd
00000300: f08a 003e 1404 113e dbeb 0ebe ff24 e7bd
00000310: 98b6 3ebe 6ec2 5bbe a36d 5e3c 2e4d c2bd
00000320: 09ba c23c ae1b d33d e302 503d 48dc 9dbd
00000330: 8f7b bfbd ab9d a5bc 662d 59bd 1669 26bc
00000340: 1bab 78be 6b97 8e3d b048 a13d 535c a93d
00000350: 8804 ad3d fb28 08be 9a2c 8bbd 7d3b 343c
00000360: e76a 703d 59d7 65be 02e0 283e b2ef c8bd
00000370: c4a2 debd 780b 5ebb 068f e83d e031 94bb
00000380: 147f e43d 866b 49be af51 94be 5276 d53c
00000390: b7f8 e6bd de2c 123d 6b40 253e ef14 abbd
000003a0: 99bd d1bd 2f7e 2fbd beae 19be 7ebc 57be
000003b0: feb5 7c3e 4e43 eb39 d925 53bd 9b9e 49bc
000003c0: 03aa 793e 1c19 913c 65e2 88bc 3b50 11be
000003d0: d375 19bd e8d1 973b 4dd3 57be 561c 15bd
000003e0: 7f5e 8a3e 7b92 bd3d d6d0 333e 4985 9e3d
000003f0: 6174 fd3d ec0b 91be 3cef f2bd ac29 293e

weight_hh_l0 f4 [128, 32]
-0.026405197 -0.22289447 -0.011143005 0.09277008 -0.1141958 -0.0070164423 -0.049887814 -0.15725683
0.05312013 0.2507015 -0.108897075 0.13588415 -0.113434106 0.21341558 0.16498196 0.10834985
0.19237885 -0.12706465 -0.111631155 0.008878 -0.19390002 -0.14308661 -0.08570522 -0.26466298
0.2977215 0.09934762 -0.005168786 0.40301147 0.2163588 0.010480307 0.17066412 -0.106133536
0.12729926 -0.24352156 0.08772833 -0.09227579 0.040968966 0.2237256 0.0122161945 -0.20865658
0.12213858 0.096650004 -0.3326605 -0.097631246 -0.25420663 0.21023402 0.13934132 -0.08659715
0.19590537 0.10031692 -0.23795094 0.08391365 -0.06464691 -0.113465875 -0.16542163 -0.12737161
0.12181457 0.13406958 -0.1366142 0.0659976 0.04543713 0.041464236 0.22749728 -0.09866097
0.12051927 -0.1803397 -0.10721629 0.112640604 0.08442554 0.17758626 -0.18012856 -0.2095317
-0.014156105 0.26007843 -0.32090026 0.079544716 -0.072361015 -0.096072756 0.1364707 -0.090814695
0.10990197 -0.118033886 0.0776745 -0.12635271 0.10830156 0.06700755 0.038469125 0.16934465
0.27750614 0.14795807 0.16143994 0.19694506 0.1624622 0.109025896 -0.019313905 0.028745025
-0.010529474 -0.03903091 -0.01059172 0.08132029 -0.11596609 0.033943534 -0.060041104 0.03761476
-0.044744495 0.16693133 -0.2953368 -0.156762 -0.11258751 -0.09061042 -0.12869813 -0.15981138
0.034092 0.05260787 -0.20235844 -0.06130794 -0.07731985 0.003970277 0.044838473 -0.040923294
0.10451139 0.10852198 -0.07824864 0.18053184 0.0065940027 0.09193782 0.27036694 -0.048893496
0.062561445 -0.04306169 0.37523305 0.04095173 0.14618504 -0.16985562 0.26031408 0.03607158
-0.07357802 -0.22832175 0.054016557 -0.13011245 -0.17722572 -0.060098853 0.030804474 -0.24117862
-0.14978386 -0.14613426 -0.009268263 0.05258862 -0.187 0.4118077 0.28057092 -0.3060134
-0.05903135 -0.19592033 -0.14604488 -0.27150217 0.04924235 -0.24491242 0.020705186 0.036694873
0.0840578 -0.18476371 0.10299941 -0.14205827 -0.092981674 -0.06650889 0.13948625 -0.24481586
-0.08316874 0.06743221 0.11172531 -0.13133936 -0.19523972 0.07970536 -0.010981726 -0.048117924
0.05743107 0.20458525 -0.24488258 0.16879964 -0.054179527 -0.072903104 -0.024943253 -0.17388573
0.09059641 0.017557366 0.1409293 0.21526283 0.08466375 -0.0023579341 0.2365779 0.17152934
0.13559167 -0.04500269 -0.18814191 0.14368528 -0.026659554 -0.05375019 0.20314729 -0.30208677
-0.13444756 0.17075804 -0.122656345 -0.13655515 0.002872144 0.29162914 0.08574107 0.014485349
0.1345982 -0.06328966 -0.12330232 -0.056839142 -0.06653812 0.21065022 0.12151533 -0.10265662
-0.018967608 0.2252719 0.10708632 0.19868559 -0.07528349 0.035963036 -0.009590182 0.12901169
0.13348156 -0.22853014 0.0012371532 0.097934 -0.19269453 0.04830598 0.23180358 -0.1535446
-0.030922927 0.013042987 0.01964149 -0.09607491 0.02470719 0.008863992 0.051804945 0.06710778
0.16562812 0.0653076 -0.2208174 0.018091355 -0.37441137 0.055250328 -0.09613503 -0.28300282
0.18050663 0.3709108 -0.09995524 0.2634215 0.15634939 0.016123379 0.12727849 0.26750776
00000000: b64f d8bc 733e 64be 2791 36bc 3dfe bd3d
00000010: 7ddf e9bd 2fea e5bb 2a57 4cbd ef07 21be
00000020: 7e94 593d f25b 803e 6e05 dfbd 3725 0b3e
00000030: 2450 e8bd 9d89 5a3e 08f1 283e 87e6 dd3d
00000040: f6fe 443e 3c1d 02be e09e e4bd 0875 113c
00000050: ba8d 46be 4c85 12be 3886 afbd e881 87be
00000060: f46e 983e c476 cb3d eb5e a9bb 8557 ce3e
00000070: 298d 5d3e 98b5 2b3c 93c2 2e3e 8a5c d9bd
00000080: bd5a 023e b75d 79be e9aa b33d 17fb bcbd
00000090: 13cf 273d 5318 653e 6f26 483c 12aa 55be
000000a0: cb23 fa3d 70f0 c53d 7a52 aabe e4f2 c7bd
000000b0: 5f27 82be 9647 573e 7eaf 0e3e d959 b1bd
000000c0: 6b9b 483e f572 cd3d 69a9 73be ebda ab3d
000000d0: 9965 84bd cc60 e8bd 4a64 29be b46d 02be
000000e0: eb79 f93d 8949 093e 98e4 0bbe c029 873d
000000f0: 491c 3a3d 67d6 293d 0cf5 683e c30e cabd
00000100: cfd2 f63d f8aa 38be 3794 dbbd 1eb0 e63d
00000110: 4ce7 ac3d 2cd9 353e 9f73 38be 7a8f 56be
00000120: 02ef 67bc 0029 853e 0a4d a4be 57e8 a23d
00000130: 0332 94bd cbc1 c4bd fabe 0b3e 0efd b9bd
00000140: 4914 e13d c0bb f1bd cf13 9f3d 9b62 01be
00000150: 35cd dd3d 413b 893d cd91 1d3d af68 2d3e
00000160: 4915 8e3e 5282 173e 8350 253e f7ab 493e
00000170: 7e5c 263e f848 df3d 3238 9ebc b07a eb3c
00000180: d183 2cbc e0de 1fbd e588 2dbc 418b a63d
00000190: a17f edbd 6008 0b3d a9ed 75bd ef11 1a3d
000001a0: 0146 37bd 0cf0 2a3e 6336 97be 3886 20be
000001b0: 4894 e6bd f591 b9bd 71c9 03be 98a5 23be
000001c0: 0ea4 0b3d 5a7b 573d 0d37 4fbe 091e 7bbd
000001d0: df59 9ebd 1919 823b 8ca8 373d 2f9f 27bd
000001e0: 110a d63d c640 de3d d340 a0bd 57dd 383e
000001f0: 8112 d83b e549 bc3d 896d 8a3e 8c44 48bd
00000200: 3720 803d 7461 30bd 8c1e c03e 00bd 273d
00000210: 88b1 153e a2ee 2dbe e347 853e cbbf 133d
00000220: 13b0 96bd 2dcd 69be 7740 5d3d 333c 05be
00000230: a97a 35be 372a 76bd aa59 fc3c 87f7 76be
00000240: f160 19be 38a4 15be ead9 17bc 2a67 573d
00000250: ee7c 3fbe 75d8 d23e fea6 8f3e caad 9cbe
00000260: dbca 71bd 579f 48be ca8c 15be 5502 8bbe
00000270: 59b2 493d 52ca 7abe ec9d a93c 5d4d 163d
00000280: 7f26 ac3d b332 3dbe 5bf1 d23d b977 11be
00000290: 2d6d bebd d035 88bd 7cd5 0e3e 02b1 7abe
000002a0: 5f54 aabd e619 8a3d 3dd0 e43d d37d 06be
000002b0: ecec 47be 903c a33d b3ec 33bc 4d17 45bd
000002c0: d73c 6b3d cc7e 513e 80c2 7abe d0d9 2c3e
000002d0: 5aeb 5dbd 394e 95bd cb55 ccbc 1a0f 32be
000002e0: 9c8a b93d 77d4 8f3c c54f 103e dc6d 5c3e
000002f0: 3064 ad3d 9287 1abb 7a41 723e 63a5 2f3e
00000300: 8bd8 0a3e be54 38bd 46a8 40be 3c22 133e
00000310: 2365 dabc 2929 5cbd d805 503e 1eab 9abe
00000320: 9fac 09be 32db 2e3e 4033 fbbd 1dd5 0bbe
00000330: 953a 3c3b 6a50 953e 0499 af3d f553 6d3c
00000340: 1cd4 093e 029e 81bd ed85 fcbd 29d0 68bd
00000350: 2345 88bd b1b4 573e 08dd f83d a23d d2bd
00000360: f561 9bbc adad 663e 1350 db3d 3c74 4b3e
00000370: 3b2e 9abd fa4d 133d 2420 1dbc a41b 043e
00000380: 64af 083e ce03 6abe f927 a23a 9f91 c83d
00000390: b751 45be 7edc 453d eb5d 6d3e cc3a 1dbe
000003a0: 1452 fdbc 41b2 553c 31e7 a03c ecc2 c4bd
000003b0: bc66 ca3c 473a 113c 6c31 543d ce6f 893d
000003c0: 6b9a 293e febf 853d f51d 62be 5234 943c
000003d0: d9b2 bfbe 2b4e 623d 71e2 c4bd bfe5 90be
000003e0: bbd6 383e 05e8 bd3e 55b5 ccbd 2fdf 863e
000003f0: 0e1a 203e 2d15 843c 4b55 023e c7f6 883e

bias_ih_l0 f4 [128]
-0.0189783 0.062465865 0.024910009 -0.031085998 -0.100618914 0.18497029 0.03171947 -0.13409351
0.0060555157 0.042510595 0.2715805 0.15117975 0.21007094 -0.05128934 0.096406065 -0.07693136
-0.017629337 0.15992288 -0.044997416 0.14617419 0.09702458 -0.0306087 0.06685675 -0.045480687
0.14482136 0.10268401 -0.063005894 0.013436632 -0.0096756695 -0.018269952 -0.041970752 0.05626052
0.015784761 -0.2532233 -0.23014277 0.053508457 -0.11249175 -0.13319343 -0.23911455 -0.09801958
-0.17724803 -0.03051547 -0.20382158 0.013181473 -0.12957256 0.16608542 -0.033592526 -0.0969852
0.07900284 -0.040778585 -0.14278214 0.09666804 -0.28983545 -0.045468193 0.005817895 -0.030350626
-0.053625192 0.15186147 0.060856745 0.085000314 -0.018775309 -0.26128763 -0.23348022 -0.26306278
0.13861111 0.12794195 -0.057957184 0.035961773 -0.11171825 -0.00092326157 0.09882196 -0.042583708
-0.051956687 0.067126274 -0.07322305 0.052472632 -0.09795637 -0.024924347 -0.04334858 -0.11050466
-0.080737375 -0.11793733 0.14049183 -0.040057603 0.06021252 0.06280137 0.109576106 -0.12013051
0.11733612 -0.113807246 0.06662228 -0.12156524 -0.10042682 0.13085856 0.02138309 -0.06769776
0.1921281 0.042242374 0.070938446 0.037658032 0.07685724 0.1426194 0.06478163 -0.09549308
-0.097528405 0.11007371 0.048302352 0.09075661 0.18238454 -0.05373749 0.13721965 0.101925425
0.10889184 0.10309479 0.04479808 0.030095119 0.216488 8.603641e-05 0.0509387 0.010879982
-0.049168587 0.13821352 0.09555508 -0.046956573 0.13060257 0.20297885 0.029272802 0.038211644
00000000: 6178 9bbc 35dc 7f3d 1310 cc3c 10a8 febc
00000010: 4a11 cebd da68 3d3e 46ec 013d cf4f 09be
00000020: 596d c63b 971f 2e3d 990c 8b3e ddce 1a3e
00000030: d61c 573e c514 52bd 8b70 c53d 308e 9dbd
00000040: 666b 90bc d3c2 233e 364f 38bd b0ae 153e
00000050: d3b4 c63d 19bf fabc 31ec 883d f549 3abd
00000060: 0d4c 143e ff4b d23d 3c09 81bd 5225 5c3c
00000070: b386 1ebc deaa 95bc 86e9 2bbd 6e71 663d
00000080: 0b4f 813c 7ca6 81be 8caa 6bbe af2b 5b3d
00000090: 1362 e6bd dc63 08be 72da 74be 7dbe c8bd
000000a0: 8280 35be 94fb f9bc 9bb6 50be 1bf7 573c
000000b0: abae 04be 4c12 2a3e 5198 09bd 2da0 c6bd
000000c0: 3ecc a13d 7207 27bd 7b35 12be e5f9 c53d
000000d0: 5065 94be db3c 3abd 0aa4 be3b e0a1 f8bc
000000e0: 17a6 5bbd 9381 1b3e ec44 793d a514 ae3d
000000f0: adce 99bc 7ec7 85be 7015 6fbe 2ab0 86be
00000100: 12f0 0d3e 3703 033e 8364 6dbd a74c 133d
00000110: 8acc e4bd 0907 72ba 2b63 ca3d 416c 2ebd
00000120: 89d0 54bd 8079 893d f7f5 95bd 8bed 563d
00000130: 599d c8bd 252e ccbc 488e 31bd 4450 e2bd
00000140: a359 a5bd 2089 f1bd 17dd 0f3e 7113 24bd
00000150: 67a1 763d 019e 803d 7069 e03d fc06 f6bd
00000160: eb4d f03d c613 e9bd 4371 883d 32f7 f8bd
00000170: 94ac cdbd c9ff 053e 972b af3c 20a5 8abd
00000180: 3bbd 443e 5706 2d3d 2d48 913d 4f3f 1a3d
00000190: 5467 9d3d d20a 123e 3bac 843d e091 c3bd
000001a0: f9bc c7bd 536e e13d b0d8 453d 9ade b93d
000001b0: 03c3 3a3e d81b 5cbd 4f83 0c3e 47be d03d
000001c0: af02 df3d 5c23 d33d 317e 373d 0a8a f63c
000001d0: 08af 5d3e 726e b438 19a5 503d f441 323c
000001e0: 0065 49bd d887 0d3e 62b2 c33d 8955 40bd
000001f0: aebc 053e b0d9 4f3e 84cd ef3c d083 1c3d

bias_hh_l0 f4 [128]
-0.063268445 0.07557344 -0.108880706 0.13039696 0.04315671 -0.05892997 -0.06993049 0.043470982
0.09119335 0.20740663 0.015126742 0.026352396 -0.028222455 0.24297985 0.13696937 0.083489224
-0.10459634 0.15248302 -0.14068842 0.1018969 0.24470183 0.15010768 0.09538251 0.01881727
0.04648221 0.08755532 0.010548797 -0.07814536 -0.09130158 -0.027612895 0.027548391 0.10645139
-0.07297436 -0.22713342 0.007546863 -0.15263577 0.19587362 0.029649766 -0.09817258 -0.24284482
-0.1043618 -0.08673771 -0.18488699 -0.048007537 -0.13235483 -0.013351034 0.07236208 -0.046872705
-0.051795185 -0.10870228 -0.11442935 -0.0846176 -0.14592786 -0.208264 -0.21724805 -0.058338158
-0.25720713 -0.15676709 -0.19267996 0.024307474 -0.046996336 -0.02737166 -0.10139603 0.03832825
-0.14464788 -0.14083122 0.11212213 -0.01966922 0.14494206 0.03139787 -0.08732054 0.0043069255
0.08930117 -0.026491942 0.054609753 0.06976619 0.082757026 0.041519903 -0.121053524 0.03575373
0.012204029 0.12445315 0.06593879 -0.16663952 -0.0967626 0.0023483662 -0.13401864 0.12794738
-0.12116097 -0.008166604 0.069589294 -0.006718768 -0.08897193 -0.14778596 -0.003166043 0.036298003
0.07708876 0.1765676 -0.0851616 0.2649701 0.17547144 0.04600858 0.26336113 0.21509987
-0.1515292 0.13242468 0.28956965 0.16764906 0.19454607 0.13944452 0.057073798 0.109789334
0.12738448 -0.033696786 0.14989395 -0.093394354 0.17953618 0.19118091 0.20271456 0.14346935
0.13865973 0.113862336 0.14746937 -0.04075303 0.0012620465 0.19743672 0.056290977 0.23895055
00000000: e392 81bd 3fc6 9a3d d9fc debd c886 053e
00000010: 17c5 303d 8d60 71bd b737 8fbd a10e 323d
00000020: 94c3 ba3d 6762 543e 28d6 773c fbe0 d73c
00000030: c732 e7bc b6cf 783e b341 0c3e 66fc aa3d
00000040: 9b36 d6bd 8224 1c3e a010 10be 52af d03d
00000050: 1e93 7a3e d4b5 193e e857 c33d ad26 9a3c
00000060: 2164 3e3d 3450 b33d ddd4 2c3c ad0a a0bd
00000070: 53fc babd 7034 e2bc 2aad e13c 3003 da3d
00000080: 9573 95bd aa95 68be ad4b f73b 8d4c 1cbe
00000090: 1893 483e 11e4 f23c b50e c9bd 50ac 78be
000000a0: a4bb d5bd 8aa3 b1bd 0453 3dbe 8da3 44bd
000000b0: 0688 07be 4cbe 5abc 9232 943d 98fd 3fbd
000000c0: 3027 54bd 4d9f debd ef59 eabd fe4b adbd
000000d0: 1d6e 15be 2843 55be 4676 5ebe fef3 6ebd
000000e0: a7b0 83be 8d87 20be e54d 45be 7820 c73c
000000f0: 3b7f 40bd 883a e0bc b9a8 cfbd 15fe 1c3d
00000100: 931e 14be 0f36 10be 4aa0 e53d 5821 a1bc
00000110: b16b 143e 0e9b 003d 1cd5 b2bd 1c21 8d3b
00000120: 88e3 b63d a105 d9bc 7aae 5f3d 94e1 8e3d
00000130: 847c a93d c610 2a3d e9ea f7bd 8172 123d
00000140: 68f3 473c 4be1 fe3d eb0a 873d 8da3 2abe
00000150: 782b c6bd 0ce7 193b 2f3c 09be a304 033e
00000160: 3e23 f8bd 38cd 05bc d584 8e3d 1c29 dcbb
00000170: ea36 b6bd 3455 17be 637d 4fbb 37ad 143d
00000180: b6e0 9d3d 23ce 343e 3469 aebd 29aa 873e
00000190: c9ae 333e 7e73 3c3d 45d7 863e 2443 5c3e
000001a0: 782a 1bbe 569a 073e 7942 943e 32ac 2b3e
000001b0: 1637 473e 8bca 0e3e 37c6 693d 3bd9 e03d
000001c0: 1471 023e a405 0abd cd7d 193e 8a45 bfbd
000001d0: 55d8 373e eec4 433e 6894 4f3e a1e9 123e
000001e0: d1fc 0d3e a830 e93d 3602 173e a6ec 26bd
000001f0: 416b a53a da2c 4a3e 5e91 663d 74af 743e

weight_ih_l0 f4 [128, 2]
0.10741793 0.082264215 -0.024003528 0.07939222 0.15545782 0.009227355 -0.12354604 0.012426518
-0.042182133 -0.28645828 0.058414117 0.16845916 -0.121847756 0.1040219 -0.24496052 -0.047488738
0.09329961 -0.1612626 -0.113207914 0.024653452 -0.049112037 0.05073492 0.12609828 -0.04011382
-0.028326707 -0.20765898 -0.024529919 -0.021834072 -0.18552142 0.075463146 -0.08070791 0.057087403
-0.15051113 0.16524158 0.047799528 0.26873252 0.10244738 0.23722327 0.098286994 0.15631716
0.25196347 -0.013327715 0.1281225 0.434681 0.12717043 0.29623485 -0.41121942 0.13660881
-0.058437042 0.0252267 0.030122211 -0.10927755 -0.024280522 0.2272475 -0.26906964 -0.11187833
-0.103351936 -0.013576752 0.10360754 0.33938286 0.30256304 -0.06541829 -0.049401328 -0.273916
0.012003521 -0.16454019 -0.08904217 -0.20742415 0.05249881 0.008805713 0.11818964 0.22336057
0.27158517 -0.026727993 -0.27205953 0.1657747 -0.5061715 0.062439863 0.23904508 0.120048866
-0.09446982 -0.1038597 0.021901445 -0.28158787 -0.09131298 -0.10521897 -0.15754753 0.13582289
-0.31238553 -0.055848762 0.33980566 0.38981384 -0.16796476 -0.20451571 0.09473511 0.0015015773
0.11702375 -0.01066763 -0.04527526 -0.21557586 0.17033152 0.5447175 -0.32308915 0.10707313
-0.301877 -0.16846082 0.16463819 0.18533888 0.06447525 0.37946165 -0.10852095 -0.472968
-0.27341026 -0.1765826 0.16799521 0.07438994 0.15304023 -0.11520089 -0.11299349 0.24875739
0.04644974 -0.2876608 -0.14393124 0.5116971 0.27219817 -0.056151126 -0.014257724 0.26499495
-0.030476967 0.21110758 -0.21347587 -0.29909655 -0.20188564 -0.25294304 -0.09294197 -0.29880384
-0.27042165 0.18149467 0.15339985 -0.36164692 -0.049217813 -0.10478034 0.27000257 -0.11716132
0.50469863 0.17722894 -0.013600922 0.59786433 0.25448322 0.41191328 -0.45624074 0.2437448
-0.27462664 -0.041590437 0.23488145 0.2016897 -0.2936856 -0.4057019 -0.306085 0.18517452
0.03695512 0.15405081 -0.41638333 0.3118522 0.041482296 0.44488484 0.2317578 -0.098494776
-0.24725345 -0.03573079 -0.39847794 0.23275661 -0.09966783 -0.40805393 0.07670343 -0.036369648
0.21909806 0.22241873 -0.13940565 0.25486365 -0.49857277 0.23198187 0.261507 0.16057764
0.3641817 0.21992518 0.17438205 0.069349885 0.2395535 0.16486995 -0.15056758 -0.3315871
-0.09899866 -0.14797224 0.10581106 0.030029815 0.115133695 -0.091270305 0.21032238 0.09160321
0.030231543 -0.2194428 -0.20341177 0.19290787 -0.30793294 -0.15376143 -0.071586385 -0.08788495
-0.07611962 0.09177416 -0.20100227 -0.35089004 0.09850112 -0.016481012 0.12602474 -0.030030308
0.26090828 0.14221928 0.1763825 0.24160483 -0.092839845 0.1338931 -0.006512832 -0.012849705
-0.05232677 0.10021915 -0.071504265 -0.13528675 -0.018785441 -0.059719753 0.19223113 0.28062916
0.07017229 -0.07600178 -0.03000077 0.42860526 0.15306358 0.19576761 -0.15570164 -0.27069402
0.16695248 0.056052733 0.10792589 -0.1704593 0.021944683 -0.13313505 0.038325578 0.10618898
-0.052044872 -0.036864158 -0.07294084 0.2310816 0.16630036 -0.026305832 0.103124455 -0.21067579
00000000: effd db3d 247a a83d 0ca3 c4bc 6398 a23d
00000010: 5630 1f3e 552e 173c b505 fdbd 9898 4b3c
00000020: 2cc7 2cbd a9aa 92be a443 6f3d 8f80 2c3e
00000030: 518b f9bd 6f09 d53d eed6 7abe 8d83 42bd
00000040: de13 bf3d 0622 25be 8dd9 e7bd 09f6 c93c
00000050: b429 49bd 6bcf 4f3d e81f 013e 644e 24bd
00000060: 690d e8bc 8ea4 54be f8f2 c8bc 5edd b2bc
00000070: 54f9 3dbe 6c8c 9a3d 304a a5bd 7bd4 693d
00000080: 971f 1abe 1735 293e 70c9 433d 4f97 893e
00000090: efcf d13d a8ea 723e b14a c93d 9b11 203e
000000a0: 5b01 813e 7d5c 5abc 8b32 033e 828e de3e
000000b0: f738 023e 18ac 973e 5a8b d2be 2ee3 0b3e
000000c0: ae5b 6fbd 39a8 ce3c dbc2 f63c e8cc dfbd
000000d0: f2e7 c6bc 92b3 683e 7fc3 89be 7720 e5bd
000000e0: 2eaa d3bd 0671 5ebc 3130 d43d 97c3 ad3e
000000f0: 8be9 9a3e 06fa 85bd 0c59 4abd b83e 8cbe
00000100: 6baa 443c 397d 28be be5b b6bd ff66 54be
00000110: fe08 573d d645 103c 690d f23d a2b8 643e
00000120: 360d 8b3e aaf4 dabc 634b 8bbe d8c0 293e
00000130: 7594 01bf f1c0 7f3d 3cc8 743e 2edc f53d
00000140: 6579 c1bd 65b4 d4bd a96a b33c 492c 90be
00000150: 4d02 bbbd 0b7d d7bd 2454 21be 2815 0b3e
00000160: fff0 9fbe acc1 64bd 02fb ad3e ae95 c73e
00000170: f4fe 2bbe 916c 51be 7b04 c23d 93d0 c43a
00000180: 26aa ef3d 48c7 2ebc 8d72 39bd ebbf 5cbe
00000190: 636b 2e3e 9b72 0b3f f16b a5be 2849 db3d
000001a0: 9f8f 9abe fe80 2cbe ea96 283e 7ac9 3d3e
000001b0: 9a0b 843d cc48 c23e 3b40 debd dd28 f2be
000001c0: 6efc 8bbe 12d2 34be f006 2c3e c159 983d
000001d0: 94b6 1c3e 72ee ebbd 2269 e7bd 42ba 7e3e
000001e0: 1542 3e3d 4748 93be b662 13be 95fe 023f
000001f0: 8f5d 8b3e b9fe 65bd 3b99 69bc 6bad 873e
00000200: d5aa f9bc 962c 583e 6b99 5abe 2f23 99be
00000210: 1cbb 4ebe c081 81be 5c58 bebd d1fc 98be
00000220: b574 8abe bdd9 393e da14 1d3e c929 b9be
00000230: 9e98 49bd 1397 d6bd c73d 8a3e 46f2 efbd
00000240: ee33 013f 817b 353e 67d6 5ebc a30d 193f
00000250: a04b 823e 4ce6 d23e 6398 e9be 3d98 793e
00000260: dd9b 8cbe bc5a 2abd c384 703e bf87 4e3e
00000270: f55d 96be 29b8 cfbe 2cb7 9cbe 649e 3d3e
00000280: 405e 173d 7fbf 1d3e 3230 d5be 17ab 9f3e
00000290: 57e9 293d f2c7 e33e eb51 6d3e a1b7 c9bd
000002a0: 0230 7dbe 735a 12bd 4d05 ccbe c057 6e3e
000002b0: a61e ccbd 72ec d0be b016 9d3d 57f8 14bd
000002c0: 3e5b 603e bcc1 633e 5bc0 0ebe 7d7d 823e
000002d0: ee44 ffbe a88c 6d3e 3fe4 853e 776e 243e
000002e0: 0676 ba3e 1134 613e 3591 323e 5007 8e3d
000002f0: 834d 753e abd3 283e 632e 1abe c9c5 a9be
00000300: cfbf cabd 0986 17be 78b3 d83d 1601 f63c
00000310: 37cb eb3d edeb babd c05e 573e 779a bb3d
00000320: 24a8 f73c 9db5 60be 2d4b 50be a489 453e
00000330: 63a9 9dbe a373 1dbe e29b 92bd 06fd b3bd
00000340: 9ae4 9bbd 17f4 bb3d 8ad3 4dbe dca7 b3be
00000350: f5ba c93d 3003 87bc a10c 013e 1f02 f6bc
00000360: c595 853e eea1 113e 9d9d 343e 4267 773e
00000370: d122 bebd 461b 093e 9869 d5bb 9287 52bc
00000380: 9854 56bd b33f cd3d d470 92bd 9c88 0abe
00000390: ede3 99bc b39c 74bd 3dd8 443e a0ae 8f3e
000003a0: 7db6 8f3d d2a6 9bbd 2dc4 f5bc 2672 db3e
000003b0: b3bc 1c3e 4e77 483e 4070 1fbe 6898 8abe
000003c0: 97f5 2a3e 8d97 653d 4008 dd3d e28c 2ebe
000003d0: 56c5 b33c 8e54 08be 48fb 1c3d 9c79 d93d
000003e0: 012d 55bd dffe 16bd 0262 95bd a8a0 6c3e
000003f0: a44a 2a3e 547f d7bc ea32 d33d 65bb 57be

weight_hh_l0 f4 [128, 32]
-0.06069124 0.06415266 -0.1368858 0.05233058 0.05328477 -0.04060519 -0.12562361 -0.063674875
-0.15644868 -0.04243445 0.115977466 0.18579501 0.121565074 0.15962213 -0.06062008 -0.08769128
0.10756947 -0.0012894758 0.26719543 -0.080713436 0.0910913 -0.16170226 -0.2893161 0.09822022
-0.22985038 0.24972013 -0.17324354 0.1580654 0.112155765 -0.16367891 -0.099763446 -0.029014066
0.01954621 -0.118441075 -0.31985205 -0.14750488 0.13628544 0.00458376 -0.24046531 -0.055270866
0.18068777 0.18099007 0.37832794 0.0038866312 -0.07406163 0.43948418 -0.01922242 -0.12671416
0.08041719 0.15620372 0.37121484 0.08917349 0.16158238 -0.23510185 -0.06903956 0.15237091
0.07655377 -0.03174536 -0.15791309 -0.017538885 0.058705 0.053677004 0.110536605 -0.43362114
-0.10852493 0.2167152 0.13904968 -0.04934716 -0.255687 -0.12187253 -0.121948 0.06001354
-0.015977344 -0.24067944 -0.16385572 0.010934564 0.084438205 0.3995174 0.23569272 -0.028133642
0.064859025 0.035621587 0.008550255 -0.2537825 0.06032813 -0.14873385 -0.13701972 0.20773914
-0.27002832 0.010856265 -0.2404093 0.1800248 -0.23785405 -0.011426237 0.21100272 -0.49400243
0.14843662 -0.07210341 0.055767387 -0.05498274 0.060919907 0.08539145 0.20326379 0.14958023
0.42683724 0.16657303 0.023395754 0.0099806795 0.06946967 -0.055778872 -0.07321505 -0.08737009
-0.10542388 -0.24702983 -0.0376974 -0.08246636 -0.07912451 0.13896532 0.056361504 -0.03181258
0.016439443 0.22820595 -0.08641716 0.23398226 0.010706555 -0.13166066 0.2074935 -0.10905629
-0.25452307 0.102620795 0.15388174 0.20701228 -0.10426261 0.41548675 0.30965713 0.08046456
0.24169582 -0.002486517 -0.24085052 -0.0640853 -0.054929048 0.12318408 0.28497687 -0.050862566
-0.3437175 -0.584847 -0.22534701 0.13856071 0.08436948 0.022737239 0.44174984 -0.030797198
-0.20052108 0.08868649 -0.40625787 0.15756065 -0.1347818 0.12709633 0.10413959 0.077795774
-0.07595928 -0.07842857 -0.29645738 -0.22809057 0.117395744 0.13302073 -0.1372353 0.26650864
0.34808174 -0.2966459 -0.060962558 0.28227183 0.090184145 0.042237025 0.19101982 -0.14626102
-0.22772752 -0.09082207 -0.013623009 0.112498276 -0.097314596 -0.23294424 -0.16248193 0.22554484
0.10854671 0.26568478 -0.0051570944 0.27123776 -0.037491716 -0.31130517 0.42096338 -0.113845125
0.29142871 -0.23503244 -0.32970226 -0.19975007 0.2334809 -0.23899803 0.00445615 0.18897521
0.26070425 0.22613774 0.4088178 -0.0041912748 -0.12691878 0.28792146 -0.41450563 -0.17065182
0.020923242 0.24100475 0.3390392 -0.025948685 0.05044793 0.26941064 -0.39700642 0.002132914
0.17108034 0.05987579 -0.21547219 -0.034794174 0.39129263 -0.15216516 0.040798474 -0.060003057
0.19643499 0.14754173 0.41013145 0.0447122 0.20361964 -0.38395965 0.22045375 -0.035492282
-0.5533637 -0.1290257 -0.29253387 0.31333122 0.72717166 -0.121233396 0.08865954 0.22392458
0.11421076 0.26162758 -0.15592083 -0.011769922 0.05435842 0.07182191 -0.054100778 -0.14443137
0.015257568 -0.034992617 0.4202898 0.1118434 -0.16620064 0.057565264 -0.007854483 0.09445162
00000000: 6197 78bd 7862 833d cb2b 0cbe 9758 563d
00000010: 2241 5a3d a151 26bd 7aa3 00be f967 82bd
00000020: 1534 20be bfcf 2dbd 9885 ed3d 0c41 3e3e
00000030: 1cf7 f83d fc73 233e c34c 78bd 7c97 b3bd
00000040: 624d dc3d a103 a9ba d7cd 883e 164d a5bd
00000050: 138e ba3d 4795 25be 3d21 94be af27 c93d
00000060: e65d 6bbe a2b6 7f3e c166 31be e5db 213e
00000070: ecb1 e53d 729b 27be c750 ccbd e8ae edbc
00000080: 601f a03c 3c91 f2bd a6c3 a3be 850b 17be
00000090: 698e 0b3e 5e33 963b 8a3c 76be b463 62bd
000000a0: 3706 393e 7655 393e 33b4 c13e dab6 7e3b
000000b0: a0ad 97bd 1204 e13e 5678 9dbc 5bc1 01be
000000c0: c5b1 a43d def3 1f3e df0f be3e 97a0 b63d
000000d0: da75 253e 8abe 70be 9d64 8dbd 1f07 1c3e
000000e0: 39c8 9c3d 6c07 02bd f8b3 21be b5ad 8fbc
000000f0: a774 703d 6bdc 5b3d 0461 e23d 9703 debe
00000100: 5242 debd 97ea 5d3e 0a63 0e3e 3f20 4abd
00000110: 68e9 82be 4e98 f9bd dfbf f9bd c2d0 753d
00000120: ebe2 82bc ac74 76be cbc9 27be e326 333c
00000130: f0ed ac3d 8b8d cc3e 6f59 713e 8678 e6bc
00000140: cfd4 843d f1e7 113d 5e16 0c3c c8ef 81be
00000150: a11a 773d b04d 18be e64e 0cbe 92b9 543e
00000160: 2741 8abe 7ade 313c db2d 76be 6c58 383e
00000170: 0390 73be 1d35 3bbc 1911 583e e3ed fcbe
00000180: c5ff 173e f4aa 93bd 586c 643d 9535 61bd
00000190: 2787 793d b6e1 ae3d 6224 503e 8f2b 193e
000001a0: 698a da3e 1f92 2a3e 74a8 bf3c 0186 233c
000001b0: 1d46 8e3d 6378 64bd c6f1 95bd 17ef b2bd
000001c0: 7ae8 d7bd 63f5 7cbe 9768 1abd 1fe4 a8bd
000001d0: 080c a2bd ed4c 0e3e 52db 663d e84d 02bd
000001e0: 03ac 863c d2ae 693e 7bfb b0bd 0c99 6f3e
000001f0: 8c6a 2f3c 0dd2 06be 2d79 543e e758 dfbd
00000200: d950 82be da2a d23d 2d93 1d3e 07fb 533e
00000210: a387 d5bd aeba d43e 618b 9e3e 9aca a43d
00000220: 1c7f 773e d5f4 22bb 85a1 76be 273f 83bd
00000230: 48fd 60bd ef47 fc3d 7de8 913e 4455 50bd
00000240: bdfb afbe 88b8 15bf 5ec1 66be dce2 0d3e
00000250: e8c9 ac3d 7243 ba3c 092d e23e 684a fcbc
00000260: 6655 4dbe 43a1 b53d 0801 d0be 9457 213e
00000270: 3d04 0abe 8a25 023e 2347 d53d 6453 9f3d
00000280: 8a90 9bbd 289f a0bd 43c9 97be 9390 69be
00000290: 2e6d f03d 9636 083e 6987 0cbe d273 883e
000002a0: c537 b23e f9e1 97be e0b3 79bd ef85 903e
000002b0: 77b2 b83d bb00 2d3d b39a 433e 73c5 15be
000002c0: 6731 69be ec00 babd 0b33 5fbc 7f65 e63d
000002d0: e04c c7bd ef88 6ebe aa61 26be 3af5 663e
000002e0: bd4d de3d d607 883e d8fc a8bb addf 8a3e
000002f0: ea90 19bd 6463 9fbe 8388 d73e a227 e9bd
00000300: 2536 953e 58ac 70be bcce a8be 488b 4cbe
00000310: 9e15 6f3e e6bb 74be e504 923b b882 413e
00000320: 077b 853e a790 673e 9150 d13e f656 89bb
00000330: fff6 01be 716a 933e 153a d4be 5abf 2ebe
00000340: 3867 ab3c f3c9 763e 8c96 ad3e 5692 d4bc
00000350: 7da2 4e3d 31f0 893e 6d44 cbbe 5cc8 0b3b
00000360: af2f 2f3e 5140 753d bea4 5cbe 5684 0ebd
00000370: 8257 c83e 2fd1 1bbe 4d1c 273d c4c5 75bd
00000380: 4126 493e 2e15 173e c0fc d13e 2424 373d
00000390: ab81 503e 5c96 c4be a1be 613e 5b60 11bd
000003a0: 3ea9 0dbf 501f 04be 00c7 95be f36c a03e
000003b0: ec27 3a3f 3749 f8bd 2293 b53d 7c4c 653e
000003c0: 55e7 e93d 0df4 853e b6a9 1fbe a2d6 40bc
000003d0: efa6 5e3d 5e17 933d c798 5dbd d1e5 13be
000003e0: e1fa 793c 6b54 0fbd 3a30 d73e 270e e53d
000003f0: 8030 2abe 8ec9 6b3d 17b0 00bc da6f c13d

bias_ih_l0 f4 [128]
-0.020958012 -0.060058247 0.09916054 0.08516821 0.022698918 0.15606594 0.1697782 -0.08700261
0.044209417 0.14255196 -0.061588302 -0.10043039 0.04196946 0.18383479 -0.15869208 0.028606672
0.016848944 0.18805096 0.27217 -0.051944267 0.19585614 -0.0655035 -0.10567039 -0.08641106
-0.007249421 -0.034504764 0.12676118 0.0330272 0.12722875 0.06442699 0.22950129 0.07063892
0.16882646 -0.12928295 -0.1244045 -0.13074383 0.03212102 0.112452045 0.082960516 0.2413415
0.20484103 0.31961253 0.095784955 0.23316316 -0.08776495 0.16216573 -0.016723253 -0.06286472
-0.05474781 0.28250915 0.28887758 0.15510422 0.12911414 0.11436813 -0.10902558 0.037929747
-0.027517635 0.09294476 0.15700704 0.20546354 -0.16157942 0.09661986 0.012908305 0.005167598
-0.20807995 0.2502242 0.16066115 -0.13720714 0.10744305 -0.062249508 0.14281648 0.2003392
0.094380036 -0.16346624 0.26246843 0.05415081 0.14015873 0.35601807 0.1270619 -0.25205892
-0.37466624 -0.09127591 0.3318997 -0.071778476 0.20875813 -0.2703824 -0.10006231 0.26286933
-0.29834443 0.03486806 0.14276703 0.08311907 -0.38404876 -0.01772711 -0.11651778 -0.57582515
-0.0051221796 0.16870287 0.2194125 0.11338881 0.16530797 0.24237609 0.24557875 0.09740138
0.061883755 0.31921703 0.06725695 -0.112662494 -0.062977105 0.23083505 0.07906466 0.04883659
0.12421402 -0.04108804 0.23872606 0.11534365 -0.03218142 0.11295627 0.03005286 -0.09903809
0.22446091 0.04159678 0.33671325 -0.04604235 -0.08301957 0.028253714 0.1770094 -0.004045261
00000000: 23b0 abbc a3ff 75bd ae14 cb3d ac6c ae3d
00000010: 15f3 b93c c0cf 1f3e 56da 2d3e 6d2e b2bd
00000020: ef14 353d 24f9 113e 0444 7cbd 73ae cdbd
00000030: 2be8 2b3d 303f 3c3e 2d80 22be 8a58 ea3c
00000040: cc06 8a3c 6e90 403e de59 8b3e 83c3 54bd
00000050: 838e 483e b326 86bd b869 d8bd 48f8 b0bd
00000060: 8d8c edbb de54 0dbd afcd 013e 8747 073d
00000070: 4148 023e 4cf2 833d 6302 6b3e 23ab 903d
00000080: d8e0 2c3e c062 04be c9c7 febd b6e1 05be
00000090: 5591 033d 424d e63d 34e7 a93d 3a22 773e
000000a0: d9c1 513e 41a4 a33e e72a c43d 53c2 6e3e
000000b0: 1cbe b3bd c60e 263e 34ff 88bc 38bf 80bd
000000c0: 3d3f 60bd 0aa5 903e c3e7 933e a4d3 1e3e
000000d0: 7f36 043e d739 ea3d ce48 dfbd 395c 1b3d
000000e0: aa6c e1bc d359 be3d 74c6 203e 0965 523e
000000f0: 1375 25be a2e0 c53d 5b7d 533c f454 a93b
00000100: e912 55be 631d 803e 5b84 243e 0780 0cbe
00000110: 1a0b dc3d 57f9 7ebd 7c3e 123e b825 4d3e
00000120: 524a c13d b263 27be 4362 863e 3dcd 5d3d
00000130: c585 0f3e 0048 b63e 841c 023e de0d 81be
00000140: 41d4 bfbe ddee babd c2ee a93e 9800 93bd
00000150: b1c4 553e 906f 8abe 78ed ccbd cf96 863e
00000160: 9ac0 98be d0d1 0e3d 8531 123e 553a aa3d
00000170: 0aa2 c4be 7238 91bc e0a0 eebd 4769 13bf
00000180: f5d7 a7bb 72c0 2c3e acad 603e 6438 e83d
00000190: 7e46 293e 7031 783e ff78 7b3e 607a c73d
000001a0: d279 7d3d 6a70 a33e 03be 893d 98bb e6bd
000001b0: 24fa 80bd 0660 6c3e a7ec a13d e008 483d
000001c0: ec63 fe3d ef4b 28bd 9b74 743e 4b39 ec3d
000001d0: aad0 03bd 9e55 e73d 6a31 f63c 7bd4 cabd
000001e0: 15d9 653e 6361 2a3d ae65 ac3e e796 3cbd
000001f0: 2a06 aabd 5574 e73c f441 353e 1c8e 84bb

bias_hh_l0 f4 [128]
0.20808116 0.19943005 0.029348115 -0.08376271 0.11673308 0.24374664 -0.0768407 0.017082034
0.12288643 0.21468297 0.14346878 0.108323805 0.042510957 0.19312023 0.0705918 0.07968157
-0.03419787 0.10892809 0.18192793 -0.09690593 0.20092067 0.043930706 0.1887141 -0.15988755
-0.11424695 -0.117663264 0.091002814 -0.063147835 0.15307112 0.088635676 0.08868637 0.09960998
0.034618855 0.091730945 -0.00047971035 -0.02633592 0.042533208 -0.05441383 -0.040146474 -0.0486292
-0.056802884 0.14091806 0.014453497 0.1274083 0.056779556 0.1752583 -0.17316726 -0.13678996
0.012718338 0.022412974 0.14387448 -0.03207928 0.12152094 0.03748947 0.03581132 -0.109644465
-0.003082581 0.13784914 0.06773295 -0.013492766 0.03686935 -0.09565268 -0.106628284 0.18211985
-0.028791586 0.26816708 -0.028051676 -0.10402894 0.18093874 -0.26351157 -0.061382942 0.19966942
-0.16634974 0.05919325 0.18738972 0.16147903 0.101289935 0.42889988 0.104162775 -0.1452864
-0.28576627 0.0799 0.048696574 0.026270077 0.25572428 -0.22869353 0.03152217 0.19854262
-0.23419063 0.2574042 -0.061432082 0.09925581 -0.5327707 -0.056383964 0.10850947 -0.7553895
0.2592615 0.14467493 0.11881832 -0.15292805 -0.007872383 0.2555721 0.17066741 0.17112605
0.10495741 0.33194238 0.012487421 -0.09189112 -0.05509601 0.089992575 0.14480771 0.15091735
0.27230695 0.017297424 0.016773067 0.10063367 -0.049348906 -0.07717527 0.15091613 0.18774074
0.09939563 0.1674294 0.1250497 0.13935693 0.19249648 0.09544497 0.101830676 0.060664736
00000000: 3a13 553e 6437 4c3e 756b f03c c98b abbd
00000010: c111 ef3d b898 793e a85e 9dbd 9fef 8b3c
00000020: e1ab fb3d dad5 5b3e 7be9 123e dfd8 dd3d
00000030: f81f 2e3d 4fc1 453e 6f92 903d 1730 a33d
00000040: 1113 0cbd b115 df3d 514b 3a3e 9e76 c6bd
00000050: 26be 4d3e aff0 333d 453e 413e 90b9 23be
00000060: 4efa e9bd 70f9 f0bd af5f ba3d a753 81bd
00000070: adbe 1c3e 9f86 b53d 33a1 b53d 5100 cc3d
00000080: 80cc 0d3d 6fdd bb3d a281 fbb9 6dbe d7bc
00000090: 4d37 2e3d 09e1 5ebd a170 24bd 692f 47bd
000000a0: 24aa 68bd d34c 103e 5cce 6c3c 5277 023e
000000b0: ae91 683d e976 333e c252 31be ab12 0cbe
000000c0: 9360 503c 6a9b b73c d553 133e 9065 03bd
000000d0: f8df f83d 8f8e 193d e4ae 123d 478d e0bd
000000e0: 2105 4abb 5328 0d3e 93b7 8a3d c310 5dbc
000000f0: 5104 173d 8de5 c3bd ee5f dabd a07d 3a3e
00000100: 55dc ebbc 324d 893e a1cc e5bc 200d d5bd
00000110: 0148 393e fdea 86be ae6c 7bbd 2476 4c3e
00000120: 9657 2abe 9f74 723d 17e3 3f3e c25a 253e
00000130: 1971 cf3d c498 db3e 4b53 d53d f5c5 14be
00000140: f54f 92be 9ca2 a33d 0f76 473d 5834 d73c
00000150: 4bee 823e a32e 6abe 641d 013d c24e 4b3e
00000160: abcf 6fbe 7cca 833e 35a0 7bbd a146 cb3d
00000170: a963 08bf dff2 66bd 373a de3d 3561 41bf
00000180: ecbd 843e aa25 143e 0557 f33d 2c99 1cbe
00000190: 2bfb 00bc 59da 823e 70c3 2e3e ab3b 2f3e
000001a0: e9f3 d63d 5af4 a93e 0a98 4c3c 6931 bcbd
000001b0: 5bac 61bd 074e b83d 7948 143e 148a 1a3e
000001c0: d16b 8b3e 54b3 8d3c ac67 893c 0719 ce3d
000001d0: 1422 4abd 110e 9ebd c289 1a3e 1c3f 403e
000001e0: f08f cb3d 9d72 2b3e 070d 003e 95b3 0e3e
000001f0: cc1d 453e a778 c33d 9a8c d03d 967b 783d

weight_ih_l0_reverse f4 [128, 2]
0.14838448 0.09767744 0.02538523 -0.011649004 -0.16265208 -0.2521447 0.27263746 0.2359767
-0.11312257 -0.08497418 -0.054495636 -0.16344626 -0.19631645 -0.4451661 0.24921478 -0.3982229
0.24934563 -0.842389 -0.29556903 0.36387137 -0.38247243 0.28932533 0.3424272 -0.13491714
-0.41081032 -0.085705556 -0.48645264 -0.10638122 0.59697133 -0.44872507 0.41420782 0.13878743
-0.08464047 -0.12876204 0.21155071 0.4923641 0.033708688 -0.25813752 0.10430784 0.16724296
-0.02571363 0.16660263 0.46594372 0.38620237 -0.19011982 0.16052692 -0.0891412 -0.049924515
-0.85693663 -0.076042295 -0.6369192 -0.3799158 -0.47023004 -0.21533743 -0.09683073 0.18898754
0.26474294 -0.18487926 -0.17787316 0.10921333 -0.17026961 0.124194995 -0.39782318 -0.46949476
0.12488421 0.3398986 0.05718684 -0.073662326 -0.26178676 -0.24811466 0.026187746 0.09766538
-0.14170173 -0.06387357 0.28367248 -0.06029345 -0.38530257 -0.3843022 0.27577174 -0.15726537
0.26145136 -0.35315803 -0.1640352 0.14923085 0.03196761 0.059357606 0.25800285 -0.10551515
-0.16734631 -0.051370025 -0.20611389 -0.09414094 0.29207936 -0.32347786 0.35108328 0.098941766
-0.014914703 -0.12313517 -0.03693211 0.42954192 -0.062809035 -0.17388019 -0.05271914 0.124862775
0.067126356 0.14254631 0.2253533 0.12269042 -0.07839266 -0.080723844 -0.40167132 -0.16848664
-0.40033695 -0.10417129 -0.20707603 -0.3854151 -0.16590881 -0.1974084 0.032322455 -0.0741279
0.07453251 0.013518568 -0.09212456 0.09546288 -0.12025295 0.13630572 0.13837476 -0.47217575
-0.2908158 -0.2702986 0.103630856 0.39364207 0.18538675 0.1354036 -0.31581086 -0.20017736
0.20773506 0.3536147 0.25594187 -0.0855327 -0.28335232 -0.41604245 -0.38748598 0.24772468
-0.0625832 -0.65466183 -0.18054585 0.46720812 0.30918694 -0.18412219 0.4267578 -0.08651882
0.33268613 0.09510625 0.44706982 -0.10219117 0.17019124 -0.40964428 0.26660722 0.05581809
-0.04264981 0.3419546 0.22864664 0.6862613 0.14691415 -0.372533 -0.39171177 0.19892454
-0.32713285 -0.06931992 -0.30604002 -0.15092222 -0.35892317 0.20118842 0.20741528 0.26175904
-0.5094883 0.24065995 0.34705478 0.316895 -0.370472 -0.176791 -0.16705227 -0.30289692
-0.39772263 0.25096762 0.3517696 0.032242786 0.27454603 -0.3602344 0.11233756 -0.3420458
0.1641141 0.04134932 0.040568613 -0.11526515 -0.014884562 -0.21067244 -0.2332245 -0.10445704
-0.25217134 0.08960858 -0.138537 0.0145845525 -0.3601022 -0.3256607 0.36141697 -0.42694688
-0.089120924 -0.7260136 -0.09923538 -0.037106905 -0.22354624 0.11358313 0.4254107 -0.18897845
-0.24948601 -0.2527179 -0.33059585 0.12746717 0.8347958 -0.54700214 0.27863503 -0.02748306
0.1538992 -0.020456519 0.04118696 0.17784917 -0.044258106 -0.073055156 0.009275241 0.25969857
0.10399923 -0.06432211 0.2846524 0.59232175 0.009584231 -0.013604816 -0.27294987 0.003669349
-0.40862948 0.017991234 -0.18084647 -0.4320344 -0.64781255 -0.12092722 0.06887607 0.20836772
0.5886742 -0.2857333 -0.1948916 -0.14888717 -0.062516324 0.1311014 -0.13422506 -0.18820858
00000000: 1af2 173e 1c0b c83d b0f4 cf3c 77db 3ebc
00000010: 448e 26be 1c19 81be 2397 8b3e e0a3 713e
00000020: ceac e7bd f106 aebd d136 5fbd 755e 27be
00000030: 2e07 49be d0ec e3be 2932 7f3e dfe3 cbbe
00000040: 7654 7f3e cea6 57bf d354 97be 594d ba3e
00000050: 6dd3 c3be 7322 943e 9e52 af3e b827 0abe
00000060: bb55 d2be 6586 afbd 5210 f9be 66de d9bd
00000070: 1dd3 183f 4bbf e5be 0c13 d43e 4b1e 0e3e
00000080: fc57 adbd 32da 03be c0a0 583e 2617 fc3e
00000090: 1f12 0a3d 9a2a 84be 599f d53d bd41 2b3e
000000a0: 64a5 d2bc e199 2a3e 2d90 ee3e 51bc c53e
000000b0: c5ae 42be 2b61 243e a98f b6bd a67d 4cbd
000000c0: 3360 5bbf 10bc 9bbd 230d 23bf 5384 c2be
000000d0: fec1 f0be 6a81 5cbe 314f c6bd f385 413e
000000e0: 638c 873e fd50 3dbe 6224 36be 3dab df3d
000000f0: 285b 2ebe f259 fe3d 7baf cbbe 9e61 f0be
00000100: 4bc3 ff3d 3007 ae3e bf3c 6a3d 46dc 96bd
00000110: ea08 86be c511 7ebe af87 d63c c904 c83d
00000120: 421a 11be 25d0 82bd 853d 913e 44f6 76bd
00000130: 6146 c5be 42c3 c4be f431 8d3e 2c0a 21be
00000140: f4dc 853e 21d1 b4be d8f8 27be f9cf 183e
00000150: 78f0 023d f620 733d f318 843e 5418 d8bd
00000160: d55c 2bbe 6069 52bd 850f 53be f7cc c0bd
00000170: 6d8b 953e e49e a5be 30c1 b33e fba1 ca3d
00000180: cc5c 74bc 4b2e fcbd 2046 17bd ebec db3e
00000190: 06a2 80bd a60d 32be 06f0 57bd 0eb8 ff3d
000001a0: 8b79 893d a9f7 113e 04c3 663e 1d45 fb3d
000001b0: 558c a0bd 8b52 a5bd dda7 cdbe c387 2cbe
000001c0: f7f8 ccbe c257 d5bd bd0b 54be 2155 c5be
000001d0: 00e4 29be 6d25 4abe 8d64 043d 5ed0 97bd
000001e0: 80a4 983d fc7c 5d3c cdab bcbd 0b82 c33d
000001f0: 2e47 f6bd ba93 0b3e 1db2 0d3e 05c1 f1be
00000200: cfe5 94be 9464 8abe 6a3c d43d 748b c93e
00000210: 06d6 3d3e 3ea7 0a3e f6b1 a1be 4bfb 4cbe
00000220: 80b8 543e fc0c b53e d00a 833e c52b afbd
00000230: 8e13 91be 8403 d5be 9064 c6be 8aab 7d3e
00000240: 9f2b 80bd eb97 27bf 03e1 38be e735 ef3e
00000250: c04d 9e3e 878a 3cbe 0080 da3e c730 b1bd
00000260: d655 aa3e 11c7 c23d 56e6 e43e 9b49 d1bd
00000270: 9d46 2e3e e5bc d1be be80 883e 82a1 643d
00000280: 91b1 2ebd ac14 af3e 5822 6a3e d2ae 2f3f
00000290: aa70 163e a5bc bebe 728e c8be e0b2 4b3e
000002a0: f57d a7be 9af7 8dbd 47b1 9cbe 5b8b 1abe
000002b0: c7c4 b7be 5604 4e3e ac64 543e 4805 863e
000002c0: d36d 02bf 906f 763e 2ab1 b13e 1040 a23e
000002d0: 82ae bdbe b308 35be c00f 2bbe 4e15 9bbe
000002e0: 4da2 cbbe d47e 803e 251b b43e 0311 043d
000002f0: 4c91 8c3e a570 b8be 3c11 e63d a120 afbe
00000300: 870d 283e e85d 293d 462b 263d 2310 ecbd
00000310: 61de 73bc 84ba 57be 67d2 6ebe 93ed d5bd
00000320: 9a1c 81be b484 b73d a5dc 0dbe 0cf4 6e3c
00000330: 515f b8be 00bd a6be a50b b93e c898 dabe
00000340: 0885 b6bd 07dc 39bf eb3b cbbd 69fd 17bd
00000350: 4ee9 64be 469e e83d 6ecf d93e 9183 41be
00000360: 4379 7fbe 3e64 81be dc43 a9be c186 023e
00000370: 2db5 553f 5508 0cbf 40a9 8e3e 2724 e1bc
00000380: c097 1d3e 6e94 a7bc a8b3 283d 181e 363e
00000390: fd47 35bd f19d 95bd 2ef7 173c 36f7 843e
000003a0: 8cfd d43d 4fbb 83bd f6bd 913e 66a2 173f
000003b0: 2e07 1d3c bce6 5ebc 16c0 8bbe 7679 703b
000003c0: e237 d1be 5a62 933c d12f 39be 9d33 ddbe
000003d0: 0bd7 25bf b1a8 f7bd e60e 8d3d 595e 553e
000003e0: 5ab3 163f a34b 92be aa91 47be e175 18be
000003f0: 8f08 80bd 723f 063e 4b72 09be c0b9 40be

weight_hh_l0_reverse f4 [128, 32]
-0.22764188 0.24729915 -0.02789065 -0.053313296 0.15722872 0.19768436 -0.2404233 0.041260164
-0.14335081 0.2320821 0.096601896 -0.044440515 0.11658604 0.25068265 -0.11563325 0.24449876
0.14052585 0.28038907 -0.037992854 -0.019397449 -0.31864598 0.022731477 0.10170174 0.13861234
-0.14527008 0.20095871 -0.32463714 -0.2877402 0.08900985 0.18500689 -0.24900258 0.0072905533
-0.124536015 0.16758387 0.04001185 0.18212721 -0.06536051 -0.15201813 -0.09426396 -0.019738913
-0.1926884 0.15768838 -0.1589625 -0.19044735 0.04442727 -0.14559805 -0.099094726 -0.08257785
-0.0067004953 -0.11304563 -0.066653736 0.11332061 -0.10510832 0.09339268 0.08661605 -0.096309766
-0.017848816 -0.056034785 0.010353918 -0.10158297 0.090451464 -0.05352702 0.026837628 0.055109058
0.19151315 -0.26652095 -0.11273783 -0.019265478 0.24586959 0.24649426 0.106779076 -0.1648375
-0.05824114 0.00070292706 0.4977679 0.14844419 0.17233743 0.25886452 0.10420547 0.24951592
-0.47842962 -0.21125102 -0.024486097 -0.08346579 0.048611626 -0.17636037 0.10126413 -0.058438133
-0.20756844 0.44238168 -0.04759129 0.025520612 0.010426437 0.043940466 -0.036416244 -0.20017464
-0.120491356 -0.0037046215 0.01380456 -0.12546022 0.26378322 0.008867371 -0.31686574 0.19810061
-0.3598545 -0.018185262 0.052127346 0.25458795 0.24040598 0.08110585 -0.012210669 0.30714682
0.17727922 0.26889336 -0.18527433 0.0028208327 -0.3286849 0.10194746 -0.28505403 0.45890298
-0.31136173 0.41349328 -0.23840176 -0.08396163 0.1332459 0.030166516 -0.0328157 -0.13189606
0.32815987 -0.15255193 0.010284591 0.14388654 -0.14054194 -0.07160018 -0.23610497 0.046931945
-0.075636 -0.2132311 0.010776569 -0.057617243 -0.18464088 0.35939252 -0.23405086 -0.18550946
-0.11852792 -0.27864948 -0.044536013 0.083032385 -0.020310417 0.20137338 -0.26612505 0.24519898
-0.32650408 0.27378002 -0.2944857 0.23936495 0.083697364 0.09274429 -0.039121706 -0.3703822
-0.065583244 -0.14465049 -0.07631928 0.0010385618 0.06569723 0.22080497 -0.08381955 -0.2256748
-0.08448599 -0.07727608 -0.004635151 -0.093426295 -0.15771936 0.21876113 0.010425445 0.05294476
-0.018783094 -0.12354578 -0.15058088 -0.006171194 0.044177018 0.10661809 -0.31154346 0.027070533
0.026181635 -0.12752163 -0.19463986 -0.10564007 -0.2430742 0.080603816 0.14611453 0.024208942
0.76048505 -0.35678864 -0.097508155 0.23098263 -0.3261358 -0.31873867 0.3735323 -0.12198889
0.011657631 -0.5465876 0.139864 0.07718617 -0.42431298 0.070887 -0.1121949 -0.041730646
-0.41932204 -0.4389849 0.08996842 0.21373583 0.3098728 0.48085415 0.20936249 -0.2349484
0.042239122 -0.08337108 0.2909291 0.3006528 -0.09732033 -0.5741427 0.1768505 0.19827123
0.093084484 -0.21618792 0.030573549 -0.1155066 -0.013097972 0.19667052 -0.16385435 -0.27102932
-0.033866443 -0.09569789 0.3280124 0.04210389 0.01403863 0.18171212 0.07419806 -0.067239
0.031226652 -0.096342854 -0.2092029 -0.2125749 -0.09977867 -0.012149714 -0.04777286 0.07589061
0.14545546 0.09205842 0.098906666 0.0031716172 -0.1211528 0.050363224 0.016499858 0.15531185
00000000: f41a 69be fd3b 7d3e ef7a e4bc 0b5f 5abd
00000010: 9100 213e c56d 4a3e 8731 76be 6b00 293d
00000020: 8eca 12be eea6 6d3e 37d7 c53d 4207 36bd
00000030: a9c4 ee3d 7a59 803e 20d1 ecbd e25d 7a3e
00000040: 02e6 0f3e 288f 8f3e 659e 1bbd 66e7 9ebc
00000050: 9125 a3be 5d37 ba3c 0049 d03d 65f0 0d3e
00000060: aec1 14be 1fc8 4d3e d736 a6be af52 93be
00000070: cc4a b63d 7272 3d3e 88fa 7ebe 98e5 ee3b
00000080: bd0c ffbd 1b9b 2b3e 77e3 233d 8e7f 3a3e
00000090: bbdb 85bd a4aa 1bbe 770d c1bd 80b3 a1bc
000000a0: 1c50 45be 1079 213e 11c7 22be a104 43be
000000b0: 5ef9 353d a817 15be 2df2 cabd 931e a9bd
000000c0: d48f dbbb 7884 e7bd c181 88bd a314 e83d
000000d0: 0843 d7bd a944 bf3d c163 b13d 0e3e c5bd
000000e0: ae37 92bc bb84 65bd 7ba3 293c bb0a d0bd
000000f0: 9e3e b93d 263f 5bbd 96da db3c 09ba 613d
00000100: 061c 443e 6f75 88be 17e3 e6bd a3d2 9dbc
00000110: 3dc5 7b3e fe68 7c3e fdae da3d 29cb 28be
00000120: 438e 6ebd a344 383a 6fdb fe3e c101 183e
00000130: 3979 303e e489 843e ad69 d53d 1a81 7f3e
00000140: baf4 f4be 3052 58be 1197 c8bc 1df0 aabd
00000150: fc1c 473d d097 34be 9163 cf3d d35c 6fbd
00000160: d28c 54be da7f e23e 16ef 42bd 9a10 d13c
00000170: a5d3 2a3c ebfa 333d 3329 15bd 95fa 4cbe
00000180: 2cc4 f6bd 3cc9 72bb 852c 623c a578 00be
00000190: 980e 873e 7348 113c 3a3c a2be e3da 4a3e
000001a0: d93e b8be 42f9 94bc 7c83 553d 5a59 823e
000001b0: fc2c 763e d31a a63d 420f 48bc 5942 9d3e
000001c0: af88 353e 64ac 893e 8eb8 3dbe b8dd 383b
000001d0: 6349 a8be d4c9 d03d 9af2 91be 55f5 ea3e
000001e0: ce6a 9fbe 64b5 d33e 971f 74be 13f4 abbd
000001f0: 9d71 083e c51f f73c c169 06bd c30f 07be
00000200: 9204 a83e 9336 1cbe b380 283c fe56 133e
00000210: 3aea 0fbe 1da3 92bd 80c5 71be b63b 403d
00000220: 0ce7 9abd 4159 5abe 3590 303c 0f00 6cbd
00000230: 8012 3dbe 4c02 b83e 07ab 6fbe 31f6 3dbe
00000240: c4be f2bd 25ab 8ebe 656b 36bd e20c aa3d
00000250: 0862 a6bc d334 4e3e 8b41 88be 7115 7b3e
00000260: 8b2b a7be e52c 8c3e d4c6 96be 161c 753e
00000270: 8669 ab3d b8f0 bd3d 153e 20bd bca2 bdbe
00000280: 8250 86bd 421f 14be 484d 9cbd 5a20 883a
00000290: 458c 863d b31a 623e 96a9 abbd 4b17 67be
000002a0: fe06 adbd ec42 9ebd 77e2 97bb 4956 bfbd
000002b0: 2f81 21be eb02 603e 7ccf 2a3c 9bdc 583d
000002c0: 01df 99bc 9205 fdbd e031 1abe ba37 cabb
000002d0: f6f2 343d 965a da3d a082 9fbe 06c3 dd3c
000002e0: de7a d63c 0895 02be ac4f 47be d259 d8bd
000002f0: 71e8 78be 9d13 a53d 0c9f 153e d551 c63c
00000300: 26af 423f 00ad b6be 5bb2 c7bd b686 6c3e
00000310: 46fb a6be b731 a3be a03f bf3e 50d5 f9bd
00000320: a6ff 3e3c 2aed 0bbf 8238 0f3e c813 9e3d
00000330: 8d3f d9be 342d 913d 71c6 e5bd c1ed 2abd
00000340: 61b1 d6be a1c2 e0be 5d41 b83d 91dd 5a3e
00000350: a6a7 9e3e 8432 f63e 1f63 563e 5096 70be
00000360: ee02 2d3d 75be aabd a9f4 943e 2aef 993e
00000370: e24f c7bd 04fb 12bf 4c18 353e 9d07 4b3e
00000380: 14a3 be3d 5e60 5dbe 6175 fa3c b98e ecbd
00000390: e098 56bc ff63 493e 6fc9 27be 5bc4 8abe
000003a0: 8ab7 0abd 41fd c3bd 3ef1 a73e 2175 2c3d
000003b0: 4802 663c be12 3a3e 27f5 973d 9ab4 89bd
000003c0: 09cf ff3c 674f c5bd 4939 56be 3cad 59be
000003d0: c258 ccbd 980f 47bc 79ad 43bd 896c 9b3d
000003e0: 47f2 143e 2089 bc3d 948f ca3d e8da 4f3b
000003f0: f61e f8bd ab49 4e3d b62a 873c 120a 1f3e
