experiments/pedestrians/models/models_14_Feb_2024_17_26_50_eth_vel_ar3/model_registrar-54.pt (torch, 527902 bytes, 43 tensors)

weight_ih_l0 f4 [128, 6]
0.08322664 0.095606506 -0.24241295 -0.076853655 -0.058703672 -0.025849175 -0.21248545 -0.39844847
-0.06111976 0.20618653 0.06653912 -0.13566291 0.034701575 0.016112637 -0.31004858 -0.220198
-0.28833255 -0.0071204687 0.15957965 0.19208519 0.107843034 0.05030818 0.09879369 -0.012777289
-0.109208845 0.051993266 -0.1731841 -0.408897 0.89070255 -1.5131546 0.20822012 0.12937495
0.2234482 -0.015733674 0.37631327 -0.31313387 -0.38731867 0.112830505 0.20422821 -0.21233541
0.0782895 -0.26108804 -0.3725046 -0.03533819 0.46993053 -0.07357818 0.12851682 -0.054259025
0.26132095 0.23251079 0.52879286 -0.37377045 0.40358743 -0.21610531 -0.06293701 -0.25347498
0.02571386 0.34163284 0.117851734 -0.10223412 0.1292817 -0.27377772 -0.41657296 0.38280907
-0.06544074 0.065180145 0.021424187 0.19387391 -0.5497346 -0.19544722 -1.0824203 -0.5015432
0.009143782 -0.04721399 -0.2461577 0.19941969 0.13557144 -0.014428002 -0.13295323 0.036740378
0.42710796 0.30784065 0.505617 0.36845237 0.05082899 -0.06563525 -0.7574126 0.06748865
-0.5930304 -0.0580385 -0.3147639 0.15628338 0.5173189 0.06756658 -0.095667176 0.40191072
0.26662618 -0.06957612 -0.5326363 0.38076925 -0.5734011 0.087834775 0.12621304 -0.20779562
-0.19331741 0.20412147 0.022785043 0.07579412 0.19060467 -0.27294067 -0.26363203 0.58129877
-0.05077892 0.80289936 0.061142467 0.02068987 -0.40908384 0.09625431 -0.13144964 0.4107621
-0.39614722 0.36505878 0.49749973 -0.38946694 0.29659307 0.007869822 0.055734664 0.25350994
0.0435805 -0.25595403 0.04655632 0.06633279 -0.17446184 -0.42312405 0.115955785 0.13565618
0.31894138 0.037270125 -0.06856743 0.08818387 0.1404228 -0.15284728 0.024527563 -0.03715229
0.14125316 -0.034979265 -0.2864901 -0.16114324 -0.22516762 -0.25156304 -0.36965913 -0.139977
0.052953392 0.18276237 0.18130337 0.07157459 -0.02503223 0.25972137 -0.62287945 -0.5883776
-0.37365195 -0.10472093 -0.22059405 0.039023098 0.7079225 0.58528453 0.78743327 0.88175434
0.19855753 -0.057767656 -0.32749104 0.23845667 0.083567806 0.24897149 -0.34686503 0.0559033
0.095720865 -0.35142154 0.21946198 -0.076959 -0.15913115 -0.10503439 0.29815578 0.067592606
-0.101522036 -0.29165232 -0.089878984 0.085325025 0.024582198 0.0904753 -0.22103623 -0.053860154
0.11354687 0.11497195 -0.17385806 -0.11799576 -0.16939826 -0.19014135 -0.015947074 -0.16420753
0.07285433 0.10523559 0.068618484 -0.12059973 -0.12498227 -0.044040013 -0.037201416 -0.03248896
-0.24755858 0.06374549 0.11078933 0.075642414 0.1108373 -0.14396146 -0.022412686 0.025874399
0.015088294 -0.1372062 0.22855014 -0.16723199 0.23115286 0.014743959 0.19755998 -0.041326012
0.12232859 -0.19925629 -0.29339513 0.018948065 -0.053382803 -0.013041455 0.17368229 -0.10335527
-0.15014918 0.027179463 -0.1409999 -0.22498263 0.25654894 -0.031577416 -0.017169833 -0.11456358
0.32548386 0.018046541 0.0017279735 -0.17167708 -0.096211396 -0.065002665 -0.17078158 -0.03634586
0.29178408 0.11685373 0.19752917 0.0747598 0.13289712 -0.3033184 -0.15606569 0.27375674
00000000: bb72 aa3d 58cd c33d 1a3b 78be 7365 9dbd
00000010: 4373 70bd a6c1 d3bc c995 59be 7001 ccbe
00000020: b758 7abd 9022 533e aa45 883d 38eb 0abe
00000030: 3d23 0e3d a6fe 833c b0be 9ebe 967b 61be
00000040: 53a0 93be d252 e9bb d968 233e fbb1 443e
00000050: cfdc dc3d f30f 4e3d 5954 ca3d d657 51bc
00000060: e3a8 dfbd e4f6 543d 2c57 31be f35a d1be
00000070: 1505 643f 0daf c1bf a837 553e de7a 043e
00000080: 9bcf 643e e8e3 80bc 22ac c03e 1553 a0be
00000090: a24e c6be ae13 e73d 3321 513e 746e 59be
000000a0: 3f56 a03d 55ad 85be ecb8 bebe c7be 10bd
000000b0: bc9a f03e 28b0 96bd ea99 033e b63e 5ebd
000000c0: dccb 853e 4f17 6e3e f85e 073f d75e bfbe
000000d0: 03a3 ce3e b64a 5dbe 1ee5 80bd 79c7 81be
000000e0: dfa5 d23c 80ea ae3e 405c f13d 1f60 d1bd
000000f0: 6c62 043e 982c 8cbe 0d49 d5be 8dff c33e
00000100: cb05 86bd 2b7d 853d c781 af3c e286 463e
00000110: 68bb 0cbf 5123 48be c08c 8abf 2365 00bf
00000120: cdcf 153c 7563 41bd c410 7cbe ad34 4c3e
00000130: 3dd3 0a3e 6d63 6cbc e424 08be 147d 163d
00000140: e5ad da3e 4a9d 9d3e 1e70 013f caa5 bc3e
00000150: 0f32 503d c66b 86bd cbe5 41bf 7d37 8a3d
00000160: d7d0 17bf c7b9 6dbd bc28 a1be c008 203e
00000170: 036f 043f 5960 8a3d 27ed c3bd 3ec7 cd3e
00000180: 3a83 883e ed7d 8ebd da5a 08bf 30f4 c23e
00000190: 6aca 12bf b8e2 b33d fe3d 013e 60c8 54be
000001a0: 00f5 45be 3805 513e b3a7 ba3c f339 9b3d
000001b0: df2d 433e e1be 8bbe c7fa 86be ffcf 143f
000001c0: 8ffd 4fbd d08a 4d3f 8670 7a3d cd7d a93c
000001d0: 7073 d1be fb20 c53d bc9a 06be 694f d23e
000001e0: cfd3 cabe fce8 ba3e 49b8 fe3e 3668 c7be
000001f0: 0cdb 973e 6df0 003c 084a 643d 0ecc 813e
00000200: 7781 323d 680c 83be d7b1 3e3d 7cd9 873d
00000210: 20a6 32be b7a3 d8be 3a7a ed3d 74e9 0a3e
00000220: 494c a33e 8fa8 183d 156d 8cbd bf99 b43d
00000230: ffca 0f3e ff83 1cbe 07ee c83c 002d 18bd
00000240: aba4 103e 6b46 0fbd d5ae 92be bc02 25be
00000250: 5792 66be dfcc 80be f643 bdbe 2156 0fbe
00000260: a8e5 583d 0f26 3b3e 97a7 393e b395 923d
00000270: 6410 cdbc 33fa 843e 0775 1fbf ea9f 16bf
00000280: 4f4f bfbe ed77 d6bd 68e3 61be afd6 1f3d
00000290: 693a 353f 35d5 153f 3a95 493f a7ba 613f
000002a0: aa52 4b3e c79d 6cbd e8ac a7be fc2d 743e
000002b0: 9925 ab3d 62f2 7e3e 4b98 b1be dcfa 643d
000002c0: 4d09 c43d 86ed b3be a4ba 603e ae9c 9dbd
000002d0: 47f3 22be 451c d7bd e0a7 983e fe6d 8a3d
000002e0: c9ea cfbd 7453 95be 7912 b8bd e3be ae3d
000002f0: 9b60 c93c 1d4b b93d 5257 62be 779c 5cbd
00000300: 438b e83d 6a76 eb3d d907 32be c3a7 f1bd
00000310: bd76 2dbe 6ab4 42be 70a3 82bc 0526 28be
00000320: a734 953d c285 d73d d987 8c3d fefc f6bd
00000330: b4f6 ffbd 4d63 34bd 8360 18bd 2513 05bd
00000340: ff7f 7dbe ff8c 823d 84e5 e23d 69ea 9a3d
00000350: abfe e23d a26a 13be cf9a b7bc 8cf6 d33c
00000360: e434 773c c87f 0cbe 0c09 6a3e dd3e 2bbe
00000370: 56b3 6c3e a590 713c 2a4d 4a3e 7745 29bd
00000380: 6987 fa3d d709 4cbe e337 96be f938 9b3c
00000390: eda7 5abd d4ab 55bc c5d9 313e eeab d3bd
000003a0: b5c0 19be 77a7 de3c 4762 10be d961 66be
000003b0: 625a 833e 5257 01bd c0a7 8cbc 4fa0 eabd
000003c0: d2a5 a63e 57d6 933c 2b7d e23a 1ecc 2fbe
000003d0: 7b0a c5bd 1e20 85bd 5ee1 2ebe 66df 14bd
000003e0: b964 953e 0251 ef3d 1645 4a3e ab1b 993d
000003f0: 2f16 083e 8d4c 9bbe afcf 1fbe d829 8c3e

weight_hh_l0 f4 [128, 32]
0.019296117 -0.21118063 0.018569944 0.10992057 -0.150563 -0.01114873 -0.06705948 -0.15336227
0.040809423 0.24067745 -0.138868 0.07901934 -0.13223226 0.2024594 0.18038805 0.11129799
0.22429907 -0.14343083 -0.105000846 0.01755677 -0.19688678 -0.1357414 -0.078353554 -0.2724717
0.2790833 0.09186208 -0.049030356 0.39483815 0.21682842 0.019605204 0.1658572 -0.10294715
0.094973445 -0.27323234 0.08280034 -0.099217914 -0.0007206362 0.19517492 -0.008035545 -0.22558597
0.07877571 0.11588487 -0.3383676 -0.10443096 -0.29005006 0.20232575 0.10920447 -0.11582902
0.23434262 0.13510402 -0.23504423 0.05278119 -0.07102873 -0.14335984 -0.1894617 -0.16021962
0.1453325 0.14910665 -0.1476007 0.049843367 0.027267665 0.04008645 0.24149124 -0.06491511
0.122379765 -0.1488208 -0.113754615 0.121990405 0.0850913 0.14317344 -0.140031 -0.19288984
-0.050678045 0.22643791 -0.28886673 0.06003814 -0.06425945 -0.13014731 0.12119794 -0.08617585
0.11614442 -0.13059324 0.116684936 -0.13168623 0.06401466 0.063358136 0.08832518 0.14894766
0.27897587 0.14414528 0.16826089 0.1494163 0.1400464 0.08445686 -0.05748484 0.052864973
-0.087335855 -0.054813396 -0.040002212 0.069642715 -0.079749726 0.039002974 -0.09527152 0.029968126
-0.040923778 0.18681177 -0.3247545 -0.12405348 -0.07605462 -0.0760283 -0.117284626 -0.15273076
0.05771205 0.028051736 -0.23595005 -0.04643673 -0.05709948 -0.015456388 0.01683145 -0.01753273
0.1399898 0.14573444 -0.07238206 0.21175662 0.057386402 0.11904981 0.2824105 -0.072673716
0.026409497 -0.085878395 0.25717166 -0.024448313 0.089141496 0.021026496 -0.0064272014 0.13841344
0.17184962 -0.1424052 -0.118554056 -0.23855537 0.06306649 0.08728377 0.074665576 -0.11602564
-0.13856305 -0.32582092 0.0005829901 0.0726382 0.019816244 0.36620328 0.14653118 -0.06994549
0.0230529 -0.21730994 -0.06884201 -0.2715701 0.044940606 -0.036631476 0.1316653 -0.13200563
0.09561116 -0.20140213 0.09115993 -0.12951304 -0.071342364 -0.07367715 0.18452711 -0.23926805
-0.05931233 0.034136128 0.17470783 -0.11151389 -0.20817205 0.0741687 -0.007956837 -0.0069864322
-0.008892024 0.21874195 -0.20870483 0.20177929 -0.062963575 -0.04641471 0.036396746 -0.18900585
0.10393104 0.052413363 0.16483237 0.2087316 0.06803984 -0.025896808 0.21847747 0.18578452
0.14057596 -0.06623464 -0.20243014 0.13343112 -0.07593629 -0.063676514 0.24216583 -0.324511
-0.131863 0.16891514 -0.0840484 -0.13690309 -0.0017055635 0.31945708 0.071490966 0.016108513
0.08530132 -0.05609368 -0.071681 -0.059646886 -0.080948375 0.229643 0.14379019 -0.1160788
-0.008286563 0.24339281 0.1222332 0.19137476 -0.11822732 0.0086764945 0.00027963927 0.13718899
0.13920668 -0.27279747 0.034687426 0.12542443 -0.23816796 0.0031543854 0.26699933 -0.16588078
-0.033022713 -0.009402991 0.10113623 -0.058581084 -0.04624729 -0.0011128356 0.023077754 0.07502442
0.11685601 0.13458021 -0.17226245 0.019579716 -0.40719193 0.09084325 -0.08507451 -0.33090854
0.19293185 0.41850767 -0.1615173 0.28876165 0.11940875 -0.013660561 0.11697138 0.3173116
00000000: e412 9e3c bc3f 58be ff1f 983c 091e e13d
00000010: 302d 1abe 2aa9 36bc 7b56 89bd 000b 1dbe
00000020: c827 273d 2674 763e 6a33 0ebe e4d4 a13d
00000030: e567 07be 8451 4f3e a5b7 383e 33f0 e33d
00000040: a8ae 653e 88df 12be af0a d7bd 37d3 8f3c
00000050: b09c 49be cbff 0abe d477 a0bd 6981 8bbe
00000060: 02e4 8e3e 3022 bc3d 0ed4 48bd 3a28 ca3e
00000070: 4508 5e3e 189b a03c 78d6 293e f5d5 d2bd
00000080: 7081 c23d 1ce5 8bbe 3a93 a93d c332 cbbd
00000090: 14e9 3cba efdb 473e 85a7 03bc 0200 67be
000000a0: 2955 a13d 0c55 ed3d 853e adbe e6df d5bd
000000b0: 7181 94be 7b2e 4f3e 98a6 df3d c437 edbd
000000c0: 83f7 6f3e b558 0a3e 6faf 70be 1731 583d
000000d0: 8377 91bd eccc 12be 3f02 42be 9d10 24be
000000e0: 0bd2 143e 6aaf 183e a324 17be 8f28 4c3d
000000f0: 7060 df3c b031 243d 7b49 773e 37f2 84bd
00000100: 3ea2 fa3d 7b64 18be 2ef8 e8bd 1bd6 f93d
00000110: 5944 ae3d 0f9c 123e 4964 0fbe ea84 45be
00000120: c893 4fbd 57df 673e 57e6 93be 8dea 753d
00000130: 759a 83bd 5645 05be a036 f83d f77c b0bd
00000140: 20dd ed3d 3cba 05be 83f8 ee3d c1d8 06be
00000150: 1e1a 833d e9c1 813d d5e3 b43d bc85 183e
00000160: edd5 8e3e d29a 133e 954c 2c3e 9600 193e
00000170: 5368 0f3e b8f7 ac3d 3975 6bbd f188 583d
00000180: 24dd b2bd 0384 60bd 5cd9 23bd d7a0 8e3d
00000190: d353 a3bd 95c1 1f3d b71d c3bd b77f f53c
000001a0: b19f 27bd 964b 3f3e 3946 a6be c00f febd
000001b0: 86c2 9bbd bab4 9bbd ec32 f0bd 7465 1cbe
000001c0: 7863 6c3d c1cc e53c e49c 71be 7134 3ebd
000001d0: 25e1 69bd ca3c 7dbc 1ce2 893c cda0 8fbc
000001e0: 7c59 0f3e 693b 153e 0c3d 94bd bad6 583e
000001f0: 010e 6b3d 63d0 f33d 1c98 903e f5d5 94bd
00000200: bb58 d83c 03e1 afbd 01ac 833e d447 c8bc
00000210: d18f b63d c23f ac3c 469b d2bb 41bc 0d3e
00000220: 59f9 2f3e abd2 11be 78cc f2bd dc47 74be
00000230: 0129 813d d5c1 b23d 44ea 983d da9e edbd
00000240: 79e3 0dbe 00d2 a6be ced3 183a 56c3 943d
00000250: ad55 a23c ff7e bb3e 450c 163e 953f 8fbd
00000260: 6fd9 bc3c 7f86 5ebe 0afd 8cbd 3c0b 8bbe
00000270: a413 383d e30a 16bd 45d3 063e 7c2c 07be
00000280: c9cf c33d 5c3c 4ebe 0fb2 ba3d 119f 04be
00000290: f21b 92bd 0ce4 96bd adf4 3c3e af02 75be
000002a0: 7cf1 72bd 53d2 0b3d 9ce6 323e 6561 e4bd
000002b0: 0e2b 55be c2e5 973d 655d 02bc 71ee e4bb
000002c0: daaf 11bc e4fd 5f3e b8b6 55be 3b9f 4e3e
000002d0: 0cf3 80bd 5a1d 3ebd c114 153d c08a 41be
000002e0: ccd9 d43d 65af 563d d1c9 283e bdbd 553e
000002f0: 7958 8b3d 8b25 d4bc 8fb8 5f3e 4c3e 3e3e
00000300: 25f3 0f3e 07a6 87bd d949 4fbe 2ba2 083e
00000310: 7c84 9bbd d568 82bd 52fa 773e 4e26 a6be
00000320: 1807 07be 17f8 2c3e 9121 acbd 5330 0cbe
00000330: 378d dfba e18f a33e db69 923d 00f6 833c
00000340: 75b2 ae3d 7dc2 65bd 7dcd 92bd 4b50 74bd
00000350: 43c8 a5bd 8927 6b3e bc3d 133e b9ba edbd
00000360: 5dc4 07bc f73b 793e 6655 fa3d bff7 433e
00000370: 2a21 f2bd db27 0e3c 8c9c 9239 457b 0c3e
00000380: 328c 0e3e 1cac 8bbe 6714 0e3d 436f 003e
00000390: 4de2 73be ceb9 4e3b 23b4 883e a7dc 29be
000003a0: d342 07bd 010f 1abc 8320 cf3d b8f2 6fbd
000003b0: cc6d 3dbd 91dc 91ba 8f0d bd3c 67a6 993d
000003c0: 3452 ef3d 65cf 093e 9165 30be a465 a03c
000003d0: 767b d0be 070c ba3d 8b3b aebd d86c a9be
000003e0: ed8f 453e a346 d63e cb64 25be 91d8 933e
000003f0: 938c f43d 8cd0 5fbc b18e ef3d ab76 a23e

bias_ih_l0 f4 [128]
-0.011816877 0.04522981 0.019111414 -0.075166404 -0.13700506 0.16806912 0.051311564 -0.15886685
-0.019381637 0.03988749 0.25332513 0.12326079 0.18296726 -0.085672066 0.08687308 -0.088631995
-0.023411399 0.14073157 -0.05043052 0.13617672 0.10740924 -0.0330525 0.07765063 -0.060930587
0.118079945 0.099906616 -0.057747778 0.006915931 -0.019047186 -0.016930962 -0.071706116 0.07894691
0.033732694 -0.2634746 -0.23233631 0.023747334 -0.042313807 -0.15576284 -0.2500085 -0.12513006
-0.19802797 -0.05977994 -0.21676023 0.005565057 -0.15484063 0.16766506 -0.040874578 -0.110581405
0.06309228 -0.048167747 -0.16263475 0.086957015 -0.3105377 -0.06970794 -0.0027840913 -0.026860686
-0.08047101 0.14471272 0.05594144 0.0765413 -0.03069075 -0.26900157 -0.25659564 -0.2659798
0.13670152 0.12824881 -0.06702082 0.032819472 -0.10068429 -0.0030887036 0.09872363 -0.038488984
-0.056749605 0.069510594 -0.07387318 0.03478695 -0.09547692 -0.026124123 -0.036610067 -0.09592195
-0.071124725 -0.12051295 0.10805307 -0.016834794 0.065801345 0.05803046 0.104236394 -0.1251197
0.11762593 -0.0960273 0.061192382 -0.09535327 -0.08268244 0.13144153 0.021750595 -0.06329163
0.19929323 0.028643055 0.063532256 -0.006240272 0.13730079 0.12668289 0.08538694 -0.12825817
-0.11971052 0.10876495 0.026316972 0.09336368 0.15183674 -0.073586516 0.12911564 0.090170376
0.10347047 0.08543049 0.043667905 0.020496389 0.23433809 -0.006593635 0.05883747 -0.0029163533
-0.07026689 0.13564682 0.093462415 -0.039806318 0.12069857 0.20166115 0.0036077506 0.05820521
00000000: 939b 41bc e542 393d 8a8f 9c3c d8f0 99bd
00000010: 0e4b 0cbe 501a 2c3e 132c 523d fead 22be
00000020: 3dc6 9ebc 1161 233d d5b3 813e 2770 fc3d
00000030: c55b 3b3e d674 afbd 83ea b13d b184 b5bd
00000040: 43c9 bfbc f01b 103e 3c90 4ebd e971 0b3e
00000050: 60f9 db3d 0f62 07bd 4b07 9f3d 5a92 79bd
00000060: e6d3 f13d d79b cc3d ef88 6cbd 099f e23b
00000070: d808 9cbc cdb2 8abc a8da 92bd ebae a13d
00000080: 4b2b 0a3d 25e6 86be 92e9 6dbe c589 c23c
00000090: 3e51 2dbd 4b80 1fbe 1d01 80be 1822 00be
000000a0: d8c7 4abe cfdb 74bd 65f6 5dbe 155b b63b
000000b0: 8b8e 1ebe 64b0 2b3e 1a6c 27bd 8178 e2bd
000000c0: 8636 813d 8b4b 45bd b989 26be 8516 b23d
000000d0: ccfe 9ebe 09c3 8ebd 4d75 36bb f10a dcbc
000000e0: fccd a4bd 922f 143e da22 653d afc1 9c3d
000000f0: 2b6b fbbc 93ba 89be 8160 83be 812e 88be
00000100: 7cfb 0b3e a853 033e 3642 89bd b66d 063d
00000110: 9133 cebd d96b 4abb 9d2f ca3d a0a6 1dbd
00000120: 4672 68bd 925b 8e3d d24a 97bd c37c 0e3d
00000130: 6789 c3bd 4202 d6bc 70f4 15bd ba72 c4bd
00000140: d7a9 91bd 7ecf f6bd ee4a dd3d 1fe9 89bc
00000150: dbc2 863d 59b1 6d3d e479 d53d 611f 00be
00000160: dde5 f03d f6a9 c4bd dda4 7a3d 9348 c3bd
00000170: 6955 a9bd 9c98 063e 4e2e b23c 0b9f 81bd
00000180: 8613 4c3e d7a4 ea3c 331d 823d 327b ccbb
00000190: 9498 0c3e 29b9 013e 59df ae3d 1c56 03be
000001a0: ca2a f5bd 28c0 de3d b196 d73c 7535 bf3d
000001b0: 177b 1b3e 87b4 96bd e436 043e 3fab b83d
000001c0: 53e8 d33d 2ef6 ae3d 1edd 323d 0be8 a73c
000001d0: 53f6 6f3e 6b0f d8bb 8fff 703d 4a20 3fbb
000001e0: 16e8 8fbd 00e7 0a3e 3969 bf3d f30b 23bd
000001f0: d030 f73d 4380 4e3e 0370 6c3b 9668 6e3d

bias_hh_l0 f4 [128]
-0.056107074 0.05833754 -0.11467923 0.08631669 0.006770428 -0.075831 -0.050338402 0.018697647
0.065756105 0.20478342 -0.003129074 -0.0015664554 -0.055326127 0.20859668 0.12743609 0.071788594
-0.110378414 0.13329168 -0.14612181 0.09189922 0.2550866 0.14766411 0.10617646 0.0033673956
0.019740915 0.08477792 0.015806988 -0.084665924 -0.100673206 -0.02627397 -0.0021869664 0.12913786
-0.055026375 -0.23738502 0.005353151 -0.1823969 0.2660522 0.0070800744 -0.10906626 -0.26995546
-0.12514205 -0.11600191 -0.19782564 -0.05562402 -0.15762292 -0.011770842 0.06508008 -0.060469177
-0.06770575 -0.11609134 -0.13428205 -0.09432863 -0.16663162 -0.23250356 -0.22584993 -0.054848112
-0.2840528 -0.16391584 -0.19759516 0.015848454 -0.058911856 -0.035086155 -0.12451197 0.035410915
-0.14655745 -0.14052436 0.10305856 -0.022811444 0.15597636 0.029232433 -0.08741889 0.0084017385
0.08450826 -0.024107426 0.053959478 0.0520805 0.085236475 0.040320225 -0.11431511 0.05033652
0.021816716 0.12187744 0.033500057 -0.14341672 -0.09117374 -0.0024226701 -0.13935842 0.122958355
-0.12087115 0.009613409 0.06415937 0.019493109 -0.071227536 -0.147203 -0.0027985284 0.040704012
0.08425427 0.16296795 -0.09256779 0.22107127 0.23591504 0.030071596 0.28396648 0.18233493
-0.17371094 0.13111556 0.26758417 0.17025557 0.16399825 0.119595364 0.04896988 0.09803428
0.12196314 -0.051360942 0.14876324 -0.10299296 0.19738628 0.18450119 0.21061327 0.12967266
0.117561385 0.11129581 0.14537661 -0.03360275 -0.0086423075 0.19611901 0.030626012 0.2589443
00000000: 88d0 65bd 58f3 6e3d f2dc eabd cec6 b03d
00000010: 77da dd3b 494d 9bbd a42f 4ebd cf2b 993c
00000020: 23ab 863d bfb2 513e 2611 4dbb 8551 cdba
00000030: a69d 62bd 5e9a 553e 9b7e 023e e605 933d
00000040: 140e e2bd 9d7d 083e f5a0 15be a935 bc3d
00000050: b69a 823e 4335 173e 0b73 d93d 86af 5c3b
00000060: b3b7 a13c 0ca0 ad3d a87d 813c 5465 adbd
00000070: c12d cebd 823c d7bc 3553 0fbb b73c 043e
00000080: 5663 61bd 0f15 73be 7c69 af3b 41c6 3abe
00000090: fe37 883e f8ff e73b 225e dfbd 9a37 8abe
000000a0: 3d25 00be 6992 edbd ce92 4abe 03d6 63bd
000000b0: e767 21be 7dda 40bc b448 853d 87ae 77bd
000000c0: 50a9 8abd 4cc1 edbd 3c81 09be 5e2f c1bd
000000d0: 7ba1 2abe 6a15 6ebe 3445 67be 6aa8 60bd
000000e0: 5e6f 91be 8ed9 27be 6356 4abe 9ed4 813c
000000f0: 8f4d 71bd 80b6 0fbd 2200 ffbd 090b 113d
00000100: 2813 16be 9ee5 0fbe 5e10 d33d 11df babc
00000110: 44b8 1f3e db78 ef3c ad08 b3bd 72a7 093c
00000120: ab12 ad3d f07c c5bc 9d04 5d3d 5d52 553d
00000130: 7690 ae3d d226 253d 0a1e eabd ab2d 4e3d
00000140: f8b8 b23c e19a f93d 5b37 093d d5db 12be
00000150: 4cb9 babd a9c5 1ebb f9b3 0ebe 97d1 fb3d
00000160: 4b8b f7bd 8f81 1d3c fd65 833d 03b0 9f3c
00000170: bedf 91bd 62bc 16be 8467 37bb 40b9 263d
00000180: 818d ac3d 12e1 263e 2e94 bdbd 8260 623e
00000190: b693 713e b558 f63c 0e64 913e 02b6 3a3e
000001a0: 48e1 31be 2843 063e cb00 893e 7a57 2e3e
000001b0: 28ef 273e 6aee f43d a494 483d 32c6 c83d
000001c0: d0c7 f93d da5f 52bd 6455 183e f9ed d2bd
000001d0: a11f 4a3e e1ed 3c3e 01ab 573e e9c8 043e
000001e0: 06c4 f03d 0fef e33d 9bdd 143e 0aa3 09bd
000001f0: 7798 0dbc 6cd3 483e 67e3 fa3c 5994 843e

weight_ih_l0 f4 [128, 2]
0.11674628 0.07999855 0.06801143 0.075920574 0.14809771 0.031783745 -0.1735092 0.009953604
-0.086399406 -0.30421203 0.12095116 0.12715074 -0.11107455 0.14897461 -0.30816862 -0.0012576988
0.14986713 -0.14559172 -0.19409114 0.05029036 -0.04867927 -0.034042325 0.15434618 -0.06917017
0.092369236 -0.2848309 -0.10466516 -0.013872268 -0.25045586 0.080283105 -0.022973703 0.052175786
-0.18145643 0.16955636 -0.030529058 0.29290688 0.025070662 0.22011554 0.15764196 0.10035287
0.3179813 -0.021397838 0.22136962 0.44342336 0.2505239 0.24220641 -0.46926337 0.19477803
-0.04390516 0.06996808 0.1112365 -0.2346937 -0.056146774 0.2556855 -0.2238163 -0.16022933
-0.020197168 -0.054817352 0.056148853 0.30416957 0.31707123 0.0070858058 0.075537644 -0.35911062
0.04666815 -0.18439299 -0.07228061 -0.26607868 -0.04996768 0.053535253 0.0736974 0.3322535
0.20885739 0.14013939 -0.41085348 0.21291246 -0.5347617 0.008600876 0.33263585 0.114933334
-0.057130568 -0.08830596 -0.07945707 -0.3162728 -0.12787665 -0.1290795 -0.21614267 0.13725346
-0.44448608 -0.0665272 0.4186959 0.41283074 -0.23429194 -0.27361724 0.16539556 0.030766297
0.108875856 -0.01600455 0.00534691 -0.27080193 0.104525805 0.5634703 -0.48448214 0.12857561
-0.41013777 -0.157728 0.21219543 0.09665811 0.088873245 0.33716637 -0.015147196 -0.52207214
-0.26909587 -0.17976381 0.28429955 0.100941084 0.23228288 -0.24129485 -0.13429667 0.29874846
0.03800719 -0.3555727 -0.22220024 0.51952106 0.2572052 -0.05913922 0.02452346 0.30051094
-0.035785303 0.22034433 -0.25871235 -0.3413886 -0.2763094 -0.26316687 -0.082235195 -0.32159498
-0.28743204 0.20327783 0.16876812 -0.3919438 -0.040887896 -0.07178353 0.30713797 -0.11053674
0.5787458 0.17612515 -0.0039140442 0.7041531 0.2958608 0.43587443 -0.5524669 0.24671853
-0.35229126 -0.016377993 0.2524151 0.21298032 -0.3240824 -0.46146533 -0.34952995 0.21267435
0.017636282 0.16980545 -0.46151558 0.34091902 0.035495527 0.48119685 0.3128349 -0.13382715
-0.2729585 -0.011874687 -0.43110636 0.28886828 -0.08411794 -0.4790023 0.12700641 -0.043409657
0.21147817 0.2466267 -0.14741033 0.29196143 -0.57615674 0.28045842 0.27154297 0.16921902
0.44686922 0.22239463 0.124943644 0.042942844 0.3026776 0.17157838 -0.105060086 -0.44047558
-0.092111245 -0.16519892 0.14898835 0.01570433 0.11801656 -0.04110033 0.21548933 0.11504746
-0.0072613913 -0.20745116 -0.22373214 0.20527193 -0.3343864 -0.15944198 -0.055339094 -0.08923248
-0.036326304 0.08467418 -0.23828956 -0.35335404 0.11011078 -0.07261927 0.11584779 -0.030028718
0.36424145 0.13692191 0.17287934 0.20526269 -0.17667152 0.139013 0.09066995 -0.024592716
-0.085287794 0.11832996 -0.0848355 -0.1644878 -0.04639088 -0.075160235 0.20067196 0.2915062
0.07538551 -0.09109458 0.02153357 0.46774113 0.16849203 0.1316498 -0.1445025 -0.2660971
0.1830221 0.082606055 0.16879117 -0.27230325 0.034694575 -0.20770098 0.0429302 0.030552125
-0.00092054653 -0.1234184 -0.138232 0.25813907 0.19134025 -0.0666631 0.17629655 -0.24616359
00000000: ac18 ef3d 48d6 a33d 9449 8b3d 3f7c 9b3d
00000010: eda6 173e ac2f 023d 65ac 31be 7114 233c
00000020: 2cf2 b0bd aec1 9bbe 3eb5 f73d ce33 023e
00000030: 0e7b e3bd cd8c 183e 47c8 9dbe 5ed9 a4ba
00000040: c576 193e ff15 15be d4bf 46be 44fd 4d3d
00000050: ea63 47bd f76f 0bbd ed0c 1e3e 17a9 8dbd
00000060: 152c bd3d 5bd5 91be b05a d6bd 8248 63bc
00000070: c03b 80be 786b a43d 5933 bcbc 47b6 553d
00000080: b7cf 39be 2fa0 2d3e 1318 fabc e4f7 953e
00000090: fd60 cd3c f865 613e e56c 213e ce85 cd3d
000000a0: 72ce a23e 854a afbc b8ae 623e 6308 e33e
000000b0: ab44 803e f504 783e 4a43 f0be e473 473e
000000c0: e6d5 33bd 6d4b 8f3d f6cf e33d 8c53 70be
000000d0: 29fa 65bd 36e9 823e 1a30 65be 2813 24be
000000e0: 8874 a5bc 2988 60bd 57fc 653d 1dbc 9b3e
000000f0: 2957 a23e 0c30 e83b 7bb3 9a3d 59dd b7be
00000100: 1a27 3f3d 84d1 3cbe db07 94bd 773b 88be
00000110: e9aa 4cbd c847 5b3d aaee 963d 211d aa3e
00000120: b6de 553e b380 0f3e 635b d2be b905 5a3e
00000130: 25e6 08bf b0ea 0c3c 3f4f aa3e 2b62 eb3d
00000140: be01 6abd c1d9 b4bd 63ba a2bd 82ee a1be
00000150: 19f2 02be 6b2d 04be 8154 5dbe 2c8c 0c3e
00000160: ae93 e3be 6a3f 88bd 4f5f d63e 8d5e d33e
00000170: 3aea 6fbe 8f17 8cbe 745d 293e 9a09 fc3c
00000180: 4efa de3d f91b 83bc 2235 af3b 8da6 8abe
00000190: a011 d63d 973f 103f 0b0e f8be 53a9 033e
000001a0: 94fd d1be 7383 21be c249 593e b0f4 c53d
000001b0: 2d03 b63d 12a1 ac3e f22b 78bc 85a6 05bf
000001c0: efc6 89be 0114 38be b68f 913e 33ba ce3d
000001d0: 90db 6d3e ff15 77be 1185 09be 8ff5 983e
000001e0: 6dad 1b3d a00d b6be 7688 63be 55ff 043f
000001f0: 66b0 833e f73b 72bd 6ce5 c83c 92dc 993e
00000200: 9c93 12bd f2a1 613e f275 84be 7dca aebe
00000210: 6d78 8dbe cfbd 86be ed6a a8bd 19a8 a4be
00000220: 4b2a 93be 1028 503e 8dd1 2c3e dcac c8be
00000230: 117a 27bd 3e03 93bd 3041 9d3e 1661 e2bd
00000240: af28 143f 275a 343e 6241 80bb 6143 343f
00000250: 117b 973e ef2a df3e 796e 0dbf c8a3 7c3e
00000260: 855f b4be 242b 86bc 8d3c 813e 8317 5a3e
00000270: 21ee a5be 2f45 ecbe 97f5 b2be 4ec7 593e
00000280: f779 903c 7be1 2d3e c54b ecbe f08c ae3e
00000290: c263 113d 6f5f f63e e52b a03e fc09 09be
000002a0: 37c1 8bbe 0c8e 42bc f9b9 dcbe 8be6 933e
000002b0: 0746 acbd ca3f f5be f80d 023e 53ce 31bd
000002c0: bc8d 583e b68b 7c3e bcf2 16be f87b 953e
000002d0: 027f 13bf 3f98 8f3e ae07 8b3e c047 2d3e
000002e0: 0bcc e43e 6bbb 633e 74e2 ff3d d6e4 2f3d
000002f0: 8ff8 9a3e 3eb2 2f3e be29 d7bd 0486 e1be
00000300: d2a4 bcbd e829 29be 6790 183e 5ea6 803c
00000310: abb2 f13d d258 28bd 3ca9 5c3e 019e eb3d
00000320: f7f0 edbb 146e 54be 0a1a 65be ce32 523e
00000330: b234 abbe c244 23be 3fab 62bd 85bf b6bd
00000340: e4ca 14bd a869 ad3d 2e02 74be d2ea b4be
00000350: c381 e13d 69b9 94bd 9b41 ed3d c9fe f5bc
00000360: db7d ba3e 4235 0c3e 4807 313e 6230 523e
00000370: 61e9 34be 6d59 0e3e 2bb1 b93d aa76 c9bc
00000380: 5eab aebd fa56 f23d 3cbe adbd 7d6f 28be
00000390: 5d04 3ebd 9ced 99bd f37c 4d3e 4d40 953e
000003a0: b863 9a3d cc8f babd 2b67 b03c c47b ef3e
000003b0: 2d89 2c3e 35cf 063e 77f8 13be e13d 88be
000003c0: 256a 3b3e 5d2d a93d 98d7 2c3e 556b 8bbe
000003d0: e61b 0e3d 91af 54be 94d7 2f3d 7348 fa3c
000003e0: d550 71ba c9c2 fcbd b08c 0dbe ce2a 843e
000003f0: b3ee 433e aa86 88bd 1587 343e 4f12 7cbe

weight_hh_l0 f4 [128, 32]
-0.05883933 0.067075245 -0.12985136 0.059511226 0.04559405 -0.08343721 -0.22743621 -0.03242085
-0.19776632 -0.06007256 0.06745489 0.19313502 0.16663375 0.15798916 -0.074465685 -0.07741477
0.10261976 0.015354398 0.26412582 -0.12338765 0.11050452 -0.16429467 -0.29773456 0.12750107
-0.23245041 0.24434723 -0.17058685 0.17018782 0.11436621 -0.17299195 -0.13028331 -0.018382603
0.018100271 -0.121254355 -0.36268678 -0.14542222 0.11557075 0.0079227965 -0.3612218 -0.060386952
0.21638842 0.19752227 0.43020037 0.01334419 -0.0797497 0.4351846 -0.04584186 -0.17461932
0.07720598 0.16741605 0.35029495 0.10231292 0.16802524 -0.26614878 -0.1017435 0.13638903
0.08730273 -0.029219046 -0.14836212 -0.0036096168 0.07119701 0.034291185 0.11000789 -0.43514225
-0.10736869 0.24276233 0.13655719 -0.059068266 -0.26665682 -0.12480969 -0.14976195 0.081567705
0.018096674 -0.25343686 -0.15570018 0.0377967 0.1205241 0.4625643 0.2531961 -9.378566e-05
0.06354575 0.036221843 0.040692553 -0.2596935 0.08908366 -0.12357531 -0.10322642 0.21721417
-0.2835268 0.023122868 -0.29040068 0.24646279 -0.2713876 -0.08656025 0.27103707 -0.51085246
0.14128391 -0.08932858 0.14125842 -0.07004024 0.10516459 0.07303428 0.2052136 0.15670232
0.399723 0.12932639 0.028128393 0.03887095 0.080718294 -0.060220696 -0.07590658 -0.09391315
-0.13507663 -0.29823676 -0.052286863 -0.09402836 -0.07422517 0.16643882 0.1100865 -0.01996602
0.023445828 0.29311246 -0.099980064 0.39035338 -0.025976792 -0.15665407 0.101598665 -0.09165296
-0.24051969 0.06523891 0.15033835 0.24784172 -0.117897384 0.48897022 0.3594842 0.060679697
0.3462964 0.01595718 -0.22931656 -0.07266143 -0.09858933 0.10377134 0.27109247 -0.06708744
-0.35803807 -0.727772 -0.30241194 0.20727843 0.05865736 0.06643309 0.5783933 -0.06549177
-0.16784552 0.12672621 -0.42423585 0.20673814 -0.13386296 0.15288286 0.050000068 0.12397266
-0.08762863 -0.08013095 -0.31597206 -0.22785984 0.14406623 0.1452867 -0.18759827 0.25970167
0.39028883 -0.3474923 -0.0954537 0.31111532 0.09094802 0.041724566 0.19339769 -0.15771924
-0.23077948 -0.1746228 -0.021608492 0.11070821 -0.08146816 -0.26614293 -0.13905092 0.23429754
0.111934386 0.26763594 -0.06920533 0.35706908 -0.020784 -0.36919293 0.46386796 -0.103252694
0.28198916 -0.2504543 -0.43792525 -0.27878916 0.1605323 -0.24751915 0.026969373 0.13696161
0.31438538 0.2914548 0.43912938 0.0078891255 -0.11499758 0.30099034 -0.45895907 -0.19539587
0.019044524 0.26918772 0.293285 -0.013316338 0.031147033 0.25948757 -0.4399235 -0.005607648
0.19222243 0.053044815 -0.21268138 -0.020836184 0.40593383 -0.17307979 -0.015770106 -0.06787754
0.24337637 0.12052857 0.45515412 0.063196845 0.1960307 -0.36563632 0.24138185 -0.07341562
-0.7588458 -0.11018997 -0.31508616 0.293397 0.72176224 -0.15599734 0.058784124 0.33792424
0.1449755 0.40600538 -0.1326068 -0.0099750245 0.0102429 0.13997152 -0.060705155 -0.15977605
0.031748187 -0.045380197 0.5462971 0.12601636 -0.16714923 0.06961217 -0.055294096 0.12438014
00000000: 8201 71bd bf5e 893d c1f7 04be 0bc2 733d
00000010: d4c0 3a3d 21e1 aabd 0ae5 68be bacb 04bd
00000020: 4183 4abe a50e 76bd ca25 8a3d 30c5 453e
00000030: 0aa2 2a3e e9c7 213e 7781 98bd a38b 9ebd
00000040: 4f2a d23d 0391 7b3c 803b 873e aab2 fcbd
00000050: 3250 e23d dd3c 28be aa70 98be a48f 023e
00000060: 7b07 6ebe 2936 7a3e 52ae 2ebe b745 2e3e
00000070: d538 ea3d cd24 31be fd68 05be 1d97 96bc
00000080: 0547 943c 3454 f8bd 15b2 b9be 90e9 14be
00000090: 5bb0 ec3d 9ece 013c 10f2 b8be 4f58 77bd
000000a0: ed94 5d3e 4743 4a3e 3943 dc3e 97a1 5a3c
000000b0: d053 a3bd 84d0 de3e adc4 3bbd 68cf 32be
000000c0: 2b1e 9e3d 1d6f 2b3e dc59 b33e 7089 d13d
000000d0: cf0e 2c3e a744 88be e55e d0bd 91a9 0b3e
000000e0: c6cb b23d c85c efbc 3dec 17be 528f 6cbb
000000f0: bdcf 913d ea74 0c3d d14b e13d f7ca debe
00000100: 1ee4 dbbd b096 783e a6d5 0b3e 91f1 71bd
00000110: 3e87 88be 399c ffbd 325b 19be f80c a73d
00000120: 7a3f 943c 7ac2 81be de6f 1fbe b6d0 1a3d
00000130: 57d5 f63d 3ad5 ec3e eba2 813e cbae c4b8
00000140: 4624 823d 5b5d 143d 3cad 263d 8cf6 84be
00000150: 7e71 b63d 0d15 fdbd 6068 d3bd 646d 5e3e
00000160: 6d2a 91be 2b6c bd3c 66af 94be be60 7c3e
00000170: 51f3 8abe 8046 b1bd 5fc5 8a3e 3ac7 02bf
00000180: bbac 103e e7f1 b6bd 0ca6 103e 4271 8fbd
00000190: 8860 d73d ff92 953d 8423 523e 9376 203e
000001a0: 7ea8 cc3e 236e 043e 846d e63c 2537 1f3d
000001b0: a24f a53d faa9 76bd e974 9bbd 8a55 c0bd
000001c0: 8751 0abe 7db2 98be c02a 56bd f191 c0bd
000001d0: 5e03 98bd f06e 2a3e 0875 e13d c78f a3bc
000001e0: 7711 c03c d612 963e 59c2 ccbd 66dc c73e
000001f0: 48cd d4bc ed69 20be f612 d03d 8cb4 bbbd
00000200: cb4a 76be fa9b 853d 4cf2 193e 38ca 7d3e
00000210: 2f74 f1bd 4e5a fa3e 500e b83e 468b 783d
00000220: c34d b13e a2b8 823c f6d1 6abe 84cf 94bd
00000230: 34e9 c9bd 1186 d43d a2cc 8a3e 2465 89bd
00000240: c450 b7be 444f 3abf bdd5 9abe cc40 543e
00000250: b342 703d 120e 883d 9511 143f 8d20 86bd
00000260: b2df 2bbe 84c4 013e 7135 d9be 2ab3 533e
00000270: 5f13 09be 538d 1c3e dfcc 4c3d 61e5 fd3d
00000280: a476 b3bd b21b a4bd 17c7 a1be 1754 69be
00000290: 1986 133e 09c6 143e c319 40be 9ef7 843e
000002a0: f0d3 c73e 83ea b1be 3b7d c3bd 824a 9f3e
000002b0: f542 ba3d 61e7 2a3d 0b0a 463e 2781 21be
000002c0: 7551 6cbe 52d0 32be 4b04 b1bc fcba e23d
000002d0: c7d8 a6bd e343 88be 5d63 0ebe b2eb 6f3e
000002e0: db3d e53d 9407 893e 86bb 8dbd c2d1 b63e
000002f0: 3543 aabc db06 bdbe 1a80 ed3e 2676 d3bd
00000300: e260 903e 8c3b 80be bd37 e0be 74bd 8ebe
00000310: 9462 243e a975 7dbe e0ee dc3c aa3f 0c3e
00000320: 1ff7 a03e 9039 953e 91d5 e03e 6441 013c
00000330: da83 ebbd 681b 9a3e affc eabe db15 48be
00000340: 4303 9c3c f9d2 893e 7429 963e c52c 5abc
00000350: 1028 ff3c 8edb 843e a73d e1be 5cc0 b7bb
00000360: f5d5 443e 8545 593d 26c9 59be a5b0 aabc
00000370: 8fd6 cf3e d43b 31be 4f30 81bc 6103 8bbd
00000380: a837 793e afd7 f63d f609 e93e 596d 813d
00000390: 46bc 483e af34 bbbe ce2c 773e ee5a 96bd
000003a0: b843 42bf 47ab e1bd f952 a1be 2238 963e
000003b0: 69c5 383f c4bd 1fbe 9fc7 703d 6804 ad3e
000003c0: 7574 143e f0df cf3e 14ca 07be 496e 23bc
000003d0: d6d1 273c b254 0f3e f8a5 78bd 559c 23be
000003e0: 630a 023d 96e0 39bd 20da 0b3f 6f0a 013e
000003f0: 2b29 2bbe d390 8e3d 107c 62bd 04bb fe3d

bias_ih_l0 f4 [128]
-0.025004078 -0.06266016 0.103468485 0.09772431 0.00010129774 0.14883903 0.1539109 -0.11544857
0.04248051 0.13679905 -0.0640715 -0.110891715 0.0388271 0.16543376 -0.17568801 0.028266542
0.016778266 0.15584674 0.2715708 -0.031367116 0.20320976 -0.053005815 -0.08667578 -0.09845864
-0.0086110765 -0.049673595 0.11136822 0.01274171 0.12890561 0.08445377 0.23940498 0.07262514
0.16965197 -0.1319593 -0.118199185 -0.11164589 0.01789783 0.10959894 0.0911148 0.2260789
0.19894697 0.33408475 0.08245489 0.22999021 -0.09767427 0.15363458 -0.02599502 -0.07970281
-0.045209356 0.26789036 0.3046968 0.15376 0.14926556 0.13861227 -0.12306123 0.03954043
-0.02743128 0.090672255 0.15721473 0.20140631 -0.17039405 0.10292225 0.017173626 0.002961291
-0.20553851 0.25029945 0.1935298 -0.14145447 0.15740013 -0.015966654 0.26057482 0.18465349
0.09521811 -0.123141006 0.44812748 0.058058973 0.14917706 0.36812946 0.12949738 -0.35637793
-0.44949073 -0.1784579 0.31683454 -0.09431967 0.1776269 -0.32491878 0.008296916 0.24857798
-0.29439667 0.05636059 0.13714372 0.095338136 -0.4740048 0.04676287 -0.14890811 -0.6651947
-0.005045082 0.17108521 0.23139885 0.13593712 0.16313975 0.2514578 0.2744015 0.11052274
0.07169127 0.33377117 0.084109284 -0.10098903 -0.0535304 0.23166668 0.06363746 0.08324417
0.13012981 -0.04744176 0.25208786 0.15326145 -0.012379928 0.14499882 0.04399398 -0.08404876
0.23077813 0.033658717 0.3416103 -0.052841946 -0.0927013 0.06214608 0.1777792 0.003610639
00000000: 5ad5 ccbc f853 80bd 49e7 d33d af23 c83d
00000010: cf6f d438 4269 183e d29a 1d3e 4d70 ecbd
00000020: 0b00 2e3d 0d15 0c3e eb37 83bd 321b e3bd
00000030: 2a09 1f3d 7867 293e 8fe7 33be 3c8f e73c
00000040: 9372 893c 4a96 1f3e 540b 8b3e ce7a 00bd
00000050: 3816 503e a01c 59bd 1283 b1bd afa4 c9bd
00000060: 7915 0dbc 8a76 4bbd 0515 e43d 9bc2 503c
00000070: d5ff 033e 19f6 ac3d 9426 753e 7dbc 943d
00000080: 3fb9 2d3e 5720 07be 6a12 f2bd 9aa6 e4bd
00000090: 789e 923c 6975 e03d 659a ba3d 3a81 673e
000000a0: c1b8 4b3e 280d ab3e 1cde a83d 8e82 6b3e
000000b0: 7309 c8bd 6252 1d3e 82f3 d4bc 3a3b a3bd
000000c0: 722d 39bd ed28 893e 3801 9c3e 4373 1d3e
000000d0: 12d9 183e 60f0 0d3e 8707 fcbd 25f5 213d
000000e0: 90b7 e0bc 60b2 b93d e6fc 203e 753d 4e3e
000000f0: c77b 2ebe e7c8 d23d b4af 8c3c 3812 423b
00000100: b078 52be 4027 803e ad2c 463e 71d9 10be
00000110: 802d 213e 80cc 82bc 106a 853e ce15 3d3e
00000120: b601 c33d 5a31 fcbd f770 e53e 3fcf 6d3d
00000130: dfc1 183e 777b bc3e f69a 043e 2b77 b6be
00000140: a623 e6be abbd 36be 2338 a23e ac2a c1bd
00000150: d3e3 353e c15b a6be caef 073c 3a8b 7e3e
00000160: 29bb 96be 5dda 663d 676f 0c3e a440 c33d
00000170: c2b0 f2be 6c8a 3f3d 5e7b 18be 334a 2abf
00000180: 3751 a5bb f630 2f3e d2f3 6c3e 1a33 0b3e
00000190: 1b0e 273e 14bf 803e 5a7e 8c3e bf59 e23d
000001a0: dfd2 923d 0ee4 aa3e 7d41 ac3d 56d3 cebd
000001b0: b142 5bbd 083a 6d3e 5b54 823d eb7b aa3d
000001c0: c040 053e 4a52 42bd a911 813e 92f0 1c3e
000001d0: 2ed5 4abc 927a 143e 0833 343d c221 acbd
000001e0: 1a51 6c3e b9dd 093d 8ce7 ae3e cc70 58bd
000001f0: 2eda bdbd e38c 7e3d c00b 363e 78a0 6c3b

bias_hh_l0 f4 [128]
0.20403494 0.19682816 0.03365625 -0.07120661 0.09413526 0.23651974 -0.092708 -0.01136411
0.12115743 0.20893002 0.14098553 0.09786248 0.039368574 0.1747192 0.053596057 0.079341255
-0.034268517 0.07672436 0.18132852 -0.076328866 0.2082743 0.056428444 0.20770803 -0.17193562
-0.115608595 -0.13283196 0.07560984 -0.08343338 0.15474798 0.108662456 0.09859062 0.10159619
0.03544474 0.08905401 0.0057254634 -0.007238022 0.028310012 -0.05726693 -0.031991854 -0.06389167
-0.0626966 0.15539046 0.0011234364 0.12423532 0.04687001 0.16672719 -0.18243898 -0.15362802
0.022256803 0.007794665 0.15969436 -0.033423882 0.1416723 0.06173401 0.021775508 -0.10803381
-0.0029962307 0.1355765 0.06794119 -0.01754982 0.02805482 -0.089350276 -0.10236286 0.17991371
-0.02625021 0.2682423 0.004817025 -0.10827637 0.23089574 -0.217228 0.056375455 0.1839837
-0.1655122 0.09951825 0.3730489 0.16538732 0.11030802 0.44101128 0.10659775 -0.24960557
-0.36059076 -0.0072814864 0.03363165 0.0037288866 0.22459313 -0.28322938 0.13988137 0.18425132
-0.23024292 0.27889737 -0.067055404 0.11147491 -0.62272626 0.008106024 0.07611892 -0.8447591
0.25933862 0.14705727 0.13080446 -0.1303795 -0.010040747 0.2646532 0.19948916 0.18424696
0.114764884 0.34649655 0.029339813 -0.08021764 -0.045649257 0.090823844 0.12938008 0.18532437
0.27822176 0.010943873 0.030134762 0.13855118 -0.029547434 -0.04513222 0.16485682 0.20273028
0.10571271 0.15949154 0.12994635 0.13255723 0.1828144 0.12933768 0.10260009 0.068320684
00000000: 89ee 503e 528d 493e 23db 093d c5d4 91bd
00000010: fdc9 c03d 3b32 723e b1dd bdbd 8830 3abc
00000020: 6321 f83d c0f1 553e 835e 103e 206c c83d
00000030: f140 213d 97e9 323e 8a87 5b3d ab7d a23d
00000040: 255d 0cbd a921 9d3d 2fae 393e 4f52 9cbd
00000050: dc45 553e 8321 673d 6ab1 543e e40f 30be
00000060: 33c4 ecbd 1a05 08be 55d9 9a3d 1fdf aabd
00000070: 4176 1e3e 6c8a de3d e1e9 c93d aa11 d03d
00000080: 812e 113d f361 b63d ab9c bb3b ee2c edbb
00000090: 66ea e73c ba90 6abd e409 03bd a3d9 82bd
000000a0: 1367 80bd ad1e 1f3e 4540 933a 166f fe3d
000000b0: c5fa 3f3d 88ba 2a3e 49d1 3abe aa50 1dbe
000000c0: e653 b63c 646a ff3b eb86 233e 7be7 08bd
000000d0: 8b12 113e cddc 7c3d 8d62 b23c d540 ddbd
000000e0: 695c 44bb 91d4 0a3e c024 8b3d a4c4 8fbc
000000f0: 39d3 e53c 47fd b6bd 9fa3 d1bd 4d3b 383e
00000100: ae0a d7bc 0e57 893e 22d8 9d3b 00c0 ddbd
00000110: ef6f 6c3e 0471 5ebe f3e9 663d 3966 3c3e
00000120: 087c 29be 39d0 cb3d 4400 bf3e 4b5b 293e
00000130: 2ce9 e13d 3bcc e13e ec4f da3d 9a98 7fbe
00000140: 5a9f b8be 8999 eebb 57c1 093d 5660 743b
00000150: befb 653e 7103 91be 103d 0f3e 61ac 3c3e
00000160: cdc4 6bbe a3cb 8e3e 5854 89bd f54c e43d
00000170: fd6a 1fbf 21cf 043c 3de4 9b3d 2242 58bf
00000180: 08c8 843e 2e96 163e 9bf1 053e 3482 05be
00000190: f281 24bc a080 873e e346 4c3e 3cab 3c3e
000001a0: da09 eb3d ff67 b13e 0c5a f03c 2549 a4bd
000001b0: b7fa 3abd da01 ba3d 367c 043e acc5 3d3e
000001c0: 1573 8e3e ee4d 333c 2ddd f63c 5ce0 0d3e
000001d0: 760d f2bc 90dc 38bd 3ad0 283e 8798 4f3e
000001e0: e87f d83d c051 233e a810 053e 15bd 073e
000001f0: b333 3b3e 1971 043e ff1f d23d b7eb 8b3d

weight_ih_l0_reverse f4 [128, 2]
0.21415825 0.14226335 0.026019502 0.011058467 -0.1416875 -0.1872834 0.35059807 0.29151776
-0.18108787 -0.0044599823 -0.015994864 -0.16935109 -0.30468515 -0.44260848 0.31158617 -0.39097005
0.22553797 -0.79436064 -0.37248364 0.38299704 -0.42983797 0.31981134 0.37940803 -0.08376184
-0.42232 -0.094167836 -0.45079523 -0.051049672 0.70119077 -0.498126 0.3877101 0.11095602
-0.09219371 -0.13032816 0.18651989 0.47745124 0.04630066 -0.21950611 0.056420922 0.1670867
-0.027394416 0.18464181 0.501446 0.33682594 -0.14341885 0.12535796 -0.10800556 -0.07378806
-0.9428756 -0.075239345 -0.69796264 -0.3514379 -0.5712466 -0.1980838 -0.09867554 0.15864897
0.35034022 -0.26149356 -0.15582763 0.13340278 -0.24509722 0.13760266 -0.48598367 -0.47305024
0.20180815 0.4040535 0.058901716 -0.017574087 -0.21505076 -0.27726543 0.1815618 0.27538085
-0.21727341 0.014976275 0.35252643 -0.10445698 -0.44372997 -0.40559977 0.34523016 -0.17681941
0.2704858 -0.3151999 -0.22061734 0.1727301 0.017208694 0.07027359 0.25230727 -0.068978526
-0.1710462 -0.06970223 -0.21780431 -0.025289198 0.41660085 -0.4033229 0.41534674 0.15265352
-0.07837093 -0.08946139 -0.08274952 0.42363587 -0.08595692 -0.12794714 -0.15308897 0.1216669
0.024460446 0.17025048 0.27432045 0.13101572 -0.07909125 -0.045198645 -0.48535943 -0.19478397
-0.4677005 -0.09347935 -0.20553496 -0.34481886 -0.22406062 -0.17734449 0.044490125 -0.08040516
0.103348896 -0.0297986 -0.10704449 0.1530551 -0.22797164 0.17332095 0.14009906 -0.4785976
-0.31354553 -0.2602611 0.1617951 0.3941448 0.2376232 0.12794343 -0.34032083 -0.27480224
0.24466722 0.4019426 0.2580272 -0.089734115 -0.2872521 -0.40911552 -0.4028802 0.22749068
-0.056782912 -0.7473747 -0.16876346 0.47185326 0.38889137 -0.22285202 0.46604428 -0.082945704
0.35614994 0.06754175 0.442955 -0.110849455 0.13173652 -0.391798 0.2505892 0.03302019
-0.062069386 0.48297822 0.27725658 0.74479955 0.13533768 -0.40481615 -0.5046283 0.2430056
-0.3190133 -0.050302945 -0.38157865 -0.11463146 -0.32166997 0.18225947 0.18602493 0.27840126
-0.49354962 0.25190878 0.44154337 0.36612135 -0.37479267 -0.15183324 -0.1631131 -0.29286182
-0.41621062 0.2564338 0.34689537 0.056639552 0.22194931 -0.31509548 0.12635817 -0.33727908
0.24426788 0.16964418 0.040703237 -0.0650647 -0.03329835 -0.21886972 -0.24640523 -0.042915136
-0.31572032 0.13211426 -0.048667114 0.015556502 -0.4426514 -0.30798355 0.4501687 -0.45750242
-0.14550017 -0.6767377 -0.20336293 0.019557847 -0.23536418 0.13719368 0.48789018 -0.185911
-0.26309907 -0.24180388 -0.28074685 0.17109755 0.98583484 -0.58577514 0.35219026 0.039280284
0.117591836 0.002589362 0.005970119 0.16382697 -0.059254427 -0.021850426 -0.061488517 0.27949503
0.16673394 -0.05513395 0.292358 0.45033935 0.037382156 -0.030006027 -0.35146803 -0.05342489
-0.44436648 0.040420514 -0.18588814 -0.39037022 -0.8056715 -0.17053117 0.0876127 0.17219801
0.7342104 -0.3816232 -0.23237579 -0.12883931 -0.15308608 0.18066348 -0.1994306 -0.17359523
00000000: 4d4c 5b3e 7cad 113e da26 d53c 932e 353c
00000010: 8716 11be 38c7 3fbe 9781 b33e d141 953e
00000020: 196f 39be 0b25 92bb a907 83bc 5f6a 2dbe
00000030: b1ff 9bbe 949d e2be 3988 9f3e 3a2d c8be
00000040: 6df3 663e 385b 4bbf 2db6 bebe 3018 c43e
00000050: b913 dcbe 50be a33e c541 c23e 548b abbd
00000060: 543a d8be 11db c0bd a2ce e6be 7619 51bd
00000070: 3d81 333f 5f0a ffbe f081 c63e e93c e33d
00000080: 0ed0 bcbd bf74 05be 12ff 3e3e 7d74 f43e
00000090: c3a5 3d3d 36c6 60be a019 673d c718 2b3e
000000a0: 416a e0bc be12 3d3e c45e 003f 7374 ac3e
000000b0: 64dc 12be d65d 003e 0532 ddbd 321e 97bd
000000c0: 4c60 71bf 1617 9abd aead 32bf abef b3be
000000d0: 383d 12bf 7bd6 4abe 6716 cabd e074 223e
000000e0: cb5f b33e 7ce2 85be 4791 1fbe bd9a 083e
000000f0: c4fa 7abe b6e7 0c3e dad2 f8be a433 f2be
00000100: cca6 4e3e 1ae0 ce3e ed42 713d 88f7 8fbc
00000110: 4436 5cbe bcf5 8dbe 56eb 393e b8fe 8c3e
00000120: ec7c 5ebe 0d5f 753c 587e b43e 8bed d5bd
00000130: 9330 e3be c6aa cfbe 02c2 b03e 2610 35be
00000140: 1d7d 8a3e e261 a1be 83e9 61be 29e0 303e
00000150: 3ff9 8c3c 9aeb 8f3d 6b2e 813e 9d44 8dbd
00000160: bc26 2fbe 0bc0 8ebd 1808 5fbe 4b2b cfbc
00000170: b54c d53e 5780 cebe 54a8 d43e 3451 1c3e
00000180: f080 a0bd 8937 b7bd 9578 a9bd cde6 d83e
00000190: 2f0a b0bd 9304 03be 5bc3 1cbe 7f2c f93d
000001a0: 4661 c83c 2456 2e3e bb73 8c3e fc28 063e
000001b0: 98fa a1bd 3722 39bd 0881 f8be 7375 47be
000001c0: 7176 efbe 1a72 bfbd c277 52be 198c b0be
000001d0: 2670 65be cb99 35be 473b 363d 76ab a4bd
000001e0: 96a8 d33d 321c f4bc 243a dbbd 7aba 1c3e
000001f0: 6671 69be 0c7b 313e 2176 0f3e bf0a f5be
00000200: 0a89 a0be f140 85be 9dad 253e 59cd c93e
00000210: 7f53 733e 9a03 033e 883e aebe e1b2 8cbe
00000220: 0b8a 7a3e 6ccb cd3e 241c 843e 85c6 b7bd
00000230: b512 93be 9777 d1be 5046 cebe 51f3 683e
00000240: 3395 68bd f353 3fbf 54d0 2cbe c096 f13e
00000250: c51c c73e 5233 64be 5b9d ee3e 70df a9bd
00000260: 4959 b63e 5453 8a3d ffca e23e 0a05 e3bd
00000270: f0e5 063e bf99 c8be 3a4d 803e 2e40 073d
00000280: 783c 7ebd ec48 f73e 93f4 8d3e 2fab 3e3f
00000290: f695 0a3e 1044 cfbe 522f 01bf 76d6 783e
000002a0: b655 a3be 760a 4ebd 475e c3be e6c3 eabd
000002b0: edb1 a4be 3aa2 3a3e 527d 3e3e 9c8a 8e3e
000002c0: 89b2 fcbe 30fa 803e f911 e23e 4274 bb3e
000002d0: d3e4 bfbe 2c7a 1bbe 1f07 27be fcf1 95be
000002e0: 8f19 d5be 4b4b 833e 459c b13e e0fe 673d
000002f0: ae46 633e 3254 a1be 0964 013e d8af acbe
00000300: 5c21 7a3e 34b7 2d3e 70b8 263d a440 85bd
00000310: da63 08bd 621f 60be a751 7cbe c8c7 2fbd
00000320: 18a6 a1be f648 073e 2b57 47bd b3e0 7e3c
00000330: 34a3 e2be 05b0 9dbe 837c e63e c23d eabe
00000340: fffd 14be af3e 2dbf 5f3e 50be c737 a03c
00000350: 4f03 71be 807c 0c3e becc f93e 745f 3ebe
00000360: ecb4 86be 709b 77be 0dbe 8fbe 3234 2f3e
00000370: ac5f 7c3f 5cf5 15bf 4852 b43e 5de4 203d
00000380: fdd3 f03d 49b2 293b fda0 c33b 42c2 273e
00000390: c5b4 72bd aaff b2bc 62db 7bbd f919 8f3e
000003a0: 4dbc 2a3e 23d4 61bd f3af 953e e192 e63e
000003b0: 081e 193d 33cf f5bc 9ef3 b3be 0fd4 5abd
000003c0: 0184 e3be fb8f 253d 7659 3ebe 9bde c7be
000003d0: 7d40 4ebf b99f 2ebe 4a6e b33d ad54 303e
000003e0: 36f5 3b3f 1e64 c3be ebf3 6dbe 74ee 03be
000003f0: 99c2 1cbe d9ff 383e 8937 4cbe f3c2 31be

weight_hh_l0_reverse f4 [128, 32]
-0.34401608 0.32368585 -0.08146382 0.0031272715 0.11021696 0.25546578 -0.20267974 -0.017238323
-0.10891081 0.3126886 0.12721255 -0.087278776 0.15980564 0.2040176 -0.05347596 0.35152823
0.12782396 0.29331723 -0.027595138 0.010089998 -0.30515623 0.021745844 0.17002626 0.12174373
-0.13919221 0.13280675 -0.30112913 -0.36669385 0.12542877 0.14237489 -0.31703305 0.066460185
-0.14688793 0.1885921 0.035629276 0.20059812 -0.10782984 -0.1510321 -0.07226333 -0.013155419
-0.17625909 0.1832687 -0.14874074 -0.19098958 0.054473262 -0.17277296 -0.0828635 -0.06285073
-0.0832667 -0.13771857 -0.034878097 0.06029047 -0.08637518 0.08166768 0.12184185 -0.08174088
-3.5433957e-05 -0.074481055 0.021118749 -0.12407866 0.0767347 -0.04294933 0.008493321 0.06033211
0.17699575 -0.23957531 -0.12319704 -0.0021309545 0.2257434 0.2619111 0.12618703 -0.1881167
-0.057514414 0.0326197 0.5317657 0.15669598 0.20056975 0.23640755 0.13438752 0.28942883
-0.56979626 -0.1919082 -0.010514415 -0.125188 0.06616119 -0.21912485 0.13990702 -0.06806974
-0.2206184 0.50074196 -0.030152688 -0.0009090448 -0.011308427 0.03551769 -0.06407959 -0.20351242
-0.04620205 -0.0014313878 0.16234653 -0.21378028 0.32645527 -0.05751258 -0.46779072 0.28629076
-0.42976797 -0.0730561 0.048624065 0.33017778 0.26223662 0.08632241 -0.1082425 0.28908154
0.21128656 0.3097535 -0.25884092 -0.02450008 -0.43066037 0.05586707 -0.34753758 0.54362285
-0.32204017 0.45526323 -0.28081307 -0.057665262 0.122396804 0.13524853 -0.014250369 -0.19405839
0.3526526 -0.12434308 -0.0121691255 0.16312931 -0.16236259 -0.056142557 -0.27574885 0.05364103
-0.13962619 -0.17411608 0.048526876 -0.07812004 -0.15122904 0.33615017 -0.24363762 -0.13402133
-0.07668613 -0.2769859 -0.11833807 0.090741016 -0.009112708 0.17845882 -0.21398985 0.19494346
-0.33196458 0.31254613 -0.2643187 0.22398447 0.11251954 0.08454139 -0.06679949 -0.40146726
-0.07763697 -0.12830913 -0.092307866 0.0135401245 0.0486657 0.23899494 -0.06303229 -0.2596073
-0.080914795 -0.06235499 -0.009271583 -0.09361133 -0.14681111 0.1829657 0.038391825 0.078766644
0.0051813987 -0.10059259 -0.13635524 0.042968757 0.0592995 0.106115155 -0.33397642 0.021743378
0.01784808 -0.14387552 -0.17527083 -0.13195401 -0.24667741 0.09659884 0.13004525 0.04025704
0.8684577 -0.34259665 -0.10159807 0.20852321 -0.3037468 -0.3141852 0.41702232 -0.11648485
-0.022400564 -0.5430041 0.16770388 0.096646935 -0.39506102 0.0751486 -0.09465573 -0.02519283
-0.39306965 -0.43322212 0.073324926 0.1772442 0.3467299 0.4716326 0.20487688 -0.25943404
0.025784671 0.11383231 0.3234024 0.2906771 -0.106208175 -0.5757321 0.17314132 0.19207221
0.086253315 -0.21321584 0.00927343 -0.075690694 -0.025442647 0.21089739 -0.19715449 -0.3117567
-0.053902894 -0.08923799 0.28779086 0.0453456 0.0029064051 0.1710429 0.11191372 -0.037428822
0.07363946 -0.08494075 -0.2228768 -0.15782678 -0.10382717 0.0024274397 -0.06274304 0.0846879
0.15024887 0.07139472 0.08695727 -0.008124189 -0.12676138 0.05886764 0.018114567 0.14308938
00000000: e022 b0be 27ba a53e 81d6 a6bd e9f2 4c3b
00000010: 6eb9 e13d 69cc 823e 478b 4fbe 6237 8dbc
00000020: a10c dfbd b818 a03e 0244 023e 37bf b2bd
00000030: 17a4 233e fde9 503e 9c09 5bbd 82fb b33e
00000040: 49e4 023e ad2d 963e 330f e2bc 8550 253c
00000050: 703d 9cbe 5724 b23c 5d1b 2e3e c754 f93d
00000060: 6788 0ebe 7efe 073e 992d 9abe 4cbf bbbe
00000070: 6670 003e b9ca 113e 2852 a2be 471c 883d
00000080: ca69 16be 4a1e 413e 01f0 113d 9869 4d3e
00000090: e4d5 dcbd 29a8 1abe ccfe 93bd d489 57bc
000000a0: 437d 34be caaa 3b3e 7e4f 18be c692 43be
000000b0: 5b1f 5f3d 65eb 30be 57b4 a9bd e2b7 80bd
000000c0: bb87 aabd 1906 0dbe 56dc 0ebd 24f3 763d
000000d0: 78e5 b0bd 6241 a73d 3888 f93d c367 a7bd
000000e0: ec9e 14b8 8689 98bd 3a01 ad3c f41c febd
000000f0: 1527 9d3d a3eb 2fbd 9227 0b3c cd1e 773d
00000100: 603e 353e 3b53 75be bb4e fcbd 7ca7 0bbb
00000110: 4729 673e 3619 863e 2c37 013e aaa1 40be
00000120: 3c94 6bbd 3c9c 053d cc21 083f e974 203e
00000130: 2862 4d3e d214 723e e29c 093e 0430 943e
00000140: 2bde 11bf 9583 44be a744 2cbc 4831 00be
00000150: 857f 873d 4462 60be c943 0f3e 2668 8bbd
00000160: cae9 61be a030 003f c502 f7bc f74c 6eba
00000170: fb46 39bc ff7a 113d 293c 83bd 8f65 50be
00000180: 5c3e 3dbd 689d bbba 2b3e 263e 38e9 5abe
00000190: 2525 a73e 5092 6bbd 4482 efbe b494 923e
000001a0: 8c0a dcbe 709e 95bd 072a 473d 100d a93e
000001b0: e143 863e cec9 b03d 3eae ddbd 7f02 943e
000001c0: 815b 583e 0398 9e3e cc86 84be 64b4 c8bc
000001d0: 847f dcbe ded4 643d 72f0 b1be de2a 0b3f
000001e0: 73e2 a4be 4318 e93e bbc6 8fbe 6932 6cbd
000001f0: 2dab fa3d 977e 0a3e 617a 69bc 3eb7 46be
00000200: e28e b43e 96a7 febd 0361 47bc 5f0b 273e
00000210: 6142 26be bdf5 65bd f42e 8dbe b2b6 5b3d
00000220: 2bfa 0ebe 7c4b 32be 1ec4 463d 66fd 9fbd
00000230: c9db 1abe e01b ac3e 247c 79be e33c 09be
00000240: 9e0d 9dbd 19d1 8dbe 3b5b f2bd 6dd6 b93d
00000250: 784d 15bc e9bd 363e 2820 5bbe 429f 473e
00000260: 43f7 a9be 0c06 a03e c854 87be 2f5c 653e
00000270: a570 e63d 0924 ad3d 2cce 88bd 1e8d cdbe
00000280: 2200 9fbd 7863 03be e80b bdbd 66d7 5d3c
00000290: af55 473d 17bb 743e 1317 81bd 3feb 84be
000002a0: a8b6 a5bd f267 7fbd d6e7 17bc 4cb7 bfbd
000002b0: a755 16be 5c5b 3b3e bf40 1d3d 6850 a13d
000002c0: b9c8 a93b 7d03 cebd b5a0 0bbe 0200 303d
000002d0: 08e4 723d e752 d93d f5fe aabe 2b1f b23c
000002e0: 2336 923c 1b54 13be 327a 33be f41e 07be
000002f0: 0199 7cbe 9dd5 c53d 952a 053e 91e4 243d
00000300: 3e53 5e3f d468 afbe a612 d0bd 1c87 553e
00000310: b384 9bbe e2dc a0be f383 d53e 9c8f eebd
00000320: 6381 b7bc 5102 0bbf 91ba 2b3e d4ee c53d
00000330: 7045 cabe 82e7 993d ddda c1bd 3261 cebc
00000340: 6d40 c9be 4acf ddbe 612b 963d 817f 353e
00000350: 9586 b13e d479 f13e 3fcb 513e 8ad4 84be
00000360: 603a d33c ea20 e93d 0095 a53e a1d3 943e
00000370: ac83 d9bd 2e63 13bf f54b 313e 94ae 443e
00000380: 94a5 b03d 4155 5abe 96ef 173c b903 9bbd
00000390: 196d d0bc 7cf5 573e dee2 49be 939e 9fbe
000003a0: 48c9 5cbd 68c2 b6bd 5359 933e 4fbc 393d
000003b0: 6379 3e3b df25 2f3e 0533 e53d f74e 19bd
000003c0: 49d0 963d 6af5 adbd d139 64be 589d 21be
000003d0: 57a3 d4bd ae15 1f3b 6c7f 80bd da70 ad3d
000003e0: d7da 193e 6537 923d a716 b23d 521b 05bc
000003f0: bccd 01be 321f 713d 0065 943c 0686 123e
