experiments/pedestrians/models/models_14_Feb_2024_17_26_50_eth_vel_ar3/model_registrar-82.pt (torch, 527902 bytes, 43 tensors)

weight_ih_l0 f4 [128, 6]
0.10271246 0.12645102 -0.3216416 -0.12880246 -0.12591042 -0.0454137 -0.21203855 -0.4173837
-0.062667854 0.19993287 0.17306027 -0.2323039 0.06658217 0.011392244 -0.33937246 -0.26354253
-0.3019444 -0.05956087 0.1738594 0.1765985 0.12892704 0.04857397 0.1120698 -0.020561172
-0.039239816 0.08892298 -0.2522133 -0.3509642 1.0844148 -1.8529419 0.2297988 0.13001904
0.31737325 -0.124027215 0.4784082 -0.36289364 -0.40396026 0.12459006 0.24853174 -0.3011093
0.08292521 -0.2536817 -0.37785318 -0.03767347 0.5725 -0.15305662 0.14734288 -0.18711857
0.27913657 0.2233235 0.63342935 -0.47276658 0.42343074 -0.17485692 -0.10291825 -0.25387332
0.12631543 0.38754624 0.09801344 -0.18659014 0.1250819 -0.2987218 -0.44206586 0.5029696
-0.004789912 0.16043885 0.011155057 0.12547885 -0.5176321 -0.11586341 -1.4769194 -0.79419744
0.007963351 -0.0032934044 -0.27297938 0.30417433 0.08889879 -0.028370723 -0.130776 0.059948936
0.48549566 0.33977 0.44275954 0.3183716 0.06991404 -0.012882382 -0.88533497 0.002914224
-0.55593383 -0.113159224 -0.37034595 0.17348398 0.6540226 0.03750102 -0.19243515 0.6028702
0.25427052 -0.0529166 -0.5747823 0.4020931 -0.6386525 0.09623157 0.13849664 -0.20598301
-0.22244458 0.24056615 0.047020815 0.122052 0.1839842 -0.2648877 -0.24668925 0.55839777
0.021983536 0.9304814 0.07336977 0.073146366 -0.46578932 0.03739385 -0.10519453 0.38279432
-0.41104826 0.39296186 0.63648325 -0.5257402 0.3044017 -0.031143513 0.0859829 0.3163564
0.03463794 -0.40781832 0.012910341 0.102656014 -0.23912764 -0.45347902 0.15023798 0.15109414
0.28703988 0.118194446 -0.074364886 0.11607524 0.17363803 -0.21986002 0.07005462 -0.096601196
0.1935455 -0.030851731 -0.34719837 -0.2319127 -0.20930777 -0.2067555 -0.43837628 -0.19816573
0.07547774 0.20754907 0.1995773 0.026064426 0.06042326 0.3523074 -0.76339304 -0.78533775
-0.37032655 0.10743223 -0.1977269 0.111666426 0.62765855 0.5311582 1.0741749 1.1887633
0.2427234 -0.10759234 -0.34074834 0.3015837 0.14671664 0.15204975 -0.35177255 0.0687606
0.17714177 -0.46662804 0.24124755 -0.1775977 -0.19554275 -0.19267681 0.33966964 0.093784
-0.018993927 -0.36183685 -0.08523353 0.090514734 0.0043873517 0.17365582 -0.22215417 -0.0067129657
0.12898195 0.13597594 -0.22199959 -0.1496504 -0.15294158 -0.11894667 -0.022254748 -0.19602108
0.07340144 0.09639991 0.120312475 -0.19839086 -0.120271094 -0.06312072 -0.016012056 -0.053249635
-0.17510721 0.11106193 0.124858536 0.055796735 0.14195095 -0.17260821 -0.016144004 0.0033366508
0.05455509 -0.075173676 0.18383579 -0.1788621 0.44827977 -0.018994803 0.25725046 -0.092593625
0.17216088 -0.22029154 -0.24865104 0.012182041 -0.079246394 -0.042984106 0.20089918 -0.14854018
-0.18824874 0.12007024 -0.11842866 -0.18215786 0.26750323 -0.098601185 0.0005261516 -0.24069083
0.35922742 0.0034745953 0.02463734 -0.19769385 -0.03171724 -0.09027633 -0.18936002 -0.0065881805
0.37775132 0.1515759 0.19399618 0.020870352 0.12671234 -0.29981095 -0.16954648 0.32278875
00000000: e95a d23d 607c 013e 35ae a4be cbe4 03be
00000010: a9ee 00be b703 3abd a220 59be 51b3 d5be
00000020: 0158 80bd 34bb 4c3e b636 313e 13e1 6dbe
00000030: 3c5c 883d 89a6 3a3c 3ac2 adbe 0cef 86be
00000040: 7598 9abe 19f6 73bd 3308 323e 3dd6 343e
00000050: 7305 043e 80f5 463d da84 e53d e76f a8bc
00000060: eeb9 20bd 401d b63d 1a22 81be 94b1 b3be
00000070: 1bce 8a3f 332d edbf 6050 6b3e b623 053e
00000080: bf7e a23e fb01 febd ebf1 f43e 32cd b9be
00000090: e1d3 cebe 1329 ff3d 1b7f 7e3e 002b 9abe
000000a0: b1d4 a93d 91e2 81be f975 c1be 7f4f 1abd
000000b0: 5c8f 123f e0ba 1cbe 0de1 163e 039c 3fbe
000000c0: fdea 8e3e eaae 643e 6d28 223f 760e f2be
000000d0: eacb d83e b10d 33be cec6 d2bd affb 81be
000000e0: d558 013e 766c c63e 45bb c83d 7c11 3fbe
000000f0: 7815 003e 10f2 98be 7556 e2be 9ec2 003f
00000100: b2f4 9cbb 154a 243e b3c3 363c 877d 003e
00000110: 8a83 04bf cc49 edbd b20b bdbf 8650 4bbf
00000120: b778 023c 28d6 57bb f4c3 8bbe bdbc 9b3e
00000130: 9210 b63d b869 e8bc 25ea 05be 048d 753d
00000140: e392 f83e 55f6 ad3e 61b1 e23e 9a01 a33e
00000150: 182f 8f3d a010 53bc 50a5 62bf 91fc 3e3b
00000160: ae51 0ebf 06c0 e7bd fc9d bdbe c9a5 313e
00000170: 066e 273f ab9a 193d b80d 45be b455 1a3f
00000180: bf2f 823e 14bf 58bd ef24 13bf 26df cd3e
00000190: bb7e 23bf 0f15 c53d 10d2 0d3e 36ed 52be
000001a0: 83c8 63be f956 763e e698 403d 66f6 f93d
000001b0: 5b66 3c3e 5c9f 87be 1b9c 7cbe 28f3 0e3f
000001c0: d116 b43c 0734 6e3f e442 963d c3cd 953d
000001d0: f07b eebe 4b2a 193d 3b70 d7bd 9efd c33e
000001e0: eb74 d2be 4c32 c93e 91f0 223f e996 06bf
000001f0: 8ada 9b3e ae20 ffbc cd17 b03d 77f9 a13e
00000200: 83e0 0d3d 90cd d0be e585 533c 513d d23d
00000210: e0dd 74be 672e e8be fcd7 193e 6cb8 1a3e
00000220: e4f6 923e ee0f f23d 9e4c 98bd dbb8 ed3d
00000230: 2bce 313e fc22 61be cc78 8f3d d9d6 c5bd
00000240: cb30 463e c5bc fcbc fcc3 b1be 867a 6dbe
00000250: c754 56be b7b7 53be db72 e0be f5eb 4abe
00000260: 1394 9a3d be87 543e fe5d 4c3e 1085 d53c
00000270: 617e 773d a361 b43e ba6d 43bf e50b 49bf
00000280: 719b bdbe 6e05 dc3d ec78 4abe 5eb1 e43d
00000290: 3bae 203f fcf9 073f 907e 893f 6529 983f
000002a0: 7c8c 783e 5f59 dcbd 9176 aebe 2e69 9a3e
000002b0: e33c 163e eeb2 1b3e 881b b4be 5cd2 8c3d
000002c0: a764 353e dfe9 eebe 9909 773e 2cdc 35be
000002d0: 5c3c 48be 124d 45be 2ee9 ad3e d311 c03d
000002e0: 2799 9bbc ae42 b9be eb8e aebd ca5f b93d
000002f0: c6c3 8f3b d5d2 313e 627c 63be 70f8 dbbb
00000300: d813 043e 473d 0b3e dc53 63be f43d 19be
00000310: b89c 1cbe 509a f3bd 974f b6bc c0b9 48be
00000320: 7f53 963d 516d c53d 6366 f63d f926 4bbe
00000330: b150 f6bd 7045 81bd b72b 83bc 4a1c 5abd
00000340: 4e4f 33be 7074 e33d d5b5 ff3d 1e8b 643d
00000350: 975b 113e 35c0 30be 6e40 84bc b6ab 5a3b
00000360: 2875 5f3d a8f4 99bd 733f 3c3e a027 37be
00000370: ed84 e53e fd9a 9bbc 55b6 833e baa1 bdbd
00000380: f14a 303e 1b94 61be 619e 7ebe 2f97 473c
00000390: ef4b a2bd 1a10 30bd 84b8 4d3e eb1a 18be
000003a0: 47c4 40be 63e7 f53d ba8a f2bd 9787 3abe
000003b0: 2ff6 883e 6bef c9bd 70ed 093a a877 76be
000003c0: a8ec b73e 09b6 633b 3fd4 c93c 4270 4abe
000003d0: f0e9 01bd cce2 b8bd 98e7 41be aae1 d7bb
000003e0: 9f68 c13e b636 1b3e efa6 463e 4df8 aa3c
000003f0: e1c0 013e d280 99be 989d 2dbe 9144 a53e

weight_hh_l0 f4 [128, 32]
0.051160406 -0.22967412 0.03324075 0.0992349 -0.05552826 -0.029736446 -0.08277518 -0.14617634
0.010063435 0.25318214 -0.14710724 0.093020774 -0.15791649 0.2350476 0.1680209 0.08574039
0.20583005 -0.16852078 -0.016777553 0.030183189 -0.21690787 -0.096186966 -0.07496623 -0.27497628
0.26795036 0.029513543 -0.14212136 0.34033778 0.16235788 0.017182678 0.18416329 -0.11857301
0.10886224 -0.26194137 0.092623994 -0.10195966 -0.015565856 0.19777931 -0.0757405 -0.19408056
0.052711938 0.11658629 -0.40634146 -0.07737705 -0.26737833 0.1759543 0.058143567 -0.1445996
0.28926748 0.10424848 -0.21002844 0.0200261 -0.056499194 -0.16143811 -0.186293 -0.17093839
0.14430839 0.08460595 -0.16282852 -0.037833367 -0.006018501 0.080261275 0.22886485 -0.10708757
0.09353464 -0.12371371 -0.11610152 0.11715718 0.09318184 0.11435416 -0.14617543 -0.16871752
-0.07612562 0.20984401 -0.27762672 0.008653762 -0.050959412 -0.14112626 0.078614436 -0.1153125
0.16583665 -0.15243684 0.17110986 -0.12537558 0.03229032 0.061780293 0.123788156 0.14424366
0.27083755 0.1158249 0.15186955 0.10785487 0.099704735 0.10924276 -0.07538863 0.042437952
-0.16381036 -0.046313863 -0.043532178 0.057975933 -0.14174794 0.024281163 -0.08381854 0.02146728
-0.06729816 0.18771993 -0.37260315 -0.1110171 -0.017675247 -0.07132065 -0.1222983 -0.1750738
0.08952859 -0.0158431 -0.25504324 -0.044135973 -0.06974155 -0.008580845 0.015152266 -0.023584211
0.13912459 0.12993518 -0.09058967 0.2258009 0.094491914 0.1163081 0.2786459 -0.1160275
-0.07024413 -0.07942966 0.122354224 -0.07480306 0.07145463 0.19909729 -0.22919355 0.27283075
0.36161304 -0.08407698 -0.31881 -0.23961273 0.36575612 0.1929861 0.07509444 -0.04660482
-0.3331135 -0.56073916 0.2557287 0.033940434 0.18279946 0.38264436 0.07267735 0.14155352
0.13792638 -0.33000258 -0.0075735874 -0.54926 -0.07292759 0.14863656 0.19867718 -0.31917858
0.10325636 -0.250982 0.07024901 -0.13951957 -0.01450401 -0.11375481 0.2504513 -0.2736206
-0.093247555 -0.0075302864 0.25668576 0.012118956 -0.22301944 0.077164076 -0.013609062 -0.0365898
-0.12839232 0.24551307 -0.13673751 0.24008457 -0.091792785 -0.03513689 0.13761811 -0.23201735
0.13531522 0.09438786 0.18648994 0.09715427 0.029375277 -0.09017847 0.19601804 0.23148969
0.120496504 -0.063101 -0.20926988 0.13866822 -0.023399333 -0.0869638 0.293015 -0.32650763
-0.15234974 0.11347013 -0.068668716 -0.08045575 0.036391683 0.31619385 0.09033673 0.0053159064
-0.0071407775 -0.09639577 0.016447842 -0.019184174 -0.1237705 0.29870924 0.20940635 -0.12387483
-0.038563434 0.25374618 0.08237263 0.17413336 -0.15331359 -0.029095305 -0.022185763 0.11343488
0.13830672 -0.28751597 0.052831814 0.15361854 -0.26614076 -0.053788133 0.29802296 -0.1642342
-0.067725636 -0.03955002 0.16847166 0.025343243 -0.09337756 -0.044871747 -0.0017289659 0.05033917
0.04862438 0.18309909 -0.10223303 0.016550304 -0.45219782 0.10960242 -0.05171659 -0.40369043
0.22402173 0.4633161 -0.22359681 0.19675484 0.07556811 -0.049097665 0.072723694 0.3609544
00000000: 938d 513d b12f 6bbe 7427 083d ab3b cb3d
00000010: 9a71 63bd d999 f3bc 0986 a9bd 40af 15be
00000020: 1be1 243c 17a1 813e 48a3 16be ad81 be3d
00000030: dcb4 21be 51b0 703e ac0d 2c3e a898 af3d
00000040: 1dc5 523e b690 2cbe 1471 89bc bc42 f73c
00000050: 191d 5ebe acfd c4bd e587 99bd b1c9 8cbe
00000060: ca30 893e 63c6 f13c 4388 11be c140 ae3e
00000070: 2541 263e b0c2 8c3c 4d95 3c3e 68d6 f2bd
00000080: 2bf3 de3d 2e1d 86be a6b1 bd3d 3ad0 d0bd
00000090: ef07 7fbc a986 4a3e d61d 9bbd 0ebd 46be
000000a0: 79e8 573d cbc4 ee3d fd0b d0be dc77 9ebd
000000b0: d0e5 88be 5d2d 343e f327 6e3d eb11 14be
000000c0: de1a 943e 3a80 d53d b211 57be c70d a43c
000000d0: b36b 67bd 0850 25be 98c3 3ebe 790a 2fbe
000000e0: 94c5 133e e245 ad3d 85bc 26be 29f7 1abd
000000f0: d836 c5bb 0660 a43d 8c5b 6a3e ba50 dbbd
00000100: 178f bf3d 9d5d fdbd a2c6 edbd 1bf0 ef3d
00000110: 1fd6 be3d 8432 ea3d 03af 15be 49c4 2cbe
00000120: c0e7 9bbd 59e1 563e 1725 8ebe 82c8 0d3c
00000130: d1ba 50bd 6783 10be 9b00 a13d f628 ecbd
00000140: 15d1 293e 6718 1cbe 6c37 2f3e 7562 00be
00000150: db42 043d 550d 7d3d a584 fd3d 9cb4 133e
00000160: 38ab 8a3e 9b35 ed3d b183 1b3e 04e3 dc3d
00000170: ff31 cc3d abba df3d 5b65 9abd 6bd3 2d3d
00000180: e7bd 27be 9bb3 3dbd cc4e 32bd 2c78 6d3d
00000190: 5f26 11be 4ae9 c63c 0ea9 abbd 26dc af3c
000001a0: 9ed3 89bd a739 403e d7c5 bebe ef5c e3bd
000001b0: aecb 90bc 9010 92bd 8877 fabd 8c46 33be
000001c0: c45a b73d 64c9 81bc 0795 82be ecc7 34bd
000001d0: a8d4 8ebd ac96 0cbc 3641 783c ad33 c1bc
000001e0: ad76 0e3e ba0d 053e 1487 b9bd 5a38 673e
000001f0: fa84 c13d f132 ee3d adaa 8e3e d39f edbd
00000200: 28dc 8fbd 05ac a2bd da94 fa3d 5932 99bd
00000210: ce56 923d 29e0 4b3e b7b1 6abe 79b0 8b3e
00000220: 5825 b93e 8d30 acbd 103b a3be 0a5d 75be
00000230: 6344 bb3e 269e 453e 1dcb 993d b2e4 3ebd
00000240: da8d aabe 9a8c 0fbf dfee 823e 2005 0b3d
00000250: c82f 3b3e f6e9 c33e ddd7 943d 68f3 103e
00000260: 933c 0d3e 19f6 a8be db2b f8bb 4e9c 0cbf
00000270: 0f5b 95bd 2f34 183e 0872 4b3e 606b a3be
00000280: 1278 d33d b680 80be b7de 8f3d 38de 0ebe
00000290: 3aa2 6dbc 48f8 e8bd 273b 803e 0018 8cbe
000002a0: 93f8 bebd 9fc0 f6bb 516c 833e 968e 463c
000002b0: 355f 64be 3308 9e3d 8bf8 5ebc 30df 15bd
000002c0: 4779 03be c767 7b3e eb04 0cbe bbd8 753e
000002d0: dbfd bbbd b3eb 0fbd c3eb 0c3e f595 6dbe
000002e0: 1390 0a3e 6c4e c13d 38f7 3e3e d1f8 c63d
000002f0: 6ca4 f03c 7daf b8bd f4b8 483e a20b 6d3e
00000300: dfc6 f63d 193b 81bd d84a 56be 0bff 0d3e
00000310: f5af bfbc 141a b2bd 1006 963e 022c a7be
00000320: 9201 1cbe 0763 e83d 2fa2 8cbd fcc5 a4bd
00000330: 720f 153d 29e4 a13e 7702 b93d 0e31 ae3b
00000340: 2ffd e9bb 256b c5bd a0bd 863c 2128 9dbc
00000350: 637b fdbd 6bf0 983e 9e6e 563e 16b2 fdbd
00000360: b1f4 1dbd 05eb 813e fbb2 a83d 0450 323e
00000370: 3dfe 1cbe 4759 eebc ebbe b5bc 8c50 e83d
00000380: 47a0 0d3e 4b35 93be 2c66 583d 2e4e 1d3e
00000390: 9a43 88be f250 5cbd 7796 983e 032d 28be
000003a0: bdb3 8abd 34ff 21bd d683 2c3e a29c cf3c
000003b0: bc3c bfbd 70cb 37bd 789e e2ba 7230 4e3d
000003c0: 5c2a 473d 547e 3b3e 8d5f d1bd 8194 873c
000003d0: 7986 e7be 3c77 e03d c6d4 53bd 83b0 cebe
000003e0: f465 653e c537 ed3e 90f6 64be 1a7a 493e
000003f0: 74c3 9a3d a21a 49bd 29f0 943d 04cf b83e

bias_ih_l0 f4 [128]
0.04078092 0.069297686 0.01700102 -0.06789065 -0.13186136 0.16885169 0.077310406 -0.17833157
-0.027443917 0.06418507 0.26018867 0.107504874 0.18416397 -0.08593458 0.090839595 -0.09054756
-0.024119299 0.16301325 0.0030226212 0.12506996 0.14477123 -0.0004376019 0.12810212 -0.0641393
0.11199866 0.11039277 -0.02180858 0.02868436 -0.022320023 0.0017219748 -0.08427968 0.1662588
0.10587981 -0.26222178 -0.2324439 0.030285025 -0.029832974 -0.17252024 -0.26227558 -0.16230685
-0.22602236 -0.08775357 -0.21525325 0.0002865757 -0.16722721 0.17130299 -0.046611097 -0.12961665
0.021815829 -0.055365905 -0.20262676 0.07958537 -0.3032137 -0.084916934 0.0053222976 -0.031190839
-0.10308468 0.14582123 0.06287582 0.109635 -0.042904265 -0.2799629 -0.27516177 -0.27692214
0.13753253 0.13177255 -0.06975481 0.03231389 -0.09766521 -0.00037138467 0.095532306 -0.038058326
-0.05981155 0.069078356 -0.07309824 0.02648505 -0.09389753 -0.022221029 -0.024391696 -0.09407876
-0.06834691 -0.1233486 0.083791174 -0.0048654964 0.06820586 0.055830963 0.10249896 -0.12402993
0.1159427 -0.09408929 0.067368776 -0.07811912 -0.058214646 0.13047019 0.01969319 -0.054953817
0.25224078 0.05511568 0.06229845 0.001115353 0.2367097 0.12383169 0.10645123 -0.15873311
-0.12877992 0.13321865 0.026431873 0.16987053 0.14623234 -0.07642582 0.12578683 0.07532014
0.10044566 0.10161994 0.08772931 0.00762221 0.2694787 0.02075013 0.109603316 -0.0017538149
-0.07427503 0.14388564 0.11548897 0.026354186 0.112259425 0.21166267 -0.008423823 0.1380663
00000000: e509 273d f2eb 8d3d b945 8b3c 410a 8bbd
00000010: aa06 07be 75e7 2c3e eb54 9e3d 8d9c 36be
00000020: 11d2 e0bc 7673 833d 7337 853e 842b dc3d
00000030: 7b95 3c3e 78fe afbd 1c0a ba3d 0071 b9bd
00000040: d695 c5bc f2ec 263e 2b17 463b 5712 003e
00000050: e93e 143e ef6d e5b9 342d 033e 775b 83bd
00000060: 8e5f e53d 9b15 e23d e8a7 b2bc 77fb ea3c
00000070: 7bd8 b6bc e3b3 e13a d39a acbd bf3f 2a3e
00000080: 84d7 d83d ef41 86be c605 6ebe 4d18 f83c
00000090: 4864 f4bc 25a9 30be fc48 86be c433 26be
000000a0: 6872 67be 25b8 b3bd 596b 5cbe 8a3f 9639
000000b0: 9c3d 2bbe 0d6a 2f3e 47eb 3ebd 3aba 04be
000000c0: 1cb7 b23c 5cc7 62bd 647d 4fbe a8fd a23d
000000d0: d33e 9bbe eee8 adbd ab66 ae3b ee83 ffbc
000000e0: 101e d3bd 2952 153e 0ac5 803d 5188 e03d
000000f0: 62bc 2fbd 4c57 8fbe 01e2 8cbe bdc8 8dbe
00000100: 54d5 0c3e 62ef 063e 9cdb 8ebd 925b 043d
00000110: b304 c8bd 68b6 c2b9 71a6 c33d 0ce3 1bbd
00000120: f5fc 74bd f478 8d3d 88b4 95bd 2df7 d83c
00000130: 594d c0bd e008 b6bc 18d1 c7bc 5dac c0bd
00000140: 77f9 8bbd 319e fcbd b59a ab3d be6e 9fbb
00000150: 84af 8b3d 02af 643d faea d13d 6703 febd
00000160: 5e73 ed3d e3b1 c0bd a4f8 893d ebfc 9fbd
00000170: 7b72 6ebd fa99 053e 9d53 a13c 4117 61bd
00000180: b425 813e fbc0 613d a92c 7f3d 0931 923a
00000190: 0764 723e 789b fd3d 1a03 da3d ef8a 22be
000001a0: e2de 03be 786a 083e a887 d83c 8af2 2d3e
000001b0: eebd 153e 2485 9cbd 43ce 003e 7241 9a3d
000001c0: 74b6 cd3d 1d1e d03d 6dab b33d bbc3 f93b
000001d0: 1df9 893e 2dfc a93c b477 e03d 43e0 e5ba
000001e0: 821d 98bd c256 133e 7b85 ec3d bce4 d73c
000001f0: 45e8 e53d 19be 583e 1304 0abc 4161 0d3e

bias_hh_l0 f4 [128]
-0.003509229 0.08240533 -0.11678937 0.09359243 0.011914296 -0.07504902 -0.024339534 -0.0007670645
0.05769372 0.229081 0.0037351714 -0.017322239 -0.05412879 0.20833382 0.13140309 0.06987298
-0.11108647 0.15557337 -0.09266871 0.08079305 0.29244852 0.18027891 0.15662831 0.00015858597
0.013659598 0.0952641 0.051746156 -0.062897496 -0.10394601 -0.0076210257 -0.014760459 0.21644966
0.017120713 -0.23613256 0.005245717 -0.17585969 0.278533 -0.00967714 -0.12133382 -0.30713323
-0.1531365 -0.1439759 -0.19631863 -0.060902372 -0.17000951 -0.00813333 0.059343647 -0.07950431
-0.108982064 -0.12328935 -0.17427407 -0.10170027 -0.15930791 -0.24771258 -0.21774323 -0.059178084
-0.30666614 -0.16280733 -0.19066057 0.04894195 -0.0711254 -0.046047278 -0.14307754 0.024468461
-0.14572647 -0.13700062 0.10032459 -0.02331713 0.15899558 0.031949762 -0.09061021 0.008832491
0.08144644 -0.024539972 0.05473471 0.043778468 0.086815864 0.044223264 -0.10209672 0.052179866
0.024594542 0.119041815 0.009238047 -0.13144718 -0.08876922 -0.0046222545 -0.14109525 0.124048375
-0.122554354 0.011551251 0.07033573 0.036726907 -0.046759874 -0.14817433 -0.00485593 0.049041834
0.13720192 0.18944001 -0.093801744 0.22842768 0.33532453 0.027220266 0.3050309 0.15186004
-0.18278024 0.1555691 0.2676987 0.24676254 0.15839384 0.11675606 0.0456412 0.08318403
0.11893833 -0.035171453 0.19282486 -0.115866855 0.23252672 0.21184483 0.2613797 0.13083477
0.113553144 0.11953452 0.16740358 0.032557737 -0.017081263 0.20612054 0.0185944 0.33880508
00000000: 18fb 65bb 20c4 a83d 442f efbd 63ad bf3d
00000010: 2e34 433c 4db3 99bd b463 c7bc d414 49ba
00000020: 4050 6c3d 3694 6a3e c7c9 743b 5ee7 8dbc
00000030: 26b6 5dbd 7655 553e 888e 063e 9119 8f3d
00000040: 4e81 e3bd a04e 1f3e 18c9 bdbd d476 a53d
00000050: d0bb 953e 099b 383e 2c63 203e 194a 2639
00000060: 82cc 5f3c d319 c33d c7f3 533d 67d0 80bd
00000070: a5e1 d4bd ccb9 f9bb dad5 71bc fba4 5d3e
00000080: bd40 8c3c bccc 71be 43e4 ab3b 9014 34be
00000090: e19b 8e3e de8c 1ebc de7d f8bd 9140 9dbe
000000a0: d1cf 1cbe 6b6e 13be c007 49be c474 79bd
000000b0: f916 2ebe a941 05bc 5312 733d 28d3 a2bd
000000c0: fd31 dfbd 207f fcbd e774 32be 3b48 d0bd
000000d0: 9d21 23be 5ea8 7dbe 15f8 5ebe b864 72bd
000000e0: 5803 9dbe f7b6 26be 863c 43be 5b77 483d
000000f0: 32aa 91bd 129c 3cbd eb82 12be 1572 c83c
00000100: 5239 15be e449 0cbe fb76 cd3d 9103 bfbc
00000110: bdcf 223e c1dd 023d d991 b9bd 27b6 103c
00000120: 64cd a63d 0d08 c9bc 8131 603d 0d51 333d
00000130: 84cc b13d 7423 353d 1618 d1bd 8eba 553d
00000140: 7e7a c93c 32cc f33d 2d5b 173c 179a 06be
00000150: a3cc b5bd 4876 97bb 467b 10be 130d fe3d
00000160: c7fd fabd 7541 3d3c 2e0c 903d f46e 163d
00000170: 4887 3fbd 03bb 17be 7e1e 9fbb 17e0 483d
00000180: a97e 0c3e 90fc 413e 211b c0bd f2e8 693e
00000190: a8af ab3e 09fd de3c 032d 9c3e 3381 1b3e
000001a0: be2a 3bbe 824d 1f3e ce0f 893e 52af 7c3e
000001b0: ff31 223e cd1d ef3d 44f2 3a3d 645c aa3d
000001c0: f095 f33d f10f 10bd e173 453e 9a4b edbd
000001d0: 7c1b 6e3e daed 583e 8fd3 853e 8df9 053e
000001e0: 8d8e e83d 84ce f43d d86b 2b3e 435b 053d
000001f0: 01ee 8bbc 4311 533e 4853 983c dc77 ad3e

weight_ih_l0 f4 [128, 2]
0.14180765 0.083016306 0.1267637 0.08300633 0.18002681 0.066943265 -0.18639661 -0.011798323
-0.0861952 -0.3244135 0.13931656 0.100555904 -0.11197803 0.18318114 -0.3448609 0.04036361
0.18582812 -0.13827626 -0.23312473 0.073208384 0.00024195459 -0.08502801 0.17031741 -0.0435259
0.13711026 -0.3431343 -0.14934047 -0.005384623 -0.24938318 0.10154867 0.035360463 0.039439183
-0.17397933 0.17443079 -0.10844215 0.30590284 0.03041959 0.16219746 0.25323254 0.07466898
0.35097492 -0.008094672 0.24709308 0.45276967 0.2855444 0.16933763 -0.49879876 0.22614357
-0.03305882 0.101360366 0.14056073 -0.30347642 -0.107153 0.28583333 -0.19534811 -0.17550059
0.038878694 -0.08786673 0.053910624 0.2754221 0.38708824 0.04586758 0.13653362 -0.40584108
0.06979377 -0.19446951 -0.060141657 -0.2891943 -0.09000522 0.12624419 0.096424416 0.42827553
0.20130895 0.23923914 -0.46013921 0.22156332 -0.53365153 -0.015881725 0.37601602 0.1183545
-0.040710557 -0.09754169 -0.12358762 -0.32994926 -0.12080227 -0.1443177 -0.2578695 0.18112619
-0.55918777 -0.08674627 0.46260747 0.4689891 -0.26917976 -0.29751566 0.23007588 0.045867797
0.10696998 -0.005284293 0.03877081 -0.31833974 0.09905917 0.56559867 -0.5481164 0.1613084
-0.47724423 -0.1249423 0.22944866 0.06550516 0.08554929 0.2412106 0.031129535 -0.5380577
-0.28664598 -0.17367415 0.30805746 0.11863257 0.26352596 -0.26483253 -0.15451482 0.33526018
0.057272576 -0.4221869 -0.25315297 0.5173988 0.27448615 -0.043173548 0.040841322 0.3332627
-0.04020618 0.22811231 -0.28515306 -0.35421884 -0.3283103 -0.28615752 -0.081431344 -0.35953188
-0.2811286 0.20702423 0.19585864 -0.41475677 -0.02800836 -0.065472655 0.31835994 -0.08616623
0.6089725 0.16965866 0.006522354 0.761824 0.3355654 0.44908923 -0.6092208 0.22399965
-0.39439797 -0.0046324893 0.2489524 0.23399241 -0.33030984 -0.4955196 -0.34070963 0.22350395
0.009755363 0.17357193 -0.484457 0.37472266 0.05370219 0.51577675 0.35724586 -0.1517467
-0.27750805 -0.00056751777 -0.437266 0.3035897 -0.07034771 -0.50509864 0.16827552 -0.04285955
0.22941026 0.26806623 -0.16666685 0.32205835 -0.6368885 0.30041194 0.274294 0.1805799
0.47862044 0.23656929 0.10750441 0.03370723 0.33598715 0.18232165 -0.0471611 -0.5018616
-0.07775226 -0.17253679 0.1901265 0.0043445686 0.14558518 0.009606737 0.22623812 0.1393232
-0.028917098 -0.2026834 -0.23409519 0.21212283 -0.35297176 -0.18102168 -0.046182245 -0.07782104
-0.012287719 0.072587386 -0.2533705 -0.35276544 0.17041457 -0.11043886 0.100689575 0.0050184457
0.39385173 0.12053296 0.1679266 0.18751301 -0.1860514 0.16619897 0.16779749 -0.039432995
-0.08811792 0.13311015 -0.1168532 -0.17479137 -0.033299197 -0.10883328 0.25546798 0.3047708
0.0864952 -0.09008017 0.050412677 0.48684546 0.15630645 0.04545382 -0.14476807 -0.26491496
0.20199303 0.103357606 0.17653148 -0.33489835 0.010044825 -0.22619261 0.047228336 -0.0060785185
0.04936025 -0.18267281 -0.15724462 0.26496208 0.2496118 -0.089715675 0.23708232 -0.27119875
00000000: 0636 113e 7404 aa3d 58ce 013e 39ff a93d
00000010: f358 383e 8d19 893d c1de 3ebe c14d 41bc
00000020: 1c87 b0bd 8719 a6be 00a9 0e3e 41f0 cd3d
00000030: bd54 e5bd d693 3b3e 9c91 b0be 5054 253d
00000040: ba49 3e3e 4b98 0dbe 40b8 6ebe 47ee 953d
00000050: 31b5 7d39 2a23 aebd b067 2e3e 3748 32bd
00000060: a266 0c3e 4daf afbe b5ec 18be 7e71 b0bb
00000070: 4e5e 7fbe c0f8 cf3d 22d6 103d fb8a 213d
00000080: a327 32be fc9d 323e eb16 debd 4c9f 9c3e
00000090: 8132 f93c 1717 263e b2a7 813e 0dec 983d
000000a0: fcb2 b33e 849f 04bc f805 7d3e 6dd1 e73e
000000b0: e032 923e d866 2d3e 8d62 ffbe 2e92 673e
000000c0: af68 07bd 0696 cf3d 27ef 0f3e 4361 9bbe
000000d0: 0873 dbbd bf58 923e 5609 48be 6db6 33be
000000e0: 443f 1f3d 79f3 b3bd 63d1 5c3d 2004 8d3e
000000f0: 6e30 c63e a5df 3b3d 78cf 0b3e 67ca cfbe
00000100: 09f0 8e3d 0423 47be 1957 76bd 4611 94be
00000110: a854 b8bd 2846 013e 2a7a c53d ee46 db3e
00000120: ef23 4e3e 1bfb 743e 5e97 ebbe 7fe1 623e
00000130: 639d 08bf 641a 82bc 2c85 c03e d863 f23d
00000140: 1dc0 26bd f0c3 c7bd 821b fdbd 1cef a8be
00000150: 2e67 f7bd 05c8 13be 7907 84be 2579 393e
00000160: ee26 0fbf 07a8 b1bd e3da ec3e 571f f03e
00000170: eed1 89be f953 98be 0399 6b3e dfdf 3b3d
00000180: 1413 db3d dd27 adbb 24ce 1e3d 6dfd a2be
00000190: 89df ca3d 13cb 103f 5b51 0cbf 072e 253e
000001a0: 5b59 f4be c0e1 ffbd 97f4 6a3e 9227 863d
000001b0: 7734 af3d e9ff 763e 5e03 ff3c 26be 09bf
000001c0: 43c3 92be a3d7 31be b5b9 9d3e a2f5 f23d
000001d0: e0ec 863e 2198 87be 2239 1ebe 39a7 ab3e
000001e0: a696 6a3d e228 d8be 449d 81be 3f74 043f
000001f0: 7389 8c3e bfd6 30bd 3b49 273d 69a1 aa3e
00000200: 3caf 24bd 4696 693e 95ff 91be 2c5c b5be
00000210: 4a18 a8be 3d83 92be 7ac5 a6bd 9014 b8be
00000220: 16f0 8fbe 29fe 533e 2b8f 483e 005b d4be
00000230: ca71 e5bc 8716 86bd 1300 a33e ec77 b0bd
00000240: 9fe5 1b3f 00bb 2d3e 79b9 d53b e606 433f
00000250: 3acf ab3e 06ef e53e e5f5 1bbf 2a60 653e
00000260: 88ee c9be 23cc 97bb 61ed 7e3e b59b 6f3e
00000270: 5f1e a9be bfb4 fdbe 7e71 aebe 38de 643e
00000280: f5d4 1f3c d7bc 313e bf0a f8be a6db bf3e
00000290: d4f6 5b3d f209 043f eee8 b63e 7d63 1bbe
000002a0: 8915 8ebe 79c5 14ba 54e1 dfbe 1c70 9b3e
000002b0: 7612 90bd 254e 01bf 6b50 2c3e 7f8d 2fbd
000002c0: 86ea 6a3e fa3f 893e b7aa 2abe d5e4 a43e
000002d0: 200b 23bf 98cf 993e 4370 8c3e f0e9 383e
000002e0: bd0d f53e 383f 723e 462b dc3d 9810 0a3d
000002f0: 8206 ac3e 87b2 3a3e ff2b 41bd 007a 00bf
00000300: 943c 9fbd 7cad 30be 85b0 423e e25c 8e3b
00000310: 4814 153e 9365 1d3c f7aa 673e beaa 0e3e
00000320: 8de3 ecbc 3d8c 4fbe a6b6 6fbe ba36 593e
00000330: b7b8 b4be bf5d 39be 9829 3dbd a360 9fbd
00000340: 6e52 49bc b2a8 943d c7b9 81be ac9d b4be
00000350: 2881 2e3e c52d e2bd 5636 ce3d c671 a43b
00000360: efa6 c93e fcd9 f63d f3f4 2b3e 6903 403e
00000370: 4284 3ebe 1030 2a3e 1bd3 2b3e 7e84 21bd
00000380: 2b77 b4bd 074e 083e bb50 efbd 82fc 32be
00000390: bd64 08bd fce3 debd b3cc 823e eb0a 9c3e
000003a0: 6524 b13d f47b b8bd 867d 4e3d cf43 f93e
000003b0: cc0e 203e c92d 3a3d 153e 14be efa2 87be
000003c0: 43d7 4e3e 27ad d33d abc4 343e cc77 abbe
000003d0: 0d93 243c 099f 67be 8072 413d 4f2e c7bb
000003e0: f92d 4a3d 950e 3bbe bc04 21be 1ca9 873e
000003f0: 3c9a 7f3e dabc b7bd b5c5 723e 90da 8abe

weight_hh_l0 f4 [128, 32]
-0.055502214 0.0643492 -0.14386457 0.06090122 0.03722168 -0.11636495 -0.3017886 -0.017225059
-0.21482553 -0.07667546 0.054936316 0.1844188 0.18178217 0.15189156 -0.098630965 -0.069493584
0.10094046 0.031904478 0.26816067 -0.13936858 0.117670566 -0.17400646 -0.3183456 0.16078997
-0.23514254 0.22505264 -0.16954844 0.1744719 0.12146264 -0.17433368 -0.1676485 -0.009490288
0.013925146 -0.123846754 -0.41206214 -0.14487237 0.10190032 0.015726086 -0.4343367 -0.065289505
0.25726733 0.2096007 0.45242548 0.008893514 -0.091275536 0.42855924 -0.063217156 -0.19682246
0.07859981 0.17134112 0.3395889 0.115636654 0.16794398 -0.28195333 -0.15684028 0.12699394
0.09134725 -0.030336715 -0.15073457 -0.0021481481 0.08331555 0.014514004 0.11542617 -0.43844807
-0.10355227 0.26738173 0.1257603 -0.0810156 -0.27511373 -0.13034959 -0.17142725 0.10823673
0.052597363 -0.2594494 -0.12434812 0.05061127 0.1475359 0.52183485 0.26763558 0.009881479
0.060898963 0.0406967 0.0770281 -0.26149082 0.116076045 -0.1192768 -0.09119841 0.23261842
-0.2968788 0.034628037 -0.33605403 0.28399056 -0.311565 -0.1483136 0.30672446 -0.5314565
0.13323738 -0.10382506 0.22242653 -0.087860115 0.14223658 0.06431646 0.21072145 0.16132976
0.3119319 0.106964044 0.051191825 0.049038254 0.085356615 -0.07174755 -0.08789411 -0.11831238
-0.17865622 -0.338116 -0.06705085 -0.10637373 -0.07375377 0.17209089 0.14546934 -0.0070649474
0.021467773 0.31681955 -0.096044786 0.4426675 -0.09816462 -0.1285379 -0.018281896 -0.07702598
-0.23064227 0.047756396 0.13616255 0.26560292 -0.119357444 0.5165202 0.3789664 0.047050226
0.39097384 0.043586146 -0.21313486 -0.08252224 -0.11908772 0.08775333 0.25037128 -0.09475186
-0.35956702 -0.77210826 -0.34112278 0.23991114 0.041832957 0.08316775 0.6721098 -0.09422906
-0.14990388 0.1564623 -0.4145422 0.21590383 -0.13112995 0.17042711 -0.015440535 0.14583267
-0.08989843 -0.08299016 -0.32747963 -0.230453 0.1515013 0.1590671 -0.20440939 0.24633974
0.4092718 -0.38267365 -0.1170757 0.3175393 0.085377246 0.031534813 0.19036025 -0.16029182
-0.22267556 -0.20646033 -0.022098081 0.11465043 -0.07560546 -0.27735123 -0.12801468 0.23307842
0.115127005 0.263034 -0.09385681 0.37894303 -0.008513486 -0.37533933 0.48414832 -0.09161469
0.26633292 -0.26514825 -0.5050232 -0.30605263 0.15903556 -0.23310392 0.022882022 0.079325594
0.3257985 0.3432023 0.43553287 0.034256108 -0.111544274 0.29410577 -0.47309324 -0.21217777
-0.0076112994 0.26073143 0.2491684 -0.015770046 0.032100063 0.256108 -0.43797317 -0.0009721951
0.20954056 0.048523962 -0.18746324 -0.009735908 0.40697438 -0.17506726 -0.09394376 -0.07272836
0.27531302 0.103513375 0.51092654 0.07130103 0.19622596 -0.35479367 0.24619292 -0.08679935
-0.86172074 -0.11812805 -0.32698047 0.29275945 0.72336376 -0.17195292 0.049140234 0.40560412
0.15374747 0.45795497 -0.115008175 -0.017075192 -0.011372246 0.17782332 -0.09997946 -0.15955055
0.042153273 -0.05701405 0.6144931 0.121411204 -0.16522993 0.09229426 -0.07583115 0.14113696
00000000: 4a56 63bd 83c9 833d 3c51 13be 8f73 793d
00000010: c375 183d bf50 eebd 0984 9abe 911b 8dbc
00000020: 39fb 5bbe 0608 9dbd e704 613d 48d8 3c3e
00000030: 1b25 3a3e 7689 1b3e 08ff c9bd a752 8ebd
00000040: dfb9 ce3d 45ae 023d 5b4c 893e a3b6 0ebe
00000050: 44fd f03d c02e 32be 32fe a2be 20a6 243e
00000060: 35c9 70be 3374 663e 1b9e 2dbe c3a8 323e
00000070: 68c1 f83d 8784 32be 0cac 2bbe 277d 1bbc
00000080: 4c26 643c 5ea3 fdbd cff9 d2be 6c59 14be
00000090: 1db1 d03d fed3 803c 6161 debe 81b6 85bd
000000a0: 8bb8 833e 91a1 563e 50a4 e73e 1ab6 113c
000000b0: abee babd 1e6c db3e ff77 81bd d48b 49be
000000c0: f0f8 a03d 0c74 2f3e 99de ad3e e9d2 ec3d
000000d0: 82f9 2b3e 305c 90be bd9a 20be b30a 023e
000000e0: 4414 bb3d b484 f8bc 2a5a 1abe f2c7 0cbb
000000f0: 58a1 aa3d 25cc 6d3c 8e64 ec3d 447c e0be
00000100: 3613 d4bd 42e6 883e 4fc7 003e 82eb a5bd
00000110: b5db 8cbe 5d7a 05be a08a 2fbe 38ab dd3d
00000120: 5570 573d 8dd6 84be 3aaa febd c34d 4f3d
00000130: a713 173e f896 053f 8807 893e ede5 213c
00000140: 3171 793d 95b1 263d e9c0 9d3d 20e2 85be
00000150: 47b9 ed3d 6547 f4bd 3bc6 babd 8633 6e3e
00000160: 8000 98be 21d6 0d3d 460f acbe 3667 913e
00000170: 7385 9fbe 85df 17be fd0a 9d3e 880d 08bf
00000180: 616f 083e 3ca2 d4bd c8c3 633e 01f0 b3bd
00000190: 77a6 113e 59b8 833d 5dc7 573e a133 253e
000001a0: 8ab5 9f3e f70f db3d 85ae 513d 56dc 483d
000001b0: 73cf ae3d 61f0 92bd d401 b4bd c34d f2bd
000001c0: a8f1 36be 8a1d adbe f551 89bd 78da d9bd
000001d0: 370c 97bd 9838 303e eaf5 143e 1381 e7bb
000001e0: 2fdd af3c 2c36 a23e 21b3 c4bd 51a5 e23e
000001f0: 880a c9bd 709f 03be eac3 95bc ccbf 9dbd
00000200: 7d2d 6cbe 369c 433d 326e 0b3e 1bfd 873e
00000210: ad71 f4bd ab3a 043f e207 c23e bdb7 403d
00000220: b92d c83e 6387 323d 0640 5abe 6c01 a9bd
00000230: 43e4 f3bd 05b8 b33d aa30 803e 430d c2bd
00000240: 2b19 b8be e3a8 45bf a5a7 aebe 44ab 753e
00000250: 0959 2b3d da53 aa3d 630f 2c3f 2afb c0bd
00000260: 6780 19be a737 203e e03e d4be e515 5d3e
00000270: ee46 06be 7284 2e3e 4cfa 7cbc 2955 153e
00000280: ab1c b8bd bff6 a9bd 69ab a7be dffb 6bbe
00000290: 2823 1b3e 7ce2 223e b250 51be 7c40 7c3e
000002a0: 138c d13e cded c3be 62c5 efbd 8394 a23e
000002b0: 44da ae3d a62a 013d cced 423e 8a23 24be
000002c0: 1005 64be 566a 53be 0907 b5bc d8cd ea3d
000002d0: 09d7 9abd fb00 8ebe 4816 03be 1cac 6e3e
000002e0: b5c7 eb3d 64ac 863e 0038 c0bd d204 c23e
000002f0: 267c 0bbc 7a2c c0be 4ae2 f73e 7ca0 bbbd
00000300: ca5c 883e 83c1 87be 3349 01bf eeb2 9cbe
00000310: 38da 223e cbb2 6ebe 1473 bb3c 7575 a23d
00000320: 10cf a63e 36b8 af3e 2afe de3e 2250 0c3d
00000330: 5371 e4bd 0895 963e 4739 f2be 2145 59be
00000340: 3568 f9bb 977e 853e 0026 7f3e 2f30 81bc
00000350: 5b7b 033d 9620 833e 053e e0be e9da 7eba
00000360: cd91 563e 10c1 463d 5df6 3fbe 5c83 1fbc
00000370: f25e d03e d544 33be 9665 c0bd 9bf2 94bd
00000380: d4f5 8c3e d2fe d33d 15cc 023f 4606 923d
00000390: 75ef 483e 84a7 b5be ff19 7c3e dcc3 b1bd
000003a0: bb99 5cbf 1eed f1bd fc69 a7be 91e4 953e
000003b0: 5e2e 393f 6d14 30be 4547 493d 58ab cf3e
000003c0: fa6f 1d3e 1379 ea3e 6889 ebbd 46e1 8bbc
000003d0: a852 3abc 5117 363e 08c2 ccbd 3861 23be
000003e0: e9a8 2c3d 9187 69bd 6b4f 1d3f 70a6 f83d
000003f0: 0932 29be c604 bd3d 5d4d 9bbd 3586 103e

bias_ih_l0 f4 [128]
-0.031310283 -0.06758543 0.10949003 0.11436133 -0.010558424 0.14184122 0.13360535 -0.13673376
0.040925536 0.1359233 -0.0558141 -0.11584002 0.04210783 0.14794827 -0.19143273 0.02255219
0.018480152 0.1344766 0.27921525 -0.012783514 0.20624198 -0.03566086 -0.08486686 -0.09993759
-0.0044251406 -0.058923602 0.093908906 0.00043054647 0.13009185 0.07589167 0.24770503 0.083388366
0.17017344 -0.13388869 -0.107221745 -0.09988166 0.0070097097 0.10183171 0.087748826 0.21981047
0.19922593 0.3516054 0.07620576 0.22711295 -0.09762737 0.14551166 -0.030535493 -0.089337096
-0.035312492 0.25924078 0.31238532 0.15237227 0.1676377 0.15825567 -0.13478386 0.045968585
-0.021364726 0.08948962 0.15264903 0.1963988 -0.1743681 0.10228604 0.019405037 -0.0050059673
-0.18546595 0.24706599 0.19821309 -0.1462321 0.1930455 0.08879128 0.35128504 0.15155435
0.10495183 -0.08187836 0.5689896 0.063844584 0.12933834 0.37299156 0.11991093 -0.43127877
-0.48740447 -0.26719055 0.26776358 -0.12112313 0.13562465 -0.36121115 0.102650024 0.19848137
-0.30125824 0.06341964 0.16563423 0.11366892 -0.5203846 0.09156573 -0.14759412 -0.7062584
-0.009429658 0.17145152 0.24139857 0.17123474 0.16537768 0.2556028 0.28218088 0.1165528
0.07483457 0.3498287 0.11154782 -0.08807744 -0.038016226 0.2291447 0.043915655 0.102434374
0.1299148 -0.06117807 0.27030295 0.18287076 0.0037622289 0.17917073 0.05027266 -0.0706623
0.24222739 0.0292702 0.3376699 -0.06028027 -0.101008564 0.06765752 0.18488856 0.016809138
00000000: 363f 00bd 3b6a 8abd 4f3c e03d 4636 ea3d
00000010: 3dfd 2cbc d33e 113e d7cf 083e ef03 0cbe
00000020: 89a1 273d 7a2f 0b3e 539d 64bd 883d edbd
00000030: 4379 2c3d c07f 173e f106 44be 5fbf b83c
00000040: b063 973c 3cb4 093e 4df5 8e3e f271 51bc
00000050: 1931 533e 1f11 12bd adce adbd 14ac ccbd
00000060: c500 91bb e059 71bd 5053 c03d f8ba e139
00000070: cc36 053e 186d 9b3d 63a6 7d3e 85c7 aa3d
00000080: f241 2e3e 1e1a 09be 1397 dbbd c18e ccbd
00000090: b5b1 e53b 258d d03d a8b5 b33d ff15 613e
000000a0: e201 4c3e 9f05 b43e c411 9c3d 4c90 683e
000000b0: dcf0 c7bd 0201 153e 9225 fabc 5ef6 b6bd
000000c0: d5a3 10bd 35bb 843e f8f0 9f3e 7a07 1c3e
000000d0: 38a9 2b3e c60d 223e c804 0abe 8e49 3c3d
000000e0: 1405 afbc 5546 b73d 0750 1c3e c41c 493e
000000f0: 8d8d 32be 587b d13d 50f7 9e3c 1909 a4bb
00000100: c9ea 3dbe defe 7c3e 5ff8 4a3e debd 15be
00000110: b8ad 453e 34d8 b53d a2db b33e 1031 1b3e
00000120: fcf0 d63d d7af a7bd 4da9 113f f3c0 823d
00000130: 4571 043e c0f8 be3e dd93 f53d 92d0 dcbe
00000140: 148d f9be 33cd 88be 4f18 893e 670f f8bd
00000150: 30e1 0a3e abf0 b8be 2d3a d23d b33e 4b3e
00000160: 853e 9abe 28e2 813d 059c 293e 40cb e83d
00000170: ed37 05bf d086 bb3d ea22 17be 5acd 34bf
00000180: da7e 1abc fd90 2f3e 3031 773e 2958 2f3e
00000190: c458 293e 5fde 823e 037a 903e 3cb3 ee3d
000001a0: de42 993d bf1c b33e 2f73 e43d f261 b4bd
000001b0: e7b6 1bbd e9a4 6a3e e7e0 333d 1dc9 d13d
000001c0: 6308 053e db95 7abd 2665 8a3e 7942 3b3e
000001d0: ba8f 763b 8878 373e b4ea 4d3d 65b7 90bd
000001e0: 750a 783e 0fc8 ef3c 12e3 ac3e 72e8 76bd
000001f0: 94dd cebd 0790 8a3d 6d53 3d3e 51b3 893c

bias_hh_l0 f4 [128]
0.19772911 0.19190273 0.039678104 -0.054569267 0.08347558 0.22952192 -0.11301378 -0.032649055
0.11960247 0.2080542 0.14924271 0.09291416 0.04264931 0.15723373 0.03785141 0.07362679
-0.03256675 0.055354156 0.18897247 -0.05774527 0.21130653 0.0737734 0.20951661 -0.17341515
-0.111422576 -0.14208171 0.058150463 -0.09574449 0.15593421 0.10010033 0.10689033 0.11235946
0.035966273 0.08712415 0.01670304 0.0045260605 0.01742189 -0.06503411 -0.035357837 -0.0701601
-0.06241803 0.17291257 -0.005125713 0.12135755 0.046917044 0.15860425 -0.18697931 -0.16326202
0.032153748 -0.00085511326 0.16738297 -0.03481132 0.16004446 0.08137767 0.010052791 -0.10160577
0.003070278 0.13439342 0.063375175 -0.02255723 0.024081009 -0.08998649 -0.100131504 0.17194721
-0.0061777886 0.26500863 0.009500215 -0.113054216 0.2665417 -0.112470426 0.14708497 0.15088451
-0.15577854 0.14078093 0.49390927 0.1711735 0.09046907 0.44587335 0.0970116 -0.32450643
-0.39850447 -0.09601407 -0.01543919 -0.023074646 0.1825909 -0.31952175 0.2342352 0.13415472
-0.23710506 0.2859561 -0.038564574 0.1298057 -0.669106 0.05290865 0.07743332 -0.88582283
0.2549539 0.1474236 0.14080419 -0.09508214 -0.00780241 0.26879826 0.20726882 0.19027683
0.11790816 0.3625541 0.056778066 -0.067306064 -0.030135082 0.088301644 0.109658174 0.20451456
0.27800673 -0.002792395 0.04835107 0.16816045 -0.013405311 -0.010960594 0.17113557 0.21611741
0.11716143 0.1551037 0.12600459 0.12511942 0.1745076 0.1348497 0.10970997 0.081519276
00000000: 8079 4a3e 2682 443e 8285 223d 0684 5fbd
00000010: 3ff5 aa3d cb07 6b3e c573 e7bd 04bb 05bd
00000020: 24f2 f43d 290c 553e 15d3 183e c749 be3d
00000030: 0bb1 2e3d e101 213e 150a 1b3d a4c9 963d
00000040: b664 05bd 0abb 623d 0082 413e 4e86 6cbd
00000050: bd60 583e 8216 973d 868b 563e be93 31be
00000060: 8531 e4bd de7d 11be 2e2f 6e3d b015 c4bd
00000070: 38ad 1f3e 6701 cd3d 51e9 da3d b71c e63d
00000080: 5f51 133d 256e b23d d0d4 883c 594f 943b
00000090: 5ab8 8e3c 9a30 85bd 61d3 10bd 19b0 8fbd
000000a0: 0caa 7fbd fe0f 313e 99f5 a7bb 4f8a f83d
000000b0: 162c 403d 2769 223e 8177 3fbe 292e 27be
000000c0: a6b3 033d ae29 60ba 7166 2b3e 5196 0ebd
000000d0: b2e2 233e 56a9 a63d 76b4 243c b016 d0bd
000000e0: b836 493b 6e9e 093e d8ca 813d f1c9 b8bc
000000f0: 8945 c53c d64a b8bd bf11 cdbd ee12 303e
00000100: 0c6f cabb 36af 873e caa6 1b3c f888 e7bd
00000110: 2778 883e e556 e6bd 719d 163e 7881 1a3e
00000120: 6984 1fbe e028 103e ade1 fc3e 1b48 2f3e
00000130: d947 b93d 8349 e43e 05ae c63d b525 a6be
00000140: c708 ccbe 06a3 c4bd a8f4 7cbc 0a07 bdbc
00000150: 1cf9 3a3e 5b98 a3be 5adb 6f3e db5f 093e
00000160: abcb 72be d768 923e e3f5 1dbd c9eb 043e
00000170: 884a 2bbf beb6 583d 5c95 9e3d 49c5 62bf
00000180: 5189 823e 36f6 163e f92e 103e 6dba c2bd
00000190: 5cab ffbb ed9f 893e 473e 543e eed7 423e
000001a0: d579 f13d b1a0 b93e 1e90 683d c3d7 89bd
000001b0: d9dd f6bc 7ed7 b43d 7794 e03d 446c 513e
000001c0: e656 8e3e 9d00 37bb c60b 463d 4132 2c3e
000001d0: f3a1 5bbc 1094 33bc 2a3e 2f3e e24d 5d3e
000001e0: 55f2 ef3d 81d3 1e3e 5907 013e 4e1f 003e
000001f0: 1fb2 323e 0a16 0a3e 9faf e03d 94f3 a63d

weight_ih_l0_reverse f4 [128, 2]
0.30053565 0.17991894 0.04170226 0.01584624 -0.11424782 -0.15373321 0.3964445 0.3288803
-0.20845851 0.028832557 0.011749321 -0.19457404 -0.39945027 -0.46344104 0.35827717 -0.40052864
0.21572089 -0.72771955 -0.44814885 0.4138841 -0.46392006 0.34981972 0.38932717 -0.0075094
-0.39694607 -0.09168339 -0.40759757 -0.05384486 0.7710057 -0.55120707 0.36077935 0.11648977
-0.11441595 -0.14260955 0.18260857 0.43486378 0.0062950216 -0.19622852 0.024556153 0.17121199
0.005333873 0.20241633 0.48720822 0.3063605 -0.09471028 0.14280458 -0.10911882 -0.10387473
-1.0035243 -0.08207034 -0.73337 -0.3394432 -0.64863193 -0.21088655 -0.068367824 0.16546309
0.42309162 -0.30855003 -0.12773593 0.16635081 -0.27565652 0.14756416 -0.5506961 -0.4266187
0.27892968 0.46586967 0.07567014 0.0021520045 -0.17100683 -0.32629943 0.31627685 0.3986914
-0.2414056 0.059841145 0.3939501 -0.14457893 -0.4756835 -0.44246545 0.40331742 -0.21034956
0.31224105 -0.20980962 -0.27152997 0.19277234 -0.027370939 0.088846594 0.25923958 -0.03716752
-0.15441589 -0.06508281 -0.2434834 -0.021718761 0.55287296 -0.49374524 0.43939745 0.16667227
-0.1603173 -0.062222697 -0.11683492 0.38070554 -0.14515959 -0.105382405 -0.25280592 0.13203919
0.0037043784 0.18446897 0.28550214 0.09925817 -0.093032695 -0.008651243 -0.5329035 -0.22556269
-0.5105249 -0.07925657 -0.19672053 -0.31878787 -0.25906023 -0.17776145 0.08107 -0.06696415
0.12767845 -0.060529716 -0.100160755 0.21596952 -0.30056757 0.19741473 0.1414945 -0.47001874
-0.33519936 -0.2608775 0.18009073 0.398425 0.25703114 0.12588312 -0.34035772 -0.29449698
0.27640688 0.43773377 0.258151 -0.085465886 -0.28822196 -0.39570603 -0.41328993 0.20713773
-0.03633876 -0.7635792 -0.16564098 0.49238345 0.46938297 -0.2440954 0.4898903 -0.08607119
0.35038248 0.07085112 0.4450681 -0.120123826 0.1070083 -0.38182485 0.24090898 0.068043984
-0.07635694 0.5858325 0.30340454 0.7876962 0.13431822 -0.4187312 -0.62574303 0.269882
-0.31407043 -0.047338735 -0.4060016 -0.105743244 -0.29035345 0.17446624 0.1741021 0.28169253
-0.46445778 0.26035517 0.53144056 0.42819706 -0.38812286 -0.12122932 -0.14546448 -0.30869618
-0.4215778 0.24551581 0.34158245 0.05469559 0.20517838 -0.30085692 0.1708213 -0.28202194
0.34618026 0.269814 0.043083683 -0.036949866 -0.018005576 -0.21877937 -0.23309724 0.0033764017
-0.32779595 0.15307109 0.018689973 -0.00999657 -0.5117363 -0.34351704 0.51999325 -0.49853316
-0.18234956 -0.6163611 -0.30345312 0.060294125 -0.26468638 0.1494838 0.5161174 -0.14041121
-0.2516003 -0.2211765 -0.24018222 0.16074297 1.1216044 -0.65014577 0.3912509 0.08782817
0.0654561 0.0065837787 0.00455194 0.11897519 -0.11055342 0.01182931 -0.13857885 0.32216537
0.27944988 -0.051637653 0.25821128 0.40487388 0.08449196 -0.02612799 -0.38947853 -0.09665223
-0.48076832 0.04419307 -0.1723061 -0.35354206 -0.8979118 -0.20486975 0.11835289 0.16141348
0.85712975 -0.43520835 -0.23115653 -0.07749076 -0.23180497 0.22248182 -0.23317721 -0.15173768
00000000: cfdf 993e ac3c 383e fdcf 2a3d f9cf 813c
00000010: c3fa e9bd 3d6c 1dbe c6fa ca3e 0063 a83e
00000020: 2676 55be 4132 ec3c 3980 403c 6b3e 47be
00000030: bf84 ccbe 2548 edbe 1b70 b73e 1712 cdbe
00000040: f0e5 5c3e d44b 3abf c473 e5be 9ee8 d33e
00000050: ee86 edbe 921b b33e e455 c73e 6a11 f6bb
00000060: 843c cbbe 80c4 bbbd a1b0 d0be 6e8c 5cbd
00000070: a160 453f e81b 0dbf 12b8 b83e 3092 ee3d
00000080: e952 eabd 3d08 12be befd 3a3e 77a6 de3e
00000090: 7846 ce3b 21f0 48be fc29 c93c 3252 2f3e
000000a0: c5c7 ae3b 3a46 4f3e 5b73 f93e 49db 9c3e
000000b0: 77f7 c1bd 5d3b 123e b079 dfbd 46bc d4bd
000000c0: 7c73 80bf 7f14 a8bd 23be 3bbf 80cb adbe
000000d0: be0c 26bf a5f2 57be 6e04 8cbd 286f 293e
000000e0: 779f d83e 45fa 9dbe 35cd 02be de57 2a3e
000000f0: da22 8dbe 0f1b 173e 6bfa 0cbf c46d dabe
00000100: dfcf 8e3e 7886 ee3e f2f8 9a3d a508 0d3b
00000110: 6a1c 2fbe b810 a7be 0aef a13e 4721 cc3e
00000120: 0833 77be fd1b 753d d4b3 c93e 800c 14be
00000130: ca8c f3be d58a e2be 9f7f ce3e e065 57be
00000140: 0fde 9f3e 55d8 56be fa05 8bbe 1d66 453e
00000150: 0539 e0bc 34f5 b53d 0dbb 843e f83c 18bd
00000160: 331f 1ebe 234a 85bd b653 79be 8beb b1bc
00000170: 1589 0d3f 2dcc fcbe b4f8 e03e 23ac 2a3e
00000180: 382a 24be 3add 7ebd 2647 efbd d6eb c23e
00000190: b7a4 14be bbd2 d7bd c76f 81be 4835 073e
000001a0: 28c5 723b 6fe5 3c3e 562d 923e de47 cb3d
000001b0: ed87 bebd f1bd 0dbc 5d6c 08bf e8f9 66be
000001c0: c3b1 02bf 4551 a2bd 1b71 49be 2a38 a3be
000001d0: 8ba3 84be 1907 36be 0708 a63d 8024 89bd
000001e0: 24be 023e 02ee 77bd 1521 cdbd 1d27 5d3e
000001f0: fee3 99be 1627 4a3e efe3 103e 4ca6 f0be
00000200: 409f abbe bc91 85be b469 383e 5dfe cb3e
00000210: 9699 833e 81e7 003e 5e43 aebe 4fc8 96be
00000220: 3485 8d3e a41e e03e 5e2c 843e bd08 afbd
00000230: d491 93be fb99 cabe bd9a d3be ea1b 543e
00000240: f4d7 14bd ed79 43bf ca9d 29be af19 fc3e
00000250: f752 f03e 25f4 79be e7d2 fa3e 1846 b0bd
00000260: 5565 b33e 641a 913d f7df e33e 7b03 f6bd
00000270: 2b27 db3d 8c7e c3be d8b0 763e a55a 8b3d
00000280: 0761 9cbd 1ef9 153f d757 9b3e 75a6 493f
00000290: b78a 093e f063 d6be b230 20bf f92d 8a3e
000002a0: d7cd a0be 43e6 41bd 71df cfbe ea8f d8bd
000002b0: 35a9 94be 47a7 323e d247 323e 013a 903e
000002c0: 69cd edbe 464d 853e 7d0c 083f a53c db3e
000002d0: 0ab8 c6be 1447 f8bd a4f4 14be 6d0d 9ebe
000002e0: 0cd9 d7be 7f68 7b3e e5e3 ae3e 7c08 603d
000002f0: 481a 523e eb09 9abe c7eb 2e3e 2e65 90be
00000300: 8a3e b13e 1025 8a3e 8478 303d be58 17bd
00000310: 6e80 93bc b307 60be 0bb1 6ebe 9f46 5d3b
00000320: dfd4 a7be abbe 1c3e b71b 993c a7c8 23bc
00000330: 2601 03bf 77e1 afbe 471e 053f bd3f ffbe
00000340: d8b9 3abe d7c9 1dbf 355e 9bbe f9f6 763d
00000350: f984 87be 4812 193e 4520 043f f5c7 0fbe
00000360: c1d1 80be 187c 62be 54f2 75be ce99 243e
00000370: bc90 8f3f f46f 26bf 0a52 c83e 41df b33d
00000380: d90d 863d bdbc d73b 7128 953b 44a9 f33d
00000390: d569 e2bd b9cf 413c 9de7 0dbe dcf2 a43e
000003a0: 0e14 8f3e 0182 53bd 4534 843e a14b cf3e
000003b0: 1f0a ad3d 5e0a d6bc bb69 c7be 9bf1 c5bd
000003c0: 4427 f6be cb03 353d 0371 30be 7703 b5be
000003d0: 8cdd 65bf 60c9 51be 0063 f23d 9349 253e
000003e0: db6c 5b3f a1d3 debe 4cb4 6cbe 7ab3 9ebd
000003f0: 485e 6dbe 46d2 633e 02c6 6ebe 1f61 1bbe

weight_hh_l0_reverse f4 [128, 32]
-0.4395305 0.34364003 -0.106353916 0.03665238 0.09033443 0.27875122 -0.20393272 -0.059117056
-0.058295395 0.33976975 0.12946817 -0.099857114 0.1646937 0.17737298 0.0077984263 0.3926762
0.13296002 0.30653292 -0.00861234 0.03344314 -0.2997542 0.027872736 0.21048598 0.11805373
-0.13477613 0.09259063 -0.30341244 -0.39351538 0.11752805 0.113827415 -0.3392948 0.11482839
-0.16398716 0.19529375 0.03482782 0.20817292 -0.12100959 -0.15233445 -0.07205689 -0.0081848595
-0.15965982 0.19062825 -0.14913243 -0.18859595 0.056153174 -0.18509528 -0.07466234 -0.059061732
-0.13448063 -0.1510504 -0.0136278365 0.03894483 -0.08732977 0.07633928 0.13556068 -0.068980776
0.008717792 -0.09063619 0.013862679 -0.1307049 0.056534473 -0.043312855 0.003987766 0.054140326
0.17180197 -0.2302472 -0.12014281 -0.009861025 0.22165716 0.26610366 0.13053308 -0.18594067
-0.045586117 0.044867158 0.5466851 0.16596393 0.21255971 0.23783329 0.13140172 0.29363877
-0.6263062 -0.17383175 0.013775452 -0.15085135 0.072081126 -0.24743417 0.15091354 -0.06348377
-0.2300587 0.52023053 -0.0368137 -0.00945281 -0.030169748 0.037785713 -0.07642318 -0.21545401
0.04178255 -0.0008891715 0.22397338 -0.30169502 0.36581224 -0.086427286 -0.55390316 0.36332545
-0.46919063 -0.11012097 0.048527546 0.35809806 0.28353775 0.09298249 -0.20500936 0.23828654
0.219042 0.2970549 -0.2905745 -0.05115486 -0.45243558 0.07777326 -0.40674952 0.5880081
-0.338645 0.47902012 -0.29984334 -0.04773853 0.13843776 0.22986425 0.0051033776 -0.24304044
0.38757107 -0.115915194 -0.0156244105 0.13114679 -0.15938103 -0.04695282 -0.29353034 0.06035372
-0.16968344 -0.16112947 0.07184008 -0.08416414 -0.13163738 0.33928674 -0.25400877 -0.13885388
-0.065794766 -0.27803716 -0.15491273 0.0977719 0.003618815 0.18930224 -0.21432553 0.17655292
-0.35705733 0.34569117 -0.26430595 0.21886592 0.11778435 0.08339905 -0.07780828 -0.42506832
-0.0802974 -0.12421068 -0.097719684 0.010915709 0.044367444 0.2464925 -0.051113445 -0.27071851
-0.053585295 -0.06274809 -0.013711765 -0.09617003 -0.14565937 0.16084546 0.050006595 0.08324441
0.021363508 -0.07412706 -0.11684383 0.06565008 0.06843404 0.10241603 -0.35069788 0.023175241
0.021389956 -0.1593627 -0.16494456 -0.14221942 -0.2471414 0.10534971 0.12737896 0.056858663
0.9425438 -0.33726835 -0.105221055 0.18905936 -0.28894907 -0.30657417 0.48028907 -0.10975268
-0.034648336 -0.54584616 0.18906567 0.10481622 -0.37464786 0.08121454 -0.09134294 -0.027325941
-0.37908164 -0.4215227 0.062042315 0.15795703 0.3717185 0.4576091 0.19693701 -0.2807362
0.011225951 0.20056018 0.35217416 0.28610066 -0.084701575 -0.57643616 0.16706076 0.203908
0.08201369 -0.21398175 -0.0011121514 -0.0612566 -0.033030417 0.21697626 -0.21218352 -0.35673854
-0.045685075 -0.08911003 0.26555818 0.042412657 -0.009717186 0.1633927 0.14303471 -0.027348598
0.11113664 -0.067973375 -0.23027556 -0.08494739 -0.09887393 0.033818353 -0.07911085 0.09411406
0.15881619 0.049332604 0.07438162 -0.013680717 -0.1287513 0.06722637 0.021945454 0.14497855
00000000: 240a e1be 96f1 af3e 15d0 d9bd ce20 163d
00000010: 4201 b93d 7bb8 8e3e bdd3 50be ba24 72bd
00000020: 27c7 6ebd 4df6 ad3e 4e93 043e e381 ccbd
00000030: 77a5 283e 43a1 353e f189 ff3b db0c c93e
00000040: ac26 083e e2f1 9c3e c61a 0dbc adfb 083d
00000050: 6279 99be 5d55 e43c a389 573e 27c6 f13d
00000060: c102 0abe 28a0 bd3d e058 9bbe d97a c9be
00000070: 8cb2 f03d 591e e93d 0cb8 adbe 262b eb3d
00000080: 40ec 27be 16fb 473e 9ea7 0e3d 482b 553e
00000090: e0d3 f7bd 90fd 1bbe 9092 93bd ca19 06bc
000000a0: dd7d 23be 0d34 433e 2cb6 18be 4c1f 41be
000000b0: df00 663d 9e89 3dbe 92e8 98bd b7ea 71bd
000000c0: 4ab5 09be f5ac 1abe 4a47 5fbc 9d84 1f3d
000000d0: f3d9 b2bd c557 9c3d 6bd0 0a3e cb45 8dbd
000000e0: 12d5 0e3c 779f b9bd 4a20 633c 81d7 05be
000000f0: b190 673d d268 31bd ceab 823b 3fc2 5d3d
00000100: dbec 2f3e ecc5 6bbe 6f0d f6bd 2390 21bc
00000110: 18fa 623e bd3e 883e 77aa 053e 3b67 3ebe
00000120: 82b8 3abd a0c6 373d 8ef3 0b3f 73f2 293e
00000130: 41a9 593e 928a 733e 2c8e 063e d257 963e
00000140: 9a55 20bf f300 32be 6fb2 613c c778 1abe
00000150: 459f 933d 625f 7dbe 1489 1a3e c703 82bd
00000160: 8294 6bbe d42d 053f f6c9 16bd f5df 1abc
00000170: 8c26 f7bc 31c5 1a3d c283 9cbd fa9f 5cbe
00000180: 2e24 2b3d 4a17 69ba 4759 653e c577 9abe
00000190: be4b bb3e ca00 b1bd 99cc 0dbf cb05 ba3e
000001a0: c139 f0be 1a87 e1bd d2c4 463d a158 b73e
000001b0: dc2b 913e 9b6d be3d f9ed 51be 6301 743e
000001c0: 8c4c 603e 9417 983e 2ec6 94be c287 51bd
000001d0: a3a5 e7be 9647 9f3d 7941 d0be b387 163f
000001e0: e162 adbe 2042 f53e 1185 99be 7a89 43bd
000001f0: a1c2 0d3e 8961 6b3e 3c3a a73b 98df 78be
00000200: b76f c63e f264 edbd 87fd 7fbc 584b 063e
00000210: c834 23be 9a51 40bd 9c49 96be 7635 773d
00000220: 7fc1 2dbe 20ff 24be e420 933d 405e acbd
00000230: f3cb 06be feb6 ad3e 700d 82be b62f 0ebe
00000240: 68bf 86bd e35a 8ebe 71a1 1ebe a23c c83d
00000250: a429 6d3b 72d8 413e 2778 5bbe 4aca 343e
00000260: 38d0 b6be 6ffe b03e 1c53 87be 631e 603e
00000270: ec38 f13d 1fcd aa3d f359 9fbd 8ea2 d9be
00000280: f772 a4bd 2b62 febd 4221 c8bd cdd7 323c
00000290: a3ba 353d 8868 7c3e 555c 51bd 9e9b 8abe
000002a0: 417c 5bbd 1282 80bd 50a7 60bc cbf4 c4bd
000002b0: bb27 15be acb4 243e b7d3 4c3d 0c7c aa3d
000002c0: 8602 af3c eecf 97bd d14b efbd 8d73 863d
000002d0: 2527 8c3d 7fbf d13d ac8e b3be 01da bd3c
000002e0: fd39 af3c fa2f 23be 3ae7 28be f8a1 11be
000002f0: a312 7dbe 97c1 d73d a16f 023e a1e4 683d
00000300: 8d4a 713f 70ae acbe 237e d7bd c798 413e
00000310: 22f1 93be 4af7 9cbe 73e8 f53e 03c6 e0bd
00000320: 6aeb 0dbd 93bc 0bbf 6e9a 413e e3a9 d63d
00000330: d8d1 bfbe cf53 a63d 0212 bbbd a7da dfbc
00000340: fd16 c2be d3d1 d7be 1520 7e3d 7dbf 213e
00000350: e351 be3e bd4b ea3e dba9 493e a8bc 8fbe
00000360: 0ded 373c a65f 4d3e 2c50 b43e c97b 923e
00000370: 0578 adbd 5291 13bf fa11 2b3e 42cd 503e
00000380: cbf6 a73d 081e 5bbe 9cc5 91ba 33e8 7abd
00000390: e74a 07bd 062f 5e3e a346 59be 6fa6 b6be
000003a0: 4620 3bbd 527f b6bd 3ef7 873e e5b8 2d3d
000003b0: d534 1fbc 6a50 273e b177 123e 2b0a e0bc
000003c0: 9b9b e33d a035 8bbd 5bcd 6bbe e6f8 adbd
000003d0: 6a7e cabd 1d85 0a3d df04 a2bd dfbe c03d
000003e0: b6a0 223e fc10 4a3d 6455 983d 1625 60bc
000003f0: 61d7 03be fbad 893d f4c6 b33c 4275 143e
