experiments/pedestrians/models/models_14_Feb_2024_17_26_50_eth_vel_ar3/model_registrar-37.pt (torch, 527902 bytes, 43 tensors)

weight_ih_l0 f4 [128, 6]
00000000: 99c0 a23d 4339 b63d c202 3cbe dec0 26bd
00000010: a46e 74bd 5891 953d 0453 48be e15c bbbe
00000020: 910d c4bd 041d 523e 96a2 293d 0dab 8cbd
00000030: c97d c03c 8c2f 21bc 1a3f 8cbe 5c31 20be
00000040: 5b9f 75be 5483 8b3d 942d 103e 66ca 473e
00000050: 906d b03d 77fb 3f3d 3516 c43d ba54 8a3c
00000060: 0885 efbd b3ed 9c3d 3f15 febd 905a e6be
00000070: 69b2 133f 8019 8bbf 2670 333e 0a12 d53d
00000080: 4979 313e 5247 623d 1028 a63e c5fa 8cbe
00000090: 247e d0be e3b6 dc3d cea5 1c3e 1a5d 1ebe
000000a0: 96c2 983d 6cd1 58be e6cb afbe 5722 27bc
000000b0: bb49 c43e ceec aabc 78e2 773d a69f 0a3c
000000c0: 3366 753e 4f3a 623e 75b5 da3e bdac 90be
000000d0: 1171 ab3e e018 2dbe 7bb9 93bd a240 7fbe
000000e0: cb47 9ebc 282d a23e 0244 ad3d 4d32 aebd
000000f0: a441 0c3e 2e8a 6ebe 5a58 c4be e247 803e
00000100: 93ea b8bd 0612 743d e733 8c3b b309 3a3e
00000110: 5f70 fcbe 2552 49be c73a 21bf 03ac 67be
00000120: f857 fe3c 6ecd aebd 3490 5cbe 20f8 053e
00000130: 4e45 203e d9fc 79bd a959 00be 0298 e73c
00000140: 5386 b73e 446d 8a3e 10b8 c23e 23c8 913e
00000150: 9486 ea3c c799 6cbd 79b0 25bf 351f 9b3d
00000160: 64aa ecbe 84d0 34bd 9055 86be 6034 023e
00000170: 9cbd c23e feef e63d 8d8c fcbc 0530 873e
00000180: 49f3 833e 84bc 6ebd fb1a debe 97a7 b83e
00000190: 5277 debe 7ecf 393d fb26 fc3d 2b36 55be
000001a0: 7b3e 1cbe 3fbd 0c3e fba5 22bc 9b3e bf3d
000001b0: c910 2e3e d965 48be a57f 72be f6b2 f33e
000001c0: 239a 91bd eeee 1a3f 9272 4e3d 5f0d d33c
000001d0: 6029 acbe 68b7 ae3d 692f a3bd 6a89 b53e
000001e0: 501f b4be c003 863e 22f5 c03e dbcc 84be
000001f0: e729 933e 5917 983c bc5a 0f3d bee0 523e
00000200: 281a 453d 6fd6 fabd 0524 e33c 3062 a63d
00000210: c3bf 05be b8a0 b0be 6e15 8d3d 67b5 953d
00000220: be85 a63e 8c89 c13c 35f3 52bd f865 643d
00000230: 586c cf3d 1afe e2bd 3041 313c 2ab4 d53c
00000240: 4085 e63d 048b 51bd 8b58 69be 9d09 a6bd
00000250: 2741 4bbe 8584 58be c128 9cbe 2e0a d7bd
00000260: 3917 c53c dd55 2c3e 3c9a f23d e2d9 c03d
00000270: 960b 07bd 8b2d 563e e304 08bf 716e e0be
00000280: 790d aebe 88c9 e9bd 8953 53be 137d 5b3d
00000290: 4db5 293f 284f 093f 1c25 063f 8b5a 2c3f
000002a0: e904 2f3e ea50 523a 7a9a 94be 60e1 113e
000002b0: d003 8e3d 851a 7e3e 17ac b5be 55bd 1e3d
000002c0: 2b19 e33c 3fe7 78be 1045 423e 44fd 48bc
000002d0: 6698 f5bd cddb 88bd 8baa 853e 9be1 5d3d
000002e0: 04fc dabd 3587 59be e162 cfbd 9d20 a43d
000002f0: ed6b 5b3d e51b 023d 0fcf 62be 3a86 bebd
00000300: d7fb 063e 1bdb 0e3e 73ec 19be 1229 01be
00000310: f700 4cbe 88b8 4dbe bedb a53b 0e69 ebbd
00000320: d68e d93c 0ec3 c03d 1c15 573d f8b9 a7bd
00000330: a783 c3bd 976a debc ca0e 53bd 1b81 73bc
00000340: 73dd 81be 70a5 863d 21c1 be3d 34ff a43d
00000350: e565 ad3d 5beb febd d2fe 5bbd e696 c83c
00000360: 96b2 6f3d 7a8b 59be f02c 333e e265 e6bd
00000370: 2fd2 17bd 9cc7 ad3b 779a 0e3e f1fc a5bc
00000380: f6b9 df3d d662 48be 73bb 93be 2852 a33c
00000390: 7f41 d8bd d8dd 0b3d 1f3e 2d3e a916 c3bd
000003a0: d47e dcbd 495e 5ebc 192f 1bbe cdb7 65be
000003b0: 337c 803e a56c 363a 3f67 32bd bdfe f0bc
000003c0: 92f9 893e a9a4 d43c 9dbf 64bc 9553 1fbe
000003d0: 062c 84bd c3c9 05bc fbce 44be 9d79 43bd
000003e0: d2b1 883e 5004 d43d 64ff 343e 6b9f b13d
000003f0: eb1c 0b3e 5a7d 9ebe 66a0 14be d3d0 523e
0.07946891 0.088976406 -0.18360427 -0.040711276 -0.059675828 0.07303113 -0.19562918 -0.36594298
-0.095729 0.20518881 0.04141482 -0.06868563 0.023497479 -0.009837996 -0.27391893 -0.15643829
-0.2398657 0.06812158 0.14079887 0.19510803 0.086146474 0.046870675 0.09574548 0.016886104
-0.116952956 0.07662525 -0.12406396 -0.4499097 0.5769411 -1.0867157 0.1752325 0.10403831
0.17331423 0.055243798 0.3245244 -0.27535072 -0.40721238 0.107770704 0.15297624 -0.15465203
0.07458989 -0.21173638 -0.3433525 -0.010201058 0.38337502 -0.02086487 0.06051871 0.008460915
0.23964767 0.22092555 0.42716566 -0.2825679 0.334847 -0.1690402 -0.07213112 -0.24926999
-0.019321343 0.31675076 0.08460237 -0.08505688 0.13696915 -0.23294899 -0.38348657 0.25054842
-0.090291165 0.0595875 0.004278648 0.18167762 -0.49304482 -0.19660242 -0.6298031 -0.22624211
0.031047806 -0.08535276 -0.21539384 0.13082933 0.15651438 -0.06103215 -0.12534203 0.028270725
0.3584467 0.27036488 0.38031054 0.28473005 0.028628625 -0.05776384 -0.647224 0.07574312
-0.46223748 -0.04414417 -0.26237154 0.12715292 0.38035285 0.112762436 -0.030828739 0.26403823
0.2577155 -0.05828525 -0.4337996 0.3606536 -0.4345041 0.045363896 0.123121224 -0.20821445
-0.1525821 0.13744067 -0.009927268 0.09338113 0.1699859 -0.19570102 -0.23681505 0.47597474
-0.07109477 0.6052083 0.05040223 0.025763212 -0.33625317 0.08531076 -0.07968027 0.354564
-0.3518014 0.26174736 0.37687021 -0.25937542 0.28742906 0.01856582 0.03499864 0.20593545
0.048120648 -0.12247931 0.027727136 0.081241965 -0.13061433 -0.3449762 0.06888853 0.073099904
0.32523912 0.023625158 -0.05150147 0.055761307 0.10128087 -0.11083622 0.010818765 0.026086885
0.11255884 -0.051157966 -0.22787683 -0.08107302 -0.19849072 -0.21144302 -0.30499843 -0.104999885
0.024058925 0.16829629 0.11845824 0.09416558 -0.032970034 0.20915811 -0.53132457 -0.4383426
-0.33994654 -0.11415392 -0.20637335 0.053586077 0.6629227 0.5363641 0.52400374 0.6732566
0.17091717 0.00080229214 -0.29024106 0.1424613 0.06934321 0.24814804 -0.35482857 0.03875478
0.027721962 -0.24306963 0.18971658 -0.0122674145 -0.11991958 -0.06682549 0.26106676 0.054170232
-0.106925994 -0.21242984 -0.101262815 0.08014033 0.053569723 0.031764884 -0.22149299 -0.093029454
0.13182007 0.1395077 -0.15031604 -0.12613323 -0.19922243 -0.20089924 0.0050615957 -0.11494647
0.026557367 0.09412204 0.052510366 -0.081897676 -0.09546595 -0.027150435 -0.051527776 -0.014862324
-0.25364265 0.065745234 0.0931418 0.08056489 0.084667005 -0.12447234 -0.053709812 0.024486016
0.058519922 -0.21244612 0.17497611 -0.11249901 -0.03706568 0.0053033363 0.13926111 -0.020262213
0.10924141 -0.19568953 -0.2885395 0.019936636 -0.105593674 0.034147114 0.16918229 -0.095258065
-0.10766378 -0.013572284 -0.15154685 -0.22433396 0.25094756 0.00069589383 -0.043555494 -0.029418344
0.2694822 0.025957422 -0.0139617 -0.15559228 -0.06453709 -0.0081657795 -0.19219582 -0.0477234
0.26698166 0.10352385 0.17675549 0.08672985 0.1358525 -0.3095501 -0.14514312 0.20587473

weight_hh_l0 f4 [128, 32]
00000000: 38bd 4ebc 2d34 58be a4c2 553a 59e6 d53d
00000010: 3df7 fcbd b07f 83bc 0651 1abd 46ee 1bbe
00000020: bda8 433d 0a13 753e ed51 d5bd 8897 003e
00000030: d736 03be 6db4 4c3e b7e5 2a3e e3f6 eb3d
00000040: 793a 453e e2c1 ffbd e74c dbbd 473b 493c
00000050: e741 50be 68de 0bbe e665 94bd d4ce 8dbe
00000060: ab3d 943e 19ca c83d d79f 82bc 2d31 ca3e
00000070: e3da 5b3e eccc af3b dcf5 233e 15eb c7bd
00000080: b422 033e 9caf 77be 91a8 c33d 2467 aebd
00000090: f1f3 eb3c 819d 583e 64b5 963c f520 57be
000000a0: 703d e63d c129 bd3d 809e a8be 0b0f ccbd
000000b0: 32bb 89be df9f 4b3e cf9d 083e c777 aebd
000000c0: e34c 4e3e 20e5 df3d 2f91 72be a866 a13d
000000d0: 4093 96bd 6bff e7bd e7d9 25be 95de 0ebe
000000e0: 97e0 f53d cdf2 093e ea5f 17be 4e1d 7c3d
000000f0: e18e 2d3d 778f 163d 28bd 633e 9c89 afbd
00000100: 7c03 f43d 02fc 2bbe 7793 e0bd d91a ef3d
00000110: cbfe b33d 8bf8 2e3e 2bd1 2dbe 82c4 43be
00000120: 5175 5ebc 4d71 803e e722 9dbe 20bb 9d3d
00000130: 611e 95bd e993 dfbd b47b 073e 2519 96bd
00000140: 9295 de3d 4c08 f2bd 83b7 b13d 2cad 02be
00000150: 4b3c d13d b73a 873d f8a9 573d b8a7 293e
00000160: 1b41 8f3e 650d 173e a735 273e 7366 3f3e
00000170: 4387 203e 605a e03d 6751 fbbc 8554 0c3d
00000180: 331a 14bd 7297 2bbd 98b1 ddbc 1fab 9d3d
00000190: c3be b4bd 1e48 3a3d 737a abbd 54e5 4b3d
000001a0: 96df dbbc 2c99 333e 4465 9dbe 8673 12be
000001b0: da5a c6bd 3ff6 b6bd a8b2 09be 04fe 0dbe
000001c0: 3a1a 233d d5c0 2a3d ab51 57be ae9e 84bd
000001d0: 65a0 6abd 8368 04bc d3ee 0f3d 0acc bebc
000001e0: c3d2 fa3d 3936 eb3d 5c8f 82bd bbbf 3b3e
000001f0: a74e 863c 9c1e f23d a396 8c3e 2274 81bd
00000200: 62ff 933d 67d1 6cbd 6f12 bd3e c290 1e3d
00000210: f7ff 123e d5b9 1cbe 6406 793e df17 1d3d
00000220: 42ff 21bd 8b35 63be 81d0 393d ad63 16be
00000230: 1fad 1bbe a60d 16bd a552 1c3d 1c27 67be
00000240: 5a1f 1abe 0bfa 27be 02cd b8bb 0ed0 6e3d
00000250: 53ba 2ebe 91b0 d53e 6026 8b3e 8f60 91be
00000260: 22a3 69bd 96d6 45be 61e6 0ebe fd58 8abe
00000270: c66b 443d a18b 6bbe d04f 023d ab92 a13c
00000280: 0007 b13d 5610 3ebe 8c88 d23d 9bb0 07be
00000290: 4d10 aebd daaa 84bd 105e 163e 147a 74be
000002a0: 9ea2 8bbd 83ae 743d 0c73 013e d34c 08be
000002b0: d54c 50be f6b4 993d cbab f9bb de94 cdbc
000002c0: f7bd 363d 8485 563e d362 71be e865 383e
000002d0: 7f6f 48bd 3fb8 88bd 6ab8 1cbc 8d52 34be
000002e0: dcff c33d 1fce f73c d170 1b3e a613 5a3e
000002f0: 85bc a43d 56f6 2dbb 5c46 6c3e 9991 313e
00000300: 8a75 133e c4f8 44bd e1d2 3cbe 464c 183e
00000310: 96d4 dfbc 730b 6bbd a0d7 5e3e dfd7 9ebe
00000320: d052 08be bff9 273e e178 e2bd e5e6 0ebe
00000330: b406 0cba 9d92 963e c309 b63d 3674 a33c
00000340: 5a75 003e 93a1 72bd a6be ebbd 13ab 4bbd
00000350: dc7b 94bd 8de4 5f3e c289 0a3e 77f4 dcbd
00000360: 8f68 a6bc 0204 703e db6c e63d 3e43 493e
00000370: 493c a3bd ede7 d13c 7965 6cbc c246 093e
00000380: 70c7 003e 9602 7ebe 72f4 e53a 0be0 d83d
00000390: c6d7 43be d578 1a3d 31b0 773e 9929 20be
000003a0: 8864 c2bc f390 2b3c 6b11 583d 02d6 aabd
000003b0: c160 d6ba 5cfe 173c 6608 183d eff9 a13d
000003c0: c372 173e 8829 b53d 262f 53be 5445 823c
000003d0: 638a c2be b9fd 7e3d 7226 c1bd 5ca8 96be
000003e0: b8e2 433e 1eaa c63e 27ea d6bd f8cd 893e
000003f0: bafe 0f3e 0e45 073c b61e 043e 0889 903e
-0.012618355 -0.21113653 0.0008154309 0.10444326 -0.123518445 -0.016052097 -0.037674926 -0.15227613
0.047768343 0.23933044 -0.10416017 0.12557805 -0.12813888 0.19990702 0.16689192 0.11521699
0.19260587 -0.12488152 -0.10708027 0.012282199 -0.2033764 -0.1365906 -0.07245998 -0.2769686
0.289533 0.09804172 -0.015945358 0.39490643 0.21470217 0.0053650048 0.16011757 -0.09761635
0.12806207 -0.24188083 0.09553636 -0.08515766 0.028802844 0.21153833 0.01839704 -0.21008666
0.11242187 0.092364796 -0.32933426 -0.09963807 -0.2690063 0.19885205 0.13341449 -0.085189395
0.20146517 0.10932374 -0.23688196 0.07880908 -0.073523045 -0.11328014 -0.16196404 -0.13952096
0.12005728 0.13471527 -0.14782682 0.061551385 0.042372588 0.036757912 0.22240126 -0.08571169
0.11914727 -0.16795352 -0.10965627 0.11675043 0.08788832 0.17086999 -0.16974322 -0.1911793
-0.013577775 0.25086442 -0.3069069 0.07701707 -0.07281185 -0.109168835 0.13230783 -0.07329015
0.10868372 -0.11817989 0.0867758 -0.12761372 0.10216578 0.06602996 0.05265233 0.16567886
0.2797936 0.14751203 0.1632906 0.18691425 0.15676598 0.10954738 -0.030678464 0.03426029
-0.036157798 -0.041892476 -0.027062222 0.076986544 -0.088254474 0.045478933 -0.08372965 0.04977925
-0.026840013 0.17538899 -0.30741322 -0.14301881 -0.09685297 -0.089336865 -0.13447058 -0.1386643
0.039819933 0.041687805 -0.21027248 -0.06475578 -0.05728187 -0.008081558 0.03513987 -0.023290653
0.12247231 0.114849515 -0.06375 0.18334858 0.016394926 0.118222445 0.27458677 -0.06320979
0.07226445 -0.05781689 0.36928126 0.03871227 0.14355455 -0.15305264 0.24318844 0.038352843
-0.039550073 -0.22188394 0.04536486 -0.14686461 -0.15202759 -0.03663411 0.038164753 -0.22573513
-0.15051022 -0.16403978 -0.005639673 0.058303885 -0.17063265 0.41736272 0.27177715 -0.2839398
-0.05704034 -0.1932014 -0.1395507 -0.27021018 0.047954343 -0.23002483 0.031814396 0.019723257
0.08643913 -0.18560919 0.102799505 -0.13250963 -0.08499203 -0.064779 0.1468432 -0.23874694
-0.06818126 0.05973674 0.12641543 -0.13310556 -0.20341809 0.07505219 -0.0076193563 -0.0250954
0.04461476 0.2094937 -0.23572855 0.18007624 -0.048934456 -0.06675767 -0.009565452 -0.17609616
0.09570286 0.030249653 0.15179755 0.21296558 0.0804377 -0.0026544533 0.23073715 0.17340697
0.14400306 -0.048088804 -0.18439819 0.14872846 -0.027323049 -0.057383966 0.21761942 -0.31024072
-0.1331284 0.16403864 -0.11058212 -0.13955267 -0.0005341575 0.29408732 0.08888581 0.019952875
0.12544766 -0.05923612 -0.11510973 -0.049723696 -0.07250187 0.21864529 0.13529113 -0.107888155
-0.02031353 0.23439029 0.11251231 0.19654557 -0.07970483 0.025623286 -0.01442849 0.13405898
0.1257608 -0.24805674 0.0017544164 0.10589608 -0.1912528 0.03771289 0.24188305 -0.15640868
-0.023729578 0.01047157 0.052750986 -0.083416 -0.0016355739 0.009276953 0.037117384 0.07908999
0.14789872 0.08845812 -0.20623454 0.015902199 -0.37996206 0.062253688 -0.09431161 -0.29425323
0.19129455 0.38801664 -0.1049388 0.26914954 0.14062014 0.00825621 0.1290234 0.28229547

bias_ih_l0 f4 [128]
00000000: cbc4 85bc 2373 7f3d 787f bb3c 64c5 23bd
00000010: 16ea d1bd 9d0a 363e b43b 093d 859b 14be
00000020: 23a1 60bb 4ac6 123d 16cd 883e e007 153e
00000030: 290d 4f3e 4057 7cbd e817 c53d 63b9 a3bd
00000040: a042 a1bc 7a72 213e e2e6 49bd 520e 143e
00000050: acee bb3d f167 0cbd 4d96 803d de92 49bd
00000060: 2402 103e b87e d73d ccb8 7fbd be68 1d3c
00000070: 8bc0 78bc 382a bcbc ca7c 49bd 4a6b 663d
00000080: fbe6 a03c e69e 81be b271 70be e12b 283d
00000090: abe4 d2bd 3a50 0bbe a43e 79be 8863 dbbd
000000a0: 46fa 35be 1941 2bbd 2025 51be 2561 dc3b
000000b0: 780a 07be e3e0 263e 8b4d 0cbd c024 cbbd
000000c0: bb85 9d3d 2acb 15bd 497e 18be 4438 c23d
000000d0: 51b0 9bbe 32aa 52bd 1d6f 3f3b 297d 04bd
000000e0: 7c72 7abd 1097 1c3e 4982 763d 4d86 a43d
000000f0: 227b ccbc 9d66 87be d482 77be c236 86be
00000100: bdfd 0c3e e534 033e ac17 7fbd d202 0e3d
00000110: e493 e0bd 732f 703b 7e13 cb3d e0fe 2fbd
00000120: ca49 61bd b950 8b3d aa3d 9ebd 015d 463d
00000130: 1a50 c8bd 536d debc 871b 35bd a0fc d7bd
00000140: a55d a0bd ea90 f2bd ddfd 043e 9a26 0bbd
00000150: 3ff3 7d3d a3a5 833d c421 e23d 20ec f6bd
00000160: 15d1 f03d 585d d7bd 19c8 713d b950 ebbd
00000170: a73f c0bd a1fa 043e ae43 ae3c ad26 8ebd
00000180: c9d5 463e 33ea 303d e076 8c3d 7f0b d83c
00000190: 4473 b03d 4bd6 0b3e cae4 863d b3d7 ddbd
000001a0: ef40 dbbd 4e33 d43d cb33 313d 268e b43d
000001b0: df5f 323e dcac 76bd d1fd 0c3e adea cc3d
000001c0: 756a d93d 136a cf3d 08af 253d a10a ed3c
000001d0: 06e1 5a3e a4be 76bb 8655 3d3d fcd3 f33b
000001e0: 2271 55bd b112 103e 0a2c c23d 40ae 47bd
000001f0: 4d2d 003e a1e4 4a3e f137 b23c ce19 173d
-0.01632919 0.062365662 0.02288793 -0.03998317 -0.102497265 0.17777486 0.033504203 -0.14512451
-0.0034275732 0.035833634 0.26718968 0.14553785 0.20219864 -0.061606646 0.096237004 -0.07994344
-0.01968509 0.15766326 -0.049292453 0.14458588 0.091763824 -0.034278814 0.062786676 -0.04921233
0.14063317 0.105222166 -0.062432095 0.009607492 -0.015182625 -0.02296935 -0.049191274 0.056254663
0.01964139 -0.25316542 -0.23480871 0.04105747 -0.10297521 -0.13604823 -0.24340302 -0.107123435
-0.17771253 -0.04181013 -0.20424318 0.0067254477 -0.13187587 0.16296725 -0.03425364 -0.09919119
0.07691523 -0.036570705 -0.14891924 0.09483388 -0.30407956 -0.051431842 0.0029210516 -0.032345925
-0.061144337 0.15292001 0.060182843 0.08033428 -0.024961058 -0.26445475 -0.24171 -0.26213652
0.13768668 0.12813146 -0.062278435 0.03467066 -0.10965708 0.0036649376 0.09915827 -0.042967677
-0.05500201 0.06802506 -0.07726605 0.04842854 -0.09780903 -0.02715174 -0.044215705 -0.10546231
-0.07830361 -0.118440464 0.12987466 -0.03397236 0.061999556 0.06428077 0.110415965 -0.12056756
0.11758629 -0.10515851 0.05902872 -0.11490006 -0.09387141 0.12986232 0.021272507 -0.069409706
0.1941749 0.0431921 0.06858611 0.02637267 0.08615735 0.13655965 0.06586607 -0.10832157
-0.107057445 0.10361348 0.043262284 0.08816175 0.17419384 -0.060223445 0.13768698 0.10005698
0.10616008 0.10127654 0.040450126 0.028935732 0.21374902 -0.0037650252 0.04622414 0.007441042
-0.052109845 0.1406963 0.09481056 -0.048750162 0.12517281 0.19813778 0.02175519 0.036889844

bias_hh_l0 f4 [128]
00000000: f14b 78bd bf91 9a3d f620 e3bd e7d4 f83d
00000010: 7813 293d e16c 87bd f18f 8bbd f3df 043d
00000020: b657 a73d 158c 4d3e d2e6 2f3c 09a9 a93c
00000030: 20d8 13bd 173f 6e3e 7115 0c3e 32d1 a43d
00000040: 716c dabd 28d4 193e 9976 14be 9e6e cd3d
00000050: ff2f 753e bbf3 153e 0702 bb3d a329 773c
00000060: 6a3c 2d3d ec82 b83d be3b 363c 3ee2 a7bd
00000070: 9b43 c6bd ed59 04bd a486 a63c 2800 da3d
00000080: 8f8d 8dbd 8586 68be 8acb 3c3b 890c 29be
00000090: d751 523e d680 db3c 00d7 d1bd 6fff 80be
000000a0: 3aaf d6bd 2bc5 c8bd 89c1 3dbe 3715 5fbd
000000b0: d4e3 09be 2bea 86bc ffd7 923d b906 49bd
000000c0: 46b4 5cbd 2401 d6bd a1eb f6bd 9f0d b1bd
000000d0: 6304 24be 795e 5bbe a46d 61be 3120 77bd
000000e0: 308a 87be 1072 1fbe 8bfe 45be 0be7 a03c
000000f0: 7bd5 59bd 822d fabc 9183 e0bd 0ec9 203d
00000100: e810 15be 6204 10be c1c6 dc3d d5b4 abbc
00000110: 1888 163e 2266 133d cc24 b2bd 048c 803b
00000120: dba6 b03d aaa8 d1bc 1a1f 4f3d 6299 863d
00000130: c1c9 a93d 32f1 203d 85b1 f9bd d419 273d
00000140: 19d3 6f3c 7ed9 fd3d fb98 623d 5868 24be
00000150: 8882 c2bd 5ddb 7a3b 0660 08be 1592 023e
00000160: 14a0 f7bd e5c0 fc39 2aef 7d3d e7f6 60b8
00000170: fdc9 a8bd 5c5a 18be 89bc 56bb 0caa 0d3d
00000180: ba11 a23d 13c7 353e 803a b3bd ece2 813e
00000190: c434 3d3e 0ca1 233d 5f65 873e 3c20 4f3e
000001a0: 6dec 24be cafc 003e ddad 913e eb03 293e
000001b0: f3d3 3e3e 3e26 083e 20b0 6b3d a005 dd3d
000001c0: f349 ff3d 3178 11bd e909 153e 5ca5 c1bd
000001d0: 540a 353e 65d3 3f3e 7cc0 4a3e 1564 0f3e
000001e0: cef9 0a3e 4e46 ee3d 003f 163e 5e45 2ebd
000001f0: ca91 88bb ca37 453e a2c6 473d f354 733e
-0.0606193 0.0754733 -0.11090271 0.12149983 0.041278332 -0.06612564 -0.06814564 0.032440137
0.081710264 0.20072968 0.010736184 0.020710485 -0.036094785 0.23266254 0.13680054 0.08047713
-0.10665215 0.15022337 -0.14498366 0.10030864 0.2394409 0.14643757 0.09131246 0.015085611
0.042293943 0.09009346 0.011122642 -0.08197449 -0.096808635 -0.032312322 0.020327874 0.10644561
-0.06911766 -0.22707565 0.0028807842 -0.16508688 0.20539032 0.026794832 -0.10246086 -0.2519488
-0.104826406 -0.09803232 -0.18530859 -0.05446359 -0.13465816 -0.016469082 0.07170104 -0.049078677
-0.05388286 -0.10449436 -0.120566614 -0.08645176 -0.16017298 -0.21422757 -0.22014481 -0.060333434
-0.26472616 -0.15570855 -0.19335382 0.01964142 -0.053182106 -0.030539278 -0.10962594 0.03925424
-0.1455723 -0.14064172 0.10780097 -0.02096025 0.14700353 0.035986073 -0.08698425 0.003922941
0.08625575 -0.02559312 0.05056677 0.06572224 0.08290435 0.03929252 -0.12192062 0.040796116
0.014637732 0.12394999 0.055321675 -0.16055429 -0.09497553 0.0038277723 -0.1331788 0.12751038
-0.12091079 0.00048208903 0.061995663 -5.3635707e-05 -0.08241651 -0.1487822 -0.0032766184 0.034585997
0.07913537 0.17751722 -0.08751392 0.2536844 0.1847716 0.03994851 0.26444528 0.2022714
-0.16105814 0.12596431 0.2845296 0.16505401 0.1863554 0.13295838 0.057541013 0.107920885
0.124652766 -0.035515014 0.14554562 -0.09455368 0.17679721 0.18732984 0.1979999 0.14003022
0.13571855 0.11634503 0.1467247 -0.042546622 -0.00416777 0.19259563 0.048773415 0.23762874

weight_ih_l0 f4 [128, 2]
00000000: 26f0 d73d abf4 a23d f9f3 e73b 357a 943d
00000010: 209e 183e a83c 183c cfab 0fbe 5452 993c
00000020: 78e2 89bd 2a74 92be c5ab a83d 10fe 1c3e
00000030: af67 dcbd 806c f93d 2c8c 87be dceb 26bd
00000040: 89d0 ed3d 6354 1abe cedf 0abe eb79 123d
00000050: ed8c 86bd 20e2 f53c 9d1f 0f3e 689f 63bd
00000060: a6d4 b43c 5e5f 71be c890 4fbd 372c 9dbc
00000070: 69c5 5ebe d5e0 923d 37a0 94bd c791 663d
00000080: 2ffb 2dbe 9187 2b3e 1e00 0c3d 9ee4 8c3e
00000090: 645d 8d3d 459d 763e f0d7 fb3d 20c7 0f3e
000000a0: 72a7 8f3e 97c8 c0bc a978 2e3e d69a e03e
000000b0: 30be 283e ac61 973e b2ab dcbe b0ee 203e
000000c0: 809e 56bd 6ce9 213d 31df 693d dedd 1bbe
000000d0: b8aa e2bc 3c23 633e 34f8 82be 67e8 0abe
000000e0: 3e2d a4bd 2f45 e5bc 8fb3 993d b386 a73e
000000f0: c27c 963e 5619 1ebd 7473 88bb 7918 99be
00000100: 0d6f 993c 1b18 30be a697 a8bd f4b7 6cbe
00000110: e536 6f3c 7380 863c b9e3 d33d 5abb 823e
00000120: 3c06 7e3e cdc8 013d 7ac1 a7be 4edf 3b3e
00000130: cf34 04bf e364 4a3d b898 8e3e 695a d53d
00000140: 7b84 a4bd b661 c4bd 1e46 40bb 685d 96be
00000150: 3f89 efbd 6f15 e1bd fa8d 29be 32f1 063e
00000160: 9631 b3be 876d 6abd 0e22 be3e 1237 c43e
00000170: 5f78 4dbe 47ac 73be a10d df3d 8c44 3b3c
00000180: 8637 d93d da09 66bc f627 edbc 0e35 73be
00000190: fc11 163e b1b9 0d3f 423b b8be b892 e83d
000001a0: 13c3 a6be 3b66 2dbe 48bc 413e 8eb5 283e
000001b0: 787d 8c3d b874 ce3e 1565 94bd 5ae1 fdbe
000001c0: 98ae 89be d94a 39be 5be8 563e 4726 a93d
000001d0: a51e 443e 6600 32be 0ccf f2bd b7cb 853e
000001e0: 843d 1e3d 8809 9bbe 85d9 38be 75e9 043f
000001f0: 77c8 7c3e 24f8 5bbd b173 2b3b 249c 8e3e
00000200: fc50 f4bc 35be 5b3e 5dd6 67be 7c4d 9fbe
00000210: f13a 69be f86c 82be 57db b7bd b8b5 9bbe
00000220: c114 8dbe 5bb5 433e 8f21 1e3e 4fa7 bdbe
00000230: e126 42bd 437e b3bd a931 913e 4b4a f0bd
00000240: 8c05 083f 8021 3c3e f809 05bc d1f3 213f
00000250: de3c 883e deed d73e 97d9 f5be f6d8 803e
00000260: 1f87 98be 3eb1 f6bc 5154 783e b4b3 4f3e
00000270: d009 a2be 4865 d7be 50e0 a8be 468a 483e
00000280: 7601 0a3d 3e7a 243e 0a3c dfbe 8b87 a53e
00000290: 6534 223d 3b15 ea3e 5408 823e 848b ebbd
000002a0: 3c05 84be cedf 02bd a079 d1be 4d29 853e
000002b0: 74ce d3bd 9090 debe 1515 bc3d 8113 30bd
000002c0: 6aaa 5b3e f512 713e da94 12be 45ed 873e
000002d0: 67fc 05bf 3cc3 7c3e 52d8 8a3e 2a88 273e
000002e0: e863 c83e 00db 533e 45ce 1d3e 297a 6c3d
000002f0: 995d 853e 5e7d 2c3e e7a4 11be ef87 babe
00000300: 2a3a cebd 4837 20be d0a5 f03d b583 b73c
00000310: 9d1e e63d 8621 acbd d0ed 593e ac32 cc3d
00000320: 18c5 8b3c cda7 5abe 7f39 55be aa24 4b3e
00000330: f815 a1be 2ff6 12be 1314 82bd 01bc c4bd
00000340: 5f25 75bd 6327 b83d bc09 54be 7f8b b3be
00000350: bdc4 c13d 8a5c 03bd 4a8c 043e 5f6b 1bbd
00000360: c971 9d3e 68aa 0d3e d6b0 343e 3d19 6c3e
00000370: 35b3 08be 83c0 053e c18f 953c 7b48 8dbc
00000380: 2bc9 90bd 6967 d63d 5420 8abd b074 19be
00000390: 1dd9 d8bc 85be 75bd 50d6 4c3e 80d7 8f3e
000003a0: 22a1 9b3d aeaa abbd 8eda d6bb a414 e33e
000003b0: 30f3 253e d3b4 463e efc8 1cbe c902 8bbe
000003c0: d1f2 2e3e e1b5 833d 3093 073e 9984 4dbe
000003d0: 77e5 1b3d b42b 31be fdb3 0f3d 4a1d a23d
000003e0: 1d79 25bd f08b 8fbd 491b debd e850 773e
000003f0: 5445 243e a1b3 06bd 8885 083e d24c 5dbe
0.105438516 0.07956823 0.0070786444 0.07249872 0.1490407 0.009291805 -0.14030384 0.018716015
-0.067326486 -0.2860425 0.082358874 0.15331292 -0.107619636 0.12178898 -0.2647413 -0.040752277
0.116120405 -0.15071253 -0.13561937 0.0357608 -0.06569848 0.030015051 0.13976903 -0.055571944
0.022074055 -0.23571536 -0.050675184 -0.019186122 -0.21754993 0.071717896 -0.07257121 0.056291368
-0.1699035 0.16750933 0.0341798 0.2751817 0.069025785 0.24083431 0.12297046 0.14040804
0.28057438 -0.023533149 0.17038216 0.4386813 0.16478801 0.29566705 -0.43099743 0.15716052
-0.05239725 0.03952925 0.057097618 -0.15221354 -0.027669296 0.2218141 -0.2557999 -0.13565217
-0.08016442 -0.02798709 0.07504951 0.32719955 0.29392058 -0.03859838 -0.0041641537 -0.29901484
0.018729711 -0.17196696 -0.0823205 -0.23117048 0.01460049 0.016418671 0.10346169 0.25533563
0.24807066 0.03168564 -0.32764798 0.18346903 -0.5164308 0.04941262 0.2785089 0.10417635
-0.08033081 -0.095889494 -0.0029338668 -0.29368138 -0.116960995 -0.10990416 -0.16558066 0.13177946
-0.3499877 -0.05723336 0.37135357 0.38323265 -0.20065449 -0.23796187 0.108912714 0.011429917
0.106062934 -0.014040435 -0.028949719 -0.23750708 0.14655298 0.5536147 -0.3598271 0.113561094
-0.32570705 -0.16933529 0.1891948 0.16475508 0.06859869 0.40323424 -0.07245842 -0.49585992
-0.26891017 -0.18094958 0.20987074 0.08259254 0.19152315 -0.17382964 -0.11855897 0.26131985
0.038632885 -0.3028071 -0.18051727 0.5191873 0.24685846 -0.053703442 0.0026161487 0.278535
-0.029823773 0.21459277 -0.22640367 -0.31113803 -0.2277639 -0.25473762 -0.08977383 -0.30412078
-0.27554896 0.1911215 0.15442489 -0.3704171 -0.04740036 -0.08764317 0.283582 -0.1173292
0.53133464 0.18372154 -0.0081200525 0.6326266 0.26608938 0.42173666 -0.4801757 0.25165528
-0.2979059 -0.030113813 0.24250914 0.20283395 -0.3164811 -0.4206946 -0.32983637 0.19583997
0.0336928 0.16062257 -0.43600494 0.32329974 0.03960075 0.45719323 0.2539698 -0.1150122
-0.25785244 -0.031951718 -0.40913105 0.26008072 -0.10342112 -0.43469667 0.091837086 -0.04298735
0.21451727 0.23542388 -0.14314595 0.2654821 -0.5233826 0.24683851 0.27118164 0.16360536
0.39138722 0.2068901 0.15410717 0.05773369 0.26047972 0.16844699 -0.14223062 -0.36431834
-0.10069688 -0.15646088 0.11750376 0.02240167 0.11236308 -0.084048316 0.21282125 0.099706024
0.017061755 -0.21353073 -0.20822714 0.19838205 -0.31462073 -0.14351724 -0.06351485 -0.096061714
-0.059850093 0.089918874 -0.20706838 -0.35067365 0.09461353 -0.032070674 0.12944141 -0.037944194
0.30750874 0.13834536 0.17645583 0.23056503 -0.13349612 0.13061719 0.018257024 -0.017246475
-0.0706962 0.10468943 -0.06744447 -0.14985919 -0.026470715 -0.059996147 0.20003629 0.280941
0.07599093 -0.08382164 -0.0065568155 0.44351685 0.1620605 0.19404916 -0.15311025 -0.27150562
0.17084815 0.06431175 0.13239741 -0.20070113 0.03806063 -0.17301828 0.03508376 0.07915743
-0.040398706 -0.07009113 -0.10845048 0.24151957 0.16042072 -0.03288615 0.13332188 -0.21611336

weight_hh_l0 f4 [128, 32]
00000000: 34ae 71bd 34ca 853d 8440 07be 4a40 623d
00000010: 03d1 4f3d f210 6fbd 72c1 23be 4d3a 56bd
00000020: bb6c 32be ad97 43bd ea12 c43d 072c 443e
00000030: 074f 0f3e 7c43 233e c61b 85bd 069b acbd
00000040: eac2 da3d a0ca c23b 8c9c 873e 484c cabd
00000050: 31c8 ca3d 55d1 24be 3d48 94be dfdb d53d
00000060: d96a 6bbe 825a 7f3e c917 31be 353d 263e
00000070: b0d3 e93d e4a5 2abe 1a4d debd 38f6 cabc
00000080: 6172 a93c c647 f6bd 0b01 aabe 0b96 15be
00000090: 2feb 033e 4a72 b33b 0519 8cbe 8220 6dbd
000000a0: 6316 443e 7a5c 3f3e 61dc cc3e 7df0 f53b
000000b0: c40b 9abd 3d39 e03e a580 efbc ff2d 12be
000000c0: d066 a33d aa63 233e 7401 ba3e 07a1 bf3d
000000d0: 1a27 273e 2f7b 7abe 1894 95bd 6ae6 133e
000000e0: 1dea a63d 12f0 fcbc eee9 1ebe 6f4b 3cbc
000000f0: 0ee2 813d eb59 413d 2176 e63d f680 ddbe
00000100: a61f e2bd a926 663e 7501 113e 2278 4bbd
00000110: 0c8c 83be c1d0 fbbd f846 06be a5e6 863d
00000120: 897c 17bc 4103 7dbe d8bd 2cbe 46c3 af3c
00000130: 7ed0 c23d 51f1 d43e d863 783e d6cf b0bc
00000140: 8895 7c3d 522b fc3c 1e50 6d3c 1d39 83be
00000150: 3d22 8e3d 3010 12be 658c f5bd c3e2 573e
00000160: d11d 8dbe 1727 893c 7dd2 81be df7c 4f3e
00000170: 3169 7cbe e3bb 09bd 6856 623e cfba ffbe
00000180: 9e2e 143e 1a25 9dbd 0e4c 9d3d 050b 72bd
00000190: c2ea 9d3d 3e26 a43d a5e7 4d3e b493 1d3e
000001a0: 4295 d93e e561 1d3e f54b ae3c b3bb a83c
000001b0: 8d3f 973d d832 64bd 686f 95bd a3b4 b4bd
000001c0: f52a ebbd c2ac 88be 86c4 2dbd d932 b0bd
000001d0: 818c 9bbd da08 173e 30e9 933d ffad ddbc
000001e0: 6553 983c 658a 813e 7475 bdbd 51ba 933e
000001f0: bffa 9e3b ee37 1abe b9fc 3d3e be33 d7bd
00000200: 62dd 80be c7d5 b73d 2c38 1f3e 5ea3 653e
00000210: 7c99 e2bd c0de e43e 81fc a73e 68d8 973d
00000220: 9625 903e a29c 643a 33af 78be 0ed4 88bd
00000230: a93a 96bd 3a17 f03d aec9 913e 2fa6 55bd
00000240: 89a3 b3be 83ac 25bf 7cbc 82be b19a 263e
00000250: d841 9d3d b8c1 253d 0636 fa3e fc23 26bd
00000260: f5bc 42be c1a3 ca3d 1a07 d7be 6ca0 333e
00000270: cec6 08be 9e95 0c3e a35c bc3d dd52 c13d
00000280: 4436 a7bd 605a a2bd 29ad 9abe 4321 69be
00000290: 434b 053e 3d02 0c3e 59a6 16be f07b 883e
000002a0: 8d51 bb3e 4b38 a1be 5250 93bd 1aff 963e
000002b0: b92a bd3d ad40 333d 533a 473e e078 19be
000002c0: 5880 6cbe 6d33 fdbd f8c1 8fbc a77a e53d
000002d0: a764 bcbd 199d 7bbe 3d4d 1dbe ac43 6a3e
000002e0: 933a e13d ce7e 893e cbcf edbc 98c8 9d3e
000002f0: 3998 01bd 3c4c aabe f43b e13e 08d3 e3bd
00000300: 5365 973e 993b 7cbe 8272 bdbe ff29 69be
00000310: ed6f 493e 39b5 7abe 9b90 5a3c 80b9 363e
00000320: 977e 923e 4099 813e af3b db3e f226 58bc
00000330: 83da 03be bab4 933e a0cd e2be 7eb3 34be
00000340: 4354 da3c 315d 863e 09b2 a93e 2c80 a2bc
00000350: 0a0c 1c3d 1155 893e 6a4a d6be 9069 e2bb
00000360: d03a 3c3e f030 573d 5a1b 60be 070a 14bd
00000370: 6aed cf3e ff88 26be a112 fb3c 3251 6ebd
00000380: 2e66 593e 2a74 0e3e cd03 d83e 8c84 523d
00000390: d4ed 4b3e d119 c3be 79c4 6d3e b997 4abd
000003a0: c0fc 1fbf 5c88 f2bd 0ae3 98be 73f9 9b3e
000003b0: 6c19 3a3f 51ff 08be 74ff 9d3d e958 853e
000003c0: b012 023e 02e4 a53e b4f4 16be cf07 00bc
000003d0: 1d48 1e3d 77c5 bd3d aaf3 50bd 80a6 1abe
000003e0: 2975 aa3c c6b5 1abd 1c5e ef3e eeaf ef3d
000003f0: ed79 2bbe 8a9c 6b3d d5c6 afbc 5419 d53d
-0.059004024 0.06532708 -0.13208205 0.055237092 0.05073644 -0.05836577 -0.15991762 -0.052301694
-0.1742429 -0.04775207 0.0957392 0.1915742 0.1399499 0.15943712 -0.06499438 -0.08428006
0.10681708 0.005944565 0.26486623 -0.09877831 0.09901465 -0.16095479 -0.28961363 0.10442328
-0.22989978 0.2493687 -0.1729423 0.16234286 0.11417329 -0.16664845 -0.1085455 -0.02477561
0.020684423 -0.120254084 -0.3320392 -0.14608018 0.12882684 0.005476271 -0.27362838 -0.05789233
0.19149165 0.18687621 0.40011886 0.007505475 -0.07521775 0.4379367 -0.029236147 -0.14275359
0.07978594 0.15955988 0.36329234 0.093568854 0.1632351 -0.24461053 -0.07303637 0.14443365
0.08150122 -0.030876193 -0.15518925 -0.011492594 0.06341945 0.047204893 0.11253 -0.43262452
-0.11041193 0.22475685 0.14160712 -0.049675114 -0.25692785 -0.12295676 -0.1311301 0.06586961
-0.009246 -0.24708273 -0.16869295 0.021455418 0.09512423 0.4159036 0.24256837 -0.021583479
0.06166604 0.030782375 0.014484433 -0.2562951 0.06940124 -0.14263988 -0.11989669 0.21082596
-0.2756181 0.016742272 -0.25355902 0.20262478 -0.24649502 -0.03362645 0.22103274 -0.4994721
0.14470908 -0.07673092 0.07680522 -0.05909254 0.07710792 0.080151066 0.20107897 0.15388376
0.42496687 0.15369375 0.021276454 0.020597314 0.07385168 -0.05571255 -0.0729664 -0.08823516
-0.11482803 -0.26694304 -0.042423747 -0.086034484 -0.07595158 0.1474947 0.07222211 -0.027060507
0.018594453 0.253009 -0.09250918 0.28853086 0.0048516686 -0.15060398 0.18553437 -0.10507916
-0.25168902 0.08976322 0.15548772 0.22425601 -0.11064431 0.44701195 0.32809833 0.07414323
0.28153676 0.000872085 -0.24285583 -0.06681071 -0.07335407 0.1172318 0.28474182 -0.05216044
-0.35085705 -0.64716357 -0.25534427 0.16269948 0.07678574 0.040467948 0.48869342 -0.04056166
-0.19017394 0.09894515 -0.41997606 0.17541665 -0.13357088 0.1372895 0.091973566 0.09439633
-0.08164647 -0.07927394 -0.30210236 -0.22766595 0.13016991 0.13672729 -0.14711894 0.26657057
0.36585656 -0.3148826 -0.07193054 0.29491502 0.09236664 0.04376285 0.19455843 -0.14987516
-0.23095834 -0.12363324 -0.017548546 0.11205035 -0.091988854 -0.24571647 -0.15361495 0.22877377
0.109975 0.26854557 -0.029029747 0.30817103 -0.03163931 -0.33261287 0.43991053 -0.111242354
0.29569492 -0.2463211 -0.37001425 -0.22769926 0.19671603 -0.24483193 0.013340141 0.178442
0.28612205 0.25312233 0.42818972 -0.013192879 -0.12876324 0.2884882 -0.44297504 -0.17646596
0.026651507 0.26242974 0.33143643 -0.019836508 0.03809742 0.26822713 -0.41853648 -0.0069095567
0.1838181 0.052536905 -0.21885434 -0.036142375 0.4061082 -0.16263197 0.030648531 -0.058182903
0.21230385 0.139115 0.421904 0.051395938 0.19914943 -0.38105634 0.2321948 -0.0494611
-0.6249504 -0.11842415 -0.29860717 0.30463752 0.7269504 -0.13378645 0.077147394 0.26044396
0.12702441 0.3240052 -0.14741784 -0.007814362 0.03864299 0.09266179 -0.051013626 -0.15102577
0.02080782 -0.03777101 0.46751487 0.11703478 -0.1674573 0.057522334 -0.021457115 0.104052216

bias_ih_l0 f4 [128]
00000000: 5628 b8bc 3a2e 7abd ef49 d03d 0836 b73d
00000010: 6c3f 793c 2b25 1e3e 9d75 253e c549 c2bd
00000020: 6ac9 313d c2a5 103e 39a8 78bd e488 d2bd
00000030: 6e81 283d b339 383e 6a02 29be 2635 fd3c
00000040: 8c97 863c 08a3 363e 63b8 8b3e 0f89 39bd
00000050: a495 4a3e c49f 81bd 47cd cebd 5876 bcbd
00000060: b4c3 1abc cb79 19bd e32b fc3d f673 e43c
00000070: 7a1d 023e b4a8 9e3d fb26 703e ffd8 903d
00000080: 0c06 2c3e ed3e 05be 2beb fbbd 2dd9 fcbd
00000090: 34fb e93c 1d0a e53d 8c50 b43d 52ef 723e
000000a0: 8848 4f3e 91e7 a43e 9c5c be3d 2a88 6f3e
000000b0: 4da4 bcbd 8c62 243e 565e acbc 6b7d 89bd
000000c0: aabf 57bd b9aa 8e3e c94e 973e 0fc8 203e
000000d0: c236 0b3e a728 f83d d3c1 e7bd f92c 1d3d
000000e0: 8879 f1bc 1872 bc3d a9f2 213e 466e 523e
000000f0: dad3 28be ac01 cf3d 2de7 4f3c 8247 ac3b
00000100: c471 54be f351 813e 8285 2d3e fdaa 0ebe
00000110: b91f f83d 2761 81bd 619b 393e e401 4e3e
00000120: e19d b73d ea9c 20be 6fcd 9f3e 31c1 6a3d
00000130: c77a 193e c418 b93e d762 003e c81c 8ebe
00000140: 0f1e cebe 9da0 e7bd 5266 a73e c427 a1bd
00000150: 5460 4f3e c865 93be 455e a3bd 7108 873e
00000160: a345 98be 7afb 253d fdc2 0b3e 18f7 a23d
00000170: 27f6 d3be 38d2 fcb6 d2e9 07be 8dfa 1abf
00000180: defd a0bb ebab 2c3e 9da0 653e 7ff7 f33d
00000190: 6d75 2a3e 8ea1 7b3e fe3f 833e 6cc4 d33d
000001a0: 528e 853d 34d5 a63e 1752 963d 4ba5 ddbd
000001b0: 5215 7cbd 6971 6e3e d8a1 983d 528c 793d
000001c0: e029 013e 4f5a 27bd c8a0 793e 1df3 013e
000001d0: ba52 dcbc 01f7 f73d a509 123d 5f12 c3bd
000001e0: 7c62 653e c7d8 233d 8f4f ae3e 5ad5 37bd
000001f0: 54e1 adbd 3aff 2a3d 1786 383e 0648 c1ba
-0.022480171 -0.06107924 0.10170352 0.089458525 0.015212875 0.15443866 0.16158147 -0.09486727
0.043404974 0.14125732 -0.060707305 -0.10280016 0.04113906 0.1799076 -0.16504827 0.030909132
0.016429685 0.17835629 0.27289113 -0.045296725 0.19783646 -0.06329301 -0.10097747 -0.0920226
-0.009446073 -0.037469666 0.12313058 0.027887326 0.12706557 0.07747021 0.2345237 0.07072639
0.16799182 -0.13012286 -0.12300714 -0.123461105 0.028562166 0.111835696 0.088044256 0.23724106
0.20242512 0.3220792 0.092950076 0.23391786 -0.092110254 0.16053218 -0.021041077 -0.06713375
-0.05267302 0.27864626 0.29552296 0.15701316 0.13595107 0.12117129 -0.11316266 0.038372967
-0.029476896 0.09201449 0.15815224 0.20549878 -0.16487065 0.10107741 0.012689394 0.005257548
-0.20746523 0.25257835 0.1694546 -0.13932414 0.121154256 -0.063173585 0.18125679 0.20117909
0.0896566 -0.15684858 0.3121142 0.057313148 0.14988242 0.36151707 0.12537704 -0.27756333
-0.40257308 -0.113099314 0.32695252 -0.07868913 0.2025159 -0.2878859 -0.07976965 0.26373628
-0.2974063 0.04052303 0.13648601 0.07957286 -0.41398737 -7.534658e-06 -0.13272789 -0.6053856
-0.004913076 0.16862457 0.2242455 0.119124405 0.16646357 0.24573347 0.2563476 0.10340199
0.06521286 0.32584536 0.07339876 -0.10822543 -0.06154377 0.2328545 0.07452744 0.060924836
0.1261363 -0.04085761 0.2437774 0.12690397 -0.026894916 0.12107659 0.03565373 -0.095249884
0.2240085 0.040001657 0.34045073 -0.044881202 -0.084902436 0.04174731 0.18019901 -0.0014746196

bias_hh_l0 f4 [128]
00000000: 3684 533e c82b 4b3e 29a0 023d 6cc2 a2bd
00000010: ecbc df3d 22ee 773e 1d28 aebd 5504 173c
00000020: 1f06 fa3d 7882 5a3e 6ad0 133e 6ffe d83d
00000030: 39b9 2a3d d2bb 413e ff8d 833d 34e7 a73d
00000040: a3ca 0dbd 073b cb3d 5708 3b3e 57d9 b8bd
00000050: 47c5 4f3e a1fe 3c3d 820c 463e 9978 29be
00000060: f779 eebd e90b f7bd 33f0 b23d 70da 8bbd
00000070: e693 1c3e 073d d03d a0ea bf3d 2d2e cc3d
00000080: 5d61 0a3d fa24 ba3d b492 703a 5715 9cbc
00000090: 8ca3 1f3d 4367 61bd dd9d 0fbd 0afb 57bd
000000a0: 818f 72bd 64d3 123e d65b 3e3c 283d 033e
000000b0: 3dc5 563d b2ca 313e a7be 35be cd71 10be
000000c0: 1e5f 723c 13f6 973c fb21 1a3e 2d28 f7bc
000000d0: 3b70 033e 3e6c 353d d3bc 013d f1a4 dfbd
000000e0: e835 a5bb 6e34 0c3e 0c10 8d3d 3b7d 5cbc
000000f0: 2f89 093d 83c4 babd bdd2 dabd 4295 3a3e
00000100: 10d3 e6bc c281 8a3e 27c3 9dbc 0663 d9bd
00000110: 4b52 473e 0e64 87be 3df2 bbbc 4f52 4d3e
00000120: ce2d 2fbe d2c7 863d 7ab9 723e b397 283e
00000130: 055b e33d 8869 de3e dadf d13d abe3 2ebe
00000140: c399 a0be b0e1 6d3d 7132 333d 9c97 9e3c
00000150: 3e78 7f3e f91a 7cbe ae3b 543d 0432 4c3e
00000160: c7d9 6ebe bdaf 863e 39ad 8abd 6603 c43d
00000170: bc0d 10bf 8b5e 1ebd 6507 bd3d 7bf2 48bf
00000180: 52d9 843e 2311 143e db3c fd3d 9db9 16be
00000190: 2419 dcbb 6a92 843e 5eca 393e 9e60 353e
000001a0: 50c5 dd3d 2459 ad3e 569c 983c 1c1b b3bd
000001b0: 57cd 5bbd c970 bc3d 0ba3 0f3e eaea 263e
000001c0: bc67 8c3e aa96 8f3c 36c9 b23c e7c5 e53d
000001d0: b97a 34bd ae6c 8dbd f945 203e 2e20 443e
000001e0: c1a2 ca3d 88d0 293e e6e0 033e fbe3 0f3e
000001f0: 2d30 433e 3d1b df3d c814 d73d 9281 813d
0.20655903 0.1984092 0.031891022 -0.07947239 0.10924706 0.24211934 -0.08503745 0.009217341
0.12208199 0.21338832 0.14434972 0.10595404 0.04168055 0.18919304 0.06423568 0.08198395
-0.034617078 0.09923368 0.182649 -0.09025829 0.20290099 0.04614127 0.19340709 -0.1654991
-0.11644357 -0.120628186 0.087372206 -0.06828773 0.15290794 0.1016789 0.09370923 0.09969745
0.03378426 0.09089084 0.0009177134 -0.019053144 0.03897433 -0.05503012 -0.03506266 -0.052729644
-0.059218887 0.14338452 0.011618575 0.12816298 0.052434195 0.17362478 -0.1774851 -0.14105912
0.0147931855 0.018549955 0.15052025 -0.030170524 0.12835781 0.04429268 0.031674217 -0.10920132
-0.0050418265 0.13691875 0.06887826 -0.013457592 0.033578094 -0.09119513 -0.106847264 0.18221
-0.028176814 0.27052122 -0.019258095 -0.1061459 0.19464986 -0.26443523 -0.022942657 0.2005093
-0.17107317 0.065810814 0.23703566 0.16464119 0.11101345 0.4343989 0.102477744 -0.17079036
-0.3136731 0.05807656 0.043749277 0.019359402 0.24948213 -0.24619664 0.051814727 0.19940954
-0.23325263 0.26305953 -0.06771321 0.09570961 -0.56270957 -0.038664382 0.09229926 -0.78494996
0.25947052 0.14459662 0.12365123 -0.14719243 -0.006716864 0.25892955 0.18143603 0.17712638
0.1082865 0.3385707 0.018629234 -0.08745405 -0.053662624 0.092011996 0.1402704 0.1630055
0.27422893 0.017527897 0.02182446 0.112193875 -0.04406235 -0.06905495 0.15651692 0.191529
0.09894324 0.16583455 0.1287876 0.14051811 0.19061346 0.10893867 0.105020106 0.06323542

weight_ih_l0_reverse f4 [128, 2]
00000000: d110 333e 8d1c f63d 7c67 053d d932 933b
00000010: 770c 27be 7e75 74be 4d31 963e d0f6 803e
00000020: 93e0 0bbe 0b5a 6bbd cc36 39bd 86fa 26be
00000030: 9f1c 77be 0cae dfbe a24c 883e 4b8d cebe
00000040: 28e4 7f3e f70a 57bf 5d34 98be b9c3 bd3e
00000050: 7820 cbbe fc60 953e 09ab b73e 9ad1 0fbe
00000060: 0e04 d3be 45bd b4bd d195 f2be 01ed babd
00000070: 204a 223f 1d34 ecbe 16a6 d03e 63b8 f23d
00000080: 5616 a8bd fe31 febd 89a4 4e3e 5ff2 fb3e
00000090: bb13 483d 7215 78be 9e5e c73d bfcf 243e
000000a0: ef3b f1bc 7a86 2e3e 62be fc3e 76fd b93e
000000b0: 89ce 36be 2e5f 0f3e 4749 cabd b9af 84bd
000000c0: 7f72 64bf 2a3f adbd 5a33 29bf 1a06 bdbe
000000d0: 7ebe 00bf d709 62be 6aee d1bd 3d80 393e
000000e0: f629 943e 34dc 5bbe 33b6 37be fb4c dd3d
000000f0: b011 36be c47c fd3d f0d9 d9be 57a8 efbe
00000100: eb25 203e 7304 ba3e 92dd 883d 635c 3abd
00000110: 2346 83be 7067 88be 5358 873d aae0 073e
00000120: c251 28be e303 24bd e90c 9b3e f6e8 a0bd
00000130: dd9a d1be af61 c5be 95ee 963e 8bf6 2ebe
00000140: abd6 803e 0c04 bebe eae3 27be e18a 233e
00000150: 989c 143d 1b8f 4e3d 8170 843e 33a9 e1bd
00000160: 5270 27be 1419 6dbd 0142 4cbe 4e24 93bd
00000170: c560 a43e 144d b1be 424a c03e ee9c d63d
00000180: 9a3e e8bc 07af d9bd 18fd 21bd 0b53 e13e
00000190: 9b4a 6dbd b617 22be 27ab 85bd e2c8 f33d
000001a0: f30b 5e3d 1de3 183e 6eae 7f3e c251 ec3d
000001b0: 451e a8bd 658d 96bd 847c dcbe ef4e 3cbe
000001c0: 2be4 dcbe 387b dbbd db78 50be 35ef bfbe
000001d0: d5ad 3bbe 15c5 4cbe 47fc 0b3d 3daa 95bd
000001e0: 47b8 aa3d 5f69 b0bb 505d d8bd 56f4 cf3d
000001f0: 0df4 09be daf2 113e e6e1 133e 785f eebe
00000200: f49f 9bbe 551e 8bbe 47fd 063e 9edd c93e
00000210: 3d45 4f3e 2f09 093e 7b46 a8be 3ab0 67be
00000220: 1f64 5d3e 4baa be3e cb24 843e caab b0bd
00000230: 36ce 94be 45f6 d0be f638 c6be 8998 7c3e
00000240: 5142 8abd af6b 2fbf 0408 34be 1426 ef3e
00000250: 9e86 a93e 77c1 40be c282 dd3e d150 9dbd
00000260: e1a7 b63e 0053 ad3d d953 e83e 3150 dabd
00000270: 649d 153e 1478 cbbe a6d1 813e cd8c 6c3d
00000280: 2594 48bd de90 c33e 97b6 6f3e bd00 373f
00000290: 1ce2 0f3e 1d04 c2be f399 d5be aca1 543e
000002a0: 2333 a5be 21c3 81bd 4106 a6be 6c0e 15be
000002b0: 558b b5be 4e8f 4d3e eec8 4c3e add4 8c3e
000002c0: 0047 04bf c5fb 783e e902 c03e e534 ab3e
000002d0: 2fd4 bcbe 2f4b 33be a414 34be 3d7e 9abe
000002e0: c713 ccbe 1560 7f3e a134 b63e 866f 303d
000002f0: 7f24 823e b821 acbe cf1f ee3d 63db aabe
00000300: 741c 433e d1ec b13d 8633 493d 3354 bfbd
00000310: 5b18 f6bc 924d 65be 477c 7abe c1a9 cfbd
00000320: 43e2 8bbe 2e05 c73d abf2 e0bd 7b13 463c
00000330: 28aa ccbe b789 9dbe b53e c53e 364e e1be
00000340: 6533 debd 036d 38bf e7e2 d8bd 6349 4ebc
00000350: 06aa 67be c892 f23d 277c e53e 2ca5 4ebe
00000360: 3c55 83be 8d24 80be 4200 a1be 47be 0b3e
00000370: 2605 5f3f 7a7d 0bbf fc7a 9d3e 666a a9bb
00000380: 2d95 153e 8928 9abb 4347 213d c27b 323e
00000390: b2a5 22bd a2b4 59bd 8454 353b 43bd 843e
000003a0: 3c4e f43d 2f0c 6ebd 6ee8 983e 7e50 0a3f
000003b0: d0cf 983c 2d29 f6bc 612a 9abe e66b e3bc
000003c0: 55b0 d5be 0a7f 8e3b 0e3c 3fbe 64ea d8be
000003d0: a57a 33bf fffc 1abe b54c 903d ac2d 4d3e
000003e0: 55f5 1f3f be6d a1be 5d42 59be 4de3 26be
000003f0: 58e9 86bd 66f5 073e 2711 29be 2efd 35be
0.17486884 0.120171644 0.032569394 0.0044921455 -0.16313349 -0.23872945 0.2933449 0.25188303
-0.13659887 -0.05745892 -0.045218274 -0.16306505 -0.24132012 -0.43687475 0.26620966 -0.40342173
0.24989378 -0.84001106 -0.2972745 0.37063387 -0.3967321 0.29175556 0.35872677 -0.140448
-0.4121403 -0.08825163 -0.47379926 -0.09127236 0.63394356 -0.4613351 0.40751714 0.11851575
-0.08207385 -0.12411879 0.20179953 0.49208352 0.04884694 -0.2422693 0.09734844 0.16094874
-0.029447524 0.17043486 0.49364 0.36326188 -0.17852224 0.14001152 -0.09877258 -0.06478829
-0.8923721 -0.08459313 -0.6609398 -0.36918718 -0.5029067 -0.22074066 -0.10250552 0.18115325
0.28938264 -0.2147072 -0.17940597 0.108056985 -0.17780185 0.12377313 -0.42549086 -0.4680812
0.15639465 0.3633152 0.06682886 -0.045498263 -0.25639448 -0.26641417 0.066086434 0.13269296
-0.16437438 -0.04004277 0.30283287 -0.07856934 -0.40938464 -0.3855109 0.294789 -0.17086236
0.2516378 -0.37112463 -0.16395536 0.15970947 0.036282152 0.050429445 0.25867084 -0.110186
-0.1635144 -0.057885244 -0.19947053 -0.07184659 0.3210508 -0.34629118 0.37556654 0.10479151
-0.028350163 -0.10629087 -0.03954801 0.4400867 -0.057932477 -0.15829358 -0.06526785 0.1190355
0.054210614 0.14930387 0.24968883 0.115390316 -0.082088985 -0.073511876 -0.43063748 -0.18389486
-0.43142828 -0.107168615 -0.20358603 -0.37487188 -0.1832803 -0.19997056 0.034176137 -0.07307861
0.08335929 -0.005383655 -0.10564673 0.10154025 -0.13472004 0.14252797 0.14441642 -0.46557212
-0.30395472 -0.2717158 0.13182555 0.39426893 0.20241256 0.1338241 -0.32866272 -0.22625819
0.21620224 0.37239298 0.2580932 -0.08626516 -0.29063576 -0.4081289 -0.38715333 0.24667563
-0.0675093 -0.6852369 -0.17581183 0.4670874 0.33110517 -0.18823801 0.43263823 -0.0768143
0.35674956 0.084630966 0.4537647 -0.106598265 0.14610821 -0.3974005 0.25355262 0.057751466
-0.048969407 0.38196462 0.23409496 0.714855 0.14051098 -0.37893763 -0.41719016 0.20764798
-0.32265577 -0.06336046 -0.32426646 -0.14556283 -0.35457864 0.20074198 0.19998524 0.2750601
-0.5167084 0.24314792 0.3750222 0.33438793 -0.36880633 -0.17509149 -0.17585999 -0.30174437
-0.3985884 0.24938996 0.35587028 0.043075107 0.2541847 -0.33619475 0.11627161 -0.33370504
0.19053823 0.08687747 0.049121402 -0.093422316 -0.03004091 -0.22392872 -0.2446147 -0.101398
-0.27321061 0.09717785 -0.10983785 0.012089605 -0.3997357 -0.3076913 0.38524404 -0.44004983
-0.108496465 -0.7204134 -0.10590153 -0.012590739 -0.22623453 0.118444026 0.44821283 -0.20180196
-0.25650966 -0.25027886 -0.3144551 0.13646804 0.8711723 -0.5448834 0.30757892 -0.0051701544
0.14607687 -0.004704539 0.0393746 0.17430022 -0.0397088 -0.05315078 0.0027668783 0.25925645
0.119289845 -0.058117088 0.2986483 0.5402907 0.01865378 -0.030048931 -0.30110458 -0.02776141
-0.41736093 0.0043486403 -0.18675253 -0.42366326 -0.70109016 -0.15135573 0.07045881 0.20036954
0.6248372 -0.3152904 -0.21216722 -0.16297646 -0.065874755 0.13277206 -0.1651045 -0.17772362

weight_hh_l0_reverse f4 [128, 32]
00000000: a220 8abe 3bc7 8e3e 10e6 38bd bec7 14bd
00000010: 9767 123e 6be5 603e 10fe 6cbe 1dd6 b53c
00000020: dc72 09be f366 873e 5870 e33d 460f 6bbd
00000030: b693 0b3e d02e 793e c87d cebd c8a3 923e
00000040: 5d38 103e e0e5 943e ab58 1fbd 7a58 febb
00000050: e76a a5be 3c54 953c 56be fd3d c468 093e
00000060: b1e5 13be 8d31 403e 8967 a5be a2ab a3be
00000070: daba d13d 1ce2 333e 5219 8ebe 6c8b 9e3c
00000080: f80f 10be ade4 353e 8ecf 1b3d 76c4 3c3e
00000090: 8bfa 9dbd cbff 17be 5404 b1bd ec54 8ebc
000000a0: 0c21 40be c016 2e3e 46ad 16be 2153 45be
000000b0: 9f58 523d b21a 15be 457c bfbd e83a 94bd
000000c0: 4939 bfbc b7eb ecbd af59 68bd 866e c43d
000000d0: a9e8 cabd ea84 bf3d ba58 c43d 003f babd
000000e0: 47f5 b1bc 3039 5fbd f608 d93b 4a44 e8bd
000000f0: 27fe b63d abee 3bbd 2433 8e3c 1dc6 603d
00000100: a52d 3e3e cdb9 83be 47b6 f2bd 5b2c 0dbc
00000110: 831c 743e 6487 813e 4404 ee3d 47d5 35be
00000120: 01b6 76bd 9125 4e3c ef23 033f 0dd9 1a3e
00000130: eeff 3a3e 33ab 813e 4410 ed3d b653 893e
00000140: d461 00bf 3add 4ebe ee17 cebc 9afa c3bd
00000150: 8a5c 593d 2d22 40be 78af e63d 3412 85bd
00000160: aff1 59be 05c8 ee3e be6c 19bd d7e4 793c
00000170: 6be4 5b3b b8e9 133d f82c 3fbd 842b 4ebe
00000180: ec5a cebd 6b27 84b9 eda1 873d 60c2 14be
00000190: c2f8 933e 7ca8 68bc c6ca b9be 53cf 5e3e
000001a0: 36e6 c3be 6225 00bd 6484 613d 0399 903e
000001b0: f989 813e 7f56 af3d 21f2 ffbc b066 9f3e
000001c0: 71c7 3e3e 59de 923e dc3c 53be b69e 3fbc
000001d0: 37c1 b7be 4fb6 b23d c510 97be 3b54 fc3e
000001e0: 7adb 9fbe c2f4 dd3e 9f0b 84be 4b58 98bd
000001f0: c27e f93d 11c5 6b3d cb46 03bd 1862 1bbe
00000200: eb17 a53e f159 0ebe 366e 72bb 3902 223e
00000210: 9ebc 16be f3d9 79bd 00ff 7abe fc19 1b3d
00000220: bb57 bebd 0704 44be 648e 023d 9443 8ebd
00000230: b36e 2bbe bf19 b33e 3c7d 6cbe 54d3 1cbe
00000240: 961b c9bd 65a0 89be 9dec 8cbd 17af b43d
00000250: 0fad 9bbc 6971 493e 3b8a 73be ec6e 5e3e
00000260: fa9a a7be 7b86 933e be32 90be aa7b 6c3e
00000270: 1461 c43d 9b4e a93d 0247 68bd 4735 c0be
00000280: d8a0 97bd 49db 0cbe 8294 acbd f8c2 de3b
00000290: 9014 703d f481 693e 6576 9cbd 0270 73be
000002a0: 44a9 b2bd a12c 8ebd b4c6 07bc 73a1 c2bd
000002b0: 78f7 1cbe c904 543e 2e37 a43c ea35 803d
000002c0: c4ca 8fbb 000c f2bd 8ee4 17be 9674 953c
000002d0: 7b96 3f3d 1559 e43d 5ce6 a1be 22b8 b93c
000002e0: e81f c33c 7361 09be 063a 3fbe ea4b edbd
000002f0: ab85 79be b798 a83d 8fd7 0c3e ea7b d93c
00000300: 065c 483f f83b b0be acbb d1bd 74c7 643e
00000310: e22d a2be f1cd a1be bf2b c43e b23c f0bd
00000320: 77c9 dfbb 02b5 09bf 42e5 133e 7751 9f3d
00000330: dcdb d3be 8cce 793d 575f debd dabb 06bd
00000340: 32ed ccbe d7db debe bc9f 9c3d 89b1 553e
00000350: 0836 a63e 9456 f53e 5183 5a3e e90d 7bbe
00000360: 4645 203d 8c68 7fbc 29b2 9a3e 4bb1 953e
00000370: d571 b5bd 5bef 13bf da22 2a3e 2320 453e
00000380: 6832 bf3d 375d 5ebe 2ec2 a63c 78fc c8bd
00000390: 415d 88bc 369c 503e 5e2a 31be 98bc 90be
000003a0: bb15 16bd 47cb c0bd 6c5a a13e 7d44 383d
000003b0: 9aa8 1a3c 66d4 393e 8417 b83d 728e 62bd
000003c0: a3eb 2c3d 0a39 c4bd 4c17 54be 3118 50be
000003d0: ddca d4bd c9d2 a2bb 6ac9 5ebd 7a1f 9c3d
000003e0: e421 0c3e 5a0a b13d e894 c43d 660a 84b9
000003f0: f0a9 00be d881 393d d22d 973c 3f03 1b3e
-0.26978022 0.27886376 -0.04514128 -0.0363233 0.14297329 0.21962516 -0.23143792 0.022196824
-0.13422722 0.26445732 0.11105412 -0.057387613 0.13630566 0.24334264 -0.100825846 0.2864058
0.14084001 0.2908163 -0.03890292 -0.007762012 -0.32308123 0.018228643 0.12389819 0.13418871
-0.14443089 0.18768902 -0.32305554 -0.31966883 0.10240717 0.17566723 -0.27753693 0.01935359
-0.14068592 0.17763014 0.038039736 0.18434319 -0.07713803 -0.14843671 -0.08643404 -0.017374478
-0.18762606 0.17000866 -0.14714536 -0.19269992 0.051354047 -0.14560965 -0.093498744 -0.07237798
-0.023342745 -0.115683965 -0.056726154 0.09591393 -0.09907658 0.09351523 0.09587236 -0.090940475
-0.021723403 -0.054497898 0.0066233827 -0.1134115 0.089351945 -0.04588191 0.01735837 0.054876436
0.185721 -0.25727692 -0.11851173 -0.008616532 0.23839001 0.25298607 0.11621907 -0.1775714
-0.060232166 0.012582199 0.51226705 0.15121861 0.18261692 0.25325927 0.11575368 0.2682168
-0.50149274 -0.20201579 -0.025157895 -0.09569283 0.053066768 -0.18763037 0.11263937 -0.064976126
-0.21283601 0.46636978 -0.03745722 0.015252314 0.0033552896 0.036111563 -0.046673745 -0.20133787
-0.10075936 -0.0002520637 0.06622682 -0.14527273 0.28900725 -0.014200326 -0.36287516 0.21758775
-0.38261575 -0.03128565 0.0550579 0.2824174 0.25300577 0.0856142 -0.031243386 0.31133032
0.18630768 0.28685263 -0.20628685 -0.0116955545 -0.358896 0.08726179 -0.29504982 0.49283013
-0.31222135 0.43350798 -0.25790116 -0.074387155 0.1218238 0.057560984 -0.032049935 -0.15174139
0.3224481 -0.13901497 -0.003699196 0.1582116 -0.14720389 -0.06099887 -0.24511337 0.037866578
-0.09294077 -0.19142161 0.031874076 -0.06946483 -0.16741447 0.3498058 -0.23094648 -0.1531499
-0.09819715 -0.26880184 -0.06881068 0.08822458 -0.01900342 0.19672169 -0.237832 0.21722001
-0.32735425 0.28813538 -0.28163713 0.23094049 0.09588829 0.08266946 -0.056708343 -0.37540647
-0.074037254 -0.13755526 -0.08426763 0.0067981444 0.05861336 0.2280348 -0.076397695 -0.23773196
-0.08723691 -0.06942106 -0.008287121 -0.0950345 -0.15328777 0.2070495 0.020045843 0.06260283
-0.004388185 -0.11818695 -0.1483328 0.01824407 0.04677437 0.111498035 -0.31621063 0.02267081
0.023818925 -0.1341608 -0.18674478 -0.11586745 -0.24367397 0.08232253 0.13754104 0.026548345
0.78265417 -0.34420753 -0.10240874 0.2234171 -0.3167563 -0.31602433 0.38314626 -0.11730327
-0.0068294364 -0.5379182 0.14442924 0.0777921 -0.41378677 0.060987994 -0.108580284 -0.032893993
-0.40024716 -0.435271 0.076476544 0.20868506 0.32463098 0.47917616 0.21339156 -0.24517025
0.039128564 -0.015588891 0.3021405 0.29236826 -0.08859602 -0.577871 0.16614857 0.1925054
0.09335786 -0.21715246 0.020356264 -0.098137796 -0.01664603 0.2037209 -0.17301318 -0.28268886
-0.036641818 -0.09413772 0.315143 0.04498719 0.009439612 0.1814743 0.0898886 -0.055311628
0.04221691 -0.09581192 -0.20712012 -0.20321728 -0.103902556 -0.004968975 -0.054391302 0.07623191
0.13684803 0.086445525 0.09598714 -0.0002518475 -0.12564826 0.045289844 0.018454466 0.15137957
