experiments/pedestrians/models/models_14_Feb_2024_17_26_50_eth_vel_ar3/model_registrar-63.pt (torch, 527902 bytes, 43 tensors)

weight_ih_l0 f4 [128, 6]
000000 00 bb b5 3d 92 b7 cd 3d 57 ab 89 be 1b 2e cc bd
       0.08873558 0.10044779 -0.26888534 -0.099697314
000010 99 52 9e bd 72 9f 2f bd 5c 8a 54 be 63 42 ce be
       -0.07730598 -0.04287667 -0.20755905 -0.40285024
000020 76 a3 8d bd b2 9d 53 3e dc 6b d8 3d b5 4b 28 be
       -0.06915943 0.20665625 0.105674475 -0.1643513
000030 02 28 65 3d e7 89 a4 3c c7 75 aa be 66 5b 7c be
       0.055946358 0.020085288 -0.33292982 -0.2464424
000040 c4 98 92 be d9 e6 26 bd f8 ce 2c 3e 0e 71 40 3e
       -0.28632176 -0.040747497 0.16875827 0.18793127
000050 8c fb ee 3d ca 7f 1d 3d b0 0b ca 3d 41 a0 08 bd
       0.116690725 0.038451947 0.098655105 -0.033355955
000060 eb 1f a5 bd 9c 94 6b 3d f9 7b 5c be 67 9c c4 be
       -0.080627285 0.05751477 -0.21531667 -0.38400576
000070 85 e3 7b 3f b7 16 d5 bf 57 fa 4d 3e 01 28 08 3e
       0.9839404 -1.6647557 0.20115028 0.1329651
000080 48 30 89 3e 2b 27 85 bd b0 4d d8 3e 4c b5 ac be
       0.26794648 -0.06501611 0.4224677 -0.3373207
000090 e2 52 c7 be 1f 23 ea 3d 49 7b 68 3e f4 41 83 be
       -0.38930422 0.1143248 0.2270328 -0.25636256
0000a0 bf 3d a6 3d af 3b 89 be 89 e3 bf be 87 85 14 bd
       0.08117246 -0.26803347 -0.37478283 -0.036260154
0000b0 f5 95 03 3f 53 a0 dd bd b9 d3 12 3e 64 6e c1 bd
       0.5140069 -0.10821595 0.14338578 -0.094448835
0000c0 2e 6d 89 3e 54 c2 6a 3e 40 55 13 3f 67 9f d3 be
       0.2684111 0.22925693 0.57551956 -0.41332552
0000d0 59 00 de 3e 8c 23 53 be 67 4c 9e bd 15 3e 7b be
       0.4335964 -0.20619029 -0.07729416 -0.24535401
0000e0 d8 c5 7d 3d f6 db ad 3e e6 4c ef 3d aa 6c 11 be
       0.061956257 0.3395688 0.11684589 -0.14201608
0000f0 51 b4 ff 3d 37 e6 91 be 41 41 d6 be 33 ff d9 3e
       0.124855645 -0.28495952 -0.4184666 0.42577514
000100 e7 8b 38 bd 2b 99 c6 3d 8b e0 84 3c 2a e6 30 3e
       -0.045055296 0.09697183 0.016220352 0.172753
000110 8e 59 07 bf b5 2f 2f be 06 ca 9f bf cd c9 1f bf
       -0.52871025 -0.17108043 -1.2483528 -0.624173
000120 5f 1a c3 3b 2b 22 fa bc 3a 88 81 be 87 09 75 3e
       0.0059540714 -0.03053387 -0.25299245 0.23929416
000130 ea ad ec 3d 77 d8 96 bc 83 ff 05 be 73 d1 35 3d
       0.11556609 -0.018413765 -0.13085751 0.0443892
000140 76 7f e7 3e 81 a2 a3 3e 9f 1e fe 3e 75 98 b8 3e
       0.45214432 0.31959918 0.49632737 0.36053815
000150 1d 41 66 3d cc a7 49 bd 10 1a 4d bf b1 62 2b 3d
       0.05621444 -0.04923229 -0.80117893 0.041842166
000160 ab 2c 1c bf f7 eb 8a bd f2 a7 ac be 30 99 24 3e
       -0.6100566 -0.06783288 -0.33721882 0.16074061
000170 cb 2b 13 3f 45 27 73 3d 16 e9 f2 bd 96 8a f3 3e
       0.574887 0.059363622 -0.11860864 0.4756667
000180 36 34 87 3e 9a 97 7d bd 5b 9e 0b bf 79 2d c3 3e
       0.2640702 -0.061912157 -0.54538506 0.3812063
000190 c4 e0 1b bf ed 96 b4 3d a9 bf 06 3e a7 6a 55 be
       -0.6088984 0.08817849 0.1315905 -0.20841466
0001a0 89 5c 4b be 2d 03 64 3e 3e f5 01 3d cc 8e af 3d
       -0.19859518 0.22266836 0.03172802 0.08572158
0001b0 cd 4f 38 3e b6 18 8f be 8b d2 84 be 06 87 16 3f
       0.17999192 -0.2794854 -0.25941882 0.5879978
0001c0 e4 cc 05 bd 9f a3 5a 3f 5e 38 81 3d 09 2b a5 3c
       -0.032666102 0.85405916 0.06309579 0.020162122
0001d0 68 24 db be ef fc c0 3d a6 81 f8 bd 2c 9a cd 3e
       -0.42801213 0.09423243 -0.121341035 0.40156686
0001e0 b2 32 ce be da 1f c6 3e cb 51 0e 3f b5 27 e5 be
       -0.40273052 0.38696176 0.55593556 -0.44756857
0001f0 1b ef 9d 3e 24 ea 8f bc 8c 94 8c 3d f7 08 91 3e
       0.30846485 -0.017567702 0.068642706 0.28327152
000200 7e fb 0b 3d 5f ef a5 be e5 5d 33 3d f7 1d 83 3d
       0.03417539 -0.32409188 0.043790717 0.064022
000210 da b3 53 be ce 76 e2 be a1 d3 07 3e 66 36 10 3e
       -0.20674077 -0.44231266 0.13264324 0.14083251
000220 7d 07 98 3e 11 6e 4a 3d 21 04 9b bd 3e 6a d3 3d
       0.29693213 0.049421374 -0.07569147 0.103229985
000230 be 2a 29 3e a1 49 3e be e1 42 12 3d 35 e7 97 bd
       0.16520211 -0.18582775 0.035708312 -0.07417146
000240 c8 a7 2d 3e f0 a1 19 bd 31 93 a4 be 84 8a 44 be
       0.16958535 -0.03750795 -0.32143548 -0.19193465
000250 8c 6b 68 be 02 8a 71 be 4a ed cf be 3a a0 23 be
       -0.22697276 -0.23587802 -0.40610725 -0.1597909
000260 ed 3f 9b 3d 3d bc 3d 3e 79 fa 47 3e 12 7b 49 3d
       0.07580552 0.18528838 0.19529141 0.049189635
000270 6f af cb ba a3 6f 97 3e 1d e5 2c bf 5b 11 2b bf
       -0.0015539954 0.2957736 -0.675371 -0.6682336
000280 1e f4 b2 be 13 6d ea bc ea 24 5e be a5 ae 4f 3d
       -0.34951872 -0.028616464 -0.21693769 0.050703663
000290 89 fe 30 3f 78 c5 13 3f 6c 26 6b 3f 38 2e 81 3f
       0.6913839 0.5772319 0.918555 1.009223
0002a0 32 26 58 3e 3c 3c a4 bd e5 f7 a9 be 8c 7d 89 3e
       0.2110832 -0.08019301 -0.3319694 0.26853597
0002b0 b5 75 e3 3d 50 9a 55 3e b5 2b b0 be fb ec 82 3d
       0.11106435 0.20859647 -0.34408346 0.06392857
0002c0 6e 98 0b 3e 0f ea cd be 9f e5 75 3e e9 a5 ec bd
       0.13632366 -0.40217635 0.24013375 -0.11555082
0002d0 94 b2 3d be 81 00 0d be a8 d3 ab 3e 2f 84 9b 3d
       -0.18525153 -0.13769723 0.33559918 0.075935714
0002e0 07 45 8e bd 94 21 ae be 66 7a b3 bd 75 35 a7 3d
       -0.0694676 -0.34009993 -0.0876358 0.08164493
0002f0 3d 5c b6 3c 61 c6 f8 3d c5 28 64 be ad f6 6d bd
       0.02226078 0.12147213 -0.22281177 -0.058096576
000300 f9 0a ee 3d a8 2f e8 3d 0a e5 45 be d4 5a 02 be
       0.116231866 0.11337215 -0.19325653 -0.1272996
000310 48 ce 2c be 6c 04 24 be 9b df 41 bc 0b bd 2e be
       -0.16875565 -0.16017312 -0.011833097 -0.17064302
000320 ff e8 8c 3d fb f8 c6 3d 00 13 ad 3d f0 93 0e be
       0.06880378 0.09715458 0.084508896 -0.13923621
000330 18 dc f2 bd 23 57 4b bd 02 b3 0d bd 0f 14 41 bd
       -0.11858386 -0.049643647 -0.034594543 -0.04713827
000340 c3 84 57 be 64 74 97 3d b6 c1 f5 3d 57 5f 8d 3d
       -0.21046738 0.073952466 0.11999838 0.0690295
000350 30 4d 00 3e 5a ba 2a be dc eb d2 bc a0 f2 af 3c
       0.12529445 -0.1667265 -0.025747232 0.021477997
000360 99 4b be 3c 82 7d dc bd 84 6f 61 3e 02 0c 3b be
       0.023229407 -0.10766126 0.22015196 -0.182663
000370 da bf a6 3e b0 39 ac bc db ed 52 3e 54 19 75 bd
       0.32568246 -0.021023601 0.20598547 -0.059838608
000380 8c e0 1a 3e 74 d6 57 be 7f 94 95 be a9 a2 51 3c
       0.1512472 -0.21077901 -0.29214856 0.012795129
000390 6a 7d 5a bd 1d ad 0a bd 14 d3 37 3e cd 06 fb bd
       -0.05334226 -0.0338565 0.17951614 -0.122571565
0003a0 a2 83 32 be 5d 8f 8d 3d e9 80 06 be dc 82 4f be
       -0.17433026 0.0691211 -0.13135113 -0.20264763
0003b0 19 03 87 3e 5a ce 8f bd 41 01 9b bc 5c e7 22 be
       0.2636955 -0.0702178 -0.018921496 -0.15908569
0003c0 70 8b ad 3e 76 18 17 3c 3f 73 90 3c 64 5e 37 be
       0.33895445 0.009222141 0.017633079 -0.17907101
0003d0 ae 99 b2 bd 39 cc b7 bd 8c a4 2f be 8b 23 9d bc
       -0.08720718 -0.08974499 -0.17152613 -0.019181987
0003e0 a0 5c a4 3e 98 4b e3 3d c6 1c 56 3e 98 4e 81 3d
       0.32101917 0.11098403 0.20909414 0.06313819
0003f0 f4 15 03 3e 28 78 9a be 8c 9e 1e be 4e 8b 93 3e
       0.12801343 -0.30169797 -0.15490168 0.2881722

weight_hh_l0 f4 [128, 32]
000000 a2 12 fb 3c 32 30 5d be bb cd be 3c ef 9e df 3d
       0.030648533 -0.21600416 0.02329146 0.10918986
000010 b3 e8 05 be bc c5 82 bc ea 00 9e bd 70 4d 22 be
       -0.13077049 -0.015963428 -0.07715018 -0.15849853
000020 45 57 ed 3c 26 7a 7a 3e 84 c6 0e be 90 10 9a 3d
       0.028972277 0.24460658 -0.13942915 0.0752269
000030 54 f1 10 be 47 12 56 3e 7b ac 2f 3e d8 50 c5 3d
       -0.1415456 0.2090541 0.1715564 0.0963456
000040 da 3c 66 3e 12 a3 19 be 6c 46 8c bd 88 f0 04 3c
       0.2248415 -0.15003613 -0.068493694 0.008113988
000050 e8 15 52 be 43 54 06 be b3 3d a0 bd 4a 6b 8c be
       -0.20516169 -0.13118081 -0.07824268 -0.27425605
000060 ca 3c 8e 3e 37 7e a6 3d 8d 38 96 bd 82 49 be 3e
       0.27780753 0.08129542 -0.07335005 0.37165457
000070 ee b7 44 3e f2 4c 97 3c 2a cc 2e 3e 02 95 d6 bd
       0.19210789 0.018469308 0.1707007 -0.1047764
000080 1f 8d d5 3d c8 b1 84 be d5 99 b4 3d 08 f0 bd bd
       0.10427307 -0.25916886 0.08818404 -0.09274298
000090 0d f1 8f bc 83 d4 50 3e 49 73 11 bd 6d d4 57 be
       -0.017570997 0.20393567 -0.035510335 -0.21077128
0000a0 8b e6 9b 3d 28 62 e8 3d f9 9e ba be a4 b7 d9 bd
       0.07612332 0.11346847 -0.36449412 -0.1063073
0000b0 ba d3 8f be 56 1f 3c 3e d3 d0 cd 3d 52 73 f4 bd
       -0.28091222 0.18371329 0.10049596 -0.11936058
0000c0 08 3c 81 3e b1 d3 f2 3d 7a 2d 6e be 14 86 2a 3d
       0.25241113 0.11856783 -0.23259535 0.041631773
0000d0 87 e4 78 bd 49 44 1b be 21 ea 3f be 7d f0 24 be
       -0.060764816 -0.15162767 -0.18741657 -0.16107364
0000e0 73 52 13 3e d3 1d 02 3e c9 8d 18 be 68 4e 8a 3c
       0.1438692 0.1270669 -0.14897837 0.01688309
0000f0 6b 4b b6 3c 55 82 6a 3d 97 b2 6a 3e b7 e2 a7 bd
       0.022252759 0.0572532 0.22919689 -0.08197539
000100 ff c4 ef 3d bf 70 03 be 5d a1 e2 bd cb fe 05 3e
       0.11707496 -0.12835978 -0.11065934 0.13085477
000110 9f 7a bc 3d 3d 81 08 3e 85 4a 14 be 30 1b 31 be
       0.092030756 0.1333055 -0.14481552 -0.17295527
000120 c5 39 63 bd e0 84 58 3e e1 5f 8e be 21 d7 3e 3d
       -0.055475015 0.21144438 -0.27807525 0.04659188
000130 bc 6a 82 bd 84 e3 15 be 04 67 e4 3d cd 62 af bd
       -0.06368014 -0.14637572 0.11152461 -0.08563767
000140 1b 7e f3 3d e6 56 0b be 80 c3 16 3e 3b 87 06 be
       0.11889287 -0.13607368 0.14723015 -0.13137524
000150 b6 fa 53 3d 8d fa 8a 3d 8b c9 de 3d 71 e8 15 3e
       0.05175277 0.0678607 0.10878285 0.1463945
000160 d2 e5 8b 3e 4c 99 06 3e 1c 6a 23 3e b9 77 f4 3d
       0.27323776 0.13144416 0.15958446 0.11936898
000170 7d 64 fc 3d 67 2c c7 3d 42 24 9d bd 34 3c 54 3d
       0.12323854 0.09725266 -0.07672931 0.051815227
000180 8a 18 d8 bd ff 30 45 bd 47 c5 1a bd 21 9c 8b 3d
       -0.105515555 -0.04814243 -0.037785795 0.068168886
000190 f9 74 b7 bd 39 e1 c2 3c 61 cd aa bd a4 d3 f1 3c
       -0.08957858 0.023789035 -0.08339954 0.029519863
0001a0 cd 0a 66 bd 47 db 3c 3e 09 ab ab be 5c ff d9 bd
       -0.056162644 0.18443023 -0.33528927 -0.10644409
0001b0 29 f1 8c bd 7d c2 a2 bd ca 57 02 be 27 a4 26 be
       -0.06881935 -0.07947252 -0.12728801 -0.16273557
0001c0 41 7f 80 3d cc ed af 3c a6 c3 72 be 8f 00 51 bd
       0.06274272 0.021475695 -0.23707446 -0.051025923
0001d0 f5 79 8b bd d3 8e 47 bc 9c ca a0 3c b2 d7 07 bd
       -0.06810371 -0.012180048 0.019627862 -0.033164687
0001e0 bb 75 10 3e d8 d4 0c 3e 36 f3 aa bd 19 ce 50 3e
       0.1410741 0.13753068 -0.0834717 0.2039112
0001f0 2b 1a 87 3d c6 b0 e5 3d 26 e4 8c 3e 75 3a a7 bd
       0.06596788 0.112153575 0.27517813 -0.08165447
000200 80 4c 3b bc 89 03 9a bd d4 15 4c 3e 2f 6d 39 bd
       -0.011431813 -0.075202055 0.19930202 -0.04527014
000210 58 5e 4b 3d d0 f7 de 3d 66 41 db bd ad 30 49 3e
       0.04965052 0.1088711 -0.10705833 0.19647475
000220 61 9b 86 3e 72 cd e5 bd d8 21 60 be 29 0b 8d be
       0.2629042 -0.11220826 -0.2188791 -0.27547577
000230 f8 21 44 3e d4 41 05 3e 1e 54 b9 3d e1 c4 8e bd
       0.19153583 0.13013393 0.09049247 -0.069711454
000240 9e ac 32 be 15 42 dd be 40 10 43 3d 5f 3c 8c 3d
       -0.1744866 -0.4321448 0.04762292 0.06847452
000250 57 aa c4 3d b0 4b bb 3e cf f3 cd 3d 23 f9 fb 3c
       0.09602802 0.36581182 0.100562684 0.030758446
000260 fa 20 8c 3d ca 82 7f be 44 7a 07 bd 93 da a7 be
       0.06842227 -0.24952236 -0.033075586 -0.32783946
000270 fc c9 ab 3c e9 ed 55 3d 1d 0e 29 3e 4c 1c 5d be
       0.020970337 0.052228842 0.1650929 -0.21592826
000280 ef ff d9 3d 6b eb 6a be 82 65 b4 3d 2c 3c 07 be
       0.106445186 -0.22941367 0.088084236 -0.13206547
000290 63 5a 71 bd 73 15 c2 bd 65 fb 60 3e ce 86 84 be
       -0.05892409 -0.09476747 0.219709 -0.25884098
0002a0 c7 8f 9b bd f8 cb 8b 3c 28 d5 58 3e 33 31 9d bd
       -0.07595783 0.017065033 0.21175063 -0.076754
0002b0 5b d7 61 be 0c bb a0 3d 07 2d 38 bc ee bf a3 bc
       -0.22054808 0.07848176 -0.011241204 -0.01998898
0002c0 cb 72 35 bd 2a 77 71 3e 32 13 40 be da 41 5c 3e
       -0.04429893 0.23580614 -0.18757322 0.21509495
0002d0 d9 9a a9 bd d2 23 10 bd 87 d5 90 3d b6 ed 56 be
       -0.08281488 -0.03519041 0.07071977 -0.20989117
0002e0 8c 26 e4 3d 9b be 96 3d 5e 88 2a 3e c9 81 43 3e
       0.11140165 0.07360574 0.16653582 0.19092478
0002f0 62 fb 61 3d 58 88 73 bd b3 a5 59 3e 11 5f 56 3e
       0.055171378 -0.0594562 0.21254615 0.20934702
000300 43 67 12 3e 0b 1f 8f bd 48 4b 4f be 19 e6 08 3e
       0.14297204 -0.06988343 -0.20243561 0.13369025
000310 09 33 9b bd 62 12 9c bd 7e 80 87 3e a5 31 a9 be
       -0.075780936 -0.07620694 0.2646522 -0.33045688
000320 e2 10 12 be d6 62 19 3e 9b f9 8d bd 7f 35 fc bd
       -0.14264253 0.14979109 -0.06932374 -0.12314891
000330 27 5b 99 3b 7a 8d a2 3e 4a de 88 3d 66 22 06 3c
       0.0046800557 0.31748563 0.06683023 0.008186912
000340 16 f7 67 3d ea ff 7d bd fc c8 29 bd 81 de 70 bd
       0.056632124 -0.062011637 -0.04145144 -0.058805946
000350 68 c6 c6 bd 9b 09 82 3e a1 61 2c 3e 0e 46 fe bd
       -0.09705812 0.25397953 0.16834117 -0.124157056
000360 e4 bd a0 bc 43 6f 77 3e e0 1b e8 3d 87 d2 3b 3e
       -0.019621797 0.24163537 0.11333442 0.18342029
000370 c3 9d 0f be be 79 20 bc 3b 9a 3a bc e0 71 0c 3e
       -0.14025025 -0.009794651 -0.0113893105 0.13715315
000380 85 62 0f 3e 7a 83 8e be 3d c2 34 3d c5 9d 0a 3e
       0.14002426 -0.27834684 0.044130553 0.13536747
000390 0c a4 84 be 17 e4 e0 bc 7c 85 97 3e 0e 95 2d be
       -0.25906408 -0.027452512 0.29594028 -0.16951391
0003a0 06 80 5b bd cc 0b d8 bc f7 84 00 3e cf 00 a0 bc
       -0.05358889 -0.026372813 0.12550722 -0.019531636
0003b0 9b 06 82 bd ca ad 91 bc f0 8c 1b 3c 42 a1 80 3d
       -0.06348916 -0.017783064 0.009494051 0.062807575
0003c0 c6 ad bd 3d 0d e8 1c 3e ce 0d 1c be 4d 61 93 3c
       0.0926166 0.15322895 -0.15239641 0.017990733
0003d0 ef ce e0 be b4 30 db 3d 00 38 8c bd 99 92 b9 be
       -0.43907878 0.10702649 -0.06846619 -0.36244658
0003e0 14 43 4b 3e 7c 81 df 3e 10 93 46 be f0 4a 8d 3e
       0.19849807 0.43653476 -0.19392037 0.27596235
0003f0 cf c7 de 3d b7 da 20 bd 25 fc c6 3d 47 70 ab 3e
       0.10877954 -0.039271083 0.097160615 0.33484098

bias_ih_l0 f4 [128]
000000 d7 ee d0 3b e7 03 5a 3d 1e e7 a2 3c 83 28 98 bd
       0.006376128 0.053226378 0.019885596 -0.07429602
000010 ec c1 13 be ea c8 29 3e f4 96 8b 3d 59 d3 28 be
       -0.14429444 0.16580549 0.068159014 -0.16486873
000020 a3 ae af bc e9 f8 32 3d cb e6 81 3e 08 e1 df 3d
       -0.021445578 0.04369441 0.25371394 0.10931593
000030 29 79 38 3e e4 e0 b3 bd b9 57 ad 3d ae 5d ad bd
       0.18014969 -0.08783129 0.084639974 -0.084651336
000040 0d cd c2 bc ca 0d 19 3e e3 75 00 bd 7a 8e 07 3e
       -0.023779416 0.14946666 -0.031362426 0.13237944
000050 a1 d1 fb 3d d8 bf af bc a0 b9 b2 3d a9 73 79 bd
       0.12295843 -0.021453783 0.087268114 -0.060901318
000060 f3 9c f3 3d a9 d8 c9 3d 0c fd 40 bd 66 e0 58 3c
       0.1189517 0.09855778 -0.047116324 0.0132370945
000070 a3 53 b1 bc 2e a0 92 bb 03 b1 aa bd ce 8a db 3d
       -0.021646326 -0.0044746613 -0.083345436 0.10719834
000080 a2 8f 64 3d 0b 2c 87 be 53 b6 6c be d9 ab dc 3c
       0.05580104 -0.2640079 -0.23116426 0.026937412
000090 82 29 a4 bc 13 34 24 be 15 1f 7d be b5 c3 0e be
       -0.020039324 -0.1603549 -0.24718888 -0.13941844
0000a0 2d f3 52 be 57 ae 91 bd a0 ab 60 be 9c 85 fc 3b
       -0.20600577 -0.07113331 -0.2194047 0.007706357
0000b0 6a fd 2a be 27 9d 2d 3e f5 9d 2d bd db db ee bd
       -0.16698232 0.1695448 -0.042386968 -0.11663028
0000c0 5e 13 5a 3d 2b c7 31 bd ee 3d 2a be 60 ff ab 3d
       0.053241126 -0.043402832 -0.16625187 0.08398318
0000d0 17 06 9d be 1a 6b 8f bd 15 d2 d5 bb e2 7f d2 bc
       -0.3066871 -0.0700285 -0.006525288 -0.025695745
0000e0 25 52 b2 bd 11 65 12 3e 35 78 70 3d b4 f1 b9 3d
       -0.08707074 0.14296366 0.05870839 0.09079304
0000f0 a3 bd 0b bd 52 6a 89 be 02 57 88 be d5 2f 8b be
       -0.0341164 -0.26838928 -0.26628882 -0.2718493
000100 09 fc 0d 3e 8c 8a 02 3e 8e d9 90 bd a3 8a 0d 3d
       0.13865675 0.12748164 -0.07072745 0.034556042
000110 9b 93 cb bd 0f 44 30 bb ca 6f c8 3d a3 10 2c bd
       -0.09940263 -0.0026896035 0.09786947 -0.042008054
000120 0a 10 7e bd 74 a4 8f 3d 48 3f 99 bd 7a 8f ff 3c
       -0.062027015 0.07013789 -0.07482773 0.031196345
000130 e0 49 c0 bd 3e c3 c5 bc 67 d6 fd bc f9 e0 c3 bd
       -0.093890905 -0.02414095 -0.030986024 -0.095643945
000140 03 66 95 bd 86 23 f9 bd 3f ce ce 3d cb a4 09 bc
       -0.07294848 -0.12164979 0.10097932 -0.008401106
000150 73 23 86 3d fb 6c 6f 3d 19 be d1 3d d6 d8 fe bd
       0.0654973 0.05845354 0.102413364 -0.12443702
000160 59 57 ec 3d ee b5 c0 bd fa df 86 3d 2b dc b6 bd
       0.11540098 -0.094097 0.06585689 -0.089287125
000170 79 3d 96 bd e2 75 05 3e a2 d7 b1 3c be 01 66 bd
       -0.07335944 0.1303325 0.021709267 -0.056154005
000180 a2 9b 5e 3e eb 4b 17 3d c4 ba 84 3d df 8f a7 bb
       0.21739057 0.036937635 0.06480935 -0.0051135863
000190 cd 7a 38 3e 7f 7e fe 3d 81 2c d0 3d fe c1 0d be
       0.18015595 0.12426471 0.101647384 -0.13843533
0001a0 31 34 f8 bd a9 eb e4 3d d6 f6 c2 3c 0b c9 d5 3d
       -0.1211933 0.11177761 0.023799341 0.104387365
0001b0 31 1b 17 3e af d2 9b bd 3c 1c 01 3e 64 b4 b3 3d
       0.14756466 -0.07608544 0.12608427 0.08774641
0001c0 38 80 d4 3d d1 68 c0 3d 8e e3 82 3d 08 a7 85 3c
       0.10376018 0.09394992 0.06391059 0.016314998
0001d0 7e f8 7d 3e a1 a0 fc 3a 6f e0 88 3d 91 2b f7 ba
       0.24801823 0.0019273945 0.06683432 -0.0018857588
0001e0 61 3b 8c bd 92 36 09 3e ad fb cb 3d a5 5c a0 bc
       -0.06847263 0.13399723 0.09960113 -0.019575426
0001f0 6e a6 ef 3d d5 e8 57 3e 22 0b e9 bb bc af ae 3d
       0.11701666 0.21084912 -0.007111923 0.085296124

bias_hh_l0 f4 [128]
000000 c2 4b 1b bd 31 da 87 3d 00 47 e9 bd 23 8f b2 3d
       -0.037914045 0.066334136 -0.11390495 0.087187074
000010 cb 02 08 ba 2e f0 9f bd df 2d 09 bd 16 02 50 3c
       -0.00051884045 -0.078094825 -0.03349101 0.01269581
000020 07 71 82 3d b5 98 55 3e b0 9a 33 bb 63 22 7e bc
       0.063692145 0.20859034 -0.0027405433 -0.015511128
000030 28 28 6e bd 58 64 53 3e 39 35 00 3e e7 2c 9b 3d
       -0.058143765 0.20643747 0.12520303 0.07576924
000040 1b cf e2 bd 78 6f 11 3e 54 1a 02 be d6 6e b4 3d
       -0.110746585 0.14202678 -0.12705356 0.08810203
000050 d4 90 8a 3e d3 15 23 3e 5f 25 ed 3d ad 9a 5e 3b
       0.2706362 0.15926294 0.115793936 0.0033966706
000060 4c dc a8 3c df dc aa 3d 70 95 d8 3c 38 73 a0 bd
       0.020612858 0.08342909 0.026438445 -0.07834476
000070 66 80 d3 bd 8c 63 62 bc c8 87 62 bc a5 2a 21 3e
       -0.103272244 -0.013817679 -0.013826318 0.15738924
000080 01 ff 06 bd d8 a0 73 be 79 d2 d5 3b fa 81 37 be
       -0.032958034 -0.23791826 0.0065253344 -0.17920676
000090 80 9f 93 3e 9e 0d 23 3b d2 97 d9 bd 81 88 91 be
       0.28832626 0.0024879943 -0.106246606 -0.28424457
0000a0 95 50 08 be 66 69 02 be 09 48 4d be 92 10 5b bd
       -0.1331199 -0.12735519 -0.2004701 -0.0534826
0000b0 c7 d6 2d be b4 0e 22 bc d0 2f 82 3d a1 3a 88 bd
       -0.16976462 -0.009891201 0.06356776 -0.066518076
0000c0 22 d6 9e bd 2a ff e3 bd 71 35 0d be 82 46 c7 bd
       -0.07755686 -0.11132653 -0.13789918 -0.09730245
0000d0 0c b0 26 be 73 69 6e be e4 19 6b be b3 e2 5b bd
       -0.16278094 -0.23282413 -0.22959095 -0.053682994
0000e0 6b d0 94 be 0f a4 29 be 0e 81 47 be 8c 94 f6 3c
       -0.2906526 -0.1656649 -0.19482824 0.03010013
0000f0 9c 55 7f bd 8a 34 0d bd ee 6c 09 be 1b 01 f2 3c
       -0.062337503 -0.034473933 -0.1342046 0.029541543
000100 9c 12 14 be b9 ae 10 be 07 79 cb 3d 4b a5 ac bc
       -0.14460224 -0.14129151 0.099351935 -0.021074912
000110 48 08 21 3e cf bd f2 3c 81 c8 b4 bd 0d ff 9f 3b
       0.15725815 0.029631523 -0.088273056 0.0048826993
000120 c5 43 a2 3d a4 59 c0 bc d0 1b 59 3d 53 9d 46 3d
       0.07923082 -0.023480244 0.05300504 0.04848988
000130 fc cf b1 3d 56 46 2d 3d 6b 99 de bd 1f 51 4f 3d
       0.08682248 0.042303406 -0.10869106 0.050614472
000140 3b c8 a3 3c da 46 f7 3d 05 7c d8 3c ec 38 0a be
       0.019992938 0.12074061 0.026426325 -0.13498276
000150 b1 58 bb bd d0 0b 03 bb cd 91 10 be 79 37 fd 3d
       -0.09147776 -0.0019996054 -0.14118119 0.12364096
000160 d2 19 fc bd 63 21 3d 3c 85 f3 8c 3d 78 61 d1 3c
       -0.12309612 0.011543605 0.06882385 0.025559172
000170 ac 8f 7d bd 1c df 17 be 33 1c 3a bb 97 f5 43 3d
       -0.061904594 -0.14831203 -0.0028398156 0.047841635
000180 bb 9d d1 3d 52 5f 2f 3e 9b f6 ba bd f9 87 63 3e
       0.10235163 0.17126206 -0.091290675 0.22219838
000190 06 bb 8e 3e 78 89 e2 3c 56 b7 99 3e 21 4a 30 3e
       0.27877063 0.02765344 0.30022687 0.17215778
0001a0 f9 65 33 be e0 58 09 3e d9 b6 87 3e 4c a1 39 3e
       -0.17519368 0.1341281 0.2650669 0.18127936
0001b0 42 8f 23 3e 43 d0 ef 3d 0d 2a 3c 3d 57 cf c3 3d
       0.15972617 0.11709645 0.04593854 0.09561031
0001c0 b5 5f fa 3d ac 7a 2f bd f0 0f 2d 3e 33 7e db bd
       0.12225286 -0.0428416 0.16900611 -0.1071743
0001d0 ce 21 58 3e 8d a7 45 3e 60 db 5f 3e 13 d7 05 3e
       0.21106645 0.19302197 0.21861029 0.13070326
0001e0 af 70 f4 3d 1b 8e e0 3d d3 26 1b 3e a4 15 5b bc
       0.11935555 0.109646045 0.15151529 -0.013371859
0001f0 5c eb 49 bc fe 3b 52 3e 97 12 a3 3c 2b 73 92 3e
       -0.01232418 0.20530698 0.019906325 0.2860349

weight_ih_l0 f4 [128, 2]
000000 c8 a7 fe 3d 53 8b a6 3d 15 52 bb 3d 2b 71 a3 3d
       0.124343455 0.08132043 0.09146515 0.079805695
000010 7f 0b 1b 3e 6f b0 46 3d ba 4a 3b be 4c b6 3e 3c
       0.15141104 0.048508104 -0.18290225 0.011640143
000020 55 24 b3 bd b8 7a 9e be 9f 5f 06 3e c9 a2 f5 3d
       -0.08747164 -0.30953002 0.13122414 0.119939394
000030 ba 79 e9 bd 4a 08 28 3e 61 0e a6 be a2 f6 52 3c
       -0.114001706 0.16409412 -0.32432845 0.012876185
000040 07 d7 28 3e 66 61 10 be de fe 61 be e3 c1 68 3d
       0.16488276 -0.14099655 -0.2206988 0.05682553
000050 17 49 e3 bc 85 01 68 bd b4 2a 28 3e 9c d8 80 bd
       -0.027744813 -0.056642074 0.1642254 -0.06291315
000060 f2 c2 e7 3d 26 a9 9a be e8 64 fd bd 7b af 1c bc
       0.1131648 -0.30207175 -0.12372762 -0.009563322
000070 d8 d9 84 be a4 01 b7 3d bc 9a bf 3b e4 6d 52 3d
       -0.25947452 0.0893586 0.005847303 0.05137433
000080 e6 41 36 be 19 a0 2e 3e 38 b6 79 bd 84 59 99 3e
       -0.17798576 0.1705326 -0.060964793 0.29951108
000090 ec b6 99 3c 6d 44 55 3e 05 0f 42 3e 8f 69 bb 3d
       0.018763982 0.20826884 0.18951042 0.09150993
0000a0 b0 6b aa 3e a8 6e 78 bc 6b c3 70 3e bf 5a e5 3e
       0.33285284 -0.015163101 0.23512046 0.44795796
0000b0 59 87 91 3e 98 1d 5c 3e 7f e8 f5 be 5a c7 52 3e
       0.28423575 0.21495664 -0.48028943 0.20583859
0000c0 ac b2 1c bd 66 5b a7 3d 80 b6 fe 3d 47 6b 86 be
       -0.038256332 0.0817173 0.12437153 -0.2625372
0000d0 c7 df 96 bd dc 2d 8b 3e 94 ca 58 be 57 c0 29 be
       -0.07366901 0.27183425 -0.21171027 -0.16577278
0000e0 36 7c 07 3b 7b 9d 81 bd 36 93 82 3d f4 f2 95 3e
       0.00206734 -0.06328865 0.063757345 0.2928692
0000f0 77 85 af 3e 15 06 be 3c bb d3 cc 3d 47 77 c0 be
       0.34281513 0.02319626 0.10001322 -0.37591
000100 c2 f5 63 3d 52 5c 41 be b3 97 83 bd 51 81 8d be
       0.055654295 -0.18882874 -0.06425419 -0.27637723
000110 b2 e1 a2 bd c0 71 a0 3d 08 cf 9d 3d fa d2 be 3e
       -0.07953204 0.07834196 0.07705504 0.37270337
000120 89 8b 53 3e 4b 8d 34 3e 0d e8 db be d5 fd 5f 3e
       0.20658697 0.17632024 -0.42950478 0.21874173
000130 a9 62 09 bf 5e a9 ae bb 8c f4 b2 3e da 7a ee 3d
       -0.5366617 -0.0053302487 0.349522 0.11644526
000140 94 15 43 bd bf 77 b9 bd 2d 66 d9 bd 72 37 a7 be
       -0.047628 -0.09056043 -0.106151916 -0.3265949
000150 fa d8 f4 bd 3c a0 0b be 89 fa 68 be c3 ae 1a 3e
       -0.119554475 -0.13635343 -0.22751822 0.15105729
000160 90 71 f9 be 23 33 91 bd 16 10 df 3e 93 ad dd 3e
       -0.48719454 -0.07089832 0.4356696 0.4329649
000170 b0 d2 84 be 4b 70 90 be a2 4c 48 3e 5d 95 26 3d
       -0.25941992 -0.28210673 0.19560483 0.040669788
000180 3d 51 e6 3d 5c 13 5f bc 7d 2d 95 3c 26 60 93 be
       0.11245964 -0.0136154555 0.018210167 -0.28784293
000190 70 7d c8 3d 8c 69 11 3f 5b a2 03 bf ba 3a 16 3e
       0.0978955 0.56801677 -0.5141961 0.1467084
0001a0 6d 1e de be 65 69 11 be 32 82 63 3e ae e1 ad 3d
       -0.43382588 -0.14200361 0.22217634 0.084903106
0001b0 d4 47 bf 3d 52 ec 98 3e 4b 21 13 3c 06 ec 08 bf
       0.09339872 0.29867798 0.008980106 -0.53485143
0001c0 9d 7d 89 be d3 27 37 be b3 e4 95 3e 12 44 d6 3d
       -0.26853648 -0.17886285 0.29276046 0.10462202
0001d0 bd 94 78 3e cf f2 84 be a2 51 0b be f9 4d a0 3e
       0.24275489 -0.25966498 -0.13605359 0.31309488
0001e0 89 b7 2d 3d 7e e1 c0 be a1 fa 6b be 77 0d 04 3f
       0.04241136 -0.37672037 -0.23044826 0.51583046
0001f0 f4 1a 87 3e 3e 50 5d bd dc a4 11 3d 03 82 a1 3e
       0.2638775 -0.054031603 0.035557613 0.31544504
000200 99 e6 13 bd a3 70 65 3e 1a 13 89 be ab 48 b4 be
       -0.036108587 0.22406249 -0.26772386 -0.3521169
000210 a0 d1 98 be c6 a2 8a be 22 d1 aa bd 9a 17 aa be
       -0.2984743 -0.2707731 -0.0834067 -0.33221132
000220 16 d3 91 be 79 4f 51 3e 55 4a 36 3e e2 99 cd be
       -0.28481358 0.20440473 0.17801793 -0.40156466
000230 0a 4c 16 bd 88 58 8e bd ad 8a a0 3e 85 81 d2 bd
       -0.03669361 -0.0695048 0.313558 -0.1027861
000240 27 c2 17 3f 59 3b 32 3e ba 26 9e bb 4e 4f 3b 3f
       0.5928063 0.17405452 -0.004826394 0.73167884
000250 0b 84 a1 3e 1a 1c e2 3e 7d 1d 12 bf 00 ab 6f 3e
       0.31546053 0.44162065 -0.57076246 0.23405075
000260 0a c2 be be f6 8a 39 bc 20 2b 81 3e 1f 57 63 3e
       -0.37257415 -0.011324635 0.25228214 0.22201203
000270 0d a4 a7 be 6c 1c f3 be d6 b6 b1 be c5 85 5e 3e
       -0.32742348 -0.47482622 -0.34709805 0.21730717
000280 ab b6 6d 3c 3e c9 30 3e 38 8b f1 be e6 46 b5 3e
       0.0145088835 0.17264268 -0.47176528 0.35405654
000290 5b f8 1f 3d e8 d3 fd 3e 0a ba ab 3e 1a e1 14 be
       0.03905521 0.49575734 0.33540374 -0.14538994
0002a0 d3 95 8c be e8 e6 f6 bb 6d 40 de be dc 7e 97 3e
       -0.27458057 -0.0075348504 -0.43408528 0.29588974
0002b0 9d 25 a1 bd c6 d1 f9 be 2a aa 11 3e 72 3d 35 bd
       -0.07868502 -0.48792857 0.14225069 -0.044248052
0002c0 8c 96 5a 3e 2b fe 81 3e fd e3 21 be 12 15 9a 3e
       0.21346492 0.25389227 -0.15809627 0.300942
0002d0 b5 4d 1a bf 49 2d 94 3e 0d 21 8a 3e f3 51 33 3e
       -0.6027482 0.289408 0.2697834 0.1751173
0002e0 a7 33 ed 3e 33 71 65 3e d5 8c f3 3d ba ea 10 3d
       0.4632847 0.22406463 0.11892096 0.035380103
0002f0 1f 60 a1 3e 69 55 34 3e f8 dd b2 bd 85 84 ef be
       0.31518647 0.17610706 -0.087337434 -0.46780792
000300 dd 59 b0 bd 1c 5b 2b be 8f 25 28 3e b4 9c 56 3c
       -0.0861089 -0.16733974 0.16420577 0.013098884
000310 22 a1 ff 3d 36 e3 a2 bc b8 ce 60 3e a8 e5 02 3e
       0.124819055 -0.019883733 0.21953857 0.1278292
000320 24 8a 83 bc 7c 9c 4d be dd 0c 69 be 27 48 57 3e
       -0.016057082 -0.20079225 -0.22758813 0.21023618
000330 d8 6c af be 10 f9 2b be 19 65 57 bd f0 4c b0 bd
       -0.3426273 -0.16794229 -0.05258665 -0.08608425
000340 08 09 e0 bc 4d f9 ae 3d 77 65 80 be 69 cd b6 be
       -0.027348056 0.08543644 -0.25077412 -0.3570359
000350 c1 86 0a 3e 3a 6e b4 bd 14 c8 e9 3d a9 96 aa bc
       0.13527967 -0.088100865 0.11415115 -0.020823793
000360 e4 75 c5 3e 6e 84 0b 3e 3a 0d 2f 3e 11 8a 4b 3e
       0.38566506 0.13624737 0.1709489 0.19876887
000370 a0 f3 42 be 64 e3 16 3e a5 ff 00 3e 1b e1 dd bc
       -0.19038248 0.1473518 0.1259752 -0.027084878
000380 a0 57 ae bd c5 7f fe 3d 0d 9f c3 bd d2 c2 27 be
       -0.08512807 0.12426714 -0.09551821 -0.16382912
000390 04 e6 25 bd a5 dd aa bd 14 6a 5e 3e d3 37 99 3e
       -0.040502563 -0.083430566 0.21720153 0.29925403
0003a0 87 02 a4 3d 9a ce b3 bd 49 6b 0d 3d 1f 2b f4 3e
       0.080082946 -0.087796405 0.034526143 0.4768915
0003b0 64 a3 33 3e 4d 1e d3 3d ee e3 10 be e4 a4 88 be
       0.17542797 0.10308514 -0.14149448 -0.26688302
0003c0 b5 a0 42 3e f7 44 b7 3d cc 67 34 3e 2d 4b 98 be
       0.19006617 0.08948701 0.1761772 -0.29744855
0003d0 64 98 e2 3c 87 71 59 be 5b e8 3c 3d 57 17 87 3c
       0.027660556 -0.21234713 0.04612003 0.016490621
0003e0 0f 54 87 3c d2 e2 10 be 88 71 11 be 83 2d 85 3e
       0.016519574 -0.14149025 -0.14203465 0.26011285
0003f0 f9 8d 5b 3e 56 96 94 bd 15 8a 46 3e c3 ed 81 be
       0.21440877 -0.07255237 0.19388612 -0.2537671

weight_hh_l0 f4 [128, 32]
000000 cb f8 71 bd 17 ea 87 3d 41 bb 04 be 8d 3f 7d 3d
       -0.059075158 0.06636446 -0.12962057 0.061828185
000010 6c b4 28 3d f0 f8 ba bd 0d 83 81 be 04 6f d5 bc
       0.04118769 -0.09129512 -0.25295296 -0.026053913
000020 43 bf 54 be bd e4 86 bd e0 f8 7d 3d 2c e6 42 3e
       -0.20776086 -0.06586597 0.062004924 0.19033116
000030 5d 75 31 3e 0e 6a 20 3e 0e 09 a7 bd 91 b2 99 bd
       0.17329927 0.15665457 -0.08156024 -0.07504762
000040 4d ab cb 3d 6e 06 a0 3c b8 a4 86 3e d7 6c 06 be
       0.099447824 0.019534316 0.26297545 -0.13127457
000050 5a a0 e9 3d 57 d0 2b be d2 c0 9a be fe 73 0e 3e
       0.11407538 -0.16778694 -0.30225235 0.13911435
000060 bd 5f 6f be d0 d8 72 3e 66 c1 2e be b2 46 30 3e
       -0.23376365 0.2371552 -0.17065963 0.17214468
000070 30 af ec 3d 6d 8b 30 be 71 42 19 be cf b3 7f bc
       0.11556852 -0.17240687 -0.14966752 -0.015606835
000080 b1 6a 81 3c 14 20 fa bd 6c 3f c1 be 07 c4 14 be
       0.015797945 -0.1221315 -0.377437 -0.14527903
000090 57 93 e1 3d 66 df 25 3c 0e 57 c8 be 8c 67 7b bd
       0.11014431 0.010124063 -0.39128917 -0.061378047
0000a0 c5 a0 6b 3e de f6 4e 3e 05 86 e0 3e 84 34 40 3c
       0.23010547 0.2021136 0.4385225 0.011731271
0000b0 ed 88 a9 bd dd 32 de 3e ad be 53 bd 84 1d 3d be
       -0.0827807 0.4339818 -0.051695514 -0.1846829
0000c0 5c c3 9b 3d da 7b 2b 3e 0e c6 b0 3e 0c b5 da 3d
       0.07605621 0.16746464 0.34526104 0.10679063
0000d0 12 0b 2d 3e b3 18 8c be 3a 67 f0 bd 16 5d 08 3e
       0.16898754 -0.27362594 -0.11738439 0.1331676
0000e0 68 21 b6 3d ae 65 eb bc 8a 9b 19 be 8c 64 bf ba
       0.088930905 -0.028735008 -0.1500074 -0.0014602109
0000f0 0d 24 98 3d f7 9e d1 3c fc 7b e2 3d b8 79 df be
       0.07428751 0.025588496 0.110588044 -0.43647552
000100 5b 1f db bd 2e 2d 7f 3e bd cf 09 3e 71 c0 89 bd
       -0.1069934 0.24919578 0.13458152 -0.067261584
000110 0e f9 89 be 7a e1 02 be a8 59 1d be 41 60 bc 3d
       -0.26947826 -0.12781325 -0.15366232 0.091980465
000120 48 cf fb 3c 09 85 83 be 0a db 11 be 34 4b 2e 3d
       0.030738488 -0.25687435 -0.14243713 0.042552188
000130 b3 77 06 3e d1 97 f8 3e a2 55 83 3e cc e3 b8 3b
       0.13131599 0.48553327 0.2565127 0.00564239
000140 e7 5b 7c 3d c3 50 14 3d 4b 3a 64 3d 79 c9 85 be
       0.061611082 0.036209833 0.055719655 -0.26130274
000150 fa 88 c9 3d fd e7 f5 bd 7a 98 ca bd 8c 8d 64 3e
       0.09840579 -0.12007139 -0.09892364 0.22319621
000160 7a 8f 93 be 9a 55 dd 3c 57 d0 9e be e2 df 85 3e
       -0.288204 0.027018357 -0.31018326 0.26147372
000170 ab 30 92 be 75 78 e4 bd aa f1 91 3e 07 75 04 bf
       -0.28552756 -0.11155788 0.28504688 -0.5174107
000180 aa 81 0e 3e fe 45 c1 bd 7b 80 31 3e 2e 46 a1 bd
       0.1391665 -0.09437178 0.17334168 -0.07874714
000190 bc 03 f9 3d fb 9c 8a 3d e8 04 53 3e 91 ad 21 3e
       0.121589154 0.06768223 0.2060734 0.15788867
0001a0 f8 3d bd 3e 57 c2 f5 3d 93 17 15 3d 5c 39 30 3d
       0.3696134 0.11999958 0.036399435 0.043023452
0001b0 d0 e5 a9 3d 6c c7 81 bd 12 fe a0 bd 9c e7 c8 bd
       0.082957864 -0.06336865 -0.0786096 -0.09809801
0001c0 25 d7 16 be d0 7d 9d be af 8b 5d bd a5 fc cb bd
       -0.14730509 -0.3076005 -0.05408829 -0.099602975
0001d0 b4 a4 98 bd be cb 2c 3e 89 8a f5 3d 4f 5d 66 bc
       -0.0745329 0.16874596 0.11989314 -0.014060332
0001e0 49 28 b8 3c ad df 9a 3e 24 c8 c8 bd 72 19 d4 3e
       0.022480147 0.30248776 -0.09803799 0.41425663
0001f0 dc e5 40 bd 83 8c 16 be f8 5b 7b 3d bd 9f b8 bd
       -0.04709421 -0.14702038 0.061367005 -0.09014843
000200 a2 f8 71 be 93 d0 69 3d 99 e4 16 3e 4d db 82 3e
       -0.23630002 0.057083678 0.1473564 0.25557938
000210 3e 70 f5 bd 83 14 00 3f 5c 55 bc 3e 3b 75 65 3d
       -0.11984299 0.500313 0.36783874 0.056020003
000220 d9 91 b9 3e a1 eb d6 3c a1 94 64 be 83 4b 9e bd
       0.36244085 0.026235403 -0.22322322 -0.077292465
000230 db d9 d9 bd 87 39 c8 3d 93 be 86 3e 09 34 9d bd
       -0.10637256 0.097765975 0.26317272 -0.076759405
000240 0d 4d b8 be f4 2d 3f bf f9 32 a3 be 54 08 62 3e
       -0.35996285 -0.74679494 -0.31874827 0.2207349
000250 33 6c 54 3d e7 49 96 3d 21 0d 1d 3f df 77 9a bd
       0.051861 0.073383145 0.6134816 -0.07542395
000260 30 ee 23 be c1 03 0b 3e e9 a6 d6 be ba f8 58 3e
       -0.1600883 0.13575651 -0.41924217 0.21188632
000270 20 98 08 be f8 d2 23 3e 58 5d b8 3c 3b 28 08 3e
       -0.13339281 0.15998447 0.022505447 0.13296597
000280 51 e2 ba bd 69 54 a5 bd 0e 48 a3 be a4 1a 6a be
       -0.09125198 -0.080727406 -0.3189091 -0.22861725
000290 c9 9a 16 3e fa fd 1a 3e b5 5a 4a be 9a 22 83 3e
       0.14707483 0.15135947 -0.19761164 0.25612336
0002a0 35 0f cc 3e 2f c5 b8 be 6e 68 d6 bd 6a 7e a1 3e
       0.39855352 -0.3608794 -0.10469137 0.3154176
0002b0 14 c7 b6 3d 3f a9 21 3d ac 41 46 3e 05 e6 24 be
       0.0892469 0.039468046 0.1936099 -0.1610337
0002c0 01 e5 6d be 1e e3 48 be 20 f7 bc bc 68 1c e1 3d
       -0.2323189 -0.19617888 -0.023067057 0.10991746
0002d0 9f 38 9e bd a7 09 8c be c4 a5 09 be c9 43 71 3e
       -0.07725643 -0.27351114 -0.13442141 0.23561014
0002e0 29 7f e5 3d 67 96 87 3e 24 d0 ac bd c4 ff bb 3e
       0.112058945 0.26481935 -0.08438137 0.3671857
0002f0 14 80 84 bc 30 59 be be a7 90 ef 3e c5 c8 cd bd
       -0.016174354 -0.3717742 0.46790048 -0.100480594
000300 cc 1b 8c 3e 4e 5a 83 be 33 66 f0 be 70 53 96 be
       0.27364957 -0.25654835 -0.46952972 -0.29360533
000310 61 ab 23 3e 43 67 77 be ed 71 e3 3c e9 26 e9 3d
       0.15983345 -0.24160485 0.027764285 0.11384375
000320 3a a4 a3 3e 4e b2 9d 3e e0 e4 df 3e 4b bb 6b 3c
       0.31961232 0.30800098 0.43729305 0.014387916
000330 fc af ee bd e4 d9 98 3e c4 92 ed be e4 06 4f be
       -0.1165466 0.29853737 -0.46401036 -0.20217472
000340 06 e5 1a 3c 8c 7f 87 3e ce c7 8b 3e 8d b3 59 bc
       0.0094540175 0.26464498 0.27300876 -0.013287437
000350 2c 97 e4 3c a3 4a 83 3e 00 71 e3 be 92 d4 51 3b
       0.027904116 0.2564288 -0.4442215 0.003201757
000360 f5 b0 49 3e 7b 71 56 3d a4 19 53 be e9 13 8b bc
       0.1969641 0.052354317 -0.2061525 -0.016977267
000370 35 87 cf 3e 14 2e 30 be 2b de 48 bd ac 53 91 bd
       0.40532842 -0.17205077 -0.04904 -0.07096037
000380 23 fd 82 3e 8a 0f e8 3d 5f ff f2 3e bc df 88 3d
       0.25583753 0.11331089 0.47460458 0.06683299
000390 a2 48 48 3e 29 83 b8 be 90 15 7a 3e 2a bd a4 bd
       0.19558957 -0.36037567 0.24422288 -0.08043893
0003a0 51 cb 4c bf eb 4a e5 bd 7c 58 a4 be 47 c8 95 3e
       -0.79997736 -0.1119593 -0.32098758 0.29254362
0003b0 fd c2 38 3f 91 82 26 be 57 da 5d 3d 1d d7 bb 3e
       0.7217253 -0.16260745 0.054163303 0.36687556
0003c0 01 35 19 3e d8 70 db 3e e7 80 00 be 1b ff 44 bc
       0.14961626 0.4285953 -0.12549172 -0.0120237125
0003d0 3e ee 71 3a e8 9b 20 3e 71 00 96 bd b9 0f 24 be
       0.0009228921 0.15684474 -0.07324303 -0.16021623
0003e0 47 8a 12 3d 08 6c 4d bd 63 a7 12 3f ff df 00 3e
       0.035776403 -0.050151855 0.5728666 0.12585448
0003f0 f5 5f 2a be ed 8e 9b 3d 3d 10 81 bd 86 01 07 3e
       -0.16638167 0.0759562 -0.06301925 0.13184175

bias_ih_l0 f4 [128]
000000 39 81 d7 bc 5f 12 82 bd e4 01 da 3d 11 80 d3 3d
       -0.026306735 -0.0635116 0.10644892 0.10327161
000010 60 37 9b bb a1 5e 16 3e e7 0f 16 3e 53 0d fe bd
       -0.004736826 0.14684536 0.14654504 -0.12404885
000020 4f 0d 2e 3d 98 0e 0c 3e d2 66 81 bd b9 d1 e7 bd
       0.04249316 0.13677442 -0.063184395 -0.11319298
000030 9f aa 23 3d ef 5a 22 3e fb ea 39 be 3c dc df 3c
       0.03995764 0.15855001 -0.18156044 0.027326696
000040 3c e6 9c 3c ae b8 17 3e c5 a9 8c 3e df ad c5 bc
       0.019152753 0.14816543 0.27473274 -0.02413076
000050 c4 57 52 3e 19 49 3d bd 94 7a a8 bd d6 6c ca bd
       0.20541292 -0.04621229 -0.08226505 -0.0988404
000060 35 6c ca bb 60 85 5c bd 2b 52 d8 3d 92 af e1 3b
       -0.00617745 -0.053838134 0.10562547 0.0068873847
000070 d2 0f 05 3e d5 de a8 3d 16 a0 78 3e 55 c8 9a 3d
       0.12994316 0.08245627 0.24279818 0.075577416
000080 52 d7 2e 3e f5 16 07 be 27 30 e9 bd b9 ed d9 bd
       0.17074326 -0.13192351 -0.113861375 -0.10641045
000090 93 af 5f 3c fd ba dc 3d 2c 50 b8 3d 6b ff 63 3e
       0.0136527 0.10777853 0.089996666 0.22265403
0000a0 18 01 4c 3e 19 5b ae 3e 8f d3 a1 3d 0a 2b 6b 3e
       0.19922292 0.34053877 0.0790168 0.22965637
0000b0 06 d6 c7 bd 86 e0 19 3e b3 c1 e2 bc 74 fb a9 bd
       -0.097576186 0.15027055 -0.027680254 -0.08299914
0000c0 89 8e 27 bd 78 7e 87 3e 6b 18 9e 3e 5d 44 1d 3e
       -0.040907416 0.26463675 0.30878004 0.1535811
0000d0 93 50 21 3e f2 b0 16 3e 32 aa 00 be 6c 47 2e 3d
       0.15753393 0.14715937 -0.12564924 0.042548582
0000e0 6a f6 c8 bc 6f 9a b9 3d cd 05 20 3e d0 d2 4b 3e
       -0.024531562 0.09062659 0.15627213 0.19904637
0000f0 ab ea 2f be 1e 78 d3 3d cc 50 96 3c e6 c6 d1 39
       -0.17179362 0.10325645 0.018349074 0.00040011777
000100 16 ec 4a be 55 eb 7f 3e 6c 6a 4b 3e 78 dd 12 be
       -0.19816622 0.24992116 0.19864815 -0.14342296
000110 30 71 32 3e 4e a4 97 3c 1f 4b 96 3e 9a 0e 35 3e
       0.1742599 0.018510964 0.29354188 0.17681351
000120 e0 01 cd 3d 44 a6 e9 bd 59 81 ff 3e 84 24 7b 3d
       0.10010123 -0.11408666 0.49903372 0.06131412
000130 24 d6 14 3e cb 42 bf 3e a3 8e 03 3e db 2d c4 be
       0.14534813 0.37355646 0.1284738 -0.38316235
000140 2c 46 ee be b0 b8 5c be 10 8a 9e 3e 31 73 d2 bd
       -0.46537912 -0.21554828 0.30964708 -0.10275877
000150 54 32 27 3e e1 dc ac be a7 0c 29 3d b2 c6 6f 3e
       0.16327792 -0.33762267 0.04127183 0.2341564
000160 2b 45 98 be 62 54 80 3d ad fb 18 3e 55 d6 d1 3d
       -0.2974027 0.06266095 0.14939757 0.10245959
000170 5c 8a fa be e1 ce 71 3d cf 4b 19 be eb a5 2f bf
       -0.48933685 0.059035186 -0.14970325 -0.68612546
000180 cf 99 a2 bb d3 10 30 3e af a2 71 3e f0 aa 16 3e
       -0.004962183 0.17193918 0.23597215 0.14713645
000190 6a 5a 26 3e 9a d5 81 3e f8 2b 8e 3e 2d ab e6 3d
       0.16245428 0.25358278 0.2776792 0.11263118
0001a0 83 b7 95 3d c0 71 ad 3e d4 5f bb 3d 37 19 c8 bd
       0.07310393 0.33875847 0.09149137 -0.09770434
0001b0 8d 97 4a bd 9d 45 6c 3e 69 63 69 3d ad e6 bc 3d
       -0.049460936 0.2307343 0.05697957 0.092236854
0001c0 b4 1b 07 3e 04 6e 53 bd 03 7b 84 3e 11 1e 29 3e
       0.13194162 -0.05161859 0.258751 0.16515376
0001d0 2b d5 af bb be 17 22 3e 6a 86 45 3d 2e fd a0 bd
       -0.005365988 0.1582937 0.04822389 -0.0786079
0001e0 16 35 71 3e 46 17 02 3d c7 9e ae 3e 0e ea 68 bd
       0.23555407 0.031760477 0.34105512 -0.056863837
0001f0 4f d0 c3 bd 50 c3 87 3d 45 51 38 3e ac ef 00 3c
       -0.09561216 0.0662905 0.17999752 0.007869642

bias_hh_l0 f4 [128]
000000 10 99 4f 3e 13 ae 48 3e 97 10 16 3d 65 78 86 bd
       0.20273232 0.19597654 0.036636915 -0.06565932
000010 6a e1 b6 3d 9a 27 70 3e a7 f3 cc bd 39 8c a3 bc
       0.08929713 0.23452607 -0.100074105 -0.019964324
000020 f5 27 f8 3d 4a eb 55 3e 01 47 11 3e 97 b5 c3 3d
       0.12116996 0.20890537 0.14187242 0.0955612
000030 64 e2 25 3d 0f dd 2b 3e e5 79 43 3d e7 90 a0 3d
       0.040499106 0.16783546 0.04772367 0.07840138
000040 72 a3 02 bd 69 66 8d 3d ea ea 3c 3e 5d 80 8d bd
       -0.031894155 0.06904299 0.18448988 -0.06909249
000050 68 87 57 3e 8e 7a 81 3d af 35 59 3e 0f 74 30 be
       0.21047747 0.063222036 0.21211885 -0.17231773
000060 40 c8 e7 bd c4 48 0c be 78 16 8f 3d 7a dc b6 bd
       -0.113174915 -0.13699633 0.069867074 -0.08928771
000070 3e 86 1f 3e 26 73 da 3d e3 dc d0 3d 84 1d d6 3d
       0.15578553 0.10666494 0.10198381 0.104548484
000080 04 a7 15 3d 93 74 b6 3d 55 e0 24 3c 67 3d 03 bb
       0.03653623 0.089089535 0.010063251 -0.0020025612
000090 ae 23 c5 3c 79 05 72 bd 58 9e 07 bd 48 dd 89 bd
       0.024064865 -0.05908725 -0.033109993 -0.06731659
0000a0 e2 ac 7f bd a6 ba 25 3e 95 b2 17 bb fe bf fd 3d
       -0.062420733 0.16184482 -0.0023147215 0.12390135
0000b0 cf 61 40 3d ad 48 27 3e 1b 8b 3c be c9 b0 20 be
       0.046968278 0.16336317 -0.1841244 -0.15692438
0000c0 c0 91 d9 3c b1 cc 94 3b 60 b5 27 3e c0 a2 09 bd
       0.026558757 0.0045410027 0.16377783 -0.033602476
0000d0 0c 8a 19 3e a0 ef 8f 3d 55 2f 9d 3c b2 17 d7 bd
       0.14994067 0.07028127 0.019187609 -0.105025664
0000e0 4a 69 ca b8 9e c8 0a 3e 69 36 89 3d d3 19 a3 bc
       -9.651722e-05 0.13553092 0.06699831 -0.019909775
0000f0 4d 5c da 3c 11 4e b6 bd 58 3b cf bd 07 9c 35 3e
       0.02665534 -0.08901609 -0.10118741 0.17735301
000100 87 a5 9a bc 7f 25 89 3e 6e c8 22 3c 44 c8 e1 bd
       -0.018877758 0.2678642 0.0099354815 -0.11024526
000110 9e b3 7d 3e f3 22 3b be 18 f9 b6 3d 04 5f 34 3e
       0.2477555 -0.18275051 0.089342296 0.1761437
000120 02 7c 24 be 4d 5b de 3d a5 10 d9 3e ad b0 2c 3e
       -0.1606293 0.10857258 0.4239551 0.16864271
000130 c2 11 da 3d 8e 93 e4 3e 50 37 d8 3d fd 82 8d be
       0.10647918 0.44643825 0.10557425 -0.27639
000140 e0 c1 c0 be 3c bf 35 bd dc a1 d8 3c 8f 57 9a bb
       -0.37647915 -0.04437183 0.026444368 -0.004710145
000150 3e 4a 57 3e 91 84 97 be 4c 01 31 3e d9 e7 2d 3e
       0.21024415 -0.29593328 0.17285651 0.16982974
000160 c8 d8 6e be 7e 05 92 3e 68 77 60 bd a5 e2 f2 3d
       -0.23324883 0.28519815 -0.054801375 0.11859635
000170 cc 57 23 bf 74 f0 a6 3c 59 43 9a 3d da 9d 5d bf
       -0.6380584 0.020378329 0.07532377 -0.8656899
000180 f2 d2 84 3e 0b 76 17 3e 77 a0 0a 3e b7 14 f4 bd
       0.25942189 0.14791124 0.13537775 -0.119180135
000190 88 bb 2f bc 26 97 88 3e 30 a2 4f 3e f3 d3 3e 3e
       -0.010725863 0.26677817 0.20276713 0.1863554
0001a0 7d ee ed 3d b1 f5 b3 3e 96 69 16 3d 09 8f 9d bd
       0.11617754 0.35148385 0.03672179 -0.076932974
0001b0 92 4f 2a bd 04 19 b8 3d c3 55 fb 3d 06 fb 46 3e
       -0.04157979 0.08989146 0.12272217 0.19431695
0001c0 a1 60 8f 3e 21 be dd 3b a5 b9 16 3d da 0d 1a 3e
       0.2800341 0.00676705 0.03679814 0.15044346
0001d0 3e 98 b8 bc 3d 68 02 bd 0a 25 2d 3e e3 2a 55 3e
       -0.022533532 -0.03183769 0.1690866 0.20817141
0001e0 c5 47 e2 3d 28 60 21 3e f2 7e 04 3e d8 9e 03 3e
       0.11048845 0.15759337 0.12939051 0.12853563
0001f0 a2 38 38 3e 9a af 08 3e 30 ab d6 3d b2 a4 94 3d
       0.17990354 0.13348237 0.1048187 0.07257976

weight_ih_l0_reverse f4 [128, 2]
000000 22 b4 80 3e 1d e0 27 3e b9 30 fa 3c 90 fb 13 3c
       0.2513743 0.16394086 0.03054081 0.009032145
000010 c8 7f 07 be 6d 5d 2b be 88 5c bb 3e 71 16 9c 3e
       -0.13232338 -0.16734858 0.36594033 0.3048587
000020 3e e6 44 be d5 38 3e 3c 36 99 50 bc 5f 04 2d be
       -0.19228455 0.0116102295 -0.012731841 -0.16896199
000030 a4 15 af be 9a 83 e8 be 71 45 a9 3e 74 76 c9 be
       -0.34196198 -0.45412904 0.33060792 -0.39348185
000040 18 e0 63 3e 8d 33 47 bf d5 0b c9 be 9e 39 c8 3e
       0.22253454 -0.77813035 -0.3926684 0.39106458
000050 0d 41 e4 be 0a 41 aa 3e ea b0 c3 3e b3 75 56 bd
       -0.4458088 0.33252746 0.38220912 -0.05235834
000060 aa b7 d5 be 58 5c b4 bd 54 03 e1 be 2a 10 33 bd
       -0.41741687 -0.08806676 -0.43947852 -0.043716587
000070 a7 38 3c 3f a7 ca 08 bf 28 7d c3 3e 66 3b e3 3d
       0.73523945 -0.5343422 0.38181424 0.11095314
000080 12 a8 d1 bd 5d 05 11 be a7 6a 42 3e 54 fd eb 3e
       -0.10237135 -0.14162202 0.18985997 0.46091712
000090 70 ed e3 3c 39 35 5b be 9c 8c 3b 3d 0b 95 28 3e
       0.02782318 -0.21407022 0.045788392 0.16463105
0000a0 ce 60 26 bc a9 2c 4f 3e 53 56 fe 3e b0 51 a7 3e
       -0.010154916 0.2023188 0.49675235 0.3267951
0000b0 d4 23 06 be b7 9a 0e 3e 31 08 e2 bd e7 d0 af bd
       -0.13099605 0.13926207 -0.11036719 -0.08584767
0000c0 e6 b4 78 bf 80 43 a2 bd 2e 2b 35 bf f1 3b ac be
       -0.9715103 -0.07923031 -0.7076901 -0.33639482
0000d0 b7 c3 19 bf c7 eb 49 be f0 fb c1 bd 7c 84 23 3e
       -0.6006426 -0.19718848 -0.094718814 0.15968508
0000e0 ee 46 bd 3e 6a e9 8e be c8 5d 12 be 9e c2 10 3e
       0.36968178 -0.27912456 -0.14293587 0.1413674
0000f0 e0 e1 85 be ae 1c 16 3e 89 bf fc be e4 26 f1 be
       -0.2614889 0.14659378 -0.4936488 -0.47099984
000100 cd ee 73 3e 1d 37 dd 3e 3d 12 72 3d 9c d9 46 bc
       0.23821564 0.4320611 0.059099425 -0.012136843
000110 78 12 4f be 5e a4 91 be c4 87 6c 3e e4 8f a5 3e
       -0.20221889 -0.28445715 0.23098665 0.32336342
000120 c2 b8 67 be e3 43 1c 3d 9c 12 b8 3e 2b 08 d9 bd
       -0.22629073 0.03815068 0.35951698 -0.10597261
000130 0f 62 ed be 36 ba d8 be 24 d6 bc 3e 13 38 3f be
       -0.46363875 -0.42329568 0.36882126 -0.18673734
000140 53 55 90 3e ef 4f 93 be 81 f9 6e be 0c 0e 36 3e
       0.28190097 -0.28771922 -0.23337366 0.17778796
000150 0d 03 3b bb 6c d6 9d 3d e3 e6 7d 3e bf e6 43 bd
       -0.0028535754 0.07706913 0.24795108 -0.04782748
000160 31 0a 2c be 0b 0e 88 bd 69 09 6d be 2d db 73 bc
       -0.16800763 -0.066433035 -0.23148121 -0.014883799
000170 d5 35 f0 3e b7 b7 e1 be 1c de db 3e 1f 98 26 3e
       0.4691607 -0.44085476 0.42942894 0.16268967
000180 e2 99 d8 bd 42 d0 a9 bd 2d 63 bf bd f5 66 d1 3e
       -0.10576226 -0.08291675 -0.09345088 0.40898862
000190 64 33 e6 bd 27 5a fa bd 92 c8 3f be 3f 31 fc 3d
       -0.11240271 -0.122242264 -0.18728855 0.123140804
0001a0 47 07 ac 3c 70 d9 40 3e da f8 8a 3e 1c 74 f6 3d
       0.020999564 0.18832946 0.27142984 0.12033865
0001b0 2e c2 b2 bd de 61 f6 bc 00 a5 01 bf 02 c6 52 be
       -0.08728443 -0.030075964 -0.50642395 -0.20583346
0001c0 c9 ae fb be 8d b7 bf bd 8c dd 49 be e9 ae a6 be
       -0.49156788 -0.093611814 -0.1971342 -0.3255532
0001d0 53 84 75 be 8c a8 34 be 7f 83 4e 3d 94 2b 96 bd
       -0.23976259 -0.1764242 0.050418373 -0.073325306
0001e0 64 58 d1 3d 3b 41 0c bd ab 1d d3 bd 21 8e 2c 3e
       0.10221937 -0.034241896 -0.10308393 0.16851093
0001f0 f6 8e 84 be bb e4 3e 3e 38 57 23 3e 5b 4a f4 be
       -0.2589032 0.18641941 0.1595124 -0.4771298
000200 40 86 a6 be 92 15 89 be 02 a9 31 3e 52 5a cb 3e
       -0.325243 -0.2677427 0.17349628 0.39717346
000210 fa ae 78 3e 5e 26 02 3e fa 27 aa be fb 44 92 be
       0.24285498 0.12709948 -0.33233625 -0.28568253
000220 03 0b 7f 3e f0 74 d6 3e 30 32 84 3e a3 83 ae bd
       0.24906544 0.4188609 0.2581954 -0.085212015
000230 5d 7f 91 be bc 54 d0 be 0c a5 ce be fe a3 62 3e
       -0.28417483 -0.40689647 -0.40360296 0.2213287
000240 c6 0c 34 bd 0a cd 42 bf e5 94 24 be 96 02 f6 3e
       -0.043957494 -0.76094115 -0.16072424 0.48048848
000250 37 c1 d7 3e ff ac 6b be 07 05 f2 3e 89 7e a9 bd
       0.421396 -0.23015212 0.4726946 -0.08276088
000260 ff ed b4 3e bd 7a 87 3d f4 92 e2 3e a8 86 f0 bd
       0.35337827 0.06615207 0.4425274 -0.11744434
000270 19 a2 02 3e a8 42 cb be ff 4a 7f 3e 14 e5 2a 3d
       0.12757148 -0.39699292 0.24930952 0.041722372
000280 72 0f 93 bd 10 86 05 3f df fe 94 3e f8 ef 43 3f
       -0.0718068 0.5215769 0.291007 0.7653804
000290 f7 49 0e 3e 8d 70 d4 be 70 a3 0c bf 6c bc 81 3e
       0.13895403 -0.4149212 -0.54936886 0.25339067
0002a0 d0 f5 a2 be 8b 4c 54 bd 80 8c c9 be 4e c1 e9 bd
       -0.31828165 -0.05183081 -0.39365005 -0.11413823
0002b0 d3 53 9b be d2 20 3e 3e 09 72 3b 3e db 2d 8f 3e
       -0.3033739 0.18567207 0.1830522 0.27964672
0002c0 af 9d fc be 74 06 86 3e fa 36 f2 3e fb 35 c6 3e
       -0.49339053 0.26176798 0.4730757 0.3871306
0002d0 47 10 c3 be e7 50 10 be 4a 63 1b be 50 a0 9a be
       -0.38098356 -0.14093362 -0.15174595 -0.30200434
0002e0 65 94 d4 be 06 86 7c 3e e4 43 ad 3e 88 75 64 3d
       -0.41519466 0.24660501 0.3384086 0.05577615
0002f0 6a 6b 5b 3e a3 c9 9e be 6c 88 0f 3e 74 8f a4 be
       0.21427694 -0.31013212 0.14016885 -0.32140696
000300 ec 0b 91 3e c3 70 62 3e 80 97 35 3d d0 c3 65 bd
       0.28329408 0.22113328 0.044333935 -0.056094944
000310 23 10 06 bd 16 ad 55 be 3a 67 7b be 7c 0f 05 bd
       -0.032730233 -0.20866808 -0.24551097 -0.03248547
000320 c0 b7 a5 be 5f 53 12 3e 8e fa e5 bc 24 50 74 3c
       -0.32366753 0.14289616 -0.028073575 0.014911685
000330 5e 55 f2 be f9 a9 a4 be 67 31 f5 3e 09 98 f1 be
       -0.47330755 -0.3216093 0.47889253 -0.47186306
000340 ca 29 26 be 04 49 29 bf ff 16 70 be 37 00 09 3d
       -0.16226879 -0.6612704 -0.23446272 0.03344747
000350 84 e5 80 be 19 2e 15 3e 15 1f fd 3e df 4f 26 be
       -0.25175107 0.14568366 0.49437776 -0.16241406
000360 c3 93 85 be 74 5b 6a be 93 cc 89 be 5b 72 34 3e
       -0.26089296 -0.22886449 -0.2691389 0.17621748
000370 8a 05 86 3f 14 16 1e bf df c9 bd 3e 8e 57 7b 3d
       1.047044 -0.6175244 0.37068078 0.061362796
000380 d8 c2 c7 3d 60 8b 3e b8 e1 b3 76 3c 5f 1b 1c 3e
       0.0975396 -4.5429333e-05 0.015057535 0.15244816
000390 39 06 9d bd 29 b6 19 bc ac 41 af bd 67 5f 96 3e
       -0.076672025 -0.009381809 -0.08557448 0.2936966
0003a0 5b e7 5b 3e 8c 9c 0f bd cf 9c 91 3e 45 37 db 3e
       0.21474974 -0.035061404 0.28439948 0.42815605
0003b0 fb 40 52 3d 3c 11 da bc 7e 61 bd be 11 c9 8f bd
       0.0513315 -0.026619546 -0.36988443 -0.07020772
0003c0 12 36 eb be 55 8e 19 3d b4 8b 33 be 3c 77 bc be
       -0.4593969 0.037489254 -0.17533761 -0.3680972
0003d0 e2 fe 57 bf b4 60 3a be e4 41 c6 3d 40 03 2c 3e
       -0.84373295 -0.18200952 0.096805364 0.16798115
0003e0 64 6f 46 3f d8 be cc be 3a 96 6d be 21 48 f0 bd
       0.7751372 -0.39989352 -0.23201838 -0.117325075
0003f0 83 70 41 be d9 0d 54 3e 04 3b 4d be a5 bd 2f be
       -0.18890576 0.20708407 -0.20042044 -0.17162187
