experiments/pedestrians/models/models_14_Feb_2024_17_26_50_eth_vel_ar3/model_registrar-45.pt (torch, 527902 bytes, 43 tensors)

weight_ih_l0 f4 [128, 6]
0	0x3db8bd6f	0.090205066
1	0x3dcea371	0.10089768
2	0xbe61cd8e	-0.22051069
3	0xbd92830d	-0.07153902
4	0xbd2eb466	-0.04265251
5	0x3cac9abe	0.02106988
6	0xbe4f729c	-0.20258564
7	0xbec5aca7	-0.38608286
8	0xbdb5456d	-0.088511325
9	0x3e49c772	0.19704989
10	0x3d2299e3	0.03969754
11	0xbdbefe1e	-0.09325813
12	0x3d182511	0.037144724
13	0x3ae892ea	0.0017743979
14	0xbe97e9fc	-0.29670703
15	0xbe400e41	-0.18755437
16	0xbe85043e	-0.259798
17	0x3d038d17	0.032116976
18	0x3e1b209d	0.1514916
19	0x3e44119e	0.19147345
20	0x3dcafb45	0.09911207
21	0x3d625497	0.055256452
22	0x3dc09f07	0.09405332
23	0x3bd5f097	0.0065289247
24	0xbe0587ed	-0.13040133
25	0x3d87e726	0.06635885
26	0xbdfa73e9	-0.12229139
27	0xbede02c8	-0.43361497
28	0x3f3e6eba	0.74387705
29	0xbfa6d15c	-1.3032641
30	0x3e484c0f	0.19560264
31	0x3df9f508	0.12204939
32	0x3e3d1677	0.18465601
33	0x3cc2257e	0.023699518
34	0x3eb2f4bd	0.34952345
35	0xbe95681f	-0.29181
36	0xbecb8389	-0.3974879
37	0x3defb95f	0.117052786
38	0x3e391be5	0.18077047
39	0xbe36c594	-0.17848808
40	0x3da9900e	0.082794294
41	0xbe768401	-0.24073793
42	0xbebb0a81	-0.3653145
43	0xbd0caa77	-0.034342255
44	0x3ed61590	0.41813326
45	0xbd0046b5	-0.03131743
46	0x3daf964b	0.08573588
47	0xbc870c4d	-0.016485358
48	0x3e7cf5b4	0.24703103
49	0x3e7a38c4	0.24435717
50	0x3ef82403	0.48464975
51	0xbeaa2133	-0.33228454
52	0x3ebdabd2	0.3704515
53	0xbe4cf0a3	-0.2001367
54	0xbd83cc4c	-0.06435451
55	0xbe84fdf9	-0.25975016
56	0x3b4aed38	0.0030964147
57	0x3ea997e4	0.33123696
58	0x3dc0201f	0.093811266
59	0xbdcf7d83	-0.10131361
60	0x3e0ba4d0	0.1363709
61	0xbe822552	-0.25419098
62	0xbed077ac	-0.40716302
63	0x3ea2aee4	0.31774056
64	0xbd9ff529	-0.078104325
65	0x3d6f66d1	0.058447663
66	0x3cb1d488	0.021707788
67	0x3e41646f	0.18885969
68	0xbf09d95a	-0.5384728
69	0xbe51483a	-0.20437708
70	0xbf5c3a8d	-0.8602684
71	0xbebea7af	-0.37237307
72	0x3c9ea472	0.019365523
73	0xbd93994f	-0.07206976
74	0xbe6e7267	-0.23285829
75	0x3e2a1bfc	0.16612238
76	0x3e1331ba	0.14374438
77	0xbd009f6b	-0.031402033
78	0xbe0422a6	-0.12903842
79	0x3ce53575	0.027979592
80	0x3ec69ad0	0.38789988
81	0x3e945bbf	0.28976247
82	0x3ee96904	0.45587933
83	0x3ea5f070	0.32410002
84	0x3d3fd2ae	0.04683178
85	0xbd8b32de	-0.067968115
86	0xbf3591a5	-0.7092536
87	0x3da48a60	0.080342054
88	0xbf0a890d	-0.5411537
89	0xbd433f21	-0.047667626
90	0xbe94cedf	-0.2906408
91	0x3e0af8b2	0.13571432
92	0x3ee768e0	0.451972
93	0x3dcba1d1	0.099429734
94	0xbd91b971	-0.07115448
95	0x3ead430e	0.3384022
96	0x3e86e0c0	0.26343346
97	0xbd7b6d8b	-0.061383765
98	0xbefe8fac	-0.49718988
99	0x3ebdb88c	0.3705486
100	0xbf011c5a	-0.50433886
101	0x3d922b8e	0.07137214
102	0x3e06341a	0.13105813
103	0xbe55c420	-0.20875597
104	0xbe3a7a3a	-0.18210688
105	0x3e29d9e6	0.16587028
106	0x3c212b3e	0.00983697
107	0x3dbc27b4	0.0918726
108	0x3e39f639	0.18160333
109	0xbe69a23e	-0.22815797
110	0xbe87b454	-0.26504767
111	0x3f083d40	0.5321846
112	0xbd9d64af	-0.076852195
113	0x3f36c0e8	0.713881
114	0x3d5198c6	0.051171087
115	0x3c941f43	0.018081313
116	0xbebd838d	-0.37014428
117	0x3dc4e8de	0.096147284
118	0xbdf05424	-0.117347986
119	0x3ec30014	0.38085997
120	0xbec891ac	-0.3917364
121	0x3e9f93e1	0.3116751
122	0x3edcbe12	0.43113762
123	0xbea11250	-0.31459284
124	0x3e9c0377	0.30471393
125	0x3cb1ab1b	0.021688035
126	0x3d54af5c	0.05192505
127	0x3e6b392a	0.22971025
128	0x3d294268	0.041323096
129	0xbe3f5728	-0.18685591
130	0x3cf81cd6	0.030287188
131	0x3d9b6ae9	0.07588751
132	0xbe146fea	-0.14495817
133	0xbec2d0ad	-0.38049832
134	0x3dbaf4df	0.09128737
135	0x3dd102d9	0.10205621
136	0x3eabca53	0.335528
137	0x3cf6ce63	0.03012771
138	0xbd68398f	-0.056695517
139	0x3d90c7e2	0.070693746
140	0x3de05b38	0.109548986
141	0xbdf17826	-0.117904946
142	0x3cb152d1	0.021645935
143	0x3b143599	0.0022614955
144	0x3e0623bb	0.13099568
145	0xbd36ce1a	-0.044630148
146	0xbe84ab56	-0.2591197
147	0xbdf1060e	-0.11768733
148	0xbe580174	-0.21094304
149	0xbe7454db	-0.23860495
150	0xbeabe6e7	-0.33574602
151	0xbdf37032	-0.11886634
152	0x3d177150	0.036973298
153	0x3e2f4184	0.17114836
154	0x3e1c70f5	0.15277465
155	0x3da16c41	0.07881976
156	0xbc837abe	-0.016049739
157	0x3e684c89	0.22685446
158	0xbf15a37c	-0.5845258
159	0xbf019e76	-0.5063242
160	0xbeb7e3c3	-0.35915956
161	0xbe00b8df	-0.12570523
162	0xbe70becf	-0.23510288
163	0x3d296200	0.041353226
164	0x3f354404	0.7080691
165	0x3f0f47f6	0.5596918
166	0x3f25369d	0.6453646
167	0x3f4394b2	0.76398766
168	0x3e42416e	0.18970272
169	0xbc8670f2	-0.016411278
170	0xbea48966	-0.32136077
171	0x3e3efb76	0.18650612
172	0x3d70cb6d	0.058787752
173	0x3e806350	0.2507577
174	0xbeb6a30a	-0.35671264
175	0x3d3e70ea	0.046494402
176	0x3d732f04	0.05937101
177	0xbe903b61	-0.28170303
178	0x3e547fc9	0.20751871
179	0xbd1e376f	-0.038627084
180	0xbe01a553	-0.12660722
181	0xbda3e429	-0.080025025
182	0x3e8c808b	0.2744182
183	0x3d6acaad	0.057322193
184	0xbddcb54e	-0.107767686
185	0xbe78fc7a	-0.24315062
186	0xbdc1b07c	-0.0945749
187	0x3dada72a	0.0847915
188	0x3d0229b0	0.031778038
189	0x3d61e0fd	0.055146206
190	0xbe5e1a37	-0.21689688
191	0xbda49ae9	-0.08037359
192	0x3df612ea	0.12015326
193	0x3e09b2fe	0.13447186
194	0xbe2836c6	-0.16427144
195	0xbe0b9cf7	-0.13634096
196	0xbe35f853	-0.1777051
197	0xbe4e4459	-0.2014326
198	0xbc0c1b07	-0.008551366
199	0xbe198e7c	-0.1499576
200	0x3d255d2d	0.040372062
201	0x3dbc5503	0.09195902
202	0x3d565848	0.052330285
203	0xbdcbcef7	-0.09951585
204	0xbddb85ad	-0.10718856
205	0xbd0fb4f3	-0.035084676
206	0xbd3ecc85	-0.046581764
207	0xbcd32686	-0.025775205
208	0xbe7fa7ad	-0.24966307
209	0x3d816f0c	0.06320009
210	0x3dd86e1a	0.10567875
211	0x3d9b1aad	0.075734474
212	0x3dc7cae2	0.09755494
213	0xbe05f05b	-0.1307997
214	0xbd25593d	-0.040368307
215	0x3cc71a72	0.024304602
216	0x3cee4942	0.029087666
217	0xbe2ff9c0	-0.17185116
218	0x3e5e1049	0.216859
219	0xbe0d55a2	-0.13802198
220	0x3db34084	0.0875254
221	0x3be604fd	0.0070196376
222	0x3e342183	0.17590909
223	0xbcdf8ce2	-0.027288858
224	0x3dc86ac6	0.097859904
225	0xbe482b87	-0.19547854
226	0xbe93c045	-0.28857628
227	0x3c8d3bd2	0.017240439
228	0xbd8dbbc4	-0.06920579
229	0x3c5639db	0.013075317
230	0x3e2c768c	0.16842097
231	0xbdc4a535	-0.09601823
232	0xbdec62ce	-0.11542283
233	0xba4e7c18	-0.0007876768
234	0xbe183396	-0.14863428
235	0xbe7349e6	-0.23758659
236	0x3e7bc1a2	0.24585584
237	0xbb0b28db	-0.0021234069
238	0xbcbc8511	-0.02301267
239	0xbd828278	-0.06372541
240	0x3e9a16fa	0.30095655
241	0x3d267e0f	0.040647563
242	0xbc12a6b1	-0.008950875
243	0xbe2dd7b1	-0.16976811
244	0xbda41fb5	-0.0801386
245	0xbd5d8cc8	-0.054089338
246	0xbe355def	-0.17711614
247	0xbd565f45	-0.05233695
248	0x3e8f04cc	0.27933347
249	0x3de816b1	0.11332453
250	0x3e42fabe	0.19040963
251	0x3dad967b	0.084759675
252	0x3e0a320a	0.13495651
253	0xbe9aa0bf	-0.30200765
254	0xbe1e633b	-0.15467541
255	0x3e71c688	0.2361089

weight_hh_l0 f4 [128, 32]
0	0x3c7ee405	0.015557294
1	0xbe463e4d	-0.19359703
2	0x3c9797e2	0.01850504
3	0x3df2e763	0.1186054
4	0xbe174b63	-0.14774852
5	0xbc9ed0db	-0.0193867
6	0xbd2c6dc2	-0.04209686
7	0xbe0fa094	-0.140261
8	0x3d2a2dfd	0.041547764
9	0x3e663e7d	0.22484775
10	0xbde8ad2b	-0.11361154
11	0x3ddb2d12	0.10701956
12	0xbe0d48da	-0.13797322
13	0x3e3b3ce7	0.18284951
14	0x3e335225	0.17511804
15	0x3df70755	0.12061945
16	0x3e4f548d	0.20247097
17	0xbe045a45	-0.1292506
18	0xbdd6c0fd	-0.10486028
19	0x3c8f9ed1	0.017531784
20	0xbe52d409	-0.20588697
21	0xbe077ba7	-0.13230763
22	0xbd6c7217	-0.057725992
23	0xbe91ccf6	-0.28476685
24	0x3e8e4992	0.27790505
25	0x3dbd4fd6	0.09243743
26	0xbd04c69b	-0.032415967
27	0x3ec668c5	0.38751808
28	0x3e5fab08	0.21842587
29	0x3c15facc	0.009154033
30	0x3e14e6b2	0.14541128
31	0xbdbd64b4	-0.09247723
32	0x3dfacbf4	0.12245932
33	0xbe7d6724	-0.24746376
34	0x3dc60792	0.09669413
35	0xbdb0c169	-0.0863064
36	0x3c3aff6c	0.011413436
37	0x3e4aacea	0.19792524
38	0x3c427a9b	0.011870052
39	0xbe5c5b73	-0.2151926
40	0x3dbc7521	0.09202028
41	0x3dc10939	0.09425587
42	0xbea843f0	-0.32864332
43	0xbdc75568	-0.09733087
44	0xbe916527	-0.28397486
45	0x3e45a498	0.19301069
46	0x3df79d8e	0.12090598
47	0xbdcc0039	-0.0996098
48	0x3e56dac1	0.20981885
49	0x3df84fc8	0.12124592
50	0xbe7255e5	-0.23665579
51	0x3d87b060	0.06625438
52	0xbd9ecb7a	-0.07753654
53	0xbdf94e98	-0.12173194
54	0xbe29988c	-0.16562098
55	0xbe1e2408	-0.15443432
56	0x3dff094e	0.124529466
57	0x3e08dc80	0.13365364
58	0xbe1ebf97	-0.15502773
59	0x3d6010d5	0.054703552
60	0x3d13d3d2	0.03609068
61	0x3d0de203	0.03463937
62	0x3e63760b	0.22212999
63	0xbd92c95d	-0.07167313
64	0x3dff4ec9	0.12466199
65	0xbe181f51	-0.14855696
66	0xbde2a559	-0.11066694
67	0x3df6fbad	0.12059722
68	0x3dab9b34	0.08379212
69	0x3e2154ba	0.15754977
70	0xbe187cb5	-0.14891322
71	0xbe38839b	-0.18018954
72	0xbd05706f	-0.03257793
73	0x3e72e789	0.23721136
74	0xbe9b9a78	-0.30391288
75	0x3d9c4b67	0.07631569
76	0xbd87c3f0	-0.06629169
77	0xbdfd0b42	-0.12355663
78	0x3dfe4fef	0.1241759
79	0xbd91b591	-0.07114709
80	0x3de5f77a	0.11228843
81	0xbe042413	-0.12904386
82	0x3dc23764	0.09483221
83	0xbe08df24	-0.13366371
84	0x3da6991c	0.08134672
85	0x3d8a18c5	0.06743006
86	0x3d91edda	0.07125445
87	0x3e20353d	0.15645309
88	0x3e8e5040	0.277956
89	0x3e10c820	0.14138842
90	0x3e27e0fc	0.16394418
91	0x3e2eb4d7	0.17061172
92	0x3e1bc25c	0.15210861
93	0x3dc7224c	0.097233385
94	0xbd41cca0	-0.047314286
95	0x3d2c3b36	0.042048655
96	0xbd83f16f	-0.06442534
97	0xbd5979e1	-0.05309475
98	0xbd111134	-0.035416797
99	0x3d94f818	0.07273883
100	0xbd9ecfee	-0.07754503
101	0x3d3b39f9	0.045709584
102	0xbdc872a4	-0.09787491
103	0x3d1f6f7d	0.038924683
104	0xbcde304d	-0.027122641
105	0x3e3cae56	0.18425879
106	0xbea16249	-0.31520298
107	0xbe05fb0d	-0.1308405
108	0xbdb10263	-0.08643033
109	0xbda4f605	-0.08054737
110	0xbe05f0fd	-0.13080211
111	0xbe132d26	-0.14372692
112	0x3d2e9fa7	0.042632725
113	0x3d184d68	0.037183195
114	0xbe61d9ee	-0.2205579
115	0xbd77fe91	-0.060545508
116	0xbd46d594	-0.048543528
117	0xbc59e00c	-0.013298046
118	0x3caf745b	0.021417787
119	0xbc843ebf	-0.0161432
120	0x3e0a16ed	0.13485308
121	0x3e05dc3d	0.13072295
122	0xbd819abf	-0.063283436
123	0x3e4d4928	0.20047438
124	0x3cffe37a	0.031236399
125	0x3e000156	0.1250051
126	0x3e90566f	0.28190944
127	0xbd8d8271	-0.06909645
128	0x3d67416f	0.056458887
129	0xbdb9d3a5	-0.09073571
130	0x3ea095e5	0.3136436
131	0xbae597fb	-0.0017516607
132	0x3e00a197	0.12561642
133	0xbdaaf233	-0.08346977
134	0x3e07571e	0.13216826
135	0x3d87d8a2	0.06633116
136	0x3d45509d	0.048172582
137	0xbe312331	-0.1729858
138	0xbcdcf970	-0.02697441
139	0xbe34f263	-0.17670588
140	0xbd6e6c92	-0.05820901
141	0x3d1d5e9d	0.03842031
142	0x3d52685b	0.051369052
143	0xbe41f541	-0.18941213
144	0xbe0f8244	-0.14014536
145	0xbe6b9b5e	-0.23008487
146	0xbbb63550	-0.0055605546
147	0x3d7a9da2	0.061185487
148	0xbdaf317f	-0.085543625
149	0x3ec18f2f	0.37804553
150	0x3e54afa7	0.20770131
151	0xbe49a40e	-0.19691488
152	0xbc2e6ec7	-0.010646529
153	0xbe472a21	-0.19449665
154	0xbdd5d9ab	-0.104419075
155	0xbe894c2e	-0.26815933
156	0x3d4400ee	0.04785245
157	0xbe1c3165	-0.15253218
158	0x3dbe10ed	0.09280572
159	0xbd2cac63	-0.04215659
160	0x3db94f26	0.090482995
161	0xbe37e50b	-0.17958467
162	0x3dc981bc	0.09839198
163	0xbdf87b6f	-0.12132918
164	0xbd95f608	-0.07322317
165	0xbd7b8114	-0.061402395
166	0x3e1bb078	0.15204036
167	0xbe5ea773	-0.21743564
168	0xbd3ca750	-0.046058
169	0x3d30af03	0.043135654
170	0x3e143477	0.14473139
171	0xbdfd517a	-0.12369056
172	0xbe521a31	-0.20517804
173	0x3d8443e8	0.064582646
174	0xbbc37f69	-0.005966116
175	0x3ba64ac5	0.005074831
176	0x3cbe8d38	0.023260698
177	0x3e571e56	0.21007666
178	0xbe6a1389	-0.22859015
179	0x3e4427da	0.19155827
180	0xbd3039de	-0.043023936
181	0xbd5d7bff	-0.05407333
182	0x3c54e25e	0.012993423
183	0xbe3361fc	-0.17517847
184	0x3dc8226b	0.0977219
185	0x3d10ee70	0.03538364
186	0x3e21c1a1	0.1579652
187	0x3e58f179	0.21185865
188	0x3d9f3596	0.077738926
189	0x3ad7ecb5	0.0016473742
190	0x3e5dd6c5	0.2166396
191	0x3e2fd36c	0.17170495
192	0x3e12bb61	0.14329292
193	0xbd6ca5d9	-0.057775352
194	0xbe47eee7	-0.19524728
195	0x3e0e7a9b	0.13913958
196	0xbd4b16b6	-0.049582206
197	0xbd70a12d	-0.05874746
198	0x3e6837e7	0.22677575
199	0xbea27ea5	-0.31737247
200	0xbe0519f2	-0.12998179
201	0x3e2f9b58	0.17149103
202	0xbdd3952d	-0.103311874
203	0xbe0a039e	-0.13477942
204	0x39026507	0.00012435402
205	0x3e9f6a77	0.31135914
206	0x3da3c267	0.07996064
207	0x3c9d710e	0.019218948
208	0x3de2d74e	0.11076222
209	0xbd6eb831	-0.058281127
210	0xbdd1989a	-0.102341846
211	0xbd66c494	-0.056339815
212	0xbd95d2f6	-0.07315628
213	0x3e5ff39e	0.21870276
214	0x3e09ba5b	0.13449995
215	0xbde4cf8d	-0.111724
216	0xbc21acc0	-0.009867847
217	0x3e7546aa	0.23952737
218	0x3df9ba91	0.12193788
219	0x3e47d6f5	0.19515593
220	0xbdbf4632	-0.093395606
221	0x3c9ee9e3	0.019398635
222	0xbb560723	-0.0032658062
223	0x3e0a5e0b	0.13512437
224	0x3dfdaaa7	0.12386065
225	0xbe85f1d0	-0.2616105
226	0x3be4def0	0.006984584
227	0x3de1e61c	0.11030218
228	0xbe5257ab	-0.20541255
229	0x3d057ac7	0.032587793
230	0x3e71ddf9	0.23619832
231	0xbe1dcfc8	-0.15411294
232	0xbc7d5b84	-0.015463714
233	0x3c1c37b1	0.009534762
234	0x3d87a797	0.06623762
235	0xbd8de050	-0.0692755
236	0xbc8add9e	-0.016951378
237	0x3c2397f7	0.009984962
238	0x3cd693dc	0.026193552
239	0x3db2c72b	0.087293945
240	0x3e0c1078	0.13678157
241	0x3dd59437	0.1042866
242	0xbe4ad699	-0.19808425
243	0x3c5c7eb4	0.013457943
244	0xbebfc92e	-0.37458175
245	0x3d8b6dee	0.06808077
246	0xbdd2085d	-0.102555014
247	0xbe99f919	-0.3007286
248	0x3e4a8af0	0.19779563
249	0x3ecadfb1	0.39623788
250	0xbdf4f3cd	-0.11960564
251	0x3e8e77b4	0.278257
252	0x3e0615c0	0.13094234
253	0x3c26a374	0.010170806
254	0x3e054c50	0.13017392
255	0x3e951530	0.29117727

bias_ih_l0 f4 [128]
0	0xbc952cf9	-0.018209921
1	0x3d767465	0.060169596
2	0x3cd5341f	0.02602583
3	0xbd643d06	-0.05572226
4	0xbde639de	-0.11241506
5	0x3e2df86b	0.16989295
6	0x3d2c289f	0.042030927
7	0xbe1ab85c	-0.1510939
8	0xbc01f9a1	-0.007933051
9	0x3d238ea8	0.03993097
10	0x3e85bcb6	0.26120538
11	0x3e0b6380	0.13612175
12	0x3e408a64	0.18802792
13	0xbda24075	-0.079224505
14	0x3dbc682f	0.09199559
15	0xbdae85bf	-0.08521604
16	0xbcb97f2d	-0.02264365
17	0x3e142e2f	0.14470743
18	0xbd52d07f	-0.05146837
19	0x3e0ff115	0.14056809
20	0x3dc57bcb	0.09642752
21	0xbcfac15f	-0.030609785
22	0x3d848df8	0.06472391
23	0xbd5ed997	-0.05440673
24	0x3e083c60	0.13304281
25	0x3dd3ca34	0.103413016
26	0xbd7dcec2	-0.061964758
27	0x3c210d20	0.009829789
28	0xbc8c65b7	-0.017138345
29	0xbcb55f47	-0.022140158
30	0xbd5764ae	-0.05258625
31	0x3d819878	0.06327909
32	0x3cc46d09	0.023977773
33	0xbe8209e1	-0.25398162
34	0xbe6efd38	-0.23338783
35	0x3d0dfe19	0.034666155
36	0xbd97cdfe	-0.07412337
37	0xbe186603	-0.14882664
38	0xbe7d806f	-0.24756025
39	0xbdf28a3d	-0.11842773
40	0xbe3e457e	-0.18581197
41	0xbd380d46	-0.044934534
42	0xbe59e00c	-0.21276873
43	0x3b125265	0.0022326943
44	0xbe13669e	-0.14394614
45	0x3e26ed91	0.16301562
46	0xbd1922f6	-0.037386857
47	0xbdd1dc8e	-0.102471456
48	0x3d913537	0.07090228
49	0xbd2d4164	-0.04229869
50	0xbe229711	-0.1587794
51	0x3db9a019	0.09063739
52	0xbe9fc767	-0.3120682
53	0xbd6d3127	-0.057908203
54	0xba96bd55	-0.0011500517
55	0xbd0dd1b1	-0.034623805
56	0xbd8aae7b	-0.06771561
57	0x3e192f9a	0.14959565
58	0x3d6b7600	0.05748558
59	0x3da5d852	0.080979005
60	0xbce4afbd	-0.02791583
61	0xbe88fab0	-0.2675376
62	0xbe7ac473	-0.24489002
63	0xbe872d62	-0.26401812
64	0x3e0ccd8b	0.13750283
65	0x3e03d147	0.12872802
66	0xbd8a9776	-0.0676717
67	0x3d106283	0.035250198
68	0xbdd67710	-0.10471928
69	0xbb8e430d	-0.004341489
70	0x3dd0e02e	0.10199009
71	0xbd294a24	-0.04133047
72	0xbd6861aa	-0.056733765
73	0x3d95286b	0.072831
74	0xbd9d9b76	-0.076956674
75	0x3d246ef5	0.04014488
76	0xbdbfecef	-0.09371363
77	0xbcd5a2d4	-0.026078619
78	0xbd15cc26	-0.036571644
79	0xbdd5b071	-0.10434044
80	0xbda0b5f0	-0.07847202
81	0xbdf28f71	-0.118437655
82	0x3df17474	0.1178979
83	0xbcd1aa32	-0.02559385
84	0x3d7eb285	0.06218197
85	0x3d6cc80e	0.057807975
86	0x3dd45b85	0.103690185
87	0xbe0043fd	-0.12525935
88	0x3df4aefe	0.119474396
89	0xbdc53da0	-0.09630895
90	0x3d6276a3	0.055288922
91	0xbdd881aa	-0.105716065
92	0xbdbbdea7	-0.09173327
93	0x3e02faa2	0.12790921
94	0x3cc4d60c	0.024027847
95	0xbd80a8c3	-0.06282189
96	0x3e44b4ac	0.19209546
97	0x3d2a13aa	0.04152266
98	0x3d9151ac	0.07095656
99	0x3c3bf188	0.01147116
100	0x3de00e6b	0.1094025
101	0x3e043cf7	0.12913881
102	0x3d9a1f50	0.07525504
103	0xbdef74d4	-0.11692205
104	0xbde30de6	-0.11086635
105	0x3ddd9f19	0.10821361
106	0x3d1524f6	0.0364122
107	0x3db23941	0.087023266
108	0x3e23e42e	0.16005012
109	0xbd92b322	-0.07163073
110	0x3e095595	0.13411553
111	0x3dc558bd	0.09636066
112	0x3dd432a2	0.1036122
113	0x3db808e2	0.08986069
114	0x3d260020	0.040527463
115	0x3cccb975	0.024990777
116	0x3e63028a	0.22168937
117	0xbaa8fd3a	-0.001289285
118	0x3d42c360	0.047549605
119	0x3b34f91c	0.00276143
120	0xbd6a497b	-0.057198983
121	0x3e0e51e5	0.13898428
122	0x3dbec32c	0.0931457
123	0xbd398744	-0.045295015
124	0x3dfbdd08	0.12298018
125	0x3e4b75f5	0.19869216
126	0x3c9dade6	0.01924796
127	0x3d3154fc	0.043293938

bias_hh_l0 f4 [128]
0	0xbd800000	-0.0625
1	0x3d961266	0.07327728
2	0xbddcb3c2	-0.107764736
3	0x3dd8991e	0.1057608
4	0x3d0073be	0.03136038
5	0xbd979121	-0.07400728
6	0xbd743317	-0.059619036
7	0x3cd8d8bb	0.026470533
8	0x3d9e1d93	0.077204846
9	0x3e51be2a	0.20482698
10	0x3b9bb463	0.0047517284
11	0x3c390bd7	0.011294327
12	0xbd4de318	-0.0502654
13	0x3e5c348f	0.21504425
14	0x3e07bd8d	0.13255902
15	0x3d9a04d7	0.075204544
16	0xbde07b97	-0.10961073
17	0x3e0c8fdd	0.13726754
18	0xbe16b0f9	-0.14715947
19	0x3dc53401	0.096290596
20	0x3e79f69a	0.24410477
21	0x3e19b59b	0.15010683
22	0x3dbef9b9	0.093249746
23	0x3c220f12	0.009891288
24	0x3d0e258b	0.034703773
25	0x3db4ce69	0.08828432
26	0x3c3de3cb	0.011589955
27	0xbda76daa	-0.08175214
28	0xbdca44ef	-0.09876429
29	0xbd00f47f	-0.03148317
30	0x3c8ab6f0	0.016932935
31	0x3de862f3	0.11346998
32	0xbd84ac09	-0.064781256
33	0xbe695c8c	-0.2278921
34	0x3b8cf488	0.0043016113
35	0xbe2f9807	-0.17147838
36	0x3e6fdd3b	0.23424236
37	0x3c65a4ec	0.014016371
38	0xbdda5a74	-0.10661784
39	0xbe86c913	-0.26325282
40	0xbde745c8	-0.112926066
41	0xbdcf2b33	-0.101156615
42	0xbe467c76	-0.19383416
43	0xbd717c34	-0.05895634
44	0xbe163ffa	-0.14672843
45	0xbc86845c	-0.016420536
46	0x3d8c6d49	0.06856782
47	0xbd56769b	-0.052359205
48	0xbd75554f	-0.05989581
49	0xbde1bc46	-0.110222384
50	0xbe058e95	-0.13042672
51	0xbdb9a5ca	-0.09064825
52	0xbe2c32a3	-0.16816191
53	0xbe620040	-0.22070408
54	0xbe6598d8	-0.22421587
55	0xbd803a5b	-0.062611304
56	0xbe8ae771	-0.271297
57	0xbe22d986	-0.15903291
58	0xbe48c1a2	-0.19605115
59	0x3ca62f3f	0.0202862
60	0xbd65efd7	-0.056136932
61	0xbd09b783	-0.033622276
62	0xbde706cf	-0.112805955
63	0x3d19140b	0.03737263
64	0xbe154119	-0.14575614
65	0xbe0f6800	-0.14004517
66	0x3dd1bb1c	0.102407664
67	0xbca6f595	-0.020380775
68	0x3e1b968d	0.1519415
69	0x3ce53593	0.027979648
70	0xbdac581b	-0.08415242
71	0x3bb6326a	0.005560209
72	0x3dad1b00	0.084524155
73	0xbcaa49ce	-0.020787146
74	0x3d50635f	0.050876018
75	0x3d6b448f	0.05743843
76	0x3db22ceb	0.08699974
77	0x3d255687	0.040365722
78	0xbdea09d3	-0.11427655
79	0x3d2bb23f	0.041918036
80	0x3c6d10e3	0.014469358
81	0x3dfddaef	0.12395274
82	0x3d318a80	0.043344975
83	0xbe1bd3fc	-0.15217584
84	0xbdc222e2	-0.094793096
85	0xbb2d597f	-0.002645105
86	0xbe0f4338	-0.13990486
87	0x3dfb8863	0.12281873
88	0xbdf3c22a	-0.11902268
89	0x3c18e44e	0.009331776
90	0x3d6e9db8	0.05825588
91	0x3c15973a	0.0091302935
92	0xbda468fc	-0.08027837
93	0xbe1a5a5b	-0.1507353
94	0xba08a5b2	-0.0005212679
95	0x3d28a5d1	0.04117376
96	0x3d9dcf7d	0.07705591
97	0x3e34116e	0.17584774
98	0xbdae5fb7	-0.0851435
99	0x3e748378	0.23878276
100	0x3e550258	0.20801675
101	0x3d053b89	0.03252748
102	0x3e8c3410	0.2738347
103	0x3e4651c1	0.19367124
104	0xbe28d2e6	-0.16486701
105	0x3e05b29e	0.13056418
106	0x3e8e2c06	0.27767962
107	0x3e27d97b	0.16391556
108	0x3e305840	0.17221165
109	0x3df8efd2	0.12155117
110	0x3d5d0f39	0.053969596
111	0x3dd573b1	0.10422457
112	0x3dfa1220	0.12210488
113	0xbd403a9b	-0.04693089
114	0x3e151e24	0.14562279
115	0xbdc9b9a7	-0.098498635
116	0x3e3d2bd9	0.18473758
117	0x3e425c61	0.18980552
118	0x3e4c1bfd	0.19932552
119	0x3e0a9962	0.13535073
120	0x3e05c3af	0.13062929
121	0x3deac4c3	0.114633106
122	0x3e148aa2	0.14506009
123	0xbd201e61	-0.03909147
124	0xbbd06c74	-0.006360585
125	0x3e45c91e	0.19315001
126	0x3d3d8199	0.046266172
127	0x3e79e3c7	0.24403296

weight_ih_l0 f4 [128, 2]
0	0x3dd92077	0.10601895
1	0x3da32742	0.07966472
2	0x3d1c8d14	0.03822048
3	0x3d92df4d	0.071714975
4	0x3e11c168	0.14233935
5	0x3ca071fb	0.0195856
6	0xbe200745	-0.15627773
7	0x3c811855	0.015758673
8	0xbd9bca1f	-0.07606911
9	0xbe970bea	-0.29501277
10	0x3dce4df8	0.10073465
11	0x3e0e66cc	0.13906401
12	0xbdd2326c	-0.102635235
13	0x3e087337	0.13325201
14	0xbe938e58	-0.28819537
15	0xbcc8ee46	-0.02452768
16	0x3e0c4255	0.13697179
17	0xbe141734	-0.14461976
18	0xbe32a118	-0.17444265
19	0x3d299e48	0.041410714
20	0xbd834b28	-0.06410819
21	0xbace8f14	-0.0015759193
22	0x3e16d87c	0.1473102
23	0xbd8adf45	-0.067808665
24	0x3d7c7fb5	0.06164523
25	0xbe875f51	-0.26439908
26	0xbda12113	-0.078676365
27	0xbc8eee14	-0.017447509
28	0xbe793a8b	-0.24338739
29	0x3d953bf5	0.072868265
30	0xbd6512d6	-0.055926166
31	0x3d629eff	0.05532741
32	0xbe37b0c2	-0.17938522
33	0x3e2a671e	0.16640899
34	0xbb3d2873	-0.002886322
35	0x3e91377d	0.28362647
36	0x3d33a3c9	0.04385737
37	0x3e6c5edc	0.23083061
38	0x3e083f25	0.13305338
39	0x3df14675	0.11781017
40	0x3e9a3dd7	0.30125305
41	0xbccb7327	-0.024835182
42	0x3e4a7613	0.19771604
43	0x3ee22d02	0.44174963
44	0x3e5c42e4	0.21509892
45	0x3e8c9d1e	0.2746362
46	0xbee75aec	-0.45186555
47	0x3e335a92	0.17515019
48	0xbd47f248	-0.04881504
49	0x3d615194	0.05500944
50	0x3db44194	0.088015705
51	0xbe4776e0	-0.19478941
52	0xbd2c0505	-0.041996974
53	0x3e6d81ad	0.23193999
54	0xbe74a488	-0.23890889
55	0xbe1961e4	-0.14978749
56	0xbd454817	-0.048164453
57	0xbd2b4a33	-0.04181881
58	0x3d6f414a	0.058411874
59	0x3ea155fc	0.31510913
60	0x3e9d59f1	0.30732682
61	0xbc50dfc0	-0.012748659
62	0x3d0ca96f	0.034341272
63	0xbeaa3536	-0.33243722
64	0x3cf60d00	0.030035496
65	0xbe3664a4	-0.17811829
66	0xbd9cb54f	-0.07651769
67	0xbe809cce	-0.25119632
68	0xbceb6452	-0.02873436
69	0x3d1416bb	0.03615449
70	0x3db76a48	0.089558184
71	0x3e96920a	0.29408294
72	0x3e692c85	0.22770889
73	0x3dc40d84	0.095728904
74	0xbec40732	-0.3828674
75	0x3e5047d7	0.20339905
76	0xbf07aa47	-0.529942
77	0x3cfef9ca	0.031124968
78	0x3e9ca9c8	0.30598283
79	0x3dd40ad6	0.10353629
80	0xbd86ccc3	-0.06582024
81	0xbdae407f	-0.085083954
82	0xbd4b4774	-0.04962869
83	0xbe9e9173	-0.30970344
84	0xbe0345a2	-0.12819532
85	0xbdf06986	-0.11738877
86	0xbe42e3c9	-0.19032206
87	0x3e0c20e8	0.13684428
88	0xbed20806	-0.41021746
89	0xbd83f91a	-0.06443997
90	0x3eca7100	0.39539337
91	0x3ecac92e	0.39606613
92	0xbe68f096	-0.22748026
93	0xbe86a353	-0.26296481
94	0x3e083373	0.13300876
95	0x3cba0507	0.022707475
96	0x3ddd2a18	0.10799044
97	0xbc9cf64e	-0.019160416
98	0xbc8afb94	-0.016965665
99	0xbe82be36	-0.25535744
100	0x3df96a0a	0.121784285
101	0x3f0eafdc	0.5573709
102	0xbede18bc	-0.43378246
103	0x3dffd0d7	0.12491005
104	0xbebae199	-0.36500242
105	0xbe286306	-0.16444024
106	0x3e4d0e90	0.20025086
107	0x3e013e16	0.1262134
108	0x3da7c859	0.0819251
109	0x3ec5dd02	0.38645178
110	0xbd1aeed6	-0.037825428
111	0xbf04d6f1	-0.51890475
112	0xbe885340	-0.26626015
113	0xbe3b504a	-0.18292347
114	0x3e858d6f	0.26084468
115	0x3dc09fa8	0.09405452
116	0x3e54e1bb	0.20789234
117	0xbe5f1ed9	-0.21789111
118	0xbe027b7d	-0.1274242
119	0x3e8fe5ab	0.2810491
120	0x3d0f5168	0.034989744
121	0xbea85621	-0.3287821
122	0xbe597424	-0.2123571
123	0x3f05a079	0.52197987
124	0x3e819b70	0.25313902
125	0xbd755944	-0.059899583
126	0x3c90fd94	0.01769904
127	0x3e936397	0.2878692
128	0xbd047f28	-0.03234783
129	0x3e5fd9e5	0.21860464
130	0xbe79b842	-0.24386695
131	0xbea5bac4	-0.32369053
132	0xbe814663	-0.25249013
133	0xbe84d13a	-0.25940877
134	0xbdab4a4c	-0.083637804
135	0xbe9f9fa8	-0.31176496
136	0xbe8fc791	-0.28081945
137	0x3e4e8555	0.2016805
138	0x3e20add6	0.15691313
139	0xbec46bfe	-0.38363642
140	0xbd372432	-0.044712253
141	0xbda11e1a	-0.078670695
142	0x3e97c277	0.29640552
143	0xbdf39aba	-0.11894746
144	0x3f0f17a7	0.55895466
145	0x3e38eaab	0.18058269
146	0xbbf6492d	-0.0075160475
147	0x3f2b81c7	0.669949
148	0x3e922252	0.2854181
149	0x3edbf1c2	0.42957884
150	0xbf041cd1	-0.5160647
151	0x3e85729c	0.26064003
152	0xbea7c6e4	-0.3276893
153	0xbc9cd634	-0.019145109
154	0x3e7db60b	0.24776475
155	0x3e52cf4d	0.20586891
156	0xbea9cc10	-0.331635
157	0xbee481af	-0.4463019
158	0xbead15ff	-0.33805844
159	0x3e519b7a	0.20469466
160	0x3ce4ab83	0.027913814
161	0x3e2a6110	0.16638589
162	0xbee688c6	-0.45026225
163	0x3eaa24f8	0.3323133
164	0x3d1a4c0f	0.03767019
165	0x3ef11c64	0.47091973
166	0x3e928fdf	0.2862539
167	0xbdfaf419	-0.12253589
168	0xbe88e1e4	-0.2673484
169	0xbcc17d68	-0.023619369
170	0xbed624cd	-0.41824952
171	0x3e8e577e	0.27801126
172	0xbdbe6f56	-0.092985794
173	0xbeea8dc6	-0.4581129
174	0x3de3ddc5	0.111262836
175	0xbd30fce3	-0.04320992
176	0x3e57582d	0.2102973
177	0x3e791299	0.243235
178	0xbe15b0e4	-0.1461826
179	0x3e8e6d62	0.27817827
180	0xbf0c43f2	-0.54791176
181	0x3e879559	0.2648113
182	0x3e88e2c9	0.26735523
183	0x3e2a9008	0.16656506
184	0x3ed8e74e	0.4236397
185	0x3e592fe4	0.21209675
186	0x3e0b8255	0.13623936
187	0x3d41e6df	0.047339316
188	0x3e90f234	0.28309786
189	0x3e2dc8a2	0.16971067
190	0xbe011ebd	-0.12609382
191	0xbed0a389	-0.40749767
192	0xbdcd3bbb	-0.10021158
193	0xbe251bf7	-0.16123949
194	0x3e06e22d	0.13172217
195	0x3c8ab0f7	0.016930087
196	0x3de46f99	0.11154098
197	0xbd808c9b	-0.06276818
198	0x3e5e4996	0.21707758
199	0x3dd40961	0.103533514
200	0x3bda7c3a	0.006667641
201	0xbe55fd4b	-0.20897405
202	0xbe65215b	-0.22376005
203	0x3e4fb984	0.20285612
204	0xbea7168f	-0.32634398
205	0xbe14c633	-0.14528732
206	0xbd765b8a	-0.060145892
207	0xbdc38be8	-0.095481694
208	0xbd3fe6c8	-0.04685095
209	0x3dba7f53	0.091063164
210	0xbe6aa182	-0.22913173
211	0xbeb51528	-0.35367703
212	0x3dc82487	0.09772592
213	0xbd5bb451	-0.05363876
214	0x3df94e19	0.12173099
215	0xbd1910af	-0.037369426
216	0x3eae2db8	0.34019256
217	0x3e0a17e7	0.1348568
218	0x3e32e94c	0.17471808
219	0x3e5d6c06	0.21623239
220	0xbe2848f6	-0.16434082
221	0x3e06f338	0.13178718
222	0x3d5a1eeb	0.053252142
223	0xbca9d384	-0.020730741
224	0xbda5914c	-0.08084354
225	0x3de087a4	0.109633714
226	0xbda4ae5f	-0.08041071
227	0xbe2005e7	-0.15627252
228	0xbd0a3c37	-0.03374883
229	0xbd8b0b79	-0.067892976
230	0x3e482b8a	0.19547859
231	0x3e9173ae	0.2840857
232	0x3d9d77fd	0.076889016
233	0xbdb73f10	-0.08947575
234	0x3c017bef	0.007903083
235	0x3eeaf584	0.4589044
236	0x3e2f8d08	0.17143643
237	0x3e2de84a	0.16983142
238	0xbe172c84	-0.14763075
239	0xbe8bc35c	-0.27297485
240	0x3e33b649	0.17550005
241	0x3d952b49	0.072836466
242	0x3e1f47dd	0.15554757
243	0xbe7239da	-0.23654881
244	0x3d10e8fd	0.035378445
245	0xbe4a347e	-0.19746587
246	0x3d0f448d	0.034977484
247	0x3d530b73	0.05152459
248	0xbcaba299	-0.020951556
249	0xbdc6f7d2	-0.09715237
250	0xbe07f02b	-0.1327521
251	0x3e7fc6e9	0.24978222
252	0x3e365a70	0.17807937
253	0xbd5a14b2	-0.053242393
254	0x3e1976c7	0.14986716
255	0xbe6de842	-0.2323313

weight_hh_l0 f4 [128, 32]
0	0xbd77ca74	-0.06049581
1	0x3d8a1dfc	0.06744
2	0xbe0280aa	-0.12744394
3	0x3d672b10	0.056437552
4	0x3d528427	0.05139556
5	0xbd92d866	-0.07170181
6	0xbe472a19	-0.19449653
7	0xbd21108a	-0.039322414
8	0xbe41d792	-0.1892989
9	0xbd675017	-0.056472864
10	0x3d9c3a12	0.076282635
11	0x3e47975d	0.19491334
12	0x3e2035c6	0.15645513
13	0x3e23c02e	0.1599128
14	0xbd8a6556	-0.067576095
15	0xbda60fd9	-0.081084915
16	0x3dd066bf	0.10175847
17	0x3c128495	0.008942743
18	0x3e869b1d	0.26290217
19	0xbdee3f99	-0.11633224
20	0x3ddb048b	0.10694226
21	0xbe27be08	-0.16381085
22	0xbe965d26	-0.29367942
23	0x3df4ce98	0.11953467
24	0xbe6e84d4	-0.23292857
25	0x3e7db824	0.24777275
26	0xbe32f512	-0.174763
27	0x3e2a98b1	0.1665981
28	0x3de8b722	0.11363055
29	0xbe2c3a8f	-0.16819213
30	0xbdf7eea8	-0.12106067
31	0xbcbd1f21	-0.023086132
32	0x3c9be68e	0.019030835
33	0xbdf65d1e	-0.120294794
34	0xbeb06b37	-0.34456798
35	0xbe157f4c	-0.14599341
36	0x3df9f24c	0.122044176
37	0x3bc94126	0.0061417995
38	0xbea275f3	-0.31730613
39	0xbd701e10	-0.05862242
40	0x3e4e3597	0.2013763
41	0x3e4427e0	0.19155836
42	0x3ed3b29f	0.41347215
43	0x3c31d479	0.01085388
44	0xbd9c5803	-0.076339744
45	0x3edfd26e	0.43715233
46	0xbd1584d2	-0.03650362
47	0xbe246d4f	-0.16057323
48	0x3d9e1f88	0.07720858
49	0x3e272c8a	0.16325584
50	0x3eb64382	0.3559838
51	0x3dc7cb75	0.09755603
52	0x3e2a253a	0.16615763
53	0xbe83b0a5	-0.25720707
54	0xbdae1585	-0.08500198
55	0x3e107c85	0.1411
56	0x3dac6b95	0.08418957
57	0xbcf0871d	-0.029361302
58	0xbe1b5130	-0.1516769
59	0xbba821ed	-0.0051309974
60	0x3d880df1	0.06643284
61	0x3d21c91f	0.039498445
62	0x3de1fb9a	0.11034317
63	0xbede8c6c	-0.43466508
64	0xbddfa52b	-0.10920175
65	0x3e6f46d1	0.23366858
66	0x3e115040	0.14190769
67	0xbd593735	-0.053031165
68	0xbe859e1d	-0.26097193
69	0xbdff4b67	-0.12465554
70	0xbe0e51f7	-0.13898455
71	0x3d955d77	0.07293218
72	0x3ac10767	0.0014726938
73	0xbe806473	-0.25076637
74	0xbe2a820e	-0.16651174
75	0x3cf9fb3b	0.030515304
76	0x3dddd6b2	0.108319655
77	0x3ee06819	0.4382942
78	0x3e7f3375	0.24921973
79	0xbc19706c	-0.009365182
80	0x3d7df4ac	0.062000915
81	0x3d06ae5d	0.03288113
82	0x3ce534ce	0.02797928
83	0xbe84a3d0	-0.2590623
84	0x3da1fcda	0.07909556
85	0xbe075959	-0.13217677
86	0xbddc3a9b	-0.107533656
87	0x3e5b2e80	0.21404457
88	0xbe8f83a8	-0.28030133
89	0x3cac50f2	0.021034691
90	0xbe89c017	-0.26904365
91	0x3e691b0a	0.22764221
92	0xbe848f3c	-0.2589053
93	0xbd7c0e7d	-0.061537255
94	0x3e79dfa7	0.24401723
95	0xbf017454	-0.5056813
96	0x3e12b0f5	0.14325316
97	0xbdad01f1	-0.08447636
98	0x3dd363d4	0.10321775
99	0xbd825394	-0.063635975
100	0x3dba066a	0.09083255
101	0x3d9e19fa	0.077197984
102	0x3e4e1d64	0.20128399
103	0x3e1e0b30	0.15433955
104	0x3ed7b0ac	0.42126977
105	0x3e118b28	0.1421324
106	0x3ca69752	0.020335827
107	0x3cfbbefe	0.03073072
108	0x3d9c4517	0.07630365
109	0xbd6d2e19	-0.05790529
110	0xbd9c4ac5	-0.07631449
111	0xbdb782bc	-0.089604825
112	0xbdfc791a	-0.12327786
113	0xbe91b886	-0.28461093
114	0xbd470cce	-0.048596196
115	0xbdb50833	-0.088394545
116	0xbd9a5ca9	-0.07537205
117	0x3e224ba8	0.15849173
118	0x3dbdda0b	0.09270104
119	0xbccbe0a4	-0.02488739
120	0x3cbbf3e5	0.022943446
121	0x3e8ce1f3	0.27516136
122	0xbdca73b8	-0.09885353
123	0x3eb36312	0.35036522
124	0xbb8fd97e	-0.0043899408
125	0xbe24794f	-0.160619
126	0x3e1a675e	0.15078494
127	0xbdc5c89b	-0.09657403
128	0xbe7a5495	-0.24446328
129	0x3d97c51d	0.07410643
130	0x3e1a4f31	0.15069272
131	0x3e739460	0.2378707
132	0xbdedaf38	-0.11605686
133	0x3ef1d68a	0.47233993
134	0x3eb1af0a	0.34703857
135	0x3d84ae52	0.064785615
136	0x3ea3802c	0.31933725
137	0x3c313b0d	0.010817301
138	0xbe736070	-0.23767257
139	0xbd90db94	-0.07073131
140	0xbdb519fd	-0.088428475
141	0x3ddf8ab1	0.10915125
142	0x3e8db211	0.27674916
143	0xbd6a8e98	-0.057264894
144	0xbeb586bd	-0.3545436
145	0xbf314991	-0.6925288
146	0xbe907c78	-0.28219962
147	0x3e426884	0.18985182
148	0x3d862157	0.06549328
149	0x3d658105	0.056031246
150	0x3f0978d4	0.53699994
151	0xbd60f9b9	-0.054925654
152	0xbe33cd5f	-0.17558812
153	0x3de30019	0.11084003
154	0xbed86225	-0.42262378
155	0x3e47ff76	0.19531044
156	0xbe082ece	-0.13299105
157	0x3e139217	0.14411198
158	0x3d9f5642	0.07780124
159	0x3de569e1	0.112018354
160	0xbdb01e06	-0.085994765
161	0xbda34da2	-0.07973792
162	0xbe9dc13b	-0.30811486
163	0xbe69799c	-0.22800297
164	0x3e0f19e0	0.13974714
165	0x3e1040b1	0.14087178
166	0xbe29b0a7	-0.16571294
167	0x3e878db2	0.26475292
168	0x3ec226b4	0.37920153
169	0xbeaa5181	-0.33265308
170	0xbdadb534	-0.084818274
171	0x3e9c1bce	0.30489963
172	0x3dbcf276	0.09225933
173	0x3d3473d2	0.044055767
174	0x3e48f524	0.19624764
175	0xbe1dbada	-0.1540331
176	0xbe6ddbae	-0.23228332
177	0xbe1e2d2f	-0.15446924
178	0xbca1e32c	-0.019761644
179	0x3de3c74f	0.111219995
180	0xbdb13467	-0.08652573
181	0xbe838e21	-0.25694373
182	0xbe15023f	-0.14551638
183	0x3e6de830	0.23233104
184	0x3de2a518	0.110666454
185	0x3e896596	0.26835316
186	0xbd5742ca	-0.05255393
187	0x3eac159c	0.33610237
188	0xbcd58359	-0.026063608
189	0xbeb33cef	-0.35007426
190	0x3ee908cc	0.45514524
191	0xbddca1bb	-0.10773035
192	0x3e94706b	0.28992018
193	0xbe7ce9ce	-0.24698564
194	0xbecd3143	-0.40076646
195	0xbe825b51	-0.25460294
196	0x3e3373d7	0.17524658
197	0xbe81cfba	-0.25353795
198	0x3c8a585e	0.01688784
199	0x3e273e6f	0.1633241
200	0x3e9896a5	0.29802433
201	0x3e8ca1ed	0.2746729
202	0x3edfdecf	0.43724677
203	0xbbcbcd35	-0.006219531
204	0xbdee7b0c	-0.11644563
205	0x3e97459b	0.29545292
206	0xbee7bf4a	-0.4526313
207	0xbe42440c	-0.1897127
208	0x3cc4a9ee	0.02400681
209	0x3e8aa7da	0.27081186
210	0x3ea16cc1	0.31528285
211	0xbc989caf	-0.0186294
212	0x3d12f6f2	0.035880037
213	0x3e850a97	0.25984642
214	0xbedd1903	-0.43183145
215	0xbbbd62dc	-0.005779607
216	0x3e412f08	0.18865597
217	0x3d5735f9	0.052541707
218	0xbe5b5f80	-0.21423149
219	0xbd04c21a	-0.032411672
220	0x3ece98af	0.40350863
221	0xbe307ddb	-0.1723551
222	0x3c3aa624	0.01139215
223	0xbd83a1ad	-0.064273216
224	0x3e6bc859	0.23025645
225	0x3e041663	0.12899165
226	0x3ede9dc8	0.43479753
227	0x3d6bd5d2	0.05757696
228	0x3e4a18cf	0.19736026
229	0xbebf0a59	-0.37312582
230	0x3e739e3f	0.23790835
231	0xbd82c82f	-0.06385838
232	0xbf324903	-0.6964266
233	0xbde4614c	-0.111513704
234	0xbe9df1ce	-0.30848545
235	0x3e987b61	0.2978163
236	0x3f397f9c	0.7246034
237	0xbe15e0fb	-0.14636604
238	0x3d865d01	0.06560708
239	0x3e9b560b	0.30339083
240	0x3e0e2fcf	0.13885425
241	0x3ebebdc0	0.37254143
242	0xbe0dd573	-0.13850956
243	0xbbf51146	-0.007478866
244	0x3cbb46af	0.022860853
245	0x3df1a66a	0.11799319
246	0xbd55cb18	-0.05219564
247	0xbe2118f5	-0.15732177
248	0x3ce10b37	0.027471168
249	0xbd2ccbad	-0.042186428
250	0x3f026523	0.5093557
251	0x3dfeb5cc	0.12437019
252	0xbe2a72f5	-0.16645415
253	0x3d7d6e3d	0.06187271
254	0xbd1221c3	-0.03567673
255	0x3decc4f3	0.115610026

bias_ih_l0 f4 [128]
0	0xbcb9ca07	-0.022679342
1	0xbd7aa34d	-0.061190892
2	0x3dd31963	0.103075765
3	0x3dbc958b	0.092082106
4	0x3bb5c373	0.005546981
5	0x3e1bc2c3	0.15211014
6	0x3e231b5c	0.15928406
7	0xbdda1a66	-0.10649566
8	0x3d30a681	0.04312754
9	0x3e0f75fc	0.14009851
10	0xbd811b8c	-0.06304082
11	0xbddc3e26	-0.107540414
12	0x3d2008ee	0.039071016
13	0x3e2f1f78	0.17101848
14	0xbe2d0732	-0.16897276
15	0x3cf9cdad	0.030493582
16	0x3c944606	0.018099796
17	0x3e2aadcd	0.16667862
18	0x3e8ae90d	0.2713093
19	0xbd193786	-0.037406467
20	0x3e4e0d36	0.20122227
21	0xbd6efa88	-0.058344394
22	0xbdc26d23	-0.094934724
23	0xbdc271c4	-0.09494355
24	0xbc0aa46c	-0.008462053
25	0xbd36f61d	-0.044668306
26	0x3df17639	0.11790127
27	0x3ca19cc0	0.019728065
28	0x3e02beab	0.12768047
29	0x3da994c8	0.08280331
30	0x3e74cf7a	0.23907271
31	0x3d8fb144	0.070162326
32	0x3e2dc9cb	0.16971509
33	0xbe062939	-0.13101663
34	0xbdf75ad6	-0.120778725
35	0xbdf17e9c	-0.11791727
36	0x3cab29d4	0.020893969
37	0x3de077e9	0.10960371
38	0x3db79230	0.0896343
39	0x3e6cde33	0.23131637
40	0x3e4dccea	0.200977
41	0x3ea80f92	0.3282438
42	0x3db1691d	0.08662627
43	0x3e6dad5a	0.2321066
44	0xbdc4c857	-0.09608524
45	0x3e1f1316	0.15534624
46	0xbcbe24fb	-0.023210993
47	0xbd9847d5	-0.07435576
48	0xbd458445	-0.048221845
49	0x3e8b853a	0.2725008
50	0x3e998c4d	0.29989854
51	0x3e1e5b3b	0.15464489
52	0x3e10a0f8	0.14123905
53	0x3e047ec8	0.12938988
54	0xbdf3684e	-0.11885129
55	0x3d20b3af	0.03923386
56	0xbce3e6e9	-0.027820067
57	0x3dbad4d8	0.09122628
58	0x3e21fcfc	0.15819162
59	0x3e5379a8	0.20651877
60	0xbe2c5d8b	-0.16832559
61	0x3dd094de	0.10184644
62	0x3c8c1750	0.01710096
63	0x3b9c80bb	0.004776088
64	0xbe580745	-0.21096523
65	0x3e817e91	0.25291875
66	0x3e3e02f4	0.18555814
67	0xbe0ef28d	-0.13959713
68	0x3e106f73	0.14105015
69	0xbd43b18e	-0.04777675
70	0x3e63b08a	0.22235313
71	0x3e43f9ee	0.1913831
72	0x3dcb8826	0.09938078
73	0xbe0f1c61	-0.1397567
74	0x3ec510ef	0.38489482
75	0x3d6dff08	0.058104545
76	0x3e1b32ff	0.15156172
77	0x3ebd517e	0.36976236
78	0x3e03ba31	0.12863995
79	0xbea23f82	-0.31689078
80	0xbed93559	-0.42423514
81	0xbe14c91b	-0.1452984
82	0x3ea94c83	0.33066186
83	0xbda8a9f7	-0.08235543
84	0x3e4346ad	0.1906993
85	0xbe9e5c8a	-0.30929977
86	0xbcff2698	-0.031146333
87	0x3e86352c	0.26212442
88	0xbe9747b4	-0.29546893
89	0x3d564908	0.05231574
90	0x3e0dc02b	0.13842838
91	0x3dbca986	0.092120215
92	0xbee5f762	-0.449153
93	0x3c97cacd	0.01852932
94	0xbe0fbe9c	-0.14037555
95	0xbf24b09e	-0.64331996
96	0xbb8a511a	-0.004221094
97	0x3e2e7a2a	0.1703879
98	0x3e69eb7b	0.22843735
99	0x3e00b656	0.12569556
100	0x3e26b245	0.16278942
101	0x3e7f5265	0.24933775
102	0x3e88f7f3	0.2675167
103	0x3dd92a25	0.106037416
104	0x3d8d6ab5	0.069051184
105	0x3ea99488	0.33121133
106	0x3d9f4795	0.07777325
107	0xbdd6e7de	-0.10493444
108	0xbd71d8e3	-0.05904473
109	0x3e6ca238	0.23108757
110	0x3d9176ac	0.07102713
111	0x3d95dc02	0.07317354
112	0x3e04d4ff	0.12971877
113	0xbd33d763	-0.04390658
114	0x3e7dcc15	0.24784882
115	0x3e1096e2	0.14120057
116	0xbca07ba8	-0.019590214
117	0x3e07f5ec	0.13277406
118	0x3d1c5250	0.038164437
119	0xbdb5e6d2	-0.08881916
120	0x3e6973c5	0.22798069
121	0x3d12766e	0.035757475
122	0x3eae8b4a	0.34090644
123	0xbd49f5a4	-0.049306527
124	0xbdb58a9a	-0.08864327
125	0x3d5fcc80	0.054638386
126	0x3e38ee15	0.18059571
127	0xb82c0c16	-4.101925e-05

bias_hh_l0 f4 [128]
0	0x3e534ffa	0.20635977
1	0x3e4b0e74	0.19829732
2	0x3d083f30	0.033263385
3	0xbd9d62e9	-0.07684881
4	0x3dcbf129	0.09958107
5	0x3e758bbb	0.23979084
6	0xbdb2dc8b	-0.087334715
7	0xbb1e04aa	-0.0024111667
8	0x3df974a3	0.1218045
9	0x3e5952b1	0.2122295
10	0x3e116cb1	0.14201619
11	0x3dcf492c	0.10121378
12	0x3d2240b6	0.039612494
13	0x3e38a196	0.1803039
14	0x3d770920	0.060311437
15	0x3da70d59	0.08156843
16	0xbd06f366	-0.032946967
17	0x3db35094	0.087556034
18	0x3e39699a	0.1810669
19	0xbda8b09c	-0.082368106
20	0x3e533cd9	0.2062868
21	0x3d51439b	0.051089864
22	0x3e4c3c80	0.19944954
23	0xbe2c7657	-0.16842018
24	0xbdec7601	-0.11545945
25	0xbe02e506	-0.12782678
26	0x3da83a89	0.0821429
27	0xbd9c903d	-0.07644699
28	0x3e1d3517	0.15352283
29	0x3ddb291a	0.10701199
30	0x3dc93ba8	0.09825832
31	0x3dcb0672	0.09913339
32	0x3d117073	0.03550763
33	0x3db85054	0.089996964
34	0x3b4e2eac	0.0031460924
35	0xbc5d5653	-0.013509351
36	0x3d003add	0.031306136
37	0xbd6a8bc6	-0.057262205
38	0xbd091a69	-0.033472452
39	0xbd703f85	-0.058654327
40	0xbd787dd4	-0.060666874
41	0x3e19234c	0.14954871
42	0x3bad7fef	0.005294792
43	0x3e016256	0.12635168
44	0x3d467d16	0.048459135
45	0x3e2c7b3c	0.16843885
46	0xbe37f77c	-0.17965502
47	0xbe17d6f5	-0.14828093
48	0x3c9da64c	0.019244336
49	0x3c4b3e2f	0.012404962
50	0x3e1e9d16	0.15489611
51	0xbd054787	-0.032538917
52	0x3e08da71	0.13364579
53	0x3d571644	0.05251147
54	0x3cd4df90	0.02598551
55	0xbddde18f	-0.108340375
56	0xbb5dd6fa	-0.003385006
57	0x3e0b65d9	0.1361307
58	0x3d8d24e1	0.068918
59	0xbc4bc6bc	-0.012437519
60	0x3cf6c544	0.03012336
61	0xbdb93151	-0.090426095
62	0xbdd1c9c1	-0.1024356
63	0x3e3a170b	0.18172853
64	0xbd01bf96	-0.03167685
65	0x3e8aae60	0.27086163
66	0xbb4ebbce	-0.0031545046
67	0xbdd9f22f	-0.10641896
68	0x3e5bb1e3	0.21454577
69	0xbe7f03ec	-0.2490384
70	0x3c94b715	0.018153707
71	0x3e434a59	0.1907133
72	0xbe2538ca	-0.16134945
73	0x3da9c8ea	0.082902744
74	0x3e9ea03c	0.30981624
75	0x3e29672e	0.16543266
76	0x3de6cb5d	0.11269257
77	0x3ee2a242	0.44264418
78	0x3dd88e61	0.105740316
79	0xbe572919	-0.21011771
80	0xbeabb10d	-0.33533517
81	0x3cd3fd44	0.025877602
82	0x3d426451	0.04745895
83	0x3c808ec4	0.015693076
84	0x3e735e97	0.23766552
85	0xbe890439	-0.26761034
86	0x3dcdb27b	0.10043808
87	0x3e4a8b9f	0.19779824
88	0xbe6cddf2	-0.2313154
89	0x3e8cb967	0.274852
90	0xbd86b2bc	-0.065770596
91	0x3dddb5d6	0.10825698
92	0xbf190e55	-0.59787494
93	0xbca4e27e	-0.020127531
94	0x3dad5dd8	0.08465165
95	0xbf52a88d	-0.8228844
96	0x3e853407	0.26016256
97	0x3e15df62	0.14635995
98	0x3e02e944	0.12784296
99	0xbe0ffef9	-0.14062108
100	0xbc2a3ef4	-0.010390986
101	0x3e866abe	0.26253313
102	0x3e453a25	0.19260462
103	0x3e381379	0.17976178
104	0x3de5a1b0	0.1121248
105	0x3eb01878	0.34393668
106	0x3cbc725c	0.02300375
107	0xbdac5dae	-0.084163055
108	0xbd5190e6	-0.051163577
109	0x3db8d246	0.090244815
110	0x3e0c0d77	0.13677011
111	0x3e3375c8	0.17525399
112	0x3e8e3d40	0.27781105
113	0x3c6d3942	0.014478983
114	0x3cd423b6	0.025895935
115	0x3e0186ac	0.1264903
116	0xbd168f35	-0.036757667
117	0xbd6aef73	-0.057357263
118	0x3e22d811	0.15902735
119	0x3e4ab5eb	0.19795959
120	0x3dd2c565	0.10291556
121	0x3e2577e3	0.16159014
122	0x3e045852	0.12924317
123	0x3e0b5bea	0.13609281
124	0x3e3f5b8e	0.18687269
125	0x3df981e5	0.121829785
126	0x3dd7e4b6	0.1054167
127	0x3d847121	0.0646689

weight_ih_l0_reverse f4 [128, 2]
0	0x3e4f2b02	0.2023125
1	0x3e05fe58	0.13085306
2	0x3cd13561	0.025538148
3	0x3b09b5bc	0.0021012863
4	0xbe182840	-0.14859104
5	0xbe51f9c8	-0.2050544
6	0x3ea4734e	0.3211922
7	0x3e903776	0.28167313
8	0xbe27df2d	-0.16393729
9	0xbcf4a201	-0.029862406
10	0xbcc5701a	-0.024101306
11	0xbe1f54cd	-0.15559693
12	0xbe8ca7b6	-0.27471703
13	0xbedf7bda	-0.4364918
14	0x3e961bce	0.29318088
15	0xbec9a9c1	-0.39387324
16	0x3e7634bf	0.24043559
17	0xbf5296a8	-0.82261133
18	0xbea83420	-0.32852268
19	0x3ebff969	0.37494972
20	0xbed5e7c5	-0.4177839
21	0x3e9f73c4	0.3114301
22	0x3ebf4aba	0.373617
23	0xbde743f8	-0.11292261
24	0xbed7b440	-0.42129707
25	0xbdbaef65	-0.09127692
26	0xbeeaa961	-0.4583235
27	0xbd64f1ef	-0.05589479
28	0x3f2e36bd	0.68052274
29	0xbef54790	-0.4790616
30	0x3ece782f	0.40326068
31	0x3dcf7c66	0.10131149
32	0xbda4112a	-0.08011086
33	0xbe042fc6	-0.12908849
34	0x3e3c2940	0.1837511
35	0x3ef53fa1	0.47900108
36	0x3d473698	0.04863605
37	0xbe6fa308	-0.23402035
38	0x3da6b8c8	0.08140713
39	0x3e2649fc	0.1623916
40	0xbc671e5b	-0.014106358
41	0x3e3567a0	0.17715311
42	0x3f002c1c	0.50067306
43	0x3eb42b34	0.3518921
44	0xbe2a8321	-0.16651584
45	0x3e096259	0.13416423
46	0xbde2a2a4	-0.110661775
47	0xbd8598c4	-0.06523278
48	0xbf6b9f50	-0.92039967
49	0xbd888e99	-0.06667823
50	0xbf30ccff	-0.690628
51	0xbeb4b93d	-0.35297576
52	0xbf0b512f	-0.5442075
53	0xbe4fb038	-0.20282066
54	0xbdc7a4c7	-0.09748226
55	0x3e325da4	0.17418534
56	0x3ea6fc31	0.32614282
57	0xbe7a64ef	-0.24452566
58	0xbe31e936	-0.17374119
59	0x3df2491d	0.118303515
60	0xbe5248d2	-0.20535591
61	0x3e0a1689	0.13485159
62	0xbeed41ec	-0.46339357
63	0xbeef9b22	-0.46798044
64	0x3e3d8a40	0.1850977
65	0x3ec2fc18	0.38082957
66	0x3d7abece	0.06121712
67	0xbd14093a	-0.03614161
68	0xbe6e7ffd	-0.23291011
69	0xbe883754	-0.26604712
70	0x3df649b9	0.1202578
71	0x3e590499	0.2119316
72	0xbe436b06	-0.19083795
73	0xbc66659d	-0.014062312
74	0x3eab91a1	0.33509544
75	0xbda6355d	-0.08115647
76	0xbedab398	-0.42715144
77	0xbeca38ee	-0.3949656
78	0x3ea62b26	0.32454795
79	0xbe31a69d	-0.17348714
80	0x3e864bbc	0.26229656
81	0xbeb9b6c3	-0.3627225
82	0xbe3af9c2	-0.18259338
83	0x3e289565	0.1646324
84	0x3ce98d2f	0.028509704
85	0x3d8297bc	0.06376597
86	0x3e84cb30	0.2593627
87	0xbdbf441c	-0.09339163
88	0xbe2e33dc	-0.1701197
89	0xbd8fe490	-0.07026017
90	0xbe4e1594	-0.20125419
91	0xbd1bbca0	-0.038021684
92	0x3ec169b8	0.3777597
93	0xbec146e5	-0.377494
94	0x3ed06b73	0.40706977
95	0x3df93929	0.121691056
96	0xbd32142c	-0.04347627
97	0xbdcb2c48	-0.09920555
98	0xbd53ea5c	-0.051737174
99	0x3ed96dd9	0.4246662
100	0xbd8d1afe	-0.06889914
101	0xbe151e65	-0.14562376
102	0xbdc94102	-0.098268524
103	0x3df4f624	0.1196101
104	0x3d6340df	0.055481788
105	0x3e235158	0.15948999
106	0x3e88bbff	0.2670593
107	0x3df84f86	0.12124543
108	0xbdaa9f0d	-0.08331118
109	0xbd72d619	-0.05928621
110	0xbeee4e49	-0.46544102
111	0xbe405405	-0.18782051
112	0xbee83730	-0.45354605
113	0xbdc6143f	-0.096718304
114	0xbe52e410	-0.20594811
115	0xbeb6eeb1	-0.35728982
116	0xbe56d244	-0.20978647
117	0xbe3f7b36	-0.18699345
118	0x3d2d262b	0.042272728
119	0xbd8e6abc	-0.06953952
120	0x3dc9f829	0.09861786
121	0xbcd62c99	-0.026144313
122	0xbdea16ca	-0.11430128
123	0x3dfb1c04	0.12261203
124	0xbe342328	-0.17591536
125	0x3e2398d0	0.15976262
126	0x3e0b60aa	0.13611093
127	0xbef30a95	-0.4746901
128	0xbe9e6af0	-0.30940962
129	0xbe86ceb2	-0.2632957
130	0x3e1613b9	0.14655961
131	0x3ecaef7f	0.39635846
132	0x3e65ce80	0.22442055
133	0x3e026ddf	0.12737225
134	0xbeae19ce	-0.34004062
135	0xbe84b536	-0.25919503
136	0x3e6ff273	0.23432331
137	0x3ec8e31e	0.39235777
138	0x3e83ce88	0.25743508
139	0xbdb39296	-0.087681934
140	0xbe98ce9a	-0.29845124
141	0xbecf8543	-0.40531358
142	0xbec7e172	-0.3903919
143	0x3e78b163	0.24286418
144	0xbd99e314	-0.07514015
145	0xbf3dc09f	-0.7412204
146	0xbe367cf9	-0.17821111
147	0x3ef06625	0.4695293
148	0x3eb8932e	0.3604979
149	0xbe558ad0	-0.20853734
150	0x3ee5471e	0.4478082
151	0xbdb2a69f	-0.08723187
152	0x3eb7eaf3	0.3592144
153	0x3da01b69	0.07817728
154	0x3eea47bf	0.45757863
155	0xbde5a140	-0.112123966
156	0x3e0508a3	0.12991576
157	0xbecf3e96	-0.40477437
158	0x3e78f24f	0.24311183
159	0x3d04656e	0.032323293
160	0xbd6019df	-0.054712173
161	0x3ee1fb47	0.44137022
162	0x3e7b8bdb	0.2456507
163	0x3f38426d	0.7197636
164	0x3e10edd5	0.14153226
165	0xbecb7f71	-0.39745668
166	0xbeebde65	-0.4606811
167	0x3e7017ab	0.23446529
168	0xbea58f10	-0.3233571
169	0xbd4e4d75	-0.050366838
170	0xbeb3da68	-0.35127568
171	0xbddd7b23	-0.10814502
172	0xbead6548	-0.33866334
173	0x3e43c302	0.19117358
174	0x3e4e2919	0.20132865
175	0x3e8c9d0e	0.27463573
176	0xbf037065	-0.51343375
177	0x3e830bd5	0.25594965
178	0x3ed0c991	0.40778783
179	0x3eb6c2da	0.35695535
180	0xbec344e5	-0.381385
181	0xbe28ae41	-0.16472723
182	0xbe2a50b1	-0.16632344
183	0xbe99a92f	-0.3001189
184	0xbed0e79a	-0.40801698
185	0x3e84493d	0.25837126
186	0x3eb40186	0.35157412
187	0x3d4a90b8	0.04945442
188	0x3e770a18	0.24124944
189	0xbea86097	-0.32886192
190	0x3df0e7f0	0.117629886
191	0xbeb1d382	-0.3473168
192	0x3e5f3067	0.21795808
193	0x3e087a0d	0.13327809
194	0x3d2c10c5	0.04200818
195	0xbdaf27a9	-0.085524864
196	0xbcfbe353	-0.030748045
197	0xbe60fbc7	-0.21971045
198	0xbe80050b	-0.25003847
199	0xbd896d0a	-0.06710251
200	0xbe9a6475	-0.30154768
201	0x3de2f86f	0.11082541
202	0xbd959c24	-0.07305172
203	0x3c831785	0.016002426
204	0xbed5d34e	-0.41762775
205	0xbe9ac2a1	-0.30226615
206	0x3ed85803	0.42254648
207	0xbee522ae	-0.4475302
208	0xbdeee620	-0.116649866
209	0xbf331a46	-0.69961965
210	0xbe17a9c2	-0.14810851
211	0x3bb578ab	0.0055380664
212	0xbe6f3da7	-0.23363362
213	0x3e061c03	0.13096623
214	0x3ef1daf4	0.4723736
215	0xbe51b894	-0.20480567
216	0xbe872b84	-0.26400387
217	0xbe7a30f2	-0.24432734
218	0xbe985375	-0.29751173
219	0x3e2c1c42	0.16807655
220	0x3f6feb1f	0.9371814
221	0xbf0fa22a	-0.5610682
222	0x3eaa5f07	0.33275625
223	0x3c4046ed	0.01173566
224	0x3e0e1d6f	0.13878416
225	0xba80f51a	-0.0009838671
226	0x3c61d3cc	0.0137834065
227	0x3e2a9a99	0.16660537
228	0xbd3b81c5	-0.045778055
229	0xbd1933e3	-0.037403
230	0xbcaf6195	-0.021408835
231	0x3e87435e	0.26418585
232	0x3e1e2465	0.15443571
233	0xbd66f60d	-0.056386996
234	0x3e9aa204	0.30201733
235	0x3ef71059	0.4825466
236	0x3d047228	0.03233543
237	0xbd0a91fa	-0.03383062
238	0xbeacf249	-0.337786
239	0xbd26953f	-0.040669676
240	0xbeda78c1	-0.42670253
241	0x3d32dbe8	0.04366675
242	0xbe4a5828	-0.19760191
243	0xbecf2b1d	-0.4046258
244	0xbf44ff1e	-0.7695178
245	0xbe224e4c	-0.1585018
246	0x3da8d762	0.08244206
247	0x3e423940	0.18967152
248	0x3f2f76a7	0.68540424
249	0xbeb9df7f	-0.36303326
250	0xbe6e0bd2	-0.23246697
251	0xbe188441	-0.14894201
252	0xbdd29a9e	-0.10283397
253	0x3e241d4f	0.16026805
254	0xbe3d8e84	-0.18511397
255	0xbe31442d	-0.17311163
