experiments/pedestrians/models/models_14_Feb_2024_17_26_50_eth_vel_ar3/model_registrar-1.pt (torch, 527902 bytes, 43 tensors)

weight_ih_l0 f4 [128, 6]
000000 7b 0c 28 bc 5a 85 40 3d 17 bc e8 bd 6c 18 99 3b
       -0.010256882 0.047002174 -0.11364 0.004672101
000010 aa d0 07 be e4 3b fd 3d 7f 51 e1 bd 04 eb 2d be
       -0.13263193 0.12364939 -0.11001872 -0.16984183
000020 37 08 d7 bd 93 7c d1 3d 7f 64 94 3c b0 31 5e 3c
       -0.10499614 0.10228839 0.018114327 0.013561651
000030 b3 68 9c bd 64 47 ac bd b7 f4 23 be 2b 36 9d bd
       -0.07637157 -0.08412054 -0.1601132 -0.07676347
000040 a8 50 3d be 99 9c f8 3d 56 48 d4 bc de 3e ec 3d
       -0.18487799 0.12139244 -0.025913399 0.115354285
000050 27 1c 5e 3d 04 e9 24 bd 1a 6b 30 bd 78 a0 02 3e
       0.054226067 -0.040261284 -0.04307089 0.12756526
000060 4d d4 df bd 3d 16 c0 3d ca d6 f3 bd 6c 40 03 3e
       -0.10929165 0.093792416 -0.11906202 0.12817544
000070 0b 1b 63 3e 75 b4 6d be f5 e7 46 3e 2d 2d 53 3d
       0.22178285 -0.2321337 0.19424422 0.051556755
000080 c8 8f 0b 3d d1 d0 12 3e c9 b7 a9 3d 06 88 29 bd
       0.034072667 0.1433747 0.08287007 -0.041389488
000090 00 3b 69 be 60 31 04 bd 8e 75 3a bd 97 92 a6 3b
       -0.22776413 -0.03227365 -0.045522265 0.005083393
0000a0 80 c9 ee bc 3c 25 fe bd eb e6 c1 bd 88 7c b5 3d
       -0.029148817 -0.12409446 -0.09467872 0.08861643
0000b0 a3 83 ad 3d f4 e6 ab 3d a1 dc 12 bd b6 b2 07 3c
       0.08472373 0.0839366 -0.03585494 0.008282354
0000c0 14 ac 16 3e 43 f8 fb 3d 86 23 12 3c 8a d0 21 3c
       0.1471408 0.123032115 0.008919602 0.00987638
0000d0 f8 cd 21 bd 88 f8 6c 3d 41 74 41 bd 89 2b 2b be
       -0.039503068 0.057854205 -0.04723001 -0.16715826
0000e0 4f 9a 84 bd be 5e 2e 3e 94 a7 82 3d 30 79 ab bd
       -0.064747445 0.17028329 0.06379619 -0.08372724
0000f0 13 34 3a 3d 6f bd 98 3d 60 48 64 be dd cc 16 bd
       0.045459818 0.074580066 -0.22293234 -0.036816467
000100 ef 6f 15 be 61 c6 40 3d 81 f2 a7 bd e9 b1 09 3c
       -0.1459348 0.04706419 -0.08200551 0.0084042335
000110 62 42 e2 bd d2 3c 9e 3d a5 a9 50 3e bb 0c fe 3c
       -0.11047818 0.07726444 0.20377214 0.03101193
000120 d2 0a 8e bd cc 28 38 be 56 bb 37 3c 02 de e2 3b
       -0.069356576 -0.17984313 0.011214098 0.006923438
000130 c0 53 23 3e 34 b1 84 be f9 ed 81 bd 3a 66 9a 3d
       0.15949917 -0.25916445 -0.06344218 0.075390294
000140 7e 7f c6 3d 4f f1 9e bc cd b0 9b 3d 1a 4a 32 3d
       0.09692286 -0.019402174 0.076020814 0.0435277
000150 b2 a3 cf bd 9c 9c 89 bc d3 1e c0 bd f2 a6 ad 3d
       -0.10138644 -0.01679831 -0.09380879 0.08479108
000160 bd cf 19 3e f4 5b 75 bc f1 ba b6 bd e9 b9 19 3e
       0.15020652 -0.014975537 -0.08922375 0.15012325
000170 6c 51 0e 3e ea f7 dc 3d d9 a6 89 3b 9d 10 de 3d
       0.13898247 0.10789473 0.004200798 0.108430125
000180 01 73 3c 3e ff 15 cd 3d 6a c7 fc 3d 80 09 7f bc
       0.18403246 0.10013961 0.12342723 -0.01556623
000190 b5 95 dc 3d d1 05 45 be 01 bf 55 3d 3e be e2 bd
       0.10770742 -0.192405 0.05218411 -0.11071442
0001a0 d3 2a 9d bd 5d bd e1 bb 9f ff 18 bd 2b 6b 11 3e
       -0.07674184 -0.006889029 -0.037353154 0.14201038
0001b0 75 72 3a 3d 9d 0d 56 3d 7a 4b 3f 3e d6 26 1d be
       0.04551931 0.052259076 0.18681136 -0.15346846
0001c0 6f 30 13 3e 99 d6 a6 bd 27 83 fb bc 21 48 89 bd
       0.14373945 -0.081464 -0.030702187 -0.067032106
0001d0 bd 17 c1 bd c2 48 0b 3e db 37 d6 3d 23 76 63 3e
       -0.09428356 0.13601974 0.10459872 0.22213034
0001e0 41 35 61 bd 31 67 14 3d 6d 07 40 3e b2 f5 c9 bd
       -0.054982428 0.036231223 0.18752833 -0.09861316
0001f0 96 e5 69 3e 5a 49 89 bd 1f d0 07 3d 6c 83 f3 3d
       0.22841486 -0.06703444 0.033157464 0.11890301
000200 7f b8 a5 3d aa b7 5f 3d 9f 4f 90 bd 98 94 c1 3c
       0.080918305 0.054618515 -0.070464365 0.023630425
000210 3a b4 9b bc 5a eb 33 be dd e3 78 bd f7 63 12 be
       -0.019006837 -0.17570248 -0.060764182 -0.14295946
000220 12 02 b7 3d 46 19 9f ba 66 30 ab bc 75 11 5b bd
       0.08935942 -0.0012138269 -0.020897102 -0.053483445
000230 f8 a7 20 3d aa 6d 49 bd cb 9c b9 3d 4c e0 dc 3d
       0.039222687 -0.04917685 0.09063109 0.10784969
000240 40 b9 10 3c 4a bc 84 bd a5 c5 84 bd b6 cd 20 3c
       0.00883323 -0.06481226 -0.0648301 0.00981467
000250 c4 9e 0d be 00 58 a8 bd ed c4 84 bd 50 a7 b6 bd
       -0.13830096 -0.0821991 -0.06482873 -0.08918631
000260 df 0d 93 bd fb 73 1d 3e b9 ac b7 3c e2 5e 2f 3e
       -0.0718038 0.15376274 0.022421228 0.17126039
000270 74 22 8c bd 0a 8d 82 3d 24 b7 36 be 67 b3 f9 3d
       -0.06842509 0.06374557 -0.178433 0.121924214
000280 0b e6 bd 3c c2 b4 59 3e e0 45 87 bd 6c 56 32 3e
       0.023180982 0.2126036 -0.066051245 0.1741578
000290 93 e2 8f 3d c3 86 a9 3d 90 45 1e bd 49 0b 19 3e
       0.070256375 0.08277657 -0.03864056 0.14945711
0002a0 70 94 12 3e 66 3a 2a 3e 24 b1 8f ba 40 14 45 be
       0.14314437 0.1662384 -0.0010962826 -0.19246006
0002b0 ee 14 35 3d bb 17 c3 bc da 30 2c be e6 d1 cc bd
       0.044209413 -0.023815027 -0.1681551 -0.100009724
0002c0 28 29 0a be 5f 3a 2a bd ba db 28 3e 69 f7 de 3b
       -0.13492262 -0.041559573 0.16490069 0.006804396
0002d0 d1 84 03 bd c9 c4 26 3d 16 c4 21 3e 7d 4a e1 bd
       -0.032109085 0.040715013 0.15797457 -0.11000536
0002e0 b4 80 df bd fe d9 87 bd 0e c6 95 bd e2 eb 48 3d
       -0.1091322 -0.066333756 -0.073131666 0.04905308
0002f0 c0 5b d3 3d c8 96 df bd 85 74 e4 bd 97 f8 66 be
       0.10320234 -0.10917431 -0.11155037 -0.22555767
000300 e4 5a 09 3e 11 c9 3b 3e 4c e1 38 be 84 81 0e be
       0.13413578 0.1833842 -0.18054694 -0.13916594
000310 1a a0 ee 3c 0e 5b 0f be 94 16 3a 3e 3d 8d 5d 3a
       0.029129077 -0.13999578 0.18172675 0.0008451527
000320 98 20 8d bd 6b c3 60 3d 97 a7 13 3e c2 2b b9 bd
       -0.068909824 0.054873865 0.14419399 -0.09041549
000330 0d ae 77 bd 7d f4 b8 3b 7d 15 bf bd 09 f7 07 bc
       -0.060468722 0.0056443796 -0.093302704 -0.008298644
000340 50 c7 44 bd dd 79 22 3d 5c fa cf bc 0f b6 dd 3c
       -0.04804164 0.039667 -0.025387935 0.027064351
000350 54 c1 af bb ca 4a 20 be 0f 0a cc bc 9a c8 10 be
       -0.0053636227 -0.1565353 -0.02490714 -0.14139023
000360 9d b6 20 3d 64 8f c1 bd 17 92 bd 3c fd 8a 8c 3d
       0.039236654 -0.09451178 0.02314095 0.068624474
000370 c0 e4 21 be 22 83 ae bd 34 21 eb 3d 0a 46 74 bd
       -0.15809917 -0.08521105 0.11480942 -0.059637107
000380 18 1a 70 3d 39 95 0d be 0b 41 4b be 4a 4a ad bd
       0.058618635 -0.13826455 -0.1984903 -0.08461435
000390 45 58 00 3c fb c4 e6 3b 9b c6 1b 3d d1 34 0b bd
       0.007833545 0.007042525 0.0380312 -0.033985917
0003a0 8d 68 e0 bd 2c f0 e3 3b d9 b2 6c bd 64 c0 32 be
       -0.109574415 0.006956121 -0.05778775 -0.17456204
0003b0 a9 7a 12 3e 9d 81 0b 3d 32 93 c7 bd 00 1e 45 3d
       0.14304604 0.034059156 -0.09744872 0.048124313
0003c0 36 32 a5 3d b3 1c 06 bc e0 9f 2c be aa ab 0b bd
       0.080662176 -0.008185553 -0.16857862 -0.03409926
0003d0 a6 63 90 3c 71 eb 0d 3e 0c a8 2e be 82 fe 91 bd
       0.017625641 0.13859345 -0.17056292 -0.07128622
0003e0 19 76 40 3e a4 0e a9 3d 10 d1 47 3e c6 f9 34 bd
       0.1879505 0.082547456 0.19513345 -0.044183515
0003f0 28 96 22 3e 0f 29 56 be e4 21 72 bd f9 7e 9c 3d
       0.15877593 -0.209141 -0.059114352 0.076414056

weight_hh_l0 f4 [128, 32]
000000 61 cf dc bc 5b 27 ed bd cd 77 3b bb ab 13 17 3e
       -0.026954355 -0.11579772 -0.0028605342 0.14753596
000010 05 97 20 3d ea ca bf bb 7c 5d 92 bd 14 9f 33 bd
       0.039206523 -0.0058530467 -0.07146737 -0.04385288
000020 d2 c8 1a 3e 11 da 23 3e a2 1d 2f bd 9f 2a 4e 3e
       0.1511567 0.16001154 -0.04275287 0.20133446
000030 f6 d5 b4 bd 04 c5 c9 3d 9c 20 6e 3d b9 e9 db 3d
       -0.08829872 0.09852031 0.058136567 0.107379384
000040 26 f2 31 3d 79 ac 48 be ac f9 05 3e 9c 57 35 be
       0.04344382 -0.19597043 0.13083524 -0.17709202
000050 48 dc 3f be 14 6c 90 bd 37 a2 b8 bc e9 e4 61 be
       -0.18736374 -0.07051864 -0.022538288 -0.22059979
000060 cc f5 4a 3e 91 48 f9 bd 94 41 24 3e dd d3 f2 3d
       0.19820327 -0.12172044 0.16040641 0.11856816
000070 5d 16 95 3d 3a e2 80 3d ce c9 54 3d 15 90 04 be
       0.07279656 0.06293149 0.05195027 -0.12945588
000080 4a 93 f4 3d fc 7b 1e be 40 2d ba 3d f0 db d3 bc
       0.11942156 -0.15476984 0.09090662 -0.02586171
000090 28 0f 37 3e 32 f2 3f 3e d1 60 de 3b f8 d5 bf bd
       0.17876875 0.18744734 0.0067864438 -0.09366983
0000a0 62 23 57 3e 1c 48 48 bc 82 56 5b be 42 48 b0 bd
       0.21009591 -0.012224223 -0.21419719 -0.08607532
0000b0 c8 29 62 be 03 32 a0 3d c1 7b b8 3d c3 64 bf bd
       -0.22086251 0.07822039 0.09007979 -0.09345391
0000c0 35 b7 42 3d a4 e6 3b 3d 28 fb f1 bc 99 32 79 bc
       0.047538 0.045874253 -0.029538706 -0.015209817
0000d0 c4 f7 88 bd 6b f4 cf bc 26 70 9f bd 75 77 d3 bd
       -0.066878825 -0.025385102 -0.077850625 -0.10325519
0000e0 95 c7 9f 3c 20 c0 d2 bd 25 5f 8e bd 00 51 61 be
       0.019504348 -0.10290551 -0.06951741 -0.22003555
0000f0 63 f0 5d bd 1e 36 8f 3d cd e5 c4 3d 5a 5e 06 be
       -0.05418433 0.06992744 0.096141435 -0.1312193
000100 77 08 02 3e 11 0c d3 bd af f8 83 bd b4 f1 2d 3e
       0.12698542 -0.10305036 -0.06443917 0.16986734
000110 ab 7b c6 3d 08 5d 08 3e f5 7c 38 be 2c cb 11 be
       0.096915565 0.13316739 -0.18016417 -0.1423766
000120 66 68 bb 3c 2f 0f 3e 3e d2 cf 88 be 17 bb dd 3d
       0.02287693 0.1856048 -0.26721054 0.108267
000130 d8 28 ed bd f8 34 2b be 3e a3 df 3d 23 d2 2b be
       -0.11580056 -0.16719425 0.10919808 -0.1677938
000140 06 a6 34 3d 98 15 f3 bd 9b ed 1c 3e b3 07 4b be
       0.044103645 -0.11869353 0.15325014 -0.19827156
000150 e2 b5 ac 3d 29 15 16 3e 30 51 9f 3d 9d 04 17 3e
       0.08433129 0.1465651 0.07779157 0.14747854
000160 b6 37 33 3e c5 24 1d 3d 7e 69 35 3e 0b 43 e4 3d
       0.17501721 0.038365144 0.17716023 0.111456
000170 e0 e8 ef 3d 6e e4 df 3d 3d 0e f2 bd b2 04 6d 3d
       0.11714339 0.109322414 -0.11819122 0.057865806
000180 13 70 47 3d 48 fe 3e 3d 03 fc 2f 3d 9b 7d 0e 3e
       0.048690867 0.04662922 0.042964946 0.13915102
000190 69 f1 d7 bd 87 c5 97 bd 59 dc bb bc ef ba 0d 3e
       -0.10544092 -0.07410722 -0.022932218 0.13840841
0001a0 3c fb 72 bd 4d db 3d 3c e5 71 f3 bd cc b1 14 be
       -0.059321627 0.01158793 -0.11886958 -0.14520949
0001b0 84 c6 4d be ac 6a 42 be f7 9f 3e be 28 9f 46 be
       -0.20095259 -0.18986005 -0.18615709 -0.19396651
0001c0 73 5c 90 bd de 5e 00 3e 33 cd 51 bd aa 05 cb bd
       -0.07048883 0.12536189 -0.051221084 -0.0991319
0001d0 eb 4d e5 bd 46 1d b2 3d 15 88 1b 3e a0 f9 ef bd
       -0.11196502 0.0869699 0.1518863 -0.11717534
0001e0 bc e9 27 bd 6a 44 d0 ba 93 78 e5 bd 67 95 61 3d
       -0.04099439 -0.001588953 -0.11204638 0.05507412
0001f0 68 b4 dd bd 6a fd 86 3d 3a 05 01 3e 55 f2 6e 3d
       -0.108254254 0.06591304 0.1259965 0.058336575
000200 c6 36 2d be dc 6b cb bd 81 cf 5a 3e 3c 17 cb bd
       -0.16915426 -0.09932682 0.21368219 -0.09916541
000210 e9 70 4c 3e f6 2b a0 bd d3 14 2c bd 0d 7f b8 3d
       0.19964947 -0.07820885 -0.042012047 0.09008608
000220 98 f3 da bd 7f 22 f8 bd 48 7d cb bd 8a 3f 9c bd
       -0.10690993 -0.121159546 -0.09936005 -0.076293066
000230 cc bd 8f bd 2a 8f 46 3d d6 5a 1d 3d aa eb 5c be
       -0.07018623 0.048476376 0.038416706 -0.21574274
000240 1e 46 e0 bd a5 d7 43 be f0 30 5b bd ce 89 f2 3c
       -0.10950874 -0.1912523 -0.053513467 0.029606726
000250 c3 03 ad 3c 6a 0c 59 3e df 3a f3 3d 7d 6e 30 be
       0.021119958 0.21196142 0.11876463 -0.17229648
000260 e0 c5 d8 3d 1b ad 3f be 16 a1 e6 bd 07 57 5d be
       0.10584617 -0.18718378 -0.112611935 -0.2161523
000270 a7 6d d6 3d 17 c1 9e bd d7 c8 32 3e dc ca d8 bd
       0.10470133 -0.07751673 0.17459427 -0.10585567
000280 55 52 da 3d 50 73 f1 bd 66 8f c6 3d af 0e 04 be
       0.10660235 -0.11789572 0.0969532 -0.12896226
000290 af 6e 0b bd 4d 09 eb bb 5f f9 df 3a 0a bc 0b be
       -0.034041103 -0.0071727396 0.0017087868 -0.1364595
0002a0 2c c8 49 ba 35 f5 2f 3d 55 ef a2 3d 4a 38 cd bd
       -0.00076973694 0.042958457 0.07955805 -0.10020502
0002b0 6f b1 37 be 9e ca bc 3c 2b 66 ac bd 30 5d c3 bd
       -0.1793878 0.023045834 -0.084179245 -0.095392585
0002c0 33 a3 64 bd 74 0d 00 3e 6c e6 ee bd 1c 6b 9b 3d
       -0.0558197 0.12505132 -0.11665043 0.07588789
0002d0 3c b3 4e 3d 0a 76 61 bd da 8c 84 bc 6b a6 c6 bd
       0.0504639 -0.05504421 -0.016180445 -0.096997105
0002e0 b1 ad 07 bb c8 48 1c be 68 f1 42 3e 94 43 00 3e
       -0.0020702893 -0.15262139 0.19037402 0.12525779
0002f0 68 da 53 bc cb df c3 3d 3d 08 4f 3e 06 2b 87 3d
       -0.01293049 0.095641695 0.20217986 0.06600003
000300 fc 38 22 3e 9b ba 13 3d 0c 06 0d be 9c d8 58 3e
       0.1584205 0.036066633 -0.13771838 0.2117638
000310 89 33 5c 3d 77 80 18 bd 53 4b b6 3d 85 bc 47 be
       0.053760085 -0.03723189 0.08901086 -0.19505508
000320 53 43 22 bd 0d 6a c4 3d 59 30 ef bd 80 d1 9c bd
       -0.039614987 0.0959054 -0.116791435 -0.076571465
000330 49 21 40 bd a7 9a 1e 3e a5 c5 4e bd e4 8f 15 bd
       -0.046906743 0.15488683 -0.050481457 -0.036514178
000340 c6 df 2d bd fb 59 aa bd 9a 65 93 3d ab 58 47 be
       -0.042449735 -0.08317944 0.07197113 -0.19467418
000350 5d 64 b3 3c 44 09 63 3e 2b 33 36 3e 32 aa a5 bd
       0.021898443 0.22171503 0.17792957 -0.08089103
000360 9c e4 dc bd f6 97 23 bc 3f 6b 38 3e 3b 70 08 3b
       -0.10785791 -0.009984961 0.18009661 0.0020818848
000370 8a ed 59 be 9e 61 ed 3d 61 f3 c9 bd b9 41 98 3d
       -0.2128202 0.115908846 -0.09860874 0.074344106
000380 d7 c5 00 3e 02 d9 09 be 3d 42 d5 3a a9 26 b0 3d
       0.1257547 -0.13461688 0.0016270351 0.08601124
000390 a7 2b 8b 3c 6b 4e 10 3e 5a ba b0 3d 19 db 5c bd
       0.016988588 0.14092414 0.08629294 -0.053919885
0003a0 ad e4 55 3d 47 6f 49 bc 90 30 8d bd ef 36 a8 bd
       0.052220035 -0.012294597 -0.06894028 -0.08213603
0003b0 eb b2 f9 3d 47 f0 6e bd d0 00 2e 3c 79 41 49 3c
       0.12192329 -0.058334615 0.010620311 0.012283676
0003c0 7c 0d 9d 3d 0e 8c c3 bc 1c da bd bd 07 99 89 bd
       0.076685876 -0.023870494 -0.09270117 -0.06718641
0003d0 40 fe 56 be 42 fb da 3b f4 54 a6 bd 66 ff 54 be
       -0.20995426 0.0066827843 -0.08121672 -0.20800552
0003e0 4b 69 00 3e b0 2f fc 3d 94 b7 6e 3d a1 a3 b2 3d
       0.12540166 0.12313783 0.058280542 0.08722616
0003f0 9d 42 99 3d 4b 27 e0 3d eb 3f 9a 3d 7c 7c 19 3e
       0.074834086 0.109449945 0.07531723 0.14988893

bias_ih_l0 f4 [128]
000000 c6 2f e4 bc 73 ed 2e 3c fa 6f de 3c 7a 50 63 bd
       -0.027854811 0.0106767295 0.027153004 -0.05549667
000010 c4 66 dd bd f6 aa 5d 3e 54 16 06 3d 19 31 cf bd
       -0.108106166 0.21647248 0.032736138 -0.101167865
000020 50 32 20 3d f8 89 98 3d bf 0a 66 3e 81 c9 35 3e
       0.03911048 0.074481905 0.22465037 0.17752649
000030 97 7f db 3d 81 6f ba bd 50 f4 cc 3d 80 57 cf bd
       0.10717695 -0.09103299 0.100075364 -0.10124111
000040 06 bf f9 ba ea ab 31 3e df 45 a3 bc 54 40 2d 3e
       -0.0019054122 0.17350736 -0.019930778 0.1691907
000050 47 29 bc 3d 15 a7 df bc 3c 12 40 3d 99 13 a4 bc
       0.091875605 -0.02730135 0.04689239 -0.020028876
000060 77 1e 1d 3e 66 2e d2 3d af 27 2d bd d9 0d 96 3d
       0.15343653 0.10262756 -0.042274173 0.0732686
000070 e7 d4 dd 3b dd 5c 11 bd ad 3e 9c bd 1d be 8d 3c
       0.0067697647 -0.035488952 -0.07629142 0.017302567
000080 56 c8 3a 3e 62 f5 b1 bd 2f 32 04 be 5b d6 11 3e
       0.18240485 -0.08689381 -0.12909769 0.14241926
000090 da b9 bf bd 28 e8 6d bc 76 16 dd bd 85 64 b2 3c
       -0.0936162 -0.014520682 -0.107953 0.021776447
0000a0 2c 19 e1 bd 1a 2b ee 3d f6 bf 18 bd 16 c0 8e 3d
       -0.10991129 0.11629315 -0.037292443 0.06970231
0000b0 63 78 da bc 30 23 61 3e c8 9f aa bc 97 36 b7 bd
       -0.026668733 0.21986079 -0.020828143 -0.08945959
0000c0 76 0f e1 3d 54 77 d2 3d 1d b4 63 bd 07 aa 00 3e
       0.10989277 0.10276666 -0.05559169 0.1256486
0000d0 df b6 0d be bd 33 54 3d 30 7a 31 3e 82 a8 d3 3d
       -0.13839291 0.051807154 0.17331767 0.10334875
0000e0 4b 57 b5 3d 73 d6 34 3e 47 15 fa 3d 8e e2 16 3e
       0.088545404 0.17659931 0.122110896 0.14734861
0000f0 bf 4e 6e 3b f8 c1 0c be e3 22 d9 bd 16 4a f5 bd
       0.0036362854 -0.13745868 -0.10602357 -0.119770214
000100 5b 15 1b 3e 5b 6d 02 3e 46 19 5e bc 20 b6 84 3d
       0.15144865 0.12737028 -0.01355583 0.0648005
000110 de e6 99 bd 2c 06 9e 3c f4 9f e9 3d 96 ba 89 bd
       -0.075147375 0.019290052 0.11407462 -0.067250416
000120 e0 01 03 3b 69 d1 c0 3d e2 d6 c3 bd fa 22 59 3d
       0.0019990131 0.09414942 -0.0956247 0.053011872
000130 21 33 18 be e5 3b 38 bd 76 1f a0 bd 4f ef 2f be
       -0.14863254 -0.044978995 -0.07818501 -0.17181133
000140 f2 85 02 be 1b 80 0d be 0d 39 12 3e cd e8 3e bd
       -0.12746409 -0.138184 0.14279576 -0.046608735
000150 ae 03 e2 3c 32 e9 d2 3d c3 60 cf 3d f7 dd 16 be
       0.027589645 0.10298385 0.10125878 -0.1473311
000160 b2 e8 07 3e 86 74 08 be a9 72 d9 3d f7 ed 1c be
       0.1327236 -0.133257 0.10617573 -0.15325151
000170 ae 1f 1b be 4d 13 e5 3d 07 5d 22 3d 80 30 94 bd
       -0.15148804 0.11185322 0.0396395 -0.07235813
000180 09 06 2e 3e b3 c3 01 bd 8f d3 83 3d da 4e 8a bb
       0.1699449 -0.031680774 0.06436836 -0.0042208256
000190 b2 ab 58 3d 59 7a 13 3e 39 02 87 3d 6b ea a0 bd
       0.052898116 0.1440214 0.06592221 -0.07857212
0001a0 65 52 b0 bd 34 4c e4 3d 5a bf cd bb 3e be e8 3d
       -0.086094655 0.11147347 -0.0062789144 0.11364411
0001b0 b6 4b 82 3d 26 57 e3 bd d2 1f 0a 3e ae b1 8e 3d
       0.06362097 -0.111006066 0.13488701 0.069674835
0001c0 04 f6 04 3e c9 79 bb 3d c5 18 a8 3d 8e ea 57 3d
       0.12984473 0.09154088 0.082078494 0.052713923
0001d0 69 71 31 3e 05 b9 a4 bc 40 44 05 3c c7 84 fa 3c
       0.17328419 -0.020107755 0.008133948 0.030580891
0001e0 fb eb 90 bd 97 59 0e 3e ee 1f fa 3d 1e ef 01 3c
       -0.0707626 0.13901363 0.12213121 0.007930545
0001f0 ac 36 15 3e 32 fe 2b 3e bd 8a a6 bc cf b4 6b 3b
       0.14571637 0.16796187 -0.020329827 0.0035965925

bias_hh_l0 f4 [128]
000000 b4 c0 93 bd 60 d7 c2 3c c3 64 da bd 6e 0f d9 3d
       -0.072144896 0.02378434 -0.1066375 0.10598646
000010 63 1a 12 3d a7 b0 e0 bc 95 22 8d bd dc 75 9c 3d
       0.035669696 -0.027427984 -0.068913616 0.076396674
000020 db 75 fe 3d 56 1f 75 3e 49 44 02 bd 88 da 57 3d
       0.12424823 0.23937735 -0.031803403 0.052698642
000030 82 43 06 be 16 1d 50 3e a2 03 10 3e 37 66 72 3d
       -0.1311169 0.20323595 0.14063886 0.05917951
000040 a6 02 b6 bd 9a 0d 2a 3e e4 ca ec bd 9c d2 ff 3d
       -0.08887224 0.16606751 -0.11562136 0.124913424
000050 57 4d 75 3e fc 18 1d 3e bf 74 9a 3d 6b 53 35 3d
       0.23955284 0.15341562 0.07541799 0.044269007
000060 16 ae 61 3d 9f 32 b3 3d fc 1f 00 3d f0 05 96 bc
       0.055097662 0.087498896 0.031280503 -0.018313378
000070 3e 4e 99 bd b0 a1 37 bd 2d e9 dd bb 18 3a 8a 3d
       -0.07485627 -0.04483193 -0.0067721815 0.06749362
000080 5a c9 bf 3d 9b 0d 79 bd 37 65 de 3d 23 82 82 bd
       0.09364577 -0.06080399 0.10859149 -0.06372478
000090 34 e7 5b 3e ec e1 17 3e b1 1f 07 3d 37 01 fc bd
       0.21474916 0.14832276 0.032989208 -0.12304919
0000a0 37 a8 17 bd f8 0c 76 3d 0a 63 96 bc c8 7b 0b 3c
       -0.037025657 0.06007096 -0.018357772 0.0085133985
0000b0 4d 43 f1 bc b3 93 25 3d d6 56 ae 3d a5 2a 21 bd
       -0.029451037 0.04042406 0.085126564 -0.03934731
0000c0 be 41 ab bc 3e b7 0e 3d d8 23 df bc cd e3 63 bd
       -0.020905372 0.034842722 -0.027238771 -0.05563717
0000d0 a5 b2 b4 3b 48 4e e3 bd 04 c5 4b bd f1 56 9a 3d
       0.00551446 -0.11098915 -0.049748436 0.07536114
0000e0 5e 98 eb bd ac 32 07 be 90 94 06 be 9f 78 b1 3d
       -0.11503671 -0.13202924 -0.1314261 0.08665585
0000f0 21 66 c9 bc a7 8b c5 3d fc 7d d5 3c db fa 39 3e
       -0.024584832 0.09645777 0.02606105 0.181621
000100 49 f9 06 be e3 cb 10 be 9d 47 20 3e 73 3b 16 3c
       -0.13181032 -0.14140277 0.15652318 0.009169447
000110 97 de 39 3e 31 66 53 3d 52 98 93 bd 74 c9 a6 bc
       0.18151318 0.05161113 -0.07206787 -0.020359732
000120 f8 b1 12 3e 4c 38 0b 3a e4 ec 03 3d 4a fc 8f 3d
       0.14325702 0.0005310818 0.03220834 0.07030542
000130 29 67 03 3d f9 d7 af 3c 99 a1 1f be 44 54 d1 bc
       0.032080803 0.021465288 -0.15588988 -0.025552876
000140 d0 67 0d bd 29 6a d5 3d dc c2 8b 3d d6 58 31 be
       -0.03452283 0.10420639 0.06824276 -0.17319044
000150 9d 7d 04 be cc 34 2e 3d 7b c0 11 be 5a 54 ce 3d
       -0.12938543 0.04253082 -0.14233582 0.100746825
000160 b1 9f d8 bd d1 3b e2 bc 3d 86 df 3d b6 4e 1d bd
       -0.10577334 -0.027616413 0.10914276 -0.038405143
000170 e3 64 0f be 4b cb 2a be d1 3d 77 3c 81 96 01 3d
       -0.14003329 -0.16679113 0.015090422 0.031637672
000180 44 e4 60 3d 80 37 d2 3d d4 dd bb bd 47 72 64 3e
       0.05490519 0.10264492 -0.0917317 0.22309218
000190 06 26 1b 3e fb 31 42 3d c5 6c 87 3e 03 97 6d 3e
       0.15151224 0.047410946 0.26450172 0.23202138
0001a0 53 75 0f be 2e 09 09 3e 06 a1 70 3e e6 1b 43 3e
       -0.140096 0.13382408 0.23498926 0.19053611
0001b0 d2 33 9b 3d ef 4b a8 3d 57 38 60 3d a4 cc 9e 3d
       0.07578243 0.08217608 0.05474123 0.07753876
0001c0 c1 e5 17 3e c5 58 39 bd aa aa 3f 3e c8 f2 90 bd
       0.14833738 -0.045250673 0.18717447 -0.07077557
0001d0 b1 9a 0b 3e 36 17 2f 3e 5e bf 23 3e 1b 16 27 3e
       0.13633229 0.17098698 0.1599097 0.16317026
0001e0 7f c0 ef 3d fb d3 ea 3d 0f 39 32 3e a2 92 67 3c
       0.117066376 0.11466213 0.17404579 0.014134081
0001f0 74 27 86 3c 6c 51 26 3e 48 29 db 3b 31 3d 51 3e
       0.016376235 0.16241997 0.0066882707 0.20433499

weight_ih_l0 f4 [128, 2]
000000 e2 28 48 3e 05 b3 a0 3d a1 25 22 be d6 bc 0e 3d
       0.19546846 0.07846645 -0.15834667 0.034848057
000010 3b 79 1c 3e f9 da 38 3d dc cf 8a bd 41 7a 9f 3d
       0.15280621 0.045130704 -0.06777927 0.0778699
000020 d4 a1 c6 bd 85 28 b3 bd e8 5b 17 bd 12 5a 8a 3e
       -0.09698835 -0.08747963 -0.036952883 0.27021843
000030 bb 52 94 bc be 85 56 3e d7 e5 c0 bb 71 7e 25 be
       -0.018105855 0.20949456 -0.005886774 -0.16161515
000040 9b 14 e4 3d 3f 59 1e be ea e1 6d 3d 0e 30 37 bd
       0.11136743 -0.15463732 0.058076777 -0.044723563
000050 57 98 c6 3d 13 0c 39 3e 6f 79 21 be bc fc 85 3d
       0.09697025 0.18071012 -0.1576898 0.06542346
000060 31 ee 4b be f3 84 16 3d b5 10 ed 3d 7f eb 40 bc
       -0.19915082 0.036747884 0.11575452 -0.011774897
000070 55 1d df bd ea 30 c3 bd b8 31 80 3d 06 52 f3 3b
       -0.108942665 -0.09530814 0.06259483 0.0074255494
000080 0f b5 6d bd 50 9a f7 3d f4 75 0f 3e 42 14 21 3e
       -0.058034 0.1208998 0.1400984 0.15730384
000090 c1 78 aa 3d e1 cc 17 3e fe ea 84 bd 9d 8b 44 3e
       0.08323813 0.14824249 -0.06490134 0.19193883
0000a0 5d 7a b2 3d f2 de 45 bd b6 07 c2 3d 2f d9 58 3d
       0.08714745 -0.04830832 0.09474127 0.052941497
0000b0 ac 64 e8 3d 1d 6f 7b 3e 5e d3 59 be ee 1c 56 3b
       0.11347327 0.24554105 -0.21272036 0.0032671052
0000c0 6d f5 16 bd cb 2a c1 bd 85 ef 32 be c2 54 3b 3d
       -0.03685515 -0.0943199 -0.17474182 0.04573513
0000d0 5d df 11 3e ec 0b d1 3d 7c c0 08 be f6 cd 10 3e
       0.14245363 0.10207352 -0.13354677 0.14141068
0000e0 5d 0e 53 be 57 d5 7e 3d fd ec 4d 3d 50 b7 c8 3c
       -0.20610948 0.062215175 0.050274838 0.024501473
0000f0 3a d8 5e 3e 3c 55 cc bd 02 a3 93 bd 27 79 fe 3b
       0.21762171 -0.09977195 -0.07208826 0.0077659073
000100 da 6a 4a 3d a5 bf 11 be 0c b3 89 bd b1 a6 1a be
       0.049418308 -0.14233263 -0.067236036 -0.1510265
000110 e1 9f 9e 3d cd fe 4e 3c 46 51 1b 3e 93 ba 4f 3e
       0.07745338 0.012633991 0.15167722 0.20286016
000120 99 e7 3e 3e 92 42 cc bd 1d c0 bc bc 5d ea 16 3e
       0.18643035 -0.09973635 -0.023040826 0.1473784
000130 8a 10 10 be 4c 32 7a 3e 73 3b 0e 3e 72 52 50 3d
       -0.14068809 0.24433249 0.13889866 0.050859876
000140 44 a7 6e bd b0 6b 84 bd 2c e0 fb 3d 14 0f 0c be
       -0.058264986 -0.06465852 0.12298617 -0.13677627
000150 82 3e ed 3d d5 6b ad 3c 4b 7a 74 be c0 c9 63 3e
       0.11584188 0.021169582 -0.23874776 0.2224493
000160 1b c8 47 be ca 8d 43 3d 63 80 17 3d cd 30 9d 3d
       -0.19509928 0.047742642 0.036987673 0.07675324
000170 77 99 47 3d de 94 04 bd 4a 4e 59 3e b3 97 9d bd
       0.04873034 -0.032368533 0.21221271 -0.0769495
000180 71 15 0e 3e fe eb 68 3c ec 74 82 bc 97 b9 03 be
       0.13875367 0.014216421 -0.015924893 -0.12863766
000190 59 6a 5d 3d 84 77 98 3e 90 37 57 be 84 d6 0d 3e
       0.0540565 0.29778683 -0.21017289 0.13851362
0001a0 23 1f 64 be 30 32 01 be 00 a1 7d 3e 01 7c be bd
       -0.22277503 -0.12616801 0.24768448 -0.093009956
0001b0 8a 5b 21 3e 4d 53 32 3e d9 28 36 be a2 36 91 be
       0.15757576 0.17414589 -0.1778902 -0.28361994
0001c0 ec a0 33 be 21 6b dc bd 9f 28 b7 bd c8 dc ba bb
       -0.17541856 -0.10762621 -0.08943295 -0.0057025887
0001d0 c6 31 71 3d e4 c8 90 bc 1a 18 a5 3d b0 3b 95 3d
       0.05888536 -0.017673917 0.08061238 0.07286775
0001e0 0d d7 42 3d ad 38 00 be 4a 74 9b 3b fa 3f 08 3e
       0.04756837 -0.1252162 0.0047440873 0.13305655
0001f0 e7 9e 45 3e e5 99 5a bd 43 25 28 bd aa b1 a1 3b
       0.19298898 -0.05336942 -0.04105116 0.0049345093
000200 70 5b bf bc e1 2d 33 3e fd 0e 12 be d9 ae 58 be
       -0.02335903 0.1749797 -0.1426353 -0.21160449
000210 d9 c7 da bd 4b 2d 13 be 82 27 08 be b0 9b 82 be
       -0.10682649 -0.14372747 -0.13296321 -0.25509405
000220 ef b2 62 be d2 ce e1 3d dc c7 13 3e f0 e8 85 be
       -0.2213857 0.11025776 0.14431709 -0.2615428
000230 47 ea cf bd 9d 4b 87 be 77 f5 2b 3e ac e0 00 be
       -0.10152107 -0.26424876 0.16792856 -0.12585706
000240 8d d2 37 3e 68 5c 64 3d 5c 75 ae bd bf 1e 63 3e
       0.17951412 0.055752188 -0.08518478 0.22179697
000250 bd 69 41 3e 59 af 80 3e f6 fc 67 be ee ab 45 3e
       0.18887992 0.2513378 -0.2265509 0.19303867
000260 94 88 6a be 66 5c 10 be 85 dc 52 3e 63 2c 19 3e
       -0.22903663 -0.14097747 0.20591934 0.14958338
000270 37 33 f5 bd 94 00 61 be 18 b4 52 be 95 4e 06 3e
       -0.11972659 -0.21972877 -0.20576513 0.13115914
000280 71 b4 9b 3c d4 29 8f 3d f9 77 50 be 3a d9 4c 3e
       0.01900694 0.069904 -0.20358266 0.2000474
000290 9e fc 00 3c db 5d 31 3e 78 b5 9c 3d 2d ab 4d bd
       0.007872729 0.1732096 0.076518 -0.050212074
0002a0 91 0f 1f be d1 94 14 3c 58 01 5d be 75 40 79 3d
       -0.15533282 0.009068684 -0.21582544 0.060852487
0002b0 1e b9 ae bd b8 37 86 be 58 32 8e 3d 9a 2d 08 bc
       -0.08531402 -0.26214385 0.06943196 -0.0083116535
0002c0 b5 ab 2e 3e d0 63 13 3e 8d f9 22 bc ee f9 0f 3e
       0.17057689 0.14393544 -0.009947193 0.14060184
0002d0 9a b3 87 be eb 46 5d 3d 53 88 56 3e b2 52 33 3d
       -0.26504213 0.05402271 0.20950441 0.043780036
0002e0 c3 76 6e 3e f7 3d 21 3e 3e 4f eb 3d 0c 09 47 3e
       0.23287492 0.15746294 0.114897236 0.19437045
0002f0 cf 77 2d 3e 1b b8 c3 3d 79 12 56 be d6 d3 0b be
       0.16940235 0.095566 -0.20905484 -0.13655028
000300 6a e3 cb bd 6b 96 cf bd 9f 78 8f 3d ae ec d8 3c
       -0.09955485 -0.10136112 0.070054285 0.026480045
000310 02 5b 52 3d 8f e0 93 bd 95 41 47 3e be d8 d9 3d
       0.051356323 -0.072205655 0.19458611 0.106370434
000320 58 66 bb bd 62 c4 11 be 11 2f 21 be 61 89 50 3e
       -0.0915038 -0.1423507 -0.1574061 0.20364906
000330 f1 e3 45 bd 5e 7e af bd b4 10 94 bd 79 fa 0e be
       -0.048313085 -0.085690245 -0.07229748 -0.13962735
000340 c2 08 c8 bc 85 06 2d 3e 26 f2 9c bd 2d 7e 98 be
       -0.024418239 0.16897018 -0.07663374 -0.29783764
000350 02 a2 5d 3e 57 3a d1 3d 20 48 04 3d d2 c7 05 3c
       0.21643832 0.102162056 0.032295346 0.008165317
000360 68 f0 a5 3d 4d ab 06 3d 79 75 07 3e b4 77 70 3e
       0.081024945 0.03287821 0.13228406 0.23483163
000370 35 46 1b 3c c8 f5 f0 3c a3 17 6e bc 93 31 c2 bc
       0.009477188 0.029414073 -0.014532003 -0.02370528
000380 37 cf a2 bc ef b1 0b 3d 07 c3 a5 bd f1 ec 90 bd
       -0.019874198 0.034105238 -0.08093839 -0.07076443
000390 0e 78 27 bd 22 91 5b bd 7b f1 92 3d b5 8a 90 3e
       -0.040885977 -0.053605206 0.07174965 0.28230825
0003a0 21 e8 2f 3c 21 b6 95 bd 1f 52 1c bd 14 d2 e2 3d
       0.010736496 -0.07310129 -0.038164254 0.110752255
0003b0 d4 71 78 3e 12 9e 59 3e 3b 65 03 be c0 91 40 be
       0.24262172 0.21251705 -0.12831585 -0.18805599
0003c0 0f 71 11 3e bb c6 90 3c 64 87 cc bd d3 2a dd bd
       0.14203285 0.017672887 -0.09986761 -0.10799184
0003d0 1d 5d 79 3d ed 38 a6 bd 13 c2 15 3e 58 f6 fd 3d
       0.060879815 -0.081163265 0.14624815 0.12400502
0003e0 27 71 3c be c8 ed db 3a 82 cc 58 3b f1 04 f3 bd
       -0.18402539 0.0016779238 0.003308088 -0.11866177
0003f0 6c 9f f9 3d fc 09 1f 3d 4d c0 e6 3d 53 99 da bc
       0.121886104 0.03882788 0.11267147 -0.026684439

weight_hh_l0 f4 [128, 32]
000000 26 3c 0d be 67 18 78 3d c6 1e 38 be 25 8f 45 3d
       -0.13792476 0.060570147 -0.17980489 0.048232216
000010 43 98 d8 bd 70 88 92 3d ed 29 0b be d7 84 d9 bc
       -0.105759166 0.0715493 -0.13590212 -0.0265526
000020 44 5e d6 3c ee a2 a4 bd a8 2b 2b 3e a1 54 ef 3d
       0.026167996 -0.08038889 0.16715872 0.116860636
000030 04 89 3d 3d 94 e5 4e 3e 52 2e 99 bc 51 25 01 be
       0.046273246 0.20204765 -0.018698845 -0.12611891
000040 67 36 c4 3d 8c 8f dd bd 9c 1e fe 3d e9 de 9f 3c
       0.09580689 -0.10818395 0.12408182 0.019515472
000050 73 ae ac 3d 16 8d 30 be 8a 62 27 be 4b dc ad 3d
       0.08431711 -0.1724132 -0.16346183 0.08489283
000060 b2 d9 5b be 05 ad 8c 3e e1 fc 87 be 06 84 6f 3e
       -0.21469763 0.27475753 -0.2656012 0.23390207
000070 1f 16 ae 3d 97 c9 84 be 39 d4 22 bc 66 78 43 3d
       0.08500313 -0.2593505 -0.009938293 0.047722243
000080 d5 1a ab bd 14 a8 6a bd 09 60 d9 3b c7 68 e9 bd
       -0.08354727 -0.057289198 0.0066337627 -0.11396938
000090 55 21 8b 3d 16 21 26 3d eb f0 73 be e4 a9 94 bc
       0.06793467 0.040558897 -0.23822372 -0.018147416
0000a0 87 dd ab bd a4 db 85 3d 10 31 2a be ce 03 43 3b
       -0.08391862 0.06536034 -0.16620278 0.0029756906
0000b0 2c f7 95 3d 50 aa 7b 3e 5f fc bc 3d 87 db ba bd
       0.07322535 0.24576688 0.092278235 -0.09123903
0000c0 cc 9e 84 bd 49 fb 92 bd 02 14 bb 3d 6b fb 80 3d
       -0.064756006 -0.07176835 0.091346756 0.06297954
0000d0 77 e2 66 3e b6 f9 80 be 9d 40 e5 3d c8 8f 85 3e
       0.22547327 -0.25190514 0.11193965 0.2608626
0000e0 c2 97 3d bb 90 23 a4 3b 5a 6c b0 bd b2 4f c5 bc
       -0.0028929566 0.005009122 -0.086144164 -0.024085853
0000f0 c7 da ae bd 08 9e d2 3c f4 9b 2e bc 3c 6f ac bd
       -0.08537822 0.02571012 -0.010657299 -0.08419654
000100 55 42 c5 bd c8 dd e7 3d 1a 8d 8a bc 2b d5 06 be
       -0.096317925 0.11321598 -0.016912986 -0.13167255
000110 71 4d 2f be 16 62 46 be 03 75 56 be bd 62 42 3d
       -0.17119385 -0.19373354 -0.20943074 0.047457445
000120 61 6a 35 bc e9 6e 6f be 61 bb a2 bc 07 65 10 3c
       -0.011072726 -0.23382153 -0.01986474 0.008813149
000130 1a 14 21 bd a3 c7 91 3e 1f b6 02 3e d6 07 bc bd
       -0.03932581 0.28472623 0.12764786 -0.09181182
000140 bd 6c d5 3d 3e f0 36 3d 31 c7 02 bb 38 9e 8f be
       0.10421131 0.044662707 -0.0019955153 -0.280504
000150 74 64 a0 3b 93 3d 1c be d5 54 7f be f7 a6 6c 3e
       0.0048947874 -0.15257864 -0.24934705 0.23110567
000160 44 8f 36 be 24 00 24 3d af 8c 5f be 71 ef c5 ba
       -0.17828089 0.040039197 -0.2183101 -0.0015101266
000170 96 2a 1e be ec c6 0e 3d b3 2f 23 3e 86 18 8b be
       -0.15445933 0.034857675 0.15936165 -0.27167147
000180 08 0f 30 3e c5 b6 3a bd 68 90 3a bc cb a1 dc bd
       0.17193234 -0.04558446 -0.011386968 -0.10773047
000190 9a 64 6d 3d f8 f7 05 3d e5 4a c7 3d a3 1a d7 3d
       0.05795727 0.032707185 0.09731082 0.105031274
0001a0 1f 24 ae 3e 83 1c 62 3e fa b3 b1 3d 4a 46 35 3b
       0.34011933 0.22081189 0.08676906 0.0027660304
0001b0 29 cb ba 3c 2a bd 4c 3a 19 c8 2a bd dc ce 09 be
       0.022801952 0.000781017 -0.041694734 -0.13457817
0001c0 b2 2b 9d bd 15 47 84 bd 44 23 eb 3c 8f a5 2e be
       -0.0767435 -0.0645887 0.02870334 -0.17055343
0001d0 d1 57 58 bd bb ba be 3d b8 3d 70 bd 78 ca 6a bd
       -0.052818123 0.0931296 -0.05865261 -0.057321995
0001e0 60 cf 2b bb e9 a6 42 3e d1 c7 be bd 3a c0 2d 3d
       -0.0026216134 0.19008984 -0.09315456 0.04241965
0001f0 f9 1c f2 3c 22 b1 47 bd a5 2d 75 3e 38 75 36 be
       0.02955483 -0.04875291 0.23943193 -0.17818153
000200 43 67 f5 bd 00 b0 25 3e ce 6d 36 bd af d7 23 3c
       -0.11982586 0.1618042 -0.04453831 0.010000153
000210 43 51 cd 3d 5e f7 d4 3d f5 c8 93 3d 10 4a 0a 3d
       0.10025265 0.10398744 0.07216064 0.033762038
000220 de 29 1a 3e a6 a7 62 3d 92 7e 08 bd da 3b c5 3b
       0.15055034 0.055335663 -0.03332383 0.0060190978
000230 e1 62 48 bc 73 c4 95 3e 6b 45 63 3e da 45 8c bd
       -0.012230606 0.2925144 0.2219445 -0.06849261
000240 cc f3 30 be 40 d2 2b 3d bb a3 e1 3d 6d 5e 87 bd
       -0.17280501 0.041948557 0.11017557 -0.06609807
000250 0e c9 0e 3e 55 26 90 3b 3f 2a 50 3d 5f 1b 22 bd
       0.13943884 0.004399101 0.05082154 -0.039576884
000260 17 1d 71 be ca 84 11 3e e3 f8 74 be 29 62 10 3e
       -0.23546253 0.14210811 -0.23923068 0.14099945
000270 ff 18 50 bd 79 60 17 3d 73 07 60 3e 4b af f0 bd
       -0.050805088 0.036957238 0.21877842 -0.117521845
000280 78 cb 8c 3b f3 91 ad bd 08 c6 8b be b4 2c 71 be
       0.0042967163 -0.08475103 -0.27299523 -0.23552209
000290 20 95 12 39 ad 19 8d 3d 1d 84 7c be 94 2f 88 3e
       0.00013979198 0.06889663 -0.24659772 0.265988
0002a0 30 45 87 3e 69 fd 49 be a8 0a 62 3c a2 dd 46 3e
       0.26419973 -0.19725575 0.013796486 0.19420484
0002b0 5c a6 10 bc 17 8a 9a 3d 86 9d 08 3e 87 29 42 be
       -0.008828726 0.0754587 0.1334134 -0.18961154
0002c0 85 60 ff bd d3 71 11 3e df 4f 4c 3d 62 b3 b1 3d
       -0.124695815 0.14203577 0.04988086 0.08676793
0002d0 19 26 cd bd 94 f4 0a be 8d 11 84 be 97 5c 1f 3e
       -0.10017032 -0.13569862 -0.2579464 0.15562664
0002e0 8e f4 ba 3d a6 3f 81 3e 57 71 fe 3c 68 a4 9c 3d
       0.09128676 0.25243872 0.031059904 0.076485455
0002f0 57 5d 34 3d 9f bc 81 be c0 53 9c 3e fb 6f 25 be
       0.04403433 -0.2533922 0.30532646 -0.16155998
000300 17 c0 17 3e 16 8f 18 bc c1 f0 3b bd 9d 72 c4 bd
       0.1481937 -0.009311458 -0.045883898 -0.09592173
000310 8b 2f 60 3e e5 1c 6d be 4d 5b 7d be bd 3b d6 3d
       0.21893136 -0.23155554 -0.2474186 0.10460613
000320 dd b3 b6 bd 11 08 de bc ba 90 d3 3d df 49 3b 3e
       -0.08921025 -0.027103456 0.10330339 0.18289898
000330 ac d0 bb bd ac 6d 8b 3e 9b 4f 33 bd f1 62 8a be
       -0.091706604 0.2723211 -0.04377709 -0.2702861
000340 0f b8 06 be 2f 4a 59 3d fc d7 61 3e 9e e2 24 be
       -0.1315615 0.053049263 0.22055048 -0.16102073
000350 08 df 89 3e d7 ec 15 3d 46 ab 93 be 1b 03 5f 3e
       0.26927972 0.03660282 -0.2884161 0.21778528
000360 2b bf a5 bd 0e 90 16 3e d4 ca 32 be 43 09 a0 3d
       -0.08093103 0.1470339 -0.17460185 0.078142665
000370 3e 05 a7 3d 8b 25 02 be 0c 51 70 bd 55 dc ed bd
       0.08155297 -0.12709634 -0.058671042 -0.116142906
000380 5a b1 ae 3d 6b a8 12 3e c9 85 56 bc c2 85 00 3d
       0.08529921 0.14322059 -0.01309342 0.03137756
000390 8f d4 01 3e f8 19 20 be 8c 17 82 3d b5 21 b6 3d
       0.12678741 -0.15634906 0.063521475 0.08893148
0003a0 c2 dc eb 3c 43 2e 49 be 19 b1 c9 bd f2 02 5a 3e
       0.028791789 -0.19646554 -0.09848232 0.21290186
0003b0 34 6a 53 3e 10 b8 c8 bc e2 99 00 3e a6 ee 3d 3c
       0.20645982 -0.02450183 0.12558702 0.011592543
0003c0 27 27 02 3e 3a f4 78 bd 0a 24 1b be 0d f5 74 3d
       0.12710248 -0.060779788 -0.15150467 0.05980401
0003d0 3c 00 93 bc a1 b1 0c bd 09 87 e4 bd 29 dc c0 bd
       -0.017944448 -0.034349088 -0.111585684 -0.09416992
0003e0 a5 ee bc 3c 76 34 2a bd 1c e4 13 3d 42 d8 21 3e
       0.023063013 -0.041553937 0.036106214 0.15805152
0003f0 59 dc 50 bd 41 c8 9a 3d ce fb c7 3d d3 7f bf 3b
       -0.05099139 0.07557727 0.09764825 0.0058440953

bias_ih_l0 f4 [128]
000000 f8 0a 07 bb 37 5d 2d bd a5 21 06 3e e1 2f d9 3d
       -0.0020605903 -0.042325225 0.13098772 0.10604835
000010 15 0b a6 3d cc 52 1e 3e 7f 1e 87 3e 5a 37 9e bd
       0.081075825 0.15461272 0.26390454 -0.07725401
000020 a0 97 5b 3d 29 30 03 3e 04 28 dd bc e9 b7 f5 bd
       0.053611398 0.1281134 -0.02699662 -0.11997969
000030 74 5d c2 3d bf 06 53 3e b8 24 11 be af 35 89 3d
       0.09490481 0.20608042 -0.14174163 0.066996925
000040 ec ad 2c 3c dd 01 4a 3e b6 82 89 3e 99 2e 8c bd
       0.010539513 0.19727273 0.26857537 -0.06844825
000050 ca 89 4e 3e 20 aa 57 bd 8e 16 a3 bd 7f c5 46 bd
       0.2016975 -0.05265248 -0.07963286 -0.04852819
000060 59 8f 9d 3c 36 1d 97 bc fc 7e f7 3d bc f3 09 3d
       0.019233393 -0.018446546 0.12084767 0.03367971
000070 81 d7 19 3e aa 00 03 3e fd 70 44 3e 84 92 e5 3d
       0.15023614 0.12793222 0.19183727 0.11209586
000080 6f 59 4c 3e e9 8b ca bd b3 4f 9f bd 9f 1f df bd
       0.19955991 -0.09889967 -0.07778873 -0.10894703
000090 1e d1 52 3d e9 ed d3 3d d8 80 80 3d b2 20 44 3e
       0.05146896 0.10348112 0.06274575 0.19153097
0000a0 a8 98 4f 3e b0 44 86 3e 7f ce 06 3e 43 d7 49 3e
       0.20273077 0.2622428 0.1316471 0.19711022
0000b0 e2 01 2e bd 1a f7 28 3e d7 7e 87 3c ac 90 c2 bc
       -0.042482264 0.16500512 0.016539974 -0.023750626
0000c0 fa 88 bd bd 46 1e 88 3e 32 c8 83 3e 11 d4 23 3e
       -0.09254642 0.26585597 0.25738674 0.15998866
0000d0 8e 96 00 3e bc b3 e3 3d 07 9d 35 bd 06 ee f6 3c
       0.12557432 0.11118266 -0.044339206 0.030142795
0000e0 f4 fb 11 bc 2f 17 de 3d 38 e8 cd 3d 7b 01 35 3e
       -0.008910168 0.10844266 0.10054058 0.17676346
0000f0 6b 25 ef bd 86 99 97 3d 7d 6b ec ba 4f d7 7e 3d
       -0.11677059 0.07402329 -0.0018037405 0.062217053
000100 7a d1 ba bd c3 5b 8d 3d f8 3b c4 3d 23 42 1c be
       -0.09121986 0.06902268 0.09581751 -0.15259604
000110 de 54 ae 3b ee 87 a4 3d c4 26 c5 3d de 82 07 3e
       0.0053201756 0.08033739 0.096265346 0.13233516
000120 ae 07 12 3e 89 f1 00 be 8c f0 90 3d 48 36 58 3d
       0.14260742 -0.12592138 0.07077131 0.05278614
000130 f1 25 42 3d 5b 15 ab 3c 5c 1c f3 3d 0a ac ef bd
       0.047399465 0.020884207 0.118706435 -0.11702736
000140 b3 e0 f3 bd b5 fb c6 bd 5d 66 33 3e e8 09 d8 bd
       -0.11908092 -0.09715978 0.17519517 -0.105487645
000150 e1 d5 6d 3d 59 83 1d be 94 43 b9 bd db 7c 35 3e
       0.0580653 -0.15382136 -0.09046093 0.1772341
000160 3e b4 06 be 77 60 32 bd 1c ff f6 3d bf e2 1e 3d
       -0.13154694 -0.043549027 0.12060377 0.03879046
000170 34 94 84 3c 7c 29 e4 bd 98 e6 8f bd 13 29 99 3d
       0.01618395 -0.11140725 -0.07026404 0.074785374
000180 2e bc 2b bc 84 6d 2c 3e ea 39 59 3e 4c 60 f2 3d
       -0.010481877 0.16838652 0.21213499 0.118347734
000190 87 66 16 3e e3 aa 47 3e da 8a 4e 3e da 9e 9c 3c
       0.14687549 0.19498782 0.20170155 0.019118715
0001a0 91 ec c0 3c 81 83 86 3e 31 0f 65 3d 18 68 16 be
       0.023550304 0.26272205 0.05592269 -0.14688146
0001b0 8b 8b 3d bd ed c7 4e 3e 51 30 83 3d 96 20 47 3d
       -0.046275657 0.20193453 0.064057 0.04861506
0001c0 0a ce af 3d e0 e5 be bd 73 1b 67 3e 99 8c 97 3d
       0.08584221 -0.09321189 0.22569065 0.07399864
0001d0 91 d3 35 bd 7e 7d df 3d ff f3 da 3c a6 49 ee bd
       -0.04439122 0.109126076 0.026727675 -0.11635141
0001e0 61 c2 65 3e ac 7d 6e 3d fd f8 83 3e e0 9c ab bd
       0.22437431 0.05822532 0.257759 -0.08379531
0001f0 8e f5 ae bd 69 0d 13 3d e2 b0 ff 3d ce d9 2c 3d
       -0.085429296 0.03590146 0.124849096 0.042199902

bias_hh_l0 f4 [128]
000000 23 6d 68 3e f1 5f 5e 3e 17 93 7a 3d 95 c8 80 bd
       0.22697882 0.21716286 0.061175432 -0.06288258
000010 17 50 33 3e bb 1b 78 3e 7e 9b 8d 3c d3 cb db 3c
       0.1751102 0.24229328 0.017286059 0.02683059
000020 b3 76 07 3e db 0c 4d 3e 7e 55 36 3e 76 cf b5 3d
       0.13228874 0.20024435 0.1780605 0.08877461
000030 5c 79 c3 3d e2 88 5c 3e 84 49 b3 3d a2 cf f1 3d
       0.09544632 0.21536592 0.08754256 0.11807181
000040 1c eb 25 bd 9b f8 f1 3d ef 9c 36 3e 6e 43 e8 bd
       -0.04050742 0.11814996 0.17833303 -0.11340986
000050 75 b9 53 3e 44 94 68 3d ca e7 5b 3e ae dd f9 bd
       0.20676215 0.056782022 0.2147514 -0.12200485
000060 ba bd b3 bd 32 16 d0 bd 68 43 ae 3d 17 fb 7f bd
       -0.08776422 -0.101604834 0.085089505 -0.062495317
000070 ef 4d 34 3e e4 ca 1b 3e b9 fc 50 3d dd 73 10 3e
       0.17607854 0.15214115 0.051022265 0.14106698
000080 46 d7 85 3d 05 17 fa 3d 23 f9 3c 3d 05 c0 94 bb
       0.06535201 0.12211422 0.046136033 -0.004539492
000090 fc 76 7d 3d e6 cf 81 bd 06 3d 77 bd 9c 9a c9 bd
       0.06188105 -0.063384816 -0.06036093 -0.098439425
0000a0 97 4e 71 bd dd 1a ab 3d 85 17 4e 3d 89 18 bb 3d
       -0.05891284 0.08354733 0.0503154 0.09135539
0000b0 0a 06 d1 3d 35 5f 36 3e f4 42 0f be 76 0a c8 bd
       0.1020623 0.17809756 -0.13990384 -0.0976762
0000c0 18 75 cd bc 26 b8 bc 3b 5f 29 e6 3d f5 c7 de bc
       -0.025080249 0.005759257 0.1123836 -0.027194956
0000d0 f1 9f f1 3d 63 82 0c 3d c2 d1 cd 3d d6 7f f0 bd
       0.117980845 0.034304034 0.10049774 -0.11743133
0000e0 f8 5b 7e 3c f3 06 1d 3e 60 98 38 3c a9 d1 2c bd
       0.015524857 0.15334682 0.011266798 -0.042192135
0000f0 d0 46 a7 3d a7 2c f2 bd 50 81 f8 bd cb e8 74 3e
       0.08167803 -0.11824923 -0.121340394 0.23916928
000100 40 5d b4 3d 9e 1a b2 3d c7 3f be bd 30 91 f4 bd
       0.088068485 0.08696483 -0.09289508 -0.11941755
000110 72 6a a1 3d 72 a7 f7 bd 66 0c dd bd 49 d3 06 3e
       0.07881631 -0.120924845 -0.107933804 0.13166536
000120 34 ea f1 bd 8c 1e c6 3d 1d 26 8d bb 1c f5 23 3e
       -0.11812249 0.09673795 -0.004307522 0.1601147
000130 d5 c4 0b 3c 81 08 c0 3d a1 36 c4 3d bf 05 28 bc
       0.008530815 0.09376622 0.09580732 -0.010255276
000140 7b 3d f7 bc c4 95 97 3d 45 33 dd bd c9 c3 f3 bb
       -0.030180683 0.074016124 -0.108007945 -0.007439111
000150 a3 1a d7 3d ea a5 e5 bd 3e 71 28 3d dd 3b e7 3d
       0.105031274 -0.11213286 0.04112362 0.11290715
000160 9b 05 8a bd 86 48 37 3e fe 33 ab bd 65 fb 60 3d
       -0.067393504 0.17898759 -0.08359526 0.05492725
000170 92 b8 07 be 5f aa 19 be 4f 7a 1e 3e c6 96 d6 bd
       -0.13254002 -0.15006398 0.15476345 -0.104779765
000180 71 ff 81 3e bd d2 13 3e 55 6f e4 3d 56 85 17 be
       0.253902 0.14435859 0.111540474 -0.14796957
000190 8b 7d d7 bc 1d 2e 55 3e 44 d5 01 3e df 24 be 3d
       -0.02630498 0.20818372 0.1267901 0.09284376
0001a0 04 72 88 3d 75 07 8d 3e 64 1f 97 3a 1a 23 01 be
       0.06662372 0.27544752 0.0011529741 -0.12611046
0001b0 87 43 1d bd 12 3c 7a 3d 6c ea 04 3e 1c 50 1a 3e
       -0.038394477 0.061092444 0.1298005 0.15069622
0001c0 ab 8c 6f 3e 1d a6 0e bd 25 f2 74 3b b5 d8 72 3d
       0.23393504 -0.034826387 0.0037375775 0.0592887
0001d0 fc 24 7c bd 34 e6 a5 bd 15 22 17 3e 9d 84 2e 3e
       -0.06155871 -0.081005484 0.14759095 0.17042775
0001e0 da 62 cb 3d c3 79 3c 3e 28 cd 3c 3d 97 15 d0 3d
       0.09930964 0.18405823 0.04609409 0.10160368
0001f0 3f a6 42 3e 40 22 d3 3d 33 73 4b 3d 94 f3 da 3d
       0.1900873 0.10309267 0.04967041 0.1069099

weight_ih_l0_reverse f4 [128, 2]
000000 da 55 0c bd 4b cf 13 be d7 5a 00 3e 9b 98 04 bd
       -0.034261562 -0.14434545 0.12534653 -0.0323721
000010 49 e7 be bc ae 51 cd 3c 96 33 01 3e ef a0 c2 bd
       -0.023303645 0.025063362 0.12617335 -0.09503352
000020 55 c4 03 bd db 4d e4 bb bc 57 50 be a1 4d 59 be
       -0.03216966 -0.006967289 -0.20345968 -0.2122102
000030 49 b8 2d 3e 4b f0 ad 3d 5c 63 2e 3d fc 44 83 be
       0.1696483 0.08493098 0.042575225 -0.25638568
000040 a2 5d bd 3d 2d 42 4a be 35 9d f2 bd 34 ed ca 3d
       0.09246375 -0.19751807 -0.11846391 0.09908524
000050 01 1e 83 be 67 10 1f 3e 69 5d 44 3e 33 1b 32 be
       -0.2560883 0.15533601 0.19176258 -0.17393188
000060 98 fd 40 be c0 a0 fe bd 39 2f 37 be b6 72 5b be
       -0.18846738 -0.124330044 -0.17889108 -0.21430477
000070 e6 39 3e 3e 44 7e e5 3d 5b 18 6e 3d 6c 14 4f 3d
       0.18576774 0.11205724 0.058128696 0.050556585
000080 c3 98 1c bd 36 30 a0 bd 51 89 37 bc de 58 1c be
       -0.038231622 -0.078216955 -0.011202172 -0.15268275
000090 83 be a5 bd 11 40 95 3d 1c e4 fa bc 3d dd 06 3e
       -0.08092978 0.0728761 -0.03062635 0.13170333
0000a0 b5 bf 86 bd 41 49 3e 3e fb 5b 10 be 63 7e b1 3d
       -0.06579534 0.18582632 -0.14097588 0.086666845
0000b0 a6 d5 a7 bd 82 1b 37 3d 85 bd 24 3e 8e d8 84 ba
       -0.08195047 0.044703968 0.16087921 -0.0010135339
0000c0 85 8e e3 bd e2 fc cb 3d 5c 73 7a be ee dc 8b bd
       -0.11111168 0.09960343 -0.24458069 -0.06829248
0000d0 f1 e0 61 3d d9 3d f1 3d 79 35 0d be 72 01 93 3a
       0.05514616 0.11779375 -0.1378993 0.0011215641
0000e0 29 de 27 3d 84 13 9b bd 27 ef 00 be d5 99 81 3c
       0.040983353 -0.07572082 -0.1259123 0.015820423
0000f0 36 33 b7 3d 2f 1c 12 be c4 e4 c9 bd f4 e1 c0 bd
       0.089453146 -0.14268564 -0.09858087 -0.09418097
000100 9b 00 3b be 83 d6 f4 3d d3 58 39 3e eb 4a 0e be
       -0.1826195 0.11954977 0.1810029 -0.13895766
000110 3c a0 90 bc 53 1c d1 3d eb 6a 9c 3c 5c bf c4 bd
       -0.01765453 0.102104805 0.019093951 -0.096068114
000120 ed 07 89 bd 51 e8 47 3d 97 42 7a 3d 00 7e eb 3b
       -0.06690965 0.04880554 0.06109866 0.007186651
000130 4b 4b 79 bd ee 8b da 3d 28 65 ba 3d 35 87 39 bd
       -0.06086282 0.10671221 0.09101325 -0.04529496
000140 d2 2a 0c 3e be 25 36 bd 1f fb 96 3b ed cb 8e bd
       0.1368821 -0.044469588 0.0046075727 -0.069724895
000150 a7 fe 82 3d 77 2a 4f bd 22 a5 1a 3e 1f 60 25 be
       0.06396227 -0.050577607 0.15102056 -0.16149949
000160 9f 54 19 be 21 e9 6e bd d4 71 85 bd 56 66 30 be
       -0.14973687 -0.058327798 -0.065158516 -0.17226538
000170 03 6a 01 3e 2e d7 26 bd 97 10 1e bc 0f 53 8c 3c
       0.12638097 -0.040732555 -0.00964751 0.01712945
000180 46 72 ce 3d 13 fe ce bd 4e 6d 58 bc fc 54 17 3c
       0.1008039 -0.101070546 -0.013209654 0.00923657
000190 3f 4a 8b bd fc 7b 39 3d 43 69 8d bd a7 c8 eb 3d
       -0.06801271 0.045284256 -0.06904843 0.11512881
0001a0 03 27 91 3d 7d 9e 3c 3e 3c e4 6c bc 90 1e 3c 3d
       0.07087519 0.18419833 -0.014458712 0.045927584
0001b0 23 c3 1d 3e e4 24 67 be 89 97 17 be 8b 42 51 bc
       0.1540647 -0.22572666 -0.148039 -0.012772213
0001c0 3c ae 85 bc 7f b3 b2 bd 24 14 bb bd 0e a5 5d be
       -0.016318433 -0.087256424 -0.09134701 -0.21644995
0001d0 05 72 b5 3d b2 15 4c 3d 21 89 a3 3c 9e 92 69 be
       0.08859638 0.049825378 0.01996285 -0.22809836
0001e0 1d 24 b5 bd 61 a5 81 3d d9 2b 1e 3d 11 9e 1e 3d
       -0.08844779 0.06330372 0.038616035 0.038724963
0001f0 28 b1 f7 3d bc 01 93 bd f3 5c c8 3c e0 23 47 be
       0.12094337 -0.07178065 0.024458384 -0.19447279
000200 3e 97 2d be 10 c3 a4 bd 8f 60 dd 3d 8c 6c 68 3e
       -0.16952226 -0.08045018 0.10809433 0.22697657
000210 90 ae e0 3c 01 12 0e 3d 29 d4 12 be 07 8b ea bd
       0.027426988 0.03468514 -0.14338745 -0.114522986
000220 3d f4 cd 3d 15 fc 1b 3e e1 e8 04 3e 14 13 35 3c
       0.100563504 0.1523288 0.12979461 0.011051912
000230 c1 b9 1d bd ba e9 69 bd 07 74 73 be 6f 48 2a 3e
       -0.038507227 -0.057107665 -0.2377473 0.16629194
000240 3d e1 a9 bd f2 0e 49 be cd cc c6 bd 23 42 65 3e
       -0.08294914 -0.19634607 -0.097070314 0.2238851
000250 d9 25 17 3e c0 e8 f0 bc fe ff 62 3e 9e d2 5f 3c
       0.14760531 -0.029407859 0.22167966 0.013661055
000260 d6 72 c5 3d c4 62 01 3d 72 d6 3b 3e 70 79 b4 3d
       0.09641044 0.03158833 0.18343523 0.08812225
000270 e8 93 64 bd c2 aa 3b be c8 38 90 3d 8c 65 70 3d
       -0.055805117 -0.18326858 0.0704208 0.058690593
000280 1e f2 6a 3d 2a aa 84 3d ed b8 87 3d c7 a9 5d 3e
       0.057359807 0.06477769 0.06627069 0.21646796
000290 df 6a eb 3b 5e 64 11 be ab d2 3b be d4 e7 3e 3d
       0.007184371 -0.14198443 -0.18342082 0.046607807
0002a0 ab 35 55 be f2 fc 45 bd 79 c8 08 3e 7c 51 33 3c
       -0.20821254 -0.04833693 0.13357724 0.01094472
0002b0 94 d2 54 be 26 16 b6 3d 21 00 d5 3d c2 a1 20 3e
       -0.20783454 0.08890943 0.10400415 0.15686706
0002c0 e1 06 1b bd b2 0c 0b 3e aa ed 07 3e 1c bf 1e 3e
       -0.037848357 0.13579062 0.13274255 0.1550259
0002d0 6c 41 0b be db d3 7f bd 8d 31 80 3c 1a c5 20 be
       -0.13599175 -0.0624579 0.015648628 -0.15700188
0002e0 5f 3a 76 be 1e 5a 15 3e f5 d0 60 3e ef c5 32 3d
       -0.24045704 0.14585158 0.21954711 0.043645795
0002f0 64 c2 a9 3d aa 3e 14 be 23 98 15 3e d8 f0 87 bd
       0.0828903 -0.1447703 0.14608817 -0.06637734
000300 0a e6 93 3d 8b 55 0c bd 75 fb e1 3d 43 4b 35 bd
       0.07221611 -0.034261268 0.1103429 -0.04426123
000310 ad b0 85 bd 35 49 af bd 2c df 2a be e5 fe 17 be
       -0.06527839 -0.08558885 -0.16686696 -0.14843328
000320 8e 4f 18 be 65 47 fa 3d 76 bf 6a be ce db cb bd
       -0.14874098 0.12220649 -0.22924599 -0.09954034
000330 f6 cd 2c be d6 4c cc bc e8 e6 24 3e 57 86 95 be
       -0.16875443 -0.024938982 0.16103709 -0.29204056
000340 de c7 a2 bd c7 2b d1 bd 4e a9 1e bd 0e 3c fb bd
       -0.07948278 -0.10213428 -0.03873568 -0.12267314
000350 5a 3d 00 bc c4 2d af bd 5d 79 10 3e 24 9b 68 be
       -0.007827127 -0.08553651 0.14108796 -0.22715431
000360 43 46 c7 3d 5d 63 22 be c4 72 bd bd ba 0c 63 bd
       0.09730198 -0.15858217 -0.092504054 -0.05543206
000370 bf c2 61 3e ae 43 13 3b 6e 04 c5 bd de 14 3e be
       0.22046946 0.002247076 -0.096199855 -0.18562648
000380 64 86 4e 3e e2 5b 8b 3d 41 d0 41 bd 98 fc 5e be
       0.20168453 0.06804635 -0.047317747 -0.21776044
000390 ca 33 8c bd d3 62 51 3d 21 33 28 be db 7c 2c 3e
       -0.068458155 0.051119637 -0.16425754 0.16844504
0003a0 91 d8 51 bd 5f 7a d8 bd c4 9a 0f be 42 b5 68 3e
       -0.051231924 -0.105702154 -0.14023882 0.22725394
0003b0 5f 3d 1a bd 8e cd 0e be b5 16 db bd b6 c6 4e 3d
       -0.037656184 -0.139456 -0.106976904 0.050482474
0003c0 54 c8 04 bd 86 05 68 3d 6e 9a b1 3d 29 77 2b be
       -0.03241761 0.056645893 0.08672033 -0.16744675
0003d0 cb 7c 5d be 44 da d1 3d 37 8a 5f 3d ed eb eb 3d
       -0.21629636 0.10246709 0.05457517 0.11519609
0003e0 1c e3 84 3e 67 93 aa bd 44 09 a4 bd 49 76 49 be
       0.2595452 -0.08328896 -0.0800958 -0.19674028
0003f0 c8 4c 5f 3d 14 ea 31 bd d4 55 8d bd 72 3f 76 bd
       0.054516584 -0.043436125 -0.06901136 -0.0601191
