experiments/pedestrians/models/models_14_Feb_2024_17_26_50_eth_vel_ar3/model_registrar-57.pt (torch, 527902 bytes, 43 tensors)

weight_ih_l0 f4 [128, 6]
00000000: b913 b33d ffe2 cf3d c761 81be da4b b7bd
00000010: e36c 71bd 0cb6 fdbc 0d17 54be f36c cebe
00000020: 71bf 86bd 1d5c 4a3e a438 a73d 6e64 1dbe
00000030: fe9c 3c3d 09df 913c 0837 a2be fb21 6abe
00000040: 8db1 97be c983 a3bc dfcb 2a3e 2a71 483e
00000050: 7519 df3d 65f1 283d 3f7e bc3d ea24 a4bc
00000060: 09f5 c9bd fb50 753d 31b1 44be 143c cfbe
00000070: 6c9d 6d3f 3f2c c9bf 0e57 563e c4d1 063e
00000080: d383 723e a2fd 09bd 6a7f cc3e 5291 a3be
00000090: 99e8 c9be e2d3 f23d bd1a 613e c116 6fbe
000000a0: 3c87 a53d 3a54 86be 0fc7 bebe 380c 0ebd
000000b0: 6d90 f73e f6df aebd 81ae 073e b846 90bd
000000c0: 3ba7 843e cb53 6d3e 8fec 0c3f 8020 c5be
000000d0: 0cf5 d03e 50ea 5bbe 4078 85bd 305c 81be
000000e0: 0fb5 233d 450e b13e 99ca e23d d545 eabd
000000f0: c325 053e fc26 8fbe dec1 d4be f44f cc3e
00000100: 9fed 65bd 0c87 993d f147 b73c 5396 413e
00000110: f9c6 0bbf 6bbb 43be 3b7a 93bf ee67 0dbf
00000120: aac7 753c c506 2dbd 3991 82be 5b4c 5b3e
00000130: bf5e fa3d ab12 d2ba 9d4f 04be 7fea 3c3d
00000140: cc71 dd3e eac4 9c3e 4d48 003f 9002 c03e
00000150: 8deb 7a3d ffb1 7bbd aeae 47bf e9c8 653d
00000160: 3a90 1cbf c012 83bd 5da4 a5be 9f78 203e
00000170: bccd 0a3f 28ce 823d e7f6 cfbd a68e d93e
00000180: 6ff5 863e 999c 8fbd e29a 08bf ba0a c23e
00000190: 279d 16bf 6eca b43d ad44 083e a354 52be
000001a0: 163e 49be 2c13 573e 82d4 0c3d 536e ab3d
000001b0: 1185 3b3e 0330 8bbe 20a7 84be f5a3 133f
000001c0: 6fe1 45bd 8db0 4f3f d460 763d 57b4 7d3c
000001d0: 3c18 d3be 799d ca3d 0880 0cbe 6390 ce3e
000001e0: 1244 c7be 7206 c13e 129c 033f 0144 d3be
000001f0: a6f0 9c3e ff9e 3fbb 7a7e 683d 2349 853e
00000200: 5843 353d 0907 8ebe e92e 213d 283a 813d
00000210: 3116 3ebe 59fd ddbe d4b9 fd3d aa63 123e
00000220: 6a34 a13e 6bf2 0f3d 8cc5 91bd 3072 c33d
00000230: 09fa 1d3e 25d8 2bbe 1e80 183d 494b 17bd
00000240: a882 183e f73b 17bd ef6d 98be ace5 31be
00000250: 5c11 6ebe c787 78be f5c5 c3be c21d 15be
00000260: 8c35 823d de2f 3b3e 32db 423e 63a4 6c3d
00000270: 611d 48bc accd 8c3e eaf8 24bf 9db1 1cbf
00000280: 08f8 babe bbd9 97bd e32c 5abe be58 233d
00000290: 57d5 323f 8468 163f 8c04 553f af0c 6e3f
000002a0: 5a27 4f3e bf52 7fbd 529f a6be 72b3 783e
000002b0: 49bc b93d e902 6c3e 389e b0be 2c10 8d3d
000002c0: 9576 eb3d 8579 c0be 9d6f 673e 178c c6bd
000002d0: d60d 35be f41f eabd 4685 a53e 352e 973d
000002e0: 1712 dbbd 1c09 9cbe b700 aebd f44d a33d
000002f0: f083 b33c e132 c73d 3c79 5ebe 2ef8 58bd
00000300: 09e7 ea3d 1953 ef3d 9412 3abe bc1a 02be
00000310: 5925 2bbe c0b2 35be 1c65 4bbc fba0 2ebe
00000320: c568 9b3d 76be cf3d 8078 983d 9d37 08be
00000330: faeb f7bd 929b 43bd 1d0b ffbc 0321 0fbd
00000340: 0ec7 75be 4a91 773d e1ec f63d 2908 a13d
00000350: 5947 e73d 98c4 1ebe 473b f6bc b8f9 d73c
00000360: 7f8e ae3c 6620 f3bd b8d0 653e 2a96 3fbe
00000370: 17e7 863e 7399 883c 28ea 4e3e 8bd1 41bd
00000380: c7f4 073e 8d4b 50be dee0 99be aa81 ab3c
00000390: a86d 75bd f0a3 8cbc 8b38 3c3e facc e9bd
000003a0: 227d 29be 86f5 3a3d 417d 0bbe 8c2b 59be
000003b0: 9da6 833e 0a30 40bd 4a67 a9bc 283b 01be
000003c0: 59da a53e 73d5 823c 023f 493c c181 30be
000003d0: e793 c3bd 1737 8dbd 69ee 2abe b410 0abd
000003e0: 556c 9c3e cbec f33d ffdf 443e 0289 983d
000003f0: a30e 063e 2280 9bbe 6c8d 1dbe e8f3 8e3e
0.08743996 0.10150718 -0.2526991 -0.089500144 -0.058941733 -0.030970596 -0.20711918 -0.40317497
-0.06579483 0.19761701 0.081651 -0.15370342 0.046048157 0.017806547 -0.3168261 -0.22864525
-0.29627648 -0.019960301 0.16679333 0.19574419 0.108935274 0.041245837 0.09203767 -0.020037133
-0.0986119 0.059891682 -0.19208218 -0.40475523 0.9281833 -1.5716628 0.20931646 0.13165957
0.236831 -0.03368915 0.3994096 -0.31946808 -0.3943527 0.1185682 0.21982856 -0.23348524
0.080824345 -0.26236135 -0.37261245 -0.03467962 0.48352376 -0.08538811 0.13250162 -0.070447385
0.25908837 0.23176496 0.5504846 -0.38501358 0.40811956 -0.21476102 -0.065170765 -0.25265646
0.039967593 0.345812 0.11073799 -0.11439101 0.13002686 -0.2795943 -0.4155416 0.3990475
-0.056134816 0.07496461 0.022373172 0.18905 -0.54600483 -0.19114463 -1.1521677 -0.5523671
0.015001217 -0.042242784 -0.2550142 0.21415846 0.12225103 -0.0016027292 -0.12920995 0.04612207
0.43250883 0.30618984 0.5011032 0.37501955 0.061259795 -0.061449047 -0.78000915 0.056099806
-0.6115757 -0.06400061 -0.32351962 0.15671013 0.54220176 0.063869774 -0.10154515 0.42491645
0.26359126 -0.070122905 -0.5336133 0.3789881 -0.58833545 0.08827673 0.13307448 -0.20540099
-0.1965259 0.21003407 0.03438235 0.08370652 0.1831248 -0.27185068 -0.25908756 0.57672054
-0.048310693 0.8112877 0.060150936 0.015484891 -0.41229427 0.09893317 -0.13720715 0.40344533
-0.3891912 0.3770023 0.5141002 -0.4126282 0.3065235 -0.0029239056 0.056761242 0.2603236
0.044253677 -0.27739742 0.039351378 0.063099205 -0.18563153 -0.4335735 0.123889595 0.14295831
0.314853 0.035143297 -0.07117757 0.09543264 0.15427412 -0.16781671 0.037231557 -0.036937032
0.14893591 -0.03692242 -0.29771373 -0.17372769 -0.2324881 -0.24270545 -0.38236967 -0.14562133
0.063578695 0.18279979 0.19028929 0.05777396 -0.012214036 0.27500665 -0.6444231 -0.61208516
-0.36517358 -0.07414576 -0.21306185 0.039879553 0.6985678 0.5875323 0.83210063 0.92988104
0.20229855 -0.062334772 -0.32543427 0.24287203 0.09069116 0.23047985 -0.3449571 0.0688785
0.11497227 -0.37592712 0.22601171 -0.09694689 -0.17681059 -0.11431876 0.32328242 0.0738186
-0.1069681 -0.304757 -0.0849623 0.07973853 0.021913499 0.09726501 -0.21725935 -0.052971058
0.11469848 0.116857715 -0.1817115 -0.12705511 -0.16713466 -0.17743969 -0.012414243 -0.17053597
0.075883426 0.101437494 0.074448586 -0.13302465 -0.12105556 -0.047755785 -0.031133229 -0.03494359
-0.24001715 0.060441293 0.120569 0.078628846 0.11292905 -0.15504682 -0.030057563 0.026364192
0.021308182 -0.11871414 0.22442901 -0.18709627 0.26348183 0.016674733 0.20206511 -0.047318976
0.13276969 -0.2034132 -0.30054373 0.020935852 -0.05991903 -0.017168015 0.18380944 -0.11416049
-0.1655164 0.045644306 -0.13622 -0.21208018 0.25713053 -0.046920814 -0.020679135 -0.12620223
0.3239315 0.015970921 0.012283089 -0.17236997 -0.095496945 -0.06895273 -0.16692509 -0.033707336
0.305514 0.11910399 0.19226073 0.07448007 0.13091521 -0.30371195 -0.1538598 0.2792046

weight_hh_l0 f4 [128, 32]
00000000: a399 013d a18f 5abe c96d dd3c 431d e63d
00000010: d409 19be 0254 90bc 621f 82bd be5e 25be
00000020: ee59 f53c 1b99 753e 6161 0ebe 320d 923d
00000030: 2f63 0dbe 9aeb 513e e89b 393e 071a cd3d
00000040: 7e01 653e 97c9 12be 6038 c2bd e6a3 923c
00000050: ade1 53be 92f7 05be 76f4 9dbd 8e65 8ebe
00000060: f6a9 8b3e fc29 bb3d 1cf8 79bd cc88 c73e
00000070: 03f6 573e 4656 383c 560d 2b3e 1bee cebd
00000080: c1a1 d33d cc5c 89be b407 b83d 78ee c2bd
00000090: 3830 5dbc 7571 433e b926 47bc ff89 63be
000000a0: 9b85 963d 6c38 e53d d969 aebe 38db eebd
000000b0: adf0 95be fa83 483e fbaa d83d d130 f9bd
000000c0: 6475 753e f920 093e 145b 6bbe e0b8 4f3d
000000d0: a670 95bd f026 11be defb 3ebe c623 28be
000000e0: 2c28 0f3e 609c 123e 7797 1dbe f63d 203d
000000f0: bd44 9e3c da72 2a3d 4b24 713e bacf 8bbd
00000100: dd42 f53d 57b8 16be 8489 e8bd 7f34 f83d
00000110: 2f3f ac3d 9cae 0d3e 611a 0fbe be34 49be
00000120: 5d35 69bd 6b1e 673e 20b1 92be becf 3e3d
00000130: 112c 7dbd 6086 04be e75a f23d f727 c2bd
00000140: 874d ed3d 745f 0abe 3a41 013e a0f5 08be
00000150: 6eea 653d fbbc 823d 571b ba3d bb95 183e
00000160: 44a5 8d3e 5ace 113e 75b4 2a3e 0bea 123e
00000170: 83b0 063e 5aa1 ab3d 3ebd 6ebd e5ea 503d
00000180: 915c bdbd 1353 51bd 6385 ffbc eabe 923d
00000190: 8c49 a6bd 5a81 dc3c 66f2 aebd 6c85 f63c
000001a0: 65a7 42bd 55aa 3d3e a084 a8be 234f 03be
000001b0: cbf2 9dbd 60d0 9cbd 6303 edbd 2f73 22be
000001c0: 78da 803d d685 d53c 41ef 78be e296 34bd
000001d0: 9f11 8dbd 0749 bfbb cbf6 853c 58d5 ddbc
000001e0: 07b3 063e 2bdc 103e b485 b3bd eab3 5b3e
000001f0: b9e8 7c3d d87b ed3d a64c 8f3e 0c37 9bbd
00000200: 5b49 7b3c e1f4 abbd 5264 783e cc3f f5bc
00000210: f819 ab3d b115 553d bb14 3fbd c2bb 203e
00000220: fb1e 503e 26cc 0bbe 9662 21be 368f 82be
00000230: dc3d e13d 024c d63d 85c5 a93d b898 d0bd
00000240: 6e9a 17be eebc b9be 7e00 423c 693f 953d
00000250: 9b67 313d a4cc be3e e361 043e 2b64 f9bc
00000260: e578 f53c cea8 6cbe 31ca 78bd 07e9 93be
00000270: 02b8 193d 2352 ccbb 9bfa 133e 8059 25be
00000280: b296 cc3d c7b0 55be 9c51 ba3d 0fca 02be
00000290: 4795 83bd cfbc a2bd f8d1 473e 6693 7abe
000002a0: 2902 82bd aab9 cd3c 9887 423e f6b9 cfbd
000002b0: 50db 59be bb95 943d e0f4 f7bb f3b1 15bc
000002c0: 8692 bcbc 6f05 663e 8668 4dbe ed31 553e
000002d0: 05d7 8cbd 0994 2cbd b5e4 533d 273f 47be
000002e0: 1c98 d73d cbfe 793d bc4f 2b3e 50d9 4d3e
000002f0: 6f45 813d c5cc 15bd 0f8e 5a3e 5384 463e
00000300: c0f7 173e 2e4c 95bd 7ea7 4dbe 843d 083e
00000310: b8b4 a1bd b5dc 93bd a031 833e 4cd8 aabe
00000320: 551c 10be 7e55 243e 8fdd 91bd 1324 06be
00000330: 0b45 afbb 9d09 a43e b08a 8c3d 97fd e93b
00000340: d781 953d 3fcd 4ebd 6f70 6ebd 5246 75bd
00000350: 8e4b b7bd 756f 713e c930 213e 1ec6 fdbd
00000360: 1b44 41bc da3c 7e3e 1248 ff3d aea2 3b3e
00000370: de18 05be 2899 8ebb a131 7dbb 450d 143e
00000380: 265f 0e3e abe3 8bbe c7f7 233d d483 053e
00000390: 93f2 7abe 3ba3 e6bb b469 8d3e cbc9 28be
000003a0: 9761 1fbd 8bef 86bc 3f07 dd3d 322f 37bd
000003b0: 7e12 53bd 64b6 13bc a883 823c aef0 953d
000003c0: a583 e03d b933 0f3e 3bba 2bbe cb09 8b3c
000003d0: 5cdb d6be e54c c83d e211 a4bd 4e63 aebe
000003e0: 7d0a 453e 0d5c d83e fb38 30be 28d8 923e
000003f0: ab88 ea3d 70ca acbc 41f1 dd3d cbc4 a43e
0.03164066 -0.21343853 0.027029889 0.1123605 -0.14945155 -0.017618183 -0.06353642 -0.16149423
0.029950108 0.23984186 -0.13904335 0.07131423 -0.13807367 0.20500031 0.1812588 0.1001473
0.2236385 -0.14334713 -0.09483409 0.017900418 -0.20691557 -0.13082722 -0.07712643 -0.27811855
0.27278107 0.09138867 -0.06102763 0.38971555 0.2108994 0.011251038 0.16704306 -0.10104009
0.103335865 -0.2682861 0.08985844 -0.095181406 -0.013500266 0.19086249 -0.012155228 -0.2222061
0.07349702 0.11192402 -0.3406513 -0.116629064 -0.29285184 0.19581595 0.10579487 -0.12167514
0.23970562 0.13391484 -0.22983962 0.05071342 -0.072968766 -0.1417501 -0.18650767 -0.16419896
0.13980168 0.14317465 -0.1538981 0.03912159 0.019319886 0.041613437 0.23549001 -0.0682673
0.11975644 -0.14718758 -0.11354354 0.12119388 0.08410489 0.1383614 -0.13974907 -0.19649026
-0.056935657 0.22570197 -0.2865076 0.046584837 -0.061809603 -0.12941885 0.118337445 -0.09480279
0.11587053 -0.13512975 0.12622538 -0.13374949 0.056131773 0.063837014 0.09087246 0.14900868
0.2766515 0.14238873 0.16670401 0.14347093 0.13153271 0.08380385 -0.058285944 0.051005263
-0.09246171 -0.051104616 -0.031191533 0.0716532 -0.08119497 0.026917148 -0.085423276 0.030092917
-0.04752292 0.18522008 -0.32913685 -0.12823157 -0.07712325 -0.07656932 -0.115729116 -0.15864252
0.062916696 0.026064795 -0.24310018 -0.044089206 -0.068881266 -0.005837563 0.016353032 -0.02707927
0.13154231 0.14146487 -0.08765736 0.2145535 0.06174538 0.11595887 0.27988166 -0.07578859
0.0153373135 -0.08396316 0.24257019 -0.029937647 0.083545625 0.05202264 -0.04665063 0.15696624
0.20324318 -0.13652095 -0.15760264 -0.25499886 0.10998127 0.10463716 0.08289627 -0.10185379
-0.14805004 -0.36276954 0.011840938 0.07287485 0.043311696 0.37265503 0.12927966 -0.030443272
0.029964874 -0.23111269 -0.0607397 -0.28888723 0.037529 -0.0062353774 0.14451067 -0.16147423
0.0998968 -0.20868216 0.09097597 -0.12772392 -0.06424957 -0.07946169 0.1951369 -0.2447029
-0.06348068 0.025112946 0.18997037 -0.10142891 -0.21275067 0.07255121 -0.007567033 -0.009136665
-0.023019087 0.2246301 -0.20059404 0.20819826 -0.06876949 -0.042133365 0.051731784 -0.19457684
0.105270594 0.061034005 0.16729635 0.2010243 0.063120715 -0.036572237 0.21343254 0.19386415
0.14840603 -0.07289921 -0.20083424 0.13304716 -0.078957975 -0.07219831 0.25623798 -0.33368146
-0.14073308 0.16048238 -0.07122337 -0.13099699 -0.0053488067 0.32038584 0.0686239 0.007140826
0.073001556 -0.050488707 -0.058212694 -0.059881516 -0.08949958 0.23577674 0.15741266 -0.123913035
-0.011796023 0.248279 0.12464918 0.18323776 -0.12997767 -0.0043517537 -0.0038634317 0.14458187
0.13903484 -0.27322134 0.04003122 0.1303857 -0.24506597 -0.0070385016 0.27619708 -0.16483228
-0.03891143 -0.016471645 0.10792398 -0.044722743 -0.051531307 -0.009015653 0.01593192 0.07321297
0.10962609 0.13984574 -0.1677026 0.016972443 -0.41964233 0.097802915 -0.080112234 -0.34060138
0.19242282 0.4225773 -0.17209236 0.2868054 0.114518486 -0.021092623 0.10837031 0.3218139

bias_ih_l0 f4 [128]
00000000: b140 13bb 5f7f 463d 4477 c03c 40ff 92bd
00000010: cdf9 09be 07ef 283e ea20 733d 6284 21be
00000020: a24b a6bc b4f3 293d 8438 813e c611 ef3d
00000030: e06c 3c3e 4b6d acbd d120 ad3d ca35 acbd
00000040: 2882 c1bc ad21 113e d1ea 3bbd b786 0a3e
00000050: e4fd e83d e71d dcbc 1ac1 af3d cb59 82bd
00000060: c9a0 fe3d 93bf ca3d ad2e 63bd f1dd 313c
00000070: 7b4b 9ebc 1e9e 75bc 8952 99bd 8794 bd3d
00000080: 0e54 2c3d 82c5 85be c040 69be ee39 f63c
00000090: 55bc f0bc dae6 20be bfa2 7abe eca9 03be
000000a0: 9fb5 4dbe 80e1 7bbd 4126 5fbe 32e6 c83b
000000b0: 1639 1ebe 4537 2e3e 8227 28bd 2967 dbbd
000000c0: 7a7d 7b3d 4da7 50bd a2f6 2cbe 70a1 b03d
000000d0: efda 9dbe 792c 89bd e3d0 0f3b ef2e eabc
000000e0: b977 9cbd 3c9f 133e 5c8b 643d e432 a63d
000000f0: 8073 00bd db5f 89be ef98 83be 8de3 86be
00000100: 7a2a 0e3e dd8b 053e 6994 88bd 549b 0c3d
00000110: 5a8f cfbd e5d2 58bb 586a cb3d c6de 21bd
00000120: ac53 74bd e83f 933d fa82 99bd 6671 0d3d
00000130: 98b5 bcbd 0358 d4bc 4bd2 04bd bda9 cfbd
00000140: bfcf 92bd 609b fabd 4d4c da3d 68b7 67bc
00000150: 0be0 863d da1c 753d 9935 d63d 9a42 fdbd
00000160: cdf9 ef3d 9e55 bbbd 8934 813d 5762 bcbd
00000170: 73ce 9dbd 9172 083e a0e3 b03c 2e67 84bd
00000180: ee32 553e 0e71 053d 2a16 8b3d 2e17 fdba
00000190: f57a 213e b26b fd3d 4143 be3d 3b80 03be
000001a0: f55c f6bd 6971 e23d 19f3 c53c fa18 c43d
000001b0: 40be 1b3e eba2 91bd 03ae 013e 0ace bb3d
000001c0: a0fa d43d 3409 b13d bd8d 473d f785 9f3c
000001d0: d370 763e 5249 a8ba 9723 883d 66a5 afbb
000001e0: 2519 82bd 3bef 093e aaa9 c13d 00ca 01bd
000001f0: 5210 f63d 1f2d 4f3e eaa9 fb3a b0fe 903d
-0.002246898 0.048461314 0.02349437 -0.07177591 -0.13474198 0.16497432 0.05935756 -0.15773156
-0.020299736 0.04149218 0.2523843 0.11673312 0.18400908 -0.084192835 0.08453525 -0.08408697
-0.023621634 0.14173003 -0.045878235 0.13527952 0.11376551 -0.026869727 0.08581753 -0.06364783
0.12433011 0.09899821 -0.055464435 0.010856138 -0.019323101 -0.014991311 -0.074864455 0.09256845
0.04207235 -0.2612725 -0.22778606 0.03005692 -0.029386679 -0.15713063 -0.24476145 -0.12857789
-0.20088814 -0.06149435 -0.21791936 0.006130957 -0.15451464 0.17013271 -0.041053303 -0.107130356
0.06139896 -0.0509408 -0.16890958 0.08624542 -0.30831096 -0.066979356 0.0021944575 -0.028586833
-0.07640023 0.14416212 0.055796966 0.08115175 -0.03136015 -0.26830944 -0.25702617 -0.26345482
0.13883391 0.13041635 -0.06668932 0.03432782 -0.10134764 -0.0033084687 0.09932393 -0.039519094
-0.05965011 0.071899235 -0.07495685 0.034531973 -0.09214324 -0.025920874 -0.032427114 -0.10139797
-0.07168531 -0.12236667 0.106590845 -0.014142849 0.065857016 0.059841968 0.10459442 -0.12366219
0.117175676 -0.091471896 0.063088484 -0.09198444 -0.07705393 0.13324954 0.021592915 -0.064649925
0.2082021 0.03257852 0.06791337 -0.0019309276 0.1576956 0.12374057 0.092901714 -0.12841885
-0.12029449 0.110567875 0.02416377 0.095750764 0.15209293 -0.07111152 0.12664036 0.09170158
0.103993654 0.086443335 0.048719157 0.01947306 0.24066477 -0.0012839234 0.06647413 -0.005360293
-0.06352452 0.13470165 0.09456189 -0.031686783 0.120148316 0.20232056 0.0019200419 0.07079828

bias_hh_l0 f4 [128]
00000000: ab9d 3ebd d82f 7c3d fde2 e1bd 66b8 b73d
00000010: 6401 143c fda3 a1bd cd3a 2dbd 8c78 a23c
00000020: c4c9 843d 6a57 533e 0860 85bb eb9c 04bc
00000030: 1959 5ebd 191e 573e c419 003e cb54 9c3d
00000040: 517c e2bd 5a83 093e 97f7 10be 4e5f ba3d
00000050: dfdb 853e 118a 1d3e da2c ea3d 366f 2a3a
00000060: 57eb d43c c9c3 ab3d 1f32 943c 8453 a5bd
00000070: 6abe cebd c358 c7bc 7927 afbb 852f 123e
00000080: 953a 3fbd c2d3 70be 9e41 223c 3f50 34be
00000090: 61d6 8e3e 9c2d bb3b 409f d4bd 8dfb 8bbe
000000a0: 0813 03be 3c15 f1bd aac2 4bbe 9584 61bd
000000b0: 7212 21be 886c 18bc 07eb 843d d58b 69bd
000000c0: 1721 8ebd 336f f3bd 25ee 0fbe 73a4 c2bd
000000d0: ac59 28be 194a 6bbe 182c 62be 54ba 67bd
000000e0: ca59 8fbe e469 28be 427c 4abe 7999 a73c
000000f0: 790b 74bd cee0 0cbd 04e2 ffbd a762 1b3d
00000100: 2ae4 13be 68ad 0dbe 2bbe d33d ce83 aebc
00000110: 6c0a 1f3e f0ab ed3c f2cd b1bd c08d f13b
00000120: f421 a73d aaeb b1bc 5194 583d 0047 543d
00000130: 4464 b53d f1fb 253d f78c e1bd 91bf 373d
00000140: 5321 ae3c 00cf f53d 153a 033d 201a 10be
00000150: 1c9c babd 5e38 20ba 1856 0ebe b9cd fe3d
00000160: 5a77 f8bd 1a24 683c 1548 873d e948 bb3c
00000170: c858 86bd 6de2 14be b1bc 41bb f728 213d
00000180: 54cc be3d aae8 2a3e 379b b4bd 36ca 663e
00000190: 0b3b 833e 0d3e de3c 053d 953e e38b 3a3e
000001a0: 5d7a 32be c61b 083e 94e6 873e 3ac9 303e
000001b0: 5132 283e 0700 fa3d 1971 3e3d fde8 cb3d
000001c0: 1dda fa3d e739 4ebd 8d81 1d3e 7406 d5bd
000001d0: 219a 503e c65d 423e e77c 5f3e 3a48 023e
000001e0: f792 fe3d 81ff e13d cbfd 153e 30c2 d0bc
000001f0: 469c 16bc 4880 493e fd0f ed3c f206 8b3e
-0.046537083 0.061569065 -0.11029623 0.08970718 0.009033535 -0.078926064 -0.042292405 0.019832872
0.06483796 0.20638815 -0.0040702857 -0.008094053 -0.05428419 0.21007575 0.12509829 0.076333605
-0.11058868 0.13429013 -0.14156948 0.09100209 0.2614431 0.153847 0.11434336 0.0006501557
0.025991125 0.083869524 0.018090306 -0.0807257 -0.10094912 -0.024334317 -0.0053452817 0.1427594
-0.046686728 -0.23518279 0.00990334 -0.17608736 0.27897933 0.005712224 -0.10381937 -0.27340356
-0.12800229 -0.11771628 -0.19898477 -0.05505808 -0.15729693 -0.00930322 0.064901404 -0.05701812
-0.06939905 -0.11886444 -0.14055689 -0.095040224 -0.16440457 -0.22977485 -0.22087133 -0.05657418
-0.2799819 -0.16446644 -0.19773963 0.020458924 -0.059581254 -0.034394078 -0.12494281 0.03793588
-0.14442506 -0.1383568 0.10339006 -0.021303084 0.1553132 0.02901265 -0.08681859 0.0073716342
0.08160773 -0.021718819 0.05287582 0.051825523 0.08857015 0.040523473 -0.11013215 0.044860426
0.021256125 0.12002373 0.032037813 -0.14072466 -0.09111807 -0.0006111915 -0.1390003 0.12441582
-0.121321395 0.0141687635 0.066055454 0.022861915 -0.065599024 -0.145395 -0.0029561932 0.039345708
0.09316316 0.16690317 -0.088186674 0.22538075 0.25630984 0.027129197 0.29148117 0.18217425
-0.1742949 0.13291845 0.26543105 0.17264262 0.16425444 0.122070365 0.046494577 0.09956548
0.12248633 -0.05034819 0.15381451 -0.104016215 0.20371296 0.18981084 0.2182499 0.12722865
0.12430375 0.11035062 0.14647596 -0.02548322 -0.009192532 0.19677842 0.028938288 0.27153736

weight_ih_l0 f4 [128, 2]
00000000: be5f ec3d 0d8e a33d bfde 9a3d a83d 9f3d
00000010: d6de 193e 96db 1c3d ad97 33be 9124 533c
00000020: 918c aebd 7e08 9cbe 54d9 fa3d 1c04 013e
00000030: 46c5 e0bd 2e64 243e 32bd a0be 3c8f 813b
00000040: e773 213e a4ab 10be e012 55be dc8b 4f3d
00000050: 3c37 33bd 6444 25bd b2af 213e 9c76 8dbd
00000060: 9e76 cc3d a87e 94be e580 e3bd 10a8 3bbc
00000070: 2e8e 84be fb37 a73d 8363 50bc 1a32 513d
00000080: cd59 39be f305 2d3e efd0 2fbd b08a 973e
00000090: c963 c83c 733d 5f3e 08e6 2a3e 1200 c13d
000000a0: ee8b a53e d0f1 a1bc 03c3 673e 18bf e23e
000000b0: 675a 8b3e 5e10 703e 47b9 f2be 68fe 4a3e
000000c0: 6874 2fbd 37e1 963d d9a0 ee3d 9f4e 78be
000000d0: a529 7fbd d5fd 863e be2e 5ebe 4f01 25be
000000e0: 1d5c 45bc 5e31 64bd 4af2 703d a8b7 993e
000000f0: a4e3 a83e 22aa 823c 3568 aa3d bdb5 babe
00000100: 3a7b 423d 41f7 3ebe df96 91bd 2557 89be
00000110: 4e89 75bd b2c6 773d c0dc a53d 996c b43e
00000120: 5e5f 583e 06ac 1e3e 5519 d8be 2031 5d3e
00000130: a38c 08bf 0b7e 0a3c 57e4 ad3e 11ac f33d
00000140: a799 54bd 96ec afbd 87fd bdbd ed30 a3be
00000150: b436 01be 485f 06be d71c 62be c39a 133e
00000160: d033 eebe 2a3f 88bd eccf d93e 5414 d83e
00000170: 5203 80be c261 8ebe 08d3 323e 2736 0b3d
00000180: 71ef de3d 3d4b 75bc 843c e23b c558 8dbe
00000190: 67f4 d53d f5f9 103f bd73 febe e89a 063e
000001a0: a9e6 d5be 1cdb 18be 5c52 5b3e 4120 b73d
000001b0: bf96 c53d 5fba a73e 0e1a cbbb 981c 06bf
000001c0: 29a2 89be dac4 37be 4c51 923e ffcb d93d
000001d0: f1ff 713e a617 7bbe 7314 0bbe ead1 9b3e
000001e0: e9d9 1b3d 2234 b8be 2f61 67be 5a7e 043f
000001f0: 3bf9 873e 8c7c 53bd e91f e43c 6e54 9b3e
00000200: 8b44 15bd 753c 633e 46e1 86be 9eb6 b1be
00000210: e6bd 91be d6b7 87be b885 aabd 5212 a7be
00000220: 4a7c 92be f665 513e c412 2f3e 6782 cabe
00000230: 4110 1bbd 7a35 8abd 42f7 9e3e e3d1 debd
00000240: 5d49 153f 5a4a 333e 0296 a6bb 0e68 363f
00000250: e55f 9b3e 7284 e03e b536 0fbf 41f4 773e
00000260: 254a b8be 0e1f 5abc 348e 803e eeeb 5b3e
00000270: b175 a9be ab18 efbe e1c3 b1be 9215 5d3e
00000280: a109 853c a3c1 2f3e 1859 eebe 0418 b13e
00000290: fe36 173d 1a95 f83e 1fe2 a43e 79c4 0bbe
000002a0: cd1b 8dbe 9134 5bbc c5cb ddbe 729f 963e
000002b0: dcd4 a5bd 80e6 f6be 8511 0c3e 7742 39bd
000002c0: 88ef 563e fc65 803e f183 1bbe 17f3 973e
000002d0: d8e4 15bf 4c25 913e 1869 8b3e 643a 2e3e
000002e0: a279 e83e 0247 633e e54d fc3d 5777 243d
000002f0: 9828 9e3e 328b 323e 63f4 c9bd 2fb4 e6be
00000300: 53f7 bdbd d281 2abe 5bbe 1c3e b6a8 7a3c
00000310: 6d9f f83d 1b0d 07bd aeb6 603e a1f8 f73d
00000320: e44c 0abc 668f 4fbe f946 6abe 661d 553e
00000330: 1cc3 abbe 01ac 20be 5ba8 5abd c8d2 b1bd
00000340: cb3f ffbc c3c4 b23d a6ae 7bbe 25a1 b5be
00000350: aa58 eb3d 1606 9cbd ff5d eb3d 245d ebbc
00000360: c40a be3e 8ad5 0c3e 4b3e 313e b1bc 513e
00000370: 0427 3dbe 6257 103e 463d d53d f269 cabc
00000380: ce75 afbd c52f f63d 4261 babd 5a58 27be
00000390: 3e9b 35bd ce7c 9abd e3d9 513e b2d3 953e
000003a0: 75c0 9d3d 4138 b5bd 6af3 dd3c d5e9 f03e
000003b0: 122b 363e d7c6 ff3d 5476 14be 0b40 88be
000003c0: 8420 3c3e 1d45 ad3d f78e 323e 4977 8fbe
000003d0: 9728 053d 2084 54be 75c1 373d da04 df3c
000003e0: fb36 d23b 0679 01be e7ec 0fbe 0ec2 843e
000003f0: 3bb8 4f3e f3fb 81bd fff5 363e 795e 7ebe
0.11541699 0.079860784 0.07562017 0.07775432 0.15026411 0.03829535 -0.17538328 0.012887136
-0.08522905 -0.3047523 0.12248483 0.12599224 -0.10975127 0.1605384 -0.31394345 0.0039538424
0.1576687 -0.14127976 -0.20807981 0.05067049 -0.043753847 -0.040348426 0.15789679 -0.069073886
0.09983562 -0.2900288 -0.11108569 -0.011453643 -0.25889724 0.08164974 -0.012719038 0.05107317
-0.18100663 0.168968 -0.042923864 0.29597998 0.024461644 0.21800785 0.16689312 0.094238415
0.3233332 -0.019768625 0.22632985 0.44286418 0.2721741 0.23443744 -0.4740698 0.19823611
-0.042835623 0.07367175 0.11651773 -0.24248742 -0.062295575 0.26365533 -0.21697518 -0.1611378
-0.012045887 -0.055711143 0.058824815 0.3002293 0.32986176 0.015950266 0.08320657 -0.3646678
0.0474808 -0.18649007 -0.071088545 -0.26824299 -0.059945397 0.060492225 0.08098745 0.35239103
0.2113013 0.15495309 -0.42206827 0.21600771 -0.53339595 0.008452903 0.33963272 0.118980534
-0.051904347 -0.08590047 -0.09276872 -0.31873265 -0.12618524 -0.13122284 -0.22081314 0.14414506
-0.46523905 -0.066526726 0.42541444 0.4220301 -0.25002533 -0.27808958 0.17463315 0.03398719
0.108855136 -0.0149715515 0.0069041867 -0.27606788 0.10447007 0.56631404 -0.49697676 0.1314503
-0.41777542 -0.14927334 0.21418136 0.08941699 0.09647893 0.32759377 -0.0061981743 -0.5238738
-0.2688153 -0.17946187 0.2857765 0.10634612 0.2363279 -0.2452074 -0.1358202 0.3043359
0.038049612 -0.35977274 -0.22595666 0.517553 0.26557335 -0.05163245 0.027847247 0.30337852
-0.03644232 0.22191031 -0.26343745 -0.34709638 -0.28465194 -0.26507443 -0.08326286 -0.32631165
-0.2861045 0.20449051 0.17097002 -0.39552614 -0.037857298 -0.06748481 0.31048018 -0.108798765
0.5831507 0.17508832 -0.0050838003 0.71252525 0.303466 0.43851048 -0.5594285 0.24214269
-0.35994068 -0.013313068 0.25108492 0.21476719 -0.33097604 -0.46698508 -0.34719756 0.2159026
0.016239943 0.1716371 -0.46552348 0.34588635 0.03691768 0.48551255 0.32203767 -0.13649167
-0.27560273 -0.013379232 -0.43319526 0.29418522 -0.0809724 -0.48222733 0.13678558 -0.0452294
0.20989811 0.25077808 -0.1518705 0.2967765 -0.5855231 0.28348768 0.27228618 0.17014462
0.45405298 0.22195056 0.12319545 0.040152874 0.30890346 0.17435911 -0.09861066 -0.45059344
-0.09275689 -0.16651085 0.1530699 0.015299013 0.12139783 -0.032971483 0.21944687 0.12107969
-0.008441184 -0.20269546 -0.22878636 0.20811996 -0.33547294 -0.15690614 -0.053383213 -0.086827815
-0.031158349 0.087289356 -0.24578342 -0.35474506 0.11491521 -0.07618348 0.11492538 -0.028730936
0.3711759 0.13753334 0.17308919 0.20482136 -0.18471915 0.14095834 0.104120776 -0.024708722
-0.08567391 0.1202083 -0.09100582 -0.16342297 -0.044337504 -0.07543336 0.20493273 0.29263073
0.07702724 -0.0884862 0.027093608 0.470534 0.17789868 0.124890976 -0.14498264 -0.2661136
0.18371779 0.08460448 0.1743735 -0.28020695 0.032509413 -0.20753527 0.04486223 0.027223993
0.0064152456 -0.12643823 -0.14055215 0.25929302 0.20285122 -0.063468836 0.17867278 -0.24840726

weight_hh_l0 f4 [128, 32]
00000000: 866a 72bd 8b46 893d e3c2 03be 512e 713d
00000010: b7dc 3e3d 53c2 b1bd 0ee1 6fbe f583 e8bc
00000020: 1124 4dbe 0176 81bd 693c 843d 1d9b 463e
00000030: 46fa 2e3e ac9e 213e ce37 9bbd 1080 9abd
00000040: 08dd cf3d 5811 833c 6fdb 873e 6b34 02be
00000050: 8772 e53d cbaf 28be 98b9 98be b6fb 063e
00000060: 7ebf 6ebe b002 7a3e fc0f 2fbe 74e8 2f3e
00000070: 5970 ea3d 0ca0 31be ef6e 0abe 512f 8ebc
00000080: 3d9c 833c ca28 f8bd ab39 bbbe 71d4 15be
00000090: 80da eb3d 9b0a fb3b 3e4a bbbe b4ae 74bd
000000a0: 24a3 603e 2a21 4b3e 7c65 de3e a81a 5d3c
000000b0: e03f a4bd eeee de3e b9c5 3ebd 0438 38be
000000c0: 5ac1 983d 4226 293e 3900 b33e 8129 d33d
000000d0: 8add 2c3e 719c 8abe a4e8 d7bd 7359 0c3e
000000e0: 1357 b23d baf4 e3bc 66d6 18be 0d0b 04bb
000000f0: 5106 913d 9054 003d 5357 e23d 09a2 dfbe
00000100: 038b debd a96d 7a3e 1e38 0c3e 7e47 81bd
00000110: 7045 88be 8b8c 02be b922 19be 109d af3d
00000120: bfea a93c 86f1 82be 5564 18be 2b9c 223d
00000130: 8518 fe3d f6ed f03e 4673 823e 1dbd 42b9
00000140: d576 7a3d d78a 0e3d ff32 423d 8e52 85be
00000150: 0b98 bc3d e54c ffbd 0979 d1bd 7d8b 623e
00000160: c24f 92be 2885 d23c c249 98be dc19 813e
00000170: d1cf 8dbe 06a4 c1bd 16e6 8c3e 46b7 03bf
00000180: 2303 103e 3ec2 bdbd e7a1 163e 5f8a 99bd
00000190: 6c6a e73d d46f 903d f9fe 513e 5be9 203e
000001a0: 7cd1 c93e 4de5 003e aeef 013d 2c7e 253d
000001b0: 6f2e a43d a311 7bbd 7ca6 a5bd a1ba c1bd
000001c0: 1fd3 0dbe 1da1 9abe b2d4 50bd 3ac6 c1bd
000001d0: 6d93 9abd 5548 2b3e a1e5 e53d 2fe5 8bbc
000001e0: 302f c03c aaf5 983e b0b9 ccbd b6d3 ce3e
000001f0: 808b fabc 2545 1ebe ffbb bd3d 9a7a b9bd
00000200: 81ed 73be 5975 7a3d 1acb 173e d97d 803e
00000210: 0a94 f3bd 14e9 fc3e 146f b93e 4c3a 6d3d
00000220: 3194 b43e 25d0 a13c f04c 68be 9323 98bd
00000230: 2e43 d1bd 5d08 cf3d 07d5 883e 1d21 90bd
00000240: 3cdb b7be b345 3cbf 33d7 9dbe 973f 5a3e
00000250: be97 643d 629a 8e3d 849c 173f dc2f 8cbd
00000260: ee87 28be 3896 043e 80e7 d7be 248a 563e
00000270: 10ae 08be 7c4a 1f3e 742c 243d 7c14 033e
00000280: 5d1b b8bd 3ae6 a3bd 5185 a1be ecf9 69be
00000290: 82ec 153e 04ea 163e dedd 41be cbbf 843e
000002a0: 4544 c93e 215c b5be fc48 cbbd 22a9 a03e
000002b0: 8936 b93d b18d 293d 06eb 473e e146 22be
000002c0: 2393 6ebe c13b 3dbe 734d b1bc c6f0 df3d
000002d0: 9e9d a2bd 929b 89be 7973 0dbe 87b1 723e
000002e0: dcd0 e23d 54ae 883e 92b8 9bbd 9b97 b83e
000002f0: d0f3 a2bc 5b34 bcbe 0e31 ed3e 3ff9 d3bd
00000300: 7bcd 8e3e d7cf 82be b9f9 e4be 81b3 90be
00000310: 5143 213e 09e7 78be fd7c ce3c 580b 003e
00000320: 6c17 a03e d6ad 963e 1f5a de3e 8353 113c
00000330: f2d3 f5bd 3e86 983e ffe4 ecbe 9034 49be
00000340: 86c7 5c3c bc2f 893e 3229 903e f883 57bc
00000350: 5dc0 f83c 17a0 843e f834 e4be 19a9 643a
00000360: be3b 473e 9bb1 463d 2201 58be 60cc 99bc
00000370: 0451 d13e 351e 30be e735 03bd 7e30 8cbd
00000380: df2d 7e3e e7e0 f13d 5efc eb3e 433e 833d
00000390: 01f6 483e fe46 babe 20f0 753e c3de 9bbd
000003a0: 2911 46bf 5da3 e6bd 595c a3be ef49 963e
000003b0: 70e1 383f 7925 22be e91a 693d ad06 b33e
000003c0: c038 173e 5290 d43e 5a79 03be 662d 37bc
000003d0: 9792 f63b 29e4 153e 2c5b 86bd 4c09 23be
000003e0: 41c9 063d d6cd 41bd 4c21 0e3f 480e 023e
000003f0: f152 2abe 3224 903d 283d 68bd 9bdd 023e
-0.05918362 0.06702908 -0.12867312 0.05888206 0.04659721 -0.086796425 -0.23425695 -0.028383235
-0.2003329 -0.063213356 0.06456835 0.19395109 0.17087659 0.15783185 -0.07579003 -0.07543957
0.1014958 0.015999481 0.26534602 -0.12715308 0.11203485 -0.1647331 -0.29829097 0.13181958
-0.23315236 0.24415088 -0.17095941 0.17178518 0.1144721 -0.1734621 -0.1351888 -0.017356547
0.016065711 -0.12117155 -0.36567435 -0.14631821 0.11516285 0.0076611764 -0.3658008 -0.059736922
0.21937233 0.1983687 0.434368 0.013495125 -0.08019996 0.43541664 -0.04657528 -0.17990118
0.07458754 0.165185 0.34961107 0.103106506 0.16881385 -0.2707248 -0.105424196 0.13705997
0.08708014 -0.027826656 -0.14925537 -0.0020148188 0.07081283 0.031330645 0.11051812 -0.4367831
-0.10866358 0.24455895 0.13693282 -0.06312464 -0.26615477 -0.12748925 -0.14954652 0.08574879
0.020741818 -0.25574893 -0.14882024 0.039699715 0.124070205 0.4705655 0.25478572 -0.00018571732
0.061148483 0.034800377 0.047411915 -0.26039547 0.092086874 -0.12465838 -0.10228164 0.22123523
-0.28576475 0.02569826 -0.29743773 0.25215042 -0.27697614 -0.09455113 0.27519292 -0.5145153
0.14063697 -0.092655644 0.14710198 -0.07497095 0.11299595 0.070525795 0.2050742 0.15714018
0.39417636 0.12587471 0.031722717 0.04040353 0.08016669 -0.061296117 -0.08088395 -0.09459425
-0.13850068 -0.30201045 -0.050984092 -0.09461637 -0.075476505 0.16726811 0.11225439 -0.017077057
0.02346 0.29874927 -0.099963546 0.40395898 -0.030584097 -0.15456064 0.09264373 -0.090565875
-0.2382107 0.061147068 0.14823571 0.25096014 -0.118934706 0.49396574 0.36217558 0.057916924
0.3526931 0.019752571 -0.226856 -0.0742866 -0.10217892 0.10109017 0.26725027 -0.07037566
-0.3590945 -0.7354385 -0.30828246 0.2131332 0.055808775 0.0696304 0.592232 -0.06845066
-0.16458103 0.12947929 -0.42168808 0.20951134 -0.1334765 0.15555757 0.040081456 0.12800783
-0.08989594 -0.080028966 -0.31547025 -0.22849244 0.14641002 0.14737707 -0.18932292 0.25927576
0.39309898 -0.3542185 -0.0992603 0.31379038 0.09043605 0.041394893 0.19523248 -0.1584735
-0.23298316 -0.18479826 -0.021643376 0.10934596 -0.07940219 -0.26876503 -0.1381358 0.23700534
0.11074993 0.26695502 -0.07603563 0.36053166 -0.01989165 -0.36758694 0.46326488 -0.10350274
0.27891144 -0.25549194 -0.44721773 -0.2826195 0.15748335 -0.24306883 0.025206083 0.12504327
0.3126787 0.294295 0.43428132 0.008870008 -0.12003316 0.2978992 -0.4626846 -0.19648957
0.0134753045 0.2679423 0.2815643 -0.013154022 0.030365163 0.2590339 -0.44571662 0.0008722707
0.19456384 0.04850922 -0.21094182 -0.018774211 0.40882123 -0.17199023 -0.032033827 -0.06845187
0.24822186 0.11810475 0.46090978 0.0640836 0.19625093 -0.36382288 0.24017382 -0.07610848
-0.77369934 -0.11261628 -0.31906393 0.29353282 0.7221899 -0.15834607 0.05691043 0.3496603
0.14767742 0.41516358 -0.1283926 -0.011180257 0.007524799 0.14637817 -0.065603584 -0.15921515
0.032906774 -0.04731544 0.55519557 0.1270076 -0.16633202 0.07038154 -0.05669895 0.12779848

bias_ih_l0 f4 [128]
00000000: a74f cebc 5b3f 7bbd 2b42 d93d d639 cc3d
00000010: f3ea 17bb a053 183e 5da9 183e 0a6f f3bd
00000020: 831b 323d 7f2c 0d3e 6609 83bd 803f e3bd
00000030: 303a 1f3d dc57 263e c473 35be 2249 eb3c
00000040: 7ebc 943c 5b57 1c3e 0db3 8b3e d7d6 e2bc
00000050: 0e9d 523e 620e 48bd e5f2 aabd e485 c9bd
00000060: 8b46 dcbb 958e 52bd 3b04 e23d 02dd 2a3c
00000070: 606f 053e 1aba ad3d 45cf 773e e71e 963d
00000080: 626c 2e3e 816d 05be c4d9 ebbd 66b1 dfbd
00000090: a66d 833c c6ee df3d c2a7 b53d 2e6f 663e
000000a0: 692a 4d3e ab53 ac3e e39d a73d 11ee 6b3e
000000b0: 4175 c7bd a183 1c3e 433a d7bc 31bd a4bd
000000c0: c4bd 30bd 5467 883e 69ff 9c3e d4f0 1d3e
000000d0: 0a92 1c3e 75dd 123e 56b3 fbbd e386 273d
000000e0: 302a cdbc 0519 b83d 41b3 213e 353a 4e3e
000000f0: 95df 2dbe f7cf d33d 5a17 923c 7478 2a3b
00000100: b148 50be 59ad 803e 667c 493e fcc6 0fbe
00000110: 64b9 283e 2861 b7ba 02c1 8b3e 6233 3b3e
00000120: 92f3 ca3d 4f6a eebd ff3d f03e 0e59 6f3d
00000130: 7b7b 173e b157 be3e 3776 033e 5382 bbbe
00000140: ea93 e9be da5b 46be 9fe9 a23e e9a9 c4bd
00000150: 0e8c 2e3e 765a a8be 6a90 d13c 57ce 793e
00000160: eb1b 97be e041 753d 833f 103e 4ad4 cd3d
00000170: cadb f5be d50b 5a3d b505 15be a14b 2cbf
00000180: 5c61 a6bb 1323 313e df27 703e 3f15 0f3e
00000190: 648f 253e 994a 813e f023 8c3e 66ee e23d
000001a0: a46b 963d c52e ac3e e2fb b23d bf97 cabd
000001b0: abe2 55bd 1fa0 6c3e e87e 7e3d e8ee b23d
000001c0: 9ec8 063e d1b0 48bd c8ea 823e 1895 223e
000001d0: 0b12 0fbc 0037 1b3e 5def 3e3d f481 a8bd
000001e0: c4d3 6e3e 0254 073d 1d3a af3e 968c 60bd
000001f0: 9dd9 bcbd 4d4f 823d c6f8 373e 7c2a a93b
-0.025184466 -0.061339717 0.10608324 0.09971969 -0.0023180812 0.1487565 0.14908357 -0.118864134
0.04348327 0.13786505 -0.06398277 -0.11096096 0.03887385 0.16244453 -0.17719942 0.028721396
0.018156286 0.15267698 0.27285042 -0.027690334 0.20567724 -0.04884184 -0.0834711 -0.09839991
-0.0067222766 -0.051405508 0.11035963 0.010428669 0.13030767 0.08482762 0.24200161 0.07330113
0.17033532 -0.13030054 -0.11516145 -0.10922508 0.016043495 0.10934214 0.08869888 0.22503349
0.2003571 0.33657584 0.081844114 0.23040034 -0.09739161 0.15284587 -0.026272899 -0.08043898
-0.043149725 0.26641333 0.30663612 0.154239 0.15290084 0.14342292 -0.12290065 0.040900122
-0.02504453 0.08989147 0.15791036 0.20139392 -0.16979821 0.103424005 0.0178334 0.0026011737
-0.2034023 0.25132254 0.1967636 -0.1404075 0.16476971 -0.0013990747 0.2729569 0.1828132
0.099097386 -0.116413705 0.469223 0.05843454 0.14793198 0.37176278 0.12838064 -0.36622867
-0.45620662 -0.19370976 0.31818864 -0.0960272 0.17045614 -0.32881516 0.025581557 0.24395119
-0.29513487 0.059877276 0.14086728 0.100502566 -0.48019248 0.05323394 -0.14552958 -0.673029
-0.005077524 0.17298536 0.2345271 0.13972948 0.1616798 0.25252226 0.27371168 0.11080627
0.073447496 0.33629432 0.08739449 -0.098922245 -0.05221812 0.23107956 0.062132746 0.08736974
0.13162467 -0.04899675 0.2556975 0.15877187 -0.008732329 0.151577 0.046614993 -0.082279116
0.2332297 0.0330391 0.34224024 -0.054821573 -0.09221194 0.06362782 0.17965993 0.0051625352

bias_hh_l0 f4 [128]
00000000: 3ebf 503e 6de7 4a3e 0191 143d 9dbe 8dbd
00000010: 81d5 bb3d 991c 723e 9ec0 c7bd 4026 72bc
00000020: 1c2f fa3d 3209 573e cd75 103e d047 c83d
00000030: f671 213d fbd9 2f3e c156 553d 226c a33d
00000040: 3bb8 06bd bea3 963d 99fd 3a3e 9eca 94bd
00000050: b2cc 573e c52f 783d 7ff9 573e 8700 30be
00000060: ece5 e8bd 1bcb 09be 8ac8 983d cd9b afbd
00000070: cce5 1f3e 6c4e df3d 533b cf3d 1574 d13d
00000080: 3bfb 133d 9ec7 b93d b693 0f3c e9d9 9dbb
00000090: 96b9 d83c e99d 6bbd 36ef 0cbd c8fd 84bd
000000a0: 9f07 7bbd b2ab 213e ed63 063a 2646 ff3d
000000b0: 3b23 413d c7eb 293e 231a 3bbe a211 1ebe
000000c0: 3c33 c73c 3305 cf3b 5a83 253e 1af1 06bd
000000d0: 83cb 143e 8248 883d 4fb3 b33c f877 dabd
000000e0: acc5 1fba e407 0a3e 6091 8c3d a2de 8fbc
000000f0: 18b5 ea3c 37f6 b5bd b649 d0bd f8dc 373e
00000100: bc8a c5bc 29dd 893e 8ee7 033c 179b dbbd
00000110: d3fb 733e 3b86 4fbe b9d0 8c3d cc83 3a3e
00000120: 1b83 25be 4497 d93d 4ccd c93e c7bd 293e
00000130: 605c df3d 75a8 e33e 5e06 d83d 75d7 84be
00000140: 9e0f bcbe e397 b8bc 894d 0f3d c17a 043b
00000150: f9a3 5e3e 2602 93be 22f0 203e 7eef 373e
00000160: 4e86 6cbe 9c98 903e 20b4 81bd 9be0 ee3d
00000170: 7800 21bf bfd4 6e3c 8bcf a23d 9043 5abf
00000180: cec3 843e 4b88 183e a725 093e 0fa0 01be
00000190: 776c 3cbc 250c 883e 1692 4b3e 8cf5 3c3e
000001a0: a0a2 ee3d b6b2 b23e bea1 053d 8f0d a0bd
000001b0: b09a 35bd 16ce b83d bbf1 023e 25ff 413e
000001c0: 0f37 8f3e dcd3 193c 8837 0a3d e284 133e
000001d0: f32b d4bc f8ea 1dbd 4d7f 2b3e 6c68 513e
000001e0: 3585 dd3d 53af 223e b1b5 053e 25b6 053e
000001f0: 03b4 3b3e 8cf5 053e 19fa d53d 6219 8f3d
0.20385453 0.19814844 0.0362711 -0.06921122 0.09171582 0.23643722 -0.09753536 -0.014779627
0.12216017 0.20999601 0.14107437 0.09779322 0.039415322 0.17172997 0.052084688 0.07979609
-0.03289054 0.0735545 0.18260802 -0.07265209 0.21074179 0.06059243 0.21091269 -0.17187701
-0.11371979 -0.13456385 0.07460125 -0.085746385 0.15615004 0.1090363 0.10118737 0.10227219
0.036128264 0.09071277 0.008763244 -0.0048172367 0.026455682 -0.05752364 -0.034407817 -0.064937174
-0.061286565 0.15788153 0.00051265844 0.12464552 0.04715274 0.16593848 -0.18271689 -0.15436414
0.024316423 0.0063177585 0.16163388 -0.032944776 0.14530759 0.06654455 0.021936087 -0.106674135
-0.0006094824 0.13479573 0.068636656 -0.017562214 0.028650805 -0.088848524 -0.10170309 0.17955387
-0.024114005 0.26926544 0.008050812 -0.107229404 0.23826532 -0.20266049 0.06875748 0.18214339
-0.16163294 0.10624555 0.39414442 0.165763 0.10906291 0.4446446 0.105480894 -0.2594563
-0.36730665 -0.022533363 0.034986053 0.0020214769 0.21742238 -0.28712577 0.15716603 0.17962453
-0.23098108 0.28241432 -0.06333184 0.11663934 -0.6289134 0.01457709 0.07949742 -0.8525934
0.25930637 0.14895742 0.1339327 -0.12658714 -0.011500469 0.26571766 0.19879946 0.18453044
0.11652112 0.3490197 0.032624952 -0.07815086 -0.044336975 0.09023683 0.12787525 0.18944986
0.27971694 0.00938889 0.033744365 0.1440616 -0.025899863 -0.03855416 0.1674778 0.2044999
0.10816423 0.15887193 0.13057591 0.13057764 0.18330388 0.1308195 0.10448093 0.06987263

weight_ih_l0_reverse f4 [128, 2]
00000000: f695 6f3e 4cb6 1c3e ff95 083d 17b2 3d3c
00000010: 7725 0dbe 60be 33be 8d33 b73e 9dcb 983e
00000020: c100 43be 973c edba 0c52 2dbc cc2e 22be
00000030: b0bb a4be 1985 e2be fe17 a43e 0b4b c7be
00000040: d7e9 633e 04a3 4abf fdf1 bfbe a1ab c63e
00000050: a495 dfbe 9968 a73e 1e33 c03e d5d8 9abd
00000060: e6c7 d4be 9011 aebd 656c e6be 7e3b 45bd
00000070: 9283 363f 2407 01bf 0aae c53e 82d5 e93d
00000080: a4dc c3bd 0413 06be 28cf 383e 223d f13e
00000090: 43f9 113d e3ca 5fbe dd7d 463d 20da 293e
000000a0: 4d5c c1bc 1a01 493e d955 003f 6e75 a93e
000000b0: 8761 0bbe 478b 103e 1ae9 dfbd 4b77 99bd
000000c0: 295c 73bf f5c6 98bd e8fd 33bf 9c24 b0be
000000d0: ded6 14bf 3526 45be 22f3 c2bd 6626 283e
000000e0: 218b b43e a829 86be 293c 1bbe 2fc1 0e3e
000000f0: fdbd 81be 7081 0f3e 8c89 fdbe acd9 f0be
00000100: a725 623e 1b5d d53e 55d6 813d 0e0c 72bc
00000110: a7ea 56be 29d6 8dbe 243d 4a3e 8c8b 983e
00000120: 39c8 67be f1b0 983c b110 b83e 01ec c6bd
00000130: 2a31 e7be eeac d0be 6c44 b53e 81ee 37be
00000140: d498 893e 336a a0be 76ef 62be ea09 343e
00000150: 4bbb 0c3c 8db7 9c3d bc08 7c3e a572 8cbd
00000160: 660b 28be 2b23 7dbd 6dad 68be c67f c4bc
00000170: fced dd3e 7a9c d4be 7a9d d83e 116e 243e
00000180: 4aef b0bd 5292 abbd 0655 c5bd 85da d63e
00000190: c2c1 c8bd 754e 05be e2b3 2dbe 3002 f73d
000001a0: e9be b63c b1f3 393e bc4b 8b3e e20a 013e
000001b0: 9416 a3bd 9500 febc 9007 fcbe fdb5 46be
000001c0: 9dc0 f4be 5c0b b5bd 9341 52be 7d84 adbe
000001d0: bcc3 6bbe a0f3 31be 28b9 473d 5784 93bd
000001e0: dc15 cd3d d816 02bd 5fc6 dbbd 8b67 233e
000001f0: cda1 75be 34d6 343e 1e66 123e a2ef f2be
00000200: 16d7 a4be e7bf 88be 82cb 293e e496 ca3e
00000210: 79d2 733e ab4e fe3d 9d0e adbe c3c6 90be
00000220: 62e9 7c3e 6d82 d13e 4379 853e 6444 acbd
00000230: 1290 95be 52b4 d0be abee cfbe c719 633e
00000240: 1da8 63bd 8049 40bf c6f0 29be 6cd9 f23e
00000250: 797c cb3e be8c 65be 41e0 ee3e 80b3 9cbd
00000260: cc91 b33e c8d4 7f3d c3ab e33e f5aa f0bd
00000270: ae61 063e b2a6 c6be b4cf 7e3e 0b14 213d
00000280: 5f0c 80bd 92b7 fc3e e4d1 8e3e 8913 413f
00000290: 4b60 073e 66b6 d5be 3a08 05bf bde2 773e
000002a0: af9b a4be 2d74 6abd 34b4 c4be 98b8 ebbd
000002b0: 4a94 a1be 23e6 413e 87ae 3f3e 37eb 8e3e
000002c0: f13a fcbe 7752 823e b4f2 e63e ba75 bf3e
000002d0: 8c03 c2be 9550 19be 4282 22be 1d71 98be
000002e0: ca89 d5be 8843 7d3e 9c31 b13e e7a1 693d
000002f0: 886d 673e 5fd5 a0be 0803 0b3e 04aa a8be
00000300: 17e7 873e de03 423e 5d5a 343d d5ed 72bd
00000310: cad9 04bd dd67 59be cb62 7dbe f30e 17bd
00000320: 71c2 a6be b924 083e 7024 24bd 1bb8 c23c
00000330: 8e58 e9be 94d6 9dbe 2d34 ec3e 3f03 ebbe
00000340: 671d 21be 1b56 2cbf bcf9 57be c1a7 d73c
00000350: d188 78be 0d4e 113e 7e9e f83e 7ded 34be
00000360: 31af 83be 07fb 6bbe b154 90be ff1d 2d3e
00000370: e082 803f 28c3 16bf d089 b83e 771f 603d
00000380: f432 e13d 0907 d13b 3890 e03b 057d 213e
00000390: e5da 87bd 20a6 86bc f806 99bd 435d 923e
000003a0: 34d6 3a3e 2dcb 30bd 8f7b 973e dd53 e23e
000003b0: f7e8 453d 2857 89bc da9f b7be e244 67bd
000003c0: 039d e5be 3a5d 133d a689 3cbe 7308 c2be
000003d0: acfb 51bf bb6a 2cbe 6824 c23d 91f2 343e
000003e0: 5c81 3e3f ba81 c3be 8359 6ebe 185b fbbd
000003f0: 25c1 28be 4ac8 403e 7519 4dbe 3fcf 2ebe
0.2339705 0.15303916 0.033346172 0.011578104 -0.13783823 -0.17553091 0.35781518 0.29842845
-0.19043256 -0.0018099722 -0.0105786435 -0.15838164 -0.32174444 -0.4424217 0.32049555 -0.3892444
0.22257172 -0.7915499 -0.3748931 0.38802817 -0.43668854 0.3269699 0.37539 -0.07560889
-0.4155876 -0.084994435 -0.45004573 -0.04815244 0.7129451 -0.5040152 0.38609344 0.114176765
-0.09563568 -0.13093191 0.18047774 0.47116953 0.035638105 -0.21854739 0.048459876 0.16587114
-0.023603583 0.19629326 0.50130993 0.33097404 -0.13611422 0.1411563 -0.109331325 -0.074934565
-0.950625 -0.07459823 -0.70309305 -0.3440293 -0.5814036 -0.19252856 -0.0951903 0.16420898
0.35262397 -0.26203656 -0.15159668 0.13940881 -0.25340262 0.1401422 -0.49519002 -0.4704107
0.22084676 0.41672596 0.06339709 -0.014773382 -0.2098795 -0.27702454 0.19749886 0.29793966
-0.22634973 0.01863906 0.35950235 -0.09712983 -0.45154697 -0.40756935 0.35403764 -0.17962076
0.2687441 -0.31331024 -0.2216166 0.17581907 0.008589576 0.07652197 0.24612707 -0.06857804
-0.16410598 -0.061801117 -0.22722407 -0.023986708 0.4334563 -0.41525632 0.42307645 0.16057612
-0.08639391 -0.08377518 -0.096353576 0.41963592 -0.09802581 -0.1301821 -0.16963151 0.12060964
0.02230783 0.18159367 0.27206218 0.12601808 -0.07963291 -0.031006137 -0.4922452 -0.1940536
-0.47803202 -0.08840057 -0.20532827 -0.33890143 -0.23023885 -0.17378092 0.048760563 -0.07202976
0.10013935 -0.031760067 -0.10731196 0.15957467 -0.23987503 0.17659837 0.14296767 -0.4744845
-0.32195348 -0.2670891 0.16581538 0.39568245 0.23810758 0.124173485 -0.33800212 -0.28276643
0.24698403 0.4091982 0.26069078 -0.08411482 -0.2921148 -0.40762573 -0.40611777 0.22177802
-0.055580247 -0.7511215 -0.16595754 0.47431505 0.39743403 -0.2241697 0.46655467 -0.076514244
0.35072172 0.062458783 0.4446698 -0.117513575 0.131232 -0.38799053 0.2488392 0.039325755
-0.062523596 0.49358803 0.2789451 0.75420433 0.13220327 -0.4174072 -0.5196568 0.24207588
-0.32150027 -0.0572397 -0.38418734 -0.11509818 -0.31558448 0.18935446 0.1871892 0.2791383
-0.4926372 0.2545354 0.45107043 0.37394506 -0.3789333 -0.14972146 -0.15870002 -0.297738
-0.41706687 0.24732792 0.3460816 0.057039168 0.22600377 -0.3141279 0.13575375 -0.32942212
0.26543495 0.18946788 0.04403149 -0.059308846 -0.032434262 -0.21231027 -0.24744718 -0.03687949
-0.32570222 0.13295259 -0.040073812 0.023769429 -0.45575374 -0.30827773 0.46133557 -0.45900914
-0.15733872 -0.67318887 -0.2109136 0.026325108 -0.24270941 0.1418993 0.4855842 -0.1766872
-0.25719598 -0.23044978 -0.28189614 0.16905974 1.003994 -0.58891535 0.36042643 0.054717507
0.10996047 0.0063790125 0.0068531297 0.15770347 -0.06633548 -0.016436636 -0.07472032 0.28586778
0.18245775 -0.043162514 0.29586455 0.44204608 0.048317876 -0.016765192 -0.35864145 -0.056462176
-0.44846353 0.03597758 -0.18411884 -0.3789707 -0.82024646 -0.1683759 0.094796 0.17670657
0.74416137 -0.3818491 -0.23276334 -0.12273234 -0.16479929 0.18826404 -0.20029242 -0.17071246

weight_hh_l0_reverse f4 [128, 32]
00000000: 4e65 b8be 82ab a63e 8e88 a9bd 6e0c a03b
00000010: f1f9 df3d 6bee 833e 7223 53be 47aa b7bc
00000020: a642 d9bd 6844 a13e 137b 023e 35fd adbd
00000030: e22b 233e cb9e 523e ed52 48bd ab6b b73e
00000040: d9c3 073e d61a 993e 12a7 04bd 0a70 523c
00000050: 243a 9dbe bb52 7d3c 2cff 2f3e a37b fb3d
00000060: 6b02 0ebe f6a9 fc3d 1d94 9abe 0f3b bdbe
00000070: 8082 fa3d fb8e 113e a2ac a2be 717a 903d
00000080: 09c0 17be 5af2 403e 6bc5 133d 6c00 4d3e
00000090: ddb5 dfbd ed37 1bbe 768b 90bd 2997 56bc
000000a0: a915 32be ea3f 3b3e 7d49 1abe c75a 40be
000000b0: a811 5a3d b4da 34be 5fd8 a3bd eae2 80bd
000000c0: e7e2 b2bd bc80 0ebe 8230 ffbc 6c10 693d
000000d0: 2429 b3bd 9772 9f3d 44f8 f93d 7db0 a3bd
000000e0: 6b88 003b 9f61 9ebd 4066 b43c 96e8 febd
000000f0: 3ccf 923d 072c 2bbd d616 1e3c edcf 793d
00000100: e718 353e b925 74be fe67 f9bd 8e98 86bb
00000110: b1c2 673e 3405 863e d28b fa3d 7892 3fbe
00000120: 24f1 7abd e586 093d e96c 083f 85b2 223e
00000130: 7bd0 4e3e 9106 723e eb47 083e 780e 943e
00000140: b22a 13bf b743 42be f929 34bc a177 02be
00000150: ede2 883d bdf1 63be 3113 0d3e e0df 86bd
00000160: 1510 64be 86d9 013f ff0c 11bd 6473 f6ba
00000170: 9209 62bc 7e0b 1f3d 9010 85bd 2b4d 57be
00000180: ee2f f0bc 46ee 14bb c769 343e d82d 64be
00000190: 7ce7 a83e 9c2d 86bd ea13 f8be 285d 993e
000001a0: 7c84 dfbe 0f58 a1bd 94ca 3d3d 3400 ab3e
000001b0: 7d58 873e 721e ac3d 54ed fabd 10bc 8f3e
000001c0: 631c 593e f8a9 9c3e 484d 86be 2d2b d4bc
000001d0: 6106 debe fea1 853d 87e4 b6be e95f 0d3f
000001e0: ce3e a6be eec8 ea3e b32c 92be 39e2 5ebd
000001f0: fa36 fc3d e14e 173e 2b35 47bc d36b 52be
00000200: 5da1 b83e 9e93 00be 8fff 4bbc 1038 293e
00000210: dda7 2abe ffad 6abd 9d8b 8fbe 96f8 543d
00000220: f53a 11be 47a1 32be cbde 3e3d 21cb a6bd
00000230: 8b6d 1bbe b887 ab3e 54d4 7abe 47aa 0cbe
00000240: e4be 9abd d226 8fbe a992 f9bd 190c c43d
00000250: af31 0cbc cd8e 413e 950e 5bbe 107f 433e
00000260: 64d4 aabe 0e83 a03e 39e2 86be bff6 663e
00000270: cb87 e53d 4a96 a73d 9308 88bd 4266 cfbe
00000280: b449 a3bd 7ab7 02be 86ec bbbd 215b 303c
00000290: cbff 4d3d 6c88 743e 1df8 84bd 95b2 84be
000002a0: 4794 b1bd 9b4d 80bd 14eb 3fbc 6c8d bbbd
000002b0: 6cdb 16be dd91 383e 379b 1b3d bab5 a13d
000002c0: dbb8 553c 02db bbbd dcf8 0ebe 6332 3e3d
000002d0: c2dc 703d 0a6f ca3d 7a8c acbe 2ec7 c23c
000002e0: 3628 9b3c 9fa4 13be 33ac 33be 853d 08be
000002f0: f519 7dbe d4b2 cd3d ce58 053e ca7d 193d
00000300: 754b 613f 8949 afbe 5fa9 d3bd 6c1c 533e
00000310: 80dd 9abe 3945 a0be 31e8 da3e 6baf ecbd
00000320: 3c91 b7bc 771f 0bbf aabc 2d3e 454d c33d
00000330: 0e53 c9be 01b0 973d 1704 bcbd 4f74 d2bc
00000340: 2bc5 c8be 0b43 ddbe d070 983d 510f 333e
00000350: cd18 b43e d00a f13e a391 533e a78c 86be
00000360: 191a d83c 4eee fe3d e2a3 a93e 5d8a 943e
00000370: 07c2 cfbd 80d7 13bf 7a0f 313e d1be 473e
00000380: be4f ae3d 21d0 5abe 84c4 0c3c 1107 97bd
00000390: 5e12 d8bc 1d0b 583e e09e 4cbe ecdc a2be
000003a0: bb24 56bd 6afe b6bd 3f60 913e fefd 3b3d
000003b0: 4e76 343a c702 2e3e 22ad ee3d 441a 12bd
000003c0: cf99 9f3d d8f3 a5bd 7319 65be f232 1abe
000003d0: cbd0 d6bd ca7c 9a3b 9e34 84bd c260 b03d
000003e0: a5a3 1a3e 39d9 893d ecb1 ac3d add6 07bc
000003f0: 0406 03be a7a1 743d 69c3 993c 5b74 123e
-0.3601479 0.32552725 -0.08277999 0.0048842942 0.109363444 0.25767836 -0.2061899 -0.022420062
-0.10608415 0.31497502 0.12742262 -0.08495561 0.15934709 0.20568387 -0.04890721 0.35824332
0.13258304 0.29903287 -0.032385893 0.012844095 -0.3070842 0.015461619 0.17187184 0.12279441
-0.1386811 0.12337105 -0.30191126 -0.3695912 0.12231922 0.14214699 -0.31772333 0.07054604
-0.1481935 0.1884245 0.036076944 0.20019692 -0.109233595 -0.15158053 -0.0705785 -0.013097563
-0.17391075 0.182861 -0.15067096 -0.18784629 0.053239495 -0.17661554 -0.08000254 -0.062932804
-0.087346844 -0.13916296 -0.03115106 0.056900427 -0.08748081 0.07785528 0.12205556 -0.07992647
0.0019612561 -0.077334635 0.022021413 -0.12446706 0.07168433 -0.041790035 0.009648999 0.06098931
0.1768528 -0.23842515 -0.12178038 -0.0041075414 0.22632863 0.26175845 0.122337 -0.18708217
-0.061265126 0.03357591 0.53291184 0.15888412 0.20196716 0.23635317 0.13308685 0.2891729
-0.5748702 -0.18971144 -0.010996335 -0.12740947 0.06683908 -0.22260185 0.13776852 -0.065856695
-0.2227176 0.5072254 -0.035412785 -0.00188027 -0.013796227 0.03882932 -0.064973 -0.21025531
-0.02931973 -0.002272503 0.17618476 -0.22283113 0.3298911 -0.06551668 -0.48452693 0.29953885
-0.43655765 -0.07878124 0.04633577 0.33398592 0.264347 0.084042445 -0.12252298 0.28073168
0.21202235 0.30598426 -0.26230836 -0.025899494 -0.43364242 0.06525038 -0.35721228 0.5522447
-0.3246979 0.45856422 -0.28549728 -0.05441496 0.123151734 0.14776184 -0.012158672 -0.20548944
0.3606061 -0.12556311 -0.012451067 0.16525292 -0.16665597 -0.05729484 -0.28036204 0.051994883
-0.14182647 -0.17444335 0.04659919 -0.081442125 -0.15178506 0.33501983 -0.24495059 -0.1373683
-0.07555941 -0.27959305 -0.12186176 0.0957262 -0.008556767 0.1890213 -0.21392281 0.19091439
-0.33365166 0.31349987 -0.2634447 0.22555064 0.11207541 0.08182962 -0.066422604 -0.40507704
-0.07973042 -0.12765303 -0.09175973 0.010763914 0.05029277 0.23880166 -0.06492636 -0.25917497
-0.0867086 -0.06264802 -0.011713762 -0.091578335 -0.1473214 0.18024392 0.03798982 0.0789599
0.013044561 -0.09172632 -0.1396212 0.04643477 0.05880428 0.0988446 -0.33700925 0.023776617
0.018940073 -0.14418267 -0.17546158 -0.13304718 -0.24716933 0.100438744 0.13022158 0.037473477
0.88005763 -0.3423579 -0.10335039 0.20616311 -0.30247116 -0.31302813 0.42755273 -0.11556896
-0.02240812 -0.54344887 0.16966501 0.09536222 -0.39321178 0.07406617 -0.091804676 -0.025690226
-0.39212927 -0.43215212 0.07443392 0.17486311 0.35175171 0.47078562 0.20661025 -0.26279184
0.026379632 0.12447797 0.33132845 0.29011813 -0.1014443 -0.577507 0.1729106 0.19506384
0.08511303 -0.21368457 0.008591775 -0.07374395 -0.026375946 0.2109799 -0.19982481 -0.31809175
-0.052281123 -0.089352444 0.28393742 0.045896523 0.0006884084 0.16993247 0.11654116 -0.03566958
0.077930085 -0.0810315 -0.2237299 -0.15058497 -0.10489043 0.004714583 -0.064553484 0.08612205
0.15101488 0.06730885 0.084323734 -0.008290929 -0.12795264 0.059724476 0.018769937 0.14302199
