experiments/pedestrians/models/models_14_Feb_2024_17_26_50_eth_vel_ar3/model_registrar-90.pt (torch, 527902 bytes, 43 tensors)

weight_ih_l0 f4 [128, 6]
0.110017076 0.11996346 -0.32332915 -0.11712426 -0.13034116 -0.029437471 -0.21654625 -0.42933792
-0.062499586 0.1983475 0.18589476 -0.25797543 0.07594496 0.012535276 -0.3481232 -0.27017704
-0.29599854 -0.055026364 0.16415137 0.17608255 0.14464492 0.053141553 0.10615162 -0.0066196863
-0.029110359 0.094245605 -0.2605401 -0.33534828 1.0908068 -1.8966897 0.2474146 0.13836212
0.32868746 -0.15588069 0.50141096 -0.36111113 -0.4134499 0.12667571 0.25891575 -0.31948552
0.069209546 -0.23905663 -0.38099954 -0.04878576 0.5892022 -0.16592255 0.15548368 -0.19768171
0.27957225 0.2147671 0.65073305 -0.48504788 0.40415612 -0.15634255 -0.116432965 -0.251423
0.14973325 0.40242362 0.10290869 -0.19377317 0.12310849 -0.29973522 -0.44402128 0.52148324
-0.005634165 0.19809306 0.015890494 0.107218936 -0.5218175 -0.096347176 -1.5400673 -0.8129023
0.019414976 -0.0009253458 -0.2865318 0.33116248 0.06437893 -0.018657364 -0.13060942 0.0682924
0.49575418 0.34199187 0.41342443 0.30914274 0.07237718 -0.005541508 -0.91357183 -0.0016274082
-0.53417933 -0.1005411 -0.37859136 0.17519374 0.67477375 0.03224365 -0.21058771 0.64271224
0.24899007 -0.05694133 -0.59734756 0.41665372 -0.63062006 0.097821355 0.14097598 -0.21688263
-0.22690965 0.2512251 0.035516612 0.14526917 0.19186102 -0.25770006 -0.2542866 0.54178524
0.01981304 0.95504373 0.06597692 0.08303318 -0.4703909 0.024181841 -0.11246017 0.38829073
-0.40551475 0.39954877 0.653764 -0.5513442 0.31187198 -0.022701932 0.07854779 0.32512325
0.047519732 -0.4359336 0.01322567 0.120514505 -0.25193068 -0.4579759 0.15792795 0.1600003
0.2981957 0.15014187 -0.07423099 0.12484558 0.1847282 -0.23836851 0.07551694 -0.091363035
0.19797015 -0.0288354 -0.35478255 -0.24433851 -0.20841447 -0.20406367 -0.43686956 -0.2143738
0.06079834 0.21307756 0.20392516 0.020412937 0.06370256 0.38629425 -0.7716129 -0.83609617
-0.39679766 0.15848838 -0.1910935 0.12956306 0.59841347 0.52167356 1.1008159 1.2314599
0.25452933 -0.11449308 -0.35236782 0.3149735 0.122961946 0.11918668 -0.36012048 0.064885564
0.19756189 -0.49638504 0.24584743 -0.18221538 -0.19608831 -0.20801836 0.3425529 0.10088816
0.0014086777 -0.36185238 -0.08796877 0.0843255 0.009997156 0.19047795 -0.22405654 -0.0085372655
0.14048816 0.13061462 -0.22652285 -0.1387418 -0.14515993 -0.09370598 -0.02802956 -0.21193355
0.07767524 0.097634226 0.13370986 -0.21175314 -0.113729924 -0.06178353 -0.018556809 -0.0576681
-0.16306028 0.12385568 0.11294936 0.052647974 0.15946956 -0.16739699 -0.012112439 -0.007232172
0.061783507 -0.06215499 0.16617045 -0.17665756 0.46733224 -0.025130097 0.28158036 -0.09504465
0.17531395 -0.23086786 -0.22839877 0.0041450965 -0.09748467 -0.04249494 0.21946971 -0.16650511
-0.20168315 0.14539391 -0.11247101 -0.18619518 0.26700556 -0.10726485 0.009372652 -0.24723974
0.35872787 -0.0020554063 0.029715186 -0.2008072 -0.026354296 -0.07595478 -0.19673195 0.0005092985
0.39381218 0.1674343 0.19740872 0.013507824 0.12297042 -0.2975784 -0.16482432 0.33051687
00000000: a250 e13d 67af f53d 668b a5be d8de efbd
00000010: 2778 05be da26 f1bc 4dbe 5dbe 2ed2 dbbe
00000020: 91ff 7fbd 9b1b 4b3e 325b 3e3e 5b15 84be
00000030: 0889 9b3d c260 4d3c 343d b2be a554 8abe
00000040: 1f8d 97be 5363 61bd 4c17 283e fc4e 343e
00000050: cc1d 143e f5aa 593d 0566 d93d f4e9 d8bb
00000060: d978 eebc d703 c13d 8365 85be c5b2 abbe
00000070: 8f9f 8b3f bac6 f2bf 415a 7d3e cdae 0d3e
00000080: b949 a83e 309f 1fbe 785c 003f 8fe3 b8be
00000090: b5af d3be 47b7 013e 9b90 843e 9b93 a3be
000000a0: bcbd 8d3d 43cb 74be 5f12 c3be 94d3 47bd
000000b0: f5d5 163f 9ae7 29be 1d37 1f3e 136d 4abe
000000c0: 1824 8f3e e8eb 5b3e 7196 263f 3258 f8be
000000d0: 8ded ce3e 4318 20be 6874 eebd 84ba 80be
000000e0: ac53 193e 780a ce3e cbc1 d23d 796c 46be
000000f0: 4e20 fc3d e576 99be c256 e3be ed7f 053f
00000100: cd9e b8bb e8d8 4a3e c82c 823c 9a95 db3d
00000110: d595 05bf ab51 c5bd ed20 c5bf 5d1a 50bf
00000120: 280c 9f3c e892 72ba 4cb4 92be 218e a93e
00000130: 1ad9 833d 54d7 98bc 7abe 05be e3dc 8b3d
00000140: 7ed3 fd3e 8f19 af3e 5eac d33e f547 9e3e
00000150: 7d3a 943d 8a95 b5bb d8df 69bf c24e d5ba
00000160: fabf 08bf 7ee8 cdbd bad6 c1be fd65 333e
00000170: f9bd 2c3f eb11 043d 4ea4 57be ca88 243f
00000180: 41f7 7e3e 503b 69bd c5eb 18bf a353 d53e
00000190: 5170 21bf 9056 c83d 025c 103e 7b16 5ebe
000001a0: 015b 68be 94a0 803e de79 113d 71c1 143e
000001b0: 3777 443e 43f1 83be da31 82be 70b2 0a3f
000001c0: f54e a23c bf7d 743f e81e 873d 4d0d aa3d
000001d0: 13d7 f0be ff18 c63c 8551 e6bd 0bce c63e
000001e0: a19f cfbe a891 cc3e 145d 273f e524 0dbf
000001f0: afad 9f3e 67f9 b9bc aadd a03d 8e76 a63e
00000200: 0da4 423d b032 dfbe 7bb0 583c 4fd0 f63d
00000210: 0ffd 80be d17b eabe ddb7 213e 1ed7 233e
00000220: 1bad 983e cabe 193e 6b06 98bd 0aaf ff3d
00000230: 6429 3d3e e016 74be a0a8 9a3d 8b1c bbbd
00000240: b0b8 4a3e 3738 ecbc 0fa6 b5be e033 7abe
00000250: 9a6a 55be 11f6 50be 5ead dfbe ce84 5bbe
00000260: ae07 793d 0131 5a3e c2d1 503e 0839 a73c
00000270: 7d76 823d 5cc8 c53e 6c88 45bf 660a 56bf
00000280: 1029 cbbe c74a 223e 04ae 43be 2eac 043e
00000290: a031 193f 668c 053f 89e7 8c3f 7aa0 9d3f
000002a0: ab51 823e 597b eabd 8e69 b4be 3544 a13e
000002b0: 79d3 fb3d 2518 f43d b661 b8be b9e2 843d
000002c0: aa4d 4a3e 2e26 febe 6ebf 7b3e ab96 3abe
000002d0: 60cb 48be c402 55be 1863 af3e 749e ce3d
000002e0: 61a3 b83a b744 b9be f828 b4bd d9b2 ac3d
000002f0: 1dcb 233c a70c 433e 146f 65be e3df 0bbc
00000300: 21dc 0f3e d7bf 053e 9bf5 67be 5512 0ebe
00000310: cea4 14be ece8 bfbd 3f9e e5bc 1c05 59be
00000320: 3214 9f3d 74f4 c73d 3deb 083e d1d5 58be
00000330: 3ceb e8bd ba10 7dbd 7304 98bc 6335 6cbd
00000340: 46f9 26be 0ca8 fd3d fe51 e73d 67a5 573d
00000350: fd4b 233e 1e6a 2bbe 4073 46bc dbfb ecbb
00000360: b410 7d3d 3b96 7ebd 9628 2a3e b8e5 34be
00000370: 2c46 ef3e a2dd cdbc 4d2b 903e c5a6 c2bd
00000380: 8085 333e a068 6cbe 5ee1 69be 97d3 873b
00000390: 0ba6 c7bd 2d0f 2ebd abbc 603e 5180 2abe
000003a0: 0786 4ebe 24e2 143e 3357 e6bd f3a9 3ebe
000003b0: f4b4 883e acad dbbd c08f 193c 6a2c 7dbe
000003c0: 2eab b73e ffb3 06bb 436d f33c 67a0 4dbe
000003d0: f7e4 d7bc 2e8e 9bbd 1a74 49be 7282 053a
000003e0: c0a1 c93e e673 2b3e 8325 4a3e ec4f 5d3c
000003f0: ead7 fb3d 325c 98be b5c7 28be 8239 a93e

weight_hh_l0 f4 [128, 32]
0.039363172 -0.2344879 0.026507027 0.086055085 -0.037206158 -0.030319761 -0.07562717 -0.14273769
0.0023537618 0.26872694 -0.16023895 0.107433215 -0.15224665 0.24677457 0.16247381 0.0829103
0.2094211 -0.18350568 -0.010418003 0.031249816 -0.22503783 -0.089646004 -0.089953706 -0.27008575
0.26758847 0.02106056 -0.1587144 0.36555302 0.15673795 0.017482797 0.19834365 -0.13352981
0.109618105 -0.26683843 0.08890896 -0.108660266 -0.024266899 0.2015174 -0.08905686 -0.18757665
0.051053792 0.121533826 -0.4185552 -0.06575656 -0.27140602 0.17306018 0.03974557 -0.1445695
0.31035894 0.10812311 -0.19518295 0.007518844 -0.046108395 -0.17196688 -0.18715605 -0.1709595
0.15201353 0.075667866 -0.16245513 -0.048543397 -0.025883228 0.08902353 0.23066626 -0.1097183
0.10118315 -0.11626634 -0.110302925 0.1178939 0.07782628 0.10865529 -0.13987508 -0.16832824
-0.08328763 0.20427522 -0.2818913 -0.00096606836 -0.04661441 -0.14145175 0.08470259 -0.122107044
0.17957582 -0.15908165 0.17260012 -0.10274452 0.02433282 0.0680167 0.13531987 0.14375512
0.25785902 0.105102465 0.14420323 0.115377426 0.10644417 0.11024283 -0.07655258 0.037812546
-0.1810748 -0.05618737 -0.052365676 0.046138994 -0.16072614 0.016354168 -0.0745972 0.010295451
-0.08186143 0.19797756 -0.37896448 -0.13172415 -0.010565305 -0.062938064 -0.1322828 -0.18617086
0.111159146 -0.01550993 -0.257817 -0.045994844 -0.08114368 -0.01567561 0.00637089 -0.027138267
0.14585644 0.13710156 -0.08675937 0.23167776 0.0896951 0.10632367 0.28637487 -0.10888682
-0.10177005 -0.07721563 0.09631908 -0.083254166 0.09122026 0.2255841 -0.27415845 0.3015898
0.38795462 -0.0816814 -0.33859345 -0.20350286 0.40958348 0.20675978 0.06384285 -0.046630956
-0.3913611 -0.5948377 0.3534549 0.019043516 0.21108451 0.39103362 0.07260512 0.1694482
0.16741803 -0.35367036 -0.00717516 -0.6514434 -0.11130353 0.1805918 0.20432658 -0.35170153
0.105594315 -0.24810146 0.0807367 -0.127728 -0.011532709 -0.12621936 0.25910366 -0.27628738
-0.101292685 -0.027344862 0.26993746 0.039570432 -0.22384785 0.06814921 -0.004464337 -0.043324742
-0.16070427 0.24963774 -0.113734245 0.2601642 -0.10123261 -0.0149971945 0.17062186 -0.24628153
0.12500529 0.10200926 0.17728332 0.050330844 0.029151633 -0.10148097 0.17794092 0.23891592
0.11474571 -0.06028289 -0.20758721 0.1455754 0.0040565445 -0.10078702 0.31678104 -0.33345944
-0.1637061 0.09402116 -0.06055915 -0.07371874 0.042017013 0.31160355 0.08690874 0.0022450732
-0.020408046 -0.103270866 0.050490882 -0.013783506 -0.14494297 0.31719273 0.23198645 -0.1304006
-0.048448153 0.26468366 0.06817056 0.16860148 -0.17359336 -0.046732478 -0.030008407 0.109716594
0.13823172 -0.28698578 0.060130812 0.15794624 -0.27543083 -0.065011375 0.30516684 -0.16487746
-0.07634559 -0.0380349 0.17046776 0.034857303 -0.09458684 -0.051747058 -0.0040757596 0.043624982
0.04602102 0.1851336 -0.09111589 0.014183398 -0.4592019 0.120746225 -0.053369287 -0.41975337
0.22275245 0.46387824 -0.23853938 0.17104036 0.06741554 -0.056452997 0.0655182 0.36516416
00000000: 473b 213d 991d 70be 4425 d93c a63d b03d
00000010: 7c65 18bd 2661 f8bc 6be2 9abd d429 12be
00000020: 9241 1a3b 9496 893e ae15 24be f205 dc3d
00000030: 8ce6 1bbe 79b2 7c3e 895f 263e e0cc a93d
00000040: 7c72 563e eae8 3bbe 46b0 2abc 9dff ff3c
00000050: 5170 66be 5398 b7bd a639 b8bd ae48 8abe
00000060: 5b01 893e 3287 ac3c 0786 22be c429 bb3e
00000070: ea7f 203e 1538 8f3c 991a 4b3e 0abc 08be
00000080: 757f e03d 0c9f 88be e715 b63d 4689 debd
00000090: 60cb c6bc 945a 4e3e 7163 b6bd 1814 40be
000000a0: c81d 513d bae6 f83d de4c d6be 60ab 86bd
000000b0: bbf5 8abe b036 313e 40cc 223d 070a 14be
000000c0: 5ee7 9e3e a66f dd3d 0ade 47be a360 f63b
000000d0: 28dc 3cbd 1618 30be d6a5 3fbe 0210 2fbe
000000e0: 6fa9 1b3e c1f7 9a3d a35a 26be 71d5 46bd
000000f0: 1009 d4bc f851 b63d c733 6c3e fdb3 e0bd
00000100: 1d39 cf3d 0c1d eebd 80e6 e1bd 5b72 f13d
00000110: 6263 9f3d aa86 de3d 6a3b 0fbe 3d5e 2cbe
00000120: b492 aabd 862d 513e 0e54 90be c03f 7dba
00000130: c0ee 3ebd bad8 10be 8d78 ad3d 4213 fabd
00000140: b9e2 373e 4de6 22be 16be 303e b86b d2bd
00000150: 9f55 c73c 574c 8b3d 4b91 0a3e 8b34 133e
00000160: 1906 843e f63f d73d 03aa 133e 004b ec3d
00000170: 67ff d93d fec6 e13d 99c7 9cbd 54e1 1a3d
00000180: ac6b 39be ba24 66bd 647d 56bd 3efc 3c3d
00000190: 6595 24be 2df9 853c 6bc6 98bd 40ae 283c
000001a0: f7a6 a7bd a1ba 4a3e a207 c2be b2e2 06be
000001b0: 1a1a 2dbc ace5 80bd 2475 07be 93a3 3ebe
000001c0: 68a7 e33d 5d1d 7ebc 9700 84be 1765 3cbd
000001d0: a82e a6bd 236a 80bc e6c2 d03b 1251 debc
000001e0: 645b 153e 5a64 0c3e e6ae b1bd ef3c 6d3e
000001f0: 11b2 b73d 39c0 d93d ba9f 923e 0e00 dfbd
00000200: d16c d0bd 3a23 9ebd f042 c53d 2981 aabd
00000210: b0d1 ba3d 85ff 663e 7f5e 8cbe fa69 9a3e
00000220: fda1 c63e 9448 a7bd 1f5c adbe 0e63 50be
00000230: edb4 d13e d6b8 533e 0ac0 823d 1a00 3fbd
00000240: 7b60 c8be 4947 18bf 0af8 b43e 2601 9c3c
00000250: 8a26 583e 8f35 c83e feb1 943d d483 2d3e
00000260: a26f 2b3e 4814 b5be 9b1d ebbb ffc4 26bf
00000270: 1bf3 e3bd 0fed 383e fd3a 513e 3912 b4be
00000280: d541 d83d 4f0e 7ebe 4859 a53d 21cb 02be
00000290: b0f3 3cbc a63f 01be 3ca9 843e 8a75 8dbe
000002a0: 8a72 cfbd 5502 e0bc 3e35 8a3e 9b14 223d
000002b0: 5f38 65be d091 8b3d 9349 92bb 4975 31bd
000002c0: a98f 24be 09a1 7f3e 80ed e8bd 3e34 853e
000002d0: 0b53 cfbd cbb6 75bc 7fb7 2e3e 3a31 7cbe
000002e0: 6301 003e 3bea d03d c289 353e b727 4e3d
000002f0: 68cf ee3c 41d5 cfbd 2536 363e 60a6 743e
00000300: ccff ea3d 31eb 76bd be91 54be b811 153e
00000310: c3ec 843b 6d69 cebd 2031 a23e 32bb aabe
00000320: 92a2 27be 2a8e c03d df0c 78bd daf9 96bd
00000330: 081a 2c3d 808a 9f3e 36fd b13d 1422 133b
00000340: c62e a7bc ad7f d3bd 87cf 4e3d 37d4 61bc
00000350: ee6b 14be 1667 a23e db8d 6d3e bc87 05be
00000360: 9271 46bd 9e84 873e 029d 8b3d dea5 2c3e
00000370: 75c2 31be 8e6a 3fbd 31d4 f5bc 18b3 e03d
00000380: 9e8c 0d3e cdef 92be ba4b 763d a9bc 213e
00000390: 4505 8dbe af24 85bd d43e 9c3e a3d5 28be
000003a0: 145b 9cbd 7cca 1bbd 1a8f 2e3e 88c6 0e3d
000003b0: bfb6 c1bd b9f4 53bd f38d 85bb 1cb0 323d
000003c0: 8980 3c3d aa93 3d3e f89a babd 7c61 683c
000003d0: 831c ebbe cc49 f73d c199 5abd eae9 d6be
000003e0: 3819 643e 7381 ed3e ab43 74be 3425 2f3e
000003f0: 2911 8a3d 423b 67bd 682e 863d ccf6 ba3e

bias_ih_l0 f4 [128]
0.04837608 0.06494842 0.018050333 -0.06463463 -0.12600125 0.1746353 0.08535209 -0.17131497
-0.025279295 0.083027475 0.26220337 0.11823112 0.18013036 -0.08768612 0.09729578 -0.08765646
-0.021206226 0.16856281 0.019149708 0.12165305 0.14670736 0.0025995772 0.14467603 -0.06487606
0.11421535 0.1204632 -0.0062005655 0.03735904 -0.021185387 0.0025198546 -0.08707007 0.1798755
0.12111846 -0.27323928 -0.22839183 0.032137662 -0.041481648 -0.17205046 -0.25228179 -0.16185112
-0.22761302 -0.078873046 -0.21612449 -0.0098400125 -0.17266154 0.1675355 -0.04938627 -0.13066629
0.012799282 -0.05477664 -0.21807033 0.07737425 -0.30051044 -0.091576576 0.012960042 -0.032521136
-0.105993606 0.1503453 0.07603596 0.11712694 -0.044189274 -0.28008634 -0.27326003 -0.2859906
0.13807115 0.13136718 -0.06765161 0.03226478 -0.097179025 -0.008289293 0.0970866 -0.039815538
-0.062347133 0.07007158 -0.07095727 0.026841035 -0.08784898 -0.023572197 -0.02406823 -0.09260541
-0.06688965 -0.12217083 0.07974768 -0.0035528906 0.06861342 0.05471409 0.09911445 -0.12649095
0.118018724 -0.0903552 0.06953081 -0.074810036 -0.058485117 0.13181336 0.01867592 -0.05299018
0.2607075 0.05132533 0.06336218 0.0049567977 0.24310163 0.125405 0.11260061 -0.1535076
-0.12742156 0.15142415 0.026597833 0.19460224 0.14100787 -0.07851099 0.12992433 0.07370179
0.09843065 0.10732493 0.09491496 0.004657897 0.2707047 0.022164991 0.12794997 -0.0015998299
-0.07127198 0.15244395 0.12786473 0.043753512 0.10866438 0.20971365 -0.01110312 0.15075786
00000000: ff25 463d ad03 853d 4bde 933c 295f 84bd
00000010: 7906 01be 99d3 323e 14cd ae3d 316d 2fbe
00000020: 8616 cfbc 4f0a aa3d 853f 863e 2823 f23d
00000030: 1874 383e c894 b3bd 0343 c73d 3b85 b3bd
00000040: aeb8 adbc bb9b 2c3e d9df 9c3c 3c25 f93d
00000050: 743a 163e ab5d 2a3b f425 143e bddd 84bd
00000060: bde9 e93d 69b5 f63d 1d2e cbbb cb05 193d
00000070: fa8c adbc 2524 253b cb51 b2bd 4831 383e
00000080: f50c f83d 05e6 8bbe 8cdf 69be c8a2 033d
00000090: a9e8 29bd ff2d 30be 142b 81be 4dbc 25be
000000a0: 6313 69be 3188 a1bd bd4f 5dbe 0138 21bc
000000b0: 30ce 30be 6d8e 2b3e 4249 4abd 62cd 05be
000000c0: 14b4 513c 785d 60bd d44d 5fbe 6476 9e3d
000000d0: 81dc 99be 808c bbbd 5b56 543c e234 05bd
000000e0: 2d13 d9bd 1ef4 193e beb8 9b3d 40e0 ef3d
000000f0: d0ff 34bd 7a67 8fbe bde8 8bbe 5c6d 92be
00000100: 8662 0d3e 1e85 063e ed8c 8abd 1328 043d
00000110: cc05 c7bd d1cf 07bc 57d5 c63d 9e15 23bd
00000120: b55f 7fbd b081 8f3d 0c52 91bd bbe1 db3c
00000130: 2bea b3bd 7b1a c1bc bd2a c5bc e8a7 bdbd
00000140: 71fd 88bd b334 fabd c052 a33d 9dd7 68bb
00000150: 3185 8c3d e21b 603d 84fc ca3d d886 01be
00000160: cdb3 f13d 260c b9bd 2b66 8e3d 0136 99bd
00000170: 178e 6fbd 15fa 063e 3efe 983c 3b0c 59bd
00000180: 747b 853e 823a 523d 08c4 813d a26c a23b
00000190: a2ef 783e 2b6a 003e 269b e63d 1931 1dbe
000001a0: cc7a 02be ef0e 1b3e b3e3 d93c cf45 473e
000001b0: 5e64 103e 5fca a0bd e20a 053e f7f0 963d
000001c0: 0296 c93d 2ccd db3d c662 c23d 46a1 983b
000001d0: ce99 8a3e 5b93 b53c 5105 033e 62b1 d1ba
000001e0: 0bf7 91bd 441a 1c3e f9ee 023e e236 333d
000001f0: 6e8b de3d 2dbf 563e dce9 35bc 4560 1a3e

bias_hh_l0 f4 [128]
0.0040859133 0.078056045 -0.11574011 0.09684846 0.01777431 -0.06926544 -0.016297856 0.006249484
0.059858385 0.2479236 0.0057500256 -0.0065959357 -0.058162507 0.20658232 0.13785927 0.072764084
-0.10817332 0.16112295 -0.0765416 0.07737616 0.29438433 0.1833162 0.1732022 -0.00057826476
0.015876258 0.10533453 0.06735415 -0.054222804 -0.10281136 -0.006823142 -0.017551024 0.23006634
0.03235931 -0.24715027 0.009297276 -0.17400715 0.26688495 -0.009207377 -0.111340195 -0.30667746
-0.15472718 -0.13509521 -0.19718984 -0.07102898 -0.17544386 -0.011900788 0.056568474 -0.08055403
-0.11799876 -0.12270011 -0.18971764 -0.10391139 -0.15660477 -0.25437203 -0.21010534 -0.06050837
-0.309575 -0.15828326 -0.17750056 0.056433883 -0.07241041 -0.046170574 -0.14117624 0.015400051
-0.14518785 -0.13740599 0.102427796 -0.023366233 0.15948199 0.024031898 -0.08905592 0.007075296
0.07891084 -0.02354677 0.056875687 0.044134453 0.09286442 0.04287203 -0.10177321 0.05365328
0.026051795 0.12021959 0.005194549 -0.13013469 -0.08836165 -0.0057392386 -0.14448012 0.12158754
-0.12047834 0.015285269 0.07249778 0.040036 -0.04703034 -0.14683115 -0.0058731735 0.051005475
0.14566852 0.1856499 -0.09273808 0.23226915 0.34171686 0.028793622 0.31118056 0.15708555
-0.18142195 0.17377463 0.26786518 0.27149326 0.15316936 0.114670895 0.049778566 0.0815657
0.11692332 -0.02946656 0.20001048 -0.11883117 0.23375253 0.21325934 0.2797263 0.13098887
0.116556205 0.12809262 0.17977937 0.049957085 -0.02067632 0.20417152 0.015915059 0.35149693
00000000: 20e3 853b d9db 9f3d 2709 edbd 7c58 c63d
00000010: 6e9b 913c 0adb 8dbd 1583 85bc 79c8 cc3b
00000020: 112e 753d afdf 7d3e b66a bc3b b822 d8bb
00000030: cf3b 6ebd 518a 533e fb2a 0d3e 5605 953d
00000040: f989 ddbd 6afd 243e d8c1 9cbd 6477 9e3d
00000050: 8bb9 963e 3eb7 3b3e eb5b 313e b196 17ba
00000060: ed0e 823c a1b9 d73d f9f0 893d bb18 5ebd
00000070: c38e d2bd aa94 dfbb 2ac7 8fbc 8396 6b3e
00000080: 328b 043d f614 7dbe 9a53 183c ee2e 32be
00000090: 25a5 883e 8ada 16bc 5406 e4bd d404 9dbe
000000a0: cd70 1ebe 6656 0abe 22ec 49be a477 91bd
000000b0: 8ea7 33be 86fb 42bc 58b4 673d 83f9 a4bd
000000c0: 55a9 f1bd 324a fbbd 5745 42be 7fcf d4bd
000000d0: 005d 20be 0d3d 82be db25 57be a0d7 77bd
000000e0: 9d80 9ebe 0215 22be b5c2 35be 3727 673d
000000f0: e94b 94bd 5b1d 3dbd 8190 10be 7f50 7c3c
00000100: 20ac 14be 28b4 0cbe aac5 d13d 8b6a bfbc
00000110: 3f4f 233e 8bde c43c f362 b6bd e2d7 e73b
00000120: 029c a13d 28e5 c0bc 7bf6 683d 54c6 343d
00000130: b32f be3d 959a 2f3d 796e d0bd 8bc3 5b3d
00000140: 936a d53c b035 f63d 0937 aa3b 0742 05be
00000150: f4f6 b4bd 3910 bcbb 99f2 13be e302 f93d
00000160: 59bd f6bd 116f 7a3c b779 943d cafc 233d
00000170: e3a2 40bd e85a 16be c073 c0bb 1eeb 503d
00000180: 212a 153e 021b 3e3e 76ed bdbd f7d7 6d3e
00000190: 83f5 ae3e 9ae0 eb3c 0f53 9f3e 09db 203e
000001a0: adc6 39be faf1 313e a025 893e 2a01 8b3e
000001b0: 6ed8 1c3e 93d8 ea3d 9ce4 4b3d eb0b a73d
000001c0: 7e75 ef3d db63 f1bc 8ccf 4c3e c25d f3bd
000001d0: d35c 6f3e a860 5a3e 4938 8f3e f221 063e
000001e0: 05b5 ee3d b62a 033e 1518 383e cd9f 4c3d
000001f0: 6361 a9bc 5712 513e 4c60 823c 68f7 b33e

weight_ih_l0 f4 [128, 2]
0.14785047 0.085840166 0.13839312 0.08607408 0.19643192 0.07692886 -0.1880538 -0.012267804
-0.08417912 -0.33247352 0.13775186 0.0975327 -0.11244611 0.1813666 -0.35127673 0.048922025
0.18930621 -0.13400742 -0.22914802 0.07710795 0.01773538 -0.092762366 0.17399946 -0.035666678
0.14981025 -0.35884264 -0.15688002 -0.0053830263 -0.24636519 0.10788437 0.043468073 0.03800682
-0.17303851 0.17665406 -0.12637784 0.3072324 0.03446696 0.14400746 0.27271953 0.07461737
0.3558829 -0.0042561856 0.24968742 0.4571107 0.28332725 0.16137922 -0.5029166 0.23220111
-0.030295191 0.110540636 0.14516024 -0.31001094 -0.109335475 0.29345962 -0.18841682 -0.1787934
0.0510797 -0.09446081 0.053204887 0.2721866 0.4013548 0.052348893 0.14959688 -0.41713393
0.07464913 -0.19426782 -0.05767002 -0.29460627 -0.08518603 0.14714515 0.103330076 0.45042837
0.20344956 0.25132278 -0.46956015 0.2266872 -0.5322626 -0.02041202 0.3824413 0.12120557
-0.042195603 -0.096674204 -0.111898005 -0.33132055 -0.114596285 -0.14658967 -0.2623085 0.19334222
-0.5684496 -0.09501638 0.47038853 0.48322976 -0.26967576 -0.30184948 0.23810686 0.047903515
0.10810438 -0.0013464189 0.041046523 -0.32722074 0.09814346 0.56351656 -0.5586115 0.1727968
-0.4906846 -0.118747756 0.23040593 0.057935726 0.08394173 0.22435585 0.046793897 -0.5419726
-0.28991553 -0.16937964 0.31477174 0.13321744 0.27748913 -0.2662448 -0.15256834 0.349601
0.0649619 -0.43753055 -0.25744385 0.51932865 0.27893534 -0.040355187 0.04537941 0.33705884
-0.040171176 0.23038048 -0.2898551 -0.35439503 -0.33984998 -0.29172295 -0.083429955 -0.36971858
-0.27719525 0.20733266 0.20235413 -0.41788265 -0.024741927 -0.06380002 0.32040074 -0.08392981
0.6116036 0.16683646 0.012118924 0.77118224 0.3436632 0.45136267 -0.61014426 0.21957429
-0.39827847 -0.00453846 0.24817939 0.2325053 -0.3339966 -0.5004022 -0.33871 0.22448575
0.01102734 0.17257175 -0.48879874 0.38113698 0.05836021 0.52128077 0.36238703 -0.15688801
-0.27895978 0.0009496702 -0.43538833 0.30434602 -0.06812586 -0.5108262 0.17499179 -0.041314926
0.23353851 0.2738425 -0.16380933 0.32708526 -0.64686716 0.304204 0.2794108 0.18079075
0.48153254 0.2452212 0.10472448 0.036072284 0.34024206 0.18554325 -0.04109203 -0.5128949
-0.07626115 -0.1710975 0.19940436 0.003450006 0.15416028 0.023414727 0.22607537 0.14276439
-0.030668003 -0.20693836 -0.24003004 0.2167637 -0.35759425 -0.18564469 -0.04516985 -0.07467123
-0.012081956 0.07381503 -0.24293664 -0.34913763 0.19641404 -0.117133796 0.09730185 0.015558826
0.4051258 0.1127308 0.16668358 0.1837363 -0.18273585 0.17395394 0.17910887 -0.041389607
-0.08796752 0.13754399 -0.12738651 -0.17965749 -0.02503053 -0.119734734 0.26730034 0.31315765
0.08783894 -0.08774857 0.054630883 0.49119863 0.15070878 0.030687032 -0.1423041 -0.2653893
0.20617779 0.10972096 0.17712484 -0.34683758 0.012415893 -0.23390602 0.051472947 -0.01336139
0.060242973 -0.19288942 -0.15789387 0.2667468 0.2626346 -0.096485995 0.2538395 -0.2795044
00000000: 1d66 173e f8cc af3d edb6 0d3e 9b47 b03d
00000010: 7325 493e e18c 9d3d 2d91 40be e6fe 48bc
00000020: 1a66 acbd f839 aabe d30e 0d3e 39bf c73d
00000030: 254a e6bd 2ab8 393e 8bda b3be 7662 483d
00000040: 7dd9 413e 3e39 09be c7a5 6abe c6ea 9d3d
00000050: ca49 913c 32fa bdbd ea2c 323e 3917 12bd
00000060: dc67 193e 39ba b7be 28a5 20be 1964 b0bb
00000070: 2847 7cbe 7bf2 dc3d 940b 323d 0aad 1b3d
00000080: 0231 31be cde4 343e 3169 01be 914d 9d3e
00000090: 3a2d 0d3d b176 133e e5a1 8b3e fed0 983d
000000a0: 4936 b63e 7977 8bbb 0fae 7f3e 6a0a ea3e
000000b0: 4510 913e 9840 253e 24bf 00bf 21c6 6d3e
000000c0: 9f2d f8bc 2163 e23d e3a4 143e c1b9 9ebe
000000d0: 47eb dfbd 5740 963e 57f0 40be 9e15 37be
000000e0: f338 513d ab74 c1bd 5eed 593d 0b5c 8b3e
000000f0: 607e cd3e cb6b 563d ed2f 193e 9492 d5be
00000100: a5e1 983d 25ee 46be 6637 6cbd a2d6 96be
00000110: 0376 aebd 38ad 163e b89e d33d 8c9e e63e
00000120: 1555 503e 61ad 803e 306a f0be b020 683e
00000130: 5d42 08bf 1c37 a7bc 59cf c33e a03a f83d
00000140: 4cd5 2cbd 20fd c5bd c82a e5bd d9a2 a9be
00000150: 75b1 eabd 9a1b 16be 4d4d 86be 81fb 453e
00000160: ea85 11bf f397 c2bd c4d6 f03e e469 f73e
00000170: f112 8abe 048c 9abe 49d2 733e 7a36 443d
00000180: d465 dd3d 527a b0ba 6620 283d 7a89 a7be
00000190: 70ff c83d 9f42 103f 2a01 0fbf a5f1 303e
000001a0: 033b fbbe 0632 f3bd 88ef 6b3e 034e 6d3d
000001b0: a4e9 ab3d 8abd 653e f5aa 3f3d b7be 0abf
000001c0: cf6f 94be db71 2dbe c329 a13e 276a 083e
000001d0: 0e13 8e3e 3d51 88be e03a 1cbe e7fe b23e
000001e0: bf0a 853d 0104 e0be aecf 83be b9f2 043f
000001f0: 9dd0 8e3e 7b4b 25bd c3df 393d fa92 ac3e
00000200: 888a 24bd dce8 6b3e e367 94be 4473 b5be
00000210: d100 aebe b65c 95be 53dd aabd c14b bdbe
00000220: 89ec 8dbe 034f 543e ec35 4f3e b7f4 d5be
00000230: 95af cabc 96a9 82bd 910b a43e 64e3 abbd
00000240: 0e92 1c3f 2dd7 2a3e 748e 463c 336c 453f
00000250: 9ff4 af3e 0219 e73e 6a32 1cbf 15d8 603e
00000260: 28eb cbbe 5db7 94bb bd22 7e3e df15 6e3e
00000270: 9a01 abbe 5c1a 00bf 666b adbe 98df 653e
00000280: 04ac 343c a6b6 303e d443 fabe 6324 c33e
00000290: 1e0b 6f3d a872 053f cb8a b93e 40a7 20be
000002a0: d1d3 8ebe 4af3 783a 38eb debe 3ed3 9b3e
000002b0: 9285 8bbd 81c5 02bf 0c31 333e d739 29bd
000002c0: b824 6f3e 1635 8c3e a2bd 27be b877 a73e
000002d0: 1699 25bf a0c0 9b3e ef0e 8f3e 3621 393e
000002e0: 6f8b f63e 441b 7b3e ca79 d63d 88c0 133d
000002f0: 3534 ae3e 0dff 3d3e 1e50 28bd 154d 03bf
00000300: ce2e 9cbd 2f34 2fbe a830 4c3e 7f19 623b
00000310: 31dc 1d3e 3ed0 bf3c 4d80 673e d430 123e
00000320: 773b fbbc a6e7 53be 6fca 75be 4ef7 5d3e
00000330: 9816 b7be a419 3ebe 0504 39bd 3bed 98bd
00000340: 65f3 45bc 562c 973d 62c4 78be 2bc2 b2be
00000350: c320 493e d8e3 efbd 3146 c73d 72ea 7e3c
00000360: a66c cf3e 68df e63d 1aaf 2a3e 5e25 3c3e
00000370: 1b1f 3bbe fb20 323e 5168 373e 2688 29bd
00000380: 5128 b4bd 55d8 0c3e 9c71 02be 22f8 37be
00000390: d30c cdbc 7c37 f5bd 97db 883e 3356 a03e
000003a0: e7e4 b33d 86b5 b3bd a2c4 5f3d 637e fb3e
000003b0: 6753 1a3e 5f63 fb3c 2ab8 11be 1be1 87be
000003c0: 4520 533e 62b5 e03d 3760 353e b294 b1be
000003d0: 086c 4b3c 0f85 6fbe 4cd5 523d bbe9 5abc
000003e0: 56c1 763d ce84 45be eeae 21be 0993 883e
000003f0: 0b78 863e 739a c5bd 40f7 813e 331b 8fbe

weight_hh_l0 f4 [128, 32]
-0.052574728 0.0626217 -0.14994344 0.06219446 0.035921674 -0.12748067 -0.32015008 -0.014795243
-0.2178783 -0.07948997 0.05265587 0.18176846 0.18331659 0.14918457 -0.10661937 -0.06655909
0.10121315 0.038556628 0.2716496 -0.14239115 0.11869587 -0.17514612 -0.3264758 0.1671719
-0.23535772 0.22071727 -0.16626358 0.17278796 0.1245095 -0.17513023 -0.17169161 -0.0071745683
0.013935579 -0.12409078 -0.42454097 -0.14339316 0.09796572 0.017049525 -0.4464825 -0.06632525
0.2661655 0.2126241 0.4572011 0.0067384765 -0.09447755 0.4263969 -0.06765234 -0.2001713
0.080258794 0.17553368 0.33917102 0.118296035 0.16735327 -0.28336707 -0.17078863 0.124623336
0.091561 -0.031573642 -0.1498522 -0.0043980293 0.08711546 0.011613261 0.11823366 -0.43943128
-0.10203872 0.27543685 0.12337205 -0.08461173 -0.27703342 -0.13117045 -0.17615892 0.11530708
0.05825608 -0.25882924 -0.1170473 0.053058434 0.15434231 0.5351924 0.26988125 0.007834916
0.058757957 0.041634742 0.08178432 -0.26370737 0.12411023 -0.11950926 -0.082793586 0.23646235
-0.30020684 0.03768452 -0.34507906 0.29065982 -0.32121637 -0.15821712 0.30897713 -0.5369283
0.13303925 -0.108042315 0.23587242 -0.08974093 0.14734437 0.063333824 0.21251245 0.16190298
0.294213 0.10359177 0.060246382 0.05081006 0.08560714 -0.075298846 -0.09525404 -0.12566786
-0.19164082 -0.3444407 -0.071139336 -0.108988814 -0.07404993 0.17441064 0.1539177 -0.005066452
0.02130609 0.32346654 -0.094769716 0.4516208 -0.1120854 -0.123056665 -0.04704523 -0.07248848
-0.22817414 0.045286287 0.13412833 0.26963484 -0.11966466 0.5230416 0.38214844 0.044460297
0.39867932 0.04892889 -0.21267039 -0.08498351 -0.12256759 0.08365715 0.24732873 -0.09916937
-0.3579326 -0.7785824 -0.34992316 0.24546376 0.038468577 0.086397305 0.6929423 -0.101052925
-0.14572816 0.16103816 -0.4120427 0.21651597 -0.13039793 0.17209212 -0.02193313 0.1506311
-0.08908347 -0.084783114 -0.32887125 -0.23054637 0.15250611 0.16145156 -0.20708708 0.24416853
0.41136461 -0.39041913 -0.12129894 0.31797004 0.0836206 0.028580973 0.19025432 -0.1571197
-0.21985936 -0.20687717 -0.02165007 0.11598371 -0.07578003 -0.27663368 -0.12931171 0.23204973
0.1168172 0.26287043 -0.095643274 0.37975934 -0.005315987 -0.37215543 0.4905154 -0.0885735
0.26411116 -0.26973537 -0.5115364 -0.3103217 0.16292357 -0.23435643 0.023561392 0.072306685
0.32872707 0.35085994 0.4353461 0.039881185 -0.105125904 0.29102534 -0.47356656 -0.21504286
-0.014138296 0.25676373 0.2449063 -0.017264497 0.0307732 0.25561255 -0.43015736 0.00027064834
0.21352433 0.051197167 -0.18318166 -0.0046220412 0.40647784 -0.1807971 -0.106378175 -0.07322404
0.28244865 0.099837355 0.52473396 0.07296001 0.19541617 -0.351835 0.24695326 -0.08757014
-0.87756103 -0.12134569 -0.32769212 0.29263386 0.7234663 -0.17421812 0.046823416 0.41728455
0.15387575 0.46610972 -0.112323694 -0.018081026 -0.014987623 0.18444337 -0.1055866 -0.15846932
0.04407886 -0.060179256 0.6252558 0.11822843 -0.16450961 0.098728836 -0.08236227 0.14359373
00000000: 9958 57bd ce3f 803d c68a 19be 9ebf 7e3d
00000010: 9b22 133d 4b8a 02be b6ea a3be bf67 72bc
00000020: 7d1b 5fbe a3cb a2bd aead 573d 8321 3a3e
00000030: 58b7 3b3e d7c3 183e 425b dabd 2250 88bd
00000040: d748 cf3d 8eed 1d3d a815 8b3e fcce 11be
00000050: d216 f33d 8159 33be d627 a7be 1c2f 2b3e
00000060: 9d01 71be b503 623e 0041 2abe 54ef 303e
00000070: d6fe fe3d 5755 33be edcf 2fbe a418 ebbb
00000080: 0e52 643c 4f23 febd 6f5d d9be a8d5 12be
00000090: 40a2 c83d 72ab 8b3c 5b99 e4be 88d5 87bd
000000a0: d846 883e 22ba 593e 4316 ea3e 70ce dc3b
000000b0: 727d c1bd b250 da3e 4f8d 8abd b5f9 4cbe
000000c0: b95e a43d 1abf 333e d3a7 ad3e 3145 f23d
000000d0: a85e 2b3e 7d15 91be 37e3 2ebe 853a ff3d
000000e0: 5584 bb3d 5d53 01bd db72 19be 581d 90bb
000000f0: 9769 b23d 8c45 3e3c 7d24 f23d 23fd e0be
00000100: adf9 d0bd 0f06 8d3e 7caa fc3d ea48 adbd
00000110: 53d7 8dbe 8c51 06be 0163 34be 1e26 ec3d
00000120: ed9d 6e3d 4485 84be 7fb6 efbd cd53 593d
00000130: e90b 1e3e 5e02 093f e02d 8a3e 055e 003c
00000140: 2fac 703d 3189 2a3d 8a7e a73d a704 87be
00000150: 812d fe3d 45c1 f4bd af8f a9bd 3023 723e
00000160: b6b4 99be 155b 1a3d 34ae b0be 5dd1 943e
00000170: 7976 a4be ab03 22be 4032 9e3e 2274 09bf
00000180: 713b 083e 4a45 ddbd 8a88 713e 18ca b7bd
00000190: 71e1 163e 2ab5 813d dd9c 593e e5c9 253e
000001a0: 16a3 963e ec27 d43d e9c4 763d 361e 503d
000001b0: cc52 af3d 4836 9abd 8d14 c3bd 13af 00be
000001c0: 7e3d 44be 885a b0be 80b1 91bd 8735 dfbd
000001d0: 7da7 97bd b498 323e 9a9c 1d3e 7b04 a6bb
000001e0: 1c8a ae3c 689d a53e a016 c2bd d73a e73e
000001f0: 088d e5bd 2205 fcbd 80b2 40bd d774 94bd
00000200: 7ba6 69be 1d7e 393d f058 093e 940d 8a3e
00000210: bf12 f5bd 0ee6 053f f6a8 c33e 001c 363d
00000220: b21f cc3e a969 483d 44c6 59be d60b aebd
00000230: b704 fbbd 7154 ab3d be43 7d3e 5019 cbbd
00000240: f142 b7be 2d51 47bf 2129 b3be da5a 7b3e
00000250: 3a91 1d3d 12f1 b03d ab64 313f d6f4 cebd
00000260: c339 15be 30e7 243e 43f7 d2be 5db6 5d3e
00000270: 0987 05be eb38 303e 1cad b3bc 0a3f 1a3e
00000280: 6571 b6bd c5a2 adbd d061 a8be 5914 6cbe
00000290: 902a 1c3e 8f53 253e a30e 54be 5107 7a3e
000002a0: 629e d23e 04e5 c7be 946b f8bd f8cc a23e
000002b0: 4741 ab3d a522 ea3c 07d2 423e fde3 20be
000002c0: d022 61be 9cd7 53be 7d5b b1bc de88 ed3d
000002d0: 8f32 9bbd eea2 8dbe 4a6a 04be 729e 6d3e
000002e0: db3d ef3d f496 863e 9fe0 c3bd d16f c23e
000002f0: bb31 aebb 288b bebe d624 fb3e 0666 b5bd
00000300: 9439 873e c11a 8abe 0df4 02bf 7ce2 9ebe
00000310: 70d5 263e 22fb 6fbe d203 c13c 8715 943d
00000320: ea4e a83e eaa3 b33e afe5 de3e 745a 233d
00000330: 404c d7bd 4601 953e 5177 f2be 3234 5cbe
00000340: 50a4 67bc 8976 833e b8c8 7a3e 466e 8dbc
00000350: 1418 fc3c a6df 823e 963d dcbe cee5 8d39
00000360: 1fa6 5a3e 1fb4 513d f993 3bbe 7e74 97bb
00000370: dd1d d03e e022 39be cddc d9bd 7cf6 95bd
00000380: 1c9d 903e 8777 cc3d f754 063f 0f6c 953d
00000390: 2d1b 483e b823 b4be 51e1 7c3e f957 b3bd
000003a0: d7a7 60bf 1784 f8bd 43c7 a7be 1bd4 953e
000003b0: 1635 393f 3c66 32be e9c9 3f3d 52a6 d53e
000003c0: 9b91 1d3e efa5 ee3e f709 e6bd a91e 94bc
000003d0: a68e 75bc b9de 3c3e ca3d d8bd c845 22be
000003e0: 098c 343d 867e 76bd c410 203f bf21 f23d
000003f0: 3575 28be 5832 ca3d 8dad a8bd 3c0a 133e

bias_ih_l0 f4 [128]
-0.033507377 -0.06875757 0.111373805 0.118210554 -0.013021041 0.13937072 0.12955175 -0.14077897
0.04108257 0.13616401 -0.054114677 -0.11669773 0.041600745 0.14332224 -0.19429061 0.02116425
0.018473472 0.12958615 0.2805751 -0.008486981 0.20756719 -0.031764 -0.08573672 -0.1000656
-0.0034984627 -0.061893202 0.08999567 -0.0017957751 0.12936267 0.07481876 0.24998161 0.08495696
0.16921268 -0.1345622 -0.104574725 -0.09878077 0.0048496444 0.0989563 0.0868009 0.21822526
0.20036605 0.35325798 0.07459734 0.22586581 -0.09784434 0.14289376 -0.03096571 -0.091760784
-0.033096857 0.2570467 0.31342956 0.15198998 0.17038357 0.16026194 -0.13812928 0.045910448
-0.019971317 0.08641628 0.1507857 0.19545864 -0.17609261 0.10235011 0.019759258 -0.007390744
-0.17875813 0.24608156 0.19766769 -0.14550065 0.19552821 0.11197827 0.37041134 0.14090343
0.11107789 -0.0718296 0.58932906 0.065154396 0.124010935 0.37538448 0.11569308 -0.44321012
-0.49341196 -0.2842401 0.26008564 -0.12833413 0.12520757 -0.3679329 0.12402849 0.18686798
-0.30329755 0.062011976 0.17475936 0.1147468 -0.5288258 0.10416369 -0.14332959 -0.70917135
-0.011466477 0.17178836 0.24390456 0.18167152 0.16556299 0.2550135 0.28399345 0.117181905
0.07599507 0.3554508 0.118059345 -0.084607095 -0.03499982 0.22728717 0.039810847 0.10560257
0.12964839 -0.06505642 0.2737824 0.18939954 0.007028429 0.18591866 0.05073169 -0.067372546
0.24532351 0.027122827 0.3359374 -0.06141285 -0.10304765 0.068500705 0.18762878 0.018963816
00000000: 083f 09bd c5d0 8cbd f317 e43d 6018 f23d
00000010: 3456 55bc 33b7 0e3e 37a9 043e 5d28 10be
00000020: 3246 283d 946e 0b3e 5aa7 5dbd 38ff eebd
00000030: 8b65 2a3d 11c3 123e 1ef4 46be a660 ad3c
00000040: ae55 973c 3bb2 043e 8aa7 8f3e fa0c 0bbc
00000050: 7e8c 543e f81a 02bd bc96 afbd 31ef ccbd
00000060: 7746 65bb ba83 7dbd a64f b83d 3760 ebba
00000070: a677 043e 943a 993d 2efb 7f3e eafd ad3d
00000080: 1746 2d3e acca 09be 462b d6bd 934d cabd
00000090: c4e9 9e3b 9aa9 ca3d acc4 b13d 7176 5f3e
000000a0: c22c 4d3e 3bde b43e 7dc6 983d 5e49 673e
000000b0: 9d62 c8bd be52 123e cdab fdbc 14ed bbbd
000000c0: 9290 07bd a09b 833e d779 a03e 43a3 1b3e
000000d0: 0879 2e3e b51b 243e c371 0dbe 980c 3c3d
000000e0: e39a a3bc 05fb b03d 9167 1a3e 4f26 483e
000000f0: 9f51 34be ef9c d13d 2bde a13c 0e2e f2bb
00000100: 5f0c 37be cefc 7b3e 6669 4a3e 1ffe 14be
00000110: 8c38 483e dd54 e53d 8ea6 bd3e fd48 103e
00000120: ce7c e33d 661b 93bd 45de 163f ab6f 853d
00000130: 72f9 fd3d 6532 c03e 7ef0 ec3d 70ec e2be
00000140: 7ea0 fcbe eb87 91be f229 853e 066a 03be
00000150: 6a36 003e b361 bcbe a602 fe3d 525a 3f3e
00000160: d149 9bbe 4500 7e3d 1ef4 323e 5f00 eb3d
00000170: 2161 07bf c653 d53d fec4 12be 418c 35bf
00000180: e4dd 3bbc 4ae9 2f3e 1ec2 793e 1908 3a3e
00000190: 5889 293e 2191 823e 9767 913e 11fd ef3d
000001a0: 4ea3 9b3d a6fd b53e 19c9 f13d 7c46 adbd
000001b0: f95b 0fbd f8bd 683e b310 233d 2946 d83d
000001c0: 8cc2 043e 4d3c 85bd 352d 8c3e f4f1 413e
000001d0: bc4e e63b 7661 3e3e 08cc 4f3d 9efa 89bd
000001e0: 1636 7b3e b130 de3c fdff ab3e 0a8c 7bbd
000001f0: a50a d3bd 194a 8c3d c221 403e 015a 9b3c

bias_hh_l0 f4 [128]
0.19553201 0.19073053 0.041561995 -0.050720017 0.08101294 0.22705142 -0.11706776 -0.03669431
0.11975957 0.20829491 0.15094183 0.09205645 0.04214222 0.1526077 0.034993596 0.072238706
-0.032573435 0.050463803 0.1903319 -0.053448718 0.21263172 0.07767035 0.20864713 -0.17354323
-0.110495985 -0.14505121 0.054237258 -0.09797076 0.15520504 0.09902742 0.109166875 0.11392804
0.035005756 0.086450756 0.019349976 0.0056269164 0.015261836 -0.06790952 -0.03630583 -0.07174523
-0.06127776 0.17456554 -0.006734164 0.12011069 0.046699945 0.15598635 -0.18740967 -0.16568589
0.034369383 -0.0030497587 0.16842753 -0.03519358 0.16279031 0.08338412 0.0067072986 -0.10166395
0.0044636885 0.13132006 0.061511558 -0.023497542 0.022356465 -0.08992242 -0.099777386 0.16956258
0.00053002767 0.26402372 0.008954984 -0.11232277 0.2690245 -0.08928344 0.16621152 0.14023359
-0.14965245 0.1508297 0.5142488 0.17248322 0.08514137 0.44826627 0.092793755 -0.3364378
-0.40451196 -0.11306364 -0.023117516 -0.03028565 0.17217383 -0.3262435 0.25561383 0.12254151
-0.23914404 0.28454837 -0.029439319 0.13088347 -0.6775472 0.06550669 0.08169767 -0.8887358
0.252917 0.14776045 0.14331017 -0.0846451 -0.007616849 0.26820895 0.20908152 0.19090605
0.11906867 0.36817622 0.06328968 -0.06383571 -0.027118647 0.08644397 0.105553284 0.20768288
0.2777407 -0.006670845 0.051830743 0.17468923 -0.010139119 -0.004212601 0.17159471 0.21940713
0.12025751 0.15295632 0.12427227 0.12398707 0.1724685 0.13569294 0.11245022 0.08367387
00000000: 8b39 483e dd4e 433e e93c 2a3d cbbf 4fbd
00000010: 1dea a53d 2b80 683e 39c1 efbd c64c 16bd
00000020: 8144 f53d 434b 553e 7f90 1a3e 1888 bc3d
00000030: 529d 2c3d 3145 1c3e 7255 0f3d e3f1 933d
00000040: b96b 05bd 22b3 4e3d 5ee6 423e 0bed 5abd
00000050: 21bc 593e a211 9f3d 98a7 553e 51b5 31be
00000060: b84b e2bd 4e88 14be e327 5e3d e5a4 c8bd
00000070: 12ee 1e3e e3ce ca3d e292 df3d 1b53 e93d
00000080: 3262 0f3d 180d b13d d783 9e3c ff61 b83b
00000090: c80c 7a3c 2514 8bbd 6cb5 14bd 2aef 92bd
000000a0: 63fe 7abd 4fc1 323e 43aa dcbb 98fc f53d
000000b0: 7148 3f3d e3ba 1f3e 52e8 3fbe 90a9 29be
000000c0: e9c6 0c3d 76de 47bb 4478 2c3e 2527 10bd
000000d0: 81b2 263e 4bc5 aa3d e6c8 db3b 3035 d0bd
000000e0: 2244 923b c478 063e 8bf3 7b3d eb7d c0bc
000000f0: e824 b73c 3f29 b8bd 1658 ccbd d0a1 2d3e
00000100: 8ef1 0a3a 1e2e 873e edb7 123c 7b09 e6bd
00000110: 94bd 893e 3cda b6bd 5a33 2a3e 6599 0f3e
00000120: 7e3e 19be 1a73 1a3e cfa5 033f 719f 303e
00000130: 995e ae3d 2883 e53e a70a be3d 9341 acbe
00000140: 311c cfbe e98d e7bd f260 bdbc 9d19 f8bc
00000150: 564e 303e 6309 a7be d1df 823e 0bf7 fa3d
00000160: 2de2 74be 53b0 913e ba2a f1bc 5106 063e
00000170: bc73 2dbf 5f28 863d 1c51 a73d 3084 63bf
00000180: 567e 813e 844e 173e e7bf 123e 695a adbd
00000190: c396 f9bb af52 893e 7719 563e e07c 433e
000001a0: 46da f33d 9881 bc3e 059e 813d 4cbc 82bd
000001b0: ed27 debc 8909 b13d 522c d83d d2aa 543e
000001c0: 0734 8e3e 1b97 dabb 794c 543d bce1 323e
000001d0: 8c1e 26bc dc09 8abb 86b6 2f3e 43ac 603e
000001e0: 9249 f63d 95a0 1c3e 7682 fe3d efec fd3d
000001f0: 959b 303e 17f3 0a3e 4d4c e63d 355d ab3d

weight_ih_l0_reverse f4 [128, 2]
0.30445853 0.18967128 0.04045517 0.02493559 -0.117948286 -0.15360047 0.40094113 0.33370695
-0.2234034 0.033211265 0.013455966 -0.20286901 -0.41984674 -0.47566023 0.3656325 -0.4014165
0.20971036 -0.71547973 -0.48215067 0.42593858 -0.46865055 0.3506515 0.38510978 3.8955648e-05
-0.39179763 -0.09314173 -0.3985688 -0.060974214 0.78135055 -0.55879724 0.35308763 0.12243267
-0.116634235 -0.14636011 0.18695733 0.4233622 0.01172307 -0.19510818 0.021031786 0.16576779
0.003860266 0.18997155 0.48199052 0.2987075 -0.07281183 0.13915075 -0.114573665 -0.11038942
-1.003553 -0.08281296 -0.7479653 -0.33686855 -0.67122316 -0.2160846 -0.0675591 0.16702496
0.43872693 -0.32555574 -0.124966964 0.16763383 -0.29207513 0.14431192 -0.55045414 -0.4124285
0.28084263 0.4805649 0.073219545 0.010304176 -0.16911352 -0.34277818 0.33234212 0.41415146
-0.25549233 0.06614366 0.39699543 -0.15489537 -0.4879521 -0.45214376 0.41101155 -0.21550526
0.31057766 -0.18675601 -0.29419488 0.20119005 -0.036932033 0.0911791 0.25545818 -0.04432196
-0.15293206 -0.06688813 -0.25315535 -0.027161758 0.57440555 -0.50799143 0.43723238 0.17186905
-0.17595749 -0.06018486 -0.11915784 0.36862904 -0.14420274 -0.106508106 -0.2755218 0.13052137
-0.010068025 0.17210433 0.27596328 0.093302995 -0.086563125 -0.0099103395 -0.5492306 -0.23461133
-0.503081 -0.07143623 -0.21102996 -0.3161616 -0.27437693 -0.18187529 0.08219445 -0.06469516
0.13548619 -0.074319065 -0.10024151 0.22372155 -0.32143927 0.19670647 0.14587656 -0.46840733
-0.3313345 -0.26177678 0.18055709 0.3976343 0.26269415 0.12320991 -0.33778802 -0.29843077
0.27751857 0.4389341 0.25526747 -0.08498396 -0.28959793 -0.39043948 -0.41596344 0.19713145
-0.02768872 -0.7661066 -0.16881403 0.4992838 0.48037395 -0.25303364 0.49689963 -0.08911208
0.35119691 0.07034631 0.43695226 -0.12532637 0.10516541 -0.3703921 0.24511527 0.077658355
-0.084457666 0.6075422 0.31306645 0.7928267 0.13209803 -0.42328987 -0.65217155 0.2868523
-0.31282702 -0.038640104 -0.41123918 -0.1048395 -0.2804101 0.17549147 0.1721034 0.2802693
-0.45047915 0.2716214 0.5444478 0.42825708 -0.39157158 -0.110312626 -0.143925 -0.3108705
-0.42434314 0.24444577 0.33824053 0.053310726 0.2011083 -0.30116186 0.18520287 -0.26961824
0.35228202 0.28913176 0.036429077 -0.028986527 -0.020575989 -0.2282084 -0.23413882 0.014205783
-0.34080502 0.15430146 0.02647554 -0.022504978 -0.53103036 -0.36057684 0.5298955 -0.5052838
-0.19597962 -0.603145 -0.33672774 0.07207155 -0.26768267 0.15129195 0.5181818 -0.14489892
-0.25141078 -0.22225596 -0.23145525 0.14857955 1.1444677 -0.66263264 0.39366958 0.10221894
0.059612397 0.0030476742 0.006477625 0.10602878 -0.115123875 0.015796477 -0.15224983 0.32182738
0.2884637 -0.060976386 0.25049114 0.39150712 0.10508528 -0.028659116 -0.40238425 -0.10728802
-0.47798094 0.05645649 -0.17916511 -0.35036302 -0.9205639 -0.21548164 0.115525894 0.15774338
0.8879096 -0.45323417 -0.23133627 -0.074347645 -0.25706887 0.22093812 -0.22179449 -0.14653267
00000000: fde1 9b3e 3039 423e 52b4 253d b945 cc3c
00000010: df8e f1bd 7149 1dbe 2848 cd3e a3db aa3e
00000020: dcc3 64be 8908 083d 6976 5c3c e5bc 4fbe
00000030: 27f6 d6be bd89 f3be 2f34 bb3e 7786 cdbe
00000040: 50be 563e ae29 37bf 74dc f6be 9f14 da3e
00000050: f7f2 efbe 9888 b33e 1c2d c53e 4f64 2338
00000060: b399 c8be 17c1 bebd 3611 ccbe 19c0 79bd
00000070: 9706 483f 560d 0fbf e7c7 b43e fbbd fa3d
00000080: eedd eebd 6ddf 15be be71 3f3e eec2 d83e
00000090: 1f12 403c 70ca 47be da4a ac3c 08bf 293e
000000a0: 84fc 7c3b e787 423e 76c7 f63e 30f0 983e
000000b0: 5e1e 95bd 897d 0e3e 99a5 eabd d913 e2bd
000000c0: 6d74 80bf d799 a9bd a77a 3fbf 097a acbe
000000d0: 48d5 2bbf 4845 5dbe 6d5c 8abd 9708 2b3e
000000e0: d1a0 e03e 3eaf a6be aeee ffbd 34a8 2b3e
000000f0: df8a 95be 81c6 133e 90ea 0cbf d429 d3be
00000100: 9bca 8f3e 9a0c f63e 21f4 953d d9d2 283c
00000110: 182c 2dbe 9f80 afbe bf28 aa3e a90b d43e
00000120: e4cf 82be 5476 873d fc42 cb3e e49c 1ebe
00000130: dcd4 f9be 637f e7be 1b70 d23e 69ad 5cbe
00000140: 0904 9f3e f83c 3fbe b6a0 96be c404 4e3e
00000150: 0b46 17bd 1cbc ba3d 6acb 823e f28a 35bd
00000160: 399a 1cbe a5fc 88bd 949d 81be 5682 debc
00000170: 3e0c 133f ba0b 02bf ecdc df3e 71fe 2f3e
00000180: 332e 34be 6684 76bd 0709 f4bd f2bc bc3e
00000190: e2a9 13be ec20 dabd 3211 8dbe 65a7 053e
000001a0: 5cf4 24bc 1e3c 303e 0f4b 8d3e a415 bf3d
000001b0: 0248 b1bd fa5e 22bc 609a 0cbf f43d 70be
000001c0: ebc9 00bf 284d 92bd 3d18 58be efdf a1be
000001d0: 227b 8cbe 843d 3abe 9055 a83d e57e 84bd
000001e0: e4bc 0a3e 9834 98bd 6c4b cdbd 4317 653e
000001f0: b093 a4be 6c6d 493e aa60 153e 16d3 efbe
00000200: ada4 a9be 9b07 86be f5e3 383e b996 cb3e
00000210: d97f 863e 7a55 fc3d 8df2 acbe ebcb 98be
00000220: ea16 8e3e f8bb e03e 6bb2 823e 120c aebd
00000230: 2e46 94be afe7 c7be 29f9 d4be d4dc 493e
00000240: 74d3 e2bc 901f 44bf 96dd 2cbe 20a2 ff3e
00000250: 93f3 f53e a08d 81be a169 fe3e 6580 b6bd
00000260: 15d0 b33e ba11 903d 35b8 df3e 8e55 00be
00000270: f660 d73d 09a4 bdbe 7fff 7a3e 580b 9f3d
00000280: 24f8 acbd e387 1b3f 3f4a a03e b1f6 4a3f
00000290: b544 073e 73b9 d8be b7f4 26bf 4ede 923e
000002a0: dd2a a0be 1645 1ebd f18d d2be 17b6 d6bd
000002b0: ea91 8fbe 09b4 333e e03b 303e 757f 8f3e
000002c0: 34a5 e6be f611 8b3e ee60 0b3f 8344 db3e
000002d0: 127c c8be 96eb e1bd 1361 13be 6b2a 9fbe
000002e0: 8143 d9be fe4f 7a3e dd2d ad3e 595c 5a3d
000002f0: 56ef 4d3e e331 9abe d2a5 3d3e 670b 8abe
00000300: 4f5e b43e 1409 943e a836 153d 2775 edbc
00000310: fa8e a8bc 76af 69be 16c2 6fbe 5fbf 683c
00000320: ff7d aebe 3401 1e3e 3be3 d83c 5c5c b8bc
00000330: 9bf1 07bf 879d b8be 3ba7 073f 475a 01bf
00000340: e2ae 48be b667 1abf 9467 acbe 409a 933d
00000350: b40d 89be 47ec 1a3e 90a7 043f 6260 14be
00000360: eab8 80be 1197 63be 9b02 6dbe 3d25 183e
00000370: eb7d 923f 4ba2 29bf 0f8f c93e 2a58 d13d
00000380: 212c 743d 7dbb 473b 4242 d43b 9e25 d93d
00000390: 11c6 ebbd 9d67 813c 61e7 1bbe 8fc6 a43e
000003a0: 84b1 933e 60c2 79bd 6040 803e 9f73 c83e
000003b0: f436 d73d 86c6 eabc 4f05 cebe d2b9 dbbd
000003c0: ebb9 f4be ec3e 673d 0f77 37be c862 b3be
000003d0: 13aa 6bbf 38a7 5cbe d798 ec3d 7b87 213e
000003e0: 0b4e 633f 4f0e e8be 6ae3 6cbe 9443 98bd
000003f0: 889e 83be 9a3d 623e 181e 63be a90c 16be

weight_hh_l0_reverse f4 [128, 32]
-0.45309496 0.34828606 -0.11162572 0.044853896 0.085597046 0.28289333 -0.20479645 -0.06490991
-0.050944567 0.34602278 0.12910289 -0.10535016 0.16569017 0.16822849 0.014141798 0.39916334
0.13645095 0.30766058 -0.007905119 0.04060192 -0.2968415 0.032034554 0.22079517 0.116430536
-0.1325912 0.087398246 -0.3026626 -0.39895037 0.120885015 0.10678033 -0.3448641 0.120644666
-0.16987684 0.20176983 0.031455442 0.21181056 -0.12769969 -0.14945662 -0.07345418 -0.00770103
-0.15613256 0.19652489 -0.14767958 -0.1956991 0.059255794 -0.19443206 -0.07150821 -0.055623125
-0.1438679 -0.15404548 -0.009968892 0.034507032 -0.08348881 0.07243856 0.14354196 -0.06740277
0.011386675 -0.09249822 0.015548492 -0.1361985 0.060003083 -0.045247957 -0.000102236736 0.054857176
0.17135197 -0.22820975 -0.121245526 -0.008827382 0.21783513 0.26761258 0.13901004 -0.1850493
-0.040030923 0.048455212 0.54897547 0.16468231 0.21460818 0.23077099 0.13160096 0.2945206
-0.64162457 -0.17286435 0.020925479 -0.15390104 0.07529558 -0.251976 0.15906237 -0.06593252
-0.22966984 0.5192339 -0.026858272 -0.011288076 -0.031160202 0.03303917 -0.08037044 -0.21459606
0.07126763 -0.0014811172 0.23390278 -0.31841654 0.3663023 -0.092885375 -0.573965 0.3845715
-0.47511247 -0.120000646 0.047139112 0.35652518 0.28622004 0.09253779 -0.23124766 0.2227045
0.21530776 0.27947107 -0.2934633 -0.054936897 -0.4524476 0.089208715 -0.42360687 0.59933615
-0.33913937 0.48117965 -0.30007264 -0.045929234 0.14635214 0.26030794 0.012803628 -0.2512143
0.39614347 -0.113470286 -0.018773662 0.12837957 -0.16268669 -0.044342745 -0.2882767 0.0677387
-0.17506817 -0.15749916 0.07519368 -0.09022085 -0.12768364 0.33723095 -0.25901634 -0.13988736
-0.062019438 -0.27932894 -0.16396272 0.10148262 0.009313696 0.19116136 -0.20945702 0.16585852
-0.35639524 0.35056034 -0.25140342 0.21724123 0.12448785 0.07878469 -0.08169628 -0.42518255
-0.07144861 -0.122502975 -0.098997064 0.011004736 0.043479405 0.24775538 -0.04865278 -0.26992542
-0.05035382 -0.062813364 -0.014422992 -0.09868115 -0.14461969 0.15384273 0.04877876 0.083322205
0.025915867 -0.069241464 -0.11407883 0.07117996 0.0712832 0.10059063 -0.35286552 0.023316786
0.023257643 -0.15903156 -0.16321133 -0.14432055 -0.24383502 0.10844404 0.1260808 0.060110796
0.95202005 -0.33507496 -0.108251914 0.18779568 -0.28842723 -0.30238998 0.5030238 -0.11039896
-0.035356622 -0.5446178 0.1944962 0.10484471 -0.36936533 0.077234186 -0.0822282 -0.025566801
-0.38017222 -0.420956 0.061930697 0.15214682 0.37906298 0.454474 0.19987775 -0.28739294
0.0085731605 0.21302846 0.36440754 0.2836308 -0.08139909 -0.5795611 0.16310282 0.21286796
0.08389528 -0.21414135 -0.0021230977 -0.05936619 -0.03370068 0.21684027 -0.21853097 -0.3620301
-0.049228605 -0.08980252 0.25948778 0.04181363 -0.012686487 0.16132905 0.14365935 -0.026721263
0.12029698 -0.06362979 -0.24179265 -0.064768165 -0.098016895 0.036713842 -0.08324264 0.0975597
0.16252062 0.04549161 0.07132643 -0.014580788 -0.12807712 0.0722977 0.02308409 0.14295171
00000000: 10fc e7be 8d52 b23e 079c e4bd b8b8 373d
00000010: 814d af3d 65d7 903e 29b6 51be 7def 84bd
00000020: 40ab 50bd e629 b13e 8c33 043e d3c1 d7bd
00000030: afaa 293e 1744 2c3e 00b3 673c 235f cc3e
00000040: ccb9 0b3e b085 9d3e 7984 01bc 334e 263d
00000050: 9cfb 97be aa36 033d 2118 623e 2273 ee3d
00000060: fdc5 07be dafd b23d 98f6 9abe 3943 ccbe
00000070: 9092 f73d a5af da3d 0792 b0be 8d14 f73d
00000080: 32f4 2dbe c09c 4e3e 6cd7 003d dee4 583e
00000090: b5c3 02be 280b 19be 256f 96bd ec58 fcbb
000000a0: 37e1 1fbe d23d 493e 5139 17be 5865 48be
000000b0: 34b6 723d 3319 47be e572 92bd 13d5 63bd
000000c0: 1b52 13be 19be 1dbe 9054 23bc 3f57 0d3d
000000d0: 2efc aabd ab5a 943d aafc 123e 770a 8abd
000000e0: 2d8f 3a3c b56f bdbd 1abf 7e3c 9f77 0bbe
000000f0: cbc5 753d ec55 39bd ee67 d6b8 ebb1 603d
00000100: e476 2f3e d1af 69be 934f f8bd b9a0 10bc
00000110: 2c10 5f3e 8404 893e a658 0e3e 907d 3dbe
00000120: 77f7 23bd f978 463d a889 0c3f 7ba2 283e
00000130: 3fc2 5b3e 3b4f 6c3e 67c2 063e 67cb 963e
00000140: 8241 24bf 5a03 31be e96b ab3c 3c98 1dbe
00000150: 9234 9a3d 0003 81be 3fe1 223e a107 87bd
00000160: 922e 6bbe 83ec 043f e105 dcbc 9ff1 38bc
00000170: ae43 ffbc 1554 073d 4299 a4bd 12bf 5bbe
00000180: c3f4 913d 0c22 c2ba 3684 6f3e 7e07 a3be
00000190: fa8b bb3e b03a bebd 5fef 12bf 8ee6 c43e
000001a0: f141 f3be e6c2 f5bd f114 413d 788a b63e
000001b0: 6f8b 923e 7484 bd3d 30cc 6cbe a60c 643e
000001c0: a379 5c3e d516 8f3e d240 96be 8305 61bd
000001d0: 36a7 e7be 0fb3 b63d 00e3 d8be 186e 193f
000001e0: ada3 adbe 2e5d f63e 1fa3 99be 4b20 3cbd
000001f0: 56dd 153e 1547 853e 4fc6 513c 299f 80be
00000200: 51d3 ca3e 1c63 e8bd 39cb 99bc ef75 033e
00000210: 5797 26be bda0 35bd 0199 93be 96ba 8a3d
00000220: 1245 33be 7647 21be 25ff 993d b6c5 b8bd
00000230: 80bf 02be 89a9 ac3e ca9d 84be a23e 0fbe
00000240: 1808 7ebd 3404 8fbe d8e5 27be 1fd6 cf3d
00000250: 7998 183c cebf 433e e77b 56be d1d6 293e
00000260: 7079 b6be a57c b33e f3b7 80be 7c74 5e3e
00000270: 7cf3 fe3d de59 a13d 6150 a7bd 87b1 d9be
00000280: a653 92bd d7e2 fabd f9be cabd 354d 343c
00000290: 7617 323d 96b3 7d3e 2348 47bd aa33 8abe
000002a0: cf3f 4ebd 4ba4 80bd 6a4e 6cbc 5819 cabd
000002b0: 2f17 14be f388 1d3e 3dcc 473d d5a4 aa3d
000002c0: 834d d43c 78ce 8dbd 29a2 e9bd cdc6 913d
000002d0: edfc 913d 7602 ce3d caaa b4be d802 bf3c
000002e0: d086 be3c 2bd9 22be df20 27be c4c8 13be
000002f0: e3af 79be e917 de3d 531b 013e bd36 763d
00000300: 96b7 733f f28e abbe 2eb3 ddbd 834d 403e
00000310: bcac 93be dcd2 9abe 2bc6 003f da18 e2bd
00000320: 1bd2 10bd 126c 0bbf 032a 473e d3b8 d63d
00000330: 741d bdbe f52c 9e3d 4267 a8bd 7871 d1bc
00000340: efa5 c2be 8b87 d7be 0bab 7d3d 60cc 1b3e
00000350: 8b14 c23e d1b0 e83e c1ac 4c3e 2b25 93be
00000360: 7176 0c3c 2224 5a3e a093 ba3e 0e38 913e
00000370: 91b4 a6bd 1e5e 14bf 6d04 273e 0ffa 593e
00000380: 4ad1 ab3d df47 5bbe ab23 0bbb f629 73bd
00000390: b909 0abd 600b 5e3e 95c6 5fbe 025c b9be
000003a0: efa3 49bd 62ea b7bd 95db 843e c544 2b3d
000003b0: fcda 4fbc 7133 253e 701b 133e 8de6 dabc
000003c0: 435e f63d 5650 82bd 7e98 77be 2ca5 84bd
000003d0: 15bd c8bd 4161 163d 1e7b aabd 61cd c73d
000003e0: ce6b 263e 6955 3a3d 9713 923d 42e4 6ebc
000003f0: a626 03be d110 943d d81a bd3c ef61 123e
